src/model_data/70th_Anniversary_Grand_Prix_model.pth (torch, 198303 bytes, 21 tensors)

net.0.weight f4 [128, 48]
0	0x3df92373	0.121649645
1	0xbe1b96bf	-0.15194224
2	0x3de24427	0.11048155
3	0xbd9f3a95	-0.077748455
4	0xbd64e652	-0.055883713
5	0xbb930768	-0.004486967
6	0xbe16e7e1	-0.14736892
7	0xbd0d8c30	-0.03455752
8	0xbd988583	-0.0744734
9	0x3d65ea32	0.05613155
10	0xbc158306	-0.009125477
11	0xbe14c01d	-0.1452641
12	0xbdadab0e	-0.08479892
13	0xbc7e7e2c	-0.015533011
14	0x3ce62577	0.028094037
15	0xba9db4c7	-0.0012032025
16	0xba1d02ca	-0.00059894903
17	0x3d35827a	0.044313885
18	0x3d24745c	0.04015003
19	0x3dd65248	0.10464913
20	0x3d432875	0.047646005
21	0xbc67acce	-0.014140321
22	0xbc9732e3	-0.018456882
23	0xbe38188e	-0.17978117
24	0x3e1cccbb	0.15312473
25	0xbd837778	-0.06419271
26	0x3e00eaf6	0.1258963
27	0x3e38aab2	0.18033865
28	0x3c01aa8b	0.007914196
29	0x3c9067be	0.017627593
30	0x3e0e1667	0.13875733
31	0xbdebe030	-0.1151737
32	0xbd0e1d6e	-0.034696035
33	0xbb9f33b7	-0.00485846
34	0xbe30f861	-0.17282249
35	0xbcc1c7c7	-0.023654832
36	0x3dab7afe	0.08373068
37	0x3df3ee40	0.11910677
38	0xbc9e4294	-0.019318856
39	0x3e11c01f	0.14233445
40	0x3d38128a	0.044939555
41	0x3db40eca	0.08791883
42	0xbe0086b8	-0.12551391
43	0xbd9e2444	-0.07721761
44	0x3de0d0d8	0.10977334
45	0xbb8433a3	-0.004034476
46	0x3e195a25	0.14975794
47	0x3d8887c5	0.06666521
48	0xbd9f3f4e	-0.07775746
49	0x3d05e4bf	0.032688852
50	0xbd6f38e1	-0.058403853
51	0x3dbf418a	0.093386725
52	0xbe40d3a1	-0.1883073
53	0x3c8b47c6	0.017001998
54	0x3dae5823	0.085129045
55	0x3e154ba6	0.14579639
56	0xbdc513a6	-0.09622888
57	0xbe0f9c73	-0.14024524
58	0xbe19ba1b	-0.150124
59	0x3d7cceb5	0.06172057
60	0x3dea118e	0.114291295
61	0x3d870122	0.06592013
62	0x3e243afb	0.16038124
63	0xbe61fcba	-0.22069064
64	0xbb041c6c	-0.0020158542
65	0xbe4a1ce4	-0.19737583
66	0xbe1093c5	-0.1411887
67	0x3e07bdff	0.13256072
68	0xbe2b89e3	-0.16751818
69	0x3d895b97	0.067069225
70	0x3dd9fecf	0.10644304
71	0xbd986044	-0.07440236
72	0xbe3d582e	-0.18490669
73	0xbcd1cf2f	-0.025611488
74	0x3e13563c	0.14388365
75	0x3e2fdb49	0.17173494
76	0xbd381389	-0.044940505
77	0xbdb0a649	-0.086254664
78	0x3d0cd2e5	0.034380812
79	0x3d0df4f2	0.034657426
80	0x3e1c56bb	0.1526746
81	0x3da17112	0.078828946
82	0x3d0e9843	0.034813177
83	0xbe2c2505	-0.16810997
84	0x3cb5939f	0.022165118
85	0x3e2774a7	0.16353093
86	0xbeaa5d80	-0.3327446
87	0xbe60c9fa	-0.21952048
88	0xbd1ff67f	-0.039053436
89	0xbe42438a	-0.18971077
90	0xbe8ea6d0	-0.27861643
91	0xbcd29f4a	-0.02571072
92	0xbdbc6111	-0.091982014
93	0x3f128f96	0.57250345
94	0x3f011e44	0.50436807
95	0xbe093970	-0.13400817
96	0x3dd5a990	0.10432732
97	0x3d97cf09	0.07412536
98	0xbde995e9	-0.11405546
99	0xbdf470d5	-0.119355835
100	0x3d41af4c	0.047286317
101	0x3e130337	0.14356695
102	0xbd3389f7	-0.043832745
103	0x3e34751b	0.17622797
104	0xbe09c49f	-0.13453911
105	0x3c9c1db4	0.019057132
106	0x3dc7fd1e	0.09765075
107	0xbe1932eb	-0.1496083
108	0x3e1a3e5d	0.15062852
109	0x3bb4d89f	0.0055189873
110	0x3dad273c	0.08454749
111	0xbdc25ab8	-0.094899595
112	0xbcc49eeb	-0.02400156
113	0xbe2e21e9	-0.17005123
114	0x3e1242ae	0.14283249
115	0xbd398207	-0.04529002
116	0x3d9c2162	0.07623555
117	0xba34dd4d	-0.00068994315
118	0x3e0b3cd5	0.13597424
119	0x3dd27a3a	0.10277219
120	0xbcf300c7	-0.029663457
121	0xbc11cc9a	-0.0088988785
122	0xbe28ba8a	-0.16477409
123	0xbd957dfe	-0.07299422
124	0xbcb1c641	-0.02170098
125	0x3cf4a81b	0.029865315
126	0x3c2935af	0.010327741
127	0x3dc1fafd	0.094717
128	0xbdb00806	-0.0859528
129	0xbe155b50	-0.14585614
130	0xbe0d9b71	-0.13828827
131	0xbe211c96	-0.15733561
132	0xbe16bcc0	-0.1472044
133	0x3dc20308	0.094732344
134	0xbe4c46d2	-0.19948891
135	0xbdeb2360	-0.114813566
136	0xbe038b26	-0.1284605
137	0x3da6e8e9	0.08149893
138	0xbe6c44f4	-0.23073179
139	0xbdf97795	-0.121810116
140	0x3cce7c76	0.025205832
141	0x3f1bc19b	0.60842294
142	0x3eeb29e4	0.45930398
143	0xbe3239b0	-0.17404819
144	0xbe2a4f3e	-0.16631791
145	0xbdc4b8ef	-0.09605586
146	0x3dc55b0d	0.09636507
147	0xbc71ea74	-0.014765371
148	0xbd918935	-0.07106248
149	0x3e040ef1	0.12896325
150	0x3df8b115	0.12143151
151	0x3dd7b587	0.105326705
152	0x3e05786a	0.13034216
153	0x3e116ba7	0.14201222
154	0xbcbe3d26	-0.023222517
155	0x3cd97631	0.026545616
156	0x3e2a85b0	0.1665256
157	0xbe1ee495	-0.15516885
158	0xbde24670	-0.11048591
159	0x3d72eb44	0.059306398
160	0x3db67e47	0.08910804
161	0x3da19fc7	0.07891803
162	0xbe0e7de1	-0.13915206
163	0x3df89f63	0.121397756
164	0xbda743b0	-0.08167207
165	0xba30036c	-0.0006714377
166	0x3e14e998	0.14542234
167	0xbcfeb94a	-0.031094212
168	0xbbfed5e6	-0.0077769635
169	0xbcd7188a	-0.026256818
170	0xbe0bcc68	-0.13652194
171	0x3dfcaea1	0.12337995
172	0xbc49ab0f	-0.01230885
173	0x3d744041	0.05963159
174	0xbd9f6655	-0.0778319
175	0x3d96cc8b	0.07363232
176	0x3e1227ad	0.14272948
177	0xbe357676	-0.1772097
178	0xbe49be5b	-0.19701521
179	0xbd6ba451	-0.05752975
180	0xbe1c9f7d	-0.15295215
181	0x3e023057	0.12713753
182	0xbe2ce7b9	-0.1688527
183	0x3e40b96a	0.1882073
184	0x3e0ec6fc	0.13943094
185	0xbc783f3f	-0.015151798
186	0xbaced0a0	-0.0015778728
187	0x3def9839	0.11698956
188	0x3dc8b25a	0.09799643
189	0xbea39c8c	-0.31955373
190	0xbe8a25b9	-0.26981905
191	0xbd367fd8	-0.044555515
192	0x3da55afd	0.08073995
193	0xbe1aab98	-0.1510452
194	0x3e14f220	0.14545488
195	0x3dae634c	0.08515033
196	0xbe4b385e	-0.19845721
197	0xbd89dfb1	-0.06732119
198	0xbdb6a260	-0.08917689
199	0xbda08f10	-0.07839787
200	0x3ce098ff	0.027416704
201	0x3e02c479	0.12770261
202	0x3e18c309	0.1491815
203	0xbc7b1102	-0.015323879
204	0x3d8dc160	0.06921649
205	0xbdaeab12	-0.08528723
206	0xbe1ac299	-0.15113296
207	0x3daef483	0.08542731
208	0xbe2f78ff	-0.17136
209	0x3e16d43d	0.147294
210	0xbd94f134	-0.07272568
211	0xbe4916c0	-0.19637585
212	0x3d6bc173	0.057557534
213	0xbdffbb2e	-0.124868736
214	0x3b90f5f7	0.0044238525
215	0xbc856973	-0.016285634
216	0xbdc8704e	-0.097870454
217	0x3e1bd0d9	0.15216388
218	0x3e055aa7	0.13022862
219	0xbcb913e9	-0.022592502
220	0xbcf2f8af	-0.029659597
221	0xbe3235bd	-0.17403312
222	0xbd6216cd	-0.055197526
223	0xbda696c9	-0.08134229
224	0xbd9bd80e	-0.076095685
225	0xbe0c04f2	-0.13673761
226	0x3dc4d3a7	0.09610682
227	0xbaf983c4	-0.0019036462
228	0xbd6da112	-0.058014937
229	0xbdff0d45	-0.12453703
230	0x3cdf07df	0.027225433
231	0x3dc7fff2	0.097656146
232	0x3e28e5b6	0.16493878
233	0x3c0126f5	0.007882823
234	0x3e7b7381	0.2455578
235	0x3df3f434	0.119118124
236	0xba8444c4	-0.0010091295
237	0xbe2e35ee	-0.1701276
238	0xbe2305c7	-0.15920173
239	0x3b8cd563	0.0042978986
240	0xbddcba23	-0.1077769
241	0x3e0670d3	0.13128977
242	0x3dea53b4	0.11441746
243	0x3e154870	0.14578414
244	0xbdf8383d	-0.121201016
245	0xbe3a83f1	-0.18214394
246	0x3e067089	0.13128866
247	0x3de559b3	0.111987494
248	0xbdf1b77a	-0.118025735
249	0x3e1b78e7	0.1518284
250	0x3d3ac635	0.04559918
251	0xbc9adbfb	-0.018903723
252	0x3dfc199b	0.12309571
253	0x3e2bf345	0.16792019
254	0xbdc24898	-0.094865024
255	0x3e08dbb7	0.13365065

net.0.bias f4 [128]
0	0x00000000	0.0
1	0xbb8260d1	-0.0039788266
2	0x3a4155ef	0.0007375171
3	0xbc7548c1	-0.014970959
4	0xbc41bcb8	-0.011824779
5	0xbbeea9a0	-0.0072834045
6	0xbbca33f3	-0.0061707436
7	0x00000000	0.0
8	0x00000000	0.0
9	0x00000000	0.0
10	0x3cb2a61d	0.021807725
11	0xbca2e833	-0.019886112
12	0x00000000	0.0
13	0xbc7c8d0e	-0.015414489
14	0xbc5a5ff4	-0.013328541
15	0x3bd675fe	0.0065448275
16	0x00000000	0.0
17	0x00000000	0.0
18	0xbbacbe8e	-0.0052717393
19	0x00000000	0.0
20	0xbc09a900	-0.008402109
21	0xbce15d31	-0.027510257
22	0x00000000	0.0
23	0xbd23a3ae	-0.03995102
24	0x3c3c7cf0	0.011504397
25	0x39fdde21	0.0004842142
26	0x3c339061	0.010959716
27	0x00000000	0.0
28	0x00000000	0.0
29	0x3d989504	0.074502975
30	0x00000000	0.0
31	0xbd17fd4b	-0.037106793
32	0x00000000	0.0
33	0x3c3d30db	0.011547293
34	0x00000000	0.0
35	0xbc31c605	-0.010850434
36	0xbb972686	-0.0046127466
37	0xbc241cbb	-0.0100166155
38	0x3b8ae8bc	0.00423917
39	0xbcf57158	-0.029961273
40	0xbbafdf5d	-0.005367203
41	0xbcc37161	-0.023857774
42	0xbc285395	-0.010273834
43	0x3c7823a2	0.015145214
44	0x00000000	0.0
45	0x00000000	0.0
46	0xbc9727fa	-0.01845168
47	0x3c8219d7	0.015881462
48	0x00000000	0.0
49	0xbc21717e	-0.009853719
50	0x00000000	0.0
51	0xbc355371	-0.011067257
52	0xbba1a82d	-0.004933378
53	0x3cd74bab	0.026281198
54	0x00000000	0.0
55	0x00000000	0.0
56	0xbc0e2807	-0.008676535
57	0xbd65d565	-0.056111712
58	0xbc3e903e	-0.01163107
59	0x00000000	0.0
60	0x00000000	0.0
61	0x00000000	0.0
62	0x3ba7afe5	0.005117404
63	0xbb6b35a2	-0.0035890122
64	0xbc7b7af2	-0.015349137
65	0xbc0afd02	-0.008483173
66	0x00000000	0.0
67	0xbc4a084e	-0.012331082
68	0xbcef2419	-0.029192017
69	0xbc239f9d	-0.009986785
70	0xbd1fd456	-0.03902086
71	0x3c457ed7	0.012054167
72	0xbd109366	-0.03529682
73	0xbc3cc5b1	-0.011521743
74	0xbd205ab0	-0.039148986
75	0x3ccf86dd	0.025332863
76	0x3c965df8	0.018355355
77	0xbd01fb41	-0.031733755
78	0x00000000	0.0
79	0x3bd6d4a4	0.0065561105
80	0x00000000	0.0
81	0xbc9403ab	-0.018068155
82	0x00000000	0.0
83	0xbbe0472d	-0.0068444223
84	0xbd25c1fa	-0.040468194
85	0xbbe3605c	-0.006938977
86	0x3d3d8500	0.046269417
87	0xbc5dfaf1	-0.013548599
88	0x00000000	0.0
89	0x00000000	0.0
90	0x00000000	0.0
91	0xbd28cea6	-0.0412127
92	0xbcda4dbc	-0.026648395
93	0x3b3bccab	0.0028655927
94	0x3b367c40	0.0027845055
95	0xbc91172d	-0.017711246
96	0x00000000	0.0
97	0xbc1c59f2	-0.009542929
98	0x00000000	0.0
99	0xbc0121f2	-0.007881628
100	0x00000000	0.0
101	0xbc86d2f8	-0.01645802
102	0xbb84213a	-0.004032281
103	0x00000000	0.0
104	0x00000000	0.0
105	0x00000000	0.0
106	0x00000000	0.0
107	0xbc31ac7b	-0.010844345
108	0xbc9e33fa	-0.019311894
109	0xbbb5aa56	-0.0055439873
110	0xbae1ff5a	-0.0017242238
111	0xbb441425	-0.0029919234
112	0x00000000	0.0
113	0xbc309033	-0.010776567
114	0x00000000	0.0
115	0x00000000	0.0
116	0xbc90b304	-0.017663486
117	0xbc00e46b	-0.007866959
118	0x00000000	0.0
119	0xbbd66133	-0.006542349
120	0x00000000	0.0
121	0xbcd5198f	-0.026013164
122	0xbbe335fe	-0.0069339266
123	0xbcf3dca8	-0.029768303
124	0xbc0bd7a2	-0.008535298
125	0x00000000	0.0
126	0xbce69ee5	-0.028151939
127	0x3cd39526	0.025827955

net.2.weight f4 [64, 128]
0	0xbd8d8955	-0.0691096
1	0x3e025d9d	0.12731023
2	0x3d8965f7	0.067089014
3	0x3dfdc8d5	0.12391821
4	0x3c947a7c	0.018124811
5	0xbda382a7	-0.07983904
6	0xbc1fc872	-0.00975238
7	0x3dd7bdcd	0.105342485
8	0xbc666c2c	-0.014063876
9	0xbd24d8d7	-0.040245857
10	0x3e19bc91	0.15013339
11	0xbe1dcedc	-0.15410942
12	0x3d4341e8	0.047670275
13	0xbd233047	-0.039840963
14	0xbdada75f	-0.08479189
15	0xbe3289e2	-0.1743541
16	0x3e1979f1	0.14987923
17	0x3e2b41a9	0.16724266
18	0x3df248e6	0.118303105
19	0x3e03154a	0.1280109
20	0x3d07ee7e	0.03318643
21	0x3c6c9d10	0.0144417435
22	0x3e193b33	0.14963989
23	0x3df47aff	0.11937522
24	0xbdcb8899	-0.09938163
25	0x3d312bc7	0.04325464
26	0xbbff9836	-0.0078001274
27	0xbd93f9ff	-0.07225417
28	0x3d1e2977	0.038613763
29	0x3dbaddfc	0.091243714
30	0xbe28a847	-0.16470443
31	0xbbd02c5d	-0.0063529448
32	0xbdb8709d	-0.09005854
33	0x3df1dd1d	0.11809752
34	0x3dd50eba	0.104031995
35	0xbdd735cc	-0.10508308
36	0x3d3c2c28	0.04594055
37	0x3cfdeadb	0.030995777
38	0xbe129e96	-0.14318308
39	0x3d5ba07c	0.053619847
40	0x3d3eca24	0.046579495
41	0xbcb271cc	-0.021782778
42	0xbe339daf	-0.1754062
43	0xbe16adf3	-0.14714794
44	0x3e17ef9b	0.14837496
45	0x3cddfef7	0.027099116
46	0xbd872903	-0.06599619
47	0x3d9c3bfd	0.07628629
48	0x3e29b9c0	0.16574764
49	0xbd8d23cd	-0.06891594
50	0xbd58d738	-0.052939624
51	0xbe16b5bc	-0.14717764
52	0xbbbf9108	-0.0058461465
53	0xbe020524	-0.12697273
54	0x3e236ebd	0.15960212
55	0xbdcdf395	-0.10056225
56	0x3dc80828	0.09767181
57	0x3db80481	0.08985234
58	0x3e0c221a	0.13684884
59	0xbd8fbc44	-0.07018331
60	0xbdf4fdd7	-0.119624786
61	0xbe253456	-0.16133246
62	0x3dd41232	0.10355033
63	0xbdeb76bc	-0.11497256
64	0x3d1b1af3	0.037867498
65	0x3dfdad88	0.12386614
66	0x3c9e11ff	0.01929569
67	0x3e25dfbf	0.16198634
68	0xbcd4834e	-0.025941517
69	0xbe178abf	-0.14799021
70	0x3dcaa03d	0.09893844
71	0xbdde6f6c	-0.10861096
72	0x3da6ec2a	0.081505135
73	0xbd39dfbe	-0.045379393
74	0x3dbbdacc	0.091725916
75	0xbe3741b5	-0.17896159
76	0x3d309a0b	0.043115657
77	0x3d9a8ce6	0.075464055
78	0x3d876aea	0.06612189
79	0xbe05b3cd	-0.1305687
80	0xbdbe91a9	-0.09305126
81	0xbe197a03	-0.1498795
82	0xbe139baa	-0.1441485
83	0x3cc90437	0.024538143
84	0x3e24cd16	0.16093859
85	0x3da61450	0.08109343
86	0xbdf10319	-0.11768169
87	0xbdc3efe2	-0.095672384
88	0x3af99795	0.0019042367
89	0xbc43655a	-0.01192602
90	0xbded74ee	-0.11594568
91	0x3d7722a2	0.060335763
92	0xbd537f38	-0.051634997
93	0x3d6f7610	0.058462203
94	0xbcca1f83	-0.02467323
95	0xbc2d6ef8	-0.010585539
96	0x3d0582cd	0.032595444
97	0x3d637a18	0.05553636
98	0x3d3a6a0a	0.045511283
99	0x3d23d7ff	0.04000091
100	0x3b9007e8	0.0043954737
101	0x3e237c2b	0.15965335
102	0xbe1a9b6c	-0.15098351
103	0xbbe2d615	-0.006922493
104	0x3dcbfdfa	0.099605516
105	0xbdb07e1f	-0.08617806
106	0xbdc9dce3	-0.09856584
107	0xbe33b863	-0.17550807
108	0x3e26f6f3	0.16305141
109	0xbad56a03	-0.0016282204
110	0xbd8e72fd	-0.06955526
111	0x3db5be60	0.08874202
112	0xbdf6bbd6	-0.120475456
113	0xbe338357	-0.17530571
114	0x3dd2b023	0.10287502
115	0x3d1ab85d	0.03777348
116	0x3b3ce6ad	0.0028824017
117	0xbcc177a2	-0.023616616
118	0xbe28e47b	-0.16493408
119	0xbd375f2e	-0.044768505
120	0x3dbd371d	0.09239028
121	0x3e2842c0	0.16431713
122	0x3e13838e	0.14405653
123	0x3e09df18	0.1346401
124	0x3dbbf7c9	0.09178121
125	0xbe101c10	-0.14073205
126	0x3dc1017e	0.09424113
127	0xbdd93fe7	-0.106078915
128	0x3e242f2c	0.1603362
129	0x3e1caf51	0.15301253
130	0xbde705e6	-0.11280422
131	0xbdff1b68	-0.12456399
132	0x3d24b992	0.040216036
133	0x3ddea0b8	0.108704984
134	0x3da21897	0.079148464
135	0xbcc28bd4	-0.023748316
136	0x3e0b46ba	0.13601199
137	0x3c2e9a57	0.010656915
138	0x3d7e5e00	0.062101364
139	0xbd81e086	-0.063416526
140	0x3d31c849	0.043403897
141	0xbdd4400b	-0.10363778
142	0x3e1b679f	0.15176247
143	0xbd8856ab	-0.066571556
144	0xbc700e90	-0.0146519095
145	0x3dccff5d	0.10009644
146	0xbd919835	-0.07109109
147	0xbd76bdc2	-0.06023956
148	0xbcc4cbe4	-0.024023004
149	0xbd40a98e	-0.0470367
150	0x3d2217db	0.03957353
151	0xbdd32139	-0.10309071
152	0xbca97998	-0.020687863
153	0x3c22c3e1	0.0099343965
154	0x3d4365ff	0.047704693
155	0x3e2dbf72	0.16967562
156	0xbd1bd5b4	-0.0380456
157	0x3dc0f23f	0.09421205
158	0xbd27223c	-0.040804133
159	0x3e1cbf0d	0.15307255
160	0x3e2bb90b	0.16769807
161	0x3d1d846c	0.038456365
162	0x3dc4e8e7	0.09614735
163	0xbe099a52	-0.13437775
164	0x3c532b1e	0.012888698
165	0x3dfc40d8	0.123170555
166	0xbda196d7	-0.078900985
167	0xbd1b978e	-0.03798633
168	0xbdc61c0c	-0.09673318
169	0x3e395cc0	0.18101788
170	0xbe1108e3	-0.14163546
171	0x3dfb992f	0.12285077
172	0x3e111575	0.14168341
173	0xbd99e51e	-0.07514404
174	0x3c9655f9	0.018351542
175	0xbd0d16db	-0.034445625
176	0xbe30fcf9	-0.17284001
177	0x3e0b8a3c	0.13626951
178	0x3dbd2909	0.092363425
179	0x3d447908	0.047966987
180	0xbc91740a	-0.017755527
181	0x3dd8503e	0.1056218
182	0xbdf965d2	-0.12177624
183	0xbd681963	-0.056664836
184	0xbe54e693	-0.20791082
185	0xbd733381	-0.05937529
186	0xbd36165d	-0.04445492
187	0xbe2deef7	-0.16985689
188	0x3dc3c445	0.0955892
189	0xbd4ae33f	-0.049533125
190	0xbe159d8a	-0.14610878
191	0x3cb6f1ea	0.02233215
192	0xbe01e4ba	-0.12684909
193	0x3e16fd5e	0.1474509
194	0xbc6bd2eb	-0.0143935485
195	0x3e170956	0.14749655
196	0xbe0c384e	-0.13693354
197	0x3e2054e3	0.15657382
198	0x3c9841fb	0.01858615
199	0xbc63acb8	-0.01389616
200	0x3e011159	0.12604274
201	0x3dde425c	0.10852501
202	0x3e0dbe5a	0.13842145
203	0x3e36890f	0.17825721
204	0xbe2515df	-0.16121624
205	0xbe298edc	-0.16558403
206	0x3e082f3f	0.13299273
207	0xbe1b261c	-0.15151256
208	0xbe1608be	-0.14651772
209	0x3c3eb17a	0.011638993
210	0x3d05a3f2	0.032627054
211	0xbdf8002f	-0.1210941
212	0x3d8e942d	0.06961856
213	0x3c6b209b	0.0143510355
214	0x3e322cc4	0.17399889
215	0x3e2e5d90	0.17027879
216	0x3de22b3d	0.11043403
217	0xbe25d399	-0.16194
218	0xbc853806	-0.016262066
219	0xbdd21a99	-0.10258979
220	0x3e3ede49	0.18639483
221	0x3b6ff0b4	0.0036611976
222	0xbe040356	-0.12891898
223	0x3d4a523b	0.049394827
224	0x3c97b681	0.018519642
225	0xbe13f8d6	-0.14450392
226	0x3dc09836	0.09404032
227	0x3dcbc6be	0.099500164
228	0xbd65877d	-0.056037415
229	0xbe4d5b51	-0.20054366
230	0x3e006c88	0.12541401
231	0x3d5f1093	0.054459166
232	0xbd905d03	-0.070489906
233	0x3cfcb4a0	0.030847847
234	0x3d878e9d	0.06618998
235	0xbdcc4518	-0.09974116
236	0xbe0e8eae	-0.13921615
237	0x3daa6e3e	0.08321808
238	0x3db89438	0.090126455
239	0x3dac447b	0.08411499
240	0xbc0c5dee	-0.008567316
241	0x3a2e8c64	0.0006658493
242	0xbdd3ca40	-0.103413105
243	0x3e069d57	0.13145958
244	0x3e17ff24	0.14843422
245	0xbe445442	-0.19172767
246	0xbbc6ae31	-0.0060632457
247	0x3d80e5fa	0.062938645
248	0xbdc744dc	-0.09729931
249	0x3d5cbd59	0.053891513
250	0x3c5d07b2	0.013490604
251	0xbd25afda	-0.04045091
252	0x3d7a3232	0.061083026
253	0xbd93de41	-0.07220126
254	0x3db4afb6	0.08822577
255	0xbdbfe1b7	-0.093692236

net.2.bias f4 [64]
0	0xbbfa321d	-0.0076353685
1	0x3d10b61e	0.03532993
2	0x3c577928	0.0131514445
3	0x00000000	0.0
4	0xbb368d74	-0.0027855309
5	0xbc3a4e2c	-0.011371177
6	0xbc4b3ca8	-0.012404598
7	0xbc5534c8	-0.013013072
8	0x00000000	0.0
9	0x00000000	0.0
10	0x00000000	0.0
11	0x00000000	0.0
12	0x3c7e1137	0.015507034
13	0x3c9c43d9	0.019075321
14	0xbca9c76b	-0.020724973
15	0xbcc87fc6	-0.02447499
16	0xbe18e684	-0.14931685
17	0x3c41802e	0.011810346
18	0xbc2f8ab8	-0.0107142255
19	0xbca87479	-0.020563351
20	0x3a2605a3	0.00063332374
21	0x3be9e686	0.0071380762
22	0xba5bd224	-0.00083855004
23	0x3b1bae99	0.0023755191
24	0xbc6b7a01	-0.01437235
25	0xbc2d4a46	-0.01057679
26	0xbc2f8c6d	-0.010714632
27	0xbb334c3c	-0.0027358672
28	0x3b3773f9	0.002799271
29	0xbc39141c	-0.011296298
30	0xb99b85a9	-0.00029663488
31	0xbc125ce2	-0.008933278
32	0xbc121aa7	-0.008917487
33	0xbc0556c9	-0.008138367
34	0xbbfdfe47	-0.0077512595
35	0xbc52b49e	-0.012860445
36	0xbbae5cb4	-0.0053211097
37	0xba4a46fa	-0.0007716265
38	0x3b9e8f5d	0.0048388676
39	0x00000000	0.0
40	0xbd02107a	-0.031753995
41	0xbc1a7e3c	-0.009429511
42	0x3cb3c754	0.021945633
43	0xbb2fc4c1	-0.0026820155
44	0x3d45de66	0.0483078
45	0x00000000	0.0
46	0xbbc4c9db	-0.0060055084
47	0xba473c69	-0.00076002494
48	0x3cb3a9ed	0.021931613
49	0xbc402c54	-0.011729319
50	0xbb913ca8	-0.0044322796
51	0x00000000	0.0
52	0x00000000	0.0
53	0xbcabff0d	-0.020995641
54	0xbcd6bde5	-0.026213596
55	0xbb634ab4	-0.0034681978
56	0xbc264201	-0.0101475725
57	0x00000000	0.0
58	0x3c2bab0c	0.0104777925
59	0x3bf0d604	0.0073497314
60	0xbcd4e6a9	-0.025988894
61	0x00000000	0.0
62	0x3c475366	0.01216588
63	0xbb14d7c7	-0.002271162

net.4.weight f4 [16, 64]
0	0x3d0643ca	0.032779492
1	0xbb25c22d	-0.002529274
2	0x3e865c41	0.2624226
3	0x3e65abc5	0.22428806
4	0xbe77d499	-0.24202193
5	0x3e5ea704	0.21743399
6	0xbdcbe226	-0.09955244
7	0x3e58e6c5	0.21181782
8	0x3e06753e	0.13130662
9	0xbca546f4	-0.020175435
10	0xbe2f08a5	-0.17093141
11	0x3db6e10d	0.08929644
12	0xbe3809cc	-0.17972487
13	0xbe7e06f3	-0.24807338
14	0x3c89f56f	0.016840665
15	0xbe08980f	-0.13339256
16	0xbcb1a629	-0.021685677
17	0x3e7e4bcb	0.248336
18	0x3e4a29fb	0.19742577
19	0xbe1d4670	-0.15358901
20	0xbd9e3329	-0.07724602
21	0xbd2599b0	-0.04042977
22	0x3c2ede7e	0.010673163
23	0x3e7d861a	0.24758187
24	0xbb66660e	-0.0035156044
25	0xbb95be48	-0.0045698024
26	0xbe09f9e0	-0.13474226
27	0x3e86a7d9	0.26299933
28	0x3cf87aa7	0.030331923
29	0xbdee37d8	-0.11631745
30	0xbd780ddb	-0.06056009
31	0x3cb6dd84	0.022322424
32	0x3df33ca0	0.11876798
33	0x3e82382b	0.25433478
34	0x3e45801a	0.19287148
35	0xbe83c5f3	-0.2573696
36	0x3d9dcdb4	0.077052504
37	0xbe0292fc	-0.12751383
38	0x3d0f3227	0.03495994
39	0xbccbf2b2	-0.024896
40	0xbe353121	-0.17694522
41	0xbe68836b	-0.22706382
42	0xbe27be02	-0.16381076
43	0x3e7d0f6c	0.24712914
44	0xbe00d620	-0.12581682
45	0xbe175758	-0.14779413
46	0x3df1db8e	0.11809455
47	0xbd99ed83	-0.07516005
48	0xbc838133	-0.016052818
49	0x3e72c344	0.237073
50	0xbe0e7e23	-0.13915305
51	0xbe2884a6	-0.16456851
52	0x3e6f1f27	0.23351727
53	0xbd01fdff	-0.03173637
54	0x3df2b4d4	0.118508965
55	0x3dadc7a6	0.084853455
56	0x3d109806	0.03530123
57	0xbde40a9a	-0.111348346
58	0x3e0a8cf7	0.13530336
59	0xbe0fb0ea	-0.14032331
60	0xbdc8bda2	-0.098017946
61	0x3e3dd23d	0.18537231
62	0xbe2b2d5a	-0.16716519
63	0x3e47d659	0.19515361
64	0x3e61a021	0.2203374
65	0xbdcc68f0	-0.09980953
66	0x3c675a27	0.014120615
67	0x3d264b05	0.040598888
68	0x3d913756	0.070906326
69	0xbe3e09bd	-0.18558402
70	0xbe77074a	-0.24123874
71	0xbdca74eb	-0.098855816
72	0xbe5dcac5	-0.21659382
73	0xbe300e3c	-0.1719293
74	0xbe70338a	-0.2345716
75	0x3e726c41	0.23674108
76	0xbde8c54e	-0.11365758
77	0xbe6c7a50	-0.23093534
78	0xbcd4c655	-0.025973478
79	0xbda47899	-0.08030815
80	0xbe50c86c	-0.20388955
81	0x3e420fb0	0.18951297
82	0xbe44893c	-0.19192976
83	0xbe1d9627	-0.1538931
84	0x3dfb84bf	0.12281179
85	0xbe515007	-0.20440684
86	0xbe8c2c90	-0.27377748
87	0x3c8a2b5f	0.016866384
88	0x3df57106	0.11984448
89	0xbddfd347	-0.1092897
90	0x3cdf4dce	0.02725878
91	0x3e68103c	0.22662443
92	0x3c462ab2	0.01209514
93	0xbe70c3c3	-0.23512177
94	0xbe205c87	-0.15660296
95	0x3e2c1e3f	0.16808413
96	0xbe119b73	-0.14219455
97	0xbd9346ff	-0.07191276
98	0x3d934c0c	0.07192239
99	0xbe8565b9	-0.2605417
100	0x3e811c91	0.25217107
101	0x3e4657f6	0.19369492
102	0x3de11398	0.10990065
103	0x3d3e963d	0.046529997
104	0xbd21aacf	-0.039469536
105	0x3d420d81	0.04737616
106	0x3d0f13d0	0.034931004
107	0xbe1e59f8	-0.15464008
108	0x3d7fb332	0.062426753
109	0xbdf3f078	-0.119111
110	0x3ccd4e92	0.02506188
111	0xbe8b91bd	-0.27259627
112	0xbdf62050	-0.12017882
113	0x3bf3713f	0.0074292715
114	0x3d94a75f	0.07258486
115	0xbe2ada79	-0.16684903
116	0xbdd0a1a0	-0.101870775
117	0x3cae57ec	0.021282159
118	0xbd1b417d	-0.03790425
119	0xbe4fdd20	-0.20299196
120	0xbd4ef97d	-0.0505309
121	0xbe5a2473	-0.21302967
122	0xbe2e9021	-0.17047168
123	0xbd52db3b	-0.051478606
124	0xbcdd1001	-0.02698517
125	0x3db03643	0.086040996
126	0xbe7129ef	-0.23551153
127	0x3e86144e	0.26187366
128	0xbd489064	-0.048965827
129	0x3bdfc622	0.006829039
130	0xbd9726dc	-0.07380459
131	0x3e85efd2	0.2615953
132	0xbbc5d27d	-0.006037055
133	0x3d2e99a2	0.042626984
134	0x3deda92a	0.11604531
135	0xbe123cd3	-0.14281015
136	0xbe8b2f51	-0.27184537
137	0x3bdfef62	0.0068339566
138	0xbc970f22	-0.018439833
139	0xbe4ea140	-0.201787
140	0xbe2ed96a	-0.17075124
141	0xbe7044e8	-0.23463786
142	0x3e14fd5d	0.14549775
143	0x3e4dc3d6	0.20094237
144	0xbe489f89	-0.19592108
145	0xbe76ae5d	-0.24089952
146	0xbde83eaf	-0.11340081
147	0x3daaa281	0.083317764
148	0xbe87ff82	-0.26562124
149	0xbd943fcd	-0.072387315
150	0x3e61c850	0.2204907
151	0xbe1470b8	-0.14496124
152	0x3e6e8bb2	0.23295477
153	0x3e4c3d8c	0.19945353
154	0xbd9f3585	-0.0777388
155	0x3e77e4d1	0.2420838
156	0xbd08a592	-0.033361025
157	0xbd7392c9	-0.059466157
158	0xbe073768	-0.1320473
159	0xbcaed173	-0.021340108
160	0x3e41f8aa	0.18942514
161	0x3ddf8896	0.109147236
162	0xbdd425a2	-0.103587404
163	0x3e3b714d	0.1830494
164	0xbcf76864	-0.030201145
165	0xbcd9dac5	-0.026593575
166	0xbe49f16e	-0.19721004
167	0xbd9364a9	-0.07196934
168	0x3e2b511f	0.16730164
169	0x3db3d17a	0.08780189
170	0xbe0ed9d6	-0.13950285
171	0xbd5476ea	-0.051871218
172	0x3da2ba11	0.079456456
173	0x3e40b86e	0.18820354
174	0x3cad60fa	0.021164406
175	0xbe790e85	-0.24321945
176	0xbda29937	-0.0793938
177	0xbe7af390	-0.24506974
178	0x3e7f9ac2	0.24961379
179	0x3e0b99d8	0.13632905
180	0xbe408287	-0.18799792
181	0x3e238740	0.15969563
182	0xbe443cd5	-0.1916383
183	0x3e6318c8	0.22177422
184	0xbd8446e7	-0.06458836
185	0xbe3a6404	-0.18202215
186	0xbd26abf4	-0.04069133
187	0xbe8d2778	-0.27569175
188	0x3e76ed2b	0.2411391
189	0xbdd3eea5	-0.10348252
190	0xbe8dba5e	-0.2768125
191	0x3e3ba704	0.1832543
192	0x3d5decd1	0.054180924
193	0xba7b3132	-0.0009582221
194	0xbe8c0907	-0.27350637
195	0xbe2f83de	-0.17140147
196	0xbdeb4081	-0.114869125
197	0x3d7bef9b	0.061507802
198	0xbd08dd7a	-0.03341434
199	0xbe1e8859	-0.154817
200	0x3e4387a1	0.19094707
201	0x3e830b84	0.25594723
202	0xbd3c1e3c	-0.04592727
203	0xbda177c9	-0.07884175
204	0xbe1945ba	-0.14968005
205	0xbdb2c149	-0.087282725
206	0x3d5b3e0b	0.053525966
207	0xbd368c52	-0.044567414
208	0x3e6d4d3d	0.23173995
209	0x3dd41ffe	0.103576645
210	0x3bf65e5a	0.007518572
211	0x3e78271c	0.24233669
212	0xbe860a9a	-0.26179963
213	0x3d9dcd32	0.077051535
214	0x3e116827	0.14199887
215	0x3e1a7e0e	0.15087149
216	0x3dc9f5df	0.09861349
217	0xbd3337bd	-0.043754328
218	0x3e861251	0.2618585
219	0xbd86c3f3	-0.06580343
220	0xbe5897d6	-0.21151671
221	0xbd5469a5	-0.051858563
222	0x3e304e4f	0.17217372
223	0xbd8ea754	-0.06965509
224	0x3e836b04	0.25667584
225	0xbe34350a	-0.17598358
226	0x3d68b6fe	0.05681514
227	0x3e5d90bf	0.21637248
228	0x3e4bff4f	0.19921611
229	0xbe6b3017	-0.22967564
230	0xbc444a1d	-0.011980561
231	0xbe838e01	-0.25694278
232	0x3d0ce30d	0.03439622
233	0x3d17f883	0.037102234
234	0x3de54356	0.11194484
235	0x3daf3689	0.08555324
236	0x3e5d48e5	0.21609838
237	0x3e5190ec	0.2046544
238	0x3e634509	0.22194304
239	0xbe1cad86	-0.15300569
240	0xbe61628f	-0.22010253
241	0xbbda3f43	-0.0066603734
242	0xbd465167	-0.048417475
243	0x3d6347f4	0.05548854
244	0xbe439c6f	-0.19102643
245	0x3e825aa6	0.25459784
246	0xbe7d3e2c	-0.24730748
247	0x3d801317	0.06253641
248	0xbd43133c	-0.047625765
249	0xbe1c8520	-0.15285158
250	0xbde4426f	-0.11145484
251	0x3e64d9c6	0.22348699
252	0x3e843882	0.25824362
253	0xbe0083b4	-0.12550241
254	0xbbe7938a	-0.0070671486
255	0xbdbab6e3	-0.09116914

net.4.bias f4 [16]
0	0xbbc4c9db	-0.0060055084
1	0xbbb74fd2	-0.005594232
2	0xbc1b5aa0	-0.009482056
3	0xbbf7ef94	-0.0075664017
4	0xbd78d186	-0.060746692
5	0x00000000	0.0
6	0x00000000	0.0
7	0xbc4ff767	-0.012693263
8	0x3c08493b	0.008318241
9	0xbc2e1163	-0.0106242625
10	0xbc50983b	-0.012731607
11	0xbc3071aa	-0.010769287
12	0xbcc4ff06	-0.024047386
13	0x00000000	0.0
14	0x00000000	0.0
15	0x3c4fbbf4	0.012679089

net.6.weight f4 [1, 16]
0	0x3f014b4a	0.50505507
1	0xbd188d36	-0.037244044
2	0x3f159ac1	0.5843926
3	0x3e770604	0.24123389
4	0xbd00c502	-0.03143788
5	0x3ec1bc68	0.37839055
6	0xbe729f96	-0.2369369
7	0xbe356333	-0.17713623
8	0x3e63d11b	0.22247736
9	0x3ea242eb	0.3169168
10	0xbd9c2f31	-0.076261885
11	0x3e94cd3c	0.2906283
12	0xbe7844c0	-0.24244976
13	0xbe9d2d6c	-0.30698717
14	0xbe87dfba	-0.26537877
15	0x3d2ca2e4	0.042147532

exp_avg f4 [128, 48]
0	0x00000000	0.0
1	0x00000000	0.0
2	0x00000000	0.0
3	0x00000000	0.0
4	0x00000000	0.0
5	0x00000000	0.0
6	0x00000000	0.0
7	0x00000000	0.0
8	0x00000000	0.0
9	0x00000000	0.0
10	0x00000000	0.0
11	0x00000000	0.0
12	0x00000000	0.0
13	0x00000000	0.0
14	0x00000000	0.0
15	0x00000000	0.0
16	0x00000000	0.0
17	0x00000000	0.0
18	0x00000000	0.0
19	0x00000000	0.0
20	0x00000000	0.0
21	0x00000000	0.0
22	0x00000000	0.0
23	0x00000000	0.0
24	0x00000000	0.0
25	0x00000000	0.0
26	0x00000000	0.0
27	0x00000000	0.0
28	0x00000000	0.0
29	0x00000000	0.0
30	0x00000000	0.0
31	0x00000000	0.0
32	0x00000000	0.0
33	0x00000000	0.0
34	0x00000000	0.0
35	0x00000000	0.0
36	0x00000000	0.0
37	0x00000000	0.0
38	0x00000000	0.0
39	0x00000000	0.0
40	0x00000000	0.0
41	0x00000000	0.0
42	0x00000000	0.0
43	0x00000000	0.0
44	0x00000000	0.0
45	0x00000000	0.0
46	0x00000000	0.0
47	0x00000000	0.0
48	0xbd7f48a6	-0.062325142
49	0xbdb0043b	-0.08594557
50	0x3ab0b824	0.0013482613
51	0x39d59f19	0.00040745063
52	0xbcf2468d	-0.029574657
53	0xbd6f9de3	-0.058500182
54	0xbd7bda76	-0.061487637
55	0xb758e3bc	-1.2927627e-05
56	0xc01aab6c	-2.4167128
57	0x3e30ca9d	0.17264791
58	0x3f703ffc	0.9384763
59	0x3f88cbc4	1.0687184
60	0xbfbad86a	-1.4597294
61	0xc023bd1a	-2.5584168
62	0xbf8c8daf	-1.0980738
63	0x00000004	6e-45
64	0xbb2ff6eb	-0.0026850055
65	0xbb2ad8b1	-0.00260691
66	0xbba8f232	-0.005155825
67	0xba145f83	-0.00056599843
68	0xbae470a4	-0.0017428589
69	0x3b73f7bb	0.0037226516
70	0xbbb3a0f1	-0.005481832
71	0xb8e94695	-0.00011123453
72	0xb8ffa099	-0.00012189261
73	0xb975f858	-0.00023457536
74	0xb9aad8b1	-0.00032586374
75	0xb9aad8b1	-0.00032586374
76	0xbe434f11	-0.1907313
77	0xb9dd3d0f	-0.00042197897
78	0xbba8c09c	-0.005149914
79	0xbba55a16	-0.0050461395
80	0xb9df15ad	-0.00042550024
81	0x3b511507	0.0031903402
82	0xbe503bb8	-0.20335281
83	0xb98920b8	-0.00026155054
84	0xbc68c51a	-0.014207149
85	0xbb82d498	-0.0039926283
86	0xb7cb94c8	-2.4268767e-05
87	0xb90388e6	-0.00012544132
88	0xbaad3cb2	-0.0013216941
89	0xb8065bc2	-3.2033546e-05
90	0xbb3e30fc	-0.0029020896
91	0x3d4810f0	0.048844278
92	0xb99a0d36	-0.00029383012
93	0xba18c4f7	-0.000582769
94	0xbcc11741	-0.023570659
95	0x38fcfb5d	0.000120631164
96	0xbd5f1b9b	-0.054469686
97	0xbd99e369	-0.07514078
98	0x3aa0b3d4	0.0012260624
99	0x39c96100	0.00038409978
100	0xbcd319f6	-0.025769215
101	0xbd517701	-0.05113888
102	0xbd5c00b8	-0.053711623
103	0xb73dfe98	-1.1324555e-05
104	0xc00721ab	-2.11143
105	0x3e20ea44	0.15714365
106	0x3f5353f6	0.8254999
107	0x3f6fcfa4	0.9367621
108	0xbfa2f33b	-1.2730478
109	0xc00f190a	-2.2359033
110	0xbf74b7ea	-0.9559313
111	0x00000004	6e-45
112	0xbb19ea67	-0.0023485662
113	0xbb156104	-0.0022793422
114	0xbb93e9d7	-0.00451396
115	0xba01cfd1	-0.00049519265
116	0xbac7909c	-0.0015225592
117	0x3b55e8ce	0.0032639983
118	0xbb9d3660	-0.004797742
119	0xb8cc3fe3	-9.739378e-05
120	0xb8dfcd91	-0.00010671758
121	0xb9573faf	-0.00020527722
122	0xb9956104	-0.00028491777
123	0xb9956104	-0.00028491777
124	0xbe2ae12c	-0.16687459
125	0xb9c1a90c	-0.00036937778
126	0xbb93b7f1	-0.0045080115
127	0xbb90a330	-0.0044139847
128	0xb9c32333	-0.00037219524
129	0x3b375c5b	0.0027978632
130	0xbe365adb	-0.17808096
131	0xb9702a87	-0.00022904026
132	0xbc4bd39b	-0.012440587
133	0xbb64ff80	-0.003494233
134	0xb7b285b8	-2.1281521e-05
135	0xb8e6bb27	-0.000110021145
136	0xba97e182	-0.0011587592
137	0xb7ed7eec	-2.8311704e-05
138	0xbb26b7e8	-0.0025439207
139	0x3d2f12c5	0.04274251
140	0xb9868912	-0.00025660597
141	0xba05cc85	-0.0005104023
142	0xbca91c94	-0.02064351
143	0x38dd90f8	0.00010565104
144	0x3a7aa6fa	0.00095616246
145	0x3aac447d	0.001314297
146	0xb762c847	-1.351728e-05
147	0xb601c38b	-1.933632e-06
148	0x39f417c5	0.00046557016
149	0x3a6ac547	0.0008955788
150	0x3a785839	0.00094735954
151	0x3450b614	1.9437749e-07
152	0x3d184a1c	0.03718005
153	0xbade6c3a	-0.001696951
154	0xbc5eb999	-0.013594055
155	0xbc82e804	-0.015979774
156	0x3cbad17a	0.022804964
157	0x3d20d19a	0.03926239
158	0x3c8ea7a9	0.017413931
159	0x00000004	6e-45
160	0x382b80b3	4.0889438e-05
161	0x382719f4	3.9840073e-05
162	0x38a3532a	7.787936e-05
163	0x37106075	8.605527e-06
164	0x37e11c4c	2.6835267e-05
165	0xb868e04a	-5.5521996e-05
166	0x38ae3413	8.306666e-05
167	0x35e1650d	1.6793216e-06
168	0x35f72699	1.8414167e-06
169	0x366ec4b2	3.5579255e-06
170	0x36a719f4	4.980009e-06
171	0x36a719f4	4.980009e-06
172	0x3b3df049	0.0028982332
173	0x36d6419d	6.3853354e-06
174	0x38a3632f	7.79092e-05
175	0x38a11fa8	7.682975e-05
176	0x36d96049	6.478313e-06
177	0xb8472a28	-4.748456e-05
178	0x3b48e1f9	0.0030652268
179	0x36844e6e	3.943037e-06
180	0x3960b0ad	0.00021428122
181	0x387dd0d7	6.0514398e-05
182	0x34c2230f	3.6160824e-07
183	0x35fa738a	1.8660078e-06
184	0x37a57cce	1.972765e-05
185	0x34eef22f	4.4507166e-07
186	0x3835ee4d	4.3375698e-05
187	0xba42333e	-0.00074081484
188	0x36982ac8	4.5349334e-06
189	0x37133c45	8.775915e-06
190	0x39ba1b5f	0.00035497078
191	0xb5f3d1af	-1.8165937e-06
192	0x3c9319c4	0.017956622
193	0x3ccaca82	0.024754766
194	0xb9c5f78d	-0.00037759208
195	0xb8e7f5d1	-0.00011060725
196	0x3c0be8bb	0.008539374
197	0x3c8a0c81	0.016851665
198	0x3c912d71	0.017721863
199	0x36798d83	3.7186262e-06
200	0x3f324a5b	0.6964471
201	0xbd45b310	-0.04826647
202	0xbe89cd34	-0.2691437
203	0xbe9d5293	-0.30727062
204	0x3ed7a7d3	0.42120227
205	0x3f3cb5dc	0.73714995
206	0x3ea26dec	0.3172449
207	0x00000004	6e-45
208	0x3a4aaa32	0.00077310496
209	0x3a44d3d3	0.0007508371
210	0x3ac27352	0.0014835394
211	0x392adf9d	0.00016295766
212	0x3a03ad2d	0.00050230586
213	0xba8c4307	-0.0010701128
214	0x3acece4a	0.0015778032
215	0x38063ddc	3.20057e-05
216	0x38131c9b	3.5074172e-05
217	0x388d9998	6.752013e-05
218	0x38c4d3d3	9.3854636e-05
219	0x38c4d3d3	9.3854636e-05
220	0x3d60e761	0.05490816
221	0x38feae79	0.00012144162
222	0x3ac24056	0.0014820199
223	0x3abe700d	0.0014529243
224	0x3900771b	0.00012251401
225	0xba705cde	-0.0009169112
226	0x3d6fa169	0.058503542
227	0x389dcd1d	7.524549e-05
228	0x3b85efce	0.004087425
229	0x3a969f20	0.0011491515
230	0x36ea102c	6.975626e-06
231	0x38173540	3.60508e-05
232	0x39c73314	0.00037994294
233	0x3719a630	9.158204e-06
234	0x3a5ab7c1	0.00083434215
235	0xbc6658f4	-0.014059294
236	0x38b19f07	8.469639e-05
237	0x392fcacc	0.00016764848
238	0x3bde3093	0.006780693
239	0xb8118d8c	-3.470252e-05
240	0xbd58dd37	-0.052945342
241	0xbd9592c3	-0.07303383
242	0x3a9b6161	0.0011854583
243	0x39c1ba60	0.0003695069
244	0xbccd47e3	-0.025058692
245	0xbd4b98a8	-0.04970613
246	0xbd55dc67	-0.052212145
247	0xb7389e68	-1.10041365e-05
248	0xc0035b0b	-2.0524318
249	0x3e1b8a71	0.1518953
250	0x3f4d3aef	0.8016805
251	0x3f690148	0.9101758
252	0xbf9e6fd5	-1.2377878
253	0xc00b1819	-2.1733458
254	0xbf6dffd1	-0.9296847
255	0x00000004	6e-45

exp_avg_sq f4 [128, 48]
0	0x00000000	0.0
1	0x00000000	0.0
2	0x00000000	0.0
3	0x00000000	0.0
4	0x00000000	0.0
5	0x00000000	0.0
6	0x00000000	0.0
7	0x00000000	0.0
8	0x00000000	0.0
9	0x00000000	0.0
10	0x00000000	0.0
11	0x00000000	0.0
12	0x00000000	0.0
13	0x00000000	0.0
14	0x00000000	0.0
15	0x00000000	0.0
16	0x00000000	0.0
17	0x00000000	0.0
18	0x00000000	0.0
19	0x00000000	0.0
20	0x00000000	0.0
21	0x00000000	0.0
22	0x00000000	0.0
23	0x00000000	0.0
24	0x00000000	0.0
25	0x00000000	0.0
26	0x00000000	0.0
27	0x00000000	0.0
28	0x00000000	0.0
29	0x00000000	0.0
30	0x00000000	0.0
31	0x00000000	0.0
32	0x00000000	0.0
33	0x00000000	0.0
34	0x00000000	0.0
35	0x00000000	0.0
36	0x00000000	0.0
37	0x00000000	0.0
38	0x00000000	0.0
39	0x00000000	0.0
40	0x00000000	0.0
41	0x00000000	0.0
42	0x00000000	0.0
43	0x00000000	0.0
44	0x00000000	0.0
45	0x00000000	0.0
46	0x00000000	0.0
47	0x00000000	0.0
48	0x44e1efb4	1807.4907
49	0x455f9d7a	3577.8423
50	0x4367785a	231.47012
51	0x432c9989	172.59975
52	0x45083f48	2179.955
53	0x447a4536	1001.0814
54	0x45352b13	2898.6921
55	0x36c5d27f	5.8955625e-06
56	0x4a749f66	4.0078975e+06
57	0x4aa6a7a0	5.460944e+06
58	0x49aa6f34	1.3961985e+06
59	0x4779aeec	63918.92
60	0x4a8440c4	4.333666e+06
61	0x4a5e4f0c	3.642307e+06
62	0x4a90d4f7	4.7458515e+06
63	0x3676b8ad	3.6764352e-06
64	0x3f90288b	1.1262373
65	0x400ac73a	2.1684098
66	0x3e7754f2	0.24153498
67	0x3ddae40d	0.106880285
68	0x3fa66b07	1.3001412
69	0x3f119317	0.56865066
70	0x3fe36b7e	1.7767179
71	0x398da78b	0.00027018445
72	0x399fc99c	0.00030477054
73	0x3b60b436	0.0034287102
74	0x3d153a55	0.036432583
75	0x3d15e974	0.03659959
76	0x45ae6d9f	5581.7026
77	0x3b675d7e	0.0035303528
78	0x3f579bd5	0.84222156
79	0x40dd6341	6.918366
80	0x3ccf2711	0.025287183
81	0x40731da8	3.798685
82	0x43431c84	195.11139
83	0x3a83348c	0.0010010167
84	0x405c3bfb	3.441161
85	0x3fd93508	1.6969309
86	0x367e475c	3.7890486e-06
87	0x39090550	0.00013067317
88	0x3c0c1e6a	0.008552173
89	0x3b987470	0.0046525523
90	0x3d0c74f0	0.034291208
91	0x4461159c	900.33765
92	0x3ccabb10	0.024747401
93	0x38089e34	3.2572265e-05
94	0x3d4d756f	0.05016082
95	0x35aed345	1.3025498e-06
96	0x44b0331d	1409.5973
97	0x452f79d2	2807.6138
98	0x43364518	182.2699
99	0x43067647	134.46202
100	0x44d3dc58	1694.8857
101	0x4443729c	781.7908
102	0x450cfee0	2255.9297
103	0x35055324	4.9667347e-07
104	0x4a3ff4e5	3.1450172e+06
105	0x4a831635	4.2954505e+06
106	0x49874ad7	1.1083149e+06
107	0x47418342	49539.258
108	0x4a4f29f3	3.3941728e+06
109	0x4a2e60e0	2.857016e+06
110	0x4a632808	3.72173e+06
111	0x3474836d	2.2772083e-07
112	0x3f61251c	0.8794725
113	0x3fda4ea7	1.7055253
114	0x3e414e1d	0.18877454
115	0x3dab562e	0.08366047
116	0x3f81d898	1.0144224
117	0x3ee51c83	0.44748315
118	0x3fb1535b	1.3853563
119	0x395c2cff	0.00020997597
120	0x3978d5e5	0.00023730805
121	0x3b302021	0.002687462
122	0x3ceb32cb	0.028710743
123	0x3ceb899e	0.028752144
124	0x458bb137	4470.152
125	0x3b3b391e	0.002856798
126	0x3f2833f6	0.65704286
127	0x40ad4357	5.41447
128	0x3ca1da2e	0.019757356
129	0x404460af	3.068401
130	0x430cef8d	140.93575
131	0x3a4dc85f	0.0007849987
132	0x402ec682	2.730866
133	0x3fa81242	1.3130572
134	0x364b2b02	3.027439e-06
135	0x38d6eb88	0.00010248186
136	0x3bdbc1ea	0.006706466
137	0x3b9b57c8	0.004740689
138	0x3ce35617	0.027751012
139	0x44649845	914.3792
140	0x3c98284d	0.018573904
141	0x37b4b86c	2.154355e-05
142	0x3d0cdbb7	0.034389224
143	0x356d7ade	8.8468175e-07
144	0x440f715e	573.77136
145	0x44c71c09	1592.8761
146	0x4293b664	73.85623
147	0x428fae9e	71.84105
148	0x441c7e0d	625.96954
149	0x439af919	309.94608
150	0x445a36ee	872.8583
151	0x39becd79	0.00036392713
152	0x49b9f26c	1.5232775e+06
153	0x4a2374e0	2.678072e+06
154	0x4902c305	535600.3
155	0x4739e2da	47586.85
156	0x49bd7d50	1.552298e+06
157	0x499e4d42	1.2968082e+06
158	0x49dbdc2c	1.8010935e+06
159	0x39a627de	0.0003169169
160	0x3eba1896	0.36346883
161	0x3f813f76	1.0097492
162	0x3d970122	0.07373263
163	0x3d3e5745	0.046469945
164	0x3ec9e484	0.39432156
165	0x3e51d442	0.20491126
166	0x3f0df49f	0.5545139
167	0x38a7317e	7.972399e-05
168	0x38bf8f5b	9.134292e-05
169	0x3aa7639b	0.0012770774
170	0x3c78dfec	0.015190106
171	0x3ccccca7	0.02499993
172	0x45547ac6	3399.6733
173	0x3b216c81	0.0024631324
174	0x3e7c6279	0.2464694
175	0x4014e22d	2.3263047
176	0x3c2ce255	0.010552009
177	0x40396140	2.8965607
178	0x4220678a	40.101112
179	0x3a708b42	0.00091760245
180	0x400bd3d5	2.1848042
181	0x417d8715	15.845479
182	0x35a34d81	1.2167003e-06
183	0x37c55a65	2.3526323e-05
184	0x3ae3ee0d	0.001738967
185	0x3c7944bb	0.0152141405
186	0x3c97a067	0.018509103
187	0x4645d2c5	12660.692
188	0x3b04fff2	0.0020294157
189	0x367ee6f3	3.798338e-06
190	0x3c734325	0.0148475515
191	0x345a96b8	2.0357663e-07
192	0x435085eb	208.52312
193	0x43e44441	456.53323
194	0x41d895aa	27.073078
195	0x41aa51f1	21.29001
196	0x43730637	243.02428
197	0x42e63da0	115.12036
198	0x43a534c5	330.41226
199	0x3829a259	4.0443938e-05
200	0x48f4cc4e	501346.44
201	0x4931b550	727893.0
202	0x482c229e	176266.47
203	0x4616fcc3	9663.19
204	0x4901f599	532313.56
205	0x48db109d	448644.9
206	0x4912569d	599401.8
207	0x38146d90	3.5387988e-05
208	0x3e052f4b	0.13006322
209	0x3e8f612a	0.28003818
210	0x3ce4f7c2	0.027950171
211	0x3c5dc2a3	0.013535175
212	0x3e16915c	0.14703888
213	0x3d8cbed6	0.068723366
214	0x3e51938d	0.20466442
215	0x37fa8aa0	2.9866875e-05
216	0x380e0813	3.3862958e-05
217	0x39d96db7	0.0004147121
218	0x3b9b14e7	0.0047327164
219	0x3ba9fe3b	0.0051877773
220	0x44580d3f	864.207
221	0x3a173053	0.0005767394
222	0x3dc0fe25	0.09423474
223	0x3f529f94	0.82274747
224	0x3b48bca1	0.003063001
225	0x3f25b8fe	0.647354
226	0x4134a11d	11.289334
227	0x392e9d2f	0.00016652489
228	0x3f0116da	0.50425494
229	0x3fe539bd	1.7908245
230	0x34ec8cf4	4.4060982e-07
231	0x37523b6f	1.2530813e-05
232	0x3a642500	0.0008703023
233	0x3b160712	0.0022892398
234	0x3ba0d9c5	0.0049087727
235	0x4490916b	1156.5443
236	0x3b00f549	0.0019677451
237	0x361e1e69	2.3561536e-06
238	0x3baa8b6e	0.0052046096
239	0x33ebf4e2	1.0987584e-07
240	0x4480774d	1027.7281
241	0x451137b3	2323.4812
242	0x43058c3d	133.5478
243	0x42d5acef	106.83776
244	0x4494347d	1185.6403
245	0x440e5616	569.3451
246	0x44c975a1	1611.6759
247	0x39448d4a	0.00018744651
248	0x4a17e316	2.4885175e+06
249	0x4a641b46	3.7372975e+06
250	0x4958e9c1	888476.06
251	0x47486236	51298.21
252	0x4a206021	2.6275922e+06
253	0x4a065f49	2.2015542e+06
254	0x4a34d44f	2.9627078e+06
255	0x392cc4f0	0.00016476563

exp_avg f4 [128]
0	0x00000000	0.0
1	0xb9aad8af	-0.0003258637
2	0xb9956108	-0.00028491789
3	0x36a719ec	4.9800055e-06
4	0x38c4d3cd	9.385459e-05
5	0xb991307c	-0.0002769268
6	0x80000004	-6e-45
7	0x00000000	0.0
8	0x00000000	0.0
9	0x00000000	0.0
10	0xba2e38d8	-0.00066460436
11	0x00000004	6e-45
12	0x00000000	0.0
13	0xb92d766e	-0.00016542684
14	0x376caf77	1.410755e-05
15	0x00000004	6e-45
16	0x00000000	0.0
17	0x00000000	0.0
18	0x3a34da93	0.0006899025
19	0x00000000	0.0
20	0xb971b934	-0.00023052545
21	0x00000004	6e-45
22	0x00000000	0.0
23	0x384778f5	4.7557947e-05
24	0xb829a3b1	-4.044519e-05
25	0xb7e0184c	-2.6714195e-05
26	0xb9ab1f5c	-0.00032639026
27	0x00000000	0.0
28	0x00000000	0.0
29	0xba25b920	-0.0006321836
30	0x00000000	0.0
31	0x3995ce48	0.00028573186
32	0x00000000	0.0
33	0xba04ee8a	-0.00050709455
34	0x00000000	0.0
35	0xb94cd480	-0.00019534118
36	0x39e7c91d	0.00044209594
37	0x80000004	-6e-45
38	0xb8e554b4	-0.00010935348
39	0x2a92da7e	2.608642e-13
40	0x00000004	6e-45
41	0x399b8071	0.000296596
42	0x00000004	6e-45
43	0x00000004	6e-45
44	0x00000000	0.0
45	0x00000000	0.0
46	0x80000004	-6e-45
47	0xb9002f41	-0.00012224635
48	0x00000000	0.0
49	0x39b0a827	0.0003369462
50	0x00000000	0.0
51	0x00000004	6e-45
52	0xb82f4313	-4.178572e-05
53	0x00000004	6e-45
54	0x00000000	0.0
55	0x00000000	0.0
56	0xb983c2aa	-0.00025131303
57	0x00000004	6e-45
58	0x399ac513	0.0002952
59	0x00000000	0.0
60	0x00000000	0.0
61	0x00000000	0.0
62	0xb84b7bea	-4.8514376e-05
63	0xba04d2ea	-0.0005066829
64	0x80000004	-6e-45
65	0x3951174f	0.00019940476
66	0x00000000	0.0
67	0x391c273e	0.00014891938
68	0x3a093809	0.0005234485
69	0x00000004	6e-45
70	0x00000004	6e-45
71	0xb920ae88	-0.00015323807
72	0x00000004	6e-45
73	0x00000004	6e-45
74	0x00000004	6e-45
75	0xb9aac8a5	-0.0003257442
76	0x00000004	6e-45
77	0x00000004	6e-45
78	0x00000000	0.0
79	0x37b7bf76	2.1904456e-05
80	0x00000000	0.0
81	0x39003033	0.00012224987
82	0x00000000	0.0
83	0xb84e3671	-4.916493e-05
84	0x385b3f4a	5.227261e-05
85	0xb986c86e	-0.00025707803
86	0x00000004	6e-45
87	0xb884e257	-6.3364096e-05
88	0x00000000	0.0
89	0x00000000	0.0
90	0x00000000	0.0
91	0x80000004	-6e-45
92	0x39399d02	0.00017701465
93	0xb909e67d	-0.00013151202
94	0x00000004	6e-45
95	0x00000004	6e-45
96	0x00000000	0.0
97	0xb94a91a6	-0.0001931848
98	0x00000000	0.0
99	0xb92680a3	-0.00015878915
100	0x00000000	0.0
101	0x00000004	6e-45
102	0xba032476	-0.00050026865
103	0x00000000	0.0
104	0x00000000	0.0
105	0x00000000	0.0
106	0x00000000	0.0
107	0x2cb39481	5.1039732e-12
108	0x39ccc607	0.00039057454
109	0xb9a96699	-0.00032310633
110	0x80000004	-6e-45
111	0x391f8c20	0.00015215622
112	0x00000000	0.0
113	0x00000004	6e-45
114	0x00000000	0.0
115	0x00000000	0.0
116	0x384f6e48	4.9455353e-05
117	0x80000004	-6e-45
118	0x00000000	0.0
119	0xb887ee9c	-6.481746e-05
120	0x00000000	0.0
121	0x00000004	6e-45
122	0x00000004	6e-45
123	0x00000004	6e-45
124	0x80000004	-6e-45
125	0x00000000	0.0
126	0x39cc2dbb	0.00038943984
127	0xba368121	-0.0006961991

exp_avg_sq f4 [128]
0	0x00000000	0.0
1	0x3d155b8e	0.036464266
2	0x3ceb404b	0.02871718
3	0x3c929582	0.017893557
4	0x3b9f4704	0.0048607606
5	0x3ccce1ae	0.025009956
6	0x37ee5a00	2.841372e-05
7	0x00000000	0.0
8	0x00000000	0.0
9	0x00000000	0.0
10	0x3df7dcd9	0.1210267
11	0x34a3ecab	3.0533315e-07
12	0x00000000	0.0
13	0x3b667457	0.0035164559
14	0x3b1ad3f7	0.0023624876
15	0x39574257	0.00020528711
16	0x00000000	0.0
17	0x00000000	0.0
18	0x3de06b59	0.10957975
19	0x00000000	0.0
20	0x3c6517fc	0.013982769
21	0x38c762c0	9.507453e-05
22	0x00000000	0.0
23	0x39ec11cd	0.0004502669
24	0x3bd6ee32	0.006559157
25	0x3baec047	0.00533298
26	0x3cb5fe64	0.02221603
27	0x00000000	0.0
28	0x00000000	0.0
29	0x3e4fd68c	0.20296687
30	0x00000000	0.0
31	0x3cc2cc59	0.023779081
32	0x00000000	0.0
33	0x3dbae444	0.091255695
34	0x00000000	0.0
35	0x3c48090e	0.01220919
36	0x3d871068	0.06594926
37	0x38381436	4.388784e-05
38	0x3b96ac9e	0.0045982143
39	0x3bfc7e24	0.007705467
40	0x384c1818	4.865983e-05
41	0x3d0383ba	0.032108046
42	0x3ad02340	0.0015879646
43	0x3a71de05	0.0009226504
44	0x00000000	0.0
45	0x00000000	0.0
46	0x37072e0b	8.057347e-06
47	0x3b44c578	0.0030024927
48	0x00000000	0.0
49	0x3cb13384	0.02163101
50	0x00000000	0.0
51	0x3a13132a	0.00056104606
52	0x3c6c3d8a	0.014418969
53	0x3aa6e7b9	0.0012733854
54	0x00000000	0.0
55	0x00000000	0.0
56	0x3a26b6ba	0.0006359626
57	0x35129ff6	5.462201e-07
58	0x3c7bc7ee	0.015367491
59	0x00000000	0.0
60	0x00000000	0.0
61	0x00000000	0.0
62	0x3aeba4cc	0.001797819
63	0x3d0b29bc	0.033975348
64	0x38c6a720	9.472505e-05
65	0x3c0df220	0.008663684
66	0x00000000	0.0
67	0x3b01f0ee	0.0019827443
68	0x3d1a5716	0.037680708
69	0x3b322fdb	0.0027189169
70	0x3650c486	3.1108807e-06
71	0x3c79a1a4	0.015236292
72	0x32829abe	1.520436e-08
73	0x3a1e10a9	0.0006029704
74	0x35be7174	1.4189122e-06
75	0x3ce7ca03	0.028294569
76	0x3a1a857c	0.00058945245
77	0x31b3553e	5.2192766e-09
78	0x00000000	0.0
79	0x3b599481	0.0033200087
80	0x00000000	0.0
81	0x3ba8aa7e	0.0051472774
82	0x00000000	0.0
83	0x3b7c4d5d	0.003849826
84	0x3bd6c65a	0.006554407
85	0x3c740c33	0.014895487
86	0x3a47b44b	0.00076181133
87	0x3b84b85f	0.004050299
88	0x00000000	0.0
89	0x00000000	0.0
90	0x00000000	0.0
91	0x36df701c	6.658969e-06
92	0x3c967a06	0.018368732
93	0x3b983d4b	0.0046459786
94	0x38374107	4.369116e-05
95	0x38f33c11	0.00011598331
96	0x00000000	0.0
97	0x3b85e205	0.0040857815
98	0x00000000	0.0
99	0x3c42de68	0.011893846
100	0x00000000	0.0
101	0x39909dc4	0.00027583365
102	0x3d4db6bf	0.05022311
103	0x00000000	0.0
104	0x00000000	0.0
105	0x00000000	0.0
106	0x00000000	0.0
107	0x3a61b9ca	0.00086107536
108	0x3cc92f7f	0.02455878
109	0x3ca7e4ff	0.020494936
110	0x39b8a12c	0.00035215297
111	0x3ca3e317	0.020005746
112	0x00000000	0.0
113	0x398246d2	0.00024848297
114	0x00000000	0.0
115	0x00000000	0.0
116	0x3b75b15c	0.0037489748
117	0x39a05125	0.00030578036
118	0x00000000	0.0
119	0x3b49dbbd	0.003080114
120	0x00000000	0.0
121	0x2d0790a6	7.70598e-12
122	0x38b01a16	8.397193e-05
123	0x3819f530	3.670639e-05
124	0x3780cf08	1.5355196e-05
125	0x00000000	0.0
126	0x3cf12d12	0.029440437
127	0x3da33b07	0.07970243

exp_avg f4 [64, 128]
0	0x00000000	0.0
1	0x00000004	6e-45
2	0x00000004	6e-45
3	0x00000004	6e-45
4	0x00000004	6e-45
5	0x00000004	6e-45
6	0x00000000	0.0
7	0x00000000	0.0
8	0x00000000	0.0
9	0x00000000	0.0
10	0x00000004	6e-45
11	0x00000000	0.0
12	0x00000000	0.0
13	0x00000004	6e-45
14	0x00000004	6e-45
15	0x00000000	0.0
16	0x00000000	0.0
17	0x00000000	0.0
18	0x00000004	6e-45
19	0x00000000	0.0
20	0x00000004	6e-45
21	0x00000000	0.0
22	0x00000000	0.0
23	0x00000004	6e-45
24	0x00000004	6e-45
25	0x00000004	6e-45
26	0x00000004	6e-45
27	0x00000000	0.0
28	0x00000000	0.0
29	0x00000000	0.0
30	0x00000000	0.0
31	0x00000004	6e-45
32	0x00000000	0.0
33	0x00000004	6e-45
34	0x00000000	0.0
35	0x00000004	6e-45
36	0x00000004	6e-45
37	0x00000004	6e-45
38	0x00000004	6e-45
39	0x00000004	6e-45
40	0x00000000	0.0
41	0x00000004	6e-45
42	0x00000004	6e-45
43	0x00000000	0.0
44	0x00000000	0.0
45	0x00000000	0.0
46	0x00000000	0.0
47	0x00000004	6e-45
48	0x00000000	0.0
49	0x00000004	6e-45
50	0x00000000	0.0
51	0x00000004	6e-45
52	0x00000004	6e-45
53	0x00000000	0.0
54	0x00000000	0.0
55	0x00000000	0.0
56	0x00000004	6e-45
57	0x00000000	0.0
58	0x00000004	6e-45
59	0x00000000	0.0
60	0x00000000	0.0
61	0x00000000	0.0
62	0x00000004	6e-45
63	0x00000004	6e-45
64	0x00000004	6e-45
65	0x00000004	6e-45
66	0x00000000	0.0
67	0x00000004	6e-45
68	0x00000004	6e-45
69	0x00000004	6e-45
70	0x00000000	0.0
71	0x00000004	6e-45
72	0x00000000	0.0
73	0x00000004	6e-45
74	0x00000000	0.0
75	0x00000004	6e-45
76	0x00000000	0.0
77	0x00000000	0.0
78	0x00000000	0.0
79	0x00000004	6e-45
80	0x00000000	0.0
81	0x00000004	6e-45
82	0x00000000	0.0
83	0x00000004	6e-45
84	0x00000004	6e-45
85	0x00000004	6e-45
86	0x00000000	0.0
87	0x00000004	6e-45
88	0x00000000	0.0
89	0x00000000	0.0
90	0x00000000	0.0
91	0x00000000	0.0
92	0x00000004	6e-45
93	0x00000004	6e-45
94	0x00000000	0.0
95	0x00000000	0.0
96	0x00000000	0.0
97	0x00000004	6e-45
98	0x00000000	0.0
99	0x00000004	6e-45
100	0x00000000	0.0
101	0x00000000	0.0
102	0x00000004	6e-45
103	0x00000000	0.0
104	0x00000000	0.0
105	0x00000000	0.0
106	0x00000000	0.0
107	0x00000004	6e-45
108	0x00000004	6e-45
109	0x00000004	6e-45
110	0x00000000	0.0
111	0x00000004	6e-45
112	0x00000000	0.0
113	0x00000000	0.0
114	0x00000000	0.0
115	0x00000000	0.0
116	0x00000004	6e-45
117	0x00000004	6e-45
118	0x00000000	0.0
119	0x00000004	6e-45
120	0x00000000	0.0
121	0x00000000	0.0
122	0x00000004	6e-45
123	0x00000004	6e-45
124	0x00000000	0.0
125	0x00000000	0.0
126	0x00000004	6e-45
127	0x00000004	6e-45
128	0x00000000	0.0
129	0xbef899bf	-0.485548
130	0xbdb38a31	-0.08766592
131	0x3d880662	0.066418424
132	0x3ef5643a	0.4792803
133	0xbe429983	-0.19003873
134	0x00000004	6e-45
135	0x00000000	0.0
136	0x00000000	0.0
137	0x00000000	0.0
138	0xbe025c0c	-0.12730426
139	0x00000000	0.0
140	0x00000000	0.0
141	0x3eb23e2b	0.34813055
142	0xbf6d849d	-0.92780477
143	0x00000004	6e-45
144	0x00000000	0.0
145	0x00000000	0.0
146	0xbeb675ee	-0.35636848
147	0x00000000	0.0
148	0x3e0571db	0.13031714
149	0x00000004	6e-45
150	0x00000000	0.0
151	0xbeb403e0	-0.35159206
152	0xbf5666e7	-0.83750767
153	0xbc029e2f	-0.007972284
154	0xbe7d8ee5	-0.24761541
155	0x00000000	0.0
156	0x00000000	0.0
157	0xbf15ebbc	-0.5856283
158	0x00000000	0.0
159	0xbebc91d9	-0.36830023
160	0x00000000	0.0
161	0x3e794e05	0.24346168
162	0x00000000	0.0
163	0xbebe6766	-0.37188262
164	0xbfa6fe97	-1.3046445
165	0x80000004	-6e-45
166	0x3eef8c4a	0.4678672
167	0xad26a509	-9.472653e-12
168	0x00000004	6e-45
169	0xbfa6cae4	-1.3030667
170	0x80000004	-6e-45
171	0x00000004	6e-45
172	0x00000000	0.0
173	0x00000000	0.0
174	0x80000004	-6e-45
175	0x3e8e9696	0.27849263
176	0x00000000	0.0
177	0xbf55becf	-0.83494276
178	0x00000000	0.0
179	0x00000004	6e-45
180	0xbfa228aa	-1.266866
181	0x00000004	6e-45
182	0x00000000	0.0
183	0x00000000	0.0
184	0x3e2f82ca	0.17139736
185	0x80000004	-6e-45
186	0x3e038623	0.12844138
187	0x00000000	0.0
188	0x00000000	0.0
189	0x00000000	0.0
190	0xbf5cd635	-0.86264354
191	0xbf053ab9	-0.5204273
192	0x00000004	6e-45
193	0xbf1288cf	-0.57240003
194	0x00000000	0.0
195	0xbe9fcb83	-0.31209955
196	0xbf1a3133	-0.6023132
197	0x80000004	-6e-45
198	0x00000004	6e-45
199	0xbf1998f3	-0.59999007
200	0x80000004	-6e-45
201	0x00000004	6e-45
202	0x80000004	-6e-45
203	0xbf0f5cc3	-0.5600092
204	0x80000004	-6e-45
205	0x00000004	6e-45
206	0x00000000	0.0
207	0xbfc8778f	-1.5661486
208	0x00000000	0.0
209	0x3d652bd9	0.05595002
210	0x00000000	0.0
211	0xbd00c269	-0.031435404
212	0xbf065669	-0.524756
213	0xbebca883	-0.36847314
214	0x80000004	-6e-45
215	0xbdeb3fea	-0.114868
216	0x00000000	0.0
217	0x00000000	0.0
218	0x00000000	0.0
219	0x00000004	6e-45
220	0xbf74e5a1	-0.95662886
221	0x3dcaa8db	0.09895488
222	0x80000004	-6e-45
223	0x00000004	6e-45
224	0x00000000	0.0
225	0xbe0b095c	-0.13577789
226	0x00000000	0.0
227	0xbf5f6f28	-0.87278986
228	0x00000000	0.0
229	0x00000004	6e-45
230	0xbe6e3786	-0.23263368
231	0x00000000	0.0
232	0x00000000	0.0
233	0x00000000	0.0
234	0x00000000	0.0
235	0xaeb8419b	-8.379005e-11
236	0xbe59a36f	-0.21253751
237	0x3c14bd57	0.009078345
238	0x80000004	-6e-45
239	0xbef561cc	-0.47926176
240	0x00000000	0.0
241	0x80000004	-6e-45
242	0x00000000	0.0
243	0x00000000	0.0
244	0x3f093c7b	0.5360791
245	0x00000004	6e-45
246	0x00000000	0.0
247	0xbf1489fa	-0.58023036
248	0x00000000	0.0
249	0x00000004	6e-45
250	0x80000004	-6e-45
251	0x00000004	6e-45
252	0x00000004	6e-45
253	0x00000000	0.0
254	0xbec45a5d	-0.38350192
255	0xbf682b1b	-0.90690774
