src/model_data/Abu_Dhabi_Grand_Prix_model.pth (torch, 198037 bytes, 21 tensors)

net.0.weight f4 [128, 48]
0	0xbc057062	-0.00814447
1	0xbe0743ac	-0.13209409
2	0xbd5f09d1	-0.05445272
3	0xbe018a3e	-0.12650391
4	0xbc6559fe	-0.013998507
5	0xbe26f757	-0.1630529
6	0xbdfbf921	-0.12303377
7	0xbe118d08	-0.14213955
8	0xbe6b443f	-0.22975253
9	0x3cd843db	0.026399544
10	0x3d432d66	0.047650717
11	0xbe41c605	-0.18923195
12	0x3e239763	0.15975718
13	0xbe1e4766	-0.15456924
14	0xbe01b306	-0.12665948
15	0xbe195bfe	-0.14976498
16	0x3df422a1	0.119206674
17	0xbbc1842c	-0.0059056487
18	0x3e04f757	0.12984978
19	0xbe2a3740	-0.16622639
20	0x3cb6d1d9	0.02231686
21	0xbd063f9d	-0.03277551
22	0x3e2964ec	0.16542405
23	0xbdebf1ca	-0.11520727
24	0xbe08f90b	-0.13376252
25	0xbe33d062	-0.1755996
26	0xbe3d349e	-0.18477103
27	0xbd270fb3	-0.040786456
28	0xbe1cb91b	-0.15304987
29	0x3de547fe	0.11195372
30	0xbe10ce9b	-0.14141314
31	0xbe435bed	-0.19078036
32	0xbdcd5cf8	-0.10027498
33	0xbe33e4ae	-0.17567703
34	0xbd5730cc	-0.05253677
35	0xbe04a41c	-0.12953228
36	0x3df514f0	0.11966884
37	0xbe46d605	-0.1941758
38	0xbe448b95	-0.19193871
39	0xbe13a8bb	-0.14419834
40	0xbe3c3304	-0.18378836
41	0xbe1c6e9a	-0.15276566
42	0xbdcab32c	-0.098974556
43	0xbe343d71	-0.17601563
44	0x3d57f2db	0.05272184
45	0xbe104ff1	-0.14092995
46	0x3d86f601	0.0658989
47	0xbdb76519	-0.0895483
48	0xbe1a5577	-0.15071665
49	0xbe1f652e	-0.1556594
50	0x3cdc6c00	0.026906967
51	0x3deefc80	0.11669254
52	0xbdb98e18	-0.09060305
53	0x3cd1325a	0.025536705
54	0x3d6b0a0a	0.05738262
55	0xbe49b8a2	-0.19699338
56	0xbe40df34	-0.18835145
57	0xbd0b42ef	-0.03399938
58	0xbd731a73	-0.059351396
59	0x3d440c80	0.047863483
60	0x3dc357ce	0.09538232
61	0xbdded3f1	-0.10880268
62	0xbceb9f85	-0.028762588
63	0xbbf154eb	-0.0073648593
64	0xbe2849eb	-0.16434447
65	0xbe6c7130	-0.23090053
66	0xbe4366e0	-0.19082212
67	0xbe2fe63e	-0.17177674
68	0xbe278202	-0.16358188
69	0xbe6302d6	-0.2216905
70	0x3d500ffb	0.05079649
71	0xbe1807e9	-0.14846767
72	0x3ddd40f7	0.10803407
73	0xbd8506ab	-0.064954124
74	0xbe622831	-0.22085644
75	0xbd992b4e	-0.07478963
76	0x3db03013	0.086029194
77	0xbc21c3f4	-0.009873379
78	0xbe74cb29	-0.23905624
79	0xbe2b16de	-0.16707942
80	0xbe24a8f6	-0.16080078
81	0xbc8bc94e	-0.017063763
82	0xbe5f5520	-0.21809816
83	0x3d440c7e	0.047863476
84	0xbe16b292	-0.14716557
85	0xbe81e9bb	-0.25373635
86	0xbe06a865	-0.13150175
87	0xbe3ea1bf	-0.18616389
88	0x3cf59f10	0.029983073
89	0x3c8bed4f	0.017080931
90	0xbce828fb	-0.028339854
91	0xbdaaf254	-0.08347002
92	0xbdb97237	-0.09054988
93	0x3dab6d2b	0.083704315
94	0x3e3cdd57	0.1844381
95	0x3e73f8a3	0.23825316
96	0xbcab8dbe	-0.020941611
97	0xbe0bd3fa	-0.13655081
98	0x3db0999b	0.08623048
99	0xbd1ad2fe	-0.037798874
100	0xbdafa702	-0.08576776
101	0xbe676a69	-0.22599186
102	0xbe98c965	-0.29841152
103	0x3eab9d5b	0.3351849
104	0x3dce08cb	0.10060271
105	0x3b93ae1f	0.004506841
106	0xbd8461cb	-0.06463965
107	0xbe0cc707	-0.13747798
108	0xbd54192c	-0.05178182
109	0xbd9aca8c	-0.07558164
110	0xbddc577e	-0.10758875
111	0x3ec1fbe4	0.3788749
112	0xbe49a567	-0.19692002
113	0xbe8e4e55	-0.27794138
114	0xbd32698e	-0.043557696
115	0xbdc35a18	-0.095386684
116	0xbe982d9d	-0.297223
117	0xbe949a41	-0.29023936
118	0xbdfa50c5	-0.12222437
119	0x3d44aae5	0.04801454
120	0xbe8e5873	-0.27801856
121	0xbd9b77c5	-0.075912036
122	0xbdf5cfe5	-0.12002543
123	0xbcf493e1	-0.02985567
124	0x3de45a88	0.1115008
125	0xbb0cbafd	-0.0021473758
126	0x3c7a2972	0.01526867
127	0xbdd52522	-0.10407473
128	0x3da683a2	0.08130576
129	0x3e953f2f	0.29149768
130	0xbd802a43	-0.06258061
131	0xbe5ca37b	-0.21546738
132	0x3cb1113c	0.021614663
133	0xbe3322fb	-0.17493813
134	0xbf815dc2	-1.0106738
135	0xbf8721a6	-1.0557144
136	0xbf61c8fc	-0.881973
137	0xbeddc2b1	-0.433126
138	0xbecbf9d7	-0.3983905
139	0xbe6569bd	-0.22403617
140	0x3f45a5ed	0.7720631
141	0x3f4bc5dd	0.7959879
142	0x3f1d82f4	0.61527944
143	0x3ed64524	0.41849625
144	0x3e4712ac	0.19440717
145	0x3c4a02a6	0.012329733
146	0x3eaa59bc	0.33271587
147	0xbd82f59b	-0.06394502
148	0xbd23cf9a	-0.039992906
149	0x3e018f39	0.12652291
150	0x3d1f0cb0	0.03883046
151	0xbed460da	-0.41480142
152	0x3daf3925	0.08555821
153	0x3e064ef9	0.13116063
154	0xbd8580f6	-0.06518738
155	0xbc35efa1	-0.011104495
156	0x3d2e01b1	0.04248208
157	0xbe5c6715	-0.21523698
158	0xbd3873ed	-0.04503243
159	0x3e281bb7	0.16416822
160	0xbd8059b8	-0.062671125
161	0xbe36e929	-0.17862381
162	0x3dbedf73	0.09319963
163	0x3c825e94	0.015914239
164	0x3db61f5e	0.088927016
165	0xbe31c51e	-0.1736035
166	0x3da5b074	0.080902964
167	0x3d8c4e2e	0.06850849
168	0x3e656d2b	0.22404926
169	0x3dfa54c2	0.122231975
170	0xbe7db296	-0.24775156
171	0xbfa99b95	-1.3250605
172	0x3d6f41b8	0.058412284
173	0x3d6f045d	0.05835377
174	0x3e51dd86	0.2049466
175	0x3e636998	0.2220825
176	0xbe51b39a	-0.20478669
177	0xbee3a74f	-0.44463584
178	0x3e01715e	0.12640902
179	0x3df10d01	0.117700584
180	0xbf1725f9	-0.59042317
181	0x3da95507	0.08268171
182	0x3ea4e2a6	0.3220417
183	0x3f0c7754	0.5486958
184	0x3f6f2fb0	0.9343214
185	0xbcb18ad0	-0.021672636
186	0x3e930b0e	0.28719372
187	0xbedf1ae3	-0.435752
188	0xbe859fd1	-0.26098493
189	0x3e8ebf67	0.27880403
190	0x3f550242	0.8320657
191	0x3edaa677	0.42705128
192	0x3d8c58d6	0.068528816
193	0xbd914b81	-0.07094479
194	0x3db358d1	0.08757175
195	0xbc1b1d95	-0.009467502
196	0x3c1de639	0.009637409
197	0x3e3b4fab	0.1829211
198	0xbe631eec	-0.22179765
199	0x3efede37	0.4977891
200	0xbe603619	-0.21895637
201	0x3da6ee49	0.08150918
202	0xbbaaf92e	-0.005217693
203	0x3c37bc5e	0.011214344
204	0xbdc62eda	-0.09676905
205	0x3e39ef9b	0.18157808
206	0xbe5eb280	-0.2174778
207	0x3e854f45	0.2603704
208	0xbdf04ac2	-0.11733009
209	0x3c17d373	0.009266722
210	0x3dc9195e	0.098192915
211	0xbd98d1ee	-0.07461916
212	0x3dfdb74d	0.123884775
213	0xbdb29776	-0.08720295
214	0x3e07cd43	0.13261895
215	0xbe286a44	-0.16446787
216	0xbe4a30b1	-0.19745137
217	0x3c85c1dc	0.01632779
218	0xbdb80063	-0.08984449
219	0x3d836eb3	0.064175986
220	0x3de24ca9	0.11049778
221	0xbdb935c2	-0.090434566
222	0xbe5d815d	-0.2163138
223	0xbe3bb99d	-0.18332525
224	0xbe2942be	-0.16529366
225	0xbe3ec627	-0.18630277
226	0xbe811572	-0.25211674
227	0xbe828b6f	-0.25497004
228	0xbe479256	-0.19489416
229	0x3d1faa96	0.038981043
230	0xbcb90d5f	-0.022589384
231	0x3cd69f4a	0.026199002
232	0x3dd59a14	0.10429779
233	0xbe8ba2c4	-0.27272618
234	0xbd4949d0	-0.04914266
235	0xbea03485	-0.3129007
236	0x3eb680d0	0.3564515
237	0x3e2abfac	0.1667468
238	0x3dfbbc88	0.12291819
239	0xbe2ec746	-0.17068204
240	0xbea0ca9a	-0.31404573
241	0xbdb0e99a	-0.08638306
242	0xbe59146f	-0.21199201
243	0xbebf8b42	-0.37410933
244	0xbdd3b8f4	-0.103380114
245	0xbe4c2b12	-0.19938305
246	0xbd40b71f	-0.047049638
247	0x3f3aba76	0.72940767
248	0x3d9430df	0.07235884
249	0x3dce6f37	0.10079806
250	0xbe311530	-0.17293239
251	0xbe26cb23	-0.16288428
252	0xbd4e05bc	-0.050298437
253	0xbcd2666f	-0.02568361
254	0x3dbda3e3	0.092597745
255	0x3ea48820	0.32135105

net.0.bias f4 [128]
0	0xbd81397e	-0.06309794
1	0xbda37ad9	-0.07982416
2	0x3eb15122	0.34632212
3	0xbe743123	-0.23846869
4	0x3ebe9c76	0.37228745
5	0x3ebd4966	0.3697006
6	0x3eada719	0.33916548
7	0x3ef73864	0.4828521
8	0xbd5d5632	-0.05403728
9	0xbddbc163	-0.10730245
10	0xbda4c821	-0.08045984
11	0xbd0c9f17	-0.034331407
12	0x3ee646a7	0.44975778
13	0x3ef708b4	0.48248827
14	0x3e9b8165	0.30372158
15	0x3efa45e1	0.48881438
16	0x3eda2b74	0.42611277
17	0x3ef8ccca	0.48593742
18	0xbd90b885	-0.07066444
19	0xbd19fb7c	-0.03759335
20	0x3e96114a	0.29310066
21	0xbcafe0f2	-0.021469567
22	0x3e464ef9	0.19366063
23	0x00000000	0.0
24	0x3e8efe43	0.2792836
25	0xbdb2a480	-0.08722782
26	0x3e800db5	0.25010458
27	0xbcbebd32	-0.023283575
28	0xbd41b4aa	-0.047291435
29	0xbd7de131	-0.061982337
30	0xbe303cb2	-0.17210653
31	0x3ef8907c	0.48547733
32	0x3e94d7ea	0.2907098
33	0xbe49166d	-0.19637461
34	0x3ef92214	0.48658812
35	0xbda2d93c	-0.079515904
36	0xbcd723cb	-0.026262185
37	0x3ef72f6b	0.48278365
38	0x3ef74545	0.48295036
39	0xbce087d6	-0.027408522
40	0xbe717118	-0.23578298
41	0x3eeae069	0.45874336
42	0x3eef9721	0.4679499
43	0x00000000	0.0
44	0x00000000	0.0
45	0xbd809f66	-0.06280403
46	0xbdb13543	-0.08652737
47	0x3ef9ca9e	0.48787397
48	0x3e5e49a8	0.21707785
49	0xbe0580bd	-0.13037391
50	0xbd470ffd	-0.048599232
51	0x3e94c822	0.2905894
52	0x3ed2a8e4	0.41144478
53	0x3eb0cf9f	0.34533402
54	0xbe1dce93	-0.15410833
55	0x3e776b79	0.24162091
56	0xbe409d0c	-0.18809909
57	0xbd49687d	-0.049171913
58	0x3ef67207	0.4813387
59	0x3eecc202	0.46241766
60	0xbcf580ac	-0.029968582
61	0xbd406d19	-0.046979044
62	0x3eeaed84	0.45884335
63	0xbc90bb52	-0.017667446
64	0x3eef9712	0.46794945
65	0xbd4ae230	-0.049532115
66	0xbdb3c11d	-0.08777068
67	0x3ef9cb1f	0.48787782
68	0xbd47ff4c	-0.048827454
69	0x00000000	0.0
70	0xbd830390	-0.06397164
71	0x3eb8458b	0.35990557
72	0xbd956041	-0.072937496
73	0xbc80767a	-0.015681494
74	0x3edd9aab	0.43282065
75	0xbdf5283c	-0.11970565
76	0xbdb6c96d	-0.08925138
77	0xbcc37966	-0.023861598
78	0x3bd93b0e	0.0066293543
79	0x00000000	0.0
80	0x00000000	0.0
81	0x3e4ed789	0.20199408
82	0x3ed3a282	0.4133492
83	0xbe16be2d	-0.14720984
84	0xbcb07166	-0.021538448
85	0x3e3c731f	0.1840329
86	0x3b9d3460	0.0047975034
87	0xbd954873	-0.07289209
88	0xbd67905f	-0.056534167
89	0x3e7a429e	0.24439475
90	0x3e43faa1	0.19138576
91	0x3eecbdc3	0.46238527
92	0xbe0bd11f	-0.13653992
93	0xbcec04c7	-0.028810872
94	0x3e98ae20	0.29820347
95	0xbd0bcf50	-0.034133255
96	0x3ef651b2	0.48109204
97	0xbd357f12	-0.044310637
98	0x3ee9b7d1	0.45648053
99	0x00000000	0.0
100	0xbddad4e3	-0.10685136
101	0x3efc1beb	0.4924005
102	0xbd4f2fd7	-0.050582733
103	0xbe00aa74	-0.12565023
104	0xbdb20133	-0.08691635
105	0xbdccad54	-0.09993997
106	0x3edc8434	0.43069613
107	0x3ef5422c	0.47902048
108	0x00000000	0.0
109	0x3ea7d449	0.32779148
110	0xbeaa6d62	-0.33286577
111	0x00000000	0.0
112	0x3ef5050e	0.4785542
113	0x3ee3a635	0.44462743
114	0x00000000	0.0
115	0xbe1806ed	-0.14846392
116	0x3ef6d01f	0.4820566
117	0x3edd1d53	0.43186435
118	0xbe4bdf39	-0.19909371
119	0x3ef8d3b2	0.4859901
120	0x3e6c3f6e	0.23071072
121	0xbce3a96c	-0.027790748
122	0xbe684a08	-0.2268449
123	0x3e55fb5e	0.2089667
124	0x3ef6a8a0	0.48175526
125	0xbdbaa31f	-0.09113144
126	0xbdaaf68c	-0.08347806
127	0x3e7ac5b6	0.24489483

net.2.weight f4 [64, 128]
0	0xbd1ef8d8	-0.038811535
1	0xbca3226c	-0.019913875
2	0xbe2d04ad	-0.16896315
3	0xbe426474	-0.18983632
4	0xbdb73e08	-0.089473784
5	0xbe3f2234	-0.18665391
6	0x3e1a423c	0.15064329
7	0x3d26a13b	0.040681105
8	0xbd1ded7e	-0.03855657
9	0x3d202042	0.039093263
10	0xbe1cb1f1	-0.15302254
11	0xbcb5ee40	-0.022208333
12	0xbdd62a6a	-0.104573086
13	0x3dc051ae	0.09390579
14	0xbe669702	-0.22518542
15	0xbd0bd5e1	-0.034139518
16	0xbdcb2c3c	-0.099205464
17	0xbcd3aab2	-0.02583823
18	0x3e1a3f7b	0.15063278
19	0x3cf10931	0.029423328
20	0x3ded91fa	0.116001084
21	0xbe10a7fd	-0.14126582
22	0xbb16ac06	-0.0022990718
23	0x3e24e3f3	0.1610258
24	0x3d1a9215	0.03773697
25	0x3d73d7f9	0.05953214
26	0x3e09f9c7	0.13474189
27	0xbda7d5e2	-0.08195092
28	0x3dc6535e	0.0968387
29	0xbd8168eb	-0.0631884
30	0xbe22f697	-0.15914379
31	0xbdd0d636	-0.101971075
32	0xbdf1b617	-0.11802309
33	0x3d955db6	0.072932646
34	0xbe1f44d9	-0.15553607
35	0xbe0b2e41	-0.13591863
36	0x3d200f39	0.039077017
37	0xbd9a1b82	-0.07524778
38	0x3e16da92	0.14731815
39	0xbbf4b7ff	-0.007468223
40	0x3d3f60c1	0.04672313
41	0x3e022e97	0.12713085
42	0xbd5aafe6	-0.053390406
43	0xbde27c42	-0.110588565
44	0xbd74f23a	-0.059801318
45	0x3cce169e	0.02515727
46	0x3d9629b5	0.07332174
47	0xbc0dabf3	-0.008646953
48	0xbe0626e3	-0.13100772
49	0xbc81a67d	-0.015826458
50	0x3d341794	0.0439678
51	0xbd91a486	-0.071114585
52	0xbdcb3a55	-0.09923235
53	0x3cf1422e	0.029450502
54	0xbdee010d	-0.11621294
55	0xbdacdd09	-0.084405966
56	0x3ccaa9a6	0.024739098
57	0xbd310b5a	-0.043223716
58	0x3ccf313a	0.025292028
59	0x3cbaf266	0.022820663
60	0x3e0a9664	0.13533932
61	0x3e1056bd	0.14095588
62	0xbdf73dab	-0.12072309
63	0xbe10df8f	-0.14147781
64	0xbc48aef8	-0.012248747
65	0x3d353a73	0.044245195
66	0xbd78660e	-0.060644202
67	0xbddbee0d	-0.10738764
68	0xbd811964	-0.06303671
69	0x3beb527e	0.0071814647
70	0x3df87865	0.121323384
71	0x3d92e2db	0.071721755
72	0xbdc655d9	-0.09684343
73	0xbe06a23f	-0.1314783
74	0x3e0b8995	0.13626702
75	0xbdeeb44e	-0.11655484
76	0x3db017b9	0.08598275
77	0xbe10e3db	-0.1414942
78	0xbd682be0	-0.056682467
79	0xbdf9ae19	-0.121914096
80	0xbe2563bc	-0.16151327
81	0xbc90640f	-0.017625837
82	0x3e2035b1	0.15645482
83	0x3c30c5bc	0.010789331
84	0x3cbc09e6	0.022953939
85	0x3c2c7fde	0.010528533
86	0xbcc0cc14	-0.023534812
87	0xbde9670e	-0.11396609
88	0x3dca76eb	0.09885963
89	0xbc3fdde7	-0.0117106205
90	0xbc569859	-0.013097846
91	0xbdfb67f1	-0.122756846
92	0x3de6e64d	0.11274395
93	0x3dcb33ee	0.09922014
94	0xbd09c844	-0.033638254
95	0x3d8e57a3	0.06950309
96	0xbd96c391	-0.0736152
97	0x3d790bd5	0.0608023
98	0xbd593b3b	-0.053035002
99	0xbe32897d	-0.1743526
100	0xbdba6d3d	-0.09102867
101	0x3e16e797	0.14736782
102	0xbd4e61ea	-0.050386347
103	0xbcd5e4c9	-0.02611007
104	0x3df49503	0.11942484
105	0xbe35d49f	-0.1775689
106	0x3d815846	0.06315665
107	0xbd48a0ec	-0.048981592
108	0x3e23a4b9	0.15980805
109	0x3e0096f8	0.1255759
110	0xbba6bebe	-0.005088656
111	0x3d0849b5	0.033273418
112	0x3e01628b	0.12635247
113	0x3d15a685	0.03653576
114	0xbdd9aebb	-0.1062903
115	0xbb252a10	-0.0025202073
116	0xbdda8409	-0.10669715
117	0x3da58155	0.08081309
118	0x3e2a5080	0.16632271
119	0x3d8ed207	0.06973653
120	0x3def4219	0.11682529
121	0xbb258a6d	-0.002525951
122	0xbceafd16	-0.028685134
123	0xbd877cf3	-0.06615629
124	0x3e310f3c	0.17290968
125	0x3de3f9e2	0.11131646
126	0x3daf0707	0.08546262
127	0xbc81441a	-0.015779544
128	0xbd345673	-0.044027757
129	0xbe3c3ce0	-0.18382597
130	0x3ab11579	0.0013510428
131	0xbce61047	-0.028083934
132	0x3d845d92	0.064631596
133	0xbe57d5fc	-0.21077722
134	0x3da23be8	0.079215825
135	0x3ea72c86	0.32651156
136	0xbe345f78	-0.17614543
137	0x3e18445b	0.14869826
138	0xbe77be94	-0.24193794
139	0xbd71e891	-0.059059683
140	0x3e115df0	0.1419599
141	0x3effc26e	0.49953026
142	0x3e13a887	0.14419757
143	0x3ed0e551	0.40799955
144	0x3f088c3b	0.53338975
145	0x3eeea2b5	0.4660851
146	0xbbcde72b	-0.006283661
147	0x3da166cc	0.07880935
148	0xbdc510cd	-0.09622345
149	0xbcfd97e4	-0.030956216
150	0x3dfe1b2a	0.12407525
151	0x3e17be57	0.14818703
152	0x3e0880bf	0.13330363
153	0x3de118cb	0.10991057
154	0x3df326e8	0.11872655
155	0xbe6fcc22	-0.23417714
156	0x3d5f91bf	0.054582354
157	0x3e09f90b	0.13473909
158	0xbeaa2de2	-0.3323813
159	0x3e953ce4	0.29148018
160	0x3d7fbc7f	0.062435623
161	0xbec46fe3	-0.38366613
162	0x3f10b0cd	0.56519777
163	0x3c16a981	0.009195686
164	0x3c1ba8e8	0.00950072
165	0x3ead3385	0.3382837
166	0x3ee8bfb5	0.4545876
167	0xbec38a03	-0.38191232
168	0x3ce48e99	0.027900027
169	0x3e9d8c3f	0.30771062
170	0x3f20b599	0.62777096
171	0x3d6cdb12	0.05782611
172	0x3cbcddee	0.023055043
173	0xbe35a513	-0.17738752
174	0xbcae5f1e	-0.02128559
175	0x3ec7ff04	0.3906175
176	0x3cba69b2	0.022755478
177	0x3db393c2	0.08768417
178	0xbddaa536	-0.10676043
179	0xbd91dd36	-0.07122271
180	0x3eb4636f	0.35232112
181	0x3def4e77	0.11684888
182	0xbdd31474	-0.103066355
183	0x3cc594e2	0.024118844
184	0x3de7fafb	0.113271676
185	0xbe361e77	-0.17785059
186	0x3f13fe5c	0.57809997
187	0x3ed8f18c	0.42371786
188	0x3d805a29	0.06267197
189	0xbd84db78	-0.06487173
190	0x3ef59da8	0.47971845
191	0xbe41f700	-0.1894188
192	0x3e1d0654	0.15334445
193	0x3de93e96	0.113888904
194	0x3c8d534d	0.017251635
195	0x3e971136	0.29505318
196	0xbda56a0a	-0.08076866
197	0xbc5dbfdb	-0.013534511
198	0x3d5b1fa9	0.05349699
199	0x3da9c339	0.08289189
200	0x3e07e34d	0.13270302
201	0xbded5a4e	-0.1158949
202	0x3e5d1bdb	0.21592657
203	0xbe2f9d47	-0.1714984
204	0x3e1fbcbb	0.15599339
205	0xbc1ea1e0	-0.009682149
206	0x3d5c16ba	0.05373261
207	0x3e056c5d	0.13029619
208	0xbd8c7e4a	-0.06860025
209	0x3dd3fa10	0.1035043
210	0x3ec6bd0b	0.38816103
211	0xbe1ed8e2	-0.15512422
212	0x3deaf6b5	0.11472837
213	0x3db518d9	0.0884263
214	0xbe2c1125	-0.16803415
215	0xbd41ddcb	-0.04733066
216	0x3d44d570	0.048055112
217	0xbdcfcd12	-0.10146536
218	0x3bb91781	0.005648554
219	0x3ee433dc	0.44570816
220	0xbd9af71c	-0.075666636
221	0xbd63193d	-0.05544399
222	0x3db403a1	0.08789755
223	0xbdd60a89	-0.10451228
224	0xbd3fd8dc	-0.046837673
225	0xbde6c94e	-0.112688646
226	0x3eae1796	0.3400237
227	0xbe06a650	-0.1314938
228	0x3e4b3e98	0.19848096
229	0x3e9c4250	0.30519342
230	0xbeb94d96	-0.36192006
231	0x3ca11d92	0.01966742
232	0x3da4d0b3	0.08047619
233	0xbdacf962	-0.084460035
234	0x3c64d788	0.013967402
235	0x3eaacf5c	0.33361328
236	0xbdff5852	-0.12468018
237	0xbbbee561	-0.005825684
238	0xbb8b36f7	-0.0042484957
239	0x3e01133b	0.12604992
240	0x3ef7b461	0.48379806
241	0x3edecf90	0.43517733
242	0xbda140f3	-0.07873716
243	0x3d017ed0	0.03161508
244	0x3f1aeb4a	0.6051527
245	0x3e34bb98	0.17649686
246	0xbe9af226	-0.3026287
247	0x3f10f90d	0.5663002
248	0x3da03f84	0.07824615
249	0x3dafa2af	0.08575951
250	0x3d5b5fa1	0.053557996
251	0x3d8c4b0b	0.06850251
252	0x3ef0773e	0.46965975
253	0xbc0b54a6	-0.0085040685
254	0x3dfb062c	0.122570366
255	0x3c65acf6	0.014018288

net.2.bias f4 [64]
0	0xbcdb7fb6	-0.026794296
1	0x3e8e53b1	0.27798226
2	0x3e946c16	0.28988713
3	0xbd76856a	-0.060185827
4	0xbd821c6d	-0.06353078
5	0x3e99e02a	0.30053836
6	0x3ebdfb00	0.3710556
7	0x3e898b6f	0.26864192
8	0x3daceef5	0.08444015
9	0x3e8c4e61	0.27403548
10	0x3ed070fe	0.40711206
11	0x3efdc533	0.49564514
12	0x3e92d062	0.28674608
13	0x3eb75298	0.35805202
14	0xbe3414ed	-0.17586108
15	0x3e48ab72	0.19596651
16	0x3de8239c	0.11334917
17	0xbd358cbe	-0.044323675
18	0xbd505df5	-0.050870854
19	0xbd66ac34	-0.05631657
20	0x3e82e5f2	0.2556606
21	0xbd5c8f20	-0.053847432
22	0x3ea20253	0.31642398
23	0x3cba2797	0.022723956
24	0xbc9abe67	-0.018889619
25	0xbca0331d	-0.019555623
26	0xbd13cd56	-0.036084495
27	0xbdfdc514	-0.12391105
28	0x3e33cf58	0.17559564
29	0xbd021a2c	-0.03176324
30	0xbd9d37e1	-0.07676674
31	0xbd63c67e	-0.05560922
32	0xbde3cc06	-0.11122899
33	0xbd32a028	-0.04360977
34	0xbd021cd0	-0.03176576
35	0xbe3f6803	-0.18692021
36	0x3e1fc5f5	0.15602858
37	0x3ea0ebe5	0.31429973
38	0xbd27ce16	-0.040968023
39	0x00000000	0.0
40	0xbd18d1c7	-0.037309434
41	0xbdf78106	-0.12085156
42	0x3eddc0b6	0.4331109
43	0xbd72a516	-0.05923947
44	0xbc3fd9a8	-0.011709608
45	0xbd9218af	-0.07133614
46	0x3edd1f22	0.43187815
47	0x3e480c8d	0.19536038
48	0x3e98be6d	0.29832783
49	0xbe1fac19	-0.15592994
50	0xbe1cf014	-0.15325958
51	0xbcea0658	-0.028567478
52	0x3e943515	0.28946748
53	0xbda1a076	-0.078919336
54	0xbd80f41e	-0.06296562
55	0xbdf34cd5	-0.11879889
56	0xbcd69666	-0.026194762
57	0xbde3f836	-0.11131327
58	0xbd092aca	-0.033488072
59	0xbe0797af	-0.13241456
60	0x3e418f2e	0.18902275
61	0xbe3b9f78	-0.18322551
62	0x3e456ccf	0.19279788
63	0xbd425714	-0.047446325

net.4.weight f4 [16, 64]
0	0xbdfc470a	-0.12318237
1	0x3e9b0443	0.3027669
2	0xbd722dc6	-0.059125684
3	0x3de10844	0.10987905
4	0x3e99c3b5	0.30032125
5	0x3da5db50	0.08098471
6	0xbdd8dc5c	-0.10588905
7	0x3d27693e	0.04087185
8	0xbdca5e4d	-0.09881268
9	0xbd2af596	-0.041738115
10	0xbe68a815	-0.22720368
11	0x3e6761c9	0.22595896
12	0x3da6709b	0.081269465
13	0x3edcc56f	0.4311938
14	0xbe9d1eb2	-0.3068748
15	0x3e430091	0.19043185
16	0xbe1ad7db	-0.15121405
17	0x3df9ffa4	0.12206963
18	0x3e6e9bd8	0.23301637
19	0xbe62f2d0	-0.22162938
20	0x3da7f85a	0.08201666
21	0x3dbf7c00	0.09349823
22	0xbe86fa93	-0.26363048
23	0x3d87bcdc	0.06627819
24	0x3e6d293d	0.23160262
25	0xbde0b34e	-0.109717
26	0xbe1af208	-0.1513139
27	0xbe51f0fb	-0.20502083
28	0x3d06c852	0.032905884
29	0xbe33f781	-0.17574884
30	0xbd6646f0	-0.056219995
31	0xbe6ced9e	-0.23137519
32	0x3c866b5b	0.016408613
33	0x3e4aa15a	0.19788113
34	0x3e0fedf7	0.1405562
35	0xbe156521	-0.14589359
36	0x3e1ddd4d	0.15416451
37	0xbe2c6c7c	-0.16838259
38	0x3d6032c5	0.054735918
39	0x3dc8dd4f	0.09807836
40	0x3e4fc840	0.20291233
41	0x3d86c6ae	0.06580864
42	0x3f07d659	0.53061444
43	0x3e15a063	0.14611964
44	0xbdaffae4	-0.085927755
45	0xbe818b58	-0.25301623
46	0x3e91d726	0.28484458
47	0xbc660912	-0.0140402485
48	0x3d0b8629	0.034063492
49	0x3bbca3b8	0.0057568215
50	0xbd6b771b	-0.057486635
51	0xbe3fc679	-0.18728055
52	0x3dc5b3ee	0.096534595
53	0xbd86d020	-0.065826654
54	0xbe88052f	-0.26566455
55	0xbdfd6150	-0.123720765
56	0x3e731739	0.23739327
57	0x3dc5f560	0.09665942
58	0x3e6e144d	0.23249932
59	0xbe2eff92	-0.1708968
60	0xbe322ef6	-0.17400727
61	0xbece421c	-0.40284812
62	0x3ce508f1	0.027958365
63	0x3e7f40a8	0.24927008
64	0x3e575350	0.21027875
65	0x3e549245	0.20758922
66	0x3e7c870c	0.24660891
67	0x3c891ae0	0.016736448
68	0x3cf2b5cf	0.029627709
69	0x3e37a774	0.17934972
70	0xbe4b7b1a	-0.19871178
71	0x3e49cf1f	0.19707917
72	0x3bf68e87	0.007524315
73	0xbe060818	-0.13089025
74	0x3e380cc8	0.17973626
75	0x3ea93740	0.33049965
76	0x3d91bb52	0.07115807
77	0xbcd86b4c	-0.02641835
78	0xbbb60a56	-0.0055554314
79	0x3d63521c	0.055498227
80	0x3e8ed4a8	0.2789662
81	0xbe1735ee	-0.14766666
82	0xbe219d91	-0.15782763
83	0x3e5f1439	0.21785058
84	0xbe78467d	-0.24245639
85	0x3e59088a	0.21194664
86	0x3d75447f	0.059879776
87	0x3e21d754	0.15804797
88	0x3c8f137c	0.017465346
89	0xbc2b9ebb	-0.010474856
90	0x3dfc25c1	0.123118885
91	0xbd1345cd	-0.03595524
92	0x3e22a186	0.15881929
93	0xbe0eeed1	-0.13958289
94	0xbdf08118	-0.11743373
95	0xbe2e1b25	-0.17002542
96	0xbdf49ed6	-0.11944358
97	0xbe1f1da1	-0.15538646
98	0xbd427014	-0.047470167
99	0xbdec4ca3	-0.11538055
100	0x3ded1cbe	0.11577748
101	0xbd691960	-0.056908965
102	0x3da6b568	0.08140069
103	0x3e5449ce	0.20731279
104	0xbdc863c9	-0.097846575
105	0xbc97986d	-0.0185053
106	0x3ed37aa0	0.41304493
107	0xbe5da8df	-0.2164645
108	0xbbaa06b2	-0.0051887864
109	0xbc77a797	-0.01511564
110	0x3eab0f5e	0.33410162
111	0x3d7aab5b	0.061198574
112	0x38d3b881	0.000100956306
113	0x3dde1dd8	0.10845536
114	0xbd85184e	-0.064987764
115	0xbe20abfd	-0.15690608
116	0x3d85cc33	0.065330885
117	0x3e3eb801	0.1862488
118	0x3e72a9e5	0.23697622
119	0xbe573a57	-0.21018349
120	0x3e47f76f	0.19527982
121	0x3e04741a	0.12934914
122	0xbce5548c	-0.027994417
123	0x3dc2b41a	0.09507008
124	0x3c1de1f6	0.009636393
125	0xbe3d111e	-0.18463561
126	0xbd9d8ace	-0.076924905
127	0x3d2b4515	0.04181393
128	0x3e403f75	0.18774207
129	0x3d0e647e	0.034763806
130	0xbe2cd2f4	-0.16877347
131	0xbe29db81	-0.1658764
132	0xbe7185d1	-0.23586203
133	0xbe3b0804	-0.18264776
134	0xbe952819	-0.29132155
135	0x3e5cb4ca	0.2155334
136	0xbe60d187	-0.21954928
137	0x3d867570	0.06565368
138	0xbe9f68d5	-0.31134668
139	0x3d6370ab	0.05552737
140	0xbe9e79da	-0.3095234
141	0x3d19fca1	0.03759444
142	0xbe3268d8	-0.17422807
143	0x3deae17b	0.11468788
144	0xbe2a4cef	-0.1663091
145	0x3e2af675	0.16695578
146	0xbe139c0b	-0.14414994
147	0x3e7764ff	0.2415962
148	0x3d26f718	0.04076299
149	0x3d19b2a0	0.037523866
150	0xbd1be3d0	-0.038059056
151	0xbe8d25e2	-0.27567965
152	0xbe3ab64c	-0.18233603
153	0xbe99e1c2	-0.30055052
154	0x3e28fdc1	0.1650305
155	0xbd8689e6	-0.06569271
156	0x3e14c7f0	0.14529395
157	0x3d0041d0	0.031312764
158	0x3e66dbdc	0.22544807
159	0xbd8a0103	-0.06738474
160	0x3e5fe0bc	0.21863073
161	0x3da14a02	0.07875444
162	0x3d1c8b41	0.03821874
163	0x3e6e70b6	0.23285183
164	0x3e63c885	0.22244461
165	0x3cd181c2	0.025574569
166	0x3df83237	0.12118953
167	0xbe0b30a8	-0.1359278
168	0xbe2f6a0e	-0.171303
169	0x3da1250c	0.07868394
170	0xbe30f998	-0.17282712
171	0x3e2abb6c	0.16673058
172	0x3dcbe25b	0.09955283
173	0x3e44126a	0.1914765
174	0x3dadd73f	0.084883206
175	0xbe252183	-0.16126065
176	0xbbabae03	-0.0052392497
177	0xbe8e57cd	-0.27801362
178	0xbe05ad8e	-0.13054487
179	0xbdf4fb80	-0.11962032
180	0xbe411144	-0.18854243
181	0x3e71da44	0.23618418
182	0x3e6a5fff	0.22888182
183	0x3d114166	0.03546276
184	0xbe25b9be	-0.16184136
185	0x3e86c56f	0.26322505
186	0xbe7adfc9	-0.2449943
187	0xbe445eae	-0.19176742
188	0x3e0fa707	0.1402856
189	0xbd036231	-0.032076064
190	0x3e09a3a1	0.13441326
191	0x3e278762	0.16360238
192	0x3b17dc58	0.0023172107
193	0x3e184eb2	0.1487377
194	0x3cb9223a	0.022599328
195	0x3d11b219	0.035570238
196	0x3dcd56cd	0.100263216
197	0xbdff09ad	-0.124530174
198	0xbde42dd2	-0.11141552
199	0x3db5aef1	0.08871258
200	0xbe70c121	-0.23511173
201	0xbdc9bf8d	-0.098509885
202	0xbdf5512d	-0.11978374
203	0xbb15527e	-0.0022784765
204	0x3e066c15	0.13127168
205	0xbe02a5ca	-0.12758556
206	0x3d5caae5	0.053873915
207	0xbd5dd75e	-0.05416047
208	0xbde3f9c2	-0.11131622
209	0xbd852e94	-0.06503025
210	0xbd4a77d8	-0.0494307
211	0xbe3a50a0	-0.18194818
212	0x3b573252	0.003283639
213	0xbe57d442	-0.21077064
214	0xbdc4197d	-0.09575174
215	0xbe8803bc	-0.2656535
216	0x3d859f3d	0.06524513
217	0xbd89045c	-0.066902846
218	0x3d7c981e	0.061668508
219	0xbe209671	-0.15682389
220	0x3c2c3d27	0.010512627
221	0xbcaa0f0b	-0.020759126
222	0xbe19e6e0	-0.15029478
223	0x3d886592	0.06659998
224	0xbe23eb3c	-0.16007704
225	0x3e1e38dd	0.15451379
226	0x3e57bc1e	0.21067855
227	0xbe1bdf17	-0.15221821
228	0x3e2e6ea9	0.17034401
229	0xbd89a4ee	-0.06720911
230	0xbdd3365a	-0.10313101
231	0xbd5207a2	-0.05127681
232	0xbe237907	-0.15964137
233	0x3dd5237c	0.10407159
234	0x3e88e5f4	0.2673794
235	0x3c7fd69d	0.015615133
236	0xbddbd214	-0.107334286
237	0xbc114d59	-0.008868539
238	0x3cefde8c	0.029280923
239	0xbe821fb1	-0.25414804
240	0x3dafcaea	0.08583625
241	0xbe0f46b7	-0.1399182
242	0x3ce3463e	0.027743455
243	0xbe3ec822	-0.18631032
244	0xbce0cf0b	-0.027442476
245	0x3e7884aa	0.24269357
246	0xbcfff778	-0.031245932
247	0x3dcbed60	0.09957385
248	0x3d012030	0.031524837
249	0x3e52fbad	0.20603819
250	0x3e8b2809	0.27178982
251	0x3d7ac1b4	0.061219886
252	0x3dac9917	0.08427637
253	0xbe27e22d	-0.16394873
254	0xbc531782	-0.012884023
255	0x3bc4705b	0.005994839

net.4.bias f4 [16]
0	0x3dc79cc3	0.09746697
1	0x3f033383	0.51250476
2	0xbd9413d8	-0.072303474
3	0xbc9a52f8	-0.01883839
4	0xbe86b060	-0.26306438
5	0x3c956f6e	0.01824161
6	0x3f00988c	0.5023277
7	0x3e8a81fc	0.27052295
8	0xbe6d98a6	-0.23202762
9	0x3e8cc71c	0.27495658
10	0xbdfeeb26	-0.12447195
11	0xbd2dd08b	-0.04243521
12	0x00000000	0.0
13	0x3e8941ce	0.26808017
14	0x3e8f3ca3	0.2797595
15	0x3f004126	0.5009941

net.6.weight f4 [1, 16]
0	0xb9f8d4d6	-0.0004746082
1	0x3e8b8c19	0.27255324
2	0xbee391e0	-0.4444723
3	0xbdc46f03	-0.09591486
4	0xbc250c5a	-0.010073746
5	0x3d60e77f	0.054908272
6	0x3e295ec2	0.16540053
7	0x3daeb0dc	0.08529827
8	0xbe24a1a8	-0.16077292
9	0x3d84183d	0.064499356
10	0xbed1e816	-0.4099738
11	0xbe9d5456	-0.30728406
12	0xbecf4608	-0.40483117
13	0x3ea47c41	0.32126048
14	0x3ed84230	0.42237997
15	0x3d26a7b8	0.040687293

exp_avg f4 [128, 48]
0	0x00000004	6e-45
1	0x00000004	6e-45
2	0x00000000	0.0
3	0x00000004	6e-45
4	0x00000000	0.0
5	0x00000000	0.0
6	0x00000000	0.0
7	0x00000004	6e-45
8	0x00000004	6e-45
9	0x00000004	6e-45
10	0x00000000	0.0
11	0x00000004	6e-45
12	0x00000000	0.0
13	0x00000000	0.0
14	0x00000000	0.0
15	0x00000004	6e-45
16	0x00000004	6e-45
17	0x00000004	6e-45
18	0x00000000	0.0
19	0x00000004	6e-45
20	0x00000000	0.0
21	0x00000000	0.0
22	0x00000000	0.0
23	0x00000004	6e-45
24	0x00000004	6e-45
25	0x00000004	6e-45
26	0x00000004	6e-45
27	0x00000004	6e-45
28	0x00000004	6e-45
29	0x00000004	6e-45
30	0x00000004	6e-45
31	0x00000004	6e-45
32	0x00000004	6e-45
33	0x00000004	6e-45
34	0x00000004	6e-45
35	0x00000004	6e-45
36	0x00000004	6e-45
37	0x00000004	6e-45
38	0x00000004	6e-45
39	0x00000004	6e-45
40	0x00000004	6e-45
41	0x00000004	6e-45
42	0x00000004	6e-45
43	0x00000004	6e-45
44	0x00000000	0.0
45	0x80000004	-6e-45
46	0x80000004	-6e-45
47	0x00000004	6e-45
48	0x00000004	6e-45
49	0x00000004	6e-45
50	0x00000000	0.0
51	0x00000004	6e-45
52	0x80000004	-6e-45
53	0x80000004	-6e-45
54	0x80000004	-6e-45
55	0x00000004	6e-45
56	0x00000004	6e-45
57	0x00000004	6e-45
58	0x00000000	0.0
59	0x00000004	6e-45
60	0x80000004	-6e-45
61	0x00000004	6e-45
62	0x80000004	-6e-45
63	0x00000004	6e-45
64	0x00000004	6e-45
65	0x00000004	6e-45
66	0x00000004	6e-45
67	0x00000004	6e-45
68	0x80000004	-6e-45
69	0x00000004	6e-45
70	0x80000004	-6e-45
71	0x00000004	6e-45
72	0x00000004	6e-45
73	0x00000004	6e-45
74	0x00000004	6e-45
75	0x00000004	6e-45
76	0x00000004	6e-45
77	0x00000004	6e-45
78	0x00000004	6e-45
79	0x00000004	6e-45
80	0x00000004	6e-45
81	0x00000004	6e-45
82	0x00000004	6e-45
83	0x00000004	6e-45
84	0x00000004	6e-45
85	0x00000004	6e-45
86	0x80000004	-6e-45
87	0x80000004	-6e-45
88	0x00000004	6e-45
89	0x00000004	6e-45
90	0x00000004	6e-45
91	0x00000004	6e-45
92	0x00000000	0.0
93	0x80000004	-6e-45
94	0x80000004	-6e-45
95	0x00000004	6e-45
96	0x00000004	6e-45
97	0x00000004	6e-45
98	0x00000004	6e-45
99	0x00000004	6e-45
100	0x80000004	-6e-45
101	0x80000004	-6e-45
102	0x00000004	6e-45
103	0x00000004	6e-45
104	0x00000004	6e-45
105	0x00000004	6e-45
106	0x80000004	-6e-45
107	0x00000004	6e-45
108	0x00000004	6e-45
109	0x80000004	-6e-45
110	0x00000004	6e-45
111	0x00000004	6e-45
112	0x00000004	6e-45
113	0x00000004	6e-45
114	0x80000004	-6e-45
115	0x00000004	6e-45
116	0x80000004	-6e-45
117	0x80000004	-6e-45
118	0x00000004	6e-45
119	0x00000004	6e-45
120	0x00000004	6e-45
121	0x00000004	6e-45
122	0x00000004	6e-45
123	0x00000004	6e-45
124	0x00000004	6e-45
125	0x00000004	6e-45
126	0x00000004	6e-45
127	0x00000004	6e-45
128	0x00000004	6e-45
129	0x00000004	6e-45
130	0x00000004	6e-45
131	0x00000004	6e-45
132	0x00000004	6e-45
133	0x00000004	6e-45
134	0x00000004	6e-45
135	0x00000004	6e-45
136	0x00000004	6e-45
137	0x00000004	6e-45
138	0x00000004	6e-45
139	0x00000004	6e-45
140	0x00000004	6e-45
141	0x80000004	-6e-45
142	0x80000004	-6e-45
143	0x00000004	6e-45
144	0xbe245a39	-0.16050042
145	0xbe30952f	-0.17244409
146	0xbd17f806	-0.037101768
147	0xbd491c5e	-0.04909932
148	0xbe3b7aa5	-0.18308504
149	0xbdf4c949	-0.119524546
150	0xbe6dcb6c	-0.2322213
151	0xb3fdcdeb	-1.1818687e-07
152	0xc0c9da56	-6.3079023
153	0xc0ea688d	-7.3252625
154	0xc063fccd	-3.5623047
155	0xbf7b8c38	-0.9826083
156	0xc0dd6600	-6.918701
157	0xc0a5908e	-5.173896
158	0xc0dede95	-6.9646707
159	0x80000004	-6e-45
160	0xbb8bd4ae	-0.0042672968
161	0xbb998795	-0.004685352
162	0xba9524e1	-0.0011378789
163	0xba6bbaab	-0.0008992354
164	0xbb8ed678	-0.0043590628
165	0xbb1524e1	-0.0022757577
166	0xbbc101e3	-0.0058901175
167	0xb762a23f	-1.3508426e-05
168	0xb71b982f	-9.274153e-06
169	0xb8f31fd3	-0.00011593071
170	0xba198795	-0.000585669
171	0xba198795	-0.000585669
172	0xbe55a797	-0.20864712
173	0xb8bdacd3	-9.044413e-05
174	0x3b2dfde9	0.0026549047
175	0xba09c251	-0.00052550907
176	0xba1326aa	-0.00056133664
177	0xba56dae3	-0.0008196069
178	0xbd0276dc	-0.031851634
179	0x37b6a4d8	2.1772852e-05
180	0xbad09fd9	-0.0015916779
181	0xbb35cb76	-0.002773968
182	0x389005f4	6.867564e-05
183	0x39a18b8a	0.00030812278
184	0x3b0ba639	0.0021308793
185	0x3a8d3bf7	0.0010775317
186	0x3bc1ab00	0.0059102774
187	0x3e2772b0	0.16352344
188	0xbad9ffc1	-0.0016632007
189	0x399744b1	0.00028852143
190	0x3b2c32c3	0.0026275374
191	0x3917fbe1	0.00014494314
192	0x80000004	-6e-45
193	0x80000004	-6e-45
194	0x00000000	0.0
195	0x80000004	-6e-45
196	0x00000004	6e-45
197	0x00000004	6e-45
198	0x00000004	6e-45
199	0x80000004	-6e-45
200	0x80000004	-6e-45
201	0x80000004	-6e-45
202	0x00000000	0.0
203	0x80000004	-6e-45
204	0x00000000	0.0
205	0x00000000	0.0
206	0x00000004	6e-45
207	0x80000004	-6e-45
208	0x80000004	-6e-45
209	0x80000004	-6e-45
210	0x00000004	6e-45
211	0x80000004	-6e-45
212	0x00000004	6e-45
213	0x00000004	6e-45
214	0x00000004	6e-45
215	0x80000004	-6e-45
216	0x80000004	-6e-45
217	0x80000004	-6e-45
218	0x80000004	-6e-45
219	0x80000004	-6e-45
220	0x80000004	-6e-45
221	0x80000004	-6e-45
222	0x80000004	-6e-45
223	0x80000004	-6e-45
224	0x80000004	-6e-45
225	0x80000004	-6e-45
226	0x80000004	-6e-45
227	0x80000004	-6e-45
228	0x80000004	-6e-45
229	0x80000004	-6e-45
230	0x80000004	-6e-45
231	0x80000004	-6e-45
232	0x80000004	-6e-45
233	0x80000004	-6e-45
234	0x80000004	-6e-45
235	0x80000004	-6e-45
236	0x80000004	-6e-45
237	0x00000004	6e-45
238	0x00000004	6e-45
239	0x00000004	6e-45
240	0x3e229ef6	0.15880951
241	0x3e321363	0.17390208
242	0x3d195b3c	0.037440524
243	0x3d453d7b	0.048154335
244	0x3e396eb5	0.18108638
245	0x3df50735	0.11964265
246	0x3e66f3f7	0.22554003
247	0xb2df1e73	-2.5974463e-08
248	0x40c93131	6.287255
249	0x40e9a09e	7.3008566
250	0x405cf763	3.4525993
251	0x3f749701	0.95542914
252	0x40db4768	6.8524666
253	0x40a98a98	5.298168
254	0x40dcfba8	6.9057198
255	0x00000004	6e-45

exp_avg_sq f4 [128, 48]
0	0x212d825c	5.878721e-19
1	0x25aa6673	2.9559721e-16
2	0x00000000	0.0
3	0x231dc47f	8.552597e-18
4	0x00000000	0.0
5	0x00000000	0.0
6	0x00000000	0.0
7	0x1f8b4ecf	5.899917e-20
8	0x2883300f	1.4564764e-14
9	0x2c6f8530	3.4037877e-12
10	0x00000000	0.0
11	0x2a17a9b1	1.3470368e-13
12	0x00000000	0.0
13	0x00000000	0.0
14	0x00000000	0.0
15	0x1f847406	5.609612e-20
16	0x1a310dc3	3.661386e-23
17	0x1fa53300	6.996459e-20
18	0x00000000	0.0
19	0x1ced1a53	1.5690149e-21
20	0x00000000	0.0
21	0x00000000	0.0
22	0x00000000	0.0
23	0x1768c398	7.5210117e-25
24	0x1768c398	7.5210117e-25
25	0x1b8aa880	2.2939075e-22
26	0x1a310c26	3.6612556e-23
27	0x1fa532bf	6.996417e-20
28	0x227cfcba	3.428616e-18
29	0x1768c558	7.5212326e-25
30	0x1e0e1120	7.520959e-21
31	0x22294249	2.2938862e-18
32	0x1f6e8722	5.051024e-20
33	0x1fa53373	6.9965334e-20
34	0x27aa6666	4.72955e-15
35	0x1f856c15	5.65065e-20
36	0x22010fb3	1.7491071e-18
37	0x25740190	2.1164156e-16
38	0x0a88d8da	1.3177894e-32
39	0x0c88d8da	2.108463e-31
40	0x113b5908	1.4779134e-28
41	0x1fa532bf	6.996417e-20
42	0x1fa532bf	6.996417e-20
43	0x27ec081c	6.551195e-15
44	0x00000000	0.0
45	0x1b72b9e0	2.007783e-22
46	0x22aa6999	4.61904e-18
47	0x1da5cb54	4.3885373e-21
48	0x2502fe8e	1.1361949e-16
49	0x28ad295c	1.9224795e-14
50	0x00000000	0.0
51	0x2638b42a	6.408199e-16
52	0x241674a2	3.2624857e-17
53	0x1c94bc81	9.842546e-22
54	0x2543d9c3	1.6987334e-16
55	0x22708410	3.2595978e-18
56	0x2ba8c67b	1.1992207e-12
57	0x2f5371a2	1.9230709e-10
58	0x00000000	0.0
59	0x2d0b5297	7.919574e-12
60	0x2ad001ca	3.6949464e-13
61	0x246c1a8e	5.1196835e-17
62	0x2bbcfeb0	1.3428893e-12
63	0x2264a82c	3.0988791e-18
64	0x1f61eada	4.7839868e-20
65	0x22d5e7f6	5.7979364e-18
66	0x171a84cf	4.992771e-25
67	0x2060cddb	1.904165e-19
68	0x1e9cdaee	1.660769e-20
69	0x173a75fd	6.0248764e-25
70	0x1fdcac38	9.3458536e-20
71	0x1ab2a974	7.389284e-23
72	0x1ab87e20	7.630438e-23
73	0x1e8097df	1.361534e-20
74	0x1df77a0d	6.5506553e-21
75	0x22930365	3.9848024e-18
76	0x276c3f25	3.278581e-15
77	0x1cd1e63d	1.3889975e-21
78	0x21159680	5.068235e-19
79	0x25135961	1.27805e-16
80	0x224e15ca	2.792974e-18
81	0x23984ca7	1.6512337e-17
82	0x2a92b736	2.6061938e-13
83	0x2265fe33	3.116986e-18
84	0x24f60f88	1.06711805e-16
85	0x285c60f5	1.22334775e-14
86	0x167c5c0a	2.038544e-25
87	0x183c4357	2.4332428e-24
88	0x1c7b5eef	8.317163e-22
89	0x228f2a4b	3.8805007e-18
90	0x228f2a4b	3.8805007e-18
91	0x2b4aa9ca	7.2000446e-13
92	0x00000000	0.0
93	0x1e583d4f	1.1447623e-20
94	0x25935961	2.5561e-16
95	0x208e7339	2.4131984e-19
96	0x31e0cc37	6.5424746e-09
97	0x3416b06a	1.4034018e-07
98	0x2ff03a20	4.3697046e-10
99	0x31ae8e15	5.0802194e-09
100	0x31b9d7e0	5.408751e-09
101	0x31295167	2.4639009e-09
102	0x325fd752	1.30292666e-08
103	0x2fb40fea	3.2753117e-10
104	0x37be0a87	2.2654667e-05
105	0x398133d8	0.00024643424
106	0x3682b328	3.8951584e-06
107	0x3788dfc6	1.6316666e-05
108	0x37b4329b	2.1481237e-05
109	0x373ff5d3	1.1441723e-05
110	0x38488a60	4.7812588e-05
111	0x2fb3f773	3.2735734e-10
112	0x2c9d78e6	4.475631e-12
113	0x2ebe80b7	8.663064e-11
114	0x2b0041b9	4.5565944e-13
115	0x2c6c80e8	3.3609174e-12
116	0x2c8361c4	3.734098e-12
117	0x2be0f443	1.5983954e-12
118	0x2d0b4c5e	7.918192e-12
119	0x271d436f	2.1824683e-15
120	0x27423aa7	2.6954704e-15
121	0x295e247c	4.9325547e-14
122	0x2a99ce73	2.7321513e-13
123	0x2d7c3f11	1.4338545e-11
124	0x33bc76f3	8.776069e-08
125	0x29536e05	4.694684e-14
126	0x2c89fe95	3.9220385e-12
127	0x2e87ce1f	6.175704e-11
128	0x2ac6763b	3.5253904e-13
129	0x2f8f9d4a	2.612331e-10
130	0x318d67b9	4.115432e-09
131	0x2a49e0a3	1.7930323e-13
132	0x304f9356	7.551554e-10
133	0x30dadd6d	1.5924521e-09
134	0x23a192f8	1.7517899e-17
135	0x2573aed0	2.1136119e-16
136	0x295258fb	4.6706545e-14
137	0x2b4f7663	7.370547e-13
138	0x2c9483fc	4.221066e-12
139	0x35f2e505	1.8097059e-06
140	0x2fb3d079	3.270804e-10
141	0x2865422c	1.2726402e-14
142	0x2dee1c2b	2.7069976e-11
143	0x260f299c	4.966948e-16
144	0x411da887	9.853644
145	0x41d82297	27.01689
146	0x3f547140	0.82985306
147	0x3fb32e71	1.3998548
148	0x412b9658	10.724205
149	0x4097d283	4.744447
150	0x41833b2c	16.403893
151	0x36d69a70	6.395676e-06
152	0x46bef14b	24440.646
153	0x472188b0	41352.688
154	0x45d0bf6c	6679.9277
155	0x447feaea	1023.67053
156	0x46cde726	26355.574
157	0x4696b668	19291.203
158	0x46f459d0	31276.906
159	0x36a00df8	4.7699978e-06
160	0x3be00970	0.0068370625
161	0x3c8fcd04	0.017553814
162	0x3a5f7de6	0.0008525535
163	0x3a741c47	0.0009312075
164	0x3bf7560c	0.0075480994
165	0x3b5575b0	0.0032571368
166	0x3c3770e7	0.011196352
167	0x364d0d08	3.0554966e-06
168	0x3686b2bf	4.01432e-06
169	0x38200e2a	3.8160164e-05
170	0x3985600d	0.000254393
171	0x3a01cc56	0.0004951408
172	0x420df40c	35.488327
173	0x37fa39d1	2.9829245e-05
174	0x3bca2b38	0.006169703
175	0x3d42ff2d	0.047606636
176	0x39294244	0.00016141782
177	0x3d14feeb	0.03637592
178	0x3ee27baf	0.44234988
179	0x3757de79	1.2866797e-05
180	0x3d0c8a62	0.03431166
181	0x3e003bd0	0.12522817
182	0x32699901	1.3597174e-08
183	0x348c641b	2.6149868e-07
184	0x37aa91e1	2.033351e-05
185	0x38eba606	0.000112365975
186	0x392d0d02	0.00016503411
187	0x42c306d8	97.51337
188	0x39277c56	0.0001597268
189	0x36fe328c	7.5756743e-06
190	0x3b738bbc	0.0037162146
191	0x359a1870	1.1481006e-06
192	0x332221ad	3.7749192e-08
193	0x37585b08	1.2895798e-05
194	0x00000000	0.0
195	0x34b2aa72	3.32791e-07
196	0x175e0687	7.1740307e-25
197	0x175e0687	7.1740307e-25
198	0x315b2e23	3.189492e-09
199	0x31445dab	2.8574998e-09
200	0x3964d2c8	0.00021822297
201	0x3cced738	0.025249109
202	0x00000000	0.0
203	0x3a99febc	0.001174889
204	0x00000000	0.0
205	0x00000000	0.0
206	0x3951c402	0.00020004812
207	0x31412c2c	2.8110305e-09
208	0x2dee7a50	2.7111785e-11
209	0x320af5a7	8.088512e-09
210	0x15977107	6.116674e-26
211	0x2f8c3b2a	2.550789e-10
212	0x162a5f21	1.3762508e-25
213	0x162a5f21	1.3762508e-25
214	0x283d9913	1.05248e-14
215	0x2851139c	1.1606083e-14
216	0x286246d7	1.2560881e-14
217	0x2bcac9e4	1.4408999e-12
218	0x2c207db0	2.2807138e-12
219	0x316eb2d8	3.473522e-09
220	0x36aaeead	5.0941803e-06
221	0x2b0f0f81	5.082532e-13
222	0x2e04bba3	3.017998e-11
223	0x312776a9	2.436915e-09
224	0x2d567b46	1.2191864e-11
225	0x339a819c	7.1947596e-08
226	0x352f1fa9	6.523865e-07
227	0x2cf84da3	7.0572033e-12
228	0x339f0460	7.40481e-08
229	0x3578d7ae	9.2701055e-07
230	0x25b4f144	3.138851e-16
231	0x27a6fa6b	4.634576e-15
232	0x2cf9e965	7.1029176e-12
233	0x2ddb4b27	2.4930792e-11
234	0x30723c45	8.8124735e-10
235	0x3949b8f3	0.00019237753
236	0x3148b923	2.9209068e-09
237	0x2996d829	6.698836e-14
238	0x2faef6e2	3.1825836e-10
239	0x2883ad57	1.4619096e-14
240	0x41ac784d	21.55874
241	0x4252b3f2	52.675728
242	0x3fda7e10	1.7069721
243	0x402bd774	2.6850252
244	0x41c1c012	24.218784
245	0x41297376	10.590689
246	0x420f1eae	35.77996
247	0x36df622a	6.6573457e-06
248	0x4748a907	51369.027
249	0x479934c7	78441.555
250	0x465352f4	13524.738
251	0x44c0661b	1539.1908
252	0x475de561	56805.38
253	0x47237a03	41850.01
254	0x47797044	63856.266
255	0x36baf5a0	5.5718265e-06

exp_avg f4 [128]
0	0x00000004	6e-45
1	0x00000004	6e-45
2	0x00000004	6e-45
3	0xba19879c	-0.0005856694
4	0x80000004	-6e-45
5	0x3a177c6e	0.00057787343
6	0x00000004	6e-45
7	0x00000004	6e-45
8	0x00000004	6e-45
9	0x00000004	6e-45
10	0x00000004	6e-45
11	0x00000004	6e-45
12	0x00000004	6e-45
13	0x00000004	6e-45
14	0x00000004	6e-45
15	0x00000004	6e-45
16	0x00000004	6e-45
17	0x00000004	6e-45
18	0x00000004	6e-45
19	0x00000004	6e-45
20	0x00000004	6e-45
21	0x00000004	6e-45
22	0x00000004	6e-45
23	0x00000000	0.0
24	0x00000004	6e-45
25	0x00000004	6e-45
26	0x00000004	6e-45
27	0x00000004	6e-45
28	0x00000004	6e-45
29	0x00000004	6e-45
30	0xb9d5464f	-0.0004067891
31	0x00000004	6e-45
32	0x00000004	6e-45
33	0xb75f0c62	-1.3294719e-05
34	0x00000004	6e-45
35	0x00000004	6e-45
36	0x00000004	6e-45
37	0x00000004	6e-45
38	0x00000004	6e-45
39	0x3bad5d5e	0.0052906713
40	0xbaf19dd8	-0.0018433882
41	0x00000004	6e-45
42	0x00000004	6e-45
43	0x00000000	0.0
44	0x00000000	0.0
45	0x00000004	6e-45
46	0x00000004	6e-45
47	0x00000004	6e-45
48	0x00000004	6e-45
49	0xba98c9b2	-0.001165679
50	0x00000004	6e-45
51	0x00000004	6e-45
52	0x00000004	6e-45
53	0x00000004	6e-45
54	0x00000004	6e-45
55	0x00000004	6e-45
56	0xbad60574	-0.001632853
57	0x00000004	6e-45
58	0x00000004	6e-45
59	0x00000004	6e-45
60	0x00000004	6e-45
61	0x00000004	6e-45
62	0x00000004	6e-45
63	0x00000004	6e-45
64	0x00000004	6e-45
65	0x00000004	6e-45
66	0x00000004	6e-45
67	0x00000004	6e-45
68	0x00000004	6e-45
69	0x00000000	0.0
70	0x00000004	6e-45
71	0x80000004	-6e-45
72	0x00000004	6e-45
73	0x00000004	6e-45
74	0x00000004	6e-45
75	0x00000004	6e-45
76	0x00000004	6e-45
77	0x00000004	6e-45
78	0x00000004	6e-45
79	0x00000000	0.0
80	0x00000000	0.0
81	0x00000004	6e-45
82	0x00000004	6e-45
83	0x00000004	6e-45
84	0x00000004	6e-45
85	0x00000004	6e-45
86	0x3b744202	0.003727079
87	0x00000004	6e-45
88	0x00000004	6e-45
89	0x80000004	-6e-45
90	0x00000004	6e-45
91	0x00000004	6e-45
92	0x00000004	6e-45
93	0x00000004	6e-45
94	0x00000004	6e-45
95	0x00000004	6e-45
96	0x3b990f92	0.0046710456
97	0x00000004	6e-45
98	0x00000004	6e-45
99	0x00000000	0.0
100	0x00000004	6e-45
101	0x00000004	6e-45
102	0x00000004	6e-45
103	0x00000004	6e-45
104	0x00000004	6e-45
105	0x00000004	6e-45
106	0x00000004	6e-45
107	0x00000004	6e-45
108	0x00000000	0.0
109	0x3b270fed	0.002549167
110	0x00000004	6e-45
111	0x00000000	0.0
112	0x00000004	6e-45
113	0x00000004	6e-45
114	0x00000000	0.0
115	0x00000004	6e-45
116	0x00000004	6e-45
117	0x00000004	6e-45
118	0x00000004	6e-45
119	0x00000004	6e-45
120	0x80000004	-6e-45
121	0x00000004	6e-45
122	0x00000004	6e-45
123	0x00000004	6e-45
124	0x00000004	6e-45
125	0x00000004	6e-45
126	0x80000004	-6e-45
127	0x00000004	6e-45

exp_avg_sq f4 [128]
0	0x1fa532bf	6.996417e-20
1	0x228f2a4b	3.8805007e-18
2	0x2fb47534	3.2825087e-10
3	0x3995c5a4	0.00028566748
4	0x3144029a	2.8523233e-09
5	0x3a0e2d86	0.00054236536
6	0x3330abb1	4.1134346e-08
7	0x32a3fb99	1.909011e-08
8	0x29423e9c	4.313096e-14
9	0x2b9a0581	1.0943886e-12
10	0x226fb5e8	3.248684e-18
11	0x1f5bcab4	4.6542726e-20
12	0x32468958	1.1556345e-08
13	0x33068672	3.1321584e-08
14	0x33cd4044	9.557746e-08
15	0x33023482	3.031574e-08
16	0x32ec0946	2.7478233e-08
17	0x32f72f59	2.8776116e-08
18	0x2670a40f	8.348907e-16
19	0x2be9fd4d	1.6625951e-12
20	0x2fd0cdf5	3.798132e-10
21	0x18c782c6	5.157234e-24
22	0x327e6d0f	1.4809543e-08
23	0x00000000	0.0
24	0x3401d7e4	1.2092602e-07
25	0x2c8dd76e	4.0313785e-12
26	0x32f29c3d	2.8243557e-08
27	0x371d0eb8	9.361356e-06
28	0x263bde4f	6.517994e-16
29	0x24523f15	4.5589924e-17
30	0x38b922e4	8.827986e-05
31	0x330c0325	3.259915e-08
32	0x37c12e95	2.3029084e-05
33	0x398e400e	0.00027132075
34	0x32ef2d83	2.7843958e-08
35	0x2c0b8f7c	1.9832738e-12
36	0x1cf3ed05	1.6141659e-21
37	0x3305b567	3.113146e-08
38	0x331f5bbe	3.710351e-08
39	0x3c91ccb4	0.017797805
40	0x3b2fbcee	0.0026815492
41	0x32c32902	2.2719636e-08
42	0x331d76cd	3.666246e-08
43	0x00000000	0.0
44	0x00000000	0.0
45	0x24c04633	8.338565e-17
46	0x3184c5e4	3.864203e-09
47	0x330e9810	3.320025e-08
48	0x32a650ad	1.936163e-08
49	0x3afb8631	0.0019189772
50	0x201a9fcb	1.3097178e-19
51	0x328f7309	1.6699703e-08
52	0x32e0415c	2.6106754e-08
53	0x32a50365	1.9210072e-08
54	0x2cfcf5f7	7.1895784e-12
55	0x32da8810	2.5440414e-08
56	0x3af68140	0.001880683
57	0x21ad3dfd	1.1739344e-18
58	0x330de64b	3.303857e-08
59	0x32d41357	2.4688843e-08
60	0x2236ba20	2.4764133e-18
61	0x2044537d	1.662947e-19
62	0x332d067f	4.028561e-08
63	0x22426411	2.6344877e-18
64	0x3238c4d4	1.0754963e-08
65	0x1e3eebe5	1.0107298e-20
66	0x2acaeac5	3.6045312e-13
67	0x33002bdf	2.9842223e-08
68	0x1e4d1a46	1.0858043e-20
69	0x00000000	0.0
70	0x2dae5b68	1.9822102e-11
71	0x3303a396	3.0649595e-08
72	0x1cc353c7	1.2925673e-21
73	0x16787b70	2.007223e-25
74	0x36402b78	2.8635532e-06
75	0x2dbdfd90	2.1599417e-11
76	0x2d647cbe	1.2987998e-11
77	0x2e2f476a	3.985382e-11
78	0x1aa672d2	6.884149e-23
79	0x00000000	0.0
80	0x00000000	0.0
81	0x35c3468c	1.4549164e-06
82	0x330482fb	3.085277e-08
83	0x28923ca8	1.6235562e-14
84	0x20377e3d	1.5542472e-19
85	0x326c3acd	1.3750378e-08
86	0x3c285b0a	0.010275612
87	0x2cce2701	5.8592024e-12
88	0x22b69ce1	4.94973e-18
89	0x3302cf8b	3.0456743e-08
90	0x32d54316	2.482697e-08
91	0x32fcd80a	2.9434904e-08
92	0x2b92edff	1.0439981e-12
93	0x2c803979	3.6443596e-12
94	0x302ffdbc	6.402521e-10
95	0x2250a703	2.8277672e-18
96	0x3c94894d	0.018131876
97	0x23c966f3	2.1836064e-17
98	0x330c6a7b	3.2693134e-08
99	0x00000000	0.0
100	0x2d5998aa	1.236892e-11
101	0x3310f102	3.3746808e-08
102	0x31bd596c	5.51079e-09
103	0x2c7e8dc1	3.617426e-12
104	0x2c8248d5	3.702908e-12
105	0x2be3d297	1.618777e-12
106	0x31b05e92	5.1330256e-09
107	0x33444224	4.569496e-08
108	0x00000000	0.0
109	0x3bad8669	0.005295564
110	0x30a5e9a5	1.2071736e-09
111	0x00000000	0.0
112	0x32ceab22	2.4059378e-08
113	0x3301fc44	3.0264587e-08
114	0x00000000	0.0
115	0x2bd7141a	1.5282248e-12
116	0x330eea67	3.327514e-08
117	0x31aa365f	4.9538325e-09
118	0x2f94b2f1	2.704819e-10
119	0x3331ae64	4.136963e-08
120	0x32c45e11	2.286018e-08
121	0x20141f87	1.2546519e-19
122	0x2e9d6bc3	7.158676e-11
123	0x38bdab95	9.044182e-05
124	0x32fb200e	2.9234823e-08
125	0x3162e765	3.301886e-09
126	0x2e7e0d08	5.7764488e-11
127	0x33230a71	3.796089e-08

exp_avg f4 [64, 128]
0	0x00000000	0.0
1	0x00000004	6e-45
2	0x00000004	6e-45
3	0x00000004	6e-45
4	0x00000004	6e-45
5	0x00000004	6e-45
6	0x00000000	0.0
7	0x00000004	6e-45
8	0x00000004	6e-45
9	0x00000004	6e-45
10	0x00000004	6e-45
11	0x80000004	-6e-45
12	0x80000004	-6e-45
13	0x00000000	0.0
14	0x00000004	6e-45
15	0x00000004	6e-45
16	0x00000000	0.0
17	0x00000000	0.0
18	0x00000004	6e-45
19	0x00000004	6e-45
20	0x00000004	6e-45
21	0x00000004	6e-45
22	0x00000004	6e-45
23	0x00000000	0.0
24	0x00000004	6e-45
25	0x00000004	6e-45
26	0x00000004	6e-45
27	0x00000004	6e-45
28	0x00000004	6e-45
29	0x80000004	-6e-45
30	0x00000004	6e-45
31	0x00000000	0.0
32	0x00000004	6e-45
33	0x00000004	6e-45
34	0x00000000	0.0
35	0x00000004	6e-45
36	0x00000000	0.0
37	0x00000000	0.0
38	0x00000000	0.0
39	0x00000004	6e-45
40	0x00000004	6e-45
41	0x00000004	6e-45
42	0x00000000	0.0
43	0x00000000	0.0
44	0x00000000	0.0
45	0x00000004	6e-45
46	0x00000004	6e-45
47	0x00000000	0.0
48	0x00000004	6e-45
49	0x00000004	6e-45
50	0x00000004	6e-45
51	0x00000004	6e-45
52	0x00000000	0.0
53	0x80000004	-6e-45
54	0x00000004	6e-45
55	0x00000004	6e-45
56	0x00000004	6e-45
57	0x00000004	6e-45
58	0x00000000	0.0
59	0x00000000	0.0
60	0x80000004	-6e-45
61	0x00000004	6e-45
62	0x00000000	0.0
63	0x00000004	6e-45
64	0x00000004	6e-45
65	0x00000004	6e-45
66	0x00000004	6e-45
67	0x00000000	0.0
68	0x80000004	-6e-45
69	0x00000000	0.0
70	0x00000004	6e-45
71	0x00000004	6e-45
72	0x00000004	6e-45
73	0x00000000	0.0
74	0x80000004	-6e-45
75	0x00000004	6e-45
76	0x00000004	6e-45
77	0x00000004	6e-45
78	0x00000004	6e-45
79	0x00000000	0.0
80	0x00000000	0.0
81	0x00000004	6e-45
82	0x00000000	0.0
83	0x00000004	6e-45
84	0x00000004	6e-45
85	0x00000004	6e-45
86	0x00000004	6e-45
87	0x00000004	6e-45
88	0x00000004	6e-45
89	0x00000004	6e-45
90	0x00000004	6e-45
91	0x00000000	0.0
92	0x00000004	6e-45
93	0x80000004	-6e-45
94	0x00000004	6e-45
95	0x80000004	-6e-45
96	0x00000004	6e-45
97	0x00000004	6e-45
98	0x00000004	6e-45
99	0x00000000	0.0
100	0x80000004	-6e-45
101	0x00000000	0.0
102	0x00000004	6e-45
103	0x00000004	6e-45
104	0x00000004	6e-45
105	0x00000004	6e-45
106	0x00000004	6e-45
107	0x00000000	0.0
108	0x00000000	0.0
109	0x00000004	6e-45
110	0x00000004	6e-45
111	0x00000000	0.0
112	0x00000004	6e-45
113	0x00000004	6e-45
114	0x00000000	0.0
115	0x80000004	-6e-45
116	0x00000000	0.0
117	0x00000004	6e-45
118	0x00000004	6e-45
119	0x00000000	0.0
120	0x00000004	6e-45
121	0x00000004	6e-45
122	0x00000004	6e-45
123	0x00000004	6e-45
124	0x00000000	0.0
125	0x00000004	6e-45
126	0x00000004	6e-45
127	0x00000004	6e-45
128	0x00000004	6e-45
129	0x00000004	6e-45
130	0x00000004	6e-45
131	0x00000004	6e-45
132	0x00000004	6e-45
133	0x00000004	6e-45
134	0x00000004	6e-45
135	0x00000004	6e-45
136	0x00000004	6e-45
137	0x80000004	-6e-45
138	0x00000004	6e-45
139	0x80000004	-6e-45
140	0x00000004	6e-45
141	0x00000004	6e-45
142	0x00000004	6e-45
143	0x00000004	6e-45
144	0x00000004	6e-45
145	0x00000004	6e-45
146	0x80000004	-6e-45
147	0x00000004	6e-45
148	0x00000004	6e-45
149	0x00000004	6e-45
150	0x00000004	6e-45
151	0x00000000	0.0
152	0x00000004	6e-45
153	0x00000004	6e-45
154	0x00000004	6e-45
155	0x00000004	6e-45
156	0x80000004	-6e-45
157	0x80000004	-6e-45
158	0x00000004	6e-45
159	0x00000004	6e-45
160	0x00000004	6e-45
161	0x80000004	-6e-45
162	0x00000004	6e-45
163	0x80000004	-6e-45
164	0x80000004	-6e-45
165	0x00000004	6e-45
166	0x00000004	6e-45
167	0x00000004	6e-45
168	0x80000004	-6e-45
169	0x00000004	6e-45
170	0x00000004	6e-45
171	0x00000000	0.0
172	0x00000000	0.0
173	0x80000004	-6e-45
174	0x00000004	6e-45
175	0x00000004	6e-45
176	0x00000004	6e-45
177	0x00000004	6e-45
178	0x00000004	6e-45
179	0x00000004	6e-45
180	0x00000004	6e-45
181	0x00000004	6e-45
182	0x80000004	-6e-45
183	0x00000004	6e-45
184	0x80000004	-6e-45
185	0x00000004	6e-45
186	0x00000004	6e-45
187	0x00000004	6e-45
188	0x00000004	6e-45
189	0x00000004	6e-45
190	0x00000004	6e-45
191	0x00000004	6e-45
192	0x00000004	6e-45
193	0x80000004	-6e-45
194	0x00000004	6e-45
195	0x00000004	6e-45
196	0x80000004	-6e-45
197	0x00000000	0.0
198	0x00000004	6e-45
199	0x00000004	6e-45
200	0x80000004	-6e-45
201	0x00000000	0.0
202	0x00000004	6e-45
203	0x00000004	6e-45
204	0x80000004	-6e-45
205	0x00000004	6e-45
206	0x00000004	6e-45
207	0x00000000	0.0
208	0x00000000	0.0
209	0x00000004	6e-45
210	0x00000004	6e-45
211	0x80000004	-6e-45
212	0x00000004	6e-45
213	0x00000004	6e-45
214	0x00000004	6e-45
215	0x00000000	0.0
216	0x80000004	-6e-45
217	0x00000004	6e-45
218	0x00000004	6e-45
219	0x00000004	6e-45
220	0x80000004	-6e-45
221	0x00000004	6e-45
222	0x00000004	6e-45
223	0x80000004	-6e-45
224	0x00000004	6e-45
225	0x00000004	6e-45
226	0x00000004	6e-45
227	0x00000000	0.0
228	0x80000004	-6e-45
229	0x00000004	6e-45
230	0x00000004	6e-45
231	0x80000004	-6e-45
232	0x80000004	-6e-45
233	0x00000004	6e-45
234	0x00000004	6e-45
235	0x00000004	6e-45
236	0x00000000	0.0
237	0x00000004	6e-45
238	0x80000004	-6e-45
239	0x00000000	0.0
240	0x00000004	6e-45
241	0x00000004	6e-45
242	0x00000000	0.0
243	0x00000004	6e-45
244	0x00000004	6e-45
245	0x00000004	6e-45
246	0x80000004	-6e-45
247	0x00000004	6e-45
248	0x00000004	6e-45
249	0x00000004	6e-45
250	0x80000004	-6e-45
251	0x00000004	6e-45
252	0x00000004	6e-45
253	0x00000004	6e-45
254	0x00000004	6e-45
255	0x00000004	6e-45
