src/model_data/Austrian_Grand_Prix_model.pth (torch, 197999 bytes, 21 tensors)

net.0.weight f4 [128, 48]
00000000: 5af5 34be 505f e2bd 1679 ad3d 5e66 c13d
00000010: 7d42 cb3d 0d15 bf3d 612f b0bd d51c 58bd
00000020: 3b8a 51be 0dac e7bd db00 063e f83b 44be
00000030: 6205 eb3d 9145 38be f64b 0f3e 9113 68bd
00000040: 4671 2bbd 974e 173d e4f1 1d3c e181 b13d
00000050: 0c63 a93d 5d24 d9bb 54ff 773c 2112 46be
00000060: b733 d7bd cb39 373d 62b1 5abe ccea e6bb
00000070: da6b 57be 948a ba3d 05f4 593c 0b80 ad3c
00000080: e6ce febd 0ba5 14be 0803 98bd d7dc e9bd
00000090: 85d8 04be 5353 bb3c 681e e8bd 3006 d63d
000000a0: ae0c febc c01c 9bbc 7377 cb3d 4d9b 013e
000000b0: 2704 4abc 65bb 55bd a8a9 623d b1d8 0bbe
000000c0: b948 b73d aae4 a1bd 12f8 183e 4502 3bbd
000000d0: 10b4 9e3d bd13 15bc 8ada e6bc 00d8 9e3c
000000e0: d571 0f3e 1e2c 11be 56ea 82bd cce3 b03d
000000f0: 40e7 4cbe f993 9a3c 3d46 9c3d d700 e9bc
00000100: 73d4 043e 8bd1 fdbd 7d16 623e 649c 52bd
00000110: 46f7 34be b2b4 433c 985e 7ebe f348 673e
00000120: e9d9 ea3d b36b d33d c1da 343e 0337 8bbd
00000130: 23ea 3dbe 9b73 9f3e 1ec1 ac3d a27c e7bc
00000140: f16e 46be 7426 73be b56e 58be 06f8 a63c
00000150: 4988 123d 0fee 38be 46a0 f23e bc53 bc3e
00000160: c71e c13e 00c3 80be 09fd 96be 44cc 5abe
00000170: 9fa1 29be 31cf aa3f fc5e 443f 489c 813f
00000180: aecf f0be 203c 8fbc 8e0c 67bd a5fd 93be
00000190: 1622 e1be a526 10bf d219 a5bc b0d5 f53d
000001a0: 2777 5ebc b392 463d 12fd 7bbe 3f6a 76be
000001b0: e4de 05bc 417d b4bd 5626 8f3d b8f2 99be
000001c0: f167 acbe d0d7 39be 9764 c3be ba78 9cbd
000001d0: 9f6b 45bf 61aa 28bf 0729 c2be 0d8d 9bbe
000001e0: 040f 0bbf 4ea6 b7be 095c b5ba 48f3 743e
000001f0: cae6 79be b4f0 9f3d b906 0abf ee41 bfbe
00000200: 6a33 9abe 9678 c43e b777 863d 6153 023d
00000210: da4f 643e d2cf a93d 1388 17bf f42f 89bf
00000220: b5a6 16bf a809 b7bd 6e33 26be 97f7 f63e
00000230: b850 dd3e 6e34 e0bf f424 c3bf dc61 b13e
00000240: 5aba 153f 0adc e3be 0648 4e3e 4cbc 983e
00000250: 9010 b03e a162 4b3f 7a71 2c3f a8e3 43c1
00000260: 7306 613d 8dca 03be 2e66 a73c 48e4 60be
00000270: c4c0 96bd 4063 2a3e 8c41 083e 0681 76bf
00000280: f108 4abd 802a 39bf 6f7b aa3f 0699 72bf
00000290: f744 b93d 1c99 803e adfa 423e 4456 b03f
000002a0: f625 c03f e0ad 093e 3d03 edbe a736 b8c0
000002b0: e26e 4fbf aaf9 23c0 932c 723f 0515 453f
000002c0: 76b6 b0bd 7b6f 12c0 5e4f 02bf 941e 113c
000002d0: 6cf3 03c0 06b2 cabf d3a6 cc40 8e7b c740
000002e0: 8e4e b940 0b50 5540 b58f 8b3f 32b0 253e
000002f0: 7360 1ac0 a76d fbbf 9361 76bf 3bdc 44bf
00000300: 8818 b3be d69e 3ebe 2f34 26be 0078 b0be
00000310: 7476 90be 1436 06bd 295e a3be b803 bc3e
00000320: 85eb 64bd 61c3 43bd 4670 aa3d 7a4f 0dbe
00000330: 8be9 ccbd 352d 3ebe 72e8 873d 581c 033f
00000340: 1333 74bd 5b82 0abe 9690 1bbc fab5 39be
00000350: b6f4 2bbe 4f0f 64bd a80c afbe 330d 1cbe
00000360: 3963 9bbd 408f 13be 5609 3fbe 28bf 93bd
00000370: 6342 8bbd 09d0 a93e a365 54be 7eeb babe
00000380: 571c cabd ef42 673e ba54 1cbe d8a6 0a3e
00000390: f8af 463e a9a8 11be 3121 52bf 5274 25bf
000003a0: 98dd 1ebf 5513 f9be 14ae 8bbe 2310 0d3d
000003b0: e481 193f cc81 763e bf65 333e aab2 e53f
000003c0: ccd4 cd3d 1717 18be 3d1e b83e 0148 b5bd
000003d0: 9fe6 4dbe eaaa 893d d7af 39be 6159 6dbe
000003e0: d79e 51be c0d7 37be 3799 4c3e 988b 013d
000003f0: 352e b8bd 7b4e 713d 3816 053e f39c 9bbd
-0.17671719 -0.11053336 0.08470361 0.09443353 0.09924791 0.09330187 -0.08602787 -0.05276187
-0.20462887 -0.11312113 0.13086264 -0.19163501 0.11475636 -0.17995287 0.1399382 -0.056659285
-0.041856073 0.036940183 0.009640191 0.086673506 0.08270845 -0.0066266493 0.015136559 -0.19342853
-0.10507911 0.04473285 -0.21356729 -0.007047033 -0.21037236 0.09108463 0.013302808 0.02117922
-0.124418065 -0.14516084 -0.07422453 -0.11419075 -0.1297322 0.02286688 -0.113339245 0.10450399
-0.031011906 -0.018934608 0.099348925 0.12656899 -0.012330092 -0.052180666 0.055337578 -0.1365688
0.089494176 -0.07904942 0.14938381 -0.04565646 0.07749188 -0.009098944 -0.02818038 0.019390106
0.14008267 -0.14176986 -0.06392352 0.08637199 -0.2001009 0.018869387 0.076305844 -0.028442783
0.12971668 -0.12393483 0.22078891 -0.051418677 -0.17672452 0.011944937 -0.24840772 0.22586422
0.11467344 0.10323276 0.17661573 -0.06797602 -0.18546347 0.31142887 0.08435272 -0.028257672
-0.19378258 -0.23745137 -0.21135981 0.020381939 0.035774503 -0.18059562 0.47387904 0.36782634
0.37718794 -0.25148773 -0.29489926 -0.21366984 -0.1656556 1.334448 0.76707435 1.0125818
-0.47033447 -0.017484725 -0.056408457 -0.28904453 -0.43971318 -0.56308967 -0.020153914 0.12003648
-0.013578213 0.048479747 -0.24608257 -0.24063967 -0.008170817 -0.08812953 0.06989734 -0.30067992
-0.3367305 -0.18148732 -0.3816268 -0.07640214 -0.7711734 -0.6588498 -0.37921926 -0.3038105
-0.5431979 -0.35869068 -0.0013836633 0.2392093 -0.24404445 0.07809582 -0.5391651 -0.37354988
-0.3011735 0.3837325 0.065658025 0.031817798 0.22296086 0.08291592 -0.5919201 -1.0717759
-0.58848125 -0.08937389 -0.16230556 0.4823577 0.43225646 -1.7516 -1.5245652 0.34644973
0.58487475 -0.44503814 0.20144662 0.2983116 0.34387636 0.7944737 0.6736065 -12.24308
0.05493779 -0.12870236 0.020434465 -0.21962082 -0.07360986 0.16639423 0.13306254 -0.96290624
-0.049324933 -0.72330475 1.3318919 -0.94764745 0.09046357 0.25116813 0.19040938 1.3776326
1.5011585 0.13445234 -0.46291533 -5.7566714 -0.8102857 -2.5621133 0.94599265 0.769852
-0.08628552 -2.2880542 -0.50902355 0.008857388 -2.0617323 -1.5835578 6.3953643 6.2338324
5.790839 3.3330104 1.0903231 0.16180494 -2.4121368 -1.9642838 -0.96242636 -0.76898545
-0.34979653 -0.18615279 -0.16230844 -0.34466553 -0.28215373 -0.032766417 -0.31907776 0.36721587
-0.05588867 -0.04779375 0.08322196 -0.13799849 -0.10005482 -0.18571933 0.06636132 0.51215124
-0.05961902 -0.13526289 -0.009494921 -0.18135825 -0.16792569 -0.055678662 -0.34189343 -0.1523941
-0.075872846 -0.14410114 -0.18655905 -0.072141945 -0.06799772 0.3316653 -0.20741896 -0.3650779
-0.09868687 0.22584127 -0.15266696 0.13540208 0.19403064 -0.14224495 -0.82081896 -0.64630616
-0.62056875 -0.48647562 -0.2728125 0.034439217 0.5996382 0.24072951 0.17519282 1.7945149
0.100503534 -0.14852558 0.3596057 -0.08851624 -0.20107506 0.067220524 -0.18133484 -0.23178627
-0.20470749 -0.17953396 0.19980322 0.031627268 -0.08993188 0.058912735 0.12996757 -0.07598295

net.0.bias f4 [128]
00000000: bdd4 f6bc d97e 2abd d410 d1bc dd2e 68bf
00000010: 1b97 e13e c09f 0fbd fa96 fa3e e76b 9b3e
00000020: 0000 0000 479d 07be eafa e73e 0000 0000
00000030: ae94 11bd 5010 fd3e a659 a1bc 29ab 7a3b
00000040: 3309 c6bd e14d 0b3f ff4e 83bd 3979 003f
00000050: 0000 0000 0000 0000 9356 dabd 9901 083f
00000060: 593d 15be 2357 063f 4364 093f 0000 0000
00000070: a6c7 fd3e f7c3 96bd 7a55 6bbd 6f19 19bd
00000080: 897a c4bd 37b7 7cbd a61f d33e f069 0f3f
00000090: 0000 0000 9bea d73e 8273 cc3d 25eb 66be
000000a0: b962 7dbd 505a 83bd 5a78 8fbd c70d 95bd
000000b0: 7a29 b1bd 0000 0000 2b04 9abd d771 b6bb
000000c0: a057 ce3e 150c 08be b049 ea3e bcaa 083f
000000d0: 4cc7 55be f7ca bc3e 6311 bdbd 4f55 73bd
000000e0: 5876 6fbd dbc9 c4bb 7c12 02bd 73d7 f13e
000000f0: 073f 22be 0000 0000 0000 0000 785f 9d3e
00000100: 2069 bbbd 75f8 42bd 7170 e2bc 0000 0000
00000110: 576b a63c d5a2 d33e 55b6 e5bc 7d57 363f
00000120: 70c1 083f beca e73e 9d5d d93e 0592 243f
00000130: d10e 0e3f 2498 d43e 9af3 0f3f aded bf3d
00000140: 8779 febd f679 b9bd 0000 0000 081b 7dbe
00000150: c47b 0c3f f86c 49bf 0134 25bd 22ae 89bb
00000160: 7895 eabd 66b2 0f3f 8fae 21bf adc4 ba3e
00000170: b90d 08be 0000 0000 ebbc 053f 0000 0000
00000180: 1c28 973e b7e8 efbd 73ae ffbd d908 1c3c
00000190: 1f7e 083f 0000 0000 82d7 0b3f 88e7 333e
000001a0: 7dfa 183f 0ec9 103f c1a5 36bd 0a1a 003f
000001b0: 1112 d83e be4c d3bc 65c0 043f 634c 073f
000001c0: f367 6ebd f556 8cbd e625 f13e e573 24be
000001d0: e03c b83e 0430 083f 020f 66bc f76f 27bd
000001e0: 80be f0bd b765 d6bd 0643 d93e 0000 0000
000001f0: ac70 8e3e 25ce 06bd 2ed4 bebd 7aaf a73e
-0.030130738 -0.041624878 -0.02552072 -0.9069651 0.44060597 -0.03506446 0.4894331 0.3035576
0.0 -0.1324359 0.4530862 0.0 -0.035542183 0.49426508 -0.019696068 0.0038248992
-0.09669723 0.5441571 -0.06411552 0.5018497 0.0 0.0 -0.10661044 0.5312744
-0.14574184 0.5247671 0.5366861 0.0 0.49566382 -0.07361596 -0.057454564 -0.03737777
-0.09593684 -0.061698165 0.41235083 0.5602102 0.0 0.42171177 0.09982969 -0.22550638
-0.061861727 -0.0641371 -0.07005377 -0.072780184 -0.08650489 0.0 -0.07520326 -0.00556777
0.40301228 -0.13285859 0.45759344 0.5338552 -0.20876807 0.368736 -0.09231832 -0.05940753
-0.05846247 -0.0060055084 -0.03175591 0.47234687 -0.15844356 0.0 0.0 0.307369
-0.091509104 -0.04760023 -0.027641507 0.0 0.020314856 0.41335168 -0.028041044 0.71227247
0.5342016 0.45271868 0.42454234 0.6428531 0.5549136 0.41522324 0.5623108 0.09371505
-0.12425523 -0.09056465 0.0 -0.24717343 0.5487635 -0.786819 -0.040332798 -0.0042016665
-0.1145429 0.5613159 -0.6315698 0.36478177 -0.13286485 0.0 0.5224139 0.0
0.2952279 -0.11714309 -0.124844454 0.009523594 0.53317446 0.0 0.54625714 0.17568791
0.59757215 0.56556785 -0.04459167 0.5003973 0.42201284 -0.02579343 0.5185607 0.5285093
-0.058204602 -0.06852523 0.47099227 -0.16059835 0.35983944 0.53198266 -0.014041664 -0.040878262
-0.11755085 -0.10468619 0.42433947 0.0 0.27820337 -0.03291144 -0.09317814 0.32751065

net.2.weight f4 [64, 128]
00000000: ceb6 0a3e 3f47 d43d b404 f5bd c803 fdbd
00000010: 3490 163e 3974 04be 080e a53c 0497 533c
00000020: e45b d0bd 6d2d b6bd b07a 2fbd fd0d 033e
00000030: e407 b63d da85 46bd 3bf6 3abd 59e2 bfbd
00000040: 9d0d 6ebd cfb3 fabc 03f0 e9bd f4f2 9a3d
00000050: 5e24 b6bd 808c 0dbe 6dc0 10be d7e0 8ebd
00000060: fc3e bbbd 9e93 02be e23a 04bd ce02 a03d
00000070: decc 34be f6df c8b9 079d 6b3d e0c5 f73d
00000080: 9e8e 603d fd2f 853d d07e 26be 049a 0dbd
00000090: 22af 86bd 455b fabd 4dc1 94bd 288d 3b3d
000000a0: 43f6 4bba 67de fcbd f05a 1eb8 e434 563c
000000b0: 89aa 93bd 7a0d e83d ce92 043d 0d26 093e
000000c0: 0a79 be3d 238e b63d 2def 81bd 6258 0abe
000000d0: 432c 58be 4d1d 16be 67f2 2f3e c8db 08be
000000e0: daed e53d a07c 1a3d 0111 42be dbea 953c
000000f0: 304b 4bbe 159e 353d 3572 8dbd 83f4 043e
00000100: ae07 cebc 76ea bb3c cdcb 253d c25c 71bb
00000110: b23f 3bbd aae2 10bd 5554 0a3e 459f 63b9
00000120: 8142 cd3c 4505 583d 3bf2 55be 77f1 68bd
00000130: fa8e 603d 07d6 063d 68f5 fbbd 8a1a 923c
00000140: f5d5 c5bd dc8b fdbd d117 833d 596e eabd
00000150: 92ca 4dbe 4e1b 0fbe f0c4 0ebd 3951 90bd
00000160: 579a 03be b1f0 3e3d bd08 483b 9ce7 8fbd
00000170: 073f cd3d 3dff b63d 4be9 713c 53f8 193e
00000180: b8a1 29be 790a 96bd adfe 66be 33ed 143e
00000190: 6735 b43d f236 3bbd 8a36 c03c 3832 273d
000001a0: 7afa 0ebe aa9f e1bc 547e eebd 5acb b7bd
000001b0: cc93 cb3d 5676 923d 7f23 f23d bc03 d4bd
000001c0: 9271 0e3e f67e c53d 887c b3bd 61d0 10be
000001d0: 3db0 443e 09aa 49bd 339e 2f3e 49c0 93bb
000001e0: f3e9 a23c b593 95bd d869 083d 9ce7 05be
000001f0: f593 adbd d319 8f3d 1981 50bd 831b 9a3c
00000200: ed4b 123e 298f de3d 3740 5a3d 4a3e 1a3d
00000210: 103c 9c3c 69a0 d3bd fa6e e03e 1dd1 ef3e
00000220: b63b 08be d6f0 27be 23d7 2d3e 655c a33d
00000230: 99f2 053e 9394 ae3e 2a07 61bb 9837 fbbd
00000240: 8abc 943d 7061 293f 453b 23bd fb2d bc3e
00000250: be60 20bb 005b dcbd a619 6bbe a079 253f
00000260: 81da ba3d 343a 0f3f 7782 af3e 8cb0 d03d
00000270: 6087 693d 97f4 e0bd f600 21be 1276 343e
00000280: 07d0 bd3d 1068 bc3b 59e2 88be 8d35 0b3f
00000290: abac bd3c 4848 463e a538 13bc 1436 a0bd
000002a0: 2178 4abe c8f2 5b3d bcf2 20bd 6a54 95bd
000002b0: f80b b3bd 2ebb 21bd 5cd4 14be 2c67 0abe
000002c0: a654 013e 20d1 203d 7c2b 013f d2bc 1d3f
000002d0: c3f4 5fbe 9544 a1bd ef9b cb3c 7c6a 693d
000002e0: 9c64 4d3c 164a 293d 02cd 11bd b202 223f
000002f0: 6340 89be 833a 2d3e 5dc3 673d 2354 323f
00000300: 9baf 25be 6ce7 48be 6232 89bd 9ba9 eebc
00000310: a54a c6bd 8702 1d3e 67be 5c3d aba3 8cbe
00000320: 7f4f b63e 1d93 263f c815 5f3e 8c68 8abd
00000330: 9e39 ad3e f3b4 ac3d 8284 b83e 109b 6dbe
00000340: ca2b 84be d5fb a63d c9b2 d3bc a978 76be
00000350: b688 243f a6b5 cfbd c0b8 48be ed1f d3bd
00000360: ceed bcbd 9029 0d3f 7829 53be c68d 82bd
00000370: 24ce 5bbb b4e8 043e d8a3 213f 5415 c9bc
00000380: 16f1 0d3d 2070 1b3d 2239 16be 4d3d da3d
00000390: 5a09 063f 0413 173e 9ee6 173f e33c d4bd
000003a0: 525a a33e 956f 223f a174 c6bd 4eaf 163f
000003b0: e8ca 7a3d a833 213d 313a 1d3f c54d 273f
000003c0: 8b8c 203e d5cd 44be 80b8 eb3e a21e 5ebe
000003d0: e723 813e a0e6 c13e f30a f23d 7216 883b
000003e0: 25aa 72bc fc8e d8bd dc4c 713d f9ef 2c3e
000003f0: 0146 4f3d e428 f63d 143d 233d 310e d0bd
0.13546297 0.103651516 -0.11963788 -0.12354237 0.14703447 -0.1293496 0.020148292 0.012914423
-0.10173777 -0.08895383 -0.042841613 0.12798305 0.08888224 -0.048467495 -0.04564498 -0.09369344
-0.05811845 -0.030603318 -0.11422732 0.07565871 -0.08893655 -0.13823128 -0.14135905 -0.069764785
-0.09142873 -0.12751624 -0.032282718 0.07813035 -0.17656276 -0.00038313837 0.0575228 0.120982885
0.05482351 0.06503294 -0.16259313 -0.03457071 -0.06576373 -0.122244395 -0.07263432 0.045788914
-0.00077805313 -0.123471074 -3.7754828e-05 0.013074134 -0.072102614 0.113306955 0.032366566 0.13393421
0.0930043 0.08913829 -0.06344447 -0.13510278 -0.21110635 -0.14659615 0.17182313 -0.1336509
0.11227007 0.037716508 -0.18951799 0.018300464 -0.198529 0.044340212 -0.06906549 0.12983899
-0.025150146 0.022938948 0.040477563 -0.003682897 -0.04571504 -0.035372414 0.13508733 -0.0002170774
0.025056126 0.0527394 -0.20893185 -0.056870904 0.054823853 0.032918956 -0.12302667 0.01783492
-0.0965995 -0.12380192 0.06401027 -0.114468284 -0.20096806 -0.1397526 -0.034855783 -0.07046742
-0.12851845 0.04661626 0.0030522787 -0.07026598 0.10021787 0.089354016 0.014765094 0.15036134
-0.16565597 -0.07326216 -0.22558089 0.1454361 0.08799248 -0.045706697 0.023463506 0.040819377
-0.13962737 -0.027541954 -0.11645189 -0.08974333 0.099402994 0.07151477 0.118231766 -0.10352275
0.13910511 0.096433565 -0.08763987 -0.1414199 0.19207855 -0.049234424 0.17150192 -0.004509006
0.019886946 -0.073035635 0.033304065 -0.13076633 -0.08475486 0.069873475 -0.050904367 0.018811947
0.14286776 0.108671494 0.053283896 0.03765706 0.019071609 -0.1033333 0.43834668 0.46839228
-0.13304028 -0.16400465 0.169766 0.07976607 0.13080825 0.34097728 -0.0034336546 -0.12266463
0.072625235 0.661643 -0.039851446 0.3675383 -0.0024471725 -0.107595444 -0.22959003 0.6463871
0.091237076 0.55948186 0.34279224 0.10189924 0.05701387 -0.10984152 -0.15723023 0.17623165
0.09268194 0.00574971 -0.2673519 0.54378587 0.023153624 0.1936351 -0.008985673 -0.078228146
-0.19772388 0.05369833 -0.03929399 -0.07291491 -0.08742517 -0.03948515 -0.14534134 -0.1351592
0.12629947 0.039261937 0.50456977 0.6161624 -0.21870713 -0.07874409 0.024854628 0.056986317
0.012536194 0.04133042 -0.0355959 0.6328536 -0.26806936 0.16916852 0.056582797 0.6965963
-0.1618027 -0.1961953 -0.06699063 -0.029133609 -0.09682206 0.15332995 0.05389252 -0.2746862
0.35607526 0.6506823 0.21785653 -0.06758222 0.3383302 0.08432951 0.36038595 -0.23203683
-0.25814658 0.08153502 -0.025842087 -0.24069466 0.64271104 -0.101420686 -0.19601727 -0.10308824
-0.09225045 0.55141544 -0.20621288 -0.063746974 -0.0033539617 0.12979394 0.6314063 -0.024546303
0.034653746 0.037948728 -0.14670232 0.106562234 0.5235802 0.14753348 0.5933627 -0.10363176
0.31904846 0.6345151 -0.09690214 0.58861244 0.061228663 0.039355904 0.6141692 0.6535304
0.15678613 -0.19219144 0.460392 -0.21691373 0.25222704 0.37871265 0.11818495 0.0041530663
-0.014811073 -0.10574147 0.05891119 0.16888417 0.05060387 0.12019518 0.03985317 -0.10158957

net.2.bias f4 [64]
00000000: 110e de3b a4f2 e53e 7dcc b53e 4752 1b3c
00000010: 69d0 a23e e9b5 41bd 3250 e23e dc7a dfbe
00000020: ef0e b73e 5b82 9bbe b45d 943e 2d9c 69be
00000030: be1c 7a3e c312 b33e e2e2 c2bd 2eae 543e
00000040: 25bd 763e 28bb f7bd f222 34bd bd48 ce3e
00000050: 9894 c3bc 5379 23bd 879d a83e 9e5b 983e
00000060: 5783 cf3e 5835 71bd f0cb 923e f349 a2be
00000070: 225d b3bd 3f75 9cbd 02f8 74bd 5975 85bd
00000080: d15e 21be bbd6 0cbd 3b0d 5abd 0877 bebe
00000090: f3cf b83e 3f40 a1bd d362 c73e f4fa 52bd
000000a0: f704 0b3f dc1c 02bd 15eb b33e a707 c8bd
000000b0: 42ac 933e 7048 ad3e 724f cd3e c7de 533f
000000c0: 2ceb 6e3e c006 d53e dd1c 02bd 0daa 55bd
000000d0: 213d 95bd 93b3 0abe b6f7 e7bd d11c 82bd
000000e0: 4895 65bd 4085 4bbd 7f25 62bd 7599 e93e
000000f0: 2e3c b1bd e873 91bd 65b4 a33d caa2 923e
0.006776579 0.44911683 0.35507575 0.009480066 0.3179963 -0.047292624 0.4420181 -0.43648422
0.3575358 -0.3037289 0.2897774 -0.22813483 0.24425027 0.34975252 -0.09515931 0.2076957
0.2409559 -0.12096244 -0.04397864 0.4028987 -0.023874566 -0.039910626 0.32932684 0.29757398
0.40529892 -0.058888763 0.28671217 -0.31697044 -0.08757998 -0.076395504 -0.05980683 -0.06516523
-0.15758826 -0.03438447 -0.053235274 -0.3720019 0.36096153 -0.07873582 0.38942584 -0.05150886
0.5430445 -0.031765804 0.3514029 -0.097670846 0.2884236 0.33844328 0.40099674 0.82761806
0.23331898 0.41606712 -0.031765807 -0.052164126 -0.0728705 -0.13545065 -0.11326544 -0.063531525
-0.05605057 -0.049687624 -0.05521154 0.4562489 -0.086540565 -0.071021855 0.07993392 0.28639823

net.4.weight f4 [16, 64]
00000000: 624a 0c3e f0bc 3cbc 2400 85be 5268 7ebe
00000010: 919e 7bbe db5f 19be a565 2abe 42c0 513d
00000020: 9b47 0d3d 4037 6e3e e5cf d03d 7026 45be
00000030: 9d31 8dbe cba3 98bd dd79 9e3d 0523 a63d
00000040: 1bfc a6bd 22e6 a1bd 199f 82bd 46cd b73c
00000050: dca8 3d3e a365 643e 7d91 493e da85 18be
00000060: 0c47 6f3e 9bce bfbd 1b06 2fbe 7d44 79be
00000070: ac2d 3c3e 41a1 43bd 00ec 30bd b041 5f3e
00000080: ea8a 3abe 2f68 5d3d f35a 48be 23ca d13b
00000090: df9c 1abd b622 023d cda4 9ebe 5750 103e
000000a0: 4536 b43d 1764 0bbe 0510 84be a3b8 da3d
000000b0: ca4f 36be 7014 82be 7d40 053e 9b89 92be
000000c0: f2e3 1bbe 39d4 4bbe cedd 4c3d 9a2e 09be
000000d0: baa7 873e f071 513e c949 5fbe 9d03 433d
000000e0: 61c8 653d 4611 0b3e 7da0 78be 87fe babd
000000f0: 1fc0 01be b208 593e 3b44 37be de44 ecbd
00000100: 12fa 0fbe f69d 8d3c 8bd3 1dbc b4c6 dcbd
00000110: d5c2 bbbc 2b73 b13d 7649 39bd 92d8 8b3c
00000120: b6ba 2cbe f31d 8abe 2bba 0dbd 6317 663d
00000130: aaf3 23be 0aef 6c3d 31ed 753e b5b8 633e
00000140: 44a2 9dbe 6e06 b13d 24eb d03d 445c 6d3e
00000150: 5ae7 01be 4042 56bd b81f 103e 458f cdbd
00000160: 11d2 9f3d 6e62 5ebe 3454 8abe 92ff 013e
00000170: 96e2 bfbd f12e 9a3d 8731 5a3e f563 81be
00000180: 5204 2a3e e1c1 093e 1920 893e 7d55 78be
00000190: 00b3 933c b295 dd3d 4e48 80be c0e0 3fbb
000001a0: ec82 48be e96a 97bd 47b3 d53d 9dbe 373e
000001b0: 15b8 533d 18b8 c7bc 38ba 87bd 5f06 05be
000001c0: e73b c53c 394a bdbd 3df5 61be 4e27 b6bd
000001d0: b0a5 dc3d d4e3 f23d cc74 f13d fb42 9dbc
000001e0: c986 833e 5b4b 41be 3b47 1c3d 6c39 50be
000001f0: 41ee 0d3e d203 5e3e c2aa 6ebd bab3 253e
00000200: c731 1fbe 057a e33e ca83 7abe d397 0a3b
00000210: ffd4 f03e d2dc ef3d 159f fa3d 76e4 603d
00000220: faa6 fa3b 31af a53c 44bd 19bd 9788 fb3d
00000230: 42c9 8fbd 55f1 06be 2598 d63d aa60 28bd
00000240: 77da 80be 8c6a 593e 5488 ae3e 825b 0f3e
00000250: 40d5 e4bd 9933 173d 6cc0 cf3b 6ff4 d23d
00000260: eb83 4f3e b32c 73be 5a9d a33c ceda 18bf
00000270: 4432 fd3d 51c1 183e cc23 403d a955 fcbd
00000280: 05ec 7cbe a93f 96be 4122 32bd ff7d 72be
00000290: 900a b13e c48b 2fbe 685b f1bc 8454 aabe
000002a0: 1e82 423d 34e2 7f3e 3edc f4bc d463 273e
000002b0: 018a 9b3e 019e c0bd b56e 3bbe 2ac2 57bc
000002c0: 0b06 3bbd 6e66 4e3e f851 c1bd 48f0 83bd
000002d0: f1f5 0f3d 3b78 0fbe 6324 a73d 330b 583e
000002e0: 6934 ffbd feb0 8b3e 1be2 f8bd d764 113f
000002f0: e85a 4ebd 3b13 193c bc7f 4b3c 9b33 603e
00000300: f13a 4b3e f108 a4be 2205 2d3e fd3a 173e
00000310: a265 fdbd 2f5b 0e3e a504 e7bd fe5d 05bd
00000320: 1c95 17be 0ab0 4b3c cac1 9bbe f9fc 273e
00000330: 453d b63e 67e1 2ebe 11d4 b2bd e1b7 2f3e
00000340: b525 e33d 9194 f03d d3e1 433e 7720 5bbc
00000350: 5e29 86bd 4af9 073e 075f 493e de52 88be
00000360: c3f0 743d c34c 7cbd c30f a53d 8adf 83be
00000370: 9ec7 a9ba 3341 8bbe 3f40 823d 57bf 4fbc
00000380: fe04 bcbc 83fd 3bbd b40d 21be 3ad6 3bbe
00000390: 6609 3fbe ad33 5fbb 481e 21be a9be 2dbe
000003a0: dd2c f3ba 997c 86be 88fd 71be 6088 b33d
000003b0: 6e41 673e 2f62 c5be b4bd 513e 327b 273e
000003c0: ec55 dfbe 029f cc3b 3eae 4fbe 815a 16be
000003d0: 641b 3d3e 1430 f03e c7f3 053e 3790 513e
000003e0: 018a db3d dc05 a03e d85f 91be cfec e43d
000003f0: f3a8 043d 0d37 7b3e 8ec0 3ebe 2c22 1b3e
0.1370025 -0.011519656 -0.2597667 -0.24844483 -0.24572207 -0.14977972 -0.16640337 0.051208742
0.034492116 0.23263264 0.10195903 -0.19252944 -0.27576914 -0.07453116 0.07738087 0.08112148
-0.08153554 -0.079052225 -0.06378002 0.02243675 0.18521446 0.22304396 0.19684406 -0.1489481
0.23366946 -0.09365579 -0.17092173 -0.24342532 0.18376797 -0.047761206 -0.043193817 0.21802402
-0.18217054 0.054054435 -0.19565944 0.0064022704 -0.03774726 0.031771384 -0.30985108 0.14093147
0.087994136 -0.136124 -0.25793472 0.10679748 -0.17803875 -0.25406218 0.13012882 -0.2862061
-0.15223673 -0.19905175 0.050016217 -0.13396683 0.26495153 0.2045362 -0.2180549 0.047610868
0.0560993 0.13580808 -0.24279971 -0.091305785 -0.12670945 0.21194723 -0.17897122 -0.11536573
-0.14060238 0.017287236 -0.009632955 -0.10780087 -0.022920052 0.08664545 -0.045236073 0.017071042
-0.168681 -0.26975974 -0.03460137 0.056174647 -0.16010919 0.057845153 0.24016263 0.22238429
-0.3078786 0.086438045 0.102010995 0.23179728 -0.1268591 -0.052309275 0.140746 -0.10037092
0.07803739 -0.21717235 -0.27017367 0.12695149 -0.0936939 0.075284846 0.21307956 -0.25271574
0.1660321 0.13452865 0.267823 -0.24251361 0.01802969 0.10819568 -0.25055164 -0.0029278249
-0.19581193 -0.07393438 0.10434585 0.17943807 0.051689226 -0.024379775 -0.06627315 -0.12990712
0.024076415 -0.092426725 -0.22066207 -0.088942155 0.1077379 0.11859861 0.11789855 -0.019196978
0.2568877 -0.18876402 0.03815387 -0.20334405 0.13860418 0.21681145 -0.058268316 0.16181841
-0.15546332 0.4442903 -0.24464336 0.0021147623 0.47037503 0.1171204 0.12237374 0.054905377
0.0076492997 0.02022514 -0.037534013 0.12281912 -0.07020809 -0.13177998 0.10478238 -0.04110781
-0.25166675 0.2123205 0.34088385 0.13999751 -0.11173487 0.03691444 0.006340077 0.10300528
0.20265166 -0.2374752 0.019972492 -0.5970887 0.12363103 0.14917494 0.04690914 -0.12321026
-0.2469941 -0.29345444 -0.0434897 -0.23680876 0.3457837 -0.1714316 -0.029462531 -0.33267605
0.04748737 0.24988633 -0.029890176 0.16346675 0.30378726 -0.09405137 -0.1830395 -0.013168851
-0.04566006 0.20156261 -0.094394624 -0.064423144 0.035146657 -0.14010708 0.08161237 0.21098022
-0.12461168 0.27283472 -0.12152501 0.56794494 -0.050379664 0.009342964 0.012420591 0.21894686
0.19846703 -0.32038072 0.1689649 0.14768596 -0.123729005 0.13901971 -0.11280183 -0.03256034
-0.14802974 0.012432108 -0.30421287 0.16405095 0.3559362 -0.17078172 -0.08731855 0.17159988
0.110911764 0.11747087 0.19129114 -0.013374439 -0.06550859 0.1327869 0.19665156 -0.26625723
0.05979992 -0.061596643 0.08059647 -0.25756484 -0.0012953167 -0.2719818 0.0635991 -0.012679896
-0.0229516 -0.045896064 -0.15727884 -0.1834344 -0.18655929 -0.00340579 -0.15734208 -0.16967262
-0.0018552799 -0.26266935 -0.23631871 0.08766246 0.22583553 -0.3855147 0.20482522 0.16355589
-0.4362024 0.006244541 -0.20281312 -0.14682962 0.1846748 0.4691168 0.13081275 0.2046517
0.107196815 0.3125447 -0.28393435 0.1117798 0.032387685 0.24532719 -0.18628141 0.15149754

net.4.bias f4 [16]
00000000: 6d96 0ebd daf1 cabd d7b9 453f 7c09 03bf
00000010: c021 a8bd da14 be3e 97f5 aa3f c83a 893d
00000020: 2b9c 6dbe 08ed 7abd 22de acbd a60e b5bd
00000030: a7db f7be 07c9 983d f1e2 7e3f 768c 813e
-0.034811426 -0.09909411 0.77236694 -0.51186347 -0.08209562 0.37125283 1.3356198 0.06700665
-0.23204105 -0.061261207 -0.08440806 -0.088406846 -0.4840977 0.07460218 0.99565035 0.25302476

net.6.weight f4 [1, 16]
00000000: 9478 703e d759 1ebe 50f7 4e3d 3d08 173e
00000010: bdf8 babe a5a5 2c3c 1c80 5e3e 430d b13e
00000020: ef8e 8a3c 513e d1be 6796 41be a99d b9bd
00000030: f166 86bc 0576 773e f9e8 ad3d d5ac 063e
0.23483497 -0.15463959 0.050528824 0.14749236 -0.36517897 0.01053754 0.21728557 0.3458043
0.01691386 -0.40867856 -0.1890503 -0.090632744 -0.016406508 0.24166115 0.08491702 0.13151868

exp_avg f4 [128, 48]
00000000: 0400 0000 0400 0000 0000 0000 0400 0000
00000010: 0000 0000 0000 0000 0000 0000 0400 0000
00000020: 0400 0000 0400 0000 0000 0000 0400 0000
00000030: 0000 0000 0000 0000 0000 0000 0400 0000
00000040: 0400 0000 0400 0000 0000 0000 0400 0000
00000050: 0000 0000 0000 0000 0000 0000 0400 0000
00000060: 0400 0000 0400 0000 0400 0000 0400 0000
00000070: 0400 0000 0400 0000 0400 0000 0400 0000
00000080: 0400 0000 0400 0000 0400 0000 0400 0000
00000090: 0400 0000 0400 0000 0400 0000 0400 0000
000000a0: 0400 0000 0400 0000 0400 0000 0400 0000
000000b0: 0000 0000 0400 0000 0400 0000 0400 0080
000000c0: 0400 0000 0400 0000 0400 0000 0400 0000
000000d0: 0400 0000 0400 0000 0400 0000 0400 0000
000000e0: 0400 0000 0400 0000 0400 0000 0400 0000
000000f0: 0400 0000 0400 0000 0400 0000 0400 0000
00000100: 0400 0000 0400 0000 0400 0000 0400 0000
00000110: 0400 0000 0400 0000 0400 0000 0400 0000
00000120: 0400 0000 0400 0000 0400 0000 0400 0000
00000130: 0400 0000 0400 0000 0400 0000 0400 0000
00000140: 0400 0000 0400 0000 0400 0000 0400 0000
00000150: 0400 0000 0400 0000 0400 0000 0400 0000
00000160: 0400 0000 0400 0000 0400 0000 0400 0000
00000170: 0400 0080 0400 0000 0400 0000 0400 0080
00000180: 537e b3b4 7c10 d2b5 0400 0080 69fd 16b5
00000190: c232 16ac 0400 0000 94c4 8bad 5dee 5bb1
000001a0: 8dfc b1b7 385f 75b8 0400 0000 a7fc 00b8
000001b0: 4faf eaaf 1496 7e15 89d2 49b8 1331 4eb1
000001c0: 25db 07b2 70a6 fbb2 0400 0000 9999 69b2
000001d0: 6f82 05aa 0400 0000 b043 c8aa 44cc 54af
000001e0: dad6 5aaf 18ef 99b0 8b2e 17b1 3770 adb2
000001f0: 2b68 2c36 a30f b5b0 c6cb 2ab2 b962 6fb3
00000200: 29fe 7d30 2630 1db3 facd a435 18e2 1531
00000210: 0361 dab2 18f7 2235 cc70 c7ad 3d17 96ae
00000220: 53e3 b8b0 9bed bcb1 9bed bcb1 5157 7437
00000230: 0400 0000 cf0d 8db0 9c43 81b3 3832 c1ae
00000240: ec75 0f3d d84c 4f3d eb7d 8abd 7f47 443d
00000250: 2869 7c3d f2ef c23b eda8 8f3d efa2 3737
00000260: 199c 08be f79f 063f 78c2 60c0 a52a d73f
00000270: bb26 383f 175e 94bf 3936 f13f c7a3 98b1
00000280: 5d44 c23a 25e5 963a 6161 cbb9 b282 983a
00000290: 3066 733a c4b0 d1b8 4c63 8f3a 128d c638
000002a0: 2d94 9d38 128a 20b7 2e37 6c38 7bcf 863a
000002b0: 357b 59be 11ad 04b9 c409 47ba 20b0 2b3c
000002c0: 1e25 c338 0a29 d6bb 3c5c 933c 14e3 e3b8
000002d0: 7ea8 b0bb 7077 20ba 85f5 2ab7 4cd9 4d39
000002e0: 1339 a33a 64e3 1639 64e3 1639 7412 83bc
000002f0: 0400 0000 d33a 4e3a 18d3 003c 461e 9639
00000300: 0400 0000 0400 0000 0400 0000 0400 0000
00000310: 0400 0000 0400 0080 0400 0000 0400 0000
00000320: 0400 0000 0400 0000 0400 0000 0400 0000
00000330: 0400 0000 0400 0000 0400 0000 0400 0000
00000340: 0400 0000 0400 0000 0400 0000 0400 0000
00000350: 0400 0000 0400 0000 0400 0000 0400 0000
00000360: 0400 0000 0400 0000 0400 0000 0400 0000
00000370: 0400 0000 0400 0000 0400 0000 0400 0000
00000380: 0400 0000 0400 0000 0400 0000 0400 0000
00000390: 0400 0000 0400 0000 0400 0000 0400 0000
000003a0: 0400 0000 0400 0000 0400 0000 0400 0000
000003b0: 0400 0000 0400 0080 0400 0080 0400 0000
000003c0: 0400 0000 0400 0000 0400 0000 0400 0000
000003d0: 0400 0000 0400 0000 0400 0000 0400 0000
000003e0: 0400 0000 0400 0000 0400 0000 0400 0000
000003f0: 0400 0000 0400 0000 0400 0000 0000 0000
6e-45 6e-45 0.0 6e-45 0.0 0.0 0.0 6e-45
6e-45 6e-45 0.0 6e-45 0.0 0.0 0.0 6e-45
6e-45 6e-45 0.0 6e-45 0.0 0.0 0.0 6e-45
6e-45 6e-45 6e-45 6e-45 6e-45 6e-45 6e-45 6e-45
6e-45 6e-45 6e-45 6e-45 6e-45 6e-45 6e-45 6e-45
6e-45 6e-45 6e-45 6e-45 0.0 6e-45 6e-45 -6e-45
6e-45 6e-45 6e-45 6e-45 6e-45 6e-45 6e-45 6e-45
6e-45 6e-45 6e-45 6e-45 6e-45 6e-45 6e-45 6e-45
6e-45 6e-45 6e-45 6e-45 6e-45 6e-45 6e-45 6e-45
6e-45 6e-45 6e-45 6e-45 6e-45 6e-45 6e-45 6e-45
6e-45 6e-45 6e-45 6e-45 6e-45 6e-45 6e-45 6e-45
6e-45 6e-45 6e-45 6e-45 -6e-45 6e-45 6e-45 -6e-45
-3.343326e-07 -1.5651017e-06 -6e-45 -5.6248115e-07 -2.1344458e-12 6e-45 -1.5889769e-11 -3.2004188e-09
-2.1217647e-05 -5.850123e-05 6e-45 -3.075288e-05 -4.2688916e-10 5.1413282e-26 -4.811821e-05 -3.000484e-09
-7.907862e-09 -2.9295933e-08 6e-45 -1.3597309e-08 -1.1858026e-13 6e-45 -3.5574104e-13 -1.9353857e-10
-1.9903315e-10 -1.120017e-09 -2.1999849e-09 -2.019088e-08 2.569063e-06 -1.3173928e-09 -9.941635e-09 -5.573631e-08
9.2402047e-10 -3.6598202e-08 1.2278899e-06 2.1810873e-09 -2.5422656e-08 6.070927e-07 -2.2673773e-11 -6.825338e-11
-1.3452371e-09 -5.4985327e-09 -5.4985327e-09 1.4563863e-05 6e-45 -1.0263025e-09 -6.019329e-08 -8.7855445e-11
0.03502457 0.050610393 -0.06762298 0.047919746 0.061623722 0.005949014 0.07014642 1.0945586e-05
-0.13340797 0.52587837 -3.5118694 1.6809889 0.719341 -1.1591214 1.8844672 -4.4424016e-09
0.0014821399 0.0011512382 -0.0003879173 0.001163563 0.00092849415 -9.998822e-05 0.0010939627 9.467652e-05
7.513943e-05 -9.56889e-06 5.6318175e-05 0.0010285223 -0.21238406 -0.00012652973 -0.0007592703 0.010479003
9.305238e-05 -0.006535654 0.017988317 -0.000108665 -0.0053911796 -0.0006121313 -1.0189954e-05 0.00019631273
0.0012452923 0.00014389824 0.00014389824 -0.01600001 6e-45 0.0007867042 0.007862829 0.00028632785
6e-45 6e-45 6e-45 6e-45 6e-45 -6e-45 6e-45 6e-45
6e-45 6e-45 6e-45 6e-45 6e-45 6e-45 6e-45 6e-45
6e-45 6e-45 6e-45 6e-45 6e-45 6e-45 6e-45 6e-45
6e-45 6e-45 6e-45 6e-45 6e-45 6e-45 6e-45 6e-45
6e-45 6e-45 6e-45 6e-45 6e-45 6e-45 6e-45 6e-45
6e-45 6e-45 6e-45 6e-45 6e-45 -6e-45 -6e-45 6e-45
6e-45 6e-45 6e-45 6e-45 6e-45 6e-45 6e-45 6e-45
6e-45 6e-45 6e-45 6e-45 6e-45 6e-45 6e-45 0.0

exp_avg_sq f4 [128, 48]
00000000: 6c63 3101 afe0 0407 0000 0000 259f c503
00000010: 0000 0000 0000 0000 0000 0000 b560 0b00
00000020: 139e 7707 9ccf 5a0c 0000 0000 d901 8d09
00000030: 0000 0000 0000 0000 0000 0000 32ba 0a00
00000040: d343 0000 fe1e c401 0000 0000 5e15 0900
00000050: 0000 0000 0000 0000 0000 0000 f401 0000
00000060: f401 0000 0c0b 0000 6004 0000 c907 3100
00000070: 8b9f 8b06 f401 0000 edbe 0000 c763 c400
00000080: a7d9 0a00 c465 3903 968a c407 826a 0a00
00000090: ee37 f802 29ec 0c08 f401 0000 f401 0000
000000a0: 6f1f 0000 f441 0c00 f441 0c00 54e4 510c
000000b0: 0000 0000 f401 0000 7d69 0000 f401 0000
000000c0: 2381 0e0e f554 9210 6887 d60a 1ada b50e
000000d0: 1b04 a80c ed15 490c 68a1 cf0e df6c c207
000000e0: 9111 f813 5d5a e315 c1fe 7611 e6f6 6014
000000f0: 7349 5312 029d 2f12 ed3f 1b15 11f2 ab07
00000100: f4e2 b608 3eda 540b a7e5 c605 1f86 6c09
00000110: 36b9 5407 b201 0007 0886 9009 23a5 7903
00000120: 1948 8303 6011 e205 94e5 ab06 286e 5409
00000130: 868a 0410 5b60 9c05 550a 1509 877b 4f0b
00000140: c6b7 0308 74e9 dc0b 1992 dc0e f066 9e07
00000150: 96bd 1b0c 24ad 3e0e 8fa0 ff00 d7a9 da02
00000160: f8d6 9e06 8db7 5408 bb4d 5608 66e7 b912
00000170: 2899 1504 f023 d405 264b 7f0b 0755 9304
00000180: 2e7f 8a41 e1ad c944 4249 932e 8883 9042
00000190: 8ef2 843f 12f4 0835 b814 f441 bf99 393c
000001a0: 576b b547 84af 244a f2fe 5e35 ffdf 3a48
000001b0: e544 a846 e534 5a45 6656 3c48 f751 fa3b
000001c0: 209d 433c 5dee 823f 3a4c 0d2a a786 463d
000001d0: e74d 963a 06f5 6932 38e6 a13c acf7 c136
000001e0: 6f7a cf36 e8f0 a939 6e46 923a b846 f43d
000001f0: 0bd6 8844 25af 6f39 c6a9 843c d642 393f
00000200: ea57 153c 0433 4940 07da 1944 220b e73b
00000210: 3955 9d40 427a e343 a240 fe33 07d9 b935
00000220: 9695 1d3a 49f4 973c 49f4 973c 97d6 1248
00000230: 4137 c522 89bd 3339 11b3 023f 2ff0 2337
00000240: 6098 6942 9937 2643 98a1 b940 7ca0 f740
00000250: 5e6b 7442 0b6a 0742 c212 be42 a35c fb35
00000260: 1661 1948 135a 7748 c414 2647 0845 b945
00000270: c729 2648 a0b9 fc47 3f08 4548 aa95 1436
00000280: 27b6 253d 850b de3d 12fc ad3b 5425 b03b
00000290: 2e30 2b3d deb9 c93c 8a52 863d cf97 a937
000002a0: 147f c737 59c9 5b39 ee84 e13a ef79 0b3b
000002b0: 8299 3343 e550 b639 28fd 133d 9144 883e
000002c0: 11dd 763a 6d77 1b3e 64d9 b53f a36d 8038
000002d0: 566b e93d 3086 e13d 3b41 2c35 69c5 1937
000002e0: 1bbc df39 afca d83a 0620 e43a a82a 3b43
000002f0: ef1a d938 e3bb f838 ee4c 013e 0471 7f37
00000300: e31e a90c 0529 970f 4333 7203 7c43 810d
00000310: 93d3 8006 282d df04 3c2b a30d d5f3 cf06
00000320: 5944 c012 4cba ee14 71a5 fa09 9a93 5213
00000330: 3255 810c 077f b00a 68b6 1514 a334 b506
00000340: 2d09 7907 6edd 500a 4e84 0700 5adc 3708
00000350: 258c 0601 67aa 2800 f9d9 5008 a91e 7801
00000360: c9a4 9d01 1c20 a304 9516 9905 64dc 5008
00000370: ab7d 3e10 9550 8f04 e906 4407 d900 f909
00000380: 409a 1207 6bab 140c 4335 000e ac6e c006
00000390: fddf b30b 1a17 0b0e 117b 0100 e9f7 0500
000003a0: 041e 9503 9fdb 5007 9fdb 5007 06f7 0113
000003b0: e962 0403 f887 1803 fff2 e508 bae9 c801
000003c0: e37f 071c 49f3 831c 29de 431a 7356 3c1a
000003d0: 311b 141c 63d7 b01b 3d07 551c 4e6b 970a
000003e0: f468 9b21 4147 da21 2e97 0721 c0ae 961e
000003f0: daa7 a421 6690 8421 2ab4 b821 0000 0000
3.2581097e-38 9.996605e-35 0.0 1.1615157e-36 0.0 0.0 0.0 1.044882e-39
1.8628669e-34 1.6856584e-31 0.0 3.3946253e-33 0.0 0.0 0.0 9.85149e-40
2.4331e-41 7.20435e-38 0.0 8.34185e-40 0.0 0.0 0.0 7e-43
7e-43 3.963e-42 1.57e-42 4.502732e-39 5.2520416e-35 7e-43 6.8491e-41 1.803555e-38
9.96434e-40 5.4483435e-37 2.9572256e-34 9.56563e-40 3.6472427e-37 4.2407322e-34 7e-43 7e-43
1.1276e-41 1.125685e-39 1.125685e-39 1.6169484e-31 0.0 7e-43 3.7842e-41 7e-43
1.7565028e-30 5.7717743e-29 2.0658385e-32 4.482997e-30 2.588697e-31 1.5491075e-31 5.118487e-30 2.9253864e-34
6.2621323e-27 9.182714e-26 1.948448e-28 1.1357802e-26 6.6670394e-28 5.541379e-28 3.135243e-26 2.5871494e-34
1.1007083e-33 4.0993902e-32 1.8704191e-35 2.847053e-33 1.6003536e-34 9.630148e-35 3.479278e-33 7.336409e-37
7.716041e-37 2.125932e-35 6.4660386e-35 2.5570367e-33 2.6139124e-29 1.4705565e-35 1.794008e-33 3.9959681e-32
3.9637403e-34 8.509218e-32 5.4374874e-30 2.38337e-34 1.1997817e-31 2.3502672e-30 2.3475649e-38 3.2129704e-37
5.974886e-35 6.4012192e-34 6.4489654e-34 1.17321855e-27 1.7585192e-36 1.9949586e-35 4.916775e-32 3.463762e-36
17.3121 1613.4337 6.697799e-11 72.2569 1.0386522 5.1019117e-07 30.510117 0.01132816
92886.68 2.698209e+06 8.307244e-07 191359.98 21538.447 3491.306 192857.6 0.0076391655
0.011939317 1.0228993 1.2549762e-13 0.04846826 0.0011467309 1.3618097e-08 0.019763097 5.780681e-06
6.183334e-06 0.0003241368 0.0011159906 0.11927551 1094.6888 0.00022858063 0.016194236 0.7236761
0.009115199 3.1437387 615.4067 0.0070508877 4.916653 454.95514 1.1839553e-07 1.3846737e-06
0.0006011365 0.018549101 0.018549101 150362.36 5.345546e-18 0.00017141378 0.51054484 9.771479e-06
58.398804 166.21718 5.800976 7.7383404 61.10485 33.853558 95.03664 1.8727918e-06
157060.34 253288.3 42516.766 5928.629 170151.11 129395.25 201760.98 2.2140835e-06
0.040456917 0.10842041 0.00530959 0.0053755436 0.041793995 0.024624761 0.06558712 2.0217061e-05
2.3781824e-05 0.00020960475 0.0017205754 0.0021282395 179.59964 0.00034774016 0.0361301 0.26614812
0.0009417097 0.15182276 1.4206967 6.123937e-05 0.11397426 0.11011922 6.4169916e-07 9.165474e-06
0.00042674024 0.0016539897 0.0017404563 187.16663 0.00010352383 0.00011860558 0.12627003 1.5225498e-05
2.6057162e-31 1.490555e-29 7.1176254e-37 7.966485e-31 4.845913e-35 5.2468518e-36 1.0056059e-30 7.8223025e-35
1.21337525e-27 2.410534e-26 6.034089e-33 2.65785e-27 1.9926872e-31 1.6995966e-32 7.558551e-27 6.8161976e-35
1.8735374e-34 1.0056482e-32 6.9031e-40 5.532858e-34 2.4712462e-38 3.734549e-39 6.284895e-34 4.5572404e-38
5.7909147e-38 3.8350604e-36 1.4396346e-35 6.285179e-34 3.7567704e-29 3.369314e-36 1.4747432e-34 5.9945367e-33
1.1029149e-34 1.145309e-31 1.5802863e-30 7.238499e-35 6.928531e-32 1.7144196e-30 1.35983e-40 5.48111e-40
8.764324e-37 1.5712722e-34 1.5712722e-34 1.6403881e-27 3.8904857e-37 4.482487e-37 1.3839564e-33 7.380378e-38
4.4833043e-22 8.731741e-22 4.0504514e-23 3.8947322e-23 4.9004236e-22 2.9255948e-22 7.0485143e-22 1.4581135e-32
1.0530989e-18 1.4791115e-18 4.5939864e-19 1.5954143e-20 1.1157502e-18 8.98289e-19 1.2516014e-18 0.0

exp_avg f4 [128]
00000000: 0400 0000 0400 0000 9bed bcb1 63e3 1639
00000010: 0400 0000 0400 0000 0400 0000 0400 0000
00000020: 0000 0000 0400 0000 0400 0000 0000 0000
00000030: 0400 0000 0400 0000 0400 0000 0400 0000
00000040: 0400 0000 0400 0000 0400 0000 0400 0000
00000050: 0000 0000 0000 0000 0400 0000 0400 0000
00000060: 0400 0000 0400 0000 0400 0000 0000 0000
00000070: 0400 0000 0400 0000 0400 0000 0400 0000
00000080: 0400 0000 0400 0000 8c41 67b8 0400 0000
00000090: 0000 0000 0400 0000 4548 82b8 0400 0000
000000a0: 0400 0000 0400 0000 0400 0000 0400 0000
000000b0: 0400 0000 0000 0000 0400 0000 0400 0080
000000c0: 0400 0000 0400 0000 0400 0000 0400 0000
000000d0: 0400 0000 0400 0000 0400 0000 0400 0000
000000e0: 0400 0000 0400 0000 0400 0000 0400 0000
000000f0: 0400 0000 0000 0000 0000 0000 0400 0000
00000100: 0400 0000 0400 0000 634a 31a8 0000 0000
00000110: 8d5f 0db1 0400 0000 0400 0000 4797 e8b8
00000120: 0400 0000 0400 0000 2aaf bdb0 7e31 cdb8
00000130: 0400 0000 0400 0000 0400 0000 0400 0000
00000140: 0400 0000 0400 0000 0000 0000 0400 0000
00000150: 0400 0000 3058 fb38 0400 0000 0400 0000
00000160: 0400 0000 0400 0000 d439 2138 bc03 9ab8
00000170: 0400 0000 0000 0000 0400 0000 0000 0000
00000180: 0400 0000 0400 0000 0400 0000 0400 0000
00000190: 0400 0000 0000 0000 0400 0000 1272 ccb8
000001a0: 64fd de31 0400 0000 0400 0000 0400 0000
000001b0: 0400 0000 0400 0000 0400 0000 0400 0000
000001c0: 0400 0000 0400 0000 0400 0000 eb5b 99b7
000001d0: 0400 0000 0400 0000 0400 0000 0400 0000
000001e0: 0400 0000 0400 0000 0400 0000 0000 0000
000001f0: 0400 0000 0400 0000 0400 0000 b1fd 5131
6e-45 6e-45 -5.4985327e-09 0.00014389823 6e-45 6e-45 6e-45 6e-45
0.0 6e-45 6e-45 0.0 6e-45 6e-45 6e-45 6e-45
6e-45 6e-45 6e-45 6e-45 0.0 0.0 6e-45 6e-45
6e-45 6e-45 6e-45 0.0 6e-45 6e-45 6e-45 6e-45
6e-45 6e-45 -5.5135737e-05 6e-45 0.0 6e-45 -6.212344e-05 6e-45
6e-45 6e-45 6e-45 6e-45 6e-45 0.0 6e-45 -6e-45
6e-45 6e-45 6e-45 6e-45 6e-45 6e-45 6e-45 6e-45
6e-45 6e-45 6e-45 6e-45 6e-45 0.0 0.0 6e-45
6e-45 6e-45 -9.841604e-15 0.0 -2.0572515e-09 6e-45 6e-45 -0.000110908
6e-45 6e-45 -1.3801345e-09 -9.7843804e-05 6e-45 6e-45 6e-45 6e-45
6e-45 6e-45 0.0 6e-45 6e-45 0.00011985039 6e-45 6e-45
6e-45 6e-45 3.8439248e-05 -7.343988e-05 6e-45 0.0 6e-45 0.0
6e-45 6e-45 6e-45 6e-45 6e-45 0.0 6e-45 -9.748725e-05
6.4898575e-09 6e-45 6e-45 6e-45 6e-45 6e-45 6e-45 6e-45
6e-45 6e-45 6e-45 -1.8281824e-05 6e-45 6e-45 6e-45 6e-45
6e-45 6e-45 6e-45 0.0 6e-45 6e-45 6e-45 3.055771e-09

exp_avg_sq f4 [128]
00000000: f441 0c00 9f6c 5508 48f4 973c bf03 e83a
00000010: 1d60 5107 7704 3d14 0188 ec27 36d8 cc0f
00000020: 0000 0000 6d3d 0c33 56db 0804 0000 0000
00000030: f401 0000 0bbc 8b05 87cf 1b00 422e 6831
00000040: 671b 0c00 7dec bd05 5d84 0200 d13d f703
00000050: 0000 0000 0000 0000 5a5f b511 b202 c705
00000060: 476e 4d05 a2ee 9c05 7b00 a806 0000 0000
00000070: 8bd5 ad03 d066 1a00 00a9 7130 a86f 0b00
00000080: 7f27 3e00 fef1 9504 1a8e 6d3c be39 8905
00000090: 0000 0000 199b b00e 6a2f 873a 37e4 0f12
000000a0: d5f2 4006 3a67 2a00 560b 0000 0a8f 0400
000000b0: 56e5 0b04 0000 0000 3510 3b00 f401 0000
000000c0: b866 0f1c d4c9 da00 7595 7505 27cd ae05
000000d0: cef0 2932 d04c 3d17 9f70 f80d 5810 1100
000000e0: 3e91 ad1f f401 0000 f401 0000 c554 9105
000000f0: e239 e12e 0000 0000 0000 0000 ac7b 280e
00000100: 4682 cc27 e515 0b04 0fa9 923a 0000 0000
00000110: 3dfb be3b 13c3 6628 f401 0000 2b01 d13a
00000120: 0fae 6505 e280 8105 7bd5 6f3b 3385 5c3b
00000130: b367 a505 7746 f61a 4a2a 8605 e0cb 9121
00000140: cbd8 c00d 21e2 0100 0000 0000 6daa 5312
00000150: afc3 6e05 cfa7 6d3a 9d62 f324 eb5a 7229
00000160: cdff 212d 9567 9e05 e70f 6d3a 0b1e 293c
00000170: 4432 0000 0000 0000 22b8 b205 0000 0000
00000180: ef82 bd04 ea0e c30e c8d0 ed08 65c5 0400
00000190: 0279 000e 0000 0000 9aff 8505 0f73 ad3c
000001a0: 0c9c 7a3b 19d0 f104 b745 611e 8661 dd06
000001b0: 2bb3 ef1d 464d 450d 3b8e ba05 bfe7 9f05
000001c0: f340 0000 f681 3103 923f b70e 252f 9038
000001d0: b76e a608 116d 4c1f f401 0000 851c 0000
000001e0: bd37 8b2b 830c 1b00 69a6 841c 0000 0000
000001f0: f1c8 bf04 f401 0000 4429 a429 7e91 013b
1.125685e-39 6.422504e-34 0.0185491 0.0017701312 1.5751658e-34 9.542942e-27 6.5650614e-15 2.0199235e-29
0.0 3.2652157e-08 1.6087437e-36 0.0 7e-43 1.3140573e-35 2.554005e-39 3.3786738e-09
1.111856e-39 1.7860347e-35 2.31154e-40 1.4531548e-36 0.0 0.0 2.861553e-28 1.871486e-35
9.6593084e-36 1.475783e-35 6.319528e-35 0.0 1.0217053e-36 2.424605e-39 8.791545e-10 1.050245e-39
5.707969e-39 3.5251966e-36 0.014499212 1.2904629e-35 0.0 4.3536703e-30 0.0010313813 4.540414e-28
3.628959e-35 3.894122e-39 4.067e-42 4.18655e-40 1.6444677e-36 0.0 5.424108e-39 7e-43
4.744749e-22 2.009254e-38 1.15472956e-35 1.6438242e-35 9.891847e-09 6.1166145e-25 1.5311293e-30 1.567066e-39
7.350863e-20 7e-43 7e-43 1.3666874e-35 1.02420974e-10 0.0 0.0 2.0767145e-30
5.6762617e-15 1.6349425e-36 0.0011189299 0.0 0.00582829 1.2809865e-14 7e-43 0.0015945783
1.0799498e-35 1.2178446e-35 0.003659575 0.003364873 1.5554619e-35 1.0185706e-22 1.2616834e-35 9.879547e-19
1.1885105e-30 1.72955e-40 0.0 6.6789926e-28 1.12266476e-35 0.0009065838 1.0555151e-16 5.3813653e-14
9.20859e-12 1.4896299e-35 0.0009043202 0.010322104 1.8032e-41 0.0 1.6806679e-35 0.0
4.455393e-36 4.8085573e-30 1.4313003e-33 4.38154e-40 1.5835481e-30 0.0 1.2601153e-35 0.021173028
0.0038239984 5.6849935e-36 1.19258175e-20 8.327426e-35 6.344803e-21 6.0798326e-31 1.7543603e-35 1.5037418e-35
2.33e-41 5.2164813e-37 4.51742e-30 6.8752364e-05 1.00167905e-33 4.3288898e-20 7e-43 1.0231e-41
9.892015e-13 2.484047e-39 8.778043e-22 0.0 4.508842e-36 7e-43 7.2902215e-14 0.0019770558

exp_avg f4 [64, 128]
00000000: 0400 0080 0400 0000 0400 0080 0400 0000
00000010: 0400 0000 0000 0000 0400 0000 0400 0000
00000020: 0000 0000 0400 0000 0400 0000 0000 0000
00000030: 0400 0000 0400 0000 0400 0000 0400 0000
00000040: 0400 0000 0400 0000 0400 0000 0400 0000
00000050: 0000 0000 0000 0000 0400 0080 0400 0000
00000060: 0400 0000 0400 0000 0400 0000 0000 0000
00000070: 0400 0000 0400 0000 0400 0000 0400 0080
00000080: 0400 0080 0400 0000 0400 0000 0400 0000
00000090: 0000 0000 0400 0000 0400 0000 0400 0000
000000a0: 0400 0000 0400 0000 0400 0000 0400 0080
000000b0: 0400 0000 0000 0000 0400 0080 0400 0000
000000c0: 0400 0000 0400 0000 0400 0080 0400 0000
000000d0: 0400 0000 0400 0000 0400 0080 0400 0000
000000e0: 0400 0000 0400 0080 0400 0000 0400 0000
000000f0: 0400 0000 0000 0000 0000 0000 0400 0080
00000100: 0400 0000 0400 0000 0400 0000 0000 0000
00000110: 0400 0000 0400 0080 0400 0000 0400 0000
00000120: 0400 0000 0400 0000 0400 0000 0400 0000
00000130: 0400 0000 0400 0000 0400 0000 0400 0000
00000140: 0400 0080 0400 0000 0000 0000 0400 0000
00000150: 0400 0000 0400 0000 0400 0000 0000 0000
00000160: 0400 0000 0400 0000 0400 0000 0400 0000
00000170: 0400 0000 0000 0000 0400 0000 0000 0000
00000180: 0400 0000 0400 0000 0400 0000 0400 0000
00000190: 0400 0000 0000 0000 0400 0000 0400 0000
000001a0: 0400 0080 0400 0000 0400 0080 0400 0000
000001b0: 0400 0000 0000 0000 0400 0000 0400 0000
000001c0: 0400 0080 0400 0000 0400 0000 0400 0000
000001d0: 0400 0000 0400 0000 0400 0000 0400 0000
000001e0: 0400 0000 0400 0080 0400 0080 0000 0000
000001f0: 0400 0000 0400 0000 0400 0000 0400 0080
00000200: 0000 0000 0400 0000 0400 0000 0400 0000
00000210: 0400 0000 0000 0000 0400 0000 0400 0000
00000220: 0000 0000 0400 0000 0400 0000 0000 0000
00000230: 0000 0000 0400 0000 0400 0000 0400 0000
00000240: 0000 0000 0400 0000 0000 0000 0400 0000
00000250: 0000 0000 0000 0000 0400 0000 0400 0000
00000260: 0400 0000 0400 0000 0400 0000 0000 0000
00000270: 0400 0000 0400 0000 0400 0000 0000 0000
00000280: 0400 0080 0400 0000 0400 0000 0400 0000
00000290: 0000 0000 0400 0000 0400 0000 0400 0000
000002a0: 0400 0000 0400 0000 0000 0000 0000 0000
000002b0: 0400 0000 0000 0000 0000 0000 0000 0000
000002c0: 0400 0000 0400 0000 0400 0000 0400 0000
000002d0: 0400 0000 0400 0000 0000 0000 0400 0000
000002e0: 0400 0000 0000 0000 0000 0000 0400 0000
000002f0: 0400 0000 0000 0000 0000 0000 0400 0000
00000300: 0400 0000 0400 0000 0400 0000 0000 0000
00000310: 0400 0000 0400 0000 0000 0000 0400 0000
00000320: 0400 0000 0400 0000 0400 0000 0400 0000
00000330: 0400 0000 0400 0000 0400 0000 0400 0000
00000340: 0400 0000 0000 0000 0000 0000 0400 0000
00000350: 0400 0000 0400 0000 0400 0000 0000 0000
00000360: 0400 0000 0400 0000 0400 0000 0400 0000
00000370: 0000 0000 0000 0000 0400 0000 0000 0000
00000380: 0400 0000 0000 0000 0400 0000 0000 0000
00000390: 0400 0000 0000 0000 0400 0000 0400 0000
000003a0: 0400 0000 0400 0000 0400 0000 0400 0000
000003b0: 0400 0000 0000 0000 0400 0000 0400 0000
000003c0: 0000 0000 0400 0000 0400 0000 0400 0000
000003d0: 0400 0000 0400 0000 0000 0000 0000 0000
000003e0: 0400 0000 0000 0000 0400 0000 0000 0000
000003f0: 0400 0000 0000 0000 0400 0000 0400 0000
-6e-45 6e-45 -6e-45 6e-45 6e-45 0.0 6e-45 6e-45
0.0 6e-45 6e-45 0.0 6e-45 6e-45 6e-45 6e-45
6e-45 6e-45 6e-45 6e-45 0.0 0.0 -6e-45 6e-45
6e-45 6e-45 6e-45 0.0 6e-45 6e-45 6e-45 -6e-45
-6e-45 6e-45 6e-45 6e-45 0.0 6e-45 6e-45 6e-45
6e-45 6e-45 6e-45 -6e-45 6e-45 0.0 -6e-45 6e-45
6e-45 6e-45 -6e-45 6e-45 6e-45 6e-45 -6e-45 6e-45
6e-45 -6e-45 6e-45 6e-45 6e-45 0.0 0.0 -6e-45
6e-45 6e-45 6e-45 0.0 6e-45 -6e-45 6e-45 6e-45
6e-45 6e-45 6e-45 6e-45 6e-45 6e-45 6e-45 6e-45
-6e-45 6e-45 0.0 6e-45 6e-45 6e-45 6e-45 0.0
6e-45 6e-45 6e-45 6e-45 6e-45 0.0 6e-45 0.0
6e-45 6e-45 6e-45 6e-45 6e-45 0.0 6e-45 6e-45
-6e-45 6e-45 -6e-45 6e-45 6e-45 0.0 6e-45 6e-45
-6e-45 6e-45 6e-45 6e-45 6e-45 6e-45 6e-45 6e-45
6e-45 -6e-45 -6e-45 0.0 6e-45 6e-45 6e-45 -6e-45
0.0 6e-45 6e-45 6e-45 6e-45 0.0 6e-45 6e-45
0.0 6e-45 6e-45 0.0 0.0 6e-45 6e-45 6e-45
0.0 6e-45 0.0 6e-45 0.0 0.0 6e-45 6e-45
6e-45 6e-45 6e-45 0.0 6e-45 6e-45 6e-45 0.0
-6e-45 6e-45 6e-45 6e-45 0.0 6e-45 6e-45 6e-45
6e-45 6e-45 0.0 0.0 6e-45 0.0 0.0 0.0
6e-45 6e-45 6e-45 6e-45 6e-45 6e-45 0.0 6e-45
6e-45 0.0 0.0 6e-45 6e-45 0.0 0.0 6e-45
6e-45 6e-45 6e-45 0.0 6e-45 6e-45 0.0 6e-45
6e-45 6e-45 6e-45 6e-45 6e-45 6e-45 6e-45 6e-45
6e-45 0.0 0.0 6e-45 6e-45 6e-45 6e-45 0.0
6e-45 6e-45 6e-45 6e-45 0.0 0.0 6e-45 0.0
6e-45 0.0 6e-45 0.0 6e-45 0.0 6e-45 6e-45
6e-45 6e-45 6e-45 6e-45 6e-45 0.0 6e-45 6e-45
0.0 6e-45 6e-45 6e-45 6e-45 6e-45 0.0 0.0
6e-45 0.0 6e-45 0.0 6e-45 0.0 6e-45 6e-45
