src/model_data/Azerbaijan_Grand_Prix_model.pth (torch, 198075 bytes, 21 tensors)

net.0.weight f4 [128, 48]
000000 66 66 06 be 4e 73 f3 bd 5e 9a 0b 3e 5e 4b 5a bd
       -0.13125 -0.11887227 0.13633105 -0.053294532
000010 89 7c c4 bd a1 0e 1c bd fd e5 f2 3d 19 c5 c9 bd
       -0.09594066 -0.03809989 0.11860273 -0.098520465
000020 7f cb 8a bd d8 fd 2e be e8 da 1b 3d d9 d3 f2 3c
       -0.06777095 -0.17089021 0.038050562 0.029642032
000030 5c 74 ec bd c7 14 1c 3e f1 90 0f bd 3c 3c af bd
       -0.11545631 0.15242301 -0.035050336 -0.08556411
000040 aa 22 18 3d 87 7d 0d 3e c6 b7 d6 3d 63 c8 fb bd
       0.037142433 0.13817416 0.10484271 -0.1229408
000050 1d 1b fc bd d8 46 db 3c db 0e 4f 3c 75 f8 16 3e
       -0.12309859 0.02676718 0.012637819 0.14743216
000060 96 99 0e be d5 2f 15 be eb 52 a0 3d 0b 9b 9e 3d
       -0.13925776 -0.14569028 0.07828315 0.07744416
000070 00 34 12 bd d4 d0 6d bd a1 20 cc 3d dd 6d 1e 3e
       -0.035694122 -0.058060482 0.09967161 0.15471597
000080 c2 cb 0b be ac f7 0d 3e 1b ea 5f 3c 22 b6 2b be
       -0.13651946 0.1386401 0.013666655 -0.16768697
000090 70 c0 73 bd c0 82 2f be 8b 7c 3b 3d 26 a6 06 3e
       -0.059509695 -0.17139721 0.04577307 0.13149318
0000a0 45 6c 30 3e 5a 3a ce bd 64 a2 30 3e 40 99 3d bc
       0.17228802 -0.100697234 0.17249447 -0.011572182
0000b0 f8 1c 09 3e 2c ab 8c bd 9f 84 b5 bd d2 67 04 3e
       0.13389957 -0.06868586 -0.08863186 0.1293023
0000c0 22 17 a1 be db 7c 57 3e 23 ca 09 be c7 76 c8 bd
       -0.3146296 0.21043722 -0.13456015 -0.0978828
0000d0 3d e1 28 bf 80 ed 70 be 37 b7 51 bc 29 de 8a 3e
       -0.65968686 -0.23528099 -0.0128000295 0.2712262
0000e0 c4 8d 39 3d e5 30 90 bd 25 1d a7 be 77 a4 04 3e
       0.045301214 -0.07040576 -0.32639423 0.12953363
0000f0 ed 10 cb 3d f2 d6 33 be f9 70 5d bc 98 32 60 3e
       0.09915338 -0.17562464 -0.013515704 0.218943
000100 15 8f c0 bd db b3 8b 3e b5 cc 87 be 47 71 7e bc
       -0.09402291 0.27285656 -0.26523367 -0.015529937
000110 c2 21 bd be ea b7 f1 be d9 b0 91 be d5 b9 aa be
       -0.36939818 -0.47210628 -0.28455237 -0.33344904
000120 40 c5 4c be 37 84 3f be 14 52 9b be 00 ac d4 3e
       -0.1999712 -0.1870278 -0.30336058 0.41537476
000130 c9 28 02 be 79 2b 2c be 57 d6 06 3e a8 ef 5d 3e
       -0.12710871 -0.16813459 0.13167702 0.21673453
000140 b4 89 97 bc 31 b9 21 3f e6 05 8d 3e 31 37 e7 3e
       -0.01849828 0.63173205 0.27543563 0.45159295
000150 4d c8 23 3f c2 2d 82 3d e6 a5 0f be 91 92 fc be
       0.6397751 0.06356384 -0.14028129 -0.4933057
000160 aa a2 74 3c 6b 6c 24 3e 4c 08 52 3e da d2 1d 3f
       0.01493136 0.16056983 0.20510978 0.6164986
000170 9c 47 d8 3d a7 5e 03 c0 6e 19 c0 bf 5e 9c e0 3c
       0.105605334 -2.0526521 -1.500776 0.027418312
000180 77 06 c4 bd 12 fb 5a be 92 7d e5 3d ec 43 bf 3d
       -0.095715456 -0.21384838 0.11205591 0.09339127
000190 a2 f3 3c bc ef a0 97 bd 90 49 8d 3d f3 4b 2b be
       -0.011532696 -0.074037425 0.068987966 -0.16728191
0001a0 e6 af d7 bd 99 0c 95 bd 3e 09 dd 3d 17 7b b8 3c
       -0.10531597 -0.072777934 0.107927784 0.022519631
0001b0 78 28 2c 3d 10 47 5e be 2a bf 7e bd 56 9a 27 be
       0.04203078 -0.21706796 -0.062194027 -0.16367468
0001c0 f0 cf 13 be 52 73 32 be 2a 86 3a be b2 02 2d be
       -0.1443479 -0.17426804 -0.18215242 -0.1689556
0001d0 aa 87 d4 bd 75 be c3 3c fd 6f c7 3c f6 41 14 be
       -0.10377438 0.023894528 0.024345392 -0.14478287
0001e0 5b 64 33 be 49 9a b3 3c 02 24 85 be 11 68 93 bc
       -0.17518751 0.021924155 -0.26004034 -0.017993959
0001f0 51 1f 6b bc 4b 77 e3 3c 27 16 3e be 39 27 80 be
       -0.014350728 0.027766844 -0.18563138 -0.25029925
000200 c5 7a 35 bd a1 97 01 be 24 a6 86 3d b0 7a 89 be
       -0.044306535 -0.12655498 0.065746576 -0.26851416
000210 61 97 80 be 24 f3 01 be 4a ee 45 be c5 86 38 be
       -0.25115493 -0.12690407 -0.19329181 -0.1802016
000220 28 ce 90 3d e5 bd 5c bd ac bf 95 bd 22 e6 0d 3c
       0.07070571 -0.053892035 -0.07311949 0.008660825
000230 77 3f 7c 3d c6 19 38 bd 44 62 68 be 94 d6 20 3c
       0.061583962 -0.044946454 -0.22693735 0.009816784
000240 44 8a 2c bf 09 33 4b be ac 29 bc be b7 cc 13 bf
       -0.67398477 -0.19843687 -0.36750543 -0.57734245
000250 fc 65 10 bf f3 8a bc be 46 6e 1f bf a5 78 53 3f
       -0.56405616 -0.3682476 -0.6227764 0.82605964
000260 a1 ef 27 bb fd 44 fa bd fd a6 c1 be 1b 20 55 3d
       -0.0025625008 -0.1222019 -0.37822714 0.05203257
000270 1d 81 01 bd ed 20 15 be 98 a7 97 3b f4 65 15 3e
       -0.031617273 -0.14563341 0.004628133 0.14589673
000280 89 b7 09 bf 77 b7 1a 3f 46 c8 ab bf 4e f5 e9 3e
       -0.5379568 0.60436195 -1.3420494 0.45694965
000290 e8 cf 40 bf ea 78 01 bf 93 8f 3c bf 64 43 95 be
       -0.7531724 -0.50575125 -0.73656577 -0.29152977
0002a0 ba 11 c9 be 33 f1 88 bc 85 8f a5 bd 5d 2d e7 3f
       -0.39271337 -0.016716575 -0.08084015 1.8060719
0002b0 25 1b a6 3d 51 87 98 3f 0d 43 65 be 42 20 2e be
       0.08110646 1.1916295 -0.22388859 -0.17004493
0002c0 69 91 cd bc 7f f9 85 3f 3f 6e 4a 3e c6 41 03 3f
       -0.025093751 1.0466765 0.19768618 0.5127224
0002d0 a1 da aa 3f e5 e1 27 3f 83 d5 63 c0 43 30 71 c0
       1.334797 0.6557906 -3.5599067 -3.7685707
0002e0 b5 b2 20 c0 72 de 8d bf a7 89 3a bf 8a 17 19 3e
       -2.5109074 -1.108351 -0.7286629 0.14950386
0002f0 b9 86 e7 3f 73 84 e5 bf 7e 12 9a be 42 fb f7 bf
       1.8087989 -1.7931045 -0.30092233 -1.9373553
000300 62 2c 2b be 0e 79 70 3d 3c b3 39 be de 50 0d be
       -0.1671615 0.058709197 -0.18134779 -0.1380038
000310 c0 93 b3 bd 89 65 e4 3c 03 97 f0 bd 0e 7f 11 bd
       -0.087684155 0.027880447 -0.11747553 -0.03552156
000320 d9 6d c4 bd f1 33 36 be 86 d3 43 bd bd 7a 10 be
       -0.09591264 -0.17793252 -0.047809146 -0.14109321
000330 c8 76 17 be 4e ea 71 3d 17 ec e1 3c 4c 7b 03 be
       -0.14791405 0.05906134 0.027578397 -0.12840003
000340 8a 1b 0b be a5 88 a7 3b b5 06 19 3e 52 43 33 be
       -0.13584724 0.005112725 0.14943965 -0.1750615
000350 36 03 ec 38 7e b2 cc 3d a1 e2 01 3e 0b c2 d5 ba
       0.00011253955 0.09994982 0.12684108 -0.001630844
000360 b9 58 b6 3d 04 83 a4 bc 9c 1e 1d 3e 41 32 00 3c
       0.08903641 -0.020082004 0.15343708 0.007824481
000370 fa 28 13 be 43 7b 2e be ac 0e e9 3d 4c 13 35 3e
       -0.143711 -0.17039208 0.113797516 0.17683142
000380 20 b1 2a 3d 86 7e 73 bd 2f 11 0c be 14 10 a1 3b
       0.041672826 -0.059446834 -0.1367843 0.0049152467
000390 eb 97 04 be 09 71 31 3e 00 10 b9 bd eb 93 11 3d
       -0.12948577 0.17328276 -0.09036255 0.035541456
0003a0 66 f0 8e 3d 3b fa c2 bc 9e 04 bd bc d0 1d e5 bd
       0.06979446 -0.02380096 -0.02307349 -0.11187327
0003b0 4a d9 cc 3d 46 8a e9 bc 01 96 dd 3d 56 0a e5 3d
       0.10002382 -0.028508317 0.108196266 0.11183612
0003c0 28 84 a1 bc 84 5a d6 bc 96 28 1c be a1 c1 38 3d
       -0.019716337 -0.026166208 -0.15249857 0.045106534
0003d0 a0 33 28 be fc 36 63 bd 21 2c b4 bd 20 7b 3a bc
       -0.16425943 -0.05547236 -0.087974794 -0.011381894
0003e0 ed 85 24 bd c0 78 1d bc 1b 14 27 be 76 81 60 be
       -0.040166784 -0.009611309 -0.16316263 -0.21924385
0003f0 bd 8a e9 3c e1 fc 90 3c 4d 51 b8 bd 09 b7 1f bd
       0.028508538 0.017698707 -0.08999882 -0.038992915

net.0.bias f4 [128]
000000 00 00 00 00 69 bd 92 3e 12 66 d3 bd 39 fd f9 3e
       0.0 0.28660133 -0.10322203 0.48826006
000010 00 00 00 00 3e 83 5f bd d3 61 8a bd fe a0 8d bd
       0.0 -0.05456852 -0.0675694 -0.069154724
000020 00 00 00 00 0d 9a 0c be 38 56 a5 3e a4 48 1c be
       0.0 -0.1373064 0.32292342 -0.15262085
000030 96 76 db bd d7 40 03 be ea 88 45 be dc 85 b9 3e
       -0.10715978 -0.12817703 -0.1929051 0.3623494
000040 06 d8 0c be e5 b6 ba bb 9f c3 b4 3e 0f 37 09 be
       -0.13754281 -0.0056980723 0.35305497 -0.1339991
000050 e0 93 22 bd 4a 88 95 bd 00 00 00 00 cb b0 44 bd
       -0.039691806 -0.07301386 0.0 -0.048020165
000060 f4 0d b1 bd 0d cb 9e 3e 0c 34 2e be 8b f5 ce 3e
       -0.086452395 0.3101429 -0.17012042 0.4042171
000070 00 4b a5 3e 28 12 bb be 3b 6f 0a bd 03 74 e8 bc
       0.32283783 -0.3653729 -0.033797484 -0.028375631
000080 c9 68 46 bd 00 00 00 00 b3 d8 56 be da 42 00 be
       -0.048439775 0.0 -0.20981102 -0.12525502
000090 63 6e fb bc 33 c5 d8 3e cf 90 97 3e a2 86 5f be
       -0.030692285 0.4233795 0.29602668 -0.21828702
0000a0 00 00 00 00 f3 a0 2c be 00 00 00 00 7e 2b d3 3d
       0.0 -0.16858272 0.0 0.1031103
0000b0 01 89 4c bd 00 00 00 00 ff d9 2d be 00 00 00 00
       -0.049935345 0.0 -0.1697769 0.0
0000c0 48 b2 10 bd f2 49 0a be 43 98 e5 bd 60 bb 05 be
       -0.035326272 -0.1350477 -0.11210682 -0.13059759
0000d0 84 c0 9d bd 75 2f e2 bb 4c f8 8b 3e e0 e2 f0 3e
       -0.07702735 -0.00690263 0.27337873 0.47048092
0000e0 e0 e6 9c bd 00 00 00 00 7c 63 64 bd 42 6f fa bd
       -0.076612234 0.0 -0.05575894 -0.12228252
0000f0 9e f9 fe bc 4f a4 e2 bd 2a 09 99 be 41 d5 81 3e
       -0.031124886 -0.110664956 -0.29889804 0.25358012
000100 6b cc 8b bc cf fc 67 bd ab c0 ee be 03 52 db bd
       -0.017065248 -0.05663758 -0.4663137 -0.10709002
000110 0f b4 0a 3d fa 2c 2c 3f c8 22 24 bd e1 4f 4d 3e
       0.033863124 0.6725613 -0.040072232 0.20050003
000120 00 00 00 00 6e 4b 02 3f 78 c0 31 bd 22 a4 8c bd
       0.0 0.50896347 -0.043396443 -0.06867243
000130 38 68 97 3e d9 02 94 bd dd e1 90 bd 00 00 00 00
       0.295717 -0.07227106 -0.0707433 0.0
000140 55 bd 45 bd ab 8b 3e be 98 e2 20 3f 18 39 78 bd
       -0.048276264 -0.18607967 0.62845755 -0.060601324
000150 d5 99 0e be 11 e0 44 3e 76 6b 29 be b9 7d fe 3d
       -0.1392587 0.192261 -0.165449 0.124263234
000160 74 2f 84 3e 88 a9 5e 3e 00 00 00 00 58 67 07 be
       0.25817454 0.21744359 0.0 -0.13223016
000170 00 00 00 00 10 88 9e 3e 36 4b a3 3e d5 9e 03 3f
       0.0 0.30963182 0.3189332 0.51414233
000180 c3 6a fd bd 57 e8 b4 bd 00 00 00 00 0b fa 1d 3e
       -0.12373879 -0.08833378 0.0 0.15427415
000190 b0 14 c4 3e cd 33 8f bd e7 5d 23 bd 2e 68 c0 3e
       0.38297033 -0.06992302 -0.039884474 0.37579483
0001a0 07 7a af bd 23 56 f8 bd 9b 1e 8f 3d 65 a6 a0 3e
       -0.08568197 -0.12125804 0.069882594 0.3137695
0001b0 6d 7d 09 3e 5d 1e 87 3e 51 7c d2 bd 58 01 fa bd
       0.13426752 0.26390353 -0.10277618 -0.122072875
0001c0 df 94 ae bd eb 62 0b be 44 8f 61 bd 00 00 00 00
       -0.08524489 -0.13611953 -0.05506827 0.0
0001d0 73 fe af bd 30 f1 41 bd 00 00 00 00 85 c0 0f be
       -0.08593454 -0.047349155 0.0 -0.14038284
0001e0 00 00 00 00 12 ad 1a be 93 26 72 bd a1 06 c8 bd
       0.0 -0.15105084 -0.05911882 -0.09766889
0001f0 e3 26 2f be 0f f7 5b bd 66 b4 e1 3e e8 be 0e bd
       -0.17104678 -0.05370241 0.44082946 -0.03485003

net.2.weight f4 [64, 128]
000000 84 a0 39 bd 45 10 8b bd aa 54 a9 3c 75 f0 24 be
       -0.045319095 -0.067902125 0.020670254 -0.16107352
000010 a5 60 bb 3d f6 3e 58 3d 62 38 2e bd f1 e2 04 be
       0.09149293 0.05279442 -0.04253424 -0.12977196
000020 d2 ca c3 3c 4c ea 57 3d a3 05 8b bd 50 98 92 3d
       0.023900423 0.052713677 -0.067881845 0.071579576
000030 05 e5 11 be 30 53 c2 bd 25 26 44 3d c6 8b 7b 3c
       -0.1424752 -0.09488523 0.04788794 0.015353149
000040 c7 e2 0e 3c ef 73 f8 3d 12 f8 ad bd 5f ba 65 3e
       0.00872106 0.121314876 -0.08494581 0.22434376
000050 16 68 20 3e 59 2c a9 bd fb 22 21 be 02 93 d9 bd
       0.15664706 -0.08260412 -0.15736 -0.10623743
000060 8b bf 29 3e 1a 5f 29 be d0 74 15 be 09 4e 04 bd
       0.16576974 -0.16540185 -0.14595342 -0.032300983
000070 77 f7 4a be de 60 6b 3d c4 7c 24 3e 0c ed 4b 3d
       -0.19820963 0.057465427 0.1606322 0.049786612
000080 fa 04 5f 3d 7f 70 e5 bd 9d 3b 2e be 59 00 26 bd
       0.054448105 -0.112030976 -0.17014928 -0.040527675
000090 b7 8c 7e 3c 10 a0 af 3c 8d e6 2a 3d 34 96 f7 3d
       0.015536479 0.021438628 0.041723777 0.12089196
0000a0 ad f5 32 be 3f b3 54 be e1 2d 38 ba bf 88 91 bd
       -0.1747653 -0.20771502 -0.00070258795 -0.0710616
0000b0 0e f5 ca bd 6b c0 c2 3d 22 ae c6 3d d2 a8 1b 3e
       -0.09910022 0.09509357 0.09701182 0.15201119
0000c0 04 6a 06 3e 88 2d 48 bc 1e e0 82 bd 6a 21 82 bc
       0.13126379 -0.012217887 -0.06390403 -0.015885074
0000d0 d5 51 bb bc 81 4b 62 bd df 8e 47 be 49 8b b4 3b
       -0.022866169 -0.055247787 -0.19488095 0.005509768
0000e0 43 bb 12 be 08 c2 18 3e a3 be 12 bc 9c 2c 3a 3d
       -0.14329247 0.14917767 -0.008956584 0.0454527
0000f0 ef a5 ae bd 08 2d 5c be ce 6c 00 3e b4 bc e6 3d
       -0.08527743 -0.21501553 0.12541506 0.11266461
000100 de a9 2a be c9 83 fb 3d 1a 81 c6 3d 84 d7 73 be
       -0.16666362 0.122809954 0.09692593 -0.23812681
000110 04 40 c7 3c de cd 91 be e7 0c 8b bc 9d 06 d0 3d
       0.024322517 -0.28477377 -0.016973926 0.101575114
000120 5f 64 0b be 71 46 c1 be 9c 67 8f 3c 47 9b 4e 3e
       -0.13612507 -0.37749055 0.01750546 0.20176421
000130 06 8b eb be 67 75 87 3d 48 35 a5 bc 38 3e dc 3d
       -0.46004504 0.066141896 -0.020167008 0.10754055
000140 3b 7a 08 bd 30 1d af bc 1a dd 83 be 9b ae 5e be
       -0.033319693 -0.021376222 -0.25754625 -0.21746294
000150 3b 9c 12 bc bc 43 88 3d d1 d7 f6 3d ea c7 d5 bd
       -0.008948381 0.06653544 0.120528825 -0.10438521
000160 60 fd db 3d aa f1 e0 3d d0 15 78 3d 82 b6 08 3e
       0.10741687 0.10983594 0.060567677 0.13350871
000170 ce 65 0a 3e ad f0 30 3e 9c dd 0b be ff 48 0b 3d
       0.13515398 0.1727931 -0.13658756 0.03400516
000180 56 a4 fa bd e7 b4 88 bc 18 ce 94 3c 4e 4c 9d bd
       -0.12238376 -0.016687823 0.01816468 -0.076805696
000190 38 f4 43 3d 69 b8 7f bd ee fb 84 3d fc 84 c7 bd
       0.047840327 -0.062431727 0.06493364 -0.09742162
0001a0 ee 3d e5 3d 3a 47 b5 bd 42 9e c0 be d1 89 12 3e
       0.11193453 -0.08851476 -0.3762074 0.14310385
0001b0 5e eb fa bd 3c fc a9 3b ba d4 e6 3d a4 73 27 be
       -0.12251924 0.0051875394 0.11271043 -0.16352707
0001c0 16 b8 88 3d 4c 2f c1 bd 7a 4d d4 3d fc 46 6e bd
       0.066757366 -0.09432849 0.1036634 -0.058173165
0001d0 65 52 4d be 27 5e e5 3c 25 3d 97 3c 1c f6 33 3d
       -0.20050962 0.027998997 0.018461773 0.04393588
0001e0 58 59 a1 bd 63 db 5a 3c c9 4f 7f 3c 22 b8 20 bd
       -0.07878369 0.01335797 0.015582987 -0.039238103
0001f0 95 39 8d 3c 44 2b 47 3d d1 a0 19 be 39 5f cf 3d
       0.017239371 0.048625246 -0.15002753 0.10125584
000200 54 1b 26 be fb fc 27 3e be 4d f5 bd a1 fd 49 be
       -0.16221362 0.16405098 -0.11977719 -0.19725658
000210 07 b8 ef 3c e4 5d 29 be de 57 c8 bd 67 7a 12 bd
       0.029262556 -0.16539723 -0.09782384 -0.035761263
000220 b4 2f 2a be 51 5b ac bc c1 65 08 3d 53 b9 4a bd
       -0.1661976 -0.021039637 0.033300165 -0.049493145
000230 83 45 1d bc 0f e4 2a 3d a3 00 1b bc 6f a4 c0 bd
       -0.009599092 0.0417214 -0.009460601 -0.09406363
000240 d7 4f d2 bd df ea 41 3c 15 5a 1b 3e d6 41 e8 3d
       -0.102691345 0.011835783 0.15171082 0.11340682
000250 5f 06 cf 3d 67 1f 2c be f9 3c 55 3d 48 a2 5d bd
       0.10108637 -0.16808854 0.0520601 -0.05410984
000260 d2 70 8e bd a3 6b 63 3d 02 fc f4 3d 2e 08 fd bd
       -0.069551125 0.055522572 0.11962129 -0.12355076
000270 c4 be 0d be dc 1e 1b bd c4 63 ab bd e6 ce 2e be
       -0.13842303 -0.037871227 -0.08368638 -0.17071113
000280 02 fd 23 be bb 01 77 bc 59 c0 81 3c d9 73 1a be
       -0.16014484 -0.015076096 0.015838789 -0.15083255
000290 33 6b ab 3d 34 e0 77 bd fd 9a d7 bc bc 27 bc 3d
       0.08370056 -0.06051655 -0.026319021 0.09187266
0002a0 60 52 d9 bd 0e 31 23 be 3f 12 e4 bd 39 8b 9e 3d
       -0.10611415 -0.15936682 -0.11136293 0.07741398
0002b0 89 d1 5d bc 08 24 2a 3d 51 98 63 3d e8 12 fc 3d
       -0.013538727 0.04153827 0.055565182 0.123082936
0002c0 1c ef 0b be e1 4d ff bc 5a 2c 1f be bf b0 ca bc
       -0.13665432 -0.031165065 -0.15544263 -0.024742482
0002d0 a7 14 bb bc b5 7b ea bb 8a 59 9b bd 80 80 42 be
       -0.022836996 -0.0071558603 -0.075854376 -0.18994331
0002e0 81 54 cd 3c 02 4e 1e be 3f 92 12 bd 00 98 13 be
       0.025064709 -0.15459445 -0.035784002 -0.14413452
0002f0 73 4e be 3d 85 f7 32 be 07 05 2c be 75 77 21 be
       0.09292307 -0.17477234 -0.16798793 -0.15768225
000300 91 9f a7 bd 60 10 19 be 9c 08 37 3d f6 1c 84 be
       -0.08184732 -0.14947653 0.044685945 -0.25803345
000310 15 f8 60 be 4b 25 e3 bd 81 99 18 3e b5 17 07 3c
       -0.21969636 -0.110910974 0.14902307 0.008245398
000320 a9 61 e9 3c 0f 9f b9 3d de b7 b3 3d 29 d3 13 be
       0.02848895 0.09063541 0.08775304 -0.1443602
000330 69 e8 68 bd 5c 1c 1e be e8 c9 12 3d f1 91 50 3d
       -0.05686227 -0.15440506 0.035837084 0.05092043
000340 95 e7 4d 3d 3b 22 37 be 88 e0 5c be c6 e2 f0 3d
       0.050269682 -0.17884152 -0.21570027 0.117620036
000350 5b 1f 22 3e bd e3 1e bd b4 fd 92 3d 58 84 57 3d
       0.15832274 -0.038791407 0.07177296 0.052616447
000360 a5 7f 00 bd d4 4b 3f 3d f1 59 16 bc cd 28 56 be
       -0.03137173 0.046703175 -0.009176717 -0.20914002
000370 e2 eb 14 be 50 c3 d7 3d 3e c2 f9 3d 5e 7c 71 bd
       -0.14543107 0.105353 0.12195252 -0.058956496
000380 1d 46 ee bb e0 72 0b be 06 24 1f be 76 64 4d 3d
       -0.0072715417 -0.1361804 -0.15541086 0.050144635
000390 33 71 29 be 9e 65 ae bd 62 89 77 3d ef a8 d0 3d
       -0.16547088 -0.08515476 0.060433753 0.101884715
0003a0 58 b6 0f be 3a 1e ec 3d 5a 0b a6 3c 4f 8f d3 bd
       -0.14034402 0.11529203 0.020269085 -0.10330068
0003b0 03 5c 6e 3d 69 b0 1c 3e 8e bc 30 be 86 b7 6f bd
       0.058193218 0.1530167 -0.17259428 -0.05852463
0003c0 a6 c4 49 3c e0 3d 67 3d 83 5e e3 bc 54 05 15 be
       0.012314951 0.056455493 -0.027755028 -0.14552814
0003d0 66 f1 f4 bd 37 17 e9 bd e1 1e db 3d 2c 92 1a be
       -0.119601056 -0.11381381 0.10699249 -0.15094823
0003e0 df fd a0 3d d6 a1 d3 3d e5 fa 19 3e ab 7e 14 3e
       0.07860922 0.10333602 0.15037115 0.14501445
0003f0 32 50 55 3d eb 7c aa 3d f9 9f 73 bb ec 41 ab 3d
       0.052078433 0.083246075 -0.0037174209 0.08362183

net.2.bias f4 [64]
000000 94 d0 07 bf 1b cf 08 be 4f 63 07 be 2b 2c 40 bd
       -0.5305264 -0.13360254 -0.13221477 -0.04691712
000010 0a 56 65 3e 4e 4b eb bc 4a ba 35 bd 51 58 d5 bd
       0.22396103 -0.028722432 -0.044367112 -0.10417236
000020 e0 de 4b 3e c0 b2 3b bd 5c ab f2 be 4f 9f 24 3f
       0.19909239 -0.045824766 -0.47396362 0.64305586
000030 3e ce 1e ba 4d 0e fd bc 72 5f 88 be 4d 3d 3c 3f
       -0.0006057954 -0.030890608 -0.2663532 0.7353104
000040 1c 12 f0 3e 75 a3 03 3e 1a 68 10 be 27 3b de bd
       0.46888816 0.12855323 -0.14102212 -0.10851126
000050 8b 11 96 bd f0 55 22 be 3b 3b 1a 3f be 09 96 3e
       -0.07327565 -0.15853095 0.6024663 0.29304308
000060 0c 69 6b 3e bf 15 02 bd 93 17 2c bd 35 dc 0e be
       0.22989291 -0.03175902 -0.04201467 -0.1395119
000070 6f bf 9e bd a8 68 47 3f b9 48 e8 be 4e a2 87 3d
       -0.07751357 0.7789407 -0.45367983 0.06622754
000080 f5 02 24 3f d2 e6 ce bd bf b9 d0 bc ea 97 47 3e
       0.6406701 -0.10102619 -0.025479196 0.19491544
000090 cf 9b 69 be 82 74 d0 bd 03 c2 16 be 16 56 43 bd
       -0.22813343 -0.10178472 -0.14722447 -0.04768952
0000a0 a5 3e 12 be de a6 d9 3e 34 78 62 3e c0 3e b4 39
       -0.1428171 0.42510122 0.22116166 0.00034379028
0000b0 22 0e b9 bd c5 e0 90 bd 67 6e 7d bd 68 09 09 3e
       -0.09035899 -0.070741214 -0.061872866 0.13382494
0000c0 24 21 9c bd 54 a0 4a 39 df 6c c7 be 5d cb 71 bd
       -0.076235086 0.00019323948 -0.3895025 -0.059031833
0000d0 7d f7 9e bd ca d1 08 be 01 c0 30 3f d9 8f bc bd
       -0.077620484 -0.13361278 0.69042975 -0.09207124
0000e0 12 b7 9e bd a7 62 45 3f 8e 80 3d 3e ab 1c 82 bd
       -0.07749762 0.77103657 0.18506071 -0.06353124
0000f0 76 0f 35 3f 96 b6 d1 3e f5 0c a1 bd 62 d1 9a bd
       0.70726717 0.40959615 -0.078637995 -0.07559468

net.4.weight f4 [16, 64]
000000 7f 0f 28 3e 39 51 77 be 49 68 76 be a1 cc 84 bd
       0.16412161 -0.24152078 -0.24063219 -0.06484342
000010 71 bc 65 be 3e 93 25 be e6 ed 66 be a9 49 8d 3d
       -0.22435166 -0.1616945 -0.22551689 0.06898815
000020 7d 17 8f bd 39 24 7c be 81 aa 6f 3d 31 af a4 3c
       -0.06986902 -0.24623193 0.058512215 0.020103069
000030 be f1 6d 3e 3f 75 84 3c cf 43 fb bd 3c 7e 23 3e
       0.23236749 0.016169189 -0.12268793 0.15966123
000040 81 d7 1a 3e 2c 76 59 be c9 5a 21 3e 64 31 f1 3d
       0.1512127 -0.21236485 0.15757288 0.11776999
000050 a1 90 ce bd 3c 51 5a 3d 54 1d 06 3e 55 56 6a 3d
       -0.100861795 0.053300127 0.13097125 0.05721124
000060 cf dd 32 3e 1b 89 81 be d0 5f 99 bd b2 56 8b 3d
       0.17467426 -0.25299916 -0.07488978 0.06803645
000070 69 7f 15 3e 13 38 71 be 74 c6 d1 3d 20 d9 64 3e
       0.14599384 -0.23556547 0.1024293 0.22348452
000080 c9 a6 84 bd 47 d3 6d 3b 3d a1 fc 3c 62 3d 13 3e
       -0.06477124 0.0036289261 0.030838603 0.14378884
000090 bc f4 60 3d e7 60 3a be ae 76 09 bb 72 ef 1d be
       0.054920897 -0.18201028 -0.002097528 -0.15423372
0000a0 47 99 7b bd 20 c9 49 bd 14 07 28 be 9d 65 06 3c
       -0.061425474 -0.049264073 -0.1640895 0.008202937
0000b0 f2 2c 06 bc ea fd 93 be a0 fe 48 3e 86 35 43 bd
       -0.008189427 -0.2890466 0.19628382 -0.047658466
0000c0 a4 fe 71 bd 53 db 11 3e a4 95 03 be 9b 82 18 3d
       -0.059080735 0.14243822 -0.12850052 0.03723393
0000d0 88 ad 6a be 8b ec aa 3c 51 2a 48 be ef dd c3 3d
       -0.2291776 0.020864746 -0.19547392 0.09563815
0000e0 c7 bb 08 3e f2 5f 74 be a9 95 64 be 34 d7 3e 3e
       0.13352881 -0.23864725 -0.22322716 0.18636781
0000f0 a9 73 1d 3c 41 58 90 bd 5a 3d 03 3c 20 68 81 3e
       0.009610095 -0.07048083 0.008010233 0.25274754
000100 c4 c4 e1 bd fa 34 4f 3e 6d e4 7f be ba f6 25 3e
       -0.11023858 0.20235053 -0.24989481 0.162074
000110 62 5d 36 3e 20 b2 42 be 57 fa 3c be 6a d9 1a 3e
       0.1780906 -0.19013262 -0.18454872 0.15122
000120 47 b8 74 be b5 05 a7 3d 4e b3 5e 3d 81 28 99 bd
       -0.23898421 0.081553854 0.054370217 -0.07478429
000130 52 36 9c 3b f7 7c 6d be e6 9a 5e 3d 12 dd 0f 3e
       0.0047672177 -0.23192202 0.05434694 0.14049175
000140 e1 c3 0b 3e e4 af 1e 3e ba 1e 60 3e cb b2 30 be
       0.1364894 0.15496784 0.21886721 -0.17255704
000150 de 14 6f be 65 a6 24 be 60 28 3e be 56 d8 0d bc
       -0.23347804 -0.160791 -0.1857009 -0.008657536
000160 6d c2 c6 3c 06 4b 88 ba 13 4d 9e be 89 ba 9e bc
       0.024262631 -0.0010398335 -0.30918178 -0.019376056
000170 23 37 8a be 16 29 31 3e 4f 68 f6 3d 3e 96 65 be
       -0.2699519 0.1730083 0.12031614 -0.22420594
000180 99 38 93 be a4 30 a4 bd 51 0e 76 bd 25 54 5a bd
       -0.28754118 -0.0801709 -0.060072247 -0.053302903
000190 56 ed 30 be 31 06 8d bd 27 27 87 bd 35 91 16 be
       -0.17278036 -0.068859465 -0.065992646 -0.1470383
0001a0 af 3b 82 3d 86 ac 21 3e 05 7f 35 be 92 49 2a be
       0.0635904 0.15788469 -0.17724235 -0.16629627
0001b0 d0 e6 15 3e bf 4a 25 be fd ed a2 3d 0d 73 81 3d
       0.14638829 -0.16141795 0.07955549 0.06320772
0001c0 da c0 52 be 47 ec 12 3e 1a 6e af 3c 53 13 5c be
       -0.2058138 0.14347945 0.021414805 -0.21491747
0001d0 53 a4 31 bd 69 e0 6e 3e d8 85 3e be 69 82 e4 3d
       -0.043369602 0.23327793 -0.18605745 0.11157686
0001e0 47 65 11 3e 7c 3e ca 3c bc 10 0f be a7 f7 08 3e
       0.1419879 0.024687998 -0.13971227 0.13375722
0001f0 50 c2 a9 be f5 cd 5f be 8f 16 88 3e 73 1c 4d be
       -0.3315606 -0.2185591 0.2657971 -0.20030384
000200 2b 54 cf 3d 0e 6e 75 be fe a3 82 3d 2e e2 c0 3c
       0.10123476 -0.23967764 0.06378935 0.02354535
000210 dc 4f 18 be 34 35 3e 3e 14 6b ea 3d 1e 2e 9d 3c
       -0.14874214 0.18574983 0.11446205 0.01918703
000220 1b 80 58 3d cb 28 f9 3d e5 06 64 be e8 35 75 3e
       0.052856546 0.12165984 -0.22268255 0.23946345
000230 28 74 0b 3e ce af 0d be 9b e5 7e 3d a3 30 52 be
       0.13618529 -0.13836595 0.062230688 -0.20526366
000240 9c 50 04 be bd 81 76 3e 78 ac 51 3d 49 b7 70 3e
       -0.12921375 0.24072929 0.05118987 0.23507418
000250 5a 4c 5d be 60 4a c9 bd d4 84 12 bd ed 02 82 be
       -0.21611157 -0.09828639 -0.035771206 -0.25392857
000260 33 48 88 3e 55 0e e4 bd 87 0d eb 3c fd e6 30 3e
       0.26617584 -0.11135546 0.028692974 0.17275615
000270 c4 ab bf 3d a3 7f 86 3d 48 a9 21 3e c7 4c 84 be
       0.093589336 0.065673135 0.15787232 -0.25839826
000280 58 f7 50 be 51 15 95 3d 70 29 91 bd ff 1a 81 be
       -0.20406854 0.072794564 -0.07087982 -0.2521591
000290 19 81 93 3d 4c 61 27 bc 52 fe 5d be dd c4 18 3e
       0.07202358 -0.0102160685 -0.21679047 0.14918847
0002a0 9e 74 88 3e ca 1b 8f be ae 9c 07 bd d3 02 f5 3d
       0.26651472 -0.2795089 -0.033108406 0.11963429
0002b0 85 7c 86 3c 22 6e 3d be 8e cf 85 be 11 ed d4 bd
       0.016416797 -0.18499044 -0.26134914 -0.10396779
0002c0 cc 20 6f 3e b4 eb 7c be c2 d8 a0 bd fe ea 8f 3d
       0.23352355 -0.24699289 -0.07853843 0.07027243
0002d0 94 aa bd bd 57 79 75 be 37 b8 92 be d7 b9 0b 3e
       -0.09261051 -0.23972069 -0.2865617 0.13645111
0002e0 3e 3a 57 bc c9 a7 b6 bd f4 d4 6f 3e c1 51 fb bd
       -0.013136445 -0.08918721 0.23421079 -0.12271453
0002f0 61 67 e2 bd 5b bc 23 bd 04 ef 57 3e 08 f7 83 be
       -0.11054874 -0.03997455 0.21087271 -0.25774407
000300 f8 a8 76 be 1d d2 84 bc c8 d3 17 bc 40 b5 a3 3e
       -0.24087894 -0.016213471 -0.009266801 0.3197422
000310 a4 07 94 3c b7 1d 4b 3d 6c 10 f5 bd 6a ff 8c be
       0.01807005 0.049588885 -0.11966023 -0.27538615
000320 f3 e4 b1 3e 73 1b 11 be 23 23 47 be f7 4b ea 3d
       0.34744987 -0.14170627 -0.19446997 0.114402704
000330 b2 f4 87 3e b1 f2 59 3d e4 14 3e be 29 16 03 3f
       0.26553875 0.053209964 -0.18562657 0.5120569
000340 a2 c8 b9 3e eb c2 14 3e ee ad 20 be 39 59 e8 bc
       0.36285883 0.1452748 -0.15691349 -0.028362857
000350 6b 1d 67 bd 82 c8 0e bc 39 93 a4 3b ca ed 01 3e
       -0.05642454 -0.008714797 0.005022433 0.12688366
000360 f2 91 9a 3e 9e a1 b1 3b 69 27 09 3d 23 05 f5 be
       0.30189472 0.0054208776 0.03348485 -0.47855482
000370 28 0b 4b bc 88 74 42 3e 97 65 84 bd bd 61 d9 3e
       -0.012392797 0.18989766 -0.06464689 0.4245738
000380 00 37 a9 3d 93 11 96 3b 90 14 21 bd f5 a5 5f bb
       0.082624435 0.0045797317 -0.03932625 -0.0034126018
000390 24 17 98 be 1e 27 ae 3c a1 24 67 3c eb 8c bd 3d
       -0.29705155 0.021258887 0.014107854 0.092553936
0003a0 64 5c 25 3e 04 99 81 3e 6e 6e 91 3e a1 dd a1 bb
       0.16148525 0.25312054 0.28404564 -0.0049397503
0003b0 d0 04 b5 3d 1c 2a 0f be a3 33 79 3d 7d 75 f3 3e
       0.088388085 -0.13980907 0.06084026 0.47550574
0003c0 76 7b c9 bd 98 ef f3 3d 3c a4 22 be 45 c2 c1 3b
       -0.098380014 0.11910933 -0.15882963 0.0059130513
0003d0 22 14 b8 3c 8b fc 55 be 9c a6 f4 3d 7a 4d 07 be
       0.022470538 -0.20897119 0.11945841 -0.13213149
0003e0 4c ec d1 bc e3 2b cd 3d f5 c7 7e 3e 24 04 69 3e
       -0.02562537 0.10018136 0.24880965 0.22755486
0003f0 78 0c 51 3e d3 91 c0 3e 78 8e 8a 3c 30 ff 61 bd
       0.20414913 0.37611255 0.016913638 -0.055175006

net.4.bias f4 [16]
000000 96 af ea bd 2f 65 fa bd 60 54 2e bd c0 ab 47 3f
       -0.114592716 -0.122263305 -0.042560935 0.77996445
000010 08 f6 ac bd 00 00 00 00 8e 93 f7 bd 01 e2 02 bd
       -0.08445364 0.0 -0.12088691 -0.031953815
000020 d1 32 82 3a 57 38 0c be 8a 7c 6e bc 7b 52 75 bd
       0.0009933357 -0.13693367 -0.01455606 -0.059893113
000030 69 f0 d3 bd bc c8 fe bd 46 82 24 bd 3f 22 5f bd
       -0.10348589 -0.12440631 -0.0401633 -0.05447602

net.6.weight f4 [1, 16]
000000 fb cb 89 be a4 65 d9 3c ce e3 02 3f 1b 48 8c 3d
       -0.26913437 0.026537724 0.5112885 0.068496905
000010 ad d5 39 bc 9e 10 48 be 05 af 7a be 40 a4 84 be
       -0.011342448 -0.19537589 -0.24480827 -0.25906563
000020 b1 d2 3b 3c 4d e8 38 be 47 90 9d 3d 6e 69 fd bd
       0.011463807 -0.18057366 0.07693534 -0.12373625
000030 4e e0 8b be 81 26 56 3e 3b fc de be f2 c0 67 b9
       -0.27319568 0.20913126 -0.43551812 -0.00022101754

exp_avg f4 [128, 48]
000000 00 00 00 00 00 00 00 00 00 00 00 00 00 00 00 00
       0.0 0.0 0.0 0.0
000010 00 00 00 00 00 00 00 00 00 00 00 00 00 00 00 00
       0.0 0.0 0.0 0.0
000020 00 00 00 00 00 00 00 00 00 00 00 00 00 00 00 00
       0.0 0.0 0.0 0.0
000030 00 00 00 00 00 00 00 00 00 00 00 00 00 00 00 00
       0.0 0.0 0.0 0.0
000040 00 00 00 00 00 00 00 00 00 00 00 00 00 00 00 00
       0.0 0.0 0.0 0.0
000050 00 00 00 00 00 00 00 00 00 00 00 00 00 00 00 00
       0.0 0.0 0.0 0.0
000060 00 00 00 00 00 00 00 00 00 00 00 00 00 00 00 00
       0.0 0.0 0.0 0.0
000070 00 00 00 00 00 00 00 00 00 00 00 00 00 00 00 00
       0.0 0.0 0.0 0.0
000080 00 00 00 00 00 00 00 00 00 00 00 00 00 00 00 00
       0.0 0.0 0.0 0.0
000090 00 00 00 00 00 00 00 00 00 00 00 00 00 00 00 00
       0.0 0.0 0.0 0.0
0000a0 00 00 00 00 00 00 00 00 00 00 00 00 00 00 00 00
       0.0 0.0 0.0 0.0
0000b0 00 00 00 00 00 00 00 00 00 00 00 00 00 00 00 00
       0.0 0.0 0.0 0.0
0000c0 04 00 00 00 04 00 00 00 04 00 00 00 04 00 00 00
       6e-45 6e-45 6e-45 6e-45
0000d0 04 00 00 00 04 00 00 00 04 00 00 00 04 00 00 00
       6e-45 6e-45 6e-45 6e-45
0000e0 04 00 00 00 04 00 00 00 04 00 00 00 04 00 00 00
       6e-45 6e-45 6e-45 6e-45
0000f0 04 00 00 00 04 00 00 00 04 00 00 00 04 00 00 00
       6e-45 6e-45 6e-45 6e-45
000100 04 00 00 00 04 00 00 00 04 00 00 00 04 00 00 00
       6e-45 6e-45 6e-45 6e-45
000110 04 00 00 00 04 00 00 00 04 00 00 00 04 00 00 00
       6e-45 6e-45 6e-45 6e-45
000120 04 00 00 00 04 00 00 00 04 00 00 00 04 00 00 00
       6e-45 6e-45 6e-45 6e-45
000130 04 00 00 00 04 00 00 00 04 00 00 00 04 00 00 00
       6e-45 6e-45 6e-45 6e-45
000140 04 00 00 00 04 00 00 00 04 00 00 00 04 00 00 00
       6e-45 6e-45 6e-45 6e-45
000150 04 00 00 00 04 00 00 00 04 00 00 00 04 00 00 00
       6e-45 6e-45 6e-45 6e-45
000160 04 00 00 00 04 00 00 00 04 00 00 00 04 00 00 00
       6e-45 6e-45 6e-45 6e-45
000170 04 00 00 80 04 00 00 00 04 00 00 00 04 00 00 00
       -6e-45 6e-45 6e-45 6e-45
000180 04 00 00 00 04 00 00 00 00 00 00 00 04 00 00 00
       6e-45 6e-45 0.0 6e-45
000190 00 00 00 00 00 00 00 00 04 00 00 80 04 00 00 00
       0.0 0.0 -6e-45 6e-45
0001a0 04 00 00 00 04 00 00 00 00 00 00 00 04 00 00 00
       6e-45 6e-45 0.0 6e-45
0001b0 04 00 00 00 04 00 00 00 04 00 00 80 04 00 00 00
       6e-45 6e-45 -6e-45 6e-45
0001c0 04 00 00 00 04 00 00 00 04 00 00 00 04 00 00 00
       6e-45 6e-45 6e-45 6e-45
0001d0 04 00 00 00 04 00 00 00 04 00 00 00 04 00 00 00
       6e-45 6e-45 6e-45 6e-45
0001e0 04 00 00 00 04 00 00 00 04 00 00 00 04 00 00 00
       6e-45 6e-45 6e-45 6e-45
0001f0 04 00 00 00 04 00 00 00 04 00 00 00 04 00 00 00
       6e-45 6e-45 6e-45 6e-45
000200 04 00 00 00 04 00 00 00 04 00 00 00 04 00 00 00
       6e-45 6e-45 6e-45 6e-45
000210 04 00 00 00 04 00 00 00 04 00 00 00 04 00 00 00
       6e-45 6e-45 6e-45 6e-45
000220 04 00 00 00 04 00 00 00 04 00 00 00 04 00 00 00
       6e-45 6e-45 6e-45 6e-45
000230 00 00 00 00 04 00 00 00 04 00 00 00 04 00 00 80
       0.0 6e-45 6e-45 -6e-45
000240 04 00 00 00 04 00 00 00 04 00 00 00 04 00 00 00
       6e-45 6e-45 6e-45 6e-45
000250 04 00 00 80 04 00 00 80 04 00 00 00 04 00 00 00
       -6e-45 -6e-45 6e-45 6e-45
000260 04 00 00 00 04 00 00 00 04 00 00 00 04 00 00 00
       6e-45 6e-45 6e-45 6e-45
000270 04 00 00 00 04 00 00 00 04 00 00 00 04 00 00 00
       6e-45 6e-45 6e-45 6e-45
000280 04 00 00 00 04 00 00 00 04 00 00 00 04 00 00 00
       6e-45 6e-45 6e-45 6e-45
000290 04 00 00 80 04 00 00 00 04 00 00 00 04 00 00 00
       -6e-45 6e-45 6e-45 6e-45
0002a0 04 00 00 00 04 00 00 00 04 00 00 00 04 00 00 00
       6e-45 6e-45 6e-45 6e-45
0002b0 04 00 00 00 04 00 00 00 04 00 00 00 04 00 00 00
       6e-45 6e-45 6e-45 6e-45
0002c0 04 00 00 00 04 00 00 00 04 00 00 00 04 00 00 00
       6e-45 6e-45 6e-45 6e-45
0002d0 04 00 00 00 04 00 00 00 04 00 00 00 04 00 00 00
       6e-45 6e-45 6e-45 6e-45
0002e0 04 00 00 00 04 00 00 00 04 00 00 00 04 00 00 00
       6e-45 6e-45 6e-45 6e-45
0002f0 04 00 00 80 04 00 00 80 04 00 00 80 04 00 00 80
       -6e-45 -6e-45 -6e-45 -6e-45
000300 00 00 00 00 00 00 00 00 00 00 00 00 00 00 00 00
       0.0 0.0 0.0 0.0
000310 00 00 00 00 00 00 00 00 00 00 00 00 00 00 00 00
       0.0 0.0 0.0 0.0
000320 00 00 00 00 00 00 00 00 00 00 00 00 00 00 00 00
       0.0 0.0 0.0 0.0
000330 00 00 00 00 00 00 00 00 00 00 00 00 00 00 00 00
       0.0 0.0 0.0 0.0
000340 00 00 00 00 00 00 00 00 00 00 00 00 00 00 00 00
       0.0 0.0 0.0 0.0
000350 00 00 00 00 00 00 00 00 00 00 00 00 00 00 00 00
       0.0 0.0 0.0 0.0
000360 00 00 00 00 00 00 00 00 00 00 00 00 00 00 00 00
       0.0 0.0 0.0 0.0
000370 00 00 00 00 00 00 00 00 00 00 00 00 00 00 00 00
       0.0 0.0 0.0 0.0
000380 00 00 00 00 00 00 00 00 00 00 00 00 00 00 00 00
       0.0 0.0 0.0 0.0
000390 00 00 00 00 00 00 00 00 00 00 00 00 00 00 00 00
       0.0 0.0 0.0 0.0
0003a0 00 00 00 00 00 00 00 00 00 00 00 00 00 00 00 00
       0.0 0.0 0.0 0.0
0003b0 00 00 00 00 00 00 00 00 00 00 00 00 00 00 00 00
       0.0 0.0 0.0 0.0
0003c0 04 00 00 00 04 00 00 00 04 00 00 00 04 00 00 00
       6e-45 6e-45 6e-45 6e-45
0003d0 04 00 00 00 04 00 00 00 04 00 00 00 04 00 00 00
       6e-45 6e-45 6e-45 6e-45
0003e0 04 00 00 00 04 00 00 00 04 00 00 00 04 00 00 00
       6e-45 6e-45 6e-45 6e-45
0003f0 04 00 00 00 04 00 00 00 04 00 00 00 04 00 00 00
       6e-45 6e-45 6e-45 6e-45

exp_avg_sq f4 [128, 48]
000000 00 00 00 00 00 00 00 00 00 00 00 00 00 00 00 00
       0.0 0.0 0.0 0.0
000010 00 00 00 00 00 00 00 00 00 00 00 00 00 00 00 00
       0.0 0.0 0.0 0.0
000020 00 00 00 00 00 00 00 00 00 00 00 00 00 00 00 00
       0.0 0.0 0.0 0.0
000030 00 00 00 00 00 00 00 00 00 00 00 00 00 00 00 00
       0.0 0.0 0.0 0.0
000040 00 00 00 00 00 00 00 00 00 00 00 00 00 00 00 00
       0.0 0.0 0.0 0.0
000050 00 00 00 00 00 00 00 00 00 00 00 00 00 00 00 00
       0.0 0.0 0.0 0.0
000060 00 00 00 00 00 00 00 00 00 00 00 00 00 00 00 00
       0.0 0.0 0.0 0.0
000070 00 00 00 00 00 00 00 00 00 00 00 00 00 00 00 00
       0.0 0.0 0.0 0.0
000080 00 00 00 00 00 00 00 00 00 00 00 00 00 00 00 00
       0.0 0.0 0.0 0.0
000090 00 00 00 00 00 00 00 00 00 00 00 00 00 00 00 00
       0.0 0.0 0.0 0.0
0000a0 00 00 00 00 00 00 00 00 00 00 00 00 00 00 00 00
       0.0 0.0 0.0 0.0
0000b0 00 00 00 00 00 00 00 00 00 00 00 00 00 00 00 00
       0.0 0.0 0.0 0.0
0000c0 43 cd e2 3d 50 fc 9d 40 5b 8a 37 33 c7 58 90 3e
       0.11074307 4.93705 4.273384e-08 0.28192732
0000d0 06 6c 2a 3c be 41 51 3b 21 e3 49 3e 6d 5d 9c 37
       0.010401731 0.0031930055 0.19715549 1.8640154e-05
0000e0 fb b8 f9 43 77 49 c8 45 3c da 9b 36 7f 09 28 44
       499.44516 6409.183 4.644766e-06 672.1484
0000f0 2a bc 11 43 22 b1 01 42 00 30 c0 44 3d 00 67 37
       145.73502 32.42298 1537.5 1.3768728e-05
000100 62 41 a3 38 3b d3 3e 3b fe 97 1f 2b 51 f5 48 39
       7.784624e-05 0.0029117602 5.669908e-13 0.00019164874
000110 e2 6c d9 36 75 36 37 36 3f 1a 10 39 8f cd 72 33
       6.4797796e-06 2.7300823e-06 0.00013742688 5.653197e-08
000120 bf 47 8a 33 45 3e ef 35 49 e7 cd 36 c9 6c 75 39
       6.439176e-08 1.782501e-06 6.136401e-06 0.00023405546
000130 50 1c 6c 40 1c b7 49 35 d0 af b0 38 a5 c5 20 3b
       3.689228 7.5144794e-07 8.4250816e-05 0.0024531868
000140 f5 a2 b8 37 b6 72 54 3c 3b 30 a3 3e d6 2a 72 37
       2.2010392e-05 0.012966802 0.31872734 1.4434298e-05
000150 62 fb 5f 3c d9 b2 56 3e 9a ba fc 2f d1 7d a4 31
       0.013670774 0.20966662 4.597112e-10 4.787332e-09
000160 07 92 e1 35 e7 8d 37 38 e7 8d 37 38 df 54 2d 43
       1.6806306e-06 4.3762757e-05 4.3762757e-05 173.33153
000170 b7 04 26 2a a9 07 f8 34 f4 3e 8f 3a 90 4b 71 32
       1.4745398e-13 4.6199173e-07 0.0010928796 1.4045227e-08
000180 8e f0 8e 17 fb df 64 1c 00 00 00 00 39 2c 8c 19
       9.237259e-25 7.572836e-22 0.0 1.4493522e-23
000190 00 00 00 00 00 00 00 00 fd e2 b5 0f fb e8 54 17
       0.0 0.0 1.793541e-29 6.8794957e-25
0001a0 de d7 ac 1d 99 de 95 21 00 00 00 00 16 bd 4f 1f
       4.5751222e-21 1.0155554e-18 0.0 4.3990363e-20
0001b0 8c c1 2e 12 8c c1 2e 12 57 4f 2b 17 9e c8 54 17
       5.5143284e-28 5.5143284e-28 5.535322e-25 6.875411e-25
0001c0 de 95 ed 18 d4 f5 fd 18 58 90 ed 18 65 14 30 14
       6.141439e-24 6.564719e-24 6.1408814e-24 8.889751e-27
0001d0 58 90 ed 18 58 90 ed 18 58 90 ed 18 2c 4a 14 0d
       6.1408814e-24 6.1408814e-24 6.1408814e-24 4.56953e-31
0001e0 bd 6b 28 0d ba 0c a4 10 46 2e 53 17 92 5d 5b 17
       5.189868e-31 6.47062e-29 6.823618e-25 7.088082e-25
0001f0 d1 cb 93 20 52 37 e3 0e 71 87 c0 12 62 40 27 16
       2.5037643e-19 5.6013092e-30 1.2150292e-27 1.3510468e-25
000200 07 ea 54 17 b6 70 82 18 5b f8 93 20 9d d1 54 17
       6.879628e-25 3.371802e-24 2.5067117e-19 6.8765464e-25
000210 ef 46 79 18 5d ef 93 20 f3 98 f9 09 ea be 73 0b
       3.2218308e-24 2.5061166e-19 6.0088402e-33 4.6943725e-32
000220 f9 16 a6 10 03 37 55 17 03 37 55 17 ff eb 3e 21
       6.551085e-29 6.8893446e-25 6.8893446e-25 6.468684e-19
000230 00 00 00 00 93 2b 31 0b 42 fc 58 11 e9 a5 30 0a
       0.0 3.4121742e-32 1.7117128e-28 8.505296e-33
000240 c3 fb 7f 39 f6 6f 84 3c 93 60 9a 30 d0 66 4d 3a
       0.00024412484 0.016166668 1.1232423e-09 0.00078354497
000250 f0 96 ca 36 59 f1 c3 32 a8 b1 d0 39 68 43 93 33
       6.0376406e-06 2.281074e-08 0.00039805216 6.857482e-08
000260 77 d4 a2 3f 5e a5 a8 41 8a c9 d2 35 18 3a 03 40
       1.2721089 21.080746 1.5704875e-06 2.0504208
000270 a1 80 4c 3e 9d 80 e8 3b 53 5d 7c 40 ab c7 4e 33
       0.19970943 0.00709541 3.943196 4.814471e-08
000280 f3 2e 41 34 07 ff 1f 37 11 7d 28 2a 19 7b 11 35
       1.7991606e-07 9.536517e-06 1.4964789e-13 5.419584e-07
000290 64 09 e6 31 e5 3a 7e 31 b9 57 c2 34 43 0e 08 2f
       6.6949486e-09 3.6995342e-09 3.6199143e-07 1.2374195e-10
0002a0 3b 4a 22 2f ae 1f b0 31 09 10 82 32 e2 dd 53 35
       1.4760186e-10 5.1258757e-09 1.5141284e-08 7.892651e-07
0002b0 03 5d 64 3c cb 11 f1 30 52 40 63 34 6c d5 f4 36
       0.013938191 1.7540115e-09 2.1164422e-07 7.2966122e-06
0002c0 d7 8d 9d 33 c3 57 55 38 2c a2 a5 3a 96 29 63 33
       7.336683e-08 5.086489e-05 0.0012636832 5.289038e-08
0002d0 47 4e 6b 38 32 a1 76 3a 8b ca a1 2b 43 f1 45 2d
       5.6101268e-05 0.0009408175 1.1495955e-12 1.1251724e-11
0002e0 58 73 84 31 38 15 19 34 38 15 19 34 9e e6 3c 3f
       3.8548187e-09 1.4256955e-07 1.4256955e-07 0.73789394
0002f0 21 0e c7 29 e3 55 e3 30 e6 2d 26 36 cf 93 fb 2e
       8.839826e-14 1.6540834e-09 2.4762644e-06 1.14404146e-10
000300 00 00 00 00 00 00 00 00 00 00 00 00 00 00 00 00
       0.0 0.0 0.0 0.0
000310 00 00 00 00 00 00 00 00 00 00 00 00 00 00 00 00
       0.0 0.0 0.0 0.0
000320 00 00 00 00 00 00 00 00 00 00 00 00 00 00 00 00
       0.0 0.0 0.0 0.0
000330 00 00 00 00 00 00 00 00 00 00 00 00 00 00 00 00
       0.0 0.0 0.0 0.0
000340 00 00 00 00 00 00 00 00 00 00 00 00 00 00 00 00
       0.0 0.0 0.0 0.0
000350 00 00 00 00 00 00 00 00 00 00 00 00 00 00 00 00
       0.0 0.0 0.0 0.0
000360 00 00 00 00 00 00 00 00 00 00 00 00 00 00 00 00
       0.0 0.0 0.0 0.0
000370 00 00 00 00 00 00 00 00 00 00 00 00 00 00 00 00
       0.0 0.0 0.0 0.0
000380 00 00 00 00 00 00 00 00 00 00 00 00 00 00 00 00
       0.0 0.0 0.0 0.0
000390 00 00 00 00 00 00 00 00 00 00 00 00 00 00 00 00
       0.0 0.0 0.0 0.0
0003a0 00 00 00 00 00 00 00 00 00 00 00 00 00 00 00 00
       0.0 0.0 0.0 0.0
0003b0 00 00 00 00 00 00 00 00 00 00 00 00 00 00 00 00
       0.0 0.0 0.0 0.0
0003c0 bb a1 10 1a 46 80 0f 1b b6 8d 98 15 47 13 0e 19
       2.9909147e-23 1.187013e-22 6.161589e-26 7.345121e-24
0003d0 4c d7 d9 19 f5 d8 37 19 0c 1b 93 1a d8 49 2a 0a
       2.2524232e-23 9.504692e-24 6.084147e-23 8.199091e-33
0003e0 af 5d e4 1f 77 58 45 20 7f 1c 43 1c 8d d2 8d 1d
       9.671674e-20 1.671582e-19 6.455692e-22 3.7540094e-21
0003f0 34 ae f2 1f 0d 76 a3 1f 8d ec 1b 20 e1 de ed 09
       1.0277918e-19 6.9228484e-20 1.3207279e-19 5.726527e-33

exp_avg f4 [128]
000000 00 00 00 00 04 00 00 00 04 00 00 00 04 00 00 00
       0.0 6e-45 6e-45 6e-45
000010 00 00 00 00 04 00 00 00 04 00 00 00 04 00 00 00
       0.0 6e-45 6e-45 6e-45
000020 00 00 00 00 04 00 00 00 04 00 00 00 04 00 00 80
       0.0 6e-45 6e-45 -6e-45
000030 04 00 00 00 04 00 00 00 04 00 00 00 04 00 00 80
       6e-45 6e-45 6e-45 -6e-45
000040 04 00 00 00 04 00 00 00 04 00 00 80 04 00 00 80
       6e-45 6e-45 -6e-45 -6e-45
000050 04 00 00 00 04 00 00 80 00 00 00 00 04 00 00 00
       6e-45 -6e-45 0.0 6e-45
000060 04 00 00 00 04 00 00 00 04 00 00 00 f8 7c 45 3a
       6e-45 6e-45 6e-45 0.00075335754
000070 04 00 00 00 04 00 00 00 04 00 00 00 04 00 00 00
       6e-45 6e-45 6e-45 6e-45
000080 04 00 00 00 00 00 00 00 04 00 00 00 04 00 00 80
       6e-45 0.0 6e-45 -6e-45
000090 04 00 00 00 04 00 00 80 04 00 00 00 04 00 00 00
       6e-45 -6e-45 6e-45 6e-45
0000a0 00 00 00 00 04 00 00 00 00 00 00 00 04 00 00 00
       0.0 6e-45 0.0 6e-45
0000b0 04 00 00 00 00 00 00 00 04 00 00 00 00 00 00 00
       6e-45 0.0 6e-45 0.0
0000c0 04 00 00 00 04 00 00 00 04 00 00 00 04 00 00 00
       6e-45 6e-45 6e-45 6e-45
0000d0 04 00 00 00 04 00 00 80 04 00 00 80 ea 74 e2 39
       6e-45 -6e-45 -6e-45 0.00043193187
0000e0 04 00 00 00 00 00 00 00 04 00 00 00 04 00 00 00
       6e-45 0.0 6e-45 6e-45
0000f0 04 00 00 00 04 00 00 80 04 00 00 00 04 00 00 00
       6e-45 -6e-45 6e-45 6e-45
000100 04 00 00 00 04 00 00 00 08 ac 77 37 04 00 00 00
       6e-45 6e-45 1.4762401e-05 6e-45
000110 04 00 00 80 8f a4 31 3a 04 00 00 00 86 6d 8b ba
       -6e-45 0.00067765353 6e-45 -0.0010637499
000120 00 00 00 00 bc c2 96 3a 04 00 00 00 04 00 00 00
       0.0 0.0011502127 6e-45 6e-45
000130 04 00 00 00 04 00 00 00 04 00 00 00 00 00 00 00
       6e-45 6e-45 6e-45 0.0
000140 04 00 00 00 04 00 00 00 e5 68 27 3a 04 00 00 00
       6e-45 6e-45 0.0006386175 6e-45
000150 04 00 00 00 04 00 00 00 04 00 00 00 04 00 00 00
       6e-45 6e-45 6e-45 6e-45
000160 04 00 00 00 04 00 00 80 00 00 00 00 04 00 00 00
       6e-45 -6e-45 0.0 6e-45
000170 00 00 00 00 04 00 00 80 04 00 00 80 04 00 00 00
       0.0 -6e-45 -6e-45 6e-45
000180 04 00 00 00 04 00 00 00 00 00 00 00 04 00 00 00
       6e-45 6e-45 0.0 6e-45
000190 04 00 00 00 04 00 00 00 04 00 00 00 04 00 00 80
       6e-45 6e-45 6e-45 -6e-45
0001a0 04 00 00 00 04 00 00 00 04 00 00 00 04 00 00 80
       6e-45 6e-45 6e-45 -6e-45
0001b0 04 00 00 80 04 00 00 80 04 00 00 00 04 00 00 00
       -6e-45 -6e-45 6e-45 6e-45
0001c0 04 00 00 00 04 00 00 00 04 00 00 00 00 00 00 00
       6e-45 6e-45 6e-45 0.0
0001d0 04 00 00 00 04 00 00 00 00 00 00 00 04 00 00 00
       6e-45 6e-45 0.0 6e-45
0001e0 00 00 00 00 04 00 00 00 04 00 00 00 04 00 00 00
       0.0 6e-45 6e-45 6e-45
0001f0 04 00 00 00 04 00 00 00 c0 b0 91 b8 04 00 00 80
       6e-45 6e-45 -6.947061e-05 -6e-45

exp_avg_sq f4 [128]
000000 00 00 00 00 e7 8d 37 38 03 37 55 17 3b 15 19 34
       0.0 4.3762757e-05 6.8893446e-25 1.4256959e-07
000010 00 00 00 00 45 f3 ac 12 04 38 5a 15 cd 66 55 0d
       0.0 1.0914697e-27 4.4068938e-26 6.5759434e-31
000020 00 00 00 00 ba 90 49 2e e6 8d 82 2a 1f 31 4d 23
       0.0 4.5830652e-11 2.31911e-13 1.1123474e-17
000030 29 bc c4 1b 46 11 f2 2c e3 40 b1 2c e4 13 a8 2a
       3.2547076e-22 6.8799714e-12 5.0378464e-12 2.9856597e-13
000040 c1 a0 b3 27 29 2b c6 19 54 28 7a 2a e1 0c c4 2c
       4.985677e-15 2.0490152e-23 2.2218452e-13 5.572085e-12
000050 7c b8 5e 1c 75 9c d2 25 00 00 00 00 03 b7 2c 26
       7.369208e-22 3.6535212e-16 0.0 5.9922515e-16
000060 a5 2e 82 25 21 00 94 2a d5 fd d4 2a c6 3f 20 3b
       2.2583013e-16 2.629017e-13 3.7834896e-13 0.0024452074
000070 ad 12 0b 30 0d b8 3f 32 e3 72 76 0f 28 00 a6 1e
       5.0594445e-10 1.11595115e-08 1.2150863e-29 1.7575998e-20
000080 36 93 ce 15 00 00 00 00 90 e8 51 1f c6 91 d7 2b
       8.3434995e-26 0.0 4.4449843e-20 1.5317129e-12
000090 5c e0 0d 09 8f 70 9b 2a 0f a0 e9 32 fc 20 15 1f
       1.707775e-33 2.7611634e-13 2.7197556e-08 3.157926e-20
0000a0 00 00 00 00 d9 89 87 2e 00 00 00 00 42 bc 6e 2d
       0.0 6.163576e-11 0.0 1.3570535e-11
0000b0 f0 e1 8f 20 00 00 00 00 85 57 40 29 00 00 00 00
       2.4374655e-19 0.0 4.2708475e-14 0.0
0000c0 70 bf 75 13 13 e4 16 26 c1 ac 87 24 8c bd 0a 2f
       3.1017733e-27 5.23508e-16 5.8839574e-17 1.2618367e-10
0000d0 e7 15 b8 0b c4 78 0f 2e 71 48 3e 37 5c 1e a2 3a
       7.0907177e-32 3.2621697e-11 1.1341749e-05 0.0012368667
0000e0 3c 77 e4 1a 00 00 00 00 1e 57 a0 25 8f 25 d0 20
       9.4491223e-23 0.0 2.7814609e-16 3.5261425e-19
0000f0 48 38 06 26 3a da 89 21 76 3d f3 31 97 66 20 2a
       4.6566864e-16 9.341245e-19 7.079218e-09 1.4246448e-13
000100 80 6e 16 14 cb d0 a7 1d f9 0f 8f 38 34 04 74 30
       7.594857e-27 4.442042e-21 6.8217465e-05 8.8772656e-10
000110 22 e8 5b 2f 8d 6f dc 3a 49 ff a2 0d fc 28 44 3b
       2.0000404e-10 0.0016817913 1.00454785e-30 0.0029931655
000120 00 00 00 00 79 90 91 3b cf 9d a2 0b c1 47 93 29
       0.0 0.0044422713 6.2637574e-32 6.540559e-14
000130 34 8e 85 38 aa 18 9b 0d 3c e5 15 1d 00 00 00 00
       6.3684216e-05 9.55855e-31 1.9838497e-21 0.0
000140 11 4c 84 0d ce 80 d6 23 14 44 cf 3a ff da d9 29
       8.15344e-31 2.3256477e-17 0.0015813136 9.6747256e-14
000150 4f 38 02 2a 22 d1 86 36 c3 b1 4c 1a f5 03 8b 2e
       1.1565855e-13 4.0178575e-06 4.2329806e-23 6.321691e-11
000160 4b 13 2d 30 07 cf 70 2a 00 00 00 00 02 0b f3 2d
       6.296445e-10 2.1388109e-13 0.0 2.763079e-11
000170 00 00 00 00 b9 96 46 2a ef 97 43 2a 7b 59 59 31
       0.0 1.7638225e-13 1.7372192e-13 3.162852e-09
000180 36 2d 31 27 63 d5 a5 0c 00 00 00 00 25 30 2c 30
       2.4588193e-15 2.5550703e-31 0.0 6.2641653e-10
000190 ae 86 7b 39 f5 0b ac 25 f3 84 a9 1a 4b b1 e2 29
       0.00023987397 2.9845346e-16 7.011155e-23 1.00671716e-13
0001a0 32 8f 4e 25 ec ae 9a 26 9e 49 80 27 2f 31 7d 2a
       1.7916168e-16 1.0733309e-15 3.5606953e-15 2.2487978e-13
0001b0 d5 1c a0 29 e1 f3 32 2a 5f 7a 84 1a b9 5b 27 17
       7.110429e-14 1.5894188e-13 5.479162e-23 5.407638e-25
0001c0 01 3a 74 0e 54 15 15 15 b4 cc a5 25 00 00 00 00
       3.010325e-30 3.0107135e-26 2.876165e-16 0.0
0001d0 a0 1f ff 17 76 18 85 14 00 00 00 00 17 4c 98 25
       1.6486972e-24 1.3439216e-26 0.0 2.6419357e-16
0001e0 00 00 00 00 a0 7e e6 13 a6 87 a4 2d 8d 55 b8 0e
       0.0 5.8185025e-27 1.8704881e-11 4.5441884e-30
0001f0 52 7d e5 1e 61 7d 0d 16 5d 23 60 3a fc 1c b3 2d
       2.429815e-20 1.1429452e-25 0.00085501914 2.0362816e-11
