src/model_data/Bahrain_Grand_Prix_model.pth (torch, 197961 bytes, 21 tensors)

net.0.weight f4 [128, 48]
0	0xbd37b796	-0.044852816
1	0x3c475da1	0.012168319
2	0xbe13d2f5	-0.14435942
3	0xbea97050	-0.330935
4	0xbe25c160	-0.16187048
5	0xbdb8bb64	-0.09020117
6	0xbd88ee0f	-0.06686031
7	0x3eb532e4	0.3539039
8	0xbe48ff7a	-0.19628707
9	0xbdf1e8be	-0.1181197
10	0xbd015344	-0.03157355
11	0x3bede705	0.0072602057
12	0x3d6eeba0	0.05833018
13	0xbc59a973	-0.013285029
14	0xbc8f952c	-0.017527185
15	0x3ed9aaa0	0.4251299
16	0xbe891c0d	-0.26779214
17	0xbe0a102d	-0.13482733
18	0x3d9d8c37	0.076927595
19	0xbdf454cf	-0.119302385
20	0xbe273cd0	-0.16331792
21	0xbd174d27	-0.036938813
22	0xbd357327	-0.04429927
23	0xbe06e140	-0.13171864
24	0x3c09bee1	0.0084073255
25	0xbe477c5d	-0.19481035
26	0xbe37570e	-0.17904302
27	0xbe0650c5	-0.13116749
28	0xbdf1dd98	-0.11809844
29	0xbdee73e1	-0.11643196
30	0xbe7bc3b0	-0.24586368
31	0xbdf0a180	-0.11749554
32	0xbe9ad90f	-0.30243728
33	0x3da6d00a	0.08145149
34	0xbdeaecd2	-0.11470951
35	0xbe8a0c48	-0.26962495
36	0xbe215fb0	-0.15759158
37	0xbdfea820	-0.12434411
38	0xbe434bd6	-0.19071898
39	0xbebac95e	-0.36481756
40	0xbe77c8d2	-0.241977
41	0xbdb1aa1d	-0.08675025
42	0x3c9d124d	0.019173766
43	0x3dfd204b	0.12359675
44	0x3f48c57d	0.78426343
45	0xbe35b83c	-0.17746061
46	0xbe9ea343	-0.30983934
47	0x3cd7c4e6	0.026339006
48	0xbd8d4bba	-0.06899209
49	0xbe0a1468	-0.13484347
50	0xbcb42155	-0.02198855
51	0xbda289c4	-0.07936433
52	0x3d9e7606	0.07737355
53	0x3e2bd80c	0.16781634
54	0xbda2a4c8	-0.07941586
55	0xbe3aef89	-0.18255438
56	0x3cd7b675	0.02633212
57	0xbdd6f4ba	-0.10495897
58	0xbe183b23	-0.14866309
59	0xbdadc3bd	-0.084846
60	0xbe2cd92c	-0.1687972
61	0x3dbec8b4	0.09315625
62	0x3d027cd8	0.03185734
63	0xbcb177ee	-0.021663632
64	0x3e341535	0.17586215
65	0xbc10752d	-0.008816999
66	0xbe25a27a	-0.16175261
67	0x3df9a4f8	0.121896684
68	0xbe108bcb	-0.14115827
69	0xbcb2c2a9	-0.021821337
70	0xbc3446a1	-0.011003167
71	0xbbcc73ac	-0.006239375
72	0x3dabf966	0.08397178
73	0xbe147982	-0.14499477
74	0x3e28b2fc	0.16474527
75	0x3e0d7646	0.13814649
76	0xbd023558	-0.031789154
77	0xbe15fdae	-0.14647552
78	0x3ba3a867	0.0049944404
79	0xbe18dae1	-0.14927246
80	0xbc3d83be	-0.011567054
81	0xbd53f8b9	-0.051750872
82	0xbd08198e	-0.033227496
83	0x3e0529fe	0.130043
84	0xbd63d953	-0.05562718
85	0xbcab8c4a	-0.020940918
86	0x3e042de8	0.12908137
87	0x3da4a2bd	0.08038852
88	0xbd28a024	-0.041168347
89	0x3e16202d	0.14660712
90	0xbd4c111f	-0.049821015
91	0x3dadc278	0.084843576
92	0xbe20e64a	-0.15712848
93	0xbcdabbdb	-0.026700905
94	0x3dee9750	0.11649954
95	0xbde8d7b8	-0.1136927
96	0x3e0d0b43	0.13773827
97	0xbdf6bd10	-0.120477796
98	0x3c458569	0.012055733
99	0x3dad9548	0.08475739
100	0x3de96d54	0.11397806
101	0xbd3e2ef6	-0.046431504
102	0x3d4897ef	0.04897302
103	0x3f23dc27	0.640078
104	0x3def44a7	0.11683016
105	0xbda6462a	-0.081188515
106	0x3dd497cb	0.10380515
107	0xbde032db	-0.109472
108	0xbdbe6826	-0.092972085
109	0xbe58f03c	-0.21185392
110	0xbb677faa	-0.0035323896
111	0x3f23e7ca	0.6402556
112	0xbd5bd488	-0.053669482
113	0xbe2c98a5	-0.16855104
114	0xbe63fbf7	-0.22264086
115	0x3d13fa51	0.036127392
116	0xbd878588	-0.06617266
117	0xbe60c6c2	-0.2195082
118	0xbe2f1005	-0.17095955
119	0x3e2c23ce	0.16810533
120	0xbda7d6f0	-0.08195293
121	0xbdc141ac	-0.09436354
122	0x3e09305d	0.13397355
123	0xbdd1beec	-0.102414936
124	0xbe387195	-0.18012078
125	0xbd0f843e	-0.035038225
126	0x3e1fdbf1	0.15611245
127	0xbd5770df	-0.052597877
128	0xbe59bbb8	-0.21263015
129	0xbe3a213e	-0.18176743
130	0xbddf1433	-0.108925246
131	0x3cd4abcf	0.025960831
132	0xbe5f5345	-0.21809109
133	0x3dbe3385	0.0928717
134	0x3db10699	0.086438365
135	0xbd958160	-0.07300067
136	0xbd1215fa	-0.03566549
137	0x3c132558	0.008981071
138	0xbde05b76	-0.10954945
139	0xbc8d3f6b	-0.017242154
140	0x3f2d8eb5	0.6779588
141	0xb9141161	-0.00014120854
142	0x3de29e4e	0.110653505
143	0x3d6674be	0.056263678
144	0xbdb18d21	-0.08669496
145	0xbe4dacb6	-0.20085415
146	0xbf15a231	-0.5845061
147	0xbdb932d8	-0.09042901
148	0x3d68fa96	0.056879602
149	0xbc59cdf7	-0.013293735
150	0xbe00725f	-0.12543629
151	0x3f15c721	0.5850697
152	0x3d468d67	0.048474696
153	0xbd9b923e	-0.07596253
154	0xbe753150	-0.23944592
155	0xbe8a2b36	-0.26986092
156	0xbe3ea0d6	-0.18616042
157	0x3cacf880	0.021114588
158	0x3d9f4941	0.07777644
159	0x3e71e9ba	0.23624316
160	0xbe9158cc	-0.2838806
161	0x3d657f43	0.05602957
162	0xbf03e290	-0.5151758
163	0xbc9e197f	-0.019299267
164	0x3ea93e2e	0.33055252
165	0xbee6be75	-0.45067182
166	0x3e164b51	0.14677168
167	0xbe940dc9	-0.28916767
168	0xbeb974ea	-0.3622201
169	0xbe673d69	-0.2258202
170	0x3dd091bf	0.10184049
171	0x3eb007ad	0.34380856
172	0xbe9c0cf6	-0.30478638
173	0xbcaedbd5	-0.021345058
174	0xbe806dc4	-0.25083745
175	0xbe59522d	-0.21222754
176	0xbe811760	-0.25213146
177	0x3d94335f	0.07236361
178	0xbd8d4dd6	-0.06899612
179	0xbea92c7f	-0.3304176
180	0x3e8f8ac0	0.28035545
181	0xbe7948c2	-0.24344161
182	0xbf92ef38	-1.1479254
183	0xbf6f03f2	-0.93365395
184	0xbf307dc4	-0.68941903
185	0xbc94cd28	-0.018164232
186	0x3d66a10f	0.05630594
187	0x3e07fc02	0.13279727
188	0x3f55e257	0.8354849
189	0x3e318467	0.17335664
190	0x3d9cf880	0.07664585
191	0xbeb9a6c9	-0.3626006
192	0xbe1d09a0	-0.15335703
193	0xbe198251	-0.14991118
194	0xbd651665	-0.05592956
195	0xbe1609b1	-0.14652134
196	0xbd3caee2	-0.04606522
197	0xbcb7c6c3	-0.022433644
198	0x3c621b6c	0.013800483
199	0xbd5c8af0	-0.05384344
200	0xbd82ef3d	-0.06393287
201	0xbd820816	-0.063491985
202	0xbd5aa654	-0.05338128
203	0x3c0ae42b	0.008477251
204	0x3de40f2a	0.11135705
205	0x3db7652b	0.08954843
206	0xbd320492	-0.04346139
207	0x3e34de1d	0.17662854
208	0x3de8ec59	0.11373205
209	0x3dba2fd8	0.09091157
210	0xbdf6299a	-0.120196536
211	0xbcabe137	-0.020981414
212	0xbe005e19	-0.12535895
213	0xbd94fd92	-0.07274927
214	0x3dcd9ec7	0.1004005
215	0xbd948e4c	-0.072537035
216	0x3d996d43	0.07491543
217	0x3e2979ea	0.16550413
218	0xbe21f89d	-0.15817495
219	0xbde24a65	-0.11049346
220	0xbe6d4425	-0.23170526
221	0xbe202f4f	-0.15643047
222	0x3e3037c8	0.17208779
223	0xbddb0eb9	-0.106961675
224	0xbbc3a1df	-0.0059702243
225	0x3ce3e131	0.02781734
226	0xbd793abf	-0.06084704
227	0xbe3e2c11	-0.18571497
228	0xbcbb2717	-0.022845788
229	0xbe1afe89	-0.1513616
230	0xbc384f58	-0.011249386
231	0x3e87df43	0.26537523
232	0x3e586738	0.21133125
233	0xbd5414f6	-0.051777802
234	0xbddb6445	-0.10712484
235	0xbe6ec73c	-0.2331819
236	0xbe961ff3	-0.2932125
237	0xbb004f07	-0.0019578354
238	0x3c9b8aae	0.018987026
239	0x3cf12523	0.029436653
240	0xbd140011	-0.036132876
241	0x3c845d28	0.016157702
242	0xbe018ea7	-0.12652074
243	0xbe5d0217	-0.21582828
244	0xba901a90	-0.0010994244
245	0xbe44c17c	-0.19214433
246	0xbd0bb53e	-0.034108393
247	0xbdd85115	-0.1056234
248	0xbe424b3b	-0.1897401
249	0x3bf4bf49	0.007469092
250	0x3d8c8763	0.068617605
251	0xbe1a86dc	-0.15090507
252	0xbe3c001d	-0.18359418
253	0xbe5e2d63	-0.21697001
254	0xbd4b8213	-0.049684595
255	0x3d6b3e92	0.05743272

net.0.bias f4 [128]
0	0x3ec49427	0.3839428
1	0x00000000	0.0
2	0x3ef614a8	0.48062634
3	0x3ee0988f	0.43866393
4	0xbd13afae	-0.036056213
5	0xbe056d92	-0.13030079
6	0x3f085174	0.5324929
7	0x3ef0e2d1	0.47048047
8	0xbd69df6f	-0.05709785
9	0x3f044b57	0.5167746
10	0x3f015866	0.5052551
11	0xbce42e7e	-0.0278542
12	0x00000000	0.0
13	0xbdf8d2e6	-0.12149601
14	0xbdb1a3cf	-0.08673822
15	0x3ed18acc	0.40926206
16	0xbda8a4f5	-0.08234588
17	0xbe24f276	-0.16108117
18	0xbd637c05	-0.055538196
19	0xbea92064	-0.33032525
20	0x3ebe5cf5	0.37180296
21	0x3f01ab05	0.5065158
22	0x3f130812	0.5743419
23	0xbd93b063	-0.072113775
24	0x3f0c462d	0.5479458
25	0xbe212a78	-0.15738857
26	0xbca905e6	-0.020632695
27	0x3ed9d81b	0.42547688
28	0xbdf86df5	-0.12130348
29	0x3eb96178	0.36207175
30	0xbcccfdcb	-0.025023362
31	0x3f08eb72	0.5348426
32	0xbd8bda30	-0.06828725
33	0xbdfe20f8	-0.12408632
34	0x3f4a0e01	0.7892762
35	0x3f0415d0	0.51595783
36	0xbd80f7ce	-0.06297265
37	0x00000000	0.0
38	0xbd0e98d2	-0.03481371
39	0xbdd6bb44	-0.10484937
40	0xbd308e5a	-0.043104507
41	0x3f566839	0.8375278
42	0x3efd7dd5	0.49510065
43	0xbd9ac38c	-0.07556829
44	0xbde6216d	-0.11236844
45	0x3efbfdfa	0.49217206
46	0x00000000	0.0
47	0x3e821fc6	0.25414866
48	0x3e13193f	0.143651
49	0xbd0775af	-0.033071216
50	0x3eb3f55d	0.35148135
51	0x3eb5ed4f	0.35532615
52	0x3f00e8f7	0.50355476
53	0x3ef62f2a	0.48082858
54	0x3ecc3930	0.3988738
55	0x3e92cec7	0.28673384
56	0xbd81f111	-0.06344808
57	0xbd8ee6f8	-0.069776475
58	0x3eed1101	0.46302035
59	0x3ec1cd96	0.37852162
60	0xbde48dc4	-0.11159852
61	0xbe34cfdf	-0.17657422
62	0x3f033cff	0.5126495
63	0xbd8d274b	-0.0689226
64	0xbe186c12	-0.14884976
65	0x3eee1d61	0.4650679
66	0x00000000	0.0
67	0x3ef11415	0.47085634
68	0x3a968d59	0.0011486217
69	0x3eb553a3	0.35415372
70	0xbdef9ba4	-0.11699608
71	0x3f03a9d2	0.51431
72	0xbc5b64ea	-0.013390759
73	0x00000000	0.0
74	0xbd70f686	-0.058828853
75	0x00000000	0.0
76	0x3ee5791c	0.44818962
77	0xbded438b	-0.115851484
78	0xbd30c3fa	-0.043155648
79	0x3f0acab4	0.5421555
80	0x3f086eb1	0.532939
81	0x3ef50ad9	0.4785984
82	0x3ed6a16b	0.41920027
83	0xbd88a440	-0.06671953
84	0x3eff5723	0.49871168
85	0x3ea1a5a3	0.31571683
86	0xbdda4ed0	-0.106595635
87	0xbdae0bc0	-0.08498335
88	0xbdcc6067	-0.09979325
89	0x3eee0979	0.46491602
90	0x3e275297	0.163401
91	0x3f08c51d	0.5342577
92	0xbd2214a3	-0.039570462
93	0xbf67cfd6	-0.9055151
94	0x3ebca568	0.36844945
95	0xbd99a905	-0.07502941
96	0x3ed8e0a2	0.4235888
97	0xbda2535a	-0.07926054
98	0xbd785520	-0.060628057
99	0xbe619858	-0.22030771
100	0x3ea5ef36	0.32409066
101	0x3da8d82e	0.08244358
102	0xbcc6f4a3	-0.024286574
103	0x3f090f15	0.5353864
104	0x3f052f0c	0.5202491
105	0x3ef31a22	0.47480875
106	0xbde95d5e	-0.113947615
107	0x3f08252d	0.53181726
108	0xbd3ff9da	-0.046869136
109	0x3e99e288	0.30055642
110	0x3ebb1f74	0.36547434
111	0x00000000	0.0
112	0x3eec518a	0.4615596
113	0xbe8d9775	-0.27654615
114	0x3e90d214	0.28285277
115	0x3f1a160c	0.6018989
116	0xbe086caa	-0.13322702
117	0x00000000	0.0
118	0xbe349e5a	-0.17638531
119	0x00000000	0.0
120	0xbd08a0fe	-0.03335666
121	0xbf4e5cd8	-0.8061042
122	0x3efcb720	0.49358463
123	0xbc6ef664	-0.014585111
124	0xbdf70551	-0.12061561
125	0xbe17193e	-0.14755723
126	0x3ec64353	0.3872324
127	0x3ee3a7d9	0.44463995

net.2.weight f4 [64, 128]
0	0x3e08b87f	0.1335163
1	0x3cd44daf	0.025915949
2	0x3cf9d1ed	0.030495608
3	0x3c889f83	0.016677624
4	0x3dd3df9e	0.10345386
5	0x3d2ddee3	0.04244889
6	0x3df74fdd	0.120757796
7	0x3dd7de09	0.10540397
8	0x3d91b6fa	0.07114978
9	0xbe2ff264	-0.17182308
10	0xbe112352	-0.1417363
11	0xbda2fb29	-0.07958061
12	0xbe169b1d	-0.14707609
13	0x3e05aa86	0.13053331
14	0xbde3bd7d	-0.111201264
15	0xbcf942b3	-0.030427312
16	0x3c4c5401	0.0124712
17	0xbd5f319f	-0.05449068
18	0x3d65f112	0.056138106
19	0xbed2fdab	-0.41209158
20	0xbe53facb	-0.20701139
21	0xbcf2b329	-0.029626446
22	0xbe36f50c	-0.17866915
23	0xbe052c36	-0.13005146
24	0x3dde4cf8	0.108545244
25	0x3dc6287c	0.096756905
26	0xbe122f88	-0.14275944
27	0xbd03220b	-0.032014888
28	0xbe57ef19	-0.21087302
29	0xbe54fc76	-0.20799431
30	0x3e1a4fdd	0.15069528
31	0xbdbd9547	-0.09256988
32	0xbde8e5c8	-0.11371952
33	0x3dcc05ef	0.09962069
34	0xbd971791	-0.07377542
35	0xbb36552e	-0.0027821767
36	0xbcf49e0c	-0.029860519
37	0x3ddc0711	0.10743535
38	0x3d99b5f5	0.07505409
39	0x3de9f384	0.114234
40	0x3d12c80f	0.035835322
41	0x3d42f3e4	0.047595873
42	0x3db5b4e3	0.08872392
43	0xbde9e5a6	-0.11420755
44	0xbe10a738	-0.14126289
45	0xbdacbc05	-0.084342994
46	0xbdc77f3d	-0.09741066
47	0x3c02cb56	0.007983049
48	0xbe291a34	-0.16513902
49	0x3ceecf6e	0.029151645
50	0xbacc44ab	-0.001558443
51	0xbc164fed	-0.009174329
52	0xbcc1ad68	-0.023642257
53	0xbdb09329	-0.086218186
54	0x3e25c10a	0.1618692
55	0xbd7084f3	-0.05872054
56	0x3c706eed	0.014674884
57	0xbd4bfcc3	-0.0498016
58	0xbd80ed9a	-0.06295319
59	0xbd620bab	-0.05518691
60	0xbde24b95	-0.110495724
61	0x3d00de80	0.031462193
62	0xbd4fd08c	-0.050735995
63	0x3bee8588	0.0072791018
64	0xbe1d060e	-0.15334341
65	0x3cd7b7d4	0.026332773
66	0x3e285dfe	0.16442105
67	0x3e24be2d	0.16088171
68	0xbe2c12b1	-0.16804005
69	0xbd4df456	-0.050281845
70	0x3d38f59e	0.045156114
71	0xbe40d328	-0.1883055
72	0xbe00bbdf	-0.12571667
73	0x3d4c6a4c	0.04990606
74	0x3e17854c	0.14796942
75	0xbc94a96a	-0.01814719
76	0xbd287143	-0.04112364
77	0xbdfb2e29	-0.12264664
78	0xbe0c7327	-0.13715802
79	0xbc37d8f0	-0.0112211555
80	0xbde36061	-0.11102367
81	0xbd0faf72	-0.035079427
82	0xbcd1b78c	-0.025600217
83	0xbe2de8ae	-0.16983292
84	0xbd25e576	-0.040502034
85	0x3d9c67af	0.076369636
86	0xbc440576	-0.011964193
87	0x3e35a5c7	0.1773902
88	0xbd854b80	-0.06508541
89	0xbdae40fd	-0.08508489
90	0x3ddba91d	0.10725615
91	0x3d35b291	0.044359747
92	0xbc8f45e1	-0.017489376
93	0xbd8ee900	-0.06978035
94	0xbd9ebb8b	-0.07750615
95	0x3dd4c555	0.103892006
96	0x3d6c6239	0.05771086
97	0xbdbfa8d7	-0.093583755
98	0xbdc5471d	-0.096327044
99	0xbe87aa18	-0.2649696
100	0x3e6571c5	0.22406681
101	0xbd37ed04	-0.04490377
102	0x3c7f9809	0.015600213
103	0xbdceb3f8	-0.1009292
104	0xbe0f83fc	-0.14015192
105	0x3d87063b	0.06592985
106	0x3e184185	0.14868744
107	0xbe2a581d	-0.16635175
108	0x3d53fafa	0.05175302
109	0x3e3a0c0c	0.18168658
110	0xbe0133f6	-0.12617478
111	0xbdbc3773	-0.091902636
112	0x3dc7a8ec	0.09749016
113	0xbda60b25	-0.081075944
114	0x3d12056a	0.035649695
115	0xbc8418d9	-0.01612513
116	0xbeb049ae	-0.34431213
117	0x3dee52eb	0.11636909
118	0x3d01d68c	0.03169875
119	0xbe1f94a5	-0.15584047
120	0xbd828172	-0.06372346
121	0xbd9929aa	-0.0747865
122	0xbe21e963	-0.15811686
123	0x3d4c1497	0.049824324
124	0x3de61a31	0.11235464
125	0xbe584591	-0.21120287
126	0xbe6a1f3f	-0.22863482
127	0xbd7de1c3	-0.06198288
128	0x3e2294a6	0.15877017
129	0xbd9dce7d	-0.077054
130	0xbc98d7a5	-0.018657515
131	0x3e56b094	0.20965797
132	0x3d5da3a6	0.054111145
133	0xbe3610b4	-0.17779809
134	0x3e2ed45e	0.17073199
135	0xbb3bcd6b	-0.0028656374
136	0x3e144b11	0.1448176
137	0x3d866bfb	0.065635644
138	0xbde867f2	-0.11347951
139	0x3d0aad1d	0.0338565
140	0xbdffccba	-0.1249022
141	0x3db9f119	0.09079189
142	0x3e3ad4a8	0.18245184
143	0xbbd08a78	-0.006364163
144	0xbe109bd4	-0.14121944
145	0x3d5de24b	0.054170888
146	0xbda5d235	-0.080967344
147	0xbc85943e	-0.016306039
148	0xbca3de0b	-0.02000334
149	0x3e0c0387	0.1367322
150	0xbd450d5a	-0.048108436
151	0x3d5e19c5	0.054223794
152	0xbdf980d8	-0.12182778
153	0x3de09ff3	0.10968008
154	0x3df3c17e	0.1190214
155	0x3b808713	0.003922352
156	0xbc3438bf	-0.010999857
157	0x3d8935c8	0.06699711
158	0xbd034fc5	-0.032058496
159	0xbd3da6ca	-0.04630164
160	0x3e257e5a	0.1616148
161	0xbdcc8251	-0.099857934
162	0xbc959c19	-0.01826291
163	0x3d06d247	0.03291538
164	0x3df79a27	0.12089949
165	0x3e03ace4	0.12858921
166	0xbe549478	-0.20759761
167	0xbe11c67f	-0.14235877
168	0xbdcfa822	-0.10139491
169	0xbe0adbd6	-0.13560423
170	0xbdccffe0	-0.10009742
171	0xbda84ff6	-0.08218376
172	0xbd464977	-0.048409905
173	0xbd83302a	-0.06405671
174	0x3d6063e5	0.054782767
175	0xbd83a036	-0.06427042
176	0x3e15d5a6	0.14632282
177	0xbca18d2e	-0.01972064
178	0xbdc22018	-0.09478778
179	0xbd6a6df2	-0.05723376
180	0x3d397409	0.045276675
181	0x3c690a82	0.014223697
182	0xbe179e0c	-0.14806384
183	0x3bf18367	0.0073704007
184	0xbddb5243	-0.107090496
185	0xbd54fa4f	-0.051996525
186	0x3dfcbc61	0.12340618
187	0xbc88e49f	-0.016710578
188	0xbd286d2a	-0.041119732
189	0xbd327f5c	-0.04357849
190	0xbdaf50f9	-0.08560366
191	0x3e1e2b7e	0.15446278
192	0xbd9e4966	-0.077288434
193	0xbdd4d069	-0.103913136
194	0xbe2da212	-0.16956356
195	0x3e20cd4c	0.15703315
196	0x3df71a29	0.120655365
197	0x3bee39c9	0.007270072
198	0x3bf11e85	0.0073583745
199	0xbd094e2e	-0.033521824
200	0x3dd4abae	0.10384308
201	0xbe0eccb9	-0.13945283
202	0xbe17a911	-0.14810587
203	0x3df7791c	0.12083647
204	0x3de7f506	0.113260314
205	0xbdcb4181	-0.09924603
206	0xbd572689	-0.052526984
207	0x3ca544c3	0.02017439
208	0xbe14e72e	-0.14541313
209	0xbd9072b7	-0.0705313
210	0xbd4b86cc	-0.0496891
211	0xbdc203a8	-0.094733536
212	0xbdc60f9e	-0.096709475
213	0x3d69b942	0.05706144
214	0x3d75fed8	0.06005749
215	0xbd5d3532	-0.05400581
216	0xbe8662a0	-0.2624712
217	0x3e40f4aa	0.18843332
218	0x3c8f4bab	0.017492136
219	0x3e185be3	0.14878802
220	0xbd5bdc2d	-0.053676773
221	0xbb494a00	-0.0030714273
222	0x3e116dcc	0.1420204
223	0x3dee6cb6	0.11641829
224	0x3dc6b42b	0.09702333
225	0xbdc1b331	-0.09458006
226	0xbe193b1b	-0.14963953
227	0xbe5799f9	-0.2105483
228	0xbda6092e	-0.0810722
229	0xbc253cd4	-0.010085303
230	0x3d215d88	0.03939584
231	0xbd214567	-0.039372828
232	0x3d6dbfd7	0.05804428
233	0x3ca479e7	0.020077659
234	0xbe03faed	-0.1288869
235	0x3dae8741	0.085218914
236	0xbdc61a8f	-0.096730344
237	0x3dbf0784	0.09327605
238	0x3d884c66	0.06655197
239	0x3c029802	0.007970812
240	0xbdf6f584	-0.12058547
241	0x3dd9bc4a	0.106316164
242	0x3d8c8a86	0.06862359
243	0xbe067446	-0.13130292
244	0x3d9aa2f3	0.07550611
245	0xbdf654c7	-0.12027889
246	0x3c96c096	0.018402379
247	0x3e04e1de	0.12976786
248	0x3d183739	0.03716204
249	0xbd35e617	-0.044408884
250	0xbe0d7f99	-0.13818206
251	0x3dc73d07	0.09728437
252	0x3d97e5b3	0.074168585
253	0x3d1f2fa7	0.038863804
254	0xb946f1ce	-0.00018972831
255	0xbe143e93	-0.14476995

net.2.bias f4 [64]
0	0x3afd2431	0.0019313154
1	0xbe4dd2b0	-0.20099902
2	0x3e014dfa	0.12627402
3	0x3fa979b1	1.3240262
4	0x3ed2c3b2	0.4116493
5	0xbd561c28	-0.052272946
6	0xbd021ca3	-0.03176559
7	0x3eb76b1f	0.35823914
8	0xbd5b068f	-0.05347305
9	0xbd354357	-0.044253673
10	0x3ee42e58	0.44566607
11	0xbda77cd1	-0.08178104
12	0xbd7cd40b	-0.061725657
13	0x3e9fe9f0	0.31233168
14	0xbd19d2d1	-0.037554566
15	0x3e0fe5e8	0.14052546
16	0xbd8005f4	-0.062511355
17	0x3e56c1ae	0.2097232
18	0xbe4c3cbb	-0.19945042
19	0xbe88139c	-0.2657746
20	0xbd3af56b	-0.045644205
21	0xbd5bfd3f	-0.05370831
22	0xbd8d4f25	-0.06899861
23	0xbdac7ea2	-0.08422591
24	0xbd18ad16	-0.037274443
25	0xbdd2808a	-0.10278423
26	0xbd56758d	-0.0523582
27	0xbde570d0	-0.11203158
28	0xbd821cd4	-0.06353155
29	0xbd1a0f8a	-0.037612475
30	0xbda6e762	-0.081496015
31	0xbd9c54d8	-0.0763337
32	0xbd4c3366	-0.049853705
33	0x3e953baf	0.29147097
34	0x3e3e0f38	0.18560493
35	0xbde51f61	-0.11187626
36	0xbd7f72fe	-0.062365524
37	0xbd7da13e	-0.06192135
38	0x3f03ea87	0.51529735
39	0xbe35cbe3	-0.17753558
40	0x3e993d91	0.29929784
41	0xbd919222	-0.07107951
42	0xbca9e3cd	-0.020738507
43	0xbda764c7	-0.08173519
44	0x3e67d876	0.22641167
45	0xbdbb5617	-0.0914728
46	0xbf4d0ed0	-0.8010073
47	0x3ea971ee	0.33094734
48	0xbd021cab	-0.03176562
49	0xbd1bde81	-0.038053993
50	0x3ca2eb1a	0.019887496
51	0xbdee69de	-0.11641286
52	0x3ea1eb10	0.3162465
53	0xbd8088f8	-0.06276125
54	0xbddf3c76	-0.10900204
55	0x3ebe224b	0.37135538
56	0xbccf84d7	-0.025331898
57	0xbe3671d8	-0.17816865
58	0xbd6825db	-0.056676727
59	0xbe0ce0fa	-0.13757697
60	0xbd8c3385	-0.06845764
61	0xbd81802d	-0.06323276
62	0x3eb470d1	0.35242322
63	0x3e91466e	0.28374046

net.4.weight f4 [16, 64]
0	0x3e03ff87	0.12890445
1	0xbd4c02d5	-0.04980739
2	0xbd433c08	-0.047664672
3	0xbe47e8af	-0.19522355
4	0x3ec2c374	0.38039744
5	0x3d70d266	0.0587944
6	0x3e867f1e	0.26268858
7	0x3ed811d4	0.42201102
8	0xbe550e92	-0.2080634
9	0x3e6ddedd	0.23229547
10	0x3d8bf638	0.06834072
11	0xbe71cd71	-0.23613526
12	0xbe8794dd	-0.2648076
13	0x3ea0b700	0.31389618
14	0xbe879441	-0.26480296
15	0xbc86a92a	-0.016438086
16	0x3decaa5d	0.11555932
17	0x3e0192d8	0.12653673
18	0x3e3c57df	0.18392895
19	0x3e0fe4a0	0.14052057
20	0x3d5a9dd0	0.053373158
21	0xbc233c86	-0.00996316
22	0xbdef1106	-0.11673169
23	0xbba027f3	-0.004887575
24	0xbdeb47fd	-0.1148834
25	0x3e3fa946	0.18716916
26	0xbe47ffd5	-0.19531186
27	0x3ea86976	0.3289296
28	0xbd20ad4a	-0.03922776
29	0x3db3bf9f	0.08776783
30	0x3d29d61f	0.041463967
31	0x3d20bb93	0.039241385
32	0x3e10ed7c	0.14153093
33	0x3e8c0cf6	0.27353638
34	0xbe9e9d68	-0.30979466
35	0x3bb2c88e	0.005456037
36	0xbdc2f304	-0.09519008
37	0xbe28c21d	-0.16480298
38	0xbb9058ce	-0.0044051176
39	0x3e5389a2	0.20657972
40	0x3ea4fceb	0.3222421
41	0x3e06d6da	0.13167897
42	0x3e19aebf	0.15008067
43	0x3e0a44ce	0.1350281
44	0x3e9629d8	0.293288
45	0xbea6935d	-0.32534304
46	0x3d7c7acb	0.061640542
47	0x3cf16804	0.029468544
48	0x3dc9e911	0.09858907
49	0x3e4a83ca	0.19776836
50	0x3ccd229f	0.025040923
51	0xbd3b980c	-0.0457993
52	0x3df0f41e	0.11765312
53	0xbe3846b5	-0.17995723
54	0x3e74fb38	0.23923957
55	0x3e8999d9	0.2687519
56	0xbdb08bb0	-0.08620393
57	0x3e85ec9e	0.26157087
58	0x3ac81993	0.0015266411
59	0xbdfa4a29	-0.12221176
60	0xbe01e3cf	-0.12684558
61	0x3e1054d6	0.14094862
62	0x3e20a1a6	0.15686664
63	0xbde8b106	-0.113618895
64	0x3da790fe	0.08181952
65	0x3e45860c	0.19289416
66	0x3e2c3f3a	0.16820994
67	0xbe3b9f08	-0.18322384
68	0xbd0748bf	-0.03302836
69	0x3e3e2568	0.18568957
70	0x3e56c6a9	0.2097422
71	0x3da94c04	0.08266452
72	0xbe05bd35	-0.13060458
73	0xbda846d0	-0.082166314
74	0xbddcb75a	-0.10777159
75	0x3e0710b4	0.13189965
76	0xbe2de149	-0.1698047
77	0x3e6fd4fd	0.23421092
78	0x3e61eef5	0.22063811
79	0xbe854693	-0.26030406
80	0x3e662e53	0.22478609
81	0xbe3c3752	-0.18380478
82	0xbe62134c	-0.22077674
83	0x3e0885d4	0.13332301
84	0x3b9a7273	0.0047133504
85	0xbe3730a4	-0.17889649
86	0x3e1bdea5	0.15221651
87	0x3e550737	0.20803533
88	0xbbe2c09d	-0.006919934
89	0x3e784b98	0.24247587
90	0x3e3075af	0.17232393
91	0x3dc43dbc	0.095820874
92	0xbe2cc93f	-0.16873644
93	0x3e271271	0.16315629
94	0x3dc8267d	0.09772966
95	0xbe7aa6f1	-0.24477746
96	0xbe910e51	-0.28331235
97	0x3d5afcae	0.05346363
98	0x3db26632	0.087108985
99	0x3c876e94	0.01653222
100	0xbe1d8000	-0.1538086
101	0x3e7e2c94	0.24821693
102	0xbe358869	-0.17727818
103	0xbd9ba788	-0.076003134
104	0xbe1999d1	-0.15000083
105	0xbdace0ce	-0.084413156
106	0x3e31472a	0.17312303
107	0x3e81c915	0.25348726
108	0x3e07474f	0.13210796
109	0xbe2b25b0	-0.16713595
110	0xbe8c8f50	-0.2745309
111	0xbdf01621	-0.11722971
112	0x3d05b693	0.03264482
113	0x3db07da0	0.08617711
114	0x3e381364	0.17976147
115	0xbd838a9d	-0.06422923
116	0x3e523846	0.20529279
117	0xbc6b00a1	-0.014343412
118	0xbe1d93e8	-0.15388453
119	0xbe1c3b58	-0.15257013
120	0x3e64ca6e	0.22342846
121	0xbdfff022	-0.124969736
122	0x3e44e458	0.19227731
123	0xbdc01f89	-0.09381015
124	0x3e7f5df2	0.24938181
125	0x3ced5929	0.028973179
126	0x3e396cc1	0.18107893
127	0xbe63aa4a	-0.22232929
128	0x3e6974b0	0.22798419
129	0x3e272821	0.16323902
130	0xbeeddbda	-0.46456796
131	0xbd557d6e	-0.052121572
132	0xbdcd847e	-0.100350365
133	0x3d919ea9	0.0711034
134	0x3e0b3d6c	0.1359765
135	0xbd847bcd	-0.064689256
136	0x3dd4ed73	0.10396852
137	0x3e445cd0	0.1917603
138	0xbdb84430	-0.08997381
139	0xbe01ceb9	-0.12676515
140	0xbdff3305	-0.12460903
141	0xbe52e656	-0.20595679
142	0xbe7880ef	-0.24267934
143	0x3ea750e8	0.32678914
144	0xbdd4ed93	-0.10396876
145	0xbdff0381	-0.1245184
146	0xbe1b30eb	-0.1515538
147	0x3d7db2da	0.061938144
148	0x3e6051a8	0.2190615
149	0x3db2173b	0.08695837
150	0x3d3b0ede	0.045668475
151	0x3e317873	0.17331104
152	0xbe52d6d9	-0.2058977
153	0x3e32bc12	0.17454556
154	0xbe8721e3	-0.2639304
155	0xbcefbf3c	-0.029265992
156	0xbd16b459	-0.036793087
157	0xbd34bad0	-0.04412347
158	0x3da31e91	0.079648145
159	0x3e70dad8	0.23520982
160	0xbe47a2a4	-0.19495636
161	0xbc3178b6	-0.010832002
162	0xbdf4b4df	-0.11948561
163	0xbe194e42	-0.14971259
164	0x3e2013fa	0.1563262
165	0x3df64796	0.12025373
166	0xbd686492	-0.056736536
167	0xbdb07f55	-0.08618037
168	0x3e3cfaad	0.18455
169	0x3e403e1a	0.1877369
170	0xbde14d7f	-0.11001109
171	0x3e6e1004	0.23248297
172	0xbe4b67c0	-0.19863796
173	0xbdcbf02b	-0.09957918
174	0x3eb3ce75	0.35118452
175	0xbd485d97	-0.04891738
176	0xbe70c7bc	-0.23513693
177	0xbdc398aa	-0.09550603
178	0x3d9457f1	0.07243336
179	0xbe6778f6	-0.22604737
180	0x3e3a550e	0.18196508
181	0xbe22412e	-0.15845177
182	0x3da4e476	0.08051388
183	0x3c57cc11	0.013171212
184	0xbe2f2f05	-0.1710778
185	0xbd564f71	-0.052321855
186	0xbe5c92b6	-0.21540341
187	0xbdd50dfd	-0.10403059
188	0xbdbce645	-0.09223608
189	0xbe62090c	-0.22073764
190	0xbcef143e	-0.029184457
191	0x3e927cc6	0.2861082
192	0xbd6797af	-0.05654114
193	0xbdefff2e	-0.117185935
194	0xbd982379	-0.07428641
195	0xbe92084a	-0.2852195
196	0x3d6164e1	0.055027846
197	0x3e720c0b	0.23637407
198	0xbe4eb48e	-0.20186064
199	0x3e67b770	0.2262857
200	0xbe6d5478	-0.23176754
201	0x3e3301de	0.17481181
202	0xbd364eca	-0.044508733
203	0xbe085864	-0.13314968
204	0xbdf32a8c	-0.118733495
205	0x3e6c0ea7	0.23052464
206	0xbc3674b0	-0.011136219
207	0xbe78af60	-0.2428565
208	0x3e7980a2	0.24365476
209	0x3e059394	0.13044578
210	0xbe8a5137	-0.27015087
211	0x3dbfa8d1	0.09358371
212	0xbe6564c5	-0.22401722
213	0x3e834740	0.25640297
214	0xbe360ac7	-0.17777549
215	0x3cb72f30	0.022361368
216	0x3d89f621	0.067363985
217	0xbca8cfed	-0.02060696
218	0xbe2c5ddb	-0.16832678
219	0xbe23eda7	-0.16008626
220	0x3db213b0	0.08695161
221	0xbe57dc85	-0.21080215
222	0xbcf55029	-0.02994545
223	0x3d067b23	0.032832276
224	0xbe89c797	-0.26910087
225	0xbe482a1d	-0.19547315
226	0x3e70a468	0.23500216
227	0xbe118b9a	-0.1421341
228	0xbd7ee681	-0.062231544
229	0x3d87dbb3	0.06633701
230	0x3d98ba47	0.074574046
231	0x3ce7f6eb	0.028315982
232	0xbd8dd749	-0.06925828
233	0x3d2cf3a2	0.042224534
234	0xbe374a71	-0.17899491
235	0x3e21732a	0.15766588
236	0xbd16ef28	-0.03684917
237	0x3cbd2d5b	0.023092916
238	0xbaf7591d	-0.0018871162
239	0x3dd52c37	0.10408824
240	0x3e598194	0.21240836
241	0xbb3c9b63	-0.002877914
242	0xbe888ad2	-0.26668411
243	0xbdd89d97	-0.10576933
244	0x3d3b1565	0.0456747
245	0x3e1445f2	0.14479807
246	0x3da101a6	0.078616425
247	0xbc167a4a	-0.009184429
248	0xbd8f3816	-0.069931194
249	0xbe7cc068	-0.24682772
250	0x3c88df52	0.01670805
251	0xbd9e1bd3	-0.07720151
252	0x3d296feb	0.0413665
253	0xbe81651b	-0.2527245
254	0xbe924d33	-0.28574523
255	0xbe869643	-0.26286516

net.4.bias f4 [16]
0	0x3ec0cf02	0.37657934
1	0xbd53717c	-0.0516219
2	0xbf6674c8	-0.90021944
3	0xbd238714	-0.039923742
4	0xbd294cb1	-0.041332904
5	0x3f625a26	0.88418806
6	0x3da6f14d	0.08151493
7	0xbe4fcee5	-0.20293768
8	0xbd4a8135	-0.049439628
9	0x3f7f8447	0.99811214
10	0xbe09558d	-0.13411541
11	0xbea99d6f	-0.33127925
12	0x3ef97b3d	0.48726836
13	0x3cea2900	0.028584003
14	0x3fafbec1	1.3730088
15	0xbeb2382e	-0.34808487

net.6.weight f4 [1, 16]
0	0x3d06f8da	0.032952167
1	0xbed63024	-0.41833603
2	0xbb89da92	-0.004206964
3	0xbe47b205	-0.19501503
4	0xbe63dc54	-0.22252017
5	0x3dff829b	0.12476083
6	0xbe9b3b5e	-0.3031873
7	0xbcb92a53	-0.02260319
8	0xbecb952f	-0.39762256
9	0x3b1d02f0	0.002395805
10	0x3df6bb09	0.12047393
11	0x3dcab3e6	0.09897594
12	0x3e55c878	0.20877254
13	0x3cb187e3	0.021671241
14	0x3e967c49	0.29391697
15	0xbe3541cb	-0.1770088

exp_avg f4 [128, 48]
0	0x00000004	6e-45
1	0x00000004	6e-45
2	0x00000000	0.0
3	0x00000004	6e-45
4	0x00000004	6e-45
5	0x80000004	-6e-45
6	0x00000004	6e-45
7	0x00000004	6e-45
8	0x00000004	6e-45
9	0x00000004	6e-45
10	0x80000004	-6e-45
11	0x00000004	6e-45
12	0x00000004	6e-45
13	0x00000004	6e-45
14	0x00000004	6e-45
15	0x00000004	6e-45
16	0x00000004	6e-45
17	0x00000004	6e-45
18	0x00000000	0.0
19	0x00000004	6e-45
20	0x00000004	6e-45
21	0x00000000	0.0
22	0x00000004	6e-45
23	0x00000004	6e-45
24	0x00000004	6e-45
25	0x00000004	6e-45
26	0x00000004	6e-45
27	0x00000004	6e-45
28	0x00000004	6e-45
29	0x00000004	6e-45
30	0x00000004	6e-45
31	0x00000004	6e-45
32	0x00000004	6e-45
33	0x00000004	6e-45
34	0x00000004	6e-45
35	0x00000004	6e-45
36	0x00000004	6e-45
37	0x00000004	6e-45
38	0x00000004	6e-45
39	0x00000004	6e-45
40	0x00000004	6e-45
41	0x00000004	6e-45
42	0x00000004	6e-45
43	0x00000004	6e-45
44	0x80000004	-6e-45
45	0x00000004	6e-45
46	0x00000004	6e-45
47	0x80000004	-6e-45
48	0x00000000	0.0
49	0x00000000	0.0
50	0x00000000	0.0
51	0x00000000	0.0
52	0x00000000	0.0
53	0x00000000	0.0
54	0x00000000	0.0
55	0x00000000	0.0
56	0x00000000	0.0
57	0x00000000	0.0
58	0x00000000	0.0
59	0x00000000	0.0
60	0x00000000	0.0
61	0x00000000	0.0
62	0x00000000	0.0
63	0x00000000	0.0
64	0x00000000	0.0
65	0x00000000	0.0
66	0x00000000	0.0
67	0x00000000	0.0
68	0x00000000	0.0
69	0x00000000	0.0
70	0x00000000	0.0
71	0x00000000	0.0
72	0x00000000	0.0
73	0x00000000	0.0
74	0x00000000	0.0
75	0x00000000	0.0
76	0x00000000	0.0
77	0x00000000	0.0
78	0x00000000	0.0
79	0x00000000	0.0
80	0x00000000	0.0
81	0x00000000	0.0
82	0x00000000	0.0
83	0x00000000	0.0
84	0x00000000	0.0
85	0x00000000	0.0
86	0x00000000	0.0
87	0x00000000	0.0
88	0x00000000	0.0
89	0x00000000	0.0
90	0x00000000	0.0
91	0x00000000	0.0
92	0x00000000	0.0
93	0x00000000	0.0
94	0x00000000	0.0
95	0x00000000	0.0
96	0x0000046e	1.589e-42
97	0x0000046e	1.589e-42
98	0x0000046e	1.589e-42
99	0x00000004	6e-45
100	0x0000046e	1.589e-42
101	0x0000046e	1.589e-42
102	0x0000046e	1.589e-42
103	0x80000004	-6e-45
104	0x000153fa	1.2196e-40
105	0x000153fa	1.2196e-40
106	0x000153fa	1.2196e-40
107	0x00000004	6e-45
108	0x000153fa	1.2196e-40
109	0x000153fa	1.2196e-40
110	0x000153fa	1.2196e-40
111	0x80000004	-6e-45
112	0x00000016	3.1e-44
113	0x00000016	3.1e-44
114	0x00000016	3.1e-44
115	0x00000004	6e-45
116	0x00000016	3.1e-44
117	0x00000016	3.1e-44
118	0x00000016	3.1e-44
119	0x00000004	6e-45
120	0x00000004	6e-45
121	0x00000004	6e-45
122	0x00000007	1e-44
123	0x00000007	1e-44
124	0x00000a79	3.757e-42
125	0x00000004	6e-45
126	0x00000004	6e-45
127	0x00000004	6e-45
128	0x00000007	1e-44
129	0x00000007	1e-44
130	0x00000a79	3.757e-42
131	0x00000007	1e-44
132	0x00000007	1e-44
133	0x00000a79	3.757e-42
134	0x80000004	-6e-45
135	0x80000004	-6e-45
136	0x80000004	-6e-45
137	0x00000007	1e-44
138	0x00000007	1e-44
139	0x00000a79	3.757e-42
140	0x80000004	-6e-45
141	0x80000004	-6e-45
142	0x80000004	-6e-45
143	0x80000004	-6e-45
144	0x00000004	6e-45
145	0x00000004	6e-45
146	0x80000004	-6e-45
147	0x00000004	6e-45
148	0x00000004	6e-45
149	0x00000004	6e-45
150	0x00000004	6e-45
151	0x00000004	6e-45
152	0x00000004	6e-45
153	0x00000004	6e-45
154	0x00000004	6e-45
155	0x00000004	6e-45
156	0x00000004	6e-45
157	0x00000004	6e-45
158	0x00000004	6e-45
159	0x00000004	6e-45
160	0x00000004	6e-45
161	0x00000004	6e-45
162	0x00000004	6e-45
163	0x00000004	6e-45
164	0x00000004	6e-45
165	0x00000004	6e-45
166	0x00000004	6e-45
167	0x00000004	6e-45
168	0x00000004	6e-45
169	0x00000004	6e-45
170	0x00000004	6e-45
171	0x00000004	6e-45
172	0x00000004	6e-45
173	0x00000004	6e-45
174	0x00000004	6e-45
175	0x00000004	6e-45
176	0x00000004	6e-45
177	0x00000004	6e-45
178	0x00000004	6e-45
179	0x00000004	6e-45
180	0x00000004	6e-45
181	0x00000004	6e-45
182	0x00000004	6e-45
183	0x00000004	6e-45
184	0x00000004	6e-45
185	0x00000004	6e-45
186	0x00000004	6e-45
187	0x00000004	6e-45
188	0x80000004	-6e-45
189	0x80000004	-6e-45
190	0x80000004	-6e-45
191	0x80000004	-6e-45
192	0x00000004	6e-45
193	0x00000004	6e-45
194	0x00000004	6e-45
195	0x00000004	6e-45
196	0x00000004	6e-45
197	0x00000004	6e-45
198	0x00000004	6e-45
199	0x00000004	6e-45
200	0x00000004	6e-45
201	0x00000004	6e-45
202	0x00000004	6e-45
203	0x00000004	6e-45
204	0x00000004	6e-45
205	0x00000004	6e-45
206	0x00000004	6e-45
207	0x00000000	0.0
208	0x00000004	6e-45
209	0x00000004	6e-45
210	0x00000004	6e-45
211	0x00000004	6e-45
212	0x00000004	6e-45
213	0x00000004	6e-45
214	0x00000004	6e-45
215	0x00000004	6e-45
216	0x00000004	6e-45
217	0x00000004	6e-45
218	0x00000004	6e-45
219	0x00000004	6e-45
220	0x00000004	6e-45
221	0x00000004	6e-45
222	0x00000004	6e-45
223	0x00000004	6e-45
224	0x00000004	6e-45
225	0x00000004	6e-45
226	0x00000004	6e-45
227	0x00000004	6e-45
228	0x00000004	6e-45
229	0x00000004	6e-45
230	0x00000004	6e-45
231	0x00000004	6e-45
232	0x00000004	6e-45
233	0x00000004	6e-45
234	0x00000004	6e-45
235	0x00000004	6e-45
236	0x00000004	6e-45
237	0x00000004	6e-45
238	0x00000004	6e-45
239	0x00000004	6e-45
240	0x00000004	6e-45
241	0x00000004	6e-45
242	0x00000004	6e-45
243	0x00000004	6e-45
244	0x00000004	6e-45
245	0x00000004	6e-45
246	0x80000004	-6e-45
247	0x00000004	6e-45
248	0x00000004	6e-45
249	0x00000004	6e-45
250	0x00000004	6e-45
251	0x00000004	6e-45
252	0x80000004	-6e-45
253	0x00000004	6e-45
254	0x00000004	6e-45
255	0x00000004	6e-45

exp_avg_sq f4 [128, 48]
0	0x16ba5fc2	3.0110352e-25
1	0x1b88f11b	2.2655123e-22
2	0x00000000	0.0
3	0x18a609ff	4.2920088e-24
4	0x022a20e2	1.2499064e-37
5	0x000013bd	7.081e-42
6	0x0b780586	4.7767218e-32
7	0x132ba310	2.166363e-27
8	0x1ce214d7	1.4960812e-21
9	0x20efea82	4.064336e-19
10	0x00073ce2	6.64689e-40
11	0x1e92ac6b	1.5529662e-20
12	0x0c54ddd3	1.6398639e-31
13	0x0c4089cb	1.4832608e-31
14	0x1248e931	6.3396303e-28
15	0x132cd5d7	2.1814883e-27
16	0x1175e402	1.9397353e-28
17	0x164b7e86	1.6438133e-25
18	0x00000000	0.0
19	0x1368411c	2.9314618e-27
20	0x0000fab7	8.994e-41
21	0x00000000	0.0
22	0x06224cde	3.0525287e-35
23	0x0c1faf11	1.2301597e-31
24	0x0c2ada90	1.3162095e-31
25	0x0fc68d6f	1.9578786e-29
26	0x0fa83045	1.6584672e-29
27	0x1466a3b8	1.164432e-26
28	0x1b8ab715	2.29485e-22
29	0x0ea5fadb	4.0917205e-30
30	0x11e50238	3.6131197e-28
31	0x1532ddd1	3.6121796e-26
32	0x133394c2	2.266632e-27
33	0x179e25fa	1.0220097e-24
34	0x1bd6fa8f	3.556525e-22
35	0x13238411	2.0638606e-27
36	0x17671d2c	7.4676946e-25
37	0x1c06b404	4.4569546e-22
38	0x095ce9e2	2.6591508e-33
39	0x0b5a3544	4.2025345e-32
40	0x107acd16	4.94618e-29
41	0x134fe528	2.6240056e-27
42	0x134fe528	2.6240056e-27
43	0x203f9036	1.6226045e-19
44	0x102396da	3.2262294e-29
45	0x0c64226c	1.757484e-31
46	0x126df2b1	7.5083154e-28
47	0x09f18057	5.813933e-33
48	0x00000000	0.0
49	0x00000000	0.0
50	0x00000000	0.0
51	0x00000000	0.0
52	0x00000000	0.0
53	0x00000000	0.0
54	0x00000000	0.0
55	0x00000000	0.0
56	0x00000000	0.0
57	0x00000000	0.0
58	0x00000000	0.0
59	0x00000000	0.0
60	0x00000000	0.0
61	0x00000000	0.0
62	0x00000000	0.0
63	0x00000000	0.0
64	0x00000000	0.0
65	0x00000000	0.0
66	0x00000000	0.0
67	0x00000000	0.0
68	0x00000000	0.0
69	0x00000000	0.0
70	0x00000000	0.0
71	0x00000000	0.0
72	0x00000000	0.0
73	0x00000000	0.0
74	0x00000000	0.0
75	0x00000000	0.0
76	0x00000000	0.0
77	0x00000000	0.0
78	0x00000000	0.0
79	0x00000000	0.0
80	0x00000000	0.0
81	0x00000000	0.0
82	0x00000000	0.0
83	0x00000000	0.0
84	0x00000000	0.0
85	0x00000000	0.0
86	0x00000000	0.0
87	0x00000000	0.0
88	0x00000000	0.0
89	0x00000000	0.0
90	0x00000000	0.0
91	0x00000000	0.0
92	0x00000000	0.0
93	0x00000000	0.0
94	0x00000000	0.0
95	0x00000000	0.0
96	0x49f4699a	2.0022272e+06
97	0x49f4699a	2.0022272e+06
98	0x49f4699a	2.0022272e+06
99	0x0013c5b5	1.815798e-39
100	0x49f4699a	2.0022272e+06
101	0x49f4699a	2.0022272e+06
102	0x49f4699a	2.0022272e+06
103	0x11227757	1.2816321e-28
104	0x502f6060	1.1769315e+10
105	0x502f6060	1.1769315e+10
106	0x502f6060	1.1769315e+10
107	0x03566489	6.3004356e-37
108	0x502f6060	1.1769315e+10
109	0x502f6060	1.1769315e+10
110	0x502f6060	1.1769315e+10
111	0x11227757	1.2816321e-28
112	0x44459463	790.31854
113	0x44459463	790.31854
114	0x44459463	790.31854
115	0x0000046f	1.59e-42
116	0x44459463	790.31854
117	0x44459463	790.31854
118	0x44459463	790.31854
119	0x000001f4	7e-43
120	0x000001f4	7e-43
121	0x000001f4	7e-43
122	0x42afa060	87.81323
123	0x42afa060	87.81323
124	0x4b2a8512	1.1175186e+07
125	0x000001f4	7e-43
126	0x000016e7	8.216e-42
127	0x0000e700	8.2867e-41
128	0x42afa060	87.81323
129	0x42afa060	87.81323
130	0x4b2a8512	1.1175186e+07
131	0x42afa060	87.81323
132	0x42afa060	87.81323
133	0x4b2a8512	1.1175186e+07
134	0x000001f4	7e-43
135	0x000001f4	7e-43
136	0x000001f4	7e-43
137	0x42afa060	87.81323
138	0x42afa060	87.81323
139	0x4b2a8512	1.1175186e+07
140	0x11227757	1.2816321e-28
141	0x0b17bb73	2.9222563e-32
142	0x10a7f7e8	6.6251846e-29
143	0x0cb5b713	2.799765e-31
144	0x3391187f	6.7565445e-08
145	0x371b2b4c	9.248801e-06
146	0x1cb89485	1.221449e-21
147	0x34b23ce8	3.31994e-07
148	0x1e78ebcc	1.3177772e-20
149	0x1df0d352	6.374597e-21
150	0x31cf2862	6.029084e-09
151	0x2ebada13	8.4970385e-11
152	0x3a275d93	0.0006384488
153	0x3caa4a2f	0.020787327
154	0x233f926f	1.0385139e-17
155	0x3aa6abc9	0.0012715991
156	0x245f23ca	4.838573e-17
157	0x240b13bf	3.0157546e-17
158	0x3b30d763	0.002698385
159	0x2e8144f2	5.878488e-11
160	0x2e967933	6.8427396e-11
161	0x320cfb6b	8.206238e-09
162	0x17a3cdd3	1.0585585e-24
163	0x2fd4d910	3.8716808e-10
164	0x1928e111	8.730848e-24
165	0x189301f6	3.800059e-24
166	0x19bf30af	1.97686e-23
167	0x291842d9	3.380876e-14
168	0x291842d9	3.380876e-14
169	0x2c251b6f	2.346314e-12
170	0x2ce60312	6.537334e-12
171	0x32690d7d	1.3565452e-08
172	0x35a26764	1.2100031e-06
173	0x2b63a37d	8.0873486e-13
174	0x2eb3d506	8.177818e-11
175	0x31c43a54	5.710982e-09
176	0x2e4f11e6	4.7082248e-11
177	0x33cf2862	9.646534e-08
178	0x35a47aed	1.2254728e-06
179	0x2e397975	4.2172005e-11
180	0x3443d429	1.8237974e-07
181	0x351bd9a7	5.8058725e-07
182	0x254e2b2b	1.7882278e-16
183	0x25e7f0c4	4.0235261e-16
184	0x2af363fd	4.3234852e-13
185	0x2f382401	1.6747494e-10
186	0x2f382401	1.6747494e-10
187	0x3b248cf8	0.0025108438
188	0x15f1bdd9	9.763865e-26
189	0x24dc9920	9.5669195e-17
190	0x2a552c59	1.8933587e-13
191	0x29081cbd	3.0222993e-14
192	0x072068e5	1.2067888e-34
193	0x07d08ae7	3.1378e-34
194	0x0577b3c5	1.16469026e-35
195	0x059d9e0c	1.4822266e-35
196	0x07283c76	1.2656683e-34
197	0x06a6c684	6.273395e-35
198	0x0782482f	1.9602652e-34
199	0x000001f4	7e-43
200	0x0cd928c9	3.345869e-31
201	0x0d240e9b	5.0553982e-31
202	0x0c044fa2	1.0192874e-31
203	0x0a0c42b7	6.7533025e-33
204	0x0cea4f97	3.610131e-31
205	0x0cb7c28d	2.8312705e-31
206	0x0d041865	4.0705004e-31
207	0x00000000	0.0
208	0x01d3c0f1	7.7786016e-38
209	0x028ea0fd	2.0957427e-37
210	0x006f3ef9	1.021633e-38
211	0x007b2f39	1.1312706e-38
212	0x01ce23c1	7.5723753e-38
213	0x0161a50b	4.1444386e-38
214	0x023c5eff	1.3839321e-37
215	0x000081a2	4.6503e-41
216	0x0000aa53	6.1101e-41
217	0x00058f7e	5.10653e-40
218	0x0023cbda	3.28737e-39
219	0x0024dc4d	3.385107e-39
220	0x0841e1d0	5.8344266e-34
221	0x00044a87	3.94077e-40
222	0x01a5f398	6.096097e-38
223	0x034fd171	6.107226e-37
224	0x00149f2d	1.893811e-39
225	0x02e1543f	3.3109134e-37
226	0x0494d956	3.4994224e-36
227	0x000170f0	1.3235e-40
228	0x02ae1a6d	2.558217e-37
229	0x02d60bc2	3.1451223e-37
230	0x000001f4	7e-43
231	0x00001012	5.765e-42
232	0x00044098	3.90514e-40
233	0x00235ce5	3.247567e-39
234	0x0023e395	3.295883e-39
235	0x0841c32d	5.8308253e-34
236	0x00007cd4	4.478e-41
237	0x00002147	1.1938e-41
238	0x006d51d9	1.003943e-38
239	0x00000a7f	3.765e-42
240	0x1ffe33e2	1.0765902e-19
241	0x24347154	3.912727e-17
242	0x11cb2ead	3.205652e-28
243	0x21da7827	1.4804059e-18
244	0x132c4890	2.1745228e-27
245	0x12be3d91	1.2005863e-27
246	0x16a22d51	2.620111e-25
247	0x1beaf939	3.887311e-22
248	0x25d3cebb	3.6742751e-16
249	0x298ea9c4	6.3355164e-14
250	0x1855eb81	2.7648504e-24
251	0x2751b048	2.9100139e-15
252	0x1aa7ae88	6.935155e-23
253	0x1a53c01f	4.378897e-23
254	0x235433a8	1.1503482e-17
255	0x1bd8c3be	3.5860698e-22

exp_avg f4 [128]
0	0x00000004	6e-45
1	0x00000000	0.0
2	0x00000007	1e-44
3	0x00000004	6e-45
4	0x00000004	6e-45
5	0x00000004	6e-45
6	0x80000004	-6e-45
7	0x80000004	-6e-45
8	0x00000004	6e-45
9	0x80000004	-6e-45
10	0x80000004	-6e-45
11	0x00000004	6e-45
12	0x00000000	0.0
13	0x00000004	6e-45
14	0x00000004	6e-45
15	0x00000004	6e-45
16	0x00000004	6e-45
17	0x00000004	6e-45
18	0x80000004	-6e-45
19	0x3a6177a9	0.00086008996
20	0x00000004	6e-45
21	0x00000004	6e-45
22	0x00000004	6e-45
23	0x00000004	6e-45
24	0x80000004	-6e-45
25	0x00000004	6e-45
26	0x80000004	-6e-45
27	0x00000006	8e-45
28	0x80000004	-6e-45
29	0x00000004	6e-45
30	0x00000004	6e-45
31	0x80000004	-6e-45
32	0x00000004	6e-45
33	0x00000004	6e-45
34	0x3af27ce4	0.0018500355
35	0x80000004	-6e-45
36	0x00000004	6e-45
37	0x00000000	0.0
38	0x80000004	-6e-45
39	0x00000004	6e-45
40	0x00000004	6e-45
41	0xba5c65f8	-0.00084075285
42	0x80000004	-6e-45
43	0x00000004	6e-45
44	0x00000004	6e-45
45	0x00000007	1e-44
46	0x00000000	0.0
47	0x00000004	6e-45
48	0x00000004	6e-45
49	0x00000004	6e-45
50	0x80000004	-6e-45
51	0xb9b55255	-0.00034584352
52	0x00000004	6e-45
53	0x00000004	6e-45
54	0x80000004	-6e-45
55	0x00000004	6e-45
56	0x00000004	6e-45
57	0x00000004	6e-45
58	0x80000004	-6e-45
59	0x00000004	6e-45
60	0x80000004	-6e-45
61	0xb9b4ccc5	-0.0003448484
62	0x80000004	-6e-45
63	0x00000004	6e-45
64	0x00000004	6e-45
65	0x00000004	6e-45
66	0x00000000	0.0
67	0x80000004	-6e-45
68	0x80000004	-6e-45
69	0x00000004	6e-45
70	0x00000004	6e-45
71	0x80000004	-6e-45
72	0x00000004	6e-45
73	0x00000000	0.0
74	0x00000004	6e-45
75	0x00000000	0.0
76	0x00000004	6e-45
77	0x80000004	-6e-45
78	0x00000004	6e-45
79	0x80000004	-6e-45
80	0x80000004	-6e-45
81	0x00000008	1.1e-44
82	0x00000004	6e-45
83	0x00000004	6e-45
84	0x00000007	1e-44
85	0x00000004	6e-45
86	0x00000004	6e-45
87	0x00000004	6e-45
88	0x00000004	6e-45
89	0x00000004	6e-45
90	0x80000004	-6e-45
91	0x80000004	-6e-45
92	0x00000004	6e-45
93	0xba880e9c	-0.001038033
94	0x80000004	-6e-45
95	0x00000004	6e-45
96	0x80000004	-6e-45
97	0x00000004	6e-45
98	0x00000004	6e-45
99	0x80000004	-6e-45
100	0x00000004	6e-45
101	0x00000004	6e-45
102	0x00000004	6e-45
103	0x80000004	-6e-45
104	0x80000004	-6e-45
105	0x80000004	-6e-45
106	0x00000004	6e-45
107	0x80000004	-6e-45
108	0x00000004	6e-45
109	0x3a2129a0	0.0006147865
110	0x00000004	6e-45
111	0x00000000	0.0
112	0x00000004	6e-45
113	0x00000004	6e-45
114	0x00000005	7e-45
115	0x393a4a30	0.0001776598
116	0x00000004	6e-45
117	0x00000000	0.0
118	0x00000004	6e-45
119	0x00000000	0.0
120	0x39b8b2cb	0.00035228426
121	0xb9a5dad0	-0.0003163428
122	0x00000006	8e-45
123	0x00000004	6e-45
124	0x00000004	6e-45
125	0x00000004	6e-45
126	0x00000004	6e-45
127	0x00000004	6e-45

exp_avg_sq f4 [128]
0	0x135272ff	2.6562424e-27
1	0x00000000	0.0
2	0x42afa063	87.813255
3	0x2f382401	1.6747494e-10
4	0x0023db41	3.292896e-39
5	0x1c1094f2	4.783811e-22
6	0x11216be3	1.2733906e-28
7	0x11231eb7	1.2867897e-28
8	0x00089524	7.88186e-40
9	0x112bd495	1.3555028e-28
10	0x110cfad2	1.1121343e-28
11	0x0001ccc4	1.65292e-40
12	0x00000000	0.0
13	0x041458a2	1.7438015e-36
14	0x0123a6b5	3.0057978e-38
15	0x12c5fc69	1.2494672e-27
16	0x3d0629a1	0.032754544
17	0x176e6eeb	7.7041946e-25
18	0x004f1d1a	7.265444e-39
19	0x3fa83169	1.3140079
20	0x1c214078	5.3353755e-22
21	0x1431a06f	8.967856e-27
22	0x159fce6f	6.4545283e-26
23	0x03d344db	1.2417274e-36
24	0x10e50a84	9.0340776e-29
25	0x0d1a9ce7	4.764378e-31
26	0x0008908e	7.8654e-40
27	0x428c13a0	70.03833
28	0x35efe1f8	1.7872653e-06
29	0x1537b78a	3.7101342e-26
30	0x00000529	1.851e-42
31	0x11001fc5	1.0107209e-28
32	0x1b7b8ab7	2.0807055e-22
33	0x3d0a7009	0.03379825
34	0x403d2103	2.9551399
35	0x112cffe9	1.3647266e-28
36	0x09193f9a	1.844661e-33
37	0x00000000	0.0
38	0x35ca7bfd	1.5086258e-06
39	0x03f0fe1b	1.4164272e-36
40	0x003b27fa	5.432635e-39
41	0x3af4f99e	0.0018690114
42	0x110d3bae	1.1141329e-28
43	0x03b5627b	1.0660834e-36
44	0x1907f562	7.028891e-24
45	0x4299420f	76.62902
46	0x00000000	0.0
47	0x24c68a7a	8.61034e-17
48	0x1d0eb950	1.8889348e-21
49	0x2f344455	1.6395181e-10
50	0x10aa1b48	6.709521e-29
51	0x39a537d9	0.00031512862
52	0x105f3e17	4.4026828e-29
53	0x4242c95e	48.696648
54	0x10f1edbd	9.542403e-29
55	0x175a2030	7.0480225e-25
56	0x3017a02f	5.5161115e-10
57	0x0be668e8	8.875062e-32
58	0x10f7ca3c	9.7735913e-29
59	0x33e20b9f	1.0526059e-07
60	0x33cf7549	9.660523e-08
61	0x3e24813d	0.16064925
62	0x110a2ef8	1.0900754e-28
63	0x00135b4b	1.777624e-39
64	0x33f1b708	1.125573e-07
65	0x0f941c48	1.460482e-29
66	0x00000000	0.0
67	0x1110a92d	1.1411728e-28
68	0x002c12e0	4.047533e-39
69	0x253d463d	1.6416935e-16
70	0x3e982399	0.2971466
71	0x10fae29f	9.895678e-29
72	0x000002c5	9.94e-43
73	0x00000000	0.0
74	0x0a7e24a8	1.22365494e-32
75	0x00000000	0.0
76	0x131421da	1.8696916e-27
77	0x12e9bc55	1.4750795e-27
78	0x002198be	3.085365e-39
79	0x1112514c	1.1542421e-28
80	0x11033028	1.0348917e-28
81	0x42c075cc	96.23007
82	0x2a420599	1.7232603e-13
83	0x0badc9b7	6.694068e-32
84	0x429971ac	76.722015
85	0x423d24d9	47.285984
86	0x0e41f4a8	2.3906884e-30
87	0x00014871	1.17823e-40
88	0x02ffaf81	3.7569617e-37
89	0x12b878e4	1.1641834e-27
90	0x38e62e24	0.00010975849
91	0x112efd48	1.3804228e-28
92	0x304bfd8a	7.421127e-10
93	0x3f075a50	0.5287218
94	0x10ba3cee	7.345794e-29
95	0x049083f5	3.397542e-36
96	0x0f94eeed	1.4685958e-29
97	0x000eef61	1.37157e-39
98	0x04b83e67	4.33155e-36
99	0x368aace6	4.1328485e-06
100	0x30119a6f	5.2970156e-10
101	0x3809e1cd	3.287364e-05
102	0x00440759	6.24745e-39
103	0x11129a8f	1.1564996e-28
104	0x111b1126	1.2232628e-28
105	0x11187bd7	1.2028847e-28
106	0x00bb249a	1.7186368e-38
107	0x10df0414	8.7964274e-29
108	0x092e0777	2.0947998e-33
109	0x3f4b835a	0.794973
110	0x361a7024	2.3013063e-06
111	0x00000000	0.0
112	0x17c7a74e	1.2902307e-24
113	0x1c6b088d	7.776603e-22
114	0x424a32e3	50.549694
115	0x40a07f46	5.0155363
116	0x34a92111	3.1502762e-07
117	0x00000000	0.0
118	0x18157943	1.931902e-24
119	0x00000000	0.0
120	0x3dc45595	0.09586636
121	0x3f3c0508	0.7344518
122	0x4280c77f	64.38964
123	0x19f32a7e	2.5142774e-23
124	0x0a97999b	1.4598551e-32
125	0x2086d689	2.284245e-19
126	0x230257e8	7.065929e-18
127	0x40093d2a	2.1443582

exp_avg f4 [64, 128]
0	0x00000004	6e-45
1	0x00000000	0.0
2	0x80000004	-6e-45
3	0x00000004	6e-45
4	0x00000004	6e-45
5	0x80000004	-6e-45
6	0x00000000	0.0
7	0x00000004	6e-45
8	0x80000004	-6e-45
9	0x00000000	0.0
10	0x00000004	6e-45
11	0x80000004	-6e-45
12	0x00000000	0.0
13	0x00000004	6e-45
14	0x80000004	-6e-45
15	0x00000004	6e-45
16	0x00000004	6e-45
17	0x00000004	6e-45
18	0x00000004	6e-45
19	0x00000004	6e-45
20	0x00000004	6e-45
21	0x00000004	6e-45
22	0x00000004	6e-45
23	0x00000004	6e-45
24	0x00000000	0.0
25	0x00000004	6e-45
26	0x80000004	-6e-45
27	0x00000004	6e-45
28	0x00000004	6e-45
29	0x00000004	6e-45
30	0x00000004	6e-45
31	0x00000000	0.0
32	0x00000004	6e-45
33	0x00000004	6e-45
34	0x00000004	6e-45
35	0x00000000	0.0
36	0x80000004	-6e-45
37	0x00000000	0.0
38	0x00000004	6e-45
39	0x00000004	6e-45
40	0x00000004	6e-45
41	0x00000004	6e-45
42	0x00000000	0.0
43	0x00000004	6e-45
44	0x00000004	6e-45
45	0x00000004	6e-45
46	0x00000000	0.0
47	0x80000004	-6e-45
48	0x00000004	6e-45
49	0x00000004	6e-45
50	0x00000000	0.0
51	0x00000004	6e-45
52	0x00000004	6e-45
53	0x00000000	0.0
54	0x80000004	-6e-45
55	0x00000004	6e-45
56	0x00000004	6e-45
57	0x00000000	0.0
58	0x00000000	0.0
59	0x00000004	6e-45
60	0x80000004	-6e-45
61	0x80000004	-6e-45
62	0x00000000	0.0
63	0x80000004	-6e-45
64	0x00000004	6e-45
65	0x00000004	6e-45
66	0x00000000	0.0
67	0x00000004	6e-45
68	0x00000000	0.0
69	0x00000004	6e-45
70	0x80000004	-6e-45
71	0x00000004	6e-45
72	0x00000004	6e-45
73	0x00000000	0.0
74	0x00000000	0.0
75	0x00000000	0.0
76	0x00000004	6e-45
77	0x00000004	6e-45
78	0x80000004	-6e-45
79	0x00000000	0.0
80	0x00000000	0.0
81	0x00000004	6e-45
82	0x00000004	6e-45
83	0x00000000	0.0
84	0x00000004	6e-45
85	0x80000004	-6e-45
86	0x00000004	6e-45
87	0x00000004	6e-45
88	0x00000004	6e-45
89	0x00000004	6e-45
90	0x00000004	6e-45
91	0x00000000	0.0
92	0x00000004	6e-45
93	0x00000004	6e-45
94	0x80000004	-6e-45
95	0x00000004	6e-45
96	0x00000004	6e-45
97	0x80000004	-6e-45
98	0x00000004	6e-45
99	0x00000004	6e-45
100	0x00000004	6e-45
101	0x00000004	6e-45
102	0x00000000	0.0
103	0x00000000	0.0
104	0x00000000	0.0
105	0x00000004	6e-45
106	0x00000004	6e-45
107	0x00000004	6e-45
108	0x00000000	0.0
109	0x00000004	6e-45
110	0x80000004	-6e-45
111	0x00000000	0.0
112	0x00000004	6e-45
113	0x00000004	6e-45
114	0x00000004	6e-45
115	0x00000004	6e-45
116	0x00000004	6e-45
117	0x00000000	0.0
118	0x00000004	6e-45
119	0x00000000	0.0
120	0x00000004	6e-45
121	0x00000004	6e-45
122	0x00000004	6e-45
123	0x00000004	6e-45
124	0x00000004	6e-45
125	0x00000004	6e-45
126	0x00000004	6e-45
127	0x00000004	6e-45
128	0x80000004	-6e-45
129	0x00000000	0.0
130	0x00000004	6e-45
131	0x00000004	6e-45
132	0x00000004	6e-45
133	0x00000004	6e-45
134	0x00000000	0.0
135	0x80000004	-6e-45
136	0x00000004	6e-45
137	0x00000000	0.0
138	0x80000004	-6e-45
139	0x00000004	6e-45
140	0x00000000	0.0
141	0x00000004	6e-45
142	0x80000004	-6e-45
143	0x80000004	-6e-45
144	0x00000004	6e-45
145	0x80000004	-6e-45
146	0x80000004	-6e-45
147	0x00000004	6e-45
148	0x00000004	6e-45
149	0x80000004	-6e-45
150	0x00000000	0.0
151	0x00000004	6e-45
152	0x00000000	0.0
153	0x00000004	6e-45
154	0x00000004	6e-45
155	0x80000004	-6e-45
156	0x00000004	6e-45
157	0x80000004	-6e-45
158	0x00000004	6e-45
159	0x00000000	0.0
160	0x00000004	6e-45
161	0x00000004	6e-45
162	0x00000004	6e-45
163	0x00000000	0.0
164	0x80000004	-6e-45
165	0x00000000	0.0
166	0x80000004	-6e-45
167	0x80000004	-6e-45
168	0x80000004	-6e-45
169	0x00000004	6e-45
170	0x00000000	0.0
171	0x80000004	-6e-45
172	0x00000004	6e-45
173	0x00000004	6e-45
174	0x00000000	0.0
175	0x80000004	-6e-45
176	0x00000004	6e-45
177	0x80000004	-6e-45
178	0x00000000	0.0
179	0x00000004	6e-45
180	0x80000004	-6e-45
181	0x00000000	0.0
182	0x00000004	6e-45
183	0x80000004	-6e-45
184	0x80000004	-6e-45
185	0x00000000	0.0
186	0x00000000	0.0
187	0x00000004	6e-45
188	0x00000004	6e-45
189	0x00000004	6e-45
190	0x00000000	0.0
191	0x80000004	-6e-45
192	0x00000004	6e-45
193	0x00000004	6e-45
194	0x00000000	0.0
195	0x80000004	-6e-45
196	0x00000000	0.0
197	0x00000004	6e-45
198	0x00000004	6e-45
199	0x80000004	-6e-45
200	0x80000004	-6e-45
201	0x00000000	0.0
202	0x00000000	0.0
203	0x00000000	0.0
204	0x00000004	6e-45
205	0x00000004	6e-45
206	0x00000004	6e-45
207	0x00000000	0.0
208	0x00000000	0.0
209	0x80000004	-6e-45
210	0x80000004	-6e-45
211	0x00000000	0.0
212	0x80000004	-6e-45
213	0x00000004	6e-45
214	0x80000004	-6e-45
215	0x80000004	-6e-45
216	0x00000004	6e-45
217	0x00000004	6e-45
218	0x00000004	6e-45
219	0x00000000	0.0
220	0x00000004	6e-45
221	0x80000004	-6e-45
222	0x80000004	-6e-45
223	0x80000004	-6e-45
224	0x80000004	-6e-45
225	0x80000004	-6e-45
226	0x80000004	-6e-45
227	0x00000004	6e-45
228	0x80000004	-6e-45
229	0x00000004	6e-45
230	0x00000000	0.0
231	0x00000000	0.0
232	0x00000000	0.0
233	0x80000004	-6e-45
234	0x00000004	6e-45
235	0x80000004	-6e-45
236	0x00000000	0.0
237	0x00000004	6e-45
238	0x00000004	6e-45
239	0x00000000	0.0
240	0x00000004	6e-45
241	0x80000004	-6e-45
242	0x80000004	-6e-45
243	0x00000004	6e-45
244	0x00000004	6e-45
245	0x00000000	0.0
246	0x80000004	-6e-45
247	0x00000000	0.0
248	0x00000004	6e-45
249	0x00000004	6e-45
250	0x00000004	6e-45
251	0x00000004	6e-45
252	0x80000004	-6e-45
253	0x80000004	-6e-45
254	0x00000004	6e-45
255	0x80000004	-6e-45
