src/model_data/Belgian_Grand_Prix_model.pth (torch, 197961 bytes, 21 tensors)

net.0.weight f4 [128, 48]
00000000: 300f 263e 84dd 4dbe 1c87 783d 71cb 1abe
00000010: df51 a63e 2e37 303e 40d1 8c3d f8ca 95be
00000020: fe81 7cbd f297 dc3d 5131 1ebe b6fb 06be
00000030: 5ae3 a8bd 002d cb3d 58ca fabc 70b7 cdbd
00000040: 5871 ebbd 02b0 debd b6fa 203f 6be4 c7bd
00000050: ad72 08bd 20a0 0b3e 202f f83c 1a74 cc3e
00000060: 5510 103f 8993 0bbe bcfe a5be f55d 73bf
00000070: daaa 5dbe d4cb 13bf 2bdd b63e 5f5c ab3e
00000080: 1f60 833c 9014 2bbf 12f6 48be b63a 57bd
00000090: 8dea 2ebe 53ee eebd 9495 2c40 94e3 2540
000000a0: e9da e43f d9e6 713d 1a25 483e 077d b1be
000000b0: e688 36bf 0775 86bf d7dd 3e3e 16f3 57bf
000000c0: e035 a9be 8794 64be a183 19bd e8ef edbd
000000d0: 6348 343e 9259 b03e fc8d 27bd 2543 8f3e
000000e0: 9e01 c73d 1580 403d 4ad8 d63d e268 883c
000000f0: 3474 65be 7e7f 53bd 34a0 ecbd a1c3 883e
00000100: b14a 62be 61be 3bbe e7d6 a03c 3b41 63be
00000110: 42a0 a9be 064a bfbc 3086 39be c16a 95be
00000120: ed03 b0bc c82b 28be 1837 963c 87c7 d03e
00000130: e855 eb3d 8d6d 073f 2985 6dbe 58fc 25be
00000140: bbe1 8fbc 1b06 c13e 3811 05be eef7 70be
00000150: 5acb 083f 1339 a7bd ee62 39bf c867 0dbf
00000160: 687e 93be b327 5e3b 1e9e 083e 1f1a 943e
00000170: 832a c83e e49b 58be f7a8 b7be 8739 203f
00000180: 50be 423e 92aa f8bd d217 733e effc 12be
00000190: 99a8 8ebd 7ea3 023e 0c76 04bd 58c6 e4bf
000001a0: cd21 2dbd 7caa 20be 805c 60bd 1e31 61be
000001b0: 39af c43d 241e 1b3e 6a0d ddbd d401 91bd
000001c0: 8855 ed3d 68d3 c13b 6379 dc3d 076d 04be
000001d0: f248 4abd 9a96 7abc 8c6e 34be 4607 ad3c
000001e0: c7f3 6a39 f8b5 29be aa50 bb3d 7172 70be
000001f0: cc12 3b3d 761b 8fbe 4459 ad3d 6444 f23d
00000200: 9d0c 3ebe 8060 a1be 18eb aa3d a5f1 41be
00000210: d029 58be f2fc c5ba 3393 f13e d2a0 f33e
00000220: 5e3f 853e 83ae b63e 54a4 9e3e a90f ac3e
00000230: 8a97 8ebe 3812 a1bf 4874 bbbf 309b 6dbf
00000240: 5da2 11be aeb1 dbbc 64f1 5dbd 76eb 3fbe
00000250: fe79 7bbc 5475 0bbc 23b0 813d d998 a03a
00000260: 053b e33b b2da 58bd 09d9 2bbe ecef 71be
00000270: d7e8 b6bb e093 043e 4ed5 41bd acdf 8b3c
00000280: 37a1 42be 2cad 86bd eacc f536 4bb4 f7bd
00000290: 7b59 fcbd ebb2 263e a5f8 61bc 9b69 65bd
000002a0: c2fd 133e 3651 943d 34ca 8cbd 7493 fdbc
000002b0: 8442 40be fdb2 18be 3d1b d4bd b2be da3d
000002c0: 7e34 4dbe c990 b6bd 6ede 5bbd 36ef 80be
000002d0: d367 6fbe 81b8 4d3d 9a84 bc3b bb60 853e
000002e0: 73a4 1abd 195c d1bd 4375 0cbe 84a9 af3d
000002f0: 0aa6 e8bd f1d8 4bbc a02e 89bd 0ebe 40be
00000300: 84f2 473e 1be8 523d 9499 25bb 3661 f5bd
00000310: c451 adbd 4b34 ba3d 6b40 233e e5bf 883e
00000320: a045 163d ff03 27be 7d9c 6a3d 6595 06bd
00000330: b14f 913d 2195 33bd f6e8 bebd 6140 fd3e
00000340: c3a0 1a3e d522 5ebe deff bb3d f9f1 77be
00000350: 1d00 bdbd 4512 18be d57d 253d c7d8 1c3e
00000360: 1c03 1a3d 3925 353b d391 0fbe 94f7 12bf
00000370: 170e 90be 3584 b7be 5301 483d 6d45 86bd
00000380: 2711 7cbe 7a8d c6be 6b56 b0be 9881 43be
00000390: b5dd ecbe c848 fbbe f5de 4f3f eda3 e13e
000003a0: ba31 ac3e 7b47 95bb 9dad 3c3e 533d 77be
000003b0: 6b5a fd3e d4d9 c7be 5cc3 97be d861 febe
000003c0: e5bb e3be 816b 34be f6e8 02be 51bb edbd
000003d0: f548 9abe d4af 8dbe f892 0ebf 12d7 983f
000003e0: f590 20be cfbd 3ebd 2a26 103e 1e7b 9dbd
000003f0: 0a5e 833b f6ec 2a3e 8cbc 1d3e 4c69 0c3f
0.16216731 -0.20104033 0.060675725 -0.15116669 0.32484338 0.1720855 0.06875849 -0.29256415
-0.061647408 0.10771169 -0.154485 -0.13181958 -0.08246489 0.099206924 -0.030614063 -0.100447536
-0.11496228 -0.108734146 0.62882555 -0.09760364 -0.03331249 0.13635302 0.030295908 0.39932328
0.5627492 -0.13630499 -0.3242091 -0.9506524 -0.21647206 -0.5773289 0.35715613 0.3346891
0.016037045 -0.6682825 -0.19625118 -0.052546225 -0.17081662 -0.116665505 2.6966295 2.5920153
1.7879306 0.059058044 0.19545403 -0.346657 -0.7130264 -1.0504464 0.18639313 -0.84355295
-0.33048916 -0.22322284 -0.037479047 -0.11618024 0.17605738 0.34443337 -0.04090689 0.27980915
0.09717105 0.04699715 0.104904726 0.016651575 -0.22407609 -0.051635258 -0.11553994 0.26711753
-0.22098805 -0.18334343 0.019633723 -0.22192852 -0.3313008 -0.023350727 -0.18117595 -0.2918301
-0.021486247 -0.16422951 0.018336818 0.40777227 0.11490995 0.52901536 -0.23195328 -0.16209543
-0.017563691 0.3769997 -0.1299485 -0.23532078 0.5343529 -0.08165183 -0.7241658 -0.5523648
-0.28807378 0.0033898174 0.13341567 0.2892618 0.39094934 -0.21153218 -0.35871097 0.6258778
0.19017911 -0.12141909 0.23739555 -0.14354299 -0.06965751 0.1275768 -0.03233914 -1.787303
-0.042268563 -0.15690035 -0.054775715 -0.21991393 0.096037336 0.15148216 -0.10793574 -0.07080427
0.115885794 0.005915094 0.1076534 -0.12932216 -0.049385972 -0.015294695 -0.17620295 0.021121632
0.00022406793 -0.16573322 0.09146245 -0.23481156 0.045672223 -0.2795064 0.08464292 0.11829451
-0.18559499 -0.31518936 0.08345622 -0.18939836 -0.211097 -0.0015105291 0.47182617 0.47583634
0.26024908 0.35680017 0.30984747 0.33605698 -0.2784999 -1.2583685 -1.4644861 -0.9281492
-0.14222093 -0.026818123 -0.054185286 -0.18742165 -0.015348909 -0.00851186 0.063324235 0.0012252583
0.006934526 -0.05294294 -0.16782011 -0.23626679 -0.005581956 0.12947035 -0.047322564 0.017074428
-0.19006811 -0.06575999 7.325424e-06 -0.12094935 -0.123217545 0.1627919 -0.013792192 -0.056008916
0.1445227 0.07242052 -0.06874505 -0.0309541 -0.18775374 -0.14912029 -0.10356758 0.106809035
-0.20039555 -0.08914334 -0.053678922 -0.25182503 -0.2337945 0.050224785 0.005753112 0.26050362
-0.037754487 -0.10222644 -0.13716607 0.085772544 -0.113597944 -0.01244186 -0.06698346 -0.188225
0.19526106 0.051490884 -0.0025268542 -0.11981432 -0.08462861 0.09092005 0.15942542 0.26708904
0.036687493 -0.16310118 0.057278145 -0.032857317 0.07095278 -0.043843392 -0.093217775 0.4946318
0.15100388 -0.21692975 0.09179662 -0.24213399 -0.09228537 -0.1485072 0.040403206 0.15317069
0.03760062 0.0027640595 -0.14020471 -0.57409024 -0.2813575 -0.35843053 0.048829388 -0.06556211
-0.24615918 -0.38779813 -0.34440932 -0.19092405 -0.462629 -0.49078965 0.8119958 0.44070378
0.33631688 -0.0045556403 0.18425603 -0.24144487 0.49483046 -0.39033377 -0.29641235 -0.49684024
-0.4447929 -0.17619134 -0.1278418 -0.116079934 -0.30133787 -0.2767321 -0.55693007 1.1940634
-0.15680297 -0.046567734 0.14077058 -0.07689498 0.004009013 0.16691956 0.15403956 0.5484817

net.0.bias f4 [128]
00000000: 792a 83be 0d20 543e 7f48 9cbd ddb3 91bd
00000010: 6201 f83d 0bbe 1a3f 40e3 01be 0527 c73e
00000020: cef5 d73e 0000 0000 99bb 0bbe c289 243c
00000030: 2a70 82bd bae4 ec3e 5808 b03e 056b 14be
00000040: 0093 c1bd 82e1 033f 090f 8bbd a742 53bd
00000050: 7070 65bd 847b 043f 433d 183e a8d9 a93e
00000060: c7ce 443e b1db ef3d 892b 703e 2603 16bd
00000070: f0be eb3e e719 1dbe 0000 0000 03e1 ac3e
00000080: 5192 b43e 0925 7c3e 0e25 bd3a 1668 093d
00000090: 716a d73e 14d0 9fbd a2e0 cb3e 01e4 3b3e
000000a0: cada fd3d 0000 0000 d994 e0bc 04d0 8fbc
000000b0: 6051 f63e c23d c2bd b6a7 d53d 0e1c d3bd
000000c0: 4474 fbbd 8628 93bd 0000 0000 2c10 71be
000000d0: 840d c0bb 687d b4bd ef12 043f 0443 b7bc
000000e0: cd70 033f d9e7 033f 0000 0000 bdbd c63e
000000f0: 7e39 ebbd 61a3 97bd eb5b df3e eec1 783d
00000100: 96aa fbbc 7a0f 14bd dcbd 003f 5079 ff3e
00000110: efb9 ed3e 14e7 21be 0cda b5bd a9ec e23e
00000120: 0000 0000 a8b7 0bbe b75d a2bd 6e8f 12be
00000130: 988a b3bd af56 14be 69a2 2c3c 6f2c 13bd
00000140: 9de7 5cbd 4c95 d0bd 02b9 173d 3bb7 653e
00000150: da77 c7bd 55ec 00be 40ab 8bbd 062a f8be
00000160: e4bc 89bd 06e2 893e db92 043f 0000 0000
00000170: c338 f83e a71a 0dbf b572 013f 3afe 0ebd
00000180: 7dca 51bd d41d 013f ba9a 6b3e cf46 82bd
00000190: 1355 733e b3a5 d139 0000 0000 7168 cabd
000001a0: c63f f73e 35e2 d53e 58c6 963c 8e32 3abd
000001b0: 18e2 023f 4700 4bbe c66f 2abd 2c5b 26bd
000001c0: 0000 0000 bef3 88bd 2006 e73e 3edc f53e
000001d0: e211 013f 53f1 9d3e ad42 9bbd 882a 19bf
000001e0: c1be 74be 5bbb 53be 688f ab3e 4e45 963e
000001f0: 441c 023f b146 023f 3880 9e3e 0000 0000
-0.25618342 0.20715351 -0.07631015 -0.07114384 0.12109639 0.6044623 -0.12684345 0.38896957
0.42179722 0.0 -0.13645782 0.01004261 -0.0636905 0.46268255 0.34381366 -0.1449395
-0.09451866 0.5151597 -0.06789977 -0.051577237 -0.056015432 0.5175097 0.1486712 0.3317387
0.19219504 0.11711825 0.23454107 -0.036624096 0.4604411 -0.15341912 0.0 0.3376542
0.3526788 0.24623503 0.0014430599 0.03354653 0.42073396 -0.0780336 0.3981982 0.18348695
0.12395246 0.0 -0.027414726 -0.017555244 0.4810896 -0.094844356 0.10432379 -0.103080854
-0.12278035 -0.071854636 0.0 -0.23541325 -0.005860986 -0.08812982 0.5159139 -0.022370823
0.51343995 0.51525646 0.0 0.38816634 -0.11485575 -0.07404209 0.43624815 0.06073182
-0.03072099 -0.036147572 0.502897 0.49897242 0.4643092 -0.15810806 -0.0887948 0.44321182
0.0 -0.13644278 -0.07928031 -0.14312527 -0.08766669 -0.14486192 0.0105367685 -0.035931047
-0.05393182 -0.10184726 0.03704167 0.22433178 -0.09739657 -0.12590154 -0.06819773 -0.4846956
-0.06725481 0.26930255 0.51786584 0.0 0.48480806 -0.55118793 0.50565654 -0.034910418
-0.0512185 0.5043614 0.23008242 -0.06361162 0.23762922 0.00039987042 0.0 -0.09883202
0.48290843 0.41774145 0.018405125 -0.04545837 0.5112624 -0.19824325 -0.0416105 -0.040614292
0.0 -0.06687115 0.4512186 0.48019594 0.5041791 0.30848178 -0.07581077 -0.5983052
-0.23900892 -0.20676939 0.33507848 0.2934975 0.5082438 0.50889117 0.30957198 0.0

net.2.weight f4 [64, 128]
00000000: f836 dcbd d3fb 74bd 8f29 da3d fca7 0f3e
00000010: fda8 913c 0b39 efba 29d3 bdbd 5e86 e13d
00000020: 0ca9 213e d7a2 f13d 346c ca3d 3062 1f3c
00000030: da11 8dbd 358e 31be 8017 d13c 00ee a83d
00000040: bfa7 8abd 6fd1 f9bd aae3 9cb9 b384 b93d
00000050: 6a7f f6bd 9420 283e 6248 053e 1225 42be
00000060: 7767 a3bd c2fb c53d 6b43 0dbe 933c fd3d
00000070: 411c 653d f4ea c13d 9bb6 8cbd af4d 8bbd
00000080: 2eb1 093e 7bc4 33be 887c 91bd e3d2 c03d
00000090: 250e a4bd a397 e53b 18ae dd3d f6b5 733d
000000a0: 94f7 0a3e 4b39 173e 8970 babd 4ead b3bd
000000b0: a7af 56bd 3412 903d f784 133d 27be 083d
000000c0: 386d 1b3d b196 1abe 7e6c e63d 790a 9bbd
000000d0: d3f4 7c3c 11c7 10be ca5e 18be 739e 9d3c
000000e0: 09da 95bd 5b3f e9bd 132b 053d ffd7 db3c
000000f0: 0e22 e23d 048f a83d 8d26 9c3d 84f7 43be
00000100: 7e02 dd3d 66d0 2bbe ab1f 5a3d 593b a6bb
00000110: c029 bcbd 75d5 87bd 153e 38bd 2716 cdbd
00000120: f189 c8bd 494a d43c 983a 43be 7e11 113d
00000130: 5108 0bbe 95dd c1bd 5e81 d6bd b03c 513d
00000140: 944c 3abc 434e 3fbd 9e7d 753d 8dab 1ebd
00000150: a186 ee3d 1a12 a73d bc86 ab3d 59b7 fc3d
00000160: aeef 2cbe f77f a23d aad6 913c 7ee9 583d
00000170: 57d6 08be 5eba 4fbe 5e78 0bbe 9a86 823c
00000180: 5cc4 22bc 9867 e93d be2c 4fbe 53b9 79be
00000190: 4e75 3ebc d8e2 03bc b206 70bd bcfe 0cbe
000001a0: 4635 71bd 5d22 1bbe 2c8c aa3d e28d c6bd
000001b0: fd60 2f3e 8f39 4f3d d3d1 40be 6002 80bd
000001c0: 9f05 ddbc cf2e 123d 29c4 7cbc 5e46 32bd
000001d0: 8016 9fbd 2ffd 013e 15f7 01bd 4c0f 23bd
000001e0: ecd8 1dbe 17e4 f53b 5e37 b2bd be6a 0dbe
000001f0: a676 833d a435 09bd 0f79 1fbe 39f2 343e
00000200: 08a3 ffbc b2e1 a6bc e201 c33b fd7e d73c
00000210: ded5 1c3c 92c0 26bd ee76 d7bd bc23 2ebe
00000220: e3b4 13be 7bf7 d43d 2fa2 f4bd 4825 883d
00000230: 2682 03be a1ba c8bd 1bf8 013e 0ab5 52bd
00000240: e961 94bc d0f6 113f d795 1ebc 68c9 0b3e
00000250: 9ad0 523c 30b3 c43e 1ab8 1cbe a6a7 a2bd
00000260: 3f31 4c3d a006 ebbc feae d03d 1824 05be
00000270: e4b9 9dbd c3b5 903d cafd 1f3e 3c1d 883c
00000280: fc8f b73d 559b e23d f3db 693c ae95 1cbe
00000290: ba38 283f af84 3d3e ec91 183f 1852 f4bd
000002a0: 8dbf cebd 4146 293e 58e6 a03d cf47 ff3d
000002b0: 17fb 273f 39f3 84bd 4079 f63d ee28 a93c
000002c0: 26ad 34be e1a2 233e 8023 0e3e 0c75 8cbd
000002d0: bd7c d93c 4dbd 963d 1df4 b93e 64ea 273d
000002e0: 29f2 c43e 96e5 043f db89 fabd d175 f33e
000002f0: bba5 fcbd 5ab3 203e d7df 263e c2cb 1a3d
00000300: aeb1 1fbe 6fca 00be 6593 de3e 4366 153e
00000310: dd69 013f 4975 95bc d36b 4abd 13d7 c23c
00000320: 491c c13d 36b8 8ebd 928d debc 8a34 0d3e
00000330: ec3e bc3d 97fd 40bd b279 cebc d89f cbbd
00000340: 39f6 21be bf56 dfbd 6401 e8bd 153d 57be
00000350: 861d 2dbc 8a30 523c ee6c 31bd c498 0dbe
00000360: 166a a0bd fb80 2abe db13 e83e 9383 c63d
00000370: 2047 233e 3f0d 123e 89ad 023f 5e22 183c
00000380: 64cd aebd 1319 213f 82c5 53bd 3770 273e
00000390: fe71 5ebd 93ac 033c b0ae ddbd 8cb8 b2bd
000003a0: a4f4 853d b34c 4e3c cf8b 1dbe 4b4c 103e
000003b0: e263 fb3e e6cc f73d 2506 633d aa53 443d
000003c0: a6b0 b43d dcfe c13d 2ed2 e13e 07ed bc3c
000003d0: 999a 0c3f b523 043d 5007 20be 2bf2 40bd
000003e0: 5dfa 8bbd b0c9 113d 06b8 00be cc21 6dbc
000003f0: d25e 223f 00df b23e 4ad3 01be bc50 95bc
-0.10752672 -0.05981047 0.10652458 0.14028925 0.017780775 -0.0018251253 -0.09268791 0.11011957
0.15787143 0.11798637 0.09883919 0.009728 -0.068881705 -0.17339404 0.025523901 0.0824852
-0.06770276 -0.121981494 -0.00029924262 0.090585135 -0.12036021 0.16418678 0.13015893 -0.18959454
-0.07978719 0.096671596 -0.13795249 0.12365069 0.05593515 0.09468642 -0.06870767 -0.06801926
0.13446495 -0.1755542 -0.071038306 0.094152234 -0.0801051 0.007006602 0.108242214 0.059499703
0.13571006 0.1476795 -0.09103496 -0.087732896 -0.05241361 0.07034722 0.036015477 0.03338447
0.037945956 -0.15096547 0.11251162 -0.07570357 0.01543923 -0.14138438 -0.14879909 0.019240594
-0.073169775 -0.11389037 0.032511782 0.026836393 0.11041652 0.08230403 0.076245405 -0.19137388
0.10791491 -0.16778716 0.053252857 -0.0050729928 -0.09187651 -0.066325106 -0.04498108 -0.10013991
-0.09791935 0.025914328 -0.1906532 0.035417072 -0.13577391 -0.094660915 -0.104738936 0.051083267
-0.011370797 -0.046705496 0.05993425 -0.038737822 0.11646772 0.081577495 0.08375308 0.12339658
-0.16888306 0.079345636 0.017802555 0.05295705 -0.13363014 -0.20285937 -0.13620135 0.015933324
-0.009934511 0.11396712 -0.20231912 -0.24387102 -0.011624647 -0.008049689 -0.058600135 -0.13769048
-0.058888696 -0.15149827 0.08327517 -0.09695031 0.17126842 0.050592 -0.18830042 -0.06250453
-0.02698022 0.03568917 -0.015427628 -0.04352414 -0.077679634 0.12694238 -0.031729776 -0.03980951
-0.1541478 0.007503997 -0.08701967 -0.1381025 0.06419115 -0.03349842 -0.15573524 0.17670526
-0.031205669 -0.020371292 0.005951152 0.02630567 0.009572474 -0.040710993 -0.10520731 -0.17005819
-0.14424472 0.10398766 -0.119449966 0.06647736 -0.12842616 -0.09801222 0.12692301 -0.051442184
-0.018113093 0.5701723 -0.009679279 0.13651049 0.012867117 0.3841796 -0.15304604 -0.07942133
0.049851652 -0.028689682 0.10189627 -0.1300205 -0.077014714 0.07065918 0.15624157 0.016615503
0.0896301 0.110647835 0.014273631 -0.15291473 0.6571156 0.18507646 0.5959766 -0.11929721
-0.10095129 0.16530706 0.078564346 0.12464868 0.6561751 -0.064917035 0.12034845 0.0206494
-0.17644176 0.15980102 0.1388073 -0.068582624 0.026548738 0.07360325 0.36319056 0.040995017
0.38466004 0.5191282 -0.12233325 0.47550824 -0.12336298 0.15693417 0.16296326 0.037791975
-0.15595123 -0.12577222 0.43471828 0.14589791 0.5055216 -0.018244402 -0.049419235 0.023784196
0.09429223 -0.06968729 -0.027167115 0.13789573 0.09191689 -0.047116842 -0.025204513 -0.09942597
-0.15816583 -0.109052174 -0.1132839 -0.21019395 -0.010566121 0.012828955 -0.043316774 -0.13827807
-0.07832734 -0.16650765 0.4532765 0.096930645 0.15945101 0.14262865 0.51046044 0.0092855375
-0.08535269 0.62928885 -0.05170203 0.163514 -0.05430793 0.00803675 -0.108243346 -0.08726606
0.06540802 0.012591529 -0.15385364 0.14091603 0.49099642 0.12099628 0.05542578 0.04793135
0.088227555 0.09472439 0.44105667 0.023062242 0.549234 0.032260615 -0.1562779 -0.04710595
-0.068348624 0.035592735 -0.125702 -0.01447339 0.63425934 0.3493576 -0.12678257 -0.018226974

net.2.bias f4 [64]
00000000: 69fe 38bd 01a2 8c3e 9d22 b6bd 90b7 b5be
00000010: a307 8ebd 1762 11bd 5004 7abd ae53 8ebd
00000020: 5fcc 9dbd f419 cebd 85fb 043e 36e1 ec3e
00000030: 9806 dabc 7ebf 8c3e 8e39 74bd b406 89bd
00000040: 62a6 033f 4104 123e 0327 1bbd be24 d8bd
00000050: 9291 92bc 9bb2 703e 6e8a 2f3f 8887 e23d
00000060: 774b 4dbd 059f 8ebd 39b7 03be 080b 97bd
00000070: 7119 02bd c11b 02bd 9409 fbbd 8b4a dd3d
00000080: 0000 0000 3f0f bc3b d718 063d ab1a 82bd
00000090: 2cc5 8abd 1e95 bb3e aaca c33e e35e 543e
000000a0: c25e 663e 42c7 dbbd 7029 a73e 0bb6 833d
000000b0: 6e1d cabc 1b25 a9bd c718 02bd 1cb3 b8bd
000000c0: 6212 dbbd 6242 bd3e 476f 03bd 21bb 45bb
000000d0: d978 6dbd 20e7 29bd c6dd 8cbd a1ac 0abe
000000e0: 55d6 a9bc 3b53 46bd 3466 40bd c860 c9bc
000000f0: 75be 3fbe c839 99bc 0836 55bd b750 02be
-0.0451645 0.2746735 -0.08893321 -0.3549161 -0.0693505 -0.035493936 -0.06103927 -0.069495544
-0.07704996 -0.10063544 0.12986572 0.46265572 -0.026614472 0.27489847 -0.0596252 -0.06690732
0.51425755 0.14259435 -0.037879 -0.10553883 -0.017891679 0.23505633 0.685706 0.11061007
-0.050120797 -0.06963924 -0.12862863 -0.07375151 -0.031762544 -0.03176475 -0.12257686 0.108052336
0.0 0.005739122 0.032738533 -0.06352743 -0.06775889 0.36637205 0.38240558 0.20739321
0.22497085 -0.10731365 0.32648802 0.06431206 -0.024672236 -0.082590304 -0.03176191 -0.090185374
-0.106968656 0.3696471 -0.032088544 -0.0030171352 -0.057976577 -0.041480184 -0.068782374 -0.13542415
-0.020732084 -0.04841922 -0.04697247 -0.024582282 -0.18724997 -0.01870431 -0.05205348 -0.12726103

net.4.weight f4 [16, 64]
00000000: 546f 473d c8ea 4cbe ecda ad3d c22c cdbd
00000010: a4cd 83be 05dd 8d3b fe9d 57be a400 7d3e
00000020: 6c8c a03d e318 433e f53a d73d b337 813e
00000030: 5f27 0ebe cd7e d23d a6d2 7bbe b76e 6a3e
00000040: 9a48 b2be 0b46 b7bd d2ef 8dbe 1f8d e93d
00000050: 84a2 693e 8de7 b8bd 5814 49bd 050a 11be
00000060: 9ef4 6e3e 39f6 a53d 3e53 9ebd b876 00bd
00000070: e5b1 753e 056e 0cbe 1976 853d 5582 2abe
00000080: afbf 233e a0a8 8cbe c42c 823c a79c 8e3d
00000090: 2aca d6bd 6e51 da3d a323 edbc 28e6 ab3c
000000a0: 9892 2abc a73e bd3d 2ef2 ff3b da78 2abe
000000b0: 65e4 853e f2e5 61be 6929 873e 4489 66bd
000000c0: e634 4f3d 2418 79be 67ee 123d 0146 98be
000000d0: abbc 0c3e c55b 853d ae1e eabd 15cc 4d3e
000000e0: 89a3 adbd 47da 7c3e 1424 103e ea31 76be
000000f0: d947 533c 60df ec3d 90be 243e 5134 d03d
00000100: 4baa 87bc 6f3c 6c3e e5d5 2b3e d2dc cfbe
00000110: ffec 073d 1848 3abe bda1 ea3d a2b6 a23d
00000120: ae38 34be 5867 1dbd f5f5 dbbd 70e9 f53e
00000130: b3ec 73be d497 ea3c 9365 e83d fcb6 5bbd
00000140: b55a d53e 49f1 583e 6c9f 413e d3a2 3abe
00000150: 9e2e 463e e376 70bd a0a1 5cbe b29b 243e
00000160: 3286 a93d f268 8cbd 7884 5bbd a5ab 343e
00000170: 51a1 4bbe 970e 553d e67d a7bc 4b82 193e
00000180: 9624 6f3e af9e 95bd b6cb f03b aa9e 9dbc
00000190: 508e 1abe 4aca 043f 71ee b13e c24f 40be
000001a0: 23f4 3b3e 767d 3dbd c2fb 493e 63e1 973d
000001b0: c6be 4abc 04e1 1cbc 7f24 103e 21e5 123c
000001c0: a5dd 523d 06ba c63e 88cd 833d 9bb2 6c3d
000001d0: b1f8 53bd 7838 a4bd 5505 263e d707 56be
000001e0: 9016 ef3d 53c7 333c 2bbc 02be f67e f7bd
000001f0: cb9a e9bd 9d82 623e 17bf 203b 5667 f5bd
00000200: d1f1 803d f117 7f3d 81b5 953d 8344 943d
00000210: 8c1c 303d 9622 873e 71d6 8abd 27ed 473e
00000220: 377a c63d 8825 0fbe e6e5 383e 7395 82be
00000230: f452 01be 7447 833c f586 82be ff9f ab3d
00000240: c70d 423e 26e8 b0bd 289a 393e 39ad 4d3e
00000250: 22c0 733c dbda 61be 684f 5bbe a919 c3ba
00000260: fe3c 293d 8f98 c1bd bdcf 14bd ce40 7a3e
00000270: d1f6 a6bd 5a32 4e3c 4a46 043d 06af 8e3d
00000280: 9d02 043e 0028 813c 53f1 053e 354a 673e
00000290: 61fb 323e c5f8 73be efe3 2e3e 860b 53be
000002a0: 0bff 90be 1ecb 72be 8d2f 893d dd12 2cbe
000002b0: 47e8 57be 687b 633d 4ea6 723e 72c7 adbc
000002c0: 6d54 b4bd 30fe 213e 54e6 c6bd 5ad8 243e
000002d0: b2ef 0dbe 8a82 42be 4929 4d3e 66aa afbc
000002e0: 0d74 51be 20df 003e f1b6 7dbe 2934 7ebe
000002f0: c0f7 85bd c672 e8ba 28d0 1fbe d40e c9bd
00000300: 2459 393d 68b1 27be 71a3 30be 8a44 053e
00000310: 2542 bdbc b504 04bd fc33 7e3e d916 5d3e
00000320: 12bd 043d 7439 243e e353 703e 3574 643d
00000330: e038 52be a08a 8a3e 7726 dd3d bc37 483e
00000340: f8d2 0ebd a42b d5bd 7ddc 7b3e da9a 543d
00000350: dd2e 8bbe 14ec 54be ef59 f9bd 3c0a cd3d
00000360: 0528 883e 4831 86bd 48da fb3d 496e 0cbe
00000370: b877 7a3e 95df 96bd 4f92 37be 2e0d 853e
00000380: 0167 563d d514 2bbe f6ba 90bd 58a1 cd3b
00000390: 0c43 643e 5b3f 92bd c6bc 87be 5df7 46bb
000003a0: eb97 15be 96e8 cbbd c391 29be 7a7d 25be
000003b0: 083a 423e 3fcf ac3d d7a6 e43c 7798 5b3e
000003c0: 53b8 903d 0af4 87be faec 00be 0079 f4bc
000003d0: 69ef 6bbe 718e 2a3e bd46 e83d 83d2 513e
000003e0: b267 2ebd c82d 0e3e 1b49 56be 5d4a db3d
000003f0: 523c 80be 64a0 283e 5baa e73d 4d28 57be
0.048690155 -0.20011437 0.08489022 -0.100183025 -0.2574283 0.004329326 -0.21056363 0.24707276
0.07839283 0.19052462 0.10509292 0.25237808 -0.13882206 0.102780916 -0.24592075 0.22893797
-0.34821016 -0.089489065 -0.2772203 0.1140387 0.22815901 -0.0902854 -0.049091667 -0.14163978
0.23335502 0.08103604 -0.07730721 -0.03136322 0.23993643 -0.13713844 0.06516666 -0.1665128
0.1599109 -0.274724 0.015890487 0.06963473 -0.104877785 0.10660063 -0.028947657 0.02098377
-0.010410927 0.092404656 0.0078108525 -0.16647664 0.26150814 -0.22060373 0.2639878 -0.05628325
0.050587557 -0.24325615 0.03587189 -0.2974091 0.13743846 0.06511644 -0.11431633 0.20097382
-0.084784575 0.24692641 0.14076263 -0.24042478 0.012895548 0.11566043 0.16088319 0.101662286
-0.016560694 0.23069929 0.16780813 -0.4059816 0.033185 -0.18191564 0.114566304 0.07944991
-0.17599747 -0.038428634 -0.10740272 0.4802966 -0.23820762 0.02863685 0.11347499 -0.053641304
0.41670766 0.21185793 0.18908471 -0.18226175 0.1935372 -0.05870713 -0.2154603 0.16075018
0.08277549 -0.06855954 -0.05359313 0.17643602 -0.19885756 0.052015867 -0.020445775 0.14991109
0.233538 -0.07305657 0.007348503 -0.019240696 -0.1509335 0.5187117 0.3475223 -0.18780425
0.1835485 -0.046262227 0.19724944 0.07416036 -0.0123745855 -0.009575132 0.14076422 0.008965761
0.051480908 0.388138 0.06435686 0.05778752 -0.051750842 -0.08018583 0.16212972 -0.20901428
0.11674225 0.010972816 -0.12767093 -0.12084763 -0.114064775 0.22120138 0.002452796 -0.119826004
0.06296123 0.06227869 0.0731001 0.0723963 0.042995974 0.26393574 -0.06779183 0.1952406
0.096912794 -0.13979161 0.1805645 -0.25504646 -0.126293 0.016025282 -0.2549359 0.08380126
0.18950568 -0.08638029 0.18125212 0.2008561 0.014877351 -0.22056143 -0.2141701 -0.0014884967
0.041317932 -0.09452926 -0.036330927 0.24438784 -0.08152545 0.012585247 0.032293595 0.06966977
0.12891622 0.015766144 0.13080339 0.22586901 0.17478706 -0.23825367 0.17079137 -0.20609865
-0.28319582 -0.23710296 0.06698523 -0.16804071 -0.210847 0.05553761 0.23696253 -0.021213267
-0.088051654 0.15819621 -0.097119 0.16098157 -0.13860968 -0.18995109 0.2003528 -0.021443557
-0.20454426 0.12585115 -0.24776818 -0.24824585 -0.06541395 -0.00177344 -0.15606749 -0.09817281
0.045251027 -0.16376269 -0.17249848 0.13014427 -0.02310283 -0.03223105 0.24824518 0.21590747
0.032406874 0.16037542 0.234695 0.055774886 -0.20529509 0.27058887 0.10798352 0.19552511
-0.034869164 -0.104087144 0.24595828 0.05190549 -0.2718419 -0.20793182 -0.121753566 0.10011718
0.26593032 -0.065523684 0.12297493 -0.13713945 0.24459732 -0.07366864 -0.17926906 0.25986618
0.052344326 -0.16707166 -0.0706691 0.006275337 0.22291201 -0.0714099 -0.2651121 -0.0030359842
-0.14608733 -0.099564716 -0.1655951 -0.16161147 0.1896745 0.084379666 0.027911587 0.2144488
0.07066407 -0.26553375 -0.125904 -0.029842854 -0.23040546 0.166559 0.11341617 0.2049046
-0.04257936 0.13884652 -0.20926325 0.10707543 -0.2504602 0.16467434 0.113117896 -0.21011467

net.4.bias f4 [16]
00000000: 0c5c fcbd 319e ca3e 842d 53bd cfee 90bd
00000010: 8e4d a0bd 6e9b 06be 6915 a7bd 809d 53be
00000020: 3423 86bd f219 5e3f 16dc 08be 16af febe
00000030: f3e7 b2bc 00bc 5f3f c346 2abe 38d2 b5bc
-0.12322244 0.39573815 -0.05155708 -0.07076799 -0.078272924 -0.13145229 -0.081583805 -0.2066555
-0.06549683 0.8675834 -0.13365206 -0.49742955 -0.021839118 0.8739624 -0.16628556 -0.022194967

net.6.weight f4 [1, 16]
00000000: cd4e 72be c266 113e 1ce8 5cbe ac15 e5bd
00000010: a402 11be 7acb 2cbe 7073 8dbd 913b 09be
00000020: 3056 58bd 621b 9a3d 99bb 3cbc 6367 39bd
00000030: ddfe f53e 43d1 2a3e 7549 27be fe7e 823e
-0.23662873 0.14199355 -0.21572918 -0.11185774 -0.14161164 -0.16874495 -0.069067836 -0.13401629
-0.05281657 0.07524754 -0.011519336 -0.045264613 0.48046008 0.1668139 -0.16336615 0.25487512

exp_avg f4 [128, 48]
00000000: 0400 0000 0400 0000 0400 0000 0400 0000
00000010: 0400 0000 0400 0000 0400 0000 0400 0000
00000020: 0400 0000 0400 0000 0400 0000 0400 0000
00000030: 0400 0000 0400 0000 0400 0000 0400 0000
00000040: 0400 0000 0400 0000 0400 0000 0400 0000
00000050: 0400 0000 0400 0000 0400 0000 0400 0000
00000060: 0400 0000 0400 0000 0400 0000 0400 0000
00000070: 0400 0000 0400 0000 0400 0000 0400 0000
00000080: 0400 0000 0400 0000 0400 0000 0400 0000
00000090: 0400 0000 0400 0000 0400 0000 0400 0000
000000a0: 0400 0000 0400 0000 0400 0000 0400 0000
000000b0: 0400 0000 0400 0000 0400 0000 0400 0080
000000c0: 0400 0000 0400 0000 0400 0000 0400 0000
000000d0: 0400 0080 0400 0080 0400 0000 0400 0000
000000e0: 0400 0080 0400 0000 0400 0000 0400 0000
000000f0: 0400 0080 0400 0080 0400 0000 0400 0000
00000100: 0400 0000 0400 0000 0400 0080 0400 0000
00000110: 0400 0080 0400 0080 0400 0000 0400 0080
00000120: 0400 0080 0400 0080 0400 0080 0400 0000
00000130: 0400 0080 0400 0080 0400 0080 0400 0080
00000140: 0400 0000 0400 0080 0400 0000 0400 0080
00000150: 0400 0080 0400 0080 0400 0000 0400 0000
00000160: 0400 0000 0400 0000 0400 0000 0400 0000
00000170: 0400 0000 0400 0000 0400 0000 0400 0000
00000180: 0400 0000 0400 0000 0400 0080 0400 0000
00000190: 0400 0000 0400 0000 0400 0000 0400 0000
000001a0: 0400 0000 0400 0000 0400 0000 0400 0000
000001b0: 0400 0000 0400 0000 0400 0000 0400 0000
000001c0: 0400 0000 0400 0000 0400 0000 0400 0000
000001d0: 0400 0000 0400 0000 0400 0000 0400 0000
000001e0: 0400 0000 0400 0000 0400 0000 0400 0000
000001f0: 0400 0000 0400 0000 0400 0000 0400 0000
00000200: 0400 0000 0400 0000 0400 0000 0400 0000
00000210: 0400 0000 0400 0000 0400 0000 0400 0000
00000220: 0400 0000 0400 0000 0400 0000 0400 0000
00000230: 0400 0080 0400 0080 0400 0080 0400 0000
00000240: 0400 0000 0400 0000 0400 0000 0400 0000
00000250: 0400 0000 0400 0000 0400 0000 0400 0000
00000260: 0400 0000 0400 0000 0400 0000 0400 0000
00000270: 0400 0000 0400 0000 0400 0000 0400 0000
00000280: 0400 0000 0400 0000 0400 0000 0400 0000
00000290: 0400 0000 0400 0000 0400 0000 0400 0000
000002a0: 0400 0000 0400 0000 0400 0000 0400 0000
000002b0: 0400 0000 0400 0000 0400 0000 0400 0000
000002c0: 0400 0000 0400 0000 0400 0000 0400 0000
000002d0: 0400 0000 0400 0000 0400 0000 0400 0000
000002e0: 0400 0000 0400 0000 0400 0000 0400 0000
000002f0: 0000 0000 0400 0080 0400 0080 0400 0000
00000300: 0400 0000 0400 0000 0400 0000 0400 0000
00000310: 0400 0000 0400 0000 0400 0000 0400 0000
00000320: 0400 0000 0400 0000 0400 0000 0400 0000
00000330: 0400 0000 0400 0000 0400 0000 0400 0000
00000340: 0400 0000 0400 0000 0400 0000 0400 0000
00000350: 0400 0000 0400 0000 0400 0000 0400 0000
00000360: 0400 0000 0400 0000 0400 0000 0400 0000
00000370: 0400 0000 0400 0000 0400 0000 0400 0000
00000380: 0400 0000 0400 0000 0400 0000 0400 0000
00000390: 0400 0000 0400 0000 0400 0080 0400 0080
000003a0: 0400 0080 0400 0080 0400 0080 0400 0080
000003b0: 0400 0000 0400 0080 0400 0080 0400 0080
000003c0: 4807 5b3e 718c febd 1ef8 39bf 0a7d 0cbc
000003d0: f749 0b3f 7e9b 773e c76b 743e e7d6 8fb0
000003e0: aa6c b73f 8dbe 4bc0 1b79 83c1 b7f5 0f40
000003f0: 3c04 6440 bd66 2440 9e9f b040 0400 0000
6e-45 6e-45 6e-45 6e-45 6e-45 6e-45 6e-45 6e-45
6e-45 6e-45 6e-45 6e-45 6e-45 6e-45 6e-45 6e-45
6e-45 6e-45 6e-45 6e-45 6e-45 6e-45 6e-45 6e-45
6e-45 6e-45 6e-45 6e-45 6e-45 6e-45 6e-45 6e-45
6e-45 6e-45 6e-45 6e-45 6e-45 6e-45 6e-45 6e-45
6e-45 6e-45 6e-45 6e-45 6e-45 6e-45 6e-45 -6e-45
6e-45 6e-45 6e-45 6e-45 -6e-45 -6e-45 6e-45 6e-45
-6e-45 6e-45 6e-45 6e-45 -6e-45 -6e-45 6e-45 6e-45
6e-45 6e-45 -6e-45 6e-45 -6e-45 -6e-45 6e-45 -6e-45
-6e-45 -6e-45 -6e-45 6e-45 -6e-45 -6e-45 -6e-45 -6e-45
6e-45 -6e-45 6e-45 -6e-45 -6e-45 -6e-45 6e-45 6e-45
6e-45 6e-45 6e-45 6e-45 6e-45 6e-45 6e-45 6e-45
6e-45 6e-45 -6e-45 6e-45 6e-45 6e-45 6e-45 6e-45
6e-45 6e-45 6e-45 6e-45 6e-45 6e-45 6e-45 6e-45
6e-45 6e-45 6e-45 6e-45 6e-45 6e-45 6e-45 6e-45
6e-45 6e-45 6e-45 6e-45 6e-45 6e-45 6e-45 6e-45
6e-45 6e-45 6e-45 6e-45 6e-45 6e-45 6e-45 6e-45
6e-45 6e-45 6e-45 6e-45 -6e-45 -6e-45 -6e-45 6e-45
6e-45 6e-45 6e-45 6e-45 6e-45 6e-45 6e-45 6e-45
6e-45 6e-45 6e-45 6e-45 6e-45 6e-45 6e-45 6e-45
6e-45 6e-45 6e-45 6e-45 6e-45 6e-45 6e-45 6e-45
6e-45 6e-45 6e-45 6e-45 6e-45 6e-45 6e-45 6e-45
6e-45 6e-45 6e-45 6e-45 6e-45 6e-45 6e-45 6e-45
6e-45 6e-45 6e-45 6e-45 0.0 -6e-45 -6e-45 6e-45
6e-45 6e-45 6e-45 6e-45 6e-45 6e-45 6e-45 6e-45
6e-45 6e-45 6e-45 6e-45 6e-45 6e-45 6e-45 6e-45
6e-45 6e-45 6e-45 6e-45 6e-45 6e-45 6e-45 6e-45
6e-45 6e-45 6e-45 6e-45 6e-45 6e-45 6e-45 6e-45
6e-45 6e-45 6e-45 6e-45 6e-45 6e-45 -6e-45 -6e-45
-6e-45 -6e-45 -6e-45 -6e-45 6e-45 -6e-45 -6e-45 -6e-45
0.21389496 -0.12429131 -0.7264422 -0.0085747335 0.54409736 0.2418041 0.23869239 -1.0465698e-09
1.4330037 -3.1835053 -16.434134 2.2493722 3.5627584 2.5687706 5.5194845 6e-45

exp_avg_sq f4 [128, 48]
00000000: c6b6 8936 e996 7437 5379 9134 acfb 8035
00000010: e030 8f36 3350 0036 89d2 fa36 4a90 032e
00000020: 68eb 183c 5cfb ad3c 8f4c 173b 6b2d 8b3a
00000030: b79d 213c 628d fc3b dad0 4d3c 17f2 f82d
00000040: 8bd3 3931 f4c8 1632 ac17 a72f 711d 3330
00000050: 6155 4b31 9104 b030 a52c b931 1456 812b
00000060: 7a9e a22b 3176 592d 1100 c32e 74df 0c30
00000070: 0218 a837 6442 452d ebac 1031 51d3 9c32
00000080: aa29 c12e c4ff ac32 91d7 3336 f735 072e
00000090: 348f a132 a9aa 2835 51d7 7527 7596 112a
000000a0: b633 6f2d 41d4 872e 1699 1c2f 0680 5839
000000b0: 6f03 912e 5506 992b 3cb4 2531 8679 9b29
000000c0: 447c b03c fad5 5541 3e78 e71b 8b73 8b3e
000000d0: 9794 a733 9794 a733 6fa7 b33c 20ce 0839
000000e0: 727d b642 d0d5 ac46 2d6f 4e22 b752 3b44
000000f0: f59b 4441 a331 683e 72d6 3443 8482 0339
00000100: 43ff 6e37 2ba1 f43b be66 d933 b12b 4239
00000110: 083f 4134 083f 4134 5ea2 6937 07b9 f031
00000120: f74d 0432 02a8 6d35 174e 7835 1b0e af3a
00000130: 336a 0441 e367 2734 c77b ae37 1d87 0a3b
00000140: 8e81 0f39 77bd 5d3d 49ee 3242 e36b 0739
00000150: 83b3 213d 8e58 6d42 ca21 592c c8b7 802d
00000160: d070 5932 8485 1d39 8485 1d39 1e65 8846
00000170: f65f da19 0dbe 4d33 d4c6 2139 c203 d930
00000180: 2ef3 9d3a b29a a03f b91e 0e21 eb38 c13c
00000190: 40c3 6c23 0f45 ef22 3284 b623 7138 5037
000001a0: e9f1 a540 3da5 0145 d5dd 3228 b8a1 8242
000001b0: 62d3 4c3f f094 723c 62d3 4c3f 309b 4937
000001c0: 1177 6535 c53a 363a 6832 6c1c 5c5c 8837
000001d0: a2fe 091e fef4 c11d 0eda 761e e7b9 b62f
000001e0: 17b7 bd2f 95ba 9a33 ff11 6833 c754 0539
000001f0: 3fd2 363f 7527 1632 7d27 9735 55d9 3c39
00000200: 0be9 5b37 af64 a73b a138 8a40 d124 5037
00000210: 16dd 6f3b 8bbb b740 8f82 501c 698d 4f1d
00000220: 45cd c022 e6d3 6c37 e6d3 6c37 972d d244
00000230: b073 f91a 0b38 ac2f 9f78 5035 5687 e92d
00000240: 941f a234 13a5 a439 09ef bf18 4ed3 d536
00000250: f5e9 911a 53c6 121a 746d de1a 0373 6431
00000260: a3e1 533c 9b25 043f 9ef9 331f e073 813c
00000270: 76f0 d93b 5814 953b 76f0 d93b 7efb 0b2e
00000280: 64c4 c82f eed2 4534 1c44 a613 80ac 9531
00000290: 86a8 5115 2f42 d314 e07d 9d15 3065 bb29
000002a0: 822a e129 1a9a cd2d 8cc7 9d2e 9bdc c933
000002b0: 95dc b739 1e94 672c 1108 b52f 4198 6c33
000002c0: 3307 4231 22f2 3736 621f f839 fd47 3531
000002d0: 00d3 4536 258f d739 fa16 731b fa16 731c
000002e0: 6435 d921 e530 8131 e530 8131 c93a eb3e
000002f0: 0000 0000 444f a629 7f7e 032f cf13 3229
00000300: a353 4339 5e30 c739 acd7 8a37 3980 b337
00000310: 9b8e 6239 a60b ce38 6562 ab39 bf12 d129
00000320: a562 c73e 6816 043f 3fea 123e 97ed b03b
00000330: 80f5 d83e 6b7c b83e 0603 e83e 8458 a612
00000340: c301 ff33 37ec 7634 637c 7232 c8c5 7a32
00000350: 37ae 0734 286a 6933 a836 7634 7302 152e
00000360: adcd 422e 1829 0330 37ec 7631 37ec 7631
00000370: d7f1 213a 91d6 882f 0c8b c533 c93f 4a35
00000380: 07ab 2f31 5bdf b334 da8d a336 b9ac a02e
00000390: a79d 8134 bdd6 4b34 f499 ab2a 5251 3d2d
000003a0: 09ad 3c30 eee0 902f 95f1 a731 2327 3138
000003b0: cff2 9031 0cc4 312d f702 9431 ea71 992b
000003c0: a116 3842 bafb e142 9c40 5840 9a17 bc40
000003d0: b3e4 6742 72f2 c541 8f80 9f42 807b 1839
000003e0: 9da0 ba47 6694 1748 3ef6 ef46 1957 1c45
000003f0: cde7 cb47 952f a447 9a34 e047 25a6 1239
4.104196e-06 1.457867e-05 2.709663e-07 9.609989e-07 4.267422e-06 1.9120168e-06 7.47509e-06 2.9914106e-11
0.009333469 0.021238022 0.0023086404 0.0010618394 0.009864262 0.007707284 0.012562001 2.8301845e-11
2.7041291e-09 8.776841e-09 3.0393943e-10 6.516166e-10 2.958892e-09 1.2806983e-09 5.389284e-09 9.189893e-13
1.1554778e-12 1.2361266e-11 8.867585e-11 5.124925e-10 2.003834e-05 1.1212895e-11 2.105305e-09 1.8256886e-08
8.784025e-11 2.0139744e-08 2.6798555e-06 3.0743377e-11 1.8807988e-08 6.283322e-07 3.4117303e-15 1.2930787e-13
1.3597059e-11 6.176793e-11 1.4242504e-10 0.00020647058 6.5944465e-11 1.0873061e-12 2.4113112e-09 6.904464e-14
0.02154363 13.36474 3.829345e-22 0.2723659 7.803572e-08 7.803572e-08 0.021930424 0.00013046758
91.24501 22122.906 2.7977062e-18 749.2924 12.288075 0.22675185 180.83768 0.00012541754
1.4245338e-05 0.007465502 1.01235386e-07 0.00018517558 1.7997456e-07 1.7997456e-07 1.3925686e-05 7.0059545e-09
7.701138e-09 8.8533864e-07 9.2500835e-07 0.0013355644 8.275928 1.5590881e-07 2.0800055e-05 0.0021137663
0.00013685806 0.054135766 44.7327 0.00012914794 0.039477836 59.33648 3.0856311e-12 1.463353e-11
1.2656713e-08 0.00015022425 0.00015022425 17458.559 2.257943e-23 4.7903132e-08 0.00015428226 1.5789896e-09
0.0012050623 1.2547209 4.815213e-19 0.02358671 1.28349314e-17 6.48542e-18 1.9788466e-17 1.2410907e-05
5.18578 2074.3274 9.929087e-15 65.31586 0.80010045 0.014806017 0.80010045 1.2016666e-05
8.548241e-07 0.00069515064 7.8151e-22 1.6255472e-05 7.3053764e-21 5.133999e-21 1.3068224e-20 3.32377e-10
3.4508993e-10 7.205123e-08 5.4033077e-08 0.0001271545 0.7141456 8.740121e-09 1.1261869e-06 0.0001801004
1.3107677e-05 0.005108438 4.3194127 1.2406338e-05 0.0036600283 5.7416434 6.899017e-22 2.746933e-21
5.225904e-18 1.4116033e-05 1.4116033e-05 1681.4247 1.0317089e-22 3.132644e-10 7.7661565e-07 2.6549134e-11
3.0197828e-07 0.00031403507 4.9613707e-24 6.3724938e-06 6.034857e-23 3.0352297e-23 9.199388e-23 3.3243743e-09
0.012932214 0.5161988 3.8111203e-20 0.015802324 0.0066509796 0.0045495443 0.0066509796 3.182831e-11
3.6519332e-10 1.842379e-07 4.1971452e-27 4.3560817e-09 4.2340155e-26 2.133166e-26 6.361039e-26 8.3220215e-14
9.999381e-14 2.3374237e-11 7.17498e-11 9.39992e-08 0.00035068826 3.2909296e-12 3.292944e-10 5.5086506e-08
2.8234808e-09 2.7410065e-06 0.00047325628 2.6379887e-09 2.9478106e-06 0.00041114647 2.0107913e-22 8.043165e-22
1.4718624e-18 3.759953e-09 3.759953e-09 0.45943287 0.0 7.385631e-14 1.1959321e-10 3.954112e-14
0.00018627806 0.00037992274 1.6551312e-05 2.1398171e-05 0.00021606164 9.825015e-05 0.0003268897 9.2847164e-14
0.38942447 0.5159669 0.1434717 0.0053994167 0.42374802 0.36032423 0.45314807 1.0497894e-27
1.1874683e-07 2.299647e-07 1.4114536e-08 1.45968855e-08 1.2636234e-07 5.434609e-08 2.2930419e-07 3.3880853e-11
4.429317e-11 4.771592e-10 3.5931984e-09 3.5931984e-09 0.00061776995 2.4890714e-10 9.19882e-08 7.5343684e-07
2.556307e-09 3.350386e-07 4.8742922e-06 7.306639e-11 2.414283e-07 1.898397e-07 3.0482528e-13 1.0761463e-11
6.86399e-10 2.635327e-10 4.8878044e-09 4.2236537e-05 4.2185557e-09 1.0104816e-11 4.307704e-09 1.0902921e-12
46.0221 112.99165 3.3789434 5.877881 57.97334 24.743382 79.75109 0.00014541857
95553.23 155217.6 30715.121 2501.4436 104399.6 84063.164 114793.2 0.00013985539

exp_avg f4 [128]
00000000: 0400 0000 0400 0000 0400 0000 0400 0000
00000010: 0400 0000 73ac b2b6 0400 0000 9dd3 4036
00000020: 0400 0000 0000 0000 0400 0000 0400 0000
00000030: 0400 0000 0400 0000 72a1 2cb7 0400 0000
00000040: 0400 0000 0400 0080 0400 0000 0400 0000
00000050: 0400 0000 0400 0080 aac6 0bb7 73c9 7db5
00000060: 0400 0000 0400 0000 0400 0000 0400 0000
00000070: 1976 99b6 0400 0000 0000 0000 0400 0000
00000080: 0400 0000 0400 0000 0400 0000 0400 0000
00000090: 0400 0000 0400 0000 0400 0000 0400 0000
000000a0: 41b2 41b7 0000 0000 0400 0000 0400 0000
000000b0: 0400 0080 0400 0000 0400 0000 0400 0000
000000c0: 0400 0000 0400 0000 0000 0000 0400 0000
000000d0: 0400 0000 0400 0000 0400 0080 0400 0000
000000e0: 0400 0080 0400 0080 0000 0000 0400 0000
000000f0: 0400 0000 0400 0000 0400 0000 0400 0000
00000100: 0400 0000 0400 0000 0400 0080 0400 0000
00000110: 0400 0080 0400 0000 0400 0000 0400 0000
00000120: 0000 0000 0400 0000 0400 0000 0400 0000
00000130: 0400 0000 0400 0000 0400 0000 0400 0000
00000140: 0400 0080 0400 0000 0400 0000 0400 0000
00000150: 0400 0000 0400 0000 0400 0080 cdc8 f636
00000160: 0400 0000 0400 0080 0400 0080 0000 0000
00000170: 0400 0000 206a 17b6 0400 0080 0400 0000
00000180: 0400 0000 0400 0080 0400 0000 0400 0080
00000190: d721 1db7 0400 0000 0000 0000 0400 0000
000001a0: 574d 9ab5 b1f2 1ab6 87a4 51b8 0400 0000
000001b0: 0400 0080 0400 0000 0400 0000 0400 0000
000001c0: 0000 0000 0400 0000 0400 0000 0400 0080
000001d0: 0400 0080 0400 0000 0400 0000 0411 9ab6
000001e0: dcc7 d836 0400 0000 0400 0000 2195 19b7
000001f0: 0400 0080 0400 0080 0400 0000 0000 0000
6e-45 6e-45 6e-45 6e-45 6e-45 -5.324889e-06 6e-45 2.8733405e-06
6e-45 0.0 6e-45 6e-45 6e-45 6e-45 -1.0289588e-05 6e-45
6e-45 -6e-45 6e-45 6e-45 6e-45 -6e-45 -8.331301e-06 -9.454299e-07
6e-45 6e-45 6e-45 6e-45 -4.5735037e-06 6e-45 0.0 6e-45
6e-45 6e-45 6e-45 6e-45 6e-45 6e-45 6e-45 6e-45
-1.1545199e-05 0.0 6e-45 6e-45 -6e-45 6e-45 6e-45 6e-45
6e-45 6e-45 0.0 6e-45 6e-45 6e-45 -6e-45 6e-45
-6e-45 -6e-45 0.0 6e-45 6e-45 6e-45 6e-45 6e-45
6e-45 6e-45 -6e-45 6e-45 -6e-45 6e-45 6e-45 6e-45
0.0 6e-45 6e-45 6e-45 6e-45 6e-45 6e-45 6e-45
-6e-45 6e-45 6e-45 6e-45 6e-45 6e-45 -6e-45 7.3547476e-06
6e-45 -6e-45 -6e-45 0.0 6e-45 -2.2562526e-06 -6e-45 6e-45
6e-45 -6e-45 6e-45 -6e-45 -9.365808e-06 6e-45 0.0 6e-45
-1.1496403e-06 -2.3089053e-06 -4.998271e-05 6e-45 -6e-45 6e-45 6e-45 6e-45
0.0 6e-45 6e-45 -6e-45 -6e-45 6e-45 6e-45 -4.5915385e-06
6.4605683e-06 6e-45 6e-45 -9.154232e-06 -6e-45 -6e-45 6e-45 0.0

exp_avg_sq f4 [128]
00000000: 3779 192f 8485 1d39 e6d3 6c37 e530 8131
00000010: 37ec 7631 1f67 8b3a 2832 341c f2c1 803a
00000020: 8866 bf1f 0000 0000 6903 1f1b aabe 9e1b
00000030: 1022 371d b205 9f38 6119 8439 184a 641c
00000040: 55f2 3216 ccbe 8c14 aeef ca0e 4110 5a12
00000050: 8dd2 c61f 5c8a b314 9572 e339 df93 a43a
00000060: 812e 7736 fab1 5b29 f7ef 1f22 f53a 3111
00000070: c4f1 2d3a b2df 7220 0000 0000 1530 7329
00000080: 436a e015 e428 021c 0be5 8d38 39f1 a235
00000090: 6609 1b39 bfe6 fb0e 2dbf e415 0bdb 5938
000000a0: c448 0b39 0000 0000 3193 c11c b082 750d
000000b0: 8d08 9514 39ea 0518 1c4a 9e22 4c86 d31f
000000c0: 208f 8523 4192 3c2c 0000 0000 3073 0a31
000000d0: 5d1d 0f1e 5d4f 1d23 bbdc a814 4507 1015
000000e0: 8d1f b614 a24b c314 0000 0000 ccab a114
000000f0: ef61 932d d695 d30e be36 9e27 e3ad 6e38
00000100: 4bf4 6425 af96 6f1a 496c c514 0287 b13a
00000110: 7956 ae14 d7ff ea22 e671 b924 e60c 1c14
00000120: 0000 0000 69cf d20f 2c4a 4414 f93d a51c
00000130: 5fdf 4824 aaff 451c d186 c438 738a 0918
00000140: 7f86 741d 0c51 262a 7aba 5125 f1a9 5c12
00000150: 7c3c 3730 7376 6422 40c2 0636 5f31 6f3b
00000160: 66ef b315 2ce8 1938 2cde 9f14 0000 0000
00000170: 1581 9213 a533 543a 9149 c514 1017 230e
00000180: ba61 2e25 3622 d814 690d 4522 45e2 2418
00000190: 8ef5 8f3a d5da 2027 0000 0000 fd1e fe1a
000001a0: 05b4 9f3a b4c1 bb3a 9cbc 0c39 ee6e c02e
000001b0: 20c3 ba14 b5a2 1f19 bde1 0019 da83 e81d
000001c0: 0000 0000 b9ca bd16 23be 1c18 851c b339
000001d0: 81b1 a814 ac0c 132b 978a 2d14 2785 bb3a
000001e0: e6d2 0939 5f21 e42d a310 4417 7ee4 d13a
000001f0: a306 8b14 5415 a314 136f 531b 0000 0000
1.3958333e-10 0.00015022425 1.4116033e-05 3.759953e-09 3.5931984e-09 0.0010635591 5.962183e-22 0.0009823425
8.106127e-20 0.0 1.3153274e-22 2.626212e-22 2.4237458e-21 7.582772e-05 0.0002519591 7.5534636e-22
1.4455192e-25 1.4211644e-26 5.0027648e-30 6.8808705e-28 8.420459e-20 1.8128954e-26 0.00043382184 0.0012556276
3.6832937e-06 4.878214e-14 2.1675555e-18 1.3981006e-28 0.0006635452 2.0572212e-19 0.0 5.3998544e-14
9.064053e-26 4.306624e-22 6.7660665e-05 1.2140146e-06 0.00014785453 6.2098478e-30 9.239009e-26 5.194083e-05
0.0001328318 0.0 1.2809717e-21 7.5653763e-31 1.5048528e-26 1.73081e-24 4.2904452e-18 8.958415e-20
1.4480505e-17 2.6797594e-12 0.0 2.014712e-09 7.576429e-21 8.527793e-18 1.7050728e-26 2.9086303e-26
1.8389748e-26 1.97198e-26 0.0 1.6324607e-26 1.6755456e-11 5.2159803e-30 4.391316e-15 5.6905566e-05
1.9858617e-16 4.9545763e-23 1.9934628e-26 0.0013544264 1.7603618e-26 6.369671e-18 8.042391e-17 7.878531e-27
0.0 2.078749e-29 9.910099e-27 1.0934804e-21 4.355729e-17 6.551227e-22 9.37112e-05 1.7776734e-24
3.2362664e-21 1.477188e-13 1.8191041e-16 6.962923e-28 6.6660966e-10 3.0962468e-18 2.0080624e-06 0.0036497933
7.267523e-26 3.669427e-05 1.6142528e-26 0.0 3.6982866e-27 0.0008094854 1.9920933e-26 2.0102405e-30
1.5125205e-16 2.182392e-26 2.6705578e-18 2.131074e-24 0.0010983215 2.232309e-15 0.0 1.05102e-22
0.0012184387 0.0014324696 0.00013421703 8.750854e-11 1.8858164e-26 8.252966e-24 6.663032e-24 6.154622e-21
0.0 3.0662533e-25 2.0258522e-24 0.0003416279 1.7033678e-26 5.2242477e-13 8.7616e-27 0.001430665
0.00013143904 2.5935419e-11 6.3352014e-25 0.001601353 1.4038031e-26 1.6467206e-26 1.7489401e-22 0.0

exp_avg f4 [64, 128]
00000000: 0400 0000 0400 0000 0400 0000 0400 0000
00000010: 0400 0000 0400 0000 0400 0000 0400 0000
00000020: 0400 0000 0000 0000 0400 0000 0400 0000
00000030: 0400 0000 0400 0000 0400 0000 0400 0000
00000040: 0400 0000 0000 0000 0000 0000 0400 0080
00000050: 0400 0000 0000 0000 0400 0000 0400 0000
00000060: 0400 0000 0400 0000 0400 0000 0400 0080
00000070: 0400 0000 0400 0000 0000 0000 0400 0000
00000080: 0400 0000 0400 0000 0400 0000 0400 0000
00000090: 0400 0080 0400 0000 0400 0080 0400 0000
000000a0: 0400 0000 0000 0000 0400 0000 0000 0000
000000b0: 0000 0000 0400 0000 0400 0000 0400 0000
000000c0: 0400 0080 0400 0000 0000 0000 0400 0000
000000d0: 0400 0000 0400 0000 0000 0000 0400 0000
000000e0: 0000 0000 0000 0000 0000 0000 0000 0000
000000f0: 0400 0000 0000 0000 0400 0080 0400 0000
00000100: 0400 0000 0400 0000 0000 0000 0400 0080
00000110: 0000 0000 0400 0000 0400 0000 0400 0080
00000120: 0000 0000 0400 0080 0400 0080 0400 0000
00000130: 0400 0080 0400 0000 0400 0000 0000 0000
00000140: 0400 0000 0400 0000 0400 0000 0400 0000
00000150: 0400 0000 0400 0000 0400 0000 0400 0000
00000160: 0400 0000 0400 0000 0000 0000 0000 0000
00000170: 0400 0000 0400 0000 0000 0000 0400 0000
00000180: 0400 0000 0000 0000 0400 0080 0400 0080
00000190: 0400 0080 0000 0000 0000 0000 0400 0000
000001a0: 0400 0000 0400 0000 0400 0000 0400 0000
000001b0: 0000 0000 0400 0000 0400 0000 0400 0080
000001c0: 0000 0000 0400 0080 0400 0000 0400 0080
000001d0: 0000 0000 0400 0000 0400 0000 0400 0000
000001e0: 0400 0000 0400 0000 0400 0000 0400 0000
000001f0: 0000 0000 0000 0000 0400 0000 0000 0000
00000200: 0400 0000 0400 0000 0400 0000 0400 0000
00000210: 0400 0080 0400 0080 0400 0000 0400 0000
00000220: 0400 0000 0000 0000 0400 0000 0400 0080
00000230: 0400 0080 0400 0000 0400 0080 0400 0000
00000240: 0400 0000 0400 0080 0400 0080 0400 0080
00000250: 0400 0000 0400 0080 0400 0000 0400 0000
00000260: 0400 0080 0400 0000 0400 0000 0400 0000
00000270: 0400 0000 0400 0000 0000 0000 0400 0000
00000280: 0400 0000 0400 0080 0400 0000 0400 0000
00000290: 0400 0080 0400 0080 0400 0000 0400 0000
000002a0: 0400 0000 0000 0000 0400 0000 0400 0000
000002b0: 0400 0080 0400 0000 0400 0000 0400 0000
000002c0: 0400 0000 0400 0000 0000 0000 0400 0000
000002d0: 0400 0000 0400 0000 0400 0080 0400 0080
000002e0: 0400 0080 0400 0080 0000 0000 0400 0080
000002f0: 0400 0000 0400 0080 0400 0080 0400 0000
00000300: 0400 0000 0400 0000 0400 0080 0400 0000
00000310: 0400 0080 0400 0000 0400 0000 0400 0000
00000320: 0000 0000 0400 0080 0400 0000 0400 0000
00000330: 0400 0000 0400 0000 0400 0000 0000 0000
00000340: 0400 0000 0400 0000 0400 0000 0400 0000
00000350: 0400 0000 0400 0000 0400 0000 0400 0000
00000360: 0400 0000 0400 0000 0400 0080 0000 0000
00000370: 0400 0000 0400 0080 0400 0080 0400 0080
00000380: 0400 0000 0400 0080 0400 0000 0400 0000
00000390: 0400 0000 0000 0000 0000 0000 0400 0000
000003a0: 0400 0000 0400 0000 0400 0000 0400 0000
000003b0: 0400 0080 0400 0000 0400 0000 0400 0000
000003c0: 0000 0000 0400 0000 0400 0000 0400 0000
000003d0: 0400 0080 0400 0000 0400 0080 0400 0000
000003e0: 0400 0000 0400 0000 0400 0000 0400 0000
000003f0: 0400 0080 0400 0080 0400 0080 0000 0000
6e-45 6e-45 6e-45 6e-45 6e-45 6e-45 6e-45 6e-45
6e-45 0.0 6e-45 6e-45 6e-45 6e-45 6e-45 6e-45
6e-45 0.0 0.0 -6e-45 6e-45 0.0 6e-45 6e-45
6e-45 6e-45 6e-45 -6e-45 6e-45 6e-45 0.0 6e-45
6e-45 6e-45 6e-45 6e-45 -6e-45 6e-45 -6e-45 6e-45
6e-45 0.0 6e-45 0.0 0.0 6e-45 6e-45 6e-45
-6e-45 6e-45 0.0 6e-45 6e-45 6e-45 0.0 6e-45
0.0 0.0 0.0 0.0 6e-45 0.0 -6e-45 6e-45
6e-45 6e-45 0.0 -6e-45 0.0 6e-45 6e-45 -6e-45
0.0 -6e-45 -6e-45 6e-45 -6e-45 6e-45 6e-45 0.0
6e-45 6e-45 6e-45 6e-45 6e-45 6e-45 6e-45 6e-45
6e-45 6e-45 0.0 0.0 6e-45 6e-45 0.0 6e-45
6e-45 0.0 -6e-45 -6e-45 -6e-45 0.0 0.0 6e-45
6e-45 6e-45 6e-45 6e-45 0.0 6e-45 6e-45 -6e-45
0.0 -6e-45 6e-45 -6e-45 0.0 6e-45 6e-45 6e-45
6e-45 6e-45 6e-45 6e-45 0.0 0.0 6e-45 0.0
6e-45 6e-45 6e-45 6e-45 -6e-45 -6e-45 6e-45 6e-45
6e-45 0.0 6e-45 -6e-45 -6e-45 6e-45 -6e-45 6e-45
6e-45 -6e-45 -6e-45 -6e-45 6e-45 -6e-45 6e-45 6e-45
-6e-45 6e-45 6e-45 6e-45 6e-45 6e-45 0.0 6e-45
6e-45 -6e-45 6e-45 6e-45 -6e-45 -6e-45 6e-45 6e-45
6e-45 0.0 6e-45 6e-45 -6e-45 6e-45 6e-45 6e-45
6e-45 6e-45 0.0 6e-45 6e-45 6e-45 -6e-45 -6e-45
-6e-45 -6e-45 0.0 -6e-45 6e-45 -6e-45 -6e-45 6e-45
6e-45 6e-45 -6e-45 6e-45 -6e-45 6e-45 6e-45 6e-45
0.0 -6e-45 6e-45 6e-45 6e-45 6e-45 6e-45 0.0
6e-45 6e-45 6e-45 6e-45 6e-45 6e-45 6e-45 6e-45
6e-45 6e-45 -6e-45 0.0 6e-45 -6e-45 -6e-45 -6e-45
6e-45 -6e-45 6e-45 6e-45 6e-45 0.0 0.0 6e-45
6e-45 6e-45 6e-45 6e-45 -6e-45 6e-45 6e-45 6e-45
0.0 6e-45 6e-45 6e-45 -6e-45 6e-45 -6e-45 6e-45
6e-45 6e-45 6e-45 6e-45 -6e-45 -6e-45 -6e-45 0.0
