src/model_data/Brazilian_Grand_Prix_model.pth (torch, 198037 bytes, 21 tensors)

net.0.weight f4 [128, 48]
-0.07372735 0.08002434 -0.03295639 -0.09440937 -0.06213893 -0.07808277 0.08248638 -0.10066754
0.12397045 -0.1932158 -0.16673315 0.040356774 -0.03359894 -0.086049 0.07425095 -0.033799957
0.055388328 0.07629496 0.08138625 -0.20992017 0.12318254 -0.027761525 0.06849089 -0.03838001
-0.11530771 -0.13426086 -0.19716251 0.13846044 0.07576591 0.20205848 0.16209163 -0.08491561
0.19082767 0.22800438 0.14578737 0.09048462 -0.053198446 0.18103509 0.2169108 -0.11537443
-0.00686644 0.15582986 0.016149355 -0.072528295 0.038016777 0.060101334 0.025404263 -0.18574345
0.13997759 -0.15032183 -0.12964876 -0.0880827 0.02085827 0.048996195 0.004566425 0.15798937
-0.08826631 -0.06683329 -0.11870136 0.10362388 0.11023772 0.04053209 -0.055566255 0.096474946
0.06468825 0.06847379 0.114961274 0.07121403 -0.015696483 0.047732815 0.07580176 0.15618677
0.06400322 0.14196016 -0.07620761 0.06380515 0.15809436 0.117484845 -0.06340434 -0.15903881
-0.0033993416 0.026124474 0.021860626 -0.08305467 0.04317077 -0.17661248 0.025348933 -0.016720323
-0.027434096 -0.14689918 -0.1357699 -0.037318207 0.13878374 0.10751 -0.09218944 -0.03953336
-0.047485024 -0.2101467 0.12168399 -0.2097061 -0.22086036 0.12194712 -0.10347718 0.06223263
0.038744092 0.094468474 0.043251242 -0.07254587 0.043756682 0.06462521 -0.17657696 -0.09703729
-0.15648375 0.042772744 -0.13276711 -0.03634666 0.029656805 0.0650619 -0.17734833 -0.039317887
-0.06468505 -0.0058903387 -0.15549612 0.027700296 0.23241895 0.0801312 0.14587747 0.074647
-0.025739377 0.046865366 -0.13655572 -0.010591469 -0.07063548 0.028629802 -0.271886 -0.47168222
-0.37174815 -0.23198946 -0.2911249 -0.04653076 0.25898474 0.3526816 0.10536657 0.15196458
0.16629231 0.0757685 0.1316454 0.0156149315 -0.052891158 0.021977618 -0.047983237 -0.013954148
-0.06679818 0.06212639 -0.037606563 0.16347137 0.16228212 0.11669997 0.10619799 0.19215928
0.029737687 0.1712852 0.13664655 -0.09521229 0.022664128 0.02655285 0.11314824 0.03904467
-0.06614316 -0.0341289 -0.09530704 -0.31542435 -0.10178237 -0.12693757 -0.21030281 0.09917248
0.019449625 -0.09984391 -0.14497462 -0.03052188 -0.023352722 -0.038437873 0.5151043 0.35598743
0.19094399 0.47476587 0.59434676 -0.08984461 -0.62714016 -0.55273676 -0.5108642 -0.29205614
-0.14370035 0.026564434 -0.064025894 0.052119873 0.023233155 0.097295865 -0.18399002 0.14771841
-0.05639471 0.11906899 -0.04753272 0.0054932814 -0.10322674 -0.14427395 -0.1892613 -0.06429508
-0.10517565 0.04096753 -0.21796073 -0.09466712 -0.0675797 0.022922443 -0.22864203 -0.0024063338
-0.1725062 -0.010215138 0.015216143 -0.07188819 -0.13402805 0.021892145 -0.07336571 0.041548155
0.07602918 0.044191316 0.011344338 0.11376338 -0.1932701 -0.059942853 0.21453616 0.109995395
-0.084731564 -0.20078404 0.038169116 -0.15577495 0.0461003 0.17735599 0.15548444 -0.15443845
0.10204218 0.13354847 -0.01248642 -0.095321715 0.09479015 0.14674358 0.059136797 0.08653427
0.07526355 -0.042525988 0.06576605 -0.19740045 0.002186178 -0.077360354 -0.13894296 -0.1453769
00000000: 5dfe 96bd cde3 a33d 48fd 06bd b359 c1bd
00000010: 6485 7ebd dce9 9fbd 9fee a83d c92a cebd
00000020: 38e4 fd3d 5dda 45be 18bc 2abe 254d 253d
00000030: 0b9f 09bd 753a b0bd e210 983d d371 0abd
00000040: dfde 623d 8840 9c3d d6ad a63d 50f5 56be
00000050: 2147 fc3d 236c e3bc f444 8c3d 5b34 1dbd
00000060: 7326 ecbd ae7b 09be f8e4 49be 93c8 0d3e
00000070: 282b 9b3d 6be8 4e3e 59fb 253e 3ce8 adbd
00000080: 5468 433e fb79 693e 4949 153e 0050 b93d
00000090: 9de6 59bd 4361 393e dd1d 5e3e 6e49 ecbd
000000a0: e0ff e0bb dd91 1f3e a74b 843c b789 94bd
000000b0: 7bb7 1b3d d12c 763d 9a1c d03c 8833 3ebe
000000c0: 4956 0f3e f7ed 19be a5c2 04be b464 b4bd
000000d0: f6de aa3c 3cb0 483d f3a1 953b f7c7 213e
000000e0: f8c4 b4bd e4df 88bd b319 f3bd c238 d43d
000000f0: 50c4 e13d fa04 263d 7199 63bd a894 c53d
00000100: 467b 843d fd3b 8c3d d170 eb3d a9d8 913d
00000110: e995 80bc 7c83 433d f43d 9b3d 6def 1f3e
00000120: 1f14 833d 015e 113e bc12 9cbd 46ac 823d
00000130: 7de3 213e e59b f03d 22da 81bd 12db 22be
00000140: 7dc7 5ebb fe02 d63c 0e15 b33c 9118 aabd
00000150: d5d3 303d e7d9 34be 91a8 cf3c 0ff9 88bc
00000160: 78bd e0bc bd6c 16be 4407 0bbe fada 18bd
00000170: 531d 0e3e 342e dc3d d1cd bcbd bced 21bd
00000180: a87f 42bd b230 57be 7535 f93d 32bd 56be
00000190: 3829 62be 69bf f93d d8eb d3bd a4e7 7e3d
000001a0: 20b2 1e3d b078 c13d 3728 313d ee92 94bd
000001b0: 353a 333d 395a 843d 97d0 34be 7dbb c6bd
000001c0: 473d 20be 7932 2f3d 1af4 07be 3ce0 14bd
000001d0: d4f2 f23c 2c3f 853d cd9a 35be cb0b 21bd
000001e0: 9879 84bd be03 c1bb 603a 1fbe bbeb e23c
000001f0: 3cff 6d3e d41b a43d e760 153e 87e0 983d
00000200: 63db d2bc e6f5 3f3d 43d5 0bbe d787 2dbc
00000210: 56a9 90bd 0c89 ea3c a434 8bbe 5580 f1be
00000220: c655 bebe a58e 6dbe 530e 95be 0a97 3ebd
00000230: a699 843e af92 b43e 6eca d73d 9a9c 1b3e
00000240: 8848 2a3e 842c 9b3d 0dce 063e c5d5 7f3c
00000250: 66a4 58bd 680a b43c 128a 44bd f09f 64bc
00000260: 7ccd 88bd 3e78 7e3d 5709 1abd 0a65 273e
00000270: 492d 263e 6500 ef3d 557e d93d 67c5 443e
00000280: 739c f33c 6365 2f3e 13ed 0b3e a9fe c2bd
00000290: 1faa b93c 5d85 d93c 44ba e73d 4eed 1f3d
000002a0: 1176 87bd bfca 0bbd 5630 c3bd 4d7f a1be
000002b0: 4673 d0bd ecfb 01be 9f59 57be f11a cb3d
000002c0: d254 9f3c f77a ccbd 3a74 14be 0609 fabc
000002d0: 354e bfbc 0871 1dbd e0dd 033f fc43 b63e
000002e0: d286 433e 8314 f33e 1c27 183f 7300 b8bd
000002f0: 428c 20bf 2880 0dbf ffc7 02bf 6288 95be
00000300: 2f26 13be a89d d93c 0220 83bd a67b 553d
00000310: 7553 be3c 0e43 c73d e167 3cbe 7f43 173e
00000320: 24fe 66bd 71da f33d abb1 42bd fc00 b43b
00000330: 8b68 d3bd 8dbc 13be b7cd 41be 24ad 83bd
00000340: 5566 d7bd 92cd 273d 1931 5fbe d6e0 c1bd
00000350: 3a67 8abd d9c7 bb3c 2321 6abe 95b3 1dbb
00000360: 77a5 30be 655d 27bc 214d 793c 1e3a 93bd
00000370: a63e 09be 2857 b33c c340 96bd 662e 2a3d
00000380: 30b5 9b3d f401 353d 9add 393c c6fc e83d
00000390: 99e8 45be a386 75bd 5eaf 5b3e 4445 e13d
000003a0: be87 adbd 559a 4dbe 3857 1c3d 7883 1fbe
000003b0: abd3 3c3d cf9c 353e 5037 1f3e 1d25 1ebe
000003c0: 7efb d03d eec0 083e d793 4cbc 0838 c3bd
000003d0: 5721 c23d f343 163e 6d39 723d e138 b13d
000003e0: c723 9a3d bb2f 2ebd 5ab0 863d 5823 4abe
000003f0: fb45 0f3b 1b6f 9ebd 1047 0ebe afdd 14be

net.0.bias f4 [128]
0.046335187 0.0 0.010559337 -0.031653304 -0.017486429 -0.03797351 -0.013044103 -0.003525809
-0.041277613 -0.002868603 -0.0045594913 0.037263338 -0.05410021 -0.014395594 -0.058890544 -0.041900814
-0.009980654 -0.010270209 0.0071179727 -0.0021118561 0.08955439 0.03837982 0.05571971 0.0
0.008524906 0.055346873 -5.767443e-05 -0.0096771 0.036344375 -0.0069451868 0.0 0.0
-0.04633306 -0.039508026 0.024271233 0.01875482 -0.030890567 -0.044840965 -0.012205582 0.00902744
0.03930713 0.045589805 -0.02180313 -0.018748028 -0.022652393 0.0 -0.055729475 0.0
0.019394478 0.014651197 0.03670886 -0.0019516698 -0.058374595 -0.020244095 0.0 -0.041550193
0.007139384 -0.02393774 0.025354585 0.0 -0.008244885 -0.022472689 -0.040817063 0.0
-0.031340472 0.0 0.008851159 -0.09673013 0.0 -0.009853643 -0.007922736 -0.05122693
-0.016399672 -0.029915761 -0.036022548 -0.041764513 0.029769506 -0.030211184 -0.014805612 -0.0010143138
0.032727174 0.004704205 0.056883957 -0.055499725 0.003104513 9.257677e-05 -0.035405017 -0.06369728
0.0 0.001672635 -0.038791914 -0.0010931683 -0.042263795 0.022791926 -0.005254806 0.10923773
0.0 0.0 0.0 0.0 -0.048265457 -0.008415324 -0.018449781 -0.053278062
-0.03795915 0.00013647202 -0.04159717 0.0 0.0 -0.02127025 0.009395876 0.021540975
-0.039168514 -0.008862422 -0.011451698 -0.055014808 -0.010658279 -0.046812106 -0.019509416 -0.039920464
-0.01249644 0.014278765 0.09711088 -0.010804789 0.0 0.0 -0.040685337 -0.05132436
00000000: f7c9 3d3d 0000 0000 1201 2d3c e5a6 01bd
00000010: b33f 8fbc 1c8a 1bbd efb6 55bc 4211 67bb
00000020: b712 29bd 2cff 3bbb c967 95bb 71a1 183d
00000030: 2f98 5dbd 7fdb 6bbc 3637 71bd 30a0 2bbd
00000040: e685 23bc 6144 28bc e23d e93b 1167 0abb
00000050: 4b68 b73d 2834 1d3d 5a3a 643d 0000 0000
00000060: 0cac 0b3c 67b3 623d 73e7 71b8 b38c 1ebc
00000070: d7dd 143d 7394 e3bb 0000 0000 0000 0000
00000080: bcc7 3dbd 2bd3 21bd 77d4 c63c b5a3 993c
00000090: 370e fdbc 29ab 37bd ecf9 47bc d4e7 133c
000000a0: 8300 213d 60bc 3a3d 7a9c b2bc 7795 99bc
000000b0: 8391 b9bc 0000 0000 9744 64bd 0000 0000
000000c0: 2be1 9e3c 930b 703c 085c 163d 2ccf ffba
000000d0: 331a 6fbd f2d6 a5bc 0000 0000 8930 2abd
000000e0: 7ef1 e93b 1419 c4bc 6bb4 cf3c 0000 0000
000000f0: 8e15 07bc a518 b8bc cb2f 27bd 0000 0000
00000100: de5e 00bd 0000 0000 7404 113c 721a c6bd
00000110: 0000 0000 2d71 21bc 5dce 01bc 54d3 51bd
00000120: 9b58 86bc e611 f5bc 618c 13bd 4411 2bbd
00000130: 2edf f33c 727d f7bc 3d93 72bc b9f2 84ba
00000140: ee0c 063d bb25 9a3b 27ff 683d ae53 63bd
00000150: 1675 4b3b c625 c238 da04 11bd b873 82bd
00000160: 0000 0000 513c db3a 45e4 1ebd a448 8fba
00000170: cd1c 2dbd 22b6 ba3c 8230 acbb 08b8 df3d
00000180: 0000 0000 0000 0000 0000 0000 0000 0000
00000190: 00b2 45bd 6de0 09bc ff23 97bc 193a 5abd
000001a0: 0e7b 1bbd ee19 0f39 cb61 2abd 0000 0000
000001b0: 0000 0000 f33e aebc 29f1 193c b376 b03c
000001c0: 2a6f 20bd b133 11bc e79f 3bbc 3557 61bd
000001d0: 10a0 2ebc 0dbe 3fbd 36d2 9fbc a483 23bd
000001e0: debd 4cbc 7bf1 693c 12e2 c63d 9206 31bc
000001f0: 0000 0000 0000 0000 aba5 26bd 7e39 52bd

net.2.weight f4 [64, 128]
0.119577646 -0.10931411 0.116513535 0.16401148 -0.15401249 -0.19966306 -0.01613014 -0.098794684
-0.14009275 -0.15724038 0.13302492 -0.17623702 0.08428161 0.12744837 -0.13629015 -0.06382172
-0.23230451 0.10511635 -0.16574852 0.10835721 -0.08747393 -0.04833536 -0.05708683 -0.011546635
-0.2078556 0.078367054 0.06052307 0.1300017 0.048459873 0.12490173 0.0013172786 -0.14726357
0.13238269 -0.14855357 -0.14094481 0.04668204 0.047486648 -0.07307825 -0.08705305 -0.057214994
0.14938591 0.15436958 -0.103996776 -0.12964512 0.0021918002 0.15440412 -0.04418173 0.07220695
0.108406655 -0.06680792 0.0072262934 -0.07431407 -0.13471772 0.112665854 -0.06685158 0.040560395
0.12482161 -0.07920563 0.08174778 -0.03473762 -0.13372928 0.036877822 0.1277884 -0.09931178
0.08050181 -0.0788797 0.016384205 -0.047076397 0.09080789 -0.013956982 -0.15453112 0.13293079
0.12227309 0.049906895 0.11677258 -0.018343948 -0.0100259585 0.12315786 -0.09932741 -0.17999393
0.07565489 0.13625754 0.03260044 -0.05055112 -0.050940577 -0.03164665 0.086893626 -0.13311163
0.0035785835 -0.10718409 -0.016621724 0.12757912 -0.034038488 -0.089101665 0.117736906 0.16007032
0.01295377 0.047008317 0.1670445 -0.024251971 -0.06384935 0.017150063 0.052364036 0.1625006
-0.1596387 -0.06396747 0.13999274 0.03230316 0.053075295 0.14880764 -0.07159645 0.0010498371
-0.12461045 0.09500299 0.11876456 -0.032220036 0.15032814 -0.036743917 -0.15298632 0.049626764
0.04532663 -0.035261143 -0.1319829 0.014883704 -0.04065622 -0.06491148 -0.16071658 -0.026400976
-0.013408848 0.17589958 -0.011067859 -0.17195494 -0.15020755 -0.11556139 0.15213425 0.068391055
-0.023237664 -0.018163113 -0.0826168 -0.083960354 -0.100843474 0.059438113 -0.02539732 -0.026047245
0.042983893 -0.013405706 -0.102932 -0.045339044 0.111501105 0.1872874 0.18782964 0.06905858
-0.07721084 0.18581639 -0.16315453 -0.06382615 -0.0071873027 -0.1260493 -0.02880952 -0.08625652
0.016852701 -0.0264097 -0.04177126 0.17791755 -0.10719172 -0.0033832514 0.111121275 0.07830222
-0.008532248 0.016021667 0.17015418 0.14981054 -0.021643694 0.016977236 -0.09814601 -0.037175987
-0.09796731 -0.10356576 0.07067797 -0.10626389 0.012200636 -0.14140336 -0.04632733 0.13772145
-0.1292173 0.15430176 0.16213273 0.025080115 -0.047636315 0.023120867 0.032273043 0.15304357
-0.04602688 0.05335715 0.12288424 0.09326938 -0.15059164 -0.12533338 0.0927639 0.07605928
0.034760434 -0.11071185 0.06918833 0.11779833 -0.049722575 0.1002579 -0.04952271 -0.090776004
0.12742418 -0.062350247 0.05746342 -0.13763444 0.12620012 0.15485214 0.17355718 -0.0042255446
-0.07761772 -0.08427281 0.13629042 0.18132249 -0.15337767 0.050710067 0.1554327 0.082479544
-0.010253295 0.09943331 0.07373203 0.075468 0.1752687 0.07202931 -0.17734426 -0.12528916
0.11323712 0.10952405 -0.1704314 0.021428533 -0.07087224 -0.14796096 0.032900155 -0.16448463
0.04045453 -0.12198466 -0.050489042 0.008547017 0.046556544 0.018705344 -0.119919874 0.09102273
0.10776397 -0.030248947 -0.13595648 -0.00889678 -0.14898331 0.00050279085 -0.07194465 0.030592365
00000000: 20e5 f43d 13e0 dfbd a69e ee3d a0f2 273e
00000010: 73b5 1dbe 7974 4cbe 5b23 84bc de54 cabd
00000020: 7974 0fbe 9f03 21be af37 083e 7a77 34be
00000030: d69b ac3d d381 023e a58f 0bbe f6b4 82bd
00000040: 3ce1 6dbe 3e47 d73d fbb9 29be 63ea dd3d
00000050: 8825 b3bd 4cfb 45bd e1d3 69bd 192e 3dbc
00000060: 19d8 54be e87e a03d 0ae7 773d 2a1f 053e
00000070: dc7d 463d 7acc ff3d 89a8 ac3a 43cc 16be
00000080: 548f 073e 6d1e 18be d653 10be ab35 3f3d
00000090: 5c81 423d 0daa 95bd df48 b2bd 455a 6abd
000000a0: 9ff8 183e 0f13 1e3e 43fc d4bd b1c1 04be
000000b0: 4ea4 0f3b 1d1c 1e3e e7f7 34bd 3de1 933d
000000c0: 4f04 de3d 97d2 88bd 8bca ec3b fa31 98bd
000000d0: 71f3 09be 5bbd e63d 7be9 88bd a822 263d
000000e0: 79a2 ff3d 9036 a2bd 616b a73d 0949 0ebd
000000f0: 54f0 08be 330d 173d f6da 023e f963 cbbd
00000100: 22de a43d ae8b a1bd 2b38 863c 2ed3 40bd
00000110: 7df9 b93d d3ab 64bc 683d 1ebe 021f 083e
00000120: 506a fa3d 2c6b 4c3d 7626 ef3d 0c46 96bc
00000130: eb43 24bc 303a fc3d 2b6c cbbd 5450 38be
00000140: f3f0 9a3d 1987 0b3e 0a88 053d b10e 4fbd
00000150: 11a7 50bd eb9f 01bd 49f5 b13d 6a4e 08be
00000160: ab86 6a3b 5583 dbbd 482a 88bc 1aa4 023e
00000170: f16b 0bbd ef7a b6bd 0c20 f13d 79e9 233e
00000180: 0d3c 543c cb8b 403d b70d 2b3e 12ac c6bc
00000190: 73c3 82bd 4a7e 8c3c ac7b 563d 8f66 263e
000001a0: 5478 23be 6001 83bd 425a 0f3e 5150 043d
000001b0: 7b65 593d 0861 183e 29a1 92bd b09a 893a
000001c0: c333 ffbd ed90 c23d d53a f33d 28f9 03bd
000001d0: 9fef 193e ca80 16bd 72a8 1cbe 6f45 4b3d
000001e0: 6ba8 393d fd6d 10bd 8626 07be c7da 733c
000001f0: 2387 26bd 4ff0 84bd e392 24be dc46 d8bc
00000200: c9b0 5bbc 051f 343e f755 35bc f514 30be
00000210: 02d0 19be 73ab ecbd 15c9 1b3e 9c10 8c3d
00000220: ea5c bebc cfca 94bc ff32 a9bd 68f3 abbd
00000230: 0687 cebd 6175 733d 0a0e d0bc 0861 d5bc
00000240: e10f 303d 9ba3 5bbc 03ce d2bd 6fb5 39bd
00000250: b15a e43d 45c8 3f3e 6a56 403e 966e 8d3d
00000260: b820 9ebd a746 3e3e fb11 27be 49b7 82bd
00000270: 7783 ebbb 1113 01be f101 ecbc 42a7 b0bd
00000280: ad0e 8a3c 2859 d8bc 5718 2bbd 0530 363e
00000290: 5587 dbbd 8ab9 5dbb 8d93 e33d ea5c a03d
000002a0: d8ca 0bbc df3f 833c e63c 2e3e ef67 193e
000002b0: 1e4e b1bc d813 8b3c c600 c9bd d945 18bd
000002c0: 16a3 c8bd 491a d4bd 9dbf 903d e2a0 d9bd
000002d0: 2de5 473c 0bcc 10be bac1 3dbd da06 0d3e
000002e0: 8a51 04be 4801 1e3e 1f06 263e d074 cd3c
000002f0: 4c1e 43bd f967 bd3c bd30 043d 74b7 1c3e
00000300: af86 3cbd 078d 5a3d bbaa fb3d 0404 bf3d
00000310: b234 1abe 6557 00be 00fb bd3d f8c4 9b3d
00000320: f560 0e3d e5bc e2bd 9cb2 8d3d 4040 f13d
00000330: e6a9 4bbd 0454 cd3d 53d8 4abd c5e8 b9bd
00000340: 7c7b 023e f962 7fbd c35e 6b3d 0bf0 0cbe
00000350: 9b3a 013e 8f91 1e3e f9b8 313e 7076 8abb
00000360: 0af6 9ebd 3997 acbd b78f 0b3e 9aac 393e
00000370: 090f 1dbe 5cb5 4f3d c029 1f3e 09eb a83d
00000380: 70fd 27bc b1a3 cb3d d200 973d f78e 9a3d
00000390: a379 333e 1a84 933d bc99 35be cd4b 00be
000003a0: dde8 e73d 254e e03d 9285 2ebe e48a af3c
000003b0: 7725 91bd 1483 17be 50c2 063d a96e 28be
000003c0: a6b3 253d 18d3 f9bd 99cd 4ebd ca08 0c3c
000003d0: 13b2 3e3d f33b 993c 8d98 f5bd 206a ba3d
000003e0: 5bb3 dc3d a4cc f7bc 2d38 0bbe cdc3 11bc
000003f0: 158f 18be b9cd 033a b757 93bd d79c fa3c

net.2.bias f4 [64]
-0.010517649 0.00988805 -0.009200514 -0.022704609 -0.016447501 -0.013454009 0.032338366 0.0385815
-0.0019849262 -0.01973789 -0.009279399 -0.04867961 -0.012819064 0.020660568 -0.024160113 -0.01585997
-0.023671709 -0.021433292 0.003510128 -0.030586064 -0.0072830655 -0.020525934 -0.006243892 -0.021495085
-0.022340776 0.0 -0.027357325 -0.030532293 -0.012407396 0.0 -0.00033415048 -0.025600022
0.032343555 0.004030322 -0.045902528 -0.02354581 0.01248905 -0.009952156 0.0 -0.01015351
-0.031966023 -0.016413253 -0.025355155 -0.022652395 -0.045836985 -0.031765483 0.023950135 0.0
0.041867383 -0.04270308 -0.009363782 0.04133928 -0.03176497 0.08104492 -0.02280412 -0.046114862
0.0 -0.011027021 -0.01920423 0.008667797 -0.014211416 -0.03318526 -0.035930924 -0.0019787394
00000000: 3852 2cbc 7d01 223c c1bd 16bc 04ff b9bc
00000010: e9bc 86bc 346e 5cbc 3c75 043d a307 1e3d
00000020: 8915 02bb 5bb1 a1bc 9f08 18bc 4564 47bd
00000030: 0d07 52bc 5a40 a93c 6eeb c5bc c5ec 81bc
00000040: 2ceb c1bc df94 afbc 2d0a 663b a08f fabc
00000050: c8a6 eebb 0126 a8bc 9099 ccbb 7616 b0bc
00000060: 0104 b7bc 0000 0000 781c e0bc dc1e fabc
00000070: 6448 4bbc 0000 0000 eb30 afb9 23b7 d1bc
00000080: ad7a 043d cb10 843b 4a04 3cbd 24e3 c0bc
00000090: df9e 4c3c 5e0e 23bc 0000 0000 e85a 26bc
000000a0: ceee 02bd 1675 86bc 9db5 cfbc 8491 b9bc
000000b0: 90bf 3bbd 861c 02bd 1333 c43c 0000 0000
000000c0: 227d 2b3d 6de9 2ebd 8c6a 19bc 6053 293d
000000d0: fc1b 02bd e1fa a53d b5cf babc f0e2 3cbd
000000e0: 0000 0000 aeaa 34bc 3052 9dbc 6003 0e3c
000000f0: 00d7 68bc 44ed 07bd 4e2c 13bd bdad 01bb

net.4.weight f4 [16, 64]
0.011131429 0.27415282 0.07362926 0.19906476 -0.21147072 -0.18348764 -0.11544519 -0.13924262
0.082542166 0.2639176 -0.16464618 0.16815495 -0.19802429 -0.19106829 -0.11189201 -0.080636725
-0.2402808 -0.102272205 0.14114004 0.07508506 0.15781027 0.13949145 0.25557598 -0.19724378
0.07823647 -0.2305917 0.19785725 -0.18146273 -0.14369561 0.088340536 0.18189052 0.1203747
-0.0034033866 -0.21500625 0.013087998 -0.22166073 0.1991982 -0.17755976 0.06298073 0.09636683
0.25029474 -0.034284066 -0.042555075 0.1927572 -0.052838683 -0.053395685 -0.15730676 -0.16236842
0.20632127 -0.16881937 0.12836622 0.0001338099 -0.20244397 -0.24040343 -0.14124982 0.14021179
-0.2529348 -0.031480685 -0.08643221 -0.2500888 0.011210184 0.080084026 0.13127841 -0.101656824
0.049405288 0.14692728 -0.274595 -0.15171814 0.16130613 -0.05296876 0.06762476 -0.12635016
-0.2685527 -0.23199373 -0.1848177 -0.22485717 -0.07376615 -0.18965508 0.121217415 -0.1729253
0.10410623 0.080494985 -0.1592296 -0.044946365 0.25639045 0.1325671 0.17503422 -0.06697963
0.037856393 0.21796444 0.14964837 -0.17014052 0.19906695 0.15147898 -0.08805047 0.13714209
-0.13623217 -0.14971164 -0.26034617 -0.07892374 -0.07819562 0.11479172 -0.14600721 0.0009736911
-0.13194464 0.03947386 0.16886409 -0.23195107 -0.084933855 -0.083926946 -0.10119843 0.12660462
0.2431075 -0.12266355 -0.1786436 0.14982109 -0.20882607 -0.1269029 -0.023800936 -0.075644106
0.18124689 -0.04447034 0.20474918 -0.071963765 -0.12138134 0.014179822 0.04407607 0.088159524
0.04912312 -0.25970352 -0.060906135 0.02491044 0.19828944 0.19147259 -0.26723215 0.16536021
-0.15258908 -0.1176488 -0.058683574 -0.16288014 -0.08453691 0.121140346 0.18843937 -0.27064684
-0.02431822 -0.20285988 -0.086565815 0.10615585 0.15900889 -0.15454222 -0.04536337 -0.17569567
0.17758274 0.076251425 0.09699518 -0.16369644 -0.18505056 -0.09841906 0.18090354 -0.2519576
-0.16868545 -0.14913504 0.11023423 0.2599375 -0.13795078 0.21100263 -0.173659 0.2572258
-0.17182852 0.21564892 0.009361666 -0.18476018 -0.033511456 0.22402237 0.07906962 -0.042896047
0.11666073 0.2622372 0.05823165 0.12939052 -0.23715839 0.13538238 0.066980645 -0.20804438
-0.04829237 -0.08034984 -0.2831536 0.17874864 -0.07579881 0.047937445 0.26789904 -0.042908948
0.14165106 0.15605207 -0.08251173 0.13562825 -0.24480477 -0.24276252 -0.09172551 0.15058437
-0.16140333 0.11377256 0.23437475 0.10848419 0.09667079 0.22327702 -0.020494143 0.07715708
0.22657807 -0.119784124 -0.26459837 0.17610633 0.00358451 -0.08499649 -0.07757384 -0.19922584
0.15598543 -0.21811001 0.05764745 -0.057862826 0.15909109 -0.06620567 0.22196028 -0.013576962
-0.1560599 0.20267767 0.251412 -0.07710626 0.00034080577 -0.23963481 0.12738834 0.21853285
0.27364194 0.22712852 0.20807283 0.048499446 -0.120872036 -0.033832673 -0.09145463 0.08813473
-0.014793992 0.10252266 0.13942096 -0.2584245 -0.093427755 -0.21972083 -0.21029812 -0.06990586
0.199647 0.1918626 0.08168075 0.24816927 0.21380559 0.21488796 -0.18090577 -0.22734983
00000000: 9960 363c c25d 8c3e f0ca 963d a2d7 4b3e
00000010: c88b 58be 2fe4 3bbe 876e ecbd 9e95 0ebe
00000020: de0b a93d 3520 873e 0299 28be d030 2c3e
00000030: e1c6 4abe 68a7 43be a327 e5bd de24 a5bd
00000040: 2c0c 76be 1774 d1bd 0487 103e 32c6 993d
00000050: 0499 213e d9d6 0e3e dbda 823e 46fa 49be
00000060: 713a a03d 3b20 6cbe 179b 4a3e 5ed1 39be
00000070: f124 13be e2eb b43d 8241 3a3e 0387 f63d
00000080: 5a0b 5fbb 992a 5cbe 0b6f 563c 08fb 62be
00000090: 9dfa 4b3e 3ad2 35be 0afc 803d f95b c53d
000000a0: a226 803e 736d 0cbd 3b4e 2ebd 2562 453e
000000b0: 606d 58bd 6fb5 5abd 0615 21be e843 26be
000000c0: e245 533e fcde 2cbe 6f72 033e 524f 0c39
000000d0: 794d 4fbe 512c 76be cba3 10be ae93 0f3e
000000e0: ac80 81be e4f1 00bd 5f03 b1bd a40b 80be
000000f0: ebaa 373c 1803 a43d d96d 063e 7431 d0bd
00000100: 335d 4a3d 1b74 163e b797 8cbe 005c 1bbe
00000110: 6f2d 253e c5f5 58bd da7e 8a3d f061 01be
00000120: bd7f 89be c48f 6dbe da40 3dbe f540 66be
00000130: b512 97bd f134 42be d640 f83d 5413 31be
00000140: a635 d53d 8eda a43d 160d 23be ae19 38bd
00000150: 9c45 833e abbf 073e 2c3c 333e 9e2c 89bd
00000160: 4e0f 1b3d 1232 5f3e 6c3d 193e 5139 2ebe
00000170: 35d8 4b3e 4e1d 1b3e ce53 b4bd fa6e 0c3e
00000180: 7280 0bbe 024e 19be 184c 85be c5a2 a1bd
00000190: 0625 a0bd ec17 eb3d ea82 15be 4e3f 7f3a
000001a0: 7f1c 07be 58af 213d b5ea 2c3e 9584 6dbe
000001b0: cdf1 adbd e4e1 abbd 1f41 cfbd a4a4 013e
000001c0: 2cf1 783e 0737 fbbd 59ee 36be b36a 193e
000001d0: 80d6 55be d5f2 01be 2efa c2bc 4ceb 9abd
000001e0: c998 393e 8826 36bd c5a9 513e bd61 93bd
000001f0: c896 f8bd 7c52 683c 1c89 343d fb8c b43d
00000200: 5335 493d dcf7 84be b678 79bd fb10 cc3c
00000210: 630c 4b3e 6411 443e a7d2 88be 3054 293e
00000220: 5040 1cbe dbf1 f0bd 305e 70bd 0dca 26be
00000230: b021 adbd 6e18 f83d 40f6 403e 3992 8abe
00000240: 0137 c7bc 80ba 4fbe 6b49 b1bd 3d68 d93d
00000250: 3ad3 223e 5140 1ebe f1ce 39bd 91e9 33be
00000260: 40d8 353e b529 9c3d 69a5 c63d 0aa0 27be
00000270: e57d 3dbe ef8f c9bd c73e 393e 9600 81be
00000280: e1bb 2cbe dbb6 18be 7cc2 e13d 8716 853e
00000290: f842 0dbe 1311 583e aad3 31be 1ab3 833e
000002a0: d1f3 2fbe 12d3 5c3e ac61 193c c631 3dbe
000002b0: 4f43 09bd 1f66 653e 41ef a13d c4b3 2fbd
000002c0: d2eb ee3d f443 863e 5084 6e3d f37e 043e
000002d0: a6d9 72be aea1 0a3e 262d 893d 9609 55be
000002e0: 38ce 45bd 758e a4bd 82f9 90be e209 373e
000002f0: 683c 9bbd 0e5a 443d 102a 893e 4bc1 2fbd
00000300: fa0c 113e 1dcc 1f3e e9fb a8bd 22e2 0a3e
00000310: 1aae 7abe bd96 78be 96da bbbd ca32 1a3e
00000320: ea46 25be 9701 e93d efff 6f3e f62c de3d
00000330: 56fb c53d bba2 643e 55e3 a7bc 8804 9e3d
00000340: 1504 683e 6151 f5bd 7079 87be 3855 343e
00000350: 19ea 6a3b a412 aebd 09df 9ebd dc01 4cbe
00000360: a5ba 1f3e 3b58 5fbe bc1f 6c3d 9201 6dbd
00000370: c6e8 223e d796 87bd 8e49 633e e871 5ebc
00000380: 2bce 1fbe bc8a 4f3e 13b9 803e e3e9 9dbd
00000390: 2dae b239 d462 75be 1772 023e 13c7 5f3e
000003a0: cc1a 8c3e 6194 683e 0b11 553e 5ba7 463d
000003b0: c28b f7bd 2194 0abd 914c bbbd fb7f b43d
000003c0: 8062 72bc 66f7 d13d 5ec4 0e3e 3750 84be
000003d0: 0d57 bfbd 7ffe 60be 6458 57be ce2a 8fbd
000003e0: 4370 4c3e a177 443e 3d48 a73d 1620 7e3e
000003f0: daef 5a3e 970b 5c3e 5d3f 39be 65ce 68be

net.4.bias f4 [16]
0.002993481 0.010969642 0.04323735 -0.004571081 -0.02848971 -0.024380142 0.0 -0.012598391
-0.008728608 -0.037607193 -0.026038978 -0.01902699 -0.013864938 0.048349034 -0.019416507 -0.016518885
00000000: 472e 443b 03ba 333c a619 313d 02c9 95bb
00000010: 4163 e9bc ddb8 c7bc 0000 0000 7b69 4ebc
00000020: 6f02 0fbc 000a 1abd b24f d5bc 7dde 9bbc
00000030: c429 63bc a309 463d 5e0f 9fbc 9d52 87bc

net.6.weight f4 [1, 16]
0.31409281 0.047647636 0.070673384 -0.5121104 -0.0892599 -0.076792106 -0.07496751 -0.17332588
0.41267434 -0.12667476 -0.4038298 -0.03980116 -0.21106887 0.16916154 -0.013972761 -0.22826882
00000000: c6d0 a03e 2b2a 433d 35bd 903d ab19 03bf
00000010: e5cd b6bd 2e45 9dbd 9188 99bd 577c 31be
00000020: 0d4a d33e 07b7 01be c8c2 cebe 8b06 23bd
00000030: 7022 58be af38 2d3e 02ee 64bc 4dbf 69be

exp_avg f4 [128, 48]
6e-45 6e-45 0.0 6e-45 6e-45 0.0 6e-45 6e-45
6e-45 6e-45 0.0 6e-45 6e-45 0.0 6e-45 6e-45
6e-45 6e-45 0.0 6e-45 0.0 0.0 6e-45 6e-45
6e-45 6e-45 6e-45 6e-45 6e-45 6e-45 6e-45 6e-45
6e-45 6e-45 6e-45 6e-45 6e-45 6e-45 6e-45 6e-45
6e-45 6e-45 6e-45 6e-45 0.0 6e-45 6e-45 6e-45
0.0 0.0 0.0 0.0 0.0 0.0 0.0 0.0
0.0 0.0 0.0 0.0 0.0 0.0 0.0 0.0
0.0 0.0 0.0 0.0 0.0 0.0 0.0 0.0
0.0 0.0 0.0 0.0 0.0 0.0 0.0 0.0
0.0 0.0 0.0 0.0 0.0 0.0 0.0 0.0
0.0 0.0 0.0 0.0 0.0 0.0 0.0 0.0
-0.043438114 -0.12202533 -0.037526783 -0.013968672 -0.04417812 -0.011629601 -0.050231542 -6.0093857e-06
-2.77615 -2.66969 -1.7124115 -0.4560742 -3.2925704 -2.2875166 -3.0842786 6e-45
-0.0012045997 -0.0023009384 -0.0020294008 -0.00014445241 -0.0023374066 -0.0011556656 -0.0014170434 -1.3853365e-05
2.6132777e-06 7.348654e-06 -0.00032220004 -0.0002802189 -0.20215075 -0.00031022506 -0.0015876654 -0.0015554989
-0.00043748892 0.0016555599 -0.042957738 -0.000109294415 -0.01092048 -0.004948985 -0.00010502116 -0.0005326253
-0.0039490513 -4.6591278e-05 -0.010028244 -0.037864838 -0.0002336275 -0.0003603178 -0.009572577 -0.00010967436
0.060016245 0.16835663 0.05155072 0.019295746 0.060890988 0.016534638 0.06936473 8.16501e-06
3.8288462 3.7072418 2.3617535 0.6288904 4.530742 3.1596205 4.2539773 6e-45
0.0016693751 0.0031854168 0.002790932 0.00020330188 0.0032059334 0.0016042271 0.0019648308 1.9137997e-05
-3.3472436e-06 -9.088252e-06 0.00044500086 0.00038789868 0.27793053 0.00042742465 0.0021797395 0.0021441132
0.0006007246 -0.0021652197 0.058644697 0.00014974286 0.014937781 0.006760979 0.00014295192 0.0007250756
0.0053802305 7.270031e-05 0.013652028 0.055110544 0.00031519806 0.0004894885 0.013002031 0.00014910179
-6e-45 -6e-45 0.0 -6e-45 0.0 0.0 6e-45 -6e-45
-6e-45 -6e-45 0.0 -6e-45 6e-45 -6e-45 -6e-45 -6e-45
-6e-45 -6e-45 -6e-45 -6e-45 -6e-45 -6e-45 6e-45 -6e-45
-6e-45 -6e-45 -6e-45 -6e-45 -6e-45 -6e-45 -6e-45 -6e-45
-6e-45 -6e-45 -6e-45 -6e-45 -6e-45 -6e-45 -6e-45 -6e-45
-6e-45 -6e-45 -6e-45 -6e-45 0.0 -6e-45 -6e-45 6e-45
6e-45 6e-45 6e-45 6e-45 6e-45 6e-45 6e-45 -6e-45
6e-45 6e-45 6e-45 6e-45 6e-45 6e-45 6e-45 -6e-45
00000000: 0400 0000 0400 0000 0000 0000 0400 0000
00000010: 0400 0000 0000 0000 0400 0000 0400 0000
00000020: 0400 0000 0400 0000 0000 0000 0400 0000
00000030: 0400 0000 0000 0000 0400 0000 0400 0000
00000040: 0400 0000 0400 0000 0000 0000 0400 0000
00000050: 0000 0000 0000 0000 0400 0000 0400 0000
00000060: 0400 0000 0400 0000 0400 0000 0400 0000
00000070: 0400 0000 0400 0000 0400 0000 0400 0000
00000080: 0400 0000 0400 0000 0400 0000 0400 0000
00000090: 0400 0000 0400 0000 0400 0000 0400 0000
000000a0: 0400 0000 0400 0000 0400 0000 0400 0000
000000b0: 0000 0000 0400 0000 0400 0000 0400 0000
000000c0: 0000 0000 0000 0000 0000 0000 0000 0000
000000d0: 0000 0000 0000 0000 0000 0000 0000 0000
000000e0: 0000 0000 0000 0000 0000 0000 0000 0000
000000f0: 0000 0000 0000 0000 0000 0000 0000 0000
00000100: 0000 0000 0000 0000 0000 0000 0000 0000
00000110: 0000 0000 0000 0000 0000 0000 0000 0000
00000120: 0000 0000 0000 0000 0000 0000 0000 0000
00000130: 0000 0000 0000 0000 0000 0000 0000 0000
00000140: 0000 0000 0000 0000 0000 0000 0000 0000
00000150: 0000 0000 0000 0000 0000 0000 0000 0000
00000160: 0000 0000 0000 0000 0000 0000 0000 0000
00000170: 0000 0000 0000 0000 0000 0000 0000 0000
00000180: 2aec 31bd 6be8 f9bd afb5 19bd dbdc 64bc
00000190: 1ef4 34bd 158a 3ebc 97bf 4dbd 3ba4 c9b6
000001a0: 71ac 31c0 33dc 2ac0 4d30 dbbf 8f82 e9be
000001b0: 79b9 52c0 ac66 12c0 d264 45c0 0400 0000
000001c0: a9e3 9dba 57cb 16bb b2ff 04bb 2678 17b9
000001d0: 2d2f 19bb b479 97ba 16bc b9ba c06b 68b7
000001e0: c55f 2f36 7594 f636 f5ec a8b9 58ea 92b9
000001f0: 9b00 4fbe b4a5 a2b9 3619 d0ba e2e1 cbba
00000200: c55e e5b9 5fff d83a 74f4 2fbd fe34 e5b8
00000210: d0eb 32bc 182b a2bb ce3e dcb8 e19f 0bba
00000220: 0b67 81bb 016b 43b8 814d 24bc 2918 1bbd
00000230: e8f9 74b9 09e9 bcb9 4cd6 1cbc f900 e6b8
00000240: 98d3 753d ae65 2c3e d926 533d 1d12 9e3c
00000250: d468 793d a673 873c 180f 8e3d 73fc 0837
00000260: d10b 7540 7343 6d40 f826 1740 f6fe 203f
00000270: d7fb 9040 3937 4a40 9520 8840 0400 0000
00000280: efce da3a 6dc2 503b 12e8 363b 6f2d 5539
00000290: a31a 523b ee44 d23a 64c4 003b 898a a037
000002a0: 35a1 60b6 bf79 18b7 014f e939 e15e cb39
000002b0: e94c 8e3e f717 e039 f6d9 0e3b 4084 0c3b
000002c0: f279 1d3a 5ce6 0dbb 6c35 703d 4b04 1d39
000002d0: 98bd 743c 348b dd3b 5de5 1539 0013 3e3a
000002e0: a54c b03b af76 9838 c1ac 5f3c 98bb 613d
000002f0: 2b41 a539 0451 003a 7806 553c 3558 1c39
00000300: 0400 0080 0400 0080 0000 0000 0400 0080
00000310: 0000 0000 0000 0000 0400 0000 0400 0080
00000320: 0400 0080 0400 0080 0000 0000 0400 0080
00000330: 0400 0000 0400 0080 0400 0080 0400 0080
00000340: 0400 0080 0400 0080 0400 0080 0400 0080
00000350: 0400 0080 0400 0080 0400 0000 0400 0080
00000360: 0400 0080 0400 0080 0400 0080 0400 0080
00000370: 0400 0080 0400 0080 0400 0080 0400 0080
00000380: 0400 0080 0400 0080 0400 0080 0400 0080
00000390: 0400 0080 0400 0080 0400 0080 0400 0080
000003a0: 0400 0080 0400 0080 0400 0080 0400 0080
000003b0: 0000 0000 0400 0080 0400 0080 0400 0000
000003c0: 0400 0000 0400 0000 0400 0000 0400 0000
000003d0: 0400 0000 0400 0000 0400 0000 0400 0080
000003e0: 0400 0000 0400 0000 0400 0000 0400 0000
000003f0: 0400 0000 0400 0000 0400 0000 0400 0080

exp_avg_sq f4 [128, 48]
1.7591521e-05 0.0003502958 0.0 2.7422117e-05 4.5763585e-07 0.0 5.621606e-05 8.510238e-08
0.06880463 0.4510242 0.0 0.059146654 0.04150827 0.0 0.23644325 8.485267e-08
1.2401792e-08 2.0339368e-07 0.0 1.864568e-08 0.0 0.0 2.860224e-08 3.9217956e-12
3.9217956e-12 1.0784486e-10 7.5958734e-10 1.2712105e-08 0.00013881954 2.8834124e-10 2.208372e-08 1.3802215e-06
8.526668e-08 6.0874487e-07 0.018130897 8.428123e-08 4.6890978e-07 0.018126847 1.4974225e-13 4.111944e-13
2.0299697e-10 8.75602e-08 8.75602e-08 0.023287453 0.0 2.792071e-10 7.2684793e-07 1.2853817e-12
0.0 0.0 0.0 0.0 0.0 0.0 0.0 0.0
0.0 0.0 0.0 0.0 0.0 0.0 0.0 0.0
0.0 0.0 0.0 0.0 0.0 0.0 0.0 0.0
0.0 0.0 0.0 0.0 0.0 0.0 0.0 0.0
0.0 0.0 0.0 0.0 0.0 0.0 0.0 0.0
0.0 0.0 0.0 0.0 0.0 0.0 0.0 0.0
180.56947 483.4229 20.682959 26.529562 179.04462 80.95581 321.64984 7.1188646e-05
473096.88 746557.9 153817.5 13793.45 518108.4 394679.06 588220.3 5.570136e-05
0.117154546 0.30427644 0.023893427 0.018015724 0.11435481 0.046495564 0.21342465 5.858558e-05
6.767538e-05 0.00058142276 0.0046824226 0.0055327006 537.9931 0.0011979766 0.10720894 0.7464168
0.0038079375 0.4730849 35.97302 0.00027247556 0.57924795 1.2568927 3.3310383e-07 9.89358e-06
0.0005770106 0.00076876604 0.0037495545 1765.8636 0.0029659835 0.0004947792 0.56705135 7.312915e-05
253.0047 657.9621 30.79822 35.396442 250.95992 114.51234 447.1854 6.848063e-06
661363.06 1.0076977e+06 222925.9 15500.4375 723405.0 551404.1 814666.75 5.5877395e-06
0.16473357 0.41502115 0.033901107 0.024177223 0.1616883 0.06741843 0.29598206 8.0648555e-05
9.32918e-05 0.00080638664 0.0065638265 0.006750979 701.1372 0.0015719911 0.15430778 1.0737491
0.0050448687 0.53097075 38.56309 0.0002903168 0.59585816 0.5025064 4.5928164e-07 1.3486926e-05
0.0007810943 0.000951159 0.005468958 346.11765 0.004070648 0.00048438206 0.5399664 8.0259124e-05
0.020566495 2.639283 0.0 0.0952589 0.0 0.0 7.8687444e-05 2.2567456e-05
137.45435 5659.203 0.0 410.58994 0.13526294 0.03635087 421.66187 1.9104631e-05
1.4788085e-05 0.0014641999 3.7900325e-08 6.707796e-05 3.7900325e-08 3.7900325e-08 1.519419e-07 3.4065908e-09
3.4422456e-09 3.505085e-07 1.7078381e-06 5.0190876e-05 11.98371 5.049324e-07 1.3062661e-05 0.00071947847
2.4406054e-05 0.011520301 0.65440816 1.768704e-05 0.010276671 0.54723924 8.077701e-12 4.8729562e-11
7.4039306e-08 3.760925e-05 3.760925e-05 279.17377 0.0 3.042873e-08 0.00015786526 4.602875e-08
0.06834345 0.11506861 0.037497707 0.0023263567 0.06914724 0.060393885 0.07959845 7.032881e-10
125.26475 162.27893 77.41322 0.8200037 129.5731 120.91418 134.163 6.432542e-10
00000000: 8191 9337 e8a7 b739 0000 0000 8c08 e637
00000010: feb0 f534 0000 0000 89c9 6b38 87c1 b633
00000020: 71e9 8c3d a5ec e63e 0000 0000 c343 723d
00000030: 9304 2a3d 0000 0000 2e1e 723e 4038 b633
00000040: a80f 5532 6e64 5a34 0000 0000 492a a032
00000050: 0000 0000 0000 0000 feb0 f532 65fc 892c
00000060: 65fc 892c 4227 ed2e 35cb 5030 6e64 5a32
00000070: 1690 1139 6c84 9e2f 9db2 bd32 0d40 b935
00000080: da1b b733 a168 2335 3f87 943c 19fe b433
00000090: 78be fb34 c17e 943c 4498 282a 5c7b e72a
000000a0: 9132 5f2f bb08 bc33 bb08 bc33 54c5 be3c
000000b0: 0000 0000 e87e 992f 9c1c 4335 c2e6 b42b
000000c0: 0000 0000 0000 0000 0000 0000 0000 0000
000000d0: 0000 0000 0000 0000 0000 0000 0000 0000
000000e0: 0000 0000 0000 0000 0000 0000 0000 0000
000000f0: 0000 0000 0000 0000 0000 0000 0000 0000
00000100: 0000 0000 0000 0000 0000 0000 0000 0000
00000110: 0000 0000 0000 0000 0000 0000 0000 0000
00000120: 0000 0000 0000 0000 0000 0000 0000 0000
00000130: 0000 0000 0000 0000 0000 0000 0000 0000
00000140: 0000 0000 0000 0000 0000 0000 0000 0000
00000150: 0000 0000 0000 0000 0000 0000 0000 0000
00000160: 0000 0000 0000 0000 0000 0000 0000 0000
00000170: 0000 0000 0000 0000 0000 0000 0000 0000
00000180: c991 3443 22b6 f143 b376 a541 8b3c d441
00000190: 6c0b 3343 60e9 a142 2ed3 a043 1d4b 9538
000001a0: 1c01 e748 de43 3649 6036 1648 cd85 5746
000001b0: 8dfb fc48 e2b6 c048 c59b 0f49 e1a0 6938
000001c0: b9ee ef3d 1fca 9b3e 26bc c33c b695 933c
000001d0: db32 ea3d 2272 3e3d fe8b 5a3e cab9 7538
000001e0: f1ec 8d38 9f6a 183a 026f 993b a84b b53b
000001f0: 8f7f 0644 6d05 9d3a 5c90 db3d 2c15 3f3f
00000200: 978e 793b 2f38 f23e 5fe4 0f42 0ddb 8e39
00000210: 9849 143f dce1 a03f 71d5 b234 9afc 2537
00000220: 8742 173a 0487 493a 16bb 753b a3bb dc44
00000230: f260 423b 12b4 013a 472a 113f ea5c 9938
00000240: 3401 7d43 937d 2444 c162 f641 f595 0d42
00000250: bdf5 7a43 5106 e542 bb97 df43 6ac8 e536
00000260: 3177 2149 1b05 7649 7ab3 5948 c031 7246
00000270: d09c 3049 c29e 0649 ace4 4649 517e bb36
00000280: ebaf 283e a77d d43e e3db 0a3d 500f c63c
00000290: 9e91 253e ac12 8a3d f68a 973e dd21 a938
000002a0: a7a5 c338 b163 533a 5e15 d73b 5137 dd3b
000002b0: c848 2f44 450b ce3a dc02 1e3e 9c70 893f
000002c0: 6d4f a53b b3ed 073f 9b40 1a42 a935 9839
000002d0: 298a 183f 42a4 003f 3093 f634 e845 6237
000002e0: 5ac2 4c3a 3357 793a f234 b33b 0f0f ad43
000002f0: 1263 853b a9f4 fd39 3d3b 0a3f ca50 a838
00000300: 117b a83c 03ea 2840 0000 0000 1917 c33d
00000310: 0000 0000 0000 0000 0005 a538 3e4f bd37
00000320: 5074 0943 a0d9 b045 0000 0000 834b cd43
00000330: 5e82 0a3e a6e4 143d b8d4 d243 e242 a037
00000340: 571a 7837 65ea bf3a d9c7 2233 35ac 8c38
00000350: d9c7 2233 d9c7 2233 7925 2334 6119 6a31
00000360: a08c 6c31 852d bc34 df38 e535 0b84 5238
00000370: 47bd 3f41 b18a 0735 b427 5b37 629b 3c3a
00000380: 9abb cc37 a5bf 3c3c 4b87 273f a15e 9437
00000390: 7b5f 283c df17 0c3f bb1a 0e2d 9c50 562e
000003a0: 8aff 9e33 a0be 1d38 a0be 1d38 3e96 8b43
000003b0: 0000 0000 beb0 0233 a288 2539 25b1 4533
000003c0: a7f7 8b3d 17a9 eb3d 3297 193d ca75 183b
000003d0: 119d 8d3d 945f 773d 8304 a33d 8051 4130
000003e0: 8d87 fa42 6847 2243 92d3 9a42 c3eb 513f
000003f0: b792 0143 0fd4 f142 ba29 0643 fed0 3030

exp_avg f4 [128]
6e-45 0.0 -0.0002802189 0.00038789838 -6e-45 6e-45 3.2749088e-29 6e-45
6e-45 -6e-45 -6e-45 -6e-45 4.065213e-16 -6e-45 6e-45 6e-45
6e-45 6e-45 6e-45 -0.00026752136 -0.0002704661 -6e-45 -6e-45 0.0
6e-45 -6e-45 -6e-45 6e-45 -6e-45 -6e-45 0.0 0.0
0.00014270344 0.0003027404 -0.00057374046 -0.00045529893 6e-45 -6e-45 6e-45 -0.0006033071
-0.000818325 -0.00054783665 -6e-45 -6e-45 6e-45 0.0 0.0005901223 0.0
6e-45 -0.0015277718 -0.00060157856 -0.00063810433 6e-45 6e-45 0.0 0.0006359586
-6e-45 0.0002287192 -0.0005088394 0.0 6e-45 6e-45 9.223446e-05 0.0
1.7775734e-05 0.0 -0.0009933813 0.0009775603 0.0 8.642912e-05 6e-45 0.00082036655
6e-45 6e-45 7.85e-43 6e-45 -0.00034143435 3.215725e-16 6e-45 1.453e-42
-6e-45 -6e-45 -6e-45 6e-45 6e-45 -0.00023132241 -3.350505e-05 0.00031014942
0.0 0.00031929652 6e-45 -8.051658e-05 6e-45 6e-45 -6e-45 -6e-45
0.0 0.0 0.0 0.0 0.00025832414 -6e-45 6e-45 0.0004771817
-0.00014618818 -4.7383022e-05 -6e-45 0.0 0.0 6e-45 -0.0004952932 6e-45
6e-45 6e-45 -6e-45 0.0005476729 2.9021034e-05 -0.00046972415 6e-45 5.856386e-05
-6e-45 -6e-45 -0.0017909893 -0.0004524636 0.0 0.0 6e-45 -0.0002499295
00000000: 0400 0000 0000 0000 58ea 92b9 d75e cb39
00000010: 0400 0080 0400 0000 bf0e 2610 0400 0000
00000020: 0400 0000 0400 0080 0400 0080 0400 0080
00000030: f457 ea25 0400 0080 0400 0000 0400 0000
00000040: 0400 0000 0400 0000 0400 0000 1c42 8cb9
00000050: 58cd 8db9 0400 0080 0400 0080 0000 0000
00000060: 0400 0000 0400 0080 0400 0080 0400 0000
00000070: 0400 0080 0400 0080 0000 0000 0000 0000
00000080: aaa2 1539 21b9 9e39 1267 16ba 30b5 eeb9
00000090: 0400 0000 0400 0080 0400 0000 4127 1eba
000000a0: dc84 56ba b29c 0fba 0400 0080 0400 0080
000000b0: 0400 0000 0000 0000 70b2 1a3a 0000 0000
000000c0: 0400 0000 843f c8ba 41b3 1dba 7546 27ba
000000d0: 0400 0000 0400 0000 0000 0000 76b6 263a
000000e0: 0400 0080 58d4 6f39 a263 05ba 0000 0000
000000f0: 0400 0000 0400 0000 006e c138 0000 0000
00000100: 191d 9537 0000 0000 5834 82ba 7b21 803a
00000110: 0000 0000 4841 b538 0400 0000 de0d 573a
00000120: 0400 0000 0400 0000 3002 0000 0400 0000
00000130: 8b02 b3b9 ba5f b925 0400 0000 0d04 0000
00000140: 0400 0080 0400 0080 0400 0080 0400 0000
00000150: 0400 0000 238f 72b9 c687 0cb8 8d9b a239
00000160: 0000 0000 4167 a739 0400 0000 02db a8b8
00000170: 0400 0000 0400 0000 0400 0080 0400 0080
00000180: 0000 0000 0000 0000 0000 0000 0000 0000
00000190: ae6f 8739 0400 0080 0400 0000 3e2e fa39
000001a0: 174a 19b9 22bd 46b8 0400 0080 0000 0000
000001b0: 0000 0000 0400 0000 90d6 01ba 0400 0000
000001c0: 0400 0000 0400 0000 0400 0080 b591 0f3a
000001d0: 3272 f337 4f45 f6b9 0400 0000 77a2 7538
000001e0: 0400 0080 0400 0080 a1bf eaba a338 edb9
000001f0: 0000 0000 0000 0000 0400 0000 f808 83b9

exp_avg_sq f4 [128]
8.75602e-08 0.0 0.004889366 0.0066419286 3.760925e-05 1.1909443e-06 0.00071927434 0.0003992057
1.5756677e-05 3.115305e-05 5.9627517e-05 1.3737142e-07 0.0010431898 1.8279593e-07 2.0206112e-07 0.00016338634
3.2765434e-05 5.194665e-05 1.2995811e-06 0.0016400301 0.0031514533 1.4342437e-07 4.3161126e-07 0.0
8.666604e-08 3.7909373e-07 0.00015337 2.4874082e-05 6.725028e-08 3.1461306e-05 0.0 0.0
0.0034043286 0.0028007303 0.019532934 0.007886113 1.388126e-10 2.5734009e-05 4.5520296e-06 0.005847098
0.031258024 0.018457524 2.034907e-06 4.0007788e-05 3.0920905e-08 0.0 0.0120628895 0.0
3.1886563e-07 0.03293362 0.009033263 0.0052681877 1.2875057e-05 8.569388e-09 0.0 0.01750067
1.6286275e-07 0.001128931 0.0033980778 0.0 2.0899362e-08 8.660509e-05 0.0029820302 0.0
0.0018952282 0.0 0.034417886 0.040631805 0.0 0.00065115676 3.8276285e-05 0.015620422
6.037447e-07 3.454349e-08 0.0019591996 5.0874814e-08 0.0031255912 0.0001610198 8.457777e-05 0.0011764297
2.263988e-07 2.2665945e-07 1.12418874e-07 1.0136872e-07 1.3911166e-06 0.00275897 0.00043579316 0.0010239398
0.0 0.00132738 3.3152944e-08 0.0003012642 3.6585206e-07 3.747265e-05 4.996529e-05 7.951902e-05
0.0 0.0 0.0 0.0 0.0022759433 0.0001789332 7.614516e-07 0.009690876
0.0013105083 0.0013557398 1.2576522e-05 0.0 0.0 3.0417299e-05 0.0078096883 1.3867869e-07
2.7153615e-07 4.1253934e-05 7.5942503e-06 0.007715432 0.00029205397 0.0025676715 1.2212014e-07 0.00024313832
1.7415308e-08 9.2558814e-08 0.07481668 0.001775565 0.0 0.0 5.3059306e-05 0.0008472711
00000000: bb08 bc33 0000 0000 fa36 a03b 89a4 d93b
00000010: a0be 1d38 89d8 9f35 af8d 3c3a 7b4c d139
00000020: 352d 8437 55aa 0238 8f18 7a38 5e80 1334
00000030: a4bb 883a 9046 4434 23f6 5834 b052 2b39
00000040: 9e6d 0938 4ae1 5938 446d ae35 47f6 d63a
00000050: 9d88 4e3b 3100 1a34 33b8 e734 0000 0000
00000060: 291d ba33 3f86 cb34 f2d1 2039 afa8 d037
00000070: 3b6b 9033 52f5 0338 0000 0000 0000 0000
00000080: 281b 5f3b 758c 373b 8803 a03c c134 013c
00000090: 46a0 182f 5ddf d737 a3bd 9836 0399 bf3b
000000a0: 6a08 003d 3c34 973c 708f 0836 09ce 2738
000000b0: e5cd 0433 0000 0000 6da3 453c 0000 0000
000000c0: 8f30 ab34 67e5 063d 4000 143c c3a0 ac3b
000000d0: f301 5837 9138 1332 0000 0000 915d 8f3c
000000e0: 5fdf 2e34 a3f8 933a 49b2 5e3b 0000 0000
000000f0: 2f86 b332 c19f b538 2a6e 433b 0000 0000
00000100: 4e69 f83a 0000 0000 c5f9 0c3d 896d 263d
00000110: 0000 0000 64b2 2a3a d98a 2038 ccec 7f3c
00000120: 0511 2235 f85c 1433 ea65 003b 7381 5a33
00000130: b8d6 4c3b 6cd7 2839 585f b138 6e32 9a3a
00000140: 0718 7334 ad5f 7334 ee6a f133 0bb0 d933
00000150: 67b6 ba35 d6cf 343b 2b7b e439 b835 863a
00000160: 0000 0000 7bfb ad3a 0c64 0e33 fff2 9d39
00000170: 536a c434 f42b 1d38 d291 5138 73c3 a638
00000180: 0000 0000 0000 0000 0000 0000 0000 0000
00000190: fe27 153b 04a0 3b39 8e66 4c35 7bc6 1e3c
000001a0: 5dc5 ab3a 14b3 b13a c0ff 5237 0000 0000
000001b0: 0000 0000 a728 ff37 6ae8 ff3b b5e7 1434
000001c0: a5c7 9134 1308 2d38 1dd2 fe36 bcd1 fc3b
000001d0: d21e 9939 6146 283b 2120 0334 f2f2 7e39
000001e0: ab98 9532 bfc4 c633 7d39 993d 13ba e83a
000001f0: 0000 0000 0000 0000 ff8b 5e38 671b 5e3a

exp_avg f4 [64, 128]
6e-45 0.0 0.03152499 0.24949542 -6e-45 -6e-45 1.0040306e-26 -6e-45
-6e-45 -6e-45 -6e-45 6e-45 5.30907e-16 6e-45 -6e-45 -6e-45
-6e-45 -6e-45 -6e-45 0.0089918375 0.06478808 6e-45 6e-45 0.0
6e-45 6e-45 -6e-45 -6e-45 6e-45 -6e-45 0.0 0.0
0.21543993 0.14000775 0.35849872 0.03229189 -6e-45 -6e-45 6e-45 0.094462566
0.106162 0.18049544 6e-45 -6e-45 6e-45 0.0 0.17846681 0.0
-6e-45 0.06473957 0.2037697 0.018479152 -6e-45 -6e-45 0.0 0.22627632
6e-45 0.040319853 0.053639404 0.0 -6e-45 6e-45 0.08017683 0.0
-0.0053199218 0.0 0.08937713 0.12666924 0.0 -0.004300669 6e-45 0.15813568
0.0 6e-45 1.4466e-41 6e-45 -0.01160852 -7.1026313e-15 -6e-45 -4.567e-41
6e-45 6e-45 6e-45 0.0 6e-45 0.05692946 -0.009399108 0.18711974
0.0 0.089360975 6e-45 0.020746473 6e-45 -6e-45 -6e-45 -6e-45
0.0 0.0 0.0 0.0 0.07704078 -6e-45 -6e-45 0.055962794
-0.0071633304 0.0729377 -6e-45 0.0 0.0 -6e-45 0.08838216 -6e-45
6e-45 -6e-45 -6e-45 0.015442848 0.102878846 0.1672179 6e-45 0.026236754
6e-45 6e-45 0.04101396 0.026379127 0.0 0.0 -6e-45 -0.005170894
6e-45 0.0 -0.0016758728 -0.01534748 6e-45 6e-45 -2.8885777e-27 -6e-45
6e-45 -6e-45 -6e-45 6e-45 -2.5361364e-17 6e-45 6e-45 -6e-45
6e-45 -6e-45 6e-45 7.085934e-05 -0.0041045104 6e-45 6e-45 0.0
6e-45 6e-45 -6e-45 -6e-45 6e-45 -6e-45 0.0 0.0
-0.013443529 -0.008087993 -0.021632727 -0.0019660078 -6e-45 -6e-45 -6e-45 -0.0060458286
-0.006361502 -0.011194425 6e-45 6e-45 6e-45 0.0 -0.010875072 0.0
-6e-45 -0.004394747 -0.0130419815 -0.0010018823 6e-45 6e-45 0.0 -0.013377648
6e-45 -0.0022343171 -0.003674507 0.0 6e-45 6e-45 -0.0050104065 0.0
0.00096688763 0.0 -0.0055269836 -0.0074922447 0.0 0.00053342595 -6e-45 -0.009425308
-6e-45 6e-45 6.124e-42 6e-45 0.0013006425 7.7142536e-16 -6e-45 -1.4023e-41
6e-45 6e-45 6e-45 -6e-45 6e-45 -0.0032271515 0.0009809181 -0.011404866
0.0 -0.0054593775 6e-45 -0.0014228213 6e-45 6e-45 -6e-45 -6e-45
0.0 0.0 0.0 0.0 -0.00459072 -6e-45 6e-45 -0.0031664248
0.0009096354 -0.0049986173 6e-45 0.0 0.0 6e-45 -0.0047558914 -6e-45
6e-45 -6e-45 -6e-45 -0.000926445 -0.0065183574 -0.010399918 6e-45 -0.00179754
6e-45 6e-45 -0.0027677936 -0.0016552943 0.0 0.0 6e-45 0.00038513332
00000000: 0400 0000 0000 0000 5920 013d ba7b 7f3e
00000010: 0400 0080 0400 0080 66de 4614 0400 0080
00000020: 0400 0080 0400 0080 0400 0080 0400 0000
00000030: 0606 1926 0400 0000 0400 0080 0400 0080
00000040: 0400 0080 0400 0080 0400 0080 8052 133c
00000050: 9daf 843d 0400 0000 0400 0000 0000 0000
00000060: 0400 0000 0400 0000 0400 0080 0400 0080
00000070: 0400 0000 0400 0080 0000 0000 0000 0000
00000080: 499c 5c3e 315e 0f3e 258d b73e 8044 043d
00000090: 0400 0080 0400 0080 0400 0000 9775 c13d
000000a0: 766b d93d ccd3 383e 0400 0000 0400 0080
000000b0: 0400 0000 0000 0000 01c0 363e 0000 0000
000000c0: 0400 0080 2e96 843d 01a9 503e 9761 973c
000000d0: 0400 0080 0400 0080 0000 0000 fbb4 673e
000000e0: 0400 0000 6e26 253d feb4 5b3d 0000 0000
000000f0: 0400 0080 0400 0000 c033 a43d 0000 0000
00000100: bd52 aebb 0000 0000 5b0b b73d 95b5 013e
00000110: 0000 0000 a0ec 8cbb 0400 0000 52ee 213e
00000120: 0000 0000 0400 0000 5328 0000 0400 0000
00000130: a931 3ebc 36e6 ffa7 0400 0080 4f7f 0080
00000140: 0400 0000 0400 0000 0400 0000 0000 0000
00000150: 0400 0000 de2e 693d b7fe 19bc 519c 3f3e
00000160: 0000 0000 e302 b73d 0400 0000 82f4 a93c
00000170: 0400 0000 0400 0080 0400 0080 0400 0080
00000180: 0000 0000 0000 0000 0000 0000 0000 0000
00000190: 8ec7 9d3d 0400 0080 0400 0080 3e39 653d
000001a0: 5fba eabb 5c60 953d 0400 0080 0000 0000
000001b0: 0000 0000 0400 0080 b501 b53d 0400 0080
000001c0: 0400 0000 0400 0080 0400 0080 0004 7d3c
000001d0: 25b2 d23d 2b3b 2b3e 0400 0000 76ee d63c
000001e0: 0400 0000 0400 0000 41fe 273d 0a19 d83c
000001f0: 0000 0000 0000 0000 0400 0080 9a70 a9bb
00000200: 0400 0000 0000 0000 f6a8 dbba ff73 7bbc
00000210: 0400 0000 0400 0000 51db 6493 0400 0080
00000220: 0400 0000 0400 0080 0400 0080 0400 0000
00000230: d4ea e9a3 0400 0000 0400 0000 0400 0080
00000240: 0400 0000 0400 0080 0400 0000 529a 9438
00000250: 217f 86bb 0400 0000 0400 0000 0000 0000
00000260: 0400 0000 0400 0000 0400 0080 0400 0080
00000270: 0400 0000 0400 0080 0000 0000 0000 0000
00000280: 3f42 5cbc 8083 04bc 1e37 b1bc 23d8 00bb
00000290: 0400 0080 0400 0080 0400 0080 161c c6bb
000002a0: 2674 d0bb d268 37bc 0400 0000 0400 0000
000002b0: 0400 0000 0000 0000 5c2d 32bc 0000 0000
000002c0: 0400 0080 cf01 90bb 09ae 55bc 9751 83ba
000002d0: 0400 0000 0400 0000 0000 0000 ec2d 5bbc
000002e0: 0400 0000 9f6d 12bb ffcf 70bb 0000 0000
000002f0: 0400 0000 0400 0000 562e a4bb 0000 0000
00000300: bb76 7d3a 0000 0000 b31b b5bb 8181 f5bb
00000310: 0000 0000 9cd5 0b3a 0400 0080 9b6c 1abc
00000320: 0400 0080 0400 0000 1211 0000 0400 0000
00000330: 527a aa3a 2559 5e26 0400 0080 1727 0080
00000340: 0400 0000 0400 0000 0400 0000 0400 0080
00000350: 0400 0000 9e7e 53bb 2692 803a 7adb 3abc
00000360: 0000 0000 94e4 b2bb 0400 0000 f67d baba
00000370: 0400 0000 0400 0000 0400 0080 0400 0080
00000380: 0000 0000 0000 0000 0000 0000 0000 0000
00000390: c06d 96bb 0400 0080 0400 0000 cb83 4fbb
000003a0: 9974 6e3a 71cb a3bb 0400 0000 0000 0000
000003b0: 0000 0000 0400 0000 4fd7 9bbb 0400 0080
000003c0: 0400 0000 0400 0080 0400 0080 acdc 72ba
000003d0: f297 d5bb 6b64 2abc 0400 0000 6f9b ebba
000003e0: 0400 0000 0400 0000 df63 35bb 76f6 d8ba
000003f0: 0000 0000 0000 0000 0400 0000 b8eb c939
