src/model_data/Britis_Grand_Prix_model.pth (torch, 197923 bytes, 21 tensors)

net.0.weight f4 [128, 48]
000000 48 69 6e bd f9 15 14 be 8b a4 92 bd f0 92 55 be
       -0.058205873 -0.14461507 -0.0716029 -0.20856833
000010 56 9a 48 3e fb 07 14 3e c0 d3 0c be 71 0f 20 be
       0.19590124 0.1445617 -0.13752651 -0.1563089
000020 d4 eb 0d be 26 c9 e0 3b c8 65 33 bc 91 73 ef 3d
       -0.13859493 0.0068599163 -0.0109495595 0.116919644
000030 ad 38 62 be 41 97 06 3e 45 9e 51 bd e6 04 36 bd
       -0.22091933 0.13143636 -0.05117633 -0.044438265
000040 b6 8d 4b be 4a 4a a9 3d eb 3b e5 bd 04 82 9d 3c
       -0.19878277 0.08266123 -0.11193069 0.019227035
000050 49 fb 32 3d a9 92 d4 bd 07 ec 34 3e 61 39 d7 bc
       0.043696675 -0.10379536 0.17668162 -0.026272478
000060 0a f0 e2 bd d8 50 36 be 24 47 c4 3d 4a cb 1a be
       -0.1108094 -0.17804277 0.095838815 -0.15116611
000070 f9 85 4f bd f4 cd dc 3d ad 25 61 be 53 78 93 3d
       -0.050664876 0.1078147 -0.21987028 0.072006844
000080 9d 90 f6 bc 7f 94 41 bc 37 03 d7 bd 11 f2 c7 bd
       -0.030098254 -0.011815189 -0.1049866 -0.097629674
000090 c6 f5 1c bd 83 bf 23 be 44 0a ed bd 70 ab 04 be
       -0.038320325 -0.15991025 -0.11574224 -0.12956023
0000a0 f0 0a ab bc 38 80 31 be a2 e9 af bc 17 f9 c4 bc
       -0.020879239 -0.17334068 -0.02147371 -0.024044557
0000b0 14 9e 07 be bc 9b 9f 3d 98 61 d7 bd 69 cc 2a be
       -0.13243896 0.07793376 -0.105166614 -0.16679539
0000c0 e4 9a f8 3c 57 dd b2 3d b8 43 31 be 41 23 85 bd
       0.030347295 0.087336235 -0.17310989 -0.06500865
0000d0 54 1c de 3c e6 55 02 be f2 30 a1 ba d3 8a 6a bc
       0.027113117 -0.1272808 -0.0012297912 -0.014315325
0000e0 d4 2d 0a be 97 0b 09 be 03 f5 49 bd d8 1e 01 3e
       -0.13494045 -0.13383327 -0.049305927 0.12609422
0000f0 64 21 28 be 63 86 86 bd 3c a8 e5 bd ac 04 ff bd
       -0.16418988 -0.06568601 -0.11213729 -0.12452063
000100 a3 86 9b bd 8c 16 4b bd ef d0 e9 3d d0 bf 1a be
       -0.07594039 -0.04958205 0.11416804 -0.15112233
000110 f0 49 59 3d 00 b9 09 3e 55 5a 22 be 9a 5e 85 3d
       0.053049028 0.13449478 -0.15854771 0.065121844
000120 72 b3 fa bd 75 25 4d be 4b f1 66 bd e1 62 ab 3d
       -0.12241258 -0.2003382 -0.05638246 0.08368469
000130 af b4 29 bc 26 ad 92 3d dc 78 c1 bd 38 73 92 bd
       -0.01035802 0.07161932 -0.0944688 -0.071508825
000140 22 4f 42 3d 0f b5 03 be 4b fa d4 bd 0c a5 de bc
       0.04743875 -0.12862037 -0.10399302 -0.02717831
000150 4c e7 1e bd 88 c0 d2 3d 78 da b6 3d a6 d9 1b 3e
       -0.0387948 0.10290629 0.08928388 0.15219745
000160 fb 32 35 be 7b e7 ea 3c 07 18 1e be 0a 00 b3 3d
       -0.17695229 0.028674832 -0.15438853 0.08740242
000170 01 22 b3 bd 65 67 d6 bc 5c be bb 3d 53 7a 28 3a
       -0.0874672 -0.02617235 0.091671675 0.0006426919
000180 89 4d 9b bd 6a 60 1e 3e ba ab cc 3d 06 78 1a be
       -0.07583148 0.15466467 0.09993692 -0.15084848
000190 d2 e5 dc bd 01 de aa bc 69 7d f0 3d fb 4f 8d 3e
       -0.10786022 -0.020857813 0.1174267 0.27600083
0001a0 14 37 06 3e 19 5d 2d bd 74 4c bd 3c 88 b6 f1 bd
       0.13106948 -0.042325113 0.023107745 -0.11802393
0001b0 16 c8 6f 3d 68 70 c2 3d 61 8a 88 3d 97 a7 2e be
       0.058540426 0.09494096 0.06667019 -0.17056118
0001c0 3c 76 e0 3d 0c a7 f8 3d 85 83 15 3e 9a 17 07 3d
       0.109600514 0.12141237 0.14600952 0.032981493
0001d0 13 ec 66 bc c1 27 13 be 17 fe c6 3d d6 67 10 be
       -0.01409437 -0.14370634 0.097164325 -0.1410211
0001e0 ad 42 60 3d e7 84 12 bd 1f 70 07 be 75 d5 86 bd
       0.054751087 -0.035771277 -0.13226365 -0.065836824
0001f0 85 47 8a 3e 8d b0 70 3e 84 68 07 3e ee 3d 4a be
       0.2700769 0.23504849 0.13223463 -0.19750187
000200 4e 78 55 bd bb 13 98 3d 12 fc 6e 3d e0 13 a6 bd
       -0.052116685 0.07425638 0.05834586 -0.081092596
000210 55 67 9e 3d 29 ad 01 3d fb f1 ad 3c 6f a3 90 bc
       0.07734553 0.03165928 0.02123355 -0.017656056
000220 d4 9d 6f bd d4 da 97 bb aa 2c 3b bd be 26 fb 3d
       -0.058500126 -0.0046342406 -0.04569689 0.12263249
000230 65 88 07 3f a7 d7 97 3e 25 c8 b2 3e cd b7 05 bd
       0.52942497 0.29656717 0.34918323 -0.03264599
000240 1c 01 df bb 59 11 97 bd 4d e1 b2 bc 45 83 d3 3b
       -0.006805552 -0.07376356 -0.021835947 0.0064548575
000250 8f 78 e7 3b 9b 1c a4 ba 0c 02 7c be 78 c1 5f bd
       0.0070639323 -0.0012520732 -0.24610156 -0.054627866
000260 66 50 24 be 71 3b 21 bd d5 a6 a6 3d 76 1a 67 3d
       -0.16046295 -0.03936333 0.081372894 0.05642172
000270 23 35 10 3e d9 9b 0b be eb 58 4b bc f2 61 af 3c
       0.1408277 -0.1363367 -0.012411336 0.021409009
000280 32 15 80 be ec 38 5c 3e 7f 01 20 be b7 03 ff bc
       -0.2501617 0.21506089 -0.1562557 -0.031129701
000290 84 ad 99 3c 43 2c db bc b4 7d 28 bd aa d1 e8 bd
       0.018759497 -0.026754504 -0.041135505 -0.11368115
0002a0 7c e2 3b bc d7 0d d4 3d 1f 54 60 3d 58 ea b7 bd
       -0.011467572 0.10354202 0.054767724 -0.089802444
0002b0 6a 07 41 3e 65 dd 31 3e 91 0b 7b 3d 3d a9 e3 b9
       0.18850484 0.17369612 0.061290327 -0.00043422906
0002c0 9f 08 88 bd f8 55 2c 3e e0 36 cd 3d a2 ee 43 bd
       -0.06642269 0.1682967 0.10020232 -0.047835
0002d0 18 6c 6c bd b2 55 c9 bd 3b bc e3 bc e8 a3 68 bd
       -0.057720274 -0.09830798 -0.027799716 -0.05679694
0002e0 7c 33 43 3e 70 51 bc bd bd 52 c6 3d 18 9e 50 3e
       0.19062608 -0.091952205 0.0968375 0.20372808
0002f0 9d 5b 06 be a5 db bd bd c8 e3 45 bd 20 b5 c7 3c
       -0.13120885 -0.092704095 -0.048312932 0.02437836
000300 af 14 1a bd e7 a5 20 bd bd e9 ab 3d d8 3f 90 bc
       -0.03761738 -0.039220717 0.083941914 -0.017608568
000310 f9 8e 25 be 8d df 9a 3d cb dc d1 bd 4f 0f 21 3d
       -0.16167821 0.0756217 -0.10247191 0.03932124
000320 6b e0 0c bd 6f 59 10 3e d5 7f 2b bd 9d bb 2c be
       -0.03439371 0.14096616 -0.041869957 -0.16868444
000330 0c f3 0d be 6c 88 a0 bd a5 0f d9 3c 96 60 e2 bc
       -0.13862246 -0.078385204 0.026496718 -0.027633946
000340 89 2b a3 3c 0e 7b fe bd d1 27 53 bd 4e 9c 71 bd
       0.01991822 -0.124258146 -0.051551644 -0.058986954
000350 9d 59 77 3d ef 09 28 be 11 eb 07 be 70 63 c2 bd
       0.060388196 -0.1641004 -0.13273264 -0.094916224
000360 69 c5 23 be e0 dd 95 3c e9 a7 24 3b a7 ee 1a be
       -0.15993275 0.018294275 0.0025124496 -0.15130101
000370 fd 25 40 bc b2 50 35 be 3e 27 06 3e d0 80 c9 bd
       -0.011727807 -0.17706564 0.13100907 -0.09839022
000380 0f a4 87 bc 32 64 93 be 5b eb 8f bc 8b f8 e3 3d
       -0.016557721 -0.2878738 -0.01756828 0.1113139
000390 c5 98 99 3d 42 08 45 bd ab 85 9e 3c 70 78 c9 3c
       0.074998416 -0.04810358 0.019350847 0.024593562
0003a0 5b a8 42 3e 92 27 0f 3e 06 3e 08 be 1f 85 6b be
       0.19009535 0.13979939 -0.1330491 -0.23
0003b0 2b 2a 24 3e 08 90 ba 3e de 07 87 3e bc 7a a0 bd
       0.16031711 0.36438012 0.2637319 -0.0783591
0003c0 7b e5 c9 bd 6f c3 49 be 24 83 27 be df 04 e6 3d
       -0.09858223 -0.19703458 -0.1635862 0.11231398
0003d0 89 05 0a be de 61 87 3d 6e 8a 92 3d b5 f3 d4 bc
       -0.13478674 0.066104636 0.071553096 -0.025995115
0003e0 19 c5 dd 3d de c2 e2 bd 9d 89 bf bd 6a 3d 7d bc
       0.10828609 -0.11072324 -0.093524195 -0.015456537
0003f0 e5 55 07 be ac 48 35 be 6f e8 c8 3d 6f f3 58 be
       -0.1321636 -0.17703503 0.09809958 -0.21186613

net.0.bias f4 [128]
000000 15 ed 69 bd cd d1 00 bd 76 7d 04 3d 80 e8 61 3c
       -0.057110865 -0.03145008 0.03234621 0.0137883425
000010 e5 42 06 bd c3 4b 87 bd f0 09 e1 bc 00 00 00 00
       -0.03277864 -0.06606247 -0.027470559 0.0
000020 75 52 2e bd af c9 91 3c c4 13 b1 bc 9d 9a d6 bb
       -0.042559106 0.017796366 -0.02161587 -0.006549193
000030 d8 79 33 bb 27 91 23 bc 1e 34 f7 bb 00 00 00 00
       -0.0027385857 -0.0099833375 -0.0075440546 0.0
000040 14 fa 8c bc fd 21 cf ba 42 0f 08 bd 00 00 00 00
       -0.01720909 -0.0015802976 -0.033217676 0.0
000050 b1 98 77 3c d4 f2 ba 3b ea 11 7c bb 48 e9 b2 bb
       0.015112088 0.005705217 -0.0038462826 -0.005459938
000060 de 3b 8e bd 7f 9f dc bc 75 1f 06 bd 00 00 00 00
       -0.069450125 -0.026931522 -0.032744844 0.0
000070 2a e5 0b 3b fa 01 47 3c 93 88 02 bd 81 4a 49 bc
       0.002134631 0.012146467 -0.03186853 -0.0122858295
000080 e6 e6 63 bc 00 00 00 00 18 d9 fd bc 00 00 00 00
       -0.013910031 0.0 -0.030987307 0.0
000090 c4 f3 98 3b d2 6d d8 bc f9 70 93 bc b9 b2 32 bd
       0.004667731 -0.026419554 -0.017998205 -0.043627474
0000a0 07 5e 99 3c 00 00 00 00 c2 27 8f bd b5 04 34 3c
       0.018721594 0.0 -0.06990005 0.01098745
0000b0 8c 67 a8 bc 86 96 4e bc 06 bb ef bc e8 3a 17 bd
       -0.020557187 -0.01260913 -0.029263984 -0.03692141
0000c0 d1 28 fa bc 99 8d 3d bc 3d e6 b4 b9 4b 0d cb bc
       -0.03053704 -0.011569404 -0.00034503816 -0.024786612
0000d0 37 bb b7 bc 80 44 3f bd cf b2 09 bd 70 5f a4 bb
       -0.022428138 -0.046696186 -0.03361779 -0.00501626
0000e0 ba 99 46 3c 19 8e 42 bd 81 ca e0 3a 04 51 a0 3a
       0.012121612 -0.047498796 0.0017150195 0.0012231176
0000f0 92 60 01 bc 00 00 00 00 00 00 00 00 f6 4d f7 bc
       -0.007896559 0.0 0.0 -0.030188542
000100 00 00 00 00 00 00 00 00 00 00 00 00 e4 bf dc bb
       0.0 0.0 0.0 -0.0067367423
000110 36 17 c9 bc 9d 26 7b 3b 29 fc d3 ba c0 dd 98 bc
       -0.0245472 0.0038322576 -0.0016173172 -0.018660426
000120 1b cd c4 b9 1d fd f6 bc 22 f6 5d bd 35 10 c8 b7
       -0.0003753685 -0.03014999 -0.05418981 -2.3849405e-05
000130 29 0b dc bd 02 5c bc bc 4a 0b 9c bc b8 ba cc bc
       -0.10744316 -0.022993091 -0.019048352 -0.024991378
000140 00 00 00 00 fe b8 91 3b b3 08 66 bc 8b 88 53 bd
       0.0 0.0044471016 -0.01404016 -0.05164389
000150 7b 45 22 bd fc fe 7e bc 00 00 00 00 07 c7 76 bc
       -0.039617043 -0.015563723 0.0 -0.0150621
000160 00 00 00 00 00 00 00 00 00 00 00 00 00 00 00 00
       0.0 0.0 0.0 0.0
000170 1c 34 08 bd 65 06 79 3b 00 00 00 00 e5 5d 92 bc
       -0.03325282 0.0037998196 0.0 -0.017867038
000180 65 a9 24 3b 6c b7 35 bc 00 00 00 00 10 c8 df bb
       0.002512538 -0.011091094 0.0 -0.006829269
000190 18 03 c5 bc df d7 5a bd 00 00 00 00 e2 fa 79 3c
       -0.024049327 -0.053428527 0.0 0.015257569
0001a0 14 dc 6d bc 76 a2 28 bd 71 06 e3 bb 3b 80 66 bd
       -0.014517803 -0.04117056 -0.006928258 -0.056274634
0001b0 c4 9f 40 bd 70 d6 54 bd 39 03 c2 bc 16 70 e6 bc
       -0.047027364 -0.051962316 -0.023683177 -0.028129619
0001c0 8f 23 84 bb ac a9 92 bc 7a 86 03 bd 00 00 00 00
       -0.004032559 -0.017903171 -0.03211067 0.0
0001d0 90 29 29 bd b6 a2 20 bd 99 09 24 bd dc 59 ba bc
       -0.041299403 -0.039217673 -0.040048216 -0.022747926
0001e0 00 00 00 00 6b 8f d7 bb 3b a9 04 bc 6a 69 f6 bc
       0.0 -0.006578376 -0.008096988 -0.030079562
0001f0 91 d1 7c bc 20 bf 9b bc 00 00 00 00 00 00 00 00
       -0.015430824 -0.019012034 0.0 0.0

net.2.weight f4 [64, 128]
000000 3c 72 18 3e af be 29 be 7b 8f a1 bd 4f 8a a7 bd
       0.14887327 -0.16576646 -0.07888695 -0.08180677
000010 c5 7f 21 3e 38 de 3b bc 08 42 ca 3d 4c 08 f8 bd
       0.15771396 -0.011466555 0.09875876 -0.121109575
000020 37 5c b6 bd bd 43 44 3b 07 37 f6 bd a1 aa 36 be
       -0.08904307 0.0029947602 -0.120222144 -0.17838527
000030 fa a7 c5 3c 16 ae 09 3d dd 9a d6 bd 13 58 a5 3d
       0.024127949 0.033613287 -0.104787566 0.080734394
000040 fc f0 ff 3d f8 dd 31 be cd 3a 1a 3d d7 65 ba 3d
       0.12497136 -0.1736983 0.037653733 0.09101456
000050 e0 35 8b 3d e0 2b 98 bd 7d a4 a4 bd c7 3e db bb
       0.06797385 -0.074302435 -0.08039186 -0.0066908333
000060 81 98 42 be cc e9 f2 bc 5d 90 07 3e f8 9b c0 3c
       -0.19003488 -0.029652499 0.13238664 0.023511872
000070 cb 34 0d be 7d 56 92 bc 39 da 8f 3d f8 5a 9b 3d
       -0.1378967 -0.017863506 0.070240445 0.0758571
000080 f1 18 e1 bd ed 7b 90 3d 78 f4 a2 3d 6b d5 19 3e
       -0.10991085 0.07054887 0.07956785 0.15022819
000090 99 67 a5 bc 89 0e d2 3d 33 a8 bd 3d 48 cd ab 3d
       -0.020191 0.102566786 0.09260597 0.08388764
0000a0 ab 3b ac 3d 08 d1 ae 3d 2b f0 12 3e 62 e5 bc bd
       0.08409818 0.08535963 0.1434943 -0.09223439
0000b0 c1 6b d1 3c 7a 14 09 3e 55 a2 8d 3d aa dc 94 3c
       0.025564076 0.13386717 0.06915728 0.018171627
0000c0 f8 1c b3 3d 63 bd 97 bc 24 27 2b 3d 24 77 00 be
       0.0874576 -0.018522924 0.041785374 -0.12545449
0000d0 dd c1 f4 bb 3a 49 3c be 56 47 d2 bc 1c eb 28 3e
       -0.0074693994 -0.18387309 -0.025668781 0.16495937
0000e0 52 2b 98 bb 55 df cf 3d 61 04 4c ba 17 4b 04 bb
       -0.004643836 0.10150019 -0.0007782635 -0.0020186359
0000f0 11 44 1a 3e 8d 42 f7 bd b1 1d 5c 3d 00 f6 08 be
       0.15065028 -0.120732404 0.053739253 -0.13375092
000100 65 6f 27 be d5 d1 04 be ca c3 ff 3c 8b 40 47 be
       -0.16351087 -0.1297067 0.03122129 -0.19458215
000110 29 2a b4 bd 0b 6d 1b bd 19 d4 40 3d d4 ae b7 3d
       -0.08797104 -0.03794579 0.047077272 0.08968893
000120 ab dd 4a be f9 8b 31 be a0 c2 28 be 2d 5f 4b 3c
       -0.19811122 -0.17338552 -0.16480494 0.012412828
000130 db 07 32 bd 53 c7 cf bd d3 b8 13 be f8 33 47 3d
       -0.043464523 -0.1014544 -0.14425974 0.048633546
000140 b0 47 23 3e 9d d1 09 be 34 7e 22 3e 92 12 2a be
       0.15945315 -0.13458867 0.15868455 -0.16608647
000150 31 25 45 3c e9 4e 6d bc 29 f8 05 3e 84 3a 8f bd
       0.012032793 -0.014484146 0.13082947 -0.06993583
000160 93 fd b5 3d cc 93 c8 3c c1 57 c0 bd 0d df d4 bd
       0.08886256 0.024484538 -0.09391738 -0.10394106
000170 5a 15 1a be 37 1c 0e be e5 0c a2 bb a0 5a b9 3c
       -0.15047207 -0.1387795 -0.004945385 0.022626221
000180 a8 c7 0d 3d 40 10 1f be e7 53 ce 3d 79 86 4c be
       0.034614235 -0.15533543 0.10074597 -0.19973172
000190 75 60 1e be 3b 5b 19 be 69 e0 43 3d cb 91 bc 3d
       -0.15466483 -0.14976208 0.047821436 0.09207495
0001a0 e1 ce 43 3d 2d 99 0b 3e 18 1c 3a 3c fe d8 eb bc
       0.047804717 0.1363265 0.011359237 -0.028789993
0001b0 f4 b8 3a 3e 55 22 0e 3d bd 66 f6 bb e1 b8 a9 bd
       0.18234617 0.03470071 -0.0075195716 -0.08287216
0001c0 39 a7 79 bd bc 3c 67 3c d1 63 11 be 7f aa d3 bd
       -0.06095049 0.014113601 -0.14198233 -0.10335254
0001d0 9a 92 ac bd 85 b2 31 3e 87 b2 d1 bc 19 5d 42 3e
       -0.084263995 0.17353256 -0.025597824 0.18980826
0001e0 97 0d 22 be 6a 9b ea 3d 12 45 2f 3d 55 82 f1 3d
       -0.15825497 0.11455424 0.04279048 0.11792437
0001f0 b4 ac c7 3d c0 2c 8d 3d 52 d5 68 bd 66 61 60 3d
       0.097497374 0.06893301 -0.056844063 0.054780386
000200 3b 81 8f 3d 72 d7 2e 3d ee 07 cf bd dc df e1 3c
       0.07007071 0.042685933 -0.10108934 0.027572565
000210 b9 35 57 3d 22 12 cc bd 59 17 27 bb 37 d1 9e 3d
       0.05254147 -0.09964396 -0.0025496094 0.07754748
000220 20 a8 ae 3d dc d1 1c 3e eb 20 a8 bd e2 5f 63 bd
       0.08528161 0.1531443 -0.082094036 -0.055511363
000230 61 00 4c 3e 18 4a 1d be d7 c3 d9 bc cc e2 32 bd
       0.1992202 -0.15360296 -0.026582642 -0.04367332
000240 60 1c 95 bd 5d e8 dd bd 0f ac 0b be ca d3 4c 3d
       -0.07280803 -0.108353354 -0.13639854 0.050006665
000250 15 5a 39 be 36 3e df 3b ba d0 f5 3c 5d 05 b3 3c
       -0.1810077 0.006812836 0.030006755 0.021853143
000260 a5 a2 10 bc 41 79 88 bc 42 2d 61 bd f5 93 e4 bd
       -0.00882784 -0.01665938 -0.0549748 -0.11161033
000270 b2 d7 8a 3c 12 ce 44 be 2c 25 43 3d d1 6e 04 3e
       0.016948555 -0.19219235 0.04764287 0.12932898
000280 8c b5 63 bd 31 db c4 bd 41 ba 91 3d 42 2e 1b 3e
       -0.05559306 -0.0961212 0.07115603 0.15154365
000290 03 31 12 3d 19 cb a9 3d 69 00 6b bd c2 40 4b 3d
       0.035691272 0.08290691 -0.057373438 0.049622305
0002a0 8d 7d 77 3c 2d e9 d1 3d 05 79 ec 3d dc 93 74 bd
       0.015105617 0.10249553 0.1154652 -0.059711322
0002b0 5a c7 b6 bc 23 e3 40 be 1d 3b cf bd 0c 9d cd 3d
       -0.022311855 -0.18836646 -0.10118697 0.1003972
0002c0 53 4e f8 3d b3 18 37 bd 12 e6 f1 3b 98 91 b2 3d
       0.12124314 -0.04470129 0.007382163 0.08719176
0002d0 5e d9 0f 3e 2e a1 96 bd ee 67 fb 3d 64 58 6b 3d
       0.14047763 -0.07354961 0.122756824 0.057457343
0002e0 6f 40 f2 3c 0f 91 1e 3e 6f 7f d0 bd df 78 86 bd
       0.02957174 0.15485023 -0.10180556 -0.06566023
0002f0 63 e2 fa 3d 04 81 c3 3c b1 cb e1 bd da 86 03 3e
       0.12250211 0.02386523 -0.11025179 0.1284441
000300 b1 78 2d 3d 32 c6 e0 bd df dc f6 bd 4a 58 ec bd
       0.04235143 -0.10975303 -0.120538466 -0.11540277
000310 34 bd 3f be b2 08 b5 bc 74 6c 1e 3c e3 c4 82 3d
       -0.18724519 -0.022098873 0.009669412 0.063852094
000320 b4 92 87 bd a7 ae 07 3e 90 e2 ec bd 10 2a 40 3e
       -0.06619778 0.13250218 -0.11566651 0.18766046
000330 1b 7d 68 bc 6f 2a 1e bd 1c ad 0e 3e 22 f6 25 3e
       -0.014189984 -0.038614687 0.13933223 0.16207173
000340 41 8a 5c 3d f6 5f 05 be 69 b6 35 3d d2 02 33 bd
       0.053842787 -0.13024887 0.044363413 -0.04370386
000350 ae 82 4c bd 1a ca c4 bc 91 29 28 bd 80 95 2a bd
       -0.049929313 -0.02402215 -0.041055266 -0.04164648
000360 1c 9f 3b 3c 65 0b 05 be a6 c7 21 be 92 69 16 3e
       0.011451509 -0.12992628 -0.15798816 0.1468871
000370 fb 03 a2 3d 7d 33 4d 3d 67 63 32 3e 4f e6 8a bd
       0.079109155 0.05009793 0.17420731 -0.06782209
000380 a7 b7 9a bd 7f 29 ad 3d 1e d6 29 3d 88 df 8c bd
       -0.0755456 0.084551804 0.041463964 -0.06878573
000390 45 3b 3c bd ed 4c 75 bc 56 c8 7c bd 51 e7 0e be
       -0.04595496 -0.014971954 -0.061714493 -0.13955428
0003a0 b5 79 2a 3e be 6e 02 3e 4a 11 f9 3d 34 fb bf bd
       0.1664799 0.12737557 0.12161501 -0.09374085
0003b0 1c 04 de bd eb c3 2d bc ae ae 00 3d ca d8 7f 3d
       -0.108406276 -0.0106057925 0.031416588 0.062462606
0003c0 32 2b 3b be 7a de 09 3e d5 f7 d8 3c 9c ef f0 3d
       -0.18278196 0.13463774 0.026485363 0.11764452
0003d0 40 e6 83 3d 39 0a f8 3b ef d6 99 ba f2 99 30 3d
       0.06440401 0.007569578 -0.0011737029 0.043115564
0003e0 fe a1 6c 3d 8a 3a 84 bd 5d ff 13 3d c2 f0 1c 3c
       0.057771675 -0.06456478 0.036132205 0.0095788855
0003f0 4c 91 39 be 98 43 1e be f6 51 02 3d d3 69 fc 3d
       -0.18121833 -0.15455472 0.031816445 0.12324872

net.2.bias f4 [64]
000000 0d 99 d0 3b 30 e3 9a bc 20 32 a6 ba 82 b1 05 bc
       0.0063659013 -0.01890716 -0.0012679733 -0.008159997
000010 6d 3f b8 bc fb 73 a0 bc 44 b6 be bc f8 82 03 3c
       -0.022491181 -0.019586554 -0.02328027 0.008026831
000020 a2 f2 fd bc 23 42 b2 39 45 a3 d1 3c 00 00 00 00
       -0.030999485 0.0003400008 0.025590548 0.0
000030 00 00 00 00 1f 83 1d bc 00 00 00 00 00 00 00 00
       0.0 -0.009613781 0.0 0.0
000040 00 00 00 00 00 00 00 00 00 00 00 00 21 aa 8d 3b
       0.0 0.0 0.0 0.0043232595
000050 0e 38 40 bc ca 38 ac bb 00 00 00 00 a3 a0 51 3c
       -0.0117321145 -0.005255793 0.0 0.012794646
000060 28 b8 78 bc 08 62 3d bc c0 3b 07 3c 96 36 01 bd
       -0.015180625 -0.011559017 0.008253992 -0.031546198
000070 53 16 d1 3b 11 3e 9e bc 00 00 00 00 4c ac 8f 3c
       0.006380835 -0.019316705 0.0 0.017538212
000080 00 00 00 00 d9 79 9e bb 80 4f 5d bc a2 0c 9e bc
       0.0 -0.0048363027 -0.013507724 -0.019293133
000090 72 48 c7 3a 4f 8f 7b bb 75 0e f7 bc 98 c9 85 3b
       0.0015204086 -0.003838498 -0.03015826 0.0040828697
0000a0 2f 78 e7 bc 24 04 fd bc 01 ac 84 3b 0a 9d 69 bc
       -0.02825555 -0.030885763 0.004048825 -0.014258632
0000b0 6b e9 d7 bc 3d 09 cf bb 08 f8 0b bd fd 99 13 bc
       -0.02635642 -0.00631824 -0.034172088 -0.009008882
0000c0 1a 00 88 3c 45 e2 13 bc 4d 7c e7 bc 38 c1 0f bd
       0.01660161 -0.009026115 -0.028257513 -0.035096377
0000d0 38 6b 8f bc 76 20 3f bc 1d 6a 81 3c 5b 9c 47 bc
       -0.01750718 -0.011665454 0.015797669 -0.012183274
0000e0 f1 98 8b bc 00 00 00 00 00 00 00 00 bf 31 06 bc
       -0.017040702 0.0 0.0 -0.008190571
0000f0 00 00 00 00 d9 89 87 bc ad 74 15 bd a4 4d a1 bc
       0.0 -0.016545223 -0.036488224 -0.019690342

net.4.weight f4 [16, 64]
000000 48 77 b7 bd 17 ac c5 3b 98 b3 15 be f0 5f 47 be
       -0.08958298 0.0060324776 -0.14619291 -0.19470191
000010 5f 19 e6 3c d5 1f e1 bd f7 88 28 be 7d 43 12 be
       0.02808827 -0.109923996 -0.16458498 -0.14283557
000020 2e 6a a5 bd bc 5d 7c 3e e4 03 b8 bd 6c 0f 81 be
       -0.08076893 0.24645132 -0.08985117 -0.25207078
000030 c9 79 f5 bc 6a c1 2c bd 55 cd e0 3d b0 9b 7d 3e
       -0.029965298 -0.04217664 0.10976664 0.24766421
000040 e6 41 2d 3e c0 58 da bd 5a 1f 9a bd 0a e8 74 be
       0.1691967 -0.10661459 -0.07525511 -0.23916641
000050 aa ff 93 3d 01 35 72 3d 3f 05 00 3e 03 a0 3c be
       0.072264984 0.05913258 0.12502001 -0.18420415
000060 50 76 e2 bd b2 c7 54 be 2e 53 9c 3d 59 2e 0f 3e
       -0.110577226 -0.20779303 0.07633053 0.13982524
000070 ef 64 55 3e d8 fd 7f 3d 6b 2a 23 bd 4e 34 3c be
       0.20839284 0.062497944 -0.039835375 -0.18379328
000080 db 4c e2 bd 19 fc 6f be ab bf ef bd 88 2a 8b 3d
       -0.11049815 -0.23436011 -0.1170648 0.067952216
000090 ef f1 f0 bd 6a bf 08 bc cd 98 c7 bd 78 7f 73 3e
       -0.11764895 -0.008346418 -0.09745941 0.23779094
0000a0 c2 9d 0d 3b a5 7f 2e 3e 14 a2 cf 3d d5 ac ee bd
       0.0021608924 0.1704088 0.10138336 -0.11654059
0000b0 37 d6 f3 bd 61 25 d2 3c 42 1e a0 bc d7 1f 30 bd
       -0.119060926 0.02565259 -0.019545678 -0.042999115
0000c0 81 b2 aa 3d 51 f7 36 bd ea 05 c6 3b b2 4c b9 3d
       0.08334828 -0.044669453 0.0060431855 0.090478316
0000d0 63 5e 13 3e e3 ec 87 be f1 7b 04 3e b4 46 22 bd
       0.14391474 -0.26547918 0.12937905 -0.03961821
0000e0 fc 95 c4 bc 6b 23 88 bd 2b b5 5c be 0e 2f 09 be
       -0.0239973 -0.066473804 -0.21553485 -0.13396856
0000f0 f6 f1 4a be 10 58 59 be c9 a5 4e 3b 99 82 5a bd
       -0.19818863 -0.21225 0.003153192 -0.053347204
000100 7e 02 25 3e 67 96 d9 3d 3d 41 2f be b9 4d 16 bc
       0.16114232 0.1062439 -0.1711473 -0.009173804
000110 f7 c0 7e 3e ed 44 de bd 08 2b 1f 3e 67 d9 53 3e
       0.24878298 -0.1085299 0.15543759 0.20688401
000120 8f 6c 60 be 98 4c 56 3c 5b 9f dc 3d b2 5c 03 bd
       -0.21916412 0.013079785 0.10772582 -0.032070823
000130 3e cb 5a bd 50 91 9b bd 94 b7 3e 3d 9c 38 cf 3d
       -0.053416483 -0.075960755 0.046561792 0.10118219
000140 57 1c b3 3d 8e 48 2c 3e b1 9a f0 3d af 29 33 3e
       0.0874564 0.16824552 0.11748255 0.1749637
000150 b0 5a 32 be f7 60 e5 bb da 8e 65 be a0 73 61 be
       -0.17417407 -0.0070000845 -0.22417775 -0.22016764
000160 c6 4b 8f 3d a4 8b 38 3e 2e 98 d5 3d b9 73 5c bd
       0.069968745 0.18022019 0.104294166 -0.0538213
000170 b4 13 26 bb 98 cd f8 3d 9b d5 08 be 4b d9 54 be
       -0.0025341334 0.12148589 -0.13362734 -0.20786016
000180 4e ed 86 3b a5 9b ff bc 01 ac 43 3c 58 f4 24 3e
       0.0041176444 -0.031202147 0.011942864 0.16108835
000190 08 2b 9b bb 00 e1 49 be c9 4f a7 3d c5 05 70 3e
       -0.0047353543 -0.19714737 0.08169515 0.23439701
0001a0 30 9f 3c be 5e d8 74 be 9b f7 62 3e 74 ec 87 3d
       -0.184201 -0.23910663 0.22164766 0.06636897
0001b0 69 87 09 3e bb f3 25 3e 30 fb c1 bc 2b e3 d5 bd
       0.13430561 0.16206257 -0.023679346 -0.104437195
0001c0 c4 59 7f 3e 11 72 35 3e 1e ff 13 bd 28 7a c9 bc
       0.24936587 0.17719294 -0.03613197 -0.024594381
0001d0 e8 5a 4a 3e ab ec df 3c a5 5e 3e 3e 68 e6 3d be
       0.1976124 0.027334532 0.18590792 -0.18544924
0001e0 f2 ad 77 be 99 76 53 3e f0 2a 6e 3d ef cf f2 3c
       -0.24187449 0.2065071 0.058146417 0.029640166
0001f0 f9 2e b8 3c df d4 dc bd 2b c8 12 3e d2 09 8a bd
       0.022483336 -0.107827894 0.1433417 -0.06740154
000200 85 e8 dd bd 19 2e 4c 3e b2 a3 c6 bd e2 f5 e6 3d
       -0.10835365 0.1993946 -0.09699191 0.11277367
000210 2d 68 70 be 0c b6 3d 3e cb 26 71 3e d3 50 61 3e
       -0.2347724 0.18526477 0.23549955 0.22003488
000220 cc 31 57 3e 14 47 68 3e f3 51 46 3e 7e bf ca 3d
       0.2101509 0.22683364 0.19367199 0.098998055
000230 c1 51 89 be 2b 06 f8 bd 07 93 12 be af 67 5f 3e
       -0.26820186 -0.121105514 -0.14313899 0.21816896
000240 8f ff 30 3e d7 66 b4 bd d8 6b 9e 3d 0b 4c 85 be
       0.17284988 -0.08808678 0.07735413 -0.2603458
000250 12 d3 06 be 97 ac 85 3e 65 a6 3b 3e e2 ab 13 3e
       -0.13166454 0.26108238 0.18325193 0.14421037
000260 a6 74 3b 3e e1 58 5b 3e 47 95 83 3e cf 6f 84 3e
       0.18306217 0.21420623 0.25699827 0.25866553
000270 d0 67 70 3e 8e 15 82 3e 58 7f 80 3e 6a af 53 be
       0.23477101 0.2540707 0.25097156 -0.20672384
000280 8f ab 8b be f1 34 18 3e 3a de de bd 8d a5 63 3e
       -0.27279326 0.14863946 -0.1088223 0.22231121
000290 5b 15 85 3d f6 99 88 bd 9e 3e ac bd 5d 90 9d be
       0.06498214 -0.06669991 -0.08410381 -0.30774203
0002a0 d1 5a 5f be 5e 5e d7 3d d5 3d 46 3d b7 43 f5 bd
       -0.21811987 0.10516046 0.04839881 -0.11975806
0002b0 a7 0f d9 3d 1d 66 74 3e 4b db 04 3e be 2a 04 be
       0.105986886 0.23867078 0.12974279 -0.1290693
0002c0 b4 96 2b 3c 16 83 e0 3d 07 f7 35 bd ee 37 0b 3e
       0.010472942 0.10962503 -0.044425037 0.13595554
0002d0 ec 42 6d 3d ab 82 ac bd b2 c2 9f 3d c6 ba 9b bd
       0.05792515 -0.084233604 0.07800807 -0.076039836
0002e0 f3 9e 81 be 92 43 1c be 28 7a 13 be b7 82 09 be
       -0.2531658 -0.15260151 -0.14402068 -0.1342877
0002f0 4a 7b 86 be fb 41 20 be b6 1d 18 3e 84 66 1b be
       -0.26265937 -0.1565017 0.14855084 -0.15175825
000300 f7 97 9b 3d 67 3f 80 3e cd 4e b0 bc ea d8 bb bd
       0.07597344 0.25048372 -0.02152195 -0.091722324
000310 03 5a 76 3e 52 72 35 3e 35 34 5f 3e f2 54 87 3e
       0.24057774 0.17719391 0.21797259 0.26431996
000320 b9 ba 42 3e 8c cc 6d be 96 72 eb 3d c2 92 b2 3d
       0.19016542 -0.2322256 0.11496465 0.08719398
000330 44 fd 4c be f0 ee 1b 3e fe 25 1f 3e c7 2a f7 bd
       -0.20018488 0.15227866 0.15541837 -0.12068706
000340 0d cb 91 bd 1a e4 43 be 9b af 29 3e 7e 65 ce 3c
       -0.07118807 -0.19129983 0.16570894 0.02519488
000350 ba c0 23 3d a1 76 06 3e 87 6a 47 3e 45 cc 5f 3d
       0.03997872 0.13131191 0.1947423 0.054638166
000360 89 7c 2a 3e 8f 0c 07 3e 3f 2f 88 3e 06 aa 38 3e
       0.16649069 0.13188384 0.26598546 0.18033609
000370 83 76 d3 bc 84 b3 97 bd 73 6f 4b be 4c 72 5c be
       -0.025813347 -0.07407287 -0.19866733 -0.21527976
000380 27 26 86 be d5 aa 40 be 8f e6 26 bd af e1 cd 3b
       -0.26200983 -0.18815167 -0.04074722 0.006283007
000390 d5 ee 4d be 5d 02 14 3e 8c ab 50 3d ce 03 1a be
       -0.20110638 0.14454027 0.05094485 -0.15040514
0003a0 03 ba c0 bd 3e 1d 33 3d df 8b 6f 3e ec 39 42 be
       -0.09410479 0.04372906 0.233932 -0.18967408
0003b0 83 a1 05 bd 43 eb 98 3d 75 cc 99 be 78 a5 a0 be
       -0.032624733 0.074667476 -0.300388 -0.31376243
0003c0 4f dd 81 be d3 b1 23 3e ba e7 a4 3d 06 41 84 3e
       -0.25364158 0.15985803 0.08052011 0.2583086
0003d0 1a c9 73 be 18 e8 2a be 69 94 da 3d a7 e2 aa bd
       -0.23807183 -0.16690099 0.10672838 -0.08344012
0003e0 05 84 30 bd e1 0b 29 3e 44 50 3f 3e ca 21 38 be
       -0.043094654 0.16508438 0.18682963 -0.1798164
0003f0 2a 63 85 bd 70 31 e2 3c 8c 52 37 be 31 50 31 3e
       -0.06513055 0.027611464 -0.17902583 0.17315747

net.4.bias f4 [16]
000000 00 00 00 00 9e fd 21 bb ab 1f 87 bc 28 86 aa 3c
       0.0 -0.0024717818 -0.016494593 0.020815924
000010 f8 f3 ae bc 9b 34 20 bb ac 56 9c 3a f8 24 f1 3c
       -0.021356568 -0.0024445418 0.0011927686 0.029436573
000020 00 00 00 00 ec 19 14 bd 00 00 00 00 22 77 24 bc
       0.0 -0.036157534 0.0 -0.010038169
000030 30 3f 9a 3c 05 08 cd bc 00 00 00 00 7f 82 45 bb
       0.018828958 -0.025028238 0.0 -0.0030137596

net.6.weight f4 [1, 16]
000000 5c 19 9b be f0 e2 e8 be d2 f5 86 be ac b7 21 3e
       -0.30292785 -0.4548564 -0.2635942 0.15792722
000010 e4 ac 82 be ea bf e8 be d1 d2 78 3e b0 c5 ef 3d
       -0.2552253 -0.4545892 0.2429917 0.11707628
000020 ba 34 b5 3e 1d 01 d2 3e a4 76 08 3f e8 1a 6e bd
       0.3539179 0.41016474 0.5330603 -0.05813113
000030 74 9a ef 3e de ca ee bc 72 4c 54 be b0 72 f2 3e
       0.46797526 -0.029149469 -0.20732287 0.47353125

exp_avg f4 [128, 48]
000000 04 00 00 80 04 00 00 80 04 00 00 80 04 00 00 80
       -6e-45 -6e-45 -6e-45 -6e-45
000010 04 00 00 00 04 00 00 00 04 00 00 80 04 00 00 80
       6e-45 6e-45 -6e-45 -6e-45
000020 04 00 00 80 04 00 00 80 04 00 00 00 04 00 00 80
       -6e-45 -6e-45 6e-45 -6e-45
000030 04 00 00 00 04 00 00 00 04 00 00 80 04 00 00 80
       6e-45 6e-45 -6e-45 -6e-45
000040 04 00 00 80 04 00 00 80 04 00 00 00 04 00 00 80
       -6e-45 -6e-45 6e-45 -6e-45
000050 04 00 00 00 04 00 00 00 04 00 00 80 04 00 00 80
       6e-45 6e-45 -6e-45 -6e-45
000060 04 00 00 80 04 00 00 80 04 00 00 80 04 00 00 80
       -6e-45 -6e-45 -6e-45 -6e-45
000070 04 00 00 80 04 00 00 80 04 00 00 80 04 00 00 80
       -6e-45 -6e-45 -6e-45 -6e-45
000080 04 00 00 80 04 00 00 80 04 00 00 80 04 00 00 80
       -6e-45 -6e-45 -6e-45 -6e-45
000090 04 00 00 80 04 00 00 80 04 00 00 80 04 00 00 80
       -6e-45 -6e-45 -6e-45 -6e-45
0000a0 04 00 00 80 04 00 00 80 04 00 00 80 04 00 00 80
       -6e-45 -6e-45 -6e-45 -6e-45
0000b0 00 00 00 00 04 00 00 80 04 00 00 80 04 00 00 00
       0.0 -6e-45 -6e-45 6e-45
0000c0 04 00 00 00 04 00 00 00 00 00 00 00 04 00 00 00
       6e-45 6e-45 0.0 6e-45
0000d0 00 00 00 00 00 00 00 00 00 00 00 00 04 00 00 00
       0.0 0.0 0.0 6e-45
0000e0 04 00 00 00 04 00 00 00 00 00 00 00 04 00 00 00
       6e-45 6e-45 0.0 6e-45
0000f0 00 00 00 00 00 00 00 00 00 00 00 00 04 00 00 00
       0.0 0.0 0.0 6e-45
000100 04 00 00 00 04 00 00 00 00 00 00 00 04 00 00 00
       6e-45 6e-45 0.0 6e-45
000110 00 00 00 00 00 00 00 00 00 00 00 00 04 00 00 00
       0.0 0.0 0.0 6e-45
000120 04 00 00 00 04 00 00 00 04 00 00 00 04 00 00 00
       6e-45 6e-45 6e-45 6e-45
000130 04 00 00 00 04 00 00 00 04 00 00 00 04 00 00 00
       6e-45 6e-45 6e-45 6e-45
000140 04 00 00 00 04 00 00 00 04 00 00 00 04 00 00 00
       6e-45 6e-45 6e-45 6e-45
000150 04 00 00 00 04 00 00 00 04 00 00 00 04 00 00 00
       6e-45 6e-45 6e-45 6e-45
000160 04 00 00 00 04 00 00 00 04 00 00 00 04 00 00 00
       6e-45 6e-45 6e-45 6e-45
000170 00 00 00 00 04 00 00 00 04 00 00 00 04 00 00 80
       0.0 6e-45 6e-45 -6e-45
000180 5b 3c b4 3d db 5c bd 3d 89 e2 61 3b 6f ca 6e 3d
       0.088005744 0.092462264 0.00344673 0.058298524
000190 d0 b0 d1 3d f2 35 4b 3d 15 c9 05 3e cd db 1c b8
       0.102388024 0.049611993 0.13064988 -3.7398004e-05
0001a0 30 fc 0d 3c 75 34 34 bf a1 a4 17 3e 4b 2c f0 3e
       0.008666083 -0.70392543 0.14808895 0.46908793
0001b0 cf a8 c4 3e 1e 5e 89 bd 86 4f 12 3f 04 00 00 80
       0.3841004 -0.067074046 0.57152593 -6e-45
0001c0 39 09 e9 3a 0e 77 46 3b ee e9 86 bb 11 06 cb 3a
       0.0017779238 0.0030283364 -0.004117242 0.0015489479
0001d0 95 50 d7 ba cc 75 1d bb c3 86 a4 3a 30 f3 f9 38
       -0.0016427214 -0.0024026511 0.0012552369 0.000119185424
0001e0 17 cd 0f 39 77 1e 8a 39 00 8f 94 b9 00 8f 94 b9
       0.00013713945 0.0002634411 -0.00028335303 -0.00028335303
0001f0 fd 51 11 bf c0 b6 c7 b9 53 63 d6 3b 2b 12 7f 3c
       -0.5676573 -0.00038092397 0.006542602 0.015568296
000200 b0 93 f8 b7 6f c0 fb bb 8f 3b b7 3d 63 79 e2 38
       -2.9632676e-05 -0.007682852 0.08946907 0.0001079913
000210 0d 84 83 3d db 44 8d bc 40 e6 a1 b7 eb 3b 02 b9
       0.06421671 -0.017244747 -1.9299914e-05 -0.00012420087
000220 6b 7c ec b9 9f 39 eb 3a c8 c0 91 b6 65 84 b2 3e
       -0.00045106126 0.001794625 -4.3437794e-06 0.34866634
000230 ae 2e 08 bb 08 ca 70 39 61 b2 d9 39 11 85 a3 39
       -0.0020779776 0.00022963446 0.00041522368 0.00031188925
000240 04 00 00 80 04 00 00 80 04 00 00 00 04 00 00 80
       -6e-45 -6e-45 6e-45 -6e-45
000250 04 00 00 00 04 00 00 00 04 00 00 00 04 00 00 80
       6e-45 6e-45 6e-45 -6e-45
000260 04 00 00 80 04 00 00 80 04 00 00 00 04 00 00 80
       -6e-45 -6e-45 6e-45 -6e-45
000270 04 00 00 00 04 00 00 00 04 00 00 00 04 00 00 80
       6e-45 6e-45 6e-45 -6e-45
000280 04 00 00 80 04 00 00 80 04 00 00 80 04 00 00 80
       -6e-45 -6e-45 -6e-45 -6e-45
000290 04 00 00 00 04 00 00 80 04 00 00 00 04 00 00 80
       6e-45 -6e-45 6e-45 -6e-45
0002a0 04 00 00 80 04 00 00 80 04 00 00 80 04 00 00 80
       -6e-45 -6e-45 -6e-45 -6e-45
0002b0 04 00 00 80 04 00 00 80 04 00 00 80 04 00 00 80
       -6e-45 -6e-45 -6e-45 -6e-45
0002c0 04 00 00 80 04 00 00 80 04 00 00 80 04 00 00 80
       -6e-45 -6e-45 -6e-45 -6e-45
0002d0 04 00 00 80 04 00 00 80 04 00 00 80 04 00 00 80
       -6e-45 -6e-45 -6e-45 -6e-45
0002e0 04 00 00 80 04 00 00 80 04 00 00 80 04 00 00 80
       -6e-45 -6e-45 -6e-45 -6e-45
0002f0 00 00 00 00 04 00 00 80 04 00 00 80 04 00 00 00
       0.0 -6e-45 -6e-45 6e-45
000300 04 00 00 00 04 00 00 00 04 00 00 00 04 00 00 00
       6e-45 6e-45 6e-45 6e-45
000310 04 00 00 00 04 00 00 80 04 00 00 00 04 00 00 00
       6e-45 -6e-45 6e-45 6e-45
000320 04 00 00 00 04 00 00 00 04 00 00 80 04 00 00 00
       6e-45 6e-45 -6e-45 6e-45
000330 04 00 00 00 04 00 00 80 04 00 00 00 04 00 00 00
       6e-45 -6e-45 6e-45 6e-45
000340 04 00 00 00 04 00 00 00 04 00 00 00 04 00 00 00
       6e-45 6e-45 6e-45 6e-45
000350 04 00 00 00 04 00 00 00 04 00 00 00 04 00 00 00
       6e-45 6e-45 6e-45 6e-45
000360 04 00 00 00 04 00 00 00 04 00 00 00 04 00 00 00
       6e-45 6e-45 6e-45 6e-45
000370 04 00 00 00 04 00 00 00 04 00 00 00 04 00 00 00
       6e-45 6e-45 6e-45 6e-45
000380 04 00 00 00 04 00 00 00 04 00 00 00 04 00 00 00
       6e-45 6e-45 6e-45 6e-45
000390 04 00 00 00 04 00 00 00 04 00 00 00 04 00 00 00
       6e-45 6e-45 6e-45 6e-45
0003a0 04 00 00 00 04 00 00 00 04 00 00 00 04 00 00 00
       6e-45 6e-45 6e-45 6e-45
0003b0 00 00 00 00 04 00 00 00 04 00 00 00 04 00 00 80
       0.0 6e-45 6e-45 -6e-45
0003c0 04 00 00 00 04 00 00 00 00 00 00 00 04 00 00 00
       6e-45 6e-45 0.0 6e-45
0003d0 04 00 00 00 04 00 00 80 04 00 00 00 04 00 00 00
       6e-45 -6e-45 6e-45 6e-45
0003e0 04 00 00 00 04 00 00 00 04 00 00 00 04 00 00 00
       6e-45 6e-45 6e-45 6e-45
0003f0 04 00 00 00 04 00 00 00 04 00 00 00 04 00 00 00
       6e-45 6e-45 6e-45 6e-45

exp_avg_sq f4 [128, 48]
000000 e9 ba 40 3f 2c c6 d8 42 37 7a 62 30 ad 31 ce 40
       0.752852 108.387054 8.2392e-10 6.443564
000010 79 21 ad 35 f6 68 aa 35 44 3c 6f 3b 11 4a 5d 3a
       1.2899246e-06 1.2696535e-06 0.0036504427 0.0008441518
000020 c1 e3 53 45 d1 17 25 48 3a 22 f5 36 63 95 55 46
       3390.2346 169055.27 7.3055535e-06 13669.347
000030 90 1b 37 3a 9c 6a 68 38 90 4a 05 42 1b e9 2b 3a
       0.0006985003 5.5412398e-05 33.322815 0.0006557868
000040 8e 99 1a 3b 71 b2 15 40 7d de 46 33 94 d0 f0 3c
       0.002359006 2.3390162 4.630282e-08 0.029396333
000050 76 ee 46 33 78 e1 46 33 02 3d 6a 36 31 bd 58 36
       4.6317346e-08 4.630553e-08 3.4904228e-06 3.2296632e-06
000060 a5 46 4e 37 8a 90 82 39 3a e6 2a 38 5c 71 e3 3c
       1.2295005e-05 0.00024903222 4.0745574e-05 0.027764015
000070 62 a8 a4 40 2c 07 84 36 0b ce b0 39 4e a9 f0 3c
       5.1455545 3.9347415e-06 0.0003372285 0.029377606
000080 f4 97 5d 3a 2f d6 84 3e 0b a7 06 41 7d 1f 41 3a
       0.0008453124 0.2594466 8.415782 0.0007367058
000090 4a 57 85 3e da 03 ca 40 51 94 8d 33 69 c6 37 35
       0.2604316 6.31297 6.592803e-08 6.846154e-07
0000a0 21 2d f1 38 df 0d 96 3a df 0d 96 3a d1 9a 0b 45
       0.000115001814 0.0011448226 0.0011448226 2233.676
0000b0 00 00 00 00 f6 07 7f 37 02 94 6d 3d 65 a0 c2 36
       0.0 1.5201038e-05 0.05800248 5.800323e-06
0000c0 c3 5f 43 34 cb 8d 3b 39 00 00 00 00 7d 4f 7c 36
       1.8195628e-07 0.00017886532 0.0 3.7597194e-06
0000d0 00 00 00 00 00 00 00 00 00 00 00 00 15 d0 f9 30
       0.0 0.0 0.0 1.8176275e-09
0000e0 bd 75 13 3b 85 ed b5 3e 00 00 00 00 17 2d 41 3c
       0.0022500597 0.35532776 0.0 0.011790535
0000f0 00 00 00 00 00 00 00 00 00 00 00 00 fe fa a0 30
       0.0 0.0 0.0 1.1712868e-09
000100 4e 5b fc 2e da 49 0c 34 00 00 00 00 0b 13 29 31
       1.1475852e-10 1.3065383e-07 0.0 2.4603561e-09
000110 00 00 00 00 00 00 00 00 00 00 00 00 e6 31 99 29
       0.0 0.0 0.0 6.803221e-14
000120 80 f9 a4 29 bc 87 65 2d ef 97 dd 2c da 49 0c 32
       7.3263444e-14 1.3047282e-11 6.298066e-12 8.165864e-09
000130 f0 31 0b 39 10 58 0e 2c 1e 46 7d 2f 7d 80 f5 32
       0.00013274676 2.0228298e-12 2.3035127e-10 2.8580184e-08
000140 26 09 e9 30 46 bf c7 35 cd 9d 4d 39 b0 13 d3 30
       1.6955581e-09 1.4882323e-06 0.00019609109 1.5357866e-09
000150 da 49 0c 35 a2 96 04 3a 51 07 ab 27 a7 4e 7b 29
       5.226153e-07 0.00050578464 4.7469967e-15 5.5801416e-14
000160 8c 0e 51 2e da 49 0c 31 da 49 0c 31 c2 3e 30 3e
       4.753402e-11 2.041466e-09 2.041466e-09 0.1721144
000170 00 00 00 00 8b 8d 8a 29 c2 5e 1d 30 fa bf bb 28
       0.0 6.152985e-14 5.7250926e-10 2.0844427e-14
000180 46 09 42 44 9d cd f1 44 06 5e a4 42 01 51 00 43
       776.1449 1934.4254 82.18364 128.31642
000190 c0 46 5f 44 fb 9f b9 43 43 9b ac 44 f2 13 33 3a
       893.10547 371.24985 1380.8519 0.000683128
0001a0 9f 53 ee 49 79 7b 50 4a 5a 11 12 49 68 81 0f 48
       1.9523719e+06 3.4157742e+06 598293.6 146949.62
0001b0 d0 a3 07 4a af f1 b2 49 d3 d8 23 4a b8 be de 39
       2.222324e+06 1.4659099e+06 2.6844688e+06 0.00042485236
0001c0 8f 80 fe 3e 5e 36 a3 3f 2a ec a5 3d 8b a2 a6 3d
       0.49707457 1.2750967 0.08101685 0.08136471
0001d0 0c 68 13 3f a3 5a 65 3e ca 94 60 3f 07 76 16 39
       0.5758064 0.22397856 0.87727034 0.00014349083
0001e0 34 bf 24 39 20 21 f0 3a a6 ae 9f 3c 70 dd c2 3c
       0.00015711488 0.0018320419 0.019492459 0.02378723
0001f0 72 65 91 45 1a 09 61 3b d7 a8 ff 3e de 86 60 40
       4652.6807 0.00343377 0.49933502 3.5082316
000200 24 ec 7c 3c 03 5f 9a 40 11 70 c7 41 bc 2d 9f 3a
       0.01543716 4.824098 24.92972 0.0012144367
000210 b0 3f 67 40 7a 99 4e 40 72 41 c8 35 f3 96 dd 37
       3.6132622 3.2281175 1.4920208e-06 2.6415544e-05
000220 69 d4 99 3a 2d ab 45 3c fd df a1 3c ee 63 90 45
       0.0011736277 0.012064737 0.019760126 4620.491
000230 7e be ce 3b d1 f8 59 3a 0b de ef 3f 4f e5 19 38
       0.0063093295 0.00083149696 1.8739637 3.6691603e-05
000240 22 09 98 3f 99 77 08 43 f2 f7 90 35 97 7e be 40
       1.1877787 136.46718 1.0800998e-06 5.952953
000250 cd 19 9e 3e 60 21 79 38 af 63 bc 3f e6 a4 8e 3a
       0.3087906 5.939731e-05 1.4717921 0.0010882884
000260 0e ae 82 45 3e 84 52 48 a1 41 00 3c 1c 00 75 46
       4181.757 215568.97 0.007828147 15680.027
000270 7b f8 22 45 00 15 63 3c 18 7d 9e 45 15 38 8a 3a
       2607.53 0.013859987 5071.6367 0.0010545278
000280 19 7f 50 3a b9 b9 c5 3d 91 13 a6 36 f9 48 84 3b
       0.00079535093 0.096545644 4.9494633e-06 0.0040370193
000290 be 17 3c 39 48 22 a6 36 7f b8 65 3a dc 4f b5 34
       0.00017937922 4.9511764e-06 0.0008763149 3.3771983e-07
0002a0 01 09 d6 34 76 d1 e7 37 32 a3 43 38 92 f4 cb 3b
       3.9867157e-07 2.7634884e-05 4.664361e-05 0.0062242234
0002b0 30 9d f3 42 3c c8 1d 37 ed d9 44 3a 26 26 1c 3d
       121.80701 9.40455e-06 0.000750928 0.03812232
0002c0 2e 8e 69 3a 7e 85 ea 3e d9 1e 8a 42 7b f0 38 3a
       0.0008909431 0.4580497 69.06025 0.00070548774
0002d0 bd 2c fd 3e 4a ce 46 42 2a 72 0e 32 40 46 c4 33
       0.49448195 49.701454 8.291446e-09 9.1397396e-08
0002e0 83 55 32 38 44 94 c7 3a 44 94 c7 3a 1b fc c8 46
       4.2518146e-05 0.0015226682 0.0015226682 25726.053
0002f0 00 00 00 00 bc a7 3e 36 de 52 e8 3b 6a 50 ba 34
       0.0 2.840984e-06 0.0070899567 3.470371e-07
000300 56 02 81 40 6f 1e ba 43 45 07 47 3d 7d df b2 41
       4.031535 372.23776 0.048590917 22.359125
000310 d8 d1 73 3f a7 f0 ab 3e 9d 14 7b 40 6b 42 39 3b
       0.9524207 0.3358204 3.9231331 0.0028268348
000320 e0 8e 7e 46 03 c1 0e 49 3e e5 40 44 88 7a 3b 47
       16291.719 584720.2 771.5819 47994.53
000330 33 45 81 45 41 d7 fd 44 0b 41 60 46 bd a9 11 3b
       4136.65 2030.7267 14352.261 0.0022226416
000340 c3 83 0c 3c 8b d3 e8 40 76 9b 22 38 d0 ed bd 3d
       0.008576336 7.275823 3.8768594e-05 0.09273875
000350 17 33 60 3a b1 18 91 39 87 f1 45 3b c7 ab 2e 37
       0.0008552535 0.00027674952 0.0030203776 1.0411203e-05
000360 73 a3 21 38 0b 5d 4d 3a b6 ee 49 39 72 f7 b2 3d
       3.8537615e-05 0.0007833994 0.0001925778 0.08738603
000370 d4 e4 53 42 c2 e7 d6 37 3c c6 11 3b 27 cf e8 3d
       52.973465 2.5618709e-05 0.00222434 0.11367636
000380 8b e6 3a 3b 23 91 69 3f e2 b2 08 42 d1 64 1f 3b
       0.0028518762 0.91237086 34.17469 0.0024321566
000390 a6 fe 69 3f 1b f7 ed 41 2b 1e 62 34 65 9e 13 36
       0.9140419 29.745657 2.1058865e-07 2.1996905e-06
0003a0 8f b5 c5 39 c0 35 82 3b c0 35 82 3b 96 60 08 46
       0.0003771004 0.0039736927 0.0039736927 8728.146
0003b0 00 00 00 00 53 f2 5b 38 96 d2 46 3e 7a 59 9e 37
       0.0 5.243935e-05 0.1941627 1.8876734e-05
0003c0 e6 d5 38 38 5b d5 9e 3a 00 00 00 00 58 65 f3 38
       4.4068227e-05 0.0012118028 0.0 0.0001160602
0003d0 f3 86 b8 36 41 da 3b 33 b3 3c e9 38 a5 51 de 31
       5.4993375e-06 4.373783e-08 0.00011121612 6.4703323e-09
0003e0 fa 15 13 3e c5 0c 0b 40 8c 88 97 3b 5b 74 86 3e
       0.14363852 2.1726544 0.004624432 0.26260647
0003f0 09 ac 0d 3d d9 cd 0a 3c e4 44 46 3f 99 1a ca 31
       0.034587894 0.0084719295 0.7744887 5.8819976e-09

exp_avg f4 [128]
000000 04 00 00 80 04 00 00 00 ff 8e 94 b9 04 00 00 80
       -6e-45 6e-45 -0.000283353 -6e-45
000010 04 00 00 00 04 00 00 00 04 00 00 00 00 00 00 00
       6e-45 6e-45 6e-45 0.0
000020 1c 4d cb b8 04 00 00 80 15 86 76 b7 04 00 00 80
       -9.694157e-05 -6e-45 -1.4693961e-05 -6e-45
000030 04 00 00 80 04 00 00 80 04 00 00 80 00 00 00 00
       -6e-45 -6e-45 -6e-45 0.0
000040 36 e2 e3 b8 04 00 00 00 d4 61 00 3a 00 00 00 00
       -0.000108663386 6e-45 0.000489739 0.0
000050 b3 66 89 ba d5 7e 1a ba 1c 7c cb b9 04 00 00 00
       -0.0010482877 -0.0005893533 -0.00038811646 6e-45
000060 04 00 00 00 04 00 00 80 2b 1b 9f 39 00 00 00 00
       6e-45 -6e-45 0.00030347085 0.0
000070 0e d0 42 b9 2c b4 60 ba 1a e2 95 38 f6 88 98 39
       -0.00018578788 -0.00085717696 7.146988e-05 0.00029093743
000080 04 00 00 80 00 00 00 00 04 00 00 00 00 00 00 00
       -6e-45 0.0 6e-45 0.0
000090 24 ac fc b8 73 c9 fc b7 0d 2f 2e b9 1e ef 99 b8
       -0.0001204836 -3.0134548e-05 -0.00016611461 -7.3401476e-05
0000a0 46 64 d1 36 00 00 00 00 66 ee 02 3a 04 00 00 00
       6.2403587e-06 0.0 0.00049946306 6e-45
0000b0 04 00 00 00 04 00 00 00 b6 49 b7 38 01 17 56 39
       6e-45 6e-45 8.73985e-05 0.000204172
0000c0 04 00 00 00 65 b1 5b b8 92 52 6d b8 ec e7 47 b9
       6e-45 -5.237888e-05 -5.6582103e-05 -0.00019064517
0000d0 04 00 00 80 00 d6 c9 b7 04 00 00 00 3f 83 2a b9
       -6e-45 -2.4060719e-05 6e-45 -0.00016261356
0000e0 8c 58 00 ba 97 18 30 b9 04 00 00 00 e8 12 51 38
       -0.0004896007 -0.00016793828 6e-45 4.984709e-05
0000f0 95 37 99 b8 00 00 00 00 00 00 00 00 c4 b9 07 37
       -7.3059615e-05 0.0 0.0 8.089879e-06
000100 00 00 00 00 00 00 00 00 00 00 00 00 39 dc 98 38
       0.0 0.0 0.0 7.2889445e-05
000110 04 00 00 00 ea ec d7 b9 e4 10 dc 38 04 00 00 80
       6e-45 -0.0004118451 0.000104935636 -6e-45
000120 5f 11 26 ba 04 00 00 00 04 00 00 00 04 00 00 80
       -0.0006334986 6e-45 6e-45 -6e-45
000130 04 00 00 00 3d 05 a5 39 4b 34 18 3a f7 88 20 3a
       6e-45 0.00031475155 0.0005806132 0.0006123925
000140 00 00 00 00 82 0b 38 b9 04 00 00 80 04 00 00 80
       0.0 -0.00017551894 -6e-45 -6e-45
000150 04 00 00 80 cd 68 4f 00 00 00 00 00 04 00 00 00
       -6e-45 7.2926e-39 0.0 6e-45
000160 00 00 00 00 00 00 00 00 00 00 00 00 00 00 00 00
       0.0 0.0 0.0 0.0
000170 04 00 00 80 64 39 14 ba 00 00 00 00 14 05 4f b9
       -6e-45 -0.0005654304 0.0 -0.0001974295
000180 6a 14 89 39 04 00 00 00 00 00 00 00 c7 54 aa 38
       0.00026145886 6e-45 0.0 8.122023e-05
000190 10 1b 08 3a 65 a0 e0 b8 00 00 00 00 82 b6 82 b9
       0.0005192021 -0.00010711028 0.0 -0.0002493151
0001a0 04 00 00 80 04 00 00 00 04 00 00 80 04 00 00 00
       -6e-45 6e-45 -6e-45 6e-45
0001b0 04 00 00 00 04 00 00 00 04 00 00 00 95 02 92 b8
       6e-45 6e-45 6e-45 -6.9623035e-05
0001c0 f8 0d 84 b9 04 00 00 80 0c f3 11 b9 00 00 00 00
       -0.0002518741 -6e-45 -0.0001391882 0.0
0001d0 04 00 00 00 04 00 00 00 04 00 00 80 04 00 00 00
       6e-45 6e-45 -6e-45 6e-45
0001e0 00 00 00 00 d8 1d c6 38 04 00 00 80 04 00 00 00
       0.0 9.4469346e-05 -6e-45 6e-45
0001f0 04 00 00 00 04 00 00 00 00 00 00 00 00 00 00 00
       6e-45 6e-45 0.0 0.0

exp_avg_sq f4 [128]
000000 df 0d 96 3a da 49 0c 31 3c ba bb 3c 44 94 c7 3a
       0.0011448226 2.041466e-09 0.022915952 0.0015226682
000010 c0 35 82 3b fc 05 6f 32 b0 48 44 3b 00 00 00 00
       0.0039736927 1.3912992e-08 0.0029950552 0.0
000020 7a 57 c3 3b 2b 31 9e 34 59 1f 48 3c 96 88 f3 3c
       0.0059613558 2.9465568e-07 0.012214505 0.029728215
000030 87 2b f9 39 6a 51 0c 3b 9e d8 93 3a 00 00 00 00
       0.0004752541 0.0021410831 0.0011279767 0.0
000040 e8 a8 36 3c 1e 00 e5 34 6d d1 8d 3d 00 00 00 00
       0.011148669 4.265466e-07 0.069247104 0.0
000050 1c 82 5c 3e 9f ed c5 3d 9f 3f d3 3d 62 f2 ce 36
       0.21534008 0.09664463 0.10314869 6.1674955e-06
000060 1f ab f5 3a a0 69 20 3b 53 90 17 3d 00 00 00 00
       0.0018743015 0.002447702 0.037002873 0.0
000070 52 a7 44 3c fb ad 1f 3e 61 b5 1a 3d 0a 7f 2d 3d
       0.012002783 0.15593712 0.037770633 0.042357482
000080 f2 94 04 3c 00 00 00 00 f1 ad d1 2e 00 00 00 00
       0.008092152 0.0 9.535118e-11 0.0
000090 80 6c 82 3b 0f ec e2 3c 3e 84 97 3c 9c 3b a6 3b
       0.0039802194 0.027700452 0.018495675 0.005073024
0000a0 19 af d3 3b 00 00 00 00 da 13 84 3d fa bf da 3c
       0.0064600823 0.0 0.06449099 0.02670287
0000b0 e7 90 a9 35 63 c3 85 35 4e c3 8f 3b cf f1 90 3c
       1.2633653e-06 9.966137e-07 0.004387296 0.017693428
0000c0 d1 be 05 3c 90 1f b6 3b 50 50 8e 3b dd dc 44 3c
       0.00816317 0.0055579618 0.00434307 0.012015549
0000d0 b3 dc b1 3a 73 e9 1a 3c cb 20 22 3a ce c5 8f 3c
       0.0013569802 0.009455073 0.0006184696 0.017550375
0000e0 53 b6 d3 3d 11 f6 60 3c 1d 62 6d 34 87 a9 09 3d
       0.1033751 0.013730542 2.2108038e-07 0.03360894
0000f0 9c d8 ba 3c 00 00 00 00 00 00 00 00 41 8e 1c 3c
       0.022808366 0.0 0.0 0.0095554
000100 00 00 00 00 00 00 00 00 00 00 00 00 68 8f 19 3d
       0.0 0.0 0.0 0.03749028
000110 80 83 0a 3b bf b9 9c 3d 73 e9 e3 3b ae 19 71 3b
       0.002113551 0.07652616 0.0069553195 0.0036788988
000120 d8 84 da 3d 97 53 6f 34 61 d1 c4 38 d5 59 84 3a
       0.10669869 2.228902e-07 9.385008e-05 0.0010097573
000130 7f f9 9e 37 d1 70 fb 3c e2 0e a1 3d c0 5e c8 3d
       1.8951248e-05 0.030693443 0.07864167 0.09783697
000140 00 00 00 00 ad 78 f5 3b 8d a7 31 3c 3e a9 dc 38
       0.0 0.0074911923 0.01084317 0.00010521941
000150 9b 58 01 3b 9c c9 bf 3a 00 00 00 00 d5 5d bc 3a
       0.001973665 0.0014632228 0.0 0.0014371226
000160 00 00 00 00 00 00 00 00 00 00 00 00 00 00 00 00
       0.0 0.0 0.0 0.0
000170 74 8b 23 3b ac e2 0f 3e 00 00 00 00 f9 83 4e 3d
       0.0024954947 0.14051312 0.0 0.050418828
000180 68 d5 86 3c 2b 2e 78 3d 00 00 00 00 26 39 ca 3b
       0.016459182 0.060590904 0.0 0.0061713634
000190 8a de aa 3d 3d 7f 52 3b 00 00 00 00 62 d2 a9 3c
       0.08343227 0.0032119297 0.0 0.020730201
0001a0 f3 e4 53 3a b6 fd 57 3c 11 0a 8d 39 74 a7 8a 38
       0.00080831273 0.013183048 0.00026901116 6.611543e-05
0001b0 4d be 13 38 d4 06 94 32 e5 3f b4 3a 1e 41 09 3d
       3.5224763e-05 1.7232573e-08 0.0013751952 0.033509366
0001c0 ce 6d d4 3c ad 05 fd 38 bc 96 71 3c 00 00 00 00
       0.025931265 0.00012065037 0.0147454105 0.0
0001d0 f7 e3 fe 37 e2 7c a2 39 ee eb 8a 3b 2c ba 0b 3a
       3.0385314e-05 0.00030992093 0.004239551 0.0005330171
0001e0 00 00 00 00 1a 21 51 3d 4c a7 85 35 ea 1d e9 2f
       0.0 0.05105696 9.957962e-07 4.2403708e-10
0001f0 47 0c 19 3a 77 b7 a5 39 00 00 00 00 00 00 00 00
       0.0005838316 0.00031607944 0.0 0.0
