src/model_data/Chinese_Grand_Prix_model.pth (torch, 197961 bytes, 21 tensors)

net.0.weight f4 [128, 48]
00000000: cc6a 12be d9b9 d2bd 158a 003e a55c d1bd
00000010: 57cc 1c3e 2343 b93d 133d a4bd 431f 66bd
00000020: 7b9d eabd 1985 ae3c e66d 813d c10f 4abd
00000030: d0af 8cbd beeb f5bd 98f4 9cbc c9a5 843c
00000040: cc3f 71be 9a04 96bd 3af1 793e 574f 6bbe
00000050: 4297 183e e72f 3fbd eadf 0bbd cf32 d1bd
00000060: a537 28be 9a89 c5bd 9b40 6e3c 25b5 0fbf
00000070: 90f3 95bd 84ae 2cbe 7399 15bc 3431 17be
00000080: 4505 abba 6c74 1ebe 8c6f f9bd fa3a 84be
00000090: 181b c3bd c360 aebd 9929 523c 21df db3d
000000a0: 744d 253e 1fdb e9bd bad2 273d f797 5cbd
000000b0: 016f ecbd 2e53 a4be 915b 7cbd 1372 883e
000000c0: e6e8 8bbe 0622 d5bd e946 103e d833 23bd
000000d0: 5e9b d13d 141c 513d d399 22be 8db4 0e3e
000000e0: 13d1 24be 0b10 a1bd ee0e 81bd 2818 893d
000000f0: a100 c83d 602a 7bbc 3748 92bd 5683 fbbd
00000100: b56b b6bd 9e5a d0bd 1b9e d2bc 4b6f 3cbe
00000110: d432 843c d23a 41bc 0672 a6bd e9d0 59bd
00000120: 7a60 1cbe 4b78 d9bd e5c5 53be 9eb8 73bd
00000130: 1aa6 2cbe 661b 71bd 0109 5cbd f864 88be
00000140: 4680 23be 6f63 f03d 2a5e 8c3d 55db dfbd
00000150: 398b 3dbe 57a3 013e 30dd 27be d347 4b3d
00000160: 8beb 62bd 06b7 a2bd 56d5 073e dece 5e3e
00000170: 90cd 533d 618a 0dbe e721 1dbe bb29 a3be
00000180: 33a9 3a3e 4cb7 3abe 70c4 e43c 0c81 003e
00000190: 1314 d03c 9f44 38be 29ef 2cbd 02a4 153e
000001a0: 731b 3cbe 6fcb c3bd 8a13 2fbe 5d5a 81bd
000001b0: 80c5 06be ae1a 073e 8e15 b0bd f545 40bd
000001c0: d583 bcbc e4ce 37bd 0aa4 8f3d 5156 75bd
000001d0: 7575 fdbd 26ca d2bd 0022 013e e978 983c
000001e0: df55 20be 5ca1 01bd 4600 77bd ff4d 05be
000001f0: 1187 a3bd 7052 c93c e951 eebd 240f 44bc
00000200: df21 f13d 76b3 cebc 26bc ec3d 8c92 273e
00000210: c504 88bd a937 263d 1bdb 2cbd 2297 023d
00000220: 195f 373e 18ee 06be 0385 3d3d 20a9 7abd
00000230: 5dca 403c 1df6 e8bd c150 083e c4cd dabb
00000240: af57 80bd f861 be3d 1133 6bbb 09d7 d5bb
00000250: dba5 21be 6175 9e3c fa05 58be 6335 eabc
00000260: f4b6 fe3d d1c6 7fbd 8acb f1bd eed8 dfbd
00000270: 522e ab3b 68ce c1bd a0ea b2bd 4543 54be
00000280: 6cf7 96bc 1ccf 2ebe 8163 033e 07ce c93c
00000290: 6cb2 d1bc f8af aabc 9e2e 9f3c f1ab 4cbd
000002a0: 3885 823d 3441 c63d 4d47 09be f963 e73d
000002b0: 18cd c93c 9ce3 29bd c010 f4bd 3f39 2fbd
000002c0: 9a80 013e 024c 003d ac5f ab3d edad 2dbe
000002d0: 10a5 ca3d 1c60 a4bd d272 56bd bf03 f13d
000002e0: 3ad2 1a3e 0e8f a53b 7ca2 4bbe 7774 25be
000002f0: 1f4c 15be 3792 403e 531f db3d 55d2 d63d
00000300: 8e9e 02be d284 df3d fd5d 98bd 0a4a 753d
00000310: e5c9 e93d 8a8a 9fbc 95d2 3b3c 454a 07be
00000320: 0107 dc3d a468 39be 0d91 febc e7aa 193d
00000330: e197 a13d 2996 3b3d 14f5 7abd f580 143e
00000340: a662 053e 88d5 05be 9c9e 063e 43d6 543d
00000350: 3d37 f5bd 7098 473d 0eab 913d 9dd5 373e
00000360: 359b 1d3d ad67 02be dc5c b0bd e85b 1a3e
00000370: 2cf1 1bbe e85b 893d 595f 66bc 088b c1bd
00000380: 945f 3abe c0e4 85bc 8fa1 3c3e 6756 563c
00000390: 83a9 1a3e b1cc f3bc 6492 3bbe c72b 99ba
000003a0: 1830 e23d bca2 aebd 8e22 07bd 77f2 dabc
000003b0: d3f1 0b3e 7085 a1bd 09ee 883d 672f 31be
000003c0: 83b9 0dbe 443a 9fbd 6812 32be 38af 7fbe
000003d0: 31ec cdbe fd21 49be cb4c ccbe 7537 b83c
000003e0: c7e5 22be 51c5 b93d 9beb c8bc 2aad db3d
000003f0: 95fa fa3d 2b14 bdbd a14c a3bd 49c8 75be
-0.14298552 -0.10289354 0.12552674 -0.10222749 0.15312324 0.090460084 -0.080194615 -0.056182157
-0.11455818 0.0213037 0.063197896 -0.04933143 -0.06869471 -0.12007855 -0.0191596 0.016192334
-0.23559493 -0.073250964 0.24408427 -0.22979484 0.1490145 -0.046676543 -0.034149088 -0.10214769
-0.16427477 -0.09645386 0.01454177 -0.5613578 -0.073218465 -0.16863447 -0.009130823 -0.14764863
-0.0013047835 -0.15474099 -0.12179479 -0.25826246 -0.09526652 -0.085145496 0.0128273005 0.10735918
0.16142827 -0.11418747 0.04097245 -0.053855862 -0.1154461 -0.3209471 -0.061610762 0.26649532
-0.27326125 -0.1040688 0.1408955 -0.039844364 0.10234712 0.051052168 -0.15878992 0.13936062
-0.1609538 -0.07864388 -0.06301676 0.066940606 0.09765745 -0.015329927 -0.0714268 -0.1228091
-0.08907262 -0.10173534 -0.025710156 -0.1840183 0.016137518 -0.011793809 -0.08127217 -0.053177748
-0.15271178 -0.10618647 -0.2068096 -0.059502237 -0.16860238 -0.05886402 -0.053719524 -0.26639533
-0.15966901 0.117377155 0.06853898 -0.10930506 -0.1851014 0.12659965 -0.1639297 0.049629044
-0.055400413 -0.07945065 0.13264975 0.21758601 0.05170971 -0.13822319 -0.15344964 -0.31867775
0.18228607 -0.18233985 0.0279257 0.12549227 0.025400197 -0.17994927 -0.04222027 0.14613345
-0.18369846 -0.09560286 -0.17097297 -0.063160636 -0.13161278 0.13193771 -0.08597861 -0.046941716
-0.023012081 -0.04487504 0.0701371 -0.05989677 -0.12375919 -0.10292463 0.12610626 0.018612342
-0.15657757 -0.031648025 -0.060302995 -0.13018034 -0.07984746 0.024575442 -0.11636717 -0.0119665
0.117740385 -0.025232058 0.11559324 0.16364497 -0.06641535 0.040580425 -0.042201143 0.031882413
0.1790737 -0.13176763 0.046269428 -0.061196446 0.011766997 -0.113750674 0.13312055 -0.006677361
-0.06266724 0.0929603 -0.0035888592 -0.0065258783 -0.15785925 0.01934308 -0.2109603 -0.02858991
0.12437239 -0.062445465 -0.118064 -0.10930048 0.0052240277 -0.09463197 -0.087361574 -0.20728786
-0.018428527 -0.17071193 0.12830926 0.024634374 -0.025597773 -0.020835862 0.019431408 -0.049968664
0.06373066 0.09680405 -0.13406105 0.11298365 0.02463393 -0.04147683 -0.11917257 -0.042779204
0.12646714 0.031322487 0.08367857 -0.16960879 0.098947644 -0.08026144 -0.052355595 0.11768293
0.15119258 0.005052454 -0.19886202 -0.16157709 -0.14579819 0.18805777 0.10699334 0.104893364
-0.12755796 0.10914005 -0.07439802 0.059885062 0.114154615 -0.01947524 0.011463781 -0.13211925
0.107435234 -0.18106323 -0.031075025 0.0375165 0.07890297 0.0457975 -0.06126888 0.14502318
0.13025913 -0.13069737 0.13146442 0.05196215 -0.119734265 0.04872936 0.07112704 0.17952581
0.038478095 -0.12734862 -0.086114615 0.15074122 -0.15228719 0.06706983 -0.014060819 -0.09450346
-0.18200523 -0.016344428 0.18421005 0.013082123 0.15103726 -0.02976069 -0.18317562 -0.001168602
0.110443294 -0.08527133 -0.03299194 -0.026726944 0.13666467 -0.07886779 0.066860266 -0.17303239
-0.13840298 -0.07774785 -0.17389834 -0.24969184 -0.40219262 -0.19641872 -0.39902338 0.022487381
-0.15907966 0.09070838 -0.024526408 0.10726388 0.12254826 -0.09232362 -0.079736 -0.24002184

net.0.bias f4 [128]
00000000: 74b6 0ebe 22e9 32bd 0000 0000 e2ea 01bd
00000010: 0000 0000 11a5 8ebc 75ea 1abc 0000 0000
00000020: cd9b 9cbe 3463 05bc e2dd d83a 3c3b cdbc
00000030: 0000 0000 5f86 b0bd 0000 0000 0000 0000
00000040: f963 debc 60ca e1bd 7982 b13e 58ab 89be
00000050: 41c0 8abe d107 c3bc a3de 14be f1a9 423e
00000060: 0000 0000 f085 d23d 0000 0000 8457 86bc
00000070: 461c c6be 0000 0000 f9ba 9c3d fac1 d1bc
00000080: 0e70 07bd 0000 0000 e51b df3b 1da3 9e3e
00000090: afb4 60bd 7a94 0abd 644b 76bd 0000 0000
000000a0: 3b54 a5bd 0000 0000 1881 e1bd 860c b0bd
000000b0: 0000 0000 74d4 7fbc dfd5 8c3e c759 4e3d
000000c0: 4d65 d9bd 665e 3d3e 300e 973c d610 cc3d
000000d0: ccf3 b6bb 3ce9 933e 0359 9bbd 0000 0000
000000e0: fafd 94bd 21f0 68bd 0000 0000 0000 0000
000000f0: 682d febc 0300 57bd 0000 0000 217a 3d3e
00000100: 01f4 f6bc 0000 0000 5733 a6be b9b0 15be
00000110: ed95 963e e196 a83e 0000 0000 b1ec 93bd
00000120: 1e32 2e3d 81d8 4c3e 0b72 a2bb 3a1d 9cbd
00000130: 44f3 7cbb 07f3 cebe ef34 00be ae8d ccbd
00000140: 0000 0000 5316 b7bd 0000 0000 6e82 4f3c
00000150: ee28 b3bd eb22 99bd fdab b2bd a8e7 88bd
00000160: 8410 aabe 1bac a1be 0000 0000 0000 0000
00000170: 89a7 b0bd ea17 fabd 0000 0000 a898 ce3d
00000180: 7334 06bd 068f 5dbd 5730 6ebd 0000 0000
00000190: 962f cdbd 102f f2bc 5b52 03bc 40d4 c6bd
000001a0: 0000 0000 0000 0000 725e 5bbc 5c1f 673e
000001b0: 0000 0000 7b68 cb3d 0000 0000 0000 0000
000001c0: 0000 0000 5164 84bc 0bfa 08bc bdea dabd
000001d0: 3638 8abc 1b68 873c a22a 96bc b122 45be
000001e0: 1a85 a4bc 91ee 14bc 0315 1cbd 1222 d4bd
000001f0: 9837 debd 1e20 0cbe 9152 74bd 9510 80be
-0.13936788 -0.043679364 0.0 -0.031718142 0.0 -0.017412694 -0.009455313 0.0
-0.30587617 -0.008141328 0.0016545618 -0.02505266 0.0 -0.08619379 0.0 0.0
-0.02714728 -0.11024928 0.34669855 -0.26888537 -0.27099803 -0.023807438 -0.14538054 0.1901014
0.0 0.10279453 0.0 -0.016399153 -0.38693446 0.0 0.0765285 -0.02560519
-0.033065848 0.0 0.006808745 0.3098382 -0.054859813 -0.033833005 -0.06013049 0.0
-0.08072706 0.0 -0.11010951 -0.08596139 0.0 -0.015614618 0.2750692 0.050378587
-0.10615025 0.18493041 0.018439382 0.09964149 -0.005583262 0.2888888 -0.07585337 0.0
-0.07275005 -0.05686963 0.0 0.0 -0.03102751 -0.052490246 0.0 0.1850362
-0.030145647 0.0 -0.32461044 -0.14618196 0.2941126 0.3292761 0.0 -0.0722288
0.042528264 0.20004465 -0.0049574426 -0.07622762 -0.0038597146 -0.4041979 -0.12520193 -0.09987961
0.0 -0.08939805 0.0 0.012665374 -0.08748041 -0.07477363 -0.087242104 -0.0668481
-0.33215725 -0.3157662 0.0 0.0 -0.08625705 -0.122115925 0.0 0.100877106
-0.032764863 -0.054091476 -0.05815157 0.0 -0.10018842 -0.029563457 -0.008015241 -0.09708452
0.0 0.0 -0.013389217 0.22570556 0.0 0.099320374 0.0 0.0
0.0 -0.016161116 -0.008360396 -0.10689304 -0.016872507 0.016529134 -0.018330876 -0.19251515
-0.020082999 -0.009090082 -0.038105976 -0.10358061 -0.108504474 -0.13684127 -0.059649054 -0.2501265

net.2.weight f4 [64, 128]
00000000: b5bd f73d 6530 d23c 5226 2cbe 596d 93bd
00000010: c39c 233e e230 ce3c b54e 143d 9328 083e
00000020: e9d2 0a3e d434 30bd 79a1 603d 195b 513c
00000030: 4c4e d53d e6e8 2abe e6a0 053d bc2c 4c3d
00000040: e110 1e3e 9456 8ebd 7902 153c 7bcd 11be
00000050: 02aa 20be 55b9 c1bd e156 433d 9ddf 47be
00000060: a220 4fbd 6f23 1cbe 284d 343e 92bf 5a3c
00000070: 9b9d 2cbe c7e5 333d fbe2 fbbc 210d d3bd
00000080: 68f3 dbbd 8030 32be fa75 24bd 861f 06be
00000090: 4c53 33bd 54c7 d1bc 6719 08be 3540 313e
000000a0: 16d2 98bd b580 65bc c78c 40bd 7e5f dbbd
000000b0: 43a4 173e dddb d93c 2726 f53d d3fc c23d
000000c0: 9d06 bb3c 76a3 093e 343e 053d 3699 76bc
000000d0: 06af bf3d e49e 33be 184b 12be 72f3 74bd
000000e0: f5a2 a2bd 8c00 3f3e b531 2f3d 7898 8bba
000000f0: 6222 e7bd bc37 383e e023 a43d 3502 3bbd
00000100: c6e8 173e 9daf 6e3d e32d 163e ecb1 0abd
00000110: 2229 143e bee3 b23c 9604 f6bc 71c4 c7bd
00000120: 8e4c 08bb c8b0 dc3d db22 dc3d ab4e 45bd
00000130: 5dc4 39bd 94d0 84bd 46b3 ef3c dd1d 093d
00000140: 93c0 18bd 5b62 b33d d8a3 883d 8159 04be
00000150: 4db7 34be 0c5c bc3c 7b2e dc3d c4c1 01be
00000160: 0aea 17be 9bd4 0bbd 8c16 d5bc 749d 223d
00000170: 0d79 f03d fd32 2dbc 3539 c83d a013 f43d
00000180: f280 0ebe ce4c 27be 3815 f13d ffbd ef3d
00000190: 83e3 da3d 2291 2cbd c611 d53d 44e3 4dbc
000001a0: 76ab a03d 60a4 bebc 40f5 333d 9fbf 88bd
000001b0: f067 213e c188 1dbe 8283 bcbb 8eff d6bd
000001c0: db59 6e3d 56ac dfbd 77e3 903b edf1 bebd
000001d0: a7c5 4cbd acd0 24be 1443 35be 9d48 2abd
000001e0: 2946 5ebb 2ab8 0b3e d361 943c de88 a2bd
000001f0: 9882 c43d 4610 193d 7b97 413d bae7 29be
00000200: 01c0 9f3d e94d abbd be52 303e 64df 6ebc
00000210: e6f0 033e 6473 813d 9d6b 353d f9cc 243e
00000220: db92 98bd 3f75 eebd 93ea 103d d942 c1b8
00000230: 435e 13be 9e63 6bbd 1abe a03d 352b fb3d
00000240: f2f1 97bc bb14 c73d 941d 293b ebc5 12be
00000250: b470 27be 3713 3b3d 2f2d bfbd aaa3 3fbe
00000260: 76eb 88bd dc32 0abe 4e37 0c3e 0789 41bd
00000270: 7df7 03be ba62 2fbe 4976 1c3d ba33 013e
00000280: 9315 003e 2f89 103e 7fda 353a 0d50 9f3d
00000290: 39fd 8d3c 6405 f0bd a736 34be 7a5a c8bd
000002a0: 6f5a 263d 4f6c d03d fe79 31be 5390 e5bc
000002b0: 7a35 e7bd 8492 a2bd 60c0 02be 406b 23be
000002c0: 6b3d d8bd b683 48be 81a5 14bd 0474 55bd
000002d0: c5a8 b2bc e31a 92bd 5685 24be 0304 ac3d
000002e0: 4fed 09bd a230 b3bd 9e9b 8d3d 4c23 ea3d
000002f0: dab5 e93d fa74 793d 0e82 bfbc 78bb b8bb
00000300: 8ac3 063d 3d1a 6e3d f5f4 d93d fdc8 edbd
00000310: a3e8 b0bd abb8 dfbc 1be8 313d 0427 dc3d
00000320: baf3 53be 514a a03c a042 ef3c 4d65 9cbb
00000330: 5388 4dbe 21ff 573d 36f7 1bbe 71e7 eebd
00000340: 328f 8eb9 1e7f 1b3e bc23 b43d 89bc 41be
00000350: 90b9 86bd 34f3 313e 729f 5cba d828 03be
00000360: ddea debb e6d8 0c3e be58 b53c 9407 983d
00000370: f2d7 91bb bc4c 91bc c6a9 dfbd bfed 0a3d
00000380: cbb8 943c d133 0fbd f41e be3d 86f2 d3bd
00000390: c106 793d b78d 0a3d a414 1bbe fbdf 853c
000003a0: e81d 8d3c 346d 63bd 9a2d e9bc 67f2 883d
000003b0: 2886 b6bd 0c0a 9dbc ba22 34be 572c d6bd
000003c0: dd9e 27bc b51a b03d ffe0 b0bb 4f06 f0bd
000003d0: 3c2e 27bd ac61 debc ef5b e93d 8fa2 84bd
000003e0: f7cf 18be db4a d4bd 079a 223e 0d36 f83d
000003f0: a5cd 81bd f1d5 433c e658 023d 4b74 05be
0.120967306 0.025657842 -0.16811493 -0.07198591 0.15977769 0.025169794 0.036207873 0.13296728
0.13557018 -0.04301913 0.054841492 0.012778067 0.104153246 -0.16690406 0.032624148 0.04984735
0.15436126 -0.06950107 0.009094828 -0.14238541 -0.15689853 -0.094591774 0.047690276 -0.19518895
-0.05056823 -0.15247892 0.17607558 0.013351338 -0.16856997 0.043920305 -0.030747881 -0.103052385
-0.107397854 -0.17401314 -0.040151574 -0.13097963 -0.04378061 -0.025607742 -0.1329094 0.1730965
-0.07461946 -0.014007737 -0.047009256 -0.10711573 0.14808755 0.026594097 0.119701676 0.09520879
0.022830302 0.13441262 0.032530025 -0.015051177 0.09359555 -0.1754108 -0.14286458 -0.05980248
-0.07941238 0.18652552 0.042772014 -0.0010650298 -0.11285855 0.17990011 0.08014655 -0.0456564
0.1483489 0.058272947 0.14665942 -0.033861086 0.14468816 0.021837112 -0.030031484 -0.09754265
-0.0020797583 0.10775906 0.10748836 -0.048170727 -0.045353282 -0.064850956 0.029260289 0.033475745
-0.037293028 0.08758994 0.06671876 -0.12924768 -0.17648049 0.02299311 0.10751053 -0.12671572
-0.14835373 -0.034138303 -0.026011728 0.03970094 0.117418386 -0.010571239 0.097765364 0.11917806
-0.13916376 -0.16337892 0.11771625 0.11706161 0.10687926 -0.042130597 0.10403781 -0.012566391
0.078452036 -0.02327174 0.04393506 -0.06677174 0.15762305 -0.15384199 -0.0057529816 -0.10497962
0.05819116 -0.10921542 0.004421647 -0.093234874 -0.049993183 -0.16095227 -0.1770137 -0.041573156
-0.003391633 0.13644472 0.018113052 -0.079362616 0.09595221 0.037369035 0.047263604 -0.16592303
0.07800294 -0.083644696 0.17219064 -0.014579628 0.12884864 0.06320837 0.04429208 0.16093816
-0.074498855 -0.11643457 0.035379957 -9.2154085e-05 -0.14391427 -0.05746805 0.07848759 0.122641005
-0.018547986 0.09720751 0.0025804983 -0.14333312 -0.16351587 0.04567262 -0.0933479 -0.18714777
-0.066855356 -0.13495964 0.13692972 -0.04724982 -0.12887378 -0.17127505 0.038198743 0.12617388
0.1250823 0.14114831 0.00069371605 0.0777894 0.01733266 -0.11719778 -0.17598973 -0.09782882
0.040613588 0.10176908 -0.17331693 -0.02802292 -0.11289497 -0.07938102 -0.12768698 -0.15958881
-0.105585895 -0.19581494 -0.03629065 -0.052112594 -0.021808991 -0.071340345 -0.16066489 0.08399203
-0.03367358 -0.0874951 0.06914447 0.114325136 0.114116386 0.060902573 -0.023377445 -0.0056375824
0.032901324 0.05813049 0.10642425 -0.11610601 -0.08638122 -0.027309736 0.043434244 0.10749629
-0.20698443 0.019566687 0.029206574 -0.004772818 -0.20071535 0.052733544 -0.15231022 -0.11665238
-0.0002719104 0.1518521 0.08795878 -0.18919577 -0.06578362 0.17377931 -0.0008416093 -0.1280855
-0.0068029 0.13754615 0.022137042 0.074233204 -0.0044507915 -0.017736785 -0.109210536 0.03391814
0.018154522 -0.034961525 0.092832476 -0.10348992 0.060797457 0.033826556 -0.15144593 0.016342154
0.017226174 -0.055524066 -0.028464127 0.066868596 -0.08912307 -0.01916983 -0.17591372 -0.10457676
-0.010230747 0.08598844 -0.0053979154 -0.11719953 -0.040815577 -0.027146183 0.11394488 -0.06476318
-0.14923082 -0.1036584 0.1587907 0.12119684 -0.06338052 0.011952863 0.03182306 -0.13032643

net.2.bias f4 [64]
00000000: 902a a3bc f91b 02bd 14c2 a2bd 8265 5dbd
00000010: 45e9 ba3c 0000 0000 4d6b 37bc dd55 943e
00000020: e552 27bd 15af 9cbd e8af 0abd ec5d e6bc
00000030: d28f 313d 26c6 00bd 7f07 c7bc c511 81bd
00000040: 9a52 89bd 3d01 19bd ac44 abbd b62c 2fbd
00000050: 0000 0000 0bb2 05bd c4e9 42bd da1c 02bd
00000060: 540b 8abe 0000 0000 927b 60bd 23e0 b6bd
00000070: 92c9 0a3e cd07 c8bd c94b d5bc d18f 1fbd
00000080: 284c dc3c 7e7e 93bc 7b48 4bbd ad78 8fbd
00000090: 6d10 4b3c ad60 5bbd cdfe c2bc eae4 843b
000000a0: d91c 02bd 2acb eebc 01e5 65bd 476e 93bc
000000b0: 7449 8abd b0c0 5cbd 9d84 00bd 4a65 1dbe
000000c0: 9497 0ebd 5d5b 2cbd 5fb8 a7bc 0000 0000
000000d0: 72fc a9bd 7b07 8f3c c11c 02bd 4a1b c9bc
000000e0: db1c 02bd e70e fcbb d01c 02bd 0000 0000
000000f0: 6cd1 cb3e 3b1c 0ebd 0000 0000 c44d 06bd
-0.019917756 -0.031764958 -0.07947174 -0.054051884 0.02281631 0.0 -0.011195016 0.28971758
-0.04085054 -0.07650582 -0.033859164 -0.028120957 0.04335005 -0.03143897 -0.024295567 -0.063022174
-0.06705208 -0.037354697 -0.083627075 -0.04276725 0.0 -0.032640498 -0.047586218 -0.031765796
-0.26961768 0.0 -0.054805346 -0.089294694 0.13553455 -0.09767113 -0.026037114 -0.038955513
0.026891783 -0.018004652 -0.04962967 -0.07005439 0.012394053 -0.053558994 -0.02380314 0.004055609
-0.031765793 -0.02914961 -0.0561266 -0.01799692 -0.06752291 -0.0538947 -0.03137647 -0.1537067
-0.034812525 -0.04207932 -0.020473657 0.0 -0.08300103 0.017459622 -0.031765703 -0.024549145
-0.0317658 -0.007692206 -0.03176576 0.0 0.39808214 -0.03469489 0.0 -0.032789007

net.4.weight f4 [16, 64]
00000000: bd9a 0dbe 2a93 133b faaa 7e3e f7b8 113e
00000010: e04f febc ffcf 66be 4de6 03be 6bbc 4abe
00000020: ab3b 5c3e 24a7 05bd 39e7 803d 2a15 693e
00000030: 911f 133e 14dd 6ebd b855 58be c502 32be
00000040: a385 a3bd 9757 85be 14e6 6d3e baf7 583c
00000050: 4dcb 813d 2918 6a3e 3da6 ee3c f5d3 79bd
00000060: 3e36 05bd 8d6f 32be 3403 60be af56 6a3e
00000070: dc05 00be c628 0bbe 44ad 91bd 94f7 52be
00000080: 5451 323e 9756 d3bd 4a0a c73c f6f3 b23d
00000090: 2be2 13be 64da f23b c812 e03c 8f15 81be
000000a0: eca6 9d3d a56f 31be 1560 83be be2a dcbd
000000b0: f4ff 4abe d0e0 4ebe 86dd 25be 9052 643e
000000c0: f5fd c6bc a560 76be 6760 1e3e aab5 29be
000000d0: 1405 dfbd 35e5 53bd 6f07 4dbd 45c7 c93d
000000e0: 44d7 9abd 0293 9b3d 255c 14be 7f81 1c3e
000000f0: f7e0 ebbd 4e59 29bd 350e 41bd 598e 123d
00000100: ea80 29bb b69a c5bd 6940 6abe e6ba 81bd
00000110: 2536 3b3e 7fcb 583c 3b25 a2be ea32 52be
00000120: 2366 6b3e 19a4 07bc 6f9a 6ebc 0c87 a6bd
00000130: b25f 883e 0e2a c23d 2e0c 983d 57c2 083e
00000140: 6130 81be 63c0 d93d 7fe7 6bbd c6cd e9bd
00000150: 6792 2a3e 4d90 c83d df49 173e 8f6d 0d3b
00000160: f9a1 863c 605b ab3d 2fb7 2bbd 2a31 e93d
00000170: 8c48 72be a32a 27be 7f4e 813e 98ff 4d3e
00000180: 746f 0f3d 9f19 903d 3f42 ee3c 7ae0 a93c
00000190: 434d b03c 7a5f 6b3d 73f1 2e3e 7cd0 95be
000001a0: cd70 c9bd 1250 223d 65f8 363e 8d83 473e
000001b0: 12f3 063e ce01 51be 0fa5 f9bd 81f0 abbd
000001c0: 56cc 2ebe 334b 26be 0066 8a3d d00e 68bc
000001d0: d667 273e 2a4e 323e c7d0 6a3e 24ae 523d
000001e0: f110 f43d b21d 023e 90f3 49be 3505 643e
000001f0: f732 0e3d 91e9 d03d a2a5 283e d74c 283e
00000200: 28f3 ef3d 19a5 b53c 600b 01be 2ac6 c13d
00000210: ef44 27be 92dd 6a3e 58b0 47be 8192 38be
00000220: 426b 153d 3282 223e d0d0 0fbe 5be7 9e3b
00000230: 1385 06be 30ae 48be 9c2d 5abe 3dfe 3cbe
00000240: f0f7 5e3e e7bd 713e 27fd b33d 0696 62be
00000250: dd53 db3d 7223 9a3d e567 56bd 8c80 743c
00000260: fcf5 aa3d ff24 863e 7f38 35be 8d2c cabc
00000270: b498 3ebe 499c 283e 8e6a 8cbc 46c0 933d
00000280: 0a1c 583d 94ad af3d 7ea0 5c3e 6837 0cbe
00000290: 6046 c33d 87d0 9d3d f032 2d3e 9f8b 603c
000002a0: 8cef 5fbe abf3 f73d c120 383e 0cf0 383e
000002b0: afe7 113e 0e97 27be ade3 dabd 8550 a13d
000002c0: 5528 5cbe bb0f 5bbc 24ed 603e 3dea f3bd
000002d0: 2433 df3d b29f 003e 9698 b5bd fa58 1b3e
000002e0: bc6d 2e3d bf3f 813e 41a4 7f3e a0d1 ef3d
000002f0: a622 03be 93c1 663d 2852 aa3d 12f7 11bd
00000300: b806 7dbd d26d 323e 1f20 54be df6f 3cbc
00000310: 9d2f 3b3e c0c0 083d da8d 53bd fce0 78be
00000320: a27a 873d 8569 ff3d 0994 003e 101c 42bd
00000330: ef69 4a3e 7244 e5bd adfd 6fbe ab18 2b3e
00000340: 420f a13d 0234 433e 35cb 4c3d 639f 4cbe
00000350: 6743 813e 102c e43d a869 7e3e 3bc0 dcbd
00000360: df6b febd 2610 173e ca55 19bd 6898 433e
00000370: 6870 90bb de24 c7b8 ac12 2dbd 4d08 173d
00000380: 942c 153e 9e76 f43d 5e67 12be e618 6b3e
00000390: beef 3d3e b0ee eb3d a263 483d 4b9b dfbc
000003a0: 4f14 8cbd bb8f a33b 36fa b1bd d138 3e3e
000003b0: e73a 2fbe a6cc 56be 487e bbbd f574 edbc
000003c0: a30c 82be 498f 66be 65a2 4d3d 80dd 2a3d
000003d0: 02f0 093e 9db4 01be a156 9c3e 9bc4 b83d
000003e0: d98b f23c 9951 943d 3be4 49be 23d0 593e
000003f0: 8414 563e 2cb7 92bd d704 233e 90ab 86bd
-0.13828559 0.0022518137 0.2486991 0.14230715 -0.031043947 -0.22540282 -0.12880822 -0.19798438
0.21507137 -0.0326301 0.06294102 0.2276198 0.1436751 -0.058316305 -0.21126449 -0.17383869
-0.079844736 -0.26043388 0.23232299 0.013242656 0.06337605 0.22860779 0.029132003 -0.060993154
-0.032522433 -0.17425366 -0.21876222 0.2288463 -0.12502235 -0.13589773 -0.07113126 -0.20602256
0.17413837 -0.1031925 0.024296898 0.08737938 -0.14441745 0.007411288 0.027352706 -0.2521176
0.076978534 -0.17327745 -0.25659242 -0.1075034 -0.19824201 -0.20202947 -0.16197786 0.2229712
-0.024291018 -0.24060304 0.15466462 -0.16573206 -0.108896405 -0.05173226 -0.050055917 0.09852461
-0.0756059 0.07596399 -0.14488275 0.15283774 -0.11517518 -0.041344933 -0.04713269 0.035780285
-0.0025864192 -0.096486494 -0.22876133 -0.06334476 0.18282373 0.013232111 -0.3166903 -0.20527235
0.22988181 -0.00827887 -0.014563187 -0.08131227 0.2663551 0.094806775 0.07424198 0.13355385
-0.25232223 0.10632398 -0.05759382 -0.11416201 0.1665741 0.09793148 0.14774273 0.0021580195
0.016434656 0.08367038 -0.041922744 0.113863304 -0.23660487 -0.16324858 0.252552 0.20117033
0.0350184 0.07036137 0.029084323 0.020736922 0.021521216 0.0574641 0.17084293 -0.29260623
-0.09835968 0.039627142 0.17868192 0.19483776 0.13178661 -0.20410845 -0.121896856 -0.08395482
-0.17070135 -0.16239624 0.06757736 -0.014163688 0.16348204 0.1741263 0.22931205 0.051435605
0.11917294 0.1270664 -0.19721818 0.22267611 0.034716573 0.10200799 0.16469434 0.16435562
0.117163 0.022173451 -0.12601995 0.09461625 -0.1633489 0.22936085 -0.19500864 -0.18024637
0.036479242 0.15869978 -0.140445 0.004849357 -0.13136701 -0.19597697 -0.21306461 -0.18456359
0.21774268 0.23607598 0.08788519 -0.22127542 0.10709355 0.07526292 -0.052345175 0.014923226
0.08347699 0.262001 -0.17697333 -0.024679447 -0.18612939 0.16465868 -0.017140653 0.072144076
0.052761115 0.08578029 0.21545598 -0.13693011 0.09534907 0.07705789 0.16913962 0.013705163
-0.21868724 0.12107023 0.17981245 0.1806032 0.14248537 -0.16366217 -0.10687957 0.07876686
-0.2149976 -0.01337045 0.21965462 -0.11909912 0.10898426 0.12560919 -0.08866994 0.1517066
0.04258512 0.25243947 0.24965002 0.11709905 -0.12806186 0.05633695 0.08316451 -0.035636015
-0.061773986 0.17424706 -0.20715378 -0.0115012815 0.18279882 0.033386946 -0.051648952 -0.24304575
0.06615187 0.12471298 0.12556471 -0.047390044 0.19766973 -0.111946955 -0.23436613 0.16708629
0.07864238 0.19062808 0.04999848 -0.19982676 0.25246736 0.11141217 0.24844992 -0.107788526
-0.124229185 0.14752254 -0.03743533 0.19101107 -0.004407931 -9.4959265e-05 -0.042254135 0.03687315
0.14567786 0.11936687 -0.14297244 0.22958717 0.18548486 0.115201354 0.048923142 -0.02729573
-0.06839811 0.0049914992 -0.08690302 0.18576361 -0.17112313 -0.20976505 -0.091549456 -0.028986434
-0.25400266 -0.22515596 0.0502037 0.041715145 0.13470462 -0.12666555 0.30534843 0.090218745
0.0296077 0.07242126 -0.1971597 0.21270804 0.20906264 -0.071638435 0.15919815 -0.06575692

net.4.bias f4 [16]
00000000: 16b6 1abd c8dc b3bd 08d5 48bd 7fe8 ed3d
00000010: fbb9 48be 3a21 22be 43cd 1b3d 707e b1be
00000020: a8cf e83e 38a8 24be d3b0 5e3d 0585 df3e
00000030: 250f f5be ed6d 36bd 2c60 fcbd 91a7 15be
-0.037771307 -0.08782345 -0.049031287 0.11616611 -0.19602196 -0.15832987 0.03803755 -0.34666777
0.4547093 -0.16079795 0.05436785 0.43656173 -0.47863117 -0.044538427 -0.12323031 -0.14614703

net.6.weight f4 [1, 16]
00000000: 227b 04bf 56cf 7cbe ddb7 64be 103a a43e
00000010: bf46 edbd c049 aa3e 1b99 c33e d638 babd
00000020: 2637 803e 516f d8be 2b35 163e e3d2 b13d
00000030: ece8 31be 1488 dc3e ac8c 38be 36a1 84bd
-0.51750386 -0.24688467 -0.22335763 0.32075548 -0.11585759 0.33259392 0.38202748 -0.09092872
0.25042075 -0.42272428 0.1466872 0.086828016 -0.17374009 0.4307257 -0.18022412 -0.06476061

exp_avg f4 [128, 48]
00000000: 0400 0000 0400 0000 0400 0000 0400 0000
00000010: 0400 0080 0400 0000 0400 0000 0400 0000
00000020: 0400 0000 0400 0000 0400 0000 0400 0000
00000030: 0400 0080 0400 0000 0400 0000 0400 0000
00000040: 0400 0000 0400 0000 0400 0000 0400 0000
00000050: 0400 0080 0400 0080 0400 0000 0400 0000
00000060: 0400 0000 0400 0000 0400 0000 0400 0000
00000070: 0400 0000 0400 0000 0400 0000 0400 0000
00000080: 0400 0000 0400 0000 0400 0000 0400 0000
00000090: 0400 0000 0400 0000 0400 0000 0400 0000
000000a0: 0400 0000 0400 0000 0400 0000 0400 0000
000000b0: 0400 0000 0400 0000 0400 0000 0400 0080
000000c0: 0400 0000 0400 0000 0400 0000 0400 0000
000000d0: 0400 0000 0400 0080 0400 0000 0400 0000
000000e0: 0400 0000 0400 0000 0400 0000 0400 0000
000000f0: 0400 0000 0400 0080 0400 0000 0400 0000
00000100: 0400 0000 0400 0000 0400 0000 0400 0000
00000110: 0400 0000 0400 0000 0400 0000 0400 0000
00000120: 0400 0000 0400 0000 0400 0000 0400 0000
00000130: 0400 0000 0400 0000 0400 0000 0400 0000
00000140: 0400 0000 0400 0000 0400 0000 0400 0000
00000150: 0400 0000 0400 0000 0400 0000 0400 0000
00000160: 0400 0000 0400 0000 0400 0000 0400 0000
00000170: 0000 0000 0400 0080 0400 0080 0400 0000
00000180: 0000 0000 0000 0000 0000 0000 0000 0000
00000190: 0000 0000 0000 0000 0000 0000 0000 0000
000001a0: 0000 0000 0000 0000 0000 0000 0000 0000
000001b0: 0000 0000 0000 0000 0000 0000 0000 0000
000001c0: 0000 0000 0000 0000 0000 0000 0000 0000
000001d0: 0000 0000 0000 0000 0000 0000 0000 0000
000001e0: 0000 0000 0000 0000 0000 0000 0000 0000
000001f0: 0000 0000 0000 0000 0000 0000 0000 0000
00000200: 0000 0000 0000 0000 0000 0000 0000 0000
00000210: 0000 0000 0000 0000 0000 0000 0000 0000
00000220: 0000 0000 0000 0000 0000 0000 0000 0000
00000230: 0000 0000 0000 0000 0000 0000 0000 0000
00000240: 0400 0000 0400 0000 0400 0000 0400 0000
00000250: 0400 0000 0400 0000 0400 0000 0000 0000
00000260: 0400 0000 0400 0000 0000 0000 0400 0000
00000270: 0400 0000 0400 0000 0400 0000 0400 0000
00000280: 0400 0000 0400 0000 0000 0000 0400 0000
00000290: 0400 0000 0400 0000 0400 0000 0400 0000
000002a0: 0400 0000 0400 0000 0400 0000 0400 0000
000002b0: 0400 0000 0400 0000 0400 0000 0400 0000
000002c0: 0400 0000 0400 0000 0400 0000 0400 0000
000002d0: 0400 0000 0400 0000 0400 0000 0400 0000
000002e0: 0400 0000 0400 0000 0400 0000 0400 0000
000002f0: 0000 0000 0400 0080 0400 0080 0400 0080
00000300: 0000 0000 0000 0000 0000 0000 0000 0000
00000310: 0000 0000 0000 0000 0000 0000 0000 0000
00000320: 0000 0000 0000 0000 0000 0000 0000 0000
00000330: 0000 0000 0000 0000 0000 0000 0000 0000
00000340: 0000 0000 0000 0000 0000 0000 0000 0000
00000350: 0000 0000 0000 0000 0000 0000 0000 0000
00000360: 0000 0000 0000 0000 0000 0000 0000 0000
00000370: 0000 0000 0000 0000 0000 0000 0000 0000
00000380: 0000 0000 0000 0000 0000 0000 0000 0000
00000390: 0000 0000 0000 0000 0000 0000 0000 0000
000003a0: 0000 0000 0000 0000 0000 0000 0000 0000
000003b0: 0000 0000 0000 0000 0000 0000 0000 0000
000003c0: 3b77 b63a d163 1a3c 0400 0000 48e7 ec3a
000003d0: 67fa 7e3a 0400 0080 27a4 eb3a 1463 cc37
000003e0: abba 8b3d 1bfc e43e 0400 0000 2fbd 003e
000003f0: 16fd 57bc 1e59 852d 29e5 d73c 077c 0b38
6e-45 6e-45 6e-45 6e-45 -6e-45 6e-45 6e-45 6e-45
6e-45 6e-45 6e-45 6e-45 -6e-45 6e-45 6e-45 6e-45
6e-45 6e-45 6e-45 6e-45 -6e-45 -6e-45 6e-45 6e-45
6e-45 6e-45 6e-45 6e-45 6e-45 6e-45 6e-45 6e-45
6e-45 6e-45 6e-45 6e-45 6e-45 6e-45 6e-45 6e-45
6e-45 6e-45 6e-45 6e-45 6e-45 6e-45 6e-45 -6e-45
6e-45 6e-45 6e-45 6e-45 6e-45 -6e-45 6e-45 6e-45
6e-45 6e-45 6e-45 6e-45 6e-45 -6e-45 6e-45 6e-45
6e-45 6e-45 6e-45 6e-45 6e-45 6e-45 6e-45 6e-45
6e-45 6e-45 6e-45 6e-45 6e-45 6e-45 6e-45 6e-45
6e-45 6e-45 6e-45 6e-45 6e-45 6e-45 6e-45 6e-45
6e-45 6e-45 6e-45 6e-45 0.0 -6e-45 -6e-45 6e-45
0.0 0.0 0.0 0.0 0.0 0.0 0.0 0.0
0.0 0.0 0.0 0.0 0.0 0.0 0.0 0.0
0.0 0.0 0.0 0.0 0.0 0.0 0.0 0.0
0.0 0.0 0.0 0.0 0.0 0.0 0.0 0.0
0.0 0.0 0.0 0.0 0.0 0.0 0.0 0.0
0.0 0.0 0.0 0.0 0.0 0.0 0.0 0.0
6e-45 6e-45 6e-45 6e-45 6e-45 6e-45 6e-45 0.0
6e-45 6e-45 0.0 6e-45 6e-45 6e-45 6e-45 6e-45
6e-45 6e-45 0.0 6e-45 6e-45 6e-45 6e-45 6e-45
6e-45 6e-45 6e-45 6e-45 6e-45 6e-45 6e-45 6e-45
6e-45 6e-45 6e-45 6e-45 6e-45 6e-45 6e-45 6e-45
6e-45 6e-45 6e-45 6e-45 0.0 -6e-45 -6e-45 -6e-45
0.0 0.0 0.0 0.0 0.0 0.0 0.0 0.0
0.0 0.0 0.0 0.0 0.0 0.0 0.0 0.0
0.0 0.0 0.0 0.0 0.0 0.0 0.0 0.0
0.0 0.0 0.0 0.0 0.0 0.0 0.0 0.0
0.0 0.0 0.0 0.0 0.0 0.0 0.0 0.0
0.0 0.0 0.0 0.0 0.0 0.0 0.0 0.0
0.0013921031 0.009423212 6e-45 0.0018074298 0.0009726644 -6e-45 0.0017977998 2.4364832e-05
0.068227135 0.4472359 6e-45 0.12572168 -0.013182899 1.5159925e-11 0.02635439 3.3255692e-05

exp_avg_sq f4 [128, 48]
00000000: b99c 7033 58b1 ae36 8cef a72e a80c 6834
00000010: 9846 d630 6f07 c92f 7082 ab33 acd4 142e
00000020: a5ac a139 8de9 0c3c e590 5535 2356 393a
00000030: 49c0 c538 a343 2836 c973 423a d61f 052e
00000040: 2b87 4b2e 3eb4 6c31 7f74 9a29 7e42 1f2f
00000050: 9cf1 b52c 276f 972c ab2c ac2e 3295 d128
00000060: 5205 d928 3df4 a02b 76f9 0b2d 44bc 6430
00000070: 2cf8 a536 043d 532b aee2 102e 4d32 e930
00000080: 4a3e 252e c1ae 8532 2fe2 d135 5ba2 062e
00000090: 4004 d232 81a2 7635 af51 9b25 b31a 5b27
000000a0: 7280 e12b 4a07 832e 4d07 832e f549 1b3a
000000b0: eb85 ae23 2714 642a 1c75 3a30 3f37 c828
000000c0: 4b51 0333 3fc6 0237 55b1 0524 2031 8034
000000d0: 2871 b62e 335f fc24 f477 be2f 8872 932e
000000e0: 10eb 2539 8de3 5d3c 58d4 6a2a 3253 5a3a
000000f0: 4030 4e35 da0d 9032 4eec e435 098b 8e2e
00000100: eab1 b92d 3407 a831 6c0a f61e 2523 2f2f
00000110: e37c 6d29 d03b 871f 0ae1 6e2a 4707 7328
00000120: 74de 7d28 4d11 9a2b faba 122c b9ef b230
00000130: 39e2 9336 eddd ab2a 6f13 bb2d c2ef f630
00000140: 3b71 9f2e 7ade 0a33 068d aa36 c139 8e2e
00000150: d0c4 2d33 e086 8436 4388 2525 dde8 d826
00000160: 6c4a b32b 5122 d12e 5122 d12e cb4c 183b
00000170: 0000 0000 af47 4029 6e84 182f 9cce 1328
00000180: 0000 0000 0000 0000 0000 0000 0000 0000
00000190: 0000 0000 0000 0000 0000 0000 0000 0000
000001a0: 0000 0000 0000 0000 0000 0000 0000 0000
000001b0: 0000 0000 0000 0000 0000 0000 0000 0000
000001c0: 0000 0000 0000 0000 0000 0000 0000 0000
000001d0: 0000 0000 0000 0000 0000 0000 0000 0000
000001e0: 0000 0000 0000 0000 0000 0000 0000 0000
000001f0: 0000 0000 0000 0000 0000 0000 0000 0000
00000200: 0000 0000 0000 0000 0000 0000 0000 0000
00000210: 0000 0000 0000 0000 0000 0000 0000 0000
00000220: 0000 0000 0000 0000 0000 0000 0000 0000
00000230: 0000 0000 0000 0000 0000 0000 0000 0000
00000240: ffc8 4623 d66c 2b24 9d25 ba1f ff8b ff21
00000250: 4500 4a23 92bc a622 2b37 a323 0000 0000
00000260: 9c55 0629 ff35 7429 0000 0000 bcf4 f926
00000270: 9cf1 0b29 f12d e028 561a 3129 f8a2 c116
00000280: aab8 121e 6a21 f31e 0000 0000 4cc9 f51c
00000290: 6a21 f31d 87c2 881d 87c2 881e bc6b 5018
000002a0: b83f 6518 f541 301a 9849 de1b 6a21 f31b
000002b0: 61b0 d524 6b89 9c1a 3be5 d11d 732a 8a1f
000002c0: eca6 251b 6a21 f31f 853e 1f20 97af 5419
000002d0: 20db 191f 408c 211f 2fd5 8e14 2fd5 8e16
000002e0: c59a 391a 6a21 f31b 6a21 f31b f0b9 e924
000002f0: 0000 0000 89af 1c18 e20c 131e 8e00 9d15
00000300: 0000 0000 0000 0000 0000 0000 0000 0000
00000310: 0000 0000 0000 0000 0000 0000 0000 0000
00000320: 0000 0000 0000 0000 0000 0000 0000 0000
00000330: 0000 0000 0000 0000 0000 0000 0000 0000
00000340: 0000 0000 0000 0000 0000 0000 0000 0000
00000350: 0000 0000 0000 0000 0000 0000 0000 0000
00000360: 0000 0000 0000 0000 0000 0000 0000 0000
00000370: 0000 0000 0000 0000 0000 0000 0000 0000
00000380: 0000 0000 0000 0000 0000 0000 0000 0000
00000390: 0000 0000 0000 0000 0000 0000 0000 0000
000003a0: 0000 0000 0000 0000 0000 0000 0000 0000
000003b0: 0000 0000 0000 0000 0000 0000 0000 0000
000003c0: 0e70 573e 4c39 8841 d781 c032 107a 4f3f
000003d0: 1eb1 fd3b ea82 2734 2736 8f3e 582b da38
000003e0: 4f56 8e44 b679 cf46 f7fc c139 7bf7 1345
000003f0: ef8b bc43 f8b2 6b3e e0f1 7145 d2c4 4238
5.6021893e-08 5.2062496e-06 7.636833e-11 2.1611288e-07 1.5590613e-09 3.656697e-10 7.9865345e-08 3.3840195e-11
0.00030836943 0.008600605 7.955953e-07 0.00070700253 9.429508e-05 2.507332e-06 0.0007417766 3.0268975e-11
4.627691e-11 3.4444976e-09 6.859183e-14 1.4484589e-10 5.1711534e-12 4.3040185e-12 7.829589e-11 2.3268364e-14
2.4094147e-14 1.1436474e-12 7.956627e-12 8.321346e-10 4.946274e-06 7.5046935e-13 3.294314e-11 1.6967278e-09
3.757198e-11 1.5562707e-08 1.5637542e-06 3.0612273e-11 2.444915e-08 9.1878616e-07 2.6943565e-16 3.040683e-15
1.6022862e-12 5.958485e-11 5.958487e-11 0.0005923801 1.8921834e-17 2.025746e-13 6.783283e-10 2.222842e-14
3.057475e-08 7.794762e-06 2.8989984e-17 2.38776e-07 8.2965024e-11 1.0944885e-16 3.464603e-10 6.705131e-11
0.00015823194 0.013543022 2.0857047e-13 0.0008328437 7.6811193e-07 1.6770105e-08 1.7056097e-06 6.48211e-11
2.1111075e-11 4.8902624e-09 2.6050574e-20 1.5928643e-10 5.2732893e-14 5.7273675e-20 2.1216722e-13 1.3490788e-14
1.4092558e-14 1.094716e-12 2.085164e-12 1.3019338e-09 4.407277e-06 3.0529694e-13 2.1268069e-11 1.7966999e-09
7.2505967e-11 3.233297e-08 5.082812e-06 6.4676715e-11 4.04587e-08 3.949608e-06 1.4357636e-16 1.5051129e-15
1.2739371e-12 9.5103155e-11 9.5103155e-11 0.0023239132 0.0 4.269474e-14 1.3871368e-10 8.2049405e-15
0.0 0.0 0.0 0.0 0.0 0.0 0.0 0.0
0.0 0.0 0.0 0.0 0.0 0.0 0.0 0.0
0.0 0.0 0.0 0.0 0.0 0.0 0.0 0.0
0.0 0.0 0.0 0.0 0.0 0.0 0.0 0.0
0.0 0.0 0.0 0.0 0.0 0.0 0.0 0.0
0.0 0.0 0.0 0.0 0.0 0.0 0.0 0.0
1.0776164e-17 3.7171902e-17 7.883629e-20 1.7316529e-18 1.0950499e-17 4.5194047e-18 1.769586e-17 0.0
2.982823e-14 5.4225718e-14 0.0 1.7344181e-15 3.1073763e-14 2.488892e-14 3.9324738e-14 3.128368e-25
7.767363e-21 2.5742446e-20 0.0 1.6264774e-21 6.4356114e-21 3.6200037e-21 1.4480015e-20 2.6937762e-24
2.9629726e-24 3.6449227e-23 3.6774378e-22 4.022257e-22 9.267282e-17 6.47421e-23 5.555886e-21 5.85155e-20
1.3702415e-22 1.0296978e-19 1.348851e-19 1.0995603e-23 3.2580266e-20 3.4209088e-20 1.4422422e-26 2.3075875e-25
3.8382125e-23 4.022257e-22 4.022257e-22 1.0136263e-16 0.0 2.025115e-24 7.784779e-21 6.341267e-26
0.0 0.0 0.0 0.0 0.0 0.0 0.0 0.0
0.0 0.0 0.0 0.0 0.0 0.0 0.0 0.0
0.0 0.0 0.0 0.0 0.0 0.0 0.0 0.0
0.0 0.0 0.0 0.0 0.0 0.0 0.0 0.0
0.0 0.0 0.0 0.0 0.0 0.0 0.0 0.0
0.0 0.0 0.0 0.0 0.0 0.0 0.0 0.0
0.21038839 17.027977 2.2410786e-08 0.8104563 0.0077420613 1.5600713e-07 0.27971002 0.000104031235
1138.6971 26556.855 0.00037000302 2367.4675 377.09323 0.2301749 3871.1172 4.6436508e-05

exp_avg f4 [128]
00000000: 0400 0000 0400 0000 0000 0000 0400 0000
00000010: 0000 0000 9ee9 1b38 0400 0000 0000 0000
00000020: f547 7c39 0400 0000 c1e3 1eb9 0400 0000
00000030: 0000 0000 0400 0000 0000 0000 0000 0000
00000040: 0400 0000 0400 0000 72e2 06ba 567d 683a
00000050: 9e81 9937 0400 0000 0400 0000 780a 5bb9
00000060: 0000 0000 2b33 afb9 0000 0000 0400 0000
00000070: c53f ea38 0000 0000 3ba6 8bb8 0400 0000
00000080: 1bea 8f39 0000 0000 0400 0000 448c 2eb8
00000090: 0400 0000 0400 0000 0400 0000 0000 0000
000000a0: 0400 0000 0000 0000 5518 55b7 0400 0000
000000b0: 0000 0000 0400 0000 333a beb8 646d 3139
000000c0: 0400 0000 597e 48b9 0400 0000 bad2 c9b9
000000d0: 0400 0000 db54 0d3a 8571 1eb8 0000 0000
000000e0: 0400 0000 0400 0000 0000 0000 0000 0000
000000f0: 0400 0000 0400 0000 0000 0000 948a 09b8
00000100: 0400 0000 0000 0000 ffad 8139 0400 0000
00000110: 6b80 53b9 e704 dbb9 0000 0000 0400 0000
00000120: a22f e6b8 d23b cdb9 2670 8f39 b288 9839
00000130: f35a 34b9 646a cc38 0400 0000 0400 0000
00000140: 0000 0000 0400 0000 0000 0000 0400 0000
00000150: 0400 0000 0400 0000 0400 0000 0400 0000
00000160: eff9 b31e 8dd1 c639 0000 0000 0000 0000
00000170: 0400 0000 0400 0000 0000 0000 0400 0000
00000180: 0400 0000 0400 0000 b7e4 6439 0000 0000
00000190: 8640 ed38 0400 0000 0400 0080 0e36 54b8
000001a0: 0000 0000 0000 0000 0400 0000 1775 8ab9
000001b0: 0000 0000 5924 b6b9 0000 0000 0000 0000
000001c0: 0000 0000 0400 0000 0400 0000 0400 0000
000001d0: 0400 0000 e188 3339 eea3 6339 8f71 66b9
000001e0: 0400 0000 0400 0000 0400 0000 0400 0000
000001f0: 0400 0000 0400 0000 0400 0000 0400 0000
6e-45 6e-45 0.0 6e-45 0.0 3.7172453e-05 6e-45 0.0
0.00024059399 6e-45 -0.00015152899 6e-45 0.0 6e-45 0.0 0.0
6e-45 6e-45 -0.00051454373 0.0008868774 1.8299379e-05 6e-45 6e-45 -0.00020889367
0.0 -0.00033416724 0.0 6e-45 0.000111698675 0.0 -6.658999e-05 6e-45
0.00027449508 0.0 6e-45 -4.1615465e-05 6e-45 6e-45 6e-45 0.0
6e-45 0.0 -1.2701455e-05 6e-45 0.0 6e-45 -9.0707465e-05 0.00016920787
6e-45 -0.00019120554 6e-45 -0.0003849471 6e-45 0.00053913676 -3.777586e-05 0.0
6e-45 6e-45 0.0 0.0 6e-45 6e-45 0.0 -3.2792406e-05
6e-45 0.0 0.00024734435 6e-45 -0.00020170367 -0.00041774588 0.0 6e-45
-0.00010976127 -0.00039145217 0.00027358643 0.00029093545 -0.00017200019 9.747295e-05 6e-45 6e-45
0.0 6e-45 0.0 6e-45 6e-45 6e-45 6e-45 6e-45
1.9055732e-20 0.0003792163 0.0 0.0 6e-45 6e-45 0.0 6e-45
6e-45 6e-45 0.00021828977 0.0 0.00011313059 6e-45 -6e-45 -5.059508e-05
0.0 0.0 6e-45 -0.0002640865 0.0 -0.00034740826 0.0 0.0
0.0 6e-45 6e-45 6e-45 6e-45 0.00017121762 0.00021709476 -0.00021976813
6e-45 6e-45 6e-45 6e-45 6e-45 6e-45 6e-45 6e-45

exp_avg_sq f4 [128]
00000000: 4d07 832e 5122 d12e 0000 0000 6a21 f31b
00000010: 0000 0000 5751 3a39 64c0 a524 0000 0000
00000020: a82d 5939 99e5 5626 2e92 0d3b b603 181b
00000030: 0000 0000 532b 5933 0000 0000 0000 0000
00000040: ef18 221a ae14 bb31 0cdb 8b3b e3f3 083b
00000050: 6fad 243a 84e6 8329 affd c333 ea1e 823a
00000060: 0000 0000 8f9b 153c 0000 0000 022e c311
00000070: f43a a839 0000 0000 266f e538 4595 ed1d
00000080: 2b08 a33a 0000 0000 6c79 6527 aede c43a
00000090: 93e4 d723 6abe 2c25 3304 962d 0000 0000
000000a0: f83c 8330 0000 0000 e038 9536 0373 9932
000000b0: 0000 0000 0dee 1d27 10a6 3b3a 23cf 213c
000000c0: 98d4 4d31 4194 7c3b 6813 b029 fa53 3a3b
000000d0: 3c3c 8d1a 9005 6b3a 06f3 e23b 0000 0000
000000e0: 176b c321 ce99 a82f 0000 0000 0000 0000
000000f0: b32f 6d1e 4c13 3126 0000 0000 2082 413c
00000100: b0ef fc22 0000 0000 2252 593a 6908 b92c
00000110: d815 443b 51ae e33b 0000 0000 6e3e af2b
00000120: 3226 9b3a 9950 ce3b f15f 113b e711 0c3b
00000130: 3bfd a93b d8b3 133b a594 a52c 4f81 0634
00000140: 0000 0000 a1f4 4b2b 0000 0000 5f42 eb31
00000150: afd7 1e28 50ab 7128 90cd 0d2f 0281 dd2a
00000160: 009d 5f39 9efb 6e3a 0000 0000 0000 0000
00000170: cbbf ca2a ed3a 5c23 0000 0000 49c7 7b37
00000180: 6be2 0e28 c4f3 a52d 26f3 743a 0000 0000
00000190: 4546 1d3a ee39 5b1c 4021 541b 6872 8f3a
000001a0: 0000 0000 0000 0000 de84 b81c 8dce 923b
000001b0: 0000 0000 01ec 903c 0000 0000 0000 0000
000001c0: 0000 0000 d338 ee20 ff5b dc23 1e95 9c2b
000001d0: b68f 2d1f 96bb 3a3c a336 303b 63aa b13b
000001e0: ed4a db23 2213 f32e b95d 642b 0d99 8034
000001f0: b548 6c31 8b48 c32c 993c 012a 81ec 1238
5.958487e-11 9.5103155e-11 0.0 4.022257e-22 0.0 0.00017768644 7.1883266e-17 0.0
0.00020711741 7.455733e-16 0.0021602022 1.2574344e-22 0.0 5.0563653e-08 0.0 0.0
3.3520956e-23 5.4447673e-09 0.004268056 0.002089732 0.0006281947 5.857557e-14 9.12654e-08 0.0009927426
0.0 0.009131326 0.0 3.079393e-28 0.0003208738 0.0 0.00010940274 6.288772e-21
0.0012438347 0.0 3.1845957e-15 0.0015019977 2.3407152e-17 1.4983137e-16 1.705489e-11 0.0
9.548833e-10 0.0 4.447167e-06 1.7863846e-08 0.0 2.1917174e-15 0.0007158229 0.009876045
2.9952272e-09 0.0038540515 7.8193365e-14 0.0028431402 5.841355e-23 0.00089653675 0.0069259433 0.0
1.324206e-18 3.0668307e-10 0.0 0.0 1.25565395e-20 6.1435363e-16 0.0 0.011810809
6.8558516e-18 0.0 0.0008290132 5.25895e-12 0.0029920246 0.0069482704 0.0 1.2451826e-12
0.0011836945 0.006296229 0.002218243 0.0021372975 0.005187658 0.0022537615 4.706085e-12 1.2526765e-07
0.0 7.245958e-13 0.0 6.8469457e-09 8.817531e-15 1.3415335e-14 1.2896906e-10 3.9347003e-13
0.00021325424 0.00091164734 0.0 0.0 3.601549e-13 1.1938702e-17 0.0 1.50071655e-05
7.93168e-15 1.8866582e-11 0.0009344093 0.0 0.00059995457 7.2535894e-22 1.7546973e-22 0.001094413
0.0 0.0 1.2210444e-21 0.004480189 0.0 0.01769066 0.0 0.0
0.0 4.0356371e-19 2.389141e-17 1.1125855e-12 3.675305e-20 0.011397263 0.0026888035 0.005421923
2.377576e-17 1.1053759e-10 8.113194e-13 2.3953217e-07 3.438385e-09 5.5502872e-12 1.1478526e-13 3.5029374e-05

exp_avg f4 [64, 128]
00000000: 0400 0000 0400 0000 0000 0000 0400 0000
00000010: 0000 0000 0400 0000 0400 0000 0000 0000
00000020: 0400 0000 0400 0000 0400 0000 0400 0080
00000030: 0000 0000 0400 0000 0000 0000 0000 0000
00000040: 0400 0080 0400 0000 0400 0000 0400 0000
00000050: 0400 0000 0400 0000 0400 0000 0400 0000
00000060: 0000 0000 0400 0000 0000 0000 0400 0080
00000070: 0400 0000 0000 0000 0400 0000 0400 0080
00000080: 0400 0000 0000 0000 0400 0000 0400 0000
00000090: 0400 0000 0400 0000 0400 0000 0000 0000
000000a0: 0400 0000 0000 0000 0400 0000 0400 0000
000000b0: 0000 0000 0400 0000 0400 0000 0400 0000
000000c0: 0400 0000 0400 0000 0400 0000 0400 0000
000000d0: 0400 0080 0400 0000 0400 0000 0000 0000
000000e0: 0400 0000 0400 0000 0000 0000 0000 0000
000000f0: 0400 0080 0400 0000 0000 0000 0400 0000
00000100: 0400 0000 0000 0000 0400 0000 0400 0000
00000110: 0400 0000 0400 0000 0000 0000 0400 0000
00000120: 0400 0000 0400 0000 0400 0000 0400 0000
00000130: 0400 0000 0400 0000 0400 0000 0400 0000
00000140: 0000 0000 0400 0000 0000 0000 0400 0000
00000150: 0400 0000 0400 0000 0400 0000 0400 0000
00000160: 0400 0000 0400 0000 0000 0000 0000 0000
00000170: 0400 0000 0400 0000 0000 0000 0400 0000
00000180: 0400 0000 0400 0000 0400 0000 0000 0000
00000190: 0400 0000 0400 0000 0400 0080 0400 0000
000001a0: 0000 0000 0000 0000 0400 0000 0400 0000
000001b0: 0000 0000 0400 0000 0000 0000 0000 0000
000001c0: 0000 0000 0400 0000 0400 0000 0400 0000
000001d0: 0400 0000 0400 0000 0400 0000 0400 0000
000001e0: 0400 0000 0400 0080 0400 0000 0400 0000
000001f0: 0400 0000 0400 0000 0400 0000 0400 0000
00000200: 0400 0000 0000 0000 0000 0000 0000 0000
00000210: 0000 0000 0400 0000 0000 0000 0000 0000
00000220: 0000 0000 0000 0000 0400 0000 0000 0000
00000230: 0000 0000 0000 0000 0000 0000 0000 0000
00000240: 0000 0000 0000 0000 0400 0000 0000 0000
00000250: 0400 0000 0000 0000 0400 0000 0400 0000
00000260: 0000 0000 0400 0000 0000 0000 0000 0000
00000270: 0000 0000 0000 0000 0000 0000 0000 0000
00000280: 0000 0000 0000 0000 0000 0000 0000 0000
00000290: 0000 0000 0000 0000 0000 0000 0000 0000
000002a0: 0000 0000 0000 0000 0400 0000 0400 0000
000002b0: 0000 0000 0000 0000 0000 0000 0400 0000
000002c0: 0400 0000 0400 0000 0000 0000 0400 0000
000002d0: 0000 0000 0000 0000 0000 0000 0000 0000
000002e0: 0000 0000 0000 0000 0000 0000 0000 0000
000002f0: 0000 0000 0000 0000 0000 0000 0400 0000
00000300: 0000 0000 0000 0000 0000 0000 0000 0000
00000310: 0400 0000 0400 0000 0000 0000 0000 0000
00000320: 0400 0000 0400 0000 0400 0000 0400 0000
00000330: 0400 0000 0000 0000 0000 0000 0400 0000
00000340: 0000 0000 0000 0000 0000 0000 0400 0000
00000350: 0000 0000 0000 0000 0000 0000 0000 0000
00000360: 0400 0000 0400 0000 0000 0000 0000 0000
00000370: 0000 0000 0000 0000 0000 0000 0000 0000
00000380: 0000 0000 0000 0000 0000 0000 0000 0000
00000390: 0400 0000 0000 0000 0000 0000 0400 0000
000003a0: 0000 0000 0000 0000 0000 0000 0400 0000
000003b0: 0000 0000 0400 0000 0000 0000 0000 0000
000003c0: 0000 0000 0000 0000 0000 0000 0000 0000
000003d0: 0000 0000 0400 0000 0400 0000 0400 0000
000003e0: 0000 0000 0000 0000 0000 0000 0000 0000
000003f0: 0400 0000 0400 0000 0000 0000 0400 0000
6e-45 6e-45 0.0 6e-45 0.0 6e-45 6e-45 0.0
6e-45 6e-45 6e-45 -6e-45 0.0 6e-45 0.0 0.0
-6e-45 6e-45 6e-45 6e-45 6e-45 6e-45 6e-45 6e-45
0.0 6e-45 0.0 -6e-45 6e-45 0.0 6e-45 -6e-45
6e-45 0.0 6e-45 6e-45 6e-45 6e-45 6e-45 0.0
6e-45 0.0 6e-45 6e-45 0.0 6e-45 6e-45 6e-45
6e-45 6e-45 6e-45 6e-45 -6e-45 6e-45 6e-45 0.0
6e-45 6e-45 0.0 0.0 -6e-45 6e-45 0.0 6e-45
6e-45 0.0 6e-45 6e-45 6e-45 6e-45 0.0 6e-45
6e-45 6e-45 6e-45 6e-45 6e-45 6e-45 6e-45 6e-45
0.0 6e-45 0.0 6e-45 6e-45 6e-45 6e-45 6e-45
6e-45 6e-45 0.0 0.0 6e-45 6e-45 0.0 6e-45
6e-45 6e-45 6e-45 0.0 6e-45 6e-45 -6e-45 6e-45
0.0 0.0 6e-45 6e-45 0.0 6e-45 0.0 0.0
0.0 6e-45 6e-45 6e-45 6e-45 6e-45 6e-45 6e-45
6e-45 -6e-45 6e-45 6e-45 6e-45 6e-45 6e-45 6e-45
6e-45 0.0 0.0 0.0 0.0 6e-45 0.0 0.0
0.0 0.0 6e-45 0.0 0.0 0.0 0.0 0.0
0.0 0.0 6e-45 0.0 6e-45 0.0 6e-45 6e-45
0.0 6e-45 0.0 0.0 0.0 0.0 0.0 0.0
0.0 0.0 0.0 0.0 0.0 0.0 0.0 0.0
0.0 0.0 6e-45 6e-45 0.0 0.0 0.0 6e-45
6e-45 6e-45 0.0 6e-45 0.0 0.0 0.0 0.0
0.0 0.0 0.0 0.0 0.0 0.0 0.0 6e-45
0.0 0.0 0.0 0.0 6e-45 6e-45 0.0 0.0
6e-45 6e-45 6e-45 6e-45 6e-45 0.0 0.0 6e-45
0.0 0.0 0.0 6e-45 0.0 0.0 0.0 0.0
6e-45 6e-45 0.0 0.0 0.0 0.0 0.0 0.0
0.0 0.0 0.0 0.0 6e-45 0.0 0.0 6e-45
0.0 0.0 0.0 6e-45 0.0 6e-45 0.0 0.0
0.0 0.0 0.0 0.0 0.0 6e-45 6e-45 6e-45
0.0 0.0 0.0 0.0 6e-45 6e-45 0.0 6e-45

exp_avg_sq f4 [64, 128]
00000000: 535a 0e30 ba59 552e 0000 0000 9b4c 1d24
00000010: 0000 0000 a59a 9c2f 0495 cf2e 0000 0000
00000020: 4fbe ad30 5e1d 5f29 e0b8 0030 1835 5825
00000030: 0000 0000 0469 952d 0000 0000 0000 0000
00000040: f724 ee17 80b5 812f 81b3 f230 4b12 352e
00000050: d120 ae30 3e30 042d 30a9 a42f c6bf 9930
00000060: 0000 0000 7fca a92f 0000 0000 7f4a a31d
00000070: af3f a130 0000 0000 90a5 962c 503f 8222
00000080: f35c 582e 0000 0000 46ac 0f2b afab 682f
00000090: 9b84 ab2b 2c1d 4f28 e927 ee2d 0000 0000
000000a0: dabe 932d 0000 0000 c66c bd2f 4749 c72d
000000b0: 0000 0000 8770 e02e 8b50 9630 d338 ed30
000000c0: 7052 6a2f 9539 9a30 7de3 922d fa59 362d
000000d0: aaa2 a323 aeaa 9230 3e11 d12e 0000 0000
000000e0: 6811 9f2d 1eba ac29 0000 0000 0000 0000
000000f0: fb89 5726 07cc 262c 0000 0000 4436 3930
00000100: 3324 b92e 0000 0000 3cd4 842d 09ed 3a2f
00000110: 142b e22f 5d18 0330 0000 0000 01a1 a22d
00000120: 4a72 b031 526b 0f30 0970 3630 ccf8 4330
00000130: 9410 5730 44fb 4531 c42f 6230 055d 392f
00000140: 0000 0000 ab13 2c2f 0000 0000 ee2b 9c30
00000150: 8b33 1c2e ddfd 9a2e 5de9 a02f 6c89 122d
00000160: 68be d630 fadb 1831 0000 0000 0000 0000
00000170: d8ee 252f bdf4 252e 0000 0000 1f9d 1430
00000180: 09df a62e 1670 092f 05ec 7e2f 0000 0000
00000190: 0bea 3530 750b 001d 7409 8526 4e1f 582f
000001a0: 0000 0000 0000 0000 6a0c bf26 8e8c 2731
000001b0: 0000 0000 25a6 882e 0000 0000 0000 0000
000001c0: 0000 0000 c30b fd27 26bd e72a 6340 4f2f
000001d0: 643c 2d28 ca8d ff2d f9e4 da2f 96d7 e130
000001e0: 4e4e 682d 9352 dd2a e4b7 dc2f 1877 662e
000001f0: 46af 3b30 943f 392f f602 df2e dad7 2a30
00000200: 14f9 0830 0000 0000 0000 0000 0000 0000
00000210: 0000 0000 fc58 0032 0000 0000 0000 0000
00000220: 0000 0000 0000 0000 ff2c 0b32 0000 0000
00000230: 0000 0000 0000 0000 0000 0000 0000 0000
00000240: 0000 0000 0000 0000 f56f da31 0000 0000
00000250: 8338 4c31 0000 0000 c20d c830 f1dc 6130
00000260: 0000 0000 ca87 6331 0000 0000 0000 0000
00000270: 0000 0000 0000 0000 0000 0000 0000 0000
00000280: 0000 0000 0000 0000 0000 0000 0000 0000
00000290: 0000 0000 0000 0000 0000 0000 0000 0000
000002a0: 0000 0000 0000 0000 11f1 6731 cc85 c42d
000002b0: 0000 0000 0000 0000 0000 0000 f19c 412f
000002c0: cab1 2d30 38a0 6430 0000 0000 1cd4 042e
000002d0: 0000 0000 0000 0000 0000 0000 0000 0000
000002e0: 0000 0000 0000 0000 0000 0000 0000 0000
000002f0: 0000 0000 0000 0000 0000 0000 9933 6c32
00000300: 0000 0000 0000 0000 0000 0000 0000 0000
00000310: e457 ff2c f1d0 1132 0000 0000 0000 0000
00000320: 05ac f930 c3e4 252a 8d69 0532 0bcd de30
00000330: 9b1c 5631 0000 0000 0000 0000 dc98 da2f
00000340: 0000 0000 0000 0000 0000 0000 21bf d730
00000350: 0000 0000 0000 0000 0000 0000 0000 0000
00000360: a845 0b31 9ddf 0a31 0000 0000 0000 0000
00000370: 0000 0000 0000 0000 0000 0000 0000 0000
00000380: 0000 0000 0000 0000 0000 0000 0000 0000
00000390: 962c bb30 0000 0000 0000 0000 e66e 292d
000003a0: 0000 0000 0000 0000 0000 0000 567b 8c32
000003b0: 0000 0000 af20 1f2c 0000 0000 0000 0000
000003c0: 0000 0000 0000 0000 0000 0000 0000 0000
000003d0: 0000 0000 644d 3930 0086 0032 6490 982f
000003e0: 0000 0000 0000 0000 0000 0000 0000 0000
000003f0: 67b4 0931 675b 652f 0000 0000 6100 9330
5.178766e-10 4.8510286e-11 0.0 3.4108836e-17 0.0 2.8486116e-10 9.439741e-11 0.0
1.2641496e-09 4.954142e-14 4.682885e-10 1.8753002e-16 0.0 1.6985975e-11 0.0 0.0
1.5389721e-24 2.3593927e-10 1.7658836e-09 4.1170883e-11 1.2669493e-09 7.514043e-12 2.995164e-10 1.118672e-09
0.0 3.0884803e-10 0.0 4.3222768e-21 1.1732392e-09 0.0 4.2816375e-12 3.5303605e-18
4.919527e-11 0.0 5.1042883e-13 2.1161271e-10 1.2187086e-12 1.1497134e-14 2.7075191e-11 0.0
1.679672e-11 0.0 3.4456188e-10 2.2656222e-11 0.0 1.02063295e-10 1.0936828e-09 1.726017e-09
2.1311464e-10 1.122134e-09 1.6699303e-11 1.0365481e-11 1.7741386e-17 1.0671408e-09 9.5072825e-11 0.0
1.8083937e-11 7.6706206e-14 0.0 0.0 7.478011e-16 2.3703277e-12 0.0 6.7379724e-10
8.419256e-11 0.0 1.5100914e-11 1.7000813e-10 4.113977e-10 4.7692145e-10 0.0 1.8488768e-11
5.1352673e-09 5.217561e-10 6.6370426e-10 7.129415e-10 7.8240103e-10 2.88101e-09 8.22862e-10 1.6858699e-10
0.0 1.5650296e-10 0.0 1.136298e-09 3.5516073e-11 7.0482044e-11 2.9269645e-10 8.329653e-12
1.5624666e-09 2.2243953e-09 0.0 0.0 1.5091517e-10 3.7734028e-11 0.0 5.406537e-10
7.588425e-11 1.2499898e-10 2.3185016e-10 0.0 6.618001e-10 1.6946582e-21 9.231291e-16 1.9656207e-10
0.0 0.0 1.3256652e-15 2.4381595e-09 0.0 6.214077e-11 0.0 0.0
0.0 7.023436e-15 4.116509e-13 1.8849415e-10 9.616524e-15 2.905311e-11 3.9816664e-10 1.6432178e-09
1.320506e-11 3.9314784e-13 4.014843e-10 5.2401722e-11 6.827928e-10 1.684824e-10 1.0141392e-10 6.2152383e-10
4.9830473e-10 0.0 0.0 0.0 0.0 7.470813e-09 0.0 0.0
0.0 0.0 8.101096e-09 0.0 0.0 0.0 0.0 0.0
0.0 0.0 6.357363e-09 0.0 2.971803e-09 0.0 1.4555825e-09 8.21685e-10
0.0 3.3110035e-09 0.0 0.0 0.0 0.0 0.0 0.0
0.0 0.0 0.0 0.0 0.0 0.0 0.0 0.0
0.0 0.0 3.3751955e-09 2.2342038e-11 0.0 0.0 0.0 1.7609005e-10
6.3189687e-10 8.31736e-10 0.0 3.0201716e-11 0.0 0.0 0.0 0.0
0.0 0.0 0.0 0.0 0.0 0.0 0.0 1.374874e-08
0.0 0.0 0.0 0.0 7.2572937e-12 8.487619e-09 0.0 0.0
1.8166025e-09 1.4734312e-13 7.765618e-09 1.6210903e-09 3.115736e-09 0.0 0.0 3.9762582e-10
0.0 0.0 0.0 1.5697631e-09 0.0 0.0 0.0 0.0
2.0266757e-09 2.0208752e-09 0.0 0.0 0.0 0.0 0.0 0.0
0.0 0.0 0.0 0.0 1.3618713e-09 0.0 0.0 9.631162e-12
0.0 0.0 0.0 1.6354232e-08 0.0 2.2613402e-12 0.0 0.0
0.0 0.0 0.0 0.0 0.0 6.7412587e-10 7.481049e-09 2.7751235e-10
0.0 0.0 0.0 0.0 2.003867e-09 2.0859901e-10 0.0 1.0695765e-09
