src/model_data/Dutch_model.pth (torch, 197403 bytes, 21 tensors)

net.0.weight f4 [128, 48]
00000000: 21a0 4ebe d94f aabd afc1 0e3c fa38 a43d
00000010: 0f2b 76bd 4bd7 3bbe 2428 0b3e 40e6 88be
00000020: a43f 56bd ac65 bcbd 2c88 043e 46f0 00be
00000030: b7df a33d e213 013e 5d87 13be e0f0 ce3d
00000040: 3af2 633d 33a3 43be 0ca4 2dbe 2564 473d
00000050: 800b 48be b171 273d 57a2 b0bd 8365 cbbd
00000060: f462 c93d 4c4e afbd 46d6 55bd b620 e6bb
00000070: 29ca 123e a92a 293e 8549 05be b0e7 b0bd
00000080: 87ea f03d f528 7a3d b17c 2fbe 8b0d e5bd
00000090: cb15 a63d 73d5 13be 0168 c3bc e22b d5bc
000000a0: da78 bd3c 2812 3bbe f858 8f3b 5af5 69bd
000000b0: 8bbb dc3d a1ad 113d fa6c 31be c542 1b3e
000000c0: 8715 033b 713a dbbd 8f43 f4bd 58af d7bd
000000d0: dc8d 26be dfa1 a63d a776 d4bd 10c4 503e
000000e0: 3b21 f5bd 49b5 893d 3b75 e63d 2d9e 633d
000000f0: f815 b43d 8500 363e cd89 48bc c7ad 8abd
00000100: 4929 57bc 1bde 443d f72f ed3d 7950 1cbe
00000110: d4b4 19be c82a d43d 6a28 ea3d 8e1d 87be
00000120: 1af9 88bd 3797 683d 2dd7 1dbe 0910 2e3e
00000130: 2680 ff3d 801d b73d b570 85be 8340 32be
00000140: 0de2 d73d 20c3 50bc ed11 18be da7c 1abe
00000150: 3666 87bd d9d6 e43d d955 95be 0e98 14be
00000160: 030c 9fbe 3c34 fcbd 1fbc c5bd 6041 b23d
00000170: 5c61 773e 6951 e5be 706f 653d 7153 cfbd
00000180: da8b 14bd 6f34 e03d 9855 b93d d744 cfbd
00000190: 2e29 87bd 7b07 bfbd 5839 f83d 7fca b5bc
000001a0: d0ff 3ebe c083 333d 272c bcbd 083f f3bd
000001b0: 8d05 b8be 5019 9f3d e7e1 08bc f297 1dbe
000001c0: 448c fdbc 0558 adbc 4d35 97bd 542c 9dbd
000001d0: 2099 0e3e 4988 0fbd 3da2 d03d 4e90 2abe
000001e0: 07be 6abd a899 24bd afdb 88bd d59c 58be
000001f0: 89fc f73d e65f adba 2a23 4abd bcd3 46be
00000200: b245 0ebc 4803 adbd 8789 38be 093c d03d
00000210: 50fa 61be a931 ec3c 7258 72bc c6aa a1bd
00000220: c03d 14be 6929 66be 6041 88bd c10f 81be
00000230: 33e5 863d d844 fc3e 7d97 9b3e 04b9 48be
00000240: 4a1e 28be 99e2 4fbc 9876 f0bc cf7e e7bd
00000250: f580 e5bd 672f 663b 55bf 0dbd bc88 0ebe
00000260: 63f8 8b3d bcfd 953d 0c4a 443d c755 143e
00000270: 2978 a03d 67b8 de3d b703 9b3d eaac 4fbe
00000280: 7576 4dbd 3495 48bd c929 8e3d da7b 9d3d
00000290: fd0b 06bd 56a4 c1bd 3da9 36be 9676 7ebd
000002a0: cf05 50be 678a ffbd 7e24 08be 8255 c7bd
000002b0: b605 113e 5084 5a3d d639 50be 9f66 0d3d
000002c0: 7a1d b9bd a11a 4e3e a3ff 133e 372c c8bd
000002d0: 5ed9 0f3e 7b97 34bc d32e 99be 708f 8a3b
000002e0: 642e 91bb 8e0e 6abe ac85 c73c 7396 ed3d
000002f0: 4e3b bb3a 202c 89be 191b 073e db57 94bd
00000300: 30a5 2ebe e434 c83d f150 95bc 842a 9fbc
00000310: b44a 123c e10a a1bd 8f5f 153e 30eb 02be
00000320: 8604 ac3d 4e74 d4bc 79f7 43be 0545 ab3c
00000330: c8bb 043e 54db b4bd 1f2a 60bd 7049 a7bd
00000340: cca7 afbc 3c6e 06be 3d5d 1cbe 95ae a93d
00000350: 35bd 18bd 1308 5fbd ba98 a23c 8bd2 debd
00000360: 45a8 4abe 1cc6 31bc b8d5 323d 174b 27be
00000370: 3090 46bd 1bc7 1abe 3668 32be 6f07 a33c
00000380: 2e69 aabd 7291 783d 1be5 f03d 6c94 c13d
00000390: 1dec e93d e47c 0f3e ca95 8d3d 07e8 5d3e
000003a0: 2e5a 3a3d b0ea 1a3d 2a3c c6bd 3081 3a3d
000003b0: 65ed 94bd d8a8 283e 2073 e73d 0287 653d
000003c0: c7bc b2bd c033 b63c bccd 6dbd 04cc d33c
000003d0: 6e24 2d3d 1451 743d 70ae c33d 0cdd 58bd
000003e0: 08ae 22be 1672 ecbd 4451 c13d 0e24 a43d
000003f0: f472 9cbd 466b 75bd 45a9 9fbd 42bc 3cbe
-0.20178272 -0.08316011 0.00871317 0.0801868 -0.060099658 -0.18343846 0.13589531 -0.26738167
-0.052306786 -0.0919908 0.1294257 -0.12591657 0.080016546 0.12605241 -0.14407106 0.10104537
0.055650927 -0.19105224 -0.1695711 0.04867949 -0.19535637 0.04087991 -0.08624714 -0.09931471
0.09833327 -0.08559856 -0.0522063 -0.0070229424 0.1433493 0.1652018 -0.13016327 -0.08637941
0.117634825 0.061074216 -0.1713741 -0.11184224 0.081096254 -0.14436893 -0.023853304 -0.026021902
0.023128916 -0.18268645 0.0043746196 -0.05711875 0.107779585 0.035565976 -0.17326728 0.1516219
0.0020001845 -0.10704506 -0.11926948 -0.10531491 -0.16265053 0.08136343 -0.10374194 0.20387292
-0.11969229 0.067240305 0.11252829 0.05557077 0.08793253 0.17773636 -0.0122398855 -0.06771427
-0.013132402 0.04806338 0.11581414 -0.15265073 -0.15010387 0.103597224 0.114334896 -0.26389736
-0.06688137 0.056784835 -0.15414114 0.16998304 0.12475614 0.089411736 -0.2606255 -0.17407422
0.10541163 -0.012741834 -0.14850588 -0.1508669 -0.06611292 0.111737914 -0.2916706 -0.1451113
-0.31063852 -0.123146504 -0.09655022 0.087038755 0.24158233 -0.44788674 0.05601448 -0.10123337
-0.036266185 0.10947501 0.09049529 -0.10120552 -0.06599651 -0.09327599 0.121203125 -0.022191284
-0.18652272 0.04382682 -0.09188109 -0.11877257 -0.35941735 0.077685 -0.008354641 -0.15389994
-0.030950673 -0.021160135 -0.07383213 -0.076744705 0.139256 -0.03504208 0.101871945 -0.1665661
-0.05731013 -0.0401856 -0.06682526 -0.21153577 0.12108714 -0.0013227433 -0.04934994 -0.19416708
-0.008683609 -0.084478915 -0.18021213 0.10167701 -0.22068143 0.028832274 -0.014791595 -0.078939006
-0.14476681 -0.22476734 -0.06653094 -0.25207332 0.06586685 0.49271274 0.30389014 -0.19601828
-0.16417804 -0.012688302 -0.029353425 -0.11303484 -0.11206237 0.003512347 -0.034606297 -0.13919348
0.068344854 0.073237866 0.04792218 0.14485846 0.07835419 0.10875016 0.07569068 -0.20280805
-0.050161798 -0.048970416 0.06941564 0.076896384 -0.032726277 -0.09455173 -0.17837997 -0.06212481
-0.20314716 -0.1247757 -0.1329517 -0.09733106 0.14162335 0.05334884 -0.20334563 0.034521695
-0.09038825 0.20127346 0.14452986 -0.09774058 0.14047763 -0.011022444 -0.29918537 0.004228525
-0.004430579 -0.22857115 0.024355732 0.116009615 0.0014284642 -0.26791477 0.1319393 -0.072433196
-0.17055202 0.09775713 -0.018227072 -0.019429453 0.008928943 -0.07863403 0.14587234 -0.1278503
0.083993 -0.025934365 -0.19137372 0.020906935 0.12962258 -0.08830896 -0.05472767 -0.08168304
-0.021442316 -0.13127989 -0.15269943 0.08285252 -0.037289817 -0.05445106 0.019848216 -0.10880002
-0.19790752 -0.010850456 0.04366085 -0.16337238 -0.04847735 -0.15115015 -0.17422566 0.019901006
-0.08320843 0.060685582 0.117624484 0.09452137 0.11421988 0.14012486 0.069133356 0.21670543
0.04549616 0.03782147 -0.09679444 0.04553336 -0.07271842 0.16470659 0.11301255 0.056036957
-0.08727413 0.022241473 -0.05805753 0.025854118 0.04227107 0.059647635 0.09554756 -0.05294518
-0.158867 -0.11545198 0.09439328 0.080146894 -0.07639113 -0.059916757 -0.077959575 -0.1843119

net.0.bias f4 [128]
00000000: bd49 b1bc 33ac 063d 7552 8ebd 4a13 d23a
00000010: b1d8 f4bc 0000 0000 dbf4 6dbd 14be abbd
00000020: 4df9 a13c c137 1cbd 0000 0000 4f65 dfbb
00000030: f44d f4bc 892b 04bc 3851 103d a078 df3c
00000040: 5650 98bc 5e82 82bd 47c2 48bd ef4a d0bc
00000050: 0000 0000 b9e2 6bbc 8111 d63c 2009 11bd
00000060: c39f 07bd 0000 0000 e1f5 0ebd cf37 4e3b
00000070: 7417 f13b 38b9 96bd 4b78 223c 1300 713c
00000080: a157 2b3d 372c 77bc 3ca7 01bd 1c9e 55bd
00000090: 0000 0000 d429 243d 3861 14bc 1d52 51bd
000000a0: 21b2 bfbc a722 76bb 111a 02bd a850 23bd
000000b0: db9e 383c 0000 0000 0000 0000 0000 0000
000000c0: 98d5 ec3b 92bf 703c d98a 89bd 8841 74bc
000000d0: 324c c8bd 0000 0000 0000 0000 8be6 03bd
000000e0: 0000 0000 44c7 d0bc 10c5 2ebb 3e7e 3dbd
000000f0: e68d f5bc 0000 0000 0000 0000 454b bfbd
00000100: b603 b13c bf3e 393b 6fb2 fcbc 7892 9cbd
00000110: 7039 34bd 6d24 6e3c 23b6 80bd 9da8 19bd
00000120: 9a6b 64bd e139 c4bc 0000 0000 63ae 87bd
00000130: 3dd1 d3bc 7f22 aabd 9f16 8cbb 9a0d 633c
00000140: 7913 d93b 925e 5dbd 1e21 60bd 0afb d6bc
00000150: b24a 2cbd 499b 16bd 4f08 48bc 47c1 b0bc
00000160: 1360 1fbd 924f 993a 859f 6abd 9f99 ecbd
00000170: ba5f 1d3b c180 ff3a 35b9 a13c 4b19 07bd
00000180: 5aa9 14bd 9c5a 9a3c 0000 0000 a6c3 93bc
00000190: 1e92 1abd 7373 753c eaad 2ebd 65a0 843c
000001a0: ac14 1ebd 8d0d 9dbc da1f c739 6ca5 c6bc
000001b0: 1b75 71bd 3780 b8bc 1ff1 63bd 0000 0000
000001c0: d898 4dbd 3e9d 60bc eec7 f63b 292d 2bbc
000001d0: 0000 0000 10a8 94bd 0000 0000 20ab 92bd
000001e0: 7134 f0bd 0000 0000 4116 0a3c 57cf c2bc
000001f0: 76fe f4bc 4617 a1bb 99bd 0dbd 0cc4 dabd
-0.021641606 0.032879066 -0.06949321 0.0016027477 -0.029888483 0.0 -0.05809484 -0.08385864
0.019772196 -0.03813911 0.0 -0.006817497 -0.029822327 -0.00806702 0.035233706 0.027279198
-0.018592995 -0.06372522 -0.049013402 -0.025426356 0.0 -0.014397317 0.026131393 -0.035409093
-0.033111345 0.0 -0.034902457 0.003146637 0.007357532 -0.073595464 0.009916375 0.01470949
0.041831616 -0.015086225 -0.031653628 -0.052152738 0.0 0.040078953 -0.009056382 -0.0511037
-0.023400368 -0.0037557276 -0.03176314 -0.03987184 0.011268343 0.0 0.0 0.0
0.007227611 0.014694111 -0.06715936 -0.014908202 -0.09780158 0.0 0.0 -0.032202285
0.0 -0.025485642 -0.0026667751 -0.046262972 -0.029974889 0.0 0.0 -0.093405284
0.021608215 0.002826616 -0.030846803 -0.07645124 -0.04400009 0.014535052 -0.0628474 -0.037514318
-0.05576668 -0.02395338 0.0 -0.066250585 -0.025856609 -0.08307361 -0.0042751576 0.013858223
0.006624636 -0.054045267 -0.054719083 -0.026242752 -0.042063423 -0.036769185 -0.012209012 -0.021576537
-0.038909983 0.0011696687 -0.057281036 -0.115527384 0.0024013356 0.0019493328 0.019741634 -0.032983106
-0.03629432 0.018842034 0.0 -0.018037628 -0.037737004 0.0149811385 -0.042646326 0.016189763
-0.038593933 -0.0191715 0.0003797997 -0.024248801 -0.05894957 -0.022522075 -0.055649873 0.0
-0.05019459 -0.013709364 0.0075311577 -0.010447779 0.0 -0.07258618 0.0 -0.07161546
-0.117287524 0.0 0.008428157 -0.023780508 -0.029906493 -0.0049161045 -0.034604643 -0.10681924

net.2.weight f4 [64, 128]
00000000: e4f4 093d 83bb 493d 2d8d 1e3e 015e 1abe
00000010: 8f74 febd 99c9 01be 6b63 833d e465 dbbd
00000020: 8763 353d 4e04 133e 40c3 26be be57 26bd
00000030: 86e2 03bd 7710 d5bd 61fc e8bd 2f51 cfbd
00000040: ad65 12bd 3084 06bd d1ae 04be 3861 86bd
00000050: d2a0 83bb 9744 4abd 2766 a9bd f891 5abd
00000060: 0ab9 83bb a83b 583d a462 0ebe 986f 313d
00000070: 91c7 12bc 5a40 8ebd f05d a7bd a3f8 093d
00000080: c26c 32be bec8 cebd cb16 a73d 5e83 34be
00000090: e578 013e 9a94 ecbd d97b c3bd 8a63 113d
000000a0: 1b2b f83d 8383 863d 30c7 20be ff9e 1f3d
000000b0: d04b 1e3e 19b5 bf3c 78a0 24bd 87f0 1f3e
000000c0: 4cea 88bd 0553 a3bd 9dca f1bd fb9c fdbd
000000d0: 9c82 35be ec77 20be cbaf 113d be59 e83c
000000e0: d4a0 8e3d b6c4 2c3e 9b91 d138 6a0d 43bd
000000f0: b8b2 8b3c 681f 233d fdcd 053e 532c 9abd
00000100: 506e 1b3b b32c 01be 2ef9 a4bd c854 0b3e
00000110: 6dd9 c43a 49ba 283d 9694 cdbc 1854 2c3c
00000120: 728a 98bd 4969 7cbd a608 173e 7794 1cbe
00000130: bea5 ef3d e124 79bd 7496 143e 3575 25be
00000140: 6675 9a3d 0ebb 35be 5fdf 9bbd 74b2 bebd
00000150: b22c 363d e6bc 843d b840 f73d 0080 29be
00000160: cd3a 16be 66f0 8ebd f057 013e 347b 11be
00000170: 47b9 a8bc dc39 4cbe b24f ed3d 255a 013e
00000180: 66a1 ed3d a0e7 de3d 227e 93bc 95b5 cebc
00000190: ca06 123e ac2a 2bbd 9556 7f3d 7a16 c83d
000001a0: c4f3 143e 631f 4abb 332c cabb ce8e 963d
000001b0: fcf2 dcbd ccaa a03d 198d ee3d dee7 78bd
000001c0: 3754 debd bedc 0bbe 0242 823c 9410 003e
000001d0: dc12 6e3d d791 6f3d cfe6 06bd 9535 00be
000001e0: 8128 28bd bd01 c3b9 3a1b f53d 9af9 2f3e
000001f0: 8d1f 0fbe d167 53be 079c 0a3e 60ac 05bd
00000200: b44f 1f3e 9dfc 9c3c 3bb5 0bbe 3575 293e
00000210: 5f40 f7bc cf87 093e e322 a93d 4cfa 23be
00000220: 79e4 003e 0c0a 9b3d defc 8dbd f383 a5bd
00000230: bf49 1fbe f944 eabd 441f 713d 5680 e8bd
00000240: 9292 bfbc 4f0c 0cbe 1ea7 e73c 78e9 d2bd
00000250: 22bc a03c 6824 e63c 2933 d43d 42c2 ef3d
00000260: e7b8 a93c cb3a b6bd 6e87 1d3e 5f08 083e
00000270: edd8 29bd 9ed3 8ebd e251 973d c749 543d
00000280: 5f40 74bd 9884 003d d14d d5bd 3c40 843d
00000290: 7fc2 313d e13a c03d 1f42 cd3c cdfd 013e
000002a0: fda1 953d 4052 0c3e 2d7a efbd 8222 163d
000002b0: 5697 a0bd 68d3 06bd e056 82bd 459b f53d
000002c0: 31ab 443c 16fb 08be de34 30be 02ee 1abe
000002d0: 406e 2d3e 25ef df3d 26a5 53bd bd0e de3c
000002e0: f211 86bc d736 5e38 5bc9 35be ea46 4abd
000002f0: c397 9fbd 04ce 2cbe 9713 0dbd 9cab f93d
00000300: 3b4c 5ebe 2029 003d a7c6 8d3d 4ef5 cf3d
00000310: 0f51 053d 8a4b d3bd 3559 813d e29f f53c
00000320: 5606 a9bc 4c37 1bbe c9ab 32be eb54 4a3e
00000330: f5e3 05be 8bfb 803d f57d 073e eadd 823d
00000340: e72b cb3c b214 7abc e35d ed3d 7d41 8abd
00000350: 1349 06be 75c8 4f3c c89d e4bd 9ad1 6cbd
00000360: 9f6c 2b3e 59dc 5cbe 2e75 59be ea43 03bb
00000370: 44cf e5bd 8b93 ac3d 6414 15bd 7683 053d
00000380: f0fa 0ebe d18d f3bb ec49 9a3c 9ed4 3a3c
00000390: 2f3e b7bd cc41 3dbd 1038 a13d cbf4 9bbd
000003a0: 7f2f fdbd 7f6f 88bd bbba 00be 2e39 2839
000003b0: 31e5 8ebd 1f77 ad3c 84ed 403d ffe3 32be
000003c0: 0d16 c53d eb60 4b3c 52cf dbbc e241 d33b
000003d0: 48f2 af3d 9732 8ebd adc9 bebc ab81 15bc
000003e0: 7ff4 babc 3b16 2cbe ae42 cd3d 876a 11be
000003f0: 9062 c1bc 56d0 15be 7d09 443c 20b9 183e
0.03368081 0.04925109 0.15483542 -0.15074922 -0.124245755 -0.1267456 0.06415447 -0.107127935
0.04428437 0.14357111 -0.1628542 -0.04061102 -0.03219845 -0.10403531 -0.113762625 -0.101229064
-0.035741497 -0.032840908 -0.12957312 -0.06561512 -0.004016974 -0.04938182 -0.08271437 -0.053361863
-0.004019861 0.052791268 -0.13904816 0.043319315 -0.008958713 -0.06945868 -0.08172214 0.033684384
-0.174243 -0.10096882 0.08158644 -0.17628238 0.12643774 -0.11551781 -0.095451064 0.03549532
0.12117597 0.065680526 -0.15700984 0.03896999 0.15458608 0.023401784 -0.040192097 0.15619098
-0.066853136 -0.07974819 -0.118062235 -0.12383457 -0.17725605 -0.15670747 0.03556804 0.028363105
0.06964269 0.16871914 9.993018e-05 -0.047620215 0.017052993 0.039824873 0.1306686 -0.075279854
0.0023716874 -0.12614708 -0.0805534 0.1360656 0.0015018411 0.04119328 -0.025095265 0.010518096
-0.07448281 -0.061623845 0.14749393 -0.1529101 0.11701535 -0.060826186 0.14510518 -0.16157992
0.07541923 -0.17747137 -0.07610964 -0.09311381 0.04447622 0.06481342 0.12072891 -0.16552734
-0.14670868 -0.06979446 0.12631202 -0.14207155 -0.02059616 -0.19943947 0.11587466 0.12632044
0.1160305 0.10884023 -0.01800448 -0.02523307 0.14260402 -0.041788742 0.06233843 0.09769912
0.14546114 -0.0030841462 -0.0061698197 0.073514566 -0.10788533 0.07845077 0.11648006 -0.060768
-0.108559065 -0.13658425 0.015900616 0.12506324 0.058123454 0.058488693 -0.03293496 -0.1252044
-0.041054253 -0.00037194593 0.11968084 0.17185059 -0.1397688 -0.20645072 0.13536082 -0.032635093
0.15557748 0.019163424 -0.13643353 0.16548617 -0.030182062 0.13430713 0.08258607 -0.1601345
0.12587155 0.07570276 -0.06932996 -0.08081808 -0.15555476 -0.11438937 0.058867708 -0.11352603
-0.02338532 -0.1367657 0.02827793 -0.10298437 0.019620959 0.028093532 0.103613205 0.117069736
0.020718051 -0.088979326 0.15383694 0.13284443 -0.041466642 -0.069739565 0.07388665 0.051828172
-0.0596317 0.03137645 -0.10415233 0.06457564 0.043398377 0.0938623 0.025055943 0.12694474
0.073062874 0.13703251 -0.11693225 0.036654003 -0.07841365 -0.032916456 -0.06364226 0.11992506
0.012003706 -0.13377032 -0.17207667 -0.15129855 0.16936588 0.10934285 -0.05167117 0.027106637
-0.016365979 5.2979998e-05 -0.17752592 -0.049384035 -0.07792618 -0.16875464 -0.03444251 0.12190935
-0.21708767 0.03128922 0.069226556 0.1015421 0.032548007 -0.10317142 0.06315843 0.029983465
-0.020632904 -0.15157813 -0.17448343 0.19758956 -0.1307524 0.06297978 0.13231643 0.06389983
0.024801208 -0.015263723 0.11590173 -0.06750772 -0.13113813 0.01268207 -0.11162907 -0.05781708
0.16740654 -0.21568431 -0.21236107 -0.0020029494 -0.112211734 0.08426579 -0.0363964 0.032596074
-0.13962913 -0.0074326773 0.018834077 0.011403231 -0.089474075 -0.046205327 0.07872021 -0.0761505
-0.12362575 -0.06661891 -0.12571232 0.0001604303 -0.069773085 0.021174965 0.047101513 -0.17469786
0.096233465 0.012413244 -0.026832256 0.006447063 0.08591133 -0.06943243 -0.023289526 -0.0091251535
-0.022821663 -0.16805355 0.10022484 -0.14200793 -0.023606569 -0.14630255 0.011965153 0.1491437

net.2.bias f4 [64]
00000000: 7c92 0cbd f6b8 483c 8fe6 a2bc 36c1 2ebd
00000010: b279 5dbc bc2b cabc 0000 0000 932c 85bb
00000020: e5be 4ebd 0000 0000 951c 02bd 39be 973c
00000030: 7a82 0bbd e18e dabc b15b a33c 8932 02bd
00000040: e58d f5bc b6b0 6bbc 61c1 0fbd c113 eabc
00000050: 2faa c7bc 3fe6 98bc 7090 0cbd d1ea c1bc
00000060: 4f8f 4bbc 0403 48bd d89a f3bc 3e6f 0c3c
00000070: 3c50 c5bc 9035 e5bc 0000 0000 d7c7 e9bc
00000080: b0ae 04bd f6f3 983c afcd f3bc 86e0 d4bb
00000090: 20da 97bc 1ac5 b0bc e66d 2abd a146 56bc
000000a0: 0000 0000 0ac6 24bd 4490 d7bc 68a9 2dbd
000000b0: 0000 0000 6667 afbc 88ac f1bc 569d f5bc
000000c0: 88cd a6bc 0000 0000 610c 3cbb 74d2 05bd
000000d0: ef9a d73c 74f4 c13c 1d47 7bbc 0000 0000
000000e0: d77c e4bc 14fa bbbb e05c ecbc 9ab1 87bd
000000f0: 0000 0000 2652 41bc c613 9c3c 0000 0000
-0.034319386 0.012251129 -0.01988533 -0.04266473 -0.013517784 -0.024679057 0.0 -0.0040641516
-0.05047502 0.0 -0.03176554 0.018523322 -0.03405998 -0.026679458 0.019941183 -0.031786475
-0.029974887 -0.014385393 -0.03509653 -0.028573873 -0.024373142 -0.018664477 -0.034317434 -0.02367154
-0.012424304 -0.048831 -0.029736921 0.008571444 -0.02408611 -0.027979642 0.0 -0.028537674
-0.032393157 0.018671017 -0.029761164 -0.006496492 -0.018536627 -0.02157836 -0.041608714 -0.013078363
0.0 -0.040227927 -0.026313908 -0.042397887 0.0 -0.021411609 -0.029501215 -0.02998225
-0.020361677 0.0 -0.0028693902 -0.032671407 0.026318995 0.023676135 -0.015336779 0.0
-0.02789156 -0.0057365987 -0.02885288 -0.06625672 0.0 -0.011799371 0.019052397 0.0

net.4.weight f4 [16, 64]
00000000: 2f09 2c3e 6786 8fbe 97ce 0dbe 7fb4 89be
00000010: 0cdf 253d 19f5 b1bc 52ae fb3c c17b 3fbe
00000020: dae0 343e 8376 663e 3bd5 74bd 45c1 9bbd
00000030: a6d9 67bd 1e34 0cbe 49c5 4cbe a464 d03d
00000040: 58cc 593d 9997 6d3e e3ca e6bd bf8a 7fbc
00000050: 4cb1 e43d c3c2 f8bd 0c1e 423c 20ad 9e3a
00000060: ce84 fe3c bc51 64be e043 ee3d 7bf9 88be
00000070: 035a 36be e617 0fbe 49d5 c13d cb68 3c3d
00000080: ab0c dabc c200 c63d 8b86 46be 5c8d 6dbd
00000090: 865c 7ebe 6252 43bd 8ace a23d 6984 243e
000000a0: 8952 f1bd bfe6 41be 8550 9f3a 54ca 37bd
000000b0: bc6b 813e f055 4cbd 0dd5 623e ddc0 523e
000000c0: dc9d 7b3e c88b 3fbe 1bb6 bc3d 1a84 a8bd
000000d0: ea90 71be e1c7 b73c 69b5 af3d 43b3 843c
000000e0: 903b 7c3e 1939 503e 9072 683e d473 063e
000000f0: 6106 afbc 3ef2 343e e8c4 55be a304 913d
00000100: 1a50 d93b 347d ef3d 9efa cc3d 4e9d 84bc
00000110: 1fc2 49be 3710 5cbd 4dd3 1abe 25b8 fb3c
00000120: 3ac7 89bb b3a2 e8bc fd7c 843e 738d 77be
00000130: d605 2dbb 25fc 0bbe 6460 b2bc 12bf 253e
00000140: 4a54 553d 4f43 86be 7da4 74be 9899 12be
00000150: bc46 5a3e 8166 b73c 3ae4 eb3d b86f ea3b
00000160: d336 84bd 4ad0 80be e021 603e cdde 20be
00000170: 88ed 7c3d 8312 58be b6e1 69bd 75fc 6bbc
00000180: 9fdb 33be 8a2e 483e e36c 65bd 9dc0 5f3e
00000190: 14b1 033e 0af1 693e 01bd 75bd c335 28be
000001a0: 2d1f 393e 9fb2 c83d 35eb af3d f2b0 4d3e
000001b0: c0f0 89be b420 1d3e 5204 2fbd 296e 01be
000001c0: d9c2 a0bd 925a 183e d2e5 e0bd a56e 28be
000001d0: ed09 523e 9c1f 96bd da96 8cbb 0a6f 843e
000001e0: 4433 383e dcfe 553e 5e92 223e dfde be3d
000001f0: ef97 723e e223 c7bb 9651 49be b5e0 1e3e
00000200: 8c1b 4f3e 9b69 79be ea4a 1ebe a16b 2dbe
00000210: 70bf 613e f088 653e 8a1e 053e cd05 5c3d
00000220: 7f90 493e f1e2 4a3e 6dcc 3a3d 2136 be3d
00000230: 82fb 0ebd d21a 8abe b430 8fbc a697 10be
00000240: 4ed0 57be 1f4d ffbd c928 003e ffda d5bd
00000250: 5e43 af3c 7863 b6bd 9fd0 733e 6a52 5d3e
00000260: 8db7 babb 66ac 49bd 47c9 0b3b dcaa 6ebd
00000270: 444e c1bd fed8 703c 7b9c b63d 22c5 833d
00000280: 3360 993d e998 dc3d 3374 19be 6bb6 3cbd
00000290: 3223 04be 1cf3 003d 0a08 45be 4273 2f3e
000002a0: 8316 0ebe f0cc 2c3e 2124 a53d d885 06be
000002b0: d092 883e 124c 8ebe d3b7 6f3e 861b 55be
000002c0: 7859 6cbd 4027 213e 304e 52be 61e0 5d3e
000002d0: 0a6d 27bd 9af6 86bc 6104 ac3d 2209 58be
000002e0: 8f6c 003e b805 34be 532b ce3b 72e6 b7bd
000002f0: 12a7 e93d 4c3a 353d 5698 72be 9b9e ffbc
00000300: 60a6 3fbe 9c84 263e 11ff 00be 1200 72be
00000310: a47d 7fbe bd65 d4bd 102e 883e f0ae 3a3e
00000320: 6302 2b3e ca41 49be 33b7 21bd b567 bcbd
00000330: 039f 423e 04c8 80be 3f41 67be a53c 85be
00000340: cbdc 6ebe 8607 383e 7159 e5bd 2ca0 ff3c
00000350: e138 70be cb59 c33d 182f e63d 86e3 67be
00000360: d71d 823e 8447 243e e142 44be d256 7e3e
00000370: f7c7 54be 872c 033d 4ea4 4e3e 67dc 4a3e
00000380: 29bf 683e 8515 8f3d 735c a83d 7fd6 0c3e
00000390: ca76 293e a3b1 3e3d c122 7dbe 3948 efbd
000003a0: 7866 f63b 2eff fb3d fa5c 183e d3a8 873e
000003b0: 5c96 863e 93a8 42be 78c2 76be 07f4 05be
000003c0: 56f8 983c 1e8b 073d eacd 84be 6dab 08be
000003d0: 68e6 52be 4b7b 363d 2fa5 87be 08b9 8a3c
000003e0: eddb ed3d 5a4b 27be 5e3f 84be a5eb d53c
000003f0: d654 3f3e ca80 82be 67ef 04be 2127 b03d
0.16800378 -0.28032228 -0.13848339 -0.2689552 0.040495917 -0.021723317 0.03072277 -0.18699552
0.17663899 0.22506146 -0.059773665 -0.076052226 -0.05660405 -0.13691756 -0.19997133 0.10175446
0.053173393 0.23202361 -0.11269166 -0.0155970445 0.11166629 -0.12146523 0.011847984 0.0012106039
0.031069186 -0.22296804 0.1163404 -0.26752838 -0.17807774 -0.1397396 0.09464509 0.045998376
-0.026617369 0.09668113 -0.19387262 -0.05799614 -0.24839982 -0.04768599 0.079495504 0.16066135
-0.117833205 -0.18935679 0.0012154734 -0.04487069 0.25277507 -0.049886644 0.22151585 0.20581384
0.24571937 -0.18705666 0.09214421 -0.082283214 -0.23590437 0.022434177 0.08579523 0.01619876
0.24632096 0.20334281 0.22699952 0.13130122 -0.021365346 0.17670533 -0.20875895 0.070809625
0.0066318633 0.116938025 0.10008739 -0.01618829 -0.19702958 -0.0537264 -0.15119667 0.030727455
-0.004204658 -0.028397894 0.25876608 -0.24175052 -0.0026401184 -0.13670404 -0.021774478 0.16186169
0.052082337 -0.26223227 -0.23890872 -0.14316404 0.21316046 0.022387745 0.1151814 0.007154431
-0.064557694 -0.25158912 0.21887922 -0.15709992 0.061749965 -0.21100812 -0.05710002 -0.014403452
-0.17564248 0.19549003 -0.056012046 0.2185082 0.12860519 0.22845855 -0.0599947 -0.16426758
0.18078299 0.09799694 0.08589784 0.2008703 -0.2694149 0.15344507 -0.04272873 -0.12639679
-0.07849664 0.148783 -0.10981335 -0.16448458 0.20511599 -0.07330248 -0.004290444 0.25865966
0.17988306 0.20898002 0.15876147 0.09319853 0.2369077 -0.0060772756 -0.19660029 0.15515406
0.20225352 -0.24356692 -0.15458265 -0.16935588 0.22045684 0.22415519 0.12999931 0.05371647
0.19684027 0.19813134 0.045605112 0.09287668 -0.034907825 -0.26973587 -0.017479278 -0.1412035
-0.21075556 -0.124658816 0.12515558 -0.10442161 0.021394428 -0.08905691 0.23810051 0.2161347
-0.0056981505 -0.049236678 0.0021329687 -0.058268413 -0.09438756 0.0147001725 0.08916565 0.064340845
0.07489052 0.10771353 -0.14985733 -0.046072405 -0.12904051 0.031481847 -0.19241348 0.17133811
-0.13875775 0.16875052 0.08063532 -0.13136995 0.2667451 -0.27792412 0.23409967 -0.2081128
-0.05770251 0.15737629 -0.20537639 0.21667625 -0.040875472 -0.01647501 0.08399273 -0.21097234
0.12541412 -0.17580307 0.0062917857 -0.08979501 0.11408819 0.04424505 -0.23690924 -0.031203559
-0.18715811 0.16261524 -0.125973 -0.2363284 -0.24950272 -0.103709675 0.26597643 0.18230796
0.16700129 -0.19654003 -0.039481353 -0.09199468 0.1900597 -0.251526 -0.22583483 -0.2602283
-0.23326413 0.1797162 -0.111987 0.031204306 -0.23459198 0.09538611 0.11239451 -0.22645387
0.2541339 0.16042906 -0.19166137 0.24837807 -0.20779406 0.032024886 0.20179865 0.1981064
0.22729172 0.069865264 0.08220758 0.13753699 0.1654922 0.046556126 -0.24720289 -0.11683697
0.0075195394 0.12304531 0.14879218 0.2649599 0.2628659 -0.19009618 -0.24097621 -0.1308137
0.018673103 0.033091657 -0.2593835 -0.13346644 -0.20595706 0.044551175 -0.26493213 0.016933933
0.11614213 -0.16337338 -0.25829595 0.02611334 0.18684706 -0.25488883 -0.1298195 0.08601213

net.4.bias f4 [16]
00000000: 3148 19bd 46f9 973a 5b63 9dbc 08fb 3cbc
00000010: 740a fabc 5ba6 cabc 952b 0fbd cad2 febc
00000020: 1427 033d 66c3 ac3c 285d 1abd d407 063d
00000030: e33e d4bc 0225 4ebc 080b 063d 0000 0000
-0.037422363 0.0011594675 -0.019212415 -0.01153446 -0.030522563 -0.024737528 -0.034953672 -0.031106371
0.03201969 0.021089267 -0.037686497 0.03272231 -0.025908893 -0.012582066 0.032725364 0.0

net.6.weight f4 [1, 16]
00000000: 9716 6fbe ce25 9e3e d0de 77be 3eb2 40be
00000010: 6930 aabe 88ee b1be 69a4 dabe 854a 82be
00000020: aed8 3c3e 17b9 dc3e 0a81 1bbe 21e7 613e
00000030: 5389 04bf f5f5 0d3f a9fa df3e 339e cc3e
-0.23348461 0.30888218 -0.2420609 -0.18817994 -0.3324006 -0.34752297 -0.4270356 -0.2544748
0.18442032 0.43109962 -0.15185943 0.22060825 -0.5177204 0.55453426 0.43745926 0.39964446

exp_avg f4 [128, 48]
00000000: 0400 0000 0400 0000 0400 0000 0400 0000
00000010: 0400 0000 0400 0000 0400 0000 0400 0080
00000020: 0400 0000 0400 0000 0400 0000 0400 0000
00000030: 0400 0000 0400 0000 0400 0000 0000 0000
00000040: 0400 0000 0400 0000 0400 0000 0400 0000
00000050: 0400 0000 0400 0000 0400 0000 0400 0000
00000060: 0400 0000 0400 0000 0400 0000 0400 0000
00000070: 0400 0000 0400 0000 0400 0000 0400 0000
00000080: 0400 0000 0400 0000 0400 0000 0400 0000
00000090: 0400 0000 0400 0000 0400 0000 0400 0000
000000a0: 0400 0000 0400 0000 0400 0000 0400 0000
000000b0: 0000 0000 0400 0080 0400 0080 0400 0080
000000c0: 17df 9a40 995f c540 06ac 0e40 35fd bf3f
000000d0: 3669 a640 d05c 4d40 9b62 cb40 f012 3539
000000e0: ec9a 6543 c774 8743 65d0 1b43 14d6 e841
000000f0: 773b 7343 ed90 5243 c6b9 7b43 0400 0000
00000100: 44f5 f43d a6a6 203e ac14 883d df56 0f3d
00000110: 3b46 e93d 4f85 ab3d 5dac 3e3e ddfe 443b
00000120: 0d10 573b c0b8 073c e075 a73c e075 a73c
00000130: 2798 8a40 f55f f03b 504b 103e b780 9a3e
00000140: 1d3b 973c 79fe 2e3e 7a78 e73e 7c73 213b
00000150: bbed d13d 146a cb3d b044 c9b9 62c7 65bb
00000160: 5761 d5bc 0044 df3b 8fe5 53bd 42c3 bc3f
00000170: bd49 5f3c 6460 c53a faa0 2b3a 5589 4a3a
00000180: 0400 0000 0400 0000 0000 0000 0400 0000
00000190: 0000 0000 0000 0000 0400 0080 0400 0000
000001a0: 0400 0000 0400 0000 0000 0000 0400 0000
000001b0: 0400 0000 0000 0000 0400 0080 0400 0000
000001c0: 0400 0000 0400 0000 0000 0000 0400 0000
000001d0: 0000 0000 0000 0000 0400 0000 0400 0000
000001e0: 0400 0000 0400 0000 0400 0000 0400 0000
000001f0: 0400 0000 0400 0000 0400 0000 0400 0000
00000200: 0400 0000 0400 0000 0400 0000 0400 0000
00000210: 0400 0000 0400 0000 0400 0000 0400 0000
00000220: 0400 0000 0400 0000 0400 0000 0400 0000
00000230: 0000 0000 0400 0080 0400 0080 0400 0000
00000240: fe50 c340 701c fa40 61d1 3340 bcce f23f
00000250: 86a3 d140 b471 8140 ad3a 0041 cb87 7039
00000260: 1e03 9143 7a36 ab43 5fc4 4443 3983 1342
00000270: 9b8e 9943 9dee 8443 980c 9f43 0400 0000
00000280: a58e 1a3e 187d 4b3e d1ad ab3d 5c89 353d
00000290: 4c5b 133e 1368 d73d 4ff3 6f3e c789 783b
000002a0: e193 873b 315b 2b3c 88fc d33c 88fc d33c
000002b0: 36bc b040 cab5 173c cc5c 363e 7711 c43e
000002c0: 26aa be3c 7a7f 5e3e cf3d 123f ef77 503b
000002d0: 95ec 063e fd43 023e cc43 f4b9 5a9f 8cbb
000002e0: 3f9a 02bd db2e 0c3c 1beb 80bd 694b eb3f
000002f0: 14e5 8d3c a1dd ff3a b252 3c3b ef4f 843a
00000300: b81f 0800 73ef 0e00 0400 0080 cf14 0400
00000310: 256d 0800 f4e4 0400 b76d 0b00 7000 0000
00000320: 75cd 6f01 ea9e 9801 8618 b000 9c5f 6300
00000330: 354f 8101 cf0d 4701 dcda 8b01 0400 0080
00000340: 7832 0000 5667 0000 eb0c 0000 ff19 0000
00000350: ab33 0000 d519 0000 804d 0000 e900 0000
00000360: e900 0000 5103 0000 eb0c 0000 eb0c 0000
00000370: 8fe9 1100 0905 0000 664f 0000 7fc3 0000
00000380: 130a 0000 c1c1 0000 89ee 0000 d402 0000
00000390: 2c81 0000 c164 0000 0400 0080 0400 0080
000003a0: 0400 0080 0400 0080 0400 0080 0400 0080
000003b0: eb0c 0000 0907 0000 df86 0000 8001 0000
000003c0: 0000 0000 0000 0000 0000 0000 0000 0000
000003d0: 0000 0000 0000 0000 0000 0000 0000 0000
000003e0: 0000 0000 0000 0000 0000 0000 0000 0000
000003f0: 0000 0000 0000 0000 0000 0000 0000 0000
6e-45 6e-45 6e-45 6e-45 6e-45 6e-45 6e-45 -6e-45
6e-45 6e-45 6e-45 6e-45 6e-45 6e-45 6e-45 0.0
6e-45 6e-45 6e-45 6e-45 6e-45 6e-45 6e-45 6e-45
6e-45 6e-45 6e-45 6e-45 6e-45 6e-45 6e-45 6e-45
6e-45 6e-45 6e-45 6e-45 6e-45 6e-45 6e-45 6e-45
6e-45 6e-45 6e-45 6e-45 0.0 -6e-45 -6e-45 -6e-45
4.8397326 6.1679196 2.2292495 1.4999148 5.200343 3.2087898 6.355787 0.0001726856
229.60516 270.91232 155.81404 29.10453 243.23228 210.56612 251.72568 6e-45
0.11960843 0.15688571 0.06644568 0.034994956 0.113903485 0.08375036 0.18620439 0.0030059137
0.0032815963 0.008283794 0.02044195 0.02044195 4.3310733 0.0073356577 0.1409123 0.30176327
0.018460805 0.17089261 0.45209104 0.0024635484 0.102504216 0.09932342 -0.00038388884 -0.0035061468
-0.026047392 0.006813526 -0.051732596 1.4747088 0.01362842 0.0015058634 0.00065471197 0.00077261525
6e-45 6e-45 0.0 6e-45 0.0 0.0 -6e-45 6e-45
6e-45 6e-45 0.0 6e-45 6e-45 0.0 -6e-45 6e-45
6e-45 6e-45 0.0 6e-45 0.0 0.0 6e-45 6e-45
6e-45 6e-45 6e-45 6e-45 6e-45 6e-45 6e-45 6e-45
6e-45 6e-45 6e-45 6e-45 6e-45 6e-45 6e-45 6e-45
6e-45 6e-45 6e-45 6e-45 0.0 -6e-45 -6e-45 6e-45
6.1036367 7.8159714 2.8096545 1.896934 6.5512114 4.04513 8.014325 0.0002293877
290.02435 342.4256 196.76707 36.878147 307.1141 265.86417 318.0984 6e-45
0.15093477 0.19871938 0.08382762 0.04432045 0.14390296 0.105178975 0.23432659 0.0037923919
0.0041375016 0.010458753 0.025877252 0.025877252 5.522975 0.0092596505 0.17808837 0.38294575
0.023274492 0.21728316 0.5712556 0.0031809767 0.13176186 0.12721248 -0.0004658982 -0.004291457
-0.03188538 0.008556093 -0.06294843 1.8382388 0.017321147 0.0019521007 0.0028735814 0.0010094623
7.46063e-40 1.371595e-39 -6e-45 3.74807e-40 7.73838e-40 4.49475e-40 1.049549e-39 1.57e-43
4.4044775e-38 5.606401e-38 1.6171845e-38 9.126012e-39 4.750077e-38 3.6560435e-38 5.1374584e-38 -6e-45
1.8105e-41 3.707e-41 4.634e-42 9.326e-42 1.8535e-41 9.267e-42 2.7802e-41 3.27e-43
3.27e-43 1.19e-42 4.634e-42 4.634e-42 1.644988e-39 1.806e-42 2.8483e-41 7.0131e-41
3.614e-42 6.9506e-41 8.557e-41 1.015e-42 4.6338e-41 3.6144e-41 -6e-45 -6e-45
-6e-45 -6e-45 -6e-45 -6e-45 4.634e-42 2.524e-42 4.8383e-41 5.38e-43
0.0 0.0 0.0 0.0 0.0 0.0 0.0 0.0
0.0 0.0 0.0 0.0 0.0 0.0 0.0 0.0

exp_avg_sq f4 [128, 48]
00000000: e69b a640 5ba0 1a41 a08d 4440 6332 6f3e
00000010: 0f03 a440 342e 7c40 8240 d540 fd50 0d2e
00000020: b224 2546 82fb 5d46 46de c845 4c45 fb42
00000030: d8ac 2b46 a158 1146 6cb8 3e46 0000 0000
00000040: 74ca 633b ebce ce3b d336 0d3b be12 3739
00000050: eb10 5a3b b0a5 293b 08b2 953b 8714 2a35
00000060: 3562 4835 cae0 f636 0029 d038 9545 d038
00000070: 3074 f541 3e99 2437 9f79 0b3b 5496 6e3c
00000080: 0f1b 8a38 a878 123c a585 a741 3a17 f637
00000090: 7fba 003c 5a1b a641 a8cc f931 b074 e633
000000a0: 9a61 f836 9545 d038 9545 d038 3f82 f541
000000b0: 0000 0000 37d2 5034 f73c da37 a6b0 bb34
000000c0: d419 1646 7a19 b546 05f7 e744 5a1f 6844
000000d0: b786 1946 dd8d 9b45 a408 7046 70ad a837
000000e0: c139 c54b 1f9b 0c4c b268 224b aa28 d848
000000f0: 02d0 d54b c6de a84b b6b5 ed4b 5695 4d37
00000100: 438d c640 a49a 7b41 e6e4 f53f e617 233f
00000110: 5a17 c140 2746 4c40 1a9a 1841 df8b 3f3b
00000120: 1a99 673b 5d1f 063d 401b 813e dcab 813e
00000130: e395 ab46 bdef 0d3d c524 2b41 81cf 8c42
00000140: 4911 183e 62e2 0742 4177 0243 a5ac 343c
00000150: f644 f041 d72b 0242 b16e 9d37 e0b5 523a
00000160: 27e7 243d 3503 3f3c d516 6c3e f764 b144
00000170: 637d 413e 8aee 6e3a 08ca 853e a218 d53a
00000180: 2138 8839 af31 973d 0000 0000 9f79 df3a
00000190: 0000 0000 0000 0000 6cb2 fc36 3fe7 a436
000001a0: 652d b23f 1dbf a643 0000 0000 94c0 0941
000001b0: 8a83 9238 0000 0000 a2fc 903f 518a a336
000001c0: c844 3234 d652 3038 0000 0000 8068 a535
000001d0: 0000 0000 0000 0000 7b7d 2631 fbfe e72e
000001e0: 2b56 fa2e 9779 5432 12c1 8d32 4f86 d336
000001f0: 7f47 c03c 69d5 7531 d062 bf34 c628 3f38
00000200: 9126 a236 6b9b c538 53e7 1240 364a 8f36
00000210: 1bfe 2c39 d8f7 5b3f 95a8 aa2b f6d2 1c2d
00000220: 8d97 eb31 d019 b236 d019 b236 14f7 4141
00000230: 0000 0000 4ff6 2e30 7193 6f36 0081 0232
00000240: 30e3 4c46 1c64 f546 0573 2445 c074 9c44
00000250: 3a8e 5146 2d49 d645 3e30 a346 560a 0538
00000260: 5dc5 054c 6f60 3e4c eba4 5d4b eabc 1149
00000270: aa06 114c 6973 e54b 4219 214c 5f90 a137
00000280: 8c6e 0741 b374 aa41 76b2 2b40 4f8f 5b3f
00000290: a89d 0341 a60b 8d40 3d9c 4f41 b983 803b
000002a0: dc54 9b3b ee54 343d 3dd8 ae3e 623c af3e
000002b0: be99 e946 311c 403d 5849 6741 00fe bd42
000002c0: 543e 4f3e fc27 3742 986a e443 f615 853c
000002d0: 8f23 2242 a239 a043 251d dc37 c661 943a
000002e0: 6633 663d 37ac 833c ae87 a43e 2e06 0945
000002f0: caea 823e 2499 a43a 4d09 b33e c186 103b
00000300: 15ba 9f42 9878 1243 fbe8 4842 73d7 5340
00000310: 485a 9c42 dd2d 7a42 317a c642 bb75 a237
00000320: 9ce6 1b48 1731 5548 a29c c047 4111 0c45
00000330: 1db7 2148 99f3 0948 cfb7 3348 96fd 2137
00000340: ea17 553d 29c9 c23d 2799 0e3d b199 1e3b
00000350: fdae 4a3d f940 233d bc27 863d 9fe9 0637
00000360: 96c9 1c37 c612 c238 c6fa c13a 84bd e43a
00000370: 3747 a443 6839 0d39 a43c db3c b30e 3e3e
00000380: 92a1 883a 135d 0d3e 2c2f 3f43 63b3 083a
00000390: 664d f03d a1e8 3b43 7e02 9e33 a2ce c535
000003a0: 4776 cd38 be39 b53a 2d67 e33a e6c3 0244
000003b0: dad6 ca38 1175 1837 daab dd3b be36 9636
000003c0: 0000 0000 0000 0000 0000 0000 0000 0000
000003d0: 0000 0000 0000 0000 0000 0000 0000 0000
000003e0: 0000 0000 0000 0000 0000 0000 0000 0000
000003f0: 0000 0000 0000 0000 0000 0000 0000 0000
5.2065306 9.664149 3.071144 0.23359065 5.1253734 3.94032 6.6641245 3.213162e-11
10569.174 14206.877 6427.784 125.635345 10987.211 9302.157 12206.105 0.0
0.0034758123 0.0063112876 0.002154757 0.00017459222 0.0033274244 0.002588611 0.004568342 6.3359806e-07
7.4648716e-07 7.35754e-06 9.92585e-05 9.9311736e-05 30.681732 9.810841e-06 0.0021282209 0.014562208
6.585393e-05 0.0089398995 20.940256 2.9336301e-05 0.007856964 20.763355 7.2701205e-09 1.0731435e-07
7.4023383e-06 9.9311736e-05 9.9311736e-05 30.688597 0.0 1.9447985e-07 2.6016014e-05 3.4959993e-07
9606.457 23180.738 1855.7194 928.48987 9825.679 4977.733 15362.16 2.0107924e-05
2.5850754e+07 3.6859004e+07 1.0643634e+07 442693.3 2.8024836e+07 2.2134156e+07 3.11571e+07 1.2253722e-05
6.204744 15.725254 1.9210479 0.6370834 6.0341005 3.1917818 9.537622 0.0029227657
0.0035339058 0.032744754 0.25216103 0.2532643 21962.943 0.03465246 10.696477 70.40528
0.14850344 33.971077 130.46584 0.01102749 30.033672 32.542812 1.8767403e-05 0.0008037966
0.040259507 0.011658479 0.23055585 1419.1552 0.18895487 0.00091145246 0.261307 0.0016257952
0.0002598176 0.07382523 0.0 0.0017049796 0.0 0.0 7.5309563e-06 4.9145015e-06
1.3920103 333.49307 0.0 8.609516 6.9863236e-05 0.0 1.1327097 4.8738807e-06
1.6602564e-07 4.2038817e-05 0.0 1.2323871e-06 0.0 0.0 2.4227507e-09 1.05499574e-10
1.138399e-10 1.236767e-08 1.6502359e-08 6.3039256e-06 0.023471592 3.5773502e-09 3.5648418e-07 4.5575922e-05
4.832466e-06 9.422641e-05 2.295369 4.2703714e-06 0.0001649786 0.85925055 1.2126017e-12 8.914416e-12
6.8566295e-09 5.3078184e-06 5.3078184e-06 12.122822 0.0 6.3650857e-10 3.5699597e-06 7.596327e-09
13112.797 31410.055 2631.1887 1251.6484 13411.557 6857.147 20888.121 3.1719297e-05
3.5067252e+07 4.9906108e+07 1.4525675e+07 596942.6 3.8017704e+07 3.0074578e+07 4.223105e+07 1.9259924e-05
8.464489 21.306982 2.6827674 0.85765547 8.22599 4.407672 12.975644 0.0039219526
0.0047403406 0.044026308 0.34149352 0.34225756 29900.871 0.046901885 14.455406 94.99609
0.2023862 45.789047 456.83276 0.016245823 40.534725 320.45026 2.6239615e-05 0.0011320643
0.05620136 0.01607333 0.32134765 2192.3862 0.25569755 0.0012557846 0.34968033 0.0022052976
79.86344 146.47107 50.22752 3.310025 78.17633 62.54479 99.238655 1.9366727e-05
159642.44 218308.36 98617.266 2241.0784 165596.45 141262.39 184031.23 9.65539e-06
0.05202476 0.095110245 0.034814026 0.0024200494 0.049483288 0.039856885 0.065505475 8.041417e-06
9.34526e-06 9.254138e-05 0.0014799468 0.00174515 328.55637 0.00013468193 0.026762314 0.18560295
0.0010424128 0.13805036 191.18427 0.0005214719 0.117335126 187.9087 7.357902e-08 1.4737782e-06
9.7971926e-05 0.0013826413 0.0017349474 523.0609 9.67213e-05 9.087163e-06 0.006764871 4.476721e-06
0.0 0.0 0.0 0.0 0.0 0.0 0.0 0.0
0.0 0.0 0.0 0.0 0.0 0.0 0.0 0.0

exp_avg f4 [128]
00000000: 0400 0000 de75 a73c 0400 0000 81fc d33c
00000010: eb0c 0000 0000 0000 0400 0080 7694 b5bb
00000020: c21f ac3c c231 16b8 0000 0000 3506 db3b
00000030: a9db 81bc 0400 0000 a259 e93c 0400 0000
00000040: 0400 0000 0400 0000 0400 0000 c070 cc3a
00000050: 0000 0000 0400 0000 aed6 473c cfd7 30bc
00000060: 0400 0000 0000 0000 0400 0000 0400 0080
00000070: b279 683b 0400 0000 c16c af3c 677e f43b
00000080: 2bf8 e13c 6849 0000 c4e4 aebc 0400 0000
00000090: 0000 0000 183b 843c bed6 d23b 3875 9fbc
000000a0: 0400 0000 0400 0000 0400 0000 d852 5cbc
000000b0: 0f9d 913c 0000 0000 0000 0000 0000 0000
000000c0: 2bd2 003c 9dc7 353c 0400 0000 6619 6e3c
000000d0: 1eca 56bc 0000 0000 0000 0000 7d99 86bc
000000e0: 0000 0000 4741 6cbc 70c3 f9b9 0400 0000
000000f0: 0400 0000 0000 0000 0000 0000 0400 0000
00000100: 0400 0000 0400 0000 0400 0000 0400 0000
00000110: 0a17 c7bb 35c3 38b9 0400 0000 ae15 0000
00000120: 0400 0000 0400 0000 0000 0000 0400 0000
00000130: 6a55 21bc 0400 0000 e921 9eb8 fb68 0c3c
00000140: 09d7 753c 6902 213a 0400 0000 5805 d4bc
00000150: 0400 0000 0400 0000 0400 0000 0400 0000
00000160: 8b56 89bc 0400 0000 0400 0000 c66c eaba
00000170: 0400 0000 8f06 4a39 380c 353c 54ec e7ba
00000180: fe69 22bb aac8 833c 0000 0000 0400 0000
00000190: 224a 410e 7fa8 7e3c e5be fcbc c00b 6d3c
000001a0: 2a3d 693b 0400 0000 d127 1b3a 0400 0000
000001b0: 0400 0080 0400 0000 0400 0080 0000 0000
000001c0: bee6 ccbc 0189 c03b 0400 0000 0400 0000
000001d0: 0000 0000 0400 0080 0000 0000 0400 0000
000001e0: 0400 0000 0000 0000 19bd b63c 0400 0080
000001f0: e70e 5fbc ecfd dbba 0400 0000 0400 0000
6e-45 0.020441946 6e-45 0.02587724 4.634e-42 0.0 -6e-45 -0.0055413796
0.021011237 -3.5809127e-05 0.0 0.0066840895 -0.015851812 6e-45 0.028485123 6e-45
6e-45 6e-45 6e-45 0.0015597567 0.0 6e-45 0.01219718 -0.01079364
6e-45 0.0 6e-45 -6e-45 0.0035472927 6e-45 0.021414163 0.0074613574
0.027584156 2.6333e-41 -0.021349318 6e-45 0.0 0.01614146 0.0064342907 -0.019465074
6e-45 6e-45 6e-45 -0.013447486 0.017775087 0.0 0.0 0.0
0.007862608 0.011094955 6e-45 0.014532423 -0.013109712 0.0 0.0 -0.01643061
0.0 -0.01441986 -0.00047638593 6e-45 6e-45 0.0 0.0 6e-45
6e-45 6e-45 6e-45 6e-45 -0.0060757445 -0.00017620328 6e-45 7.777e-42
6e-45 6e-45 0.0 6e-45 -0.009847024 6e-45 -7.540343e-05 0.008569951
0.015004882 0.0006142022 6e-45 -0.025881454 6e-45 6e-45 6e-45 6e-45
-0.0167649 6e-45 6e-45 -0.00178852 6e-45 0.00019266664 0.011050276 -0.0017694333
-0.0024782415 0.016086895 0.0 6e-45 2.382478e-30 0.015543102 -0.030852744 0.014468133
0.0035589435 6e-45 0.0005918714 6e-45 -6e-45 6e-45 -6e-45 0.0
-0.02501237 0.005875707 6e-45 6e-45 0.0 -6e-45 0.0 6e-45
6e-45 0.0 0.022306966 -6e-45 -0.013614393 -0.0016784049 6e-45 6e-45

exp_avg_sq f4 [128]
00000000: 9545 d038 e135 813e d019 b236 28eb ae3e
00000010: 2078 c73a 0000 0000 9cb9 eb38 e72b dc3c
00000020: ce9e 753e 7cd2 7f3a 0000 0000 5a19 e53c
00000030: b316 3c3e 9bf5 2138 a464 0c3f 2da0 a338
00000040: 4d4a af36 53c3 9836 55cd b135 a623 713b
00000050: 0000 0000 048a ed37 77e7 d63d 22a7 bd3d
00000060: ff2d ef39 0000 0000 fd38 eb37 3d44 963a
00000070: 483b a53c 9cf6 4637 30a8 9f3e 9d54 153d
00000080: 6dac 2f3e 349b 533c 5a8d bc3e eea3 5e3b
00000090: 0000 0000 7cfc 393e 7934 d63c c92e 923e
000000a0: 79df f138 291e 443c 15d5 0a34 057b d53d
000000b0: 8d93 613e 0000 0000 0000 0000 0000 0000
000000c0: af68 5b3d 6a72 f23d d482 5733 ca52 e03d
000000d0: 7dd9 e43d 0000 0000 0000 0000 c8ff 133e
000000e0: 0000 0000 26a1 393e 4433 f53b 032a 2b38
000000f0: e092 0c36 0000 0000 0000 0000 83aa 8134
00000100: 0b7c 9735 6652 8a37 9674 c82d 96f5 5a33
00000110: 4d47 3d3d 0064 c73a f81a ba33 e34b ac3a
00000120: 7d0a ba34 6523 0739 0000 0000 1439 4937
00000130: 7872 e43d 3cfb 413a fa2c fe3a 680b 883d
00000140: 2581 483e 606f 2e3b 6694 2d39 0320 ed3e
00000150: 9dec 8337 d900 5939 fdc0 e439 b15b 9a35
00000160: a0d3 403e 40a0 3238 cce7 d736 0361 4b3c
00000170: ee5a 7339 b406 993c 3211 bc3d 9dad d63b
00000180: e80c 563c 4fe8 273e 0000 0000 abb3 b138
00000190: 320b 783a 993e 203e 7559 283f 2a0d 443e
000001a0: be47 323c fce3 8038 8c65 2d3b 990d 9334
000001b0: 1495 2c36 7077 ce36 0ee4 d638 0000 0000
000001c0: aee7 c93e 23b2 893c f2a9 5839 25ce d337
000001d0: 0000 0000 3584 8c39 0000 0000 c2e5 9234
000001e0: a8ed 6d35 0000 0000 78ab 913e 5f8c 0b36
000001f0: 7b48 253e ad7a 173b 89fc 9633 1d17 1037
9.9311736e-05 0.2523642 5.3078184e-06 0.34163785 0.0015218295 0.0 0.00011240246 0.026876403
0.2398636 0.00097588426 0.0 0.02796619 0.18368034 3.861413e-05 0.54841065 7.802281e-05
5.224056e-06 4.5526917e-06 1.3247287e-06 0.003679493 0.0 2.831687e-05 0.10493367 0.09260394
0.00045619902 0.0 2.804072e-05 0.0011464428 0.020169869 1.1859138e-05 0.31183004 0.036457647
0.17155619 0.012915421 0.36826593 0.0033972221 0.0 0.18162721 0.026148068 0.2855132
0.000115334005 0.011970081 1.292977e-07 0.10423855 0.22028942 0.0 0.0 0.0
0.05356663 0.11838229 5.0177576e-08 0.10953291 0.11174295 0.0 0.0 0.14453042
0.0 0.1812788 0.007482918 4.0808703e-05 2.0947118e-06 0.0 0.0 2.4152186e-07
1.1286478e-06 1.6489252e-05 2.2789142e-11 5.098044e-08 0.046210576 0.0015212297 8.6662055e-08 0.0013145175
3.465283e-07 0.00012887789 0.0 1.1993823e-05 0.11154646 0.00073998026 0.0019392066 0.066428006
0.19580515 0.0026616678 0.00016553848 0.46313486 1.5726599e-05 0.00020695048 0.00043631336 1.150058e-06
0.18830729 4.258775e-05 6.434484e-06 0.012413266 0.0002320816 0.018679954 0.09182967 0.006551458
0.0130646005 0.16397212 0.0 8.4734835e-05 0.00094621175 0.15648879 0.657615 0.19145647
0.0108813625 6.145981e-05 0.0026458232 2.7390777e-07 2.5716772e-06 6.1531828e-06 0.00010246794 0.0
0.3943457 0.016808575 0.00020662675 2.5249154e-05 0.0 0.00026801383 0.0 2.736179e-07
8.8635215e-07 0.0 0.28451133 2.079432e-06 0.1614093 0.0023113892 7.030855e-08 8.58845e-06

exp_avg f4 [64, 128]
00000000: 0000 0000 0400 0000 0400 0000 0400 0000
00000010: 0400 0000 0000 0000 0400 0000 0400 0000
00000020: 0400 0000 0400 0000 0000 0000 0400 0000
00000030: 0400 0000 0400 0000 0000 0000 0400 0000
00000040: 0000 0000 0400 0080 0000 0000 0400 0000
00000050: 0000 0000 0000 0000 0000 0000 0400 0000
00000060: 0000 0000 0000 0000 0000 0000 0400 0000
00000070: 0000 0000 0400 0000 0400 0000 0400 0000
00000080: 0400 0000 0000 0000 0400 0000 0000 0000
00000090: 0000 0000 0400 0000 0400 0000 0400 0000
000000a0: 0400 0000 0400 0000 0000 0000 0400 0000
000000b0: 0400 0000 0000 0000 0000 0000 0000 0000
000000c0: 0400 0000 0400 0000 0000 0000 0400 0000
000000d0: 0400 0000 0000 0000 0000 0000 0400 0000
000000e0: 0000 0000 0400 0080 0000 0000 0400 0000
000000f0: 0000 0000 0000 0000 0000 0000 0000 0000
00000100: 0000 0000 0000 0000 0400 0080 0000 0000
00000110: 0400 0000 0400 0000 0000 0000 0400 0000
00000120: 0000 0000 0400 0000 0000 0000 0400 0000
00000130: 0400 0080 0400 0000 0400 0000 0400 0000
00000140: 0400 0000 0400 0000 0400 0000 0400 0000
00000150: 0400 0080 0000 0000 0400 0000 0000 0000
00000160: 0400 0080 0400 0000 0400 0080 0400 0000
00000170: 0400 0000 0400 0000 0400 0000 0400 0000
00000180: 0400 0000 0400 0000 0000 0000 0400 0000
00000190: 0400 0000 0400 0000 0400 0000 0400 0000
000001a0: 0400 0000 0400 0000 0400 0080 0400 0000
000001b0: 0000 0000 0000 0000 0400 0000 0000 0000
000001c0: 0400 0000 0000 0000 0400 0000 0000 0000
000001d0: 0000 0000 0400 0000 0000 0000 0400 0080
000001e0: 0000 0000 0000 0000 0400 0000 0000 0000
000001f0: 0400 0000 0400 0000 0400 0080 0400 0000
00000200: 0400 0000 471c 9742 0400 0080 79f9 fc42
00000210: 0f87 0800 0000 0000 0400 0000 2c17 8741
00000220: df99 8542 bc8c 6ebe 0000 0000 b458 1041
00000230: 6862 9742 0400 0000 a18a 3441 0400 0000
00000240: 0400 0000 0400 0000 0400 0000 24a3 9541
00000250: 0000 0000 0400 0080 a3e1 8141 54c4 5241
00000260: 0400 0080 0000 0000 0400 0000 0400 0000
00000270: 3f5a 5a41 0400 0000 d0a8 f742 3d7a 2742
00000280: 146f 9240 db77 1a00 a9a3 7b42 0400 0000
00000290: 0000 0000 aaa8 2541 14fa b741 8982 b242
000002a0: 0400 0000 0400 0000 0400 0000 9ca2 6b42
000002b0: 6f3d 1542 0000 0000 0000 0000 0000 0000
000002c0: 9d01 1542 2c90 5042 0400 0000 fd80 3d42
000002d0: f9e8 8242 0000 0000 0000 0000 beec 0343
000002e0: 0000 0000 d95b 0c42 09c6 df41 0400 0000
000002f0: 0400 0000 0000 0000 0000 0000 0400 0000
00000300: 0400 0000 0400 0000 0000 0000 0400 0000
00000310: dca9 3b42 8d6a 69be 0400 0000 db6a 2200
00000320: 0400 0000 0400 0000 0000 0000 0400 0080
00000330: bb61 9341 0400 0080 148a d0bc f04f 8342
00000340: a5a7 f142 a2bc 6942 0400 0000 f037 3242
00000350: 0400 0000 0400 0000 0400 0080 0400 0080
00000360: d1b0 6442 0400 0000 0400 0000 a58a 1742
00000370: 0400 0000 f1f4 913e 20bf f241 e6ab 8741
00000380: 0b4e 9f40 d990 a03f 0000 0000 0400 0080
00000390: c139 2513 4292 1c42 7faf 1742 4067 f941
000003a0: f2ae 6b41 0400 0000 b18a 1f42 0400 0080
000003b0: 0400 0000 0400 0000 0400 0000 0000 0000
000003c0: 770d d042 fba6 3742 0400 0000 0400 0000
000003d0: 0000 0000 0400 0000 0000 0000 0400 0000
000003e0: 0400 0000 0000 0000 92b6 4442 0400 0000
000003f0: 0e1c 4f42 ebf1 e1be 0000 0000 0400 0080
0.0 6e-45 6e-45 6e-45 6e-45 0.0 6e-45 6e-45
6e-45 6e-45 0.0 6e-45 6e-45 6e-45 0.0 6e-45
0.0 -6e-45 0.0 6e-45 0.0 0.0 0.0 6e-45
0.0 0.0 0.0 6e-45 0.0 6e-45 6e-45 6e-45
6e-45 0.0 6e-45 0.0 0.0 6e-45 6e-45 6e-45
6e-45 6e-45 0.0 6e-45 6e-45 0.0 0.0 0.0
6e-45 6e-45 0.0 6e-45 6e-45 0.0 0.0 6e-45
0.0 -6e-45 0.0 6e-45 0.0 0.0 0.0 0.0
0.0 0.0 -6e-45 0.0 6e-45 6e-45 0.0 6e-45
0.0 6e-45 0.0 6e-45 -6e-45 6e-45 6e-45 6e-45
6e-45 6e-45 6e-45 6e-45 -6e-45 0.0 6e-45 0.0
-6e-45 6e-45 -6e-45 6e-45 6e-45 6e-45 6e-45 6e-45
6e-45 6e-45 0.0 6e-45 6e-45 6e-45 6e-45 6e-45
6e-45 6e-45 -6e-45 6e-45 0.0 0.0 6e-45 0.0
6e-45 0.0 6e-45 0.0 0.0 6e-45 0.0 -6e-45
0.0 0.0 6e-45 0.0 6e-45 6e-45 -6e-45 6e-45
6e-45 75.55523 -6e-45 126.48725 7.83134e-40 0.0 6e-45 16.886314
66.80053 -0.23295873 0.0 9.021656 75.6922 6e-45 11.283845 6e-45
6e-45 6e-45 6e-45 18.704659 0.0 -6e-45 16.235174 13.172932
-6e-45 0.0 6e-45 6e-45 13.647033 6e-45 123.82971 41.869373
4.5760593 2.430719e-39 62.909824 6e-45 0.0 10.353678 22.997108 89.25495
6e-45 6e-45 6e-45 58.9088 37.309994 0.0 0.0 0.0
37.251575 52.140793 6e-45 47.375965 65.455025 0.0 0.0 131.92477
0.0 35.089695 27.971697 6e-45 6e-45 0.0 0.0 6e-45
6e-45 6e-45 0.0 6e-45 46.91588 -0.22794552 6e-45 3.16074e-39
6e-45 6e-45 0.0 -6e-45 18.42272 -6e-45 -0.025456466 65.65613
120.82743 58.43421 6e-45 44.554626 6e-45 6e-45 -6e-45 -6e-45
57.172672 6e-45 6e-45 37.885395 6e-45 0.28507188 30.343323 16.958935
4.9782767 1.2544204 0.0 -6e-45 2.0854403e-27 39.14283 37.921383 31.175415
14.730211 6e-45 39.88544 -6e-45 6e-45 6e-45 6e-45 0.0
104.0263 45.913067 6e-45 6e-45 0.0 6e-45 0.0 6e-45
6e-45 0.0 49.17829 6e-45 51.777397 -0.4412988 0.0 -6e-45
