src/model_data/Eifel_Grand_Prix_model.pth (torch, 197885 bytes, 21 tensors)

net.0.weight f4 [128, 48]
0	0xbe31875c	-0.17336792
1	0x3c5ebc69	0.013594725
2	0xbcb8bc32	-0.022550676
3	0x3be6a086	0.007038179
4	0xbda4a1a1	-0.08038641
5	0x3d20be4f	0.039243992
6	0x3de4a2a9	0.111638375
7	0xbc566fe1	-0.013088197
8	0x3d7c9fde	0.0616759
9	0xbde78a00	-0.11305618
10	0xbc8f394f	-0.017483382
11	0x3e3531d4	0.17694789
12	0x3d974222	0.07385661
13	0xbe25aef7	-0.16180025
14	0xbd6aa7dd	-0.057288993
15	0xbe1c104e	-0.15240595
16	0xbdd483cd	-0.103767015
17	0x3ca0ea6a	0.019643027
18	0x3ded9f08	0.116025984
19	0xbb48062f	-0.0030521264
20	0x3dbfca89	0.093648024
21	0xbbfdecad	-0.007749161
22	0x3cc6a02c	0.024246298
23	0xbd99515a	-0.0748622
24	0xbe02ab1f	-0.1276059
25	0x3d4d8773	0.050178003
26	0xbdb32c4c	-0.08748683
27	0x3da69785	0.08134369
28	0x3dea25fb	0.114330254
29	0xbd86485c	-0.0655677
30	0x3ded133a	0.11575933
31	0x3e223065	0.15838774
32	0x3e251aea	0.16123548
33	0xbe04f8d8	-0.12985551
34	0xbdbed8aa	-0.09318669
35	0x3ccfb6bd	0.025355691
36	0xbd03df9a	-0.032195665
37	0xbb644a1e	-0.0034834216
38	0x3e1dbd6a	0.15404287
39	0xbdb3c4d5	-0.08777777
40	0x3c98692c	0.018604837
41	0x3adbcbd4	0.001676912
42	0x3d55fc93	0.052242827
43	0x3d8faab6	0.070149824
44	0x3decc945	0.115618266
45	0x3ddc75b5	0.10764638
46	0x3d36fc4a	0.044674195
47	0xbdd7122d	-0.10501514
48	0xbd5b5613	-0.053548884
49	0xbdad3657	-0.0845763
50	0x3ca38c9e	0.019964512
51	0xbd88a28e	-0.0667163
52	0x3e005134	0.12530977
53	0x3e34be27	0.17650662
54	0x3c8845ba	0.01663481
55	0x3c74a4f3	0.014931905
56	0x3e2aa862	0.16665795
57	0xbe1b9fd5	-0.1519769
58	0xbe223421	-0.15840198
59	0xbdf3851d	-0.11890624
60	0xbda38cd6	-0.07985847
61	0x3d60a23c	0.05484222
62	0xbdd43c4f	-0.103630655
63	0xbc64e461	-0.013970465
64	0xbce00b9e	-0.02734929
65	0xbcd9cf85	-0.02658821
66	0xbda18657	-0.078869514
67	0x3d8ba760	0.068190336
68	0xbe1c62a8	-0.1527201
69	0x3dd8693f	0.10566949
70	0xbe1282c9	-0.14307703
71	0xbe2f415c	-0.17114776
72	0xbe247a7f	-0.16062354
73	0xbcc4edff	-0.024039267
74	0xbe3ab837	-0.18234335
75	0x3a203988	0.00061120884
76	0x3d1262b6	0.03573867
77	0x3e0fb8ae	0.14035293
78	0x3c34c608	0.011033542
79	0x3e2838ab	0.16427867
80	0xbdaac0c0	-0.083375454
81	0xbcc2fb91	-0.023801597
82	0xbe0a3806	-0.13497934
83	0xbd20d9a8	-0.039270073
84	0x3de4266c	0.11140141
85	0x3ca8ae7f	0.020591019
86	0x3ddcb268	0.10776216
87	0x3e338223	0.17530112
88	0x3d64542e	0.055744343
89	0x3e0fcbf8	0.14042652
90	0xbe0e494f	-0.13895153
91	0x3db8f6cf	0.0903145
92	0x3dc6207c	0.09674165
93	0x3cc8a79a	0.024493981
94	0x3cb5fe35	0.022215942
95	0x3defaa3d	0.11702392
96	0xbdbe1864	-0.09281996
97	0xbe00f813	-0.12594633
98	0x3d959221	0.073032625
99	0xbc53b091	-0.012920515
100	0xbe4b72cf	-0.19868015
101	0x3c9e3911	0.01931432
102	0xbe3b04c8	-0.18263543
103	0x3e04460e	0.12917349
104	0x3e26ee97	0.16301952
105	0x3d923f3f	0.071409695
106	0x3d216c93	0.039410185
107	0xbd9c6c60	-0.076378584
108	0x3e2f95f0	0.1714704
109	0x3e2481af	0.16065095
110	0x3bf46120	0.0074578673
111	0xbb9b63ef	-0.0047421376
112	0xbdfcf090	-0.12350571
113	0xbe300eb2	-0.17193106
114	0x3afe49af	0.0019400622
115	0xbda65dfd	-0.081233956
116	0x3e1202c5	0.14258869
117	0xbc9135fd	-0.017725939
118	0xbb6c4da4	-0.003605702
119	0xbe1e4b27	-0.15458356
120	0x3d1bda2b	0.038049858
121	0x3c6e33bc	0.014538702
122	0xbccf8033	-0.025329685
123	0x3dfa41e7	0.12219601
124	0x3e0baf45	0.13641079
125	0x3da661fc	0.08124158
126	0xbe315837	-0.17318808
127	0x3d88a9bc	0.06672999
128	0xbd0c3209	-0.034227405
129	0x3e6e65dc	0.23281044
130	0x3b688815	0.0035481502
131	0xbe490312	-0.19630077
132	0xbdc9819a	-0.09839173
133	0x3e2914d1	0.16511847
134	0xbe16a70d	-0.14712162
135	0xbd02c518	-0.031926244
136	0x3dbdfb01	0.09276391
137	0xbd5c1e18	-0.053739637
138	0xbdb6c120	-0.089235544
139	0xbe1f0a0d	-0.15531178
140	0xbccd59f2	-0.025067303
141	0xbd4fe8ab	-0.050759
142	0x3e95e222	0.29274088
143	0x3e4f71bc	0.2025823
144	0xbdbe5e10	-0.09295285
145	0x3d319951	0.043359105
146	0x3e078911	0.1323588
147	0x3da301ce	0.079593286
148	0x3e072d42	0.13200858
149	0xbd29dafa	-0.041468598
150	0xbd98ae6c	-0.07455143
151	0x3d952cd7	0.07283943
152	0x3d22e4f0	0.039769113
153	0xbcf467f7	-0.02983473
154	0xbcedc1ec	-0.029023133
155	0xbdf607a3	-0.12013175
156	0x3d51ccce	0.051220708
157	0xbe2ee05f	-0.17077778
158	0x3e045e38	0.12926567
159	0x3e26d918	0.16293752
160	0xbcacdcdf	-0.021101413
161	0xbc8e1a94	-0.017346658
162	0xbe3ab5d0	-0.18233418
163	0xbd4ac9af	-0.049508747
164	0x3a9b97c5	0.0011870792
165	0x3d17a17d	0.03701924
166	0xbddf41fe	-0.10901259
167	0x3e232f36	0.15935978
168	0x3e1d80c0	0.15381145
169	0x3debc663	0.11512449
170	0xbd9cd095	-0.07656971
171	0xbd404712	-0.046942778
172	0xbdd4aa64	-0.10384062
173	0x3e09b181	0.13446619
174	0x3e25228a	0.16126457
175	0x3a70e933	0.0009190023
176	0xbc375ebb	-0.011192019
177	0xbca22dad	-0.01979717
178	0xbe10b2b7	-0.14130674
179	0x3e22aa8c	0.15885371
180	0xbd122b66	-0.03568592
181	0x3c3b60a1	0.011436612
182	0x3dad8596	0.08472745
183	0x3e0f8133	0.1401413
184	0xbd9cf9ba	-0.07664819
185	0xbe5a56e9	-0.21322216
186	0x3d3a7e7f	0.045530792
187	0xbe5732ba	-0.21015444
188	0xbdafe27d	-0.08588121
189	0x3cb37aab	0.021909079
190	0x3d77248e	0.060337596
191	0x3cff32e2	0.031152193
192	0xbd6e086d	-0.058113504
193	0xbcb7a7e3	-0.022418922
194	0xbdbc20d5	-0.0918595
195	0xbd9c4114	-0.076296
196	0xbde31ef2	-0.11089887
197	0xbdad080b	-0.084488
198	0x3d11ea77	0.035623994
199	0x3daecc29	0.08535034
200	0x3e22e084	0.15905958
201	0xbdd752c1	-0.10513831
202	0x3d25ba5c	0.04046093
203	0x3d5ea849	0.054359708
204	0xbe088967	-0.13333665
205	0x3cb6c8b5	0.022312501
206	0xbdc5bec3	-0.096555255
207	0x3e2692a9	0.16266884
208	0x3d056485	0.032566566
209	0x3dd31a83	0.10307791
210	0x3cee566f	0.02909395
211	0xbd43c647	-0.047796514
212	0x3e37e4e7	0.17958413
213	0xbe057d83	-0.1303616
214	0x3e33f1f2	0.17572764
215	0x3d9eca52	0.07753433
216	0x3cf32b75	0.029683808
217	0xbdf0d0b9	-0.11758561
218	0xbdecc472	-0.115609065
219	0x3d2f6727	0.042822983
220	0x3d0da564	0.034581557
221	0xbe3703f5	-0.17872603
222	0x3da35996	0.079760715
223	0x3e378b1d	0.17924161
224	0x3c14c79d	0.009080795
225	0xbe14ea13	-0.14542417
226	0xbd2b14b1	-0.04176778
227	0x3e24e0bf	0.16101359
228	0x3d34a785	0.04410507
229	0xbe28ec0b	-0.16496293
230	0x3c71e2b6	0.014763525
231	0xbd9a6533	-0.075388335
232	0x3e1582cf	0.14600681
233	0x3d5545e6	0.052068613
234	0x3d4b26dd	0.04959761
235	0x3e34a975	0.17642768
236	0x3e224cba	0.15849581
237	0x3e31a6bb	0.17348759
238	0x3e3c6f58	0.1840185
239	0x3e16439c	0.14674228
240	0x3d34715d	0.044053424
241	0xbd9caf79	-0.07650656
242	0x3da9393a	0.08262868
243	0x3d2177b5	0.039420802
244	0x3dd64306	0.104620025
245	0x3dee0807	0.11622625
246	0x3e013b52	0.12620285
247	0x3c95951e	0.018259581
248	0x3e007edc	0.12548393
249	0x3e29fcd8	0.16600358
250	0x3e2fd702	0.17171863
251	0xbd1b1ca1	-0.0378691
252	0xbe230b13	-0.15922193
253	0xbe326154	-0.1741994
254	0xbbc40c17	-0.0059828865
255	0xbc960d97	-0.018317027

net.0.bias f4 [128]
0	0x00000000	0.0
1	0x00000000	0.0
2	0x3c07e3bb	0.008294041
3	0xbb84f6ba	-0.0040577324
4	0x00000000	0.0
5	0xbad93331	-0.0016571042
6	0x00000000	0.0
7	0xbc1e4af2	-0.009661423
8	0xbc8aea23	-0.016957348
9	0xbc08fc86	-0.0083609875
10	0xbbd5ba5a	-0.006522459
11	0xbbfc1f0e	-0.0076941317
12	0xbd30b749	-0.043143544
13	0xbb942a1b	-0.004521621
14	0xbca0b97a	-0.019619692
15	0x00000000	0.0
16	0xbc0f2960	-0.008737892
17	0x3adbf870	0.0016782414
18	0x00000000	0.0
19	0x00000000	0.0
20	0xbc127623	-0.008939299
21	0xbcbad519	-0.022806691
22	0xbb6168a9	-0.0034394658
23	0xb9adb619	-0.00033132805
24	0x00000000	0.0
25	0xbc9837e2	-0.018581335
26	0xbbb63230	-0.005560182
27	0xba9ac7d6	-0.0011808823
28	0xbb8e89f5	-0.004349942
29	0xbb055c1a	-0.0020349086
30	0xbc51fa63	-0.0128160445
31	0xbbf15d5f	-0.007365867
32	0x3b62b49f	0.0034592522
33	0xbc89066a	-0.016726691
34	0x00000000	0.0
35	0x00000000	0.0
36	0x00000000	0.0
37	0x00000000	0.0
38	0xbc62841f	-0.013825445
39	0x3bc47bfd	0.005996226
40	0x3bbc591c	0.0057479274
41	0x00000000	0.0
42	0x3af99a61	0.0019043201
43	0x3bcf934d	0.0063346983
44	0x00000000	0.0
45	0x3aba9b9f	0.0014237053
46	0xbc9f1622	-0.019419733
47	0x3c8ec3d3	0.01742736
48	0x3c8adb3d	0.016950244
49	0xbc4b195e	-0.012396185
50	0x00000000	0.0
51	0xbab79ef0	-0.0014009159
52	0xbbeae407	-0.0071682963
53	0xbb8d1dd8	-0.004306536
54	0xbc065667	-0.008199311
55	0xbb2e538a	-0.0026600086
56	0xbca3c5bf	-0.019991754
57	0xbcf23342	-0.029565457
58	0xbce2a6be	-0.0276674
59	0xbc0b8314	-0.008515138
60	0xbbb78fdc	-0.005601866
61	0xbbcf600f	-0.0063285897
62	0xbc3bae2c	-0.0114551
63	0xbc987b73	-0.018613553
64	0xbc168289	-0.009186395
65	0xbb8be665	-0.0042694085
66	0xbc2e99ec	-0.010656815
67	0xbb5b03fb	-0.003341912
68	0xbc39cc35	-0.011340191
69	0xbbbaf144	-0.0057050306
70	0xbc80c403	-0.015718466
71	0xbbbee694	-0.005825827
72	0x00000000	0.0
73	0xbc9446ae	-0.018100109
74	0x00000000	0.0
75	0xbbfdf284	-0.0077498574
76	0xbc2d16d5	-0.010564526
77	0x00000000	0.0
78	0x39e7b2ca	0.00044192962
79	0xbca4529e	-0.020058926
80	0xbbdb3367	-0.0066894772
81	0xbd4adb3f	-0.049525496
82	0xbbcb2399	-0.006199312
83	0xbb89bc47	-0.0042033526
84	0x00000000	0.0
85	0xbb918989	-0.0044414443
86	0x00000000	0.0
87	0xbc258e5b	-0.010104741
88	0xbccdf84d	-0.025142813
89	0xbbd47d6b	-0.0064846775
90	0x00000000	0.0
91	0x00000000	0.0
92	0xbb19fd24	-0.002349683
93	0x3c490905	0.012270217
94	0xbca36652	-0.019946251
95	0x39c54860	0.00037628692
96	0xbc9db7ff	-0.019252775
97	0xbc599b4a	-0.013281653
98	0x00000000	0.0
99	0x3b883f99	0.004157972
100	0xbbfe84fa	-0.007767317
101	0x00000000	0.0
102	0x3c23c2f1	0.009995208
103	0x3aa43b91	0.0012529959
104	0xbb8f1d60	-0.0043675154
105	0xbc3fc37a	-0.01170432
106	0xbd169351	-0.036761586
107	0xbc4c7ca5	-0.012480889
108	0x3c642285	0.013924246
109	0xbc0b3b84	-0.008498076
110	0x3c02817d	0.007965443
111	0x00000000	0.0
112	0xbbed9b16	-0.0072511537
113	0x00000000	0.0
114	0xbb6d6d61	-0.0036228525
115	0xbc9ec24f	-0.019379763
116	0xbaa2fd24	-0.0012435061
117	0xb9143eee	-0.00014137823
118	0xbcda258d	-0.026629234
119	0xbbec28a9	-0.0072069955
120	0x3adce897	0.0016853985
121	0xbc57d6be	-0.013173757
122	0x00000000	0.0
123	0xbc8cb4b4	-0.01717601
124	0xbc92202a	-0.017837603
125	0x00000000	0.0
126	0xbc0e774d	-0.008695436
127	0xbc08b03b	-0.008342798

net.2.weight f4 [64, 128]
0	0xbe1ca95a	-0.15298977
1	0x3dc23392	0.094824925
2	0xbe1d6523	-0.15370612
3	0x3d9c9749	0.07646043
4	0x3db7ec2c	0.08980593
5	0xbe0126c9	-0.12612452
6	0xbdc2bb4e	-0.09508382
7	0xbdccf219	-0.10007114
8	0x3e173ed5	0.14770062
9	0xbda73844	-0.08165029
10	0xbdfa8709	-0.12232787
11	0xbd9bb4fd	-0.0760288
12	0xbdc4e816	-0.096145794
13	0xbdb03c57	-0.08605259
14	0x3d25ebc5	0.04050805
15	0xbe0f0296	-0.1396583
16	0xbc461f98	-0.0120924935
17	0x3e2ab3c6	0.1667014
18	0x3e2e0b31	0.16996457
19	0xbe0be30c	-0.1366083
20	0x3e096860	0.13418722
21	0x3dc38c16	0.09548204
22	0xbd397dc7	-0.045285966
23	0x3dfd3b26	0.12364797
24	0x3d8bbb92	0.068228856
25	0x3d38a986	0.045083545
26	0xbdc5f3b2	-0.09665622
27	0x3e1900e0	0.1494174
28	0xbd476168	-0.04867688
29	0x3d6bec11	0.057598177
30	0x3ddcf213	0.107883595
31	0x3de13260	0.109959364
32	0xbdc79860	-0.0974586
33	0x3d34635b	0.044040065
34	0xbe23af94	-0.15984946
35	0x3cb668ef	0.022266833
36	0x3dd8db2a	0.10588677
37	0xbe2b15f5	-0.16707595
38	0x3d16ffd9	0.03686509
39	0x3e0d7b10	0.13816476
40	0xbd93cb83	-0.07216551
41	0xbe2aeee3	-0.1669269
42	0xbcc14990	-0.023594648
43	0x3cd7b4c7	0.026331319
44	0xbe1685cd	-0.14699478
45	0xbe042ad9	-0.1290697
46	0xbe12c8e8	-0.14334452
47	0x3e258867	0.16165315
48	0xbdfdabf8	-0.12386316
49	0x3d7fef63	0.062484156
50	0x3e074bb0	0.13212466
51	0xbd89ce2b	-0.067287765
52	0xbdac141c	-0.08402273
53	0x3dc81180	0.09768963
54	0xbdf7ca1b	-0.120990954
55	0x3d909e65	0.07061461
56	0x3d901bea	0.07036574
57	0xbe03e88c	-0.12881678
58	0xbe127135	-0.14300998
59	0x3da0525b	0.07828208
60	0x3e13847e	0.1440601
61	0xbd6b9343	-0.057513487
62	0xbe110f9f	-0.14166115
63	0xbc71a164	-0.014747951
64	0xbdd5cdf5	-0.10439674
65	0xbda6307d	-0.08114717
66	0xbe31349d	-0.17305227
67	0xbc837cab	-0.016050657
68	0xbd8c1102	-0.068391815
69	0x3d428b50	0.04749614
70	0xbd955d6c	-0.072932094
71	0xbe313845	-0.17306621
72	0x3dc41c95	0.09575764
73	0xbd15ad61	-0.0365423
74	0xbc52102d	-0.012821239
75	0x3e2ef29b	0.17084734
76	0xbdaefdc3	-0.08544495
77	0xbe31b374	-0.17353612
78	0x3a92d82e	0.0011203343
79	0xbdd09f83	-0.101866744
80	0x3dc9bec4	0.09850839
81	0xbe1057e6	-0.1409603
82	0x3de231d9	0.11044664
83	0x3cab2118	0.020889804
84	0xbdcda49e	-0.10041164
85	0x3e243f7b	0.16039841
86	0xbe014fa9	-0.12628044
87	0x3e0ad63f	0.13558291
88	0x3dac0053	0.08398499
89	0x3e0d9b8f	0.13828872
90	0x3d6dda72	0.058069654
91	0x3e2b021e	0.16700026
92	0xbcae9a40	-0.021313787
93	0xbcaae715	-0.020862142
94	0x3d8315fc	0.064006776
95	0xbde6304a	-0.11239679
96	0xbdf34b5c	-0.11879608
97	0x3e22c849	0.15896715
98	0xbd1749c3	-0.03693558
99	0x3d2e835d	0.042605747
100	0xbe32e26e	-0.17469189
101	0x3d5aa83b	0.053383093
102	0x3c0ed040	0.008716643
103	0xbc9f4538	-0.019442186
104	0xbe37407e	-0.17895696
105	0x3dd706ca	0.10499342
106	0x3d6ba3d5	0.05752929
107	0x3d9bc4a6	0.07605867
108	0x3e260184	0.16211516
109	0xbd25254c	-0.040318772
110	0xbdd8e099	-0.105897136
111	0x3d36fc4c	0.044674203
112	0x3d31ce49	0.04340962
113	0xbdc56a48	-0.09639412
114	0x3e0b03df	0.13575695
115	0xbe0657cf	-0.13119434
116	0x3d7ed4e6	0.062214755
117	0x3da032de	0.07822202
118	0xbbe4c788	-0.006981794
119	0xbe1600e7	-0.14648782
120	0x3d42332f	0.047412094
121	0x3d42dab8	0.047571868
122	0x3bf48dd2	0.0074631954
123	0x3cdf3d08	0.027250782
124	0x3cf661b1	0.03007588
125	0xbdae431a	-0.08508892
126	0x3d651012	0.05592353
127	0x3cf77a11	0.030209573
128	0x3cde5114	0.02713827
129	0x3c43ab9f	0.011942773
130	0xbe13f61c	-0.14449352
131	0x3c948b46	0.018132817
132	0xbe2da60c	-0.16957873
133	0x3d316096	0.043305002
134	0xbcb05229	-0.021523552
135	0xbe31493f	-0.17313097
136	0x3d0cf16d	0.03440993
137	0x3d803909	0.062608786
138	0x3e096754	0.13418323
139	0x3d12d4bc	0.03584741
140	0xbbfc7eee	-0.007705561
141	0x3de4cde0	0.1117208
142	0xbcf222f8	-0.02955769
143	0xbd4cf013	-0.05003364
144	0x3d4813c9	0.048846994
145	0xbd7eda93	-0.062220167
146	0xbe0548d9	-0.1301607
147	0xbc806f24	-0.015677996
148	0xbd99d379	-0.07511038
149	0xbcf0c4af	-0.029390661
150	0x3c2e572a	0.010640899
151	0xbcfbb052	-0.030723725
152	0xbe05ed12	-0.13078716
153	0x3d2d3dde	0.04229533
154	0x3e09e888	0.1346761
155	0x3d517eab	0.05114619
156	0x3da212a6	0.07913713
157	0xbdb04ed9	-0.08608789
158	0x3dfba84a	0.12287958
159	0xbb11c9cd	-0.0022245527
160	0xbdb28aa1	-0.087178476
161	0xbdd691bc	-0.104770154
162	0x3dd621c4	0.10455659
163	0xbe1feed3	-0.15618448
164	0x3b112292	0.002214585
165	0xbd8e18a2	-0.06938292
166	0xbcfcede6	-0.030875158
167	0xbe27a329	-0.16370834
168	0xbe23033d	-0.15919204
169	0x3d47053b	0.048588973
170	0xbe1f782a	-0.15573183
171	0xbd2f2dc0	-0.04276824
172	0xbe287426	-0.16450557
173	0x3e2eb994	0.1706298
174	0x3e0d21c6	0.13782415
175	0x3d4ef5c9	0.050527368
176	0xbbc3efdb	-0.0059795207
177	0xbe1b9f2f	-0.15197442
178	0x3dc3e04d	0.09564266
179	0x3d8dec7e	0.06929873
180	0xbda66ff5	-0.08126823
181	0x3d2cd083	0.04219104
182	0x3e0124b6	0.1261166
183	0x3d326790	0.043555796
184	0x3c535f9c	0.012901213
185	0x3d0fd975	0.035119493
186	0xbe1dbaa4	-0.15403229
187	0xbe31ddf5	-0.17369826
188	0x3e0b481e	0.1360173
189	0xbde9d4b3	-0.11417522
190	0x3deadd22	0.11467959
191	0x3e0ad316	0.13557085
192	0xbb979a9e	-0.004626586
193	0x3dab0377	0.0835027
194	0xbe2a17fe	-0.16610715
195	0xbe2972fd	-0.16547771
196	0x3d4e2da2	0.050336488
197	0x3d6df2ee	0.058093004
198	0x3d83ada0	0.06429601
199	0x3e004ac0	0.12528515
200	0x3cbc45a3	0.022982424
201	0x3d598a78	0.05311057
202	0x3cd22454	0.025652088
203	0xbdc1e115	-0.09466759
204	0xbd996cc1	-0.07491446
205	0x3ddcdb82	0.10784055
206	0xbdd57abf	-0.104238026
207	0xbdb8c6fd	-0.09022329
208	0x3e22618b	0.15857522
209	0x3e04b8a0	0.12961054
210	0x3e33f089	0.17572226
211	0xbdc75e59	-0.09734792
212	0xbe219b60	-0.15781927
213	0x3b913933	0.0044318675
214	0xbd55616f	-0.052094873
215	0xbd352366	-0.04422321
216	0xbd8a8b9a	-0.06764908
217	0xbdd030dc	-0.10165569
218	0xbd8b38e9	-0.06797964
219	0x3db18e67	0.08669739
220	0xbe3387d7	-0.17532288
221	0xbdca8e29	-0.09890396
222	0x3dbf0d54	0.09328714
223	0xbde5daad	-0.1122335
224	0x3e1fede4	0.15618092
225	0xb98a89a6	-0.00026423967
226	0xbd864909	-0.06556899
227	0xbe2a9461	-0.16658165
228	0xbe27a230	-0.16370463
229	0x3dfce888	0.12349039
230	0x3dafa034	0.08575478
231	0x3c8bb970	0.017056197
232	0x3cfac73d	0.030612582
233	0xbdf4851d	-0.11939452
234	0x3e2f1c85	0.17100723
235	0x3dfbeafd	0.1230068
236	0xbdd8548c	-0.10563001
237	0xbcbfafcc	-0.023399256
238	0x3decda76	0.115651056
239	0xbdebcb52	-0.1151339
240	0xbe31435f	-0.17310856
241	0xbba7ff4b	-0.005126869
242	0x3cdebc35	0.027189353
243	0x3dbf56ae	0.09342705
244	0xbdea4918	-0.11439723
245	0x3d9d5b1c	0.07683393
246	0xbd86b528	-0.065775216
247	0xbdd658fd	-0.10466192
248	0x3e00ab90	0.12565446
249	0x3c89a426	0.016801905
250	0x3e159b96	0.14610133
251	0x3e17899e	0.1479859
252	0xbd967c21	-0.073478945
253	0xbd288342	-0.041140802
254	0xbe31e4d3	-0.17372446
255	0x3e319805	0.17343147

net.2.bias f4 [64]
0	0xbb1fc314	-0.002437775
1	0x00000000	0.0
2	0xbb21a973	-0.002466765
3	0x3b0604cd	0.0020449639
4	0xbb506c63	-0.0031802885
5	0xbc1f17ce	-0.009710265
6	0xbce5b70d	-0.028041387
7	0xbc230c31	-0.009951637
8	0x00000000	0.0
9	0xbb3fbb2b	-0.0029255848
10	0xbbd49d60	-0.006488487
11	0x00000000	0.0
12	0xbbf6e96c	-0.0075351503
13	0x00000000	0.0
14	0xbbac69db	-0.0052616424
15	0x3bba666c	0.005688479
16	0x00000000	0.0
17	0xbbae713f	-0.0053235586
18	0x3bf6ee02	0.007535697
19	0xbc4dffd4	-0.012573201
20	0xbc2962f2	-0.010338532
21	0x00000000	0.0
22	0xbbf92819	-0.007603657
23	0x00000000	0.0
24	0x00000000	0.0
25	0xbb226b16	-0.0024783066
26	0xbd01f04c	-0.031723306
27	0x00000000	0.0
28	0x00000000	0.0
29	0xbbb2b1b8	-0.0054533146
30	0x00000000	0.0
31	0x00000000	0.0
32	0x3a79447e	0.00095088023
33	0xbbb4446b	-0.00550132
34	0xbc080206	-0.008301264
35	0x00000000	0.0
36	0xbb9edaf0	-0.0048478767
37	0x00000000	0.0
38	0xbc6471ab	-0.013943116
39	0x00000000	0.0
40	0xbc298a07	-0.01034785
41	0xbbc8b254	-0.006124774
42	0xbc03e4cb	-0.008050154
43	0xbabc85dd	-0.0014383156
44	0xbc69376a	-0.014234403
45	0xbc6ae7e2	-0.014337512
46	0x00000000	0.0
47	0x00000000	0.0
48	0xba2d7b26	-0.0006617777
49	0xbb9c7e03	-0.004775764
50	0x3b37fbbc	0.002807363
51	0x3c79cc1c	0.015246417
52	0xbc2e7f50	-0.010650471
53	0xb9c8c78a	-0.0003829564
54	0xbbe1a09d	-0.0068856017
55	0xbbc97478	-0.0061479174
56	0xbbd213d6	-0.006411056
57	0xbc92ded2	-0.017928515
58	0x00000000	0.0
59	0x3c5783db	0.013153995
60	0x00000000	0.0
61	0x00000000	0.0
62	0x00000000	0.0
63	0xbbb817b6	-0.005618061

net.4.weight f4 [16, 64]
0	0xbde3d6ab	-0.11124929
1	0xbd4e0c1d	-0.05030452
2	0xbc05abd4	-0.008158643
3	0x3d1b4de1	0.037916068
4	0xbddbe1ee	-0.10736452
5	0x3c158769	0.009126523
6	0x3db2c720	0.08729386
7	0x3e46bf4d	0.19408913
8	0x3dfb2cbb	0.12264391
9	0x3d3c77c6	0.046012662
10	0xbdefcb7f	-0.11708736
11	0x3e0b0757	0.13577019
12	0x3dec6cd5	0.115441956
13	0xbdbb4469	-0.091439076
14	0xbd4c5799	-0.049888227
15	0x3e44f2c7	0.19233237
16	0x3e09e202	0.13465121
17	0xbdf6aaed	-0.1204432
18	0x3e26e1c5	0.16297062
19	0xbe760d47	-0.24028502
20	0xbe6de644	-0.2323237
21	0x3e3caa64	0.18424374
22	0xbccc5a60	-0.024945438
23	0xbe79077a	-0.24319258
24	0xbd8f547c	-0.06998536
25	0xbdd52436	-0.10407297
26	0x3dfcbc27	0.12340575
27	0xbe2d0947	-0.1689807
28	0xbe21c5b7	-0.15798078
29	0x3e7dcad8	0.2478441
30	0xbe7a3305	-0.24433525
31	0xbe81bf35	-0.25341192
32	0x3db6e691	0.08930696
33	0x3e6a33e1	0.22871353
34	0x3e2b1ef5	0.16711028
35	0x3e5db551	0.21651198
36	0xbe2c40e1	-0.16821624
37	0x3dbed7f7	0.09318536
38	0x3e200965	0.15628584
39	0xbdf1608a	-0.117859915
40	0xbd49f22a	-0.04930321
41	0xbe2f56c0	-0.17122936
42	0x3e3d2f5f	0.18475102
43	0xbdbac962	-0.09120442
44	0x3e64f671	0.22359635
45	0x3e626bc5	0.22111423
46	0x3e0597bf	0.13046168
47	0x3e283e2f	0.16429971
48	0x3d24a1c9	0.040193353
49	0x3d679dfe	0.056547157
50	0xbd439f07	-0.047759082
51	0x3e038a0e	0.12845632
52	0xbe041c03	-0.1290131
53	0xbdccbee0	-0.09997344
54	0x3d9bdcdd	0.07610486
55	0xbe0c9fef	-0.13732885
56	0x3d0fdbf0	0.035121858
57	0xbdbdefb7	-0.092742376
58	0x3d31804c	0.043335244
59	0xbda76df3	-0.08175268
60	0xbd725757	-0.059165325
61	0x3e44e691	0.19228579
62	0x3e68fd58	0.22752893
63	0xbd60c658	-0.054876655
64	0x3e373284	0.17890364
65	0xbdbb1dcc	-0.09136543
66	0xbe2baf08	-0.16765988
67	0xbe3aed02	-0.18254474
68	0x3e4ac248	0.19800675
69	0x3e1a0364	0.15040356
70	0x3e84e677	0.2595708
71	0x3d30337d	0.043017853
72	0x3de142c0	0.1099906
73	0xbe1a9ebd	-0.15099616
74	0x3e5f70c2	0.21820357
75	0xbe066a63	-0.13126521
76	0x3e4f7339	0.20258798
77	0xbe821c3f	-0.25412175
78	0x3dbfb622	0.09360911
79	0x3e0c7552	0.13716629
80	0x3d802550	0.06257117
81	0xbde5066f	-0.11182868
82	0x3d1e5818	0.03865823
83	0x3dbdb520	0.092630625
84	0xbc9fd4ee	-0.019510712
85	0x3ccbf350	0.024896294
86	0xbcd19d9d	-0.025587851
87	0xbd271714	-0.040793493
88	0xbde7478b	-0.112929426
89	0xbe3c3797	-0.18380581
90	0x3d4f52a9	0.05061594
91	0xbe411262	-0.18854669
92	0x3e89d354	0.26919043
93	0xbd6d07c1	-0.057868723
94	0x3e1e8585	0.15480621
95	0xbe40eb34	-0.18839723
96	0x3dc20c0b	0.09474953
97	0x3e2c7ca9	0.16844429
98	0xbda2faf9	-0.079580255
99	0x3e59fb6c	0.21287316
100	0xbe6186e4	-0.22024113
101	0xbdf5ec47	-0.12007957
102	0xbe645155	-0.2229665
103	0xbe585001	-0.21124269
104	0xbc885cd3	-0.016645825
105	0x3c22ef44	0.009944741
106	0xbdbf1542	-0.093302265
107	0xbe8a2a2d	-0.26985303
108	0xbe5e96a9	-0.2173716
109	0x3e0d707e	0.13812444
110	0x3e8c185c	0.27362335
111	0xbb862b69	-0.0040945304
112	0xbdd23bf0	-0.102653384
113	0x3d7526e0	0.059851527
114	0x3c97a65f	0.01851195
115	0x3cb123bb	0.021623483
116	0x3e3fac9a	0.18718186
117	0x3bb30fb9	0.005464521
118	0x3c1d21b4	0.009590555
119	0x3de77963	0.113024496
120	0xbd714f8b	-0.05891375
121	0xbe18e5a7	-0.14931355
122	0x3e02ec56	0.12785468
123	0xbe32beed	-0.17455645
124	0xbe5be3e6	-0.21473655
125	0x3e7b3af2	0.24534205
126	0x3cb57fc9	0.02215566
127	0x3d8dd306	0.06925015
128	0xbe022c3f	-0.12712191
129	0xbe1522e2	-0.14564088
130	0x3d0b9bcd	0.03408413
131	0xbc371997	-0.011175535
132	0xbdd8d87d	-0.10588167
133	0x3dddafac	0.108245224
134	0xbe8269ac	-0.25471246
135	0xbe1c1a9b	-0.15244524
136	0xbe5c6687	-0.21523486
137	0x3db117f8	0.0864715
138	0x3e3a6d48	0.1820575
139	0xbba10cb9	-0.0049148467
140	0x3dfc6095	0.12323109
141	0xbe2f1909	-0.17099394
142	0x3e770490	0.24122834
143	0x3e37ffb7	0.17968641
144	0xbe284804	-0.16433722
145	0x3dbe592b	0.09294351
146	0xbe6083b0	-0.21925235
147	0x3d848fb4	0.06472722
148	0xbcd665e0	-0.026171625
149	0xbd0c9b2a	-0.034327663
150	0xbe4d7474	-0.20063955
151	0x3a8b83e5	0.0010644166
152	0xbe669a12	-0.2251971
153	0xbbc08a1a	-0.005875838
154	0xbe0f128f	-0.13971923
155	0x3e6079be	0.21921441
156	0xbe1ee073	-0.15515308
157	0x3e832445	0.2561361
158	0xbe5c84d5	-0.21535046
159	0xbe8065b2	-0.25077587
160	0xbdb657cb	-0.08903464
161	0xbe296321	-0.16541721
162	0x3d9fc6bf	0.0780158
163	0x3d80c264	0.06287077
164	0x3d8e7693	0.0695621
165	0x3d9959cb	0.0748783
166	0xbdcbeabd	-0.09956882
167	0xbe6c77fe	-0.23092648
168	0xbe6e4286	-0.23267564
169	0x3d2ac2c9	0.041689668
170	0xbda0de64	-0.07854918
171	0xbde90d66	-0.11379509
172	0x3e844786	0.25835818
173	0xbe60ea2c	-0.2196433
174	0x3da53091	0.08065904
175	0xbe6d68fa	-0.23184577
176	0x3e70bea6	0.23510227
177	0x3cd711a5	0.02625353
178	0xbdabb6ec	-0.08384499
179	0x3d6c4b22	0.05768884
180	0xbdbfec69	-0.093712635
181	0xbe57bbc2	-0.21067718
182	0x3dea6f3f	0.11447
183	0xbdee72f3	-0.116430186
184	0xbe14978b	-0.14510934
185	0x3e098d7f	0.13432883
186	0xbc6f5e84	-0.014609937
187	0xbdc0356e	-0.09385191
188	0x3dc5e06a	0.09661944
189	0xbd335f6b	-0.04379217
190	0xbdf3d8a5	-0.11906556
191	0x3e1455d7	0.1448587
192	0xbdb2fa9e	-0.08739208
193	0xbe463386	-0.19355592
194	0xbd1a8a42	-0.03772951
195	0x3d6873e5	0.05675115
196	0xbcd45be8	-0.02592273
197	0xbe6cd825	-0.23129328
198	0xbc92ca18	-0.017918631
199	0x3e5e9fb2	0.21740606
200	0x3db01641	0.085979946
201	0x3e6af745	0.22945888
202	0x3ce23b66	0.027616214
203	0xbe63b23f	-0.22235964
204	0xbdf97a88	-0.12181574
205	0xbe341046	-0.17584333
206	0xbe204a82	-0.15653422
207	0xbe1fc11d	-0.1560101
208	0xbdaa6d57	-0.08321636
209	0x3e1d63d5	0.15370114
210	0xbe8511df	-0.25990197
211	0x3e657aaf	0.22410081
212	0x3e554ed1	0.20830847
213	0xbc418215	-0.011810799
214	0xbd63ca53	-0.055612873
215	0xbe297dfa	-0.16551962
216	0xbbd64fba	-0.006540266
217	0x3e8fd30e	0.2809071
218	0x3e2b22ab	0.16712444
219	0xbdb4e414	-0.08832565
220	0x3da92cf4	0.08260527
221	0x3d16d6d9	0.03682599
222	0x3c6cc0a7	0.014450229
223	0x3d2c22c8	0.042025357
224	0xbcbd3412	-0.023096118
225	0xbdf1ba4f	-0.11803114
226	0x3e623c95	0.22093423
227	0x3e7f525b	0.2493376
228	0xbe2b2fc1	-0.16717435
229	0xbce3cd53	-0.027807867
230	0x3e3dfd58	0.18553674
231	0xbdc4f9a7	-0.0961793
232	0x3e2688f2	0.16263178
233	0x3d71c104	0.059021965
234	0x3e384238	0.1799401
235	0xbe752ca6	-0.23942813
236	0xbe1a650a	-0.15077606
237	0xbcf39ef7	-0.029738886
238	0x3d8fac04	0.07015231
239	0x3db737d0	0.08946192
240	0x3c3af7ba	0.011411602
241	0x3e4d71bb	0.20062916
242	0xbc37e683	-0.011224392
243	0xbe169239	-0.14704217
244	0x3e79ddc3	0.24401002
245	0x3d986fad	0.074431755
246	0xbd9489cb	-0.072528444
247	0xbdb17508	-0.086649
248	0xbe47a72e	-0.19497368
249	0x3cda153c	0.026621453
250	0xbdffa794	-0.12483135
251	0xbb84e460	-0.0040555447
252	0x3e2e2ff4	0.1701048
253	0xbc949755	-0.018138567
254	0x3e30cd68	0.17265856
255	0xbd94be64	-0.07262877

net.4.bias f4 [16]
0	0x3bb6747f	0.0055680866
1	0x00000000	0.0
2	0xbbf3838a	-0.007431452
3	0xbcb2fdcf	-0.021849541
4	0x39e3d859	0.00043458006
5	0x00000000	0.0
6	0xbc312c19	-0.010813736
7	0x00000000	0.0
8	0xbbcae22c	-0.0061915126
9	0xbc0ab222	-0.008465322
10	0xba13e099	-0.00056410726
11	0x00000000	0.0
12	0xbbe98a50	-0.007127084
13	0x00000000	0.0
14	0x3b921255	0.0044577518
15	0x3bb2c622	0.005455748

net.6.weight f4 [1, 16]
0	0x3eb9fac6	0.36324137
1	0x3db5e408	0.08881384
2	0xbe6c35b7	-0.23067366
3	0xbe8f3c9d	-0.27975932
4	0x3bda6573	0.0066649257
5	0x3efab787	0.48968145
6	0x3eb7a0cb	0.35864863
7	0xbf0546b5	-0.52061015
8	0xbeadc1ee	-0.3393702
9	0xbecc1e70	-0.39866972
10	0x3dc7ad13	0.09749808
11	0xbec26ab0	-0.3797202
12	0x3efec236	0.49757546
13	0x3ee64a2c	0.44978464
14	0xbe4eb8c5	-0.20187671
15	0x3eb786eb	0.35845122

exp_avg f4 [128, 48]
0	0x00000000	0.0
1	0x00000000	0.0
2	0x00000000	0.0
3	0x00000000	0.0
4	0x00000000	0.0
5	0x00000000	0.0
6	0x00000000	0.0
7	0x00000000	0.0
8	0x00000000	0.0
9	0x00000000	0.0
10	0x00000000	0.0
11	0x00000000	0.0
12	0x00000000	0.0
13	0x00000000	0.0
14	0x00000000	0.0
15	0x00000000	0.0
16	0x00000000	0.0
17	0x00000000	0.0
18	0x00000000	0.0
19	0x00000000	0.0
20	0x00000000	0.0
21	0x00000000	0.0
22	0x00000000	0.0
23	0x00000000	0.0
24	0x00000000	0.0
25	0x00000000	0.0
26	0x00000000	0.0
27	0x00000000	0.0
28	0x00000000	0.0
29	0x00000000	0.0
30	0x00000000	0.0
31	0x00000000	0.0
32	0x00000000	0.0
33	0x00000000	0.0
34	0x00000000	0.0
35	0x00000000	0.0
36	0x00000000	0.0
37	0x00000000	0.0
38	0x00000000	0.0
39	0x00000000	0.0
40	0x00000000	0.0
41	0x00000000	0.0
42	0x00000000	0.0
43	0x00000000	0.0
44	0x00000000	0.0
45	0x00000000	0.0
46	0x00000000	0.0
47	0x00000000	0.0
48	0x00000000	0.0
49	0x00000000	0.0
50	0x00000000	0.0
51	0x00000000	0.0
52	0x00000000	0.0
53	0x00000000	0.0
54	0x00000000	0.0
55	0x00000000	0.0
56	0x00000000	0.0
57	0x00000000	0.0
58	0x00000000	0.0
59	0x00000000	0.0
60	0x00000000	0.0
61	0x00000000	0.0
62	0x00000000	0.0
63	0x00000000	0.0
64	0x00000000	0.0
65	0x00000000	0.0
66	0x00000000	0.0
67	0x00000000	0.0
68	0x00000000	0.0
69	0x00000000	0.0
70	0x00000000	0.0
71	0x00000000	0.0
72	0x00000000	0.0
73	0x00000000	0.0
74	0x00000000	0.0
75	0x00000000	0.0
76	0x00000000	0.0
77	0x00000000	0.0
78	0x00000000	0.0
79	0x00000000	0.0
80	0x00000000	0.0
81	0x00000000	0.0
82	0x00000000	0.0
83	0x00000000	0.0
84	0x00000000	0.0
85	0x00000000	0.0
86	0x00000000	0.0
87	0x00000000	0.0
88	0x00000000	0.0
89	0x00000000	0.0
90	0x00000000	0.0
91	0x00000000	0.0
92	0x00000000	0.0
93	0x00000000	0.0
94	0x00000000	0.0
95	0x00000000	0.0
96	0xbeea2554	-0.45731604
97	0xbf2ae999	-0.6676269
98	0xbe17aa63	-0.14811091
99	0xbe163153	-0.14667253
100	0xbf0047d2	-0.5010959
101	0xbeb037a1	-0.3441744
102	0xbf16d878	-0.58924055
103	0xb8b8cf7b	-8.81245e-05
104	0xc1d2c25b	-26.3449
105	0xc1f17169	-30.180376
106	0xc16d6f87	-14.839728
107	0xc089fb16	-4.3119
108	0xc1e0310e	-28.023952
109	0xc1c4e0e8	-24.609818
110	0xc1e67c5d	-28.810724
111	0x00000004	6e-45
112	0xbc442baa	-0.011973301
113	0xbc5ad8cc	-0.013357352
114	0xbb64c257	-0.0034905875
115	0xbb46c909	-0.0030332229
116	0xbc8bec9c	-0.017080598
117	0xbc232683	-0.009957912
118	0xbc5552e2	-0.013020249
119	0xb8bf5be1	-9.1247035e-05
120	0xb920179f	-0.00015267589
121	0xba5c674a	-0.0008407725
122	0xbb36075f	-0.002777539
123	0xbb36075f	-0.002777539
124	0xbfbb29a3	-1.4622082
125	0xbab4d22b	-0.0013795545
126	0xbca0b765	-0.0196187
127	0xbd3ec5f9	-0.04657552
128	0xbb0ef7d8	-0.0021815207
129	0xbdb994d1	-0.090615876
130	0x3d75c87c	0.06000565
131	0xb8d16656	-9.984958e-05
132	0xbcb74749	-0.022372859
133	0xbcb332e1	-0.021874847
134	0x381357c3	3.5129266e-05
135	0x3882c3c8	6.23535e-05
136	0x3a453eeb	0.0007524329
137	0xba9f485c	-0.0012152302
138	0x3b0010b9	0.0019541217
139	0xbf6840c6	-0.90723836
140	0xbaccc673	-0.0015623107
141	0x38389690	4.400924e-05
142	0xbad1ac78	-0.0015996834
143	0x3962d6f7	0.0002163312
144	0xbd8f836b	-0.07007488
145	0xbd944fc4	-0.072417766
146	0x3ad5dd22	0.0016316513
147	0xbd0ac216	-0.0338765
148	0xbdc46102	-0.09588815
149	0xbd20ce16	-0.03925904
150	0xbdd444bf	-0.10364675
151	0xb81f4a56	-3.7977785e-05
152	0xc00fc609	-2.246462
153	0xbeca8459	-0.39554098
154	0xbf175cb3	-0.5912582
155	0xbeb27ada	-0.34859353
156	0xc03c1899	-2.9390013
157	0xc02a9d53	-2.6658523
158	0xc00cb03b	-2.1982563
159	0x00000004	6e-45
160	0xbaf0b448	-0.0018364275
161	0xbac008e2	-0.0014651085
162	0x38e909dc	0.00011112142
163	0xba34582c	-0.0006879594
164	0xbb55d249	-0.003262656
165	0xbad54d69	-0.001627368
166	0xbafd7507	-0.0019337245
167	0x381a7d3c	3.6833095e-05
168	0x37126d3f	8.727714e-06
169	0xb8db64b1	-0.00010461489
170	0xb93d0a10	-0.00018028193
171	0xb93d0a10	-0.00018028193
172	0xbd1e684d	-0.038673688
173	0x39886c51	0.00026020643
174	0x3a32af70	0.00068163034
175	0xbb99e557	-0.004696529
176	0xb849fc8e	-4.8157344e-05
177	0xbc2de0a9	-0.010612645
178	0x3cd63f4e	0.026153233
179	0x394dd6c3	0.00019630328
180	0x3c9989f1	0.018742533
181	0xbb920a06	-0.0044567613
182	0x375bdc1d	1.3104666e-05
183	0x37d0d9ef	2.4897015e-05
184	0x39939c09	0.0002815428
185	0x3a5c808c	0.0008411489
186	0x3af43c61	0.0018633717
187	0x3eb513ed	0.35366765
188	0xba85e185	-0.0010214305
189	0xb91e8b66	-0.00015119984
190	0xbaf7f8d7	-0.0018918765
191	0x381400c8	3.5286677e-05
192	0x00000000	0.0
193	0x00000000	0.0
194	0x00000000	0.0
195	0x00000000	0.0
196	0x00000000	0.0
197	0x00000000	0.0
198	0x00000000	0.0
199	0x00000000	0.0
200	0x00000000	0.0
201	0x00000000	0.0
202	0x00000000	0.0
203	0x00000000	0.0
204	0x00000000	0.0
205	0x00000000	0.0
206	0x00000000	0.0
207	0x00000000	0.0
208	0x00000000	0.0
209	0x00000000	0.0
210	0x00000000	0.0
211	0x00000000	0.0
212	0x00000000	0.0
213	0x00000000	0.0
214	0x00000000	0.0
215	0x00000000	0.0
216	0x00000000	0.0
217	0x00000000	0.0
218	0x00000000	0.0
219	0x00000000	0.0
220	0x00000000	0.0
221	0x00000000	0.0
222	0x00000000	0.0
223	0x00000000	0.0
224	0x00000000	0.0
225	0x00000000	0.0
226	0x00000000	0.0
227	0x00000000	0.0
228	0x00000000	0.0
229	0x00000000	0.0
230	0x00000000	0.0
231	0x00000000	0.0
232	0x00000000	0.0
233	0x00000000	0.0
234	0x00000000	0.0
235	0x00000000	0.0
236	0x00000000	0.0
237	0x00000000	0.0
238	0x00000000	0.0
239	0x00000000	0.0
240	0xbefb4f7b	-0.49084076
241	0xbf378e6b	-0.7170169
242	0xbe231b8d	-0.15928479
243	0xbe214085	-0.15747268
244	0xbf09901e	-0.5373553
245	0xbebd0f03	-0.36925516
246	0xbf21ee9f	-0.6325473
247	0xb8c47e5d	-9.369545e-05
248	0xc1e1f0b4	-28.24253
249	0xc201784d	-32.36748
250	0xc17ecc49	-15.924874
251	0xc093c0df	-4.617294
252	0xc1f05103	-30.039557
253	0xc1d2fccc	-26.373436
254	0xc1f71fbb	-30.890493
255	0x00000004	6e-45

exp_avg_sq f4 [128, 48]
0	0x00000000	0.0
1	0x00000000	0.0
2	0x00000000	0.0
3	0x00000000	0.0
4	0x00000000	0.0
5	0x00000000	0.0
6	0x00000000	0.0
7	0x00000000	0.0
8	0x00000000	0.0
9	0x00000000	0.0
10	0x00000000	0.0
11	0x00000000	0.0
12	0x00000000	0.0
13	0x00000000	0.0
14	0x00000000	0.0
15	0x00000000	0.0
16	0x00000000	0.0
17	0x00000000	0.0
18	0x00000000	0.0
19	0x00000000	0.0
20	0x00000000	0.0
21	0x00000000	0.0
22	0x00000000	0.0
23	0x00000000	0.0
24	0x00000000	0.0
25	0x00000000	0.0
26	0x00000000	0.0
27	0x00000000	0.0
28	0x00000000	0.0
29	0x00000000	0.0
30	0x00000000	0.0
31	0x00000000	0.0
32	0x00000000	0.0
33	0x00000000	0.0
34	0x00000000	0.0
35	0x00000000	0.0
36	0x00000000	0.0
37	0x00000000	0.0
38	0x00000000	0.0
39	0x00000000	0.0
40	0x00000000	0.0
41	0x00000000	0.0
42	0x00000000	0.0
43	0x00000000	0.0
44	0x00000000	0.0
45	0x00000000	0.0
46	0x00000000	0.0
47	0x00000000	0.0
48	0x00000000	0.0
49	0x00000000	0.0
50	0x00000000	0.0
51	0x00000000	0.0
52	0x00000000	0.0
53	0x00000000	0.0
54	0x00000000	0.0
55	0x00000000	0.0
56	0x00000000	0.0
57	0x00000000	0.0
58	0x00000000	0.0
59	0x00000000	0.0
60	0x00000000	0.0
61	0x00000000	0.0
62	0x00000000	0.0
63	0x00000000	0.0
64	0x00000000	0.0
65	0x00000000	0.0
66	0x00000000	0.0
67	0x00000000	0.0
68	0x00000000	0.0
69	0x00000000	0.0
70	0x00000000	0.0
71	0x00000000	0.0
72	0x00000000	0.0
73	0x00000000	0.0
74	0x00000000	0.0
75	0x00000000	0.0
76	0x00000000	0.0
77	0x00000000	0.0
78	0x00000000	0.0
79	0x00000000	0.0
80	0x00000000	0.0
81	0x00000000	0.0
82	0x00000000	0.0
83	0x00000000	0.0
84	0x00000000	0.0
85	0x00000000	0.0
86	0x00000000	0.0
87	0x00000000	0.0
88	0x00000000	0.0
89	0x00000000	0.0
90	0x00000000	0.0
91	0x00000000	0.0
92	0x00000000	0.0
93	0x00000000	0.0
94	0x00000000	0.0
95	0x00000000	0.0
96	0x457cae5d	4042.8977
97	0x461fd51d	10229.278
98	0x440f2dea	572.7174
99	0x43f529d2	490.32672
100	0x4571ba17	3867.6306
101	0x44faf812	2007.7522
102	0x45dd9584	7090.6895
103	0x3996b002	0.00028741366
104	0x4b2bd76e	1.1261806e+07
105	0x4b7d9e2c	1.66211e+07
106	0x4a795bd9	4.0854942e+06
107	0x4870c24b	246537.17
108	0x4b3b5a67	1.2278375e+07
109	0x4b0f4549	9.389385e+06
110	0x4b5359ce	1.3851086e+07
111	0x39b25202	0.00034011906
112	0x40205376	2.505094
113	0x40d74288	6.7268715
114	0x3effea27	0.49983332
115	0x3eb4f08d	0.35339776
116	0x4010d0a5	2.2627347
117	0x3f86b683	1.0524448
118	0x40981cf2	4.7535334
119	0x3ac76c09	0.0015214692
120	0x3af99bd7	0.0019043636
121	0x3c84b8fc	0.016201489
122	0x3de1e5c1	0.1103015
123	0x3def3dba	0.11681695
124	0x468187fb	16579.99
125	0x3c60c067	0.013717747
126	0x4072e2f7	3.7951028
127	0x41d51335	26.634378
128	0x3d8b6af6	0.068075106
129	0x418171c5	16.180552
130	0x42b7db67	91.92852
131	0x3ba27389	0.0049576205
132	0x415e0405	13.875981
133	0x4194717f	18.555418
134	0x36b02002	5.248935e-06
135	0x3941d10b	0.00018483789
136	0x3c6e9a97	0.014563224
137	0x3c4300bf	0.011902033
138	0x3de70603	0.112804435
139	0x45d1ff4e	6719.913
140	0x3d92a99d	0.071612574
141	0x3c68bce9	0.014205196
142	0x411948db	9.580287
143	0x3b018a44	0.001976625
144	0x44e9782a	1867.7551
145	0x459c0cf3	4993.6187
146	0x437165c1	241.39748
147	0x436ff807	239.96886
148	0x44ddc488	1774.1416
149	0x4465aae6	918.6703
150	0x454c8205	3272.1262
151	0x38934aa8	7.023412e-05
152	0x4aa36656	5.354283e+06
153	0x4af7fe09	8.1262125e+06
154	0x49ddbe2f	1.8165179e+06
155	0x480c80f2	143875.78
156	0x4ab16709	5.8131245e+06
157	0x4a86d267	4.4178435e+06
158	0x4accf43c	6.715934e+06
159	0x3924eb8a	0.00015728004
160	0x3f91c4ee	1.1388223
161	0x404d3863	3.2065666
162	0x3e669a1e	0.22519729
163	0x3e2fdb51	0.17173506
164	0x3f86139a	1.0474732
165	0x3ee91924	0.45526993
166	0x400997ba	2.1498857
167	0x3a30a6c0	0.0006738715
168	0x3a59114b	0.000828047
169	0x3beedcbb	0.0072894967
170	0x3d582d80	0.052777767
171	0x3d75aab1	0.059977237
172	0x4604ff39	8511.806
173	0x3bf6c291	0.0075305183
174	0x3fe4bd31	1.7870237
175	0x41445f22	12.273226
176	0x3d03aa41	0.03214479
177	0x410c6e0b	8.776866
178	0x42197f0a	38.37406
179	0x3b23945d	0.0024960258
180	0x40e4abe2	7.145982
181	0x4082a0da	4.082135
182	0x368df27a	4.2303554e-06
183	0x38ff1ac6	0.000121643345
184	0x3c1e514d	0.009662938
185	0x3c99ffef	0.018798796
186	0x3d9a409c	0.075318545
187	0x459b3d33	4967.65
188	0x3ce176b2	0.027522419
189	0x3b99652d	0.0046812505
190	0x40bbbce3	5.8668075
191	0x3a3a3e98	0.0007104664
192	0x00000000	0.0
193	0x00000000	0.0
194	0x00000000	0.0
195	0x00000000	0.0
196	0x00000000	0.0
197	0x00000000	0.0
198	0x00000000	0.0
199	0x00000000	0.0
200	0x00000000	0.0
201	0x00000000	0.0
202	0x00000000	0.0
203	0x00000000	0.0
204	0x00000000	0.0
205	0x00000000	0.0
206	0x00000000	0.0
207	0x00000000	0.0
208	0x00000000	0.0
209	0x00000000	0.0
210	0x00000000	0.0
211	0x00000000	0.0
212	0x00000000	0.0
213	0x00000000	0.0
214	0x00000000	0.0
215	0x00000000	0.0
216	0x00000000	0.0
217	0x00000000	0.0
218	0x00000000	0.0
219	0x00000000	0.0
220	0x00000000	0.0
221	0x00000000	0.0
222	0x00000000	0.0
223	0x00000000	0.0
224	0x00000000	0.0
225	0x00000000	0.0
226	0x00000000	0.0
227	0x00000000	0.0
228	0x00000000	0.0
229	0x00000000	0.0
230	0x00000000	0.0
231	0x00000000	0.0
232	0x00000000	0.0
233	0x00000000	0.0
234	0x00000000	0.0
235	0x00000000	0.0
236	0x00000000	0.0
237	0x00000000	0.0
238	0x00000000	0.0
239	0x00000000	0.0
240	0x45ecaae5	7573.362
241	0x469a878b	19779.771
242	0x4482446d	1042.1383
243	0x446a61de	937.5292
244	0x45e18934	7217.1504
245	0x456a6032	3750.0122
246	0x464eb235	13228.552
247	0x3a11d696	0.0005563287
248	0x4ba4073a	2.1499508e+07
249	0x4bf4a06f	3.206371e+07
250	0x4aea400a	7.675909e+06
251	0x48e63119	471432.78
252	0x4bb1a9c5	2.3286666e+07
253	0x4b89d06d	1.8063578e+07
254	0x4bc92fc0	2.636992e+07
255	0x3a10e7e0	0.0005527716

exp_avg f4 [128]
0	0x00000000	0.0
1	0x00000000	0.0
2	0xbb360768	-0.002777541
3	0xb93d0a08	-0.00018028182
4	0x00000000	0.0
5	0xbb430b9a	-0.0029761554
6	0x00000000	0.0
7	0x3af36ac3	0.0018571246
8	0x3a23e751	0.00062524254
9	0x2dbbd3a1	2.135342e-11
10	0xba94ff55	-0.0011367599
11	0x3bed47c3	0.0072412207
12	0x33955dca	6.955413e-08
13	0x3ad4ab60	0.001622539
14	0x00000004	6e-45
15	0x00000000	0.0
16	0x3b6a3391	0.0035736302
17	0xbb847b84	-0.0040430445
18	0x00000000	0.0
19	0x00000000	0.0
20	0x3b0584a9	0.002037326
21	0x80000004	-6e-45
22	0x36f22db3	7.217482e-06
23	0xbb60d36c	-0.0034305705
24	0x00000000	0.0
25	0x3b1d3e97	0.0023993605
26	0xb9aea1ad	-0.00033308324
27	0xbb1a047a	-0.0023501203
28	0x3b8ba6a2	0.0042618075
29	0x3b45ad61	0.0030163156
30	0x80000004	-6e-45
31	0x3a4774db	0.00076086604
32	0xbaf5d6d9	-0.0018756046
33	0x80000004	-6e-45
34	0x00000000	0.0
35	0x00000000	0.0
36	0x00000000	0.0
37	0x00000000	0.0
38	0x00000004	6e-45
39	0xbb639d10	-0.0034731068
40	0xba82ee39	-0.0009989209
41	0x00000000	0.0
42	0xbb8e5e04	-0.0043447036
43	0xb9c44485	-0.00037435084
44	0x00000000	0.0
45	0xbb2a033d	-0.0025941872
46	0x3b817a8e	0.0039513772
47	0xbb316cc5	-0.0027072888
48	0xbabc8d18	-0.0014385311
49	0xba36c0cd	-0.00069714786
50	0x00000000	0.0
51	0xbb775e79	-0.003774552
52	0x3bb687df	0.0055703963
53	0x39e1b186	0.0004304761
54	0x00000004	6e-45
55	0xbb06dc75	-0.002057818
56	0x00000004	6e-45
57	0x3afca2d7	0.0019274604
58	0x80000004	-6e-45
59	0x3baae151	0.005214848
60	0x38abc6da	8.1909544e-05
61	0xba7a78bd	-0.00095547346
62	0x00000004	6e-45
63	0x80000004	-6e-45
64	0xba574ec6	-0.0008213337
65	0x00000004	6e-45
66	0x3b89d342	0.004206092
67	0x80000004	-6e-45
68	0x00000004	6e-45
69	0xb9dd9e73	-0.0004227046
70	0x80000004	-6e-45
71	0x3a997878	0.0011708876
72	0x00000000	0.0
73	0x3a8ea01a	0.0010881454
74	0x00000000	0.0
75	0x00000004	6e-45
76	0x00000004	6e-45
77	0x00000000	0.0
78	0xbb3b629c	-0.0028592711
79	0x3bbc5c81	0.005748332
80	0xba850443	-0.0010148365
81	0x00000004	6e-45
82	0x3b7e430b	0.0038797285
83	0x3b29f7cf	0.002593506
84	0x00000000	0.0
85	0x2e75f20c	5.592153e-11
86	0x00000000	0.0
87	0x00000004	6e-45
88	0xb862ff5c	-5.412042e-05
89	0x3c21fe0e	0.0098872315
90	0x00000000	0.0
91	0x00000000	0.0
92	0xbb848311	-0.0040439446
93	0x80000004	-6e-45
94	0x00000004	6e-45
95	0xbbdf3883	-0.0068121566
96	0x3b39974f	0.0028318947
97	0x00000004	6e-45
98	0x00000000	0.0
99	0xbbbe853e	-0.0058142236
100	0x3ace6fb7	0.0015749846
101	0x00000000	0.0
102	0xbb8a1e73	-0.0042150556
103	0x3a8fefce	0.0010981502
104	0x3b811988	0.003939811
105	0x80000004	-6e-45
106	0x00000004	6e-45
107	0x3ab2bbef	0.0013636331
108	0xbb184cde	-0.0023239176
109	0xba3f24ee	-0.0007291575
110	0x391a031d	0.00014687744
111	0x00000000	0.0
112	0xbb0d05c7	-0.0021518336
113	0x00000000	0.0
114	0x3b0889da	0.002083412
115	0x3b34699c	0.0027528768
116	0xbbc9f866	-0.0061636446
117	0x39366566	0.00017394646
118	0x00000004	6e-45
119	0x3ac3ceec	0.0014938987
120	0xbbb4c7e6	-0.005516994
121	0x39256716	0.00015774029
122	0x00000000	0.0
123	0xaa1e2cf7	-1.404882e-13
124	0xbaa0b947	-0.0012262248
125	0x00000000	0.0
126	0x80000004	-6e-45
127	0xb996d21a	-0.00028766767

exp_avg_sq f4 [128]
0	0x00000000	0.0
1	0x00000000	0.0
2	0x3de6ce8d	0.11269865
3	0x3d628c54	0.05530961
4	0x00000000	0.0
5	0x3e5e3d74	0.2170313
6	0x00000000	0.0
7	0x3d61b42e	0.055103473
8	0x3c7e51a7	0.015522397
9	0x3d659326	0.056048535
10	0x3d00fd25	0.031491417
11	0x3f58b1f8	0.8464656
12	0x3aeed3a3	0.0018221032
13	0x3d7cd2b1	0.06172437
14	0x31953f2b	4.343652e-09
15	0x00000000	0.0
16	0x3e5d4475	0.21608146
17	0x3e8b5ad6	0.2721774
18	0x00000000	0.0
19	0x00000000	0.0
20	0x3d9b4633	0.07581749
21	0x37fa27b0	2.9820803e-05
22	0x3c484bca	0.012225101
23	0x3e60393a	0.2189683
24	0x00000000	0.0
25	0x3db6e650	0.089306474
26	0x3d0eb806	0.034843467
27	0x3e120a9e	0.14261863
28	0x3e990ed2	0.2989412
29	0x3bb3f980	0.005492389
30	0x3addc47c	0.0016919519
31	0x3c104951	0.0088065425
32	0x3d835d5a	0.0641429
33	0x3907cd1b	0.00012951011
34	0x00000000	0.0
35	0x00000000	0.0
36	0x00000000	0.0
37	0x00000000	0.0
38	0x30ee343b	1.7331624e-09
39	0x3e6536a5	0.22384126
40	0x3cc3b631	0.023890587
41	0x00000000	0.0
42	0x3ea67e4d	0.32518235
43	0x3c21a00c	0.009864818
44	0x00000000	0.0
45	0x3de7bd4e	0.11315404
46	0x3e9001fd	0.28126517
47	0x3e18ff73	0.14941196
48	0x3d18ab44	0.037272707
49	0x3c4b4d3d	0.012408552
50	0x00000000	0.0
51	0x3e6b6814	0.22988921
52	0x3f169e50	0.58835316
53	0x3c4c1517	0.0124562
54	0x36f97ccd	7.435307e-06
55	0x3db5a0fc	0.08868596
56	0x3abea99d	0.0014546398
57	0x3d67606e	0.056488447
58	0x38f73e35	0.00011789465
59	0x3ef76065	0.4831573
60	0x3c38c068	0.011276342
61	0x3d1b268c	0.037878558
62	0x3966f3f8	0.00022025395
63	0x3b22400c	0.0024757413
64	0x3d2c340c	0.042041823
65	0x3aadd0bd	0.0013261061
66	0x3e9b2230	0.3029952
67	0x3b0fa59b	0.0021918777
68	0x38bee5ff	9.102746e-05
69	0x3d023ea8	0.031798035
70	0x3b3c04ef	0.0028689464
71	0x3ce52ed6	0.027976435
72	0x00000000	0.0
73	0x3d442a5d	0.047891963
74	0x00000000	0.0
75	0x37a8af7a	2.0108873e-05
76	0x39194248	0.00014615909
77	0x00000000	0.0
78	0x3e0d51b0	0.13800693
79	0x3efcdeec	0.49388826
80	0x3cc39249	0.023873465
81	0x39a684c3	0.00031760902
82	0x3e7e7c73	0.24852161
83	0x3e08985f	0.13339375
84	0x00000000	0.0
85	0x3c45d2b4	0.012074161
86	0x00000000	0.0
87	0x3890ca95	6.904189e-05
88	0x3b0cd8a8	0.0021491442
89	0x3fcb30ad	1.587423
90	0x00000000	0.0
91	0x00000000	0.0
92	0x3e6cd8fc	0.23129648
93	0x39f5a141	0.00046850185
94	0x3c156150	0.009117439
95	0x3f4766f7	0.77891487
96	0x3dd98993	0.10621943
97	0x3a2e274b	0.00066434284
98	0x00000000	0.0
99	0x3f28f57f	0.659996
100	0x3d41c308	0.047305137
101	0x00000000	0.0
102	0x3e829be6	0.25509566
103	0x3d2f1a26	0.042749546
104	0x3ea32c31	0.31869653
105	0x3945d4e3	0.0001886669
106	0x361fcdc9	2.381263e-06
107	0x3cbfa133	0.023392295
108	0x3dc430cc	0.0957962
109	0x3be75cbe	0.0070606163
110	0x3cd0ed62	0.025503818
111	0x00000000	0.0
112	0x3d9c5c55	0.076347984
113	0x00000000	0.0
114	0x3e4c0e64	0.19927365
115	0x3ddd2e84	0.10799888
116	0x3f1ab8c2	0.6043817
117	0x3c74fefa	0.014953369
118	0x30099dbd	5.006447e-10
119	0x3d51b623	0.05119909
120	0x3f1b7b08	0.60734606
121	0x3d11210c	0.035431907
122	0x00000000	0.0
123	0x3b852d64	0.004064249
124	0x3cdbd82b	0.026836475
125	0x00000000	0.0
126	0x3aa49ff4	0.0012559877
127	0x3ce344ee	0.02774283

exp_avg f4 [64, 128]
0	0x00000000	0.0
1	0x00000000	0.0
2	0x00000004	6e-45
3	0x00000000	0.0
4	0x00000000	0.0
5	0x00000004	6e-45
6	0x00000000	0.0
7	0x00000004	6e-45
8	0x00000004	6e-45
9	0x00000000	0.0
10	0x00000004	6e-45
11	0x00000000	0.0
12	0x00000004	6e-45
13	0x80000004	-6e-45
14	0x00000000	0.0
15	0x00000000	0.0
16	0x00000004	6e-45
17	0x00000004	6e-45
18	0x00000000	0.0
19	0x00000000	0.0
20	0x00000004	6e-45
21	0x00000004	6e-45
22	0x00000000	0.0
23	0x00000004	6e-45
24	0x00000000	0.0
25	0x00000004	6e-45
26	0x00000004	6e-45
27	0x00000004	6e-45
28	0x00000004	6e-45
29	0x00000000	0.0
30	0x00000004	6e-45
31	0x00000004	6e-45
32	0x00000004	6e-45
33	0x00000004	6e-45
34	0x00000000	0.0
35	0x00000000	0.0
36	0x00000000	0.0
37	0x00000000	0.0
38	0x00000000	0.0
39	0x00000004	6e-45
40	0x00000004	6e-45
41	0x00000000	0.0
42	0x00000000	0.0
43	0x00000004	6e-45
44	0x00000000	0.0
45	0x00000004	6e-45
46	0x00000000	0.0
47	0x00000004	6e-45
48	0x00000004	6e-45
49	0x00000000	0.0
50	0x00000000	0.0
51	0x00000004	6e-45
52	0x00000000	0.0
53	0x00000000	0.0
54	0x00000000	0.0
55	0x80000004	-6e-45
56	0x00000000	0.0
57	0x00000004	6e-45
58	0x80000004	-6e-45
59	0x00000004	6e-45
60	0x00000004	6e-45
61	0x00000004	6e-45
62	0x00000004	6e-45
63	0x00000004	6e-45
64	0x00000004	6e-45
65	0x00000004	6e-45
66	0x00000004	6e-45
67	0x00000004	6e-45
68	0x00000000	0.0
69	0x00000004	6e-45
70	0x00000004	6e-45
71	0x00000004	6e-45
72	0x00000000	0.0
73	0x00000004	6e-45
74	0x00000000	0.0
75	0x00000000	0.0
76	0x00000004	6e-45
77	0x00000000	0.0
78	0x00000004	6e-45
79	0x00000004	6e-45
80	0x00000004	6e-45
81	0x00000004	6e-45
82	0x00000000	0.0
83	0x00000004	6e-45
84	0x00000000	0.0
85	0x00000004	6e-45
86	0x00000000	0.0
87	0x00000004	6e-45
88	0x00000004	6e-45
89	0x00000004	6e-45
90	0x00000000	0.0
91	0x00000000	0.0
92	0x00000000	0.0
93	0x00000000	0.0
94	0x00000000	0.0
95	0x00000004	6e-45
96	0x00000004	6e-45
97	0x00000004	6e-45
98	0x00000000	0.0
99	0x00000004	6e-45
100	0x00000004	6e-45
101	0x00000000	0.0
102	0x00000000	0.0
103	0x80000004	-6e-45
104	0x00000004	6e-45
105	0x00000004	6e-45
106	0x00000000	0.0
107	0x00000004	6e-45
108	0x00000004	6e-45
109	0x00000004	6e-45
110	0x00000000	0.0
111	0x00000000	0.0
112	0x00000004	6e-45
113	0x00000000	0.0
114	0x00000004	6e-45
115	0x00000004	6e-45
116	0x00000004	6e-45
117	0x00000000	0.0
118	0x00000000	0.0
119	0x00000000	0.0
120	0x00000004	6e-45
121	0x00000004	6e-45
122	0x00000000	0.0
123	0x00000000	0.0
124	0x00000004	6e-45
125	0x00000000	0.0
126	0x00000004	6e-45
127	0x00000004	6e-45
128	0x00000000	0.0
129	0x00000000	0.0
130	0x00000000	0.0
131	0x00000000	0.0
132	0x00000000	0.0
133	0x00000000	0.0
134	0x00000000	0.0
135	0x00000000	0.0
136	0x00000000	0.0
137	0x00000000	0.0
138	0x00000000	0.0
139	0x00000000	0.0
140	0x00000000	0.0
141	0x00000000	0.0
142	0x00000000	0.0
143	0x00000000	0.0
144	0x00000000	0.0
145	0x00000000	0.0
146	0x00000000	0.0
147	0x00000000	0.0
148	0x00000000	0.0
149	0x00000000	0.0
150	0x00000000	0.0
151	0x00000000	0.0
152	0x00000000	0.0
153	0x00000000	0.0
154	0x00000000	0.0
155	0x00000000	0.0
156	0x00000000	0.0
157	0x00000000	0.0
158	0x00000000	0.0
159	0x00000000	0.0
160	0x00000000	0.0
161	0x00000000	0.0
162	0x00000000	0.0
163	0x00000000	0.0
164	0x00000000	0.0
165	0x00000000	0.0
166	0x00000000	0.0
167	0x00000000	0.0
168	0x00000000	0.0
169	0x00000000	0.0
170	0x00000000	0.0
171	0x00000000	0.0
172	0x00000000	0.0
173	0x00000000	0.0
174	0x00000000	0.0
175	0x00000000	0.0
176	0x00000000	0.0
177	0x00000000	0.0
178	0x00000000	0.0
179	0x00000000	0.0
180	0x00000000	0.0
181	0x00000000	0.0
182	0x00000000	0.0
183	0x00000000	0.0
184	0x00000000	0.0
185	0x00000000	0.0
186	0x00000000	0.0
187	0x00000000	0.0
188	0x00000000	0.0
189	0x00000000	0.0
190	0x00000000	0.0
191	0x00000000	0.0
192	0x00000000	0.0
193	0x00000000	0.0
194	0x00000000	0.0
195	0x00000000	0.0
196	0x00000000	0.0
197	0x00000000	0.0
198	0x00000000	0.0
199	0x00000000	0.0
200	0x00000000	0.0
201	0x00000000	0.0
202	0x00000000	0.0
203	0x00000000	0.0
204	0x00000000	0.0
205	0x00000000	0.0
206	0x00000000	0.0
207	0x00000000	0.0
208	0x00000000	0.0
209	0x00000000	0.0
210	0x00000000	0.0
211	0x00000000	0.0
212	0x00000000	0.0
213	0x00000000	0.0
214	0x00000000	0.0
215	0x00000000	0.0
216	0x00000000	0.0
217	0x00000000	0.0
218	0x00000000	0.0
219	0x00000000	0.0
220	0x00000000	0.0
221	0x00000000	0.0
222	0x00000000	0.0
223	0x00000000	0.0
224	0x00000000	0.0
225	0x00000000	0.0
226	0x00000000	0.0
227	0x00000000	0.0
228	0x00000000	0.0
229	0x00000000	0.0
230	0x00000000	0.0
231	0x00000000	0.0
232	0x00000000	0.0
233	0x00000000	0.0
234	0x00000000	0.0
235	0x00000000	0.0
236	0x00000000	0.0
237	0x00000000	0.0
238	0x00000000	0.0
239	0x00000000	0.0
240	0x00000000	0.0
241	0x00000000	0.0
242	0x00000000	0.0
243	0x00000000	0.0
244	0x00000000	0.0
245	0x00000000	0.0
246	0x00000000	0.0
247	0x00000000	0.0
248	0x00000000	0.0
249	0x00000000	0.0
250	0x00000000	0.0
251	0x00000000	0.0
252	0x00000000	0.0
253	0x00000000	0.0
254	0x00000000	0.0
255	0x00000000	0.0
