src/model_data/Emilia_Romagna_Grand_Prix_model.pth (torch, 198227 bytes, 21 tensors)

net.0.weight f4 [128, 48]
0	0x3de447e6	0.11146526
1	0xbdd968b7	-0.10615676
2	0x3d92c112	0.071657315
3	0x3db80368	0.08985025
4	0x3e2ea700	0.17055893
5	0x3e4f57b7	0.20248304
6	0x3e128d31	0.14311673
7	0xbe53ae25	-0.206719
8	0x3ddab572	0.10679139
9	0xbdf731a6	-0.120700166
10	0xbe51ec6b	-0.20500343
11	0xbde8d0d9	-0.113679595
12	0xbdd4d38e	-0.10391913
13	0xbcb2cc9b	-0.02182608
14	0x3d90a6ea	0.07063086
15	0xbd6b1d07	-0.05740073
16	0x3adfaaa4	0.0017064405
17	0x3e25a015	0.16174348
18	0x3e69ca8e	0.22831175
19	0xbe6bbe73	-0.2302187
20	0x3e0a2dc8	0.13494027
21	0x3e99c65f	0.30034158
22	0x3e21a72f	0.15786432
23	0xbdc917fd	-0.098190285
24	0xbe81d7cb	-0.2535995
25	0xbdf8c69a	-0.12147255
26	0x3dc1997b	0.09453102
27	0xbbebcb6f	-0.007195882
28	0xbdffedfb	-0.12496563
29	0xbe144bad	-0.14481993
30	0xbe2fe39d	-0.17176671
31	0xbc79578d	-0.015218628
32	0x3e083fc5	0.13305576
33	0xbe50a60d	-0.20375843
34	0x3d9d9929	0.076952286
35	0xbe4b92e2	-0.1988025
36	0xbda8879b	-0.0822899
37	0xbdc435c9	-0.09580571
38	0xbcb57240	-0.022149205
39	0xbe378702	-0.17922595
40	0x3df3c2ac	0.11902365
41	0xbd0637d7	-0.032768097
42	0xbd0a4a3a	-0.033762194
43	0xbe153631	-0.14571454
44	0x3de27a62	0.11058499
45	0xbec930bd	-0.39294997
46	0xbf17113c	-0.5901067
47	0xbf13e58d	-0.5777214
48	0xbd63e4e8	-0.055638224
49	0xbca5aacf	-0.02022305
50	0x3cf1ad2a	0.029501516
51	0x3d3bc2fb	0.045840245
52	0x3dfff833	0.12498512
53	0x3e3c011b	0.18359797
54	0xbe4580f4	-0.19287473
55	0x3ea69d9e	0.32542127
56	0xbd7d1547	-0.06178787
57	0x3dd5b017	0.10433977
58	0x3dd5a0c7	0.104310565
59	0xbdeee7e6	-0.11665325
60	0xbd262e20	-0.040571332
61	0x3de444e7	0.111459546
62	0xbdabf504	-0.083963424
63	0xbe42800f	-0.18994163
64	0x3c98b21b	0.018639615
65	0x3d900748	0.07032639
66	0x3dd27670	0.102764964
67	0x3e52b0ee	0.20575306
68	0x3d33a61c	0.043859586
69	0x3e567fd6	0.20947203
70	0xbe090661	-0.1338134
71	0xbf90384b	-1.1267179
72	0xbf87d633	-1.0612243
73	0xbe3085cd	-0.17238541
74	0xbd3c0f72	-0.045913167
75	0x3f7b7895	0.9823087
76	0xbe274e50	-0.16338468
77	0xbe8349d7	-0.25642273
78	0xbf0193c2	-0.50616086
79	0xbe75c368	-0.24000323
80	0xbe80aaa3	-0.25130185
81	0x3f0884be	0.5332755
82	0x3e897e3c	0.26854122
83	0xbe77d73a	-0.24203196
84	0x3f07b14c	0.5300491
85	0x3bb16fad	0.005414924
86	0xbf0cc487	-0.54987377
87	0xbee1062f	-0.4395003
88	0xbeac4fc3	-0.33654603
89	0xbde60a00	-0.11232376
90	0xbd8fdd77	-0.07024663
91	0x3f032c2e	0.5123929
92	0x3f4465ab	0.76717633
93	0xc0426c22	-3.03785
94	0xbf55cf3e	-0.8351935
95	0xc07057d1	-3.75536
96	0xbd64b0f9	-0.055832837
97	0xbdd89d21	-0.10576845
98	0xbdc40e5b	-0.095730506
99	0x3c1fd3bd	0.009755072
100	0xbcb6c3c6	-0.022310149
101	0x3dc81ba5	0.09770898
102	0xbc941119	-0.018074559
103	0x3e017944	0.12643915
104	0x3d9923b5	0.07477514
105	0xbbf33b57	-0.0074228453
106	0x3e0ea2bf	0.1392927
107	0xbe20f5f6	-0.15718827
108	0xbc9287fd	-0.01788711
109	0xbd020f72	-0.03175301
110	0xbe23146d	-0.1592576
111	0xbe2a06a9	-0.16604103
112	0x3ad07a03	0.0015905503
113	0x3e12995e	0.14316317
114	0xbe992f3a	-0.29918844
115	0x3da7a07a	0.08184905
116	0xbe7dfb21	-0.2480283
117	0xbe768c92	-0.24077061
118	0xbda6d004	-0.081451446
119	0xbe657a45	-0.22409923
120	0xbeb90f77	-0.3614461
121	0x3cb52e74	0.022116877
122	0x3e1f05cf	0.1552956
123	0x3da6506e	0.081208095
124	0x3e998e5b	0.2999142
125	0x3e43ebd3	0.19132929
126	0xbe3e6183	-0.18591885
127	0xbdb6d436	-0.08927195
128	0xbd23b5ed	-0.03996842
129	0x3effa830	0.49933004
130	0xbe7e8c8a	-0.24858299
131	0xbe4f5b30	-0.20249629
132	0x3e832fe5	0.25622478
133	0xbc733c7c	-0.014845964
134	0x3eb83f25	0.35985675
135	0x3e7b8df5	0.24565871
136	0x3e576230	0.2103355
137	0xbee8081e	-0.45318693
138	0xbd9480cd	-0.07251129
139	0x3cf86a82	0.030324224
140	0x3f95f336	1.1714847
141	0xbf1843b3	-0.594783
142	0xbdc4f78a	-0.09617527
143	0xbf3b6fbd	-0.73217374
144	0x3d5b972b	0.053610962
145	0xbde99fc3	-0.11407425
146	0x3ceee6d2	0.029162798
147	0xbe651f95	-0.22375329
148	0xbadfcefd	-0.0017075237
149	0xbd50eb15	-0.05100544
150	0xbdfafdcb	-0.122554384
151	0xbdb048ef	-0.08607661
152	0x3d2c930c	0.042132422
153	0xbd915789	-0.07096774
154	0xbd266e03	-0.04063226
155	0xbe1fdadd	-0.15610833
156	0xbd86c53b	-0.065805875
157	0xbe2660a7	-0.16247807
158	0x3d07255a	0.032994606
159	0xbe5848f6	-0.21121582
160	0x3d6447f2	0.055732675
161	0xbdb68d95	-0.089137234
162	0x3de861c5	0.11346773
163	0xbd8e84c2	-0.06958915
164	0xbe5517fb	-0.20809929
165	0xbda72579	-0.08161444
166	0xbd6ab460	-0.057300925
167	0x3ddbf282	0.10739614
168	0xbdc75068	-0.09732133
169	0xbda1799b	-0.078845225
170	0x3daa9e79	0.083310075
171	0x3d905b80	0.07048702
172	0xbc64b920	-0.013960153
173	0xbbf79165	-0.007555174
174	0xbca5872f	-0.020206062
175	0xbd697b9d	-0.057002652
176	0xbe1db606	-0.15401468
177	0x3e107c68	0.14109957
178	0xbbb8941c	-0.0056328904
179	0x3de65a21	0.112476595
180	0xbdecaa32	-0.115559
181	0x3db25e6a	0.08709414
182	0xbe28d61b	-0.16487925
183	0x3d8edf1a	0.06976147
184	0xbcb7ed03	-0.022451883
185	0x3d6a9591	0.057271544
186	0xbde130f3	-0.109956644
187	0xbd193473	-0.037403535
188	0xbcf041aa	-0.029328186
189	0x3df25215	0.11832062
190	0xbc4fcf76	-0.01268374
191	0x3dcf1210	0.10110867
192	0xbe2063ae	-0.15663025
193	0xbe5a661f	-0.21328019
194	0x3d5adbff	0.05343246
195	0xbe29f3a9	-0.16596855
196	0xbe0a7092	-0.13519505
197	0xbc9029bc	-0.017598026
198	0xbe5f9382	-0.21833614
199	0xbced77a7	-0.028987719
200	0xbe5d7050	-0.21624875
201	0xbdee7fa5	-0.1164544
202	0x3d27f847	0.04100826
203	0x3d7607d6	0.060066067
204	0xbdf187fa	-0.117935136
205	0x3de85c1b	0.11345693
206	0x3df32ea9	0.11874134
207	0x3c273167	0.0102046495
208	0xbd80c782	-0.06288053
209	0xbd86d6b1	-0.06583918
210	0xbdb750ec	-0.089509815
211	0xbe323cc9	-0.17406
212	0x3cbf6f4d	0.023368502
213	0xbcfc5a1b	-0.030804684
214	0xbe02d9f3	-0.12778454
215	0x3bbaa1a0	0.0056955367
216	0x3e2853a8	0.16438162
217	0xbe03e7af	-0.12881349
218	0xbe2d73a4	-0.16938645
219	0xbda931ff	-0.08261489
220	0xbe21b47d	-0.15791507
221	0xbdbd1c25	-0.09233884
222	0x3d1a5d27	0.037686493
223	0x3dac9b56	0.084280655
224	0xbca25300	-0.019814968
225	0xbe3ba403	-0.18324284
226	0x3dd82000	0.105529785
227	0xbe57d914	-0.21078902
228	0x3d424c0f	0.047435816
229	0x3e02cc69	0.12773289
230	0x3e277a1e	0.16355178
231	0x3e0220c5	0.12707813
232	0xbdfc7d81	-0.123286255
233	0x3cec628f	0.02885559
234	0xbe40c870	-0.18826461
235	0xbe1b6a54	-0.1517728
236	0xbe18bad1	-0.14915015
237	0xbe30f25b	-0.17279951
238	0xbd60cb4b	-0.054881375
239	0x3ddcf873	0.107895754
240	0x3de0bec5	0.109738864
241	0xbdb33ef5	-0.087522425
242	0x3dc36c79	0.09542174
243	0xbc13d105	-0.009022002
244	0x3d7cb2a5	0.061693806
245	0x3de6a3fd	0.11261747
246	0xbd8c848b	-0.06861218
247	0xbe86012d	-0.26172772
248	0xbe04ef37	-0.12981878
249	0xbd1847ce	-0.037177853
250	0xbcd3a401	-0.02583504
251	0xbd8d7114	-0.069063336
252	0x3cb5afea	0.022178609
253	0x3cbcaeb8	0.023032531
254	0xbd793b10	-0.060847342
255	0xbd4a49c3	-0.04938675

net.0.bias f4 [128]
0	0xbd23dbe0	-0.04000461
1	0x3e348c51	0.17631651
2	0x3cd75c55	0.026289145
3	0xbd384105	-0.044983882
4	0xbd3c16fe	-0.045920365
5	0xbe0542f0	-0.13013816
6	0xbeb999bd	-0.36250106
7	0xbbab2586	-0.005222979
8	0xbe06c992	-0.1316283
9	0xbd907fe1	-0.07055641
10	0xbc0b9d5d	-0.008521405
11	0xbda28e47	-0.079372935
12	0xbd6640b5	-0.056214053
13	0xbd8af1a7	-0.06784373
14	0xbd0610f9	-0.03273103
15	0xbc0fda89	-0.00878013
16	0xbea4650a	-0.32108337
17	0xbe04e8bf	-0.1297941
18	0xbe886849	-0.26642063
19	0xbc19a967	-0.009378768
20	0xbca6bbf5	-0.020353297
21	0xbddb1cf9	-0.106988855
22	0x3d7fefc0	0.062484503
23	0xbc95b548	-0.018274918
24	0xbeb44ece	-0.35216373
25	0xbc17c99d	-0.009264377
26	0xbe050f66	-0.12994155
27	0xbd039c26	-0.032131337
28	0xbe4c8607	-0.19973002
29	0xbdcc4087	-0.09973245
30	0x00000000	0.0
31	0xbc37c530	-0.011216447
32	0x00000000	0.0
33	0xbcd98a1e	-0.026555117
34	0xbd6c3803	-0.057670604
35	0x3c28adc8	0.010295339
36	0xbe2c9d58	-0.16856897
37	0xbcf060d2	-0.029343043
38	0x3ca3ba1b	0.019986203
39	0xbdb9aad3	-0.09065785
40	0xbb071671	-0.0020612741
41	0xbd00aaa3	-0.03141273
42	0xbd647118	-0.055771917
43	0xbdc60ba0	-0.09670186
44	0xbd02c405	-0.03192522
45	0xbdd1f452	-0.102516785
46	0xbe540e8c	-0.20708674
47	0xbe339650	-0.17537808
48	0xbe17c3f7	-0.14820848
49	0x00000000	0.0
50	0xbb12f582	-0.0022424166
51	0xbdcccfec	-0.100005955
52	0x00000000	0.0
53	0x00000000	0.0
54	0x00000000	0.0
55	0x00000000	0.0
56	0xbb56f55c	-0.0032800054
57	0xbed29f8e	-0.41137356
58	0xbd81678b	-0.063185774
59	0xbd971a6f	-0.07378089
60	0x3d9c4717	0.07630747
61	0xbce6d48b	-0.02817752
62	0xbec4e03b	-0.38452324
63	0xbcf67cf8	-0.030088887
64	0xbd51aef7	-0.05119225
65	0x00000000	0.0
66	0x3da2a38f	0.079413526
67	0xbb4a01fb	-0.0030823934
68	0xbd7c8f59	-0.061660144
69	0x00000000	0.0
70	0xbd022d5a	-0.031781532
71	0x3e0c9d92	0.13731983
72	0xbd6013f0	-0.054706514
73	0xbd021c04	-0.031765
74	0x00000000	0.0
75	0xbd6af0c6	-0.057358526
76	0xbddab39b	-0.10678788
77	0xbca2b277	-0.01986049
78	0xbe0a0094	-0.13476783
79	0x00000000	0.0
80	0x3e773181	0.24139978
81	0xbcb6c132	-0.02230892
82	0x00000000	0.0
83	0xbd021cca	-0.031765737
84	0x00000000	0.0
85	0x00000000	0.0
86	0xbdfee1af	-0.124453895
87	0x00000000	0.0
88	0xbd9fba28	-0.07799178
89	0xbe27514c	-0.16339606
90	0xbe306131	-0.17224576
91	0x3d80c463	0.06287458
92	0xbd053d7a	-0.03252933
93	0x00000000	0.0
94	0xbcaba6ec	-0.020953618
95	0xbe54835c	-0.20753235
96	0xbd5ad08e	-0.05342155
97	0xbc61aeef	-0.013774618
98	0xbd48598e	-0.04891353
99	0x00000000	0.0
100	0xbdbf945c	-0.09354469
101	0xbe5251f0	-0.20539069
102	0xbd9a6483	-0.07538702
103	0x3e8cf4a4	0.27530396
104	0xbdc907f3	-0.09815969
105	0x3ddb4049	0.10705621
106	0xbd4a2990	-0.049356043
107	0xbdd96f94	-0.10616985
108	0xbd6cc65e	-0.057806365
109	0xbe299d82	-0.1656399
110	0x3ead8ebd	0.33897963
111	0xbc393311	-0.011303679
112	0xbd8bfc94	-0.06835285
113	0xbcbe8228	-0.023255423
114	0xbd9e10b5	-0.0771803
115	0x00000000	0.0
116	0xbcf3f9ba	-0.029782165
117	0xbd8d4801	-0.06898499
118	0xbde5e8dc	-0.11226055
119	0xbd579dbf	-0.052640673
120	0x00000000	0.0
121	0x00000000	0.0
122	0x00000000	0.0
123	0x3da8fe30	0.082516074
124	0xbe109b91	-0.14121844
125	0x3e69e268	0.22840273
126	0x3d5d9407	0.054096248
127	0xbd59ead7	-0.053202476

net.2.weight f4 [64, 128]
0	0xbe582813	-0.21109037
1	0xbe30b871	-0.17257859
2	0x3e17de31	0.14830853
3	0xbdbbd046	-0.091705844
4	0x3deeb491	0.11655534
5	0x3c79788b	0.015226494
6	0xbddfccc2	-0.10927726
7	0x3dbf95b3	0.09354725
8	0xbe271286	-0.1631566
9	0x3d37b9c2	0.044854887
10	0xbd78d9b5	-0.060754497
11	0xbe18641d	-0.1488194
12	0x3d7cbbfb	0.06170271
13	0x3d6a857e	0.057256214
14	0x3d9c654b	0.076365076
15	0xbda362cd	-0.07977829
16	0x3dd9b1d1	0.10629619
17	0xbcdc7bb9	-0.026914464
18	0xbe143e5b	-0.14476912
19	0x3d9445ca	0.07239874
20	0xbdc3e104	-0.09564403
21	0xbd8a3f45	-0.06750349
22	0x3cb0ab04	0.021565922
23	0xbe2d8816	-0.16946444
24	0xbe35e1e9	-0.17761959
25	0xbd8d5b17	-0.0690214
26	0x3e014196	0.12622675
27	0x3d226bc8	0.03965357
28	0xbd0ea812	-0.034828253
29	0x3cfe07af	0.031009523
30	0xbde85c5a	-0.1134574
31	0x3e1b9b31	0.1519592
32	0x3d8517b2	0.0649866
33	0xbcc53881	-0.024074795
34	0xbe1d2260	-0.15345144
35	0xbce8751d	-0.028376156
36	0x3d930e16	0.07180421
37	0x3d8cd5c5	0.06876711
38	0x3e21ddf3	0.15807323
39	0x3d9367b2	0.07197513
40	0x3c991cb0	0.018690437
41	0x3e20d1a2	0.15704969
42	0xbe3fd967	-0.18735276
43	0x3db0c0b8	0.08630508
44	0x3e1dd78e	0.15414259
45	0x3da5c3be	0.080939755
46	0x3dda8734	0.10670319
47	0x3e0c579b	0.13705294
48	0x3da92148	0.08258301
49	0x3c875e1c	0.016524367
50	0x3d9689e5	0.0735052
51	0x3e058f15	0.13042863
52	0xbe124ae6	-0.14286384
53	0xbcaccde2	-0.021094266
54	0xbd973665	-0.07383422
55	0x3c329438	0.010899596
56	0x3dc58d2c	0.09646067
57	0x3e219918	0.15781057
58	0x3e230ac4	0.15922076
59	0x3e2708b9	0.16311921
60	0x3c9c9eae	0.019118633
61	0xbd5b0bcc	-0.053478047
62	0xbdf3b3f1	-0.118995555
63	0xbdab3ea2	-0.08361556
64	0x3e2ce7fd	0.16885372
65	0xbd955083	-0.07290747
66	0xbe189dd5	-0.14903958
67	0x3d9f23de	0.07770513
68	0xbe05959d	-0.13045354
69	0xbdb24bf1	-0.08705891
70	0xbcfa8790	-0.03058222
71	0xbd96bb86	-0.07359986
72	0xbe1ad18a	-0.15118995
73	0x3c9607d4	0.01831428
74	0xbd303356	-0.043017708
75	0x3c74b1e0	0.014934987
76	0xbe1cffd7	-0.1533197
77	0x3e034b26	0.12821636
78	0x3dd9bd8b	0.106318556
79	0x3c67fa5d	0.014158812
80	0xbe2b5faf	-0.16735719
81	0x3e086839	0.13321008
82	0x3a3e4a00	0.00072589517
83	0x3ce3a5cc	0.027789019
84	0xbd9a5490	-0.0753566
85	0x3d922dbf	0.071376316
86	0xbd85fdd0	-0.065425515
87	0x3dae1565	0.085001744
88	0xbda1b25c	-0.078953475
89	0xba33fea8	-0.0006866255
90	0xbd98f8a5	-0.074693
91	0xbe52127d	-0.20514865
92	0xbe89db58	-0.26925159
93	0xbd799412	-0.060932226
94	0xbd759a5d	-0.059961665
95	0x3d6e10ca	0.05812148
96	0x3e34e3ff	0.17665099
97	0xbe11b897	-0.14230572
98	0x3e1c7c80	0.15281868
99	0xbd272839	-0.040809844
100	0xbdcf82c8	-0.101323664
101	0x3c7dca13	0.015490073
102	0xbe4676b1	-0.19381215
103	0x3dd1f0f1	0.10251034
104	0x3e29f991	0.16599108
105	0x3e27556f	0.16341184
106	0x3ca82482	0.02052522
107	0xbe38bc63	-0.18040614
108	0xbcdd449b	-0.027010253
109	0xbdd98619	-0.1062128
110	0xbba4462d	-0.0050132484
111	0x3c604d9a	0.013690377
112	0xbdadf96b	-0.08494838
113	0xbd953b59	-0.0728671
114	0xbe099631	-0.134362
115	0x3a1dd9bd	0.000602152
116	0xbe1fad96	-0.15593562
117	0xbe2887be	-0.16458032
118	0x3e015d87	0.12633334
119	0xbd4f6b5e	-0.050639503
120	0xbd7b4a47	-0.061350133
121	0xbc2545e9	-0.010087469
122	0xbcc4242f	-0.023943035
123	0x3d143b46	0.03618934
124	0x3e2d6d14	0.16936141
125	0xbe0160c8	-0.12634575
126	0xbd88815c	-0.06665298
127	0x3c8ada79	0.016949879
128	0xbe22214a	-0.15833011
129	0xbe0f7f26	-0.14013347
130	0x3db3e9df	0.08784842
131	0xbdafa1c9	-0.0857578
132	0x3e29d5aa	0.16585413
133	0x3e03d59e	0.12874457
134	0xbdb3f905	-0.08787731
135	0xbe1c2db5	-0.15251811
136	0xbdd33bf3	-0.10314169
137	0x3e0e9b46	0.1392642
138	0xbcbe7929	-0.023251133
139	0x3d30a325	0.043124337
140	0xbd47ef39	-0.048812125
141	0xbde0dc12	-0.10979475
142	0x3e28d504	0.16487509
143	0x3e267846	0.16256818
144	0x3e16efba	0.14739886
145	0x3a4feee5	0.00079320214
146	0x3dfce99a	0.123492435
147	0x3d91fd97	0.071284465
148	0xbd74736c	-0.059680387
149	0xbd9f0536	-0.07764666
150	0xbd89b85b	-0.06724616
151	0xbd8ed601	-0.06974412
152	0xbde0147b	-0.10941406
153	0x3dc9ecb8	0.09859604
154	0x3c187bee	0.009306891
155	0xbe061167	-0.13092576
156	0xbdf63c7c	-0.12023255
157	0x3d02865c	0.031866416
158	0x3d5b6d72	0.053571172
159	0xbdbc2ed7	-0.091886215
160	0xbc4260c8	-0.011863895
161	0xbd9c3114	-0.076265484
162	0x3ddb1e92	0.1069919
163	0x3d6b43e6	0.0574378
164	0xbdc21d91	-0.094782956
165	0xbd344ad9	-0.044016693
166	0x3d70a033	0.058746528
167	0x3db2057a	0.08692451
168	0x3cdd2e90	0.026999742
169	0xbd91bcee	-0.071161136
170	0xbdd010db	-0.10159465
171	0x3dc6af00	0.09701347
172	0x3dd1a855	0.10237185
173	0xbe208761	-0.15676643
174	0x3c78598b	0.015158067
175	0x3dcc2b4e	0.09969197
176	0xbdd2d13c	-0.102938145
177	0xbdc0e070	-0.09417808
178	0x3967ff50	0.00022124988
179	0xbe64c722	-0.22341588
180	0x3c70e93c	0.014704045
181	0xbd3a6f2a	-0.04551617
182	0x3db64186	0.08899216
183	0xbdb3878e	-0.087660894
184	0x3dc8cf2c	0.0980514
185	0xbcd9251b	-0.026506951
186	0xbe0bd22d	-0.13654394
187	0xbdc9eb4a	-0.09859331
188	0xbdf49c6c	-0.119438976
189	0xbe02a61e	-0.12758681
190	0xbc1a379d	-0.009412673
191	0xbca0eafa	-0.019643296
192	0xbe09b27f	-0.13446997
193	0x3dae3016	0.085052654
194	0xbad9dd30	-0.0016621705
195	0x3e2f854a	0.1714069
196	0x3dd7eff4	0.10543814
197	0x3dbc201a	0.091858104
198	0xbe0b96d4	-0.13631755
199	0xbc054bfc	-0.008135792
200	0x3e0ec0c5	0.13940723
201	0x3e2bd8ad	0.16781874
202	0xbc8d6575	-0.017260293
203	0x3d9e0772	0.07716264
204	0xbdd6dda1	-0.10491491
205	0xbe3c8f38	-0.18414009
206	0xbbf12a12	-0.0073597515
207	0x3d62a27c	0.05533074
208	0xbe59ff1b	-0.21288721
209	0x3cb159b0	0.021649212
210	0x3defb309	0.1170407
211	0x3df743a5	0.12073449
212	0x3dd60aeb	0.10451301
213	0x3d8726db	0.06599208
214	0x3d3f0818	0.04663858
215	0xbdc988ff	-0.09840583
216	0xbc459f5e	-0.012061922
217	0x3d4a81eb	0.049440306
218	0xbdb2a4a3	-0.08722808
219	0xbcc47454	-0.02398125
220	0xbd78eaaf	-0.060770687
221	0x3e335014	0.17511016
222	0xbbbdf361	-0.0057968353
223	0xbd1ba14b	-0.037995618
224	0xbdbdbf4b	-0.09265002
225	0xbe089a52	-0.13340119
226	0xbcb4b452	-0.02205864
227	0xbe1e4925	-0.1545759
228	0xbdd40575	-0.10352603
229	0xbe0a01e7	-0.13477288
230	0xbdb9c085	-0.09069923
231	0x3dad96f7	0.0847606
232	0xbe333f45	-0.17504604
233	0xbc403ad8	-0.011732779
234	0x3de9c8be	0.11415242
235	0x3db817c1	0.08988906
236	0xbe41e199	-0.18933715
237	0xbde10563	-0.109873556
238	0xbd82b8ff	-0.063829415
239	0xbd95cd15	-0.07314507
240	0xbe28848f	-0.16456817
241	0xbe2a9ce8	-0.16661417
242	0x3df473a0	0.11936116
243	0xbdd713b8	-0.10501808
244	0xbdc9c218	-0.098514736
245	0xbdf2dcd7	-0.11858528
246	0x3db72ef6	0.08944504
247	0x39bff845	0.00036615334
248	0xbe223f9a	-0.15844575
249	0xbd498ea4	-0.0492083
250	0x3c9c9f84	0.019119032
251	0xbdb5d537	-0.08878558
252	0x3d7dc22c	0.061952755
253	0xbe504c92	-0.2034171
254	0x3de9f948	0.114245
255	0x3e0a7d73	0.13524418

net.2.bias f4 [64]
0	0xbcf7dfe1	-0.030258121
1	0xbd55c69c	-0.05219136
2	0xbd8ddf17	-0.06927317
3	0x3d9e7fa8	0.07739192
4	0xbe6a499b	-0.22879641
5	0xbd94e9b8	-0.07271141
6	0x3a54d9e9	0.00081196293
7	0xbd10e3d9	-0.035373542
8	0xbd23e6dd	-0.04001509
9	0xbedde4b4	-0.4333855
10	0xbe41e9ff	-0.18936919
11	0xbd1ec97e	-0.038766377
12	0xbdc90fe7	-0.09817486
13	0x3d122fb0	0.03569001
14	0xbcfa5264	-0.030556865
15	0xbd8d3f19	-0.068968005
16	0xbd9466ea	-0.07246192
17	0xbd40a3f4	-0.047031358
18	0xbd00f119	-0.03147993
19	0xbd193358	-0.03740248
20	0x3d65bd31	0.05608863
21	0xbd2816b3	-0.041037273
22	0xbdaf1190	-0.08548272
23	0x3cc9e0c3	0.024643308
24	0xbcd86e90	-0.026419908
25	0xbd240c39	-0.04005072
26	0xbd280b3a	-0.04102633
27	0xbde77604	-0.113018066
28	0x3c6430e7	0.013927675
29	0xbdb2fffb	-0.08740231
30	0xbc2d844c	-0.010590624
31	0xbd86daa8	-0.06584674
32	0xbdb7838f	-0.0896064
33	0xbd2dade2	-0.042402156
34	0x3e858d68	0.26084447
35	0xbd021bc3	-0.031764757
36	0xbd845224	-0.064609796
37	0x3d697940	0.0570004
38	0x3eb84da2	0.3599673
39	0xbd0b567f	-0.034018036
40	0xbd3022bc	-0.043001875
41	0xbd83088a	-0.06398113
42	0xbd81fad8	-0.06346673
43	0xbd27e111	-0.040986124
44	0x3e77b862	0.2419143
45	0xbd1bbe9f	-0.038023587
46	0xbcdd50c9	-0.02701606
47	0xbb8e7c27	-0.004348296
48	0xbdb023fe	-0.08600615
49	0xbb47076c	-0.0030369414
50	0xbd32d916	-0.04366406
51	0x00000000	0.0
52	0xbd4ea94d	-0.050454427
53	0xbd82190d	-0.06352434
54	0x00000000	0.0
55	0xbd217311	-0.039416377
56	0xbdb56240	-0.0885663
57	0xbcbe5ac9	-0.02323665
58	0xbd9b1c0a	-0.075737074
59	0x3b4c6884	0.0031190226
60	0xbd0b7bc1	-0.034053568
61	0xbdea9057	-0.11453312
62	0xbd401d97	-0.04690322
63	0xbd93bc12	-0.07213606

net.4.weight f4 [16, 64]
0	0xbd37455e	-0.044743888
1	0x3e273970	0.16330504
2	0x3e2eed60	0.17082739
3	0xbed4c9bc	-0.4156016
4	0x3e2a6815	0.16641267
5	0x3da88d69	0.08230097
6	0xbd9f5f0c	-0.07781801
7	0x3e4abbc0	0.19798183
8	0x3e25a93a	0.16177836
9	0x3e4dc412	0.20094326
10	0xbe938860	-0.28814983
11	0x3e5c8bef	0.21537755
12	0xbe595dd0	-0.21227193
13	0x3e8c7b75	0.2743794
14	0x3e257dfc	0.1616134
15	0x3e3657ca	0.17806926
16	0xbd5480da	-0.051880695
17	0xbd4b624c	-0.04965429
18	0xbe8d0243	-0.27540788
19	0xbdf2a45f	-0.118477575
20	0x3bb85415	0.0056252577
21	0xbe40b1c6	-0.18817815
22	0x3da422dc	0.080144614
23	0x3d9b0de8	0.07571012
24	0x3e10dfaf	0.14147829
25	0xbe06f799	-0.13180389
26	0xbdc0aa41	-0.09407473
27	0xbe73df01	-0.23815538
28	0xbd82616f	-0.0636624
29	0x3daa8d0f	0.08327686
30	0x3cc1176e	0.023570742
31	0xbe0d11e9	-0.13776363
32	0x3e824027	0.2543957
33	0x3e67ba0b	0.22629564
34	0xbe637576	-0.22212777
35	0x3d948ce0	0.07253432
36	0xbe23b983	-0.15988736
37	0xbeb9bb19	-0.36275557
38	0x3e961485	0.2931253
39	0x3d438735	0.047736365
40	0xbcad7170	-0.021172255
41	0x3e2ce40e	0.16883871
42	0xbe568666	-0.20949706
43	0xbbe8a50e	-0.007099754
44	0xbe803d85	-0.25046936
45	0x3dc6415b	0.09680434
46	0xbc859cdb	-0.016310146
47	0x3e5d29d1	0.21597983
48	0x3c826a31	0.015919777
49	0x3db88b41	0.090109356
50	0xbe6eb78b	-0.23312204
51	0x3d830da7	0.06399088
52	0x3e1b4f79	0.15167035
53	0x3e3d049c	0.1845879
54	0xbd39ea0c	-0.04538922
55	0x3e253fcb	0.16137616
56	0x3e244250	0.16040921
57	0xbe48efec	-0.19622773
58	0xbd95351b	-0.0728552
59	0x3e68322a	0.22675386
60	0xbe4f1f20	-0.20226717
61	0x3d50a2cd	0.05093651
62	0x3bb34fb7	0.0054721492
63	0x3d307c4e	0.043087296
64	0x3d74ae1f	0.059736367
65	0x3e6bd05d	0.23028703
66	0x3e0a53ac	0.13508481
67	0xbe620234	-0.22071153
68	0x3e1e9925	0.15488108
69	0x3d816bfb	0.06319424
70	0x3ce6182b	0.028087696
71	0x3cffba10	0.031216651
72	0x3d496223	0.049165856
73	0xbd7126de	-0.058874957
74	0xbde2e2e0	-0.11078429
75	0x3e2da777	0.16958414
76	0xbd789495	-0.060688574
77	0xbe3042ff	-0.17213057
78	0xbe11643f	-0.14198397
79	0x3def7847	0.11692863
80	0xbdb0a73a	-0.08625646
81	0xbdcec3a6	-0.10095911
82	0xbdc70dba	-0.09719415
83	0xbd360aea	-0.044444002
84	0x3d9fa64c	0.077953905
85	0xbe1e72e1	-0.1547351
86	0xbe2c4d6f	-0.16826414
87	0x3e5eb821	0.21749927
88	0xbc6cbbff	-0.014449119
89	0xbdd790ea	-0.10525687
90	0x3d7604b9	0.060063098
91	0xbd10bada	-0.035334446
92	0xbe32db1e	-0.17466399
93	0xbcd22980	-0.025654554
94	0xbe570fe9	-0.21002163
95	0x3d0c5ea3	0.03426994
96	0xbe6025df	-0.21889447
97	0x3de84fd9	0.11343355
98	0xbc03fc12	-0.008055704
99	0x3dee464e	0.11634503
100	0xbded024b	-0.11572703
101	0x3e8ab14c	0.27088392
102	0xbde0b5b9	-0.10972161
103	0xbdb69cc1	-0.08916617
104	0x3d3dd153	0.046342205
105	0x3dc2be47	0.09508949
106	0x3cef7932	0.029232595
107	0x3e167087	0.14691363
108	0x3e34561a	0.1761097
109	0xbc1905e7	-0.009339786
110	0x3e1f2c74	0.15544301
111	0xbe326765	-0.17422254
112	0x3e481877	0.19540583
113	0x3dca9294	0.09891239
114	0x3d3e41bd	0.04644941
115	0x3e74af2a	0.23894945
116	0xbe77fa6e	-0.24216625
117	0x3e2364ad	0.15956374
118	0x3d9a2ac0	0.07527685
119	0xbd83c6d5	-0.064344086
120	0x3c9ffc79	0.019529568
121	0xbe0b6b0f	-0.13615058
122	0x3cfb207c	0.030655138
123	0xbd3bd827	-0.045860436
124	0x3d9e38e3	0.07725694
125	0x3acd1ee8	0.001564947
126	0x3d153bbb	0.036433917
127	0x3db8c720	0.09022355
128	0xbe06c24e	-0.13160059
129	0xbe0a39f3	-0.13498668
130	0xbd9e2b43	-0.07723095
131	0x3d99d41b	0.07511159
132	0xbe1de3d9	-0.15418948
133	0xbd93bb10	-0.07213414
134	0x3dad9aa8	0.08476764
135	0xbdafd964	-0.08586386
136	0x3e6d6eb5	0.23186763
137	0xbe976f99	-0.2957733
138	0xbcd6e7f2	-0.026233647
139	0xbdc3cc40	-0.09560442
140	0xbe88dde4	-0.2673179
141	0x3e8d1e46	0.2756216
142	0x3e05fbbd	0.13084312
143	0xbde75500	-0.11295509
144	0x3e51f4cb	0.20503537
145	0x3e679789	0.226164
146	0x3dc11668	0.09428102
147	0xbe59cfda	-0.21270695
148	0x3d5e7b9c	0.0543171
149	0x3cad97fb	0.021190634
150	0x3dc236be	0.094830975
151	0xbc97fb61	-0.018552484
152	0x3e55e006	0.2088624
153	0x3d963454	0.073341995
154	0xbe50e5ab	-0.20400111
155	0x3e6c5f54	0.2308324
156	0x3e406fcd	0.18792649
157	0xbe6da899	-0.23208846
158	0xbe875142	-0.26429182
159	0xbe5d69c5	-0.21622379
160	0xbbcfbb41	-0.006339461
161	0x3ddd9cdc	0.10820934
162	0xbeaa0767	-0.33208773
163	0x3b978fa9	0.00462528
164	0xbe6094a3	-0.219317
165	0xbde2945f	-0.11063456
166	0xbcb220d3	-0.021744167
167	0x3e83a9cd	0.25715485
168	0x3e38ea58	0.18058145
169	0x3d297e3d	0.041380156
170	0xbdb3f3bf	-0.08786725
171	0x3cb5e371	0.02220318
172	0x3dd712d2	0.105016366
173	0xbbdd8e47	-0.0067613455
174	0xbe402f3b	-0.18768017
175	0xbe10c61e	-0.14138076
176	0xbe62f9a1	-0.22165538
177	0xbe4d0238	-0.20020378
178	0x3c57ac14	0.013163585
179	0xbd9fba78	-0.07799238
180	0x3de0f03a	0.109833196
181	0xbda2c0d0	-0.07946932
182	0x3cc60f29	0.02417715
183	0xbe11d75e	-0.14242312
184	0xbe0aaf1c	-0.13543361
185	0x3deb9c26	0.11504392
186	0xbdfb2c7a	-0.122643426
187	0xbda03e39	-0.07824368
188	0xbe409cd3	-0.18809824
189	0xbe3be977	-0.18350779
190	0x3dedb95f	0.11607622
191	0x3e808f35	0.25109258
192	0x3e582999	0.21109618
193	0x3da069a3	0.078326486
194	0xbc7a2f1b	-0.01527002
195	0xbe73dae6	-0.23813972
196	0xbd78aa84	-0.06070949
197	0x3d3f9578	0.046773404
198	0x3df930a3	0.1216748
199	0x3e5708a0	0.20999384
200	0x3e368d55	0.17827351
201	0xbcbcb764	-0.023036666
202	0xbd0649d1	-0.03278524
203	0xbe277793	-0.16354208
204	0xbcfc2901	-0.030781271
205	0xbe1beb03	-0.15226369
206	0x3e3f464a	0.18679157
207	0x3e2e12dd	0.16999383
208	0xbe0b6580	-0.13612938
209	0x3da21ae8	0.07915288
210	0xbe8275d5	-0.25480524
211	0xbe62236d	-0.22083826
212	0x3da64841	0.0811925
213	0x3e446261	0.19178154
214	0xbe0de0c2	-0.1385527
215	0x3e5a4a3e	0.21317384
216	0x3e65ff38	0.2246064
217	0xbe30b2b0	-0.17255664
218	0xbd5db24b	-0.05412511
219	0xbe55f325	-0.20893534
220	0xbda8d308	-0.08243376
221	0xbe8ccc47	-0.274996
222	0xbe953699	-0.29143217
223	0x3e316c59	0.17326488
224	0x3c163500	0.00916791
225	0xbd56ddcb	-0.052457612
226	0xbd8dd798	-0.06925887
227	0xbe84a187	-0.25904486
228	0xbdfdd13d	-0.12393425
229	0x3e30101e	0.17193648
230	0xbe983403	-0.29727182
231	0xbe4b9ba2	-0.19883588
232	0xbd869cbb	-0.06572863
233	0xbe26b558	-0.16280115
234	0xbe35a29a	-0.17737809
235	0x3d9ff7fe	0.07810973
236	0xbdb6a98e	-0.08919059
237	0xbe1c49aa	-0.15262476
238	0xbd26a988	-0.04068902
239	0xbd8b8b58	-0.06813687
240	0xbdafc120	-0.085817575
241	0x3de1c358	0.11023587
242	0x3e494484	0.19655043
243	0xbe24845b	-0.16066115
244	0xbe94e507	-0.29080984
245	0xbdfaa2c6	-0.12238078
246	0xbdcb21ff	-0.099185936
247	0xbdb3c030	-0.08776891
248	0xbcb66db4	-0.022269107
249	0x3e25cef3	0.16192226
250	0x3dc491c0	0.09598112
251	0xbdf3218f	-0.11871635
252	0x3c71e8e4	0.014764998
253	0xbe5cd99d	-0.21567388
254	0x3e74e299	0.23914565
255	0x3d60b234	0.054857448

net.4.bias f4 [16]
0	0xbea5aefe	-0.3236007
1	0x3d3ed44e	0.04658919
2	0x3e0a4641	0.13503362
3	0xbd71a221	-0.05899251
4	0xbd89f117	-0.06735437
5	0x3e5fb25f	0.21845387
6	0xbe1a6b09	-0.15079893
7	0xbd8ef439	-0.069801755
8	0x3c38ad74	0.011271823
9	0x3e92c419	0.28665236
10	0xbbdb225e	-0.0066874465
11	0xbd097cef	-0.03356641
12	0xbe4d7468	-0.20063937
13	0xbdd6c657	-0.10487049
14	0x00000000	0.0
15	0x3effb6d8	0.49944186

net.6.weight f4 [1, 16]
0	0xbd8bcdc3	-0.06826355
1	0x3ec34e3e	0.38145632
2	0x3d9ba899	0.07600517
3	0xbe817567	-0.25284883
4	0xbd871fd7	-0.0659787
5	0x3cb26f72	0.021781657
6	0x3cb57121	0.02214867
7	0xbeb36e7c	-0.3504523
8	0x3eb0e03c	0.34546077
9	0x3e2a16e5	0.16610296
10	0xbbcbbb8d	-0.006217426
11	0x3cde5a5f	0.027142702
12	0xbe1386f2	-0.14406946
13	0xbee06a15	-0.43830934
14	0xbed6bd93	-0.4194151
15	0x3e08d2b4	0.13361627

exp_avg f4 [128, 48]
0	0x00000004	6e-45
1	0x00000004	6e-45
2	0x00000004	6e-45
3	0x00000004	6e-45
4	0x00000004	6e-45
5	0x00000004	6e-45
6	0x00000004	6e-45
7	0x00000004	6e-45
8	0x00000004	6e-45
9	0x00000004	6e-45
10	0x00000004	6e-45
11	0x00000004	6e-45
12	0x00000004	6e-45
13	0x00000004	6e-45
14	0x00000004	6e-45
15	0x00000004	6e-45
16	0x00000004	6e-45
17	0x00000004	6e-45
18	0x80000004	-6e-45
19	0x00000004	6e-45
20	0x00000004	6e-45
21	0x00000004	6e-45
22	0x00000004	6e-45
23	0x00000004	6e-45
24	0x00000004	6e-45
25	0x00000004	6e-45
26	0x00000004	6e-45
27	0x00000004	6e-45
28	0x00000004	6e-45
29	0x00000004	6e-45
30	0x00000004	6e-45
31	0x00000004	6e-45
32	0x00000004	6e-45
33	0x00000004	6e-45
34	0x00000004	6e-45
35	0x00000004	6e-45
36	0x00000004	6e-45
37	0x00000004	6e-45
38	0x00000004	6e-45
39	0x00000004	6e-45
40	0x00000004	6e-45
41	0x00000004	6e-45
42	0x00000004	6e-45
43	0x00000004	6e-45
44	0x80000004	-6e-45
45	0x80000004	-6e-45
46	0x80000004	-6e-45
47	0x80000004	-6e-45
48	0xbea0705a	-0.31335717
49	0xbec5b29c	-0.3861283
50	0xbd9cc99a	-0.0765564
51	0xbd817a39	-0.0632214
52	0xbeb50b3a	-0.35360128
53	0xbe9a9ff3	-0.30200157
54	0xbeb0eb9f	-0.34554765
55	0xb43b832e	-1.7463455e-07
56	0xc12c75af	-10.778731
57	0xc1643305	-14.262456
58	0xc0fec5cf	-7.9616466
59	0xbecef263	-0.404193
60	0xc122f086	-10.183722
61	0xc135ab87	-11.354377
62	0xc1301a3f	-11.006408
63	0x00000004	6e-45
64	0xbc086288	-0.008324273
65	0xbc1344e6	-0.008988595
66	0xbb985c8c	-0.0046497043
67	0xbaae9dab	-0.0013322135
68	0xbc2f7460	-0.010708898
69	0xbbd7d4c0	-0.006586641
70	0xbc0b51d2	-0.008503394
71	0x395d0eb0	0.00021081674
72	0x396dfca0	0.00022696191
73	0x38e6f2c3	0.000110124725
74	0xba742e3f	-0.00093147525
75	0xba742e3f	-0.00093147525
76	0xbeb806fd	-0.35942832
77	0x38be57f7	9.076291e-05
78	0xba99a226	-0.0011721298
79	0xbc6b174a	-0.014348814
80	0xbaec5dcf	-0.0018033328
81	0x3b82cdf7	0.003991838
82	0xbe1e5fb2	-0.15466192
83	0xb95a1a7e	-0.00020799969
84	0xbb94a710	-0.004536517
85	0xbc397997	-0.011320493
86	0x370af460	8.282339e-06
87	0x370af460	8.282339e-06
88	0x39252932	0.00015750973
89	0xba81e915	-0.0009911383
90	0x3a305ffb	0.00067281694
91	0xbea8d1cc	-0.32972562
92	0x387a3e84	5.9662867e-05
93	0xba081b0a	-0.00051920174
94	0xbcab5556	-0.020914715
95	0xb8f36a25	-0.00011606914
96	0x00000004	6e-45
97	0x00000004	6e-45
98	0x00000004	6e-45
99	0x00000004	6e-45
100	0x00000004	6e-45
101	0x00000004	6e-45
102	0x00000004	6e-45
103	0x80000004	-6e-45
104	0x00000004	6e-45
105	0x00000004	6e-45
106	0x00000004	6e-45
107	0x00000004	6e-45
108	0x00000004	6e-45
109	0x00000004	6e-45
110	0x00000004	6e-45
111	0x80000004	-6e-45
112	0x00000004	6e-45
113	0x00000004	6e-45
114	0x00000004	6e-45
115	0x00000004	6e-45
116	0x00000004	6e-45
117	0x00000004	6e-45
118	0x00000004	6e-45
119	0x00000004	6e-45
120	0x00000004	6e-45
121	0x00000004	6e-45
122	0x00000004	6e-45
123	0x00000004	6e-45
124	0x00000004	6e-45
125	0x00000004	6e-45
126	0x00000004	6e-45
127	0x00000004	6e-45
128	0x00000004	6e-45
129	0x00000004	6e-45
130	0x00000004	6e-45
131	0x00000004	6e-45
132	0x00000004	6e-45
133	0x00000004	6e-45
134	0x00000004	6e-45
135	0x00000004	6e-45
136	0x00000004	6e-45
137	0x00000004	6e-45
138	0x00000004	6e-45
139	0x00000004	6e-45
140	0x80000004	-6e-45
141	0x80000004	-6e-45
142	0x80000004	-6e-45
143	0x80000004	-6e-45
144	0x00000004	6e-45
145	0x00000004	6e-45
146	0x00000000	0.0
147	0x00000004	6e-45
148	0x00000004	6e-45
149	0x00000000	0.0
150	0x00000004	6e-45
151	0x00000004	6e-45
152	0x00000004	6e-45
153	0x00000004	6e-45
154	0x00000000	0.0
155	0x00000004	6e-45
156	0x00000004	6e-45
157	0x00000000	0.0
158	0x00000004	6e-45
159	0x00000004	6e-45
160	0x00000004	6e-45
161	0x00000004	6e-45
162	0x00000000	0.0
163	0x00000004	6e-45
164	0x00000004	6e-45
165	0x00000000	0.0
166	0x00000004	6e-45
167	0x00000004	6e-45
168	0x00000004	6e-45
169	0x00000004	6e-45
170	0x00000004	6e-45
171	0x00000004	6e-45
172	0x00000004	6e-45
173	0x00000004	6e-45
174	0x00000004	6e-45
175	0x00000004	6e-45
176	0x00000004	6e-45
177	0x00000004	6e-45
178	0x00000004	6e-45
179	0x00000004	6e-45
180	0x00000004	6e-45
181	0x00000004	6e-45
182	0x00000004	6e-45
183	0x00000004	6e-45
184	0x00000004	6e-45
185	0x00000004	6e-45
186	0x00000004	6e-45
187	0x00000004	6e-45
188	0x00000000	0.0
189	0x00000004	6e-45
190	0x00000004	6e-45
191	0x00000004	6e-45
192	0x00000004	6e-45
193	0x00000004	6e-45
194	0x00000004	6e-45
195	0x00000004	6e-45
196	0x00000004	6e-45
197	0x00000004	6e-45
198	0x00000004	6e-45
199	0x00000004	6e-45
200	0x00000004	6e-45
201	0x00000004	6e-45
202	0x00000004	6e-45
203	0x00000004	6e-45
204	0x00000004	6e-45
205	0x00000004	6e-45
206	0x00000004	6e-45
207	0x00000000	0.0
208	0x00000004	6e-45
209	0x00000004	6e-45
210	0x00000004	6e-45
211	0x00000004	6e-45
212	0x00000004	6e-45
213	0x00000004	6e-45
214	0x00000004	6e-45
215	0x00000004	6e-45
216	0x00000004	6e-45
217	0x00000004	6e-45
218	0x00000004	6e-45
219	0x00000004	6e-45
220	0x00000004	6e-45
221	0x00000004	6e-45
222	0x00000004	6e-45
223	0x00000004	6e-45
224	0x00000004	6e-45
225	0x00000004	6e-45
226	0x00000004	6e-45
227	0x00000004	6e-45
228	0x00000004	6e-45
229	0x00000004	6e-45
230	0x00000004	6e-45
231	0x00000004	6e-45
232	0x00000004	6e-45
233	0x00000004	6e-45
234	0x00000004	6e-45
235	0x00000004	6e-45
236	0x00000004	6e-45
237	0x80000004	-6e-45
238	0x00000004	6e-45
239	0x00000004	6e-45
240	0x00000004	6e-45
241	0x00000004	6e-45
242	0x00000004	6e-45
243	0x00000004	6e-45
244	0x00000004	6e-45
245	0x00000004	6e-45
246	0x00000004	6e-45
247	0x80000004	-6e-45
248	0x00000004	6e-45
249	0x00000004	6e-45
250	0x00000004	6e-45
251	0x00000004	6e-45
252	0x00000004	6e-45
253	0x00000004	6e-45
254	0x00000004	6e-45
255	0x80000004	-6e-45

exp_avg_sq f4 [128, 48]
0	0x2086b76f	2.282187e-19
1	0x213b07fc	6.336863e-19
2	0x1e44d208	1.0419587e-20
3	0x1ef90292	2.6364964e-20
4	0x20895b2a	2.326903e-19
5	0x2028fd5d	1.4313984e-19
6	0x20cf38ca	3.5104744e-19
7	0x136040fc	2.8304815e-27
8	0x263f8230	6.6442874e-16
9	0x2693be9e	1.0251841e-15
10	0x249ffcc8	6.9383486e-17
11	0x23ca82bb	2.195625e-17
12	0x264e5e27	7.159821e-16
13	0x26217c91	5.6026915e-16
14	0x26754b61	8.510361e-16
15	0x13134af9	1.8590973e-27
16	0x1b269e1f	1.378229e-22
17	0x1c00f68e	4.267031e-22
18	0x1885f716	3.4629187e-24
19	0x19c7447f	2.0603783e-23
20	0x1b4bc1cf	1.685439e-22
21	0x1a9bc499	6.442412e-23
22	0x1b5680ce	1.7743284e-22
23	0x159bd5c7	6.294128e-26
24	0x15ae285e	7.034173e-26
25	0x175817d4	6.982344e-25
26	0x18f6e3c6	6.3819502e-24
27	0x19039b9e	6.803968e-24
28	0x219629eb	1.0175491e-18
29	0x17916582	9.39603e-25
30	0x1b831cf6	2.1690848e-22
31	0x1c974d61	1.0012344e-21
32	0x1892a2a4	3.790434e-24
33	0x1d0aab38	1.8352666e-21
34	0x1d31bedb	2.3524425e-21
35	0x1708586a	4.4055564e-25
36	0x1cae6390	1.154009e-21
37	0x1bfd938d	4.1950691e-22
38	0x10503c2e	4.1067128e-29
39	0x124606d4	6.24862e-28
40	0x1698c820	2.468322e-25
41	0x18f627a0	6.362952e-24
42	0x18f627a0	6.362952e-24
43	0x219b5e7d	1.0528219e-18
44	0x16c8849e	3.2395436e-25
45	0x1788f57f	8.850766e-25
46	0x1bddc3e5	3.6687977e-22
47	0x15fd05a7	1.02194804e-25
48	0x43227da5	162.4908
49	0x43bf0c9b	382.09848
50	0x41e3337f	28.400145
51	0x4176b56b	15.4192915
52	0x432c3076	172.1893
53	0x42b740b5	91.62638
54	0x437c98ac	252.59637
55	0x392e884e	0.0001664471
56	0x48c38531	400425.53
57	0x490cb6d5	576365.3
58	0x481f8274	163337.81
59	0x46003225	8204.536
60	0x48d01c37	426209.72
61	0x48af51d6	359054.7
62	0x48e67cf2	472039.56
63	0x38cd70aa	9.796147e-05
64	0x3dd838c4	0.10557702
65	0x3e798af0	0.24369407
66	0x3cf163f3	0.029466605
67	0x3c30a925	0.010782515
68	0x3de7644e	0.112984285
69	0x3d5eeb11	0.054423396
70	0x3e2eb927	0.17062818
71	0x3888ea30	6.528606e-05
72	0x38afe752	8.387737e-05
73	0x3a2600fa	0.0006332543
74	0x3b766194	0.0037594782
75	0x3be72699	0.0070541617
76	0x43c20616	388.04755
77	0x39c3b96f	0.00037331457
78	0x3ddbcf4c	0.10732898
79	0x3f605035	0.87622386
80	0x3b151a31	0.0022751207
81	0x3ef6faa2	0.48238093
82	0x41bacc4e	23.349758
83	0x39896677	0.00026207019
84	0x3ed31aab	0.41231284
85	0x422fdc16	43.964928
86	0x33fd4c72	1.1795136e-07
87	0x36a33d5a	4.864921e-06
88	0x3a157394	0.00057011214
89	0x39ff261f	0.00048665793
90	0x3b6dde49	0.0036295822
91	0x45581421	3457.258
92	0x3b13c13d	0.00225456
93	0x3958d946	0.00020680306
94	0x3d84d1da	0.064853385
95	0x373c9f87	1.1242816e-05
96	0x2a95e987	2.662976e-13
97	0x2b3fac1e	6.809569e-13
98	0x2955465b	4.7356524e-14
99	0x28fdaa80	2.8162585e-14
100	0x2a9ae85f	2.7517135e-13
101	0x2a23c4ac	1.4545543e-13
102	0x2aee0afe	4.228492e-13
103	0x214bf452	6.910243e-19
104	0x30400b27	6.986504e-10
105	0x30a4b51d	1.1984046e-09
106	0x2f94bffb	2.7057453e-10
107	0x2dd329a4	2.4006415e-11
108	0x304d5433	7.469822e-10
109	0x301d0298	5.7119953e-10
110	0x306d8b08	8.6417673e-10
111	0x213e0fff	6.4395675e-19
112	0x254eb5bb	1.7929224e-16
113	0x260329bd	4.550632e-16
114	0x2454f46b	4.6177202e-17
115	0x23b328ee	1.9424553e-17
116	0x2553dd59	1.8376328e-16
117	0x24db19f6	9.502009e-17
118	0x259f40ca	2.7626006e-16
119	0x1fdc1d0a	9.3221665e-20
120	0x2003098f	1.1099294e-19
121	0x21878783	9.183825e-19
122	0x2301bb2d	7.03274e-18
123	0x236ef35e	1.2953541e-17
124	0x2b8a0efa	9.809647e-13
125	0x21b54f13	1.2285968e-18
126	0x2555113e	1.8480647e-16
127	0x26c69e4b	1.3781915e-15
128	0x22cc85ce	5.543598e-18
129	0x26933eac	1.0217161e-15
130	0x2979dbc8	5.5479736e-14
131	0x2194639c	1.0055236e-18
132	0x26c071b1	1.3353492e-15
133	0x28ee8f65	2.6485495e-14
134	0x1a149f49	3.0734352e-23
135	0x1c756c64	8.120379e-22
136	0x1ff598e4	1.0401447e-19
137	0x22ec3ef8	6.40346e-18
138	0x23036936	7.1238035e-18
139	0x2d750ae3	1.3929055e-11
140	0x21829a20	8.849939e-19
141	0x2065481d	1.9420915e-19
142	0x240bfb56	3.035371e-17
143	0x1e35fe26	9.634617e-21
144	0x1873a0fb	3.1488288e-24
145	0x1a417d83	4.0012852e-23
146	0x00000000	0.0
147	0x188d1662	3.6470247e-24
148	0x1941e54f	1.0024175e-23
149	0x00000000	0.0
150	0x1936979d	9.4397975e-24
151	0x10ea0b90	9.231454e-29
152	0x1e6ae4a9	1.2435143e-20
153	0x1faf62ce	7.427884e-20
154	0x00000000	0.0
155	0x1e4f04a9	1.09594525e-20
156	0x1fabfa1c	7.283509e-20
157	0x00000000	0.0
158	0x1f495108	4.2630433e-20
159	0x110413d3	1.0419073e-28
160	0x130e1056	1.7930974e-27
161	0x14f0178d	2.4243096e-26
162	0x00000000	0.0
163	0x1326777c	2.1011056e-27
164	0x12fe8259	1.6061787e-27
165	0x00000000	0.0
166	0x140ab39f	7.0026435e-27
167	0x0d90ae8a	8.916704e-31
168	0x0d90ae8a	8.916704e-31
169	0x0fc4b132	1.9395345e-29
170	0x111ef8cb	1.2540668e-28
171	0x1346932f	2.506368e-27
172	0x1aa64096	6.8760335e-23
173	0x1017b562	2.991923e-29
174	0x13052b52	1.6808319e-27
175	0x14e5e5f2	2.3213788e-26
176	0x107d7d83	4.9992143e-29
177	0x159f80a6	6.442256e-26
178	0x16cbb60c	3.2911307e-25
179	0x0f3dbbd6	9.354595e-30
180	0x169fc2e9	2.581084e-25
181	0x155af230	4.4215802e-26
182	0x0a43f5b9	9.435124e-33
183	0x0c6bc328	1.8162469e-31
184	0x10bf5b00	7.5476424e-29
185	0x121ccbf0	4.9476293e-28
186	0x121ccbf0	4.9476293e-28
187	0x1c2d71fd	5.7388225e-22
188	0x00000000	0.0
189	0x103ef78c	3.7661596e-29
190	0x16063813	1.0842128e-25
191	0x0f03e9b0	6.503805e-30
192	0x2be5cc77	1.6328179e-12
193	0x2be5ccca	1.6328269e-12
194	0x2be5cc77	1.6328179e-12
195	0x1ed6ba43	2.2735167e-20
196	0x2be5cc77	1.6328179e-12
197	0x2be5cc77	1.6328179e-12
198	0x2be5ccca	1.6328269e-12
199	0x114d65a8	1.6202974e-28
200	0x320b2d3b	8.101149e-09
201	0x320b2d3b	8.101149e-09
202	0x320b2d3b	8.101149e-09
203	0x230f36d7	7.763658e-18
204	0x320b2d3b	8.101149e-09
205	0x320b2d3b	8.101149e-09
206	0x320b2d3b	8.101149e-09
207	0x00000000	0.0
208	0x26a8d4f4	1.1715063e-15
209	0x26a8d4f4	1.1715063e-15
210	0x26a8d4f4	1.1715063e-15
211	0x199f4a4f	1.6470228e-23
212	0x26a8d4f4	1.1715063e-15
213	0x26a8d4f4	1.1715063e-15
214	0x26a8d4f4	1.1715063e-15
215	0x15d272ff	8.4999756e-26
216	0x15fba6c7	1.0164122e-25
217	0x1783f163	8.526611e-25
218	0x251612d6	1.3016808e-16
219	0x251612d6	1.3016808e-16
220	0x2d4cb92c	1.1637174e-11
221	0x1733345f	5.790412e-25
222	0x1b489838	1.6592797e-22
223	0x1cd54cf9	1.4115055e-21
224	0x251612d6	1.3016808e-16
225	0x251612e3	1.3016825e-16
226	0x2d4cb92c	1.1637174e-11
227	0x251612d6	1.3016808e-16
228	0x251612dd	1.3016817e-16
229	0x2d4cb92c	1.1637174e-11
230	0x117a76c7	1.9758124e-28
231	0x13599b4c	2.7465818e-27
232	0x16f90421	4.0230725e-25
233	0x251612d6	1.3016808e-16
234	0x251612d6	1.3016808e-16
235	0x2d4cb92c	1.1637174e-11
236	0x17de2bff	1.435752e-24
237	0x166d1a11	1.9152933e-25
238	0x191809ca	7.860193e-24
239	0x1372eb9d	3.066086e-27
240	0x310fdaf3	2.0933697e-09
241	0x3166855d	3.3545213e-09
242	0x2fa09c45	2.9214867e-10
243	0x2d5e02a5	1.2619826e-11
244	0x31122134	2.126467e-09
245	0x311220b9	2.1264397e-09
246	0x31122218	2.1265176e-09
247	0x257be7bd	2.1849296e-16
248	0x3672ba67	3.616931e-06
249	0x36978ebc	4.516767e-06
250	0x35db95f0	1.6360409e-06
251	0x31d29948	6.1292305e-09
252	0x36728754	3.6139581e-06
253	0x3672849b	3.6137997e-06
254	0x36728fd8	3.6144538e-06
255	0x24c4e47a	8.5388505e-17

exp_avg f4 [128]
0	0x00000004	6e-45
1	0xba742e37	-0.0009314748
2	0x00000004	6e-45
3	0x00000004	6e-45
4	0x00000004	6e-45
5	0x00000004	6e-45
6	0x00000004	6e-45
7	0x00000004	6e-45
8	0x00000004	6e-45
9	0x00000004	6e-45
10	0x00000004	6e-45
11	0x80000004	-6e-45
12	0x00000004	6e-45
13	0x00000004	6e-45
14	0x00000004	6e-45
15	0x00000004	6e-45
16	0xb993d204	-0.000281945
17	0x00000004	6e-45
18	0x00000004	6e-45
19	0x80000004	-6e-45
20	0x00000004	6e-45
21	0x00000004	6e-45
22	0x00000004	6e-45
23	0x00000004	6e-45
24	0xb9ea7756	-0.0004472087
25	0x80000004	-6e-45
26	0x00000004	6e-45
27	0x00000004	6e-45
28	0x00000004	6e-45
29	0x00000004	6e-45
30	0x00000000	0.0
31	0x00000004	6e-45
32	0x00000000	0.0
33	0x80000004	-6e-45
34	0x00000004	6e-45
35	0x00000004	6e-45
36	0x00000004	6e-45
37	0x00000004	6e-45
38	0x00000004	6e-45
39	0x00000004	6e-45
40	0x80000004	-6e-45
41	0x00000004	6e-45
42	0x00000004	6e-45
43	0x00000004	6e-45
44	0x00000004	6e-45
45	0x39edb2c2	0.00045337348
46	0xb95bfef4	-0.00020980445
47	0x00000004	6e-45
48	0x00000004	6e-45
49	0x00000000	0.0
50	0x80000004	-6e-45
51	0x00000004	6e-45
52	0x00000000	0.0
53	0x00000000	0.0
54	0x00000000	0.0
55	0x00000000	0.0
56	0x00000004	6e-45
57	0xb9b841a7	-0.0003514413
58	0x80000004	-6e-45
59	0x00000004	6e-45
60	0xba7e330b	-0.0009696937
61	0x00000004	6e-45
62	0x386d77fa	5.661694e-05
63	0x80000004	-6e-45
64	0x00000004	6e-45
65	0x00000000	0.0
66	0x80000004	-6e-45
67	0x00000004	6e-45
68	0x00000004	6e-45
69	0x00000000	0.0
70	0x80000004	-6e-45
71	0x1cb5e527	1.203681e-21
72	0x00000004	6e-45
73	0x00000004	6e-45
74	0x00000000	0.0
75	0x00000004	6e-45
76	0x00000004	6e-45
77	0x80000004	-6e-45
78	0x00000004	6e-45
79	0x00000000	0.0
80	0x39ddfb76	0.00042339758
81	0x00000004	6e-45
82	0x00000000	0.0
83	0x00000004	6e-45
84	0x00000000	0.0
85	0x00000000	0.0
86	0x00000004	6e-45
87	0x00000000	0.0
88	0x00000004	6e-45
89	0x00000004	6e-45
90	0x39629396	0.0002160802
91	0x398c031f	0.00026705206
92	0x80000004	-6e-45
93	0x00000000	0.0
94	0x00000004	6e-45
95	0x00000004	6e-45
96	0x00000004	6e-45
97	0x00000004	6e-45
98	0x00000004	6e-45
99	0x00000000	0.0
100	0x00000004	6e-45
101	0x3a757bd8	0.00093644625
102	0x00000004	6e-45
103	0x38f3c2a5	0.00011623398
104	0x00000004	6e-45
105	0xb82d7a44	-4.1360283e-05
106	0x00000004	6e-45
107	0x00000004	6e-45
108	0x00000004	6e-45
109	0x00000004	6e-45
110	0x3a81c708	0.0009901235
111	0x00000004	6e-45
112	0x00000004	6e-45
113	0x00000004	6e-45
114	0x00000004	6e-45
115	0x00000000	0.0
116	0x00000004	6e-45
117	0x00000004	6e-45
118	0x00000004	6e-45
119	0x00000004	6e-45
120	0x00000000	0.0
121	0x00000000	0.0
122	0x00000000	0.0
123	0x3a030bc8	0.0004999009
124	0x00000004	6e-45
125	0x39a1c6bc	0.00030856382
126	0x80000004	-6e-45
127	0x00000004	6e-45

exp_avg_sq f4 [128]
0	0x19027e94	6.746405e-24
1	0x3b7f8a13	0.003899221
2	0x230fba1d	7.7914566e-18
3	0x121ccbf0	4.9476293e-28
4	0x251612d6	1.3016808e-16
5	0x29104901	3.2037744e-14
6	0x373fa672	1.1423241e-05
7	0x172c7924	5.57291e-25
8	0x295461c5	4.7158258e-14
9	0x1ca80d64	1.1120769e-21
10	0x3896a1fc	7.182729e-05
11	0x3813d5c2	3.524661e-05
12	0x1c6a42de	7.751053e-22
13	0x202a681d	1.4434008e-19
14	0x28770ddc	1.371426e-14
15	0x23c082d2	2.0872086e-17
16	0x3a811d0f	0.0009850579
17	0x3232328c	1.0372457e-08
18	0x37e759b6	2.757912e-05
19	0x37db34e3	2.6131462e-05
20	0x2a951e61	2.6488797e-13
21	0x374a6332	1.2063234e-05
22	0x2bea096f	1.6629318e-12
23	0x30870f2d	9.826856e-10
24	0x3a94abaa	0.0011342664
25	0x39324de1	0.00017004415
26	0x1b0af8da	1.1495501e-22
27	0x157e0f87	5.130714e-26
28	0x298d2fe9	6.269969e-14
29	0x3609fe95	2.0562777e-06
30	0x00000000	0.0
31	0x27a8774f	4.675872e-15
32	0x00000000	0.0
33	0x1d577715	2.8516577e-21
34	0x25590b3d	1.8825557e-16
35	0x22fa903a	6.791534e-18
36	0x1c772bf3	8.178225e-22
37	0x17604bae	7.2473825e-25
38	0x1f6f24fa	5.0640805e-20
39	0x284b2c21	1.1278333e-14
40	0x390c76b7	0.00013395665
41	0x15343bfd	3.6398033e-26
42	0x1bf93fb3	4.123476e-22
43	0x2699d244	1.06735e-15
44	0x2ae35899	4.0384777e-13
45	0x3ace8140	0.0015755072
46	0x398927f9	0.00026160458
47	0x343e63b4	1.77314e-07
48	0x2b28b563	5.9937314e-13
49	0x00000000	0.0
50	0x1d9c8b51	4.1436906e-21
51	0x2ef40336	1.1096406e-10
52	0x00000000	0.0
53	0x00000000	0.0
54	0x00000000	0.0
55	0x00000000	0.0
56	0x1e068f6f	7.123562e-21
57	0x3b242735	0.0025047783
58	0x36fcc0fa	7.5326507e-06
59	0x333611d8	4.2391406e-08
60	0x3b887d3b	0.0041653193
61	0x1da2d7bc	4.3104107e-21
62	0x385182d0	4.995131e-05
63	0x375d85be	1.3203766e-05
64	0x2a2ddb5d	1.5441594e-13
65	0x00000000	0.0
66	0x390d99f1	0.00013504156
67	0x1bcdf0ae	3.406994e-22
68	0x1ecd0ba1	2.1710029e-20
69	0x00000000	0.0
70	0x36a21604	4.830539e-06
71	0x399757ff	0.00028866527
72	0x2d1c0dd0	8.87064e-12
73	0x176745f6	7.472843e-25
74	0x00000000	0.0
75	0x1afec3d8	1.0536834e-22
76	0x201181bb	1.2324902e-19
77	0x37bceabd	2.2520655e-05
78	0x251ab213	1.3417705e-16
79	0x00000000	0.0
80	0x3b009ef5	0.0019625996
81	0x1c4be97a	6.7468827e-22
82	0x00000000	0.0
83	0x1af5d23d	1.01669283e-22
84	0x00000000	0.0
85	0x00000000	0.0
86	0x2c3a2652	2.6453462e-12
87	0x00000000	0.0
88	0x3050db33	7.598146e-10
89	0x24fa9d7d	1.0868701e-16
90	0x3988d46e	0.00026098214
91	0x39a66d8c	0.00031743606
92	0x1e62cff0	1.2007341e-20
93	0x00000000	0.0
94	0x1e570998	1.1383989e-20
95	0x29df6ef8	9.9224394e-14
96	0x216c614e	8.008869e-19
97	0x31d0785e	6.067281e-09
98	0x1e2a3a7e	9.011821e-21
99	0x00000000	0.0
100	0x1d5e3781	2.941015e-21
101	0x3be99025	0.007127779
102	0x17241de9	5.302901e-25
103	0x3937f92f	0.00017545068
104	0x2fc8f919	3.6556783e-10
105	0x3a077544	0.0005167315
106	0x1df3fe8c	6.458476e-21
107	0x360e8404	2.1236492e-06
108	0x26a71f1f	1.1596388e-15
109	0x29a872ea	7.480633e-14
110	0x3baed8b2	0.0053358907
111	0x1a7bf4d7	5.2103363e-23
112	0x30ab1c85	1.2449993e-09
113	0x299d1e05	6.977408e-14
114	0x33f752a6	1.15168675e-07
115	0x00000000	0.0
116	0x1164045e	1.7987374e-28
117	0x2fc3c83f	3.5612577e-10
118	0x373478f0	1.0756994e-05
119	0x241c128f	3.3842828e-17
120	0x00000000	0.0
121	0x00000000	0.0
122	0x00000000	0.0
123	0x3ad450a7	0.0016198353
124	0x3689c4a0	4.1058083e-06
125	0x3ac33e94	0.0014895969
126	0x37a23563	1.9336765e-05
127	0x1e788c82	1.3158067e-20

exp_avg f4 [64, 128]
0	0x80000004	-6e-45
1	0x00000004	6e-45
2	0x80000004	-6e-45
3	0x00000004	6e-45
4	0x00000004	6e-45
5	0x00000004	6e-45
6	0x00000004	6e-45
7	0x00000000	0.0
8	0x00000004	6e-45
9	0x00000004	6e-45
10	0x00000004	6e-45
11	0x00000004	6e-45
12	0x00000000	0.0
13	0x00000004	6e-45
14	0x80000004	-6e-45
15	0x00000000	0.0
16	0x00000004	6e-45
17	0x00000004	6e-45
18	0x00000004	6e-45
19	0x80000004	-6e-45
20	0x00000004	6e-45
21	0x00000004	6e-45
22	0x00000004	6e-45
23	0x00000000	0.0
24	0x00000004	6e-45
25	0x00000004	6e-45
26	0x80000004	-6e-45
27	0x00000004	6e-45
28	0x00000004	6e-45
29	0x80000004	-6e-45
30	0x00000000	0.0
31	0x00000000	0.0
32	0x00000000	0.0
33	0x00000004	6e-45
34	0x00000004	6e-45
35	0x00000004	6e-45
36	0x00000004	6e-45
37	0x80000004	-6e-45
38	0x00000000	0.0
39	0x80000004	-6e-45
40	0x00000004	6e-45
41	0x80000004	-6e-45
42	0x00000004	6e-45
43	0x00000004	6e-45
44	0x00000004	6e-45
45	0x00000004	6e-45
46	0x00000004	6e-45
47	0x00000004	6e-45
48	0x00000004	6e-45
49	0x00000000	0.0
50	0x00000000	0.0
51	0x00000004	6e-45
52	0x00000000	0.0
53	0x00000000	0.0
54	0x00000000	0.0
55	0x00000000	0.0
56	0x00000000	0.0
57	0x00000004	6e-45
58	0x00000004	6e-45
59	0x00000004	6e-45
60	0x00000004	6e-45
61	0x00000000	0.0
62	0x00000004	6e-45
63	0x00000004	6e-45
64	0x00000004	6e-45
65	0x00000000	0.0
66	0x00000004	6e-45
67	0x00000000	0.0
68	0x00000004	6e-45
69	0x00000000	0.0
70	0x80000004	-6e-45
71	0x00000004	6e-45
72	0x80000004	-6e-45
73	0x00000000	0.0
74	0x00000000	0.0
75	0x00000004	6e-45
76	0x00000004	6e-45
77	0x80000004	-6e-45
78	0x00000004	6e-45
79	0x00000000	0.0
80	0x00000004	6e-45
81	0x00000004	6e-45
82	0x00000000	0.0
83	0x00000000	0.0
84	0x00000000	0.0
85	0x00000000	0.0
86	0x00000004	6e-45
87	0x00000000	0.0
88	0x00000004	6e-45
89	0x00000004	6e-45
90	0x00000004	6e-45
91	0x00000004	6e-45
92	0x00000004	6e-45
93	0x00000000	0.0
94	0x00000000	0.0
95	0x00000004	6e-45
96	0x80000004	-6e-45
97	0x00000004	6e-45
98	0x00000004	6e-45
99	0x00000000	0.0
100	0x80000004	-6e-45
101	0x00000004	6e-45
102	0x00000004	6e-45
103	0x00000004	6e-45
104	0x00000004	6e-45
105	0x80000004	-6e-45
106	0x00000004	6e-45
107	0x00000004	6e-45
108	0x00000004	6e-45
109	0x00000004	6e-45
110	0x00000004	6e-45
111	0x00000004	6e-45
112	0x00000004	6e-45
113	0x00000004	6e-45
114	0x80000004	-6e-45
115	0x00000000	0.0
116	0x00000004	6e-45
117	0x00000004	6e-45
118	0x00000004	6e-45
119	0x00000004	6e-45
120	0x00000000	0.0
121	0x00000000	0.0
122	0x00000000	0.0
123	0x00000004	6e-45
124	0x80000004	-6e-45
125	0x00000004	6e-45
126	0x00000004	6e-45
127	0x00000004	6e-45
128	0x00000000	0.0
129	0x00000004	6e-45
130	0x00000004	6e-45
131	0x00000004	6e-45
132	0x00000004	6e-45
133	0x00000004	6e-45
134	0x00000004	6e-45
135	0x00000000	0.0
136	0x00000004	6e-45
137	0x00000004	6e-45
138	0x00000004	6e-45
139	0x00000004	6e-45
140	0x80000004	-6e-45
141	0x80000004	-6e-45
142	0x00000004	6e-45
143	0x00000000	0.0
144	0x00000004	6e-45
145	0x00000004	6e-45
146	0x00000004	6e-45
147	0x00000004	6e-45
148	0x00000004	6e-45
149	0x00000004	6e-45
150	0x00000004	6e-45
151	0x00000000	0.0
152	0x00000004	6e-45
153	0x00000004	6e-45
154	0x00000004	6e-45
155	0x00000004	6e-45
156	0x00000004	6e-45
157	0x00000004	6e-45
158	0x00000000	0.0
159	0x00000000	0.0
160	0x00000000	0.0
161	0x80000004	-6e-45
162	0x00000004	6e-45
163	0x00000004	6e-45
164	0x00000004	6e-45
165	0x80000004	-6e-45
166	0x00000004	6e-45
167	0x00000004	6e-45
168	0x00000004	6e-45
169	0x00000000	0.0
170	0x00000004	6e-45
171	0x00000004	6e-45
172	0x00000004	6e-45
173	0x00000004	6e-45
174	0x00000004	6e-45
175	0x00000004	6e-45
176	0x00000004	6e-45
177	0x00000000	0.0
178	0x00000000	0.0
179	0x00000004	6e-45
180	0x00000000	0.0
181	0x00000000	0.0
182	0x00000000	0.0
183	0x00000000	0.0
184	0x00000000	0.0
185	0x00000004	6e-45
186	0x00000004	6e-45
187	0x00000004	6e-45
188	0x00000004	6e-45
189	0x00000000	0.0
190	0x00000004	6e-45
191	0x00000004	6e-45
192	0x00000004	6e-45
193	0x00000000	0.0
194	0x00000004	6e-45
195	0x00000000	0.0
196	0x00000004	6e-45
197	0x00000000	0.0
198	0x00000004	6e-45
199	0x00000004	6e-45
200	0x00000004	6e-45
201	0x00000000	0.0
202	0x00000000	0.0
203	0x00000004	6e-45
204	0x00000004	6e-45
205	0x00000004	6e-45
206	0x00000004	6e-45
207	0x00000000	0.0
208	0x00000004	6e-45
209	0x00000004	6e-45
210	0x00000000	0.0
211	0x00000000	0.0
212	0x00000000	0.0
213	0x00000000	0.0
214	0x00000004	6e-45
215	0x00000000	0.0
216	0x00000004	6e-45
217	0x80000004	-6e-45
218	0x00000004	6e-45
219	0x00000004	6e-45
220	0x00000004	6e-45
221	0x00000000	0.0
222	0x00000000	0.0
223	0x00000004	6e-45
224	0x80000004	-6e-45
225	0x00000004	6e-45
226	0x00000004	6e-45
227	0x00000000	0.0
228	0x00000004	6e-45
229	0x00000004	6e-45
230	0x00000000	0.0
231	0x00000004	6e-45
232	0x00000004	6e-45
233	0x00000004	6e-45
234	0x80000004	-6e-45
235	0x00000004	6e-45
236	0x00000004	6e-45
237	0x00000004	6e-45
238	0x00000004	6e-45
239	0x00000004	6e-45
240	0x00000004	6e-45
241	0x00000004	6e-45
242	0x00000004	6e-45
243	0x00000000	0.0
244	0x00000000	0.0
245	0x00000004	6e-45
246	0x00000004	6e-45
247	0x80000004	-6e-45
248	0x00000000	0.0
249	0x00000000	0.0
250	0x00000000	0.0
251	0x00000004	6e-45
252	0x00000004	6e-45
253	0x00000004	6e-45
254	0x00000004	6e-45
255	0x00000004	6e-45
