src/model_data/French_Grand_Prix_model.pth (torch, 197923 bytes, 21 tensors)

net.0.weight f4 [128, 48]
-0.03682275 -0.09045545 -0.010986902 -0.005454283 -0.00691798 -0.15435709 -0.13358152 0.7939383
0.08576843 -0.1571858 0.07332536 0.09728332 -0.15146106 -0.12861842 0.054996513 1.0575733
0.030753165 -0.09379556 -0.14889891 0.0955544 -0.00367357 0.051510736 0.025482075 -0.08843531
-0.13329338 0.1843751 0.08550065 -0.06972498 -0.13393195 -0.011787379 -0.024687212 -0.04774569
-0.12931058 -0.15160611 -0.026129624 -0.10918782 -0.05419476 0.0012250589 0.12394164 0.13503294
-0.09443142 0.11120171 0.020808328 -0.014582114 1.0016559 0.066019975 -0.097437106 0.051865127
0.019848842 -0.18179035 -0.05833427 -0.12738474 -0.13673921 -0.09077423 -0.07014372 0.06235797
-0.1961155 -0.18747936 -0.14882144 0.047965415 0.17623723 -0.03308971 0.07752144 -0.27217612
-0.2028383 -0.100275256 -0.15573598 -0.17629482 0.15583424 -0.18315406 0.08631993 -0.13937308
-0.14123788 -0.22990875 -0.087719984 -0.05907917 -0.21290341 -0.14437853 -0.034351557 -0.11079758
-0.014539903 -0.16402023 -0.15779863 0.069729984 -0.11912518 -0.0060197 0.103547186 -0.064060286
0.09802349 -0.18494567 -0.052769117 0.13220315 0.06484123 0.07735215 0.21230192 0.12973559
-0.29416785 -0.14293227 -0.19081068 -0.043261006 -0.14559604 0.04808658 -0.20528385 0.29858953
-0.25514475 0.028565323 0.022668522 -0.092165485 -0.2431665 -0.12019914 0.06550514 0.11019423
0.012108039 -0.09791957 -0.025974885 -0.309375 -0.16375585 -0.18183121 -0.31038785 -0.11345113
-0.3094263 -0.07156122 -0.01709136 0.005576373 -0.035710737 -0.073517814 -0.2148781 8.528972e-05
0.026849115 -0.12907606 -0.12945442 -0.06928069 -0.3563461 -0.21180357 -0.10159956 -0.20370607
-0.19612373 -0.033321142 -0.060976934 -0.06102198 0.7703585 0.06479941 -0.10806315 0.09241438
0.024892172 -0.09058939 -0.09296022 -0.034773223 -0.17351204 0.045513123 0.16540997 0.06283329
-0.13013034 -0.1234188 0.053349316 -0.17914194 -0.1639688 -0.0077940407 0.059673365 0.0038270017
0.14446975 -0.0552232 -0.16057248 0.16560172 -0.019265745 -0.048958864 0.15721343 -0.13529378
0.11149566 0.027124606 -0.0016950485 -0.079954825 -0.060464002 0.038925808 -0.13134895 -0.023184337
-0.005967634 0.108450994 0.04588651 0.10833229 -0.094476126 0.15557268 -0.08490635 -0.06825375
0.10574604 0.044341154 -0.075620346 -0.042844687 -0.15662831 0.02516814 0.15055291 0.024373299
-0.0072841425 -0.15902722 -0.37736046 -0.20382912 0.026260272 0.09415416 -0.02239952 -0.28710917
-0.00268722 -0.0006568653 -0.3272651 -0.23745781 -0.0682014 -0.02130682 0.030292753 -0.23256613
-0.11684912 -0.10748687 0.10810562 -0.41500962 0.02301385 -0.15422784 0.054362286 -0.029032387
-0.1736621 -0.3910014 -0.0054917107 0.3466796 -0.06478541 -0.1251202 -0.40120548 -0.3360685
0.025325911 -0.015656596 0.21214594 -0.160001 0.24444844 0.058606356 0.51701117 0.70886844
0.5613979 0.5280322 0.891956 0.21998431 -0.73093814 0.83467895 1.2473694 0.91313875
0.07943996 -0.10992389 -0.11380933 -0.06929148 -0.05568934 0.17944998 -0.02860545 -0.06565744
-0.10541529 -0.08903923 -0.038293317 -0.16536666 0.0969124 0.08302392 0.025353909 -0.085466094
00000000: 74d3 16bd b540 b9bd 6802 34bc d8b9 b2bb
00000010: 39b0 e2bb c90f 1ebe 98c9 08be 8a3f 4b3f
00000020: 5ca7 af3d 50f5 20be 9b2b 963d 7a3c c73d
00000030: 9c18 1bbe 8cb4 03be 0644 613d 905e 873f
00000040: 10ee fb3c e317 c0bd f578 18be 06b2 c33d
00000050: 47c0 70bb ecfc 523d c9bf d03c 921d b5bd
00000060: 0f7e 08be d4cc 3c3e f71a af3d f8cb 8ebd
00000070: 7525 09be da1f 41bc d63c cabc fc90 43bd
00000080: fe69 04be a23e 1bbe cb0d d6bc dd9d dfbd
00000090: 53fb 5dbd 2892 a03a 1dd5 fd3d 1346 0a3e
000000a0: 4365 c1bd b9bd e33d 3a76 aa3c d2e9 6ebc
000000b0: 4336 803f 7b35 873d 1b8d c7bd 8770 543d
000000c0: 0a9a a23c 4027 3abe eaef 6ebd 2571 02be
000000d0: 5d05 0cbe d7e7 b9bd 83a7 8fbd 126b 7f3d
000000e0: 80d2 48be 97fa 3fbe a664 18be 6277 443d
000000f0: 8877 343e 1389 07bd 90c3 9e3d ab5a 8bbe
00000100: d8b4 4fbe 1d5d cdbd 4179 1fbe a186 34be
00000110: 0393 1f3e bd8c 3bbe 81c8 b03d d1b7 0ebe
00000120: aaa0 10be 336d 6bbe 89a6 b3bd 00fd 71bd
00000130: 5a03 5abe f7d7 13be 38b4 0cbd d7e9 e2bd
00000140: c638 6ebc ebf4 27be f795 21be 98ce 8e3d
00000150: e7f7 f3bd e740 c5bb 8c10 d43d 0a32 83bd
00000160: 8ac0 c83d 6662 3dbe 6e24 58bd 4360 073e
00000170: 7bcb 843d ce6a 9e3d ad65 593e 68d9 043e
00000180: 2b9d 96be d65c 12be e063 43be 7432 31bd
00000190: 2117 15be 6ff6 443d ee35 52be bae0 983e
000001a0: 55a2 82be d301 ea3c 56b3 b93c 42c1 bcbd
000001b0: a400 79be f72a f6bd 8f27 863d 83ad e13d
000001c0: cc60 463c 0e8a c8bd 48c9 d4bc 6666 9ebe
000001d0: 9daf 27be f631 3abe 28eb 9ebe 1159 e8bd
000001e0: 206d 9ebe b08e 92bd 2e03 8cbc 02ba b63b
000001f0: 6c45 12bd 8290 96bd 0109 5cbe 92dd b238
00000200: adf2 db3c 842c 04be b38f 04be 09e3 8dbd
00000210: ff72 b6be 09e3 58be 6e13 d0bd 5398 50be
00000220: a9d4 48be c07b 08bd f3c2 79bd 2ff2 79bd
00000230: 3736 453f 8eb5 843d 3650 ddbd c043 bd3d
00000240: abea cb3c ee86 b9bd ee61 bebd 5e6e 0ebd
00000250: 24ad 31be f86b 3a3d 3b61 293e bdae 803d
00000260: e340 05be ffc2 fcbd d084 5a3d fc70 37be
00000270: 70e7 27be 2765 ffbb 0f6c 743d 6fce 7a3b
00000280: e1ef 133e b931 62bd 1d6d 24be 7f93 293e
00000290: 32d3 9dbc 1789 48bd 8ffc 203e 748a 0abe
000002a0: d657 e43d 6c34 de3c 642c deba 5bbf a3bd
000002b0: 1aa9 77bd ab70 1f3d 5780 06be 14ed bdbc
000002c0: 248c c3bb 8e1b de3d 7ef3 3b3d 52dd dd3d
000002d0: b37c c1bd 724e 1f3e 61e3 adbd 9fc8 8bbd
000002e0: 6191 d83d 129f 353d d7de 9abd e97d 2fbd
000002f0: 2c63 20be 6a2d ce3c 8b2a 1a3e 83aa c73c
00000300: d1af eebb 08d8 22be 6435 c1be 95b8 50be
00000310: c81f d73c e5d3 c03d 337f b7bc f9ff 92be
00000320: 121c 30bb 7c31 2cba 4b8f a7be 2428 73be
00000330: 2dad 8bbd a48b aebc 8228 f83c d125 6ebe
00000340: 974e efbd 1322 dcbd 7b66 dd3d 247c d4be
00000350: 8b87 bc3c e7ed 1dbe fdaa 5e3d 54d5 edbc
00000360: 7ad4 31be 5631 c8be cff3 b3bb fd7f b13e
00000370: 37ae 84bd 821f 00be ce6a cdbe 2c11 acbe
00000380: 4978 cf3c 4342 80bc c93c 593e 4dd7 23be
00000390: b150 7a3e 380d 703d d85a 043f 6778 353f
000003a0: c6b7 0f3f 1e2d 073f 3a57 643f 9143 613e
000003b0: c31e 3bbf 85ad 553f cda9 9f3f 76c3 693f
000003c0: 6bb1 a23d c71f e1bd de14 e9bd b1e8 8dbd
000003d0: 811a 64bd bcc1 373e fa55 eabc 6877 86bd
000003e0: f9e3 d7bd 335a b6bd 74d9 1cbd e155 29be
000003f0: 027a c63d 7208 aa3d 00b3 cf3c d908 afbd

net.0.bias f4 [128]
0.88163066 -0.090217695 0.077022836 -0.06032927 -0.20029993 0.0 0.012119896 0.022636365
-0.1303958 0.74553 0.3256851 0.9179752 -0.18099608 -0.048297912 -0.09773122 -0.077974245
0.21472518 0.5472839 0.56581724 0.7866251 0.0 0.0 0.0 -0.23442067
0.06403084 0.0 0.0 -0.031758692 0.89392626 -0.04629655 0.41904715 -0.103948995
0.95530295 -0.1093738 0.0 0.0 0.9530401 0.0 0.017160194 -0.021140618
0.011594776 -0.016118461 -0.041192807 0.81933475 0.16030186 -0.11028166 0.0 -0.19344312
0.0 0.24290518 0.94455826 0.43222022 0.8834213 -0.07985426 -0.15104885 -0.064801514
-0.10381459 0.0 0.13057609 -0.1230155 0.9440451 -0.04445228 -0.11166515 0.25146416
0.26888943 -0.1022534 -0.026446832 0.0 0.6977607 -0.025856653 0.124695405 0.84671044
-0.044522658 -0.11418217 0.0012693545 -0.09074713 0.17685339 -0.16047953 0.20969999 -0.09632076
0.9153847 0.47530198 -0.012502222 -0.06960143 0.34959796 0.9167603 -0.04189196 -0.11676509
-0.008066181 -0.020525593 0.0 0.62788796 -0.04155975 0.0 0.0 -0.03556496
0.0 0.26225418 0.0 -0.13569467 0.3359191 0.01605091 -0.05558195 -0.030507447
0.90719825 0.94651085 0.0 0.92837745 0.90667844 -0.100520395 0.29836276 0.014927583
-0.16092443 0.0 0.14151426 -0.085253 -0.102357954 0.46197394 0.0 0.3261866
-0.07332225 0.2860896 -0.076911986 -0.09781276 -0.1578608 0.2687292 0.46042103 -0.13169175
00000000: 8cb2 613f 0ec4 b8bd 26be 9d3d d31b 77bd
00000010: 6d1b 4dbe 0000 0000 8792 463c e66f b93c
00000020: 7a86 05be 0edb 3e3f 33c0 a63e 6c00 6b3f
00000030: 0957 39be 08d4 45bd 4e27 c8bd f6b0 9fbd
00000040: ebe0 5b3e cc1a 0c3f 66d9 103f 4360 493f
00000050: 0000 0000 0000 0000 0000 0000 f90b 70be
00000060: 9a22 833d 0000 0000 0000 0000 6715 02bd
00000070: 5ad8 643f 74a1 3dbd 598d d63e 36e3 d4bd
00000080: bc8e 743f 5fff dfbd 0000 0000 0000 0000
00000090: 70fa 733f 0000 0000 8993 8c3c 172f adbc
000000a0: 04f8 3d3c dd0a 84bc cab9 28bd ecbf 513f
000000b0: 2c26 243e 5adb e1bd 0000 0000 f415 46be
000000c0: 0000 0000 23bc 783e 92ce 713f f84b dd3e
000000d0: e627 623f a18a a3bd 8dac 1abe a8b6 84bd
000000e0: be9c d4bd 0000 0000 bdb5 053e 8def fbbd
000000f0: f1ac 713f 9813 36bd b3b0 e4bd e9bf 803e
00000100: e0ab 893e 3b6a d1bd 07a7 d8bc 0000 0000
00000110: 72a0 323f 55d1 d3bc 4e60 ff3d 04c2 583f
00000120: 645d 36bd 57d8 e9bd 7860 a63a a2d9 b9bd
00000130: 0e19 353e bf54 24be 98bb 563e d243 c5bd
00000140: a756 6a3f c85a f33e 1fd6 4cbc 328b 8ebd
00000150: 81fe b23e ceb0 6a3f e796 2bbd 8922 efbd
00000160: 0428 04bc 4a25 a8bc 0000 0000 44bd 203f
00000170: 8e3a 2abd 0000 0000 0000 0000 90ac 11bd
00000180: 0000 0000 2e46 863e 0000 0000 8bf3 0abe
00000190: 97fd ab3e 337d 833c e6a9 63bd c1ea f9bc
000001a0: 253e 683f 894e 723f 0000 0000 25aa 6d3f
000001b0: 141c 683f a3dd cdbd 01c3 983e d292 743c
000001c0: 60c9 24be 0000 0000 1de9 103e 2099 aebd
000001d0: 0ca1 d1bd d987 ec3e 0000 0000 ee01 a73e
000001e0: fa29 96bd 567a 923e 0884 9dbd 0e52 c8bd
000001f0: 43a6 21be e096 893e 4ebc eb3e 34da 06be

net.2.weight f4 [64, 128]
0.8969284 0.011526159 0.09024955 0.1392376 0.06379433 -0.09895699 0.20263194 -0.045394897
0.16059041 0.118901774 -0.08250584 0.8320703 -0.038377926 0.106934875 -0.08657625 -0.1940804
-0.20251648 -0.02066029 0.10773669 0.0016559494 0.05495068 0.024544364 0.0030535392 0.040451996
0.01499547 -0.0567521 0.09132149 0.042604595 0.5964666 0.009118228 0.03489712 -0.060901865
0.83163357 0.10227199 0.083457604 0.06407425 1.0541569 -0.136425 0.098795064 -0.041285053
-0.028523525 -0.09566129 0.10009968 0.21333747 0.08223118 -0.071827464 0.0649775 0.100551926
0.13508576 0.021110008 1.0855237 -0.06646012 0.63652456 0.071271785 -0.17710914 0.033646528
0.014519037 -0.005878558 -0.04826425 -0.018577335 0.9977382 -0.11159676 -0.13960339 -0.19765687
-0.09816511 -0.027372023 -0.008693211 -0.067492336 0.8296425 -0.0103369765 -0.107666 0.5102312
-0.15869088 0.020786818 0.13611738 -0.061555345 0.22033928 -0.2153556 0.058149617 0.007745039
0.8126522 -0.09494905 0.12832484 -0.026923742 0.12736809 0.96381843 0.12054706 -0.14614482
0.06309468 0.023841584 -0.12521963 -0.06801171 0.057651162 -0.14371862 -0.04710003 -0.20112766
0.123154625 0.11081006 0.012033705 -0.15736215 0.07604818 0.08944673 0.11919151 -0.12267378
0.80958945 0.9539361 -0.1585839 0.8782841 0.49556237 -0.11873554 0.14586833 -0.0032812934
0.0141000245 0.07875685 -0.18223168 0.059266496 0.04639459 -0.00576656 -0.005824547 -0.06256002
0.0047364333 -0.09906794 -0.03254201 -0.056280665 0.2508357 0.1926021 0.16591334 -0.07879311
0.041492835 -0.1571189 0.06712427 -0.1002354 -0.11837077 -0.07261485 0.017787065 0.018607792
-0.102612615 -0.08731596 0.019162886 -0.07647516 0.04158328 0.15095189 0.001575976 0.12604082
-0.16575773 -0.0355519 0.16952196 0.073349446 -0.16375165 -0.11688181 -0.17465709 -0.044231113
0.06551041 0.15322661 0.08467146 0.008950621 -0.059926707 -0.0020714123 0.011973646 0.13069893
0.14966583 0.15471329 0.077602506 0.1551162 -0.113355696 -0.053864177 0.14537257 0.051866774
-0.08623658 0.051408954 0.009232984 -0.07102412 0.049974043 -0.041015036 0.056400426 0.087966435
0.1507598 -0.074286535 -0.17628264 -0.057936765 -0.10166308 -0.17273532 -0.1439431 -0.123660706
-0.12377762 -0.084092 -0.13105439 -0.15766314 0.06582052 0.15302336 -0.10002631 0.17477378
-0.07670155 -0.083625436 -0.10990596 0.03200638 -0.15403232 0.09003534 -0.0072436314 0.107882805
-0.08508766 -0.12991711 -0.1294685 0.015797313 0.10410115 -0.16690312 0.08593361 -0.012718696
0.15166986 0.018257277 0.10634644 0.12571841 -0.1185307 -0.08589462 -0.013210803 0.063959084
0.064026944 -0.04242367 0.0814436 -0.13548763 0.015457483 -0.15064105 0.0046120244 0.14526471
0.046569 0.00062187674 -0.054256942 0.16734855 -0.099497244 0.09984 0.1733778 0.084383614
-0.14485537 -0.050240856 0.15884669 -0.0802209 0.08706441 0.12514931 0.1353829 0.03313071
0.04492064 -0.050762758 0.037754305 -0.1733907 -0.071928926 0.09704712 0.0047754063 -0.0218535
-0.16269 -0.023643812 -0.13629754 0.048236646 0.11816292 -0.16517438 -0.033409573 -0.10077634
00000000: 1a9d 653f 37d8 3c3c c2d4 b83d 4d94 0e3e
00000010: 9aa6 823d f6a9 cabd bf7e 4f3e 00f0 39bd
00000020: d071 243e c682 f33d d2f8 a8bd 8f02 553f
00000030: 2c32 1dbd ac00 db3d e44e b1bd 03bd 46be
00000040: 7b60 4fbe c53f a9bc 0ea5 dc3d 710c d93a
00000050: f713 613d 4311 c93c e31d 483b feb0 253d
00000060: 8faf 753c e474 68bd c306 bb3d 2882 2e3d
00000070: 09b2 183f 9f64 153c 48f0 0e3d 3c74 79bd
00000080: f0e5 543f fa73 d13d d2eb aa3d 5c39 833d
00000090: 9dee 863f ffb2 0bbe 1155 ca3d 841a 29bd
000000a0: 2baa e9bc 11ea c3bd 1001 cd3d 2375 5a3e
000000b0: d268 a83d 471a 93bd ec12 853d 2bee cd3d
000000c0: ec53 0a3e e5ee ac3c 71f2 8a3f 3e1c 88bd
000000d0: 46f3 223f f1f6 913d 195c 35be f1d0 093d
000000e0: 41e1 6d3c eba0 c0bb bcb0 45bd 7f2f 98bc
000000f0: c56b 7f3f d88c e4bd 31f4 0ebe 9066 4abe
00000100: ca0a c9bd 4b3b e0bc f86d 0ebc 6c39 8abd
00000110: 7363 543f 6c5c 29bc fe7f dcbd 839e 023f
00000120: dd7f 22be 1e49 aa3c 5b62 0b3e 7521 7cbd
00000130: 9fa0 613e 2e86 5cbe 4b2e 6e3d 19ca fd3b
00000140: f909 503f a674 c2bd 9667 033e 2e8f dcbc
00000150: c86c 023e cebc 763f 61e1 f63d fda6 15be
00000160: c937 813d 6d4f c33c 9339 00be b949 8bbd
00000170: a023 6c3d f92a 13be f6eb 40bd 69f4 4dbe
00000180: 7e38 fc3d 62f0 e23d 0429 453c 8b23 21be
00000190: 26bf 9b3d d92f b73d ae1a f43d 643c fbbd
000001a0: 4141 4f3f 2835 743f d163 22be 3ad7 603f
000001b0: 5aba fd3e 9e2b f3bd 825e 153e f80a 57bb
000001c0: ca03 673c 454b a13d f19a 3abe 6dc1 723d
000001d0: 4108 3e3d 69f5 bcbb d7db bebb 781f 80bd
000001e0: 1534 9b3b 22e4 cabd c54a 05bd 8e86 66bd
000001f0: 896d 803e 7c39 453e 30e5 293e 485e a1bd
00000200: 64f4 293d c7e3 20be 7378 893d 3848 cdbd
00000210: 606c f2bd 18b7 94bd 2eb6 913c 5e6f 983c
00000220: 9026 d2bd b6d2 b2bd 7cfb 9c3c 029f 9cbd
00000230: 3b53 2a3d 2293 1a3e fb90 ce3a d810 013e
00000240: 65bc 29be de9e 11bd 2a97 2d3e 3c38 963d
00000250: 83ae 27be bb5f efbd 4fd9 32be af2b 35bd
00000260: 522a 863d 70e7 1c3e 3b68 ad3d a0a5 123c
00000270: b575 75bd 88c0 07bb 1c2d 443c f1d5 053e
00000280: 0042 193e 296d 1e3e 10ee 9e3d c8d6 1e3e
00000290: 0827 e8bd afa0 5cbd 8cdc 143e 4172 543d
000002a0: ce9c b0bd 3292 523d f145 173c 1875 91bd
000002b0: 95b1 4c3d 62ff 27bd 2204 673d bf27 b43d
000002c0: c760 1a3e 8a23 98bd 7083 34be 1a4f 6dbd
000002d0: bc34 d0bd 87e1 30be d265 13be d341 fdbd
000002e0: 1f7f fdbd 6d38 acbd 1f33 06be 7272 21be
000002f0: e9cc 863d 28b2 1c3e 98da ccbd e6f7 323e
00000300: b415 9dbd d043 abbd 6016 e1bd 1f19 033d
00000310: a6ba 1dbe 7364 b83d fc5b edbb a9f1 dc3d
00000320: 7042 aebd fe08 05be 6493 04be 5e69 813c
00000330: fc32 d53d a7e8 2abe f6fd af3d 1462 50bc
00000340: 584f 1b3e 4990 953c 2acc d93d 54bc 003e
00000350: 39c0 f2bd 85e9 afbd 2072 58bc fbfc 823d
00000360: 8f20 833d 71c4 2dbd e7cb a63d 45bd 0abe
00000370: 6241 7d3c a641 1abe 7720 973b 46c0 143e
00000380: 23bf 3e3d 7105 233a 873c 5ebd 6b5d 2b3e
00000390: 36c5 cbbd ea78 cc3d f389 313e 51d1 ac3d
000003a0: f754 14be 5bc9 4dbd b5a8 223e db4a a4bd
000003b0: d34e b23d 2427 003e d1a1 0a3e 11b4 073d
000003c0: b4fe 373d 9cec 4fbd 42a4 1a3d 558d 31be
000003d0: 794f 93bd a4c0 c63d 037b 9c3b 1c06 b3bc
000003e0: 3598 26be abb0 c1bc 9591 0bbe ca93 453d
000003f0: 67ff f13d 7923 29be 7ad8 08bd d363 cebd

net.2.bias f4 [64]
0.14093809 0.0 0.24131292 -0.33207753 -0.079519846 0.43322662 0.20813788 -0.053557694
-0.05073688 -0.03372807 0.78275883 -0.03176572 0.53519714 0.037341036 0.3042166 -0.02956055
-0.109131545 -0.009730747 -0.03773754 0.04102295 0.23959512 0.3037942 0.11394412 0.4412635
-0.115727395 0.6666547 -0.024558466 0.060634483 -0.019182308 0.11701187 -0.10772726 -0.03876247
-0.107770346 -0.04430258 -0.06327648 -0.090159714 0.21937026 -0.15016669 -0.17070885 -0.035482105
-0.11334365 -0.05877986 0.10179887 0.6848297 0.20038936 -0.027793344 -0.1355502 0.57528
-0.058637567 -0.055225745 0.0 -0.26255536 -0.03789586 0.4477042 -0.012681399 -0.06631047
-0.03710983 0.19657473 -0.08137601 0.18751356 0.13229707 -0.12498611 -0.08845128 -0.07747408
00000000: 1352 103e 0000 0000 bc1a 773e 1106 aabe
00000010: 4ddb a2bd e1cf dd3e 1922 553e 505f 5bbd
00000020: 7ad1 4fbd 7226 0abd e262 483f c61c 02bd
00000030: ae02 093f eaf2 183d 47c2 9b3e f728 f2bc
00000040: 5c80 dfbd b66d 1fbc ae92 1abd ae07 283d
00000050: 6c58 753e ea8a 9b3e 895b e93d 4aed e13e
00000060: 7c02 edbd e2a9 2a3f d62e c9bc dd5b 783d
00000070: 3724 9dbc eba3 ef3d 1ca0 dcbd 65c5 1ebd
00000080: b3b6 dcbd 9f76 35bd 1997 81bd a8a5 b8bd
00000090: 99a2 603e 4cc5 19be 4dce 2ebe af55 11bd
000000a0: b720 e8bd 27c3 70bd ed7b d03d 0051 2f3f
000000b0: de32 4d3e deae e3bc accd 0abe 8d45 133f
000000c0: f22d 70bd 6434 62bd 0000 0000 a86d 86be
000000d0: b038 1bbd 7c39 e53e a4c5 4fbc c9cd 87bd
000000e0: 7a00 18bd e34a 493e 77a8 a6bd 8e03 403e
000000f0: e278 073e b8f8 ffbd f225 b5bd bbaa 9ebd

net.4.weight f4 [16, 64]
-0.19861883 -0.2611473 -0.0014536175 -0.0145710055 0.07298669 0.11586885 -0.0086798705 -0.16835646
-0.29633287 0.06404488 -0.21741077 0.03184259 -0.07521599 -0.0055757635 0.020171797 -0.042531714
0.23145062 0.22429353 0.09321697 -0.28612182 -0.16068743 0.13451554 -0.051297925 -0.30151832
-0.20275758 0.13418338 0.03366565 -0.28240132 -0.08531606 0.034068666 0.14117518 -0.25095755
-0.25123098 -0.24700716 0.07289426 0.046310384 0.20097364 0.19258383 -0.18161207 0.21691224
-0.29344553 -0.17195939 0.0005793778 0.13527218 -0.28568226 0.022603462 0.15920149 -0.027423073
-0.2561688 -0.15641505 -0.028171977 -0.14407012 -0.09821031 -0.31058842 0.022844037 0.13792838
0.079532854 0.17612986 0.030098082 -0.095818646 0.09603508 -0.20226163 -0.14390583 -0.011348707
0.16988876 0.17596653 -0.17803226 -0.06290142 -0.22728314 -0.18418327 0.015282234 -0.115802705
-0.30392975 0.002865084 0.8257488 0.26810536 0.059203036 -0.0045422525 0.13870892 -0.070046015
0.343144 0.06959432 0.118142016 0.08210481 -0.27074063 -0.2983095 -0.24283676 0.011433658
-0.0875242 0.60859954 0.17881864 -0.13211095 0.13803415 0.1746257 -0.24333712 -0.0677534
0.119926594 0.05466816 0.24514423 0.17155412 -0.09054444 -0.020708315 -0.06930842 0.24265999
0.46703357 0.12876308 0.054939806 0.5220988 -0.20741844 -0.21357 -0.1961773 0.19728936
-0.13664603 0.09998595 -0.20104313 -0.011178525 0.0019995118 0.22501428 -0.049641587 -0.14102808
-0.0126982555 0.1296615 0.10912287 -0.0380163 -0.03243464 -0.18192519 -0.0119082825 0.17326932
-0.082246676 0.25395513 -0.11560222 -0.32591537 -0.070094444 0.079233274 0.093586944 -0.19703627
-0.05760915 0.059316218 -0.22638124 -0.03593813 0.07560508 0.09253747 -0.11020471 -0.108541004
-0.034012724 -0.23568073 0.030195313 -0.010840656 -0.25740355 0.097710095 0.0908711 -0.31792447
-0.06981504 -0.19722567 0.26130366 -0.058510333 0.025823181 -0.23427843 -0.22794975 -0.16918409
0.09867863 0.15072739 -0.20415124 -0.15750816 -0.06794878 -0.038718976 0.06536347 -0.19943482
0.030101007 0.24118881 -0.014076256 -0.13562645 -0.019066432 0.026568515 0.116933495 -0.06899808
-0.056963164 -0.18163522 -0.20561646 -0.049458012 0.19527644 0.276553 -0.033104975 -0.025479473
-0.13953789 0.073822156 -0.14066978 -0.054295044 -0.17951041 0.20796902 -0.021466028 0.20087868
-0.13178259 -0.20855755 -0.29595238 0.11287667 -0.017081933 0.2980604 0.071470834 0.0695794
0.28054443 0.05814721 0.62408066 0.1936507 0.152108 -0.049329925 0.077233694 -0.08012291
0.09842661 0.12596016 0.2180444 -0.093182966 0.003522718 0.10218326 0.081572495 0.056721333
0.3210198 0.3225287 0.12329081 0.16572137 -0.1722025 0.07904717 -0.09017778 -0.18537767
0.09101056 -0.007356037 0.03277161 0.36217278 -0.00086131715 0.12505713 -0.06860338 -0.057940904
0.19599941 -0.05992261 0.0018556361 0.3874054 0.2038933 0.2738197 -0.25656706 -0.12618203
-0.12630707 -0.038987216 -0.20829333 0.14895603 -0.33272427 0.21632284 -0.07709346 0.120596066
-0.19228901 -0.034904096 0.034583326 0.2624105 -0.0682948 0.45921966 -0.21457884 0.10088526
00000000: bc62 4bbe 19b5 85be 4f87 beba 3abb 6ebc
00000010: 0c7a 953d a64c ed3d 0436 0ebc a365 2cbe
00000020: f1b8 97be f629 833d eea0 5ebe 606d 023d
00000030: d70a 9abd e5b4 b6bb 533f a53c bc35 2ebd
00000040: 6401 6d3e 34ad 653e 8ae8 be3d 8f7e 92be
00000050: 3f8b 24be 71be 093e c61d 52bd 9c60 9abe
00000060: af9f 4fbe 5e67 093e fee4 093d e896 90be
00000070: 30ba aebd 968b 0b3d 3a90 103e 827d 80be
00000080: 59a1 80be 72ef 7cbe 9649 953d f5af 3d3d
00000090: 09cc 4d3e b234 453e 84f8 39be 3e1e 5e3e
000000a0: 7e3e 96be 1f16 30be 63e1 173a ca84 0a3e
000000b0: f244 92be e52a b93c b705 233e 5aa6 e0bc
000000c0: 8f28 83be 442b 20be ebc8 e6bc 1e87 13be
000000d0: 7d22 c9bd 7205 9fbe 6b23 bb3c 193d 0d3e
000000e0: 1fe2 a23d 635b 343e 4190 f63c 913c c4bd
000000f0: 0aae c43d ac1d 4fbe 0d5c 13be edef 39bc
00000100: 52f7 2d3e 9230 343e 174e 36be 76d2 80bd
00000110: e9bc 68be 8a9a 3cbe 5662 7a3c f829 edbd
00000120: ae9c 9bbe 22c4 3b3b 4664 533f 1b45 893e
00000130: e27e 723d 2dd7 94bb b609 0e3e 4974 8fbd
00000140: 92b0 af3e 7887 8e3d 71f4 f13d 9126 a83d
00000150: 849e 8abe 06bc 98be 33aa 78be 3d54 3b3c
00000160: e33f b3bd 2ecd 1b3f 3c1c 373e 1848 07be
00000170: d358 0d3e 14d1 323e 5e2d 79be 4bc2 8abd
00000180: 139c f53d b8eb 5f3d 1707 7b3e e2ab 2f3e
00000190: 5d6f b9bd 7ca4 a9bc 93f1 8dbd dc7b 783e
000001a0: 061f ef3e 78da 033e 9008 613d 44a8 053f
000001b0: 8065 54be 18b2 5abe b4e2 48be 3906 4a3e
000001c0: f0ec 0bbe 6fc5 cc3d 40de 4dbe 2226 37bc
000001d0: 3e0a 033b 256a 663e fa54 4bbd aa69 10be
000001e0: 580c 50bc fcc5 043e d07b df3d fbb6 1bbd
000001f0: 2fda 04bd 994a 3abe f51a 43bc 836d 313e
00000200: f270 a8bd 6806 823e dbc0 ecbd 61de a6be
00000210: ad8d 8fbd 0e45 a23d 83aa bf3d e0c3 49be
00000220: 92f7 6bbd 90f5 723d 7cd0 67be dc33 13bd
00000230: d6d6 9a3d 4984 bd3d 02b3 e1bd bf4a debd
00000240: ed50 0bbd 4a56 71be 295c f73c 029d 31bc
00000250: 66ca 83be 3b1c c83d a11a ba3d ffc6 a2be
00000260: 30fb 8ebd 87f5 49be 98c9 853e 88a8 6fbd
00000270: 238b d33c afe6 6fbe a96b 69be 983e 2dbe
00000280: 0618 ca3d 4858 1a3e 060d 51be d249 21be
00000290: bb28 8bbd ca97 1ebd 48dd 853d a438 4cbe
000002a0: 6396 f63c 33fa 763e 19a0 66bc a9e1 0abe
000002b0: 3531 9cbc 37a6 d93c d47a ef3d de4e 8dbd
000002c0: 3552 69bd 95fe 39be 1f8d 52be 7c94 4abd
000002d0: 8cf6 473e 5b98 8d3e 1599 07bd 54ba d0bc
000002e0: 05e3 0ebe 1230 973d bd0b 10be 7b64 5ebd
000002f0: 94d1 37be d5f5 543e 86d9 afbc 24b3 4d3e
00000300: 04f2 06be 1c90 55be 1287 97be e22b e73d
00000310: 69ef 8bbc 5f9b 983e 4d5f 923d a57f 8e3d
00000320: 85a3 8f3e c52b 6e3d c0c3 1f3f 5e4c 463e
00000330: 33c2 1b3e 2d0e 4abd b32c 9e3d 7b17 a4bd
00000340: e493 c93d b3fb 003e 0847 5f3e b6d6 bebd
00000350: 67dd 663b 7545 d13d 7b0f a73d a154 683d
00000360: b55c a43e 7b22 a53e e47f fc3d ddb2 293e
00000370: da55 30be 7ce3 a13d 21af b8bd a5d3 3dbe
00000380: bf63 ba3d e90a f1bb 863b 063d b66e b93e
00000390: 04ca 61ba fa0e 003e ee7f 8cbd 7153 6dbd
000003a0: 12b4 483e 6971 75bd d138 f33a 005a c63e
000003b0: 68c9 503e 1932 8c3e c25c 83be dd35 01be
000003c0: a456 01be 0fb1 1fbd d94a 55be ee87 183e
000003d0: d65a aabe bc83 5d3e 2de3 9dbd 12fb f63d
000003e0: 69e7 44be 99f7 0ebd 3fa7 0d3d ab5a 863e
000003f0: 25de 8bbd d71e eb3e 8eba 5bbe ee9c ce3d

net.4.bias f4 [16]
-0.06336862 0.18911369 -0.087687835 0.40331775 -0.010268386 -0.11357535 -0.034222405 -0.030990833
-0.05503845 -0.12479381 -0.0869035 -0.2029933 -0.20501055 0.5431118 0.1751769 -0.18474323
00000000: 68c7 81bd 05a7 413e ae95 b3bd aa7f ce3e
00000010: bc3c 28bc 319a e8bd cb2c 0cbd 7de0 fdbc
00000020: ff6f 61bd e693 ffbd 76fa b1bd 7add 4fbe
00000030: 49ee 51be 6009 0b3f 9361 333e 542d 3dbe

net.6.weight f4 [1, 16]
-0.07621244 -0.021074275 -0.2659315 -0.002137365 0.53257143 -0.38435638 -0.24734335 -0.44291407
0.31851888 -0.18730858 -0.4906594 -0.07295087 -0.30738825 0.37187582 0.112522505 -0.21061854
00000000: 4515 9cbd f5a3 acbc 2c28 88be 0913 0cbb
00000010: 9a56 083f 5cca c4be 9347 7dbe a2c5 e2be
00000020: e814 a33e d2cd 3fbe b537 fbbe 4467 95bd
00000030: fe61 9dbe 8266 be3e 3372 e63d 63ac 57be

exp_avg f4 [128, 48]
0.0 0.0 0.0 0.0 0.0 0.0 0.0 -6e-45
0.0 0.0 0.0 0.0 0.0 0.0 0.0 -6e-45
0.0 0.0 0.0 0.0 0.0 0.0 0.0 0.0
0.0 0.0 0.0 0.0 0.0 0.0 0.0 0.0
0.0 0.0 0.0 0.0 0.0 0.0 0.0 0.0
0.0 0.0 0.0 0.0 -6e-45 0.0 0.0 0.0
6e-45 6e-45 0.0 6e-45 6e-45 0.0 6e-45 6e-45
6e-45 6e-45 0.0 6e-45 6e-45 0.0 6e-45 6e-45
6e-45 6e-45 6e-45 6e-45 6e-45 6e-45 6e-45 6e-45
6e-45 6e-45 6e-45 6e-45 6e-45 6e-45 6e-45 6e-45
6e-45 6e-45 6e-45 6e-45 6e-45 6e-45 6e-45 6e-45
6e-45 6e-45 6e-45 6e-45 6e-45 -6e-45 -6e-45 6e-45
6e-45 6e-45 6e-45 6e-45 -6e-45 6e-45 6e-45 6e-45
6e-45 6e-45 6e-45 6e-45 6e-45 6e-45 6e-45 6e-45
6e-45 6e-45 6e-45 6e-45 -6e-45 6e-45 6e-45 6e-45
6e-45 6e-45 6e-45 6e-45 6e-45 6e-45 6e-45 6e-45
6e-45 6e-45 6e-45 6e-45 6e-45 6e-45 6e-45 6e-45
6e-45 6e-45 6e-45 6e-45 6e-45 -6e-45 -6e-45 -6e-45
0.0 0.0 0.0 0.0 0.0 0.0 0.0 6e-45
0.0 0.0 0.0 0.0 0.0 0.0 0.0 6e-45
0.0 0.0 0.0 0.0 0.0 0.0 0.0 0.0
0.0 0.0 0.0 0.0 0.0 0.0 0.0 0.0
0.0 0.0 0.0 0.0 0.0 0.0 0.0 0.0
0.0 0.0 0.0 0.0 6e-45 0.0 0.0 0.0
-6e-45 -6e-45 6e-45 -6e-45 -6e-45 -6e-45 6e-45 -6e-45
-6e-45 -6e-45 6e-45 -6e-45 6e-45 6e-45 6e-45 -6e-45
-6e-45 -6e-45 6e-45 -6e-45 6e-45 6e-45 6e-45 -6e-45
-6e-45 -6e-45 -6e-45 -6e-45 -6e-45 -6e-45 -6e-45 -6e-45
-6e-45 -6e-45 -6e-45 -6e-45 -6e-45 -6e-45 -6e-45 -6e-45
-6e-45 -6e-45 -6e-45 -6e-45 6e-45 6e-45 6e-45 6e-45
0.0 0.0 0.0 0.0 0.0 0.0 0.0 0.0
0.0 0.0 0.0 0.0 0.0 0.0 0.0 0.0
00000000: 0000 0000 0000 0000 0000 0000 0000 0000
00000010: 0000 0000 0000 0000 0000 0000 0400 0080
00000020: 0000 0000 0000 0000 0000 0000 0000 0000
00000030: 0000 0000 0000 0000 0000 0000 0400 0080
00000040: 0000 0000 0000 0000 0000 0000 0000 0000
00000050: 0000 0000 0000 0000 0000 0000 0000 0000
00000060: 0000 0000 0000 0000 0000 0000 0000 0000
00000070: 0000 0000 0000 0000 0000 0000 0000 0000
00000080: 0000 0000 0000 0000 0000 0000 0000 0000
00000090: 0000 0000 0000 0000 0000 0000 0000 0000
000000a0: 0000 0000 0000 0000 0000 0000 0000 0000
000000b0: 0400 0080 0000 0000 0000 0000 0000 0000
000000c0: 0400 0000 0400 0000 0000 0000 0400 0000
000000d0: 0400 0000 0000 0000 0400 0000 0400 0000
000000e0: 0400 0000 0400 0000 0000 0000 0400 0000
000000f0: 0400 0000 0000 0000 0400 0000 0400 0000
00000100: 0400 0000 0400 0000 0400 0000 0400 0000
00000110: 0400 0000 0400 0000 0400 0000 0400 0000
00000120: 0400 0000 0400 0000 0400 0000 0400 0000
00000130: 0400 0000 0400 0000 0400 0000 0400 0000
00000140: 0400 0000 0400 0000 0400 0000 0400 0000
00000150: 0400 0000 0400 0000 0400 0000 0400 0000
00000160: 0400 0000 0400 0000 0400 0000 0400 0000
00000170: 0400 0000 0400 0080 0400 0080 0400 0000
00000180: 0400 0000 0400 0000 0400 0000 0400 0000
00000190: 0400 0080 0400 0000 0400 0000 0400 0000
000001a0: 0400 0000 0400 0000 0400 0000 0400 0000
000001b0: 0400 0000 0400 0000 0400 0000 0400 0000
000001c0: 0400 0000 0400 0000 0400 0000 0400 0000
000001d0: 0400 0080 0400 0000 0400 0000 0400 0000
000001e0: 0400 0000 0400 0000 0400 0000 0400 0000
000001f0: 0400 0000 0400 0000 0400 0000 0400 0000
00000200: 0400 0000 0400 0000 0400 0000 0400 0000
00000210: 0400 0000 0400 0000 0400 0000 0400 0000
00000220: 0400 0000 0400 0000 0400 0000 0400 0000
00000230: 0400 0000 0400 0080 0400 0080 0400 0080
00000240: 0000 0000 0000 0000 0000 0000 0000 0000
00000250: 0000 0000 0000 0000 0000 0000 0400 0000
00000260: 0000 0000 0000 0000 0000 0000 0000 0000
00000270: 0000 0000 0000 0000 0000 0000 0400 0000
00000280: 0000 0000 0000 0000 0000 0000 0000 0000
00000290: 0000 0000 0000 0000 0000 0000 0000 0000
000002a0: 0000 0000 0000 0000 0000 0000 0000 0000
000002b0: 0000 0000 0000 0000 0000 0000 0000 0000
000002c0: 0000 0000 0000 0000 0000 0000 0000 0000
000002d0: 0000 0000 0000 0000 0000 0000 0000 0000
000002e0: 0000 0000 0000 0000 0000 0000 0000 0000
000002f0: 0400 0000 0000 0000 0000 0000 0000 0000
00000300: 0400 0080 0400 0080 0400 0000 0400 0080
00000310: 0400 0080 0400 0080 0400 0000 0400 0080
00000320: 0400 0080 0400 0080 0400 0000 0400 0080
00000330: 0400 0000 0400 0000 0400 0000 0400 0080
00000340: 0400 0080 0400 0080 0400 0000 0400 0080
00000350: 0400 0000 0400 0000 0400 0000 0400 0080
00000360: 0400 0080 0400 0080 0400 0080 0400 0080
00000370: 0400 0080 0400 0080 0400 0080 0400 0080
00000380: 0400 0080 0400 0080 0400 0080 0400 0080
00000390: 0400 0080 0400 0080 0400 0080 0400 0080
000003a0: 0400 0080 0400 0080 0400 0080 0400 0080
000003b0: 0400 0000 0400 0000 0400 0000 0400 0000
000003c0: 0000 0000 0000 0000 0000 0000 0000 0000
000003d0: 0000 0000 0000 0000 0000 0000 0000 0000
000003e0: 0000 0000 0000 0000 0000 0000 0000 0000
000003f0: 0000 0000 0000 0000 0000 0000 0000 0000

exp_avg_sq f4 [128, 48]
0.0 0.0 0.0 0.0 0.0 0.0 0.0 3.1513084e-15
0.0 0.0 0.0 0.0 0.0 0.0 0.0 3.1513084e-15
0.0 0.0 0.0 0.0 0.0 0.0 0.0 0.0
0.0 0.0 0.0 0.0 0.0 0.0 0.0 0.0
0.0 0.0 0.0 0.0 0.0 0.0 0.0 0.0
0.0 0.0 0.0 0.0 3.1513084e-15 0.0 0.0 0.0
7.175179e-16 1.4905205e-12 0.0 2.099551e-14 4.267635e-20 0.0 1.7852065e-19 1.3899136e-17
5.3327694e-12 2.3276563e-09 0.0 6.017129e-11 1.7455556e-16 0.0 2.9087797e-16 1.1900674e-17
5.590218e-19 9.737102e-16 2.430838e-24 1.4899664e-17 3.8893408e-23 2.430838e-24 1.1910931e-22 2.5031652e-22
2.6043093e-22 6.5159124e-20 4.100635e-20 2.4342245e-16 3.895116e-13 7.299047e-21 2.3164525e-18 3.8368793e-16
1.3151853e-17 1.4620526e-14 2.0799987e-12 1.2608953e-17 1.1927806e-14 2.4443462e-12 4.906376e-24 4.005378e-23
8.883182e-20 1.5214222e-17 1.5214222e-17 2.3122377e-09 3.2530624e-22 1.2637057e-22 1.396991e-19 3.7581665e-24
1.8825596e-13 1.0927132e-11 1.04210755e-16 6.6276444e-13 1.1009266e-15 5.368274e-16 3.649095e-13 6.856933e-17
7.1201073e-10 1.7569727e-08 1.2013971e-12 1.6964635e-09 2.5047372e-11 2.3208007e-12 3.1061975e-09 5.9903546e-17
1.5312282e-16 7.120107e-15 6.1641065e-18 4.4078938e-16 2.6131476e-17 2.5625627e-17 2.2371008e-16 5.1707613e-20
5.763634e-20 2.4667196e-18 1.3138597e-17 5.920182e-16 9.091355e-12 1.3359766e-18 1.3840341e-16 4.638892e-15
6.1080744e-17 3.267857e-14 2.8546445e-12 4.4444232e-17 2.7025618e-14 2.9761126e-12 2.2489694e-21 1.32903965e-20
3.0085977e-18 1.1676182e-16 1.1713591e-16 1.4859491e-09 2.4965088e-18 1.8318473e-18 4.046652e-15 1.3157251e-19
0.0 0.0 0.0 0.0 0.0 0.0 0.0 3.547341e-23
0.0 0.0 0.0 0.0 0.0 0.0 0.0 3.547341e-23
0.0 0.0 0.0 0.0 0.0 0.0 0.0 0.0
0.0 0.0 0.0 0.0 0.0 0.0 0.0 0.0
0.0 0.0 0.0 0.0 0.0 0.0 0.0 0.0
0.0 0.0 0.0 0.0 3.547341e-23 0.0 0.0 0.0
0.00077140203 0.15277807 5.5959344e-09 0.004885123 9.0727417e-07 5.9381758e-08 0.00016197696 1.1042172e-06
3.4870465 213.06769 7.949454e-05 15.770861 0.0067986604 0.00062963256 1.9479518 1.0458111e-06
5.749244e-07 0.00011498827 9.940417e-12 3.801594e-06 4.993029e-10 3.5839758e-11 7.742457e-08 1.2922884e-10
1.6842812e-10 1.5481143e-08 4.7510504e-08 8.114124e-06 0.13839012 1.0137085e-08 4.0930667e-07 2.7063925e-05
1.2475743e-06 0.00034679097 0.08872484 9.577965e-07 0.0002509044 0.13358437 7.922457e-13 7.424784e-12
9.580783e-09 1.5982054e-06 1.5982054e-06 22.044413 2.2951066e-12 1.7549049e-09 4.133562e-06 2.0152653e-10
0.0 0.0 0.0 0.0 0.0 0.0 0.0 0.0
0.0 0.0 0.0 0.0 0.0 0.0 0.0 0.0
00000000: 0000 0000 0000 0000 0000 0000 0000 0000
00000010: 0000 0000 0000 0000 0000 0000 6113 6327
00000020: 0000 0000 0000 0000 0000 0000 0000 0000
00000030: 0000 0000 0000 0000 0000 0000 6113 6327
00000040: 0000 0000 0000 0000 0000 0000 0000 0000
00000050: 0000 0000 0000 0000 0000 0000 0000 0000
00000060: 0000 0000 0000 0000 0000 0000 0000 0000
00000070: 0000 0000 0000 0000 0000 0000 0000 0000
00000080: 0000 0000 0000 0000 0000 0000 0000 0000
00000090: 0000 0000 0000 0000 0000 0000 0000 0000
000000a0: 0000 0000 0000 0000 0000 0000 0000 0000
000000b0: 6113 6327 0000 0000 0000 0000 0000 0000
000000c0: 7acf 4e26 a9c5 d12b 0000 0000 5a1c bd28
000000d0: 8b88 491f 0000 0000 8ec2 5220 6832 8023
000000e0: 51a1 bb2c 90f4 1f31 0000 0000 6d51 842e
000000f0: b53f 4925 0000 0000 03ae a725 5887 5b23
00000100: 7efe 2421 9153 8c26 b513 3c18 d66c 8923
00000110: b513 3c1a b513 3c18 8cfe 0f1b 9b4e 971b
00000120: bc6b 9d1b 46da 991f a3a5 411f d052 8c25
00000130: 8a46 db2a 07e0 091e 8dec 2a22 582e dd25
00000140: df9b 7223 a3b0 8328 ed5d 122c 1998 6823
00000150: 4cdf 5628 6d01 2c2c 65ce bd18 2eb0 411a
00000160: 8abf d11f 9153 8c23 9153 8c23 51e5 1e31
00000170: b4a2 c41b ccc5 181b 76ed 2420 1463 9118
00000180: 16f5 532a 6d3b 402d 2c4b f024 368d 3a2b
00000190: 06a9 9e26 dfba 1a26 006d cd2a 301c 9e24
000001a0: 4db7 4330 3dec 9632 e414 a92b 0129 e930
000001b0: ab51 dc2d d44f 232c ce74 5531 d020 8a24
000001c0: e189 3025 b343 0028 576a e322 0819 fe25
000001d0: 3405 f123 cd5a ec23 c8f5 8025 ab2e 741f
000001e0: 0817 881f 0403 3622 455d 7223 3ca3 2a26
000001f0: d3ef 1f2d c527 c521 7a91 1f25 3a22 a727
00000200: b5d7 8c24 d32b 1329 b4e0 482c 7df6 4c24
00000210: d56c f328 e16c 512c 65ed 291d 6a0c 7b1e
00000220: cefe 5d22 029e 0625 6b0c 0725 303a cc30
00000230: b835 3822 9e2a 0722 c7cb 9127 5a55 1b20
00000240: 0000 0000 0000 0000 0000 0000 0000 0000
00000250: 0000 0000 0000 0000 0000 0000 f489 2b1a
00000260: 0000 0000 0000 0000 0000 0000 0000 0000
00000270: 0000 0000 0000 0000 0000 0000 f489 2b1a
00000280: 0000 0000 0000 0000 0000 0000 0000 0000
00000290: 0000 0000 0000 0000 0000 0000 0000 0000
000002a0: 0000 0000 0000 0000 0000 0000 0000 0000
000002b0: 0000 0000 0000 0000 0000 0000 0000 0000
000002c0: 0000 0000 0000 0000 0000 0000 0000 0000
000002d0: 0000 0000 0000 0000 0000 0000 0000 0000
000002e0: 0000 0000 0000 0000 0000 0000 0000 0000
000002f0: f489 2b1a 0000 0000 0000 0000 0000 0000
00000300: ea37 4a3a db71 1c3e 5c46 c031 6213 a03b
00000310: 688b 7335 ef0a 7f33 5cd8 2939 9d34 9435
00000320: c52b 5f40 5411 5543 4eb6 a638 7255 7c41
00000330: 4cc7 de3b ed0d 253a 7c56 f93f cc5d 8c35
00000340: 8154 1a35 db25 f138 a9df 2e2d e31e 7f36
00000350: 513f 0930 fb9f 1d2e 9c44 a633 af16 0e2f
00000360: 4d30 392f 65fb 8432 5a0e 4c33 e621 0837
00000370: 24b6 0d3e 5f27 2e32 aebe db34 5607 e337
00000380: 5472 a735 7fd1 b539 5eb5 b53d a38d 8035
00000390: d28b 8339 57ca 083e 52ff 5e2b 419e 022d
000003a0: bb98 2432 eb81 d635 eb81 d635 f55a b041
000003b0: f780 212c 3a31 f130 07b3 8a36 ad94 5d2f
000003c0: 0000 0000 0000 0000 0000 0000 0000 0000
000003d0: 0000 0000 0000 0000 0000 0000 0000 0000
000003e0: 0000 0000 0000 0000 0000 0000 0000 0000
000003f0: 0000 0000 0000 0000 0000 0000 0000 0000

exp_avg f4 [128]
-6e-45 6e-45 6e-45 6e-45 -6e-45 0.0 6e-45 6e-45
6e-45 6e-45 0.003127889 -6e-45 6e-45 6e-45 6e-45 6e-45
0.011989375 6e-45 -6e-45 6e-45 0.0 0.0 0.0 6e-45
-6e-45 0.0 0.0 6e-45 -6e-45 6e-45 6e-45 6e-45
-6e-45 6e-45 0.0 0.0 -6e-45 0.0 6e-45 6e-45
6e-45 6e-45 6e-45 -6e-45 6e-45 6e-45 0.0 6e-45
0.0 -6e-45 -6e-45 6e-45 -6e-45 -0.0072772834 6e-45 6e-45
6e-45 0.0 -0.01843786 -6e-45 -6e-45 6e-45 6e-45 6e-45
0.02026334 0.002651621 6e-45 0.0 6e-45 6e-45 6e-45 -6e-45
6e-45 6e-45 6e-45 6e-45 6e-45 0.032301284 0.014208968 6e-45
-6e-45 6e-45 6e-45 6e-45 6e-45 -6e-45 6e-45 6e-45
6e-45 6e-45 0.0 6e-45 6e-45 0.0 0.0 6e-45
0.0 6e-45 0.0 6e-45 6e-45 6e-45 6e-45 6e-45
-6e-45 -6e-45 0.0 -6e-45 -6e-45 6e-45 6e-45 6e-45
6e-45 0.0 6e-45 6e-45 6e-45 -6e-45 0.0 6e-45
6e-45 6e-45 6e-45 6e-45 6e-45 6e-45 -6e-45 -6e-45
00000000: 0400 0080 0400 0000 0400 0000 0400 0000
00000010: 0400 0080 0000 0000 0400 0000 0400 0000
00000020: 0400 0000 0400 0000 45fd 4c3b 0400 0080
00000030: 0400 0000 0400 0000 0400 0000 0400 0000
00000040: 156f 443c 0400 0000 0400 0080 0400 0000
00000050: 0000 0000 0000 0000 0000 0000 0400 0000
00000060: 0400 0080 0000 0000 0000 0000 0400 0000
00000070: 0400 0080 0400 0000 0400 0000 0400 0000
00000080: 0400 0080 0400 0000 0000 0000 0000 0000
00000090: 0400 0080 0000 0000 0400 0000 0400 0000
000000a0: 0400 0000 0400 0000 0400 0000 0400 0080
000000b0: 0400 0000 0400 0000 0000 0000 0400 0000
000000c0: 0000 0000 0400 0080 0400 0080 0400 0000
000000d0: 0400 0080 4776 eebb 0400 0000 0400 0000
000000e0: 0400 0000 0000 0000 ff0a 97bc 0400 0080
000000f0: 0400 0080 0400 0000 0400 0000 0400 0000
00000100: 4eff a53c d1c6 2d3b 0400 0000 0000 0000
00000110: 0400 0000 0400 0000 0400 0000 0400 0080
00000120: 0400 0000 0400 0000 0400 0000 0400 0000
00000130: 0400 0000 5a4e 043d bbcc 683c 0400 0000
00000140: 0400 0080 0400 0000 0400 0000 0400 0000
00000150: 0400 0000 0400 0080 0400 0000 0400 0000
00000160: 0400 0000 0400 0000 0000 0000 0400 0000
00000170: 0400 0000 0000 0000 0000 0000 0400 0000
00000180: 0000 0000 0400 0000 0000 0000 0400 0000
00000190: 0400 0000 0400 0000 0400 0000 0400 0000
000001a0: 0400 0080 0400 0080 0000 0000 0400 0080
000001b0: 0400 0080 0400 0000 0400 0000 0400 0000
000001c0: 0400 0000 0000 0000 0400 0000 0400 0000
000001d0: 0400 0000 0400 0080 0000 0000 0400 0000
000001e0: 0400 0000 0400 0000 0400 0000 0400 0000
000001f0: 0400 0000 0400 0000 0400 0080 0400 0080

exp_avg_sq f4 [128]
3.1513084e-15 1.5214623e-17 1.1839955e-16 3.547341e-23 1.5982085e-06 0.0 2.8046953e-14 2.2468602e-13
4.7531694e-15 4.8542576e-12 0.012506141 3.6928455e-15 3.5446461e-09 7.8505037e-20 2.0102253e-16 1.6091192e-17
0.009778076 0.00011276324 3.546145e-16 9.514799e-16 0.0 0.0 0.0 4.9264358e-08
1.7497945e-17 0.0 0.0 2.4918882e-22 5.7749233e-15 1.9105956e-22 7.8758935e-12 2.0909125e-15
3.4575514e-15 7.980501e-12 0.0 0.0 3.3717993e-15 0.0 5.442796e-13 1.2547628e-18
6.059325e-11 6.1502453e-17 3.007207e-22 6.850509e-16 1.1576566e-06 5.181503e-16 0.0 2.6511703e-15
0.0 2.295145e-06 3.5687954e-15 4.5409223e-12 6.6956087e-15 0.0013359598 6.1095703e-12 9.641549e-14
4.811376e-18 0.0 0.024522288 2.2327022e-06 3.3551079e-15 3.2422889e-16 8.147729e-11 5.9010943e-12
0.07043284 0.00038881894 2.062092e-21 0.0 3.3615372e-12 2.3139418e-12 1.01841974e-16 5.5444566e-15
1.2527587e-18 9.35088e-13 6.171667e-17 6.5991157e-10 8.583859e-17 0.05394608 0.018655865 9.132727e-13
3.0060526e-15 5.724558e-17 3.1437623e-16 1.1847941e-17 7.274561e-10 3.338143e-15 6.4756435e-20 1.6668052e-09
7.213713e-22 7.862666e-18 0.0 1.1425614e-14 6.2807987e-10 0.0 0.0 6.631446e-22
0.0 1.2532979e-07 0.0 1.9355346e-12 6.026635e-06 1.9432643e-11 9.206102e-22 3.7990173e-24
3.0210754e-15 3.5427102e-15 0.0 3.255483e-15 1.6382659e-15 1.7805156e-14 5.153184e-16 2.8535162e-06
1.2273031e-09 0.0 8.193545e-07 2.20096e-09 3.5996368e-21 2.4590986e-16 0.0 2.276314e-11
1.7624713e-16 3.9140528e-13 1.0479543e-12 3.687989e-09 8.870978e-12 4.3599815e-07 2.757551e-16 1.0014063e-06
00000000: 6113 6327 8354 8c23 6181 0825 f489 2b1a
00000010: 0782 d635 0000 0000 df9f fc28 56f9 7c2a
00000020: 4040 ab27 44cb aa2c 8fe6 4c3c 7d0c 8527
00000030: 1396 7331 625d b91f 61c3 6725 416a 9423
00000040: 3934 203c 4e7b ec38 dd6b cc25 6a1f 8926
00000050: 0000 0000 0000 0000 0000 0000 bc96 5333
00000060: db63 a123 0000 0000 0000 0000 1aa0 961b
00000070: 4410 d027 12fa 661b df8d 0a2d 87aa 1627
00000080: 9124 7927 fb64 0c2d 0000 0000 0000 0000
00000090: b8f6 7227 0000 0000 7a33 192b 992b b921
000000a0: f83e 852e a4d0 8d24 46c6 b51b d673 4526
000000b0: c760 9b35 be58 1526 0000 0000 7609 3f27
000000c0: 0000 0000 4a06 1a36 5494 8027 fec4 9f2c
000000d0: 173c f127 5f1b af3a 1ef6 d62c bf1b d929
000000e0: 2982 b122 0000 0000 f7e2 c83c 88d5 1536
000000f0: d1c2 7127 bde7 ba25 a32b b32e 55a0 cf2c
00000100: 183f 903d 65da cb39 a9ce 1b1d 0000 0000
00000110: 128c 6c2c 45d4 222c e4d4 ea24 96c2 c727
00000120: e3df b821 199a 832b 174f 8e24 2665 3530
00000130: 29ee c524 91f6 5c3d 2fd4 983c 1e88 802b
00000140: e29b 5827 d3ff 8324 be39 b525 528e 5a23
00000150: 2cf6 4730 df89 7027 dde6 981f 7f15 e530
00000160: 6705 5a1c 640a 1123 0000 0000 58d3 4d28
00000170: 31a5 2c30 0000 0000 0000 0000 546c 481c
00000180: 0000 0000 6492 0634 0000 0000 7e33 082c
00000190: 6738 ca36 6cee aa2d 621e 8b1c a5f7 9218
000001a0: 01b1 5927 7847 7f27 0000 0000 1095 6a27
000001b0: 5819 ec26 e55f a028 c987 1426 097f 3f36
000001c0: e4ad a830 0000 0000 9df1 5b35 b33f 1731
000001d0: 8dfd 871d e4c1 8d25 0000 0000 093a c82d
000001e0: f932 4b25 7257 dc2a 887c 932b ca6f 7d31
000001f0: 550f 1c2d 2113 ea34 45f6 9e25 0f68 8635

exp_avg f4 [64, 128]
-6e-45 6e-45 -6e-45 -6e-45 6e-45 0.0 -6e-45 6e-45
-6e-45 -6e-45 6e-45 -6e-45 6e-45 6e-45 -6e-45 6e-45
6e-45 6e-45 -6e-45 6e-45 0.0 0.0 0.0 6e-45
-6e-45 0.0 0.0 6e-45 -6e-45 -6e-45 6e-45 -6e-45
-6e-45 6e-45 0.0 0.0 -6e-45 0.0 6e-45 6e-45
6e-45 -6e-45 6e-45 -6e-45 6e-45 6e-45 0.0 -6e-45
0.0 6e-45 -6e-45 -6e-45 -6e-45 6e-45 6e-45 -6e-45
-6e-45 0.0 6e-45 6e-45 -6e-45 -6e-45 6e-45 6e-45
6e-45 6e-45 6e-45 0.0 -6e-45 6e-45 -6e-45 -6e-45
6e-45 6e-45 6e-45 -6e-45 6e-45 6e-45 6e-45 -6e-45
-6e-45 -6e-45 6e-45 6e-45 6e-45 -6e-45 6e-45 6e-45
-6e-45 6e-45 0.0 6e-45 -6e-45 0.0 0.0 -6e-45
0.0 -6e-45 0.0 6e-45 6e-45 -6e-45 6e-45 -6e-45
-6e-45 -6e-45 0.0 -6e-45 -6e-45 -6e-45 6e-45 6e-45
-6e-45 0.0 6e-45 6e-45 6e-45 -6e-45 0.0 -6e-45
6e-45 6e-45 -6e-45 6e-45 6e-45 6e-45 -6e-45 6e-45
0.0 0.0 0.0 0.0 0.0 0.0 0.0 0.0
0.0 0.0 0.0 0.0 0.0 0.0 0.0 0.0
0.0 0.0 0.0 0.0 0.0 0.0 0.0 0.0
0.0 0.0 0.0 0.0 0.0 0.0 0.0 0.0
0.0 0.0 0.0 0.0 0.0 0.0 0.0 0.0
0.0 0.0 0.0 0.0 0.0 0.0 0.0 0.0
0.0 0.0 0.0 0.0 0.0 0.0 0.0 0.0
0.0 0.0 0.0 0.0 0.0 0.0 0.0 0.0
0.0 0.0 0.0 0.0 0.0 0.0 0.0 0.0
0.0 0.0 0.0 0.0 0.0 0.0 0.0 0.0
0.0 0.0 0.0 0.0 0.0 0.0 0.0 0.0
0.0 0.0 0.0 0.0 0.0 0.0 0.0 0.0
0.0 0.0 0.0 0.0 0.0 0.0 0.0 0.0
0.0 0.0 0.0 0.0 0.0 0.0 0.0 0.0
0.0 0.0 0.0 0.0 0.0 0.0 0.0 0.0
0.0 0.0 0.0 0.0 0.0 0.0 0.0 0.0
00000000: 0400 0080 0400 0000 0400 0080 0400 0080
00000010: 0400 0000 0000 0000 0400 0080 0400 0000
00000020: 0400 0080 0400 0080 0400 0000 0400 0080
00000030: 0400 0000 0400 0000 0400 0080 0400 0000
00000040: 0400 0000 0400 0000 0400 0080 0400 0000
00000050: 0000 0000 0000 0000 0000 0000 0400 0000
00000060: 0400 0080 0000 0000 0000 0000 0400 0000
00000070: 0400 0080 0400 0080 0400 0000 0400 0080
00000080: 0400 0080 0400 0000 0000 0000 0000 0000
00000090: 0400 0080 0000 0000 0400 0000 0400 0000
000000a0: 0400 0000 0400 0080 0400 0000 0400 0080
000000b0: 0400 0000 0400 0000 0000 0000 0400 0080
000000c0: 0000 0000 0400 0000 0400 0080 0400 0080
000000d0: 0400 0080 0400 0000 0400 0000 0400 0080
000000e0: 0400 0080 0000 0000 0400 0000 0400 0000
000000f0: 0400 0080 0400 0080 0400 0000 0400 0000
00000100: 0400 0000 0400 0000 0400 0000 0000 0000
00000110: 0400 0080 0400 0000 0400 0080 0400 0080
00000120: 0400 0000 0400 0000 0400 0000 0400 0080
00000130: 0400 0000 0400 0000 0400 0000 0400 0080
00000140: 0400 0080 0400 0080 0400 0000 0400 0000
00000150: 0400 0000 0400 0080 0400 0000 0400 0000
00000160: 0400 0080 0400 0000 0000 0000 0400 0000
00000170: 0400 0080 0000 0000 0000 0000 0400 0080
00000180: 0000 0000 0400 0080 0000 0000 0400 0000
00000190: 0400 0000 0400 0080 0400 0000 0400 0080
000001a0: 0400 0080 0400 0080 0000 0000 0400 0080
000001b0: 0400 0080 0400 0080 0400 0000 0400 0000
000001c0: 0400 0080 0000 0000 0400 0000 0400 0000
000001d0: 0400 0000 0400 0080 0000 0000 0400 0080
000001e0: 0400 0000 0400 0000 0400 0080 0400 0000
000001f0: 0400 0000 0400 0000 0400 0080 0400 0000
00000200: 0000 0000 0000 0000 0000 0000 0000 0000
00000210: 0000 0000 0000 0000 0000 0000 0000 0000
00000220: 0000 0000 0000 0000 0000 0000 0000 0000
00000230: 0000 0000 0000 0000 0000 0000 0000 0000
00000240: 0000 0000 0000 0000 0000 0000 0000 0000
00000250: 0000 0000 0000 0000 0000 0000 0000 0000
00000260: 0000 0000 0000 0000 0000 0000 0000 0000
00000270: 0000 0000 0000 0000 0000 0000 0000 0000
00000280: 0000 0000 0000 0000 0000 0000 0000 0000
00000290: 0000 0000 0000 0000 0000 0000 0000 0000
000002a0: 0000 0000 0000 0000 0000 0000 0000 0000
000002b0: 0000 0000 0000 0000 0000 0000 0000 0000
000002c0: 0000 0000 0000 0000 0000 0000 0000 0000
000002d0: 0000 0000 0000 0000 0000 0000 0000 0000
000002e0: 0000 0000 0000 0000 0000 0000 0000 0000
000002f0: 0000 0000 0000 0000 0000 0000 0000 0000
00000300: 0000 0000 0000 0000 0000 0000 0000 0000
00000310: 0000 0000 0000 0000 0000 0000 0000 0000
00000320: 0000 0000 0000 0000 0000 0000 0000 0000
00000330: 0000 0000 0000 0000 0000 0000 0000 0000
00000340: 0000 0000 0000 0000 0000 0000 0000 0000
00000350: 0000 0000 0000 0000 0000 0000 0000 0000
00000360: 0000 0000 0000 0000 0000 0000 0000 0000
00000370: 0000 0000 0000 0000 0000 0000 0000 0000
00000380: 0000 0000 0000 0000 0000 0000 0000 0000
00000390: 0000 0000 0000 0000 0000 0000 0000 0000
000003a0: 0000 0000 0000 0000 0000 0000 0000 0000
000003b0: 0000 0000 0000 0000 0000 0000 0000 0000
000003c0: 0000 0000 0000 0000 0000 0000 0000 0000
000003d0: 0000 0000 0000 0000 0000 0000 0000 0000
000003e0: 0000 0000 0000 0000 0000 0000 0000 0000
000003f0: 0000 0000 0000 0000 0000 0000 0000 0000

exp_avg_sq f4 [64, 128]
4.5826716e-17 1.18008164e-14 1.6886144e-10 4.577294e-25 9.568073e-09 0.0 1.5347056e-10 3.2211633e-13
1.8939385e-10 8.83946e-17 1.1310575e-07 4.7324432e-17 6.7553554e-09 9.772348e-15 8.074815e-11 1.8559829e-11
1.8431209e-08 4.6357506e-08 1.5191121e-14 2.602944e-13 0.0 0.0 0.0 9.0273716e-08
1.8103498e-11 0.0 0.0 2.4827894e-20 1.8356419e-11 7.627333e-25 2.6409328e-10 5.582164e-10
4.959949e-17 7.876295e-11 0.0 0.0 4.9106957e-17 0.0 7.55639e-11 8.019454e-15
1.627743e-10 1.2436601e-27 8.707436e-18 2.5100323e-16 9.2824515e-10 8.345675e-12 0.0 2.6539082e-10
0.0 5.8499086e-08 4.817645e-17 3.8443247e-15 5.0646904e-12 2.7017308e-07 1.5809422e-10 1.12598965e-10
5.064284e-12 0.0 2.3398258e-08 5.839287e-10 5.6863936e-17 2.407331e-12 1.9305651e-14 1.992012e-11
3.5015105e-08 1.6892281e-07 1.2357995e-16 0.0 4.081805e-17 1.9248907e-10 1.9408956e-10 9.057371e-12
9.813101e-14 8.0329944e-11 1.5137348e-11 3.0024167e-11 1.0788335e-10 5.613824e-08 7.905342e-08 6.319883e-13
4.7860475e-17 2.6119196e-12 1.1803712e-10 2.0743332e-11 2.9745395e-10 5.597854e-17 2.2973878e-13 6.315747e-10
1.5165976e-18 3.5856247e-16 0.0 5.365991e-13 1.050475e-11 0.0 0.0 4.6448435e-17
0.0 1.2273609e-10 0.0 9.852621e-11 2.1862244e-10 1.2325493e-10 3.2566054e-17 4.2157886e-27
5.0815396e-17 5.3035476e-17 0.0 5.167367e-17 1.2693973e-16 4.3584192e-11 3.5903475e-11 9.094075e-09
1.7193195e-11 0.0 1.32137234e-08 2.8654318e-10 6.562504e-18 3.4904597e-16 0.0 3.0520844e-12
4.7389224e-12 1.1670534e-10 3.337239e-10 2.0338431e-10 7.933307e-11 1.375947e-10 7.399375e-16 5.2847315e-10
0.0 0.0 0.0 0.0 0.0 0.0 0.0 0.0
0.0 0.0 0.0 0.0 0.0 0.0 0.0 0.0
0.0 0.0 0.0 0.0 0.0 0.0 0.0 0.0
0.0 0.0 0.0 0.0 0.0 0.0 0.0 0.0
0.0 0.0 0.0 0.0 0.0 0.0 0.0 0.0
0.0 0.0 0.0 0.0 0.0 0.0 0.0 0.0
0.0 0.0 0.0 0.0 0.0 0.0 0.0 0.0
0.0 0.0 0.0 0.0 0.0 0.0 0.0 0.0
0.0 0.0 0.0 0.0 0.0 0.0 0.0 0.0
0.0 0.0 0.0 0.0 0.0 0.0 0.0 0.0
0.0 0.0 0.0 0.0 0.0 0.0 0.0 0.0
0.0 0.0 0.0 0.0 0.0 0.0 0.0 0.0
0.0 0.0 0.0 0.0 0.0 0.0 0.0 0.0
0.0 0.0 0.0 0.0 0.0 0.0 0.0 0.0
0.0 0.0 0.0 0.0 0.0 0.0 0.0 0.0
0.0 0.0 0.0 0.0 0.0 0.0 0.0 0.0
00000000: a356 5324 a995 5428 45aa 392f 0fa9 0d17
00000010: d460 2432 0000 0000 1fbe 282f db55 b52a
00000020: a13d 502f f6d2 cb24 8be4 f233 d43e 5a24
00000030: bc1c e831 000b 3028 2b91 b12e 0541 a32d
00000040: a852 9e32 9e1a 4733 57d4 8828 6088 922a
00000050: 0000 0000 0000 0000 0000 0000 80dc c133
00000060: 743d 9f2d 0000 0000 0000 0000 2a7e ea1e
00000070: fb76 a12d f50d 6c17 d32f 912f fd70 1930
00000080: bebc 6424 9933 ad2e 0000 0000 0000 0000
00000090: 4377 6224 0000 0000 b22a a62e 3477 1028
000000a0: e4f8 322f d910 c512 b49f 2023 8ab1 9025
000000b0: 7227 7f30 94d1 122d 0000 0000 70e6 912f
000000c0: 0000 0000 6d40 7b33 b72c 5e24 a381 8a27
000000d0: ad32 b22c 4e0c 9134 91d3 2d2f 959b f72e
000000e0: 042f b22c 0000 0000 50fd c832 5482 2030
000000f0: 8b1e 8324 9f66 292c cde3 ad28 1f38 af2d
00000100: 8463 1633 2661 3534 5d7a 0e25 0000 0000
00000110: 733d 3c24 dba4 532f 5b67 552f c656 1f2d
00000120: adf8 dc29 bda5 b02e 4726 852d 350c 042e
00000130: ed3c ed2e a61c 7133 14c4 a933 8ee3 312b
00000140: adb7 5c24 29cc 372c 7fc8 012f d575 b62d
00000150: ec86 a32f e613 8124 d954 812a 1e9b 2d30
00000160: 70cf df21 7bb2 ce25 0000 0000 0a0a 172b
00000170: 30cd 382d 0000 0000 0000 0000 a234 5624
00000180: 0000 0000 23f3 062f 0000 0000 53a9 d82e
00000190: bf60 702f 2e85 072f 362f 1624 2d01 a713
000001a0: 3b58 6a24 3d95 7424 0000 0000 804d 6e24
000001b0: ff59 1225 70af 3f2e b8e7 1d2e 2a3c 1c32
000001c0: a23b 972d 0000 0000 9202 6332 5e87 9d2f
000001d0: 191d f222 1836 c925 0000 0000 77c5 562c
000001e0: 6bbc a62c a251 002f 7777 b72f 989f 5f2f
000001f0: 8c74 ae2e 7749 172f c045 5526 fe43 1130
00000200: 0000 0000 0000 0000 0000 0000 0000 0000
00000210: 0000 0000 0000 0000 0000 0000 0000 0000
00000220: 0000 0000 0000 0000 0000 0000 0000 0000
00000230: 0000 0000 0000 0000 0000 0000 0000 0000
00000240: 0000 0000 0000 0000 0000 0000 0000 0000
00000250: 0000 0000 0000 0000 0000 0000 0000 0000
00000260: 0000 0000 0000 0000 0000 0000 0000 0000
00000270: 0000 0000 0000 0000 0000 0000 0000 0000
00000280: 0000 0000 0000 0000 0000 0000 0000 0000
00000290: 0000 0000 0000 0000 0000 0000 0000 0000
000002a0: 0000 0000 0000 0000 0000 0000 0000 0000
000002b0: 0000 0000 0000 0000 0000 0000 0000 0000
000002c0: 0000 0000 0000 0000 0000 0000 0000 0000
000002d0: 0000 0000 0000 0000 0000 0000 0000 0000
000002e0: 0000 0000 0000 0000 0000 0000 0000 0000
000002f0: 0000 0000 0000 0000 0000 0000 0000 0000
00000300: 0000 0000 0000 0000 0000 0000 0000 0000
00000310: 0000 0000 0000 0000 0000 0000 0000 0000
00000320: 0000 0000 0000 0000 0000 0000 0000 0000
00000330: 0000 0000 0000 0000 0000 0000 0000 0000
00000340: 0000 0000 0000 0000 0000 0000 0000 0000
00000350: 0000 0000 0000 0000 0000 0000 0000 0000
00000360: 0000 0000 0000 0000 0000 0000 0000 0000
00000370: 0000 0000 0000 0000 0000 0000 0000 0000
00000380: 0000 0000 0000 0000 0000 0000 0000 0000
00000390: 0000 0000 0000 0000 0000 0000 0000 0000
000003a0: 0000 0000 0000 0000 0000 0000 0000 0000
000003b0: 0000 0000 0000 0000 0000 0000 0000 0000
000003c0: 0000 0000 0000 0000 0000 0000 0000 0000
000003d0: 0000 0000 0000 0000 0000 0000 0000 0000
000003e0: 0000 0000 0000 0000 0000 0000 0000 0000
000003f0: 0000 0000 0000 0000 0000 0000 0000 0000
