src/model_data/Italia_Grand_Prix_model.pth (torch, 197923 bytes, 21 tensors)

net.0.weight f4 [128, 48]
00000000: b2db 1e3e b5a6 823d bffd 5f3d 0e0a 383e
00000010: 2770 aebd 4842 2e3e daae ab3d d1af b93d
00000020: 94a8 fbbd 9ec5 603c 94a9 aa3d bcb6 a8bd
00000030: 3aab 24be 8762 0e3c dffb efbd cef8 31be
00000040: 4b65 47bd 19cf 53bd 1121 1d3c fe75 eabd
00000050: 2160 8eba b562 b7bd c4a5 103e 4c50 1b3e
00000060: 7ad2 4bbd d948 b63d 2679 193d 3936 583c
00000070: cf4e d8bd 497f 05be 0c32 b3bc 4373 eb3d
00000080: a2f5 233e 4483 28be 77c4 4c3b 5bc3 283e
00000090: 35ab f2bd 08f7 bd3c 9e86 0a3e 9c41 503c
000000a0: 492b f63b c00b aa3d 4980 fcbd 28f8 a73c
000000b0: 519e 913d 3947 d63d 13d3 853c 2159 323d
000000c0: 1f12 1c3d 9774 1bbe 7a6c 47be 4ae6 55be
000000d0: 934d 24be 3a29 ca3b c4aa c03c c7b6 bd3e
000000e0: 1006 cf3d 8afd 02be ac0a aebc aa9a c7bd
000000f0: 085c a53c 7cb4 f9bd f2ad 0e3e a39d 533d
00000100: ca41 47be c0b1 86bd c5c9 46be aca2 fb3d
00000110: 0df9 e63c 1167 a93d 0367 d1bc c0e3 773d
00000120: 7d75 5dbe 2240 203d a72c fe3d b31e cf3c
00000130: acd4 f63d 7ef9 1b3e f636 893d 6f78 96b9
00000140: 55e4 efbd e0ac 6b3e 725c b8bc 68d6 36bc
00000150: 1eb7 81bd 9d1d e43c 698a b0be 6474 eebd
00000160: 22f6 69be 1d50 fc3b 7751 4dbe cd8f 1cbd
00000170: 5a57 fc3e 10c5 60be 5cbb c3bd a8a3 873d
00000180: 5472 3f3d 0e1a f1bd 1afb e63c e8f0 e03c
00000190: 6c1e a53d 9a54 05be ece8 c03d 7f76 b5bd
000001a0: a701 f93d a791 833d b916 42be 1337 a8bc
000001b0: a214 c6bc a51f 96bd 8966 4b3d d8f7 d63d
000001c0: 4a4a b7bd f8f6 cebc 17e4 893d 9ae5 1cbe
000001d0: bb02 013e 838b 963b 9c46 083e 55fb 383e
000001e0: 1d4b d23d a763 46be 8af2 1dbe e421 14be
000001f0: f85e 8abe 6b93 73be b4aa 30bd ec98 c3bd
00000200: 8c2f babb 9dd5 29be b0d5 ac3c 0582 c2bd
00000210: 0d02 95be 4079 18be bc8f 993e 41ab fa3e
00000220: 3797 7c3e d1ba d63c 8e41 2cbd 53c5 3a3e
00000230: 53d3 0fbf 8f12 c13d e12d 40be b19a 683d
00000240: 9e1e 02be 61dd 673d a487 57bd 6b68 043d
00000250: 163c 02be 4ec9 d8bd 1c52 70bd 8e8f b5bd
00000260: 4c64 f03d eba8 37be eeb8 03be c35b 443d
00000270: 337f bd3d 383a 1abd 6ef3 d03d 3dbd 8e3d
00000280: 76b9 d5bc 5d9f 0bbe 7cd3 efbc 2f8f 39bc
00000290: d526 bb3d 9ea3 323c 1d35 2dbe 580b f4bd
000002a0: 6598 32be 8407 2bbe 1d50 0fbd 3b71 483e
000002b0: f9ce 343d 1b3c 9f3c ff6e e23c f7cc 6e3d
000002c0: 21bd a73c ea27 693e dc6f cbbd b3ab aabc
000002d0: a821 98bd 408f 9a3d 7998 c8be a9c2 71be
000002e0: bb9c 48be 9039 72be 3c98 6ebe 95b3 043e
000002f0: 640e d1be 9cf7 863d d4b8 8c3e 8a38 a03c
00000300: 0d17 873d 2fb9 4e3d cdc5 303e 896e b23d
00000310: 416e 8a3c 1df5 023e 56c9 bfbd 2430 c6bd
00000320: 3fbc 31bd bffe 11be c8d4 31bd 1655 26be
00000330: b4c2 6bbd d1ff 28be 5f98 20be 622f 453d
00000340: 9a84 63bd 419e 99b8 9d8a 18be 41c0 05be
00000350: d387 923d 6fc1 1bbe 5c17 bab9 b07f de3d
00000360: b7d3 6a3d e22a c0bd b5c1 c7bd 6022 013e
00000370: c75e 273e 5040 eebd 04ec 013e 74af 313e
00000380: a35a 0dbe 7721 d93d 55ad 3cbd fe6f 313e
00000390: 13e0 89bd 8b72 763b 7355 2f3d ddd7 f33d
000003a0: 46bb 653d dd1e 02bc f4d7 c6bd f32a 79bd
000003b0: 1a7b cc3c 8f47 293d a39a 0abe 0093 e7bc
000003c0: 89ac e9bd c9d0 6fbc dafe ed3d 54aa 21be
000003d0: 28b9 15bd 7d2c 323e bea9 edbd 052d f4bd
000003e0: b619 b2bc 1c63 8b3d 710e 21be c3a4 dfbd
000003f0: 1ef6 bbbc 6bc6 aa3d 62d1 0fbd 3fff 2c3e
0.15513495 0.06379453 0.05468535 0.17972586 -0.08517485 0.17017472 0.0838296 0.090667374
-0.12288013 0.013718991 0.08333126 -0.08237979 -0.16080943 0.008690483 -0.117179625 -0.17380068
-0.048680585 -0.051711176 0.009590403 -0.114482865 -0.0010862389 -0.08954374 0.14125735 0.1516735
-0.049761273 0.08900613 0.03746905 0.013196521 -0.105619065 -0.13036837 -0.02187445 0.11496594
0.1601167 -0.16456324 0.0031245032 0.16480772 -0.118490614 0.023189083 0.13527915 0.012710955
0.007512484 0.083030224 -0.12329156 0.020504072 0.071102746 0.104628034 0.016336 0.04354203
0.03810322 -0.15181194 -0.19474974 -0.2088863 -0.16045217 0.0061694654 0.023518927 0.3705351
0.10108578 -0.1279203 -0.021245323 -0.09746297 0.020185485 -0.12192628 0.13933542 0.051664006
-0.1945869 -0.06576872 -0.19412906 0.122868866 0.028194929 0.082716115 -0.025561815 0.060519934
-0.2162685 0.03912366 0.124108605 0.025283193 0.12052283 0.15231892 0.06699936 -0.0002869996
-0.11713473 0.23015165 -0.022505019 -0.011159517 -0.06333755 0.027846152 -0.344806 -0.116432935
-0.22847798 0.00769998 -0.20050608 -0.038223077 0.49285394 -0.21950173 -0.0955722 0.06623012
0.04673989 -0.11772548 0.028195906 0.027458623 0.08062443 -0.13020554 0.09419426 -0.08860492
0.12158518 0.06424265 -0.1895398 -0.020534074 -0.02417976 -0.073302545 0.049658332 0.10496491
-0.089497164 -0.025264248 0.06732958 -0.15321961 0.12598698 0.004594268 0.13308185 0.18064626
0.10268233 -0.19373952 -0.15424553 -0.14466053 -0.2702558 -0.23786704 -0.043131545 -0.09550652
-0.0056819376 -0.16585393 0.021097988 -0.094974555 -0.29103127 -0.14890003 0.29992473 0.4895878
0.24667059 0.026212128 -0.042054705 0.18239336 -0.5618183 0.09427368 -0.18767501 0.05678815
-0.12706992 0.056607608 -0.05261959 0.032326143 -0.12718233 -0.10585271 -0.058672056 -0.088652715
0.1173788 -0.17935531 -0.12863514 0.047939073 0.09252777 -0.037653178 0.102026805 0.06969688
-0.026089411 -0.13635011 -0.029275648 -0.011325642 0.09138266 0.010903267 -0.16914792 -0.11916226
-0.17440946 -0.16702086 -0.03498851 0.19574444 0.044142697 0.01943784 0.027640818 0.05830094
0.020475926 0.22769132 -0.09933445 -0.020833826 -0.074282944 0.07546854 -0.39178827 -0.23609413
-0.19591038 -0.23654771 -0.2330026 0.1295913 -0.40831292 0.065901965 0.27484763 0.01955821
0.065961935 0.050469574 0.17262955 0.08712489 0.016898276 0.12788816 -0.09364574 -0.09677151
-0.043392416 -0.14257334 -0.043415815 -0.16243395 -0.05755873 -0.16503836 -0.15683125 0.04814089
-0.05554638 -7.3250856e-05 -0.14896627 -0.1306162 0.07154813 -0.15210508 -0.0003549409 0.10864198
0.057330813 -0.09383179 -0.097537436 0.1261077 0.16344748 -0.116333604 0.12687689 0.17352086
-0.13804106 0.10602086 -0.04606374 0.17327878 -0.06732192 0.0037604894 0.0428061 0.11906407
0.0560868 -0.007941929 -0.097091585 -0.060831975 0.024961043 0.04132801 -0.13535552 -0.028268337
-0.114098616 -0.014637181 0.11620875 -0.15787631 -0.036553532 0.17399783 -0.116046414 -0.11922649
-0.021740776 0.06806013 -0.15728165 -0.10920098 -0.022944506 0.083386265 -0.035111792 0.16894244

net.0.bias f4 [128]
00000000: cede 713b 6fa1 84ba 426f 6dbd 8289 d4bc
00000010: 0000 0000 a484 9bbc 9348 50bd 0000 0000
00000020: 7f46 d4bc 0d34 843c 0000 0000 86f1 4d3c
00000030: 4209 2ebd f43c 21bd 6689 e83a 2cf5 083c
00000040: 884d 55bc 811e 67bd 4a9c e7bc 9d67 ddbb
00000050: 0000 0000 0000 0000 82e2 d4bc 7bd7 82bb
00000060: 832a a4bc e880 2fbd 3f27 433b 9b95 08bc
00000070: b769 983c 460c b23c 10c5 a1bc af11 8cba
00000080: 20dd 1dbc 4a16 dcbb ec24 c73c 0000 0000
00000090: b837 82bc f626 d93c f07e 5ebd 4e76 01bd
000000a0: fc45 d2bc b7f6 81bc 3df2 90bc 0000 0000
000000b0: ae41 a33c 0000 0000 47cb b3bc 0000 0000
000000c0: 24eb c1bc f07e 49bd 0000 0000 dc47 8ebb
000000d0: 1816 2bbc 1c99 8ebc 1035 31bc f132 e4ba
000000e0: 6599 ebbd db09 563b 0000 0000 0f16 05bc
000000f0: ee35 5abc 0000 0000 0000 0000 6c37 41bd
00000100: 0000 0000 a4e8 d4bb 6df2 85bc 6910 693c
00000110: e767 59bd 9cd7 67bc 0000 0000 9f6d 75bc
00000120: 0000 0000 3b71 b4bc b339 60bd 0000 0000
00000130: 57f8 b7bb 0000 0000 0000 0000 0000 0000
00000140: 0000 0000 0000 0000 a341 d0bc 62ee 75bc
00000150: 68b7 1cbd 1213 21bd 6f2f 39bb 124d f1bc
00000160: 5242 38bc 0000 0000 0000 0000 c8a4 22bd
00000170: 3f4d 34bd 899a 80bc 0000 0000 0310 96bc
00000180: 0000 0000 0000 0000 0000 0000 dcb7 19bd
00000190: 97e7 31bd 46b5 28bd e782 6bbb 5153 d4bc
000001a0: 2bd6 b9bc bde0 19bd 8a43 14bd d722 4ebc
000001b0: 2c3b c6bc 341a d5bc 152b cdbb 4e34 1ebb
000001c0: 3b0a 3fbc 09d6 7fbc c5da 08bd 0585 22bd
000001d0: a2bd 9e3c 4bb7 94bc 63be 42bd f6e2 99bc
000001e0: f523 bbbc a120 d7bc b8db 0fbd 4d3b aebc
000001f0: ef91 87bc 09f7 e63b 09a3 57ba 0000 0000
0.0036906484 -0.0010118912 -0.05796743 -0.025944475 0.0 -0.018984146 -0.050850462 0.0
-0.025912521 0.016138101 0.0 0.012569791 -0.042489298 -0.03936477 0.0017741143 0.008359235
-0.013018973 -0.056425575 -0.028272767 -0.0067567364 0.0 0.0 -0.025986914 -0.0039929724
-0.020039802 -0.042847544 0.0029778031 -0.00833645 0.018605096 0.021734368 -0.019747287 -0.0010686422
-0.00963524 -0.0067165243 0.024309598 0.0 -0.01589571 0.026507836 -0.054320276 -0.031606965
-0.025668137 -0.015864713 -0.017693633 0.0 0.01992878 0.0 -0.021947516 0.0
-0.023671694 -0.049193323 0.0 -0.0043420624 -0.010442279 -0.017406993 -0.010815874 -0.0017410201
-0.11503867 0.0032659683 0.0 -0.008122935 -0.013318522 0.0 0.0 -0.047171995
0.0 -0.0064974595 -0.01635095 0.014225104 -0.053077605 -0.014150526 0.0 -0.014979749
0.0 -0.022026649 -0.054742526 0.0 -0.005614321 0.0 0.0 0.0
0.0 0.0 -0.025421923 -0.015010448 -0.038260847 -0.039324827 -0.0028257032 -0.029455695
-0.011246281 0.0 0.0 -0.03970793 -0.04401898 -0.015698688 0.0 -0.018318182
0.0 0.0 0.0 -0.037528858 -0.043433752 -0.0411885 -0.0035936178 -0.025918635
-0.022685131 -0.037567843 -0.036197223 -0.012581549 -0.024198137 -0.026013471 -0.0062612393 -0.0024140063
-0.011660154 -0.015614995 -0.03341176 -0.03967764 0.019377533 -0.018153807 -0.04754485 -0.018784981
-0.022844294 -0.026260676 -0.03512165 -0.021268511 -0.016549079 0.007048492 -0.0008225893 0.0

net.2.weight f4 [64, 128]
00000000: 5c55 70bb b035 39be 77f0 86bd 40d7 ba3d
00000010: 4ec3 9e3d 4f45 c2bc f456 b2bd d4f1 42bb
00000020: 7196 4b3d a205 06be adcc e5bc 1997 f93d
00000030: 052e 193e 97aa 093e e89e c0bb 6e89 1c3e
00000040: 04c2 4cbe 1969 f83d 4e89 2cbe b48b e23d
00000050: ab8d 0dbe e728 223e 43c9 8dbb 35e5 7bbd
00000060: b4c6 07bd 1042 c2bd 67d9 fcbc f77f 5c3d
00000070: 3338 d73d a9aa 1abe 2236 37be cf63 af3d
00000080: 3abf d7bc 824b 7cbd a952 0c3d d14d e9bd
00000090: 17be 38be cfb1 15be 1535 403d 4e12 14bd
000000a0: fbd7 02bd 9b43 1cbc a6ab 88bd df4b 133e
000000b0: 0fd5 3b3d ee5d be3d c6a5 7b3d 3063 ae3c
000000c0: 5e61 813c ffa4 bc3d c8e6 afbd 19cc 8fbd
000000d0: 93d6 32be d9c8 14be b274 7b3d 63a3 853d
000000e0: ab0a 1ebe 8657 12be 10ef 203e ef5e 9dbc
000000f0: 3f24 14be 6e99 afbd e811 a9bd ee58 d0bd
00000100: 92ca 92bd 3585 9bbd 452b 4dbe 5a02 28be
00000110: e5cf af3d c194 1b3e bc4f 813c 42bf 8d3c
00000120: a9c9 0f3e 1fc6 4c3d 3da2 2d3e 95aa 34be
00000130: 780d 813d e941 0abe af8c 15bd 7135 763d
00000140: 99eb 0ebe 35e4 0f3e df36 ad3d 13bf bfbb
00000150: d7d4 c8ba 07d5 d33d 02b5 913d be4b b2bc
00000160: 23ef c03d 52c8 ec3d 6148 1cbe f18a d33d
00000170: bf95 ef3d 1561 0ebe c874 d7bd 9b3d 18be
00000180: 2b1b 263d 4c08 113d 7085 9dbd b9ee 303d
00000190: 68dd b43d 1f96 53bb 2247 c23d 9dc2 993d
000001a0: 2331 6d3d 9d8d e7bd d4fd b03d 3b50 0cbe
000001b0: c8ea 623d 0d36 f23d 6f9b c83d c692 1ebe
000001c0: 6d9e 2d3d 4c74 44be 4b7e 453d 868e c6bd
000001d0: d8bb 3fbe 2141 d9bd f38e 39bd eb46 c3bd
000001e0: 08f2 3f3c 4247 1cbe 6bdd f43d a254 e13c
000001f0: 66d2 0fbe af3d 9c3d ac6d e6bd cdde d53d
00000200: 084e 0f3e 6da0 183d 30af 123d 62ac 10be
00000210: 6065 d8bd f64e e3bc 91d8 82bb 3b8f 07be
00000220: 6341 2cbe ba50 1ebd a11b 66bd 42ee 4e3a
00000230: 86f1 1abe 1067 b53d 92d3 d93d 67a0 29bd
00000240: 9496 b83c 9336 f1bd 39db 9cbd c17b 16be
00000250: 9ab3 03bd 3025 313e 77d3 983c 1219 24bb
00000260: 7cd0 a1bd faf7 03be df30 d13d cc7e 873d
00000270: 6c2d aa3d 4d87 0f3e 331d 29be 5ce6 e03c
00000280: 3f6d 60bd 873c 8c3a f184 8fbd 073b 0e3e
00000290: 843b 1e3e 014f a33d 5e13 33be 953d 9a3c
000002a0: e338 0abe 4bcd 09be b045 afbd dc3a c73c
000002b0: 9be6 57bb 8893 30be 440c 1fbc 07c3 b7bd
000002c0: f763 b33d 771e 643c fb63 1d3d 4263 75bd
000002d0: 3eda 153e 1ab2 e5bc a78f f8bb 1aa2 1cbd
000002e0: 1fb9 e7bd 4b93 babd 4cb7 133e bcff f7bd
000002f0: 2fdc 293e 82c9 d6bd c396 033e 62ca f2bd
00000300: 5d4d 2b3e b083 2cbe c1d2 03be 534d 553c
00000310: 731a b53d 71fe efbd 429e c6bd 2258 bbbd
00000320: 70df 47bd 9e01 053e f510 403d f38b 033e
00000330: 17f5 d6bc a86e efbd 4b9d 90bd ce30 9dbd
00000340: 254f ac3d f934 8e3d 0471 0cbe 90b7 2abe
00000350: e410 293e ebd3 433d 774c 2b3e 5486 13be
00000360: cf2d e7bc f33b bb3d 1986 04bd 878c 05be
00000370: 7aed f53d 14bb 043e 1262 163e 656f 263e
00000380: 966e bd3d 9eee 07be 90a3 cabc 883e d6bd
00000390: 7078 db3d d392 33be 3d1f 1abd 7516 de3b
000003a0: a263 2e3e 4d6b 07be c85d 66bd e2b0 bb3c
000003b0: 1094 65bc 2944 2e3c 87df c9bd 9278 dabc
000003c0: 35e2 93bd b837 d4bc 1b6e dd3d 0503 e0bb
000003d0: d244 eebd 18be 11be 64a7 c83b 9d3c f23d
000003e0: e806 23be 6cb7 cfbd 5897 83bb 539b c3bd
000003f0: cf30 41be 0050 a53c ee12 0bbe a361 a03d
-0.0036671972 -0.18086886 -0.06588834 0.09123087 0.07752095 -0.02371469 -0.08707991 -0.0029746192
0.04970402 -0.13088086 -0.028051699 0.12187023 0.14958961 0.13443981 -0.005878318 0.152868
-0.19995886 0.12129421 -0.16849253 0.110618025 -0.13823573 0.15835916 -0.004326971 -0.061497886
-0.033148482 -0.09485257 -0.030865384 0.053832974 0.10508766 -0.15104164 -0.17891744 0.08563959
-0.026336301 -0.061595447 0.03425852 -0.113917954 -0.18041264 -0.1461861 0.046925623 -0.03615027
-0.031944256 -0.009537603 -0.06673364 0.14384411 0.045857485 0.092952594 0.06143739 0.02128753
0.015793499 0.09211158 -0.0858894 -0.070213504 -0.17464666 -0.14529742 0.061390586 0.06525304
-0.15433757 -0.142912 0.15716195 -0.019210307 -0.14466952 -0.08574186 -0.082553685 -0.10173212
-0.071675435 -0.075937666 -0.20036037 -0.16407147 0.085845746 0.15193464 0.01578509 0.017303113
0.14041771 0.04999363 0.1695642 -0.17643197 0.06301397 -0.13501705 -0.03651112 0.06010956
-0.13957061 0.14051898 0.084577315 -0.0058516352 -0.001532222 0.10343366 0.071146026 -0.021764632
0.09420612 0.115616456 -0.15261985 0.10329235 0.11698484 -0.13904221 -0.10520321 -0.1486725
0.040553253 0.035408303 -0.07691467 0.043196414 0.088312924 -0.0032285524 0.09486224 0.07507823
0.05790819 -0.113063075 0.08642164 -0.1370248 0.055399686 0.118267156 0.097952716 -0.15485677
0.042387415 -0.19184989 0.048216145 -0.09695153 -0.18724 -0.106081255 -0.045302343 -0.09535011
0.01171542 -0.15261558 0.119562946 0.027506176 -0.14045104 0.07628953 -0.11251387 0.104428865
0.1399461 0.03726237 0.035811603 -0.14128259 -0.10566211 -0.027747612 -0.003993102 -0.13238232
-0.16821818 -0.038651206 -0.056178693 0.00078937795 -0.15131196 0.08857548 0.10636057 -0.041412737
0.022532739 -0.11777987 -0.07659001 -0.14695646 -0.032153703 0.17299342 0.018655522 -0.0025039357
-0.07901093 -0.12887564 0.102143995 0.066159815 0.08309445 0.14016457 -0.16515045 0.027453594
-0.054791685 0.0010699191 -0.070077784 0.13889705 0.15452391 0.07974053 -0.17487857 0.018828193
-0.13498263 -0.1345722 -0.08558214 0.024320059 -0.0032943848 -0.17243779 -0.009707514 -0.089727454
0.08759301 0.013923279 0.038425427 -0.059909113 0.14634034 -0.028039027 -0.007585484 -0.03824053
-0.11314606 -0.09110125 0.14425391 -0.12109324 0.165879 -0.10487653 0.1285048 -0.11855008
0.1672873 -0.1684711 -0.12873365 0.013018924 0.088429354 -0.11718453 -0.09698154 -0.091476694
-0.04879707 0.12988898 0.04689117 0.12846355 -0.026239915 -0.11691028 -0.07061251 -0.076753244
0.08413533 0.069436975 -0.13714987 -0.16671586 0.1651035 0.047809523 0.16728388 -0.14406711
-0.028220085 0.09142294 -0.032354448 -0.13041888 0.12008186 0.1296199 0.14685848 0.16253431
0.09249608 -0.13274619 -0.024736196 -0.10461146 0.10716331 -0.17536478 -0.037627447 0.0067775794
0.17030194 -0.13224526 -0.05624178 0.022911493 -0.014012352 0.010636368 -0.098570876 -0.02666882
-0.0722088 -0.025905475 0.108120166 -0.0068362975 -0.1163422 -0.14232671 0.00612347 0.11827967
-0.15920603 -0.10142407 -0.0040158443 -0.0955111 -0.18866275 0.020179749 -0.1358144 0.07831123

net.2.bias f4 [64]
00000000: 4a93 c3bc ced1 13bd c975 29bd 0000 0000
00000010: 6ac5 43bc a65e 08bd 956b 94bc 0000 0000
00000020: b4ab 2d3c 18eb 01bc a1c6 d4bc 87f7 51bc
00000030: ed7c 04bc 0000 0000 5603 0d3d 6cf4 623c
00000040: 73d3 04bd 293d 323b 0746 86bb 2182 e7bc
00000050: b047 98bc 0000 0000 bd88 e9bc 0ca2 ccbc
00000060: 371a d5bc 8dd6 c0bc 5a7b 153d 9f3b 97bc
00000070: 0000 0000 1fb6 86bc 0000 0000 8ddc c0bc
00000080: 1021 e5bc cac9 e93c a6ed b6bc 1348 22bd
00000090: f1b7 803c 6426 bd3a 08d9 0bbc 93b8 dbbc
000000a0: a85f 1e3b 0000 0000 dda5 74bb 0000 0000
000000b0: 5d50 0fbc 0000 0000 4f71 7bbc 9ae3 e6bb
000000c0: cdd6 ddbc 0000 0000 71ec 0cbd d8c9 c4bb
000000d0: 9f96 b9bc 4b9e a4bb 3b6d 1ebc 0000 0000
000000e0: bcc5 abbb f21b 59bc c1e5 f83c 9467 febb
000000f0: 8cdd 81bc a445 58bc 6882 e5bc 8adb bdbb
-0.023873944 -0.036088757 -0.041372094 0.0 -0.011948923 -0.03329339 -0.018117705 0.0
0.010600019 -0.007929586 -0.02597362 -0.012815363 -0.008086425 0.0 0.03442701 0.01385222
-0.032428216 0.0027197099 -0.0040977034 -0.028260292 -0.01858887 0.0 -0.028507585 -0.024979614
-0.026013477 -0.023539806 0.03649459 -0.018461047 0.0 -0.016444264 0.0 -0.023542667
-0.027969867 0.028538603 -0.022330116 -0.039619517 0.01571271 0.0014430997 -0.008535631 -0.02682141
0.0024165902 0.0 -0.0037330308 0.0 -0.008747187 0.0 -0.015346839 -0.007046175
-0.027079964 0.0 -0.034405176 -0.006005507 -0.02265483 -0.005023753 -0.009669597 0.0
-0.0052420776 -0.013251292 0.030382993 -0.0077638123 -0.015852712 -0.013200197 -0.028016284 -0.0057939934

net.4.weight f4 [16, 64]
00000000: 768c 403e 29af 053e 88fa 64be 5ff7 4ebe
00000010: 0bc1 c03d 457f 773e ea1b f8bd 3104 293e
00000020: 3918 51bd d2c7 5d3e e9b3 5bbe 69a8 fb3d
00000030: cb83 4bbe afb0 883e 553d 413e 7d20 c03d
00000040: 3f09 db3d e46d 2c39 f1ab 64be 01fa 853e
00000050: 32a0 c33d 2512 883d c317 90be 221a 6e3d
00000060: 34e3 5e3d f71f 193e d426 e1bd d4b7 d23c
00000070: d0ea 1c3e 1a56 ab3c 5fad d8bd 36c0 823d
00000080: 4089 4c3d 260b 6dbe c29e 5cbe 8e1b 293e
00000090: 402c 85bd cc6c 39be b396 1e3e 8965 30be
000000a0: ed15 d3bc 9a4c 7d3c adc2 1d3e 95d0 86be
000000b0: 51e5 0cbc 6c12 fb3d 421c 363e 9de9 c2bd
000000c0: 2a1f 173e 2edc 32be 722e acbd 9df8 0abc
000000d0: bf4e 6bbe ff37 303e a0eb 963d 5cab 8abe
000000e0: 7a09 5d3d a29b 853e 7c8d a9bd 7876 7dbd
000000f0: 480c da3d 5687 abbd f722 8fbd 1108 efbd
00000100: 1a28 35be f15f ddbd c7b8 2e3e f16b 7d3e
00000110: ef09 773e a99f 803e c2e4 a13c 10a5 2e3e
00000120: c802 c4bd 8b57 193e 3565 653e a9dc 1a3e
00000130: 104c 0f3e 1b34 35be 62fb b73d bc07 083e
00000140: 9518 3e3e 12be 203d 5948 e3bd d67c 4fbd
00000150: 8165 743e 3c7b d23d bea0 44bd ac02 1c3e
00000160: c1ce 2dbe 4442 5cbe 15df 6b3e 1a5b 973d
00000170: 1dc4 07bd 5c4b 2c3e 3dd3 a7bd 6910 833d
00000180: c883 6ebd 22c3 13bd bf61 83bd 2024 9d3d
00000190: c8fd ffbd faa3 31be b5e2 613d ed57 d2bd
000001a0: 8ca5 173c 531e 443e cc81 853c 52b0 81be
000001b0: 93c2 8bbe c020 69be 1ac2 39be 7f0b 5ebe
000001c0: 520d 193e 293c 5fbe a3fa 09be 6171 073d
000001d0: b246 083e e0a7 15be 950c 383e 5252 57bd
000001e0: a311 dc3d e7b4 ea3d 3a44 1b3d 0ff8 4c3e
000001f0: 19a4 4d3e 8cb9 4cbe af0a 4a3e 06c0 ee3c
00000200: 1c4d dabd 6e0b d03d 3a0a 32bc f63e 4fbe
00000210: 1922 b53d 884d f7bd d24a 4bbe 4bbe 603e
00000220: ae1a 6cbe b66d 8bbb 92a6 68be 10a4 66be
00000230: 8d17 85be 27e8 4b3e dde7 883e 1930 1c3e
00000240: 9948 753e 3dd9 9dbd d864 41be fabf 883e
00000250: 52fc 853e 13c6 7a3e 8bc1 f7bd 1bd4 4f3e
00000260: 36b8 f9bd 4088 883d c3aa 64be c95b 51be
00000270: aff6 5c3e 1c96 2dbe 4839 07be 17bc 4abd
00000280: f72e 8dbd a657 0ebb d3da 79bd 95dc 903c
00000290: 5664 15be 3115 6cbc a3a2 633e 40d0 173e
000002a0: 4603 4e3e f263 35be 979c c73e cc40 06be
000002b0: 3083 8d3e dd22 223d dc79 433e 351d 073e
000002c0: bc82 8bbe 66be e53d c85f 4d3e 3adf 11be
000002d0: 9c2f 213e 05ec 2a3d c3f7 963d cb37 61be
000002e0: c537 1f3e c86e 253d 7485 fabd 3e2a 52bd
000002f0: 7430 6a3d a44d 5ebe 9631 9cbd e4f1 71be
00000300: df47 073d e20b 74be 8cae 12be 5eba 1f3d
00000310: d6ec a23d 7c7f f63d 8cd9 6b3e cf31 12be
00000320: 0a45 4bbe d8d2 35be f611 81be ce34 923d
00000330: 352a 89be 7dea 34be c76d d03d eceb 543e
00000340: eaf7 973e bbbe 68be 434a 7fbe b1f4 01bd
00000350: 7680 49be a8cf 1cbe 53d9 8ebd fbb9 a43e
00000360: a42d 45be 8c85 b5bd 75cb 6f3e 1aaf 363e
00000370: 1e4f 0abd 58ed 493e 80db 2c3d d0e3 553e
00000380: a737 183e fc36 a8bd a8ce 953c 83a6 423e
00000390: a805 263e 1b51 30be 157e 3a3e 9abb 37bd
000003a0: a7db 3dbd fbd1 a6bd 5937 dd3d 67bb 813e
000003b0: 03af 8e3e e415 11bc 1a21 5a3e 5d79 01be
000003c0: a147 993e d0f0 323e 743f e33d 6b06 c83d
000003d0: a10f 26be f63f 76bd 37b4 393e 76b2 123d
000003e0: ce82 333e 46e0 423e c74b 8abd cf2a 2b3e
000003f0: 1606 993d 8617 043e 93ec 4c3e 4fb1 5cbc
0.18803582 0.130551 -0.22361195 -0.20211552 0.0941182 0.24169643 -0.12114699 0.16505505
-0.05104849 0.21658257 -0.21455349 0.12287981 -0.19874494 0.266973 0.18871053 0.09381197
0.10695123 0.00016444136 -0.22331215 0.261673 0.09552039 0.06644086 -0.2814313 0.05813039
0.054415897 0.149536 -0.10993734 0.025722422 0.15323949 0.02091508 -0.10579943 0.063843176
0.04993558 -0.23148784 -0.21544936 0.16514418 -0.06502581 -0.18107909 0.15487175 -0.17226233
-0.025767291 0.015460158 0.15406294 -0.2633101 -0.008599595 0.12259373 0.17784217 -0.095172144
0.14757982 -0.17466804 -0.08407296 -0.008482126 -0.22979258 0.17208861 0.07369161 -0.27083862
0.053964116 0.260953 -0.08278939 -0.06188056 0.10646874 -0.08375423 -0.06989091 -0.116714604
-0.17691079 -0.10809315 0.17062674 0.24748208 0.24124883 0.2512181 0.0197624 0.17055154
-0.09570843 0.14974801 0.22401889 0.15123238 0.1399386 -0.17695658 0.08983494 0.132842
0.18564065 0.039243765 -0.110977836 -0.050656162 0.23866846 0.10277411 -0.04800486 0.15235394
-0.16973402 -0.21509653 0.23034318 0.07390423 -0.033146013 0.16825622 -0.081945874 0.06399614
-0.058231145 -0.036074765 -0.06415128 0.07672906 -0.12499577 -0.17347708 0.055147845 -0.10270677
0.009255778 0.19152193 0.016297244 -0.25329834 -0.27296886 -0.227664 -0.1814045 -0.21684073
0.14946488 -0.21800293 -0.13474517 0.03306711 0.13308218 -0.1461482 0.1797355 -0.05256874
0.107455514 0.11460286 0.037906863 0.20016502 0.2008213 -0.19992656 0.19730638 0.029144298
-0.10659239 0.1015843 -0.010866696 -0.20238861 0.08844394 -0.12075335 -0.1985276 0.21947591
-0.23057052 -0.004255022 -0.22719792 -0.22523522 -0.2599453 0.19912778 0.26739398 0.15252723
0.23953475 -0.077074505 -0.18886125 0.26708966 0.26169068 0.24489622 -0.12097462 0.20295756
-0.121933386 0.066666126 -0.22330765 -0.2044517 0.21578477 -0.16951793 -0.13205445 -0.049495783
-0.068937235 -0.0021719723 -0.060999703 0.017683307 -0.14589056 -0.014409349 0.2223001 0.14825535
0.20118436 -0.17713907 0.38986656 -0.13110656 0.2763915 0.03958403 0.19089454 0.13194735
-0.2724818 0.11217956 0.20056069 -0.1424531 0.15740818 0.041728992 0.073714755 -0.2199394
0.15548618 0.040388852 -0.122324854 -0.051309817 0.057175115 -0.21709305 -0.07626645 -0.2362743
0.033027526 -0.23832658 -0.14324397 0.038996093 0.07955329 0.120360345 0.23032206 -0.14276813
-0.19850555 -0.17756212 -0.25209016 0.07138978 -0.26790014 -0.17667575 0.10177188 0.20793122
0.2968133 -0.22729008 -0.24930672 -0.031727497 -0.1967791 -0.1531359 -0.06975045 0.32173142
-0.19255692 -0.08863363 0.23417456 0.17840233 -0.03376686 0.19719446 0.04220152 0.20887685
0.1486498 -0.082136124 0.018287018 0.19008832 0.16213095 -0.1721844 0.18212159 -0.044856645
-0.046352055 -0.08145519 0.10801572 0.2533829 0.27867898 -0.008855317 0.2130169 -0.12643953
0.2993746 0.17474675 0.11096087 0.09766849 -0.162169 -0.06011959 0.18135153 0.035814725
0.17530367 0.19030866 -0.06752735 0.16715549 0.07471864 0.12899598 0.20012121 -0.013470008

net.4.bias f4 [16]
00000000: 4439 5abc 35be 0fbd 800e d03c 6aec 043d
00000010: 578e c03c 7af4 083d e0df dfbc 34db 96b9
00000020: 0000 0000 0000 0000 d28a 2cbd f798 143d
00000030: faa4 30bc 203a 153d a325 82bd 951e a73b
-0.013319317 -0.035093505 0.02539754 0.032452025 0.023505373 0.033436276 -0.027328432 -0.0002877355
0.0 0.0 -0.042124577 0.03627869 -0.010781521 0.036432385 -0.06354835 0.005100081

net.6.weight f4 [1, 16]
00000000: 07c4 ffbe b452 dabe 4d99 c43d e482 283d
00000010: 2266 5b3d db92 a03d cf94 e23e 172a eb3e
00000020: 7ad9 523e 41e3 0b3f 92d3 6bbc e024 af3e
00000030: 3241 033f 063e 8f3e 4bf9 ecbc 582d 673e
-0.49954244 -0.42641222 0.09599552 0.041140452 0.0535642 0.078405105 0.44254157 0.4593055
0.20590773 0.54643637 -0.014393704 0.3420782 0.51271355 0.27977008 -0.028927466 0.22575891

exp_avg f4 [128, 48]
00000000: 0400 0000 0400 0000 0000 0000 0400 0000
00000010: 0000 0000 0000 0000 0000 0000 0400 0000
00000020: 0400 0000 0400 0000 0000 0000 0400 0000
00000030: 0000 0000 0000 0000 0000 0000 0400 0000
00000040: 0400 0000 0400 0000 0000 0000 0400 0000
00000050: 0000 0000 0000 0000 0000 0000 0400 0000
00000060: 0400 0000 0400 0000 0400 0000 0400 0000
00000070: 0400 0000 0400 0000 0400 0000 0400 0000
00000080: 0400 0000 0400 0000 0400 0000 0400 0000
00000090: 0400 0000 0400 0000 0400 0000 0400 0000
000000a0: 0400 0000 0400 0000 0400 0000 0400 0000
000000b0: 0000 0000 0400 0000 0400 0000 0400 0000
000000c0: 0400 0000 0400 0000 0400 0000 0400 0000
000000d0: 0400 0000 0400 0000 0400 0000 0400 0080
000000e0: 0400 0000 0400 0000 0400 0000 0400 0000
000000f0: 0400 0000 0400 0000 0400 0000 0400 0000
00000100: 0400 0000 0400 0000 0400 0000 0400 0000
00000110: 0400 0000 0400 0000 0400 0000 0400 0000
00000120: 0400 0000 0400 0000 0400 0000 0400 0000
00000130: 0400 0000 0400 0000 0400 0000 0400 0000
00000140: 0400 0000 0400 0000 0400 0000 0400 0000
00000150: 0400 0000 0400 0000 0400 0080 0400 0080
00000160: 0400 0080 0400 0080 0400 0080 0400 0080
00000170: 0400 0000 0400 0000 0400 0000 0400 0000
00000180: 479e 4bbe 3bcf 63be 8e2c adbd 65bd 31bd
00000190: e3bc 33be 7b64 1bbe e1a5 88be 8dc5 ab38
000001a0: dea9 9ac0 a390 f0c0 bc2e 0ac0 c9cd 91be
000001b0: ea89 9ec0 a298 81c0 3b18 95c0 0400 0080
000001c0: 0b5d 82bb 4037 50ba ca11 28bb 8c8b c938
000001d0: 4497 0bbb 5507 a0bb b470 8fbb 414a bdb8
000001e0: 2608 ccb8 6484 40b9 4037 d0b8 4037 d0b8
000001f0: 23a0 b33e 6b0c 0cb9 8671 6bbb 80a8 ebbb
00000200: fac1 07ba d398 4f3c 83ec 28bd 6f19 23b9
00000210: 9749 b7bb de79 c83b adbf 8db8 3932 b5b9
00000220: 8542 4fbb f02c 20bb 039b e1bb c1c5 05bf
00000230: 36ab 193b ac92 acb8 eaff 583b 5489 09b9
00000240: 8146 243e c302 363e d6fd 8c3d e9e3 0d3d
00000250: d547 113e 3c2a fc3d 4b76 5c3e be6f 8bb8
00000260: caeb 7840 1f8d bf40 b114 e43f 26cb 553e
00000270: c8ff 7e40 3fe0 5140 d2f7 6e40 0400 0000
00000280: 5eac 523b e834 253a 7fc7 063b 471f 9eb8
00000290: f394 e23a dcc2 813b 49ec 673b 1e32 9938
000002a0: 9868 a538 4ce6 1b39 e834 a538 e834 a538
000002b0: cbb7 91be 2b80 d438 b1b9 3c3b 8991 be3b
000002c0: 7b96 da39 89d1 27bc 2b9f 073d c488 0139
000002d0: 707f 8e3b 8afe a0bb 2928 6038 ec44 8f39
000002e0: 3de1 233b 57a8 fd3a 9c79 b23b c36c d03e
000002f0: 0b55 f3ba ef93 7f38 0d39 32bb ae7b db38
00000300: 0000 0000 0000 0000 0000 0000 0000 0000
00000310: 0000 0000 0000 0000 0000 0000 0000 0000
00000320: 0000 0000 0000 0000 0000 0000 0000 0000
00000330: 0000 0000 0000 0000 0000 0000 0000 0000
00000340: 0000 0000 0000 0000 0000 0000 0000 0000
00000350: 0000 0000 0000 0000 0000 0000 0000 0000
00000360: 0000 0000 0000 0000 0000 0000 0000 0000
00000370: 0000 0000 0000 0000 0000 0000 0000 0000
00000380: 0000 0000 0000 0000 0000 0000 0000 0000
00000390: 0000 0000 0000 0000 0000 0000 0000 0000
000003a0: 0000 0000 0000 0000 0000 0000 0000 0000
000003b0: 0000 0000 0000 0000 0000 0000 0000 0000
000003c0: 0400 0000 0400 0000 0400 0000 0400 0000
000003d0: 0400 0000 0400 0000 0400 0000 0400 0000
000003e0: 0400 0000 0400 0000 0400 0000 0400 0000
000003f0: 0400 0000 0400 0000 0400 0000 0400 0000
6e-45 6e-45 0.0 6e-45 0.0 0.0 0.0 6e-45
6e-45 6e-45 0.0 6e-45 0.0 0.0 0.0 6e-45
6e-45 6e-45 0.0 6e-45 0.0 0.0 0.0 6e-45
6e-45 6e-45 6e-45 6e-45 6e-45 6e-45 6e-45 6e-45
6e-45 6e-45 6e-45 6e-45 6e-45 6e-45 6e-45 6e-45
6e-45 6e-45 6e-45 6e-45 0.0 6e-45 6e-45 6e-45
6e-45 6e-45 6e-45 6e-45 6e-45 6e-45 6e-45 -6e-45
6e-45 6e-45 6e-45 6e-45 6e-45 6e-45 6e-45 6e-45
6e-45 6e-45 6e-45 6e-45 6e-45 6e-45 6e-45 6e-45
6e-45 6e-45 6e-45 6e-45 6e-45 6e-45 6e-45 6e-45
6e-45 6e-45 6e-45 6e-45 6e-45 6e-45 -6e-45 -6e-45
-6e-45 -6e-45 -6e-45 -6e-45 6e-45 6e-45 6e-45 6e-45
-0.19884597 -0.22247021 -0.08455764 -0.04339351 -0.17552523 -0.15175049 -0.26689056 8.190712e-05
-4.8332357 -7.517656 -2.1591024 -0.28477314 -4.954335 -4.049882 -4.659208 -6e-45
-0.0039783767 -0.0007942803 -0.0025645369 9.6104195e-05 -0.0021299878 -0.0048836865 -0.004377449 -9.026053e-05
-9.728996e-05 -0.00018359866 -9.928504e-05 -9.928504e-05 0.35083112 -0.00013356066 -0.003592582 -0.0071917176
-0.0005178746 0.0126707135 -0.04124118 -0.00015554366 -0.0055934894 0.0061180433 -6.759106e-05 -0.0003456043
-0.0031625342 -0.0024440847 -0.006884934 -0.52254874 0.0023447997 -8.228919e-05 0.003311152 -0.00013116497
0.1604252 0.17774491 0.06884353 0.03464118 0.14187558 0.12312743 0.215295 -6.64885e-05
3.8893914 5.9859767 1.7818815 0.20878276 3.9843616 3.279312 3.7338758 6e-45
0.0032146196 0.0006302134 0.0020565686 -7.539853e-05 0.0017286822 0.0039599966 0.003538864 7.3049436e-05
7.887295e-05 0.00014867744 7.877668e-05 7.877668e-05 -0.28460535 0.00010132821 0.0028797204 0.005815689
0.00041692317 -0.010242828 0.03311078 0.00012353348 0.004348688 -0.004913156 5.3443164e-05 0.00027326436
0.0025006079 0.0019352537 0.005446626 0.4070798 -0.0018564773 6.093451e-05 -0.002719465 0.00010465771
0.0 0.0 0.0 0.0 0.0 0.0 0.0 0.0
0.0 0.0 0.0 0.0 0.0 0.0 0.0 0.0
0.0 0.0 0.0 0.0 0.0 0.0 0.0 0.0
0.0 0.0 0.0 0.0 0.0 0.0 0.0 0.0
0.0 0.0 0.0 0.0 0.0 0.0 0.0 0.0
0.0 0.0 0.0 0.0 0.0 0.0 0.0 0.0
6e-45 6e-45 6e-45 6e-45 6e-45 6e-45 6e-45 6e-45
6e-45 6e-45 6e-45 6e-45 6e-45 6e-45 6e-45 6e-45

exp_avg_sq f4 [128, 48]
00000000: e6b2 fd36 8308 cb3b 0000 0000 e3f8 1639
00000010: 0000 0000 0000 0000 0000 0000 9bd9 8133
00000020: 1abd d73c 5a46 2241 0000 0000 f884 c13e
00000030: 0000 0000 0000 0000 0000 0000 807e 7f33
00000040: 4e2d 9e31 d4c4 9336 0000 0000 ad7c c633
00000050: 0000 0000 0000 0000 0000 0000 0925 5b2c
00000060: 7530 632c 8eaf 0430 b179 902f 6a5f 9934
00000070: 6b80 923b 557e 292e 35a8 9031 6a18 5535
00000080: f0ad 8633 e28a 5137 2b36 d83c 0e30 7c33
00000090: ac0a 1b37 2389 0d3d aee8 4825 aee8 4827
000000a0: c30d fb2c d4c9 9333 d4c9 9333 ae20 a040
000000b0: 0000 0000 1e70 7e2c f5af 3832 ccb4 7f28
000000c0: db1b c743 d6d4 4c44 13c6 d541 0f70 2642
000000d0: 02b1 da43 2f48 7343 f1c2 2344 4ded 5737
000000e0: 2c73 4349 3803 8a49 b14f 5e48 8320 8646
000000f0: 514f 5449 d636 2e49 e575 6b49 aa2a 5137
00000100: 2680 863e fbbe f83e 2eb9 e93c 679c e23c
00000110: 721f 9a3e ee9a 263e afdb e03e e5df 9338
00000120: fb4b b438 2542 693a 0121 f43b 2331 0b3c
00000130: c7ba 8444 82ce 393a 528b ed3d 6527 933f
00000140: 988b ab3b c1f5 2f3f 17c1 1a41 dc71 5339
00000150: 4fe7 013f a5d1 0e3f a125 5835 6f25 8e37
00000160: 2dd3 8c3a fd52 853b b08b 1f3c d26f 3744
00000170: 648f 2c3b 9aa4 df38 51c9 8f3d edd5 aa37
00000180: f73a bd43 e3d6 9844 203e ca41 41b9 7842
00000190: 1426 cf43 56ac 6443 2045 1944 1e6a b43b
000001a0: bd3a 3949 0676 0c4a 865c 4a48 8125 d447
000001b0: 14b7 4149 2c35 2649 64a4 6a49 3720 923b
000001c0: b6d7 7c3e 1ae3 263f 5329 e83c 5bb1 293d
000001d0: 76a1 8d3e 0448 1b3e 38b7 d23e e1b1 9538
000001e0: 90d6 b938 1888 863a d4e5 ed3b 2f96 833c
000001f0: c654 8544 fef8 003a 5463 e43d 1b32 bc3f
00000200: c403 123c ee51 233f b53d 6443 d67a 7e3b
00000210: bc05 103f 66d5 4f42 2267 3a35 27e4 8f37
00000220: 4f79 883a 102e 263c 6f13 943c 7384 4745
00000230: 00fd 743b 8421 1a3a e505 3f40 d4e8 103a
00000240: c3d6 a443 1176 2044 fc77 b641 241a 0142
00000250: 00aa b743 938a 4943 2bca 0644 428e 3137
00000260: 9cc5 1849 1c51 4f49 d60d 3248 6d19 2946
00000270: 94d9 2449 9e60 0f49 41bb 3249 9d38 0637
00000280: 9eb3 5a3e 5c15 c23e ef69 b73c 417c b03c
00000290: 6f24 7c3e cb42 093e 9451 ba3e 4f03 7838
000002a0: acfc a038 b320 4e3a 25ee c03b 8066 cd3b
000002b0: 5192 4d44 32be b539 4255 ba3d 6405 823f
000002c0: 35d4 883b 7475 003f 7a34 f840 b37e 2739
000002d0: 1c6e b73e 4688 133f 9026 a834 e893 ed36
000002e0: cf65 f739 1a32 783a a334 973b 9e70 6843
000002f0: c1cf 883b 8f3f c338 d426 773d 987f 9b37
00000300: 0000 0000 0000 0000 0000 0000 0000 0000
00000310: 0000 0000 0000 0000 0000 0000 0000 0000
00000320: 0000 0000 0000 0000 0000 0000 0000 0000
00000330: 0000 0000 0000 0000 0000 0000 0000 0000
00000340: 0000 0000 0000 0000 0000 0000 0000 0000
00000350: 0000 0000 0000 0000 0000 0000 0000 0000
00000360: 0000 0000 0000 0000 0000 0000 0000 0000
00000370: 0000 0000 0000 0000 0000 0000 0000 0000
00000380: 0000 0000 0000 0000 0000 0000 0000 0000
00000390: 0000 0000 0000 0000 0000 0000 0000 0000
000003a0: 0000 0000 0000 0000 0000 0000 0000 0000
000003b0: 0000 0000 0000 0000 0000 0000 0000 0000
000003c0: 071f 1c43 65fd 2b45 2ae1 0e41 a65d 0f43
000003d0: 11f3 1343 7191 a442 ffad 5943 f879 e63c
000003e0: 729e cf48 e0df d94a 8371 9a47 2b8c f148
000003f0: 785a 9548 ddae 7348 16fe 5349 2faf ba3c
7.560814e-06 0.006196083 0.0 0.00014397832 0.0 0.0 0.0 6.046613e-08
0.026335288 10.142176 0.0 0.3779676 0.0 0.0 0.0 5.9486865e-08
4.6035558e-09 4.403855e-06 0.0 9.242772e-08 0.0 0.0 0.0 3.114233e-12
3.228554e-12 4.82708e-10 2.6279914e-10 2.8567894e-07 0.004470875 3.8538357e-11 4.2100745e-09 7.938421e-07
6.2715e-08 1.2489707e-05 0.026393017 5.8717028e-08 9.241205e-06 0.034554612 1.742607e-16 2.7881712e-15
7.135377e-12 6.881933e-08 6.881933e-08 5.003989 0.0 3.6157809e-12 1.0750218e-08 1.4194548e-14
398.21762 819.32556 26.721716 41.609432 437.38287 243.28197 655.04596 1.28702495e-05
800562.75 1.130599e+06 227646.77 17168.256 869621.06 713581.4 964446.3 1.2467304e-05
0.26269644 0.48583207 0.028530683 0.02766247 0.30102116 0.16270038 0.43917605 7.05121e-05
8.597221e-05 0.0008898101 0.0074502234 0.008495602 1061.8368 0.0007087962 0.11598839 1.1496397
0.0052351467 0.68734366 9.672141 0.00020164944 0.50743574 0.5578864 8.052103e-07 1.694515e-05
0.0010744088 0.004068731 0.009737894 733.7472 0.0026330585 0.00010664128 0.0702082 2.0365196e-05
378.46066 1222.7152 25.280334 62.180912 414.2975 228.67319 613.0801 0.005505814
758699.8 2.3013135e+06 207218.1 108619.01 793457.25 680786.75 961094.25 0.0044594067
0.24691662 0.6519028 0.028340017 0.041428905 0.27662247 0.1516419 0.4115541 7.138006e-05
8.861453e-05 0.0010263948 0.0072600637 0.016062824 1066.6492 0.0004919915 0.11151758 1.4702791
0.008912031 0.6379689 228.24104 0.003883054 0.5625875 51.958397 6.944048e-07 1.715317e-05
0.0010412129 0.010142818 0.018075673 3192.278 0.0037382245 0.0005879628 2.9847348 0.0005527858
329.67783 641.8448 22.808586 32.275528 367.32812 201.5413 539.1589 1.0583144e-05
625753.75 849169.75 182327.34 10822.356 675225.25 587273.9 732084.06 8.000204e-06
0.21357581 0.3790692 0.02238938 0.021543624 0.24623273 0.13404386 0.36390364 5.913089e-05
7.676458e-05 0.0007863149 0.005887764 0.0062683225 822.2862 0.00034664717 0.09098293 1.0157895
0.0041756877 0.5017922 7.756406 0.0001597356 0.35826194 0.5762981 3.1320496e-07 7.080369e-06
0.00047187365 0.0009467915 0.004614429 232.43991 0.004175157 9.310163e-05 0.060339764 1.8536855e-05
0.0 0.0 0.0 0.0 0.0 0.0 0.0 0.0
0.0 0.0 0.0 0.0 0.0 0.0 0.0 0.0
0.0 0.0 0.0 0.0 0.0 0.0 0.0 0.0
0.0 0.0 0.0 0.0 0.0 0.0 0.0 0.0
0.0 0.0 0.0 0.0 0.0 0.0 0.0 0.0
0.0 0.0 0.0 0.0 0.0 0.0 0.0 0.0
156.1212 2751.8372 8.929972 143.36581 147.94948 82.284065 217.67967 0.028134331
425203.56 7.139312e+06 79075.02 494689.34 305875.75 249531.45 868321.4 0.022788612

exp_avg f4 [128]
00000000: 0400 0000 0400 0000 4837 d0b8 e834 a538
00000010: 0000 0000 0400 0000 a80a 0dba 0000 0000
00000020: 0400 0000 6c5e c739 0000 0000 6aa3 3f39
00000030: 7905 f238 00c1 a7b9 db54 3637 0d1f 1c39
00000040: 0400 0080 0400 0000 0400 0000 7563 b1b8
00000050: 0000 0000 0000 0000 0400 0000 3d92 4f38
00000060: 4010 3039 0400 0000 15b8 9638 7619 7bb9
00000070: bb10 e0b6 f31a 16b7 0400 0080 0400 0080
00000080: 6b55 3e39 0400 0000 67a6 4439 0000 0000
00000090: 0400 0000 54ef 5439 0400 0000 eda0 37b9
000000a0: 0400 0000 527c ee37 7571 be37 0000 0000
000000b0: a5f8 5339 0000 0000 0400 0080 0000 0000
000000c0: 0400 0000 ed3a c8b8 0000 0000 0400 0000
000000d0: 0400 0000 0400 0080 0400 0080 0400 0080
000000e0: 0400 0000 0400 0000 0000 0000 e290 3c37
000000f0: 0400 0000 0000 0000 0000 0000 9219 a7b8
00000100: 0000 0000 0400 0080 0838 99b8 b820 3338
00000110: 0400 0000 0400 0000 0000 0000 7b20 a438
00000120: 0000 0000 0400 0080 0400 0000 0000 0000
00000130: 0400 0000 0000 0000 0000 0000 0000 0000
00000140: 0000 0000 0000 0000 806d 31b9 0400 0080
00000150: 0400 0000 28a3 cfb8 0400 0000 6599 0fb9
00000160: bdae 86b7 0000 0000 0000 0000 0400 0000
00000170: 0400 0000 0400 0080 0000 0000 0400 0080
00000180: 0000 0000 0000 0000 0000 0000 2b2f ab36
00000190: 0400 0000 0400 0080 e0f3 0839 c2f6 8b35
000001a0: 0400 0000 0400 0000 0400 0000 f76b 4239
000001b0: 0400 0000 0400 0000 b9ef 0039 cdea 17b9
000001c0: 0400 0000 0400 0000 0400 0000 0400 0000
000001d0: 73b3 a539 2769 49b9 0400 0000 cec2 89b7
000001e0: 0400 0000 2e99 02b6 0400 0080 0400 0080
000001f0: 98be 16b8 c8aa be38 0400 0000 0000 0000
6e-45 6e-45 -9.92851e-05 7.877668e-05 0.0 6e-45 -0.0005380311 0.0
6e-45 0.00038026588 0.0 0.00018276056 0.000115404786 -0.00031996518 1.0867802e-05 0.00014888887
-6e-45 6e-45 6e-45 -8.458543e-05 0.0 0.0 6e-45 4.948884e-05
0.00016790722 6e-45 7.186845e-05 -0.0002394671 -6.677668e-06 -8.946971e-06 -6e-45 -6e-45
0.00018151633 6e-45 0.00018754006 0.0 6e-45 0.00020307052 6e-45 -0.0001751219
6e-45 2.8429702e-05 2.2702598e-05 0.0 0.00020215155 0.0 -6e-45 0.0
6e-45 -9.547719e-05 0.0 6e-45 6e-45 -6e-45 -6e-45 -6e-45
6e-45 6e-45 0.0 1.1239406e-05 6e-45 0.0 0.0 -7.9679434e-05
0.0 -6e-45 -7.306045e-05 4.2707397e-05 6e-45 6e-45 0.0 7.826179e-05
0.0 -6e-45 6e-45 0.0 6e-45 0.0 0.0 0.0
0.0 0.0 -0.00016920827 -6e-45 6e-45 -9.9009194e-05 6e-45 -0.00013694687
-1.6055414e-05 0.0 0.0 6e-45 6e-45 -6e-45 0.0 -6e-45
0.0 0.0 0.0 5.101688e-06 6e-45 -6e-45 0.00013060821 1.0428123e-06
6e-45 6e-45 6e-45 0.00018541502 6e-45 6e-45 0.00012296335 -0.00014487952
6e-45 6e-45 6e-45 6e-45 0.00031604953 -0.00019208026 6e-45 -1.6422386e-05
6e-45 -1.9460672e-06 -6e-45 -6e-45 -3.594029e-05 9.0917165e-05 6e-45 0.0

exp_avg_sq f4 [128]
00000000: d4c9 9333 837a f93b 94a0 7d3c 1975 c23b
00000010: 0000 0000 9d81 433d 0617 153c 0000 0000
00000020: 0f3f 413b 7024 8b3d 0000 0000 f29d 183d
00000030: 0ec9 993c 65ec 2b3e d910 103c 64d6 423c
00000040: 6c18 343b db24 843a c4d0 ff36 4a7c 5d3c
00000050: 0000 0000 0000 0000 dad2 1c38 922a 653c
00000060: f5ac 5d3d c654 6539 111b 423b fcdb f93b
00000070: 4660 fd3c 06ec 623c 0d58 8b3a 9482 ac3d
00000080: fccf 613d c744 ad37 0507 503c 0000 0000
00000090: e330 6b3c 25cc 113d db60 1b3b 34c8 4b3c
000000a0: 8b1f 3b37 0ba1 af3b d4a6 8e3b 0000 0000
000000b0: 2149 df3d 0000 0000 e6ac 9c3d 0000 0000
000000c0: 51a6 e830 be70 fb3c 0000 0000 6d20 bb39
000000d0: f343 ee37 a4a0 813d ab65 e53c 5f94 8834
000000e0: 335d 8339 f300 d73a 0000 0000 6e6c 853c
000000f0: fc00 b136 0000 0000 0000 0000 bcfe f53b
00000100: 0000 0000 63b1 1e3c 2365 b23d 9f25 af3c
00000110: 575b ed3a 89ef 3933 0000 0000 289c c63b
00000120: 0000 0000 7b67 f539 c902 3333 0000 0000
00000130: 7da8 063c 0000 0000 0000 0000 0000 0000
00000140: 0000 0000 0000 0000 ed13 aa3d 8bec ce37
00000150: c2f6 0538 59bd f53b 325d f834 a457 423c
00000160: 4ad8 293d 0000 0000 0000 0000 69a1 813c
00000170: bbe0 383b 3753 4038 0000 0000 2487 593b
00000180: 0000 0000 0000 0000 0000 0000 7025 123b
00000190: 898d 1e3b 2b64 b23b e0a8 a63b a0d8 383b
000001a0: b9ca fe38 4567 2638 9265 ce3c cf3a 953d
000001b0: e767 b236 402d c832 5ebe a23d 52e4 c63b
000001c0: fac6 e138 dfae ac3b ed65 663b 0a12 253c
000001d0: 5469 093e 09e5 943d 1365 1e3b d4a3 523c
000001e0: c2ac 8938 7a4d fc3c 5cbf 7939 12c9 193d
000001f0: b080 6f3d f860 253c e009 1e38 0000 0000
6.881933e-08 0.0076134815 0.015480179 0.0059343693 0.0 0.04773103 0.0090997275 0.0
0.0029487049 0.06794059 0.0 0.037260003 0.018772628 0.16789396 0.008793079 0.011891935
0.0027480377 0.0010081785 7.6238957e-06 0.013518402 0.0 0.0 3.738967e-05 0.0139872
0.054120023 0.00021870722 0.0029618184 0.007625101 0.030929696 0.013850218 0.00106311 0.08423343
0.05512999 2.0655234e-05 0.012696986 0.0 0.014354917 0.035595078 0.0023708853 0.012437869
1.1153413e-05 0.005359774 0.0043533836 0.0 0.1090262 0.0 0.07650165 0.0
1.6927492e-09 0.030693408 0.0 0.00035691579 2.8403452e-05 0.06329468 0.02800258 2.5439928e-07
0.00025055706 0.0016403481 0.0 0.016287055 5.2751257e-06 0.0 0.0 0.0075071733
0.0 0.009685847 0.087106965 0.021380244 0.0018108886 4.3291525e-08 0.0 0.0060610957
0.0 0.0004680714 4.167922e-08 0.0 0.008218882 0.0 0.0 0.0
0.0 0.0 0.08304582 2.4667263e-05 3.1939482e-05 0.0074993786 4.6261408e-07 0.0118617155
0.041466035 0.0 0.0 0.015824037 0.0028210122 4.5853867e-05 0.0 0.0033192122
0.0 0.0 0.0 0.0022300147 0.0024193248 0.00544407 0.0050860494 0.002820529
0.00012149424 3.967366e-05 0.025194917 0.072866075 5.316909e-06 2.3303642e-08 0.07946466 0.0060696984
0.00010765898 0.0052698697 0.0035155967 0.010075102 0.13419086 0.072702475 0.0024169132 0.0128564425
6.564848e-05 0.030798662 0.00023817777 0.03754527 0.058472335 0.01009392 3.7679332e-05 0.0

exp_avg f4 [64, 128]
00000000: 0000 0000 0400 0000 0400 0000 0400 0080
00000010: 0000 0000 0400 0000 0400 0080 0000 0000
00000020: 0400 0000 0400 0000 0000 0000 0400 0000
00000030: 0400 0000 0400 0000 0400 0000 0400 0080
00000040: 0400 0000 0400 0000 0400 0000 0400 0000
00000050: 0000 0000 0000 0000 0400 0000 0400 0000
00000060: 0400 0000 0400 0080 0400 0080 0400 0000
00000070: 0400 0000 0400 0000 0400 0000 0400 0000
00000080: 0400 0000 0400 0000 0400 0080 0000 0000
00000090: 0400 0000 0400 0080 0400 0080 0400 0000
000000a0: 0400 0000 0400 0000 0400 0000 0000 0000
000000b0: 0400 0000 0000 0000 0400 0000 0000 0000
000000c0: 0000 0000 0400 0000 0000 0000 0400 0000
000000d0: 0400 0000 0400 0000 0400 0000 0400 0000
000000e0: 0400 0000 0400 0000 0000 0000 0400 0000
000000f0: 0400 0000 0000 0000 0000 0000 0400 0000
00000100: 0000 0000 0400 0000 0400 0000 0400 0000
00000110: 0400 0000 0400 0000 0000 0000 0400 0000
00000120: 0000 0000 0400 0000 0000 0000 0000 0000
00000130: 0400 0080 0000 0000 0000 0000 0000 0000
00000140: 0000 0000 0000 0000 0400 0000 0400 0000
00000150: 0400 0000 0400 0080 0000 0000 0400 0000
00000160: 0400 0000 0000 0000 0000 0000 0400 0080
00000170: 0400 0000 0400 0000 0000 0000 0400 0000
00000180: 0000 0000 0000 0000 0000 0000 0400 0000
00000190: 0400 0000 0400 0000 0400 0080 0400 0080
000001a0: 0400 0000 0400 0000 0400 0000 0400 0000
000001b0: 0400 0000 0000 0000 0400 0000 0400 0000
000001c0: 0400 0000 0400 0000 0400 0080 0400 0000
000001d0: 0400 0000 0400 0000 0400 0000 0400 0000
000001e0: 0400 0000 0400 0000 0400 0000 0400 0000
000001f0: 0400 0000 0400 0000 0400 0000 0000 0000
00000200: 0000 0000 0400 0000 0400 0000 0400 0000
00000210: 0000 0000 0400 0000 0400 0000 0000 0000
00000220: 0000 0000 0400 0000 0000 0000 0400 0000
00000230: 0400 0000 0400 0000 0400 0000 0400 0000
00000240: 0400 0000 0400 0000 0000 0000 0400 0000
00000250: 0000 0000 0000 0000 0000 0000 0400 0000
00000260: 0400 0000 0400 0000 0400 0000 0400 0000
00000270: 0400 0000 0400 0000 0000 0000 0400 0000
00000280: 0400 0000 0400 0000 0400 0000 0000 0000
00000290: 0000 0000 0400 0000 0400 0000 0400 0000
000002a0: 0000 0000 0400 0000 0400 0000 0000 0000
000002b0: 0400 0080 0000 0000 0400 0000 0000 0000
000002c0: 0000 0000 0400 0000 0000 0000 0400 0000
000002d0: 0000 0000 0400 0000 0000 0000 0000 0000
000002e0: 0000 0000 0000 0000 0000 0000 0400 0000
000002f0: 0000 0000 0000 0000 0000 0000 0400 0000
00000300: 0000 0000 0400 0000 0400 0000 0400 0000
00000310: 0000 0000 0000 0000 0000 0000 0400 0000
00000320: 0000 0000 0000 0000 0000 0000 0000 0000
00000330: 0400 0000 0000 0000 0000 0000 0000 0000
00000340: 0000 0000 0000 0000 0400 0000 0000 0000
00000350: 0000 0000 0400 0000 0000 0000 0400 0000
00000360: 0400 0000 0000 0000 0000 0000 0400 0000
00000370: 0400 0000 0000 0000 0000 0000 0400 0000
00000380: 0000 0000 0000 0000 0000 0000 0400 0000
00000390: 0400 0000 0400 0000 0400 0000 0400 0000
000003a0: 0000 0000 0400 0000 0400 0000 0400 0000
000003b0: 0000 0000 0000 0000 0400 0000 0400 0000
000003c0: 0400 0000 0000 0000 0400 0000 0400 0000
000003d0: 0400 0000 0400 0000 0400 0000 0400 0000
000003e0: 0400 0000 0400 0000 0400 0000 0000 0000
000003f0: 0400 0000 0400 0000 0000 0000 0000 0000
0.0 6e-45 6e-45 -6e-45 0.0 6e-45 -6e-45 0.0
6e-45 6e-45 0.0 6e-45 6e-45 6e-45 6e-45 -6e-45
6e-45 6e-45 6e-45 6e-45 0.0 0.0 6e-45 6e-45
6e-45 -6e-45 -6e-45 6e-45 6e-45 6e-45 6e-45 6e-45
6e-45 6e-45 -6e-45 0.0 6e-45 -6e-45 -6e-45 6e-45
6e-45 6e-45 6e-45 0.0 6e-45 0.0 6e-45 0.0
0.0 6e-45 0.0 6e-45 6e-45 6e-45 6e-45 6e-45
6e-45 6e-45 0.0 6e-45 6e-45 0.0 0.0 6e-45
0.0 6e-45 6e-45 6e-45 6e-45 6e-45 0.0 6e-45
0.0 6e-45 0.0 0.0 -6e-45 0.0 0.0 0.0
0.0 0.0 6e-45 6e-45 6e-45 -6e-45 0.0 6e-45
6e-45 0.0 0.0 -6e-45 6e-45 6e-45 0.0 6e-45
0.0 0.0 0.0 6e-45 6e-45 6e-45 -6e-45 -6e-45
6e-45 6e-45 6e-45 6e-45 6e-45 0.0 6e-45 6e-45
6e-45 6e-45 -6e-45 6e-45 6e-45 6e-45 6e-45 6e-45
6e-45 6e-45 6e-45 6e-45 6e-45 6e-45 6e-45 0.0
0.0 6e-45 6e-45 6e-45 0.0 6e-45 6e-45 0.0
0.0 6e-45 0.0 6e-45 6e-45 6e-45 6e-45 6e-45
6e-45 6e-45 0.0 6e-45 0.0 0.0 0.0 6e-45
6e-45 6e-45 6e-45 6e-45 6e-45 6e-45 0.0 6e-45
6e-45 6e-45 6e-45 0.0 0.0 6e-45 6e-45 6e-45
0.0 6e-45 6e-45 0.0 -6e-45 0.0 6e-45 0.0
0.0 6e-45 0.0 6e-45 0.0 6e-45 0.0 0.0
0.0 0.0 0.0 6e-45 0.0 0.0 0.0 6e-45
0.0 6e-45 6e-45 6e-45 0.0 0.0 0.0 6e-45
0.0 0.0 0.0 0.0 6e-45 0.0 0.0 0.0
0.0 0.0 6e-45 0.0 0.0 6e-45 0.0 6e-45
6e-45 0.0 0.0 6e-45 6e-45 0.0 0.0 6e-45
0.0 0.0 0.0 6e-45 6e-45 6e-45 6e-45 6e-45
0.0 6e-45 6e-45 6e-45 0.0 0.0 6e-45 6e-45
6e-45 0.0 6e-45 6e-45 6e-45 6e-45 6e-45 6e-45
6e-45 6e-45 6e-45 0.0 6e-45 6e-45 0.0 0.0
