src/model_data/Italian_model.pth (torch, 197479 bytes, 21 tensors)

net.0.weight f4 [128, 48]
00000000: cde4 073d 3395 963b cda8 4abd 4bde 26bd
00000010: 445d b43d 6f3b f3bd 9ba3 dcbc f010 10be
00000020: dd19 f23d 4fbb 49bd 0d34 da3b 550f 433d
00000030: 66d9 e5bd 8673 26be 80aa e4bc c18d 1f3d
00000040: 56f6 aabb 2e95 2f3e 65ed 943d fb5e a73d
00000050: bc0f 32be 9a71 103e 7e2f bbbd 83d3 2ebe
00000060: 6312 10bc 481b 063d 977c 42be b56b 03be
00000070: 1503 283e 78f8 363d 2015 90bd b5d3 b6bd
00000080: 6c95 2b3e 573f 5fbe 8581 efbd 2610 cebd
00000090: b6a8 22be 2cdf 1a3e 809a 7fbd 2dd1 78be
000000a0: af01 bebd 65eb 083e 711c 2abe 21d5 a2b8
000000b0: 970b 6ebd 1c2a 6a3e 8369 0f3e 6cb0 abbd
000000c0: 0567 93bd ee2b 043e d7e6 82bd 3a83 08be
000000d0: 89f3 d83d 73ed 463d a9d0 853e b530 3bbd
000000e0: 1470 4bbe 926f c93d eae0 0fbb 068a b23c
000000f0: cd25 b5bd 4bf8 c13c fddc 1cbe f00c cabd
00000100: a799 d93d 4eed f9bd c033 3abd a347 13be
00000110: 7c61 c7bd 269d 153a 2a1c 3ebd e40e 233e
00000120: a23e 183e ff8c 593c 1db7 f2bd ae88 3e3d
00000130: 74b9 c1bd 4802 023e 025c 5ebe dd95 77be
00000140: 13d4 9abd 0faf 53be 91d0 9f3d 0856 d53d
00000150: 816e 09be 8597 bebd de91 eabd da85 54bd
00000160: 2bf4 36be f99e e9bd 8105 dcbb bce3 63be
00000170: efcc fabd ee7e 21be 9764 4bbe 5b2a 39be
00000180: 84f0 c33d 56b3 953d d57f 673d 0c1e a7bd
00000190: 10e9 47bd 7e07 e8bd 8339 18be b7ff 173e
000001a0: 8fe4 2a3e da99 173d 141f d33d fc23 9bbd
000001b0: 2741 eabc 6410 263e 9be2 3ebd d0bd 483d
000001c0: 8a7c e13d 860a 523d 3fb4 38be c696 babc
000001d0: 43d9 103e 13b9 15be 83df 34be b475 54be
000001e0: c097 f5bd 23c8 d93d 71cb 3a3e 41a5 b7bd
000001f0: 03a9 153d ffb0 fa3c f420 c7bb 2bdb dbbd
00000200: 492d 00be a97d 0bbd da5e 7bbd afc3 d33d
00000210: ade8 283e ba0a bcbd 07e8 7cbd a32c 4abe
00000220: 4e51 c9bd 2540 e3be b1db 70be 049e 32be
00000230: e30f d73d 7ec8 2ebd d561 793e 168c d8be
00000240: cbd1 813c 4be8 a5bb 7ae4 0d3e 1b12 943c
00000250: 5dff 2a3e db13 033e 804d 27be f6e4 c33d
00000260: d265 a63d 2d08 39be bf90 2a3e df44 1dbd
00000270: 1b42 a03d 319f 3bbe 81e7 993d 8991 9abd
00000280: e569 7bbc 5c17 04be e316 34be 002d 133d
00000290: 2991 0a3e 3c33 2b3e 7dcb 0bbe 0c37 debd
000002a0: 6646 8d3d 3976 5fbd 6350 1c3e 8eaa 1a3e
000002b0: 4c42 233d 3429 cbbd 8fc0 1c3d b39d 223d
000002c0: b22d e9bc fd8f 053e f949 31be 68a4 c03d
000002d0: 63fb a2bd 702d a4bd 54a7 edbd eb96 a03b
000002e0: 6171 1d3e 9c69 403d d261 0dbe 837e 133e
000002f0: aa7c 933d 144d 1cbe 1b8f 0c3e 4a75 6a3d
00000300: 85f7 aa3b 3640 ec3d d340 d1bd ca43 233e
00000310: b4e3 44bd d0c0 663d 1abf 3cbc 433e d03c
00000320: 4b58 8f3d 8c48 0cbe cfae bb3d 680d b0bd
00000330: 9680 5e3c 4271 e43a df1a 06bd b3f9 92bd
00000340: b2af 02be bf54 253e cc5b 95bd aee2 d23c
00000350: 3b92 2fbe 9f1a dbbd b6ef b9bd 046c 0cbd
00000360: 5b4a 243d ada8 cabd bbff 62bd 5166 3c3d
00000370: 519f 9abd ba1d 08be e5f4 e13d a914 a43d
00000380: 9d9c e43d 3ad6 31be 68ce 053d 9ebb 0e3e
00000390: 06b5 14be e847 d7bd f7a0 00be 1b17 3bbe
000003a0: 9602 01be 59d5 c73c 8f47 f3bd 4805 df3d
000003b0: c92c 28bd 2d05 02bd 5a1e 0c3d 2bdf 1fbe
000003c0: 45a1 c4bd 0272 febd 7440 d43d 4237 fdbd
000003d0: 668c d23d 14b6 28be 2fc4 1f3e ece1 c93d
000003e0: 20d2 29be 856c 3bbe 7da5 0fbe 951e bdbd
000003f0: ba09 a9bd 1080 d33d e977 273e 04cf 32be
0.033177186 0.0045954227 -0.049477387 -0.04073934 0.088068515 -0.118765704 -0.026933482 -0.14068961
0.11821339 -0.049250897 0.006659037 0.047622044 -0.11223106 -0.16255006 -0.027913332 0.038953546
-0.005217354 0.17146751 0.07271842 0.08172413 -0.17388815 0.14105836 -0.09139918 -0.17072873
-0.008793446 0.03274086 -0.1899284 -0.12834056 0.16407426 0.044670552 -0.07035279 -0.08927099
0.16756219 -0.21801506 -0.11694626 -0.10061674 -0.1588467 0.15124196 -0.062403202 -0.24298544
-0.09277665 0.13371046 -0.16612412 -7.76446e-05 -0.05811652 0.22867626 0.14005093 -0.08383259
-0.07197384 0.12907383 -0.063916855 -0.13331309 0.10593326 0.048566293 0.26135758 -0.045700748
-0.19866973 0.098357335 -0.0021954128 0.02179433 -0.088451006 0.023677966 -0.15318675 -0.09865749
0.1062501 -0.122034654 -0.04545951 -0.14382796 -0.097353905 0.0005707316 -0.046413578 0.15923649
0.14867643 0.013278245 -0.11851332 0.046517067 -0.094592005 0.12696183 -0.21714786 -0.24178262
-0.07559981 -0.20672248 0.07803453 0.104168 -0.1342106 -0.09306244 -0.11453603 -0.051885463
-0.1786658 -0.11407275 -0.0067145233 -0.22254843 -0.12246119 -0.15771076 -0.1986259 -0.18082564
0.09567359 0.07309596 0.056518395 -0.08160028 -0.04880625 -0.11329554 -0.14865689 0.14843641
0.1668875 0.03701196 0.10308662 -0.07575223 -0.02859552 0.1621719 -0.046602827 0.049009144
0.11010082 0.051279567 -0.18037508 -0.022776973 0.14145379 -0.14621381 -0.17663388 -0.20748025
-0.11991835 0.10633876 0.18241669 -0.089670666 0.036538135 0.030601976 -0.0060769264 -0.10735162
-0.12517275 -0.034055386 -0.061369754 0.10340058 0.16495009 -0.091817334 -0.061744716 -0.1974359
-0.09829961 -0.44384876 -0.23521306 -0.1744309 0.10501077 -0.042671673 0.24353726 -0.42294377
0.015847107 -0.005063092 0.13856688 0.01807504 0.16698976 0.12800543 -0.16338158 0.09565155
0.081248894 -0.18069525 0.16656779 -0.03839576 0.078251086 -0.18322445 0.07514859 -0.0754729
-0.015345071 -0.12899536 -0.17586856 0.035931587 0.13531937 0.16718763 -0.13651843 -0.10850343
0.06898193 -0.054556105 0.1526504 0.15104124 0.039858148 -0.09919968 0.038269576 0.039701175
-0.028464172 0.13043208 -0.17313375 0.09406358 -0.079581045 -0.08016479 -0.11604181 0.0049008033
0.15375282 0.046975717 -0.13806847 0.14403729 0.07201512 -0.15263778 0.13726465 0.05724076
0.005217495 0.11535685 -0.10217442 0.15943828 -0.048068717 0.056336224 -0.011520172 0.025420314
0.069992624 -0.1369955 0.091642015 -0.08596307 0.013580462 0.0017428773 -0.03274047 -0.071765326
-0.12762335 0.1614561 -0.072928995 0.025742855 -0.17145626 -0.10698437 -0.09078924 -0.0342827
0.040109973 -0.098954536 -0.055419665 0.045996014 -0.075499184 -0.1329259 0.11033038 0.08011753
0.11162684 -0.17366877 0.032667547 0.13938758 -0.1452218 -0.10511762 -0.12561403 -0.18270533
-0.12598643 0.024393724 -0.11878883 0.10889679 -0.041058335 -0.031743217 0.034208633 -0.15612476
-0.09601072 -0.12424089 0.10363856 -0.12364055 0.10280685 -0.16475707 0.15602182 0.09857544
-0.16584063 -0.18303116 -0.14027973 -0.09234349 -0.08253808 0.1032716 0.16354336 -0.17461783

net.0.bias f4 [128]
00000000: aa11 4bbc 4835 40bd 6380 833c 250e 05bc
00000010: 0000 0000 0000 0000 a3c2 04bd a11c 4cbd
00000020: 0000 0000 ecdb a13c 41f7 94bc 8bc9 02bd
00000030: 0b8c 8ebd a97e 67bc 3cdd 44bd 9934 cebc
00000040: 91a6 803b 0000 0000 ae2d d03c 6e6c 743c
00000050: 5627 e4bb 0000 0000 0000 0000 3a6c f3bb
00000060: 5c98 0cbd 0000 0000 b9b2 90bc 0000 0000
00000070: 4a24 69bc 0156 00bc 64b8 41b7 75a5 35bd
00000080: 7afb d0bc a75e a53c e0e5 1f3c 152f f2bc
00000090: 34ea 05bd 9161 1ebd f724 b63d 57fd 0dbc
000000a0: e930 ae3c b921 48bb 0000 0000 be2f 98bc
000000b0: 7fdf 25bc 4b40 c43c db9f 0bbc 8030 0dbc
000000c0: 0000 0000 0560 17bc cd66 02bb c562 05bd
000000d0: a3a0 c83c fc7e 2abd 1f45 34bd bf5f d1bc
000000e0: 1c9c 1ebd 9085 883b 2bd1 7839 098b 00bd
000000f0: 0000 0000 c5cf ccbc 0000 0000 5714 07bd
00000100: d3c6 8d3c 0000 0000 7354 41bc 0000 0000
00000110: 0000 0000 ee50 3ebd 0000 0000 3d23 cfbc
00000120: 98c9 9fbc 42f1 6dbc 0000 0000 0000 0000
00000130: a6e4 37bd c8da b73c 8905 69bd f9e0 a63b
00000140: 0000 0000 ef7f 0cbd b83f acbc 0000 0000
00000150: 1a56 adbc 8ca4 713c 5c0e 83bc a3e0 b9bc
00000160: 50b8 80bc c9e4 e5bb 0000 0000 0000 0000
00000170: 0000 0000 b048 52bc 0000 0000 0059 4ebd
00000180: 3ebc 56bd 8990 5abd 0000 0000 0000 0000
00000190: 8b8f 25bd aa79 edbc 59bc 13bd ec7d 90bc
000001a0: 11ae 91bc d793 61bd 83e6 c1bb 872e 05bd
000001b0: e669 f3bc 1255 5ebc 2ad4 66bb 9996 13bd
000001c0: 0cf7 d53c eb9a eabc 0000 0000 0000 0000
000001d0: 56bb 13bd 0000 0000 1321 373c 9a94 64bc
000001e0: 4ea4 b83c d915 cebc 0000 0000 7e37 af3c
000001f0: ecc4 71bc 5d9f 493a 0000 0000 0000 0000
-0.012394348 -0.046925813 0.01605243 -0.008121048 0.0 0.0 -0.032412183 -0.04983199
0.0 0.019758187 -0.018184306 -0.031930488 -0.06960305 -0.014129319 -0.048062548 -0.025171565
0.0039261063 0.0 0.025412407 0.01491843 -0.006962697 0.0 0.0 -0.007428673
-0.03432499 0.0 -0.017663347 0.0 -0.014229843 -0.007833005 -1.1546628e-05 -0.044347245
-0.025510538 0.020186735 0.009759396 -0.029563466 -0.032694057 -0.038667265 0.08893769 -0.008666358
0.021263557 -0.0030537678 0.0 -0.018577453 -0.010124086 0.023956439 -0.008521999 -0.00861752
0.0 -0.009239201 -0.00198977 -0.032564897 0.02449066 -0.041625008 -0.04401123 -0.02555835
-0.038723096 0.0041663125 0.00023729044 -0.031382594 0.0 -0.025001416 0.0 -0.032978382
0.01730672 0.0 -0.011799919 0.0 0.0 -0.0464639 0.0 -0.025285358
-0.019505307 -0.014522852 0.0 0.0 -0.04489579 0.02244319 -0.056890044 0.005092737
0.0 -0.034301694 -0.021026477 0.0 -0.02115922 0.014748704 -0.015998058 -0.022690123
-0.015712887 -0.0070157987 0.0 0.0 0.0 -0.012834713 0.0 -0.050377846
-0.052425615 -0.053360496 0.0 0.0 -0.040420096 -0.028988678 -0.036068294 -0.01763817
-0.017783197 -0.05507263 -0.0059173717 -0.032515075 -0.029713582 -0.013570087 -0.0035221674 -0.036032293
0.026118778 -0.028638324 0.0 0.0 -0.03606733 0.0 0.011177319 -0.013951445
0.022539284 -0.025156902 0.0 0.021388765 -0.0147564225 0.00076912885 0.0 0.0

net.2.weight f4 [64, 128]
00000000: 0d42 e43d 2eb7 cabd 57fc 07be a8c0 b3bc
00000010: b26f 29bd 4c2d 573d 3185 a9bd 2e0a 24be
00000020: 3168 333e f050 473d be2e 9bbb 1759 a33c
00000030: 3f0d d53d 71bd d9bd 0020 fc3d 6ee7 c53d
00000040: a728 a13d 6995 18be f97e 21bd 8229 d8bd
00000050: 1fce 36bd 3f63 b3bd 148f 273e 7775 a83d
00000060: 16e7 a73d 81d9 28bd aaff 9abd 5941 0d3e
00000070: 757d a53d 6c75 c6bd af21 d6bd 604a a3bd
00000080: f272 27be e54c c9bd aea0 b1bd 7976 56bd
00000090: 807a 5fbc 5a9f a53d 82a7 083e 6996 2bbe
000000a0: 4c1a 3ebc b0eb 99bd e6bf 383b f74b 033d
000000b0: 47b6 2dbe 1246 5f3d 8624 0b3e 8423 71bc
000000c0: c0c4 03be 04a5 d7bd 5a1c b5bd adc7 e83d
000000d0: 8ff0 ddbd d43e bcbd 2963 eabc fdb6 f7bd
000000e0: ac46 1dbd 1134 aabd 4a0d 383d f27d d3bc
000000f0: 9a44 bd3d b284 2b3c 1382 20be db7c 33bc
00000100: df54 e53d 5a13 3abd cfb4 69bb 1264 dc3d
00000110: 713e 5c3d 3ad6 8f3c 6551 123e fc9a 7fbc
00000120: e05d efbd e226 b03d 27e4 f83b 54de 23be
00000130: 6cf2 b43d ec4f 55bd 773b a73c 578b 1b3d
00000140: 288f bf3d 6329 813d bf04 5eba 003a 643d
00000150: 88eb 023c 188a dbbd ced9 9d39 a40c 3fbd
00000160: 1d7c 203e 314e 243e b7ea 573c 7d96 c0bb
00000170: 627a 093c 7851 623d ee19 553d f761 353e
00000180: 5b66 203e 966f a1bd 8922 1c3c 3d48 6b3c
00000190: 66c6 c2bd 9ba2 1ebe d772 87bc 9a9b a8bd
000001a0: 6f81 7ebd 555a a83c 498a 00be 5156 b63d
000001b0: bb5f afbd 7b4e c0bb e88e 143e 51a6 d63c
000001c0: 999b 0c3e 0585 15bd 31bf abbd d245 dcbb
000001d0: fe90 063e 6670 a6bd 98cf 263e e2df 5d3c
000001e0: adf1 2bbd 3d8f 033e c78e 2c3e ef00 4d3d
000001f0: 4b70 cc3d 8dfb 253e c65d f13c 9139 dcbd
00000200: 2982 3bbe d965 033e 8954 1fbc 578d 0ebd
00000210: 56b5 f7bd f38e fcbd f3f2 d03d 1933 3cbe
00000220: e5ce 25be 4308 2ebd ab46 cbbe 560c c53d
00000230: 6214 e83c 9097 c3bd cb3e 13be c6e0 f1bd
00000240: 19cd f53d 59f1 0d3e ce26 1dbe 9b81 f03d
00000250: 6eed 0fbd ff95 a8bc a46d 473c 215f 26be
00000260: 5429 e9bc d477 0e3e ea4f efbd f9eb 703d
00000270: e7d1 38be 7bf1 6b3d d7a5 2fbd ec82 d13d
00000280: b30f e53d 1344 523d b6c1 9b3d 2459 f4bd
00000290: 4794 1e3e e58d 453d c3de 883e dfb1 c43d
000002a0: 9233 193e 543b 903e 5812 c3bd 9602 123d
000002b0: 014a c5bd ba11 763c d7ce 013e a4d1 34be
000002c0: ab37 0dbe bd8c b33d d8eb a43d e031 d7bd
000002d0: 7495 1cbe caa0 883d 72a9 bfbd 7aa4 2ebe
000002e0: ba4f 0c3e fd12 2d3d 077e 46bd e40e a2bd
000002f0: 8c5a 213d 4b48 103e 448b c03d f891 57bd
00000300: fc92 a5bc d5ff 153d cc8b bc3b 9f04 dcbd
00000310: f8c8 10bd 04f1 41bc 83c4 a43d 06da c4bb
00000320: 928b 1dbd 867c b2bd accf b03b 792c 133e
00000330: 5249 cf3c 2002 16bd 05c6 d2bc e15f 0cbd
00000340: 82fc 303e df59 debd 04c9 16be da3b 99bc
00000350: 2f6b 3fbe 3fc9 01be e1da 65bd 59c6 0ebe
00000360: c663 203d b2e7 94bd a220 f9bd a94b ee3d
00000370: b8b3 0abb 1fbc 893d 904a abbc 32c9 a73a
00000380: ae79 373d eca8 8b3d 9294 fc3d ab6f 12be
00000390: e56b 173e 95b1 2abe b75a d5bd 29d1 3e3d
000003a0: 7227 aabd a7ce 17bd 8a67 783e 9abf 6d3d
000003b0: 0fbc adbd 9bb8 afbd b652 b73d 1ab0 01be
000003c0: 9416 b5bc 7f6c f1bc 1344 cdbd 53bc 763d
000003d0: 5db6 7bbd 526b 4bbd 4b0f 42be 59e8 b13d
000003e0: 39a2 51bd c0f7 dabd 609c aebc b44c 053d
000003f0: 22c4 0dbe 7dd4 aa3d 2e42 0d3e 22dd bcb9
0.11145411 -0.0989822 -0.13279854 -0.021942452 -0.041366287 0.052533433 -0.08277357 -0.16019508
0.17520215 0.048661172 -0.0047357967 0.019939942 0.10402917 -0.10631836 0.12310791 0.09663282
0.07869082 -0.14900745 -0.03942773 -0.10554792 -0.044630166 -0.08759164 0.16363174 0.0822553
0.08198373 -0.041223053 -0.07568295 0.1379446 0.0808057 -0.09690365 -0.104556434 -0.0797317
-0.16352442 -0.098291196 -0.08673225 -0.052359078 -0.013640046 0.080870345 0.13345149 -0.16756596
-0.011602949 -0.07515657 0.0028190552 0.032054868 -0.16964065 0.054510184 0.13588151 -0.01471794
-0.12868023 -0.10529521 -0.08843298 0.1136621 -0.108368985 -0.09191671 -0.028611736 -0.12095449
-0.038397476 -0.08310712 0.04493455 -0.025816891 0.092416 0.010468649 -0.1567462 -0.010955061
0.111978285 -0.04542861 -0.0035660749 0.107612744 0.053770486 0.017558206 0.14288862 -0.015600916
-0.11687827 0.08601166 0.0075955573 -0.1600278 0.08835301 -0.052078173 0.020414097 0.03797468
0.09353477 0.06306722 -0.0008469335 0.055719376 0.007990725 -0.10719699 0.0003010765 -0.046642914
0.15672345 0.16045453 0.013178519 -0.0058773146 0.008390995 0.055253476 0.05202668 0.17713152
0.15664046 -0.078826115 0.009529718 0.014360485 -0.09510498 -0.15491717 -0.016534252 -0.08232804
-0.062135156 0.020550886 -0.12552752 0.08903182 -0.08563181 -0.0058687306 0.1450764 0.026202353
0.13731231 -0.03650381 -0.08386076 -0.0067221904 0.13141248 -0.08126907 0.16290128 0.013542147
-0.041978527 0.1284761 0.1685134 0.05004972 0.09982356 0.1620924 0.02946366 -0.107531674
-0.18311371 0.1283182 -0.009724745 -0.03480276 -0.12095134 -0.12331953 0.10202589 -0.18378867
-0.16192205 -0.042488348 -0.39702353 0.096214935 0.028330032 -0.09550393 -0.14379422 -0.1181045
0.1200201 0.13861598 -0.15346834 0.1174347 -0.03513854 -0.020579336 0.012172136 -0.16247226
-0.02846209 0.13912898 -0.11685164 0.05881879 -0.18048821 0.05760334 -0.042882767 0.102300495
0.11184635 0.051334452 0.07605307 -0.11931065 0.15486251 0.048231024 0.26732454 0.09604239
0.14961079 0.28170264 -0.09524983 0.035646997 -0.09633256 0.015018875 0.1267656 -0.17658097
-0.13790767 0.08767078 0.08052796 -0.1050756 -0.15291387 0.06671293 -0.09358491 -0.1705493
0.13702288 0.042254437 -0.048460033 -0.079129964 0.039392993 0.14090078 0.09401563 -0.05262944
-0.02021169 0.036620934 0.00575397 -0.10743069 -0.03534791 -0.011837248 0.08045294 -0.0060074357
-0.038463183 -0.08715157 0.00539585 0.14372434 0.025303517 -0.03662312 -0.025729189 -0.034271125
0.17283824 -0.10856985 -0.14725119 -0.018705297 -0.18693231 -0.12674426 -0.056116942 -0.13942851
0.03915765 -0.07270755 -0.12164427 0.11635525 -0.002116425 0.067253344 -0.020909578 0.001280105
0.044793777 0.06819329 0.12333025 -0.1430041 0.14787252 -0.16669305 -0.10417693 0.04658619
-0.08308305 -0.037062313 0.24258247 0.058044054 -0.08483135 -0.085801326 0.08951323 -0.12664834
-0.022105493 -0.02947068 -0.1002275 0.060238194 -0.061453212 -0.049662896 -0.18951146 0.08686895
-0.0511801 -0.10691786 -0.0213148 0.032543853 -0.1384435 0.0834131 0.13794777 -0.0003602291

net.2.bias f4 [64]
00000000: dec8 9b3c b3cd 97bc 24a1 9bbc 0000 0000
00000010: c0f9 13bd 0000 0000 56cf 86bc 0000 0000
00000020: 330f 09bd 7b53 febb e9ed 90bc 96f1 96bc
00000030: 8b4c 633c 0000 0000 70d4 003d 6227 cd3c
00000040: 0000 0000 0000 0000 42c9 61bc 4cbc 023d
00000050: 7b4d c1bb 4c42 01bd c903 a8bc ec2c 1fbd
00000060: 0000 0000 0728 00bd 0185 71bc 00fc 17bd
00000070: 0000 0000 52b2 a13b 191b a1bc 0000 0000
00000080: e061 8ebc 720f 263c 7a39 dfbc 133b 01bd
00000090: 0f9b 593c 4c28 d23c e4d8 9ebc 8bbf 98bc
000000a0: 82bd 82bc e925 13bd f891 68bb 89d0 8ebc
000000b0: 7b60 05bd 0000 0000 0000 0000 0000 0000
000000c0: 05bd cebc c17f b2bc b032 febc 6f13 933c
000000d0: 8d0c ca3c f99d a93c 086c 853a 7e26 ffbc
000000e0: 997c 0bbd 0a75 4cbc 0000 0000 5287 923c
000000f0: ee0a 333c 76d4 edbc 0000 0000 0000 0000
0.01901668 -0.018530702 -0.018997736 0.0 -0.036126852 0.0 -0.016456287 0.0
-0.03346176 -0.0077614165 -0.01769157 -0.018425744 0.01387323 0.0 0.031452596 0.025043193
0.0 0.0 -0.013780894 0.031917855 -0.005899129 -0.031557366 -0.020509617 -0.0388612
0.0 -0.031288173 -0.014741183 -0.03710556 0.0 0.0049345875 -0.019666241 0.0
-0.017380655 0.010135518 -0.027249087 -0.03155048 0.013281598 0.02565398 -0.01939053 -0.018646022
-0.015959505 -0.035924826 -0.0035487395 -0.017433422 -0.032562714 0.0 0.0 0.0
-0.025236616 -0.021789433 -0.031030029 0.017953603 0.024664188 0.02070521 0.001017929 -0.031146284
-0.034054372 -0.012479076 0.0 0.017886791 0.010927899 -0.029031973 0.0 0.0

net.4.weight f4 [16, 64]
00000000: 24e9 5abe 5715 113e 59d4 063c e534 cbbd
00000010: 4f79 563e d6f3 203e 9aa5 f53d 1a4b 83be
00000020: e996 66be 14cf 23bd 162f 3bbd 06aa ce3d
00000030: 2180 a0bd aa03 05be 460a 47be 7818 d1bb
00000040: 747e ebbc 54a8 233e b6da ebbd f272 8ebe
00000050: 418a 83be 02a8 bfbb 0e3a 853c 3dfc 4f3e
00000060: acd1 8bbd 8ed8 0fbe 88f4 01be 5b34 1abd
00000070: 8b14 0a3d e095 23bc 113b 57bd e731 583e
00000080: 133c 3b3d 9090 013e 5375 46be b1ee 5f3e
00000090: 43b7 54bc 8227 183d 497f 163e d0c9 61bc
000000a0: 8cde 8cbe f327 503e 007c f23d 27f4 4b3e
000000b0: 1314 f0bc cd88 3f3e fb1b b7bd 2bdc 583d
000000c0: 419f 13be 1117 36bd fbee bc3c 8375 a4bc
000000d0: 138d fabc 0a26 11be db75 053e 2bbe 263e
000000e0: b408 f53d 9990 58bd c35f 62be 3a4f c5bd
000000f0: c193 32be 5e3f 83be fd42 203d 8573 2cbe
00000100: 6ef9 87bc 4c97 6f3e eb53 4f3e 5997 34bd
00000110: 66a3 093d 7ea7 2d3d a02b 883e f268 263e
00000120: 5659 a4bc e051 e03d b56e dbbc 9bc7 563e
00000130: a730 95bd 4efc 083e e4e4 efbd be87 543e
00000140: 905f b23d 2305 17bd 148a e8bb 9f07 3bbe
00000150: 1e01 2d3e 11a5 653e caf4 75bd 2706 19be
00000160: 0ce0 0bbd 7ae3 ffbd 5f3a 473e cd02 a23c
00000170: 676b 3ebe 4930 84bd 7884 843e 77bf 82bc
00000180: 519c bf3d 575f bb3d cb9b 06be a865 2fbe
00000190: 2b7e e63d f02e 87be 846f 643e 9766 523e
000001a0: 3609 24be 00ba 003e dbd2 81be 49ce ec3d
000001b0: 03a3 c5bb 4df3 833d 3805 6abe 88e7 853e
000001c0: 863f d5ba 639d 0cbe 6215 d53d 8eff 6c3e
000001d0: 3000 abbe 2322 703e 5f59 ec3c 8187 debd
000001e0: 5959 36be 5529 42be 6f80 333e b15c 56bc
000001f0: d80f 3d3e 43b8 953d 04db 203e 4e36 1ebc
00000200: b277 0b3e 28c3 03be 065b 253d c14c 48be
00000210: 3c9c 673d 0ef7 393e a7d1 043e 2630 13be
00000220: 5ea4 2c3d 821b 453d f553 f33d a186 3f3e
00000230: de55 19bd 6be2 da3c 8bfc 59bc 9ce5 3ebe
00000240: 90e0 633c 31bf 75be 96f0 b2bc d960 18be
00000250: b951 583e 5263 59be b22d 80bd 567b f83d
00000260: c5be 403e b690 173e 434e 4c3e 560e 47be
00000270: a494 883e 6acb 05bd 7b69 423e 5740 193e
00000280: eb34 b7bd 6d64 e1bc 38f7 263e 60ef 86bd
00000290: 0ee0 c43d 8c42 153e 3b20 30be 28d2 853d
000002a0: ccac c43d a848 5ebe 0bcf 74be 4018 88bd
000002b0: 5779 27bd 49e3 13be ea82 873e 9b07 a9bd
000002c0: 1620 6cbe 8921 6fbe 8a9a a53c a47c 10be
000002d0: 491b 85bd 5fe3 4d3e 5df6 4dbe 1f3b 0c3e
000002e0: 5c4f 5abe 0ba3 293e 9f29 22be 831f 24be
000002f0: 7100 863e 6414 4bbe 2240 e3bd fa80 f73d
00000300: df53 8abe 1ae6 1ebe 91af 63be ed92 58be
00000310: efda d7bd 1926 8b3e 3b96 d73d 635f 683e
00000320: ea3a 8e3d fd8a ad3d a8e4 9ebd 4e0c 85be
00000330: 9604 afbd 4196 3d3e 7daf 3fbe 7e5e 65bd
00000340: 237b de3c 5bcb 89bd 4920 3d3e c490 c4bd
00000350: 576b 4dbe 487f 18be be25 73be 9a38 233d
00000360: 8886 7a3e bcd0 58be e4a9 1b3d e307 19be
00000370: fd30 5e3e cb85 78be 46df 98bd 1944 44be
00000380: c91b a23d 0818 bc3b 8fa3 b73d ca70 5b3d
00000390: 13af 88be 765d 83be 98ae 85be 05d6 fd3d
000003a0: e591 c93d c059 cb3c 8131 273e 1026 783e
000003b0: e96e 693e 7594 693e ab23 513e e0c2 363e
000003c0: 41b8 3c3e 8c2c 2e3e 6ccc 223e fd8a 28be
000003d0: cb22 333e 175a 653d 67b1 293e d7f3 74be
000003e0: a722 203e 4a70 33be a0f0 39be dbf5 d23c
000003f0: f632 0b3e 68c2 8dbc 89de 3dbe 4df7 4f3e
-0.21377999 0.14168297 0.008229339 -0.09922198 0.20944713 0.15718016 0.119944766 -0.25643235
-0.22518505 -0.039992407 -0.0456992 0.10091023 -0.07836939 -0.12989679 -0.19437513 -0.0063810907
-0.028746821 0.15982181 -0.11516325 -0.2782207 -0.25691417 -0.0058488855 0.016263034 0.20311065
-0.06827101 -0.14047453 -0.12690938 -0.037647586 0.033710998 -0.009984463 -0.052546564 0.21112786
0.045711588 0.12652802 -0.19380693 0.21868397 -0.012983146 0.037147053 0.14696993 -0.013781026
-0.2751354 0.2032774 0.118400574 0.19917355 -0.029306447 0.18704529 -0.08940884 0.052944344
-0.1441622 -0.04445559 0.023063174 -0.020075565 -0.030584848 -0.14174667 0.1303324 0.16283481
0.119645506 -0.052872274 -0.22106843 -0.09634252 -0.17439176 -0.25634283 0.039126385 -0.16840942
-0.01659843 0.23397559 0.20246856 -0.04408965 0.033603095 0.04239606 0.26595783 0.16250971
-0.02006213 0.109531164 -0.026786188 0.20974581 -0.0728467 0.13377497 -0.11713579 0.20754907
0.08709633 -0.036870133 -0.0070965383 -0.18264626 0.16894957 0.22426249 -0.060047902 -0.14943753
-0.034149215 -0.124945596 0.1945586 0.019776726 -0.18595658 -0.06454522 0.25882316 -0.015960438
0.09355987 0.09149044 -0.13145368 -0.17128623 0.112545334 -0.26402998 0.22308165 0.20546947
-0.16019139 0.12570953 -0.25356182 0.11562783 -0.0060313954 0.0644289 -0.22853553 0.26153207
-0.0016269542 -0.13731913 0.10404469 0.23144361 -0.3339858 0.23450522 0.02885121 -0.10865689
-0.17807521 -0.1896108 0.17529462 -0.013083623 0.18463075 0.07310536 0.15708548 -0.009656502
0.13619879 -0.12867415 0.04037001 -0.1956053 0.05654548 0.1816065 0.12970601 -0.14373836
0.04214894 0.048121937 0.11881248 0.187037 -0.037435405 0.026719293 -0.01330484 -0.18642277
0.01390852 -0.23998715 -0.021843236 -0.14880694 0.21124925 -0.21229294 -0.06258716 0.121328995
0.18822773 0.14801297 0.1995173 -0.19439062 0.26675904 -0.032664694 0.1898555 0.1496595
-0.0894564 -0.027513707 0.16305244 -0.06588626 0.096130475 0.14576167 -0.17199795 0.06534225
0.09603271 -0.21707404 -0.23907106 -0.0664525 -0.040887203 -0.14442171 0.26467067 -0.08253404
-0.23059115 -0.23352636 0.020215292 -0.14110047 -0.06499345 0.20106266 -0.20113511 0.13694428
-0.21319336 0.16566102 -0.1583619 -0.16027646 0.26172212 -0.19831997 -0.11096217 0.12085147
-0.27017114 -0.15517464 -0.22234942 -0.21149798 -0.10539805 0.27177504 0.10526701 0.22692637
0.06944831 0.084737755 -0.077584565 -0.2598595 -0.085457966 0.18514349 -0.18719287 -0.055998318
0.027158326 -0.0672824 0.18469347 -0.09597924 -0.20060478 -0.14892304 -0.23744866 0.0398489
0.24465382 -0.21173376 0.038003817 -0.14944415 0.21698375 -0.24269788 -0.07464461 -0.19166602
0.07915456 0.0057401694 0.08966743 0.05357436 -0.2669607 -0.25657243 -0.26109767 0.123943366
0.0984228 0.02482307 0.16327478 0.2423327 0.22796215 0.22810538 0.20423763 0.17847776
0.18429662 0.17009181 0.15898293 -0.1645927 0.17493741 0.05599412 0.1657158 -0.23921143
0.15638219 -0.17523304 -0.18158197 0.025751999 0.13593659 -0.017304614 -0.18541922 0.20309182

net.4.bias f4 [16]
00000000: 4d8d 25bd 4570 ac3c e772 19bc 0078 c5bb
00000010: 890d d5bc 0d82 d4bb fa99 9a3c c1ac 0dbd
00000020: c3f4 8f3c 0000 0000 5e17 f2bc 0545 fe3c
00000030: 596b 073d 3532 073d 7d8f 02bd 0be0 0bbc
-0.040417958 0.021049628 -0.009365774 -0.006026268 -0.02600743 -0.00648523 0.01887225 -0.03458858
0.017572766 0.0 -0.029552158 0.03103877 0.03306136 0.033006866 -0.031875122 -0.008537303

net.6.weight f4 [1, 16]
00000000: d958 c83e 5b12 833e 0b35 cb3e b223 f1be
00000010: 0b6e 0cbe 55c3 b1bd 3ed7 c63d 0a4e d4be
00000020: 02b7 9c3e dc2e 033f 734a bcbe ec36 953e
00000030: 20f8 d03e eeb4 603e 4db8 e2bd 36ed 87bd
0.39130285 0.25599942 0.39688906 -0.47097546 -0.13713853 -0.08679835 0.09709023 -0.4146579
0.30608374 0.51243377 -0.3677555 0.29143465 0.40814304 0.21944019 -0.11070309 -0.06637041

exp_avg f4 [128, 48]
00000000: 0400 0000 0400 0000 0000 0000 0400 0000
00000010: 0400 0080 0400 0000 0400 0000 0400 0000
00000020: 0400 0000 0400 0000 0400 0000 0400 0000
00000030: 0400 0000 0400 0000 0400 0000 0400 0000
00000040: 0400 0000 0400 0000 0000 0000 0400 0000
00000050: 0400 0000 0400 0000 0400 0000 0400 0000
00000060: 0400 0000 0400 0000 0400 0000 0400 0000
00000070: 0400 0000 0400 0000 0400 0000 0400 0000
00000080: 0400 0000 0400 0000 0400 0000 0400 0000
00000090: 0400 0000 0400 0000 0400 0000 0400 0000
000000a0: 0400 0000 0400 0000 0400 0000 0400 0000
000000b0: 0000 0000 0400 0000 0400 0000 0400 0000
000000c0: 0400 0080 0400 0080 0000 0000 0400 0080
000000d0: 0400 0080 0400 0080 0400 0000 0400 0080
000000e0: 0400 0000 0400 0080 0000 0000 0400 0080
000000f0: 0400 0080 0000 0000 0400 0000 0400 0080
00000100: 0400 0000 0400 0080 0000 0000 0400 0080
00000110: 0000 0000 0000 0000 0400 0000 0400 0080
00000120: 0400 0080 0400 0080 0400 0000 0400 0080
00000130: 0400 0080 0400 0000 0400 0000 0400 0080
00000140: 0400 0080 0400 0080 0400 0080 0400 0080
00000150: 0400 0080 0400 0080 0400 0080 0400 0080
00000160: 0400 0080 0400 0080 0400 0080 0400 0080
00000170: 0000 0000 0400 0000 0400 0000 0400 0000
00000180: cbe9 933f 8fb5 b73f 0fdb 7c3e 319d bb3e
00000190: 6f2d 9d3f d7a5 453f 469a d13f 223c 5fb7
000001a0: 279c 0e42 24fb 3242 13a8 9d41 a85f 9340
000001b0: b1fe 1a42 8afa f341 5d33 1742 1c88 8528
000001c0: 5d6b f53c dda7 c63c ca55 643c b999 d03b
000001d0: b271 863c 5ab7 ce3c 5d32 253d ebdc 6b3a
000001e0: 0575 5d3a fe59 b43a 18c6 323b 18c6 323b
000001f0: b142 823d a9bf 0d39 e0d5 843a 377a 9a3c
00000200: 511e 333b d817 78bd 3bcc 613e 75e2 633a
00000210: 254d 3abd 7c9f 8a3d d38d f439 958e 4d3b
00000220: d3f6 b43c c912 033c 1f9d 6f3d 5479 6c3f
00000230: 83c2 acbb 2c40 093a 97cc 003c cccb 713a
00000240: 0400 0000 0400 0000 0400 0000 0400 0000
00000250: 0400 0000 0400 0000 0400 0000 0000 0000
00000260: 0400 0000 0400 0000 0400 0000 0400 0000
00000270: 0400 0000 0400 0000 0400 0000 0000 0000
00000280: 0400 0000 0400 0000 0400 0000 0400 0000
00000290: 0400 0000 0400 0000 0400 0000 0400 0000
000002a0: 0400 0000 0400 0000 0400 0000 0400 0000
000002b0: 0400 0000 0400 0000 0400 0000 0400 0000
000002c0: 0400 0000 0400 0000 0400 0000 0400 0000
000002d0: 0400 0000 0400 0000 0400 0000 0400 0000
000002e0: 0400 0000 0400 0000 0400 0000 0400 0000
000002f0: 0000 0000 0400 0000 0400 0000 0400 0000
00000300: 0000 0000 0000 0000 0000 0000 0000 0000
00000310: 0000 0000 0000 0000 0000 0000 0000 0000
00000320: 0000 0000 0000 0000 0000 0000 0000 0000
00000330: 0000 0000 0000 0000 0000 0000 0000 0000
00000340: 0000 0000 0000 0000 0000 0000 0000 0000
00000350: 0000 0000 0000 0000 0000 0000 0000 0000
00000360: 0000 0000 0000 0000 0000 0000 0000 0000
00000370: 0000 0000 0000 0000 0000 0000 0000 0000
00000380: 0000 0000 0000 0000 0000 0000 0000 0000
00000390: 0000 0000 0000 0000 0000 0000 0000 0000
000003a0: 0000 0000 0000 0000 0000 0000 0000 0000
000003b0: 0000 0000 0000 0000 0000 0000 0000 0000
000003c0: 0000 0000 0000 0000 0000 0000 0000 0000
000003d0: 0000 0000 0000 0000 0000 0000 0000 0000
000003e0: 0000 0000 0000 0000 0000 0000 0000 0000
000003f0: 0000 0000 0000 0000 0000 0000 0000 0000
6e-45 6e-45 0.0 6e-45 -6e-45 6e-45 6e-45 6e-45
6e-45 6e-45 6e-45 6e-45 6e-45 6e-45 6e-45 6e-45
6e-45 6e-45 0.0 6e-45 6e-45 6e-45 6e-45 6e-45
6e-45 6e-45 6e-45 6e-45 6e-45 6e-45 6e-45 6e-45
6e-45 6e-45 6e-45 6e-45 6e-45 6e-45 6e-45 6e-45
6e-45 6e-45 6e-45 6e-45 0.0 6e-45 6e-45 6e-45
-6e-45 -6e-45 0.0 -6e-45 -6e-45 -6e-45 6e-45 -6e-45
6e-45 -6e-45 0.0 -6e-45 -6e-45 0.0 6e-45 -6e-45
6e-45 -6e-45 0.0 -6e-45 0.0 0.0 6e-45 -6e-45
-6e-45 -6e-45 6e-45 -6e-45 -6e-45 6e-45 6e-45 -6e-45
-6e-45 -6e-45 -6e-45 -6e-45 -6e-45 -6e-45 -6e-45 -6e-45
-6e-45 -6e-45 -6e-45 -6e-45 0.0 6e-45 6e-45 6e-45
1.1555723 1.4352282 0.24692939 0.36643365 1.227949 0.77206177 1.6375206 -1.3305837e-05
35.652493 44.745255 19.707067 4.605427 38.748722 30.497334 37.80016 1.4824994e-14
0.029958421 0.024249965 0.013936469 0.0063659814 0.016411636 0.025233913 0.040331233 0.0008997458
0.0008447918 0.001375973 0.0027278718 0.0027278718 0.063603766 0.00013518207 0.001013454 0.018857105
0.0027331302 -0.060569614 0.22050564 0.00086931075 -0.045483727 0.067687005 0.00046644974 0.0031365503
0.022090351 0.008000084 0.05849945 0.9237263 -0.005272211 0.00052356976 0.007861278 0.00092237885
6e-45 6e-45 6e-45 6e-45 6e-45 6e-45 6e-45 0.0
6e-45 6e-45 6e-45 6e-45 6e-45 6e-45 6e-45 0.0
6e-45 6e-45 6e-45 6e-45 6e-45 6e-45 6e-45 6e-45
6e-45 6e-45 6e-45 6e-45 6e-45 6e-45 6e-45 6e-45
6e-45 6e-45 6e-45 6e-45 6e-45 6e-45 6e-45 6e-45
6e-45 6e-45 6e-45 6e-45 0.0 6e-45 6e-45 6e-45
0.0 0.0 0.0 0.0 0.0 0.0 0.0 0.0
0.0 0.0 0.0 0.0 0.0 0.0 0.0 0.0
0.0 0.0 0.0 0.0 0.0 0.0 0.0 0.0
0.0 0.0 0.0 0.0 0.0 0.0 0.0 0.0
0.0 0.0 0.0 0.0 0.0 0.0 0.0 0.0
0.0 0.0 0.0 0.0 0.0 0.0 0.0 0.0
0.0 0.0 0.0 0.0 0.0 0.0 0.0 0.0
0.0 0.0 0.0 0.0 0.0 0.0 0.0 0.0

exp_avg_sq f4 [128, 48]
00000000: 964d d03b d2c1 233f 0000 0000 00ea 003d
00000010: bf5c 3437 28bc 7235 e992 3a3c 6f74 a336
00000020: ad49 d541 1524 7e44 57bb ad3b 68af 9f42
00000030: db4f d23e 2a7f 5b3c e4ab 8d42 8fbf 5e36
00000040: 5a5e 8636 00f7 e439 0000 0000 76a5 b037
00000050: 5b6a e831 7597 4e30 2692 e236 5318 2331
00000060: d1ad 3431 a120 0a34 07bd 7334 464f fa37
00000070: 8905 b83e 9b5b 1b33 2e47 ac36 5dd3 8239
00000080: fc44 9d36 df82 cb3a f623 a63e ee98 7736
00000090: 930b 9a39 dd23 f741 8002 532d 4e27 f22e
000000a0: 9365 d033 0b2a e536 0b2a e536 0737 ca42
000000b0: 0000 0000 4e49 4033 cf17 f138 df63 0430
000000c0: 14a3 003c 342b c93f 0000 0000 13cd 803d
000000d0: 512b 112f 512b 112f 0e4a 8236 f27a 4d37
000000e0: 8a55 e941 69a1 1b45 0000 0000 c04a 3243
000000f0: 7f64 bb39 0000 0000 27ab 103e 148a 4637
00000100: d58b 9836 374a 893a 0000 0000 e538 1b38
00000110: 0000 0000 0000 0000 cccc 4131 d587 8031
00000120: ee5a 8e31 ae9d 9634 ad97 ab34 9da4 9a38
00000130: 46be 743f d434 6833 7516 c736 b912 e639
00000140: 1932 1937 055d 663b 6ca4 323f 6b7f fc36
00000150: f28c 503b 9aca 3f3f c1d8 342d 7d41 ad2e
00000160: f4af a133 424a 8937 424a 8937 bf14 7043
00000170: 0000 0000 ab8b b232 16c1 8838 f277 e231
00000180: ae84 5345 ac76 d845 a647 7543 8049 a943
00000190: bb15 6545 450a fa44 9243 af45 5e20 e138
000001a0: e486 da4a a0e9 144b 5fb6 004a 0a56 df47
000001b0: f65d ea4a 8482 cc4a 6f12 fe4a 8edb ae38
000001c0: f799 0a40 2625 8440 1631 6d3e 5bc9 773e
000001d0: 55db 1740 98ec 993f 6410 7440 35e6 483a
000001e0: 78eb 843a 23fc 1f3c 4bc5 863d bf7e 893d
000001f0: cc91 f345 d79e b23b af51 9b3f 0ea0 4241
00000200: 02c2 333d 2344 bc40 5781 8542 6613 cb3a
00000210: 9821 5340 6cf5 8041 a479 9f36 d0ec 4539
00000220: 0114 343c 55c6 ba3b b28f 9f3d 66cd ca44
00000230: 3aa4 253d 0a02 7b3a 60c1 103f 2f3d 5e39
00000240: 901c 853f 6e4f 0340 3cc4 b23d 18af c73d
00000250: f16a 903f 809a 233f d1cd d83f 0000 0000
00000260: c3ae 0245 128c 2f45 a633 2344 73b5 0442
00000270: ac89 0c45 cd17 ec44 d253 1a45 0000 0000
00000280: 98bb 3e3a 0ba8 a13a 9819 a138 8ca1 9038
00000290: 1fea 5e3a 3513 e939 0730 9b3a b942 4f34
000002a0: 8d65 8b34 2447 3636 0ba8 a137 0ba8 a137
000002b0: 1775 0b40 bca0 9f35 baab a639 3e29 613b
000002c0: 00aa 5837 52be ae3a 91d8 ad3c 7ddd 0835
000002d0: a23f 973a a1d4 7c3a 3fba d830 dfd3 a232
000002e0: ac58 a635 0ba8 a137 0ba8 a137 1775 0b40
000002f0: 0000 0000 8ade 5134 bdd0 aa38 c95a 3833
00000300: 0000 0000 0000 0000 0000 0000 0000 0000
00000310: 0000 0000 0000 0000 0000 0000 0000 0000
00000320: 0000 0000 0000 0000 0000 0000 0000 0000
00000330: 0000 0000 0000 0000 0000 0000 0000 0000
00000340: 0000 0000 0000 0000 0000 0000 0000 0000
00000350: 0000 0000 0000 0000 0000 0000 0000 0000
00000360: 0000 0000 0000 0000 0000 0000 0000 0000
00000370: 0000 0000 0000 0000 0000 0000 0000 0000
00000380: 0000 0000 0000 0000 0000 0000 0000 0000
00000390: 0000 0000 0000 0000 0000 0000 0000 0000
000003a0: 0000 0000 0000 0000 0000 0000 0000 0000
000003b0: 0000 0000 0000 0000 0000 0000 0000 0000
000003c0: 0000 0000 0000 0000 0000 0000 0000 0000
000003d0: 0000 0000 0000 0000 0000 0000 0000 0000
000003e0: 0000 0000 0000 0000 0000 0000 0000 0000
000003f0: 0000 0000 0000 0000 0000 0000 0000 0000
0.006356905 0.6396762 0.0 0.03147316 1.075043e-05 9.042583e-07 0.011387565 4.871333e-06
26.660975 1016.5638 0.0053018737 79.84259 0.4107655 0.0133970175 70.835724 3.319208e-06
4.004495e-06 0.00043671578 0.0 2.1057884e-05 6.76418e-09 7.5157597e-10 6.752339e-06 2.3733449e-09
2.629225e-09 1.2864122e-07 2.2699906e-07 2.9839237e-05 0.35941723 3.6172064e-08 5.134286e-06 0.0002495301
4.6869955e-06 0.0015526674 0.3244931 3.6894885e-06 0.00029381792 30.892511 1.19945165e-11 1.1011868e-10
9.704231e-08 6.8296263e-06 6.8296263e-06 101.107475 0.0 4.4770154e-08 0.0001149621 4.8163246e-10
0.007851381 1.571631 0.0 0.06289115 1.3203062e-10 1.3203062e-10 3.882923e-06 1.2247578e-05
29.166767 2490.0881 0.0 178.29199 0.00035742295 0.0 0.1412779 1.18338685e-05
4.5462316e-06 0.0010474388 0.0 3.7007867e-05 0.0 0.0 2.820161e-09 3.7407326e-09
4.1430814e-09 2.8054404e-07 3.196159e-07 7.373954e-05 0.95602834 5.4064756e-08 5.9332765e-06 0.00043882968
9.131175e-06 0.0035150659 0.6978214 7.5250186e-06 0.0031822291 0.7491852 1.0279944e-11 7.878762e-11
7.5291524e-08 1.6366252e-05 1.6366252e-05 240.08104 0.0 2.0785441e-08 6.5209504e-05 6.591102e-09
3384.2925 6926.834 245.27988 338.57422 3665.3582 2000.3209 5608.4463 0.00010734865
7.16069e+06 9.759136e+06 2.1088238e+06 114348.08 7.679739e+06 6.701378e+06 8.3254315e+06 8.337862e-05
2.1656473 4.1295347 0.23163256 0.24197905 2.372762 1.2025328 3.8135004 0.0007663698
0.0010140976 0.009764704 0.065805994 0.06713628 7794.2246 0.005451064 1.2134303 12.164076
0.043886192 5.8833175 66.75262 0.0015493452 3.2989254 16.119835 4.75273e-06 0.00018875604
0.010991097 0.0056999126 0.077910796 1622.4187 0.04043982 0.0009575194 0.56545067 0.00021194362
1.0399342 2.051723 0.08728835 0.09750193 1.1282636 0.63907623 1.693781 0.0
2090.9226 2808.7544 652.807 33.177197 2248.6045 1888.7438 2469.2388 0.0
0.00072758785 0.0012333406 7.6818455e-05 6.8965455e-05 0.00085035147 0.00044455533 0.0011839875 1.9302651e-07
2.5964655e-07 2.7161523e-06 1.9270947e-05 1.9270947e-05 2.1790216 1.1893203e-06 0.00031789934 0.0034356858
1.29141845e-05 0.0013331866 0.021221431 5.0986256e-07 0.001153935 0.0009644721 1.5769003e-09 1.895563e-08
1.2393771e-06 1.9270947e-05 1.9270947e-05 2.1790216 0.0 1.9545601e-07 8.145112e-05 4.2923407e-08
0.0 0.0 0.0 0.0 0.0 0.0 0.0 0.0
0.0 0.0 0.0 0.0 0.0 0.0 0.0 0.0
0.0 0.0 0.0 0.0 0.0 0.0 0.0 0.0
0.0 0.0 0.0 0.0 0.0 0.0 0.0 0.0
0.0 0.0 0.0 0.0 0.0 0.0 0.0 0.0
0.0 0.0 0.0 0.0 0.0 0.0 0.0 0.0
0.0 0.0 0.0 0.0 0.0 0.0 0.0 0.0
0.0 0.0 0.0 0.0 0.0 0.0 0.0 0.0

exp_avg f4 [128]
00000000: 0400 0000 0400 0080 14c6 323b 0400 0000
00000010: 0000 0000 0000 0000 8cae 5eba f3f5 be28
00000020: 0000 0000 59e4 f529 0a5f ddba 5455 b2ba
00000030: 28f5 4238 f612 973a 6f19 98ba b1f0 ceba
00000040: 7819 4d3a 0000 0000 e2f2 bb3b c5f5 223b
00000050: 5721 2eaa 0000 0000 0000 0000 0400 0080
00000060: 0400 0000 0000 0000 0400 0000 0000 0000
00000070: f978 c03a 0400 0000 0400 0000 b413 abba
00000080: 23fe 06b8 39d4 463b 6714 de3a 0400 0000
00000090: 0cbc d5b9 0400 0080 f8e7 fa3b f1ce 81b9
000000a0: 50d1 533b 0400 0080 0000 0000 8552 293a
000000b0: 0400 0000 2a4b 8c3b 2211 7109 0400 0080
000000c0: 0000 0000 0400 0000 0400 0000 9722 bbba
000000d0: c0a6 873b 16de 43b9 d76e a2bb 0400 0080
000000e0: 0400 0080 0400 0000 5a9e 8539 c0f6 97ba
000000f0: 0000 0000 0400 0080 0000 0000 d4ca f038
00000100: 72b4 0c3b 0000 0000 0400 0000 0000 0000
00000110: 0000 0000 0400 0000 0000 0000 973b 013a
00000120: f5cc a939 0400 0000 0000 0000 0000 0000
00000130: 1adc d6ba 2cea 243b 0400 0000 059f 873a
00000140: 0000 0000 0400 0000 0400 0000 0000 0000
00000150: 0400 0080 fd07 023b 0400 0000 a776 f4b9
00000160: 0400 0000 5707 5139 0000 0000 0000 0000
00000170: 0000 0000 b0b6 c6a9 0000 0000 4349 adba
00000180: 0400 0000 0400 0000 0000 0000 0000 0000
00000190: 0400 0000 f93c 7abb 0400 0000 e7ac e139
000001a0: 9697 d139 2a11 fdba 167e 40ba 0400 0000
000001b0: a7d1 d22d 0c57 fa2e 0400 0000 0bbb 66bb
000001c0: baf6 6a3b 0400 0080 0000 0000 0000 0000
000001d0: 3e63 fdba 0000 0000 0400 0000 0400 0000
000001e0: bad5 3c3b 0400 0000 0000 0000 9ba4 e23a
000001f0: 0400 0000 0400 0000 0000 0000 0000 0000
6e-45 -6e-45 0.0027278708 6e-45 0.0 0.0 -0.00084946374 2.1200901e-14
0.0 1.09197976e-13 -0.0016889286 -0.0013605752 4.6481524e-05 0.0011526037 -0.001160426 -0.0015788284
0.00078239245 0.0 0.005735741 0.0024865728 -1.5465872e-13 0.0 0.0 -6e-45
6e-45 0.0 6e-45 0.0 0.001468449 6e-45 6e-45 -0.0013052137
-3.2184773e-05 0.0030338897 0.0016943336 6e-45 -0.00040766632 -6e-45 0.0076570474 -0.0002475898
0.0032320805 -6e-45 0.0 0.0006459135 6e-45 0.004281421 2.9017376e-33 -6e-45
0.0 6e-45 6e-45 -0.0014277276 0.004139751 -0.00018679383 -0.004957061 -6e-45
-6e-45 6e-45 0.00025485718 -0.0011593923 0.0 -6e-45 0.0 0.000114818715
0.0021469858 0.0 6e-45 0.0 0.0 6e-45 0.0 0.0004929839
0.00032386897 6e-45 0.0 0.0 -0.00163925 0.0025163991 6e-45 0.0010347074
0.0 6e-45 6e-45 0.0 -6e-45 0.0019841187 6e-45 -0.0004662771
6e-45 0.00019934528 0.0 0.0 0.0 -8.8246576e-14 0.0 -0.0013220686
6e-45 6e-45 0.0 0.0 6e-45 -0.0038183315 6e-45 0.00043044167
0.00039976527 -0.0019307483 -0.0007343007 6e-45 2.396734e-11 1.13841464e-10 6e-45 -0.00352067
0.0035852627 -6e-45 0.0 0.0 -0.0019331945 0.0 6e-45 6e-45
0.0028813914 6e-45 0.0 0.0017291488 6e-45 6e-45 0.0 0.0

exp_avg_sq f4 [128]
00000000: 0b2a e536 424a 8937 dffb 863d 0ba8 a137
00000010: 0000 0000 0000 0000 2bcd d43c 90cf c039
00000020: 0000 0000 e1db be3c 3003 203d 6966 303d
00000030: e1ac 853b 857d 853c a2e2 b93c b13c 6a3c
00000040: 615a 993c 0000 0000 57b5 b03e b964 dd3d
00000050: 4b86 9639 0000 0000 0000 0000 5b92 2c3b
00000060: 16ec 8c3a 0000 0000 f010 aa35 0000 0000
00000070: 5bbc b73c 0a8f 4e32 2af6 d03a 731c 1d3d
00000080: 34a8 113b ad3e da3d c990 993c 2dc7 9433
00000090: ae98 943b 3666 b439 264f fb3e dcb0 2a3b
000000a0: cac3 eb3d 4656 6c39 0000 0000 c8ba b63b
000000b0: 5a3d 2839 cade 583e b284 163c 2f13 c234
000000c0: 0000 0000 c608 d63a d40b b73a bb47 823d
000000d0: c834 553e e1a3 c13b 520b 7d3e 77c2 7d36
000000e0: 92d9 303a add0 493a 76bd 9e3a 523e 3e3d
000000f0: 0000 0000 b0ef bf3a 0000 0000 7691 0f3c
00000100: f010 003e 0000 0000 995b f238 0000 0000
00000110: 0000 0000 4e1b 2b39 0000 0000 3cfb b93b
00000120: 8040 2f3b a41d c736 0000 0000 0000 0000
00000130: 57a8 363d 0993 bb3d 6a45 8a34 f02f a83c
00000140: 0000 0000 8b1a d638 ce39 2535 0000 0000
00000150: c55d 6439 3fb6 7d3d 5e1f 8838 2663 ad3b
00000160: 8a01 2e38 2780 9d3b 0000 0000 0000 0000
00000170: 0000 0000 8adf 193b 0000 0000 490e 893c
00000180: 4032 a136 8925 9036 0000 0000 0000 0000
00000190: c484 513b b9bf 383e 0967 4437 e332 0f3b
000001a0: 4b75 4b3b 8e01 0f3d 649e c83b 05f2 3539
000001b0: 58d7 8b3b 1240 8b3b 5675 1a38 f7fa b83d
000001c0: 8e6d 1a3e ca37 9938 0000 0000 0000 0000
000001d0: a72f b53d 0000 0000 5c0b db39 da06 8d38
000001e0: 6e31 b03d e34e 483a 0000 0000 94b4 b23d
000001f0: 9c44 3732 6365 0339 0000 0000 0000 0000
6.8296263e-06 1.6366252e-05 0.06591009 1.9270947e-05 0.0 0.0 0.025976738 0.0003677574
0.0 0.023298206 0.03906554 0.043066416 0.0040794467 0.016295204 0.022691075 0.0142966965
0.018719854 0.0 0.3451335 0.10810227 0.00028710286 0.0 0.0 0.0026332352
0.0010751511 0.0 1.2670916e-06 0.0 0.022428682 1.20233015e-08 0.0015942503 0.03835721
0.00222255 0.10656486 0.018745797 6.928017e-08 0.0045348024 0.00034408428 0.49083823 0.0026045358
0.11511953 0.00022538853 0.0 0.0055764653 0.00016044584 0.21178737 0.00918691 3.6149274e-07
0.0 0.0016329519 0.0013965317 0.06361338 0.20820916 0.0059094285 0.2471135 3.7813131e-06
0.00067462877 0.00076986366 0.0012110907 0.046446152 0.0 0.0014643576 0.0 0.008762708
0.12506461 0.0 0.000115565206 0.0 0.0 0.00016318003 0.0 0.0056757014
0.0026741326 5.934113e-06 0.0 0.0 0.044594135 0.09158904 2.5755008e-07 0.02053067
0.0 0.00010209259 6.1551407e-07 0.0 0.00021778706 0.06194138 6.490828e-05 0.0052913604
4.1486266e-05 0.0048065367 0.0 0.0 0.0 0.0023479187 0.0 0.016730445
4.804024e-06 4.295904e-06 0.0 0.0 0.0031970004 0.18041886 1.17065e-05 0.00218504
0.0031045254 0.034913592 0.0061223973 0.00017351664 0.0042676143 0.004249581 3.682574e-05 0.09032243
0.15080854 7.306e-05 0.0 0.0 0.088469796 0.0 0.00041779398 6.72468e-05
0.08603178 0.00076411496 0.0 0.08725849 1.0667602e-08 0.00012530903 0.0 0.0

exp_avg f4 [64, 128]
00000000: 0400 0000 0400 0000 7d14 29bf 0400 0080
00000010: 0000 0000 0000 0000 86a3 1cbf 81a2 30ab
00000020: 0000 0000 6e9a 43ac 593c 23bd 60b0 0fbf
00000030: ef1d 3dbf 0c9f 82bd 3708 6dbf a9d0 89be
00000040: 9939 3ebf 0000 0000 7922 1abf 44b7 c5be
00000050: 4691 bdac 0000 0000 0000 0000 0400 0080
00000060: 0400 0000 0000 0000 0400 0080 0000 0000
00000070: dcdf a8be 0400 0000 0400 0080 4ba2 0abf
00000080: 12ef 13be 4229 dabe 8974 543b 0400 0000
00000090: 1c7c 29be 0400 0080 b7bd ae3b 6db0 d8be
000000a0: 03df 93be 0400 0000 0000 0000 2c8a 91bd
000000b0: 0400 0000 569c 10be 0c3b f009 0400 0080
000000c0: 0000 0000 0400 0080 0400 0080 4c0b 32bf
000000d0: f1c6 09bf 2737 b6be d8af 0abf 0400 0000
000000e0: 0400 0080 0400 0080 bbf3 e4be 169b 1abf
000000f0: 0000 0000 0400 0080 0000 0000 bf66 e1be
00000100: 5f9b fdbe 0000 0000 0400 0080 0000 0000
00000110: 0000 0000 0400 0080 0000 0000 5d79 22be
00000120: 13d1 a0bd 0400 0000 0000 0000 0000 0000
00000130: 02b2 e5be ceac 21be 0400 0080 a59d 30bf
00000140: 0000 0000 0400 0080 0400 0080 0000 0000
00000150: 0400 0080 361b 46be 0400 0000 ee31 71bf
00000160: 0400 0000 b163 2abf 0000 0000 0000 0000
00000170: 0000 0000 9f0b f9ac 0000 0000 3a3a 4ebe
00000180: 0400 0080 0400 0000 0000 0000 0000 0000
00000190: 0400 0000 20a0 26bf 0400 0000 a6f5 44be
000001a0: 0a80 b6be 3281 51bf 9ccc 19be 0400 0080
000001b0: b627 fb2d 0b72 7f2e 0400 0080 ed23 20bf
000001c0: 8a58 9dbe 0400 0080 0000 0000 0000 0000
000001d0: 500f 0bbf 0000 0000 0400 0080 0400 0000
000001e0: 9f2e eabd 0400 0080 0000 0000 cbaa 22bf
000001f0: 0400 0000 0400 0080 0000 0000 0000 0000
00000200: 0400 0000 0400 0000 0400 0000 0000 0000
00000210: 0000 0000 0000 0000 0400 0080 0400 0000
00000220: 0000 0000 0400 0000 0400 0080 0400 0000
00000230: 0400 0000 0400 0000 0400 0000 0400 0000
00000240: 0400 0000 0000 0000 0400 0000 0400 0000
00000250: 0400 0000 0000 0000 0000 0000 0400 0000
00000260: 0400 0000 0000 0000 0400 0080 0000 0000
00000270: 0400 0000 0000 0000 0400 0000 0400 0000
00000280: 0400 0000 0400 0000 0400 0000 0000 0000
00000290: 0400 0000 0400 0000 0400 0080 0400 0000
000002a0: 0400 0000 0400 0000 0000 0000 0400 0000
000002b0: 0400 0080 0400 0080 0400 0000 0400 0080
000002c0: 0000 0000 0400 0000 0400 0000 0400 0000
000002d0: 0400 0000 0400 0000 0400 0000 0400 0080
000002e0: 0400 0000 0400 0000 0400 0000 0400 0000
000002f0: 0000 0000 0400 0000 0000 0000 0400 0000
00000300: 0400 0000 0000 0000 0400 0000 0000 0000
00000310: 0000 0000 0400 0000 0000 0000 0400 0000
00000320: 0400 0000 0400 0080 0000 0000 0000 0000
00000330: 0400 0000 0400 0000 0400 0000 0400 0000
00000340: 0000 0000 0400 0000 0400 0000 0000 0000
00000350: 0400 0000 0400 0000 0400 0080 0400 0000
00000360: 0400 0000 0400 0000 0000 0000 0000 0000
00000370: 0000 0000 0400 0000 0000 0000 0400 0000
00000380: 0400 0000 0400 0000 0000 0000 0000 0000
00000390: 0400 0000 0400 0000 0400 0000 0400 0080
000003a0: 0400 0000 0400 0000 0400 0000 0400 0000
000003b0: 0400 0000 0400 0000 0000 0000 0400 0000
000003c0: 0400 0000 0400 0000 0000 0000 0000 0000
000003d0: 0400 0000 0000 0000 0400 0000 0400 0080
000003e0: 0400 0000 0400 0000 0000 0000 0400 0000
000003f0: 0000 0000 0400 0080 0000 0000 0000 0000
6e-45 6e-45 -0.6604689 -6e-45 0.0 0.0 -0.61187017 -6.275328e-13
0.0 -2.7796892e-12 -0.039852474 -0.561285 -0.738738 -0.06377992 -0.9259066 -0.26917008
-0.7430664 0.0 -0.6020885 -0.38616383 -5.3878317e-12 0.0 0.0 -6e-45
6e-45 0.0 -6e-45 0.0 -0.3298329 6e-45 -6e-45 -0.5415389
-0.14446667 -0.42609602 0.0032418093 6e-45 -0.1655125 -6e-45 0.0053326744 -0.42322102
-0.28881082 6e-45 0.0 -0.07106432 6e-45 -0.14122137 5.7833426e-33 -6e-45
0.0 -6e-45 -6e-45 -0.6954849 -0.53819185 -0.35588953 -0.54174566 6e-45
-6e-45 -6e-45 -0.44717202 -0.6039289 0.0 -6e-45 0.0 -0.44023702
-0.495326 0.0 -6e-45 0.0 0.0 -6e-45 0.0 -0.15866609
-0.07852378 6e-45 0.0 0.0 -0.44862372 -0.15788576 -6e-45 -0.68990546
0.0 -6e-45 -6e-45 0.0 -6e-45 -0.19346318 6e-45 -0.9421681
6e-45 -0.66558367 0.0 0.0 0.0 -7.078296e-12 0.0 -0.20139399
-6e-45 6e-45 0.0 0.0 6e-45 -0.6508808 6e-45 -0.19234332
-0.3564456 -0.8183776 -0.15019459 -6e-45 2.8553031e-11 5.8081578e-11 -6e-45 -0.6255482
-0.30731612 -6e-45 0.0 0.0 -0.5432024 0.0 -6e-45 6e-45
-0.114346735 -6e-45 0.0 -0.6354186 6e-45 -6e-45 0.0 0.0
6e-45 6e-45 6e-45 0.0 0.0 0.0 -6e-45 6e-45
0.0 6e-45 -6e-45 6e-45 6e-45 6e-45 6e-45 6e-45
6e-45 0.0 6e-45 6e-45 6e-45 0.0 0.0 6e-45
6e-45 0.0 -6e-45 0.0 6e-45 0.0 6e-45 6e-45
6e-45 6e-45 6e-45 0.0 6e-45 6e-45 -6e-45 6e-45
6e-45 6e-45 0.0 6e-45 -6e-45 -6e-45 6e-45 -6e-45
0.0 6e-45 6e-45 6e-45 6e-45 6e-45 6e-45 -6e-45
6e-45 6e-45 6e-45 6e-45 0.0 6e-45 0.0 6e-45
6e-45 0.0 6e-45 0.0 0.0 6e-45 0.0 6e-45
6e-45 -6e-45 0.0 0.0 6e-45 6e-45 6e-45 6e-45
0.0 6e-45 6e-45 0.0 6e-45 6e-45 -6e-45 6e-45
6e-45 6e-45 0.0 0.0 0.0 6e-45 0.0 6e-45
6e-45 6e-45 0.0 0.0 6e-45 6e-45 6e-45 -6e-45
6e-45 6e-45 6e-45 6e-45 6e-45 6e-45 0.0 6e-45
6e-45 6e-45 0.0 0.0 6e-45 0.0 6e-45 -6e-45
6e-45 6e-45 0.0 6e-45 0.0 -6e-45 0.0 0.0
