src/model_data/Japanese_Grand_Prix_model.pth (torch, 197999 bytes, 21 tensors)

net.0.weight f4 [128, 48]
-0.14326261 -0.25933897 0.13204472 -0.1228482 -0.12565361 0.11999743 -0.0033333774 -1.0867199
-0.053519513 -0.20602483 0.13536882 -0.19332641 0.027076362 -0.15385199 0.075100645 -0.12559408
-0.01870331 -0.17842212 -0.10591228 -0.12428861 -0.12491444 0.046194125 -0.011700085 0.077874884
-0.05332365 0.06288894 0.063322775 -0.059949476 -0.2142608 0.053437322 0.18060784 0.19244358
-0.22553997 -0.27393216 -0.27104282 0.09703468 0.024056511 -0.0051378156 -0.40252703 -0.4184352
-0.45535886 -0.022243677 -0.37636343 -0.21319646 -0.22550687 0.036163293 -0.29603046 0.17835808
-0.09158582 0.008478963 0.11935379 0.01925956 0.18283735 0.033324298 -0.18051991 0.006495621
0.091504514 -0.14678809 0.08560062 0.09309233 0.03285959 -0.09122659 -0.091949366 0.11823879
0.081591636 -0.045829106 0.15783332 -0.061895233 -0.12520856 0.011760812 -0.16096622 0.137413
-0.14751787 0.12847082 -0.14699349 0.14814712 0.046626262 0.07582153 0.03453023 0.08092534
0.07467943 -0.016570562 0.1290889 -0.13611488 -0.13659665 0.044741195 0.048883677 0.108205624
-0.15138769 -0.18438865 -0.17262508 0.064662434 -0.1290816 0.17368333 -0.0036782583 -0.033576272
-0.15668093 0.11549392 0.08832991 -0.24573149 0.048260067 0.09780946 -0.081430696 -0.085361935
-0.17628448 0.10155609 -0.10213315 -0.12202827 0.043822724 0.1284048 -0.27452186 -0.0011421253
0.01813469 -0.065231584 0.056477 -0.07721174 -0.0956482 -0.15120271 -0.044698246 -0.05641785
-0.048141282 0.01606826 -0.10894542 0.16309343 -0.20357595 -0.3043933 -0.31433535 -0.26095334
0.14834131 -0.1035427 -0.0435673 0.016039353 -0.16791475 -0.20265952 -0.30606276 -0.17687398
-0.07535401 0.14479 -0.059511993 0.22834048 -0.18758969 -0.84085625 -0.8064574 -0.6145404
-0.074452035 0.13770719 0.08876175 -0.11158414 -0.04839652 0.08865176 0.1204313 0.044623133
-0.060667183 -0.10460066 -0.0057529216 0.003583261 0.14312385 -0.11441548 -0.10500545 -0.033708315
0.040824257 -0.031013438 -0.07633934 -0.089949474 -0.10619021 0.119772874 0.17427793 -0.16921146
0.17320147 -0.1711323 -0.105747096 -0.17851225 -0.10289419 -0.13572045 0.024701122 0.11451783
-0.1687542 -0.02918032 -0.04656419 0.02784862 -0.030545827 -0.18283765 0.058864016 -0.12491307
-0.036802325 0.14225782 -0.031066243 -0.0109185595 0.06343128 -0.06547006 0.17338014 -0.0685755
0.08425049 0.0022196155 -0.1904494 -0.046582896 0.07069838 0.055130564 0.10508446 -0.6001749
0.014567802 -0.075698614 0.14474197 -0.20526491 0.105567686 -0.039533988 -0.026937392 -0.20502236
-0.12684895 -0.06424476 -0.29010144 -0.21812773 -0.011249287 -0.17143603 -0.20758201 -0.13899815
-0.08068588 0.063756 0.076894894 -0.15245298 -0.037585318 0.0048256638 -0.036016956 -0.23624377
-0.08869486 0.0687009 -0.20609732 0.061306175 -0.23384175 -0.10487116 0.35046777 0.23664668
0.3791481 0.1682616 -0.007831974 -0.25046635 0.11948472 0.9509086 0.559134 1.2831776
-0.06668218 -0.04151906 -0.1272764 -0.12057291 -0.05427935 0.15353091 0.11260568 -0.2963387
-0.026095169 0.020243526 0.06855832 -0.18924488 -0.22156449 -0.16291377 -0.1045202 -0.30697176
00000000: 6fb3 12be 14c8 84be bb36 073e d697 fbbd
00000010: 57ab 00be 36c1 f53d cb74 5abb a319 8bbf
00000020: 4737 5bbd 2cf8 52be 209e 0a3e 5cf7 45be
00000030: 3fcf dd3c 608b 1dbe 5ece 993d bc9b 00be
00000040: af37 99bc 4ab4 36be 8ae8 d8bd 078b febd
00000050: 24d3 ffbd 0d36 3d3d b7b1 3fbc de7c 9f3d
00000060: e669 5abd ebcb 803d 5faf 813d 958d 75bd
00000070: 2f67 5bbe 18e1 5a3d 43f1 383e ee0f 453e
00000080: f3f3 66be d640 8cbe 20c6 8abe 1eba c63d
00000090: 2912 c53c 1f5b a8bb 0618 cebe 233d d6be
000000a0: cc24 e9be 5f38 b6bc b5b2 c0be 2c50 5abe
000000b0: 46eb 66be f61f 143d 4e91 97be 80a3 363e
000000c0: 5991 bbbd 59eb 0a3c c36f f43d 3ac6 9d3c
000000d0: b739 3b3e 0f7f 083d 36da 38be 38d9 d43b
000000e0: b866 bb3d 9e4f 16be 614f af3d 31a7 be3d
000000f0: c797 063d 02d5 babd f34f bcbd 2e27 f23d
00000100: 8419 a73d 4db7 3bbd 0f9f 213e db85 7dbd
00000110: ac36 00be 6cb0 403c 54d4 24be feb5 0c3e
00000120: ed0e 17be db8d 033e 7685 16be e1b3 173e
00000130: 2efb 3e3d 5148 9b3d 926f 0d3d 2fbc a53d
00000140: 87f1 983d fdbe 87bc e12f 043e b361 0bbe
00000150: fedf 0bbe 8b42 373d 403a 483d e99a dd3d
00000160: 6005 1bbe 61d0 3cbe a1c4 30be bd6d 843d
00000170: f82d 04be 0bda 313e ef0e 71bb 4687 09bd
00000180: f770 20be 1488 ec3d 50e6 b43d 09a1 7bbe
00000190: 59ac 453d 5350 c83d 23c5 a6bd 3dd2 aebd
000001a0: eb83 34be a4fc cf3d 2f2b d1bd f5e9 f9bd
000001b0: 757f 333d 8c7c 033e 218e 8cbe 5eb3 95ba
000001c0: 348f 943c 2398 85bd 6d54 673d 3021 9ebd
000001d0: 34e3 c3bd e2d4 1abe 8215 37bd 6716 67bd
000001e0: cb2f 45bd 95a1 833c c71e dfbd f701 273e
000001f0: 3776 50be 70d9 9bbe 90f0 a0be ad9b 85be
00000200: c9e6 173e 320e d4bd a073 32bd f664 833c
00000210: d8f1 2bbe fa85 4fbe 42b4 9cbe 741e 35be
00000220: 3453 9abd d443 143e d9c2 73bd 16d2 693e
00000230: 8317 40be 5b42 57bf fe73 4ebf 8552 1dbf
00000240: 4f7a 98bd 1d03 0d3e b8c8 b53d 3a86 e4bd
00000250: 6e3b 46bd 0e8f b53d afa4 f63d bfc6 363d
00000260: 277e 78bd df38 d6bd 0183 bcbb 25d5 6a3b
00000270: 0f8f 123e aa52 eabd 190d d7bd bb11 0abd
00000280: 5637 273d e50f febc cd57 9cbd 6e37 b8bd
00000290: 417a d9bd 7b4b f53d ea75 323e c545 2dbe
000002a0: ba5b 313e 4e3d 2fbe ef91 d8bd eacb 36be
000002b0: 30ba d2bd 4dfa 0abe 025a ca3c 5388 ea3d
000002c0: e7cd 2cbe 910b efbc 18ba 3ebd ca22 e43c
000002d0: 3e3b fabc cb39 3bbe 651b 713d 6cd2 ffbd
000002e0: 09be 16bd 09ac 113e a27e febc c2e3 32bc
000002f0: 42e8 813d 2b15 86bd 908a 313e 5071 8cbd
00000300: 858b ac3d f876 113b 2b05 43be b5cd 3ebd
00000310: 50ca 903d 96d0 613d 8536 d73d 10a5 19bf
00000320: caad 6e3c e007 9bbd 3d37 143e f730 52be
00000330: df33 d83d 64ee 21bd ceab dcbc 62f1 51be
00000340: b1e4 01be c292 83bd 2d88 94be e05c 5fbe
00000350: ee4e 38bc ed8c 2fbe 6190 54be 8855 0ebe
00000360: a33e a5bd 8192 823d 127b 9d3d a21c 1cbe
00000370: 10f3 19bd 9a20 9e3b 8486 13bd e3e9 71be
00000380: a7a5 b5bd 0fb3 8c3d 2d0b 53be 2f1c 7b3d
00000390: 3674 6fbe b1c6 d6bd 8370 b33e 8253 723e
000003a0: b31f c23e c54c 2c3e ae51 00bc 203d 80be
000003b0: 68b4 f43d bf6e 733f 6823 0f3f 2a3f a43f
000003c0: ab90 88bd e40f 2abd bf54 02be eeee f6bd
000003d0: 0654 5ebd 3537 1d3e cf9d e63d b5b9 97be
000003e0: 89c5 d5bc c0d5 a53c 4e68 8c3d 69c9 41be
000003f0: cde1 62be ded2 26be b00e d6bd 672b 9dbe

net.0.bias f4 [128]
-0.08661183 0.0 -0.003496226 0.0 -0.020949394 -0.14404708 0.033366684 -0.098055094
0.0 -0.104988925 -0.13478749 0.27567402 -0.03404485 0.0 -0.1660284 0.0
0.0 -0.08100689 -0.21709312 -0.06436778 -0.03315398 -0.12201559 -0.3490823 0.29015887
-0.0033264242 -0.05548968 0.07233104 -0.13385372 -0.05939614 0.024182534 0.0 -0.29939038
-0.0122548975 0.0 -0.00042668116 -0.10949279 -0.06643898 0.0 -0.17661537 0.301185
0.25598255 0.24074185 -0.031636443 0.0 -0.11785857 0.0 0.075365946 -0.053314246
-0.0843905 0.19917163 -0.041932527 0.0 -0.022041677 0.0 0.0 0.2598316
-0.031759948 0.0 -0.011074729 -0.027147328 0.0 0.2558167 -0.02817457 -0.064173706
-0.124852344 0.0 -0.074184135 -0.12202744 0.0 -0.04600521 -0.030795958 -0.08431617
-0.04805426 -0.09286241 0.10268348 0.032741856 -0.2921938 0.0 0.0 -0.064007685
-0.0697556 -0.08762064 -0.052989833 -0.14930232 -0.010916802 -0.21585004 0.0 0.18279621
0.0 0.0 -0.057673603 0.29978374 0.31608835 -0.072147064 -0.11703151 -0.060578868
-0.02528845 -0.25729975 0.0 -0.020601857 -0.010421554 -0.29605356 -0.0317656 -0.12560113
0.01490427 -0.040553674 -0.11014007 -0.039059438 -0.045177564 -0.031761818 -0.15337653 0.0
0.061879974 -0.03176575 -0.24844143 -0.021821624 -0.30578965 0.0 -0.0049709105 0.0
-0.12962592 -0.050265864 -0.19367999 -0.117963456 -0.0065854765 0.0 -0.07835029 0.0
00000000: 8b61 b1bd 0000 0000 f020 65bb 0000 0000
00000010: 109e abbc 1481 13be 81ab 083d 1cd1 c8bd
00000020: 0000 0000 6f04 d7bd bb05 0abe 2525 8d3e
00000030: 9d72 0bbd 0000 0000 5903 2abe 0000 0000
00000040: 0000 0000 f1e6 a5bd a94d 5ebe 41d3 83bd
00000050: 78cc 07bd 4fe3 f9bd eaba b2be b48f 943e
00000060: 2300 5abb 2649 63bd 4c22 943d f310 09be
00000070: 5e49 73bd 731a c63c 0000 0000 b249 99be
00000080: c4c8 48bc 0000 0000 2db4 dfb9 c23d e0bd
00000090: 2911 88bd 0000 0000 a9da 34be ec34 9a3e
000000a0: 2510 833e 0885 763e 3795 01bd 0000 0000
000000b0: d55f f1bd 0000 0000 7659 9a3d 0a60 5abd
000000c0: edd4 acbd a6f3 4b3e 71c1 2bbd 0000 0000
000000d0: bf90 b4bc 0000 0000 0000 0000 a608 853e
000000e0: b816 02bd 0000 0000 c872 35bc 1364 debc
000000f0: 0000 0000 68fa 823e 5bce e6bc 816d 83bd
00000100: 96b2 ffbd 0000 0000 daed 97bd 86e9 f9bd
00000110: 0000 0000 f66f 3cbd ce47 fcbc f5ad acbd
00000120: 8bd4 44bd a62e bebd b74b d23d 531c 063d
00000130: 6d9a 95be 0000 0000 0000 0000 7616 83bd
00000140: 06dc 8ebd 7372 b3bd de0b 59bd b5e2 18be
00000150: 63dc 32bc cb07 5dbe 0000 0000 ee2e 3b3e
00000160: 0000 0000 0000 0000 283b 6cbd 417d 993e
00000170: 55d6 a13e d7c1 93bd 37ae efbd 8c21 78bd
00000180: b929 cfbc cbbc 83be 0000 0000 3ac5 a8bc
00000190: 2abf 2abc 5594 97be a51c 02bd 959d 00be
000001a0: 0a31 743c 9c1b 26bd 1e91 e1bd cafc 1fbd
000001b0: 1c0c 39bd ae18 02bd bd0e 1dbe 0000 0000
000001c0: db75 7d3d ce1c 02bd 6e67 7ebe 43c3 b2bc
000001d0: 7690 9cbe 0000 0000 05e3 a2bb 0000 0000
000001e0: a8bc 04be 94e3 4dbd 0c54 46be d396 f1bd
000001f0: fbca d7bb 0000 0000 1e76 a0bd 0000 0000

net.2.weight f4 [64, 128]
-0.111666575 -0.13038522 0.15637389 -0.16140905 0.027160482 -0.0950044 0.11778198 0.1918002
-0.089183696 0.051469326 0.026779622 -0.08092222 -0.13423939 -0.03254236 -0.11244127 0.08401382
-0.032379504 -0.019775612 -0.06274351 -0.1524085 -0.07275149 0.059046242 0.1268857 -0.1566434
-0.051587798 -0.15828864 -0.019050224 0.1592734 -0.12323848 -0.0339227 -0.000112595306 -0.11636457
-0.094212845 -0.122423336 -0.18088508 0.05877424 -0.07170586 0.030828355 0.095179 0.022947656
-1.0488182 0.09877366 0.0150121385 0.07395811 -0.030322658 0.079346165 0.030501314 -0.0624053
-0.02669923 -0.18195538 -0.0538109 -0.17651068 0.028084222 0.123987556 0.0043270905 -0.12981635
-0.0514228 -0.087443225 -0.18590443 0.15959 0.158972 0.058008283 -0.11560085 0.09242378
0.117883734 -0.0094739795 -0.11220631 -0.15717982 -0.16032378 -0.1726784 0.17394051 -0.14839235
0.13852851 0.111417376 -0.085762285 0.04640894 0.022160817 0.10174822 -2.5161668e-05 -0.16240084
-0.1320839 0.008028704 0.077555284 -0.22376621 0.01282811 -0.17079033 -0.1534872 -0.19695526
0.067343056 -0.11101239 0.14588845 -0.04496018 0.12547381 -0.109036565 -0.0048570237 -0.11994551
-0.054388672 -0.08164403 0.020348983 0.14071697 0.118555434 -0.1316386 -0.076458916 0.09776882
0.10474588 -0.028691655 0.02131482 -0.044057194 -0.02765585 0.13221274 -0.14552736 0.03863184
0.086611986 -0.09867118 -0.03958211 -0.15604699 -0.09686349 -0.122133195 0.10884108 0.14550057
-0.049438424 -0.06083374 -0.16153064 0.013072769 -0.16209713 -0.011726285 0.014264944 0.08572106
-0.03042234 -0.05384951 0.09829176 -0.027994843 0.12188662 0.093005806 -0.02227735 -0.10543531
0.020913372 0.0435808 -0.16918556 -0.060165707 0.05943053 -0.09803629 -0.029343305 -0.03449083
0.16760345 -0.038772605 -0.15811506 -0.1267234 -0.026436921 -0.1264921 0.09314645 0.059446063
-0.058169615 -0.08054807 -0.18556882 0.0268891 0.036628794 0.12255878 0.04560194 0.10907111
-0.080261104 -0.033591438 -0.0593658 -0.1217589 -0.14394262 0.075412326 -0.1442518 -0.20340359
0.0730853 -0.044973746 0.10896064 -0.1421582 0.14556612 -0.102117896 -0.010364897 -0.15073104
-0.19255356 0.07481402 0.009782356 0.047559302 0.012636381 0.066047944 0.052991442 0.035727676
0.10160442 0.14774382 -0.10620749 -0.11480639 0.15824544 -0.02073312 -0.1655005 -0.06276131
-0.05058725 -0.049911562 -0.14570016 -0.010897965 0.16201748 0.10104783 0.0892799 -0.034928527
-0.04166141 0.08787709 0.15718828 0.012709603 -0.039443377 -0.063905664 -0.011597359 -0.08981232
-0.1470891 0.09618146 0.0078673 0.10153011 0.10089602 0.06614924 0.12763356 -0.08244168
0.12509604 -0.0702593 -0.14207062 0.024678092 -0.0792618 -0.022313591 0.03948991 0.116177216
0.042960662 -0.009412714 -0.041793153 0.15966204 -0.19049977 -0.12218253 0.08888606 -0.056997687
-0.15157339 0.13441159 0.13918313 0.12068697 -0.08758339 -0.07484591 -0.11585817 -0.09383694
0.09103049 -0.12031254 0.0685365 -0.0993845 -0.23912635 0.099430844 0.10908779 -0.01511447
-0.07927563 -0.06368902 -0.100997545 0.14801931 0.06981808 -0.008235662 -0.023180671 0.0764272
00000000: 72b1 e4bd b483 05be 7a20 203e 6a48 25be
00000010: a97f de3c ab91 c2bd ae37 f13d 4667 443e
00000020: f1a5 b6bd 80d1 523d f060 db3c 8dba a5bd
00000030: 0d76 09be 234b 05bd 9c47 e6bd 700f ac3d
00000040: 5fa0 04bd 7700 a2bc ab7f 80bd f910 1cbe
00000050: bcfe 94bd 79da 713d 53ee 013e 2167 20be
00000060: ba4d 53bd 6b16 22be 370f 9cbc 9118 233e
00000070: 7564 fcbd 87f2 0abd 2521 ecb8 8c50 eebd
00000080: aaf2 c0bd 16b9 fabd f039 39be 42bd 703d
00000090: 86da 92bd bf8b fc3c 35ed c23d b9fc bb3c
000000a0: ad3f 86bf d849 ca3d 79f5 753c 5977 973d
000000b0: 3967 f8bc 3e80 a23d e4dd f93c b39c 7fbd
000000c0: 58b8 dabc 8352 3abe d168 5cbd 37bf 34be
000000d0: e210 e63c 30ed fd3d 44ca 8d3b 94ee 04be
000000e0: b7a0 52bd 6f15 b3bd bb5d 3ebe 906b 233e
000000f0: 8ec9 223e 189a 6d3d 23c0 ecbd ae48 bd3d
00000100: 076d f13d c038 1bbc 6ccc e5bd bff3 20be
00000110: eb2b 24be 9bd2 30be 761d 323e 2af4 17be
00000120: 6bda 0d3e cb2e e43d 23a4 afbd 4d17 3e3d
00000130: 9a8a b53c 5f61 d03d 4512 d3b7 684c 26be
00000140: 0041 07be d38a 033c 4ed5 9e3d f822 65be
00000150: fe2c 523c a9e3 2ebe c02b 1dbe a4ae 49be
00000160: 28eb 893d 775a e3bd c863 153e 2a28 38bd
00000170: 357c 003e 904e dfbd ab27 9fbb fea5 f5bd
00000180: a8c6 5ebd fc34 a7bd e9b2 a63c 1c18 103e
00000190: 31cd f23d 45cc 06be 7e96 9cbd 053b c83d
000001a0: 0285 d63d c30a ebbc 6b9c ae3c 5175 34bd
000001b0: 858e e2bc c762 073e 2005 15be 6c3c 1e3d
000001c0: a061 b13d 1e14 cabd da20 22bd c8ca 1fbe
000001d0: 5e60 c6bd f820 fabd 12e8 de3d 1afe 143e
000001e0: f27f 4abd cd2c 79bd 4a68 25be 2b2f 563c
000001f0: cafc 25be 9b1f 40bc 83b7 693c 868e af3d
00000200: 4538 f9bc 4e91 5cbd 314d c93d 7155 e5bc
00000210: b19f f93d d479 be3d fd7e b6bc 78ee d7bd
00000220: 8552 ab3c c881 323d fb3e 2dbe 5170 76bd
00000230: 6d6d 733d 40c7 c8bd 5f61 f0bc 4246 0dbd
00000240: 3da0 2b3e 06d0 1ebd eae8 21be c7c3 01be
00000250: 3e92 d8bc 2587 01be 91c3 be3d b77d 733d
00000260: 4343 6ebd 63f6 a4bd c105 3ebe 8846 dc3c
00000270: 1308 163d 1900 fb3d 1ac9 3a3d ad60 df3d
00000280: ef5f a4bd 2d97 09bd 8e29 73bd bb5c f9bd
00000290: b265 13be c771 9a3d beb6 13be 0849 50be
000002a0: bfad 953d 6436 38bd c226 df3d eb91 11be
000002b0: 490f 153e 3023 d1bd 87d1 29bc 3d59 1abe
000002c0: c32c 45be 1838 993d 2d46 203c 8bcd 423d
000002d0: d308 4f3c 2544 873d 8e0d 593d 2f57 123d
000002e0: fa15 d03d 284a 173e 5083 d9bd 9d1f ebbd
000002f0: 180b 223e 81d8 a9bc f778 29be 0089 80bd
00000300: 9434 4fbd 1170 4cbd 6c32 15be 618d 32bc
00000310: e9e7 253e 2af2 ce3d 61d8 b63d 3711 0fbd
00000320: 28a5 2abd e7f8 b33d f7f5 203e f03b 503c
00000330: 618f 21bd f9e0 82bd d902 3ebc 86ef b7bd
00000340: 869e 16be c9fa c43d d9e5 003c 05ef cf3d
00000350: 93a2 ce3d 4179 873d 5fb2 023e 2fd7 a8bd
00000360: 2d19 003e 1ce4 8fbd f67a 11be b629 ca3c
00000370: 0354 a2bd feca b6bc 2cc0 213d 52ee ed3d
00000380: 85f7 2f3d c937 1abc 4c2f 2bbd 727e 233e
00000390: 5f12 43be d63a fabd e509 b63d 6876 69bd
000003a0: 0e36 1bbe 31a3 093e 0686 0e3e bb2a f73d
000003b0: ec5e b3bd d048 99bd 0c47 edbd 952d c0bd
000003c0: 326e ba3d 6c66 f6bd dd5c 8c3d 1a8a cbbd
000003d0: 8add 74be 66a2 cb3d 6b69 df3d afa2 77bc
000003e0: 435b a2bd 646f 82bd cdd7 cebd 6092 173e
000003f0: c8fc 8e3d dfee 06bc 64e5 bdbc dd85 9c3d

net.2.bias f4 [64]
-0.05726145 -0.039521355 -0.04910204 -0.052010104 0.0 0.0 -0.049493 -0.006005508
-0.031377014 -0.024440272 -0.09565601 -0.021610241 -0.026771087 -0.019173855 -0.061390672 0.0
-0.050706107 -0.0094971005 -0.031765264 0.19493602 -0.20480697 0.06402833 -0.031765673 -0.06799051
-0.028762555 -0.09630004 -0.021030966 -0.045756936 0.4098841 -0.21581668 -0.02975957 -0.031765796
-0.054762557 -0.041608043 -0.0759252 -0.055340815 0.0 -0.010860117 -0.036148798 -0.049181797
-0.031747784 -0.03176569 -0.034722283 -0.050863758 -0.00979104 -0.009277162 0.19419485 -0.015757196
-0.01333642 0.098915294 0.0 -0.028512364 -0.03820209 -0.086275 -0.039838042 -0.06333485
-0.03176579 -0.019326521 -0.016231662 -0.018909363 -0.08257029 -0.026991578 -0.051046062 -0.023671713
00000000: fb8a 6abd 25e1 21bd 381f 49bd 8c08 55bd
00000010: 0000 0000 0000 0000 2cb9 4abd dac9 c4bb
00000020: 2f85 00bd f736 c8bc 4ce7 c3bd f607 b1bc
00000030: 0a4f dbbc 7d12 9dbc c974 7bbd 0000 0000
00000040: 35b1 4fbd ba99 1bbc 4b1c 02bd 4f9d 473e
00000050: ebb8 51be 4921 833d b91c 02bd 9c3e 8bbd
00000060: 739f ebbc f538 c5bd 2249 acbc a06b 3bbd
00000070: 54dc d13e 0cff 5cbe 57ca f3bc da1c 02bd
00000080: b44e 60bd 326d 2abd ac7e 9bbd 0dad 62bd
00000090: 0000 0000 a2ee 31bc c310 14bd da72 49bd
000000a0: f709 02bd bd1c 02bd f438 0ebd 8456 50bd
000000b0: 996a 20bc 3dff 17bc 04db 463e 3c15 81bc
000000c0: 0081 5abc 1a94 ca3d 0000 0000 c392 e9bc
000000d0: cb79 1cbd f2b0 b0bd 372d 23bd b4b5 81bd
000000e0: d81c 02bd a752 9ebc 43f8 84bc cfe7 9abc
000000f0: 9d1a a9bd 711d ddbc ad15 51bd 2eeb c1bc

net.4.weight f4 [16, 64]
0.09702827 -0.110615514 0.059275415 -0.2453315 0.0400499 0.18310003 -0.115596145 0.15710226
0.12977903 0.18938594 -0.17010842 0.09012731 0.09229543 -0.25499457 0.038290508 -0.17370705
-0.11703359 -0.35417625 -0.050628997 0.24733697 0.1449501 0.18983336 -0.07824057 0.20020525
-0.2438364 -0.021160053 -0.20073827 -0.07448867 -0.19152002 -0.00716267 -0.17694417 -0.029196283
0.13347127 0.061990485 -0.035970308 0.011112835 -0.16244504 0.18103553 -0.03165952 -0.09026942
-0.07290377 0.06285904 -0.09552761 -0.23927343 0.16113865 -0.26990744 0.012445345 0.06823918
-0.18097185 -0.14851718 -0.26749757 -0.22699349 0.07710347 0.14139035 -0.20974122 0.12496484
-0.034869403 0.06362062 0.016076695 0.07175968 0.11515908 -0.10620789 0.19492751 -0.25095463
0.15629727 -0.17874664 0.13525268 0.0842118 0.111477785 -0.25725415 0.20878235 0.18129475
0.20437478 0.21706277 0.09453689 -0.025235344 -0.013407538 -0.040750574 0.026634438 -0.26528952
-0.18032143 -0.04555093 -0.09261028 0.27927768 0.003635441 0.18177025 -0.12210161 0.25643244
-0.05611919 0.03596372 0.21984634 -0.0023106171 0.14022425 0.018624268 0.27349755 -0.13576576
-0.07599387 0.1270462 -0.0050672777 0.21543922 -0.108872145 0.091988906 0.10905015 -0.12282221
-0.006575163 -0.054208778 -0.11795878 -0.03728908 -0.11178717 0.15468067 0.072805904 -0.08943313
0.17222969 -0.07463672 -0.14491433 -0.0037858642 0.014795474 0.17495437 0.1150234 -0.04442993
0.23839083 0.20112379 -0.24975076 0.120606996 0.051436365 -0.20092525 0.08514193 -0.10394102
0.14990522 0.08926149 0.15753879 -0.07560614 -0.17867178 0.16616449 -0.15881409 -0.025800513
0.045691036 0.18246333 0.009060665 -0.007523499 -0.23204778 0.22253944 0.10761382 0.0050334525
0.03920339 -0.31850582 -0.19124867 -0.22392254 -0.1651735 -0.0050013172 -0.26382154 -0.017116034
-0.19740957 -0.2041597 0.025577215 -0.07086747 0.15108766 -0.16247936 0.24058299 -0.24658749
0.031345583 -0.016203362 0.08495144 0.09909156 -0.17071857 0.06581021 -0.20675957 0.18370542
-0.24470766 -0.22183919 -0.11526269 -0.09521703 0.064415 0.046685696 -0.21507648 -0.15111561
0.10207604 -0.23824579 -0.06914265 -0.014207254 0.18582082 0.20725614 0.06305738 -0.025399823
0.09087458 0.014527896 -0.25759336 0.22186887 0.1583575 0.054163538 -0.05308586 -0.118878394
0.18768096 0.050860856 0.13753235 0.21058917 0.08153368 -0.14605092 -0.17064208 0.21491875
0.1290229 0.18767224 0.06939623 0.0056603635 0.011193921 0.14197256 -0.06336239 0.2496053
-0.12905526 -0.14703703 -0.046956886 -0.07507848 0.04663052 -0.14236856 -0.14725067 0.20575365
-0.01101125 0.06673071 -0.21118286 -0.050202545 -0.25108677 0.043907948 0.20904173 -0.14269477
0.24426156 0.16723602 -0.06909511 0.15294822 0.14519492 -0.14711943 0.06759923 0.19582915
0.16365212 0.075187206 0.0468617 0.011019062 -0.030218922 0.08570342 0.06030342 -0.1356878
-0.1806066 -0.29929304 0.07743836 -0.30190584 -0.1663523 0.07020363 0.19607499 0.018663121
-0.2075581 -0.17867811 -0.043447334 0.19761883 0.21438156 -0.052859917 0.12519127 -0.10235212
00000000: c2b6 c63d 638a e2bd c7ca 723d 2e38 7bbe
00000010: 5d0b 243d 937e 3b3e acbd ecbd 6adf 203e
00000020: cbe4 043e 63ee 413e e730 2ebe ab94 b83d
00000030: 6305 bd3d a68e 82be 82d6 1c3d 43e0 31be
00000040: 4faf efbd 9756 b5be 5a60 4fbd e745 7d3e
00000050: cd6d 143e ad63 423e 983c a0bd 9b02 4d3e
00000060: 40b0 79be d957 adbc 558e 4dbe 848d 98bd
00000070: d31d 44be d5b4 eabb da30 35be 0b2d efbc
00000080: b1ac 083e bce9 7d3d 9a55 13bd 9c12 363c
00000090: fe57 26be 6161 393e 6aad 01bd 2cdf b8bd
000000a0: 924e 95bd 3ebc 803d fba3 c3bd 1804 75be
000000b0: 8801 253e 4f31 8abe 8fe7 4b3c fcc0 8b3d
000000c0: af50 39be e314 18be 71f5 88be fb70 68be
000000d0: 6de8 9d3d a2c8 103e 67c6 56be 91ed ff3d
000000e0: 38d3 0ebd 874b 823d 46b3 833c bdf6 923d
000000f0: 86d8 eb3d 8683 d9bd 149b 473e 207d 80be
00000100: 640c 203e 5c09 37be ae7f 0a3e 3c77 ac3d
00000110: 774e e43d d1b6 83be 0acb 553e 55a5 393e
00000120: 9f47 513e b445 5e3e 8f9c c13d 5aba cebc
00000130: 4aab 5bbc 13ea 26bd 7730 da3c 07d4 87be
00000140: 2ea6 38be 9d93 3abd 75aa bdbd 7cfd 8e3e
00000150: 9440 6e3b fb21 3a3e 6910 fabd 1d4b 833e
00000160: 3cdd 65bd b24e 133d 661f 613e b96d 17bb
00000170: f296 0f3e ec91 983c df07 8c3e 2e06 0bbe
00000180: ada2 9bbd 6618 023e 680b a6bb 199c 5c3e
00000190: 5cf8 debd ae64 bc3d af55 df3d 368a fbbd
000001a0: 7774 d7bb 060a 5ebd 5f94 f1bd 6fbc 18bd
000001b0: acf0 e4bd 9c64 1e3e 431b 953d b828 b7bd
000001c0: fb5c 303e 23db 98bd 6c64 14be 431c 78bb
000001d0: b768 723c 3d27 333e 6391 eb3d 29fc 35bd
000001e0: ba1c 743e 65f3 4d3e aabe 7fbe cd00 f73d
000001f0: f0ae 523d 59bf 4dbe e45e ae3d 08df d4bd
00000200: c180 193e bace b63d d951 213e 64d7 9abd
00000210: bcf5 36be 0627 2a3e 29a0 22be 995b d3bc
00000220: 8626 3b3d abd7 3a3e 2f73 143c af87 f6bb
00000230: ef9d 6dbe 61e1 633e a264 dc3d a9ef a43b
00000240: bc93 203d 3213 a3be b1d6 43be f34b 65be
00000250: 3e23 29be 17e2 a3bb 9e13 87be ed36 8cbc
00000260: bc25 4abe 3e0f 51be 4f87 d13c f722 91bd
00000270: b9b6 1a3e fd60 26be 635b 763e 6e81 7cbe
00000280: 3a64 003d eabc 84bc 05fb ad3d 84f0 ca3d
00000290: d9d0 2ebe 81c7 863d c8b8 53be 461d 3c3e
000002a0: a594 7abe d029 63be d80e ecbd 2501 c3bd
000002b0: 03ec 833d 8039 3f3d 023d 5cbe 0dbe 1abe
000002c0: 3e0d d13d b4f6 73be a99a 8dbd 8bc5 68bc
000002d0: d047 3e3e f43a 543e 3a24 813d 4a13 d0bc
000002e0: 741c ba3d 6a06 6e3c 47e3 83be 9831 633e
000002f0: 7828 223e 96da 5d3d 8f70 59bd 8476 f3bd
00000300: 702f 403e 7953 503d 48d5 0c3e b0a4 573e
00000310: 21fb a63d 5f8e 15be ccbc 2ebe a913 5c3e
00000320: 941e 043e 272d 403e 9c1f 8e3d 927a b93b
00000330: b566 373c 4161 113e 24c4 81bd 8898 7f3e
00000340: 1027 04be e090 16be dd55 40bd bfc2 99bd
00000350: a5ff 3e3d 10c9 11be e1c8 16be 16b1 523e
00000360: 8868 34bc 1caa 883d 5240 58be 2fa1 4dbd
00000370: 728e 80be d2d8 333d 090f 563e 941e 12be
00000380: b41f 7a3e eb3f 2b3e bd81 8dbd 759e 1c3e
00000390: faad 143e 7aa6 16be 7771 8a3d 7087 483e
000003a0: 6c94 273e c0fb 993d 0ef2 3f3d 4c89 343c
000003b0: ac8d f7bc 4685 af3d b800 773d bef1 0abe
000003c0: f0f0 38be f03c 99be 0198 9e3d 6793 9abe
000003d0: 4258 2abe ecc6 8f3d e2c7 483e 67e3 983c
000003e0: 1c8a 54be 65f7 36be d5f5 31bd 975c 4a3e
000003f0: d786 5b3e a483 58bd 2432 003e fd9d d1bd

net.4.bias f4 [16]
-0.2907165 0.45359638 0.093020506 -0.07563351 -0.1520384 -0.14607027 -0.23095472 -0.16005225
-0.467418 -0.011416858 0.11665759 -0.2211344 -0.12494838 -0.083108425 -0.033114363 0.36584
00000000: cbd8 94be c93d e83e 8981 be3d bee5 9abd
00000010: f4af 1bbe 7293 15be 657f 6cbe bde4 23be
00000020: 6951 efbe c60d 3bbc 2dea ee3d 0e71 62be
00000030: f0e4 ffbd c034 aabd eda2 07bd 614f bb3e

net.6.weight f4 [1, 16]
-0.021017507 0.31743985 0.32888946 -0.39646056 -0.3506225 -0.020357078 -0.13591038 -0.29208153
0.028824495 0.037618037 0.29159513 -0.24983169 0.19002062 -0.3602546 0.03895247 0.22352183
00000000: e82c acbc 7a87 a23e 3364 a83e e1fc cabe
00000010: cb84 b3be e3c3 a6bc 172c 0bbe b68b 95be
00000020: 5921 ec3c 5f15 1a3d f54b 953e e1d3 7fbe
00000030: c494 423e 4a73 b8be a08c 1f3d e8e2 643e

exp_avg f4 [128, 48]
6e-45 6e-45 6e-45 6e-45 6e-45 6e-45 6e-45 6e-45
6e-45 6e-45 6e-45 6e-45 6e-45 6e-45 6e-45 0.0
6e-45 6e-45 6e-45 6e-45 6e-45 6e-45 6e-45 6e-45
6e-45 6e-45 6e-45 6e-45 6e-45 6e-45 6e-45 6e-45
6e-45 6e-45 6e-45 6e-45 6e-45 6e-45 6e-45 6e-45
6e-45 6e-45 6e-45 6e-45 6e-45 6e-45 -6e-45 6e-45
0.0 0.0 0.0 0.0 0.0 0.0 0.0 0.0
0.0 0.0 0.0 0.0 0.0 0.0 0.0 0.0
0.0 0.0 0.0 0.0 0.0 0.0 0.0 0.0
0.0 0.0 0.0 0.0 0.0 0.0 0.0 0.0
0.0 0.0 0.0 0.0 0.0 0.0 0.0 0.0
0.0 0.0 0.0 0.0 0.0 0.0 0.0 0.0
6e-45 6e-45 -6e-45 6e-45 -6e-45 -6e-45 -6e-45 6e-45
6e-45 6e-45 6e-45 6e-45 6e-45 6e-45 6e-45 6e-45
6e-45 6e-45 6e-45 6e-45 6e-45 6e-45 6e-45 6e-45
6e-45 6e-45 6e-45 6e-45 6e-45 6e-45 6e-45 6e-45
6e-45 6e-45 6e-45 6e-45 6e-45 6e-45 6e-45 6e-45
6e-45 6e-45 6e-45 6e-45 6e-45 6e-45 6e-45 6e-45
0.0 0.0 0.0 0.0 0.0 0.0 0.0 0.0
0.0 0.0 0.0 0.0 0.0 0.0 0.0 0.0
0.0 0.0 0.0 0.0 0.0 0.0 0.0 0.0
0.0 0.0 0.0 0.0 0.0 0.0 0.0 0.0
0.0 0.0 0.0 0.0 0.0 0.0 0.0 0.0
0.0 0.0 0.0 0.0 0.0 0.0 0.0 0.0
0.099135794 0.1410987 0.018613359 0.03803328 0.116687685 0.07410531 0.1332904 9.513598e-11
4.3576 5.3452 2.4035633 0.78547 4.7824435 4.1550074 4.7576528 -6e-45
0.0023408441 0.00319543 0.0004561477 0.0008340644 0.0023965545 0.0023621414 0.0027959847 3.414388e-05
3.2942182e-05 0.000102748534 0.00039942874 0.00039942874 0.1201581 0.0001724722 0.0011476236 0.0037345518
0.0005393467 -0.008678724 0.061317362 -8.615884e-06 0.0020926094 0.00061630365 -9.529896e-06 -4.3744134e-05
-0.0005287008 -0.00018427159 -0.0014806812 -0.062834434 0.00058370037 -0.00017579403 -0.0017769015 -0.00012896897
6e-45 6e-45 6e-45 6e-45 6e-45 6e-45 6e-45 6e-45
6e-45 6e-45 6e-45 6e-45 6e-45 -6e-45 6e-45 6e-45
00000000: 0400 0000 0400 0000 0400 0000 0400 0000
00000010: 0400 0000 0400 0000 0400 0000 0400 0000
00000020: 0400 0000 0400 0000 0400 0000 0400 0000
00000030: 0400 0000 0400 0000 0400 0000 0000 0000
00000040: 0400 0000 0400 0000 0400 0000 0400 0000
00000050: 0400 0000 0400 0000 0400 0000 0400 0000
00000060: 0400 0000 0400 0000 0400 0000 0400 0000
00000070: 0400 0000 0400 0000 0400 0000 0400 0000
00000080: 0400 0000 0400 0000 0400 0000 0400 0000
00000090: 0400 0000 0400 0000 0400 0000 0400 0000
000000a0: 0400 0000 0400 0000 0400 0000 0400 0000
000000b0: 0400 0000 0400 0000 0400 0080 0400 0000
000000c0: 0000 0000 0000 0000 0000 0000 0000 0000
000000d0: 0000 0000 0000 0000 0000 0000 0000 0000
000000e0: 0000 0000 0000 0000 0000 0000 0000 0000
000000f0: 0000 0000 0000 0000 0000 0000 0000 0000
00000100: 0000 0000 0000 0000 0000 0000 0000 0000
00000110: 0000 0000 0000 0000 0000 0000 0000 0000
00000120: 0000 0000 0000 0000 0000 0000 0000 0000
00000130: 0000 0000 0000 0000 0000 0000 0000 0000
00000140: 0000 0000 0000 0000 0000 0000 0000 0000
00000150: 0000 0000 0000 0000 0000 0000 0000 0000
00000160: 0000 0000 0000 0000 0000 0000 0000 0000
00000170: 0000 0000 0000 0000 0000 0000 0000 0000
00000180: 0400 0000 0400 0000 0400 0080 0400 0000
00000190: 0400 0080 0400 0080 0400 0080 0400 0000
000001a0: 0400 0000 0400 0000 0400 0000 0400 0000
000001b0: 0400 0000 0400 0000 0400 0000 0400 0000
000001c0: 0400 0000 0400 0000 0400 0000 0400 0000
000001d0: 0400 0000 0400 0000 0400 0000 0400 0000
000001e0: 0400 0000 0400 0000 0400 0000 0400 0000
000001f0: 0400 0000 0400 0000 0400 0000 0400 0000
00000200: 0400 0000 0400 0000 0400 0000 0400 0000
00000210: 0400 0000 0400 0000 0400 0000 0400 0000
00000220: 0400 0000 0400 0000 0400 0000 0400 0000
00000230: 0400 0000 0400 0000 0400 0000 0400 0000
00000240: 0000 0000 0000 0000 0000 0000 0000 0000
00000250: 0000 0000 0000 0000 0000 0000 0000 0000
00000260: 0000 0000 0000 0000 0000 0000 0000 0000
00000270: 0000 0000 0000 0000 0000 0000 0000 0000
00000280: 0000 0000 0000 0000 0000 0000 0000 0000
00000290: 0000 0000 0000 0000 0000 0000 0000 0000
000002a0: 0000 0000 0000 0000 0000 0000 0000 0000
000002b0: 0000 0000 0000 0000 0000 0000 0000 0000
000002c0: 0000 0000 0000 0000 0000 0000 0000 0000
000002d0: 0000 0000 0000 0000 0000 0000 0000 0000
000002e0: 0000 0000 0000 0000 0000 0000 0000 0000
000002f0: 0000 0000 0000 0000 0000 0000 0000 0000
00000300: b507 cb3d 2d7c 103e 0b7b 983c c9c8 1b3d
00000310: f4f9 ee3d 86c4 973d 477d 083e cc34 d12e
00000320: 7671 8b40 e10b ab40 fbd3 1940 9014 493f
00000330: c709 9940 d2f5 8440 b13e 9840 0400 0080
00000340: d968 193b 6b6a 513b 1c27 ef39 1da5 5a3a
00000350: 830f 1d3b 28ce 1a3b d73c 373b b635 0f38
00000360: 662b 0a38 b37a d738 6b6a d139 6b6a d139
00000370: 7315 f63d a7d9 3439 dc6b 963a 62bf 743b
00000380: f262 0d3a 3531 0ebc ea27 7b3d f18c 10b7
00000390: 2924 093b 708f 213a 97e2 1fb7 e879 37b8
000003a0: 8398 0aba 0739 41b9 6b13 c2ba 57af 80bd
000003b0: 7803 193a 5a55 38b9 ece6 e8ba d83b 07b9
000003c0: 0400 0000 0400 0000 0400 0000 0400 0000
000003d0: 0400 0000 0400 0000 0400 0000 0400 0000
000003e0: 0400 0000 0400 0000 0400 0000 0400 0000
000003f0: 0400 0000 0400 0080 0400 0000 0400 0000

exp_avg_sq f4 [128, 48]
5.7884613e-06 7.12047e-06 4.582642e-06 2.9885467e-08 5.8058986e-06 5.198879e-06 6.497085e-06 1.3585243e-23
0.012499479 0.013895288 0.011263426 1.546163e-05 0.0122764055 0.011904223 0.013235523 0.0
3.25188e-09 4.8577413e-09 2.4784435e-09 4.1457546e-11 3.5689527e-09 2.4784435e-09 3.5689527e-09 3.965506e-12
3.965506e-12 1.7624473e-11 9.913765e-11 9.913765e-11 1.1996465e-08 8.3298727e-19 1.6374998e-16 1.043285e-15
9.913765e-11 9.913809e-11 1.1995642e-08 1.5018065e-19 5.628439e-16 2.1262742e-16 7.316841e-23 2.7547213e-21
2.7134355e-19 9.913765e-11 9.913765e-11 1.199566e-08 4.606507e-18 2.699465e-09 3.1810364e-07 1.2538289e-19
0.0 0.0 0.0 0.0 0.0 0.0 0.0 0.0
0.0 0.0 0.0 0.0 0.0 0.0 0.0 0.0
0.0 0.0 0.0 0.0 0.0 0.0 0.0 0.0
0.0 0.0 0.0 0.0 0.0 0.0 0.0 0.0
0.0 0.0 0.0 0.0 0.0 0.0 0.0 0.0
0.0 0.0 0.0 0.0 0.0 0.0 0.0 0.0
0.000516675 0.06513351 3.4807292e-11 0.0031342143 9.100384e-09 8.905985e-09 9.4040455e-09 5.0518105e-07
2.280122 109.47222 3.850579e-07 8.729789 0.049232677 0.032845117 1.1461878 4.1937997e-07
3.2926667e-07 3.9757193e-05 3.93087e-14 1.9946788e-06 3.3524846e-13 1.8492056e-13 5.418994e-13 1.09854126e-10
1.2104336e-10 9.845893e-09 2.2154714e-08 5.783947e-06 0.035411187 4.5936974e-09 5.024419e-07 2.2518207e-05
3.9867948e-07 0.00019618757 0.02573119 3.468346e-07 0.0003449892 0.017959274 1.4278994e-12 7.493405e-12
7.2913555e-09 7.3917886e-07 7.391969e-07 10.198498 5.775712e-12 1.7264966e-09 4.908564e-06 3.026207e-10
0.0 0.0 0.0 0.0 0.0 0.0 0.0 0.0
0.0 0.0 0.0 0.0 0.0 0.0 0.0 0.0
0.0 0.0 0.0 0.0 0.0 0.0 0.0 0.0
0.0 0.0 0.0 0.0 0.0 0.0 0.0 0.0
0.0 0.0 0.0 0.0 0.0 0.0 0.0 0.0
0.0 0.0 0.0 0.0 0.0 0.0 0.0 0.0
3.8294885 7.508787 0.34553298 0.32428277 4.0606318 2.5947633 6.068567 2.0056283e-10
8334.027 11414.059 2425.7065 130.9621 8931.358 7968.6406 9640.178 9.711202e-15
0.0025439872 0.0049342494 0.00038536623 0.00022786179 0.0027341836 0.001640328 0.0037760364 8.8421115e-07
1.0881591e-06 1.0258952e-05 7.718602e-05 7.724461e-05 9.372582 1.015169e-05 0.0028621785 0.017925048
5.2507374e-05 0.008915949 0.07224071 1.8636774e-06 0.0066655483 0.0027316087 1.4776174e-09 3.743804e-08
3.5074208e-06 1.3889919e-06 2.763038e-05 0.20292036 7.083005e-05 4.5584466e-07 0.00052148465 3.9802156e-08
8.397588e-10 1.189205e-07 6.8395345e-20 5.0138245e-09 3.84342e-17 4.509805e-19 9.289182e-14 1.0309046e-12
2.916452e-06 0.00019207946 6.2085355e-16 1.30136805e-05 1.1982965e-08 1.2684856e-13 1.3194024e-08 9.489362e-13
00000000: 813a c236 5fec ee36 98c4 9936 6b5b 0033
00000010: 4ad0 c236 0872 ae36 8901 da36 6f63 8319
00000020: 9dca 4c3c 10a9 633c 3c8a 383c 99b3 8137
00000030: fa22 493c ee09 433c cfd9 583c 0000 0000
00000040: ae77 5f31 25e9 a631 3d51 2a31 0c55 362e
00000050: ae41 7531 3d51 2a31 ae41 7531 1a86 8b2c
00000060: 1a86 8b2c c906 9b2d 8901 da2e 8901 da2e
00000070: 0319 4e32 bdda 7521 77ca 3c25 6c5a 9626
00000080: 8901 da2e c801 da2e 6415 4e32 514d 3120
00000090: 8d3a 2226 8a24 7525 0de9 b01a 0f24 501d
000000a0: 472c a020 8901 da2e 8901 da2e 7815 4e32
000000b0: 3bf3 a922 7e81 3931 d5c7 aa34 a706 1420
000000c0: 0000 0000 0000 0000 0000 0000 0000 0000
000000d0: 0000 0000 0000 0000 0000 0000 0000 0000
000000e0: 0000 0000 0000 0000 0000 0000 0000 0000
000000f0: 0000 0000 0000 0000 0000 0000 0000 0000
00000100: 0000 0000 0000 0000 0000 0000 0000 0000
00000110: 0000 0000 0000 0000 0000 0000 0000 0000
00000120: 0000 0000 0000 0000 0000 0000 0000 0000
00000130: 0000 0000 0000 0000 0000 0000 0000 0000
00000140: 0000 0000 0000 0000 0000 0000 0000 0000
00000150: 0000 0000 0000 0000 0000 0000 0000 0000
00000160: 0000 0000 0000 0000 0000 0000 0000 0000
00000170: 0000 0000 0000 0000 0000 0000 0000 0000
00000180: 7971 073a b864 853d 8715 192e 6467 4d3b
00000190: e957 1c32 f000 1932 6e8f 2132 c79b 0735
000001a0: 85ed 1140 c7f1 da42 f4b9 ce34 37ad 0b41
000001b0: 34a8 493d 9a88 063d 48b6 923f 2527 e134
000001c0: 11c6 b034 f6c0 2638 d807 3129 52dc 0536
000001d0: 65ba bc2a b933 502a f887 182b 6092 f12e
000001e0: ad16 052f b226 2932 bb4e be32 ba13 c236
000001f0: 520b 113d 97d6 9d31 8bdf 0635 7be5 bc37
00000200: 170a d634 b3b7 4d39 37ca d23c 9634 ba34
00000210: abdf b439 541f 933c 7ff5 c82b 4cd3 032d
00000220: 7187 fa31 fc6b 4635 396d 4635 0c2d 2341
00000230: fd36 cb2c b349 ed30 3eb4 a436 145e a62f
00000240: 0000 0000 0000 0000 0000 0000 0000 0000
00000250: 0000 0000 0000 0000 0000 0000 0000 0000
00000260: 0000 0000 0000 0000 0000 0000 0000 0000
00000270: 0000 0000 0000 0000 0000 0000 0000 0000
00000280: 0000 0000 0000 0000 0000 0000 0000 0000
00000290: 0000 0000 0000 0000 0000 0000 0000 0000
000002a0: 0000 0000 0000 0000 0000 0000 0000 0000
000002b0: 0000 0000 0000 0000 0000 0000 0000 0000
000002c0: 0000 0000 0000 0000 0000 0000 0000 0000
000002d0: 0000 0000 0000 0000 0000 0000 0000 0000
000002e0: 0000 0000 0000 0000 0000 0000 0000 0000
000002f0: 0000 0000 0000 0000 0000 0000 0000 0000
00000300: 5716 7540 fc47 f040 b3e9 b03e 6408 a63e
00000310: b2f0 8140 9a10 2640 b331 c240 6b85 5c2f
00000320: 1c38 0246 3c58 3246 4e9b 1745 4cf6 0243
00000330: 6f8d 0b46 2005 f945 b6a0 1646 04f1 2e28
00000340: 06b9 263b 7caf a13b fb0a ca39 2fee 6e39
00000350: fd2f 333b 4600 d73a 6177 773b 875a 6d35
00000360: dd0c 9235 dd1d 2c37 eede a138 62fe a138
00000370: 19f6 1541 2d51 2a37 6393 3b3b 8dd7 923c
00000380: 5d3b 5c38 3314 123c f0f2 933d 7823 fa35
00000390: ac6a da3b ca04 333b 0a15 cb30 8fcb 2033
000003a0: 0861 6b36 666d ba35 cac7 e737 5bca 4f3e
000003b0: 988a 9438 d0ba f434 3eb4 083a eff2 2a33
000003c0: c6d4 6630 3c61 ff33 737e a11f 1146 ac31
000003d0: 183f 3124 201b 0521 7d2c d129 4116 912b
000003e0: 44b8 4336 f068 4939 e8f2 3226 5555 5a37
000003f0: a3dd 4d32 9cd1 0e2a eeab 6232 088d 852b

exp_avg f4 [128]
6e-45 0.0 6e-45 0.0 0.00039942874 6e-45 0.00032506033 6e-45
0.0 6e-45 6e-45 0.00026229216 6e-45 0.0 0.00014678786 0.0
0.0 6e-45 -1.19074175e-05 6e-45 6e-45 6e-45 2.3141618e-05 0.00014514156
6e-45 6e-45 -6e-45 6e-45 6e-45 -0.00015676508 0.0 -0.000120252764
0.0006631408 0.0 6e-45 6e-45 6e-45 0.0 6e-45 0.00032513062
0.0005253213 4.464555e-06 6e-45 0.0 6e-45 0.0 6e-45 6e-45
6e-45 0.0005647561 6e-45 0.0 0.00027623135 0.0 0.0 6.9027988e-06
6e-45 0.0 -6e-45 6e-45 0.0 0.00060203497 6e-45 6e-45
6e-45 0.0 6e-45 6e-45 0.0 6e-45 6e-45 6e-45
6e-45 6e-45 -6e-45 -6e-45 -8.713238e-05 0.0 0.0 6e-45
6e-45 6e-45 6e-45 -1.782251e-05 6e-45 -0.0003400723 0.0 0.00017977244
0.0 0.0 6e-45 0.0004636007 0.0005077113 6e-45 6e-45 6e-45
6e-45 6e-45 0.0 -6e-45 0.000275096 -0.00027847526 6e-45 6e-45
-0.00016217904 6e-45 6e-45 6e-45 6e-45 6e-45 6e-45 0.0
-6e-45 6e-45 -0.00053864176 6e-45 6e-45 0.0 6e-45 0.0
6e-45 6e-45 3.862108e-05 6e-45 6e-45 0.0 7.757311e-05 0.0
00000000: 0400 0000 0000 0000 0400 0000 0000 0000
00000010: 6b6a d139 0400 0000 dc6c aa39 0400 0000
00000020: 0000 0000 0400 0000 0400 0000 4284 8939
00000030: 0400 0000 0000 0000 11eb 1939 0000 0000
00000040: 0000 0000 0400 0000 f8c5 47b7 0400 0000
00000050: 0400 0000 0400 0000 3f20 c237 2431 1839
00000060: 0400 0000 0400 0000 0400 0080 0400 0000
00000070: 0400 0000 4e61 24b9 0000 0000 3630 fcb8
00000080: a0d6 2d3a 0000 0000 0400 0000 0400 0000
00000090: 0400 0000 0000 0000 0400 0000 4b76 aa39
000000a0: b7b5 093a 3cce 9536 0400 0000 0000 0000
000000b0: 0400 0000 0000 0000 0400 0000 0400 0000
000000c0: 0400 0000 240c 143a 0400 0000 0000 0000
000000d0: 25d3 9039 0000 0000 0000 0000 979e e736
000000e0: 0400 0000 0000 0000 0400 0080 0400 0000
000000f0: 0000 0000 e2d1 1d3a 0400 0000 0400 0000
00000100: 0400 0000 0000 0000 0400 0000 0400 0000
00000110: 0000 0000 0400 0000 0400 0000 0400 0000
00000120: 0400 0000 0400 0000 0400 0080 0400 0080
00000130: d7ba b6b8 0000 0000 0000 0000 0400 0000
00000140: 0400 0000 0400 0000 0400 0000 8c81 95b7
00000150: 0400 0000 bb4b b2b9 0000 0000 4c81 3c39
00000160: 0000 0000 0000 0000 0400 0000 6f0f f339
00000170: ee17 053a 0400 0000 0400 0000 0400 0000
00000180: 0400 0000 0400 0000 0000 0000 0400 0080
00000190: c33a 9039 5100 92b9 0400 0000 0400 0000
000001a0: 9b0e 2ab9 0400 0000 0400 0000 0400 0000
000001b0: 0400 0000 0400 0000 0400 0000 0000 0000
000001c0: 0400 0080 0400 0000 a333 0dba 0400 0000
000001d0: 0400 0000 0000 0000 0400 0000 0000 0000
000001e0: 0400 0000 0400 0000 12fd 2138 0400 0000
000001f0: 0400 0000 0000 0000 bfae a238 0000 0000

exp_avg_sq f4 [128]
9.913765e-11 0.0 7.391969e-07 0.0 7.719034e-05 1.3572029e-12 0.00028975503 3.000105e-13
0.0 4.3077e-12 1.0152032e-10 0.0006269234 7.747834e-23 0.0 0.00013391308 0.0
0.0 4.7274163e-16 1.8214385e-05 2.0328991e-20 7.3646484e-22 2.3602344e-12 0.00076028734 0.0006598569
3.6330412e-08 9.555846e-16 6.471569e-06 5.223124e-10 1.9654728e-26 4.880779e-05 0.0 0.0001419783
0.0004690515 0.0 1.05326e-14 1.0905236e-08 6.969776e-09 0.0 2.5274113e-14 0.00044431505
0.00065197353 0.00076817314 1.6989113e-25 0.0 2.112931e-13 0.0 2.2455596e-08 5.353597e-08
8.171378e-09 0.0006427269 5.0282598e-11 0.0 8.889944e-05 0.0 0.0 0.00048305327
1.2489123e-26 0.0 1.7366971e-06 1.763637e-27 0.0 0.0003481052 3.697815e-10 9.045157e-22
1.8445352e-12 0.0 9.088833e-09 8.519562e-21 0.0 2.6721085e-07 3.6424906e-30 2.1703185e-10
1.3735089e-11 1.4731467e-08 9.088576e-06 1.446062e-06 9.058796e-05 0.0 0.0 1.2829012e-14
2.7182856e-14 1.0313895e-19 2.0830386e-11 8.975444e-06 1.8678563e-12 0.000120839206 0.0 0.00016163217
0.0 0.0 4.8565535e-20 0.0008277629 0.0003269972 1.68472e-09 1.0227856e-22 1.1906287e-07
1.6060587e-14 8.5551415e-09 0.0 4.1929975e-12 8.335183e-05 0.00018406479 5.528781e-23 2.149329e-09
7.5399104e-05 3.3769432e-09 4.9754246e-11 3.1539695e-27 3.6031097e-22 2.9493848e-26 3.7936488e-17 0.0
1.9977897e-06 8.097652e-11 0.000252799 7.193636e-24 6.1043193e-09 0.0 5.79287e-21 0.0
6.0502955e-16 8.2326736e-23 0.0006715085 1.8729746e-10 6.981422e-09 0.0 8.3057406e-05 0.0
00000000: 8901 da2e 0000 0000 396d 4635 0000 0000
00000010: 40e1 a138 6302 bf2b 43ea 9739 12e4 a82a
00000020: 0000 0000 5090 972c dc3e df2e 1e58 243a
00000030: c554 bb1a 0000 0000 056b 0c39 0000 0000
00000040: 0000 0000 2d42 0826 18cb 9837 7c00 c01e
00000050: 3595 5e1c 3416 262c 054e 473a 3ffa 2c3a
00000060: b609 1c33 d9b6 8926 5b26 d936 7892 0f30
00000070: a8a6 c214 f7b6 4c38 0000 0000 02e0 1439
00000080: 07eb f539 0000 0000 0bbd 3d28 bc59 3b32
00000090: cc7a ef31 0000 0000 23a6 e328 f5f2 e839
000000a0: 34e9 2a3a 3a5f 493a a650 5216 0000 0000
000000b0: 17e5 6d2a 0000 0000 61e4 c032 6cef 6533
000000c0: 1a62 0c32 ac7c 283a 2c25 5d2e 0000 0000
000000d0: 866f ba38 0000 0000 0000 0000 5042 fd39
000000e0: 615f 7714 0000 0000 7518 e935 cfba 0b13
000000f0: 0000 0000 e481 b639 1f4a cb2f c2af 881c
00000100: 31cc 012c 0000 0000 1c25 1c32 13ee 201e
00000110: 0000 0000 2e75 8f34 c9c1 930e 09a1 6e2f
00000120: 57a1 712d ad15 7d32 237b 1837 5016 c235
00000130: 0afa bd38 0000 0000 0000 0000 601b 6728
00000140: 66d7 f428 ab87 f31f dc39 b72d 3d95 1637
00000150: 4f70 032c 0e6b fd38 0000 0000 ce7b 2939
00000160: 0000 0000 0000 0000 2158 651f 3afe 583a
00000170: d270 ab39 d18b e730 5d4b f71a 81af ff33
00000180: 31a9 9028 e9f9 1232 0000 0000 2a87 932c
00000190: 2ccd ae38 8401 4139 7fad 851a 65b3 1331
000001a0: 961f 9e38 d00f 6831 4dd2 5a2e 1ae2 7913
000001b0: 6ccb d91b e50b 1215 80f3 2e24 0000 0000
000001c0: c411 0636 ba11 b22e 1b8a 8439 2925 0b19
000001d0: 29be d131 0000 0000 33d9 da1d 0000 0000
000001e0: 4d63 2e26 c80d c71a 2c08 303a 8cef 4d2f
000001f0: 3de1 ef31 0000 0000 1b2f ae38 0000 0000

exp_avg f4 [64, 128]
6e-45 0.0 6e-45 0.0 6e-45 6e-45 -6e-45 6e-45
0.0 6e-45 0.0 6e-45 -6e-45 0.0 6e-45 0.0
0.0 6e-45 6e-45 6e-45 6e-45 6e-45 6e-45 6e-45
6e-45 6e-45 6e-45 -6e-45 0.0 6e-45 0.0 6e-45
6e-45 0.0 -6e-45 6e-45 0.0 0.0 6e-45 6e-45
6e-45 6e-45 0.0 0.0 -6e-45 0.0 6e-45 0.0
-6e-45 6e-45 6e-45 0.0 6e-45 0.0 0.0 6e-45
0.0 0.0 -6e-45 0.0 0.0 6e-45 -6e-45 0.0
6e-45 0.0 0.0 0.0 0.0 0.0 0.0 0.0
6e-45 6e-45 0.0 6e-45 6e-45 0.0 0.0 6e-45
6e-45 6e-45 6e-45 6e-45 0.0 6e-45 0.0 6e-45
0.0 0.0 6e-45 6e-45 6e-45 6e-45 0.0 6e-45
0.0 6e-45 0.0 0.0 6e-45 6e-45 0.0 6e-45
6e-45 6e-45 0.0 0.0 -6e-45 0.0 6e-45 0.0
6e-45 0.0 6e-45 -6e-45 6e-45 0.0 6e-45 0.0
6e-45 6e-45 6e-45 -6e-45 -6e-45 0.0 6e-45 0.0
6e-45 0.0 6e-45 0.0 6e-45 6e-45 6e-45 6e-45
0.0 6e-45 6e-45 6e-45 6e-45 0.0 6e-45 0.0
0.0 6e-45 6e-45 -6e-45 6e-45 6e-45 6e-45 6e-45
6e-45 6e-45 6e-45 6e-45 0.0 6e-45 0.0 6e-45
6e-45 0.0 6e-45 6e-45 -6e-45 0.0 6e-45 6e-45
6e-45 6e-45 0.0 0.0 -6e-45 0.0 6e-45 6e-45
6e-45 6e-45 6e-45 0.0 6e-45 0.0 0.0 6e-45
0.0 0.0 6e-45 0.0 0.0 6e-45 6e-45 6e-45
6e-45 0.0 6e-45 6e-45 0.0 -6e-45 0.0 6e-45
6e-45 6e-45 6e-45 6e-45 6e-45 0.0 0.0 -6e-45
6e-45 6e-45 6e-45 6e-45 6e-45 6e-45 0.0 6e-45
0.0 0.0 6e-45 6e-45 6e-45 6e-45 6e-45 6e-45
0.0 6e-45 0.0 -6e-45 6e-45 6e-45 0.0 6e-45
6e-45 6e-45 6e-45 0.0 -6e-45 0.0 6e-45 0.0
6e-45 0.0 6e-45 6e-45 6e-45 0.0 6e-45 0.0
6e-45 6e-45 6e-45 6e-45 6e-45 0.0 6e-45 0.0
00000000: 0400 0000 0000 0000 0400 0000 0000 0000
00000010: 0400 0000 0400 0000 0400 0080 0400 0000
00000020: 0000 0000 0400 0000 0000 0000 0400 0000
00000030: 0400 0080 0000 0000 0400 0000 0000 0000
00000040: 0000 0000 0400 0000 0400 0000 0400 0000
00000050: 0400 0000 0400 0000 0400 0000 0400 0000
00000060: 0400 0000 0400 0000 0400 0000 0400 0080
00000070: 0000 0000 0400 0000 0000 0000 0400 0000
00000080: 0400 0000 0000 0000 0400 0080 0400 0000
00000090: 0000 0000 0000 0000 0400 0000 0400 0000
000000a0: 0400 0000 0400 0000 0000 0000 0000 0000
000000b0: 0400 0080 0000 0000 0400 0000 0000 0000
000000c0: 0400 0080 0400 0000 0400 0000 0000 0000
000000d0: 0400 0000 0000 0000 0000 0000 0400 0000
000000e0: 0000 0000 0000 0000 0400 0080 0000 0000
000000f0: 0000 0000 0400 0000 0400 0080 0000 0000
00000100: 0400 0000 0000 0000 0000 0000 0000 0000
00000110: 0000 0000 0000 0000 0000 0000 0000 0000
00000120: 0400 0000 0400 0000 0000 0000 0400 0000
00000130: 0400 0000 0000 0000 0000 0000 0400 0000
00000140: 0400 0000 0400 0000 0400 0000 0400 0000
00000150: 0000 0000 0400 0000 0000 0000 0400 0000
00000160: 0000 0000 0000 0000 0400 0000 0400 0000
00000170: 0400 0000 0400 0000 0000 0000 0400 0000
00000180: 0000 0000 0400 0000 0000 0000 0000 0000
00000190: 0400 0000 0400 0000 0000 0000 0400 0000
000001a0: 0400 0000 0400 0000 0000 0000 0000 0000
000001b0: 0400 0080 0000 0000 0400 0000 0000 0000
000001c0: 0400 0000 0000 0000 0400 0000 0400 0080
000001d0: 0400 0000 0000 0000 0400 0000 0000 0000
000001e0: 0400 0000 0400 0000 0400 0000 0400 0080
000001f0: 0400 0080 0000 0000 0400 0000 0000 0000
00000200: 0400 0000 0000 0000 0400 0000 0000 0000
00000210: 0400 0000 0400 0000 0400 0000 0400 0000
00000220: 0000 0000 0400 0000 0400 0000 0400 0000
00000230: 0400 0000 0000 0000 0400 0000 0000 0000
00000240: 0000 0000 0400 0000 0400 0000 0400 0080
00000250: 0400 0000 0400 0000 0400 0000 0400 0000
00000260: 0400 0000 0400 0000 0400 0000 0400 0000
00000270: 0000 0000 0400 0000 0000 0000 0400 0000
00000280: 0400 0000 0000 0000 0400 0000 0400 0000
00000290: 0400 0080 0000 0000 0400 0000 0400 0000
000002a0: 0400 0000 0400 0000 0000 0000 0000 0000
000002b0: 0400 0080 0000 0000 0400 0000 0400 0000
000002c0: 0400 0000 0400 0000 0400 0000 0000 0000
000002d0: 0400 0000 0000 0000 0000 0000 0400 0000
000002e0: 0000 0000 0000 0000 0400 0000 0000 0000
000002f0: 0000 0000 0400 0000 0400 0000 0400 0000
00000300: 0400 0000 0000 0000 0400 0000 0400 0000
00000310: 0000 0000 0400 0080 0000 0000 0400 0000
00000320: 0400 0000 0400 0000 0400 0000 0400 0000
00000330: 0400 0000 0000 0000 0000 0000 0400 0080
00000340: 0400 0000 0400 0000 0400 0000 0400 0000
00000350: 0400 0000 0400 0000 0000 0000 0400 0000
00000360: 0000 0000 0000 0000 0400 0000 0400 0000
00000370: 0400 0000 0400 0000 0400 0000 0400 0000
00000380: 0000 0000 0400 0000 0000 0000 0400 0080
00000390: 0400 0000 0400 0000 0000 0000 0400 0000
000003a0: 0400 0000 0400 0000 0400 0000 0000 0000
000003b0: 0400 0080 0000 0000 0400 0000 0000 0000
000003c0: 0400 0000 0000 0000 0400 0000 0400 0000
000003d0: 0400 0000 0000 0000 0400 0000 0000 0000
000003e0: 0400 0000 0400 0000 0400 0000 0400 0000
000003f0: 0400 0000 0000 0000 0400 0000 0000 0000
