src/model_data/Las_Vegas_Grand_Prix_model.pth (torch, 198037 bytes, 21 tensors)

net.0.weight f4 [128, 48]
0	0x3d982e91	0.07430757
1	0xbe558c0f	-0.2085421
2	0x3d3bb055	0.04582246
3	0xbe467bd6	-0.19383177
4	0xbc865cac	-0.016401611
5	0x3de4bd98	0.11168975
6	0x3d9c6e05	0.07638172
7	0xbe1f7d10	-0.15575051
8	0xbd474a1f	-0.04865467
9	0x3b3128a5	0.0027032283
10	0xbdcae718	-0.09907359
11	0x3dcbd8e7	0.0995348
12	0xbd60411a	-0.054749586
13	0xbe0c9219	-0.13727607
14	0xbdca6c7b	-0.09883972
15	0xbdb30e6c	-0.08742985
16	0xbc30c42a	-0.010788957
17	0xbd2048fd	-0.039132107
18	0x3dcf0c2e	0.10109745
19	0xbd8550a9	-0.06509525
20	0xbe3fdbff	-0.18736266
21	0xbe45ae12	-0.19304684
22	0xbe7b50fa	-0.24542609
23	0xbd8177bc	-0.06321666
24	0xbd916eaf	-0.07101189
25	0xbe2745ec	-0.16335267
26	0xbde2e0b0	-0.11078012
27	0xbd99f741	-0.07517863
28	0x3d6af54f	0.05736285
29	0x3d9f0b54	0.077658325
30	0xbd9b3055	-0.07577578
31	0xbda08ba0	-0.07839131
32	0xbe1e14a0	-0.15437555
33	0xbe28f9c7	-0.16501532
34	0xbe59a5f3	-0.21254711
35	0xbe5776e9	-0.21041454
36	0x3d50b551	0.050954167
37	0xbe3d7390	-0.18501115
38	0xbe0eac5a	-0.13932934
39	0x3d7075e1	0.058706168
40	0xbc9b1800	-0.018932343
41	0xbdce4d79	-0.100733705
42	0x3da32f57	0.07968014
43	0xbe06551c	-0.13118404
44	0xbe03ddbc	-0.12877554
45	0xbd7608d5	-0.060067017
46	0x3d707b3f	0.058711287
47	0xbda45c06	-0.080253646
48	0xbd79fb5c	-0.06103073
49	0xbdf681f6	-0.12036507
50	0x3defab26	0.11702566
51	0x3d423ac9	0.047419343
52	0xbe06038b	-0.13087289
53	0x3d1e2a93	0.03861482
54	0x3e0e180a	0.13876358
55	0xbd3f290f	-0.046670016
56	0xbe1a05a1	-0.1504121
57	0xbdfb4560	-0.122690916
58	0xbe3641ea	-0.17798582
59	0x3e072a89	0.1319982
60	0xbd1ca0f4	-0.038239434
61	0xbde2a88f	-0.11067306
62	0x3db8abf3	0.09017172
63	0x3d0a9d92	0.033841677
64	0x3e19c4d8	0.15016496
65	0xbdc54759	-0.09632749
66	0xbd506619	-0.050878618
67	0xbd98a750	-0.07453787
68	0x3e36cbca	0.17851177
69	0x3db03fcd	0.08605919
70	0x3d0e943e	0.034809344
71	0xbdc6766b	-0.09690555
72	0xbd7bd07f	-0.061478134
73	0x3e069361	0.13142158
74	0x3cd0c714	0.025485553
75	0xbd920bb6	-0.0713114
76	0x3d9e39cf	0.0772587
77	0xbe0909ab	-0.13382594
78	0x3e33554e	0.1751301
79	0x3d8b6f1f	0.06808304
80	0x3e2dd777	0.16976725
81	0x3db46dd8	0.088100135
82	0x3d8cad78	0.06869024
83	0x3e3bfda6	0.18358478
84	0xbde12926	-0.109941766
85	0xbe33af90	-0.1754744
86	0x3bda4379	0.0066608754
87	0x3e2fcfe3	0.17169146
88	0xbe2dc775	-0.16970618
89	0x3df9fe56	0.12206714
90	0xbd743060	-0.059616446
91	0xbe313129	-0.1730391
92	0xbc8865f3	-0.016650176
93	0x3be7fe0b	0.007079845
94	0x3d58dc31	0.052944366
95	0x3e37f3f9	0.17964162
96	0xbe15a42a	-0.14613405
97	0x3db7af3a	0.08968969
98	0xbe156be6	-0.14591941
99	0x3df0d44d	0.11759243
100	0x3bb7d979	0.0056106416
101	0x3e090ab7	0.13382994
102	0xbe05ff5a	-0.1308569
103	0xbe40a225	-0.18811853
104	0xbd93e899	-0.07222099
105	0xbd91cfd6	-0.0711972
106	0xbc5da4b0	-0.013528034
107	0x3dd74784	0.105116874
108	0x3d7ad927	0.06124225
109	0xbd155d62	-0.03646601
110	0x3cfc7be7	0.0308208
111	0x3bdec28c	0.006798094
112	0xbdec4d78	-0.115382135
113	0xbcc6c5d3	-0.024264252
114	0xbe003b29	-0.12522568
115	0x3d54008d	0.051758338
116	0x3db652f9	0.089025445
117	0x3e2c70ed	0.16839953
118	0xbbec9419	-0.007219803
119	0xbdef7ae8	-0.116933644
120	0xbd7df249	-0.06199864
121	0xbd7cafd8	-0.061691135
122	0xbd14e0b2	-0.0363471
123	0xbe07e680	-0.13271523
124	0x3d87bc2a	0.06627686
125	0xbdeb9d2d	-0.11504588
126	0xbe0d2e12	-0.13787106
127	0x3d2c3745	0.042044897
128	0x3d6e2a4c	0.058145806
129	0xbdb589c0	-0.08864164
130	0xbd7e11a2	-0.062028535
131	0x3da40128	0.08008033
132	0x3d71bda3	0.059018742
133	0xbdd829a2	-0.10554816
134	0x3c8b6e76	0.017020445
135	0x3daf86cf	0.085706346
136	0xbdf15083	-0.117829345
137	0xbea3ae55	-0.31968942
138	0xbc591ab0	-0.013250992
139	0xbe6c348d	-0.23066922
140	0x3f57d9a3	0.8431646
141	0x3e2baaf2	0.16764429
142	0xbd8deb29	-0.06929619
143	0x3e1ac6fb	0.15114968
144	0x3c2a055e	0.010377256
145	0xbd570293	-0.05249269
146	0x3e16ad0e	0.14714453
147	0xbdb5ed50	-0.088831544
148	0x3e073dc4	0.13207155
149	0x3e0bba18	0.13645208
150	0x3e39d26f	0.1814668
151	0x3e224dd4	0.15850002
152	0xbd234e47	-0.039869573
153	0xbe105309	-0.14094175
154	0xbd9445a7	-0.07239848
155	0x3d5e19ee	0.054223947
156	0xbe1ca01c	-0.15295452
157	0xbe191394	-0.14948875
158	0x3ddd1ebb	0.10796877
159	0xbe393076	-0.18084893
160	0xbd191a0e	-0.037378363
161	0x3b6f3fdd	0.0036506571
162	0xbc15bf1f	-0.009139805
163	0xbe095a67	-0.13413392
164	0xbdf6a537	-0.12043231
165	0x3e1fdb12	0.15610912
166	0xbdc3b3e2	-0.09555794
167	0xbe3be2aa	-0.18348184
168	0xbda3b3c8	-0.07993275
169	0x3e1b02ba	0.15137759
170	0xbdfd55ae	-0.12369858
171	0x3e0cc1ba	0.13745776
172	0x3e1b7277	0.15180384
173	0x3cfe3665	0.031031797
174	0x3d02a8b2	0.03189916
175	0x3b9a82d6	0.004715304
176	0x3e36b695	0.17843087
177	0xbe20f4da	-0.15718403
178	0xbba139fe	-0.0049202433
179	0x3dbb42e3	0.09143617
180	0x3c072ce5	0.00825045
181	0xbd4edbe0	-0.050502658
182	0x3e047792	0.12936237
183	0x3e22cce6	0.15898475
184	0xbe069676	-0.13143334
185	0xbe285ee8	-0.16442454
186	0x3def05c6	0.11671023
187	0x3e239055	0.15973027
188	0xbe3a7c3f	-0.18211459
189	0x3d4e8cd9	0.05042729
190	0x3e00410b	0.12524812
191	0xbe2fd7e1	-0.17172195
192	0x3c73b2cb	0.0148741705
193	0xbdf7a692	-0.12092318
194	0xbe415754	-0.1888097
195	0xbdc9c2e2	-0.09851624
196	0x3d2b4d23	0.04182161
197	0x3d0718d5	0.032982666
198	0xbdf72126	-0.120668694
199	0xbc91dc6f	-0.017805306
200	0x3dbc0949	0.091814585
201	0x3c5c91f4	0.013462532
202	0xbd5de625	-0.05417456
203	0xbe087fd1	-0.13330008
204	0xbd8f7bee	-0.070060596
205	0x3e1aa601	0.15102388
206	0xbe226917	-0.15860401
207	0xbe2ba5ac	-0.16762418
208	0xbcafcf5a	-0.021461178
209	0x3e23e4bc	0.16005224
210	0xbe357ce7	-0.17723428
211	0xbd80ff45	-0.06298689
212	0x3d116a93	0.035502028
213	0xbe2cc7bb	-0.16873066
214	0x3e001fe0	0.1251216
215	0x3e0bac6a	0.1363999
216	0xbe01c220	-0.12671709
217	0x3e2ccc8c	0.16874903
218	0x3e065fd7	0.13122497
219	0xbca28d35	-0.019842723
220	0xbe4c8344	-0.19971949
221	0x3e20f0be	0.15716836
222	0x3da7bdf5	0.08190528
223	0x3d884869	0.06654436
224	0xbe299019	-0.16558875
225	0xbd72a2ed	-0.05923741
226	0x3d074271	0.033022348
227	0xbca807cc	-0.02051153
228	0xbe106f9f	-0.1410508
229	0x3d841226	0.06448774
230	0xbe1d727f	-0.15375708
231	0xbd988212	-0.07446684
232	0xbd94e682	-0.072705284
233	0xbe176df4	-0.14788038
234	0xbdd99983	-0.10624983
235	0xbdd4896d	-0.103777744
236	0x3cd96214	0.026536025
237	0xbe16afa4	-0.14715439
238	0x3d953a94	0.072865635
239	0xbe01f2b4	-0.1269024
240	0xbe2b1623	-0.16707663
241	0xbe08ea2c	-0.1337058
242	0xba52f89b	-0.00080479094
243	0xbdbd1678	-0.09232801
244	0x3cfb8450	0.03070274
245	0x3dfc3451	0.12314666
246	0x3dfbc4db	0.122934066
247	0xbe055bbb	-0.13023274
248	0xb8907a88	-6.889278e-05
249	0xbd9585d0	-0.07300913
250	0x3c0b5964	0.008505199
251	0xbe09d7ca	-0.13461223
252	0x3e2e8389	0.17042364
253	0xbe1b9e9f	-0.15197228
254	0x3cb48319	0.022035168
255	0xbba92376	-0.005161698

net.0.bias f4 [128]
0	0xbd10cd64	-0.035352126
1	0x00000000	0.0
2	0xbd59b0e2	-0.053147204
3	0x00000000	0.0
4	0xbc7c40d9	-0.01539632
5	0x00000000	0.0
6	0xbdd2f7f5	-0.103012
7	0xbdf94265	-0.12170867
8	0xbd7a8272	-0.06115956
9	0x3d2a39d3	0.04155905
10	0xbdeaea6c	-0.11470494
11	0xbd12ffbb	-0.035888415
12	0xbd988e40	-0.07449007
13	0x00000000	0.0
14	0x3d82d0a6	0.06387453
15	0x3bd3ca17	0.0064633
16	0x3d81a0af	0.06329476
17	0xbc88568f	-0.016642837
18	0xbdfebe4c	-0.1243864
19	0xbd5144f6	-0.051091157
20	0xbd596b86	-0.053081058
21	0xbce18728	-0.027530268
22	0x00000000	0.0
23	0xbe054aaf	-0.13016771
24	0x3b7262b5	0.0036985104
25	0xbdb406d8	-0.08790368
26	0xbdf5e40f	-0.12006389
27	0xbded7955	-0.11595408
28	0xbda7178d	-0.08158789
29	0x3b79c534	0.0038111927
30	0xbd91d2b5	-0.07120267
31	0xbdca0cb2	-0.09865703
32	0xbda6631d	-0.08124373
33	0xbcd46aef	-0.025929896
34	0xbd249637	-0.04018232
35	0xbca7d41a	-0.02048688
36	0x3d963693	0.07334628
37	0xbdaeb971	-0.08531464
38	0xbcb4cf9b	-0.02207165
39	0xbd730404	-0.05933
40	0x3cab1f39	0.020888912
41	0xbcf034e7	-0.0293221
42	0x00000000	0.0
43	0xbd473de6	-0.048643015
44	0xbd2c77da	-0.042106487
45	0xbd32ed3c	-0.043683276
46	0xbd4cafad	-0.049972225
47	0xbcf05220	-0.029336035
48	0xbb7999df	-0.00380861
49	0xbd6c6840	-0.057716608
50	0xbdb9994b	-0.090624414
51	0xbdb2df17	-0.08733957
52	0xbd942203	-0.0723305
53	0x3c01f164	0.007931087
54	0x00000000	0.0
55	0xbd82dc6a	-0.06389697
56	0x00000000	0.0
57	0x3c9dcfe8	0.019264176
58	0xbd122236	-0.035677157
59	0xbce3bebf	-0.027800916
60	0xbcb6e67e	-0.022326704
61	0x00000000	0.0
62	0xbd778a87	-0.060434844
63	0xbd07f54f	-0.03319293
64	0xbe04fbef	-0.1298673
65	0x00000000	0.0
66	0x00000000	0.0
67	0xbd00d98a	-0.03145746
68	0xbd0ae9ff	-0.033914562
69	0xbd7bcc0d	-0.061473895
70	0xbe0428c0	-0.1290617
71	0x3d76b382	0.060229786
72	0xbdade740	-0.08491373
73	0x00000000	0.0
74	0x3d1a50c2	0.037674673
75	0xbda4073b	-0.080091916
76	0xbc384161	-0.011246056
77	0xbd950863	-0.0727699
78	0xbd0a5890	-0.033775866
79	0x3d675fc5	0.056487817
80	0x00000000	0.0
81	0x3c51d851	0.0128079215
82	0xbc01eab0	-0.007929489
83	0x3d7ff747	0.06249168
84	0xbd94e5a4	-0.07270363
85	0x00000000	0.0
86	0x3cd8d10d	0.02646687
87	0xbd631b62	-0.055446036
88	0xbdfd5962	-0.12370564
89	0xbdc16da2	-0.09444739
90	0xbcc1b2ce	-0.023644831
91	0xbd020da4	-0.03175129
92	0xbd5c0180	-0.053712368
93	0xbd9b3821	-0.07579065
94	0xbda7d528	-0.08194953
95	0xbde574f6	-0.11203949
96	0xbd2a7a5f	-0.04162061
97	0xbd021cdc	-0.031765804
98	0xbe01cab2	-0.12674978
99	0x00000000	0.0
100	0xbd29dbc2	-0.041469343
101	0xbe0b77a3	-0.13619857
102	0xbc0692f1	-0.0082137445
103	0xbd45dd5e	-0.048306815
104	0xbd848e9f	-0.06472515
105	0x3d92ec86	0.071740195
106	0xb9cce64b	-0.00039081494
107	0x3d67c578	0.056584805
108	0x3cd18074	0.025573947
109	0x00000000	0.0
110	0x3c38d79d	0.011281875
111	0x3d1563fb	0.036472302
112	0xbd1bc92e	-0.038033657
113	0x00000000	0.0
114	0xbd0216c0	-0.031759977
115	0x00000000	0.0
116	0xbd021cdd	-0.031765807
117	0xbd8c367d	-0.0684633
118	0xbd1a9977	-0.03774401
119	0x00000000	0.0
120	0xbe385ab7	-0.18003355
121	0x3cf63da5	0.030058691
122	0xbcdf46a7	-0.02725537
123	0xbd7710e0	-0.060318828
124	0x00000000	0.0
125	0x00000000	0.0
126	0x3d8f435b	0.06995269
127	0xbde1de14	-0.11028686

net.2.weight f4 [64, 128]
0	0x3d385fe3	0.04501332
1	0x3dcbf833	0.099594496
2	0x3e293e65	0.16527708
3	0xbce20237	-0.027588947
4	0xbd0c41bc	-0.034242377
5	0x3dbed2f8	0.09317583
6	0xbdee2bb8	-0.116294324
7	0x3dbb5f0f	0.0914899
8	0x3d6c80bb	0.057739954
9	0xbe06c244	-0.13160044
10	0x3d007609	0.031362567
11	0x3dcd100f	0.100128286
12	0xbcdcb076	-0.026939612
13	0xbd8c959a	-0.06864472
14	0xbdd408f8	-0.10353273
15	0xbded6d2a	-0.11593087
16	0xbce593aa	-0.028024513
17	0x3e02c4ee	0.12770435
18	0x3e16ed57	0.14738975
19	0x3c628c8b	0.013827453
20	0xbd38cda4	-0.04511799
21	0xbe2a5b58	-0.16636407
22	0x3e1715df	0.14754437
23	0x3dfad95f	0.122484915
24	0x3defb0e1	0.11703659
25	0xbe2ccffb	-0.16876213
26	0x3e1fa1f3	0.15589122
27	0x3b66d5b6	0.0035222596
28	0xbdc11441	-0.09427691
29	0x3d120b7f	0.035655495
30	0x3c0d1f69	0.008613446
31	0x3de63bec	0.11241898
32	0xbe1d7f06	-0.15380487
33	0xbe141bea	-0.14463773
34	0xbcf4b72c	-0.0298725
35	0xbe0f0452	-0.13966492
36	0xbe32ff8f	-0.174803
37	0x3dad8d25	0.08474187
38	0x3d1ad3c4	0.03779961
39	0xbdc0ddc7	-0.09417301
40	0xbcb05f03	-0.02152968
41	0xbdef1a17	-0.11674898
42	0xbdbddbb4	-0.09270421
43	0xbda18a8c	-0.07887754
44	0xbde63e40	-0.11242342
45	0xbd7e8f34	-0.062148288
46	0xbd86e700	-0.065870285
47	0xbc25ab3b	-0.010111625
48	0xbcc97ace	-0.02459469
49	0xbdbcdf6e	-0.09222303
50	0x3da8510e	0.08218585
51	0x3db1d2fe	0.08682822
52	0x3db82554	0.08991495
53	0xbd4a5bd3	-0.049403977
54	0x3dbf70b3	0.093476675
55	0x3cc2bcc4	0.023771651
56	0x3db98876	0.09059231
57	0xbe084f92	-0.13311604
58	0x3dcf43d1	0.10120357
59	0xbd3230dd	-0.04350363
60	0xbdf04537	-0.11731952
61	0xbd9c4e80	-0.0763216
62	0x3d5485c4	0.05188538
63	0xbe193e42	-0.14965156
64	0xbce05ae3	-0.027387088
65	0x3d522e62	0.051313765
66	0x3e2ec75e	0.1706824
67	0xbb82b943	-0.00398937
68	0x3e0c2544	0.1368609
69	0x3da9160a	0.08256157
70	0xbe21ea31	-0.15811993
71	0x3d15d385	0.036578674
72	0x3e01d583	0.12679105
73	0x3d925432	0.07144965
74	0xbdc888c7	-0.09791713
75	0xbe43b94c	-0.19113654
76	0x3d59c262	0.053163894
77	0xbe44f380	-0.19233513
78	0xbc9a19c0	-0.018811107
79	0x3d2848f2	0.04108519
80	0x3d9048b2	0.070451155
81	0x3df674c3	0.12033989
82	0xbbce56a5	-0.00629695
83	0xbe3ab239	-0.18232049
84	0xbdca3d4f	-0.09874975
85	0xbe33cd8d	-0.1755888
86	0xbe3ba2d2	-0.1832383
87	0x3d8db9ab	0.06920179
88	0xbd5b802c	-0.05358903
89	0x3d2d0602	0.042242058
90	0xbd1a6d82	-0.03770209
91	0x3e312f89	0.1730329
92	0xbcf8616a	-0.030319888
93	0xbe24ecb0	-0.16105914
94	0x3df13895	0.1177837
95	0xbd9d8329	-0.076910324
96	0xbd0055a7	-0.031331684
97	0x3d921f95	0.0713493
98	0x3dea92a9	0.114537545
99	0x3d84290c	0.064531416
100	0x3df6dc73	0.12053766
101	0x3c804cf9	0.015661703
102	0xbd0dc786	-0.03461411
103	0x3d7890f2	0.060685106
104	0x3dc90eaa	0.0981725
105	0xbd832d21	-0.06405092
106	0xbc9a0385	-0.018800506
107	0x3d130adb	0.035899024
108	0xbe4bec48	-0.19914353
109	0xbd91d740	-0.07121134
110	0x3d980ad6	0.07423942
111	0xbd1576e1	-0.036490325
112	0xbb594c05	-0.0033156883
113	0xbe2a95f5	-0.16658767
114	0x3b227e62	0.0024794568
115	0x3d1540bc	0.03643869
116	0xbdd292c0	-0.102818966
117	0xbe446b92	-0.1918166
118	0xbe2284e7	-0.1587101
119	0xbd6ca340	-0.057772875
120	0xbe2746e6	-0.1633564
121	0xbe1b49d9	-0.1516489
122	0xbda8e5fb	-0.0824699
123	0x3c660dd9	0.0140413875
124	0xbe16e3d6	-0.1473535
125	0xbe261246	-0.16217908
126	0xbd925dba	-0.07146783
127	0x3d5245a2	0.05133594
128	0xbdf50d46	-0.11965422
129	0xbcfe3254	-0.031029858
130	0xbd028f97	-0.03187522
131	0xbd89720d	-0.067112066
132	0x3d134bc6	0.035960935
133	0x3e27f75f	0.16402958
134	0xbd0ab002	-0.03385926
135	0xbc860c6c	-0.016363345
136	0xbe0f2053	-0.13977174
137	0xbe1d9a9d	-0.15391012
138	0xbdb2ef2c	-0.08737025
139	0x3e1a5dec	0.15074891
140	0x3b48cbd5	0.0030639071
141	0xbe0eda8f	-0.13950561
142	0xbe07e437	-0.13270651
143	0x3de26f7c	0.1105642
144	0x3e245aa9	0.16050209
145	0x3b8d03ec	0.004303446
146	0xbdb4cb52	-0.08827843
147	0xbd1e4c88	-0.038647205
148	0xbd846162	-0.06463887
149	0xbdda53b5	-0.10660497
150	0x3d8a7198	0.067599475
151	0x3d0d612c	0.0345165
152	0xbdd39cd5	-0.10332648
153	0xbbf107ba	-0.0073556574
154	0x3d1293e1	0.03578556
155	0xbd1f6245	-0.038912077
156	0xbdb04166	-0.08606224
157	0xbe336e65	-0.17522581
158	0x3e2c35ce	0.168174
159	0xbd4fb257	-0.050707188
160	0x3d5fc3b7	0.054630008
161	0x3cc8c836	0.02450953
162	0xbdc6cefb	-0.09707447
163	0x3e0e1edd	0.13878961
164	0xbddd1613	-0.10795226
165	0xbc74d7fa	-0.014944071
166	0xbe2c64e0	-0.16835356
167	0x3dee9188	0.11648852
168	0xbe1dacbd	-0.15397926
169	0x3cd65880	0.026165247
170	0x3dcb0f68	0.09915048
171	0xbe113d7c	-0.1418361
172	0xbe30f6b6	-0.17281613
173	0xbdb93ad0	-0.09044421
174	0xbe11ae3f	-0.14226626
175	0x3df0d1a5	0.117587365
176	0x3e2a2486	0.16615495
177	0x3d14b066	0.03630104
178	0x3dfda321	0.1238463
179	0x3cba0fe8	0.022712663
180	0x3d2e5264	0.042559043
181	0xbd052b95	-0.032512266
182	0x3d210355	0.03930982
183	0xbe1e2860	-0.1544509
184	0xbdf6287e	-0.12019442
185	0x3e28c3cc	0.1648094
186	0x3d84e8af	0.064896934
187	0xbd5a5875	-0.053307015
188	0xbdeda092	-0.11602892
189	0xbe1e5bf0	-0.15464759
190	0xbe0791ed	-0.1323926
191	0xbdadd753	-0.084883355
192	0x3e1f6e0f	0.15569328
193	0x3e0c3752	0.13692978
194	0x3e250a55	0.16117223
195	0x3bfdde2f	0.0077474336
196	0x3da14e8f	0.07876312
197	0x3c8ad395	0.016946593
198	0xbe144b77	-0.14481913
199	0x3d89729b	0.067113124
200	0x3d7aa251	0.061189953
201	0xbcfeba72	-0.031094763
202	0xb9240c7c	-0.0001564491
203	0xbe01a756	-0.1266149
204	0x3d1a869a	0.037726022
205	0x3e021530	0.12703395
206	0x3de1a87e	0.110184655
207	0x3e0e1657	0.1387571
208	0x3e080e2e	0.13286659
209	0xbcb92920	-0.022602618
210	0x3dec8fd4	0.115508705
211	0xbe1e5daf	-0.15465425
212	0xbddd272d	-0.10798488
213	0xbd8254a5	-0.06363801
214	0xbe344b81	-0.17606927
215	0x3e05da00	0.13071442
216	0xbe076d60	-0.13225317
217	0x3d4e0652	0.050298996
218	0xbe1aa4d6	-0.15101942
219	0xbd99b637	-0.07505458
220	0xbdf2d72e	-0.118574485
221	0x3e08d624	0.13362938
222	0x3dd0d302	0.101964965
223	0xbe08eb25	-0.1337095
224	0xbd18a52c	-0.037266895
225	0x3d4c26d6	0.049841724
226	0xbd6a0ae7	-0.057139304
227	0xbd18a2f1	-0.037264768
228	0x3e073f4e	0.13207743
229	0xbd3791b8	-0.044816703
230	0xbe1b4c22	-0.15165761
231	0xbe0cb1fb	-0.13739769
232	0x3d925950	0.07145941
233	0x3e01b2eb	0.12665908
234	0xbd37dc6e	-0.044887953
235	0x3c91fc95	0.017820636
236	0x3cfb4a30	0.030675024
237	0xbcaca6dc	-0.021075659
238	0xbd1fa86e	-0.038978986
239	0xbe193283	-0.14960675
240	0xbd6cb466	-0.05778923
241	0xbe1f48bd	-0.15555091
242	0x3d0f2761	0.034949664
243	0xbb105583	-0.0022023625
244	0xbd386fc6	-0.04502847
245	0xbda04fea	-0.078277424
246	0xbdf1f343	-0.118139766
247	0xbd6e61ec	-0.058198854
248	0xbd80ce55	-0.06289355
249	0x3d494750	0.049140275
250	0xbe243aee	-0.16038105
251	0x3e315c6d	0.17320414
252	0xbe03910b	-0.12848298
253	0x3e214747	0.15749846
254	0xbe0b222c	-0.13587254
255	0xbddc2940	-0.10750055

net.2.bias f4 [64]
0	0xbccf746d	-0.02532407
1	0x00000000	0.0
2	0xbcf864ae	-0.030321445
3	0xbccaede7	-0.024771644
4	0xbbf38f5f	-0.0074328627
5	0xbd853b61	-0.06505466
6	0xbd69b180	-0.057054043
7	0xbc876903	-0.016529566
8	0x3d925a5a	0.071461394
9	0xbcac62c3	-0.021043187
10	0xbd06fe8d	-0.032957602
11	0xbcc94254	-0.02456776
12	0xbbc9a30f	-0.0061534713
13	0xbd7a1fe0	-0.061065555
14	0x3d6c7236	0.057726108
15	0xbccd0319	-0.025025891
16	0xbd018634	-0.031622127
17	0xbd0212be	-0.031756155
18	0xbd4a6e20	-0.04942143
19	0x00000000	0.0
20	0xbdc17d5d	-0.09447739
21	0xbd01f7ed	-0.03173058
22	0xbd2b6bb5	-0.041850764
23	0xbce478dd	-0.027889663
24	0xbc507900	-0.012724161
25	0xbcf034ea	-0.029322106
26	0xbc9f9483	-0.019479996
27	0x3ccfbc1c	0.025358252
28	0xbd00139d	-0.031268705
29	0xbd3bd5e9	-0.045858297
30	0xbc84f006	-0.016227733
31	0x00000000	0.0
32	0x3d94613e	0.0724511
33	0x3b263f5b	0.0025367353
34	0x3dbc6f34	0.09200898
35	0xbd3157b2	-0.043296523
36	0xbdb997ab	-0.090621315
37	0xbd833eda	-0.06408472
38	0x3d046b78	0.032329053
39	0xbd021cd8	-0.03176579
40	0xbde3cd6a	-0.11123164
41	0xbd2aef8e	-0.041732363
42	0xbd021cd8	-0.03176579
43	0xbda2574d	-0.079268076
44	0xbd021ca6	-0.031765603
45	0xbda771ea	-0.08176024
46	0xbd021cb2	-0.031765647
47	0xbd519317	-0.051165666
48	0xbca15b84	-0.019696958
49	0xbcab9b51	-0.020948084
50	0xbc968253	-0.01837269
51	0x3c9bf777	0.019038899
52	0xbc731902	-0.014837505
53	0xbc865e6d	-0.016402448
54	0x3bc22d46	0.005925807
55	0xbdcb8641	-0.09937716
56	0x3dc64616	0.096813366
57	0xbce739b3	-0.028225755
58	0x3cd1add7	0.025595589
59	0xbdb2b95a	-0.08726759
60	0xbc6d81d9	-0.01449629
61	0xbd021806	-0.03176119
62	0xbc0fe69b	-0.008783008
63	0x3c5de7f0	0.013544068

net.4.weight f4 [16, 64]
0	0xbe7797c4	-0.24178988
1	0x3e51f0a5	0.20501955
2	0x3e34e6de	0.17666194
3	0xbc8c0a3f	-0.01709473
4	0x3d8dab28	0.06917411
5	0xbcf55738	-0.029948816
6	0x3ce001c2	0.027344588
7	0x3dbb8239	0.091556974
8	0x3e41df63	0.18932872
9	0x3d84cc74	0.06484309
10	0x3c1f26bc	0.009713825
11	0xbd253797	-0.040336218
12	0xbd5e3629	-0.05425087
13	0x3e502c54	0.2032941
14	0x3e61f2a6	0.2206522
15	0xbe452ccb	-0.19255368
16	0xbcf21b1f	-0.029553948
17	0xbe8aea6f	-0.27131984
18	0xbcf673b7	-0.030084474
19	0x3e72485a	0.23660412
20	0x3e23d578	0.159994
21	0x3e5a2cc7	0.21306144
22	0xbe4c4c5b	-0.19951002
23	0x3df35bad	0.1188272
24	0xbe1937a8	-0.14962637
25	0xbe1b03f6	-0.1513823
26	0x3e8f646d	0.28006306
27	0xbd94128a	-0.072300985
28	0xbda8a86e	-0.082352504
29	0x3e17b88f	0.14816497
30	0xbe89b44c	-0.26895368
31	0x3dd1bc5b	0.10241004
32	0xbe82a38b	-0.25515398
33	0xbe5759cc	-0.21030349
34	0xbdca5191	-0.09878839
35	0x3c608ca2	0.0137054045
36	0xbe6cbdb0	-0.23119235
37	0xbdda043c	-0.10645339
38	0x3e79ad44	0.24382502
39	0x3caa4367	0.020784093
40	0xbdeb4ae8	-0.114888966
41	0x3d9dd633	0.07706871
42	0xbe56de71	-0.20983292
43	0xbd4effd9	-0.050536964
44	0x3d4c0ab1	0.049814884
45	0xbe303731	-0.17208554
46	0x3c6f653a	0.014611537
47	0x3e823e7f	0.25438306
48	0x3d2558f0	0.04036802
49	0x3d7a5424	0.0611154
50	0xbe8250a8	-0.2545216
51	0x3e3b2759	0.18276729
52	0xbe567399	-0.20942535
53	0x3e1e4716	0.15456805
54	0x3e489bc7	0.19590674
55	0xbae5b862	-0.0017526264
56	0xbd75832c	-0.05993955
57	0xbde15f93	-0.110045575
58	0xbe3e6fa8	-0.18597281
59	0x3e2f4a4e	0.17118189
60	0xbdff027b	-0.12451645
61	0x3dbbe82a	0.09175141
62	0x3c05ac74	0.008158792
63	0xbdba0ab2	-0.09084071
64	0xbdfe59b5	-0.12419454
65	0x3e2ecdbb	0.17070667
66	0x3e30cf34	0.17266542
67	0x3ddcf2eb	0.107885204
68	0x3d06b2bb	0.032885294
69	0x3e365ab0	0.17808032
70	0x3e84dc1f	0.2594919
71	0x3e887392	0.26650673
72	0xbe4af44a	-0.19819751
73	0xbde4d9cf	-0.11174356
74	0xbe6a014d	-0.22852059
75	0x3e7a97ed	0.24472018
76	0x3e26d031	0.16290356
77	0x3a2f28f4	0.00066818227
78	0xbe435ac3	-0.19077592
79	0x3da6083e	0.08107041
80	0xbe868872	-0.26275975
81	0xbd2eb3c6	-0.042651914
82	0x3dce8354	0.100836426
83	0xbe2cd29c	-0.16877216
84	0xbc26c477	-0.010178677
85	0x3cda1b63	0.026624387
86	0xbd701991	-0.058618132
87	0xbd985227	-0.07437544
88	0xbde19a75	-0.110157885
89	0x3e128591	0.14308764
90	0xbe78a000	-0.24279785
91	0x3e29fe2d	0.16600867
92	0xbc8cd1bb	-0.017189851
93	0xbe7bd4f5	-0.24592955
94	0xbdd699a5	-0.10478524
95	0x3e521f41	0.20519735
96	0x3e0f28c9	0.13980402
97	0x3d857a39	0.06517453
98	0x3e3ab65d	0.18233629
99	0x3e4a8aa3	0.19779448
100	0x3e72ce74	0.23711568
101	0xbe8b4113	-0.27198085
102	0xbe936225	-0.28785816
103	0x3d977b87	0.07396608
104	0x3e2c4a16	0.16825137
105	0xbe6e545a	-0.23274365
106	0xbe32c63c	-0.17458433
107	0xbe8b72c9	-0.27236012
108	0xbbf4c706	-0.0074700145
109	0xbe257094	-0.16156226
110	0xbe837e39	-0.25682238
111	0xbddc0682	-0.10743429
112	0xbe593a4a	-0.21213642
113	0xbd4848a7	-0.04889741
114	0x3e2cdf1a	0.16881981
115	0xbe21fd5e	-0.15819308
116	0x3cf01a99	0.029309558
117	0x3e22e9b2	0.1590946
118	0x3e695f77	0.22790323
119	0xbe859183	-0.2608758
120	0xbe0c3f65	-0.13696058
121	0xbcaf9e70	-0.021437854
122	0xbe6c4a9e	-0.23075339
123	0xbe18c2dc	-0.14918083
124	0x3e47e52e	0.19521019
125	0x3daac7ae	0.08338867
126	0xbe0bef3b	-0.13665478
127	0xbdfdb094	-0.12387195
128	0xbe6d4396	-0.23170313
129	0xbdcb2b95	-0.09920422
130	0xbe5fd3fd	-0.21858211
131	0x3e10f57b	0.14156143
132	0x3affb13b	0.0019507775
133	0x3d40dc66	0.04708519
134	0xbe6d5fcb	-0.23181073
135	0x3e4b1256	0.19831213
136	0xbd6ef4c6	-0.058338903
137	0xbddb9464	-0.10721663
138	0x3dfde2a0	0.12396741
139	0x3df8756a	0.1213177
140	0x3e59ebf5	0.21281417
141	0xbde1074e	-0.109877214
142	0x3b1b57f2	0.0023703543
143	0xbe729bc9	-0.2369224
144	0xbe58e7d1	-0.21182181
145	0xbe1da2ad	-0.15394087
146	0x3dd621df	0.10455679
147	0xbe1ad82e	-0.15121529
148	0x3ce03af8	0.027371868
149	0xbe3e5d00	-0.18590164
150	0xbdb2f4a1	-0.087380655
151	0x3d5376fc	0.051627144
152	0x3e120c59	0.14262523
153	0x3d9ae57d	0.07563303
154	0x3e829b3e	0.25509065
155	0x3cf9dcb0	0.03050074
156	0xbd8ce5b9	-0.068797536
157	0xbdd84a5b	-0.10561057
158	0xbe88873b	-0.26665673
159	0x3dbb088a	0.09132488
160	0xbe4deb7c	-0.20109361
161	0x3e709a01	0.23496248
162	0xbda8edb1	-0.08248461
163	0x3e1204bb	0.14259617
164	0xbdc6d361	-0.09708286
165	0xbd8212cb	-0.06351241
166	0xbe705dc2	-0.23473266
167	0x3e84b384	0.2591821
168	0xbe5979ac	-0.2123782
169	0x3e6850fa	0.2268714
170	0xbbf531d4	-0.0074827466
171	0x3e497ce7	0.19676553
172	0xbc92c663	-0.017916864
173	0xbe623099	-0.22088851
174	0xbe44ab91	-0.19206072
175	0xbd7ad782	-0.06124068
176	0xbe0557fb	-0.13021843
177	0xbd9b75b6	-0.07590811
178	0xbe5576be	-0.20846078
179	0xbe1057bf	-0.14095972
180	0xbe2cc6ef	-0.16872762
181	0x3d58282c	0.052772686
182	0x3e36ff9c	0.17870945
183	0x3d705d9f	0.058683034
184	0x3ccaaba3	0.024740046
185	0x3e344c72	0.17607287
186	0xbe6df8ea	-0.23239484
187	0x3db044d8	0.08606881
188	0xbe576738	-0.21035469
189	0x3da08377	0.07837575
190	0xbe170e74	-0.14751607
191	0x3de4a975	0.11165134
192	0xbdfd19f8	-0.12358469
193	0xbe30ef68	-0.17278826
194	0x3e3ba6c7	0.1832534
195	0x3e3d713e	0.1850023
196	0x3b8da039	0.0043220785
197	0x3e154333	0.14576416
198	0xbe86776a	-0.2626298
199	0xbe1a7db1	-0.1508701
200	0x3c32cf83	0.010913732
201	0xbe3f895e	-0.18704745
202	0xbe3156df	-0.17318295
203	0x3e07549c	0.1321587
204	0xbe097350	-0.13422894
205	0x3d6d7395	0.057971556
206	0xbc3af713	-0.011411446
207	0xbe84d735	-0.2594544
208	0x3d817892	0.06321825
209	0x3dcc82f3	0.09985914
210	0x3c07acad	0.008280915
211	0x3e27de78	0.16393459
212	0xbcc65982	-0.024212603
213	0xbdb79c5a	-0.089653686
214	0x3e1ee007	0.15515147
215	0x3e892253	0.26784
216	0x3d531921	0.051537637
217	0xbe55fe76	-0.2089785
218	0xbe4f1765	-0.20223768
219	0xbe3f6045	-0.18689068
220	0x3d4ae6b5	0.049536426
221	0xbd538fb2	-0.05165071
222	0x3e6bcea0	0.2302804
223	0x3e5120ee	0.20422718
224	0x3df5e4e3	0.12006547
225	0x3beb1729	0.0071743918
226	0x3e713b4c	0.23557776
227	0x3d3f96e1	0.04677475
228	0xbd892219	-0.06695957
229	0xbc4f1c27	-0.012640989
230	0xbddc0c93	-0.10744586
231	0x3e03a143	0.12854485
232	0x3e0bd30d	0.13654728
233	0xbe1e723a	-0.15473261
234	0x3e6557bd	0.22396751
235	0xbe3c40ea	-0.18384138
236	0xbde57309	-0.11203582
237	0xbd69bec9	-0.057066713
238	0x3e276d55	0.163503
239	0xbe5143bf	-0.20436
240	0xbd32ebdc	-0.043681964
241	0x3e007900	0.12546158
242	0x3d91d2bb	0.07120272
243	0xbd4182bf	-0.04724383
244	0x3e7f2365	0.24915846
245	0xb8efde38	-0.000114377995
246	0xbe8520b7	-0.26001522
247	0xbd406dfa	-0.04697988
248	0x3dce38d5	0.100694336
249	0xbdffd9e4	-0.12492731
250	0x3e0db6eb	0.13839309
251	0xbe602a07	-0.21891032
252	0x3e7679eb	0.24069946
253	0x3d31de17	0.043424692
254	0xbda5e446	-0.0810018
255	0x3e9b58eb	0.30341277

net.4.bias f4 [16]
0	0x3d82a461	0.06379009
1	0x3b1d8158	0.0024033394
2	0x00000000	0.0
3	0xbdd1784e	-0.102280244
4	0x3df2f911	0.11863912
5	0xbc412bef	-0.01179026
6	0xbd83a7ec	-0.06428513
7	0x3e00bfc4	0.12573153
8	0xbdd514d6	-0.10404365
9	0x3df9f9f4	0.12205878
10	0xbc9f4598	-0.019442365
11	0xbe0093e7	-0.1255642
12	0xbd08e214	-0.03341873
13	0xbd021cce	-0.03176575
14	0xbd9409e3	-0.07228448
15	0xbc09cad3	-0.0084101735

net.6.weight f4 [1, 16]
0	0x3dd2571a	0.102705196
1	0x3e1d4657	0.15358864
2	0xbebc820e	-0.36817974
3	0xbe501c40	-0.20323277
4	0x3ec5d2be	0.38637346
5	0x3e93e1cb	0.28883204
6	0xbda4098f	-0.08009636
7	0x3e6ef7a6	0.23336658
8	0xbebf2f21	-0.37340644
9	0x3ecfb8e6	0.40570754
10	0xbca20005	-0.0197754
11	0xbe9c499b	-0.30524907
12	0x3ebf82f8	0.3740461
13	0x3f08cc3c	0.53436637
14	0xbf07fa7f	-0.531166
15	0xbece508b	-0.40295824

exp_avg f4 [128, 48]
0	0x00000004	6e-45
1	0x00000004	6e-45
2	0x00000000	0.0
3	0x00000004	6e-45
4	0x80000004	-6e-45
5	0x80000004	-6e-45
6	0x00000004	6e-45
7	0x00000004	6e-45
8	0x00000004	6e-45
9	0x00000004	6e-45
10	0x00000000	0.0
11	0x00000004	6e-45
12	0x00000004	6e-45
13	0x00000000	0.0
14	0x80000004	-6e-45
15	0x00000004	6e-45
16	0x00000004	6e-45
17	0x00000004	6e-45
18	0x00000000	0.0
19	0x00000004	6e-45
20	0x00000004	6e-45
21	0x00000004	6e-45
22	0x00000004	6e-45
23	0x00000004	6e-45
24	0x00000004	6e-45
25	0x00000004	6e-45
26	0x00000004	6e-45
27	0x00000004	6e-45
28	0x00000004	6e-45
29	0x00000004	6e-45
30	0x00000004	6e-45
31	0x00000004	6e-45
32	0x00000004	6e-45
33	0x00000004	6e-45
34	0x00000004	6e-45
35	0x00000004	6e-45
36	0x00000004	6e-45
37	0x00000004	6e-45
38	0x00000004	6e-45
39	0x00000004	6e-45
40	0x00000004	6e-45
41	0x00000004	6e-45
42	0x00000004	6e-45
43	0x00000004	6e-45
44	0x00000000	0.0
45	0x00000004	6e-45
46	0x00000004	6e-45
47	0x80000004	-6e-45
48	0x00000000	0.0
49	0x00000000	0.0
50	0x00000000	0.0
51	0x00000000	0.0
52	0x00000000	0.0
53	0x00000000	0.0
54	0x00000000	0.0
55	0x00000000	0.0
56	0x00000000	0.0
57	0x00000000	0.0
58	0x00000000	0.0
59	0x00000000	0.0
60	0x00000000	0.0
61	0x00000000	0.0
62	0x00000000	0.0
63	0x00000000	0.0
64	0x00000000	0.0
65	0x00000000	0.0
66	0x00000000	0.0
67	0x00000000	0.0
68	0x00000000	0.0
69	0x00000000	0.0
70	0x00000000	0.0
71	0x00000000	0.0
72	0x00000000	0.0
73	0x00000000	0.0
74	0x00000000	0.0
75	0x00000000	0.0
76	0x00000000	0.0
77	0x00000000	0.0
78	0x00000000	0.0
79	0x00000000	0.0
80	0x00000000	0.0
81	0x00000000	0.0
82	0x00000000	0.0
83	0x00000000	0.0
84	0x00000000	0.0
85	0x00000000	0.0
86	0x00000000	0.0
87	0x00000000	0.0
88	0x00000000	0.0
89	0x00000000	0.0
90	0x00000000	0.0
91	0x00000000	0.0
92	0x00000000	0.0
93	0x00000000	0.0
94	0x00000000	0.0
95	0x00000000	0.0
96	0x00000004	6e-45
97	0x00000004	6e-45
98	0x00000004	6e-45
99	0x00000004	6e-45
100	0x00000004	6e-45
101	0x00000004	6e-45
102	0x00000004	6e-45
103	0x00000004	6e-45
104	0x00000004	6e-45
105	0x00000004	6e-45
106	0x00000004	6e-45
107	0x00000004	6e-45
108	0x00000004	6e-45
109	0x00000004	6e-45
110	0x00000004	6e-45
111	0x00000004	6e-45
112	0x00000004	6e-45
113	0x00000004	6e-45
114	0x00000004	6e-45
115	0x00000004	6e-45
116	0x00000004	6e-45
117	0x00000004	6e-45
118	0x00000004	6e-45
119	0x00000004	6e-45
120	0x00000004	6e-45
121	0x00000004	6e-45
122	0x00000004	6e-45
123	0x00000004	6e-45
124	0x00000004	6e-45
125	0x00000004	6e-45
126	0x00000004	6e-45
127	0x00000004	6e-45
128	0x00000004	6e-45
129	0x00000004	6e-45
130	0x00000004	6e-45
131	0x00000004	6e-45
132	0x00000004	6e-45
133	0x00000004	6e-45
134	0x00000004	6e-45
135	0x00000004	6e-45
136	0x00000004	6e-45
137	0x00000004	6e-45
138	0x00000004	6e-45
139	0x00000004	6e-45
140	0x00000004	6e-45
141	0x00000004	6e-45
142	0x00000004	6e-45
143	0x80000004	-6e-45
144	0x00000000	0.0
145	0x00000000	0.0
146	0x00000000	0.0
147	0x00000000	0.0
148	0x00000000	0.0
149	0x00000000	0.0
150	0x00000000	0.0
151	0x00000000	0.0
152	0x00000000	0.0
153	0x00000000	0.0
154	0x00000000	0.0
155	0x00000000	0.0
156	0x00000000	0.0
157	0x00000000	0.0
158	0x00000000	0.0
159	0x00000000	0.0
160	0x00000000	0.0
161	0x00000000	0.0
162	0x00000000	0.0
163	0x00000000	0.0
164	0x00000000	0.0
165	0x00000000	0.0
166	0x00000000	0.0
167	0x00000000	0.0
168	0x00000000	0.0
169	0x00000000	0.0
170	0x00000000	0.0
171	0x00000000	0.0
172	0x00000000	0.0
173	0x00000000	0.0
174	0x00000000	0.0
175	0x00000000	0.0
176	0x00000000	0.0
177	0x00000000	0.0
178	0x00000000	0.0
179	0x00000000	0.0
180	0x00000000	0.0
181	0x00000000	0.0
182	0x00000000	0.0
183	0x00000000	0.0
184	0x00000000	0.0
185	0x00000000	0.0
186	0x00000000	0.0
187	0x00000000	0.0
188	0x00000000	0.0
189	0x00000000	0.0
190	0x00000000	0.0
191	0x00000000	0.0
192	0x00000004	6e-45
193	0x00000004	6e-45
194	0x00000004	6e-45
195	0x00000004	6e-45
196	0x00000004	6e-45
197	0x00000004	6e-45
198	0x00000004	6e-45
199	0x00000000	0.0
200	0x00000004	6e-45
201	0x00000004	6e-45
202	0x00000004	6e-45
203	0x00000004	6e-45
204	0x00000004	6e-45
205	0x00000004	6e-45
206	0x00000004	6e-45
207	0x00000000	0.0
208	0x00000004	6e-45
209	0x00000004	6e-45
210	0x00000004	6e-45
211	0x00000004	6e-45
212	0x00000004	6e-45
213	0x00000004	6e-45
214	0x00000004	6e-45
215	0x00000004	6e-45
216	0x00000004	6e-45
217	0x00000004	6e-45
218	0x00000004	6e-45
219	0x00000004	6e-45
220	0x00000004	6e-45
221	0x00000004	6e-45
222	0x00000004	6e-45
223	0x00000004	6e-45
224	0x00000004	6e-45
225	0x00000004	6e-45
226	0x00000004	6e-45
227	0x00000004	6e-45
228	0x00000004	6e-45
229	0x00000004	6e-45
230	0x00000004	6e-45
231	0x00000004	6e-45
232	0x00000004	6e-45
233	0x00000004	6e-45
234	0x00000004	6e-45
235	0x00000004	6e-45
236	0x00000000	0.0
237	0x00000004	6e-45
238	0x00000004	6e-45
239	0x00000004	6e-45
240	0x00000000	0.0
241	0x00000000	0.0
242	0x00000000	0.0
243	0x00000000	0.0
244	0x00000000	0.0
245	0x00000000	0.0
246	0x00000000	0.0
247	0x00000000	0.0
248	0x00000000	0.0
249	0x00000000	0.0
250	0x00000000	0.0
251	0x00000000	0.0
252	0x00000000	0.0
253	0x00000000	0.0
254	0x00000000	0.0
255	0x00000000	0.0

exp_avg_sq f4 [128, 48]
0	0x330b1304	3.2380754e-08
1	0x36e52f08	6.830207e-06
2	0x00000000	0.0
3	0x3485d512	2.492821e-07
4	0x2df14c3d	2.7432384e-11
5	0x2df14c3d	2.7432384e-11
6	0x32e5d429	2.6755588e-08
7	0x2e661e8b	5.2323073e-11
8	0x38d90a12	0.00010349242
9	0x3c1dc1bc	0.009628709
10	0x00000000	0.0
11	0x3a12f37b	0.00056057394
12	0x37913dab	1.7314063e-05
13	0x00000000	0.0
14	0x393c9d53	0.00017987685
15	0x2e61c3de	5.1333042e-11
16	0x2ee86cdb	1.0569475e-10
17	0x31938784	4.2936694e-09
18	0x00000000	0.0
19	0x2f12c179	1.3347358e-10
20	0x2e6f77d9	5.4448755e-11
21	0x2e6f77d9	5.4448755e-11
22	0x2ea0e7f1	7.317159e-11
23	0x2845973e	1.0968492e-14
24	0x284fdeed	1.1539148e-14
25	0x2b643ca5	8.1086033e-13
26	0x2e6e9adb	5.4252474e-11
27	0x2f962c6f	2.7316413e-10
28	0x39d769f5	0.0004108694
29	0x2a342524	1.6000097e-13
30	0x2d95b1ab	1.701824e-11
31	0x30b9580c	1.3485546e-09
32	0x2e7a2bab	5.6882204e-11
33	0x32728035	1.4115405e-08
34	0x36f04c4b	7.161439e-06
35	0x2e5f8554	5.082275e-11
36	0x3274c97a	1.424848e-08
37	0x36dafc64	6.5262884e-06
38	0x25ecda51	4.108741e-16
39	0x27811abc	3.583368e-15
40	0x2bd5003a	1.5134623e-12
41	0x2e938aa4	6.7094136e-11
42	0x2e938aa4	6.7094136e-11
43	0x3ae7efb7	0.0017695342
44	0x00000000	0.0
45	0x2a1eca3b	1.4103382e-13
46	0x2fb7ced6	3.3434472e-10
47	0x2750084e	2.88703e-15
48	0x00000000	0.0
49	0x00000000	0.0
50	0x00000000	0.0
51	0x00000000	0.0
52	0x00000000	0.0
53	0x00000000	0.0
54	0x00000000	0.0
55	0x00000000	0.0
56	0x00000000	0.0
57	0x00000000	0.0
58	0x00000000	0.0
59	0x00000000	0.0
60	0x00000000	0.0
61	0x00000000	0.0
62	0x00000000	0.0
63	0x00000000	0.0
64	0x00000000	0.0
65	0x00000000	0.0
66	0x00000000	0.0
67	0x00000000	0.0
68	0x00000000	0.0
69	0x00000000	0.0
70	0x00000000	0.0
71	0x00000000	0.0
72	0x00000000	0.0
73	0x00000000	0.0
74	0x00000000	0.0
75	0x00000000	0.0
76	0x00000000	0.0
77	0x00000000	0.0
78	0x00000000	0.0
79	0x00000000	0.0
80	0x00000000	0.0
81	0x00000000	0.0
82	0x00000000	0.0
83	0x00000000	0.0
84	0x00000000	0.0
85	0x00000000	0.0
86	0x00000000	0.0
87	0x00000000	0.0
88	0x00000000	0.0
89	0x00000000	0.0
90	0x00000000	0.0
91	0x00000000	0.0
92	0x00000000	0.0
93	0x00000000	0.0
94	0x00000000	0.0
95	0x00000000	0.0
96	0x3a200c6f	0.00061053684
97	0x3b10241c	0.002199418
98	0x388afaa6	6.62704e-05
99	0x392e2b99	0.00016610174
100	0x3a20bdd1	0.00061318005
101	0x395f86de	0.00021317179
102	0x3a9a2bca	0.0011762318
103	0x30ea7f1e	1.706187e-09
104	0x3fb7cbbe	1.4359052
105	0x403c27ec	2.9399366
106	0x3ed18330	0.409204
107	0x3e2d06ac	0.16897076
108	0x3fc7e668	1.561719
109	0x3f859cd8	1.043849
110	0x400b7f26	2.1796355
111	0x30a3c6c9	1.1916309e-09
112	0x34dc3acd	4.1020976e-07
113	0x35a660fd	1.2396191e-06
114	0x339aa75e	7.201628e-08
115	0x33e58649	1.068807e-07
116	0x34da786c	4.0693283e-07
117	0x34150f96	1.3882376e-07
118	0x3554b3c8	7.923777e-07
119	0x2f285237	1.530872e-10
120	0x2f51b045	1.9071063e-10
121	0x310ac897	2.0195665e-09
122	0x327a5b92	1.4572736e-08
123	0x33277ec1	3.8998e-08
124	0x3b242530	0.002504658
125	0x3105c868	1.9467965e-09
126	0x3479d721	2.3268196e-07
127	0x360abcd7	2.0673522e-06
128	0x3245fb0f	1.1523993e-08
129	0x360b710e	2.077842e-06
130	0x3838f2d6	4.4095177e-05
131	0x30fcc9da	1.8392783e-09
132	0x36312e42	2.640198e-06
133	0x371ab0f3	9.2203145e-06
134	0x2c07ac69	1.928036e-12
135	0x2e581836	4.9134218e-11
136	0x317f7b7a	3.7177572e-09
137	0x3266f23e	1.34428415e-08
138	0x32b39465	2.0905825e-08
139	0x3c01364c	0.007886481
140	0x319d6ce6	4.5816817e-09
141	0x309a518d	1.1228153e-09
142	0x35986834	1.135521e-06
143	0x2eeae9ec	1.0682641e-10
144	0x00000000	0.0
145	0x00000000	0.0
146	0x00000000	0.0
147	0x00000000	0.0
148	0x00000000	0.0
149	0x00000000	0.0
150	0x00000000	0.0
151	0x00000000	0.0
152	0x00000000	0.0
153	0x00000000	0.0
154	0x00000000	0.0
155	0x00000000	0.0
156	0x00000000	0.0
157	0x00000000	0.0
158	0x00000000	0.0
159	0x00000000	0.0
160	0x00000000	0.0
161	0x00000000	0.0
162	0x00000000	0.0
163	0x00000000	0.0
164	0x00000000	0.0
165	0x00000000	0.0
166	0x00000000	0.0
167	0x00000000	0.0
168	0x00000000	0.0
169	0x00000000	0.0
170	0x00000000	0.0
171	0x00000000	0.0
172	0x00000000	0.0
173	0x00000000	0.0
174	0x00000000	0.0
175	0x00000000	0.0
176	0x00000000	0.0
177	0x00000000	0.0
178	0x00000000	0.0
179	0x00000000	0.0
180	0x00000000	0.0
181	0x00000000	0.0
182	0x00000000	0.0
183	0x00000000	0.0
184	0x00000000	0.0
185	0x00000000	0.0
186	0x00000000	0.0
187	0x00000000	0.0
188	0x00000000	0.0
189	0x00000000	0.0
190	0x00000000	0.0
191	0x00000000	0.0
192	0x32ca3eba	2.354442e-08
193	0x337e8560	5.9260287e-08
194	0x30ecbe31	1.7225316e-09
195	0x318d0f1e	4.1053587e-09
196	0x32ecbe31	2.7560505e-08
197	0x32046ce0	7.7081665e-09
198	0x333eb10d	4.439885e-08
199	0x00000000	0.0
200	0x38766bba	5.87513e-05
201	0x38c09a4d	9.184014e-05
202	0x3786e1bf	1.6079166e-05
203	0x35e3ae7e	1.6963602e-06
204	0x388a2687	6.587529e-05
205	0x3844ac42	4.689047e-05
206	0x389d2bd6	7.4945085e-05
207	0x00000000	0.0
208	0x2d929e8f	1.6668692e-11
209	0x2e334f30	4.077022e-11
210	0x2b334f30	6.370347e-13
211	0x2c7b0599	3.5672353e-12
212	0x2d8c15f4	1.5925906e-11
213	0x2c8c15f4	3.9814766e-12
214	0x2e094883	3.1214597e-11
215	0x284b808b	1.1296637e-14
216	0x285340da	1.1726915e-14
217	0x29afdefb	7.810242e-14
218	0x2b334f30	6.370347e-13
219	0x2b334f30	6.370347e-13
220	0x33d9ca45	1.01416425e-07
221	0x2a111433	1.2885595e-13
222	0x2d83e709	1.4995576e-11
223	0x2f018a03	1.1781513e-10
224	0x2acc16f5	3.625361e-13
225	0x2e8c15f4	6.3703626e-11
226	0x301ea5c1	5.7715616e-10
227	0x28c55d75	2.1911924e-14
228	0x2e62f050	5.159989e-11
229	0x2e3d6899	4.3066526e-11
230	0x24e7d450	1.0053995e-16
231	0x26945ee3	1.0295282e-15
232	0x29e4ed36	1.01663835e-13
233	0x2b334f30	6.370347e-13
234	0x2b334f30	6.370347e-13
235	0x33d9ca45	1.01416425e-07
236	0x00000000	0.0
237	0x29438649	4.3415172e-14
238	0x2d8e36fe	1.6167952e-11
239	0x27aaf0f0	4.7445704e-15
240	0x00000000	0.0
241	0x00000000	0.0
242	0x00000000	0.0
243	0x00000000	0.0
244	0x00000000	0.0
245	0x00000000	0.0
246	0x00000000	0.0
247	0x00000000	0.0
248	0x00000000	0.0
249	0x00000000	0.0
250	0x00000000	0.0
251	0x00000000	0.0
252	0x00000000	0.0
253	0x00000000	0.0
254	0x00000000	0.0
255	0x00000000	0.0

exp_avg f4 [128]
0	0x00000004	6e-45
1	0x00000000	0.0
2	0x00000004	6e-45
3	0x00000000	0.0
4	0x00000004	6e-45
5	0x00000000	0.0
6	0x00000004	6e-45
7	0x00000004	6e-45
8	0x00000004	6e-45
9	0x00000004	6e-45
10	0x38ab56e1	8.170098e-05
11	0x00000004	6e-45
12	0x00000004	6e-45
13	0x00000000	0.0
14	0x3acee372	0.0015784337
15	0x00000004	6e-45
16	0x3a7e6f59	0.0009705923
17	0x00000004	6e-45
18	0x00000004	6e-45
19	0x00000004	6e-45
20	0x00000004	6e-45
21	0x00000004	6e-45
22	0x00000000	0.0
23	0xba68338c	-0.0008857779
24	0x80000004	-6e-45
25	0xbaad75b4	-0.0013233931
26	0x00000004	6e-45
27	0x38af9df7	8.3740735e-05
28	0x00000004	6e-45
29	0x00000004	6e-45
30	0x00000004	6e-45
31	0x00000004	6e-45
32	0x00000004	6e-45
33	0x00000004	6e-45
34	0x00000004	6e-45
35	0x80000004	-6e-45
36	0x39c0ee84	0.00036798802
37	0xb8ca0f0f	-9.6349155e-05
38	0x00000004	6e-45
39	0x00000004	6e-45
40	0xb87413f3	-5.8192712e-05
41	0x00000004	6e-45
42	0x00000000	0.0
43	0x00000004	6e-45
44	0x00000004	6e-45
45	0x00000004	6e-45
46	0x00000004	6e-45
47	0x00000004	6e-45
48	0x00000004	6e-45
49	0x00000004	6e-45
50	0xb90a624c	-0.00013197324
51	0x00000004	6e-45
52	0x00000004	6e-45
53	0x38e1a017	0.00010758655
54	0x00000000	0.0
55	0x00000004	6e-45
56	0x00000000	0.0
57	0x00000004	6e-45
58	0x00000004	6e-45
59	0x00000004	6e-45
60	0x3acf34a4	0.0015808535
61	0x00000000	0.0
62	0x00000004	6e-45
63	0x00000004	6e-45
64	0x00000004	6e-45
65	0x00000000	0.0
66	0x00000000	0.0
67	0x00000004	6e-45
68	0x00000004	6e-45
69	0x00000004	6e-45
70	0x00000004	6e-45
71	0x39d23303	0.00040092328
72	0x00000004	6e-45
73	0x00000000	0.0
74	0x00000004	6e-45
75	0xba325541	-0.0006802865
76	0x00000004	6e-45
77	0x80000004	-6e-45
78	0x80000004	-6e-45
79	0x80000004	-6e-45
80	0x00000000	0.0
81	0x80000004	-6e-45
82	0x00000004	6e-45
83	0x3a53dd9b	0.0008082033
84	0x00000004	6e-45
85	0x00000000	0.0
86	0x00000004	6e-45
87	0x39f026dd	0.00045805323
88	0xba89a90c	-0.001050265
89	0x39f3458a	0.00046400382
90	0xb9be5534	-0.00036303105
91	0x00000004	6e-45
92	0x80000004	-6e-45
93	0x00000004	6e-45
94	0x00000004	6e-45
95	0x00000004	6e-45
96	0x00000004	6e-45
97	0x00000004	6e-45
98	0x00000004	6e-45
99	0x00000000	0.0
100	0x00000004	6e-45
101	0xb9f3488c	-0.00046402623
102	0x00000004	6e-45
103	0x00000004	6e-45
104	0x39adfe23	0.00033186478
105	0x39bf5a95	0.00036497848
106	0x00000004	6e-45
107	0x3a07d5a8	0.00051816786
108	0x00000004	6e-45
109	0x00000000	0.0
110	0x39d824db	0.0004122619
111	0x3a85dfe8	0.0010213824
112	0x00000004	6e-45
113	0x00000000	0.0
114	0x00000004	6e-45
115	0x00000000	0.0
116	0x00000004	6e-45
117	0x3904b173	0.00012654606
118	0x00000004	6e-45
119	0x00000000	0.0
120	0x00000004	6e-45
121	0x00000004	6e-45
122	0x00000004	6e-45
123	0xba8630fc	-0.0010237987
124	0x00000000	0.0
125	0x00000000	0.0
126	0x3a6ad685	0.00089583575
127	0x39af5244	0.00033439894

exp_avg_sq f4 [128]
0	0x2e938aa4	6.7094136e-11
1	0x00000000	0.0
2	0x32a695d5	1.939308e-08
3	0x00000000	0.0
4	0x2b334f30	6.370347e-13
5	0x00000000	0.0
6	0x3491df4e	2.717083e-07
7	0x3291341b	1.6903916e-08
8	0x3699d193	4.584153e-06
9	0x3ad60097	0.001632708
10	0x3a2efc3e	0.000667516
11	0x37ed6762	2.8300743e-05
12	0x32c8299a	2.3301983e-08
13	0x00000000	0.0
14	0x3b8fbcd1	0.0043865223
15	0x38fb81fc	0.00011992824
16	0x3b67222d	0.0035268173
17	0x33ffcb88	1.1911385e-07
18	0x329774c0	1.7631805e-08
19	0x3021a93d	5.881196e-10
20	0x399f239b	0.0003035337
21	0x3558bcc2	8.074095e-07
22	0x00000000	0.0
23	0x3ad04fdf	0.0015892944
24	0x3a34b332	0.0006893157
25	0x3b84a44f	0.0040479074
26	0x369a0561	4.590184e-06
27	0x3a168304	0.0005741569
28	0x372c6063	1.0274441e-05
29	0x353f46b3	7.1255926e-07
30	0x2f19ddda	1.3994086e-10
31	0x328f0471	1.664941e-08
32	0x304df9e2	7.493367e-10
33	0x362ff463	2.6219284e-06
34	0x330803dd	3.166848e-08
35	0x372c566a	1.0272119e-05
36	0x3aab21e0	0.001305636
37	0x3aea159c	0.0017859223
38	0x373fc758	1.14309005e-05
39	0x35fa4ca1	1.8648753e-06
40	0x39494991	0.0001919626
41	0x29d29191	9.351125e-14
42	0x00000000	0.0
43	0x33c4c8d8	9.1634945e-08
44	0x343466ee	1.6801252e-07
45	0x36517d73	3.1216448e-06
46	0x395ec0e8	0.00021243433
47	0x398a7042	0.0002640505
48	0x37a99bb9	2.0218884e-05
49	0x321b6cb6	9.0469054e-09
50	0x3b2c6aab	0.0026308696
51	0x305d79b0	8.057226e-10
52	0x3603491f	1.9563083e-06
53	0x3a248ee4	0.0006277396
54	0x00000000	0.0
55	0x35480a85	7.4521114e-07
56	0x00000000	0.0
57	0x38c084a2	9.179978e-05
58	0x31d504ec	6.1996754e-09
59	0x306e357f	8.665992e-10
60	0x3b98018d	0.0046388567
61	0x00000000	0.0
62	0x3222fa6e	9.486582e-09
63	0x2e5ca97e	5.0172748e-11
64	0x392b299b	0.0001632333
65	0x00000000	0.0
66	0x00000000	0.0
67	0x3901fc08	0.00012396288
68	0x2c00549e	1.8236866e-12
69	0x365c054b	3.2785636e-06
70	0x2f38e19d	1.6814856e-10
71	0x3b01a9bf	0.0019785014
72	0x316b4d7d	3.4241048e-09
73	0x00000000	0.0
74	0x39a98625	0.00032334137
75	0x3b3018b5	0.0026870195
76	0x308410e9	9.60907e-10
77	0x3714ebcf	8.876391e-06
78	0x34edd4ed	4.4299614e-07
79	0x39fbb253	0.00048007313
80	0x00000000	0.0
81	0x38c36b2e	9.318288e-05
82	0x362dfdb7	2.592669e-06
83	0x3b4b5b04	0.0031029591
84	0x318dac3d	4.1232213e-09
85	0x00000000	0.0
86	0x3b235c01	0.0024926665
87	0x3a7fd927	0.0009759836
88	0x3b121b1d	0.0022293993
89	0x3a9e40a0	0.0012073703
90	0x39c3c8b2	0.00037342828
91	0x28a9e38b	1.886145e-14
92	0x3995340f	0.0002845828
93	0x365c9bd5	3.287326e-06
94	0x36914cf1	4.330294e-06
95	0x323f45e2	1.1133553e-08
96	0x30748216	8.8951546e-10
97	0x35858328	9.947444e-07
98	0x33998f54	7.150689e-08
99	0x00000000	0.0
100	0x34ede281	4.4309493e-07
101	0x3a24c565	0.00062855176
102	0x387c7f5d	6.02001e-05
103	0x385fe4e8	5.338053e-05
104	0x3a2d3eac	0.0006608765
105	0x3b9320b0	0.0044899806
106	0x37e1ba5e	2.6908874e-05
107	0x3b26bd43	0.0025442399
108	0x395002fc	0.00019837538
109	0x00000000	0.0
110	0x39d07831	0.000397624
111	0x3ae17362	0.0017200524
112	0x3212c753	8.54364e-09
113	0x00000000	0.0
114	0x2d67b680	1.3171353e-11
115	0x00000000	0.0
116	0x354d1d21	7.641084e-07
117	0x3a2447ea	0.00062668195
118	0x37c9e826	2.406917e-05
119	0x00000000	0.0
120	0x355b5d2a	8.171943e-07
121	0x3aa0dedb	0.0012273447
122	0x33989d65	7.1066815e-08
123	0x3b19559a	0.002339697
124	0x00000000	0.0
125	0x00000000	0.0
126	0x3b58dcb2	0.003309053
127	0x3ab1490d	0.0013525799

exp_avg f4 [64, 128]
0	0x00000000	0.0
1	0x00000000	0.0
2	0x00000004	6e-45
3	0x00000000	0.0
4	0x00000000	0.0
5	0x00000000	0.0
6	0x00000004	6e-45
7	0x00000004	6e-45
8	0x00000004	6e-45
9	0x00000004	6e-45
10	0x00000004	6e-45
11	0x00000000	0.0
12	0x00000000	0.0
13	0x00000000	0.0
14	0x00000004	6e-45
15	0x00000000	0.0
16	0x00000004	6e-45
17	0x00000004	6e-45
18	0x00000000	0.0
19	0x00000000	0.0
20	0x00000004	6e-45
21	0x00000004	6e-45
22	0x00000000	0.0
23	0x00000004	6e-45
24	0x00000000	0.0
25	0x00000004	6e-45
26	0x00000000	0.0
27	0x00000004	6e-45
28	0x00000000	0.0
29	0x00000004	6e-45
30	0x00000000	0.0
31	0x00000000	0.0
32	0x00000000	0.0
33	0x00000000	0.0
34	0x00000004	6e-45
35	0x00000000	0.0
36	0x00000004	6e-45
37	0x00000004	6e-45
38	0x00000000	0.0
39	0x00000004	6e-45
40	0x00000004	6e-45
41	0x00000000	0.0
42	0x00000000	0.0
43	0x00000004	6e-45
44	0x00000004	6e-45
45	0x00000000	0.0
46	0x00000004	6e-45
47	0x00000004	6e-45
48	0x00000004	6e-45
49	0x00000000	0.0
50	0x00000004	6e-45
51	0x00000000	0.0
52	0x00000000	0.0
53	0x00000004	6e-45
54	0x00000000	0.0
55	0x00000004	6e-45
56	0x00000000	0.0
57	0x00000004	6e-45
58	0x00000004	6e-45
59	0x80000004	-6e-45
60	0x00000004	6e-45
61	0x00000000	0.0
62	0x00000000	0.0
63	0x00000000	0.0
64	0x00000004	6e-45
65	0x00000000	0.0
66	0x00000000	0.0
67	0x00000004	6e-45
68	0x00000000	0.0
69	0x00000004	6e-45
70	0x00000000	0.0
71	0x00000004	6e-45
72	0x00000004	6e-45
73	0x00000000	0.0
74	0x00000004	6e-45
75	0x00000004	6e-45
76	0x80000004	-6e-45
77	0x00000004	6e-45
78	0x00000000	0.0
79	0x00000000	0.0
80	0x00000000	0.0
81	0x00000000	0.0
82	0x00000000	0.0
83	0x00000004	6e-45
84	0x00000000	0.0
85	0x00000000	0.0
86	0x00000004	6e-45
87	0x00000004	6e-45
88	0x00000004	6e-45
89	0x00000004	6e-45
90	0x00000004	6e-45
91	0x00000000	0.0
92	0x00000004	6e-45
93	0x00000004	6e-45
94	0x00000004	6e-45
95	0x00000000	0.0
96	0x00000004	6e-45
97	0x00000000	0.0
98	0x00000004	6e-45
99	0x00000000	0.0
100	0x00000004	6e-45
101	0x00000004	6e-45
102	0x00000000	0.0
103	0x00000004	6e-45
104	0x00000004	6e-45
105	0x00000004	6e-45
106	0x00000004	6e-45
107	0x00000004	6e-45
108	0x00000004	6e-45
109	0x00000000	0.0
110	0x00000004	6e-45
111	0x00000004	6e-45
112	0x00000004	6e-45
113	0x00000000	0.0
114	0x00000000	0.0
115	0x00000000	0.0
116	0x00000000	0.0
117	0x00000004	6e-45
118	0x00000000	0.0
119	0x00000000	0.0
120	0x00000004	6e-45
121	0x00000000	0.0
122	0x00000004	6e-45
123	0x00000004	6e-45
124	0x00000000	0.0
125	0x00000000	0.0
126	0x00000004	6e-45
127	0x00000004	6e-45
128	0x00000000	0.0
129	0x00000000	0.0
130	0x00000000	0.0
131	0x00000000	0.0
132	0x00000000	0.0
133	0x00000000	0.0
134	0x00000000	0.0
135	0x00000000	0.0
136	0x00000000	0.0
137	0x00000000	0.0
138	0x00000000	0.0
139	0x00000000	0.0
140	0x00000000	0.0
141	0x00000000	0.0
142	0x00000000	0.0
143	0x00000000	0.0
144	0x00000000	0.0
145	0x00000000	0.0
146	0x00000000	0.0
147	0x00000000	0.0
148	0x00000000	0.0
149	0x00000000	0.0
150	0x00000000	0.0
151	0x00000000	0.0
152	0x00000000	0.0
153	0x00000000	0.0
154	0x00000000	0.0
155	0x00000000	0.0
156	0x00000000	0.0
157	0x00000000	0.0
158	0x00000000	0.0
159	0x00000000	0.0
160	0x00000000	0.0
161	0x00000000	0.0
162	0x00000000	0.0
163	0x00000000	0.0
164	0x00000000	0.0
165	0x00000000	0.0
166	0x00000000	0.0
167	0x00000000	0.0
168	0x00000000	0.0
169	0x00000000	0.0
170	0x00000000	0.0
171	0x00000000	0.0
172	0x00000000	0.0
173	0x00000000	0.0
174	0x00000000	0.0
175	0x00000000	0.0
176	0x00000000	0.0
177	0x00000000	0.0
178	0x00000000	0.0
179	0x00000000	0.0
180	0x00000000	0.0
181	0x00000000	0.0
182	0x00000000	0.0
183	0x00000000	0.0
184	0x00000000	0.0
185	0x00000000	0.0
186	0x00000000	0.0
187	0x00000000	0.0
188	0x00000000	0.0
189	0x00000000	0.0
190	0x00000000	0.0
191	0x00000000	0.0
192	0x00000000	0.0
193	0x00000000	0.0
194	0x00000000	0.0
195	0x00000000	0.0
196	0x00000000	0.0
197	0x00000000	0.0
198	0x00000000	0.0
199	0x00000000	0.0
200	0x00000000	0.0
201	0x00000000	0.0
202	0x00000000	0.0
203	0x00000000	0.0
204	0x00000000	0.0
205	0x00000000	0.0
206	0x00000000	0.0
207	0x00000000	0.0
208	0x00000000	0.0
209	0x00000000	0.0
210	0x00000000	0.0
211	0x00000000	0.0
212	0x00000000	0.0
213	0x00000000	0.0
214	0x00000000	0.0
215	0x00000000	0.0
216	0x00000000	0.0
217	0x00000000	0.0
218	0x00000000	0.0
219	0x00000000	0.0
220	0x00000000	0.0
221	0x00000000	0.0
222	0x00000000	0.0
223	0x00000000	0.0
224	0x00000000	0.0
225	0x00000000	0.0
226	0x00000000	0.0
227	0x00000000	0.0
228	0x00000000	0.0
229	0x00000000	0.0
230	0x00000000	0.0
231	0x00000000	0.0
232	0x00000000	0.0
233	0x00000000	0.0
234	0x00000000	0.0
235	0x00000000	0.0
236	0x00000000	0.0
237	0x00000000	0.0
238	0x00000000	0.0
239	0x00000000	0.0
240	0x00000000	0.0
241	0x00000000	0.0
242	0x00000000	0.0
243	0x00000000	0.0
244	0x00000000	0.0
245	0x00000000	0.0
246	0x00000000	0.0
247	0x00000000	0.0
248	0x00000000	0.0
249	0x00000000	0.0
250	0x00000000	0.0
251	0x00000000	0.0
252	0x00000000	0.0
253	0x00000000	0.0
254	0x00000000	0.0
255	0x00000000	0.0
