src/model_data/Mexican_Grand_Prix_model.pth (torch, 197961 bytes, 21 tensors)

net.0.weight f4 [128, 48]
000000 4c 39 01 be 5b 65 c0 3d 61 54 c0 bd 77 54 19 be
       -0.12619513 0.09394332 -0.09391094 -0.14973627
000010 2e 37 a5 3d b9 ba 11 be f7 31 2a 3d 43 1f 19 be
       0.08067165 -0.14231385 0.041551556 -0.14953332
000020 90 c9 6a be 48 47 47 3d e2 1b ea 3d e9 c6 83 bd
       -0.22928452 0.048651963 0.114310995 -0.064344235
000030 6a dd 2b be ab ba d5 bc a2 37 ce bd 6c 98 a6 bc
       -0.16783682 -0.026089987 -0.10069205 -0.020336352
000040 19 51 c6 3d 01 18 09 be cb 81 f5 bd b2 a7 d2 3d
       0.09683437 -0.13388063 -0.11987647 0.102858916
000050 f6 d4 51 bd e2 ae 8b 3d 32 19 2a bc bd d8 9f 3d
       -0.051228486 0.068204656 -0.010381984 0.078050114
000060 d4 e2 d0 bd c2 2e d9 3d 3a 99 8f bd fc 07 13 3e
       -0.10199514 0.106046215 -0.070116475 0.14358515
000070 74 31 03 3c 95 2f 62 bc 71 ff 86 be fb 8c 3b be
       0.008007396 -0.01380529 -0.2636676 -0.18315499
000080 c3 a1 ba bc 30 9f af 3c 25 a8 f4 bd 9a fd d1 3b
       -0.022782212 0.021438211 -0.119461335 0.0064084055
000090 7d bd 4c bd f3 4b 72 be 8e 9b b9 bd cd f0 52 be
       -0.049985398 -0.23661785 -0.09062873 -0.2059967
0000a0 55 44 1c be 31 61 4b be f3 65 90 bd f5 21 50 bd
       -0.15260442 -0.19861294 -0.07050695 -0.050813634
0000b0 78 db 0a 3d f3 46 09 be ae f3 8d be 2f 1d df 3c
       0.033900708 -0.13405971 -0.27724975 0.027235596
0000c0 02 f5 56 be 46 06 97 3d 81 76 57 3a f2 69 f4 bc
       -0.209919 0.073742434 0.00082192576 -0.029835675
0000d0 a9 4b 90 be 61 0a 68 3c e9 45 42 3d 03 b4 78 3c
       -0.28182724 0.014162631 0.047429953 0.015179637
0000e0 bf 04 ae 3d 00 49 9e 3d 71 b4 17 3e 02 2b eb 3d
       0.08496999 0.077287674 0.14814927 0.114828125
0000f0 6a cd 58 be 1f a0 7b 3d b7 54 07 be 99 69 03 be
       -0.21172109 0.061432 -0.1321591 -0.12833251
000100 01 d0 7a be 51 92 b7 bd 1d 49 57 be fa dd 37 be
       -0.2449341 -0.089634545 -0.21023984 -0.17955771
000110 e4 05 c6 3d a2 6e ee bd e2 03 01 bd c8 d1 a9 bd
       0.09669092 -0.11642195 -0.031497844 -0.08291966
000120 0a 36 3a bd 48 5b 41 bd a1 f0 1e be f7 7d 86 bc
       -0.045461692 -0.047206193 -0.1552148 -0.016417487
000130 5a 86 66 3e 16 6b a5 bd b0 a6 a9 be 28 6f 80 bd
       0.22512189 -0.08077066 -0.33134985 -0.06271201
000140 7f a3 db 3d 9b 6b 93 3d 88 ff 1e be 3f e1 10 3d
       0.10724544 0.071982585 -0.15527165 0.03537106
000150 1c 4b 55 bd 95 78 86 bc 10 6c a9 bf 72 3c d5 bf
       -0.052073583 -0.01641492 -1.3236103 -1.6659071
000160 93 41 b6 bf 40 92 03 be b0 34 a8 be c1 fb ff 3d
       -1.4238762 -0.12848759 -0.32852697 0.1249919
000170 27 5d bc 3e ee 57 e9 3e 25 4c e5 3e b9 ab f0 3d
       0.3678982 0.45574898 0.44784656 0.117515035
000180 43 ae 67 3d e2 be ee bd 83 38 11 be b6 26 1a 3d
       0.056562673 -0.11657502 -0.14181714 0.037634574
000190 cc 66 3e be 40 04 3d 3d 56 66 32 bc 7d 82 91 bd
       -0.18593901 0.04614663 -0.010888657 -0.07104967
0001a0 78 38 18 3d 40 07 8c 3d 88 ae b5 bd 44 cc e7 bc
       0.037163228 0.0683732 -0.0887118 -0.028295644
0001b0 65 89 2a 3c 06 3c c7 3d 82 f9 37 be 3a ee 40 be
       0.010408734 0.097282454 -0.17966273 -0.18840876
0001c0 89 ab 9f bd 61 25 6d be 71 90 64 be 61 de 16 be
       -0.077963896 -0.2315879 -0.22320725 -0.14733268
0001d0 4e 2d 43 bd 45 15 e6 3d 6f b1 1c be 8c 52 21 3e
       -0.047650628 0.112345256 -0.1530206 0.15754145
0001e0 e7 57 25 be d3 fd 40 3d ba 49 25 3c b7 37 85 be
       -0.16146813 0.047117066 0.010088379 -0.2601907
0001f0 86 c4 37 be 1c e0 c1 3d 03 f0 ac bd cf 34 0f be
       -0.17946061 0.094665736 -0.08444216 -0.13984989
000200 ba 0f 0a be 09 70 ae bd 54 ed a7 bc b9 e6 0c 3d
       -0.13482562 -0.08517463 -0.020498909 0.03439972
000210 81 35 bd bd af 9e be bb a4 e3 c4 3e ba 3c b0 3e
       -0.09238721 -0.0058172564 0.38454926 0.3442133
000220 5e 7e 0f 3e fc 9a 62 bc 06 ae 93 3e 27 b1 be bd
       0.14013049 -0.0138308965 0.28843707 -0.09311133
000230 6e d1 98 be 30 9b d1 bd 3d 5a 84 3c e3 9e 51 3d
       -0.29847282 -0.10234678 0.01615631 0.051176917
000240 e1 d8 22 be b8 d0 0f 3b 0a 7f ae bc ba a2 a7 bc
       -0.15903045 0.0021944474 -0.021300811 -0.020463336
000250 68 61 75 3d 34 33 0e be 99 aa 4c 3d d4 a6 29 3e
       0.059907347 -0.1388672 0.049967382 0.16567546
000260 33 7d 78 bd 02 1a e2 bd 23 3e 93 3c 3e 4e 89 3c
       -0.060666274 -0.11040117 0.017973965 0.016760942
000270 cc 37 68 be b0 0b df 3d 21 20 e8 3d 87 f9 48 be
       -0.22677535 0.10890901 0.11334253 -0.19626437
000280 09 eb 63 3d d9 04 15 be 89 af 28 be 96 9c a0 bd
       0.05564407 -0.1455263 -0.16473211 -0.078423664
000290 bc 4c f9 bd e1 7e 9c 3d 9b 77 a7 3d 29 8f 73 be
       -0.12172839 0.07641388 0.0817711 -0.2378508
0002a0 7e 81 2f be 83 f7 6b be 8c 55 4a 3d 2c 90 c6 bc
       -0.17139241 -0.23043637 0.04939799 -0.024238668
0002b0 64 67 76 bd 2f 8b ad ba 90 a8 64 be 9d 70 6f be
       -0.060157195 -0.0013240332 -0.22329926 -0.23382802
0002c0 f4 90 aa 3c 4b 49 80 bd 05 98 06 be 20 66 66 bd
       0.020821072 -0.062639795 -0.13143928 -0.056249738
0002d0 c3 af ca bd 82 19 a7 bc 41 e2 13 bf ba a1 3c bf
       -0.09896805 -0.020397905 -0.5776711 -0.73684275
0002e0 e2 28 03 bf 2a fd ae be 30 c5 0c bf 4e 5b 32 be
       -0.5123426 -0.34177524 -0.54988384 -0.17417642
0002f0 c5 4b b1 3e 70 41 11 bd 48 fa b0 3e 19 f7 09 3d
       0.3462812 -0.035462797 0.3456595 0.033682916
000300 7d 45 81 bd c8 63 99 bd 49 85 b6 3d b0 70 fd 3a
       -0.06312082 -0.07489735 0.08912141 0.0019335952
000310 95 a7 c5 3d eb e4 f9 bd 5a f5 c4 3d 80 b4 26 3d
       0.09651104 -0.12201866 0.096171096 0.040699482
000320 0a 8d 03 bd 89 9f 20 be c7 5d 93 bd f5 8f 16 3e
       -0.032116927 -0.15685858 -0.07195621 0.14703353
000330 87 2c 89 3c 39 bd a4 3d 5b 31 98 3d 99 1c 14 bd
       0.016744865 0.08043904 0.07431289 -0.036160085
000340 97 bd 8a 3c d9 2a a0 3c 37 3c 3b 3d 8e e4 10 bd
       0.016936107 0.019551681 0.045711722 -0.035374217
000350 2f e7 52 3d d4 ba 1f 3e 70 0b 1d bd 93 b4 85 bd
       0.051490005 0.15598613 -0.038340986 -0.065285824
000360 7d 31 98 bd 20 e4 09 3e 89 1b e9 bd 11 8e 8c 3c
       -0.07431314 0.13465929 -0.11382205 0.017157586
000370 a8 6c f1 bd 03 44 5d bd 35 02 24 3e ba 59 d4 3d
       -0.11788303 -0.05401994 0.16016467 0.103686765
000380 e1 94 cc bd 97 f0 b4 3d 0b 2e 7d 3d 73 48 dd bd
       -0.09989334 0.08834951 0.061811488 -0.10804834
000390 11 9e 0e 3e 9e 59 10 be f5 06 ef bc f1 db d4 3d
       0.13927485 -0.14096686 -0.029178122 0.10393513
0003a0 41 39 c9 bd d9 bb 14 bd ef 03 d3 3d 1d ae 29 3e
       -0.098253734 -0.036311958 0.10303485 0.16570325
0003b0 61 b8 8c bd 22 e5 45 3e ff 05 2f 3e 3e ac 7c bd
       -0.06871105 0.19325688 0.17092131 -0.0616877
0003c0 2a 4e 84 be 19 f7 5e 3d 96 b4 13 be 25 8a c1 bd
       -0.25840884 0.05443487 -0.14424357 -0.09450177
0003d0 bf 2f fc bd 6c 94 6b be cf c3 a2 bc 33 9e ae 3f
       -0.12313794 -0.23005837 -0.01986876 1.3642029
0003e0 a9 5b be 3c 14 7b b3 bc c3 62 a6 bd 06 37 1f be
       0.023237066 -0.021909274 -0.08124306 -0.15548334
0003f0 21 f1 e7 3d fa 2a 6d bc d9 15 74 3d ed 18 88 3d
       0.113252886 -0.014475578 0.059591148 0.06645379

net.0.bias f4 [128]
000000 2d 96 9e bd 04 09 f8 3b a2 ea 75 bd d1 3d 21 bd
       -0.077434875 0.007569434 -0.060038216 -0.039365593
000010 1a 5d e6 bb c3 83 6b 3d 2e 6a 86 bd e2 00 43 bd
       -0.0070301415 0.057498705 -0.06563221 -0.047608264
000020 00 00 00 00 a8 cd ad 3d df c7 49 bd c5 15 d5 bd
       0.0 0.084864914 -0.049262878 -0.10404543
000030 a5 c4 f2 bc 2c b1 cd 3c 00 00 00 00 0b 6f a0 bd
       -0.029634783 0.025108896 0.0 -0.0783368
000040 05 77 b5 bd 1b c8 21 bd 6b af f9 bd 45 a2 27 bd
       -0.08860592 -0.039497476 -0.121916614 -0.040926237
000050 a9 76 e8 bd 45 a2 ad 3d af f4 c1 3a 08 a4 45 3d
       -0.11350758 0.08478216 0.0014797653 0.048252136
000060 81 27 1c bd 6b 4d e4 bc 6d b0 af bd 77 f0 4c 3d
       -0.03812361 -0.027868947 -0.085785724 0.050034013
000070 41 fb a7 bb cf 7c 8e bd f7 06 c2 bd d7 24 81 bd
       -0.0051263873 -0.06957399 -0.09473985 -0.06305855
000080 00 00 00 00 87 b9 33 bd 00 00 00 00 00 00 00 00
       0.0 -0.043878105 0.0 0.0
000090 bd 7c 8b 3c 31 d7 1a 3d 3b c4 e1 bb 0d bf 90 bc
       0.017027253 0.03780288 -0.0068898476 -0.017669225
0000a0 00 00 00 00 fa 58 27 bd 56 62 44 bd 80 a0 e8 3b
       0.0 -0.04085634 -0.047945343 0.007099211
0000b0 4d e5 a7 bd b9 bf d2 3c 00 00 00 00 8c 90 8d 3d
       -0.081980325 0.025726186 0.0 0.06912336
0000c0 7f 25 5a bd 34 16 96 bd 59 9d 74 3d 44 75 25 3d
       -0.053258415 -0.07328454 0.05972037 0.040395036
0000d0 24 3f 58 bd 00 00 00 00 00 00 00 00 00 00 00 00
       -0.05279459 0.0 0.0 0.0
0000e0 1c b6 bd bd 04 bf c3 bd b6 56 62 bd 12 b2 4a bb
       -0.0926325 -0.09557918 -0.055258475 -0.0030928892
0000f0 dd 1c 02 bd 64 9d 47 bb 06 6b 03 bd 01 d3 84 bd
       -0.031765807 -0.0030458802 -0.032084487 -0.06485558
000100 00 00 00 00 f1 f1 cb bd c8 9e c5 bc 0e 5f 0c bc
       0.0 -0.09958256 -0.024123564 -0.008567585
000110 e4 6e 75 bd 55 35 f4 3a 96 78 f8 3c b0 16 ca bb
       -0.059920207 0.0018631617 0.030330937 -0.0061672553
000120 48 1a 4b bc 1e 8e d8 bc 86 0d c5 bd 44 ab 14 bd
       -0.012396403 -0.026434954 -0.0962172 -0.036296144
000130 ce c3 12 bc 00 00 00 00 15 da 9c 3d 41 76 d2 bd
       -0.008957816 0.0 0.07658783 -0.102764614
000140 f9 b8 a8 3d 00 00 00 00 00 00 00 00 ba b4 aa 3d
       0.08238406 0.0 0.0 0.08335252
000150 1e ee 1e bd dd ad e8 3b 00 00 00 00 c4 41 32 3e
       -0.038801305 0.0071008042 0.0 0.174079
000160 aa c4 14 be 00 00 00 00 55 65 f2 bd 00 00 00 00
       -0.14528146 0.0 -0.11835734 0.0
000170 00 00 00 00 64 98 79 bd 70 26 32 bd 27 30 9e bc
       0.0 -0.060936347 -0.043493688 -0.01931007
000180 00 00 00 00 00 00 00 00 00 00 00 00 39 67 8c bd
       0.0 0.0 0.0 -0.06855626
000190 3c 49 a8 3d 00 00 00 00 b6 94 74 3d 00 00 00 00
       0.08217093 0.0 0.059712134 0.0
0001a0 a6 bc 07 bc ff 85 fd bc 00 00 00 00 f2 22 23 bc
       -0.008284723 -0.030947683 0.0 -0.009957062
0001b0 fc 41 84 bc 5e 0d c3 3c 6d c7 88 3d b9 dd ca bc
       -0.016144745 0.023810085 0.066786624 -0.024763929
0001c0 00 00 00 00 3d 03 8f bd 8e 13 2d bd 13 a5 c9 bc
       0.0 -0.069830395 -0.042254977 -0.024614846
0001d0 00 00 00 00 a6 eb d5 bd a7 55 8f bd 00 00 00 00
       0.0 -0.10445337 -0.06998759 0.0
0001e0 00 3e ad 3c 22 40 d4 bd 25 fb 42 bc 00 00 00 00
       0.021147728 -0.10363795 -0.011900698 0.0
0001f0 07 f8 a2 bb 53 6d fa 3b fd a2 13 bd 1d ed 60 3b
       -0.004973415 0.007642427 -0.03604411 0.0034321018

net.2.weight f4 [64, 128]
000000 cf 9c 2a 3e 9f 6a ca bd 7a 08 03 3e bc 7c e0 3d
       0.1666138 -0.098836176 0.12796202 0.10961291
000010 48 92 fc 3d 44 a3 a7 bd e0 1e 26 3d 5c eb 00 bd
       0.123325884 -0.08185437 0.04055679 -0.031474456
000020 20 8c 11 3e 80 6a 82 bd 60 e1 27 3e 59 fb b4 3b
       0.1421361 -0.063679695 0.16394567 0.005523127
000030 8b 15 6e 3d c3 2d f3 bd b7 52 20 3e b3 0c 0c 3d
       0.058126014 -0.11873963 0.15656553 0.0341918
000040 ec 03 a4 bb a6 fb bb bd 92 9b d0 3d 83 2c 0e 3e
       -0.0050053503 -0.091788575 0.10185923 0.13884167
000050 88 1e 6f bc 4a 96 7a 3c 80 80 c7 3c ea 32 26 be
       -0.014594682 0.015294621 0.024353266 -0.1623036
000060 e2 86 6a bb be 5b d8 3b 7d c9 a0 bd 86 16 16 3e
       -0.0035785963 0.0066027334 -0.07850931 0.1465703
000070 46 b9 09 3e c4 b4 0b 3e fa 78 3a bd 28 ac 63 3e
       0.13449582 0.13643175 -0.04552553 0.22233641
000080 26 eb 26 3d af 97 1f 3e aa d2 4c 3d b5 68 27 be
       0.0407516 0.15585206 0.050005592 -0.16348536
000090 c7 07 8f bd 69 b2 2d 3b b5 36 fd bd 9a 56 c8 3d
       -0.06983905 0.0026504046 -0.1236395 0.09782143
0000a0 eb 7c 2e 3e 75 b0 34 3e 02 56 ef 3c 6a d2 a1 3b
       0.1703984 0.17645438 0.029215816 0.0049384134
0000b0 54 2a 3b 3d 9d 58 db 3d 4d 14 d8 3c e3 92 11 3e
       0.045694664 0.10710261 0.026376868 0.14216189
0000c0 74 8c 29 bd 4d 54 59 bc e0 15 02 3e fc 3f bb 3b
       -0.041393712 -0.013264728 0.12703657 0.0057144146
0000d0 8b 3b ee bd 93 8f 44 bc 5f c9 bd 3d 2b ef 8d 3d
       -0.11632451 -0.011997121 0.09266924 0.06930383
0000e0 a4 a9 a5 bd 6a d2 a4 3b 52 14 a1 bd e3 7b c3 bd
       -0.08088997 0.005029966 -0.07865204 -0.09545114
0000f0 5d 94 34 3d 38 a8 6d bc 10 c1 5a bd 4a e3 42 be
       0.044086803 -0.0145054385 -0.053406775 -0.19032016
000100 4c cd 17 be 2c 04 19 3c 7b d8 24 3e e2 3f 52 bd
       -0.14824408 0.009339374 0.16098206 -0.051330455
000110 da 34 d8 3d 08 75 61 bc 50 ef e1 bd 73 15 04 3e
       0.10556956 -0.013760813 -0.11031973 0.12898807
000120 64 20 18 3e 3e b4 29 3e 86 3c 83 3d 31 be fa bd
       0.14856106 0.16572663 0.06408028 -0.122433074
000130 0f 95 87 3d c4 d4 02 3e b6 9f c6 3d 98 88 e6 3d
       0.066202275 0.12776476 0.09698431 0.11256522
000140 02 37 13 bd 6d d2 00 3e 97 5d e6 3b a2 f6 28 3e
       -0.03594113 0.12580271 0.0070301997 0.16500333
000150 1d f8 a2 bd 92 7f d7 3d 48 07 fa 3d d9 88 5f be
       -0.0795748 0.10522379 0.1220842 -0.21829547
000160 e2 97 d9 3d c6 c7 d8 bd 14 d5 d8 3d 73 e7 31 be
       0.106246725 -0.10584979 0.105875164 -0.17373447
000170 03 95 ca bd 0c 0e 29 3e 4d 80 00 be 81 cd 6b bd
       -0.09891703 0.16509265 -0.12548943 -0.05756903
000180 8d 3e 79 bd 1d 07 8d 3d 1c 09 1c 3e 09 cd 8d bd
       -0.06085067 0.068861224 0.1523785 -0.06923873
000190 0a ac 4a 3c 7e a0 4e 3d 58 1f 48 bd d5 77 12 3e
       0.012370119 0.050446026 -0.048858017 0.14303525
0001a0 42 e6 3a 3c 51 c0 3e bd 23 d5 2e be 0f 13 4a bd
       0.011407437 -0.046570126 -0.17073493 -0.049334582
0001b0 43 ae c4 3d dd d6 55 be da 78 50 bd 32 b9 20 bd
       0.0960355 -0.20882745 -0.050896503 -0.039239116
0001c0 41 82 bf 3d 78 df 1b 3e 4e 87 eb bd 21 c7 0f be
       0.09351016 0.15221965 -0.11500417 -0.14040805
0001d0 7d 5b 8e 3c fb 58 14 be 8e f7 5f 3e b2 b6 90 bd
       0.01737761 -0.14487068 0.21871778 -0.07066096
0001e0 2c 3e a6 3d e8 44 91 3d 72 4c 01 3e a6 69 95 bd
       0.08117327 0.07093221 0.12626818 -0.072955415
0001f0 49 b8 15 bd 7e 1a bc 3d 52 87 9f 3d 5c 19 87 3e
       -0.0365527 0.091847405 0.07789482 0.26386535
000200 09 0e f5 bc 34 e5 3e bc 52 6d 8e bd a6 c6 b8 3d
       -0.029913919 -0.011651326 -0.06954445 0.09022264
000210 31 cd 65 3c dd 69 1f 3d 28 78 21 be db 3b 9c 3d
       0.014025972 0.03891932 -0.15768492 0.07628604
000220 03 4b a1 3c 9e 5e 19 3e bb 66 2d 3e b4 f5 07 be
       0.019689089 0.149775 0.1693372 -0.13277322
000230 c9 7b 3b be b1 8f 71 bd 85 0e 03 be 2f 46 49 3d
       -0.18308939 -0.058974925 -0.12798508 0.049139198
000240 d0 07 11 3e 40 2d 21 3e 0f 0a 25 3d 71 e3 2c 3d
       0.14163136 0.15739918 0.040292796 0.042209093
000250 b9 8c 0f 3e b2 86 38 3e ba 00 40 be 26 d1 34 be
       0.14018525 0.18020132 -0.18750277 -0.17657909
000260 1b 65 20 be f1 fa 18 3e f9 22 3c 3d ab 4a 02 3e
       -0.15663569 0.14939477 0.04593179 0.12723796
000270 12 6e 5b bd f4 64 b2 3d 84 f7 08 3e cf 92 58 be
       -0.053571768 0.087106615 0.1337567 -0.21149753
000280 9f 3c 8d 3c a2 fd 15 3c 0d 53 cc 3d 63 83 13 3e
       0.01724082 0.009154709 0.09976778 0.14405589
000290 c2 cf de 3d b1 c4 8f 3d 72 46 62 bc 33 36 fa 3d
       0.108794704 0.07019938 -0.013810741 0.12217369
0002a0 bf 83 41 bd 10 dc 13 3d ea b3 1d 3d 02 9c 10 bd
       -0.047244783 0.03609854 0.038501658 -0.03530503
0002b0 5d 85 bc bc 0c c1 2f 3d b4 22 33 be 69 98 2e bd
       -0.023012811 0.042908713 -0.17493707 -0.04262582
0002c0 ba 4e b9 3d 84 e3 17 be ed 3d c6 bd 98 ea e5 3d
       0.09048219 -0.14832884 -0.0967978 0.11226386
0002d0 80 f9 e9 3d ac d3 22 be 4f c5 f3 3c c4 db 98 3d
       0.114245415 -0.15901059 0.02975717 0.07463792
0002e0 6e f1 b5 bd 62 76 62 bd 57 fe 3e 3e 15 5e f1 3c
       -0.0888394 -0.05528868 0.1865171 0.029463807
0002f0 60 43 8a 3d 1d e8 f6 3c 9a 92 ff 3d f8 da 07 3e
       0.06751132 0.030139977 0.12479134 0.13267124
000300 d3 cc 27 be d2 0e 87 bd 57 04 95 bd 8a 32 2a 3e
       -0.16386728 -0.065946236 -0.072762184 0.16620842
000310 f8 bd f1 3d a1 7c bd 3d 44 8b 1d 3e f2 0f 51 3d
       0.11803812 0.09252287 0.15385157 0.051040597
000320 22 9c b4 bd 9c 44 bb bd 7f ac 5b 3d 9c c0 99 3c
       -0.088188425 -0.091439456 0.053631302 0.018768601
000330 53 ab a7 bc 8d c8 6c 3c 71 91 cd 3d dd 0d 24 3e
       -0.020467436 0.014452112 0.10037506 0.16020913
000340 de 3f b3 bd dd de 58 3d 75 c5 ad bc c8 80 f6 3d
       -0.08752416 0.052946914 -0.021212319 0.12036282
000350 46 65 27 3e d4 83 2d be bf d0 cb bc 00 c2 40 be
       0.16347227 -0.1694482 -0.024879811 -0.18824005
000360 18 72 26 3c 7d a4 05 3e cd 6c 0e be af 05 f5 bd
       0.010159038 0.13051029 -0.13908692 -0.11963975
000370 05 6d fe b8 c9 46 f9 bd c2 75 02 3e 5e 77 18 be
       -0.0001213197 -0.12171704 0.12740234 -0.14889285
000380 68 d0 2f 3d 39 f7 7c 3c 3d 84 06 3e 7b ea 4b 3e
       0.04292336 0.015439802 0.13136382 0.19913666
000390 a0 a3 f1 bd f9 9a 92 bd c3 b9 8a 3d 86 8f 9f bd
       -0.11798787 -0.07158465 0.067737125 -0.07791047
0003a0 83 3a ec 3d f4 5b 1c 3d d7 ef d9 3d 08 62 35 be
       0.11534598 0.03817363 0.10641449 -0.17713177
0003b0 24 5a eb 3d d1 5a d9 3d e2 ab b7 3b 53 40 f7 3c
       0.11491802 0.10613025 0.005605207 0.03018204
0003c0 ba 6b b2 3d 2a e2 45 bd 80 21 0a 3d 1a 14 53 3d
       0.087119535 -0.04831139 0.033723354 0.051532842
0003d0 ce 8f 3e bd 6b f6 88 3d 9e 7a 16 3d 49 30 bf bd
       -0.04652386 0.066876255 0.03673803 -0.093353815
0003e0 3e 9a 24 3e b5 2f eb bd bd 88 44 3e f1 a5 69 bd
       0.16074464 -0.11483709 0.19192787 -0.05704302
0003f0 fd 38 e0 bc dd e5 52 bd 76 b4 1b 3e 79 1e 2b bd
       -0.027370924 -0.051488746 0.15205559 -0.041777108

net.2.bias f4 [64]
000000 fa be c9 bd 47 0d 9a bd 61 e7 87 bd 64 47 16 3e
       -0.09850879 -0.07522064 -0.06635929 0.14675671
000010 4b a6 48 3d 00 00 00 00 39 e2 f4 bc 04 40 09 bb
       0.048986714 0.0 -0.029893028 -0.0020942697
000020 9c 1c 02 bd 09 10 4e 3c ee b2 ac bb 60 8f 06 3d
       -0.031765565 0.012577065 -0.0052703535 0.032851577
000030 16 2b ef bc 00 00 00 00 6f 41 75 bd 5b 74 c4 bd
       -0.02919535 0.0 -0.059876855 -0.095925055
000040 33 8a 2c bd 00 00 00 00 8a eb 11 bd 7a 2e 8c bc
       -0.042123985 0.0 -0.03562502 -0.017112006
000050 00 00 00 00 bc cf 83 bb fd 78 cf bd c3 03 6e bd
       0.0 -0.0040225666 -0.101304986 -0.058109056
000060 00 00 00 00 00 00 00 00 76 b7 15 bd e7 1f 92 3c
       0.0 0.0 -0.036551915 0.017837478
000070 15 38 c0 bb fb 9b 53 3d cd 1c 02 bd 3d 45 1b bd
       -0.0058660605 0.051662426 -0.031765748 -0.037907828
000080 00 00 00 00 68 2b 19 bd a8 57 0d bd 8f 1c 02 bd
       0.0 -0.03739491 -0.034507424 -0.031765517
000090 00 00 00 00 37 a5 21 bd 00 00 00 00 4d 8f 51 bc
       0.0 -0.0394642 0.0 -0.012790513
0000a0 2f 5a 8c bd e8 d9 d1 3d 00 7b d9 bc ca 1c 02 bd
       -0.06853139 0.102466404 -0.026547909 -0.031765737
0000b0 00 00 00 00 00 3d 08 3b 78 15 b2 bc 00 00 00 00
       0.0 0.0020788312 -0.021738753 0.0
0000c0 f2 2e 05 bd 00 00 00 00 93 51 bf bd ef f9 a5 bc
       -0.032515474 0.0 -0.09341731 -0.02026078
0000d0 5a d5 eb 3c dc 0a 02 bd b4 1c 02 bd fe 0b 6e ba
       0.028788257 -0.031748638 -0.031765655 -0.00090807665
0000e0 da c9 c4 bb d6 67 85 bd 00 00 00 00 c7 5b 6d bd
       -0.006005508 -0.06513946 0.0 -0.057948854
0000f0 37 11 09 bd 90 27 da 3d 43 d3 4f 3c f1 a4 22 bd
       -0.033463683 0.10652077 0.012684646 -0.03970808

net.4.weight f4 [16, 64]
000000 78 b2 c9 bb 46 10 39 be 61 19 85 bd a3 d2 0d bc
       -0.0061553083 -0.18072614 -0.06498981 -0.008656177
000010 1f cb 52 be df ea 30 3d 43 57 6f 3d b6 2f 03 bd
       -0.20585297 0.04319274 0.05843283 -0.032027923
000020 05 e0 eb 3d d1 b1 60 3d ef 5f a9 3b f2 72 4e be
       0.11517338 0.05485708 0.005168907 -0.20161036
000030 81 df 7f be 90 d6 32 be 99 6f 15 bd bc a2 53 be
       -0.24987604 -0.17464662 -0.03648338 -0.20667547
000040 c4 33 88 be 5c f0 0e be d8 72 01 be 7b 84 86 bd
       -0.26601994 -0.13958877 -0.12641466 -0.065682374
000050 7c a1 9c 3d 6f 36 90 bd ae 3c c2 bd 67 81 06 be
       0.07647988 -0.070416324 -0.0948423 -0.131353
000060 79 1d a8 bd 5f 1f 8f 3d a8 12 09 be 60 49 ce bd
       -0.082087465 0.069884054 -0.13386023 -0.10072589
000070 a5 7b 7e 3e 5e b0 89 be 2f d0 00 be dc 64 ee 3d
       0.24851854 -0.2689237 -0.12579416 0.11640331
000080 e4 9f c2 bd e5 a3 31 be 3a 55 5c bd 9e 48 98 bd
       -0.09503153 -0.17347677 -0.053792216 -0.07435726
000090 45 86 84 3e 2a 68 1e be 6f 8c 81 be 23 98 1b bd
       0.2588369 -0.15469423 -0.25302455 -0.037986886
0000a0 20 8f d2 bd 15 88 07 3e cc 78 45 be 78 ec 40 be
       -0.10281205 0.13235505 -0.19284362 -0.18840206
0000b0 08 3c 66 be a6 8d 1c 3e f0 41 79 be ca 87 53 3e
       -0.22483838 0.1528841 -0.2434156 0.20657268
0000c0 43 ce 69 be 2c bc f8 3d 22 1c 14 3e 35 3c 45 be
       -0.22832589 0.12145266 0.14463857 -0.19261248
0000d0 65 da 19 3e ec cc 50 3e f9 5f 41 3e 40 9d 21 bd
       0.15024717 0.20390671 0.18884267 -0.039456606
0000e0 0d aa 01 be 8a fb 37 3d e8 cd 76 3e 5d d6 8d be
       -0.12662525 0.04491762 0.24101985 -0.2770261
0000f0 35 84 83 3e eb ae 06 be 81 4e 0f 3e 84 66 92 bd
       0.25686803 -0.13152663 0.1399479 -0.071484596
000100 51 f3 27 be 52 cb 8c 3e a2 e9 62 3e 62 39 2b be
       -0.16401412 0.2749887 0.22159436 -0.16721109
000110 12 1b 94 3e 89 2f 47 bd 6d d7 4c be 9b 96 55 be
       0.28926903 -0.048629317 -0.20004053 -0.20858233
000120 86 51 33 3e c6 c0 22 3e 3c 70 17 be 05 c2 12 3e
       0.17511567 0.1589385 -0.14788908 0.14331825
000130 ae db 4d 3c 4c 6f d1 bd 74 95 08 3c 5c d0 3a be
       0.012564583 -0.10226306 0.008336414 -0.18243545
000140 a1 bf 0c 3e 89 4c 2a be fd 50 41 3d 64 15 04 be
       0.13744976 -0.16630758 0.047196377 -0.12898785
000150 ea 11 85 3e c8 8a b8 3a f8 b4 03 3d e1 09 81 3e
       0.2599023 0.0014079446 0.032155007 0.2520285
000160 cf b8 1f be 7e ee f4 3d 04 c0 8a 3e c3 b8 7a 3e
       -0.15597843 0.11959551 0.2709962 0.24484544
000170 72 5d 57 be ed ca 52 3e 45 84 98 3e 3f 23 85 be
       -0.2103174 0.20585223 0.29788414 -0.26003453
000180 e6 21 7f be b6 a5 50 3e e1 da 5e 3d b7 5e 72 3d
       -0.24915275 0.20375714 0.054407958 0.05917236
000190 fd 46 15 be b4 3f 5b be 4e 84 3a 3e 68 27 93 3c
       -0.14577861 -0.2141102 0.18214533 0.017963126
0001a0 6f 4f be 3d dd 8f 34 3d e8 a8 f4 bc 2f 90 9a 3e
       0.092924945 0.04408251 -0.029865697 0.30188128
0001b0 6d ee d0 bd 27 b1 31 bd 0b 42 6a 3e 2b d0 01 3e
       -0.10201726 -0.043381836 0.22876756 0.12677066
0001c0 67 1e 88 3d 5a be 9d 3d aa f4 c8 3d 4f 83 99 3e
       0.06646424 0.07702322 0.09812291 0.29982993
0001d0 93 f1 72 3e b5 9c 7a 3e 50 36 92 be d8 df 8e be
       0.23724966 0.24473841 -0.28557062 -0.27905154
0001e0 b2 a9 70 3e 0b 79 2f 3e ce a2 a2 bd 5e 50 d7 bd
       0.23502234 0.17136018 -0.07941209 -0.10513376
0001f0 3a d1 d4 3d 6e ff 30 be 36 4b 60 3b b2 82 45 3e
       0.10391469 -0.17284939 0.0034224517 0.19288138
000200 a4 02 7f be 50 33 11 3e 7d 9f 25 3c 62 c8 f8 3d
       -0.24903351 0.1417973 0.010108826 0.12147595
000210 a2 25 63 3d 2d d4 73 3e 95 55 06 3e 04 f1 47 3e
       0.05545581 0.23811407 0.13118584 0.19525534
000220 82 a0 6d be 13 6a 4c 3e 5d c8 8b bd f9 46 05 3e
       -0.2320576 0.19962339 -0.06825326 0.13015355
000230 ba 78 2d be 4a 61 2d be 76 dc 9e be b4 f6 2f be
       -0.16940585 -0.16931644 -0.31027573 -0.17183954
000240 bb 52 4e 3e 04 b5 60 3e d0 07 26 3d 6e 2a 36 be
       0.20148747 0.21944052 0.040534794 -0.17789623
000250 fc 67 4a be 59 45 37 be c0 22 19 be 7f d8 39 be
       -0.1976623 -0.17897548 -0.14954662 -0.18148993
000260 cc 18 84 be 2f cc 04 3d d2 1a 0b bb 73 bd f5 3d
       -0.2580017 0.032421287 -0.0021225703 0.11999025
000270 15 f2 27 be 5c 59 79 be f4 da 33 be 02 2b 3b 3e
       -0.1640094 -0.24350494 -0.17563993 0.18278125
000280 83 09 81 be 1c a8 92 be 51 2d e7 34 d7 62 88 3e
       -0.2520257 -0.28643882 4.3060075e-07 0.2663791
000290 c7 28 4e be d7 c3 0b 3e d3 68 06 bd 3e c6 42 be
       -0.20132743 0.13648926 -0.032814812 -0.19020936
0002a0 a5 a5 03 3e ac 5d 85 bd aa 75 11 bd d8 e8 6d be
       0.12856157 -0.06512007 -0.035512604 -0.23233354
0002b0 30 bf 39 3d d9 2d 62 bb ef 16 8d be c5 eb 03 be
       0.045348346 -0.003451219 -0.2755656 -0.12882908
0002c0 ae 2e 91 be 29 0e 34 be 6d e2 62 be 92 b9 89 be
       -0.28355926 -0.17583527 -0.22156687 -0.2689939
0002d0 29 23 cb 3d 97 e4 87 3e 50 68 a3 3b 25 f0 0e 3e
       0.09918816 0.26541588 0.0049868003 0.13958795
0002e0 6d 32 97 3d 12 74 b1 3d 53 0e 0d 3e d1 a8 59 be
       0.07382665 0.08664717 0.13774996 -0.21255805
0002f0 2b 10 88 be 03 d7 5c be bf e5 e4 bd e5 6a 07 3e
       -0.26574835 -0.21566395 -0.11176633 0.13224371
000300 fb c1 3a 3e 8f 7f 01 3d f2 e3 6d 3d 8a 2a 3d bd
       0.1823806 0.03161579 0.058078714 -0.046183147
000310 9b 63 0c be 04 b2 0e bd b0 2f 12 3d 72 ef f7 bd
       -0.13709871 -0.034837738 0.03569001 -0.121062174
000320 00 ab d5 3c 63 c4 68 3e 5a 37 30 3e 6c c1 8b be
       0.026082516 0.22731166 0.17208615 -0.27296007
000330 0e d0 84 be d3 95 60 3e 2a 6a 84 bc 73 09 69 be
       -0.25939983 0.21932153 -0.016163904 -0.22757511
000340 e0 99 08 3e b0 18 24 be cb 0d 60 3e 67 83 73 3e
       0.13339949 -0.16025043 0.21880262 0.23780595
000350 cc 6b 64 3e 99 9b 45 3e 15 6d 0f 3e 17 4a 87 bb
       0.22306746 0.19297637 0.14006455 -0.0041287052
000360 ad 42 bc 3d 66 a6 dd bd 62 8f d7 bd dc 7f 45 be
       0.09192405 -0.108227536 -0.10525395 -0.19287056
000370 7a c9 5e 3e ed 85 a9 bd f2 72 46 bd 1b d1 89 3e
       0.21756545 -0.082774974 -0.048449464 0.26917347
000380 a8 48 a6 3d 8c ab 41 3e c5 19 7e be 47 7f 6f 3e
       0.08119327 0.18913096 -0.24814518 0.23388396
000390 e5 fb 35 be 05 99 a5 bd b2 78 43 3e ca 3a 8f be
       -0.17771871 -0.08085827 0.1908901 -0.2797454
0003a0 4b 3c 33 be 9e 28 25 3e 43 62 6e be 23 b2 51 3e
       -0.17503469 0.16128775 -0.23279671 0.2047811
0003b0 81 fa 7d 3d 04 45 b4 bd 1b b9 5d 3e 24 05 92 3d
       0.062006477 -0.08802226 0.21652643 0.07129887
0003c0 69 17 a7 3d 1b 3b cb bd 88 2c 41 3e 8b c7 a8 bd
       0.08158762 -0.09923383 0.18864644 -0.08241185
0003d0 11 32 3c 3e a2 e2 13 be 2c dd 85 3e 48 3e 98 be
       0.18378474 -0.14441922 0.26145303 -0.29735017
0003e0 ae 0f b7 3d 46 e3 2a 3e fa dc cd bc 77 ea 2b be
       0.089385375 0.1668826 -0.025129784 -0.1678866
0003f0 ad d7 18 3d 05 32 82 3c 1c 51 4b be 4a 7c 81 3d
       0.03731506 0.015892992 -0.1985516 0.063225344

net.4.bias f4 [16]
000000 6e e7 48 bd 92 18 e6 3d 2f 85 81 bd 71 44 22 3d
       -0.049048834 0.11235155 -0.06324231 0.039616052
000010 40 9c f3 bc 06 83 ef bd 0f 8b 02 3d ac 7c 01 bc
       -0.029737592 -0.116949126 0.031870898 -0.007903259
000020 04 70 0a 3e 36 15 81 bd c6 63 07 bc 0e 5d 16 bd
       0.13519293 -0.06302874 -0.008263534 -0.036709838
000030 d1 1c 02 bd e1 ed f9 3d 00 00 00 00 44 09 23 bd
       -0.031765763 0.12203575 0.0 -0.03980376

net.6.weight f4 [1, 16]
000000 89 60 9f 3e 13 d6 f9 3c 71 00 4a 3e 2e a5 59 3d
       0.31128338 0.030497586 0.19726731 0.053136043
000010 d8 d7 e4 3e c5 60 72 be 02 7b 49 3e 4b 72 8b 3e
       0.44695926 -0.23669727 0.1967583 0.27235636
000020 23 a8 21 3e 77 83 62 be 8e 9e 55 be 09 5f 05 bf
       0.15786795 -0.22120462 -0.20861265 -0.5209814
000030 e8 d7 e9 be de 76 6c 3d 45 40 af bd 96 ba f6 be
       -0.45672536 0.057730548 -0.0855718 -0.4818923

exp_avg f4 [128, 48]
000000 04 00 00 00 04 00 00 00 00 00 00 00 04 00 00 00
       6e-45 6e-45 0.0 6e-45
000010 04 00 00 80 04 00 00 80 04 00 00 00 04 00 00 00
       -6e-45 -6e-45 6e-45 6e-45
000020 04 00 00 00 04 00 00 00 00 00 00 00 04 00 00 00
       6e-45 6e-45 0.0 6e-45
000030 04 00 00 80 04 00 00 80 04 00 00 80 04 00 00 00
       -6e-45 -6e-45 -6e-45 6e-45
000040 04 00 00 00 04 00 00 00 04 00 00 00 04 00 00 00
       6e-45 6e-45 6e-45 6e-45
000050 04 00 00 00 04 00 00 00 04 00 00 00 04 00 00 00
       6e-45 6e-45 6e-45 6e-45
000060 04 00 00 00 04 00 00 00 04 00 00 00 04 00 00 00
       6e-45 6e-45 6e-45 6e-45
000070 04 00 00 00 04 00 00 00 04 00 00 00 04 00 00 00
       6e-45 6e-45 6e-45 6e-45
000080 04 00 00 00 04 00 00 00 04 00 00 00 04 00 00 00
       6e-45 6e-45 6e-45 6e-45
000090 04 00 00 00 04 00 00 00 04 00 00 00 04 00 00 00
       6e-45 6e-45 6e-45 6e-45
0000a0 04 00 00 00 04 00 00 00 04 00 00 00 04 00 00 00
       6e-45 6e-45 6e-45 6e-45
0000b0 00 00 00 00 04 00 00 00 04 00 00 00 04 00 00 80
       0.0 6e-45 6e-45 -6e-45
0000c0 9d cc 8a 37 26 0f 01 38 9e 02 db 36 44 60 dc 36
       1.6546162e-05 3.0770105e-05 6.5270133e-06 6.5677177e-06
0000d0 c1 03 83 37 cb cf 37 37 35 14 ac 37 c6 5a 7c a6
       1.5618165e-05 1.0956031e-05 2.0513407e-05 -8.7553084e-16
0000e0 90 4e 81 3a f3 17 b7 3a 5a b0 12 3a 22 1c 4a 39
       0.0009865332 0.0013968929 0.00055957364 0.00019274701
0000f0 47 86 80 3a a6 0f 58 3a 63 ad 98 3a 04 00 00 00
       0.0009805643 0.0008242078 0.0011648353 6e-45
000100 80 8e fb 34 65 02 5b 35 05 4c 7a 34 8d 46 47 34
       4.6856076e-07 8.158734e-07 2.331072e-07 1.8558985e-07
000110 f7 4b fa 34 fe b8 bb 34 7c 6f 1c 35 b7 95 33 32
       4.66214e-07 3.4966064e-07 5.827676e-07 1.04532125e-08
000120 b7 95 33 32 1d 32 0f 33 ee 4b fa 33 ee 4b fa 33
       1.04532125e-08 3.334036e-08 1.1655344e-07 1.1655344e-07
000130 44 85 5a 38 b7 2a ab 33 b5 3d 1f 35 3d 20 ab 35
       5.2099364e-05 7.970578e-08 5.932191e-07 1.2749875e-06
000140 8b bd cf 33 54 f8 04 36 d0 b2 2a 36 c4 61 be 32
       9.673666e-08 1.9814079e-06 2.5436057e-06 2.216337e-08
000150 14 a7 ea 35 24 4b 31 35 a9 e7 cd 25 ab 3a dd 27
       1.7482985e-06 6.604698e-07 3.571881e-16 6.140343e-15
000160 fe 8f 53 29 c6 4b fa 33 ad 4b fa 33 2d 85 5a 38
       4.6976305e-14 1.1655315e-07 1.16552975e-07 5.209928e-05
000170 ee ac a9 2a 3c fd b8 b2 8e 6c 41 b5 cb b0 d6 b1
       3.0140425e-13 -2.1535577e-08 -7.205607e-07 -6.2483188e-09
000180 04 00 00 80 04 00 00 80 04 00 00 00 04 00 00 80
       -6e-45 -6e-45 6e-45 -6e-45
000190 04 00 00 00 04 00 00 00 04 00 00 00 04 00 00 80
       6e-45 6e-45 6e-45 -6e-45
0001a0 04 00 00 80 04 00 00 80 04 00 00 00 04 00 00 80
       -6e-45 -6e-45 6e-45 -6e-45
0001b0 04 00 00 00 04 00 00 00 04 00 00 00 04 00 00 80
       6e-45 6e-45 6e-45 -6e-45
0001c0 04 00 00 80 04 00 00 80 04 00 00 00 04 00 00 80
       -6e-45 -6e-45 6e-45 -6e-45
0001d0 04 00 00 00 04 00 00 00 04 00 00 00 04 00 00 80
       6e-45 6e-45 6e-45 -6e-45
0001e0 04 00 00 80 04 00 00 80 04 00 00 80 04 00 00 80
       -6e-45 -6e-45 -6e-45 -6e-45
0001f0 04 00 00 80 04 00 00 80 04 00 00 80 04 00 00 80
       -6e-45 -6e-45 -6e-45 -6e-45
000200 04 00 00 80 04 00 00 80 04 00 00 80 04 00 00 80
       -6e-45 -6e-45 -6e-45 -6e-45
000210 04 00 00 80 04 00 00 80 04 00 00 80 04 00 00 80
       -6e-45 -6e-45 -6e-45 -6e-45
000220 04 00 00 80 04 00 00 80 04 00 00 80 04 00 00 80
       -6e-45 -6e-45 -6e-45 -6e-45
000230 04 00 00 00 04 00 00 80 04 00 00 80 04 00 00 80
       6e-45 -6e-45 -6e-45 -6e-45
000240 04 00 00 00 04 00 00 00 04 00 00 00 04 00 00 00
       6e-45 6e-45 6e-45 6e-45
000250 04 00 00 00 04 00 00 00 04 00 00 00 04 00 00 00
       6e-45 6e-45 6e-45 6e-45
000260 04 00 00 00 04 00 00 00 04 00 00 00 04 00 00 00
       6e-45 6e-45 6e-45 6e-45
000270 04 00 00 00 04 00 00 00 04 00 00 00 04 00 00 80
       6e-45 6e-45 6e-45 -6e-45
000280 04 00 00 00 04 00 00 00 04 00 00 00 04 00 00 00
       6e-45 6e-45 6e-45 6e-45
000290 04 00 00 00 04 00 00 00 04 00 00 00 04 00 00 00
       6e-45 6e-45 6e-45 6e-45
0002a0 04 00 00 00 04 00 00 00 04 00 00 00 04 00 00 00
       6e-45 6e-45 6e-45 6e-45
0002b0 04 00 00 00 04 00 00 00 04 00 00 00 04 00 00 00
       6e-45 6e-45 6e-45 6e-45
0002c0 04 00 00 00 04 00 00 00 04 00 00 00 04 00 00 00
       6e-45 6e-45 6e-45 6e-45
0002d0 04 00 00 00 04 00 00 00 04 00 00 00 04 00 00 00
       6e-45 6e-45 6e-45 6e-45
0002e0 04 00 00 00 04 00 00 00 04 00 00 00 04 00 00 00
       6e-45 6e-45 6e-45 6e-45
0002f0 04 00 00 80 04 00 00 80 04 00 00 80 04 00 00 80
       -6e-45 -6e-45 -6e-45 -6e-45
000300 04 00 00 00 04 00 00 00 04 00 00 00 04 00 00 00
       6e-45 6e-45 6e-45 6e-45
000310 04 00 00 00 04 00 00 00 04 00 00 00 04 00 00 00
       6e-45 6e-45 6e-45 6e-45
000320 04 00 00 00 04 00 00 00 04 00 00 00 04 00 00 00
       6e-45 6e-45 6e-45 6e-45
000330 04 00 00 00 04 00 00 00 04 00 00 00 04 00 00 00
       6e-45 6e-45 6e-45 6e-45
000340 04 00 00 00 04 00 00 00 04 00 00 00 04 00 00 00
       6e-45 6e-45 6e-45 6e-45
000350 04 00 00 00 04 00 00 00 04 00 00 00 04 00 00 00
       6e-45 6e-45 6e-45 6e-45
000360 04 00 00 00 04 00 00 00 04 00 00 00 04 00 00 00
       6e-45 6e-45 6e-45 6e-45
000370 04 00 00 00 04 00 00 00 04 00 00 00 04 00 00 00
       6e-45 6e-45 6e-45 6e-45
000380 04 00 00 00 04 00 00 00 04 00 00 00 04 00 00 00
       6e-45 6e-45 6e-45 6e-45
000390 04 00 00 00 04 00 00 00 04 00 00 00 04 00 00 00
       6e-45 6e-45 6e-45 6e-45
0003a0 04 00 00 00 04 00 00 00 04 00 00 00 04 00 00 00
       6e-45 6e-45 6e-45 6e-45
0003b0 04 00 00 00 04 00 00 00 04 00 00 00 04 00 00 80
       6e-45 6e-45 6e-45 -6e-45
0003c0 35 ef 85 3d 4a de fa 3d 72 19 92 bb b4 40 15 3d
       0.06539766 0.122494295 -0.0044585997 0.03643866
0003d0 83 cf 64 3d 19 74 f6 3c 67 41 ca 3d a2 a9 db b6
       0.05586196 0.030084657 0.09875756 -6.5464565e-06
0003e0 99 95 43 40 ee b8 81 40 12 25 db 3f 3e 69 2d 3f
       3.0560057 4.0538244 1.7120688 0.6773871
0003f0 e4 3e 57 40 c3 71 31 40 25 70 69 40 04 00 00 00
       3.3632135 2.7725685 3.6474698 6e-45

exp_avg_sq f4 [128, 48]
000000 46 32 be 36 b9 c7 82 3b 00 00 00 00 6f df bf 38
       5.668294e-06 0.003991094 0.0 9.1492075e-05
000010 e0 e1 c7 2a e0 e1 c7 2a 7e c8 3b 32 cf 20 0d 33
       3.5506233e-13 3.5506233e-13 1.0930419e-08 3.285896e-08
000020 13 a7 ac 3c 4e b5 be 40 00 00 00 00 2f ed 66 3e
       0.021075761 5.959632 0.0 0.22551416
000030 63 0c a5 2f 63 0c a5 2f 3a 6d 55 3b 74 18 08 33
       3.0022126e-10 3.0022126e-10 0.0032566325 3.1687208e-08
000040 18 22 a1 31 62 3f 1b 36 64 43 c3 2b 51 73 8b 33
       4.6895927e-09 2.3133694e-06 1.3874288e-12 6.493668e-08
000050 3e 91 2d 2c 3e 91 2d 2c b4 b8 52 2d b3 b4 1f 2c
       2.4665404e-12 2.4665404e-12 1.197813e-11 2.2695567e-12
000060 ce 7b 4c 2c ec 19 de 2f 45 fb 86 2f 65 8d 35 34
       2.905887e-12 4.0399983e-10 2.4552996e-10 1.6908378e-07
000070 1d 93 ea 3a 63 42 04 2e bb 2d db 31 b1 50 43 35
       0.0017896626 3.007229e-11 6.378938e-09 7.276058e-07
000080 25 85 02 33 fd c3 c8 36 f7 f0 b3 3b 7b 69 f8 32
       3.0389078e-08 5.9832805e-06 0.0054913717 2.8918967e-08
000090 f4 ad f8 36 09 f1 83 3b ff d0 70 2a e7 6a 1d 2c
       7.4112268e-06 0.0040265364 2.1388792e-13 2.2370385e-12
0000a0 13 0e 8a 30 f0 bd 23 33 f0 bd 23 33 f7 cb 95 3f
       1.0044822e-09 3.8124142e-08 3.8124142e-08 1.170287
0000b0 00 00 00 00 ec 85 a6 2d 47 9b 84 33 01 9d 3b 2d
       0.0 1.8931488e-11 6.174974e-08 1.0664581e-11
0000c0 c1 85 7a 3f c4 d8 93 40 c6 f9 d1 3d f3 69 5c 3e
       0.9786034 4.6202106 0.102527186 0.21524791
0000d0 6e 91 5c 3f 14 28 b0 3e 68 8a ee 3f 6d 87 81 37
       0.8615941 0.34405577 1.8635988 1.544106e-05
0000e0 92 c5 2e 45 a0 6f e0 45 65 42 59 44 dd a0 38 43
       2796.3481 7181.953 869.0374 184.62837
0000f0 08 81 3f 45 92 64 02 45 37 2f 65 45 65 7c 5a 37
       3064.0645 2086.2856 3666.951 1.3022775e-05
000100 84 a4 24 3a fa 12 36 3b 21 a3 e0 38 24 fc 17 39
       0.0006280618 0.0027782307 0.000107115375 0.00014494412
000110 f6 d7 05 3a e5 98 7b 39 1d a3 a4 3a 6b 33 b3 34
       0.0005105728 0.00023994183 0.0012560819 3.337876e-07
000120 40 7c e1 34 27 6d 87 36 2d f1 f3 37 a2 98 33 39
       4.199992e-07 4.0360205e-06 2.9080164e-05 0.0001712763
000130 98 39 86 40 23 46 b3 36 58 59 8a 3a 2c e8 d4 3b
       4.1945305 5.3427807e-06 0.0010555191 0.0064974036
000140 d2 f8 05 38 14 43 22 3c eb 7a 9f 40 5a 7f 81 37
       3.1941403e-05 0.009903688 4.9837546 1.5437301e-05
000150 18 b3 0b 3c 07 68 aa 40 e2 01 3c 31 22 8d 74 33
       0.008526586 5.3251987 2.735867e-09 5.6939037e-08
000160 8d df 45 36 94 b8 c1 37 e2 d3 13 38 f1 96 e2 44
       2.9485411e-06 2.3093344e-05 3.5244862e-05 1812.7169
000170 0b c1 b0 37 70 ca 3c 36 d4 57 a7 39 1f 9d 10 34
       2.1070728e-05 2.8132017e-06 0.0003191816 1.3468205e-07
000180 d3 38 0e 3c 5a 12 54 3e 03 dc 2c 3a 9f b3 9c 3b
       0.00868054 0.20710126 0.00065940636 0.0047821547
000190 db 2b e2 3b d6 27 36 3b 15 c1 80 3c 99 a4 e0 35
       0.0069022006 0.002779474 0.015717069 1.6737205e-06
0001a0 4e 62 ee 41 28 1e ba 43 af 1f c4 40 38 3c 27 41
       29.798 372.2356 6.1288676 10.452202
0001b0 26 22 f5 41 a7 98 a5 41 0f 2a 17 42 3f 20 c9 35
       30.641674 20.699537 37.791073 1.4985052e-06
0001c0 57 fe b2 36 39 c8 03 39 16 ea 53 35 1d 02 51 36
       5.3344224e-06 0.00012567722 7.8944265e-07 3.1144657e-06
0001d0 11 b0 8b 36 a5 74 f6 35 04 f4 26 37 4d d0 46 31
       4.1630196e-06 1.8362376e-06 9.951185e-06 2.8931197e-09
0001e0 b2 a2 63 31 cf 52 49 33 fd 2e b0 34 b6 7a 83 37
       3.312533e-09 4.6874273e-08 3.2816743e-07 1.5673559e-05
0001f0 e0 58 0e 3e 06 bc 89 33 ec 4b 0c 37 a6 91 bb 38
       0.1390109 6.413761e-08 8.362327e-06 8.943984e-05
000200 de fd fd 35 73 c0 3a 3a 94 ba 15 3f 13 dd d9 35
       1.8923854e-06 0.0007124014 0.5848782 1.6232101e-06
000210 d6 d1 1e 3a 46 21 24 3f db 1d 2a 2e 31 81 18 30
       0.00060584897 0.6411327 3.8680042e-11 5.548087e-10
000220 ff e4 75 33 58 09 1a 36 0b ad 1a 36 13 f9 51 43
       5.725178e-08 2.2953227e-06 2.3048513e-06 209.97295
000230 b1 f3 1c 33 b6 38 97 32 99 02 56 36 91 67 7f 30
       3.6543216e-08 1.7604503e-08 3.1889997e-06 9.2915636e-10
000240 26 0a 12 3d de cc 0e 3e 7a 7d 20 3b 44 32 12 3c
       0.03565421 0.13945338 0.0024488852 0.008923117
000250 a1 4a f2 3c bb 73 3b 3c 01 ee 8b 3d f3 6c b9 2b
       0.029576601 0.0114411665 0.06832505 1.317528e-12
000260 1d 97 f6 42 b0 36 56 43 22 53 b8 41 95 1b a3 40
       123.29514 214.21362 23.040592 5.097117
000270 d7 7c 08 43 f0 b3 b7 42 60 f8 25 43 d5 a5 a7 2b
       136.48766 91.85144 165.97021 1.1912091e-12
000280 b9 0a b2 37 8e 74 b7 38 16 bd 4f 36 cd a2 c8 36
       2.1224247e-05 8.74783e-05 3.0955466e-06 5.979417e-06
000290 88 ab 8f 37 3b 7f ed 36 61 3a 30 38 74 d9 4b 32
       1.7126804e-05 7.077962e-06 4.201604e-05 1.1865598e-08
0002a0 74 d8 63 32 e7 1a 14 34 c5 75 b7 35 9c 7b b7 35
       1.3262355e-08 1.3793361e-07 1.3668838e-06 1.3670538e-06
0002b0 8f 91 5d 3e d5 b6 94 34 c6 94 06 38 1d 4a 6f 39
       0.21637557 2.7700176e-07 3.2086646e-05 0.00022820426
0002c0 82 09 33 35 c7 03 5f 39 8c cd 3b 3a f8 ac 8c 33
       6.669653e-07 0.00021268344 0.0007164113 6.550721e-08
0002d0 9e 56 2c 39 54 35 7f 39 e8 d1 ed 2e 65 0a ee 30
       0.00016435466 0.00024338561 1.0814799e-10 1.7319733e-09
0002e0 87 a0 d9 33 38 f8 b3 35 5a 76 b4 35 f0 b2 4c 3e
       1.013405e-07 1.340878e-06 1.344549e-06 0.19990134
0002f0 05 94 b0 32 b2 1c 86 33 4d 8d 47 36 49 d3 3d 31
       2.0556408e-08 6.245081e-08 2.9735559e-06 2.7623221e-09
000300 4a b4 03 3a 98 24 0c 3d 9c 75 27 38 8c 58 06 3a
       0.00050241186 0.034214586 3.9925435e-05 0.0005124889
000310 b2 fb c5 39 8d 3e 2a 39 fd 8a 68 3a 55 6c aa 34
       0.00037762296 0.00016235765 0.00088708085 3.174379e-07
000320 5a 12 ef 3f 9b 01 6d 42 c7 ff fb 3e 79 04 cf 3f
       1.8677475 59.251568 0.4921858 1.617324
000330 53 fe d2 3f 1f c7 97 3f 89 77 f7 3f 62 c2 ce 33
       1.6483864 1.1857642 1.9333354 9.6279805e-08
000340 35 1b a9 34 8e f1 d0 37 0c 30 19 33 e7 2f b8 34
       3.14985e-07 2.4908015e-05 3.5666787e-08 3.4307524e-07
000350 c8 9a 5d 34 9a 19 c2 33 3d ed 25 35 83 4a 87 2f
       2.0638538e-07 9.038486e-08 6.1812517e-07 2.46093e-10
000360 4b 83 a2 2f 63 3e a7 31 87 1f 9b 32 6a 1a 6e 36
       2.9560918e-10 4.8674322e-09 1.8058712e-08 3.5480139e-06
000370 87 17 94 3c cb 36 68 31 a6 fd 16 35 7a ed 1d 37
       0.018077625 3.379159e-09 5.624846e-07 9.413221e-06
000380 9b ee a7 34 67 4c 22 39 e8 46 9d 3d 92 7a 97 34
       3.1279782e-07 0.00015477986 0.0767954 2.8215123e-07
000390 83 6e 37 39 27 18 96 3d 80 45 0a 2d 36 a9 07 2f
       0.00017493409 0.073288254 7.859824e-12 1.2338294e-10
0003a0 10 2f 38 32 a9 c5 d1 34 a9 c5 d1 34 f1 0b 17 42
       1.072091e-08 3.90731e-07 3.90731e-07 37.76166
0003b0 1c a3 48 29 0f 40 94 30 14 01 d0 33 52 f2 89 2e
       4.4550396e-14 1.0786624e-09 9.685951e-08 6.2730834e-11
0003c0 9e 53 14 41 73 a4 eb 41 01 f0 84 3f 52 23 de 3f
       9.270414 29.455297 1.0385743 1.7354529
0003d0 25 45 03 41 83 5e 52 40 42 e0 8c 41 22 33 b0 31
       8.204381 3.2870185 17.6095 5.1280873e-09
0003e0 09 38 cb 46 5f b2 24 47 c5 e4 fb 45 c8 fc 54 44
       26012.018 42162.37 8060.596 851.9497
0003f0 64 6f e4 46 c8 b5 93 46 ac 56 06 47 20 2c 08 32
       29239.695 18906.89 34390.67 7.926275e-09

exp_avg f4 [128]
000000 04 00 00 00 ee 4b fa 33 04 00 00 80 04 00 00 00
       6e-45 1.1655344e-07 -6e-45 6e-45
000010 04 00 00 00 a6 5b 94 39 f8 84 95 b8 04 00 00 80
       6e-45 0.00028297043 -7.129641e-05 -6e-45
000020 00 00 00 00 ff 20 48 3a 04 00 00 00 ef 11 a2 b9
       0.0 0.00076343113 6e-45 -0.0003091241
000030 24 b5 05 39 44 f5 dc 39 00 00 00 00 04 00 00 00
       0.00012751349 0.00042144407 0.0 6e-45
000040 b6 7e 86 b9 04 00 00 00 9c dc 22 b9 04 00 00 00
       -0.0002565288 6e-45 -0.00015531707 6e-45
000050 9b e7 d3 b9 31 27 05 3a 04 00 00 00 94 d7 a4 39
       -0.00040417616 0.00050793873 6e-45 0.00031441136
000060 04 00 00 00 04 00 00 80 04 00 00 00 1f be b9 0a
       6e-45 -6e-45 6e-45 1.7886368e-32
000070 da 5d b3 38 04 00 00 00 04 00 00 00 ff 97 13 ba
       8.552866e-05 6e-45 6e-45 -0.0005630254
000080 00 00 00 00 04 00 00 00 00 00 00 00 00 00 00 00
       0.0 6e-45 0.0 0.0
000090 46 2f 32 b8 04 00 00 00 04 00 00 00 c7 70 4b 15
       -4.2482534e-05 6e-45 6e-45 4.108449e-26
0000a0 00 00 00 00 04 00 00 00 04 00 00 00 02 f6 3a 39
       0.0 6e-45 6e-45 0.00017829987
0000b0 04 00 00 00 07 b4 93 38 00 00 00 00 47 7b a6 39
       6e-45 7.043039e-05 0.0 0.00031753836
0000c0 04 00 00 00 04 00 00 00 1d 96 1c 3a 04 00 00 00
       6e-45 6e-45 0.00059732964 6e-45
0000d0 09 93 24 b9 00 00 00 00 00 00 00 00 00 00 00 00
       -0.00015695034 0.0 0.0 0.0
0000e0 76 bb 3f b9 bd f3 09 ba 04 00 00 80 04 00 00 00
       -0.00018285014 -0.0005262455 -6e-45 6e-45
0000f0 04 00 00 00 0a b3 03 20 83 c0 42 b9 04 00 00 00
       6e-45 1.1155371e-19 -0.00018572998 6e-45
000100 00 00 00 00 04 00 00 00 04 00 00 00 04 00 00 00
       0.0 6e-45 6e-45 6e-45
000110 04 00 00 00 04 00 00 00 7e cf 4c b8 04 00 00 00
       6e-45 6e-45 -4.8830632e-05 6e-45
000120 04 00 00 00 04 00 00 80 59 e4 03 ba 7b e0 27 0b
       6e-45 -6e-45 -0.000503128 3.233191e-32
000130 89 3a 91 b7 00 00 00 00 00 6e 1c 39 e4 01 d2 b9
       -1.7312605e-05 0.0 0.00014918298 -0.0004005573
000140 69 1d 7e 39 00 00 00 00 00 00 00 00 ce 32 22 3a
       0.00024234284 0.0 0.0 0.000618738
000150 04 00 00 00 04 00 00 80 00 00 00 00 57 05 02 3b
       6e-45 -6e-45 0.0 0.0019839609
000160 79 77 74 ba 00 00 00 00 04 00 00 80 00 00 00 00
       -0.0009325664 0.0 -6e-45 0.0
000170 00 00 00 00 34 5a 73 11 04 00 00 00 04 00 00 00
       0.0 1.9197116e-28 6e-45 6e-45
000180 00 00 00 00 00 00 00 00 00 00 00 00 04 00 00 00
       0.0 0.0 0.0 6e-45
000190 fa 03 68 3a 00 00 00 00 c0 e5 11 3a 00 00 00 00
       0.000885069 0.0 0.00055655465 0.0
0001a0 04 00 00 80 04 00 00 00 00 00 00 00 04 00 00 00
       -6e-45 6e-45 0.0 6e-45
0001b0 04 00 00 00 04 00 00 00 0e 19 63 39 04 00 00 00
       6e-45 6e-45 0.0002165774 6e-45
0001c0 00 00 00 00 04 00 00 00 04 00 00 80 04 00 00 00
       0.0 6e-45 -6e-45 6e-45
0001d0 00 00 00 00 bb 1e a9 b9 04 00 00 00 00 00 00 00
       0.0 -0.00032257088 6e-45 0.0
0001e0 04 00 00 00 83 43 eb b9 04 00 00 00 00 00 00 00
       6e-45 -0.00044872993 6e-45 0.0
0001f0 04 00 00 00 04 00 00 00 04 00 00 00 04 00 00 00
       6e-45 6e-45 6e-45 6e-45

exp_avg_sq f4 [128]
000000 f0 bd 23 33 be 3f 43 38 a3 2e 1d 36 b8 76 b7 35
       3.8124142e-08 4.6550987e-05 2.342197e-06 1.3669114e-06
000010 a9 c5 d1 34 9e f9 8c 39 e3 37 39 37 e9 a1 cb 35
       3.90731e-07 0.0002688886 1.1039871e-05 1.5171801e-06
000020 00 00 00 00 06 15 24 3b 19 63 12 35 9c d6 06 3a
       0.0 0.0025036945 5.4533444e-07 0.00051436736
000030 f7 b5 b8 38 0d ec c4 39 00 00 00 00 8f b9 2a 33
       8.807697e-05 0.00037559905 0.0 3.9749974e-08
000040 25 4b c9 39 d0 0c aa 28 b4 f5 a1 39 1e 19 2b 2a
       0.00038393695 1.8879348e-14 0.00030891376 1.5196565e-13
000050 18 5d 9a 39 5b 87 bf 3a 5e dc 1b 35 9c c0 3e 3a
       0.0002944253 0.0014612483 5.8062676e-07 0.0007276626
000060 ab 51 10 33 d4 e1 1c 36 e7 67 39 37 05 a7 e8 37
       3.360189e-08 2.337726e-06 1.1051051e-05 2.773433e-05
000070 94 ef 25 39 4b 78 d7 35 43 b5 66 32 c9 54 06 3b
       0.00015824876 1.6053758e-06 1.3428976e-08 0.0020497313
000080 00 00 00 00 d2 28 a3 35 00 00 00 00 00 00 00 00
       0.0 1.2156327e-06 0.0 0.0
000090 38 84 79 37 10 0c 0e 38 ee 5b 4d 2f ec f9 fa 37
       1.4872341e-05 3.3866672e-05 1.8677301e-10 2.9918701e-05
0000a0 00 00 00 00 57 26 06 33 a8 55 07 36 b8 4e 0a 39
       0.0 3.1234176e-08 2.0166426e-06 0.0001319003
0000b0 08 8f 0c 37 50 85 00 38 00 00 00 00 75 0c 41 3a
       8.377952e-06 3.0641735e-05 0.0 0.0007364222
0000c0 42 47 b2 30 1c d8 b7 37 44 35 b2 3a af 60 c7 36
       1.2971457e-09 2.1915934e-05 0.0013596197 5.9419176e-06
0000d0 71 d7 29 39 00 00 00 00 00 00 00 00 00 00 00 00
       0.00016197354 0.0 0.0 0.0
0000e0 2e 2c fc 38 9e bf 82 3a d8 f9 86 34 2f e0 fd 36
       0.000120245255 0.0009975319 2.514123e-07 7.566086e-06
0000f0 8c 72 d0 35 d0 95 02 38 de 21 e3 38 79 8c 54 34
       1.5530545e-06 3.113394e-05 0.00010830512 1.9795142e-07
000100 00 00 00 00 45 f3 d6 35 f2 30 2b 2b 99 14 7a 2d
       0.0 1.6015043e-06 6.081933e-13 1.4215428e-11
000110 13 6f 87 37 cc 42 bc 35 da 67 47 38 fb 87 29 2f
       1.6144977e-05 1.4026532e-06 4.7542017e-05 1.541877e-10
000120 88 be d1 37 39 24 84 35 18 34 b4 3a 5f f8 dc 37
       2.5003465e-05 9.845309e-07 0.0013748435 2.63417e-05
000130 26 fa 0b 38 00 00 00 00 99 18 87 39 a3 04 c7 3a
       3.337315e-05 0.0 0.00025767533 0.0015183877
000140 1b a5 d5 39 00 00 00 00 00 00 00 00 ef d7 18 3b
       0.0004074954 0.0 0.0 0.0023322066
000150 40 fc ad 34 2c 53 6f 2a 00 00 00 00 06 ef ae 3c
       3.2407297e-07 2.125632e-13 0.0 0.02135421
000160 b5 7f 84 3b 00 00 00 00 09 23 f5 36 00 00 00 00
       0.004043544 0.0 7.3056476e-06 0.0
000170 00 00 00 00 80 37 df 37 db da d5 32 2f de 6e 32
       0.0 2.6609516e-05 2.4895987e-08 1.3903942e-08
000180 00 00 00 00 00 00 00 00 00 00 00 00 06 d9 b0 36
       0.0 0.0 0.0 5.2704736e-06
000190 a5 31 c7 3b 00 00 00 00 60 3c e0 3a 00 00 00 00
       0.006078916 0.0 0.0017107837 0.0
0001a0 13 23 95 36 3a 4e 49 36 00 00 00 00 3f d7 e0 29
       4.444629e-06 2.9996868e-06 0.0 9.9849375e-14
0001b0 b8 75 04 2f e5 ec b6 37 0f 6d 12 3a fb 2e 02 35
       1.2047152e-10 2.1806403e-05 0.0005585709 4.849714e-07
0001c0 00 00 00 00 1e 08 43 37 b1 35 14 38 3b 0c 07 30
       0.0 1.1624796e-05 3.5335954e-05 4.9130094e-10
0001d0 00 00 00 00 17 7d 30 3a 08 41 58 33 00 00 00 00
       0.0 0.0006732507 5.0350565e-08 0.0
0001e0 d5 03 3e 37 d0 7c 3f 3a c3 85 ec 36 00 00 00 00
       1.1325775e-05 0.000730467 7.04892e-06 0.0
0001f0 c7 14 37 38 0a 04 08 38 b3 d0 2e 2f 62 ce dd 36
       4.364995e-05 3.242869e-05 1.5899353e-10 6.6103394e-06
