src/model_data/Miami_Grand_Prix_model.pth (torch, 197885 bytes, 21 tensors)

net.0.weight f4 [128, 48]
-0.13131995 -0.11965374 -0.20513158 -0.030682683 -0.21143317 0.037360232 -0.049757376 3.7504752
0.11868891 -0.0736412 0.019383742 -0.16067585 0.13780811 0.034056213 -0.1770827 0.023133326
-0.18682517 -0.13417168 -0.23934273 -0.19663449 -0.1129295 -0.21508712 -0.042829156 0.03898282
-0.08927785 -0.08099581 0.1096291 0.54129225 0.05180702 0.2581046 -0.24012862 -0.06499515
-0.103388645 0.28056994 -0.11075911 0.13002163 0.0043187584 0.31659928 -1.0723157 -0.95869464
-0.9477014 -0.2985362 -0.5447178 -0.008817505 0.12056521 0.20338595 -0.5109743 -0.15736236
0.32525045 -0.10553946 -0.2818295 0.24624118 0.03684839 0.10365528 0.24048828 -0.30632958
0.0046493057 0.12129701 0.07756868 0.097726226 0.09264745 0.021989634 -0.15449888 -0.17461549
0.20467792 -0.06933369 0.50575334 -0.14497209 0.22269803 0.07744143 0.29994956 0.1161662
0.1242281 -0.054368377 -0.016011266 -0.80856055 -0.42053387 -0.6595783 0.34788123 0.41211954
0.091542274 -0.87559056 -0.10898794 0.107665025 -0.6927423 -0.027861446 1.860476 2.072686
1.5405172 0.6794359 0.36476308 -0.1936554 -0.7893115 -0.09776504 0.2872615 0.23043978
-0.10704932 -0.11973929 0.092227735 0.06753483 -0.17669229 -0.11248578 0.014346229 -0.07753829
0.03528884 -0.15481685 -0.071140446 0.057746302 0.07581424 -0.13883568 -0.16057299 -0.023782402
-0.13116077 0.04210192 -0.11107865 -0.1208224 0.086061895 -0.06041633 -0.110400595 -0.12284829
0.1771063 -0.14489941 -0.027686005 -0.08993988 -0.025736736 0.06685054 -0.07507724 -0.123061284
-0.11659132 -0.17546505 0.14457197 -0.10135325 0.021981245 -0.1804732 0.045601297 0.14452246
-0.09388053 0.08388386 0.021927342 0.11342448 -0.051784042 -0.004949671 0.14915551 -0.14402243
-0.08252281 0.004493526 -0.13235272 0.05688312 -0.121421374 0.17410661 0.18316737 0.120514736
-0.08572822 -0.103676945 -0.087876946 -0.115688965 0.07979347 0.076845825 -0.117209956 -0.0011139783
0.16485763 0.08645848 -0.14116399 -0.16654594 0.0075432314 -0.05495379 -0.15453465 -0.041797426
-0.043739233 0.012358088 -0.0896294 -0.16477674 0.14291766 -0.11556187 0.05444251 0.043242875
-0.05254408 0.041207246 0.07201696 -0.020617994 -0.04672343 -0.15456025 0.039401323 0.12688515
0.033196528 0.14605232 0.014223378 0.14925136 -0.015215048 0.1379338 -0.117972374 0.14728783
-0.21878813 -0.21855892 -0.08465686 -0.02315156 -0.07577553 0.17383437 -0.20152579 -0.0361835
-0.13268447 0.0720877 0.091423824 -0.24371786 -0.030666318 -0.16762695 -0.07737831 -0.21211357
-0.0022010955 -0.069470875 0.13356446 -0.006599818 0.11854794 0.024412911 -0.057562146 -0.14077069
-0.22546831 0.053229637 -0.004833375 0.035067152 -0.040206566 -0.073420756 -0.094302975 0.039207738
-0.018444888 0.06340895 -0.08645013 -0.018975772 0.061350208 0.15275389 -0.04610218 -0.067030944
-0.15439866 -0.17205124 0.07686654 -0.10552235 0.08920319 -0.31451035 -0.11558004 0.04788527
-0.32625523 -0.11044736 -0.004227015 -0.3340411 -0.285792 -0.24114917 -0.33810067 0.7172456
-0.07734259 0.0015395683 0.10499303 -0.02620337 -0.11865561 -0.06062456 0.08723979 -0.12616111
00000000: bd78 06be 050d f5bd 030e 52be 405a fbbc
00000010: f081 58be 0b07 193d 64ce 4bbd c907 7040
00000020: 2c13 f33d 33d1 96bd a7ca 9e3c 3688 24be
00000030: 921d 0d3e 877e 0b3d 2b55 35be 1a82 bd3c
00000040: 194f 3fbe 4d64 09be 4316 75be 8d5a 49be
00000050: 9547 e7bd cc3f 5cbe a06d 2fbd 73ac 1f3d
00000060: 4ed7 b6bd 22e1 a5bd 3985 e03d 2192 0a3f
00000070: 9933 543d 4926 843e 47e4 75be 2d1c 85bd
00000080: 6dbd d3bd dda6 8f3e acd5 e2bd 6424 053e
00000090: 5f84 8d3b 4d19 a23e a441 89bf 036d 75bf
000000a0: 8f9c 72bf bdd9 98be a072 0bbf 4c77 10bc
000000b0: e5ea f63d 6844 503e 36cf 02bf 9923 21be
000000c0: 3a87 a63e 1325 d8bd f54b 90be a626 7c3e
000000d0: 56ee 163d 3849 d43d 8f42 763e 3bd7 9cbe
000000e0: 3459 983b 916a f83d 54dc 9e3d b024 c83d
000000f0: f2bd bd3d 9b23 b43c f434 1ebe 67ce 32be
00000100: 1797 513e d2fe 8dbd 0d79 013f 9073 14be
00000110: f40a 643e 9d99 9e3d fd92 993e 8be8 ed3d
00000120: 4d6b fe3d 60b1 5ebd 0f2a 83bc d3fd 4ebf
00000130: 3750 d7be 20da 28bf 7d1d b23e 5501 d33e
00000140: 847a bb3d b426 60bf 1235 dfbd 7b7f dc3d
00000150: 8f57 31bf b03d e4bc 1424 ee3f e3a6 0440
00000160: ab2f c53f 83ef 2d3f 3ac2 ba3e 9a4d 46be
00000170: 5210 4abf 0a39 c8bd f013 933e 68f8 6b3e
00000180: ad3c dbbd df39 f5bd e5e1 bc3d b34f 8a3d
00000190: d3ee 34be f25e e6bd 720c 6b3c 65cc 9ebd
000001a0: 088b 103d 4f88 1ebe 15b2 91bd 6387 6c3d
000001b0: 7f44 9b3d f12a 0ebe 3f6d 24be 50d3 c2bc
000001c0: 024f 06be 1073 2c3d 347d e3bd bc71 f7bd
000001d0: 3841 b03d 1d77 77bd b519 e2bd e297 fbbd
000001e0: 5b5b 353e 8360 14be c3cd e2bc 6632 b8bd
000001f0: d9d5 d2bc f0e8 883d 19c2 99bd 8e07 fcbd
00000200: 6ec7 eebd 1cad 33be ad0a 143e 4b92 cfbd
00000210: 0312 b43c f7cd 38be 6dc8 3a3d b2fd 133e
00000220: 6f44 c0bd 4dcb ab3d f8a0 b33c 184b e83d
00000230: 811b 54bd da30 a2bb 39bc 183e 9e7a 13be
00000240: b801 a9bd 6e3e 933b 7987 07be 46fe 683d
00000250: c5ab f8bd 0149 323e 3a90 3b3e 6ed0 f63d
00000260: 4792 afbd 9454 d4bd d4f8 b3bd 56ee ecbd
00000270: c26a a33d 5861 9d3d c60b f0bd e902 92ba
00000280: 70d0 283e 2511 b13d 4b8d 10be 058b 2abe
00000290: 362d f73b 3a17 61bd 553e 1ebe c733 2bbd
000002a0: e927 33bd 9479 4a3c 9e8f b7bd 3cbb 28be
000002b0: 0259 123e b4ab ecbd 1cff 5e3d 711f 313d
000002c0: 7638 57bd eec8 283d a17d 933d 11e7 a8bc
000002d0: 1161 3fbd 0b45 1ebe 4863 213d 2eee 013e
000002e0: 15f9 073d bd8e 153e 2c09 693c 59d5 183e
000002f0: 8948 79bc 853e 0d3e 809b f1bd 9fd2 163e
00000300: ff09 60be e9cd 5fbe 9360 adbd 57a8 bdbc
00000310: 3330 9bbd a301 323e c75c 4ebe 2635 14bd
00000320: 70de 07be b7a2 933d 6a3c bb3d 2d91 79be
00000330: ee37 fbbc 66a6 2bbe 8578 9ebd 4d34 59be
00000340: 4140 10bb bf46 8ebd 1fc5 083e 4943 d8bb
00000350: 43c9 f23d 96fd c73c 49c6 6bbd 3126 10be
00000360: 2ae1 66be 5207 5a3d 4a61 9ebb 93a2 0f3d
00000370: a4af 24bd 9f5d 96bd eb21 c1bd 4b98 203d
00000380: bc19 97bc 8ddc 813d c40c b1bd 1473 9bbc
00000390: 5b4a 7b3d 846b 1c3e a4d5 3cbd 8547 89bd
000003a0: af1a 1ebe 332e 30be 346c 9d3d 1a1c d8bd
000003b0: 29b0 b63d 8007 a1be 3ab5 ecbd 5823 443d
000003c0: ed0a a7be 3a32 e2bd c682 8abb 6f07 abbe
000003d0: 5453 92be cfef 76be 881b adbe 689d 373f
000003e0: cb65 9ebd 57cb c93a 9606 d73d 73a8 d6bc
000003f0: b601 f3bd 7551 78bd c6aa b23d 6130 01be

net.0.bias f4 [128]
0.060210302 -0.24857222 -0.0057423506 -0.022752812 -0.07803664 0.06878108 -0.06686657 -0.20940347
0.011478847 -0.14731914 -0.050284248 0.27194282 -0.02594399 -0.025628971 -0.07419196 -0.17940435
-0.004424801 -0.07413062 -0.02921421 -0.25015765 0.24512641 0.007316768 -0.0004678777 -0.12296697
-0.25381976 0.0 -0.096575044 0.051358826 -0.14325295 -0.014577574 -0.014785119 0.0
-0.18894514 -0.11545509 -0.27897966 -0.049053747 -0.042069603 0.0 0.05742645 -0.016982961
0.035061236 -0.26988977 0.12893888 -0.096633166 0.020418337 -0.13508502 -0.015639128 -0.0052442597
-0.10052506 0.15168126 0.2572489 0.0037010792 -0.08776102 -0.13017987 -0.046983227 -0.30721846
-0.11341319 -0.05401804 -0.031759623 -0.029515928 -0.16489707 0.1735904 0.17856579 -0.027315179
-0.00049436506 -0.030796086 0.20725498 -0.111809686 0.21384642 0.15905067 -0.109089844 -0.020981302
0.0 -0.24907187 -0.015874105 -0.042708367 -0.06468225 -0.3190687 -0.006281865 0.022976132
-0.017715255 0.028712459 0.0 0.0 -0.1179899 0.0 0.22979718 -0.005640767
0.0 0.052043315 -0.096968226 -0.008104006 -0.055007722 -0.04949216 -0.009207011 0.0
-0.11648467 0.0569032 -0.022608869 -0.03672976 0.0 0.08304965 0.26646227 -0.109199554
0.0 0.0 0.04161368 0.0 -0.022093188 -0.08426712 -0.026978213 -0.024339875
-0.112193964 -0.0820984 -0.27908158 0.10942557 -0.05149497 -0.18665951 -0.015773982 0.0
0.0 -0.16346934 -0.10350918 -0.0194278 -0.04102875 -0.11659139 0.00747395 -0.03597878
00000000: 149f 763d b789 7ebe 542a bcbb 1b64 babc
00000010: add1 9fbd 18dd 8c3d 57f1 88bd dd6d 56be
00000020: c611 3c3c d4da 16be dbf6 4dbd 173c 8b3e
00000030: 7e88 d4bc d9f3 d1bc f4f1 97bd c6b5 37be
00000040: ecfd 90bb cbd1 97bd a452 efbc aa14 80be
00000050: 6b02 7b3e 80c1 ef3b 7b4d f5b9 1bd6 fbbd
00000060: aaf4 81be 0000 0000 23c9 c5bd a25d 523d
00000070: e7b0 12be c7d6 6ebc 493d 72bc 0000 0000
00000080: d67a 41be b873 ecbd 6cd6 8ebe 95ec 48bd
00000090: 2d51 2cbd 0000 0000 ff37 6b3d da1f 8bbc
000000a0: 5f9c 0f3d fe2e 8abe 8e08 043e 9ce7 c5bd
000000b0: 5b44 a73c ba53 0abe a11d 80bc 0ad8 abbb
000000c0: 15e0 cdbd 5552 1b3e 21b6 833e ce8d 723b
000000d0: 0dbc b3bd df4d 05be 7c71 40bd bd4b 9dbe
000000e0: 2d45 e8bd 0542 5dbd 6116 02bd 63cb f1bc
000000f0: c7da 28be afc1 313e f3d9 363e 15c4 dfbc
00000100: 4798 01ba 1348 fcbc a63a 543e 7afc e4bd
00000110: 8efa 5a3e 2ede 223e 7f6a dfbd fbe0 abbc
00000120: 0000 0000 b20c 7fbe 690a 82bc f8ee 2ebd
00000130: 2178 84bd f95c a3be 1ad8 cdbb 7138 bc3c
00000140: 951f 91bc 6436 eb3c 0000 0000 0000 0000
00000150: b0a4 f1bd 0000 0000 f44f 6b3e 2fd6 b8bb
00000160: 0000 0000 5f2b 553d 4797 c6bd aac6 04bc
00000170: c74f 61bd 4bb8 4abd 01d9 16bc 0000 0000
00000180: 848f eebd 5413 693d 3c36 b9bc f271 16bd
00000190: 0000 0000 ef15 aa3d be6d 883e 04a4 dfbd
000001a0: 0000 0000 0000 0000 1b73 2a3d 0000 0000
000001b0: c6fc b4bc 3d94 acbd 6a01 ddbc 6b64 c7bc
000001c0: f3c5 e5bd 3523 a8bd c8e3 8ebe 831a e03d
000001d0: 64ec 52bd ac23 3fbe 7038 81bc 0000 0000
000001e0: 0000 0000 8264 27be 9ffc d3bd 0d27 9fbc
000001f0: c30d 28bd 77c7 eebd 09e8 f43b 7c5e 13bd

net.2.weight f4 [64, 128]
-0.14717637 -0.024587037 -0.13077419 -0.039373837 0.08397984 -0.003900009 -0.1045799 0.16946101
-0.14583096 -0.1357839 0.09828876 -0.05942084 -0.1557349 -0.077699095 0.06824691 0.018941475
0.09911105 -0.07332928 -0.08928878 0.09464352 0.060573783 -0.029329857 -0.056471318 0.12665635
0.0225288 0.08503455 0.0007968283 -0.023382194 0.11428548 0.06542632 0.019279571 -0.15623154
0.05251823 -0.07505046 -0.13022342 0.094806984 0.008889676 0.014566562 -0.0015567765 -0.08867981
-0.12123217 -0.15767458 0.08925289 0.010743516 0.13774629 -0.064202935 -0.1711005 0.10779283
0.110008396 -0.0924508 -0.004174419 -0.05375347 0.15417045 -0.13860735 -0.016110053 -0.06701653
-0.14403687 -0.07762393 -0.0130122285 -0.08851138 0.14555371 -0.084633544 0.09879399 -0.12394101
-0.070940435 0.1512773 0.11586025 0.013752716 -0.17479673 -0.17536537 0.033566274 -0.11757634
-0.026162403 -0.05124366 0.094585896 -0.123762935 -0.15834583 -0.13957576 0.120458096 -0.18080759
-0.024178172 -0.16109417 0.055008803 -0.04241343 -0.14871219 0.05187137 -0.15466233 0.11026423
-0.1318765 0.122960605 -0.15488756 -0.066268474 -0.1444143 0.0977488 0.0040044547 -0.14589603
-0.07247109 0.016176676 -0.020160649 0.1544047 -0.11930668 0.035107177 -0.19211605 -0.15857926
0.16804118 -0.16295075 0.15434152 -0.11287514 0.10206679 -0.17103434 -0.09332792 -0.066809505
-0.04642635 -0.024297846 -0.037680782 -0.10149829 0.13961583 0.038513765 -0.18355502 -0.1735245
-0.034524083 0.11152031 -0.12327154 0.10764483 -0.13826756 -0.01751989 -0.047301497 -0.07829782
-0.041973583 0.11361175 0.16396978 0.10803809 0.20838328 -0.0731369 -0.078298196 -0.04840384
0.119714916 -0.07073451 -0.07643862 0.14491704 -0.1177909 -0.0038641535 0.18542826 -0.037130497
0.0015571293 0.16287878 -0.068554685 0.06375293 0.02488842 0.107631125 -0.16466388 0.12945928
-0.009569219 -0.039639827 0.14275539 -0.1400686 -0.11891229 -0.094790496 0.0067561846 -0.06017398
-0.112518996 -0.1415361 -0.030504962 0.06864151 -0.0023155597 0.08050659 -0.3192188 0.11646197
-0.03405278 0.08534563 -0.73701346 0.13226187 -0.049009383 -0.11626592 0.2935724 -0.08188645
0.15648617 -0.16065125 0.19241117 -0.040255345 0.12899046 -0.15731545 -0.10738302 0.062497396
0.00026652205 0.22460088 -0.13556486 0.037819177 0.06828037 0.16380273 0.17204612 -0.057820026
0.031797975 0.016827673 0.17590791 -0.10084601 -0.10732536 0.055198405 0.14428292 -0.13016729
-0.011019083 0.0037333781 0.1740844 -0.13872376 0.07438814 0.1713055 0.08556592 -0.10490447
0.07803331 -0.06483436 -0.1541125 0.045847405 -0.09418681 -0.12546611 -0.10818637 0.13184322
-0.09305225 0.10016217 -0.054706223 -0.072141714 0.05572803 0.0121617215 -0.23095416 -0.07202981
-0.16675575 -0.13537249 0.122174725 -0.030700654 0.0032838085 0.079445966 -0.10100616 -0.10981765
0.10399909 0.17169487 -0.20185366 -0.051420905 -0.08873066 -0.013268266 0.011232355 0.08957772
0.0854936 -0.33753407 0.07653468 0.1423435 0.022729605 -0.18334146 -0.11166398 0.08167005
0.025525311 0.1392697 -0.10947046 0.0696321 -0.11978274 0.07726084 0.026468735 -0.061455626
00000000: 67b5 16be c16a c9bc abe9 05be 7646 21bd
00000010: 9ffd ab3d 4b97 7fbb fd2d d6bd 3087 2d3e
00000020: b654 15be ef0a 0bbe 9e4b c93d 4463 73bd
00000030: f878 1fbe b420 9fbd 09c5 8b3d 272b 9b3c
00000040: bcfa ca3d a92d 96bd 09dd b6bd 76d4 c13d
00000050: 371c 783d 2b45 f0bc 784e 67bd 34b2 013e
00000060: 518e b83c 9826 ae3d 3ee2 503a 048c bfbc
00000070: 810e ea3d 3cfe 853d 31f0 9d3c 29fb 1fbe
00000080: 5b1d 573d 0eb4 99bd 4a59 05be 2a2a c23d
00000090: 01a6 113c 97a8 6e3c c00c ccba c39d b5bd
000000a0: 9248 f8bd 7275 21be 38ca b63d 9205 303c
000000b0: 5d0d 0d3e d47c 83bd f834 2fbe 7dc2 dc3d
000000c0: 154c e13d d856 bdbd 91c9 88bb 992c 5cbd
000000d0: dcde 1d3e 16ef 0dbe 3bf9 83bc f63f 89bd
000000e0: 677e 13be 4cf9 9ebd 3e31 55bc 7445 b5bd
000000f0: 080c 153e 5a54 adbd 8154 ca3d c9d4 fdbd
00000100: 3849 91bd 70e8 1a3e 2448 ed3d 1253 613c
00000110: eafd 32be fb92 33be ca7c 093d ddcb f0bd
00000120: 8952 d6bc dfe4 51bd 40b6 c13d 6c77 fdbd
00000130: 6925 22be f3ec 0ebe bcb2 f63d a025 39be
00000140: 4d11 c6bc dff5 24be e950 613d b4b9 2dbd
00000150: 0248 18be 1377 543d cd5f 1ebe 36d2 e13d
00000160: a20a 07be c5d2 fb3d d89a 1ebe c4b7 87bd
00000170: 58e1 13be 8630 c83d cd37 833b c565 15be
00000180: b96b 94bd f384 843c f227 a5bc 441c 1e3e
00000190: 1057 f4bd 8bcc 0f3d 12ba 44be 9a62 22be
000001a0: fd12 2c3e 90dc 26be b40b 1e3e 152b e7bd
000001b0: 6508 d13d a023 2fbe b522 bfbd 6cd3 88bd
000001c0: 8e29 3ebd 470c c7bc 2a57 1abd 56de cfbd
000001d0: 74f7 0e3e 9cc0 1d3d d9f5 3bbe 68b0 31be
000001e0: 2069 0dbd c364 e43d ca75 fcbd e574 dc3d
000001f0: 0396 0dbe df85 8fbc 37bf 41bd 9c5a a0bd
00000200: 7eec 2bbd 47ad e83d b2e7 273e 1343 dd3d
00000210: 6d62 553e cdc8 95bd ce5a a0bd 1b43 46bd
00000220: 182d f53d 41dd 90bd da8b 9cbd 2265 143e
00000230: 5b3c f1bd bd3d 7dbb e8e0 3d3e 2616 18bd
00000240: 9718 cc3a b2c9 263e 6666 8cbd e590 823d
00000250: cde2 cb3c b56d dc3d a69d 28be f990 043e
00000260: 37c8 1cbc 5f5d 22bd 782e 123e 256e 0fbe
00000270: 4988 f3bd 8521 c2bd fc62 dd3b fe78 76bd
00000280: 5c70 e6bd d7ee 10be 8be5 f9bc ec93 8c3d
00000290: a5c0 17bb a4e0 a43d a670 a3be 9d83 ee3d
000002a0: ee7a 0bbd b1c9 ae3d eaac 3cbf a86f 073e
000002b0: 10be 48bd d41c eebd 1f4f 963e 15b4 a7bd
000002c0: e93d 203e c381 24be 6f07 453e cae2 24bd
000002d0: 1316 043e 4d17 21be a1eb dbbd 45fd 7f3d
000002e0: fcbb 8b39 c6fd 653e 84d1 0abe 48e8 1a3d
000002f0: 94d6 8b3d e7bb 273e dc2c 303e b1d4 6cbd
00000300: 983e 023d 30da 893c 3421 343e 5a88 cebd
00000310: 66cd dbbd b917 623d e7be 133e 934a 05be
00000320: 6289 34bc b1ab 743b 2e43 323e 9a0d 0ebe
00000330: cf58 983d b66a 2f3e 2f3d af3d 28d8 d6bd
00000340: eecf 9f3d e0c7 84bd abcf 1dbe 7dca 3b3d
00000350: 04e5 c0bd 307a 00be d190 ddbd e901 073e
00000360: 2e92 bebd d321 cd3d a213 60bd 09bf 93bd
00000370: 1343 643d f541 473c 3f7f 6cbe 5d84 93bd
00000380: 05c2 2abe 169f 0abe be36 fa3d f07f fbbc
00000390: 2a35 573b 91b4 a23d 51dc cebd 13e8 e0bd
000003a0: 7afd d43d c8d0 2f3e bab2 4ebe ba9e 52bd
000003b0: 6cb8 b5bd 2463 59bc e907 383c 8674 b73d
000003c0: 4517 af3d 44d1 acbe 37be 9c3d 7fc2 113e
000003d0: 7033 ba3c ddbd 3bbe 16b0 e4bd a142 a73d
000003e0: 751a d13c b79c 0e3e 0c32 e0bd 469b 8e3d
000003f0: a750 f5bd ee3a 9e3d f6d4 d83c e5b8 7bbd

net.2.bias f4 [64]
-0.05275639 -0.18329978 -0.009939404 -0.055196006 -0.11319257 -0.12885766 0.0 0.16928487
-0.058922842 -0.008060204 -0.05458091 -0.056286674 -0.07300906 0.008868672 -0.050192352 -0.03176568
-0.042008404 -0.13058695 -0.012898786 -0.025636243 -0.039249625 -0.053289335 -0.029335508 -0.10252394
-0.06116168 -0.18533063 -0.036237556 -0.12031538 -0.0062992154 -0.033181354 -0.054199442 -0.10107256
0.06851919 -0.05722702 -0.09149911 -0.110982366 0.009905436 -0.044618793 0.11512737 -0.06355905
-0.06415677 -0.0060055084 -0.061946064 -0.031765513 -0.028427914 -0.073219545 0.3071858 -0.025240246
-0.0317653 -0.051256336 -0.050787445 -0.024093483 0.0 -0.06794174 -0.09316156 -0.022326514
-0.008590428 -0.024703544 -0.022985252 -0.025220659 0.0 -0.04894385 -0.0431197 0.015157301
00000000: 1617 58bd f0b2 3bbe e2d8 22bc 3515 62bd
00000010: 82d1 e7bd 43f3 03be 0000 0000 0359 2d3e
00000020: 1459 71bd f20e 04bc 3b90 5fbd db8c 66bd
00000030: c685 95bd e84d 113c 7f96 4dbd bb1c 02bd
00000040: 0111 2cbd 96b8 05be 6e55 53bc 1903 d2bc
00000050: 37c4 20bd eb45 5abd 0551 f0bc 12f8 d1bd
00000060: ab84 7abd 50c7 3dbe d56d 14bd e967 f6bd
00000070: a669 cebb 2ce9 07bd 3c00 5ebd 21ff cebd
00000080: ca53 8c3d e166 6abd e363 bbbd b94a e3bd
00000090: 694a 223c 32c2 36bd e6c7 eb3d 3f2b 82bd
000000a0: a064 83bd dbc9 c4bb 28bb 7dbd 8e1c 02bd
000000b0: a8e1 e8bc 21f4 95bd 7547 9d3e a2c4 cebc
000000c0: 551c 02bd 2af2 51bd 7f06 50bd b25f c5bc
000000d0: 0000 0000 0a25 8bbd 7dcb bebd 18e6 b6bc
000000e0: debe 0cbc 165f cabc 914b bcbc 8e9b cebc
000000f0: 0000 0000 5979 48bd 489e 30bd 5456 783c

net.4.weight f4 [16, 64]
0.17646326 0.13766891 0.0026983893 0.11015817 0.06011639 -0.23050924 -0.23416603 -0.26442865
0.21050513 0.08227359 -0.16215947 0.09073831 -0.13363978 -0.07091323 -0.12003993 0.15191308
-0.014463026 0.17231062 -0.10499227 -0.039178815 0.04815548 -0.20294586 -0.13477261 -0.087091826
-0.29122868 -0.076563016 -0.06541317 -0.19592503 -0.26353613 -0.016483407 0.084512405 -0.21727362
-0.062208593 0.055083655 0.08797323 -0.08364537 -0.029958999 0.020792197 0.037460174 0.016556242
0.25701272 0.19088538 -0.24309713 -0.26841804 0.270822 0.07310946 -0.16897026 -0.20198843
0.25023744 -0.1964665 -0.07809228 -0.2432551 0.220994 -0.17059731 -0.15559982 0.053440444
0.04063826 0.19533964 -0.22696725 -0.1731622 -0.23048325 0.14670944 -0.00023035589 -0.21624689
-0.11531813 -0.06296824 0.1354069 0.08485289 -0.16876106 -0.05338735 0.11264077 -0.2655052
0.1960796 0.12472783 -0.11022234 -0.08537162 0.24034634 0.12976214 0.07347922 -0.15585032
0.25797677 -0.23562142 -0.2397568 -0.18313389 0.18032813 -0.24905795 -0.041028503 -0.010563575
0.039281327 -0.042131726 -0.0037660415 0.03395998 0.21962498 -0.16428582 -0.065167606 -0.21883723
0.162278 0.21470286 0.10918173 -0.100405514 -0.08319404 -0.074735135 -0.051351544 0.1151833
0.0949189 -0.055918135 0.050118968 0.19605108 0.02783418 0.1261693 -0.22474292 -0.21464138
-0.07592597 0.21891029 0.20970753 -0.005544897 -0.079354666 -0.25329134 -0.20044234 0.09685964
0.2194779 0.05381647 0.015735926 -0.04312086 -0.20812932 -0.06664335 -0.16882452 -0.12643258
0.23845291 -0.08151255 -0.0053204354 -0.23751158 0.042632803 -0.064691134 0.07143713 0.19625728
0.15601371 -0.07188448 0.19669011 0.036528688 -0.021804878 0.14642183 0.084381364 0.13916706
-0.16551659 -0.29179487 0.22422798 0.21225482 -0.20040877 -0.0046095294 0.22865322 -0.037471175
0.16102657 0.23165935 -0.0280966 -0.05772691 0.08443841 0.24654417 -0.25336283 -0.24308237
0.21324353 -0.14867488 -0.22407621 -0.08510382 -0.21966513 -0.052322555 -0.2903639 0.26498178
-0.07233828 0.08887662 -0.26858467 -0.062322497 0.025433203 -0.17360532 -0.22917683 0.1298463
-0.24084815 0.014101147 0.22128277 -0.004866464 -0.01424808 -0.08276108 -0.2627721 0.07433562
0.06401983 -0.122571886 0.1486301 0.034658913 0.14660116 -0.002619025 -0.06736812 -0.049346764
-0.2427589 -0.012361592 -0.11945489 -0.15614691 0.05171968 0.016803505 0.106159426 -0.23526604
0.14290668 -0.08438647 -0.07770082 -0.033388283 -0.23938213 -0.14518897 -0.06243619 -0.025051497
0.17236409 -0.085788295 0.15782487 0.22480665 -0.03157135 -0.19905362 -0.1956621 -0.2695466
0.11218421 -0.19605283 0.18388134 -0.08672485 0.26171106 -0.07511107 0.2413262 0.14970186
-0.20733756 -0.016630122 0.10687892 0.21641284 0.11687356 0.25794652 -0.037209578 0.0029940715
0.24262092 0.22857814 0.013061433 -0.11972307 -0.10567253 -0.209759 -0.06690333 -0.11292806
0.14129777 0.19668095 -0.05116701 0.08475409 -0.2337854 -0.15294205 -0.22388406 0.008721877
-0.0694826 0.10927465 -0.26333234 -0.1931443 -0.08471759 0.055157404 -0.13999008 0.03057238
00000000: c9b2 343e 14f9 0c3e 76d7 303b 9b9a e13d
00000010: 9b3c 763d 9d0a 6cbe 38c9 6fbe 3163 87be
00000020: a88e 573e 0e7f a83d 220d 26be 02d5 b93d
00000030: ded8 08be f53a 91bd 7fd7 f5bd 1a8f 1b3e
00000040: 54f6 6cbc 3272 303e 3006 d7bd f779 20bd
00000050: ae3e 453d 0ad1 4fbe d501 0abe 335d b2bd
00000060: ed1b 95be 12cd 9cbd 57f7 85bd 92a0 48be
00000070: 35ee 86be 3608 87bc d714 ad3d fa7c 5ebe
00000080: 70ce 7ebd 669f 613d 4f2b b43d 444e abbd
00000090: 936c f5bc 6654 aa3c d76f 193d f5a0 873c
000000a0: 2c97 833e 7577 433e 74ee 78be 176e 89be
000000b0: 2ea9 8a3e 6aba 953d 8a06 2dbe 0ed6 4ebe
000000c0: 1f1f 803e 842e 49be d8ee 9fbd dd17 79be
000000d0: 404c 623e 10b1 2ebe 8f55 1fbe 5ee4 5a3d
000000e0: 4e74 263d 1d07 483e 1a6a 68be 6f51 31be
000000f0: cd03 6cbe 003b 163e b08b 71b9 d36f 5dbe
00000100: e92b ecbd 7ef5 80bd 1ba8 0a3e 5ac7 ad3d
00000110: b3cf 2cbe b2ac 5abd 34b0 e63d 4cf0 87be
00000120: 17c9 483e 4e71 ff3d 40bc e1bd 51d7 aebd
00000130: 5a1d 763e 5ee0 043e 467c 963d 3a97 1fbe
00000140: 8815 843e be46 71be ce82 75be 7387 3bbe
00000150: f0a7 383e 0c09 7fbe 810d 28bd d812 2dbc
00000160: 75e5 203d 5192 2cbd b1cf 76bb 9f19 0b3d
00000170: 5fe5 603e 8b3a 28be 9876 85bd de16 60be
00000180: 342c 263e 11db 5b3e ac9a df3d 68a1 cdbd
00000190: a361 aabd bc0e 99bd ff55 52bd 39e5 eb3d
000001a0: d764 c23d 6a0a 65bd 8c49 4d3d 9dc1 483e
000001b0: 8204 e43c 8632 013e 0223 66be f3ca 5bbe
000001c0: 137f 9bbd 052a 603e 92bd 563e f8b1 b5bb
000001d0: b384 a2bd 67af 81be c240 4dbe 595e c63d
000001e0: d1be 603e a96e 5c3d a1e8 803c 809f 30bd
000001f0: da1f 55be 4f7c 88bd 56e0 2cbe 8b77 01be
00000200: 002d 743e 0df0 a6bd 0c57 aebb 3c36 73be
00000210: bc9f 2e3d c97c 84bd a14d 923d abf7 483e
00000220: 0fc2 1f3e 2c38 93bd 2269 493e 1b9f 153d
00000230: 25a0 b2bc 9bef 153e 23d0 ac3d cf81 0e3e
00000240: 2e7d 29be 2366 95be 059c 653e 5459 593e
00000250: f537 4dbe 890b 97bb 1224 6a3e 607b 19bd
00000260: 26e4 243e 1c38 6d3e d72a e6bc 0d73 6cbd
00000270: 0cee ac3d 1376 7c3e c6b8 81be 96ea 78be
00000280: 835c 5a3e 3a3e 18be 3c74 65be e94a aebd
00000290: e5ef 60be 2d50 56bd 94aa 94be b1ab 873e
000002a0: 1826 94bd f204 b63d ee83 89be e045 7fbd
000002b0: 4b59 d03c 98c5 31be 55ad 6abe 6ef6 043e
000002c0: e6a0 76be 7f08 673c f397 623e dc76 9fbb
000002d0: c770 69bc a47e a9bd 118a 86be 463d 983d
000002e0: d41c 833d f806 fbbd 7d32 183e 81f6 0d3d
000002f0: 9d1e 163e f3a3 2bbb 4cf8 89bd d51f 4abd
00000300: ca95 78be 4688 4abc c4a4 f4bd fae4 1fbe
00000310: 04d8 533d 81a7 893c 1d6a d93d 95e9 70be
00000320: 2156 123e d0d2 acbd 9c21 9fbd 27c2 08bd
00000330: 9720 75be 6bac 14be 17bd 7fbd cc38 cdbc
00000340: 3680 303e c6b1 afbd d89c 213e b733 663e
00000350: f650 01bd b6d4 4bbe a55b 48be 0302 8abe
00000360: d6c0 e53d 13c2 48be 644b 3c3e cc9c b1bd
00000370: fefe 853e d5d3 99bd 371e 773e 724b 193e
00000380: 4c50 54be e53b 88bc 56e3 da3d 549b 5d3e
00000390: 685b ef3d 9111 843e 1269 18bd 2f38 443b
000003a0: 9e71 783e 6310 6a3e 9fff 553c 5e31 f5bd
000003b0: d76a d8bd 10cb 56be 9d04 89bd d446 e7bd
000003c0: 5db0 103e bb66 493e 8094 51bd 8d93 ad3d
000003d0: 7165 6fbe d79c 1cbe dd41 65be 34e6 0e3c
000003e0: e54c 8ebd 63cb df3d 7fd3 86be 9fc7 45be
000003f0: 6a80 adbd bbec 613d 8f59 0fbe ee72 fa3c

net.4.bias f4 [16]
-0.06353149 -0.056266468 -0.027333237 -0.04254199 -0.13102625 -0.28130776 -0.09244201 0.30263424
-0.060509603 -0.17225815 -0.19974853 -0.04989403 -0.029612835 -0.046146743 -0.12038935 -0.1135271
00000000: cc1c 82bd ab77 66bd f4e9 dfbc 8240 2ebd
00000010: bf2b 06be 9207 90be 3d52 bdbd e0f2 9a3e
00000020: ebd8 77bd 7164 30be e18a 4cbe af5d 4cbd
00000030: 9e96 f2bc 5e04 3dbd b18e f6bd e580 e8bd

net.6.weight f4 [1, 16]
-0.36267373 -0.26400128 -0.28542542 -0.18794055 0.17453805 -0.1358557 -0.4171671 0.2381844
-0.49395058 0.00041543745 -0.21256728 -0.2653759 0.12229871 -0.020288305 0.43996713 -0.4621454
00000000: 5fb0 b9be 2d2b 87be 4823 92be 7d73 40be
00000010: 1aba 323e c21d 0bbe ed96 d5be 9de6 733e
00000020: 17e7 fcbe 12cf d939 3dab 59be 5adf 87be
00000030: bf77 fa3d a933 a6bc 5f43 e13e 529e ecbe

exp_avg f4 [128, 48]
6e-45 6e-45 6e-45 6e-45 6e-45 6e-45 6e-45 -6e-45
6e-45 6e-45 6e-45 6e-45 6e-45 6e-45 6e-45 6e-45
6e-45 6e-45 6e-45 6e-45 6e-45 6e-45 6e-45 6e-45
6e-45 6e-45 6e-45 6e-45 6e-45 6e-45 6e-45 6e-45
6e-45 6e-45 6e-45 6e-45 6e-45 6e-45 6e-45 6e-45
6e-45 6e-45 6e-45 6e-45 -6e-45 -6e-45 -6e-45 6e-45
-0.24333172 -0.11261884 0.020012682 -0.13919546 -0.4864337 -0.08036136 -0.06997632 -5.259205e-05
3.9490495 0.24505468 0.2805997 0.76527756 -5.2933197 -2.5893471 5.3338556 -0.00053185376
-0.0072535765 0.0038957063 -0.0023477578 -0.0027453068 -0.01393217 -0.002070412 -0.015308597 -9.582034e-05
-0.00021196007 -0.0006871272 -5.135303e-05 0.009868399 -0.44227353 0.0016842578 -0.01806526 -0.053426664
-5.4445823e-05 0.003453528 0.050634332 -5.0728442e-05 -0.007897754 0.010104758 -0.00019540868 -0.00067823293
-0.0028892416 0.00071527046 0.00071527046 -0.44362438 6e-45 0.0013770883 0.025151858 0.00068510964
0.0 0.0 0.0 0.0 0.0 0.0 0.0 6e-45
0.0 0.0 0.0 0.0 0.0 0.0 0.0 6e-45
0.0 0.0 0.0 0.0 0.0 0.0 0.0 0.0
0.0 0.0 0.0 0.0 0.0 0.0 0.0 0.0
6e-45 6e-45 6e-45 6e-45 6e-45 6e-45 0.0 0.0
0.0 6e-45 6e-45 6e-45 0.0 0.0 0.0 6e-45
0.0 0.0 0.0 0.0 0.0 0.0 0.0 6e-45
0.0 0.0 0.0 0.0 0.0 0.0 0.0 6e-45
0.0 0.0 0.0 0.0 0.0 0.0 0.0 0.0
0.0 0.0 0.0 0.0 0.0 0.0 0.0 0.0
6e-45 6e-45 6e-45 6e-45 6e-45 6e-45 0.0 0.0
0.0 6e-45 6e-45 6e-45 0.0 0.0 0.0 6e-45
6e-45 6e-45 0.0 6e-45 0.0 0.0 6e-45 6e-45
6e-45 6e-45 0.0 6e-45 -6e-45 -6e-45 6e-45 6e-45
6e-45 6e-45 -6e-45 6e-45 -6e-45 -6e-45 6e-45 6e-45
6e-45 6e-45 6e-45 6e-45 6e-45 6e-45 6e-45 6e-45
6e-45 6e-45 6e-45 6e-45 6e-45 6e-45 6e-45 6e-45
6e-45 6e-45 6e-45 6e-45 0.0 6e-45 6e-45 -6e-45
6e-45 6e-45 6e-45 6e-45 6e-45 6e-45 6e-45 6e-45
6e-45 6e-45 6e-45 6e-45 6e-45 6e-45 6e-45 6e-45
00000000: 0400 0000 0400 0000 0400 0000 0400 0000
00000010: 0400 0000 0400 0000 0400 0000 0400 0080
00000020: 0400 0000 0400 0000 0400 0000 0400 0000
00000030: 0400 0000 0400 0000 0400 0000 0400 0000
00000040: 0400 0000 0400 0000 0400 0000 0400 0000
00000050: 0400 0000 0400 0000 0400 0000 0400 0000
00000060: 0400 0000 0400 0000 0400 0000 0400 0000
00000070: 0400 0000 0400 0000 0400 0000 0400 0000
00000080: 0400 0000 0400 0000 0400 0000 0400 0000
00000090: 0400 0000 0400 0000 0400 0000 0400 0000
000000a0: 0400 0000 0400 0000 0400 0000 0400 0000
000000b0: 0400 0080 0400 0080 0400 0080 0400 0000
000000c0: f32b 79be b5a4 e6bd a3f1 a33c 4189 0ebe
000000d0: d70d f9be 7f94 a4bd bf4f 8fbd 4996 5cb8
000000e0: 3abd 7c40 9def 7a3e c4aa 8f3e 3be9 433f
000000f0: e062 a9c0 ddb7 25c0 f2ae aa40 1a6c 0bba
00000100: 69af edbb 1b4f 7f3b d7dc 19bb 9bea 33bb
00000110: c243 64bc c0af 07bb e9d0 7abc 27f3 c8b8
00000120: 9941 5eb9 5320 34ba e563 57b8 11af 213c
00000130: ad71 e2be 50c2 dc3a 99fd 93bc ebd5 5abd
00000140: c25c 64b8 9654 623b f265 4f3d 40c5 54b8
00000150: 9565 01bc 6d8e 253c 9ee6 4cb9 71cb 31ba
00000160: 6e59 3dbb fd80 3b3a fd80 3b3a bc22 e3be
00000170: 0400 0000 6a7f b43a 450b ce3c ee98 333a
00000180: 0000 0000 0000 0000 0000 0000 0000 0000
00000190: 0000 0000 0000 0000 0000 0000 0400 0000
000001a0: 0000 0000 0000 0000 0000 0000 0000 0000
000001b0: 0000 0000 0000 0000 0000 0000 0400 0000
000001c0: 0000 0000 0000 0000 0000 0000 0000 0000
000001d0: 0000 0000 0000 0000 0000 0000 0000 0000
000001e0: 0000 0000 0000 0000 0000 0000 0000 0000
000001f0: 0000 0000 0000 0000 0000 0000 0000 0000
00000200: 0400 0000 0400 0000 0400 0000 0400 0000
00000210: 0400 0000 0400 0000 0000 0000 0000 0000
00000220: 0000 0000 0400 0000 0400 0000 0400 0000
00000230: 0000 0000 0000 0000 0000 0000 0400 0000
00000240: 0000 0000 0000 0000 0000 0000 0000 0000
00000250: 0000 0000 0000 0000 0000 0000 0400 0000
00000260: 0000 0000 0000 0000 0000 0000 0000 0000
00000270: 0000 0000 0000 0000 0000 0000 0400 0000
00000280: 0000 0000 0000 0000 0000 0000 0000 0000
00000290: 0000 0000 0000 0000 0000 0000 0000 0000
000002a0: 0000 0000 0000 0000 0000 0000 0000 0000
000002b0: 0000 0000 0000 0000 0000 0000 0000 0000
000002c0: 0400 0000 0400 0000 0400 0000 0400 0000
000002d0: 0400 0000 0400 0000 0000 0000 0000 0000
000002e0: 0000 0000 0400 0000 0400 0000 0400 0000
000002f0: 0000 0000 0000 0000 0000 0000 0400 0000
00000300: 0400 0000 0400 0000 0000 0000 0400 0000
00000310: 0000 0000 0000 0000 0400 0000 0400 0000
00000320: 0400 0000 0400 0000 0000 0000 0400 0000
00000330: 0400 0080 0400 0080 0400 0000 0400 0000
00000340: 0400 0000 0400 0000 0400 0080 0400 0000
00000350: 0400 0080 0400 0080 0400 0000 0400 0000
00000360: 0400 0000 0400 0000 0400 0000 0400 0000
00000370: 0400 0000 0400 0000 0400 0000 0400 0000
00000380: 0400 0000 0400 0000 0400 0000 0400 0000
00000390: 0400 0000 0400 0000 0400 0000 0400 0000
000003a0: 0400 0000 0400 0000 0400 0000 0400 0000
000003b0: 0000 0000 0400 0000 0400 0000 0400 0080
000003c0: 0400 0000 0400 0000 0400 0000 0400 0000
000003d0: 0400 0000 0400 0000 0400 0000 0400 0000
000003e0: 0400 0000 0400 0000 0400 0000 0400 0000
000003f0: 0400 0000 0400 0000 0400 0000 0400 0000

exp_avg_sq f4 [128, 48]
4.7963013e-08 1.2516054e-07 4.6215525e-09 7.790517e-09 5.1857565e-08 1.747889e-08 9.064853e-08 1.6869143e-17
0.000114625225 0.00017647192 3.1315005e-05 3.606057e-06 0.00013004367 8.888865e-05 0.00014829336 1.8037412e-22
3.3127567e-11 7.439219e-11 5.4660113e-12 5.0040176e-12 3.6786352e-11 1.0291138e-11 6.646698e-11 9.870101e-15
1.3436415e-14 1.581262e-13 1.1829309e-12 1.1864224e-12 1.5899052e-07 1.2623408e-13 2.5434675e-11 1.8797705e-10
6.7883633e-13 1.2954524e-10 8.793096e-10 4.6078426e-14 1.1069477e-10 6.5513574e-11 1.548827e-16 4.634957e-15
2.2588437e-13 3.170686e-13 1.5817741e-12 5.1311968e-08 7.659105e-13 1.880122e-15 1.4234342e-12 1.3389352e-15
27.339394 143.08897 2.4798214 8.636105 29.607191 10.10744 53.848194 0.00047574707
74094.4 205868.56 19598.55 12571.843 82606.72 56216.395 107620.16 0.00020724715
0.018016096 0.085668065 0.0029418638 0.005547444 0.018570201 0.006734774 0.03595843 6.493612e-06
8.098572e-06 9.5341566e-05 0.00083380676 0.006478203 164.2536 0.00015292973 0.01375373 0.11351028
0.00069369987 0.28788486 12.845356 0.00027915518 0.3088391 9.316849 2.8836754e-07 3.9051374e-06
0.00022911563 0.0013664637 0.0014259188 5431.442 2.9987714e-05 3.0393961e-05 0.051688038 2.3078535e-06
0.0 0.0 0.0 0.0 0.0 0.0 0.0 2.6028522e-20
0.0 0.0 0.0 0.0 0.0 0.0 0.0 2.6028522e-20
0.0 0.0 0.0 0.0 0.0 0.0 0.0 0.0
0.0 0.0 0.0 0.0 0.0 0.0 0.0 0.0
2.6028522e-20 2.6028522e-20 3.9184036e-15 2.6028522e-20 2.6028522e-20 3.9184036e-15 0.0 0.0
0.0 2.6028522e-20 2.6028522e-20 3.9184036e-15 0.0 0.0 0.0 7e-43
0.0 0.0 0.0 0.0 0.0 0.0 0.0 8.791292e-21
0.0 0.0 0.0 0.0 0.0 0.0 0.0 8.791292e-21
0.0 0.0 0.0 0.0 0.0 0.0 0.0 0.0
0.0 0.0 0.0 0.0 0.0 0.0 0.0 0.0
8.791292e-21 8.791292e-21 1.3234625e-15 8.791292e-21 8.791292e-21 1.3234625e-15 0.0 0.0
0.0 8.791292e-21 8.791292e-21 1.3234625e-15 0.0 0.0 0.0 7e-43
8.2386644e-16 7.421346e-14 0.0 4.016679e-15 0.0 0.0 1.165608e-16 5.580623e-19
3.1943035e-12 1.1786529e-10 0.0 1.088838e-11 1.5226515e-14 8.935434e-16 1.5359358e-12 4.7510814e-19
5.798136e-19 5.1591774e-17 3.575587e-21 2.7936154e-18 1.4302349e-20 1.4302349e-20 1.0557536e-19 4.593352e-22
4.946331e-22 2.0653634e-20 3.9891577e-20 3.862979e-18 4.572263e-14 7.125939e-21 1.4392987e-18 4.5335162e-17
6.5495897e-19 2.6978648e-16 1.937783e-14 5.336724e-19 3.4397968e-16 1.5715472e-14 9.5826855e-24 1.4378152e-22
4.682739e-20 8.687432e-19 8.687432e-19 4.574039e-12 0.0 3.3682225e-21 1.0373142e-17 1.2090861e-22
0.057491746 0.18055157 0.0045881183 0.013231867 0.059586424 0.018490212 0.11463591 1.8952646e-08
139.0201 252.06685 36.726906 12.456417 155.59126 108.42625 201.57957 1.5548805e-07
00000000: e4ff 4d33 de63 0634 9bcb 9e31 0ed7 0532
00000010: ffb9 5e33 7c24 9632 8eaa c233 2397 9b23
00000020: f362 f038 520b 3939 3b58 0338 96ff 7136
00000030: 555c 0839 bb69 ba38 327f 1b39 160f 5a1b
00000040: 53b2 112e 1497 a32e 7451 c02c 2f10 b02c
00000050: c0c9 212e 2a0b 352d 9529 922e cfcd 3128
00000060: 870c 7228 c608 322a 947b a62b 5ff9 a62b
00000070: fbb6 2a34 7f20 0e2a ccb9 df2d d6ae 4e2f
00000080: 5013 3f2b be6f 0e2f eab3 7130 cf84 4f29
00000090: 9e6b f32e dd10 902e 4e91 3225 effd a627
000000a0: bd52 7e2a 677e b22a 6b9d de2b 1b62 5c33
000000b0: ab95 572b 217a 0727 9f54 c82b fdf5 c026
000000c0: 14b7 da41 c716 0f43 65b5 1e40 7c2d 0a41
000000d0: 87db ec41 13b8 2141 8d64 5742 b16d f939
000000e0: 33b7 9047 240b 4948 1a1d 9946 5f6f 4446
000000f0: 5c57 a147 6598 5b47 1432 d247 7c50 5939
00000100: 7e96 933c bd72 af3d 49cc 403b 55c7 b53b
00000110: 8920 983c 61af dc3b 2649 133d b4e3 d936
00000120: 1adf 0737 1df2 c738 d393 5a3a 1b47 d43b
00000130: ec40 2443 c35b 2039 5357 613c 1478 e83d
00000140: 69d9 353a a565 933e 9486 4d41 935b 9239
00000150: 2920 9e3e d011 1541 efd0 9a34 e008 8336
00000160: c23e 7039 ea1a b33a e5e5 ba3a 89bb a945
00000170: 208e fb37 89f6 fe37 d6b6 533d 9fe0 1a36
00000180: 0000 0000 0000 0000 0000 0000 0000 0000
00000190: 0000 0000 0000 0000 0000 0000 1bd5 f51e
000001a0: 0000 0000 0000 0000 0000 0000 0000 0000
000001b0: 0000 0000 0000 0000 0000 0000 1bd5 f51e
000001c0: 0000 0000 0000 0000 0000 0000 0000 0000
000001d0: 0000 0000 0000 0000 0000 0000 0000 0000
000001e0: 0000 0000 0000 0000 0000 0000 0000 0000
000001f0: 0000 0000 0000 0000 0000 0000 0000 0000
00000200: 1bd5 f51e 1bd5 f51e e52c 8d27 1bd5 f51e
00000210: 1bd5 f51e e52c 8d27 0000 0000 0000 0000
00000220: 0000 0000 1bd5 f51e 1bd5 f51e e52c 8d27
00000230: 0000 0000 0000 0000 0000 0000 f401 0000
00000240: 0000 0000 0000 0000 0000 0000 0000 0000
00000250: 0000 0000 0000 0000 0000 0000 1410 261e
00000260: 0000 0000 0000 0000 0000 0000 0000 0000
00000270: 0000 0000 0000 0000 0000 0000 1410 261e
00000280: 0000 0000 0000 0000 0000 0000 0000 0000
00000290: 0000 0000 0000 0000 0000 0000 0000 0000
000002a0: 0000 0000 0000 0000 0000 0000 0000 0000
000002b0: 0000 0000 0000 0000 0000 0000 0000 0000
000002c0: 1410 261e 1410 261e 26bb be26 1410 261e
000002d0: 1410 261e 26bb be26 0000 0000 0000 0000
000002e0: 0000 0000 1410 261e 1410 261e 26bb be26
000002f0: 0000 0000 0000 0000 0000 0000 f401 0000
00000300: 9d76 6d26 261d a729 0000 0000 53b7 9027
00000310: 0000 0000 0000 0000 ad62 0625 ffb5 2421
00000320: 75c7 602c 2198 012f 0000 0000 e78c 3f2d
00000330: f425 8928 efc5 8026 eb29 d82b 283a 0c21
00000340: 7a21 2b21 d1ec 6d24 f514 871d e721 4e22
00000350: f514 871e f514 871e 6448 f91f 57d3 0a1c
00000360: 627e 151c 6c11 c31e f561 3c1f ce84 8e22
00000370: 9aea 4d29 ed9a 061e 2b67 d421 5012 5124
00000380: 4d4f 4121 7585 9b25 3c8a ae28 2583 1d21
00000390: 714a c625 698d 8d28 295b 3919 3ad2 2d1b
000003a0: d722 5d1f 3134 8021 3134 8021 48ef a02c
000003b0: 0000 0000 e67e 7e1d c759 3f23 672b 121b
000003c0: 777c 6b3d 83e2 383e ed57 963b 79ca 583c
000003d0: e510 743d c978 973c 3bc6 ea3d 4fcd a232
000003e0: 2505 0b43 1d11 7c43 5ae8 1242 7c4d 4741
000003f0: 5d97 1b43 3dda d842 5f94 4943 3bf4 2634

exp_avg f4 [128]
6e-45 0.0007152704 6e-45 6e-45 6e-45 6e-45 6e-45 7.0913435e-21
6e-45 6e-45 6e-45 -0.0014293928 6e-45 6e-45 6e-45 1.6678162e-28
6e-45 6e-45 6e-45 0.00013339378 -0.0015215947 6e-45 6e-45 6e-45
0.0003976641 0.0 6e-45 6e-45 6e-45 6e-45 6e-45 0.0
6e-45 6e-45 0.000891592 6e-45 6e-45 0.0 -0.0013687628 -6e-45
-6e-45 0.0011824096 -0.0017744246 6e-45 6e-45 6e-45 6e-45 6e-45
2.4135475e-06 -0.00070187636 -0.00085365813 1.5649146e-19 6e-45 -5.4140573e-28 6e-45 1.3288006e-38
6e-45 6e-45 6e-45 6e-45 -1.675022e-05 -0.0005315707 -0.0014459528 -0.00086472597
6e-45 6e-45 0.0002534294 6e-45 -0.000634947 1.9304069e-20 6e-45 -6e-45
0.0 6e-45 6e-45 6e-45 6e-45 0.00045605993 6e-45 6e-45
6e-45 -6e-45 0.0 0.0 6e-45 0.0 -0.0016391844 6e-45
0.0 6e-45 3.9491388e-05 -0.00033433197 6e-45 6e-45 -0.0018026145 0.0
6e-45 0.00020320754 6e-45 6e-45 0.0 4.4968873e-19 -0.00031502286 6e-45
0.0 0.0 6e-45 0.0 6e-45 6e-45 6e-45 -6e-45
6e-45 6e-45 6e-45 0.0010696637 6e-45 6e-45 6e-45 0.0
0.0 6e-45 6e-45 6e-45 -6e-45 6e-45 6e-45 6e-45
00000000: 0400 0000 fc80 3b3a 0400 0000 0400 0000
00000010: 0400 0000 0400 0000 0400 0000 a2f3 051e
00000020: 0400 0000 0400 0000 0400 0000 775a bbba
00000030: 0400 0000 0400 0000 0400 0000 bb6b 5311
00000040: 0400 0000 0400 0000 0400 0000 9fdf 0b39
00000050: 3f70 c7ba 0400 0000 0400 0000 0400 0000
00000060: 927d d039 0000 0000 0400 0000 0400 0000
00000070: 0400 0000 0400 0000 0400 0000 0000 0000
00000080: 0400 0000 0400 0000 bab9 693a 0400 0000
00000090: 0400 0000 0000 0000 0f68 b3ba 0400 0080
000000a0: 0400 0080 15fb 9a3a cf93 e8ba 0400 0000
000000b0: 0400 0000 0400 0000 0400 0000 0400 0000
000000c0: 6ef8 2136 20fe 37ba 07c8 5fba a4c0 3820
000000d0: 0400 0000 0d94 2b92 0400 0000 8eb1 9000
000000e0: 0400 0000 0400 0000 0400 0000 0400 0000
000000f0: d382 8cb7 1b59 0bba 2086 bdba c7ae 62ba
00000100: 0400 0000 0400 0000 b8de 8439 0400 0000
00000110: 9272 26ba 6052 b61e 0400 0000 0400 0080
00000120: 0000 0000 0400 0000 0400 0000 0400 0000
00000130: 0400 0000 541b ef39 0400 0000 0400 0000
00000140: 0400 0000 0400 0080 0000 0000 0000 0000
00000150: 0400 0000 0000 0000 e7d9 d6ba 0400 0000
00000160: 0000 0000 0400 0000 8ea3 2538 4749 afb9
00000170: 0400 0000 0400 0000 b545 ecba 0000 0000
00000180: 0400 0000 1c14 5539 0400 0000 0400 0000
00000190: 0000 0000 85b9 0421 a729 a5b9 0400 0000
000001a0: 0000 0000 0000 0000 0400 0000 0000 0000
000001b0: 0400 0000 0400 0000 0400 0000 0400 0080
000001c0: 0400 0000 0400 0000 0400 0000 f533 8c3a
000001d0: 0400 0000 0400 0000 0400 0000 0000 0000
000001e0: 0000 0000 0400 0000 0400 0000 0400 0000
000001f0: 0400 0080 0400 0000 0400 0000 0400 0000

exp_avg_sq f4 [128]
1.1832023e-12 0.0013994157 2.6028522e-20 8.791292e-21 8.687432e-19 1.699314e-06 1.7143525e-10 3.208507e-05
1.7604754e-20 5.8924393e-10 3.733362e-20 0.0047957036 3.372733e-21 4.9381197e-06 5.075382e-17 5.518452e-05
2.2049458e-11 7.9281474e-16 3.6445863e-10 0.0010030427 0.004397037 7.338406e-18 4.4559178e-07 9.387663e-08
0.00088764634 0.0 1.366485e-15 2.2158586e-11 3.525228e-11 1.5603374e-18 7.494163e-20 0.0
4.7773706e-06 1.3430175e-11 0.001368242 3.2675957e-20 5.5275977e-19 0.0 0.008353576 1.1152742e-19
6.794727e-21 0.0033237843 0.014660831 1.0458836e-09 4.257e-20 6.74358e-11 4.709486e-19 3.7626924e-19
0.0006153184 0.0012317309 0.0017811029 4.2140323e-06 5.4899966e-15 1.3267968e-05 7.222314e-21 0.0009653575
8.1398035e-09 3.9159313e-16 6.067434e-22 2.1243325e-20 0.00011111132 0.0009722209 0.005098396 0.0009872442
1.0018799e-18 1.0853227e-22 0.0003227506 8.3983935e-15 0.0012475451 7.217552e-05 8.537352e-10 4.3636476e-19
0.0 1.5812544e-05 2.5442884e-19 2.9143906e-20 2.0271675e-12 0.0008325655 1.2215216e-15 4.1693606e-20
4.264835e-18 7.7063726e-20 0.0 0.0 2.1193542e-12 0.0 0.00668965 1.6519548e-19
0.0 2.7366756e-13 0.00021903013 0.0013204543 2.744735e-20 5.779553e-16 0.0023692069 0.0
8.3678986e-10 4.1645904e-05 8.5467054e-17 2.079004e-12 0.0 1.8196246e-05 0.0010258877 2.2814119e-11
0.0 0.0 8.172939e-13 0.0 8.524371e-21 3.2748706e-09 1.8669864e-12 1.6183883e-19
6.006039e-08 2.0665507e-08 0.000117282405 0.00073606824 9.943064e-13 7.450094e-10 3.9419266e-19 0.0
0.0 1.6813902e-14 6.0180414e-13 4.3389475e-19 4.023201e-19 6.874888e-11 1.6733758e-11 1.804017e-22
00000000: 5b85 a62b 996c b73a 1bd5 f51e 1410 261e
00000010: 3134 8021 fc13 e435 bc7e 3c2f 1593 0638
00000020: af45 a61e 5bf8 2130 944d 301f 4725 9d3b
00000030: 25d6 7e1d 20b2 a536 890f 6a24 ed75 6738
00000040: f7f2 c12d 6783 6426 fe5c c82f 8778 833a
00000050: 0515 903b a45e 0723 ab39 ef34 3999 c933
00000060: f0b0 683a 0000 0000 66ee c426 b3e8 c22d
00000070: 8a0a 1b2e e143 e621 70f3 b01f 0000 0000
00000080: 4d4d a036 2244 6c2d 9556 b33a cf4e 1a1f
00000090: 5925 2321 0000 0000 70dd 083c 18ab 0320
000000a0: 4959 001e d9d3 593b fb33 703c c2be 8f30
000000b0: f907 491f fb4a 942e dfff 0a21 331c de20
000000c0: 524d 213a 0872 a13a e573 e93a 4366 8d36
000000d0: 48cc c527 7d99 5e37 f86c 081e 0c10 7d3a
000000e0: 3cd7 0b32 f2bc e125 7f60 371c 35a3 c81e
000000f0: 7004 e938 a4dc 7e3a 7210 a73b 6b66 813a
00000100: f4d9 9321 1c35 031b da36 a939 c14a 1728
00000110: ab84 a33a f05c 9738 46ac 6a30 caca 0021
00000120: 0000 0000 2ea5 8437 3330 9620 d2a0 091f
00000130: 34a6 0e2c 8640 5a3a 310a b026 7ae4 441f
00000140: 3a58 9d22 2af6 b51f 0000 0000 0000 0000
00000150: e422 152c 0000 0000 da34 db3b 4507 4320
00000160: 0000 0000 a70f 9a2a 74ab 6539 1813 ad3a
00000170: cf9d 011f 9395 2626 b244 1b3b 0000 0000
00000180: da03 6630 f3ac 2e38 d812 c524 024c 122c
00000190: 0000 0000 24a4 9837 1477 863a d4ac c82d
000001a0: 0000 0000 0000 0000 3b0c 662b 0000 0000
000001b0: 5405 211e 220c 6131 a360 032c c910 3f20
000001c0: 8cfa 8033 ee83 b132 83f5 f538 b4f4 403a
000001d0: aaef 8b2b 60c9 4c30 b6b0 e820 0000 0000
000001e0: 0000 0000 3872 9728 8f64 292b 2910 0021
000001f0: e57c ed20 2e2e 972e 1331 932d 9f17 5a1b

exp_avg f4 [64, 128]
0.0 6e-45 6e-45 6e-45 6e-45 6e-45 0.0 0.0
6e-45 6e-45 6e-45 6e-45 0.0 6e-45 6e-45 6e-45
0.0 6e-45 6e-45 6e-45 6e-45 6e-45 6e-45 6e-45
6e-45 0.0 0.0 6e-45 6e-45 0.0 6e-45 0.0
6e-45 6e-45 6e-45 6e-45 0.0 0.0 6e-45 6e-45
6e-45 6e-45 6e-45 6e-45 6e-45 6e-45 0.0 6e-45
6e-45 6e-45 6e-45 6e-45 6e-45 6e-45 6e-45 6e-45
6e-45 0.0 0.0 6e-45 6e-45 6e-45 6e-45 6e-45
6e-45 0.0 6e-45 6e-45 6e-45 6e-45 6e-45 6e-45
0.0 6e-45 6e-45 -6e-45 0.0 6e-45 0.0 6e-45
0.0 6e-45 0.0 0.0 6e-45 0.0 6e-45 6e-45
0.0 0.0 6e-45 6e-45 6e-45 6e-45 6e-45 0.0
6e-45 6e-45 0.0 6e-45 0.0 6e-45 6e-45 6e-45
0.0 0.0 0.0 0.0 0.0 6e-45 6e-45 6e-45
6e-45 6e-45 6e-45 6e-45 6e-45 6e-45 6e-45 0.0
0.0 6e-45 6e-45 6e-45 6e-45 6e-45 6e-45 0.0
6e-45 -1.6387614 -6e-45 -6e-45 -6e-45 -6e-45 -6e-45 3.2265309e-18
-6e-45 6e-45 -6e-45 2.3097172 6e-45 -6e-45 6e-45 -6e-45
6e-45 6e-45 6e-45 -0.9543746 -0.3866432 -6e-45 -6e-45 -6e-45
-1.0237671 0.0 6e-45 -6e-45 6e-45 6e-45 -6e-45 0.0
-6e-45 -6e-45 -2.2353487 -6e-45 -6e-45 0.0 -8.350974e-14 -6e-45
-6e-45 -1.5901343 -4.2714277e-11 6e-45 -6e-45 -6e-45 -6e-45 -6e-45
-6e-45 1.0430293 0.7251942 -6e-45 6e-45 6e-45 -6e-45 1.4124899e-36
6e-45 6e-45 6e-45 -6e-45 6e-45 0.5711835 0.32158738 0.8690678
-6e-45 6e-45 0.41865465 6e-45 0.8386202 -3.816821e-18 6e-45 -6e-45
0.0 -6e-45 -6e-45 -6e-45 6e-45 -1.5674613 -6e-45 -6e-45
-6e-45 -6e-45 0.0 0.0 6e-45 0.0 3.2620862 -6e-45
0.0 6e-45 -0.33637837 6e-45 -6e-45 6e-45 -6e-45 0.0
-6e-45 -6e-45 6e-45 6e-45 0.0 -6e-45 0.112147845 6e-45
0.0 0.0 -6e-45 0.0 -6e-45 6e-45 6e-45 -6e-45
6e-45 6e-45 -6e-45 -6e-45 -6e-45 6e-45 -6e-45 0.0
0.0 6e-45 6e-45 -6e-45 -6e-45 6e-45 6e-45 -6e-45
00000000: 0000 0000 0400 0000 0400 0000 0400 0000
00000010: 0400 0000 0400 0000 0000 0000 0000 0000
00000020: 0400 0000 0400 0000 0400 0000 0400 0000
00000030: 0000 0000 0400 0000 0400 0000 0400 0000
00000040: 0000 0000 0400 0000 0400 0000 0400 0000
00000050: 0400 0000 0400 0000 0400 0000 0400 0000
00000060: 0400 0000 0000 0000 0000 0000 0400 0000
00000070: 0400 0000 0000 0000 0400 0000 0000 0000
00000080: 0400 0000 0400 0000 0400 0000 0400 0000
00000090: 0000 0000 0000 0000 0400 0000 0400 0000
000000a0: 0400 0000 0400 0000 0400 0000 0400 0000
000000b0: 0400 0000 0400 0000 0000 0000 0400 0000
000000c0: 0400 0000 0400 0000 0400 0000 0400 0000
000000d0: 0400 0000 0400 0000 0400 0000 0400 0000
000000e0: 0400 0000 0000 0000 0000 0000 0400 0000
000000f0: 0400 0000 0400 0000 0400 0000 0400 0000
00000100: 0400 0000 0000 0000 0400 0000 0400 0000
00000110: 0400 0000 0400 0000 0400 0000 0400 0000
00000120: 0000 0000 0400 0000 0400 0000 0400 0080
00000130: 0000 0000 0400 0000 0000 0000 0400 0000
00000140: 0000 0000 0400 0000 0000 0000 0000 0000
00000150: 0400 0000 0000 0000 0400 0000 0400 0000
00000160: 0000 0000 0000 0000 0400 0000 0400 0000
00000170: 0400 0000 0400 0000 0400 0000 0000 0000
00000180: 0400 0000 0400 0000 0000 0000 0400 0000
00000190: 0000 0000 0400 0000 0400 0000 0400 0000
000001a0: 0000 0000 0000 0000 0000 0000 0000 0000
000001b0: 0000 0000 0400 0000 0400 0000 0400 0000
000001c0: 0400 0000 0400 0000 0400 0000 0400 0000
000001d0: 0400 0000 0400 0000 0400 0000 0000 0000
000001e0: 0000 0000 0400 0000 0400 0000 0400 0000
000001f0: 0400 0000 0400 0000 0400 0000 0000 0000
00000200: 0400 0000 efc2 d1bf 0400 0080 0400 0080
00000210: 0400 0080 0400 0080 0400 0080 7213 6e22
00000220: 0400 0080 0400 0000 0400 0080 68d2 1340
00000230: 0400 0000 0400 0080 0400 0000 0400 0080
00000240: 0400 0000 0400 0000 0400 0000 e551 74bf
00000250: 19f6 c5be 0400 0080 0400 0080 0400 0080
00000260: cd0a 83bf 0000 0000 0400 0000 0400 0080
00000270: 0400 0000 0400 0000 0400 0080 0000 0000
00000280: 0400 0080 0400 0080 f40f 0fc0 0400 0080
00000290: 0400 0080 0000 0000 160c bca9 0400 0080
000002a0: 0400 0080 8589 cbbf 00dc 3bae 0400 0000
000002b0: 0400 0080 0400 0080 0400 0080 0400 0080
000002c0: 0400 0080 fc81 853f 54a6 393f 0400 0080
000002d0: 0400 0000 0400 0000 0400 0080 9d52 f003
000002e0: 0400 0000 0400 0000 0400 0000 0400 0080
000002f0: 0400 0000 1539 123f 1aa7 a43e 3a7b 5e3f
00000300: 0400 0080 0400 0000 e759 d63e 0400 0000
00000310: d0af 563f dbd0 8ca2 0400 0000 0400 0080
00000320: 0000 0000 0400 0080 0400 0080 0400 0080
00000330: 0400 0000 92a2 c8bf 0400 0080 0400 0080
00000340: 0400 0080 0400 0080 0000 0000 0000 0000
00000350: 0400 0000 0000 0000 05c6 5040 0400 0080
00000360: 0000 0000 0400 0000 c939 acbe 0400 0000
00000370: 0400 0080 0400 0000 0400 0080 0000 0000
00000380: 0400 0080 0400 0080 0400 0000 0400 0000
00000390: 0000 0000 0400 0080 c5ad e53d 0400 0000
000003a0: 0000 0000 0000 0000 0400 0080 0000 0000
000003b0: 0400 0080 0400 0000 0400 0000 0400 0080
000003c0: 0400 0000 0400 0000 0400 0080 0400 0080
000003d0: 0400 0080 0400 0000 0400 0080 0000 0000
000003e0: 0000 0000 0400 0000 0400 0000 0400 0080
000003f0: 0400 0080 0400 0000 0400 0000 0400 0080
