src/model_data/Monaco_Grand_Prix_model.pth (torch, 197923 bytes, 21 tensors)

net.0.weight f4 [128, 48]
0	0x3e29656e	0.16542599
1	0x3e1741bf	0.14771174
2	0x3d9e53d2	0.07730831
3	0xbe32d63c	-0.17464536
4	0xbda3be6f	-0.07995307
5	0x3db33cd8	0.087518394
6	0x3de5054b	0.1118265
7	0xbe3bf97b	-0.18356888
8	0x3d80c1e4	0.06286982
9	0xbe2d39c7	-0.16916572
10	0x3e0203aa	0.1269671
11	0xbd3f58f9	-0.04671571
12	0xbc1ce1a5	-0.009575282
13	0xbdc1b057	-0.09457462
14	0x3d62d514	0.05537899
15	0xbe02501e	-0.12725875
16	0x3d728c5f	0.0592159
17	0x3d21f260	0.039537787
18	0x3d1e37d3	0.038627457
19	0x3d0288bb	0.031868678
20	0x3d029ee3	0.031889807
21	0x3c1ed4e7	0.009694315
22	0xbd978c1d	-0.07399771
23	0xbe2f539c	-0.17121738
24	0x3e09826c	0.13428658
25	0x3cf235cd	0.02956667
26	0x3e32b5d4	0.17452174
27	0xbd6b6282	-0.05746699
28	0x3d9656e2	0.0734079
29	0x3e158474	0.14601308
30	0x3d9c9b08	0.07646757
31	0x3d6f974a	0.05849389
32	0x3d87e216	0.06634919
33	0x3d5017ab	0.05080382
34	0xbd4cd5d3	-0.050008606
35	0xbe16f3d3	-0.14741449
36	0x3dc51580	0.096232414
37	0x3e013509	0.12617888
38	0xbd93a032	-0.07208289
39	0xbe263950	-0.162328
40	0xbde08d4a	-0.10964449
41	0xbde0ab7a	-0.109702066
42	0x3d7621c1	0.060090784
43	0xbe2e5c89	-0.17027487
44	0x3d10b7bd	0.035331476
45	0x3da6ec65	0.081505574
46	0x3dc09190	0.09402764
47	0x3db4ae13	0.088222645
48	0x3d9191f5	0.07107917
49	0xbe0139a3	-0.12619643
50	0xbe1e9161	-0.15485145
51	0xbcfc2a4d	-0.03078189
52	0x3dfd4316	0.12366311
53	0xbd87d846	-0.06633048
54	0x3cf0321b	0.029320767
55	0x3cd86434	0.026414968
56	0xbe107c53	-0.14109926
57	0xbe3cd185	-0.184393
58	0x3c3ff972	0.011717187
59	0xbd244f74	-0.040114835
60	0xbe1d8af8	-0.15385044
61	0x3d7e1a60	0.062036872
62	0xbd5fa058	-0.054596275
63	0x3dc80905	0.09767345
64	0x3e247ab2	0.1606243
65	0x3e0d51a8	0.1380068
66	0x3e072c3d	0.1320047
67	0x3c14e1ed	0.009087068
68	0xbdee1fb4	-0.11627141
69	0x3db59efb	0.08868214
70	0xbd892c3c	-0.0669789
71	0xbd95e1c1	-0.0731845
72	0x3caa8df4	0.020819642
73	0x3cbff723	0.023433274
74	0xbe34c9cf	-0.17655109
75	0x3e2bf764	0.16793591
76	0xbc2264a4	-0.00991169
77	0x38abce11	8.192298e-05
78	0xbdce40d3	-0.10070958
79	0xbda98091	-0.08276475
80	0x3da25ce9	0.079278775
81	0x3e11e029	0.14245667
82	0xbe211455	-0.15730412
83	0x3c60d15d	0.013721791
84	0xbe3413fe	-0.17585751
85	0x3d8d8e85	0.06911949
86	0xbe3086de	-0.17238948
87	0x3e028eff	0.12749861
88	0xbc1168ce	-0.008875085
89	0xbdf43e12	-0.119259015
90	0x3db8d3e0	0.09024787
91	0x3da7f239	0.08200497
92	0xbda0338b	-0.07822331
93	0x3cfb17cb	0.030650994
94	0xbe37f1ed	-0.17963381
95	0xbb87f979	-0.0041496125
96	0x3d125290	0.03572327
97	0xbe42cffc	-0.19024652
98	0xbd60a964	-0.054849043
99	0xbe388aea	-0.18021742
100	0x3d78d5aa	0.06075064
101	0x3d6d166b	0.057882708
102	0xbe7ba38c	-0.24574107
103	0xbdce9e29	-0.100887604
104	0xbdd5862e	-0.10425983
105	0xbcc90006	-0.024536144
106	0xbe0d486a	-0.13797155
107	0xbc9845e9	-0.018588023
108	0x3d8e5806	0.06950383
109	0xbe007b3c	-0.1254701
110	0xbe27cb3d	-0.16386123
111	0xbe1705bb	-0.1474828
112	0xbe33adbb	-0.17546742
113	0x3deb873d	0.11500404
114	0xbbd79c61	-0.006579921
115	0xbbb53065	-0.0055294507
116	0xbe418491	-0.18898226
117	0x3e4eb3cf	0.20185779
118	0xbe40794d	-0.18796273
119	0xbe1263fa	-0.1429595
120	0x3c9f6c62	0.01946086
121	0x3d90f3a0	0.07077718
122	0xbc0de95b	-0.008661593
123	0xbe4b7070	-0.1986711
124	0xbe25f146	-0.1620532
125	0xbe6ba85a	-0.2301344
126	0xbddfe23a	-0.10931821
127	0xbe8b0d02	-0.27158362
128	0xbe1df360	-0.15424871
129	0xbe0251a3	-0.12726454
130	0xbe069265	-0.13141783
131	0x3db57c59	0.08861608
132	0xbe2a237b	-0.16615097
133	0xbe7038ae	-0.23459122
134	0xbd1b6f36	-0.037947856
135	0x3cd7bcb7	0.026335103
136	0xbd5488b3	-0.05188818
137	0xbc5c9c66	-0.013465023
138	0xbc84590e	-0.016155746
139	0xbc9e580b	-0.019329092
140	0x3d8c11af	0.068393104
141	0x3d0a7c48	0.03380993
142	0x3e88b403	0.26699838
143	0x3e8d3a7f	0.2758369
144	0xbba2c7e3	-0.004967676
145	0xbca07653	-0.019587671
146	0xbe112f43	-0.14178185
147	0x3d6f4677	0.05841681
148	0x3d8ab23c	0.06772277
149	0x3e3a2639	0.18178643
150	0x3d587016	0.05284127
151	0xbe46dcfa	-0.19420233
152	0xbe01af6a	-0.12664571
153	0xbe27baba	-0.16379824
154	0x3e3cfdaa	0.1845614
155	0x3c8408e4	0.01611752
156	0xbe1d6451	-0.15370299
157	0xbe166929	-0.14688553
158	0xbdc07e60	-0.09399104
159	0x3daef543	0.08542874
160	0xbe0679cf	-0.13132404
161	0xbe271160	-0.16315222
162	0x3d5aee2c	0.053449795
163	0x3e08de21	0.13365985
164	0x3be0fd96	0.0068661673
165	0xbe230ec0	-0.15923595
166	0xbe34bff7	-0.17651354
167	0xbe1c705a	-0.15277234
168	0x3e18ea6b	0.14933173
169	0x3e2bb174	0.16766912
170	0x3d0683ee	0.03284066
171	0xbde0799e	-0.10960697
172	0x3d1768d9	0.036965225
173	0x3e2c4b93	0.16825704
174	0xbdb01c95	-0.085992016
175	0x3c530398	0.012879275
176	0xbe2d882c	-0.16946477
177	0xbdd3e4fb	-0.10346409
178	0x3e21eefb	0.1581382
179	0x3dcb7b4c	0.099356264
180	0xbd6c2135	-0.057648856
181	0xbe045e51	-0.12926604
182	0xbd89c94b	-0.06727847
183	0x3e3cc452	0.18434265
184	0x3e3be44c	0.18348807
185	0x3d350db3	0.044202518
186	0x3c46b25b	0.012127484
187	0x3cfe687f	0.031055687
188	0x3dd73447	0.10508018
189	0xbd830d2d	-0.063989975
190	0xbd6c329e	-0.05766546
191	0x3d9a1241	0.07523013
192	0xbede8c1e	-0.43466276
193	0xbea6c895	-0.32574907
194	0xbe1c4dc2	-0.15264037
195	0xbecc3294	-0.39882338
196	0xbe8eb4ba	-0.27872258
197	0xbedbaee1	-0.4290686
198	0xbed532f9	-0.41640452
199	0xbdbc0b33	-0.091818236
200	0xbe8d1c99	-0.2756088
201	0xbc6dd620	-0.014516383
202	0xbe3e8e79	-0.18609037
203	0xbec09e07	-0.37620565
204	0xbcd300be	-0.02575719
205	0x3d982ffa	0.07431026
206	0xbe4120bb	-0.18860142
207	0xbead385f	-0.3383207
208	0xbf3d8209	-0.7402654
209	0xbd94dafc	-0.072683305
210	0xbe17228d	-0.14759274
211	0xbf0b8425	-0.5449851
212	0xbe045fc8	-0.12927163
213	0xbda251af	-0.07925736
214	0xbf2e0348	-0.67973757
215	0xbf355424	-0.70831513
216	0xbf31ec1f	-0.6950092
217	0xbeef58c9	-0.46747425
218	0xbefc9e03	-0.49339303
219	0x3bf4d175	0.0074712583
220	0xbe0e7a81	-0.13913919
221	0xbe71c64c	-0.236108
222	0xbf3306e2	-0.6993238
223	0xbe5bfad7	-0.21482407
224	0xbeadc78b	-0.33941302
225	0xbc0b638b	-0.00850762
226	0x3d851f26	0.06500082
227	0xbe6c71ee	-0.23090336
228	0xbd7b6787	-0.06137803
229	0xbd04e479	-0.03244445
230	0xbf2c59da	-0.673246
231	0xbef17da7	-0.47166178
232	0xbe90c6f1	-0.2827678
233	0xbe357fee	-0.17724583
234	0xbe89a742	-0.2688542
235	0x3ebae398	0.36501765
236	0xbd5dafd5	-0.054122765
237	0x3f29c229	0.6631189
238	0x3f20c8da	0.62806475
239	0xbf13f125	-0.5778983
240	0xbe698db6	-0.22807965
241	0xbe309e4e	-0.17247888
242	0x3d4f1d8c	0.050565287
243	0x3c21d1e6	0.009876704
244	0xbd2a6d1f	-0.041607972
245	0xbdc68f27	-0.09695273
246	0x3dc465a6	0.095897004
247	0x3e0a6683	0.13515668
248	0x3c0030aa	0.007824102
249	0xbdb9ecc2	-0.09078361
250	0x3d1d78c3	0.038445245
251	0xbdbc46d4	-0.09193197
252	0xbe0cc312	-0.13746288
253	0xbdb83f88	-0.089964926
254	0x3db03559	0.08603925
255	0xbe15ff77	-0.14648233

net.0.bias f4 [128]
0	0xbd2ed861	-0.042686824
1	0x00000000	0.0
2	0xbe1c6273	-0.1527193
3	0xbc309daf	-0.010779782
4	0xbe18c873	-0.14920215
5	0xbd6f7537	-0.058461394
6	0x3e336ba6	0.17521533
7	0x00000000	0.0
8	0xbd6e9fa1	-0.058257703
9	0xbdff79b6	-0.124743864
10	0xbf5761a3	-0.84133357
11	0xbd406f74	-0.04698129
12	0xbd070b6c	-0.032969877
13	0xbe1690ac	-0.14703625
14	0xbdee4291	-0.1163379
15	0xbe405696	-0.1878303
16	0x00000000	0.0
17	0xbc6501d1	-0.013977484
18	0x3b770ab7	0.0037695596
19	0xbe04254c	-0.12904853
20	0x00000000	0.0
21	0x3e6dc293	0.23218755
22	0xbc64aca7	-0.013957179
23	0xbd2e2858	-0.042518944
24	0x00000000	0.0
25	0xbd9bf6e5	-0.07615451
26	0x00000000	0.0
27	0x00000000	0.0
28	0xbb539d6f	-0.0032289883
29	0xbd3ccbcc	-0.046092793
30	0xbd8efc44	-0.069817096
31	0xbcc23aac	-0.023709618
32	0xbe0768c9	-0.13223566
33	0x3d019983	0.03164054
34	0xbdf264b2	-0.11835612
35	0x3edf9b19	0.43673018
36	0xbbb185ab	-0.005417546
37	0x00000000	0.0
38	0xbf223363	-0.6335966
39	0xbd0979ae	-0.03356331
40	0xbe3ef2f0	-0.18647361
41	0xbe41fb9c	-0.18943638
42	0xbda84741	-0.082167156
43	0xbf2ce72d	-0.67540246
44	0x3e70dc86	0.23521623
45	0xbcb9c478	-0.022676691
46	0x3c735550	0.014851883
47	0xbc580271	-0.013184176
48	0xbcfaf5ce	-0.030634787
49	0xbd0d4746	-0.0344918
50	0x00000000	0.0
51	0xbe126692	-0.1429694
52	0xbd33e80c	-0.04392247
53	0xbdee9e62	-0.11651303
54	0xbdcb2967	-0.09920006
55	0x3f0fee65	0.56223136
56	0xbd66fad9	-0.05639157
57	0xbd79f6de	-0.061026447
58	0xbd3459b0	-0.044030845
59	0x3d3f32cf	0.046679314
60	0xbd8db289	-0.069188185
61	0x3e8ae307	0.27126333
62	0xbdb1da66	-0.08684234
63	0x3e17f234	0.14838487
64	0xbda52b66	-0.08064918
65	0xbd90c0f7	-0.07068055
66	0xbd209f79	-0.039214585
67	0xbdaccb7f	-0.08437251
68	0xbe4f1490	-0.20222688
69	0xbe083b0f	-0.13303779
70	0xbcfb2b0f	-0.03066018
71	0xbd2bc7bd	-0.041938532
72	0xbd986f26	-0.07443075
73	0xbe3422d1	-0.17591406
74	0xbe1a49de	-0.1506724
75	0x3d05728b	0.03257994
76	0xbea79bab	-0.32735953
77	0xbd711071	-0.05885357
78	0xbf130124	-0.57423615
79	0xbc8f1908	-0.01746799
80	0x00000000	0.0
81	0xbd85c15f	-0.06531023
82	0x00000000	0.0
83	0x3f2d7cd8	0.6776862
84	0x3dada4bd	0.08478687
85	0xbd021b11	-0.031764094
86	0xbd8df9c9	-0.06932408
87	0x3f43beb1	0.76462847
88	0x00000000	0.0
89	0xbdfde0a0	-0.123963594
90	0x3f198a53	0.5997669
91	0xbe872c5b	-0.26401028
92	0xbdc424c2	-0.095773235
93	0xbdf91223	-0.121616624
94	0x00000000	0.0
95	0x3d0c074b	0.034186643
96	0xbb2d350f	-0.002642933
97	0xbc40c6ad	-0.011766118
98	0x3d85350e	0.0650426
99	0xbcc5c2b2	-0.02414069
100	0x00000000	0.0
101	0x00000000	0.0
102	0xbdd5bf8d	-0.10436926
103	0xbc442974	-0.011972774
104	0x00000000	0.0
105	0x00000000	0.0
106	0x00000000	0.0
107	0x00000000	0.0
108	0xbcf71e04	-0.03016568
109	0x00000000	0.0
110	0xbd255dfe	-0.04037284
111	0xbdc8eea4	-0.09811142
112	0xbcfee9c1	-0.031117322
113	0x3d8d89e8	0.06911069
114	0xbc9da043	-0.019241458
115	0x3f4cdee8	0.8002763
116	0x3cb8d3e0	0.022561967
117	0x00000000	0.0
118	0xbe775b68	-0.24155962
119	0xbdbc319e	-0.09189151
120	0xbdf37cb0	-0.11889017
121	0x3ea2e04e	0.31811756
122	0xbdba8491	-0.09107316
123	0xbdc88879	-0.09791655
124	0xb7c2d418	-2.3225366e-05
125	0xbe2d148f	-0.16902374
126	0xbdaac8ba	-0.08339067
127	0xbd745223	-0.059648644

net.2.weight f4 [64, 128]
0	0x3db09998	0.08623046
1	0x3e162af1	0.14664818
2	0xbe10670f	-0.14101814
3	0xbe50e564	-0.20400006
4	0x3e0b6ee3	0.13616519
5	0xbe3265ba	-0.17421618
6	0xbd846963	-0.064654134
7	0x3a993cdf	0.0011691115
8	0x3dee696e	0.11641203
9	0xbdae7fff	-0.08520507
10	0xbbd1f9f8	-0.0064079724
11	0x3d4564d0	0.048191845
12	0xbe03afdd	-0.12860055
13	0xbe284036	-0.16430745
14	0xbe256bfb	-0.16154473
15	0x3d9e734d	0.07736836
16	0x3d8cc11f	0.068727724
17	0x3ddf5543	0.10904934
18	0xbe210ebc	-0.15728277
19	0xbe241561	-0.1602378
20	0xbd9fde3c	-0.0780606
21	0xbe26c3a9	-0.16285576
22	0xbc283f3c	-0.0102689825
23	0x3e015894	0.12631446
24	0xbd88ef67	-0.066862874
25	0x3c592eae	0.013255758
26	0x3d873a45	0.06602911
27	0xbd968675	-0.073498644
28	0x3d6ec1bd	0.058290232
29	0x3d88bfb2	0.06677188
30	0xbe362c29	-0.17790283
31	0xbd94e8e2	-0.07270981
32	0x3e1ab59b	0.1510834
33	0xbe6f353a	-0.23360148
34	0xbe157a52	-0.14597443
35	0x3cce7ed9	0.02520697
36	0x3da66da6	0.081263825
37	0xbd78b626	-0.060720585
38	0xbd254dd2	-0.04035742
39	0x3d99461c	0.074840754
40	0x3dd8cff3	0.10586538
41	0x3d2015e5	0.03908338
42	0xbe0c0b97	-0.13676296
43	0xbcaa123e	-0.020760652
44	0xbda7b0d7	-0.081880264
45	0xbd1a1e32	-0.037626453
46	0xbc851627	-0.016245915
47	0x3dae3b37	0.08507388
48	0x3d4fc18c	0.05072169
49	0x3cf136c7	0.029445065
50	0xbcaeda8e	-0.02134445
51	0xbd3875d0	-0.04503423
52	0x3e25e38c	0.16200083
53	0x3d82f0d2	0.06393589
54	0xbe26ee2b	-0.16301791
55	0xbe26d292	-0.16291264
56	0x3c0f5a00	0.008749485
57	0xbd5db812	-0.05413062
58	0xbd489c7b	-0.048977356
59	0x3bd44d81	0.0064789657
60	0x3d89e955	0.06733958
61	0xbd137b48	-0.036006242
62	0x3b2fd297	0.0026828402
63	0xbc35e57b	-0.011102076
64	0xbe5946a6	-0.21218356
65	0x3e019bc0	0.1265707
66	0xbd2f0067	-0.042724993
67	0x3dccaff9	0.099945016
68	0xbd3a3409	-0.04545978
69	0x3cbb3d95	0.022856513
70	0xbdb490ae	-0.08816658
71	0xbc7f152e	-0.0155690145
72	0x3da20639	0.07911343
73	0xbcad9e92	-0.021193776
74	0xbc68ce16	-0.014209291
75	0x3d9a27fc	0.07527158
76	0x3d761030	0.06007403
77	0x3dce32ca	0.10068281
78	0xbe4423a9	-0.19154228
79	0x3d8b767c	0.068097085
80	0x3db67478	0.089089334
81	0x3cf9d469	0.030496793
82	0xbdbd30d0	-0.09237826
83	0xbd25a9dd	-0.040445197
84	0x3d99e222	0.075138345
85	0x3e0fb8b1	0.14035298
86	0xbd8275f8	-0.06370157
87	0xbd612467	-0.054966357
88	0xbc20063b	-0.00976711
89	0xbdaf8f13	-0.08572211
90	0xbe05cfd4	-0.13067561
91	0x3d93226d	0.071843006
92	0xbde6068b	-0.11231717
93	0x3d293991	0.041314665
94	0xbdd65b68	-0.10466653
95	0xbe45451f	-0.19264649
96	0xbd06b858	-0.032890648
97	0xbd7b9240	-0.06141877
98	0xbe4f2b2b	-0.20231311
99	0xbe2a395f	-0.16623448
100	0x3e2c265e	0.16811511
101	0x3ca2d550	0.019877106
102	0x3cc6dca9	0.02427514
103	0xbde09b8c	-0.10967168
104	0x3daaba0a	0.083362654
105	0x3c068512	0.008210437
106	0x3d2f0ca0	0.04273665
107	0x3da300a0	0.079591036
108	0xbe1d23cc	-0.15345687
109	0xbd6faed6	-0.058516346
110	0x3e36e917	0.17862354
111	0xbc7e5dc2	-0.015525283
112	0x3ccf73a7	0.025323702
113	0x3df375b4	0.118876845
114	0x3e27d09c	0.16388172
115	0xbe5113ec	-0.20417756
116	0x3dbbdafb	0.091726266
117	0xbc87bd15	-0.016569654
118	0x3dc8a648	0.09797341
119	0xbe22a255	-0.15882237
120	0xbe3669b0	-0.17813754
121	0xbd9e9291	-0.07742799
122	0xbd900e0a	-0.07033928
123	0xbe341fe6	-0.17590293
124	0x3dd4d85b	0.10392829
125	0xbe30dbfe	-0.1727142
126	0xbe157a3f	-0.14597414
127	0xbd9eb637	-0.077495985
128	0xbe1e976b	-0.15487449
129	0xbdc2e9c0	-0.095172405
130	0xbd6bab3b	-0.057536345
131	0x3d4d4290	0.050112307
132	0xbc6a2704	-0.014291529
133	0x3e52ade7	0.20574151
134	0x3cc39db2	0.023878906
135	0x3e0eb2c7	0.13935386
136	0x3b1d4e19	0.0024002849
137	0x3e164038	0.14672935
138	0xbe2ab984	-0.16672331
139	0xbdde5be3	-0.1085737
140	0x3c8ba6e0	0.017047346
141	0x3da197c1	0.07890273
142	0x3d522d63	0.051312815
143	0xbe4a71cf	-0.19769977
144	0x3d43e074	0.047821477
145	0x3e0d618c	0.13806742
146	0xbdb518d1	-0.08842624
147	0x3dbfa806	0.0935822
148	0xbc4ea5d7	-0.0126127815
149	0x3d49bd08	0.04925254
150	0x3e0687f2	0.13137797
151	0x3e1f0b15	0.15531571
152	0xbe34f9a8	-0.17673361
153	0xbd0f08d0	-0.034920514
154	0xbe00e15c	-0.12585968
155	0x3b70ca63	0.0036741726
156	0xbe2becc5	-0.16789539
157	0xbd41d3bf	-0.047321077
158	0xbdb81c8c	-0.0898982
159	0x3d8e0649	0.069347925
160	0x3db1c3d1	0.08679927
161	0xbd870203	-0.065921806
162	0xbdc14085	-0.09436134
163	0x3dbccec0	0.09219122
164	0x3dc5f371	0.096655734
165	0xbdfaa963	-0.12239339
166	0xbdb223ff	-0.08698272
167	0x3dbd212a	0.09234841
168	0x3d78b7ae	0.060722046
169	0x3d85183e	0.064987645
170	0xbe2333d1	-0.15937735
171	0xbeba336d	-0.3636736
172	0xbe154269	-0.14576115
173	0xbe4f4acc	-0.20243376
174	0xbdc95107	-0.09829908
175	0xbdd590c7	-0.10428005
176	0xbe16cb5b	-0.14726011
177	0x3c9ef879	0.01940559
178	0xbd8ffb09	-0.07030303
179	0xbdc4811b	-0.095949374
180	0x3d1a43ec	0.03766243
181	0xbdd4beec	-0.10387978
182	0x3da88b17	0.08229654
183	0xbe323f0a	-0.1740686
184	0xbd3ff07e	-0.04686021
185	0xbe2110c9	-0.1572906
186	0x3d358918	0.044320196
187	0xbde7c04b	-0.11315974
188	0xbd9f44f6	-0.07776825
189	0xbddfb0ba	-0.1092238
190	0x3e1635fb	0.1466903
191	0xbdf38063	-0.11889722
192	0x3e1d0b7f	0.15336417
193	0xbcda6b35	-0.026662448
194	0xbe3295e1	-0.17439987
195	0xbdd2378b	-0.102645
196	0xbe52199d	-0.20517583
197	0xbe145777	-0.1448649
198	0xbd9dd06c	-0.07705769
199	0xbdf74112	-0.12072958
200	0x3d5f9917	0.054589357
201	0x3df1d8ff	0.11808967
202	0xbdcfe288	-0.10150629
203	0x3cd68441	0.02618611
204	0x3db05bba	0.086112455
205	0x3dc15ddc	0.094417304
206	0x3d304fe2	0.043044932
207	0x3e195ea1	0.14977504
208	0x3d383537	0.044972625
209	0x3d2534d3	0.04033358
210	0x3e1db4a0	0.15400934
211	0xbd95818d	-0.073001005
212	0xbd8e868e	-0.06959258
213	0xbdf740e9	-0.120729275
214	0xbe388028	-0.18017638
215	0xbdb63de2	-0.08898522
216	0xbda1b0fe	-0.07895087
217	0xbbdc37ae	-0.0067205047
218	0xbd30736c	-0.043078825
219	0xbe56f6f8	-0.20992649
220	0xbdd44be3	-0.10366037
221	0xbe01cc94	-0.12675697
222	0x3bf21a16	0.0073883636
223	0x3df3c659	0.11903066
224	0x3d1d6cd8	0.03843388
225	0xbd04fe45	-0.032469053
226	0xbc7d4bb3	-0.015459943
227	0xbe260041	-0.16211034
228	0x3e16478c	0.1467573
229	0x3cb891a0	0.022530377
230	0xbdbf1e42	-0.09331943
231	0x3c9172b6	0.017754894
232	0x3e21f522	0.15816167
233	0x3e269092	0.16266087
234	0x3cb6cf1c	0.022315554
235	0xbcafee26	-0.021475863
236	0x3e152e34	0.14568406
237	0xbd87bccc	-0.06627807
238	0x3ddc68bd	0.10762165
239	0xbe150883	-0.14554028
240	0xbdbb28a6	-0.091386124
241	0x3c4c7770	0.012479648
242	0x3e03a2b8	0.12855041
243	0xbd33d24b	-0.043901723
244	0xbe236915	-0.15958054
245	0x3dcbc925	0.09950475
246	0xbd9f37b8	-0.077742994
247	0x3ddf9c30	0.10918462
248	0xbdff895e	-0.124773726
249	0xbd24d0c0	-0.040238142
250	0x3db9d7aa	0.09074338
251	0xbdc32d9d	-0.095301844
252	0x3e0cbae0	0.13743162
253	0xbe39833d	-0.1811647
254	0xbde13f54	-0.10998407
255	0x3dcb5819	0.09928913

net.2.bias f4 [64]
0	0xbd743467	-0.059620287
1	0xbdec8ead	-0.11550651
2	0x3dc1cf33	0.09463348
3	0xbd88622a	-0.06659348
4	0xbc86ec20	-0.016470015
5	0xbe33e1c9	-0.17566599
6	0xbd5d2bec	-0.053996965
7	0xbce9fc36	-0.028562646
8	0xbdffcf98	-0.12490767
9	0x3f5df5d1	0.8670321
10	0xbd6fa18d	-0.058503676
11	0xbd7af4ad	-0.061268497
12	0xbdb23485	-0.087014236
13	0xbd8e0e0b	-0.06936272
14	0xbcb8e417	-0.0225697
15	0xbd4bf7d8	-0.04979691
16	0xbd9e244f	-0.07721769
17	0xbce5004a	-0.02795424
18	0xbe35ebcd	-0.17765732
19	0xbd7ebb64	-0.06219043
20	0xbcc6f192	-0.024285112
21	0xbe243a2c	-0.16037816
22	0xbe317952	-0.17331436
23	0xbdcdf50f	-0.10056507
24	0xbd63ee6a	-0.05564729
25	0xbd7f6724	-0.062354222
26	0xbd8d1749	-0.06889207
27	0xbdddac97	-0.108239345
28	0xbd821c61	-0.06353069
29	0xbd317a05	-0.043329258
30	0xbdaf7898	-0.08567923
31	0xbc2056d3	-0.0097863255
32	0xbd705625	-0.058675904
33	0xbd853dd7	-0.06505936
34	0xbce31e90	-0.027724534
35	0xbdb3e1a3	-0.08783271
36	0xbd021be8	-0.031764895
37	0x3c0ce172	0.008598672
38	0xbdc810e2	-0.09768845
39	0xbd821b8a	-0.06352909
40	0xbd997eb7	-0.07494872
41	0xbd021cb8	-0.03176567
42	0xbce6ce18	-0.028174445
43	0x00000000	0.0
44	0xbd46c80c	-0.048530623
45	0xbd2ed9e0	-0.04268825
46	0xbcaa969a	-0.020823766
47	0xbdb79e87	-0.089657836
48	0xbda9d157	-0.082918815
49	0xbcf58dd8	-0.029974863
50	0xbd22efa9	-0.03977934
51	0xbdd20176	-0.10254185
52	0x3eab4d95	0.33457628
53	0x00000000	0.0
54	0xbdaf210b	-0.08551224
55	0xbdff4483	-0.124642394
56	0xbd83b582	-0.06431104
57	0xbd1b6f8e	-0.037948184
58	0xbd8665b4	-0.06562367
59	0xbd8eed81	-0.06978894
60	0xbd1ab5eb	-0.037771147
61	0x3c87e7a8	0.016589954
62	0xbd021cbc	-0.031765684
63	0x3ec024d3	0.37528095

net.4.weight f4 [16, 64]
0	0x3da1a4b8	0.07892746
1	0x3dccf800	0.1000824
2	0xbd6567fb	-0.056007367
3	0x3e9c2889	0.30499676
4	0xbdf9d8b5	-0.12199537
5	0x3b64fe1f	0.0034941507
6	0xbe85eefe	-0.261589
7	0x3da8cc1c	0.08242056
8	0x3e2120bf	0.15735148
9	0x3e72f3eb	0.2372586
10	0x3df8b7d3	0.12144437
11	0xbca4be75	-0.020110348
12	0xbc7a0d2e	-0.015261931
13	0x3c60b888	0.013715871
14	0xbdd59e25	-0.10430554
15	0xbe0311ee	-0.12799808
16	0xbdcd952b	-0.10038217
17	0xbdd2bdcb	-0.102901064
18	0xbdb42ccd	-0.087976076
19	0x3d8b7681	0.06809712
20	0xbdd12d64	-0.10213736
21	0x3d831767	0.06400948
22	0x3dd2d761	0.102949865
23	0xbe25df5c	-0.16198486
24	0x3e40d407	0.18830882
25	0xbd2033e4	-0.039111987
26	0x3e785901	0.24252702
27	0x3dd7156a	0.10502131
28	0x3e9949ba	0.2993906
29	0xbc485824	-0.012228046
30	0x3c4479f6	0.011991968
31	0x3e1d2135	0.15344699
32	0xbe21d8ed	-0.15805407
33	0xbd845187	-0.064608626
34	0x3dcb1e6d	0.09917913
35	0xbda86bed	-0.0822371
36	0x3d4e51a1	0.050370816
37	0xbce1783f	-0.027523158
38	0x3e21cd5b	0.15800993
39	0xbde37258	-0.11105794
40	0xbe253512	-0.16133526
41	0x3e28b635	0.16475756
42	0xbe2a4d42	-0.16631034
43	0x3e468e67	0.1939026
44	0xbe082516	-0.13295397
45	0xbe0f7367	-0.14008866
46	0x3d814414	0.06311813
47	0x3e5c7ee0	0.21532774
48	0x3da06191	0.07831109
49	0x3e0b7024	0.13616997
50	0xbe5d0f36	-0.21587834
51	0x3dd0c42d	0.101936676
52	0x3ddc436e	0.10755049
53	0xbe49db71	-0.19712617
54	0xbe7bfeab	-0.24608867
55	0xbdee70c3	-0.11642601
56	0x3d999bf5	0.075004496
57	0xbe3a82c6	-0.18213949
58	0xbdf4b2c4	-0.11948159
59	0xbe78424a	-0.24244037
60	0xbdd850d9	-0.105622955
61	0x3dd01cb0	0.10161722
62	0x3e481b07	0.1954156
63	0x3e12b9e3	0.14328723
64	0xbe038b99	-0.12846221
65	0xbd848b42	-0.06471874
66	0x3dbb9664	0.09159544
67	0xbdff9ba8	-0.12480861
68	0x3e291ce0	0.16514921
69	0x3d5bfb38	0.053706378
70	0xbe4117f0	-0.18856788
71	0x3e097939	0.13425149
72	0x3d669226	0.05629172
73	0x3d6f3547	0.05840042
74	0xbd561971	-0.052270357
75	0xbdcf9898	-0.10136527
76	0xbe434c8e	-0.19072172
77	0xbd8e3df4	-0.0694541
78	0xbce5e788	-0.028064504
79	0xbe1e7bbe	-0.15476891
80	0xbd142691	-0.036169592
81	0xbd8a459e	-0.0675156
82	0xbe73c991	-0.2380736
83	0xbdd6d302	-0.10489465
84	0x3e5bae30	0.21453166
85	0xbdf29dba	-0.1184649
86	0xbd2742ee	-0.040835313
87	0x3d18c3db	0.037296157
88	0xbe09409c	-0.13403553
89	0xbe6deba7	-0.23234425
90	0xbded0324	-0.11572865
91	0x3e4e8fe9	0.20172085
92	0x3ce972f2	0.028497193
93	0xbe62a51a	-0.22133294
94	0xbd9c043c	-0.07617995
95	0x3e0cfd43	0.13768487
96	0xbe1a327d	-0.15058322
97	0xbe67d469	-0.22639622
98	0xbd816495	-0.063180126
99	0x3de804f3	0.11329069
100	0xbdd3e22a	-0.10345872
101	0xbc9580f0	-0.018249959
102	0xbd890d75	-0.0669202
103	0xbdac5b3e	-0.084158406
104	0x3e526006	0.20544443
105	0xbe871efb	-0.26390824
106	0xbe73a987	-0.23795138
107	0x3e0c8751	0.13723494
108	0xbe34d6c0	-0.17660046
109	0xbe8165a4	-0.25272858
110	0x3e16a43c	0.14711088
111	0xbe666625	-0.22499903
112	0x3d6f6704	0.058447853
113	0x3d962194	0.07330623
114	0x3e5f6cca	0.21818843
115	0xbc64cdb3	-0.013965058
116	0x3d51f34f	0.051257428
117	0x3cdd8db3	0.027045107
118	0x3d6abbf8	0.057308167
119	0x3dbb96cc	0.091596216
120	0x3de57237	0.112034254
121	0x3e0f1489	0.13972677
122	0xbd8271fe	-0.063693985
123	0xbd86d5a6	-0.06583719
124	0xbe4d8afe	-0.20072553
125	0x3e2ce94c	0.1688587
126	0x3dc6c251	0.09705032
127	0xbe864092	-0.26221138
128	0x3e1af964	0.15134197
129	0xbe1269a2	-0.14298108
130	0x3e38fd4f	0.1806538
131	0xbe053a99	-0.13010634
132	0xbdd3c044	-0.10339406
133	0xbe324050	-0.17407346
134	0x3e0edb3f	0.13950823
135	0x3e614526	0.21999034
136	0xbe090435	-0.13380511
137	0xbd052487	-0.03250554
138	0xbddcb24e	-0.107761964
139	0x3e29ffcf	0.1660149
140	0x3b78a59d	0.003794051
141	0xbe887274	-0.2664982
142	0x3e79215b	0.2432913
143	0x3e0404bd	0.12892433
144	0x3e56b9a8	0.2096926
145	0x3d7392c0	0.059466124
146	0xbe6656de	-0.22494075
147	0xbc839f18	-0.016067073
148	0x3e198a72	0.14994219
149	0xbe4aee2e	-0.19817421
150	0x3e208d6b	0.15678947
151	0x3dbf8353	0.0935122
152	0x3e0c46e4	0.13698918
153	0xbd28879b	-0.04114495
154	0xbe0a2127	-0.13489209
155	0x3e930e97	0.2872207
156	0xbe38f081	-0.18060495
157	0xbde51775	-0.11186115
158	0x3e37cb2e	0.179486
159	0x3e6f7960	0.23386145
160	0xbe271532	-0.16316679
161	0xbe5f72e7	-0.21821176
162	0x3e0a7049	0.13519396
163	0x3e948e25	0.29014698
164	0x3d979f19	0.07403392
165	0xbe898141	-0.26856425
166	0x3e5cc0b4	0.21557885
167	0xbc748ab5	-0.014925648
168	0xbd90aab8	-0.07063812
169	0xbc1e20ce	-0.009651376
170	0xbded451b	-0.115854464
171	0x3d155651	0.03645927
172	0x3dc76ad7	0.09737175
173	0x3e1adaf9	0.15122594
174	0x3e31e0ae	0.17370865
175	0xbe8a1482	-0.2696877
176	0xbd9c9382	-0.076453224
177	0xbdfa237e	-0.12213801
178	0xbd128c9b	-0.035778623
179	0xbd1b4578	-0.037908047
180	0xbddd5f8a	-0.10809238
181	0xbd63f5b8	-0.055654258
182	0x3d9d93e5	0.07694224
183	0xbeadb18c	-0.3392452
184	0x3dbb5d77	0.091486864
185	0x3e4f2d89	0.20232214
186	0x3da9161f	0.082561724
187	0x3e1d0b42	0.15336326
188	0xbe487271	-0.19574906
189	0x3d6f7198	0.05845794
190	0xbe78ae65	-0.24285276
191	0xbc759185	-0.014988308
192	0xbdeb9a1d	-0.11504004
193	0xbdb9e842	-0.09077503
194	0xbdb277e4	-0.087142736
195	0x3e4f0297	0.20215832
196	0x3e4fe4c2	0.20302108
197	0xbde3c90a	-0.111223295
198	0xbc084da0	-0.0083192885
199	0x3c7cd9db	0.0154328
200	0x3e5db9e2	0.2165294
201	0xbe9c5297	-0.3053176
202	0x3e8b91e1	0.27259734
203	0x3ccaba7f	0.024747131
204	0xbdf63304	-0.12021449
205	0x3d11fd19	0.035641763
206	0xbdaa1f8b	-0.083067976
207	0x3d40bd68	0.047055632
208	0xbe41b332	-0.18916014
209	0xbe6816db	-0.22664969
210	0xbe8275a3	-0.25480375
211	0x3dd1f185	0.10251144
212	0x3e3f958a	0.18709388
213	0xbc8d1a7c	-0.017224543
214	0x3deb0640	0.114758015
215	0x3e40e460	0.18837118
216	0xbe88801e	-0.26660246
217	0xbe29d6a8	-0.16585791
218	0x3c29b9c7	0.010359234
219	0x3e68d93a	0.22739115
220	0x3d1dde9a	0.038542368
221	0x3c5fa2b4	0.013649631
222	0x3e7c8c75	0.24662955
223	0xbd3798e1	-0.04482353
224	0x3d681306	0.056658767
225	0xbd2cc19e	-0.042176835
226	0x3e6758a0	0.22592402
227	0xbe759300	-0.23981857
228	0xbd357f08	-0.0443106
229	0xbe23b375	-0.15986426
230	0xbe35f198	-0.17767942
231	0x3cbeb3bf	0.023279069
232	0x3debd4dc	0.11515209
233	0x3e33269e	0.174952
234	0x3e59e2fa	0.21277991
235	0x3dcd7148	0.10031372
236	0xbe30e5d3	-0.17275171
237	0x3b3b7a31	0.0028606767
238	0xbe47dd8e	-0.1951811
239	0x3e55020f	0.20801567
240	0xbdcc2100	-0.09967232
241	0xbd2e646c	-0.04257624
242	0xbd9166a9	-0.07099659
243	0xbe47eb4f	-0.19523357
244	0x3e625dd4	0.22106105
245	0x3d221df7	0.039579358
246	0x3e020cac	0.12700146
247	0xbe678466	-0.226091
248	0x3e809e07	0.25120565
249	0x3d589a68	0.05288163
250	0x3d8112d2	0.06302418
251	0xbd0a719f	-0.033799764
252	0x3dc47fca	0.09594686
253	0x3d6b3483	0.057423126
254	0xbdb6b13e	-0.08920525
255	0xbe8a3a54	-0.26997626

net.4.bias f4 [16]
0	0x3f94672a	1.1593983
1	0xbf6a85f9	-0.91610676
2	0x3e961322	0.29311472
3	0xbd11fc99	-0.035641287
4	0xbf76b379	-0.96367604
5	0xbf998a28	-1.1995287
6	0x3e7c470c	0.24636477
7	0xbe849c7f	-0.25900647
8	0xbf873259	-1.056224
9	0x3f7093f4	0.9397576
10	0xbe203b21	-0.15647556
11	0x3f96e936	1.178992
12	0xbda1a28e	-0.07892333
13	0x3e4b84d5	0.1987489
14	0xbe774ed1	-0.2415116
15	0x3f934d38	1.150794

net.6.weight f4 [1, 16]
0	0x3e685e92	0.22692326
1	0xbe9f8eb7	-0.3116357
2	0x3e95c27e	0.29249948
3	0x3ebe81a0	0.3720827
4	0xbbc1a0da	-0.0059090676
5	0xbe89991f	-0.26874635
6	0x3d016fcd	0.031600762
7	0xbdd92638	-0.10602993
8	0x3ca62899	0.02028303
9	0x3e1c1d3e	0.1524553
10	0x3c87db0f	0.016583947
11	0x3e58ded6	0.21178755
12	0x3e434299	0.19068374
13	0x3e97e7eb	0.29669127
14	0xbeda28be	-0.4260921
15	0x3e335fc5	0.17517002

exp_avg f4 [128, 48]
0	0x00000000	0.0
1	0x00000000	0.0
2	0x00000000	0.0
3	0x00000000	0.0
4	0x00000000	0.0
5	0x00000000	0.0
6	0x00000000	0.0
7	0x00000004	6e-45
8	0x00000000	0.0
9	0x00000000	0.0
10	0x00000000	0.0
11	0x00000000	0.0
12	0x00000000	0.0
13	0x00000000	0.0
14	0x00000000	0.0
15	0x00000004	6e-45
16	0x00000000	0.0
17	0x00000000	0.0
18	0x00000000	0.0
19	0x00000000	0.0
20	0x00000000	0.0
21	0x00000000	0.0
22	0x00000000	0.0
23	0x00000000	0.0
24	0x00000000	0.0
25	0x00000000	0.0
26	0x00000000	0.0
27	0x00000000	0.0
28	0x00000000	0.0
29	0x00000000	0.0
30	0x00000000	0.0
31	0x00000000	0.0
32	0x00000004	6e-45
33	0x00000004	6e-45
34	0x00000004	6e-45
35	0x00000004	6e-45
36	0x00000004	6e-45
37	0x00000004	6e-45
38	0x00000000	0.0
39	0x00000000	0.0
40	0x00000000	0.0
41	0x00000004	6e-45
42	0x00000004	6e-45
43	0x00000004	6e-45
44	0x00000000	0.0
45	0x00000000	0.0
46	0x00000000	0.0
47	0x80000004	-6e-45
48	0x00000000	0.0
49	0x00000000	0.0
50	0x00000000	0.0
51	0x00000000	0.0
52	0x00000000	0.0
53	0x00000000	0.0
54	0x00000000	0.0
55	0x00000000	0.0
56	0x00000000	0.0
57	0x00000000	0.0
58	0x00000000	0.0
59	0x00000000	0.0
60	0x00000000	0.0
61	0x00000000	0.0
62	0x00000000	0.0
63	0x00000000	0.0
64	0x00000000	0.0
65	0x00000000	0.0
66	0x00000000	0.0
67	0x00000000	0.0
68	0x00000000	0.0
69	0x00000000	0.0
70	0x00000000	0.0
71	0x00000000	0.0
72	0x00000000	0.0
73	0x00000000	0.0
74	0x00000000	0.0
75	0x00000000	0.0
76	0x00000000	0.0
77	0x00000000	0.0
78	0x00000000	0.0
79	0x00000000	0.0
80	0x00000000	0.0
81	0x00000000	0.0
82	0x00000000	0.0
83	0x00000000	0.0
84	0x00000000	0.0
85	0x00000000	0.0
86	0x00000000	0.0
87	0x00000000	0.0
88	0x00000000	0.0
89	0x00000000	0.0
90	0x00000000	0.0
91	0x00000000	0.0
92	0x00000000	0.0
93	0x00000000	0.0
94	0x00000000	0.0
95	0x00000000	0.0
96	0x00000004	6e-45
97	0x00000004	6e-45
98	0x00000000	0.0
99	0x00000004	6e-45
100	0x80000004	-6e-45
101	0x80000004	-6e-45
102	0x00000004	6e-45
103	0x00000004	6e-45
104	0x00000004	6e-45
105	0x00000004	6e-45
106	0x00000004	6e-45
107	0x00000004	6e-45
108	0x00000004	6e-45
109	0x00000004	6e-45
110	0x00000004	6e-45
111	0x00000004	6e-45
112	0x00000004	6e-45
113	0x00000004	6e-45
114	0x00000000	0.0
115	0x00000004	6e-45
116	0x80000004	-6e-45
117	0x80000004	-6e-45
118	0x80000004	-6e-45
119	0x00000004	6e-45
120	0x00000004	6e-45
121	0x00000004	6e-45
122	0x00000004	6e-45
123	0x00000004	6e-45
124	0x00000004	6e-45
125	0x00000004	6e-45
126	0x00000004	6e-45
127	0x00000004	6e-45
128	0x00000004	6e-45
129	0x00000004	6e-45
130	0x00000004	6e-45
131	0x00000004	6e-45
132	0x00000004	6e-45
133	0x00000004	6e-45
134	0x00000004	6e-45
135	0x00000004	6e-45
136	0x00000004	6e-45
137	0x00000004	6e-45
138	0x00000004	6e-45
139	0x00000004	6e-45
140	0x00000000	0.0
141	0x80000004	-6e-45
142	0x80000004	-6e-45
143	0x80000004	-6e-45
144	0x00000000	0.0
145	0x00000000	0.0
146	0x00000000	0.0
147	0x00000000	0.0
148	0x00000000	0.0
149	0x00000000	0.0
150	0x00000000	0.0
151	0x80000004	-6e-45
152	0x00000000	0.0
153	0x00000000	0.0
154	0x00000000	0.0
155	0x00000000	0.0
156	0x00000000	0.0
157	0x00000000	0.0
158	0x00000000	0.0
159	0x80000004	-6e-45
160	0x00000000	0.0
161	0x00000000	0.0
162	0x00000000	0.0
163	0x00000000	0.0
164	0x00000000	0.0
165	0x00000000	0.0
166	0x00000000	0.0
167	0x00000000	0.0
168	0x00000000	0.0
169	0x00000000	0.0
170	0x00000000	0.0
171	0x00000000	0.0
172	0x00000000	0.0
173	0x00000000	0.0
174	0x00000000	0.0
175	0x00000000	0.0
176	0x80000004	-6e-45
177	0x80000004	-6e-45
178	0x80000004	-6e-45
179	0x80000004	-6e-45
180	0x80000004	-6e-45
181	0x80000004	-6e-45
182	0x00000000	0.0
183	0x00000000	0.0
184	0x00000000	0.0
185	0x80000004	-6e-45
186	0x80000004	-6e-45
187	0x80000004	-6e-45
188	0x00000000	0.0
189	0x00000000	0.0
190	0x00000000	0.0
191	0x00000004	6e-45
192	0x00000004	6e-45
193	0x00000004	6e-45
194	0x00000000	0.0
195	0x00000004	6e-45
196	0x80000004	-6e-45
197	0x80000004	-6e-45
198	0x80000004	-6e-45
199	0x00000004	6e-45
200	0x00000004	6e-45
201	0x00000004	6e-45
202	0x00000004	6e-45
203	0x00000004	6e-45
204	0x80000004	-6e-45
205	0x80000004	-6e-45
206	0x80000004	-6e-45
207	0x00000004	6e-45
208	0x00000004	6e-45
209	0x00000004	6e-45
210	0x00000004	6e-45
211	0x00000004	6e-45
212	0x00000004	6e-45
213	0x00000004	6e-45
214	0x00000004	6e-45
215	0x00000004	6e-45
216	0x00000004	6e-45
217	0x00000004	6e-45
218	0x00000004	6e-45
219	0x00000004	6e-45
220	0x00000004	6e-45
221	0x00000004	6e-45
222	0x00000004	6e-45
223	0x00000004	6e-45
224	0x00000004	6e-45
225	0x00000004	6e-45
226	0x00000004	6e-45
227	0x00000004	6e-45
228	0x00000004	6e-45
229	0x00000004	6e-45
230	0x00000004	6e-45
231	0x00000004	6e-45
232	0x00000004	6e-45
233	0x00000004	6e-45
234	0x00000004	6e-45
235	0x00000004	6e-45
236	0x00000000	0.0
237	0x80000004	-6e-45
238	0x80000004	-6e-45
239	0x00000004	6e-45
240	0x00000004	6e-45
241	0x00000004	6e-45
242	0x00000004	6e-45
243	0x00000004	6e-45
244	0x80000004	-6e-45
245	0x00000004	6e-45
246	0x00000004	6e-45
247	0x00000004	6e-45
248	0x00000004	6e-45
249	0x00000004	6e-45
250	0x80000004	-6e-45
251	0x00000004	6e-45
252	0x00000004	6e-45
253	0x80000004	-6e-45
254	0x00000004	6e-45
255	0x00000004	6e-45

exp_avg_sq f4 [128, 48]
0	0x00000000	0.0
1	0x00000000	0.0
2	0x00000000	0.0
3	0x00000000	0.0
4	0x00000000	0.0
5	0x00000000	0.0
6	0x00000000	0.0
7	0x000001f4	7e-43
8	0x00000000	0.0
9	0x00000000	0.0
10	0x00000000	0.0
11	0x00000000	0.0
12	0x00000000	0.0
13	0x00000000	0.0
14	0x00000000	0.0
15	0x000001f4	7e-43
16	0x00000000	0.0
17	0x00000000	0.0
18	0x00000000	0.0
19	0x00000000	0.0
20	0x00000000	0.0
21	0x00000000	0.0
22	0x00000000	0.0
23	0x00000000	0.0
24	0x00000000	0.0
25	0x00000000	0.0
26	0x00000000	0.0
27	0x00000000	0.0
28	0x00000000	0.0
29	0x00000000	0.0
30	0x00000000	0.0
31	0x00000000	0.0
32	0x000001f4	7e-43
33	0x000001f4	7e-43
34	0x0079981d	1.1166663e-38
35	0x000001f4	7e-43
36	0x000001f4	7e-43
37	0x0079981d	1.1166663e-38
38	0x00000000	0.0
39	0x00000000	0.0
40	0x00000000	0.0
41	0x000001f4	7e-43
42	0x000001f4	7e-43
43	0x0079981d	1.1166663e-38
44	0x00000000	0.0
45	0x00000000	0.0
46	0x00000000	0.0
47	0x000001f4	7e-43
48	0x00000000	0.0
49	0x00000000	0.0
50	0x00000000	0.0
51	0x00000000	0.0
52	0x00000000	0.0
53	0x00000000	0.0
54	0x00000000	0.0
55	0x00000000	0.0
56	0x00000000	0.0
57	0x00000000	0.0
58	0x00000000	0.0
59	0x00000000	0.0
60	0x00000000	0.0
61	0x00000000	0.0
62	0x00000000	0.0
63	0x00000000	0.0
64	0x00000000	0.0
65	0x00000000	0.0
66	0x00000000	0.0
67	0x00000000	0.0
68	0x00000000	0.0
69	0x00000000	0.0
70	0x00000000	0.0
71	0x00000000	0.0
72	0x00000000	0.0
73	0x00000000	0.0
74	0x00000000	0.0
75	0x00000000	0.0
76	0x00000000	0.0
77	0x00000000	0.0
78	0x00000000	0.0
79	0x00000000	0.0
80	0x00000000	0.0
81	0x00000000	0.0
82	0x00000000	0.0
83	0x00000000	0.0
84	0x00000000	0.0
85	0x00000000	0.0
86	0x00000000	0.0
87	0x00000000	0.0
88	0x00000000	0.0
89	0x00000000	0.0
90	0x00000000	0.0
91	0x00000000	0.0
92	0x00000000	0.0
93	0x00000000	0.0
94	0x00000000	0.0
95	0x00000000	0.0
96	0x10c5e672	7.8057856e-29
97	0x159708ec	6.100249e-26
98	0x00000000	0.0
99	0x12af9252	1.1080123e-27
100	0x000802df	7.35714e-40
101	0x0000b3f7	6.4559e-41
102	0x01a775ce	6.1515153e-38
103	0x0d5b818b	6.7640517e-31
104	0x1719e1c8	4.972194e-25
105	0x1b0d242c	1.1674934e-22
106	0x03576aaf	6.330529e-37
107	0x18aa8b7f	4.4084825e-24
108	0x0968f445	2.804084e-33
109	0x07b49614	2.7171598e-34
110	0x0d1c31b1	4.8131025e-31
111	0x0d4d4bed	6.3261895e-31
112	0x0b7ce3b7	4.8704748e-32
113	0x104b773c	4.0126546e-29
114	0x00000000	0.0
115	0x0d67fd46	7.1487238e-31
116	0x00021e38	1.94511e-40
117	0x0002185d	1.92411e-40
118	0x00027284	2.24751e-40
119	0x06636d1a	4.277411e-35
120	0x06637151	4.2777207e-35
121	0x09f40f27	5.8755112e-33
122	0x0a01a7e9	6.2427045e-33
123	0x0f156918	7.3665075e-30
124	0x14aa6e6d	1.7209169e-26
125	0x08e8b58d	1.40056745e-33
126	0x0c968aa3	2.3194598e-31
127	0x0fcb90db	2.0073142e-29
128	0x0c61f3d9	1.740675e-31
129	0x11cf84cf	3.274069e-28
130	0x1455daef	1.0796929e-26
131	0x0c4e552a	1.5895291e-31
132	0x12156918	4.714565e-28
133	0x14079e27	6.846948e-27
134	0x02ca2727	2.9703705e-37
135	0x03ca272c	1.1881486e-36
136	0x0975bb6c	2.9578928e-33
137	0x0d84cf81	8.185083e-31
138	0x0d84cf81	8.185083e-31
139	0x19c467d0	2.0307855e-23
140	0x00000000	0.0
141	0x06d160d1	7.875932e-35
142	0x0ca5c336	2.5539764e-31
143	0x07acec1c	2.6018456e-34
144	0x00000000	0.0
145	0x00000000	0.0
146	0x00000000	0.0
147	0x00000000	0.0
148	0x00000000	0.0
149	0x00000000	0.0
150	0x00000000	0.0
151	0x000001f4	7e-43
152	0x00000000	0.0
153	0x00000000	0.0
154	0x00000000	0.0
155	0x00000000	0.0
156	0x00000000	0.0
157	0x00000000	0.0
158	0x00000000	0.0
159	0x000001f4	7e-43
160	0x00000000	0.0
161	0x00000000	0.0
162	0x00000000	0.0
163	0x00000000	0.0
164	0x00000000	0.0
165	0x00000000	0.0
166	0x00000000	0.0
167	0x00000000	0.0
168	0x00000000	0.0
169	0x00000000	0.0
170	0x00000000	0.0
171	0x00000000	0.0
172	0x00000000	0.0
173	0x00000000	0.0
174	0x00000000	0.0
175	0x00000000	0.0
176	0x000001f4	7e-43
177	0x000001f4	7e-43
178	0x00dfd080	2.0554111e-38
179	0x000001f4	7e-43
180	0x000001f4	7e-43
181	0x00dfd080	2.0554111e-38
182	0x00000000	0.0
183	0x00000000	0.0
184	0x00000000	0.0
185	0x000001f4	7e-43
186	0x000001f4	7e-43
187	0x00dfd080	2.0554111e-38
188	0x00000000	0.0
189	0x00000000	0.0
190	0x00000000	0.0
191	0x000001f4	7e-43
192	0x3a855b21	0.0010174253
193	0x3f4f96a5	0.8108924
194	0x00000000	0.0
195	0x3c56bbe0	0.013106316
196	0x23629f0d	1.2285165e-17
197	0x20e805d1	3.9306178e-19
198	0x26050805	4.6154513e-16
199	0x36fb82b4	7.4955988e-06
200	0x411baecf	9.730178
201	0x44c4f3bd	1575.6168
202	0x025f9808	1.6427083e-37
203	0x4259c3d6	54.441246
204	0x3784667a	1.5783346e-05
205	0x37030767	7.809932e-06
206	0x38a30977	7.774209e-05
207	0x36e5a94e	6.8444415e-06
208	0x355ea9ae	8.294836e-07
209	0x3a0574c4	0.0005090947
210	0x0ed67e0c	5.287645e-30
211	0x3708f341	8.162869e-06
212	0x2b3e21bc	6.7548376e-13
213	0x2b3e21bc	6.7548376e-13
214	0x2b3e21dc	6.754855e-13
215	0x2ffcbc3a	4.5972276e-10
216	0x3021fc09	5.892962e-10
217	0x33d7348b	1.0021275e-07
218	0x349cf8e7	2.9238365e-07
219	0x38c81117	9.5399264e-05
220	0x3f29e744	0.6636851
221	0x3279916b	1.4526772e-08
222	0x35e436bd	1.7003255e-06
223	0x397665c8	0.00023498305
224	0x36fd32e2	7.545911e-06
225	0x3b756df1	0.0037449563
226	0x3ef09acc	0.469931
227	0x36dc6a22	6.5688664e-06
228	0x3b0450f7	0.002018986
229	0x3f48b506	0.7840122
230	0x2d0ee2ba	8.122109e-12
231	0x2da2303a	1.8438685e-11
232	0x32c5bb81	2.3019085e-08
233	0x372e13b2	1.0375794e-05
234	0x372e13b2	1.0375794e-05
235	0x435e9f75	222.62288
236	0x00000000	0.0
237	0x30ad8825	1.2626101e-09
238	0x37122980	8.711941e-06
239	0x311d74e4	2.2912952e-09
240	0x06fddab3	9.548937e-35
241	0x097361a9	2.929598e-33
242	0x03a812fd	9.878512e-37
243	0x0786cff3	2.02843e-34
244	0x0567f84f	1.0907175e-35
245	0x04bfe979	4.5118295e-36
246	0x079d7c91	2.3695948e-34
247	0x00ae2867	1.599387e-38
248	0x0d35ebb1	5.6058634e-31
249	0x0ef525e7	6.043366e-30
250	0x0a804f8c	1.2355874e-32
251	0x0d7d1e3d	7.799804e-31
252	0x0b8a3e1e	5.324913e-32
253	0x0b38ddcb	3.560397e-32
254	0x0e40eed6	2.3780822e-30
255	0x008cd957	1.2934936e-38

exp_avg f4 [128]
0	0x00000004	6e-45
1	0x00000000	0.0
2	0x00000004	6e-45
3	0x80000004	-6e-45
4	0x00000004	6e-45
5	0x00000004	6e-45
6	0x00000004	6e-45
7	0x00000000	0.0
8	0x00000004	6e-45
9	0x00000004	6e-45
10	0x39aeade3	0.00033317422
11	0x00000004	6e-45
12	0x00000004	6e-45
13	0x00000004	6e-45
14	0x00000004	6e-45
15	0x00000004	6e-45
16	0x00000000	0.0
17	0x00000004	6e-45
18	0x00000004	6e-45
19	0x00000004	6e-45
20	0x00000000	0.0
21	0xbafe25f2	-0.0019389971
22	0x80000004	-6e-45
23	0x00000004	6e-45
24	0x00000000	0.0
25	0x00000004	6e-45
26	0x00000000	0.0
27	0x00000000	0.0
28	0x00000004	6e-45
29	0x00000004	6e-45
30	0x00000004	6e-45
31	0x80000004	-6e-45
32	0x00000004	6e-45
33	0x00000004	6e-45
34	0x00000004	6e-45
35	0xba4d20ff	-0.0007825046
36	0x00000004	6e-45
37	0x00000000	0.0
38	0x80000004	-6e-45
39	0x00000004	6e-45
40	0x00000004	6e-45
41	0x00000004	6e-45
42	0x00000004	6e-45
43	0x3b34edf5	0.0027607654
44	0x00000004	6e-45
45	0x80000004	-6e-45
46	0x00000004	6e-45
47	0x80000004	-6e-45
48	0x00000004	6e-45
49	0x00000004	6e-45
50	0x00000000	0.0
51	0x39c355d9	0.0003725726
52	0x00000004	6e-45
53	0x00000004	6e-45
54	0x00000004	6e-45
55	0xba74015f	-0.00093080656
56	0x00000004	6e-45
57	0x00000004	6e-45
58	0x00000004	6e-45
59	0x00000004	6e-45
60	0x00000004	6e-45
61	0x394123a1	0.00018419187
62	0x00000004	6e-45
63	0x00000004	6e-45
64	0x00000004	6e-45
65	0x80000004	-6e-45
66	0x00000004	6e-45
67	0x00000004	6e-45
68	0x00000004	6e-45
69	0x00000004	6e-45
70	0x00000004	6e-45
71	0x3983591b	0.00025052656
72	0x00000004	6e-45
73	0x00000004	6e-45
74	0x00000004	6e-45
75	0x00000004	6e-45
76	0x00000004	6e-45
77	0x00000004	6e-45
78	0x3a587a5c	0.0008257979
79	0x80000004	-6e-45
80	0x00000000	0.0
81	0x00000004	6e-45
82	0x00000000	0.0
83	0xbb417520	-0.0029519275
84	0x00000004	6e-45
85	0x00000004	6e-45
86	0x00000004	6e-45
87	0xba62a8f1	-0.000864639
88	0x00000000	0.0
89	0x00000004	6e-45
90	0xbb00ba09	-0.0019642136
91	0x00000004	6e-45
92	0x00000004	6e-45
93	0x00000004	6e-45
94	0x00000000	0.0
95	0x00000004	6e-45
96	0x00000004	6e-45
97	0x80000004	-6e-45
98	0x00000004	6e-45
99	0x00000004	6e-45
100	0x00000000	0.0
101	0x00000000	0.0
102	0x00000004	6e-45
103	0x00000004	6e-45
104	0x00000000	0.0
105	0x00000000	0.0
106	0x00000000	0.0
107	0x00000000	0.0
108	0x00000004	6e-45
109	0x00000000	0.0
110	0x00000004	6e-45
111	0x80000004	-6e-45
112	0x00000004	6e-45
113	0x00000004	6e-45
114	0x00000004	6e-45
115	0xbaf50197	-0.001869249
116	0x00000004	6e-45
117	0x00000000	0.0
118	0x00000004	6e-45
119	0x00000004	6e-45
120	0x00000004	6e-45
121	0x39a99b79	0.00032350028
122	0x00000004	6e-45
123	0x00000004	6e-45
124	0x00000004	6e-45
125	0x00000004	6e-45
126	0x00000004	6e-45
127	0x00000004	6e-45

exp_avg_sq f4 [128]
0	0x000001f4	7e-43
1	0x00000000	0.0
2	0x0d84cf81	8.185083e-31
3	0x000001f4	7e-43
4	0x372e13b2	1.0375794e-05
5	0x016657a3	4.2307204e-38
6	0x240ea0b3	3.092746e-17
7	0x00000000	0.0
8	0x35e901dc	1.7360394e-06
9	0x061c1b9a	2.9360617e-35
10	0x3885478b	6.35526e-05
11	0x00000642	2.245e-42
12	0x2804ed7a	7.3789665e-15
13	0x0d23cffc	5.0478605e-31
14	0x1d4da8ae	2.721873e-21
15	0x3067e651	8.436461e-10
16	0x00000000	0.0
17	0x000001f4	7e-43
18	0x29249b2d	3.654991e-14
19	0x066928e8	4.3852483e-35
20	0x00000000	0.0
21	0x3b6636c7	0.0035127865
22	0x000001f4	7e-43
23	0x00862d87	1.2322289e-38
24	0x00000000	0.0
25	0x2e226d94	3.693186e-11
26	0x00000000	0.0
27	0x00000000	0.0
28	0x002e69eb	4.262429e-39
29	0x091fe188	1.9244973e-33
30	0x0bee1b5b	9.1715425e-32
31	0x00000842	2.962e-42
32	0x01cf99ad	7.6260305e-38
33	0x04ff90c9	6.0083176e-36
34	0x359f91e7	1.1888886e-06
35	0x3b4072f1	0.0029365385
36	0x000513d1	4.66286e-40
37	0x00000000	0.0
38	0x31884dfd	3.966987e-09
39	0x00000e19	5.057e-42
40	0x0c22d9af	1.2545533e-31
41	0x1bcba20a	3.3688248e-22
42	0x02899f4a	2.0221768e-37
43	0x3b83be6f	0.004020504
44	0x37c17d72	2.3065808e-05
45	0x32b4cc78	2.104774e-08
46	0x26ad0d6d	1.2007926e-15
47	0x000001f4	7e-43
48	0x000001f4	7e-43
49	0x2aa823fb	2.9867761e-13
50	0x00000000	0.0
51	0x39de7ff6	0.00042438478
52	0x000001f4	7e-43
53	0x1573d388	4.9240328e-26
54	0x0a737c9a	1.1723459e-32
55	0x3a23cdf8	0.0006248648
56	0x01405623	3.532663e-38
57	0x323d56c9	1.1020981e-08
58	0x00000224	7.68e-43
59	0x0b17dd54	2.924805e-32
60	0x13ae83c5	4.405371e-27
61	0x38551c46	5.080949e-05
62	0x021d7c91	1.1570287e-37
63	0x292e9615	3.8765937e-14
64	0x001001d5	1.470025e-39
65	0x31fd7b45	7.3772832e-09
66	0x164bea61	1.6472166e-25
67	0x169376ac	2.3824023e-25
68	0x1001bcfa	2.5586346e-29
69	0x04b6c5cb	4.296964e-36
70	0x000001f4	7e-43
71	0x393bd98f	0.00017914757
72	0x085fe269	6.7372765e-34
73	0x161f9ee0	1.289405e-25
74	0x2732c09b	2.4806874e-15
75	0x000001f4	7e-43
76	0x1c2c9d3e	5.7113257e-22
77	0x004e7287	7.204253e-39
78	0x3a98bf5f	0.0011653713
79	0x000001f4	7e-43
80	0x00000000	0.0
81	0x02250365	1.212326e-37
82	0x00000000	0.0
83	0x3bc4c5e2	0.006005035
84	0x1525acb0	3.345771e-26
85	0x000001f4	7e-43
86	0x01b6142a	6.6885175e-38
87	0x39b5ee8d	0.00034700744
88	0x00000000	0.0
89	0x25bbff4d	3.2612328e-16
90	0x3b4246dc	0.0029644286
91	0x272b55a6	2.3777447e-15
92	0x346fa2e0	2.2317863e-07
93	0x0c01a0eb	9.986223e-32
94	0x00000000	0.0
95	0x0c4b5a41	1.5665711e-31
96	0x000001f4	7e-43
97	0x045a2030	2.5640557e-36
98	0x2a64451e	2.0274448e-13
99	0x000001f4	7e-43
100	0x00000000	0.0
101	0x00000000	0.0
102	0x0a64554e	1.0993845e-32
103	0x00000642	2.245e-42
104	0x00000000	0.0
105	0x00000000	0.0
106	0x00000000	0.0
107	0x00000000	0.0
108	0x00008167	4.6421e-41
109	0x00000000	0.0
110	0x000001f4	7e-43
111	0x1f086935	2.8886145e-20
112	0x000001f4	7e-43
113	0x00266dee	3.529184e-39
114	0x000001f4	7e-43
115	0x3b1e13e5	0.0024120745
116	0x0e19519e	1.8898003e-30
117	0x00000000	0.0
118	0x0e2902e5	2.0832252e-30
119	0x093f901a	2.3058545e-33
120	0x008dd446	1.3024954e-38
121	0x39c63051	0.00037801501
122	0x29245134	3.6485748e-14
123	0x186f8769	3.095839e-24
124	0x000001f4	7e-43
125	0x1e7aba9a	1.3273478e-20
126	0x006d84df	1.0057734e-38
127	0x04150fd3	1.7522132e-36

exp_avg f4 [64, 128]
0	0x00000004	6e-45
1	0x00000000	0.0
2	0x00000004	6e-45
3	0x00000004	6e-45
4	0x00000004	6e-45
5	0x00000000	0.0
6	0x00000004	6e-45
7	0x00000000	0.0
8	0x00000004	6e-45
9	0x00000004	6e-45
10	0x00000004	6e-45
11	0x00000004	6e-45
12	0x00000000	0.0
13	0x00000004	6e-45
14	0x00000004	6e-45
15	0x00000004	6e-45
16	0x00000000	0.0
17	0x80000004	-6e-45
18	0x00000004	6e-45
19	0x00000004	6e-45
20	0x00000000	0.0
21	0x00000004	6e-45
22	0x00000004	6e-45
23	0x00000000	0.0
24	0x00000000	0.0
25	0x00000004	6e-45
26	0x00000000	0.0
27	0x00000000	0.0
28	0x00000004	6e-45
29	0x00000004	6e-45
30	0x00000004	6e-45
31	0x00000004	6e-45
32	0x00000004	6e-45
33	0x00000004	6e-45
34	0x00000004	6e-45
35	0x00000004	6e-45
36	0x00000000	0.0
37	0x00000000	0.0
38	0x00000000	0.0
39	0x00000004	6e-45
40	0x00000004	6e-45
41	0x00000004	6e-45
42	0x00000000	0.0
43	0x00000000	0.0
44	0x00000004	6e-45
45	0x00000004	6e-45
46	0x80000004	-6e-45
47	0x00000004	6e-45
48	0x00000004	6e-45
49	0x00000004	6e-45
50	0x00000000	0.0
51	0x80000004	-6e-45
52	0x00000000	0.0
53	0x00000004	6e-45
54	0x80000004	-6e-45
55	0x00000004	6e-45
56	0x00000004	6e-45
57	0x00000004	6e-45
58	0x00000000	0.0
59	0x00000004	6e-45
60	0x00000000	0.0
61	0x00000000	0.0
62	0x00000004	6e-45
63	0x00000004	6e-45
64	0x00000004	6e-45
65	0x00000004	6e-45
66	0x00000004	6e-45
67	0x00000004	6e-45
68	0x00000000	0.0
69	0x80000004	-6e-45
70	0x00000004	6e-45
71	0x00000004	6e-45
72	0x00000004	6e-45
73	0x00000004	6e-45
74	0x00000004	6e-45
75	0x00000004	6e-45
76	0x00000000	0.0
77	0x00000000	0.0
78	0x00000004	6e-45
79	0x00000004	6e-45
80	0x00000000	0.0
81	0x00000004	6e-45
82	0x00000000	0.0
83	0x80000004	-6e-45
84	0x00000000	0.0
85	0x00000000	0.0
86	0x00000004	6e-45
87	0x00000004	6e-45
88	0x00000000	0.0
89	0x00000004	6e-45
90	0x00000004	6e-45
91	0x00000004	6e-45
92	0x00000004	6e-45
93	0x00000004	6e-45
94	0x00000000	0.0
95	0x00000004	6e-45
96	0x00000004	6e-45
97	0x00000004	6e-45
98	0x00000004	6e-45
99	0x00000004	6e-45
100	0x00000000	0.0
101	0x00000000	0.0
102	0x00000004	6e-45
103	0x00000000	0.0
104	0x00000000	0.0
105	0x00000000	0.0
106	0x00000000	0.0
107	0x00000000	0.0
108	0x00000004	6e-45
109	0x00000000	0.0
110	0x00000004	6e-45
111	0x00000004	6e-45
112	0x00000000	0.0
113	0x00000004	6e-45
114	0x00000000	0.0
115	0x00000004	6e-45
116	0x00000004	6e-45
117	0x00000000	0.0
118	0x00000000	0.0
119	0x00000004	6e-45
120	0x00000004	6e-45
121	0x00000004	6e-45
122	0x00000000	0.0
123	0x00000004	6e-45
124	0x00000004	6e-45
125	0x00000004	6e-45
126	0x00000004	6e-45
127	0x00000004	6e-45
128	0x00000000	0.0
129	0x00000000	0.0
130	0x00000004	6e-45
131	0x00000000	0.0
132	0x00000004	6e-45
133	0x80000004	-6e-45
134	0x00000004	6e-45
135	0x00000000	0.0
136	0x80000004	-6e-45
137	0x80000004	-6e-45
138	0x00000004	6e-45
139	0x80000004	-6e-45
140	0x80000004	-6e-45
141	0x00000004	6e-45
142	0x00000004	6e-45
143	0x80000004	-6e-45
144	0x00000000	0.0
145	0x00000004	6e-45
146	0x00000004	6e-45
147	0x80000004	-6e-45
148	0x00000000	0.0
149	0x00000004	6e-45
150	0x00000004	6e-45
151	0x00000004	6e-45
152	0x00000000	0.0
153	0x00000004	6e-45
154	0x00000000	0.0
155	0x00000000	0.0
156	0x80000004	-6e-45
157	0x80000004	-6e-45
158	0x00000004	6e-45
159	0x80000004	-6e-45
160	0x00000004	6e-45
161	0x00000004	6e-45
162	0x00000004	6e-45
163	0x00000004	6e-45
164	0x00000004	6e-45
165	0x00000000	0.0
166	0x00000004	6e-45
167	0x00000004	6e-45
168	0x80000004	-6e-45
169	0x80000004	-6e-45
170	0x80000004	-6e-45
171	0x00000004	6e-45
172	0x00000004	6e-45
173	0x80000004	-6e-45
174	0x00000004	6e-45
175	0x00000000	0.0
176	0x00000000	0.0
177	0x80000004	-6e-45
178	0x00000000	0.0
179	0x00000004	6e-45
180	0x80000004	-6e-45
181	0x00000004	6e-45
182	0x80000004	-6e-45
183	0x00000004	6e-45
184	0x00000004	6e-45
185	0x00000004	6e-45
186	0x00000004	6e-45
187	0x00000004	6e-45
188	0x00000004	6e-45
189	0x00000004	6e-45
190	0x00000004	6e-45
191	0x00000004	6e-45
192	0x80000004	-6e-45
193	0x00000004	6e-45
194	0x80000004	-6e-45
195	0x00000004	6e-45
196	0x00000004	6e-45
197	0x00000004	6e-45
198	0x00000000	0.0
199	0x00000004	6e-45
200	0x00000004	6e-45
201	0x80000004	-6e-45
202	0x80000004	-6e-45
203	0x00000000	0.0
204	0x00000004	6e-45
205	0x80000004	-6e-45
206	0x00000004	6e-45
207	0x00000000	0.0
208	0x00000000	0.0
209	0x00000004	6e-45
210	0x00000000	0.0
211	0x00000004	6e-45
212	0x00000004	6e-45
213	0x00000004	6e-45
214	0x00000004	6e-45
215	0x00000004	6e-45
216	0x00000000	0.0
217	0x00000004	6e-45
218	0x00000004	6e-45
219	0x00000004	6e-45
220	0x80000004	-6e-45
221	0x80000004	-6e-45
222	0x00000000	0.0
223	0x80000004	-6e-45
224	0x00000000	0.0
225	0x00000004	6e-45
226	0x00000004	6e-45
227	0x00000004	6e-45
228	0x00000000	0.0
229	0x00000000	0.0
230	0x80000004	-6e-45
231	0x00000004	6e-45
232	0x00000000	0.0
233	0x00000000	0.0
234	0x00000000	0.0
235	0x00000000	0.0
236	0x00000004	6e-45
237	0x00000000	0.0
238	0x00000004	6e-45
239	0x00000004	6e-45
240	0x80000004	-6e-45
241	0x00000004	6e-45
242	0x00000004	6e-45
243	0x00000004	6e-45
244	0x00000000	0.0
245	0x00000000	0.0
246	0x00000004	6e-45
247	0x80000004	-6e-45
248	0x80000004	-6e-45
249	0x00000004	6e-45
250	0x00000004	6e-45
251	0x00000004	6e-45
252	0x00000000	0.0
253	0x00000004	6e-45
254	0x00000004	6e-45
255	0x00000004	6e-45
