src/model_data/Pre-Season_Track_Session_model.pth (torch, 198189 bytes, 21 tensors)

net.0.weight f4 [128, 48]
-0.052569747 0.12457056 -0.031771656 0.11477108 0.15001331 -0.012194066 -0.17918272 0.124466345
-0.042487256 -0.072860986 -0.015687041 0.02912492 -0.06823381 -0.022667596 0.026747039 0.13408443
0.06929258 -0.061284445 -0.06573327 0.14662857 0.0786734 -0.03749995 -0.12665987 -0.14832968
-0.10728823 0.013162571 0.006886923 -0.11129087 0.16915126 -0.06527444 0.07454666 0.12952997
-0.118851624 0.13154314 -0.13283814 0.1390732 -0.1072667 0.061810363 0.1361015 -0.105293304
0.172624 -0.18298124 0.17817564 0.025960319 -0.15556967 0.11503365 -0.12883855 0.1349053
0.07229331 0.03398758 -0.062473428 0.047992386 0.118679374 0.1760721 0.063182294 -0.06729273
-0.0570088 -0.17108747 -0.029315442 -0.02005887 0.004574657 -0.11166439 -0.1826065 0.052054748
0.15573458 -0.06662097 0.17679012 -0.05821649 -0.120908506 -0.13363725 -0.15471421 -0.17395724
-0.046637353 0.060439218 -0.002011119 -0.0715518 0.046398915 -0.06832091 0.09171154 -0.043951813
0.06257146 -0.12829627 -0.03557588 0.12638266 0.014379267 0.17133118 0.09626188 0.122119166
0.10683985 0.06993546 -0.07836809 -0.0882596 -0.118968174 0.17860612 -0.08108753 0.14319396
0.14557287 0.08161301 0.09856548 -0.09897956 0.11581052 -0.17245352 0.07525782 -0.29101923
-0.03704322 -0.048015367 -0.06645893 -0.061627224 -0.06071515 0.14725257 0.13839187 -0.020383647
0.15025695 -0.0037329178 0.05854174 0.036465682 -0.0025498257 0.07809212 0.00040235277 -0.07197656
-0.11196917 -0.026581977 0.1161426 0.09086442 -0.102288656 0.008166627 -0.08345981 -0.057230555
0.15404472 0.18570516 0.14803755 -0.03128025 -0.106972225 0.15094823 0.087968886 0.056141775
0.044297494 -0.118031435 -0.39275572 -0.35744748 0.028648153 0.11751591 -0.03229224 -0.0021162704
0.053159256 0.022591814 0.1566027 -0.0930121 0.13788868 -0.03156128 0.03775036 -0.14671145
-0.16514476 -0.11184252 -0.10649987 -0.103772275 0.14362855 -0.16138302 -0.01177349 0.08088761
0.12501885 -0.11622459 0.022938414 0.007059331 -0.007174336 -0.120023265 -0.07792962 -0.06055156
-0.10944072 -0.056765385 0.06659522 0.047520082 0.048715185 0.16946259 -0.09755746 0.16282001
-0.06782684 0.081373885 0.08648538 -0.015655302 -0.032739326 0.0026532526 0.048714194 -0.17815629
-0.11867057 0.15224709 -0.17067416 0.14049156 -0.026164202 0.12345897 0.029772004 0.105597004
0.13280194 -0.12377332 0.16814795 0.124456376 0.14161448 0.13419187 -0.06977483 0.117413685
0.16745386 -0.06595691 0.13690574 -0.059166003 -0.16012083 -0.032588705 -0.06449839 0.12923874
0.13309357 0.059671097 -0.0025986005 0.07937716 0.076487675 0.07458619 0.072114915 0.17975289
0.12127322 0.09438023 0.04444685 -0.08883113 -0.17451514 -0.12260076 -0.10011224 -0.13629517
-0.11514495 0.15422007 -0.005132248 -0.0629408 -0.16718574 0.13192534 0.1567169 0.036438096
-0.17098284 0.17681256 0.13701482 -0.07907527 0.08273059 -0.124470614 -0.088651694 0.0937408
0.054047666 0.1359822 -0.04876711 0.17556646 -0.008697923 -0.06511865 0.23513845 -0.010189101
0.025637578 0.055247426 -0.04306941 -0.073981754 -0.11705287 0.115174435 -0.12554686 0.16386521
00000000: 6053 57bd da1e ff3d ff22 02bd 1a0d eb3d
00000010: 179d 193e 9fc9 47bc ad7b 37be 36e8 fe3d
00000020: 1e07 2ebd 2438 95bd 1c82 80bc 6297 ee3c
00000030: 2bbe 8bbd 65b1 b9bc 9b1c db3c 6e4d 093e
00000040: 45e9 8d3d 6605 7bbd 2a9f 86bd cd25 163e
00000050: 851f a13d 8c99 19bd 20b3 01be bce3 17be
00000060: eeb9 dbbd d3a7 573c b3ab e13b 78ec e3bd
00000070: fd35 2d3e 9bae 85bd ebab 983d 81a3 043e
00000080: 7b68 f3bd 3fb3 063e b906 08be 3469 0e3e
00000090: a5ae dbbd dd2c 7d3d 315e 0b3e 04a4 d7bd
000000a0: 59c4 303e 6f5f 3bbe ad73 363e bcaa d43c
000000b0: a84d 1fbe c396 eb3d 41ee 03be 9d24 0a3e
000000c0: 840e 943d 9036 0b3d 23e4 7fbd aa93 443d
000000d0: 2c0e f33d 3f4c 343e b865 813d c5d0 89bd
000000e0: 0f82 69bd 8e31 2fbe f026 f0bc 8052 a4bc
000000f0: 01e7 953b 4db0 e4bd 33fd 3abe 5c37 553d
00000100: e378 1f3e 9370 88bd 7808 353e 6a74 6ebd
00000110: e19e f7bd 34d8 08be 676d 1ebe d921 32be
00000120: cf06 3fbd 1d8f 773d facc 03bb c089 92bd
00000130: ca0c 3e3d d5eb 8bbd 43d3 bb3d d106 34bd
00000140: 7725 803d 1960 03be 04b8 11bd 756a 013e
00000150: 0497 6b3c 7171 2f3e f324 c53d 9d19 fa3d
00000160: dace da3d 533a 8f3d 737f a0bd 73c1 b4bd
00000170: 96a5 f3bd 86e4 363e 3811 a6bd 70a1 123e
00000180: 0e11 153e b924 a73d b3dc c93d ccb5 cabd
00000190: 112e ed3d a897 30be c620 9a3d 7900 95be
000001a0: a2ba 17bd c3ab 44bd 9f1b 88bd d46c 7cbd
000001b0: 73b0 78bd 61c9 163e 99b6 0d3e 9bfb a6bc
000001c0: f5dc 193e f8a3 74bb 77c9 6f3d 0a5d 153d
000001d0: fa1a 27bb c3ee 9f3d e0f2 d239 7268 93bd
000001e0: 1850 e5bd 72c2 d9bc 2cdc ed3d 2017 ba3d
000001f0: b77c d1bd 51cd 053c faec aabd 966a 6abd
00000200: e6bd 1d3e 7e29 3e3e 2897 173e b81f 00bd
00000210: 4114 dbbd 2c92 1a3e 0829 b43d ebf4 653d
00000220: 4a71 353d 77ba f1bd 4717 c9be 5b03 b7be
00000230: 88af ea3c 2eac f03d de44 04bd 20b1 0abb
00000240: 85bd 593d 7812 b93c 755c 203e 217d bebd
00000250: b132 0d3e 6746 01bd 1fa0 1a3d 873b 16be
00000260: b51b 29be b10d e5bd 9b1c dabd 8f86 d4bd
00000270: 5d13 133e 9741 25be 99e5 40bc 67a8 a53d
00000280: f104 003e 2807 eebd 57e9 bb3c f651 e73b
00000290: b116 ebbb c2ce f5bd 9199 9fbd ea04 78bd
000002a0: 7522 e0bd d282 68bd 1363 883d 6ba4 423d
000002b0: 9389 473d 9a87 2d3e 35cc c7bd 4aba 263e
000002c0: cce8 8abd 5aa7 a63d 3f1f b13d 8c3f 80bc
000002d0: ac19 06bd 31e2 2d3b 8988 473d 9a6e 36be
000002e0: 8e09 f3bd a9e6 1b3e 35c5 2ebe 05dd 0f3e
000002f0: 4f56 d6bc 0ed8 fc3d 6be4 f33c 3e43 d83d
00000300: 3bfd 073e de7c fdbd fa2e 2c3e fce2 fe3d
00000310: 6303 113e 9869 093e 1be6 8ebd 9676 f03d
00000320: 0679 2b3e 6b14 87bd 0531 0c3e 0d58 72bd
00000330: b7f6 23be bc7b 05bd bb17 84bd 2957 043e
00000340: ae49 083e ae69 743d 484d 2abb 7e90 a23d
00000350: 92a5 9c3d a5c0 983d fcb0 933d 2411 383e
00000360: 185e f83d 6c4a c13d e60d 363d 18ed b5bd
00000370: 19b4 32be 1b16 fbbd a507 cdbd f690 0bbe
00000380: 1ed1 ebbd deeb 1d3e 6b2c a8bb 1be7 80bd
00000390: bd32 2bbe 7017 073e 657a 203e 1d40 153d
000003a0: 2016 2fbe 5a0e 353e 9d4d 0c3e 37f2 a1bd
000003b0: a86e a93d 73ea febd 058f b5bd 2dfb bf3d
000003c0: 1661 5d3d eb3e 0b3e 05c0 47bd b2c7 333e
000003d0: bc81 0ebc ed5c 85bd 22c8 703e 30f0 26bc
000003e0: e605 d23c 204b 623d 8d69 30bd bf83 97bd
000003f0: 6ab9 efbd 93e0 eb3d 5b8f 00be 48cc 273e

net.0.bias f4 [128]
0.0 0.0 -0.010407061 0.0 0.0 0.035815526 -0.0038510237 -0.015044355
-0.07401983 -0.007472522 0.0698369 0.005383345 -0.019322863 0.0062665637 -0.019524267 -0.032011203
-0.03645684 0.000109321016 -0.006950267 0.00021869071 0.0 -0.024639089 -0.02255635 0.0076228017
0.0 0.0 -0.031525355 0.0 -0.003419052 -0.024089491 0.008370565 0.003328349
0.0 0.0 -0.0602706 0.013945173 -0.026710441 -0.013024256 -0.015799377 0.0
-0.015921457 -0.0046981256 -0.003654082 0.0029117698 -0.02250122 -0.030681418 0.0 -0.040431865
0.025541924 -0.0020542738 0.0065971166 -0.0058939825 -0.03028526 0.0 -0.042010523 0.0148171615
0.0 -0.032212388 -0.014555805 -0.03311597 -0.013552535 0.0 0.0 0.0
-0.01576485 -0.03263649 -0.010631564 -0.02162375 -0.0045863963 -0.024150386 0.0 -0.03703004
0.041803226 -0.062210206 -0.02680727 -0.040516626 -0.019573119 0.009378364 -0.021519871 0.011979545
0.0 0.0 -0.013248431 0.0063210884 -0.005711919 -0.002567445 -0.029974857 0.0
-0.03121871 -0.02008137 -0.050960872 0.04182937 0.0 -0.030319942 -0.013998214 -0.017160513
0.0021948 0.0 -0.049473416 -0.0004899953 0.0 0.0 0.043051273 -0.025054881
-0.033176843 -0.009078294 0.0 -0.010409661 -0.0085830605 -0.05198305 0.0037916128 -0.023185745
0.001264232 0.0052965996 0.009940718 0.005916208 -0.00079826405 -0.030365374 -0.04651479 -0.0012986511
-0.0021461605 0.0 0.0 -0.0125080105 0.0 -0.016583605 0.0031796491 -0.01230401
00000000: 0000 0000 0000 0000 6182 2abc 0000 0000
00000010: 0000 0000 4db3 123d 7561 7cbb 997c 76bc
00000020: b597 97bd 0fdc f4bb a606 8f3d c566 b03b
00000030: fb4a 9ebc bf57 cd3b 5bf1 9fbc 2e1e 03bd
00000040: c453 15bd 4643 e538 11bf e3bb 5750 6539
00000050: 0000 0000 ead7 c9bc 18c8 b8bc b2c8 f93b
00000060: 0000 0000 0000 0000 bb20 01bd 0000 0000
00000070: 2d12 60bb 5357 c5bc b224 093c 6e20 5a3b
00000080: 0000 0000 0000 0000 4ede 76bd 4b7a 643c
00000090: dbcf dabc b063 55bc b26d 81bc 0000 0000
000000a0: b76d 82bc bcf2 99bb 5379 6fbb 64d3 3e3b
000000b0: 7b54 b8bc 9957 fbbc 0000 0000 e29b 25bd
000000c0: 4c3d d13c ffa0 06bb a02c d83b 4f22 c1bb
000000d0: cb18 f8bc 0000 0000 3a13 2cbd aec3 723c
000000e0: 0000 0000 23f1 03bd 797b 6ebc 9da4 07bd
000000f0: 740b 5ebc 0000 0000 0000 0000 0000 0000
00000100: 4925 81bc d7ad 05bd 0330 2ebc 4a24 b1bc
00000110: 7b49 96bb 08d7 c5bc 0000 0000 d0ac 17bd
00000120: dc39 2b3d 21d0 7ebd eb9a dbbc c3f4 25bd
00000130: ce57 a0bc b6a7 193c 714a b0bc da45 443c
00000140: 0000 0000 0000 0000 f20f 59bc 2221 cf3b
00000150: 0d2b bbbb 9442 28bb d58d f5bc 0000 0000
00000160: 61be ffbc af81 a4bc 59bc 50bd 4655 2b3d
00000170: 0000 0000 8761 f8bc c458 65bc 3494 8cbc
00000180: a2d6 0f3b 0000 0000 a3a4 4abd 0773 00ba
00000190: 0000 0000 0000 0000 8856 303d e53f cdbc
000001a0: 71e4 07bd 20bd 14bc 0000 0000 488d 2abc
000001b0: f79f 0cbc 2eec 54bd b57c 783b 08f0 bdbc
000001c0: 96b4 a53a 198f ad3b 65de 223c c0dc c13b
000001d0: 9842 51ba cec0 f8bc 4b86 3ebd 8037 aaba
000001e0: 99a6 0cbb 0000 0000 0000 0000 66ee 4cbc
000001f0: 0000 0000 57da 87bc a961 503b c296 49bc

net.2.weight f4 [64, 128]
0.10579297 -0.11145283 0.070481166 -0.07817555 0.057709783 -0.04991304 0.018235821 -0.18217516
0.07889427 -0.08462892 0.004343445 -0.048070807 0.06602191 0.0444543 -0.09386133 0.015980422
0.13746963 0.0038152263 0.08384479 -0.14822137 0.13014397 -0.14822486 -0.022559563 -0.03028824
0.04646159 0.06111173 0.058365803 0.16323318 -0.0021930123 0.15416043 0.044307355 0.11820985
-0.047025997 -0.1510178 0.07379524 -0.1015569 0.14979552 0.0985577 -0.07028035 -0.0647525
0.04906855 -0.04254602 -0.06561314 0.14240336 0.05795959 -0.04197667 -0.12704366 0.028797192
0.022081112 0.123962164 -0.13109453 0.03648 0.16281001 -0.040746436 -0.06720832 -0.12925431
-0.16871023 -0.027601473 0.11296406 0.068148315 -0.04518393 0.01698676 0.08128024 -0.12989458
-0.05310455 -0.10455229 -0.16708362 0.15971181 0.04187269 -0.014218734 -0.0906808 0.109646626
-0.12894277 0.09625809 -0.047808748 0.061949775 0.10589241 0.15437537 0.09986189 -0.10349905
-0.11948322 0.040282883 0.06864234 0.045319665 0.16298722 0.06198541 0.026721882 -0.05287183
-0.14314592 0.033697605 0.07578085 0.06348795 0.13686071 0.14463124 0.048362467 0.025914311
-0.12920383 -0.051755548 0.14188777 -0.0807882 0.0798609 0.17340012 -0.056221243 -0.10079812
-0.018393569 -0.16771442 0.09067654 -0.01837759 0.066505365 -0.029731281 0.090423405 -0.09888758
-0.15900595 -0.14853345 -0.1057911 0.066206895 -0.15595049 -0.014771587 0.090360574 -0.007867724
-0.0035620374 0.010251104 -0.10559878 -0.02469543 -0.14720792 -0.16624534 -0.13638572 0.0726828
0.17674565 0.02229231 0.03756964 -0.1143185 -0.084622145 -0.08682567 -0.17050508 -0.05274773
-0.2206687 0.09489749 0.058472563 0.080873765 -0.086167164 0.04531497 -0.058961187 0.16507979
0.040214624 0.037613213 -0.045626935 0.09332564 -0.022215098 -0.09328813 -0.03917652 -0.0024187523
-0.05906411 -0.098279685 -0.018526154 0.09112566 0.015555952 -0.004076696 0.019840874 -0.17834517
0.064661294 -0.16958593 0.08135115 -0.158863 -0.029207548 -0.11008863 0.06585262 0.05421176
0.14530352 0.16002516 -0.015958508 -0.17222942 0.14857109 -0.095281705 0.04631867 0.1431589
0.16095673 0.035133045 -0.09589392 0.10582652 0.16496381 -0.029080987 -0.05712366 -0.16859405
-0.046385936 0.071790956 0.17319332 -0.08635411 -0.14196706 0.102873966 -0.11242033 -0.15753797
-0.03934991 -0.11182513 -0.10221795 -0.08945295 -0.09013312 -0.09820026 0.033002857 -0.011225286
-0.065800615 0.062350128 0.15571477 0.05417929 -0.0073611867 0.06697673 -0.1311578 -0.07260213
0.1207417 -0.17444302 0.07311032 -0.10617573 -0.15771021 -0.096256696 -0.096230485 0.14948499
0.077644475 0.030853411 0.1718849 -0.14401229 -0.11694361 -0.17606169 -0.15275455 0.05434298
-0.17117514 0.08073345 0.042858962 -0.14934695 0.06388938 -0.12562172 -0.23176573 0.05298219
0.07524582 0.16877285 -0.12189621 -0.09833603 0.15293959 0.09917884 0.018074749 -0.132626
-0.045270026 -0.11274633 0.045073375 0.10017285 -0.22290744 0.08833549 -0.07375501 -0.03605023
0.16234635 -0.09343061 0.11843248 -0.05426728 -0.064049974 -0.004553714 -0.15283321 0.13837096
00000000: fca9 d83d 6241 e4bd 6e58 903d 811a a0bd
00000010: 1861 6c3d 9e71 4cbd 4a63 953c 208c 3abe
00000020: 5293 a13d ed51 adbd 7553 8e3b e5e5 44bd
00000030: 7f36 873d b615 363d 5e3a c0bd 60e9 823c
00000040: d7c4 0c3e e008 7a3b d1b6 ab3d 58c7 17be
00000050: 7644 053e 42c8 17be d5ce b8bc 0b1f f8bc
00000060: 824e 3e3d 4b50 7a3d fb10 6f3d 9926 273e
00000070: a4b8 0fbb 3bdc 1d3e a17b 353d 0118 f23d
00000080: 559e 40bd 69a4 1abe f521 973d 10fd cfbd
00000090: ff63 193e 9fd8 c93d 25ef 8fbd f59c 84bd
000000a0: 1bfc 483d bc44 2ebd 2f60 86bd 30d2 113e
000000b0: 0967 6d3d bbef 2bbd bc17 02be 17e8 eb3c
000000c0: 73e3 b43c e0df fd3d a53d 06be 0d6c 153d
000000d0: abb7 263e bce5 26bd 84a4 89bd 3e5b 04be
000000e0: 60c2 2cbe 7c1c e2bc b359 e73d 5891 8b3d
000000f0: c912 39bd d127 8b3c 4176 a63d 1603 05be
00000100: 2884 59bd 831f d6bd f817 2bbe 7e8b 233e
00000110: b382 2b3d b1f5 68bc dbb6 b9bd 698e e03d
00000120: 9309 04be f622 c53d 1bd3 43bd 0cbf 7d3d
00000130: 1fde d83d 9414 1e3e 6484 cc3d 4ff7 d3bd
00000140: 9eb3 f4bd aaff 243d 5b94 8c3d 1da1 393d
00000150: 1fe6 263e 6ae4 7d3d d9e7 da3c 2290 58bd
00000160: d894 12be 8006 0a3d fe32 9b3d f805 823d
00000170: 3725 0c3e 361a 143e b917 463d 404a d43c
00000180: 024e 04be a0fd 53bd 074b 113e 4974 a5bd
00000190: 1d8e a33d cd8f 313e 3f48 66bd 3f6f cebd
000001a0: 1cae 96bc 54bd 2bbe 9fb4 b93d 9a8c 96bc
000001b0: f733 883d 048f f3bc e82f b93d 9285 cabd
000001c0: 75d2 22be 2719 18be 01a9 d8bd 7b97 873d
000001d0: 7cb1 1fbe 8704 72bc f70e b93d a0e7 00bc
000001e0: 1271 69bb 3ff4 273c 2c44 d8bd 124e cabc
000001f0: acbd 16be 383c 2abe b3a8 0bbe b8da 943d
00000200: d0fc 343e 5d9e b63c 9fe2 193d d11f eabd
00000210: 604e adbd a8d1 b1bd e298 2ebe 010e 58bd
00000220: faf6 61be 9e59 c23d ed80 6f3d 25a1 a53d
00000230: 6978 b0bd 319c 393d 4981 71bd ad0a 293e
00000240: 17b8 243d 5010 1a3d 4fe3 3abd 8321 bf3d
00000250: 70fc b5bc d90d bfbd 8f77 20bd ee83 1ebb
00000260: 35ed 71bd dc46 c9bd 29c4 97bc 17a0 ba3d
00000270: 64de 7e3c ce95 85bb 5489 a23c 1ea0 36be
00000280: 246d 843d efa7 2dbe 6f9b a63d fbac 22be
00000290: ab44 efbc 2676 e1bd bddd 863d 270d 5e3d
000002a0: 72ca 143e a3dd 233e 6bbb 82bc e95c 30be
000002b0: 0523 183e 0e23 c3bd a5b8 3d3d 3f98 123e
000002c0: d7d1 243e abe7 0f3d 0864 c4bd 93bb d83d
000002d0: 46ec 283e 403b eebc 80fa 69bd eba3 2cbe
000002e0: 2eff 3dbd 2307 933d 9759 313e 6cda b0bd
000002f0: d05f 11be 96af d23d a13c e6bd a251 21be
00000300: 5f2d 21bd 9304 e5bd a557 d1bd 1c33 b7bd
00000310: b797 b8bd 381d c9bd 012e 073d 43ea 37bc
00000320: 79c2 86bd d962 7f3d b173 1f3e 1aeb 5d3d
00000330: 1c36 f1bb 192b 893d 3b4e 06be 6db0 94bd
00000340: 6d47 f73d 31a1 32be ddba 953d a972 d9bd
00000350: c97e 21be 3b22 c5bd 7d14 c5bd 9812 193e
00000360: 1104 9f3d 4bc0 fc3c 9802 303e f577 13be
00000370: 2280 efbd 8449 34be b06b 1cbe bf96 5e3d
00000380: 8948 2fbe 9457 a53d e18c 2f3d 68ee 18be
00000390: 6fd8 823d fba2 00be ff53 6dbe da03 593d
000003a0: 7b1a 9a3d cad2 2c3e b8a4 f9bd 6764 c9bd
000003b0: 329c 1c3e 471e cb3d 7f11 943c 1ccf 07be
000003c0: 106d 39bd 8ce7 e6bd dc9e 383d 6c27 cd3d
000003d0: d941 64be 3de9 b43d de0c 97bd 68a9 13bd
000003e0: 1f3e 263e 8c58 bfbd ba8c f23d 5e47 5ebd
000003f0: a22c 83bd 5237 95bb 4f80 1cbe 1eb1 0d3e

net.2.bias f4 [64]
-0.015594388 0.0024685306 -0.019598803 -0.008292713 -0.013825486 0.0 -0.021995397 -0.02637715
-0.024196727 0.0076015373 0.0 0.0 -0.00751129 0.0208468 -0.014259671 -0.0083141355
0.0 0.0 -0.008047573 -0.006353345 -0.027807899 0.00079983135 -0.019802699 -0.013814843
-0.017158994 0.018380266 -0.001078756 0.013794951 -0.016220465 0.0 -0.01092899 0.0
0.00021509881 0.0071746744 -0.0071096993 0.0 0.017103447 -0.013992271 0.0 0.0
-0.010554154 -0.014565536 -0.017970543 -0.012012771 -0.02463966 -0.003784885 -0.008291258 0.010473771
0.011815999 -0.008250601 0.018263163 0.010830902 -0.013825484 -0.0114042545 0.0 0.0018481093
-0.0065913335 -0.0036939103 -0.031288195 0.012072853 -0.011900077 0.0059769223 -0.009097319 0.037768546
00000000: 9b7f 7fbc 12c7 213b ab8d a0bc 29de 07bc
00000010: 4b84 62bc 0000 0000 b12f b4bc e514 d8bc
00000020: 3738 c6bc 5116 f93b 0000 0000 0000 0000
00000030: 4421 f6bb e9c6 aa3c 65a1 69bc 0338 08bc
00000040: 0000 0000 0000 0000 f8d9 03bc b82f d0bb
00000050: 64cd e3bc c6ab 513a 4539 a2bc a757 62bc
00000060: 0591 8cbc 3692 963c 0b65 8dba 3804 623c
00000070: c8e0 84bc 0000 0000 820f 33bc 0000 0000
00000080: 268c 6139 8819 eb3b 7bf8 e8bb 0000 0000
00000090: 871c 8c3c d73f 65bc 0000 0000 0000 0000
000000a0: 55eb 2cbc 49a4 6ebc f636 93bc 37d1 44bc
000000b0: 1dd9 c9bc d50b 78bb 0ed8 07bc 2e9a 2b3c
000000c0: e497 413c 872d 07bc a19c 953c 1874 313c
000000d0: 4884 62bc e9d8 3abc 0000 0000 423c f23a
000000e0: 1dfc d7bb 8815 72bb 0d28 00bd 37cd 453c
000000f0: 8af8 42bc 0fda c33b ec0c 15bc 31b3 1a3d

net.4.weight f4 [16, 64]
0.21515407 0.048317865 -0.15975164 0.14191748 -0.22770105 -0.1801751 -0.18573667 0.2177063
-0.23274162 -0.16468601 -0.054722026 -0.10036344 0.11774121 -0.20652767 -0.058764912 0.14052986
0.24910861 0.08175839 0.22545668 -0.23229215 0.21685095 -0.23376904 -0.22303027 -0.0030420623
-0.21514545 -0.029033199 0.06658183 -0.23341088 -0.07212689 0.044180535 0.014273838 -0.043830596
-0.069921955 -0.025911903 0.04403875 -0.08637265 -0.014994386 0.013590606 -0.00069302646 0.16942936
-0.20319407 0.26504788 0.20978011 -0.21468888 0.06270208 0.2437276 -0.24475095 0.14474675
0.22684772 -0.16896644 -0.20169319 0.00064395834 0.12842928 0.23924679 -0.26236156 -0.05812291
-0.16337691 -0.13550603 0.22219725 -0.2658799 -0.021958962 0.16700697 0.04578183 -0.041664317
0.22582552 -0.17459182 -0.14591523 -0.25878596 -0.054143198 -0.17850283 -0.0057782694 0.09428487
0.17492223 -0.07346203 0.017816115 0.08023698 0.22959678 0.06287845 0.11515214 -0.25049254
-0.19939059 -0.15767778 -0.19944021 0.08313097 0.1593243 -0.25773457 0.143982 -0.20924005
0.23973562 0.21780755 0.058275532 -0.055775955 -0.23387495 0.053939123 0.23485972 0.045939904
0.019569773 0.18779157 -0.30612695 0.045855317 0.06278107 -0.26543966 0.15468408 -0.21761385
0.118798524 0.06276046 0.23703699 -0.05280706 0.17657106 -0.22984266 0.19295406 0.098663695
-0.0032494322 -0.11221808 0.0045183287 -0.17766424 0.23588061 -0.059983037 0.13096157 0.20044559
-0.17525421 0.1275889 -0.17449997 -0.10273659 -0.10924788 0.05269742 -0.22003503 -0.10670718
0.113147385 -0.06556423 -0.25709102 -0.13624914 0.12980103 0.093564056 0.09972995 -0.102846816
-0.024130164 -0.22483861 0.22246179 0.14336318 0.09012304 -0.21193384 -0.18150602 0.054558173
-0.009607695 0.20375374 0.25712222 0.056430213 0.07345197 0.015740413 -0.23866108 -0.18813677
-0.24270724 0.002088204 -0.027186139 -0.06429628 -0.17716752 -0.13246714 0.15258573 0.023577461
0.24806824 -0.23762818 0.15047349 0.22327532 -0.10370218 -0.063896395 -0.11748454 0.17078806
0.017863477 0.0027132763 0.10317632 0.21059668 -0.062273912 -0.27898064 0.20834816 -0.038514476
-0.22289556 -0.23827815 0.19822088 0.23707259 -0.08825411 -0.034591056 -0.13960944 0.23349144
0.13759126 0.20452733 0.002578602 0.11205151 0.12673223 -0.053501997 -0.00460763 -0.17036259
0.109960034 0.07100802 -0.20174432 -0.003668424 0.15198265 0.21284054 0.044422265 -0.06068216
-0.2553724 -0.1571663 -0.10545651 0.2522675 0.19844931 -0.089895636 0.17445567 0.021527832
0.051206816 -0.26391697 0.017106963 -0.2553976 0.1623322 -0.20427287 -0.08134674 0.048656076
0.17409483 -0.077714466 -0.028574219 -0.17661673 -0.14902547 -0.06316854 0.15543893 -0.09289388
-0.1936071 -0.08171535 -0.059402633 -0.1903833 -0.10271042 -0.046089847 0.067554444 -0.22225226
0.0073955143 -0.04699221 0.055926427 -0.026966512 -0.035142202 0.2020605 -0.13645943 -0.12579007
-0.26912335 -0.07298263 -0.03412248 0.21028164 0.099532776 0.17035663 0.18766 0.06613261
0.14013733 -0.027836336 0.14954926 0.0370249 0.24175401 -0.09569679 -0.22730397 0.013950791
00000000: 5951 5c3e f4e8 453d ef95 23be d152 113e
00000010: 772a 69be d27f 38be c131 3ebe 66ee 5e3e
00000020: d253 6ebe 73a3 28be 3424 60bd 598b cdbd
00000030: 4e22 f13d fd7b 53be 7ab3 70bd 0fe7 0f3e
00000040: 5416 7f3e f170 a73d 1ede 663e fedd 6dbe
00000050: 2d0e 5e3e 2761 6fbe 0c62 64be 565d 47bb
00000060: 174f 5cbe 08d7 edbc 0e5c 883d 4303 6fbe
00000070: 43b7 93bd a6f6 343d d1dc 693c b687 33bd
00000080: 3e33 8fbd 3345 d4bc fa61 343d 25e4 b0bd
00000090: 03ab 75bc 22ab 5e3c 38ac 35ba e47e 2d3e
000000a0: 1b12 50be 5bb4 873e 99d0 563e 67d7 5bbe
000000b0: f369 803d ba93 793e fe9f 7abe 7e38 143e
000000c0: c54a 683e 8a05 2dbe a988 4ebe 50cf 283a
000000d0: f782 033e 1cfd 743e 4154 86be 4a12 6ebd
000000e0: 474c 27be 18c2 0abe ad87 633e 6921 88be
000000f0: 48e3 b3bc e003 2b3e ba85 3b3d 34a8 2abd
00000100: ce3e 673e 33c8 32be cd6a 15be 987f 84be
00000110: 42c5 5dbd 72c9 36be a357 bdbb 6d18 c13d
00000120: d01e 333e 4373 96bd 1af3 913c 4953 a43d
00000130: 6b1b 6b3e 6bc6 803d e3d4 eb3d 8f40 80be
00000140: 0c2d 4cbe 4976 21be 0e3a 4cbe 9240 aa3d
00000150: e925 233e c9f5 83be 0470 133e 0643 56be
00000160: 417d 753e f108 5f3e 53b2 6e3d 5475 64bd
00000170: ea7c 6fbe 45ef 5c3d 117f 703e 7b2b 3c3d
00000180: ca50 a03c 6f4c 403e acbc 9cbe c9d2 3b3d
00000190: 5d93 803d b5e7 87be 8165 1e3e 2ad6 5ebe
000001a0: a44c f33d 8e88 803d d3b9 723e 374c 58bd
000001b0: 0bcf 343e e05b 6bbe c095 453e 3110 ca3d
000001c0: 6df4 54bb 98d2 e5bd 7d0e 943b 9ded 35be
000001d0: b08a 713e c6b0 75bd ca1a 063e 9c41 4d3e
000001e0: d775 33be aaa6 023e 1fb0 32be 9067 d2bd
000001f0: 5abd dfbd 40d9 573d dd50 61be 4b89 dabd
00000200: d1b9 e73d 8a46 86bd 6fa1 83be e584 0bbe
00000210: 90ea 043e 839e bf3d 373f cc3d 5aa1 d2bd
00000220: 9fac c5bc 183c 66be 06cd 633e cccd 123e
00000230: 6e92 b83d 2f05 59be b7dc 39be 6478 5f3d
00000240: 9869 1dbc d2a4 503e 86a5 833e 5e23 673d
00000250: fd6d 963d 0af2 803c 9263 74be eda6 40be
00000260: 3f88 78be 40da 083b 77b5 debc c5ad 83bd
00000270: 676b 35be 77a5 07be 6f3f 1c3e 8525 c13c
00000280: 9a05 7e3e cd54 73be b915 1a3e 49a2 643e
00000290: cf61 d4bd 1ddc 82bd bc9b f0bd 11e3 2e3e
000002a0: 6d56 923c 39d1 313b 1b4e d33d a8a6 573e
000002b0: ee12 7fbd 8dd6 8ebe 3859 553e 5bc1 1dbd
000002c0: bc3e 64be 30ff 73be 6afa 4a3e 28c3 723e
000002d0: 92be b4bd 5aaf 0dbd c7f5 0ebe 6118 6f3e
000002e0: b9e4 0c3e 9d6f 513e c3fd 283b 437b e53d
000002f0: 18c6 013e e924 5bbd 9afb 96bb 8873 2ebe
00000300: ba32 e13d a76c 913d 1096 4ebe f169 70bb
00000310: 57a1 1b3e dff2 593e 1ff4 353d db8d 78bd
00000320: 2cc0 82be 34f0 20be 95f9 d7bd 3529 813e
00000330: 4c36 4b3e 341b b8bd 82a4 323e 235b b03c
00000340: 3dbe 513d 2020 87be e723 8c3c 79c3 82be
00000350: 6a3a 263e e82c 51be 1f99 a6bd 984b 473d
00000360: ea45 323e c328 9fbd 7b14 eabc 04db 34be
00000370: 229a 18be 825e 81bd 622b 1f3e 263f bebd
00000380: f140 46be 615a a7bd 2d50 73bd d7f3 42be
00000390: d759 d2bd b5c8 3cbd fc59 8a3d 1996 63be
000003a0: 1256 f23b e77a 40bd 1c13 653d e0e8 dcbc
000003b0: 45f1 0fbd f3e8 4e3e 05bc 0bbe 1dcf 00be
000003c0: 89ca 89be eb77 95bd 03c4 0bbd 1254 573e
000003d0: d7d7 cb3d f871 2e3e f129 403e 8970 873d
000003e0: 2980 0f3e 0709 e4bc 7123 193e 6ca7 173d
000003f0: 5d8e 773e aefc c3bd 5fc2 68be dc91 643c

net.4.bias f4 [16]
0.0 -0.0023171445 -0.017269226 -0.019410055 0.0069010183 -0.007988077 0.0 0.0
-0.031982213 0.01568146 -0.0046115005 0.0 0.009360156 0.016803587 0.0 -0.017368989
00000000: 0000 0000 3cdb 17bb 3178 8dbc d601 9fbc
00000010: f021 e23b 6ce0 02bc 0000 0000 0000 0000
00000020: c8ff 02bd 6876 803c 121c 97bb 0000 0000
00000030: 575b 193c ada7 893c 0000 0000 6949 8ebc

net.6.weight f4 [1, 16]
-0.44366276 -0.4035406 -0.06147955 -0.09090078 0.32945913 -0.34804463 -0.53778106 0.31302685
-0.5316219 0.21849972 0.5402047 0.016011609 0.08564014 0.07620382 0.040483266 -0.3900625
00000000: c427 e3be e09c cebe fbd1 7bbd 302a babd
00000010: deae a83e e832 b2be 05ac 09bf 0e45 a03e
00000020: 5f18 08bf 64be 5f3e db4a 0a3f c72a 833c
00000030: 1964 af3d c010 9c3d c8d1 253d 46b6 c7be

exp_avg f4 [128, 48]
0.0 0.0 0.0 0.0 0.0 0.0 0.0 0.0
0.0 0.0 0.0 0.0 0.0 0.0 0.0 0.0
0.0 0.0 0.0 0.0 0.0 0.0 0.0 0.0
0.0 0.0 0.0 0.0 0.0 0.0 0.0 0.0
0.0 0.0 0.0 0.0 0.0 0.0 0.0 0.0
0.0 0.0 0.0 0.0 0.0 0.0 0.0 0.0
0.0 0.0 0.0 0.0 0.0 0.0 0.0 0.0
0.0 0.0 0.0 0.0 0.0 0.0 0.0 0.0
0.0 0.0 0.0 0.0 0.0 0.0 0.0 0.0
0.0 0.0 0.0 0.0 0.0 0.0 0.0 0.0
0.0 0.0 0.0 0.0 0.0 0.0 0.0 0.0
0.0 0.0 0.0 0.0 0.0 0.0 0.0 0.0
-0.3551133 -0.44061714 -0.13577197 -0.08604082 -0.38960004 -0.29395175 -0.43723014 4.5750185e-05
-15.150149 -16.91261 -8.816886 -0.66195554 -15.427498 -14.568758 -14.208123 6e-45
-0.010077553 -0.01192362 -0.004684748 -0.0033915583 -0.015821686 -0.00949315 -0.016753389 -0.00022568865
-0.00028497307 -0.0008511549 -0.0015608696 -0.0015174688 -0.48458242 -0.0010252488 -0.010989892 -0.017260984
-0.0019113022 0.005506976 -0.10797835 -2.1653e-05 -0.006712277 -0.008907369 9.264576e-06 5.7549965e-05
0.00041931713 0.00017779216 0.0007872034 0.0053491993 -0.0016952619 -5.76729e-05 -0.010848452 -1.77013e-05
0.0 0.0 0.0 0.0 0.0 0.0 0.0 0.0
0.0 0.0 0.0 0.0 0.0 0.0 0.0 0.0
0.0 0.0 0.0 0.0 0.0 0.0 0.0 0.0
0.0 0.0 0.0 0.0 0.0 0.0 0.0 0.0
0.0 0.0 0.0 0.0 0.0 0.0 0.0 0.0
0.0 0.0 0.0 0.0 0.0 0.0 0.0 0.0
0.0 0.0 0.0 0.0 0.0 0.0 0.0 0.0
0.0 0.0 0.0 0.0 0.0 0.0 0.0 0.0
0.0 0.0 0.0 0.0 0.0 0.0 0.0 0.0
0.0 0.0 0.0 0.0 0.0 0.0 0.0 0.0
0.0 0.0 0.0 0.0 0.0 0.0 0.0 0.0
0.0 0.0 0.0 0.0 0.0 0.0 0.0 0.0
-6e-45 -6e-45 0.0 -6e-45 0.0 0.0 -6e-45 -6e-45
-6e-45 -6e-45 0.0 -6e-45 6e-45 -6e-45 -6e-45 -6e-45
00000000: 0000 0000 0000 0000 0000 0000 0000 0000
00000010: 0000 0000 0000 0000 0000 0000 0000 0000
00000020: 0000 0000 0000 0000 0000 0000 0000 0000
00000030: 0000 0000 0000 0000 0000 0000 0000 0000
00000040: 0000 0000 0000 0000 0000 0000 0000 0000
00000050: 0000 0000 0000 0000 0000 0000 0000 0000
00000060: 0000 0000 0000 0000 0000 0000 0000 0000
00000070: 0000 0000 0000 0000 0000 0000 0000 0000
00000080: 0000 0000 0000 0000 0000 0000 0000 0000
00000090: 0000 0000 0000 0000 0000 0000 0000 0000
000000a0: 0000 0000 0000 0000 0000 0000 0000 0000
000000b0: 0000 0000 0000 0000 0000 0000 0000 0000
000000c0: 0000 0000 0000 0000 0000 0000 0000 0000
000000d0: 0000 0000 0000 0000 0000 0000 0000 0000
000000e0: 0000 0000 0000 0000 0000 0000 0000 0000
000000f0: 0000 0000 0000 0000 0000 0000 0000 0000
00000100: 0000 0000 0000 0000 0000 0000 0000 0000
00000110: 0000 0000 0000 0000 0000 0000 0000 0000
00000120: 0000 0000 0000 0000 0000 0000 0000 0000
00000130: 0000 0000 0000 0000 0000 0000 0000 0000
00000140: 0000 0000 0000 0000 0000 0000 0000 0000
00000150: 0000 0000 0000 0000 0000 0000 0000 0000
00000160: 0000 0000 0000 0000 0000 0000 0000 0000
00000170: 0000 0000 0000 0000 0000 0000 0000 0000
00000180: 69d1 b5be 9298 e1be cf07 0bbe 2b36 b0bd
00000190: a879 c7be d880 96be a1dc dfbe e3e3 3f38
000001a0: 0367 72c1 064d 87c1 f711 0dc1 eb75 29bf
000001b0: 08d7 76c1 a219 69c1 7954 63c1 0400 0000
000001c0: 521c 25bc 495b 43bc 8482 99bb e844 5ebb
000001d0: 7b9c 81bc 2889 1bbc 673e 89bc d6a6 6cb9
000001e0: 7068 95b9 0a20 5fba 1896 ccba cee5 c6ba
000001f0: 301b f8be a461 86ba f30e 34bc e866 8dbc
00000200: a984 faba dd73 b43b c123 ddbd 77a3 b5b7
00000210: a9f2 dbbb 37f0 11bc 0d6f 1b37 ce61 7138
00000220: cbd7 db39 b86d 3a39 535c 4e3a 5648 af3b
00000230: 8d33 deba cee5 71b8 b5bd 31bc 417d 94b7
00000240: 0000 0000 0000 0000 0000 0000 0000 0000
00000250: 0000 0000 0000 0000 0000 0000 0000 0000
00000260: 0000 0000 0000 0000 0000 0000 0000 0000
00000270: 0000 0000 0000 0000 0000 0000 0000 0000
00000280: 0000 0000 0000 0000 0000 0000 0000 0000
00000290: 0000 0000 0000 0000 0000 0000 0000 0000
000002a0: 0000 0000 0000 0000 0000 0000 0000 0000
000002b0: 0000 0000 0000 0000 0000 0000 0000 0000
000002c0: 0000 0000 0000 0000 0000 0000 0000 0000
000002d0: 0000 0000 0000 0000 0000 0000 0000 0000
000002e0: 0000 0000 0000 0000 0000 0000 0000 0000
000002f0: 0000 0000 0000 0000 0000 0000 0000 0000
00000300: 0000 0000 0000 0000 0000 0000 0000 0000
00000310: 0000 0000 0000 0000 0000 0000 0000 0000
00000320: 0000 0000 0000 0000 0000 0000 0000 0000
00000330: 0000 0000 0000 0000 0000 0000 0000 0000
00000340: 0000 0000 0000 0000 0000 0000 0000 0000
00000350: 0000 0000 0000 0000 0000 0000 0000 0000
00000360: 0000 0000 0000 0000 0000 0000 0000 0000
00000370: 0000 0000 0000 0000 0000 0000 0000 0000
00000380: 0000 0000 0000 0000 0000 0000 0000 0000
00000390: 0000 0000 0000 0000 0000 0000 0000 0000
000003a0: 0000 0000 0000 0000 0000 0000 0000 0000
000003b0: 0000 0000 0000 0000 0000 0000 0000 0000
000003c0: 0400 0080 0400 0080 0000 0000 0400 0080
000003d0: 0000 0000 0000 0000 0400 0080 0400 0080
000003e0: 0400 0080 0400 0080 0000 0000 0400 0080
000003f0: 0400 0000 0400 0080 0400 0080 0400 0080

exp_avg_sq f4 [128, 48]
0.0 0.0 0.0 0.0 0.0 0.0 0.0 0.0
0.0 0.0 0.0 0.0 0.0 0.0 0.0 0.0
0.0 0.0 0.0 0.0 0.0 0.0 0.0 0.0
0.0 0.0 0.0 0.0 0.0 0.0 0.0 0.0
0.0 0.0 0.0 0.0 0.0 0.0 0.0 0.0
0.0 0.0 0.0 0.0 0.0 0.0 0.0 0.0
0.0 0.0 0.0 0.0 0.0 0.0 0.0 0.0
0.0 0.0 0.0 0.0 0.0 0.0 0.0 0.0
0.0 0.0 0.0 0.0 0.0 0.0 0.0 0.0
0.0 0.0 0.0 0.0 0.0 0.0 0.0 0.0
0.0 0.0 0.0 0.0 0.0 0.0 0.0 0.0
0.0 0.0 0.0 0.0 0.0 0.0 0.0 0.0
921.0116 1815.545 111.32133 89.525764 1103.6339 504.32233 1486.7898 1.2301365e-06
2.1117598e+06 2.9670208e+06 720687.56 37829.355 2.2841265e+06 1.9004184e+06 2.5306688e+06 2.422268e-08
0.5850939 1.220052 0.123890564 0.05877401 0.6751289 0.2905164 0.9296635 0.00017792106
0.00021190746 0.0022287737 0.020015428 0.020330802 2705.299 0.002510373 0.56799 4.167895
0.013493947 2.703306 15.645236 0.0005321605 2.1588461 0.71017456 9.285209e-07 4.2144602e-05
0.0023935176 0.0025187242 0.0121590765 472.32956 0.012198756 3.060273e-05 0.03504707 5.344147e-06
0.0 0.0 0.0 0.0 0.0 0.0 0.0 0.0
0.0 0.0 0.0 0.0 0.0 0.0 0.0 0.0
0.0 0.0 0.0 0.0 0.0 0.0 0.0 0.0
0.0 0.0 0.0 0.0 0.0 0.0 0.0 0.0
0.0 0.0 0.0 0.0 0.0 0.0 0.0 0.0
0.0 0.0 0.0 0.0 0.0 0.0 0.0 0.0
0.0 0.0 0.0 0.0 0.0 0.0 0.0 0.0
0.0 0.0 0.0 0.0 0.0 0.0 0.0 0.0
0.0 0.0 0.0 0.0 0.0 0.0 0.0 0.0
0.0 0.0 0.0 0.0 0.0 0.0 0.0 0.0
0.0 0.0 0.0 0.0 0.0 0.0 0.0 0.0
0.0 0.0 0.0 0.0 0.0 0.0 0.0 0.0
0.03635567 9.571944 0.0 0.29427758 0.0 0.0 0.007524746 0.00010141527
254.15363 17171.117 0.0 914.4336 51.968063 0.0015409134 314.59146 7.374085e-05
00000000: 0000 0000 0000 0000 0000 0000 0000 0000
00000010: 0000 0000 0000 0000 0000 0000 0000 0000
00000020: 0000 0000 0000 0000 0000 0000 0000 0000
00000030: 0000 0000 0000 0000 0000 0000 0000 0000
00000040: 0000 0000 0000 0000 0000 0000 0000 0000
00000050: 0000 0000 0000 0000 0000 0000 0000 0000
00000060: 0000 0000 0000 0000 0000 0000 0000 0000
00000070: 0000 0000 0000 0000 0000 0000 0000 0000
00000080: 0000 0000 0000 0000 0000 0000 0000 0000
00000090: 0000 0000 0000 0000 0000 0000 0000 0000
000000a0: 0000 0000 0000 0000 0000 0000 0000 0000
000000b0: 0000 0000 0000 0000 0000 0000 0000 0000
000000c0: 0000 0000 0000 0000 0000 0000 0000 0000
000000d0: 0000 0000 0000 0000 0000 0000 0000 0000
000000e0: 0000 0000 0000 0000 0000 0000 0000 0000
000000f0: 0000 0000 0000 0000 0000 0000 0000 0000
00000100: 0000 0000 0000 0000 0000 0000 0000 0000
00000110: 0000 0000 0000 0000 0000 0000 0000 0000
00000120: 0000 0000 0000 0000 0000 0000 0000 0000
00000130: 0000 0000 0000 0000 0000 0000 0000 0000
00000140: 0000 0000 0000 0000 0000 0000 0000 0000
00000150: 0000 0000 0000 0000 0000 0000 0000 0000
00000160: 0000 0000 0000 0000 0000 0000 0000 0000
00000170: 0000 0000 0000 0000 0000 0000 0000 0000
00000180: be40 6644 71f1 e244 85a4 de42 310d b342
00000190: 49f4 8944 4229 fc43 46d9 b944 2b1b a535
000001a0: 3fe4 004a b317 354a f9f2 2f49 5bc5 1347
000001b0: 7a69 0b4a 13fc e749 b375 1a4a 3d12 d032
000001c0: b7c8 153f aa2a 9c3f 56ba fd3d 04bd 703d
000001d0: 3fd5 2c3f 91be 943e 6dfe 6d3f 5290 3a39
000001e0: 7a33 5e39 9e10 123b 65f7 a33c c88c a63c
000001f0: c914 2945 1285 243b cb67 113f 655f 8540
00000200: b715 5d3c f702 2d40 e352 7a41 b080 0b3a
00000210: 892a 0a40 00ce 353f 783f 7935 6cc4 3038
00000220: 90dc 1c3b 2e11 253b dd36 473c 2f2a ec43
00000230: 4bdd 473c 6e5b 0038 848d 0f3d e051 b336
00000240: 0000 0000 0000 0000 0000 0000 0000 0000
00000250: 0000 0000 0000 0000 0000 0000 0000 0000
00000260: 0000 0000 0000 0000 0000 0000 0000 0000
00000270: 0000 0000 0000 0000 0000 0000 0000 0000
00000280: 0000 0000 0000 0000 0000 0000 0000 0000
00000290: 0000 0000 0000 0000 0000 0000 0000 0000
000002a0: 0000 0000 0000 0000 0000 0000 0000 0000
000002b0: 0000 0000 0000 0000 0000 0000 0000 0000
000002c0: 0000 0000 0000 0000 0000 0000 0000 0000
000002d0: 0000 0000 0000 0000 0000 0000 0000 0000
000002e0: 0000 0000 0000 0000 0000 0000 0000 0000
000002f0: 0000 0000 0000 0000 0000 0000 0000 0000
00000300: 0000 0000 0000 0000 0000 0000 0000 0000
00000310: 0000 0000 0000 0000 0000 0000 0000 0000
00000320: 0000 0000 0000 0000 0000 0000 0000 0000
00000330: 0000 0000 0000 0000 0000 0000 0000 0000
00000340: 0000 0000 0000 0000 0000 0000 0000 0000
00000350: 0000 0000 0000 0000 0000 0000 0000 0000
00000360: 0000 0000 0000 0000 0000 0000 0000 0000
00000370: 0000 0000 0000 0000 0000 0000 0000 0000
00000380: 0000 0000 0000 0000 0000 0000 0000 0000
00000390: 0000 0000 0000 0000 0000 0000 0000 0000
000003a0: 0000 0000 0000 0000 0000 0000 0000 0000
000003b0: 0000 0000 0000 0000 0000 0000 0000 0000
000003c0: afe9 143d af26 1941 0000 0000 8dab 963e
000003d0: 0000 0000 0000 0000 2592 f63b e9ae d438
000003e0: 5427 7e43 3c26 8646 0000 0000 c09b 6444
000003f0: 4cdf 4f42 79f8 c93a b54b 9d43 51a5 9a38

exp_avg f4 [128]
0.0 0.0 -0.001517469 0.0 0.0 -6e-45 6e-45 0.0009857032
6e-45 -6e-45 -0.0060356483 -0.005132947 0.0060459636 -0.0076191165 6e-45 6e-45
0.0047596362 -6e-45 0.00040875198 6e-45 0.0 6e-45 -0.0007600438 -0.009555986
0.0 0.0 6e-45 0.0 0.00044137327 6e-45 -0.00894503 -6e-45
0.0 0.0 6e-45 -0.011688485 0.010590887 0.0017350704 0.0013520448 0.0
0.011997093 -0.0010618636 -0.0030601914 6e-45 0.0006660061 0.012026411 0.0 -6e-45
-0.008706133 -0.00022163591 -0.0069428165 6e-45 -0.00096275215 0.0 0.0009430777 -6e-45
0.0 6e-45 -0.004325406 0.004890479 0.0012868003 0.0 0.0 0.0
-0.0006611454 6e-45 6e-45 0.003375586 6e-45 0.0028453122 0.0 0.0033168637
0.006623115 -6e-45 -0.0008232374 6e-45 0.01277419 -0.003769985 -6e-45 -0.006458634
0.0 0.0 0.00072010804 -6e-45 1.4337943e-10 6e-45 6e-45 0.0
0.006252303 6e-45 6e-45 -0.0006246413 0.0 6e-45 0.0001809962 0.00079165475
-0.0040234826 0.0 6e-45 -0.003348982 0.0 0.0 -0.011114113 0.00015329321
6e-45 -0.0031237965 0.0 -0.0019405972 -0.0034102178 0.0038154272 -0.004756158 6e-45
-0.0020214857 -0.012028217 -0.0045415587 -0.0034212144 6e-45 0.0069550513 0.0006128845 -0.0013579
-0.0063017844 0.0 0.0 0.00042598217 0.0 -6e-45 -0.0025208164 -6e-45
00000000: 0000 0000 0000 0000 cfe5 c6ba 0000 0000
00000010: 0000 0000 0400 0080 0400 0000 b632 813a
00000020: 0400 0000 0400 0080 b0c6 c5bb 4832 a8bb
00000030: 381d c63b c8a9 f9bb 0400 0000 0400 0000
00000040: b9f6 9b3b 0400 0080 c34d d639 0400 0000
00000050: 0000 0000 0400 0000 ad3d 47ba b690 1cbc
00000060: 0000 0000 0000 0000 0400 0000 0000 0000
00000070: 1e68 e739 0400 0000 2d8e 12bc 0400 0080
00000080: 0000 0000 0000 0000 0400 0000 0f81 3fbc
00000090: 6685 2d3c 4d6b e33a 1837 b13a 0000 0000
000000a0: 758f 443c 3b2e 8bba 7e8d 48bb 0400 0000
000000b0: ea96 2e3a 6c0a 453c 0000 0000 0400 0080
000000c0: 2ba4 0ebc f066 68b9 9180 e3bb 0400 0000
000000d0: 3461 7cba 0000 0000 e038 773a 0400 0080
000000e0: 0000 0000 0400 0000 23bc 8dbb 5040 a03b
000000f0: daa9 a83a 0000 0000 0000 0000 0000 0000
00000100: b750 2dba 0400 0000 0400 0000 ef38 5d3b
00000110: 0400 0000 6b78 3a3b 0000 0000 bd5f 593b
00000120: b706 d93b 0400 0080 87ce 57ba 0400 0000
00000130: d64a 513c da11 77bb 0400 0080 f3a2 d3bb
00000140: 0000 0000 0000 0000 a2c5 3c3a 0400 0080
00000150: b9a5 1d2f 0400 0000 0400 0000 0000 0000
00000160: 1ee0 cc3b 0400 0000 0400 0000 f8be 23ba
00000170: 0000 0000 0400 0000 ccc9 3d39 0d87 4f3a
00000180: 6bd7 83bb 0000 0000 0400 0000 987a 5bbb
00000190: 0000 0000 0000 0000 f817 36bc 55bd 2039
000001a0: 0400 0000 9cb8 4cbb 0000 0000 a35b feba
000001b0: f67d 5fbb 3f0c 7a3b 8cd9 9bbb 0400 0000
000001c0: e77a 04bb 0012 45bc 5bd1 94bb 7436 60bb
000001d0: 0400 0000 33e7 e33b fca9 203a 90fb b1ba
000001e0: 337f cebb 0000 0000 0000 0000 5c56 df39
000001f0: 0000 0000 0400 0080 4834 25bb 0400 0080

exp_avg_sq f4 [128]
0.0 0.0 0.020048136 0.0 0.0 0.00012651668 4.071986e-05 0.13107671
0.00011545159 0.0015080236 0.31252316 0.25254446 0.14338283 0.3824732 6.047757e-06 8.6963007e-07
0.11436489 0.0003278667 0.0030117251 5.04668e-05 0.0 2.068719e-05 0.036228083 0.3289737
0.0 0.0 0.00016895052 0.0 0.022151763 1.4552799e-06 0.4567531 0.00011563035
0.0 0.0 2.8324279e-05 0.6523269 0.5782945 0.019908533 0.030671809 0.0
0.8035596 0.030809656 0.053609464 0.002632485 0.013250888 0.83051896 0.0 6.112596e-05
0.42262143 0.03461262 0.65407634 0.0003170528 0.012463735 0.0 0.00932329 0.0006913355
0.0 4.899491e-05 0.08386578 0.11882684 0.08436978 0.0 0.0 0.0
0.13897973 0.00036446934 0.004219147 0.06352902 0.008881195 0.036122985 0.0 0.0438537
0.56516933 6.464807e-05 0.003924725 9.4229966e-07 0.744312 0.011433499 0.0001679035 0.30355898
0.0 0.0 0.037421085 0.00065551675 0.057091516 1.995058e-06 1.4277347e-08 0.0
0.2957554 7.507737e-06 2.2698563e-07 0.011549879 0.0 1.3148628e-05 0.00874542 0.021261992
0.089682 0.0 5.9723072e-05 0.07518663 0.0 0.0 0.66027826 0.009760068
4.8877835e-05 0.0687451 0.0 0.028691633 0.09495047 0.071826495 0.16066007 4.056735e-05
0.026766974 0.64673346 0.21776783 0.071595296 0.00051628816 0.18591344 0.012726433 0.034084484
0.15467282 0.0 0.0 0.0035656237 0.0 8.626283e-05 0.072038755 0.0009675042
00000000: 0000 0000 0000 0000 fd3b a43c 0000 0000
00000010: 0000 0000 90a9 0439 9eca 2a38 f938 063e
00000020: 9a1e f238 e0a8 c53a 0903 a03e 824d 813e
00000030: f3d2 123e 87d3 c33e d6ed ca36 8670 6935
00000040: 2438 ea3d 86e5 ab39 5d60 453b 50ac 5338
00000050: 0000 0000 6789 ad37 e663 143d 3e6f a83e
00000060: 0000 0000 0000 0000 4f28 3139 0000 0000
00000070: 9d77 b53c 0953 c335 8bdb e93e 927e f238
00000080: 0000 0000 0000 0000 ed99 ed37 e5fe 263f
00000090: 1c0b 143f 3817 a33c 7243 fb3c 0000 0000
000000a0: 15b6 4d3f 8864 fc3c 9995 5b3d c585 2c3b
000000b0: 411a 593c e49c 543f 0000 0000 c030 8038
000000c0: d661 d83e f6c5 0d3d 8c71 273f 1b3a a639
000000d0: b234 4c3c 0000 0000 b6c0 183c bd3a 353a
000000e0: 0000 0000 e27f 4d38 d2c1 ab3d 7c5b f33d
000000f0: 10ca ac3d 0000 0000 0000 0000 0000 0000
00000100: b450 0e3e 3f16 bf39 c540 8a3b 811b 823d
00000110: 6f82 113c b2f5 133d 0000 0000 f09f 333d
00000120: f0ae 103f ab93 8738 fb9a 803b 57f2 7c35
00000130: 3b8b 3e3f 9253 3b3c 410f 3039 156c 9b3e
00000140: 0000 0000 0000 0000 da46 193d fcd6 2b3a
00000150: cbd8 693d d6e2 0536 7048 7532 0000 0000
00000160: 406d 973e f8ea fb36 56b9 7334 b43b 3d3c
00000170: 0000 0000 ed98 5c37 f348 0f3c a12d ae3c
00000180: 32ab b73d 0000 0000 297f 7a38 73fb 993d
00000190: 0000 0000 0000 0000 ff07 293f b1e8 1f3c
000001a0: 2d02 4d38 3bca 8c3d 0000 0000 b70a eb3c
000001b0: 6475 c23d c519 933d 1384 243e dc26 2a38
000001c0: 6a46 db3c 5390 253f 88fe 5e3e 8ea0 923d
000001d0: 8357 073a 1860 3e3e 8782 503c 2c9c 0b3d
000001e0: 8d62 1e3e 0000 0000 0000 0000 3dad 693b
000001f0: 0000 0000 01e8 b438 0e89 933d 1ca0 7d3a

exp_avg f4 [64, 128]
0.0 0.0 6e-45 0.0 0.0 6e-45 6e-45 6e-45
6e-45 6e-45 6e-45 6e-45 6e-45 6e-45 0.0 -6e-45
6e-45 6e-45 6e-45 6e-45 0.0 6e-45 6e-45 6e-45
0.0 0.0 6e-45 0.0 6e-45 0.0 6e-45 6e-45
0.0 0.0 6e-45 6e-45 6e-45 6e-45 6e-45 0.0
6e-45 -6e-45 6e-45 6e-45 6e-45 6e-45 0.0 0.0
6e-45 6e-45 6e-45 6e-45 6e-45 0.0 6e-45 6e-45
0.0 6e-45 6e-45 6e-45 6e-45 0.0 0.0 0.0
6e-45 6e-45 6e-45 6e-45 6e-45 6e-45 0.0 6e-45
6e-45 6e-45 6e-45 0.0 6e-45 0.0 6e-45 6e-45
0.0 0.0 6e-45 6e-45 6e-45 6e-45 0.0 0.0
6e-45 0.0 0.0 6e-45 0.0 6e-45 6e-45 6e-45
6e-45 0.0 0.0 6e-45 0.0 0.0 6e-45 6e-45
6e-45 6e-45 0.0 6e-45 6e-45 6e-45 6e-45 6e-45
6e-45 6e-45 6e-45 6e-45 6e-45 6e-45 6e-45 6e-45
6e-45 0.0 0.0 6e-45 0.0 6e-45 6e-45 6e-45
0.0 0.0 6e-45 0.0 0.0 6e-45 0.0 6e-45
6e-45 6e-45 6e-45 6e-45 6e-45 6e-45 0.0 -6e-45
6e-45 -6e-45 6e-45 0.0 0.0 0.0 6e-45 6e-45
0.0 0.0 0.0 0.0 6e-45 0.0 6e-45 -6e-45
0.0 0.0 6e-45 6e-45 6e-45 6e-45 6e-45 0.0
6e-45 6e-45 6e-45 6e-45 6e-45 6e-45 0.0 0.0
6e-45 6e-45 6e-45 -6e-45 6e-45 0.0 6e-45 6e-45
0.0 6e-45 6e-45 6e-45 6e-45 0.0 0.0 0.0
6e-45 0.0 6e-45 6e-45 -6e-45 6e-45 0.0 6e-45
6e-45 0.0 6e-45 0.0 6e-45 0.0 6e-45 6e-45
0.0 0.0 6e-45 6e-45 6e-45 0.0 0.0 0.0
6e-45 0.0 0.0 6e-45 0.0 0.0 6e-45 6e-45
6e-45 0.0 0.0 6e-45 0.0 0.0 6e-45 6e-45
6e-45 6e-45 0.0 6e-45 6e-45 6e-45 6e-45 0.0
6e-45 6e-45 6e-45 6e-45 6e-45 6e-45 6e-45 6e-45
6e-45 0.0 0.0 6e-45 0.0 0.0 6e-45 -6e-45
00000000: 0000 0000 0000 0000 0400 0000 0000 0000
00000010: 0000 0000 0400 0000 0400 0000 0400 0000
00000020: 0400 0000 0400 0000 0400 0000 0400 0000
00000030: 0400 0000 0400 0000 0000 0000 0400 0080
00000040: 0400 0000 0400 0000 0400 0000 0400 0000
00000050: 0000 0000 0400 0000 0400 0000 0400 0000
00000060: 0000 0000 0000 0000 0400 0000 0000 0000
00000070: 0400 0000 0000 0000 0400 0000 0400 0000
00000080: 0000 0000 0000 0000 0400 0000 0400 0000
00000090: 0400 0000 0400 0000 0400 0000 0000 0000
000000a0: 0400 0000 0400 0080 0400 0000 0400 0000
000000b0: 0400 0000 0400 0000 0000 0000 0000 0000
000000c0: 0400 0000 0400 0000 0400 0000 0400 0000
000000d0: 0400 0000 0000 0000 0400 0000 0400 0000
000000e0: 0000 0000 0400 0000 0400 0000 0400 0000
000000f0: 0400 0000 0000 0000 0000 0000 0000 0000
00000100: 0400 0000 0400 0000 0400 0000 0400 0000
00000110: 0400 0000 0400 0000 0000 0000 0400 0000
00000120: 0400 0000 0400 0000 0400 0000 0000 0000
00000130: 0400 0000 0000 0000 0400 0000 0400 0000
00000140: 0000 0000 0000 0000 0400 0000 0400 0000
00000150: 0400 0000 0400 0000 0000 0000 0000 0000
00000160: 0400 0000 0000 0000 0000 0000 0400 0000
00000170: 0000 0000 0400 0000 0400 0000 0400 0000
00000180: 0400 0000 0000 0000 0000 0000 0400 0000
00000190: 0000 0000 0000 0000 0400 0000 0400 0000
000001a0: 0400 0000 0400 0000 0000 0000 0400 0000
000001b0: 0400 0000 0400 0000 0400 0000 0400 0000
000001c0: 0400 0000 0400 0000 0400 0000 0400 0000
000001d0: 0400 0000 0400 0000 0400 0000 0400 0000
000001e0: 0400 0000 0000 0000 0000 0000 0400 0000
000001f0: 0000 0000 0400 0000 0400 0000 0400 0000
00000200: 0000 0000 0000 0000 0400 0000 0000 0000
00000210: 0000 0000 0400 0000 0000 0000 0400 0000
00000220: 0400 0000 0400 0000 0400 0000 0400 0000
00000230: 0400 0000 0400 0000 0000 0000 0400 0080
00000240: 0400 0000 0400 0080 0400 0000 0000 0000
00000250: 0000 0000 0000 0000 0400 0000 0400 0000
00000260: 0000 0000 0000 0000 0000 0000 0000 0000
00000270: 0400 0000 0000 0000 0400 0000 0400 0080
00000280: 0000 0000 0000 0000 0400 0000 0400 0000
00000290: 0400 0000 0400 0000 0400 0000 0000 0000
000002a0: 0400 0000 0400 0000 0400 0000 0400 0000
000002b0: 0400 0000 0400 0000 0000 0000 0000 0000
000002c0: 0400 0000 0400 0000 0400 0000 0400 0080
000002d0: 0400 0000 0000 0000 0400 0000 0400 0000
000002e0: 0000 0000 0400 0000 0400 0000 0400 0000
000002f0: 0400 0000 0000 0000 0000 0000 0000 0000
00000300: 0400 0000 0000 0000 0400 0000 0400 0000
00000310: 0400 0080 0400 0000 0000 0000 0400 0000
00000320: 0400 0000 0000 0000 0400 0000 0000 0000
00000330: 0400 0000 0000 0000 0400 0000 0400 0000
00000340: 0000 0000 0000 0000 0400 0000 0400 0000
00000350: 0400 0000 0000 0000 0000 0000 0000 0000
00000360: 0400 0000 0000 0000 0000 0000 0400 0000
00000370: 0000 0000 0000 0000 0400 0000 0400 0000
00000380: 0400 0000 0000 0000 0000 0000 0400 0000
00000390: 0000 0000 0000 0000 0400 0000 0400 0000
000003a0: 0400 0000 0400 0000 0000 0000 0400 0000
000003b0: 0400 0000 0400 0000 0400 0000 0000 0000
000003c0: 0400 0000 0400 0000 0400 0000 0400 0000
000003d0: 0400 0000 0400 0000 0400 0000 0400 0000
000003e0: 0400 0000 0000 0000 0000 0000 0400 0000
000003f0: 0000 0000 0000 0000 0400 0000 0400 0080

exp_avg_sq f4 [64, 128]
0.0 0.0 3264.9978 0.0 0.0 76.67397 48.877808 50035.4
229.46384 0.034545366 0.09401012 8376.213 6020.8203 6834.971 0.0 0.0014470132
152077.45 2.4105985 24483.941 29.378752 0.0 0.010740839 3559.977 5200.9087
0.0 0.0 104.39146 0.0 2885.306 0.0 35675.914 165.01967
0.0 0.0 41.23718 9222.505 10878.369 7016.357 1468.713 0.0
2858.731 322.81693 21753.213 0.41488853 13584.036 32777.316 0.0 0.0
9135.639 457.02505 6286.424 36.042706 18080.85 0.0 38055.22 121.65576
0.0 24.037605 6190.7676 24814.85 0.33329228 0.0 0.0 0.0
41169.094 16.918911 40.899273 8744.032 153.91837 10243.838 0.0 21194.955
0.1543827 27.60357 33103.215 0.0 14286.919 0.0 368.11035 5009.675
0.0 0.0 2994.8994 54.06267 175.7891 0.0002449381 0.0 0.0
9853.549 0.0 0.0 15.430211 0.0 3.9753206 765.3923 4778.941
4581.7827 0.0 0.0 11225.494 0.0 0.0 25.733995 1703.9799
10.303593 29581.49 0.0 7214.96 3347.3704 26141.342 24570.893 13.323676
8585.909 903.5288 31200.258 1121.0295 49.165356 7525.0034 39672.367 2612.27
12650.624 0.0 0.0 13101.476 0.0 75.413536 8654.414 67.65236
0.0 0.0 6135.009 0.0 0.0 1.4376106e-06 0.0 86001.914
0.010983644 1.473841 9.665146 15589.565 9068.031 13346.049 0.0 0.09556953
277492.44 2.0247635e-05 45332.754 0.0 0.0 0.0 4355.4326 9998.354
0.0 0.0 0.0 0.0 3952.9485 0.0 66309.87 0.852946
0.0 0.0 0.01269006 18484.428 17472.629 14006.094 2352.2178 0.0
4257.1533 64.58165 40567.05 22.31084 21474.059 58789.508 0.0 0.0
16332.067 1065.0654 11472.689 30.072836 31482.984 0.0 68403.51 0.005892443
0.0 0.00081960845 11180.502 41945.566 17.588915 0.0 0.0 0.0
70720.31 0.0 251.75734 13857.763 3.8502533 17691.287 0.0 39760.723
15.173909 0.0 55272.11 0.0 23173.46 0.0 0.0047262725 10050.012
0.0 0.0 3646.4653 0.0007937399 551.91 0.0 0.0 0.0
18305.6 0.0 0.0 16.587435 0.0 0.0 886.84564 7433.323
6737.3525 0.0 0.0 21237.473 0.0 0.0 2.0031278 2539.1091
0.019915923 52471.64 0.0 14124.472 5255.8926 47756.887 46276.793 0.0
15116.547 2228.9626 54543.902 2317.6597 0.00480948 12028.772 66935.336 5689.4707
21572.416 0.0 0.0 21986.705 0.0 0.0 12162.83 135.59244
00000000: 0000 0000 0000 0000 f70f 4c45 0000 0000
00000010: 0000 0000 1359 9942 e082 4342 6673 4347
00000020: be76 6543 717f 0d3d 6188 c03d dae0 0246
00000030: 9026 bc45 c597 d545 0000 0000 b5a9 bd3a
00000040: 5d83 1448 3f47 1a40 e247 bf46 af07 eb41
00000050: 0000 0000 58fa 2f3c a27f 5e45 4587 a245
00000060: 0000 0000 0000 0000 6dc8 d042 0000 0000
00000070: e554 3445 0000 0000 ea5b 0b47 0905 2543
00000080: 0000 0000 0000 0000 dff2 2442 051a 1046
00000090: 7af9 2946 db42 db45 d196 b744 0000 0000
000000a0: b2ab 3245 9168 a143 6df2 a946 456c d43e
000000b0: 2540 5446 5109 0047 0000 0000 0000 0000
000000c0: 8ebe 0e46 3583 e443 6473 c445 bb2b 1042
000000d0: b341 8d46 0000 0000 38a7 1447 c04f f342
000000e0: 0000 0000 044d c041 2476 c145 b3dd c146
000000f0: 49a5 aa3e 0000 0000 0000 0000 0000 0000
00000100: 18d1 2047 ee59 8741 db98 2342 21a0 0846
00000110: 1aeb 1943 5a0f 2046 0000 0000 e995 a546
00000120: 8016 1e3e 1dd4 dc41 374f 0147 0000 0000
00000130: ad3b 5f46 0000 0000 200e b843 668d 9c45
00000140: 0000 0000 0000 0000 642e 3b45 2d40 5842
00000150: 02ca 2f43 096b 8039 0000 0000 0000 0000
00000160: 32f6 1946 0000 0000 0000 0000 25e2 7641
00000170: 0000 0000 a76b 7e40 1b59 3f44 8757 9545
00000180: 432e 8f45 0000 0000 0000 0000 fa65 2f46
00000190: 0000 0000 0000 0000 39df cd41 5bff d444
000001a0: 84db 2441 fb1a e746 0000 0000 ae77 e145
000001b0: ed35 5145 af3a cc46 c9f5 bf46 c72d 5541
000001c0: a327 0646 d8e1 6144 84c0 f346 f220 8c44
000001d0: 53a9 4442 0728 eb45 5ef8 1a47 5244 2345
000001e0: 7faa 4546 0000 0000 0000 0000 e7b5 4c46
000001f0: 0000 0000 bbd3 9642 a839 0746 024e 8742
00000200: 0000 0000 0000 0000 12b8 bf45 0000 0000
00000210: 0000 0000 edf3 c035 0000 0000 f5f8 a747
00000220: bef4 333c d2a6 bc3f 70a4 1a41 4396 7346
00000230: 20b0 0d46 3288 5046 0000 0000 f5b9 c33d
00000240: 8e7e 8748 77d9 a937 c114 3147 0000 0000
00000250: 0000 0000 0000 0000 761b 8845 6a39 1c46
00000260: 0000 0000 0000 0000 0000 0000 0000 0000
00000270: 2d0f 7745 0000 0000 ef82 8147 ab5a 5a3f
00000280: 0000 0000 0000 0000 f8e9 4f3c db68 9046
00000290: 4281 8846 60d8 5a46 7c03 1345 0000 0000
000002a0: 3a09 8545 ce29 8142 0d77 1e47 9a7c b241
000002b0: 1ec4 a746 82a5 6547 0000 0000 0000 0000
000002c0: 4530 7f46 1822 8544 c242 3346 2b95 f041
000002d0: f8f5 f546 0000 0000 c199 8547 6515 c13b
000002e0: 0000 0000 feda 563a 02b2 2e46 91d9 2347
000002f0: 19b6 8c41 0000 0000 0000 0000 0000 0000
00000300: 2820 8a47 0000 0000 e1c1 7b43 0d87 5846
00000310: 8d6a 7640 9336 8a46 0000 0000 b950 1b47
00000320: 55c8 7241 0000 0000 1ce8 5747 0000 0000
00000330: ec0a b546 0000 0000 d9de 9a3b 0c08 1d46
00000340: 0000 0000 0000 0000 72e7 6345 fc12 503a
00000350: 3dfa 0944 0000 0000 0000 0000 0000 0000
00000360: 3303 8f46 0000 0000 0000 0000 11b3 8441
00000370: 0000 0000 0000 0000 1fb6 5d44 964a e845
00000380: d28a d245 0000 0000 0000 0000 f2ea a546
00000390: 0000 0000 0000 0000 3f33 0040 bfb1 1e45
000003a0: b826 a33c a4f7 4c47 0000 0000 e3b1 5c46
000003b0: 243f a445 e38c 3a47 cbc4 3447 0000 0000
000003c0: 3032 6c46 674f 0b45 e70f 5547 8eda 1045
000003d0: d898 9d3b 17f3 3b46 abbb 8247 c4cb b145
000003e0: d588 a846 0000 0000 0000 0000 69c5 ab46
000003f0: 0000 0000 0000 0000 520b 3e46 aa97 0743
