src/model_data/Pre-Season_Test_model.pth (torch, 197783 bytes, 21 tensors)

net.0.weight f4 [128, 48]
000000 d0 99 2c 3e 33 3f 84 bd df 56 07 3e 3c 66 58 3d
       0.1685555 -0.06457367 0.13216732 0.052831873
000010 61 23 0d be 30 88 7e 3d 9f 0a b9 bd 8a 8c cc bd
       -0.13783027 0.062141597 -0.09035229 -0.09987743
000020 d0 26 d1 3c 7a ad 3c be 96 46 0a 3e 9c 03 09 be
       0.025531203 -0.18425551 0.13503489 -0.13380283
000030 47 52 c5 bd 1c 3f 99 bd 60 1c 1d 3e 71 85 b8 3d
       -0.09634834 -0.0748274 0.15342855 0.09009827
000040 73 b2 b0 3d 0e 0a d6 3d e3 65 d6 bd f7 d4 83 bc
       0.086277865 0.104511365 -0.10468652 -0.01609276
000050 bd 3d f2 bc 83 9c 9b 3d c1 30 99 bd cb d7 ad bd
       -0.029570455 0.075982116 -0.07480002 -0.08488425
000060 b8 84 04 3e b2 40 d4 bd 0c 70 28 3e 49 c1 b6 3d
       0.12941253 -0.10363902 0.16448992 0.08923585
000070 62 92 93 3d 2d 19 30 be b4 a2 0f be 0c be 31 bd
       0.07205655 -0.17197104 -0.1402691 -0.043394133
000080 07 fb 5a bd 41 18 78 3a f7 07 6b bd e3 79 23 3e
       -0.053462055 0.00094640633 -0.057380643 0.15964465
000090 30 75 37 3e 35 67 08 3e 1f c8 c7 3d 19 4c 2a 3e
       0.17915797 0.1332062 0.09754967 0.16630591
0000a0 07 cf c0 3c ae aa 89 bd 65 3b ad bd d4 1b cc 3c
       0.023536218 -0.06722008 -0.08458594 0.024915613
0000b0 78 42 1e be 65 d4 56 3d ea 34 25 bd 29 8c 22 be
       -0.15455043 0.05244865 -0.040333666 -0.1587378
0000c0 49 22 c4 3d be 0f eb 3d 23 b2 03 be f9 52 36 3e
       0.09576852 0.11477612 -0.12860923 0.17805089
0000d0 c8 7c 2b bd 7b 33 1d 3e 84 07 3a be 03 1e fa bd
       -0.041867048 0.1535167 -0.1816693 -0.122127555
0000e0 1f c2 0b be f9 8c 3b be 22 47 8c bd 69 28 09 3e
       -0.1364827 -0.18315496 -0.06849505 0.13394322
0000f0 99 e2 3f 3d c8 57 c9 3d 90 c0 19 3e 26 de 81 bc
       0.04684696 0.09831196 0.15014863 -0.015852999
000100 b4 30 17 be cf 98 43 bd 84 79 c2 3d 09 16 fc bb
       -0.14764673 -0.04775315 0.094958335 -0.0076930565
000110 08 7c 90 bd bc b9 24 bd e6 28 1a 3e 6b ea 2f be
       -0.07054907 -0.040216193 0.15054664 -0.17179267
000120 42 a6 00 be 7e 62 a7 bd 81 93 8f bd dd ff 0d be
       -0.12563422 -0.08173083 -0.07010556 -0.13867135
000130 c3 8e ed 3d 99 08 2a bc 85 f7 91 3d 84 a4 ee bd
       0.11599495 -0.010378026 0.07127289 -0.116524726
000140 ac 56 62 bc 47 bd 6d 3d 57 cf 22 bd fc 5c 9a bb
       -0.0138146095 0.058041837 -0.039748516 -0.0047107916
000150 23 1b cf bb f3 ee 02 be 35 17 dd bd 42 81 94 3d
       -0.0063203736 -0.12786464 -0.10795442 0.072512165
000160 0a 3f 34 be 30 5a 56 ba d7 b6 a0 bd 43 2b 2c bd
       -0.17602172 -0.0008176891 -0.07847374 -0.042033445
000170 ef 5f a0 3a 0c 0a 26 be ac c9 6f bd 24 2e 6c bc
       0.0012235622 -0.1621477 -0.05854194 -0.014415298
000180 92 1b 54 be dd 31 9e bd 0c 75 b5 3c bb cf 33 3d
       -0.20713642 -0.077243544 0.022150539 0.04389928
000190 53 23 31 3e f5 d5 6d bd 02 5d 9c 3d 0a 0a 4b be
       0.17298631 -0.058065373 0.07634927 -0.19828048
0001a0 ba b4 42 be b0 9a de 3d 09 38 34 3e ad 26 e1 bd
       -0.19014254 0.10869348 0.175995 -0.10993705
0001b0 42 76 eb 3c 90 a6 50 bd 74 8d 18 be 4a 3f 52 be
       0.028742913 -0.050940096 -0.1489771 -0.20531955
0001c0 89 19 8f bb 0e f9 81 be 76 73 06 3d b5 8c 53 be
       -0.0043670577 -0.25385326 0.032824956 -0.20659144
0001d0 58 64 34 3e 03 51 85 3d ff 52 8c 3d aa c8 91 3c
       0.17616403 0.065095924 0.06851768 0.01779588
0001e0 fb b4 4f be c3 37 e6 3d 3d 5f e1 bd 55 c6 4c be
       -0.20283882 0.112411045 -0.110044934 -0.19997533
0001f0 59 1f 5b be d4 a7 21 be 01 6d 23 bb 93 4d c1 bc
       -0.21398677 -0.15786678 -0.0024936798 -0.02359656
000200 3a 90 d0 bd b3 dd 82 be b3 5a c6 bd 23 f8 17 be
       -0.10183759 -0.25559768 -0.09685268 -0.1484075
000210 b6 01 8c 3d a0 5c 31 bd 31 e8 3b be f5 4e 28 be
       0.06836264 -0.043301225 -0.18350293 -0.1643637
000220 3f 4a 1a be 4e 9a 0b be 05 4a 3b be 74 d2 6c be
       -0.15067385 -0.13633081 -0.18289955 -0.23127156
000230 35 63 5f bd 89 fd ad 3b 89 6f 90 3c 61 81 15 3e
       -0.05453797 0.0053097648 0.01763131 0.14600135
000240 0f 8c 29 3e cc f5 c9 3c 8b 5a a3 bd c0 de 0f 3e
       0.16557334 0.024653338 -0.07976254 0.14049816
000250 b7 6b 1c be e9 3f 0d bc 7b b5 a2 3d f6 31 eb bd
       -0.15275465 -0.008621194 0.07944771 -0.11484139
000260 1a b8 ca 3d 31 78 eb bd 31 5d 83 3d a5 fe 1c 3e
       0.09898396 -0.11497534 0.06414259 0.15331514
000270 5c 4b 9d bd 8a 92 33 be 71 8e 37 be d7 69 1a be
       -0.07680389 -0.17536369 -0.17925431 -0.15079437
000280 f2 5a 27 be b9 03 3c be 86 b4 d0 bc 71 0a 30 bc
       -0.16343287 -0.18360795 -0.025476705 -0.010744677
000290 0b ba e0 bd 1f 73 0f 3d fe d8 77 3d 89 bf 34 3e
       -0.10972985 0.035021897 0.060509674 0.1765119
0002a0 aa e6 0d be e8 4b de 3d 40 86 97 3d 13 81 8b bd
       -0.13857523 0.10854322 0.07398653 -0.06811728
0002b0 b2 f0 f7 bc 84 d4 36 3e 0d 43 16 be bf ca a1 bb
       -0.03026614 0.17854506 -0.14674015 -0.0049374993
0002c0 2d 1c 12 be 68 7d a0 bd b6 68 36 be 88 99 39 3c
       -0.1426856 -0.07836419 -0.17813382 0.011328109
0002d0 85 c9 c6 3d 56 b1 22 3d 90 fd 62 3d 57 82 ae bd
       0.097064056 0.039719902 0.055417597 -0.08520954
0002e0 bb 07 f7 ba 05 0c 99 3d 01 43 e8 bd 13 be 18 be
       -0.0018846908 0.07472996 -0.11340905 -0.14916258
0002f0 44 a1 b4 3d 72 25 17 be b5 d7 9f 3d 52 1a ab bc
       0.088198215 -0.14760378 0.07804815 -0.020886574
000300 cb e4 c2 bc 72 b8 a5 3d f5 2e f0 bd fc be 7b bd
       -0.023790738 0.08091821 -0.11727706 -0.061461434
000310 7d 3c f8 3c 95 67 c4 bd 1f 92 80 bd 9a f5 ea 3d
       0.03030228 -0.09590069 -0.062778704 0.11472626
000320 61 2e 99 bd 66 cf b2 bd 23 f0 21 bd 86 d7 fd bc
       -0.07479549 -0.08730964 -0.039535653 -0.030986559
000330 61 f0 ec bd 9b a0 9a bc be 2e 76 3b 99 64 c0 bc
       -0.11569286 -0.01887541 0.0037564482 -0.023485469
000340 e5 74 79 3c 2f b0 0c be 32 17 03 3e d1 77 ed bd
       0.015225624 -0.13739084 0.12801817 -0.11595119
000350 84 3a fa 3d 1b 35 17 3e 4d 52 f2 3c 37 29 21 bd
       0.12218192 0.14766352 0.02958026 -0.039345946
000360 ce 88 08 3d 2f 78 bd bd 56 28 e0 3d ae 44 3c be
       0.033333592 -0.09251439 0.109451935 -0.18385574
000370 c1 ad b7 3d cb e5 e5 3d 43 8f 43 bd 79 13 3c be
       0.08968688 0.1122547 -0.047744047 -0.18366803
000380 b2 ec d1 bd c6 d8 03 be 4a 7e 75 be 52 54 28 be
       -0.10250224 -0.12875661 -0.23973957 -0.16438416
000390 12 13 03 be 07 38 c3 3a 3a 27 ca bc e0 5e c4 3d
       -0.12800243 0.0014894017 -0.024676908 0.095884085
0003a0 bd e8 4f be 5e 88 2b be 76 f3 da 3c af e6 e4 3c
       -0.20303626 -0.16751239 0.02672742 0.02794203
0003b0 ff b9 f5 bc 82 e8 0d be ea c7 ba 3d c2 ca a6 bd
       -0.029995916 -0.13858226 0.09120162 -0.08144142
0003c0 07 73 0c be 0d 17 81 3d cd b1 b2 bc 1b 81 db 3d
       -0.13715754 0.06303225 -0.021813298 0.10717984
0003d0 7f 11 e9 bd 0f 09 f7 bd 66 70 3a bd 39 fc 13 bd
       -0.1138029 -0.12062275 -0.045517348 -0.03612921
0003e0 bb 0e 7f 3d db cb 36 be 98 78 58 3d 42 bf e1 bc
       0.062269907 -0.17851202 0.052849382 -0.02755702
0003f0 c6 25 a6 bd 42 6f fb 3c 0b 82 3e 3c ee 79 d2 bd
       -0.081126735 0.0306927 0.011627684 -0.102771625

net.0.bias f4 [128]
000000 00 00 00 00 00 00 00 00 6d 8c 58 bd 00 00 00 00
       0.0 0.0 -0.052868295 0.0
000010 a7 5d 6c bd dc f6 08 be 59 fe 97 bd 00 00 00 00
       -0.0577065 -0.1337542 -0.0742156 0.0
000020 00 00 00 00 a0 57 e8 bb 78 10 75 3d 23 ec 02 bd
       0.0 -0.007090524 0.05983016 -0.03196348
000030 16 1b d1 bd c1 50 b8 bc 00 00 00 00 60 be 9d bd
       -0.10210244 -0.022499444 0.0 -0.07702327
000040 93 fe e9 bd cc 41 00 be 5c 76 47 bd c9 fb 57 bd
       -0.11425509 -0.125251 -0.04869686 -0.052730355
000050 39 d4 04 bd b2 e0 d1 3a 41 2c 19 bd 20 e7 eb bc
       -0.032428954 0.0016012399 -0.03739572 -0.028796732
000060 63 53 94 bd e7 ef 1e 3c 3c c1 f7 bc 00 00 00 00
       -0.07242467 0.009700752 -0.030243509 0.0
000070 9b 35 12 bd a4 28 09 bd 09 13 26 3d 14 61 69 3d
       -0.035695653 -0.033486024 0.040545497 0.056977347
000080 0a a2 38 3d 00 00 00 00 78 e4 ee bc 50 62 97 bc
       0.045076407 0.0 -0.029161677 -0.018479496
000090 ee 03 44 bd 8a b3 52 3d 00 00 00 00 ef 8a a6 bd
       -0.04785531 0.051440753 0.0 -0.08131968
0000a0 19 a1 98 bc 92 6a 92 bc 2e 52 95 3d 00 00 00 00
       -0.018631505 -0.017873082 0.07291065 0.0
0000b0 1c 9e 14 3d 00 00 00 00 0e c5 0c 3a 9d df 36 3d
       0.036283597 0.0 0.00053699396 0.044646848
0000c0 00 00 00 00 e8 2f c0 bd 00 00 00 00 7c a4 b4 bd
       0.0 -0.093841374 0.0 -0.088204354
0000d0 00 00 00 00 6e 1b 10 bc f6 e0 cd bd 00 00 00 00
       0.0 -0.008795602 -0.100526735 0.0
0000e0 e7 16 21 bd 4a 64 25 bd 00 00 00 00 00 00 00 00
       -0.039328482 -0.040378846 0.0 0.0
0000f0 00 00 00 00 05 9d 92 3c 98 9b ba 3d fd 42 99 bc
       0.0 0.017897138 0.091117084 -0.0187087
000100 00 00 00 00 c8 a5 a7 bd 7d 75 82 bd e5 8a 94 bd
       0.0 -0.08185917 -0.06370065 -0.072530545
000110 5a 09 a2 bb bb 4f 21 bc 00 00 00 00 a6 56 9d bd
       -0.0049449624 -0.009845669 0.0 -0.076825425
000120 00 00 00 00 e0 d6 d2 bb 80 ad 92 bd 00 00 00 00
       0.0 -0.0064343065 -0.07161999 0.0
000130 1c ef 99 bc 00 00 00 00 89 62 7a bc 55 fe 3f bd
       -0.018790774 0.0 -0.015282282 -0.04687341
000140 f7 6a a8 bc 75 37 be bd 5f 82 85 bd 21 4a b5 bd
       -0.020558817 -0.09287921 -0.06519007 -0.088520296
000150 a1 b4 9e bd 00 00 00 00 ff fc 97 bd 00 00 00 00
       -0.07749296 0.0 -0.07421302 0.0
000160 c6 7b 83 bb a6 16 e8 bd 00 00 00 00 f3 75 a6 bc
       -0.0040125577 -0.11332445 0.0 -0.020319914
000170 00 00 00 00 00 00 00 00 c8 81 1d 3d 00 00 00 00
       0.0 0.0 0.038453847 0.0
000180 00 00 00 00 48 3a 47 bd 00 00 00 00 00 00 00 00
       0.0 -0.048639566 0.0 0.0
000190 8c 1b a2 3d 5c 25 1d 3c 00 00 00 00 00 00 00 00
       0.079154104 0.009591427 0.0 0.0
0001a0 a4 9c 1e bd 00 00 00 00 00 00 00 00 c1 9f 2f bd
       -0.038723603 0.0 0.0 -0.042876963
0001b0 64 6a 7a bc d7 30 54 3d c4 e0 af bc d4 06 44 bd
       -0.015284155 0.05180439 -0.021469481 -0.047858074
0001c0 1f 37 be bd 94 35 66 bd 00 00 00 00 14 ac d6 bd
       -0.09287857 -0.05620344 0.0 -0.1048204
0001d0 71 9e c2 bc 16 9d 27 bd 27 64 11 bd 0d b1 99 bc
       -0.023757191 -0.040921293 -0.035495903 -0.018761182
0001e0 b7 44 b2 bd 81 dd 14 bd c6 01 44 bd eb 54 5a 3d
       -0.087045126 -0.036344055 -0.047853254 0.05330364
0001f0 8a 89 04 bd 95 d4 53 bd e5 37 55 3d 00 00 00 00
       -0.03235773 -0.051716406 0.05205526 0.0

net.2.weight f4 [64, 128]
000000 83 2a 01 be 82 7a e7 3c c1 25 13 3e ba 43 c6 bd
       -0.12613873 0.028256658 0.1436987 -0.096808866
000010 ee 66 a6 bd 63 8d 04 3e 5c b2 13 be 0b 01 da 3d
       -0.08125101 0.1294456 -0.14423507 0.1064473
000020 a0 3b 01 3d 72 f7 da 3d f4 26 18 3d bd cf 0e 3e
       0.031551003 0.10691728 0.037146524 0.13946433
000030 d2 d3 be 3d a1 8b a9 3d 8e da b0 3d 6f 8f 2c 3b
       0.09317745 0.08278585 0.08635436 0.002633061
000040 e9 f7 b0 bd ae 86 2a 3e 6e 07 8e bc 0b 8d 46 bc
       -0.08641035 0.16652939 -0.017337527 -0.012118588
000050 b9 fe 09 3e d3 44 d4 bd b5 83 33 3d f8 f4 0b 3e
       0.13476075 -0.1036469 0.043826777 0.13667667
000060 00 f7 0b bd 19 2d 0b 3d d7 6c e9 bd 11 3b 5f 3d
       -0.034171104 0.033978555 -0.11397713 0.05449969
000070 22 4d 27 3e 1b a1 cb 3c b1 4a 34 be c1 41 c7 3c
       0.16338018 0.024857095 -0.17606618 0.024323346
000080 bd 58 90 3c 95 63 d0 3d ae ec 0b 3e f0 b6 10 3d
       0.017620439 0.10175244 0.13664505 0.035330713
000090 eb 44 32 3e ce cd 02 be d3 61 33 be fc 90 c9 bc
       0.17409103 -0.12773821 -0.17517786 -0.024605267
0000a0 78 42 df 3c 87 23 0c be 4b 30 a2 bd 6e 7b 2d 3d
       0.027253374 -0.13685428 -0.079193674 0.04235404
0000b0 58 c1 e4 bb 38 eb e8 3d 0d 0b d8 3d 75 e8 ab bd
       -0.006981056 0.113729894 0.10548983 -0.08393947
0000c0 09 47 ae bc 26 02 08 3e a5 f0 cf bd 25 6e b9 bd
       -0.021274107 0.1328207 -0.10153321 -0.090542115
0000d0 a6 d5 bd 3d d9 9a 26 bd ea 31 c2 3d 13 2d e4 3d
       0.09269266 -0.040675018 0.094821766 0.1114141
0000e0 91 3b 2d 3e eb 2f c8 bb 23 f8 d3 3d 2a 9a 86 bd
       0.16917254 -0.006109228 0.10350063 -0.06572373
0000f0 e0 a6 79 3d a7 9b df bd ea a4 b6 bd 47 4c 18 be
       0.06095016 -0.1091836 -0.089181736 -0.14872847
000100 7c 0a ec 3d 8e eb 09 be 62 46 15 3e e7 1f 21 3e
       0.11525437 -0.13468763 0.1457763 0.15734826
000110 04 36 ec 3d e7 fc bb bd 9d 26 cc 3d e8 d8 ac 3d
       0.1153374 -0.09179097 0.099683024 0.08439809
000120 ee ee ae bd 59 0e 62 bd 5b 2b 28 be 05 c2 b8 3b
       -0.08541666 -0.055189464 -0.16422789 0.0056383633
000130 4b 27 5a bb d9 51 35 bc c4 27 08 3c 08 3f 72 bd
       -0.003328758 -0.011066877 0.008310262 -0.059142143
000140 89 bf 0b be 97 38 ce 39 5f f7 13 be 22 f6 36 bd
       -0.13647284 0.00039333545 -0.14449833 -0.044668324
000150 7b b7 e8 bd 82 be 0c be a9 14 63 ba 66 f8 5e 3c
       -0.11363121 -0.13744548 -0.00086624414 0.0136090275
000160 48 04 8c bd 77 a7 d8 3d 60 ce 11 3d fb 0f 05 be
       -0.06836754 0.105788164 0.035597205 -0.12994377
000170 9c ac c6 bd bc 9d 0e bd 83 3f c7 bd 7e c5 11 bd
       -0.097008914 -0.034818396 -0.09728911 -0.035588734
000180 92 9b de bd 83 81 1e 3e 3d 01 02 bd f6 35 63 3d
       -0.108695164 0.15479092 -0.031739462 0.055471383
000190 06 3b 8f bb c7 07 5f bc 08 22 f6 bd e0 a0 98 bd
       -0.00437105 -0.013612694 -0.1201821 -0.074525595
0001a0 c2 63 76 3d 0d 2f 90 3d bf 34 bd bd 46 66 2f be
       0.06015373 0.07040224 -0.09238576 -0.17128858
0001b0 96 9c ab bc df 0e f4 3d d4 71 de 3d 4c 1e 13 bd
       -0.02094869 0.11916899 0.10861555 -0.035917565
0001c0 16 f3 21 3d 5c c6 eb bd 89 92 85 3c b6 42 b1 bc
       0.039538465 -0.115124434 0.016305225 -0.021638256
0001d0 f0 15 b6 bd 05 ff 1c bd 2d 52 7d bc 44 4c 85 bb
       -0.08890903 -0.038329143 -0.015461487 -0.0040679295
0001e0 b3 eb 1e bd ca 07 9e bd 70 ec 23 be a1 68 9c 3a
       -0.038799 -0.077163294 -0.16008162 0.0011933037
0001f0 3e fb 35 3d 4d 04 dc 3d 76 a0 00 3d 67 87 1c 3e
       0.044429056 0.10743008 0.031403027 0.15286027
000200 64 56 25 be 3e 7c 21 3e 44 56 dc 3d 44 91 2e be
       -0.16146237 0.15770051 0.10758641 -0.17047602
000210 30 e2 ad bb e6 c2 21 3e d7 b0 75 3d 08 dd 60 3c
       -0.0053065047 0.15797004 0.0599831 0.013724573
000220 ec cc dc 3c c8 20 ac 3d 52 0b 40 be 38 50 30 be
       0.026953183 0.0840469 -0.18754318 -0.17218101
000230 fa e4 4d 3d 7b 69 1d 3d 50 af 22 3e a8 0c be bd
       0.050267197 0.038430672 0.15887189 -0.09279758
000240 76 d4 0c be f0 62 b7 bd 23 d1 14 be 8a 15 62 bd
       -0.13752922 -0.08954418 -0.14532904 -0.055196323
000250 10 f8 72 3d 4a 39 1c be fc bd a1 3a 05 ca a0 3d
       0.059318602 -0.15256229 0.0012339945 0.07851032
000260 11 02 07 be 12 44 16 be d6 f1 92 3b 99 b9 f3 3d
       -0.13184382 -0.14674404 0.0044843955 0.11900634
000270 53 e2 7d bd 65 59 e8 3d 3a bc d4 3d 06 03 d4 3d
       -0.061983418 0.11345176 0.10387464 0.10352139
000280 5a 7b 00 be ca 89 b2 bb 22 11 cc 3d 6e 82 2c 3d
       -0.12547055 -0.0054485546 0.09964205 0.042116575
000290 8b 18 b8 3c a6 78 e4 3d 87 eb 14 bd e1 67 ba bd
       0.02247264 0.11155824 -0.03635743 -0.091018446
0002a0 b1 b9 ee bc d2 58 b1 bd 4c 30 0a be 4f 53 32 be
       -0.029141279 -0.08659519 -0.13494986 -0.17414592
0002b0 af 39 3e be 1b af c0 bc 67 c4 63 bd b9 de da 3d
       -0.18576692 -0.023520997 -0.055607226 0.10687012
0002c0 c4 61 e2 bc 84 93 1e 3e 66 96 e6 bd 10 18 68 bd
       -0.027634509 0.1548596 -0.11259155 -0.056663573
0002d0 66 c2 f6 bd a1 be 8c bd 86 1a 85 3c b8 f2 a3 bd
       -0.12048797 -0.06872297 0.016247999 -0.08005279
0002e0 68 73 0a 3d 40 ee 2d 3d 22 b7 09 be 24 e0 a0 bd
       0.033801466 0.04246354 -0.13448766 -0.078552514
0002f0 32 3f 20 3d 7f 33 2b bc 5e 50 3d bd 82 9b cf bd
       0.039122768 -0.010449289 -0.046219222 -0.10137083
000300 52 a5 f4 3d 8a 37 9a bd fa 73 bc bd ef 8d f2 3c
       0.11945595 -0.075301245 -0.09201808 0.029608695
000310 be c4 dc 3d 43 74 b5 ba c3 dc 84 3d ec 55 9e 3d
       0.10779713 -0.0013843853 0.064874195 0.07731232
000320 a1 f0 7e bd ed 0c 2b be d6 f7 28 3d 29 1e c4 bd
       -0.0622412 -0.1670415 0.04125198 -0.09576065
000330 e1 8d d3 bd 0d a6 1b 3e 97 c7 d1 bd 5e fa c0 3c
       -0.10329796 0.15200062 -0.10243147 0.023556884
000340 52 6a b7 bd 4f b0 01 bc 5b b5 dd 3b d0 74 ad bd
       -0.08955826 -0.00791557 0.006766004 -0.08469546
000350 88 a4 d8 3c 9c 2f 17 be 95 68 1a be d2 25 7a 3d
       0.026445642 -0.14764255 -0.15078957 0.061071225
000360 e9 90 07 bd 4c 1c 7a bd 8f 44 29 be ac e0 2e be
       -0.03309718 -0.061062142 -0.1653006 -0.17077893
000370 c9 e1 e4 3c 87 69 aa 3c f2 97 12 3e 33 bc 33 3e
       0.027939694 0.020802272 0.14315775 0.17552261
000380 15 81 97 bd 70 a1 04 3d 36 ff 65 3d d1 4c d7 3d
       -0.07397667 0.03238052 0.05615159 0.105126984
000390 87 db b6 bd 73 83 a3 3d 15 d2 1c 3e 97 de bc bc
       -0.0892859 0.07984056 0.15314515 -0.023055358
0003a0 81 bd 0f be 57 2b 87 bd 98 bf 50 bd ab f9 46 bc
       -0.14037134 -0.06600063 -0.050963968 -0.012144486
0003b0 64 c3 bb 3d ef 03 d7 3d 02 cd d4 bd 83 ff b9 3d
       0.09168127 0.10498797 -0.10390665 0.09081938
0003c0 4b b6 4c bc 99 c1 13 bd f3 fa 84 39 d2 14 a1 3a
       -0.012494634 -0.0360733 0.00025363974 0.001228953
0003d0 fe 23 aa bd f8 45 1b 3e 3f 4b 8b bd 40 96 2c 3d
       -0.08307646 0.1516341 -0.068014614 0.042135477
0003e0 4c 1a 06 be 8c 0d fa 3d 0e 65 d7 3d b6 31 a3 3d
       -0.13095969 0.12209615 0.105173215 0.07968466
0003f0 d2 02 52 3d 9d 03 96 bd ce 13 92 3c 2b 1c 94 bd
       0.05127222 -0.07324908 0.01783171 -0.07231935

net.2.bias f4 [64]
000000 00 00 00 00 ee 6a 84 bc 10 b2 87 bc c9 5a 63 3d
       0.0 -0.01616427 -0.016564399 0.0555065
000010 10 6f 16 3c cd ca 32 3c 6a 6f 78 bb 00 00 00 00
       0.009181753 0.010912609 -0.0037908205 0.0
000020 9a d6 ee bc 5f ef 3a bd 30 84 a2 bd 86 e4 f2 3c
       -0.029155064 -0.04563844 -0.07935369 0.029649984
000030 ba ea e2 bb 00 00 00 00 8c 1a 77 bd 00 00 00 00
       -0.0069249542 0.0 -0.06032805 0.0
000040 d7 14 4f bd f4 98 b3 bc 3c db 44 bd 75 e2 85 3c
       -0.050556984 -0.02192352 -0.04806064 0.016343335
000050 7a 06 02 bd 00 00 00 00 e2 a6 bf bc 95 c7 35 3d
       -0.031744458 0.0 -0.023395006 0.04437979
000060 7b 3e f3 bd 47 62 89 bd 00 00 00 00 65 bd 81 bc
       -0.118771516 -0.06708198 0.0 -0.01583738
000070 3e 12 86 bc 00 00 00 00 24 75 43 bd 1e fe de bd
       -0.01636612 0.0 -0.047719136 -0.10888313
000080 3e dd 91 3b 00 00 00 00 c3 1c 02 bd 85 d6 3d bd
       0.004451423 0.0 -0.03176571 -0.04634716
000090 77 66 80 bd 48 59 f5 bc 4f a1 3c bd 1f 16 02 bd
       -0.062695436 -0.0299498 -0.046052273 -0.031759378
0000a0 4e 1d 4c bd 9e 45 33 bd ac 22 55 3c 08 51 28 bd
       -0.049832635 -0.043767564 0.013008755 -0.041092902
0000b0 dd 30 e8 bc 96 47 4a bd 54 e1 c1 bc a3 1e 5b bd
       -0.028343612 -0.049384676 -0.023667015 -0.053496014
0000c0 5a 53 ac ba 00 00 00 00 8e 27 eb 3b 5a 9d 0d bc
       -0.0013147399 0.0 0.007176346 -0.008643473
0000d0 81 84 49 bd 00 00 00 00 8a 2d f5 bc 00 00 00 00
       -0.04919863 0.0 -0.029928941 0.0
0000e0 02 dd 8a 3d 24 3c dc 3d 0a 6d b1 bc fc 2a a2 bd
       0.06780435 0.107536584 -0.02165844 -0.07918355
0000f0 e3 25 57 bd ad 1c 02 bd f8 2c 28 3d 09 73 5f bc
       -0.052526366 -0.03176563 0.04105851 -0.013638266

net.4.weight f4 [16, 64]
000000 98 cd b3 bd f8 1e 4a be a3 c1 32 be 89 3b e3 3c
       -0.08779448 -0.19738376 -0.17456679 0.02773835
000010 5d 00 6f be f5 f8 70 3d 0a 21 90 bd fe e1 52 3e
       -0.23339982 0.058831174 -0.07037552 0.20594022
000020 f6 4d e0 3d fe 15 19 be 11 4d 45 be fc 1c 1b 3d
       0.1095237 -0.14949796 -0.1926768 0.03786944
000030 fd e6 3e 3e 93 a3 2f 3e be 58 75 be 8b a8 2a 3b
       0.18642803 0.17152242 -0.23959634 0.00260404
000040 75 56 42 3c 43 73 ce 3d 18 7d 2f be 30 be df bd
       0.011861433 0.10080578 -0.17137563 -0.10924947
000050 f7 d9 9f 3d a0 58 4a bd 21 92 55 be 62 7b 3f 3e
       0.07805245 -0.049400926 -0.20856525 0.1869941
000060 5b df 42 3e a8 68 60 3e 3a 78 57 be 94 74 3f be
       0.19030516 0.21914923 -0.21041957 -0.18696815
000070 df ed 40 3e 3c 84 4a be ad 17 80 3d 1e 4f 32 bd
       0.1884074 -0.19777006 0.06254516 -0.043532483
000080 04 28 ff bc 1f 85 e8 3c 4b db 96 3e 98 d7 30 bc
       -0.03114701 0.02838379 0.29464182 -0.010793589
000090 55 50 81 bd 92 8a 02 be 26 d9 fc bd 8a 3c f8 bd
       -0.0631415 -0.12748173 -0.12346105 -0.12120922
0000a0 9a 06 4c be 74 f0 6f 3d ab a5 be 3d e1 52 59 bc
       -0.19924393 0.058578923 0.093089424 -0.013264389
0000b0 2b 34 68 3e c6 38 9f bc 34 e4 8f 3c af 77 3f 3e
       0.2267615 -0.019436251 0.01756487 0.18698
0000c0 dc ed 6a be 05 bc 61 bd a3 e7 dd 3d 4d fd 04 bd
       -0.22942299 -0.05511095 0.10835197 -0.03246813
0000d0 41 79 20 3d 2c 6f 86 be a7 86 d2 bc 86 4c 84 3e
       0.039178137 -0.26256692 -0.025698973 0.25839633
0000e0 f1 05 9f 3e 0d 19 79 3e 76 cc 11 be a8 4b 10 3e
       0.3105922 0.24325962 -0.14238152 0.1409136
0000f0 83 9f 37 3e 1a fc 9a 3d 36 02 61 3e 11 e9 aa 3d
       0.17931943 0.07567616 0.219735 0.08345235
000100 18 dc 37 bd ef e4 96 3c d7 ea 0a be f4 e8 5e 3e
       -0.044887632 0.01841971 -0.13566147 0.21768552
000110 d5 c1 68 bd eb 9a 86 be 71 14 03 3e 4d d7 8d bd
       -0.056825478 -0.26290068 0.12800767 -0.06925831
000120 7e 31 11 3e 3a 0e 77 be 56 09 b1 3d 4a a2 8e 3d
       0.14179036 -0.24126521 0.08644359 0.06964548
000130 ab ea 3a 3d a5 dc 89 be 72 1d 81 3c 92 2c bd bd
       0.045633953 -0.2692615 0.015761111 -0.09237017
000140 53 fb 84 be 09 54 2a 3e 6b 13 c2 3b 7c 69 3c 3e
       -0.25972995 0.1663362 0.005922725 0.18399614
000150 cf 9c 0d 3e b6 b7 ed bd 2b 8b 20 3e 74 31 0d bd
       0.13829349 -0.11607306 0.15678088 -0.03447099
000160 8f cd aa bc 42 b8 03 be f3 f1 86 be a6 36 86 be
       -0.020849971 -0.12863258 -0.26356468 -0.26213568
000170 63 18 89 3d cb 70 61 be d3 96 30 be 5f 6e 62 bd
       0.066941045 -0.22015683 -0.17245035 -0.05528104
000180 35 9e 80 3e 7c f9 26 3e 23 be 19 be 8e 2a 8c 3c
       0.25120702 0.16306108 -0.15013938 0.017110135
000190 f5 df da 3d 6a 00 d8 bd 0d 96 29 3e 79 5a 45 be
       0.10687248 -0.10546954 0.16561146 -0.19272794
0001a0 69 c7 25 bd 09 6c d8 3c 38 1b c4 bd 38 4d 72 3e
       -0.040473375 0.026418703 -0.09575504 0.23662269
0001b0 d0 39 91 3c 21 0a 09 3e e5 7a d2 bd 5c 5d 05 be
       0.017727762 0.1338277 -0.102773465 -0.13023895
0001c0 f5 09 8f 3e 09 9f 8b 3e 6f 7a 13 3e 49 e8 e5 bd
       0.27937284 0.27269772 0.14402173 -0.112259455
0001d0 41 f2 3b 3e 05 30 6d be 8e 52 61 bd 25 4d 1d bd
       0.18354131 -0.23162849 -0.05501037 -0.03840365
0001e0 ca 3d 1b 3e 2e ea 3a bb fb ec e9 3d b8 76 4f be
       0.1516029 -0.002852093 0.114221536 -0.20260131
0001f0 86 10 6f 3e 67 54 2a 3e 47 c2 1c 3e 29 76 a8 be
       0.23346147 0.1663376 0.15308486 -0.3290265
000200 f3 47 c4 bd b6 7c 41 3e bc 2f a6 bc 4f 9a 3c 3e
       -0.09584036 0.1889523 -0.020286433 0.18418239
000210 9e fb 97 be 90 c4 82 3d 70 49 87 bd 7b 0b 0e be
       -0.29684156 0.063851476 -0.06605804 -0.13871567
000220 b3 5c 0b bd 4a 4b c6 bd 57 54 15 be 21 77 1d 3e
       -0.03402395 -0.09682329 -0.14582954 0.15377475
000230 45 a0 4a 3d 66 ed 9e bd 21 a6 65 be b1 65 1f 3e
       0.04946925 -0.07760124 -0.22426654 0.15566136
000240 b3 67 05 3e fb fb 1d be 70 5a df bd a7 48 5a be
       0.1302784 -0.15428154 -0.109059215 -0.21316777
000250 6f 10 f5 3d 64 d6 8b be 5c d9 58 bd 33 63 8c bd
       0.11966025 -0.27312005 -0.052941665 -0.06854858
000260 3e 46 49 3d a8 fd 0b be 58 43 e8 3d 50 af 01 be
       0.049139254 -0.13670981 0.1134097 -0.12664533
000270 b7 22 2f be ff d4 30 bc ee 03 e7 bd 1b 02 8b 3d
       -0.17103086 -0.01079297 -0.112800464 0.06787511
000280 21 c5 74 be 50 3d 74 be be 6f f9 bd db 23 23 be
       -0.23903324 -0.23851514 -0.12179516 -0.15931647
000290 ba 30 23 3e d3 69 ee bb 0d 43 e8 3d 79 1f 35 3e
       0.15936556 -0.007275799 0.11340914 0.17687787
0002a0 c3 39 f6 3d 83 54 6f 3e 6a 5a a5 bd dd 46 5a 3d
       0.12022736 0.23372082 -0.08073886 0.053290237
0002b0 f4 c0 58 bc e1 86 1c 3e dd c3 43 3e 7a 86 02 be
       -0.013229597 0.15285827 0.19117685 -0.12746611
0002c0 d8 b7 4e 3e bc 56 e4 bc 9c 55 35 bd b3 1c f8 bd
       0.20187318 -0.02787339 -0.044271097 -0.12114849
0002d0 bd 2a 50 be 7f 30 21 be 3a 9e 35 3e 20 f8 be bd
       -0.20328803 -0.15741156 0.1773614 -0.0932467
0002e0 9e 9f c0 3d 5b b7 d9 bd f3 21 6d be c3 4d 07 be
       0.094054446 -0.106306754 -0.23157482 -0.13213257
0002f0 98 c8 18 be e7 f1 8d bc f8 a3 c5 bd 29 0d 4b 3e
       -0.1492027 -0.017327262 -0.09650415 0.19829239
000300 7a 9f 47 3d be 66 80 3e 62 bf c8 3d f3 97 90 bc
       0.048736073 0.25078386 0.098021284 -0.01765058
000310 da 13 07 be 12 a3 a0 3c b1 b8 3d 3e 43 a2 13 3e
       -0.13191167 0.019609008 0.18527485 0.14417367
000320 be 92 68 3d 96 7e 85 be d8 59 1e bd cc 21 73 be
       0.05678057 -0.2607314 -0.0386599 -0.23743361
000330 b4 f3 04 bd 7a 85 78 3e 0c 82 25 be 45 75 e6 bd
       -0.032458976 0.24269667 -0.1616289 -0.11252836
000340 38 9d 09 3e 74 a6 e2 3d 3f 02 02 3d c4 18 0a 3e
       0.1343888 0.11066905 0.031740423 0.1348601
000350 b9 96 a6 3d f9 ef 45 3e 87 1a 46 3e 5c 6a a8 3d
       0.08134217 0.19329824 0.19346057 0.082234114
000360 85 ba c0 bd c4 28 21 bd 05 da 88 3e eb bb 29 3e
       -0.09410576 -0.039345518 0.26728836 0.16575591
000370 45 94 3c 3a 58 c1 0e 3e 08 f3 cf 3d ac af 39 be
       0.0007193725 0.13940942 0.101537764 -0.1813342
000380 25 8c 80 3e 45 ca 14 3b bb c6 09 3c ea 34 81 be
       0.25106922 0.002270357 0.008409197 -0.25235683
000390 74 96 0e bd 68 93 49 3e 62 51 78 be 48 16 91 3d
       -0.034811452 0.19685137 -0.24249795 0.07084328
0003a0 df ba 89 3d 1f fe 09 be 39 f0 86 bb 46 74 bf bc
       0.06725096 -0.13475846 -0.0041179922 -0.023370873
0003b0 22 66 c3 3c 1a ec 52 3d ef 01 6f bd 06 1a 52 3e
       0.023852412 0.051494695 -0.058351453 0.2051774
0003c0 80 22 5b bd e9 1e 80 3e 18 ed fc 3d 08 fc 6e 3e
       -0.0534997 0.25023583 0.123499095 0.2333833
0003d0 29 4e cd bc af f1 16 3e a1 a4 84 bd 3c a5 01 be
       -0.025061684 0.14740632 -0.06476713 -0.12660688
0003e0 77 26 4a 3c 15 31 7a be bb 82 56 3e 3c c3 fc 3d
       0.012338272 -0.24432786 0.20948307 0.123419255
0003f0 ec 1d bd bd d3 6a 97 bd 87 e0 4d bd e5 75 4d be
       -0.09234223 -0.07393422 -0.050262954 -0.20064504

net.4.bias f4 [16]
000000 d7 9d f1 3d 40 55 fb 3d de b6 6f bd 04 b4 b8 bb
       0.11797684 0.122721195 -0.058524005 -0.005636694
000010 f8 33 10 3d 77 f6 eb bd 96 90 a7 bd c5 ab 92 bd
       0.03520581 -0.11521619 -0.081818745 -0.07161669
000020 d8 3e ab 3d e0 79 87 bd 09 c9 10 bd d7 2f f0 3d
       0.08361596 -0.06615043 -0.035347972 0.11727875
000030 41 c2 3a 3d 8d 33 98 bd 3e dd 1a 3d 5c ed 81 3d
       0.04559541 -0.074317075 0.03780865 0.06344101

net.6.weight f4 [1, 16]
000000 cf 4b 0d 3e 6b 9f c1 3d 22 dc 6f be 98 dc ef 3e
       0.1379845 0.09454235 -0.23423818 0.46847987
000010 20 24 95 3d 3b c0 0b be f0 04 32 bd 80 d0 08 3f
       0.07282281 -0.13647549 -0.04346174 0.53443146
000020 ba db 90 3d a4 9a d8 be fe 46 c1 3e 31 75 8c 3d
       0.070731595 -0.4230548 0.37749475 0.0685829
000030 4a b9 93 3e ae 02 7a be 4d 71 40 3e 09 c1 d5 3e
       0.28852302 -0.24415085 0.18793221 0.41748837

exp_avg f4 [128, 48]
000000 00 00 00 00 00 00 00 00 00 00 00 00 00 00 00 00
       0.0 0.0 0.0 0.0
000010 00 00 00 00 00 00 00 00 00 00 00 00 00 00 00 00
       0.0 0.0 0.0 0.0
000020 00 00 00 00 00 00 00 00 00 00 00 00 00 00 00 00
       0.0 0.0 0.0 0.0
000030 00 00 00 00 00 00 00 00 00 00 00 00 00 00 00 00
       0.0 0.0 0.0 0.0
000040 00 00 00 00 00 00 00 00 00 00 00 00 00 00 00 00
       0.0 0.0 0.0 0.0
000050 00 00 00 00 00 00 00 00 00 00 00 00 00 00 00 00
       0.0 0.0 0.0 0.0
000060 00 00 00 00 00 00 00 00 00 00 00 00 00 00 00 00
       0.0 0.0 0.0 0.0
000070 00 00 00 00 00 00 00 00 00 00 00 00 00 00 00 00
       0.0 0.0 0.0 0.0
000080 00 00 00 00 00 00 00 00 00 00 00 00 00 00 00 00
       0.0 0.0 0.0 0.0
000090 00 00 00 00 00 00 00 00 00 00 00 00 00 00 00 00
       0.0 0.0 0.0 0.0
0000a0 00 00 00 00 00 00 00 00 00 00 00 00 00 00 00 00
       0.0 0.0 0.0 0.0
0000b0 00 00 00 00 00 00 00 00 00 00 00 00 00 00 00 00
       0.0 0.0 0.0 0.0
0000c0 00 00 00 00 00 00 00 00 00 00 00 00 00 00 00 00
       0.0 0.0 0.0 0.0
0000d0 00 00 00 00 00 00 00 00 00 00 00 00 00 00 00 00
       0.0 0.0 0.0 0.0
0000e0 00 00 00 00 00 00 00 00 00 00 00 00 00 00 00 00
       0.0 0.0 0.0 0.0
0000f0 00 00 00 00 00 00 00 00 00 00 00 00 00 00 00 00
       0.0 0.0 0.0 0.0
000100 00 00 00 00 00 00 00 00 00 00 00 00 00 00 00 00
       0.0 0.0 0.0 0.0
000110 00 00 00 00 00 00 00 00 00 00 00 00 00 00 00 00
       0.0 0.0 0.0 0.0
000120 00 00 00 00 00 00 00 00 00 00 00 00 00 00 00 00
       0.0 0.0 0.0 0.0
000130 00 00 00 00 00 00 00 00 00 00 00 00 00 00 00 00
       0.0 0.0 0.0 0.0
000140 00 00 00 00 00 00 00 00 00 00 00 00 00 00 00 00
       0.0 0.0 0.0 0.0
000150 00 00 00 00 00 00 00 00 00 00 00 00 00 00 00 00
       0.0 0.0 0.0 0.0
000160 00 00 00 00 00 00 00 00 00 00 00 00 00 00 00 00
       0.0 0.0 0.0 0.0
000170 00 00 00 00 00 00 00 00 00 00 00 00 00 00 00 00
       0.0 0.0 0.0 0.0
000180 04 00 00 00 04 00 00 00 04 00 00 00 04 00 00 00
       6e-45 6e-45 6e-45 6e-45
000190 04 00 00 00 04 00 00 00 04 00 00 80 04 00 00 00
       6e-45 6e-45 -6e-45 6e-45
0001a0 04 00 00 00 04 00 00 00 04 00 00 00 04 00 00 00
       6e-45 6e-45 6e-45 6e-45
0001b0 04 00 00 80 04 00 00 80 04 00 00 80 04 00 00 00
       -6e-45 -6e-45 -6e-45 6e-45
0001c0 04 00 00 00 04 00 00 00 04 00 00 00 04 00 00 00
       6e-45 6e-45 6e-45 6e-45
0001d0 04 00 00 00 04 00 00 00 04 00 00 80 04 00 00 00
       6e-45 6e-45 -6e-45 6e-45
0001e0 04 00 00 00 04 00 00 00 04 00 00 00 04 00 00 00
       6e-45 6e-45 6e-45 6e-45
0001f0 04 00 00 00 04 00 00 00 04 00 00 00 04 00 00 00
       6e-45 6e-45 6e-45 6e-45
000200 04 00 00 00 04 00 00 00 04 00 00 00 04 00 00 00
       6e-45 6e-45 6e-45 6e-45
000210 04 00 00 00 04 00 00 00 04 00 00 00 04 00 00 00
       6e-45 6e-45 6e-45 6e-45
000220 04 00 00 00 04 00 00 00 04 00 00 00 04 00 00 00
       6e-45 6e-45 6e-45 6e-45
000230 00 00 00 00 04 00 00 00 04 00 00 00 04 00 00 80
       0.0 6e-45 6e-45 -6e-45
000240 00 00 00 00 00 00 00 00 00 00 00 00 00 00 00 00
       0.0 0.0 0.0 0.0
000250 00 00 00 00 00 00 00 00 00 00 00 00 00 00 00 00
       0.0 0.0 0.0 0.0
000260 00 00 00 00 00 00 00 00 00 00 00 00 00 00 00 00
       0.0 0.0 0.0 0.0
000270 00 00 00 00 00 00 00 00 00 00 00 00 00 00 00 00
       0.0 0.0 0.0 0.0
000280 00 00 00 00 00 00 00 00 00 00 00 00 00 00 00 00
       0.0 0.0 0.0 0.0
000290 00 00 00 00 00 00 00 00 00 00 00 00 00 00 00 00
       0.0 0.0 0.0 0.0
0002a0 00 00 00 00 00 00 00 00 00 00 00 00 00 00 00 00
       0.0 0.0 0.0 0.0
0002b0 00 00 00 00 00 00 00 00 00 00 00 00 00 00 00 00
       0.0 0.0 0.0 0.0
0002c0 00 00 00 00 00 00 00 00 00 00 00 00 00 00 00 00
       0.0 0.0 0.0 0.0
0002d0 00 00 00 00 00 00 00 00 00 00 00 00 00 00 00 00
       0.0 0.0 0.0 0.0
0002e0 00 00 00 00 00 00 00 00 00 00 00 00 00 00 00 00
       0.0 0.0 0.0 0.0
0002f0 00 00 00 00 00 00 00 00 00 00 00 00 00 00 00 00
       0.0 0.0 0.0 0.0
000300 04 00 00 00 04 00 00 00 00 00 00 00 04 00 00 00
       6e-45 6e-45 0.0 6e-45
000310 00 00 00 00 00 00 00 00 04 00 00 00 04 00 00 00
       0.0 0.0 6e-45 6e-45
000320 04 00 00 00 04 00 00 00 00 00 00 00 04 00 00 00
       6e-45 6e-45 0.0 6e-45
000330 00 00 00 00 00 00 00 00 04 00 00 00 04 00 00 00
       0.0 0.0 6e-45 6e-45
000340 04 00 00 00 04 00 00 00 00 00 00 00 04 00 00 00
       6e-45 6e-45 0.0 6e-45
000350 00 00 00 00 00 00 00 00 04 00 00 00 04 00 00 00
       0.0 0.0 6e-45 6e-45
000360 04 00 00 00 04 00 00 00 04 00 00 00 04 00 00 00
       6e-45 6e-45 6e-45 6e-45
000370 04 00 00 00 04 00 00 00 04 00 00 00 04 00 00 00
       6e-45 6e-45 6e-45 6e-45
000380 04 00 00 00 04 00 00 00 04 00 00 00 04 00 00 00
       6e-45 6e-45 6e-45 6e-45
000390 04 00 00 00 04 00 00 00 04 00 00 00 04 00 00 00
       6e-45 6e-45 6e-45 6e-45
0003a0 04 00 00 00 04 00 00 00 04 00 00 00 04 00 00 00
       6e-45 6e-45 6e-45 6e-45
0003b0 00 00 00 00 04 00 00 00 04 00 00 00 04 00 00 80
       0.0 6e-45 6e-45 -6e-45
0003c0 04 00 00 00 04 00 00 00 04 00 00 00 04 00 00 00
       6e-45 6e-45 6e-45 6e-45
0003d0 04 00 00 00 04 00 00 00 04 00 00 00 04 00 00 00
       6e-45 6e-45 6e-45 6e-45
0003e0 04 00 00 00 04 00 00 00 04 00 00 00 04 00 00 00
       6e-45 6e-45 6e-45 6e-45
0003f0 04 00 00 00 04 00 00 00 04 00 00 00 04 00 00 80
       6e-45 6e-45 6e-45 -6e-45

exp_avg_sq f4 [128, 48]
000000 00 00 00 00 00 00 00 00 00 00 00 00 00 00 00 00
       0.0 0.0 0.0 0.0
000010 00 00 00 00 00 00 00 00 00 00 00 00 00 00 00 00
       0.0 0.0 0.0 0.0
000020 00 00 00 00 00 00 00 00 00 00 00 00 00 00 00 00
       0.0 0.0 0.0 0.0
000030 00 00 00 00 00 00 00 00 00 00 00 00 00 00 00 00
       0.0 0.0 0.0 0.0
000040 00 00 00 00 00 00 00 00 00 00 00 00 00 00 00 00
       0.0 0.0 0.0 0.0
000050 00 00 00 00 00 00 00 00 00 00 00 00 00 00 00 00
       0.0 0.0 0.0 0.0
000060 00 00 00 00 00 00 00 00 00 00 00 00 00 00 00 00
       0.0 0.0 0.0 0.0
000070 00 00 00 00 00 00 00 00 00 00 00 00 00 00 00 00
       0.0 0.0 0.0 0.0
000080 00 00 00 00 00 00 00 00 00 00 00 00 00 00 00 00
       0.0 0.0 0.0 0.0
000090 00 00 00 00 00 00 00 00 00 00 00 00 00 00 00 00
       0.0 0.0 0.0 0.0
0000a0 00 00 00 00 00 00 00 00 00 00 00 00 00 00 00 00
       0.0 0.0 0.0 0.0
0000b0 00 00 00 00 00 00 00 00 00 00 00 00 00 00 00 00
       0.0 0.0 0.0 0.0
0000c0 00 00 00 00 00 00 00 00 00 00 00 00 00 00 00 00
       0.0 0.0 0.0 0.0
0000d0 00 00 00 00 00 00 00 00 00 00 00 00 00 00 00 00
       0.0 0.0 0.0 0.0
0000e0 00 00 00 00 00 00 00 00 00 00 00 00 00 00 00 00
       0.0 0.0 0.0 0.0
0000f0 00 00 00 00 00 00 00 00 00 00 00 00 00 00 00 00
       0.0 0.0 0.0 0.0
000100 00 00 00 00 00 00 00 00 00 00 00 00 00 00 00 00
       0.0 0.0 0.0 0.0
000110 00 00 00 00 00 00 00 00 00 00 00 00 00 00 00 00
       0.0 0.0 0.0 0.0
000120 00 00 00 00 00 00 00 00 00 00 00 00 00 00 00 00
       0.0 0.0 0.0 0.0
000130 00 00 00 00 00 00 00 00 00 00 00 00 00 00 00 00
       0.0 0.0 0.0 0.0
000140 00 00 00 00 00 00 00 00 00 00 00 00 00 00 00 00
       0.0 0.0 0.0 0.0
000150 00 00 00 00 00 00 00 00 00 00 00 00 00 00 00 00
       0.0 0.0 0.0 0.0
000160 00 00 00 00 00 00 00 00 00 00 00 00 00 00 00 00
       0.0 0.0 0.0 0.0
000170 00 00 00 00 00 00 00 00 00 00 00 00 00 00 00 00
       0.0 0.0 0.0 0.0
000180 1b ea 0d 39 d2 d7 7a 3c 91 a5 c7 35 c6 d3 30 3a
       0.00013534019 0.015310245 1.4874842e-06 0.0006745424
000190 f5 82 44 37 61 20 b2 36 12 2f a2 37 22 4e 12 34
       1.1713001e-05 5.308583e-06 1.9333824e-05 1.3625734e-07
0001a0 62 91 25 3f 83 56 e9 41 b2 05 41 3c a5 48 19 40
       0.6467496 29.167242 0.011781143 2.3950589
0001b0 ce 37 10 3d 29 25 e2 3c 37 a1 52 3d da a6 05 34
       0.03520947 0.02760561 0.051423278 1.244729e-07
0001c0 6c 03 c1 33 75 e7 35 37 82 a3 96 30 86 b1 fc 34
       8.987885e-08 1.0842331e-05 1.0960408e-09 4.7067823e-07
0001d0 1d 9d f4 31 d8 cc 36 31 ec ab 48 32 bd 73 30 2e
       7.1191963e-09 2.6600926e-09 1.1680623e-08 4.0120563e-11
0001e0 da 25 40 2e ba a5 4b 31 a2 3e 00 32 8c 89 8b 35
       4.3689365e-11 2.9634593e-09 7.464822e-09 1.0396338e-06
0001f0 5f 83 75 3c 7e 57 20 31 a7 45 13 34 80 3f c1 36
       0.014984935 2.3332798e-09 1.3715781e-07 5.7592406e-06
000200 7a a0 29 34 9e 77 97 38 2f ad 97 3b e6 63 06 34
       1.5797733e-07 7.2225215e-05 0.0046287994 1.2516065e-07
000210 d6 0a 8a 38 84 70 85 3b ea 78 98 2a 6f 9e 6a 2c
       6.582371e-05 0.004072251 2.7084525e-13 3.3341348e-12
000220 78 9e 18 31 7c 68 5f 34 7c 68 5f 34 ed 59 01 40
       2.220899e-09 2.0806505e-07 2.0806505e-07 2.0211136
000230 00 00 00 00 86 2c a8 2f e6 04 ac 35 b1 f6 c8 2e
       0.0 3.0590658e-10 1.2816424e-06 9.138768e-11
000240 00 00 00 00 00 00 00 00 00 00 00 00 00 00 00 00
       0.0 0.0 0.0 0.0
000250 00 00 00 00 00 00 00 00 00 00 00 00 00 00 00 00
       0.0 0.0 0.0 0.0
000260 00 00 00 00 00 00 00 00 00 00 00 00 00 00 00 00
       0.0 0.0 0.0 0.0
000270 00 00 00 00 00 00 00 00 00 00 00 00 00 00 00 00
       0.0 0.0 0.0 0.0
000280 00 00 00 00 00 00 00 00 00 00 00 00 00 00 00 00
       0.0 0.0 0.0 0.0
000290 00 00 00 00 00 00 00 00 00 00 00 00 00 00 00 00
       0.0 0.0 0.0 0.0
0002a0 00 00 00 00 00 00 00 00 00 00 00 00 00 00 00 00
       0.0 0.0 0.0 0.0
0002b0 00 00 00 00 00 00 00 00 00 00 00 00 00 00 00 00
       0.0 0.0 0.0 0.0
0002c0 00 00 00 00 00 00 00 00 00 00 00 00 00 00 00 00
       0.0 0.0 0.0 0.0
0002d0 00 00 00 00 00 00 00 00 00 00 00 00 00 00 00 00
       0.0 0.0 0.0 0.0
0002e0 00 00 00 00 00 00 00 00 00 00 00 00 00 00 00 00
       0.0 0.0 0.0 0.0
0002f0 00 00 00 00 00 00 00 00 00 00 00 00 00 00 00 00
       0.0 0.0 0.0 0.0
000300 a3 f7 ce 38 89 6b cf 3d 00 00 00 00 1e a0 e2 3a
       9.8689714e-05 0.101279326 0.0 0.001729015
000310 00 00 00 00 00 00 00 00 e1 42 b4 32 42 3f 95 35
       0.0 0.0 2.0985171e-08 1.1119776e-06
000320 f6 22 50 3f e1 e2 31 43 00 00 00 00 c1 a1 c0 40
       0.81303346 177.88625 0.0 6.0197453
000330 00 00 00 00 00 00 00 00 94 54 09 39 f3 80 41 35
       0.0 0.0 0.00013096846 7.208575e-07
000340 47 39 c1 33 1b ef aa 38 00 00 00 00 13 97 cb 35
       8.9976815e-08 8.1507686e-05 0.0 1.5168647e-06
000350 00 00 00 00 00 00 00 00 ec d3 8b 2d 82 bd d5 2d
       0.0 0.0 1.5896583e-11 2.4299455e-11
000360 2b da fa 2d 42 fe ed 31 1d 1c bb 31 b5 0e ab 36
       2.8518595e-11 6.9265136e-09 5.4456124e-09 5.0979093e-06
000370 44 6c bd 3d f3 35 d7 30 87 6c dd 33 2a 95 8a 37
       0.09249166 1.5658642e-09 1.03108555e-07 1.6520342e-05
000380 65 a9 8d 35 6f f3 aa 39 3b 71 8f 3e 2e 99 82 35
       1.0554619e-06 0.000326063 0.28016075 9.730336e-07
000390 a8 61 40 39 bf 0f eb 3e 97 da a8 2a d0 d8 a8 2c
       0.00018346927 0.4591045 2.9994472e-13 4.798918e-12
0003a0 84 0d 3f 32 08 f3 aa 35 08 f3 aa 35 cb 1a ad 42
       1.1120736e-08 1.2736718e-06 1.2736718e-06 86.55233
0003b0 00 00 00 00 85 c3 24 2e 0f 9f 7b 34 fa e8 73 2d
       0.0 3.746294e-11 2.3434062e-07 1.3864682e-11
0003c0 7f 69 8f 3f 79 25 45 40 32 fa 0d 3e d4 9b 1a 3e
       1.120407 3.0804121 0.13864973 0.15098506
0003d0 bb 66 90 3f c7 30 03 3f 7d e7 f3 3f fb d1 64 31
       1.1281351 0.51246303 1.905502 3.3297727e-09
0003e0 93 5b 3e 45 ab 2a 96 45 40 44 3e 44 4b 0b c8 42
       3045.7234 4805.3335 761.0664 100.02206
0003f0 a1 30 58 45 f6 fc 17 45 db 6b 75 45 0b 6c d5 2d
       3459.0393 2431.81 3926.741 2.4263277e-11

exp_avg f4 [128]
000000 00 00 00 00 00 00 00 00 04 00 00 00 00 00 00 00
       0.0 0.0 6e-45 0.0
000010 04 00 00 00 04 00 00 00 4e 56 72 b9 00 00 00 00
       6e-45 6e-45 -0.0002311107 0.0
000020 00 00 00 00 04 00 00 00 08 c7 91 2e 04 00 00 00
       0.0 6e-45 6.6291916e-11 6e-45
000030 40 fa e1 b8 04 00 00 00 00 00 00 00 1c 36 7b b9
       -0.00010775449 6e-45 0.0 -0.00023957383
000040 b8 55 b2 ba c5 d2 26 ba 04 00 00 00 04 00 00 00
       -0.0013605868 -0.00063638046 6e-45 6e-45
000050 37 f2 cd b9 04 00 00 00 04 00 00 00 04 00 00 80
       -0.0003928111 6e-45 6e-45 -6e-45
000060 04 00 00 00 04 00 00 80 04 00 00 80 00 00 00 00
       6e-45 -6e-45 -6e-45 0.0
000070 17 18 05 ba 04 00 00 00 05 87 2e 3a 6f 66 8e 3a
       -0.0005077137 6e-45 0.0006657693 0.0010864268
000080 aa b0 06 3a 00 00 00 00 04 00 00 00 04 00 00 00
       0.00051380193 0.0 6e-45 6e-45
000090 04 00 00 00 d4 fd f7 39 00 00 00 00 04 00 00 00
       6e-45 0.00047300628 0.0 6e-45
0000a0 04 00 00 00 04 00 00 00 4f 9d 5f 3a 00 00 00 00
       6e-45 6e-45 0.0008530216 0.0
0000b0 33 37 19 38 00 00 00 00 04 00 00 00 8b a7 2c b9
       3.652945e-05 0.0 6e-45 -0.00016465613
0000c0 00 00 00 00 43 3e bf b9 00 00 00 00 a6 8b fa b9
       0.0 -0.00036476747 0.0 -0.00047787762
0000d0 00 00 00 00 04 00 00 00 04 00 00 00 00 00 00 00
       0.0 6e-45 6e-45 0.0
0000e0 04 00 00 00 04 00 00 00 00 00 00 00 00 00 00 00
       6e-45 6e-45 0.0 0.0
0000f0 00 00 00 00 68 78 2a b9 f2 76 a0 3a 04 00 00 00
       0.0 -0.00016257318 0.001224248 6e-45
000100 00 00 00 00 aa d7 34 ba 04 00 00 00 04 00 00 00
       0.0 -0.00068985915 6e-45 6e-45
000110 04 00 00 00 c2 d5 06 3a 00 00 00 00 04 00 00 00
       6e-45 0.0005143547 0.0 6e-45
000120 00 00 00 00 54 d8 f7 b9 92 d0 ce 3b 00 00 00 00
       0.0 -0.00047272688 0.0063114846 0.0
000130 04 00 00 00 00 00 00 00 04 00 00 00 04 00 00 00
       6e-45 0.0 6e-45 6e-45
000140 04 00 00 00 04 00 00 80 1f ad 50 39 ab ad 68 ba
       6e-45 -6e-45 0.00019900918 -0.0008875976
000150 04 00 00 00 00 00 00 00 04 00 00 00 00 00 00 00
       6e-45 0.0 6e-45 0.0
000160 04 00 00 00 04 00 00 00 00 00 00 00 4a 89 77 39
       6e-45 6e-45 0.0 0.000236069
000170 00 00 00 00 00 00 00 00 36 2d 9e 39 00 00 00 00
       0.0 0.0 0.00030169793 0.0
000180 00 00 00 00 04 00 00 00 00 00 00 00 00 00 00 00
       0.0 6e-45 0.0 0.0
000190 dd 30 8b 3a 04 00 00 00 00 00 00 00 00 00 00 00
       0.0010619421 6e-45 0.0 0.0
0001a0 04 00 00 00 00 00 00 00 00 00 00 00 04 00 00 00
       6e-45 0.0 0.0 6e-45
0001b0 04 00 00 00 5b 6b 1b 3a 04 00 00 00 04 00 00 00
       6e-45 0.0005928778 6e-45 6e-45
0001c0 04 00 00 00 04 00 00 00 00 00 00 00 04 00 00 00
       6e-45 6e-45 0.0 6e-45
0001d0 04 00 00 00 04 00 00 00 5e 86 31 b9 04 00 00 00
       6e-45 6e-45 -0.00016930091 6e-45
0001e0 04 00 00 00 04 00 00 00 04 00 00 00 77 d4 6a 3a
       6e-45 6e-45 6e-45 0.00089580513
0001f0 04 00 00 80 04 00 00 80 36 ed 26 3a 00 00 00 00
       -6e-45 -6e-45 0.00063677446 0.0

exp_avg_sq f4 [128]
000000 00 00 00 00 00 00 00 00 7c 68 5f 34 00 00 00 00
       0.0 0.0 2.0806505e-07 0.0
000010 08 f3 aa 35 ed 26 0a 38 e9 38 8a 39 00 00 00 00
       1.2736718e-06 3.2938016e-05 0.00026363813 0.0
000020 00 00 00 00 a4 5f 92 34 4a 01 10 3b 87 e6 2f 34
       0.0 2.7264207e-07 0.0021973425 1.638201e-07
000030 8a df 0c 3b 2a 84 e6 39 00 00 00 00 4d 88 db 3b
       0.0021495544 0.00043967488 0.0 0.006699598
000040 e2 db 2e 3c b2 0c 6e 3b 3a 66 f0 35 44 00 37 39
       0.010672541 0.0036323485 1.7911145e-06 0.00017452339
000050 1e cd 37 3b 31 37 a8 32 b9 39 cf 35 c4 f9 a0 37
       0.0028045843 1.9582872e-08 1.5439501e-06 1.9189793e-05
000060 e3 b1 c3 35 61 3d 7b 38 4e bf 7b 39 00 00 00 00
       1.4580404e-06 5.9900227e-05 0.00024008492 0.0
000070 fd 26 58 3a 25 34 b5 37 85 fc a3 3b ea ef 4a 3a
       0.0008245556 2.1601163e-05 0.005004468 0.00077414385
000080 12 3c aa 3a 00 00 00 00 ba e3 f4 31 84 28 be 2f
       0.0012987873 0.0 7.127224e-09 3.4589587e-10
000090 72 8c ae 32 4b 43 60 3b 00 00 00 00 46 90 d6 39
       2.0320133e-08 0.0034219797 0.0 0.00040924753
0000a0 9a 4f 6a 37 0e 29 6a 2e 4a 71 76 3b 00 00 00 00
       1.3966021e-05 5.3241904e-11 0.0037604147 0.0
0000b0 0c c5 d7 3a 00 00 00 00 b8 c4 0d 35 49 d1 b0 39
       0.0016461923 0.0 5.2812857e-07 0.00033725266
0000c0 00 00 00 00 62 62 cb 39 00 00 00 00 86 08 c2 3b
       0.0 0.00038792478 0.0 0.005921426
0000d0 00 00 00 00 bd a0 8f 36 66 d7 91 32 00 00 00 00
       0.0 4.2804445e-06 1.6978174e-08 0.0
0000e0 0f f7 e5 31 e6 2b d8 2c 00 00 00 00 00 00 00 00
       6.6928645e-09 6.143963e-12 0.0 0.0
0000f0 00 00 00 00 61 72 d8 39 de 58 a4 3b dd 9c aa 38
       0.0 0.0004128395 0.0050154766 8.13545e-05
000100 00 00 00 00 48 6a 49 3b 44 e3 b5 36 77 16 99 39
       0.0 0.0030733515 5.4206776e-06 0.00029199172
000110 43 4f da 37 24 9a 1d 3b 00 00 00 00 5c a5 dc 38
       2.6024534e-05 0.0024048174 0.0 0.00010521218
000120 00 00 00 00 c1 c8 6c 3a 12 3f b5 3b 00 00 00 00
       0.0 0.00090326 0.0055312 0.0
000130 e8 71 83 2e 00 00 00 00 f0 01 fa 2e e5 a2 5f 32
       5.977424e-11 0.0 1.1369028e-10 1.3017346e-08
000140 f4 23 4f 2f f4 04 2f 36 3f ef bc 3a 8a 9e 2b 3b
       1.8839313e-10 2.6079915e-06 0.0014414563 0.0026187026
000150 5a a2 be 38 00 00 00 00 bc 1a 88 35 00 00 00 00
       9.090146e-05 0.0 1.014057e-06 0.0
000160 3d 66 56 30 0a c0 37 39 00 00 00 00 03 88 0b 3b
       7.7998036e-10 0.0001752378 0.0 0.0021290786
000170 00 00 00 00 00 00 00 00 37 50 07 3b 00 00 00 00
       0.0 0.0 0.0020647177 0.0
000180 00 00 00 00 02 b7 22 37 00 00 00 00 00 00 00 00
       0.0 9.698562e-06 0.0 0.0
000190 82 4a c5 3b 18 9c d4 38 00 00 00 00 00 00 00 00
       0.006020845 0.000101380225 0.0 0.0
0001a0 45 e9 09 33 00 00 00 00 00 00 00 00 81 1e 05 2f
       3.2109956e-08 0.0 0.0 1.2107117e-10
0001b0 8b 48 81 31 58 0d 69 3b 29 88 82 25 48 03 4f 33
       3.7626413e-09 0.0035560932 2.264367e-16 4.8198928e-08
0001c0 9f 03 25 36 04 e9 01 37 00 00 00 00 1b e6 82 38
       2.4589024e-06 7.743252e-06 0.0 6.2417435e-05
0001d0 d3 22 99 33 59 30 a1 39 1d 94 01 3a af 39 27 2d
       7.130952e-08 0.00030744335 0.000494303 9.505659e-12
0001e0 7a 89 04 34 7e 18 9b 2a 2d a0 86 36 69 4f a5 3b
       1.2343472e-07 2.7550526e-13 4.012158e-06 0.005044867
0001f0 7c 9f f2 36 3c e9 80 39 85 26 2e 3b 00 00 00 00
       7.2307284e-06 0.00024587836 0.0026573252 0.0

exp_avg f4 [64, 128]
000000 00 00 00 00 00 00 00 00 00 00 00 00 00 00 00 00
       0.0 0.0 0.0 0.0
000010 00 00 00 00 00 00 00 00 00 00 00 00 00 00 00 00
       0.0 0.0 0.0 0.0
000020 00 00 00 00 00 00 00 00 00 00 00 00 00 00 00 00
       0.0 0.0 0.0 0.0
000030 00 00 00 00 00 00 00 00 00 00 00 00 00 00 00 00
       0.0 0.0 0.0 0.0
000040 00 00 00 00 00 00 00 00 00 00 00 00 00 00 00 00
       0.0 0.0 0.0 0.0
000050 00 00 00 00 00 00 00 00 00 00 00 00 00 00 00 00
       0.0 0.0 0.0 0.0
000060 00 00 00 00 00 00 00 00 00 00 00 00 00 00 00 00
       0.0 0.0 0.0 0.0
000070 00 00 00 00 00 00 00 00 00 00 00 00 00 00 00 00
       0.0 0.0 0.0 0.0
000080 00 00 00 00 00 00 00 00 00 00 00 00 00 00 00 00
       0.0 0.0 0.0 0.0
000090 00 00 00 00 00 00 00 00 00 00 00 00 00 00 00 00
       0.0 0.0 0.0 0.0
0000a0 00 00 00 00 00 00 00 00 00 00 00 00 00 00 00 00
       0.0 0.0 0.0 0.0
0000b0 00 00 00 00 00 00 00 00 00 00 00 00 00 00 00 00
       0.0 0.0 0.0 0.0
0000c0 00 00 00 00 00 00 00 00 00 00 00 00 00 00 00 00
       0.0 0.0 0.0 0.0
0000d0 00 00 00 00 00 00 00 00 00 00 00 00 00 00 00 00
       0.0 0.0 0.0 0.0
0000e0 00 00 00 00 00 00 00 00 00 00 00 00 00 00 00 00
       0.0 0.0 0.0 0.0
0000f0 00 00 00 00 00 00 00 00 00 00 00 00 00 00 00 00
       0.0 0.0 0.0 0.0
000100 00 00 00 00 00 00 00 00 00 00 00 00 00 00 00 00
       0.0 0.0 0.0 0.0
000110 00 00 00 00 00 00 00 00 00 00 00 00 00 00 00 00
       0.0 0.0 0.0 0.0
000120 00 00 00 00 00 00 00 00 00 00 00 00 00 00 00 00
       0.0 0.0 0.0 0.0
000130 00 00 00 00 00 00 00 00 00 00 00 00 00 00 00 00
       0.0 0.0 0.0 0.0
000140 00 00 00 00 00 00 00 00 00 00 00 00 00 00 00 00
       0.0 0.0 0.0 0.0
000150 00 00 00 00 00 00 00 00 00 00 00 00 00 00 00 00
       0.0 0.0 0.0 0.0
000160 00 00 00 00 00 00 00 00 00 00 00 00 00 00 00 00
       0.0 0.0 0.0 0.0
000170 00 00 00 00 00 00 00 00 00 00 00 00 00 00 00 00
       0.0 0.0 0.0 0.0
000180 00 00 00 00 00 00 00 00 00 00 00 00 00 00 00 00
       0.0 0.0 0.0 0.0
000190 00 00 00 00 00 00 00 00 00 00 00 00 00 00 00 00
       0.0 0.0 0.0 0.0
0001a0 00 00 00 00 00 00 00 00 00 00 00 00 00 00 00 00
       0.0 0.0 0.0 0.0
0001b0 00 00 00 00 00 00 00 00 00 00 00 00 00 00 00 00
       0.0 0.0 0.0 0.0
0001c0 00 00 00 00 00 00 00 00 00 00 00 00 00 00 00 00
       0.0 0.0 0.0 0.0
0001d0 00 00 00 00 00 00 00 00 00 00 00 00 00 00 00 00
       0.0 0.0 0.0 0.0
0001e0 00 00 00 00 00 00 00 00 00 00 00 00 00 00 00 00
       0.0 0.0 0.0 0.0
0001f0 00 00 00 00 00 00 00 00 00 00 00 00 00 00 00 00
       0.0 0.0 0.0 0.0
000200 00 00 00 00 00 00 00 00 04 00 00 00 00 00 00 00
       0.0 0.0 6e-45 0.0
000210 04 00 00 00 04 00 00 00 04 00 00 00 00 00 00 00
       6e-45 6e-45 6e-45 0.0
000220 00 00 00 00 04 00 00 00 04 00 00 00 04 00 00 00
       0.0 6e-45 6e-45 6e-45
000230 04 00 00 00 04 00 00 00 00 00 00 00 04 00 00 00
       6e-45 6e-45 0.0 6e-45
000240 04 00 00 00 04 00 00 00 04 00 00 00 04 00 00 00
       6e-45 6e-45 6e-45 6e-45
000250 04 00 00 00 04 00 00 00 04 00 00 00 04 00 00 00
       6e-45 6e-45 6e-45 6e-45
000260 04 00 00 00 04 00 00 00 04 00 00 00 00 00 00 00
       6e-45 6e-45 6e-45 0.0
000270 04 00 00 00 04 00 00 00 04 00 00 00 04 00 00 00
       6e-45 6e-45 6e-45 6e-45
000280 04 00 00 00 00 00 00 00 04 00 00 00 04 00 00 00
       6e-45 0.0 6e-45 6e-45
000290 04 00 00 00 04 00 00 00 00 00 00 00 04 00 00 00
       6e-45 6e-45 0.0 6e-45
0002a0 04 00 00 00 04 00 00 00 04 00 00 00 00 00 00 00
       6e-45 6e-45 6e-45 0.0
0002b0 04 00 00 00 00 00 00 00 04 00 00 00 04 00 00 00
       6e-45 0.0 6e-45 6e-45
0002c0 00 00 00 00 04 00 00 00 00 00 00 00 04 00 00 00
       0.0 6e-45 0.0 6e-45
0002d0 00 00 00 00 04 00 00 00 04 00 00 80 00 00 00 00
       0.0 6e-45 -6e-45 0.0
0002e0 04 00 00 00 00 00 00 00 00 00 00 00 00 00 00 00
       6e-45 0.0 0.0 0.0
0002f0 00 00 00 00 04 00 00 00 04 00 00 00 04 00 00 00
       0.0 6e-45 6e-45 6e-45
000300 00 00 00 00 04 00 00 00 04 00 00 00 04 00 00 00
       0.0 6e-45 6e-45 6e-45
000310 04 00 00 00 04 00 00 00 00 00 00 00 04 00 00 00
       6e-45 6e-45 0.0 6e-45
000320 00 00 00 00 04 00 00 00 04 00 00 00 00 00 00 00
       0.0 6e-45 6e-45 0.0
000330 04 00 00 80 00 00 00 00 04 00 00 00 04 00 00 00
       -6e-45 0.0 6e-45 6e-45
000340 04 00 00 80 04 00 00 00 04 00 00 00 04 00 00 00
       -6e-45 6e-45 6e-45 6e-45
000350 04 00 00 00 00 00 00 00 04 00 00 00 00 00 00 00
       6e-45 0.0 6e-45 0.0
000360 04 00 00 80 04 00 00 00 00 00 00 00 04 00 00 00
       -6e-45 6e-45 0.0 6e-45
000370 00 00 00 00 00 00 00 00 04 00 00 00 00 00 00 00
       0.0 0.0 6e-45 0.0
000380 00 00 00 00 04 00 00 00 00 00 00 00 00 00 00 00
       0.0 6e-45 0.0 0.0
000390 04 00 00 00 04 00 00 00 00 00 00 00 00 00 00 00
       6e-45 6e-45 0.0 0.0
0003a0 04 00 00 00 00 00 00 00 00 00 00 00 04 00 00 00
       6e-45 0.0 0.0 6e-45
0003b0 04 00 00 00 04 00 00 00 00 00 00 00 04 00 00 80
       6e-45 6e-45 0.0 -6e-45
0003c0 04 00 00 00 04 00 00 00 00 00 00 00 04 00 00 00
       6e-45 6e-45 0.0 6e-45
0003d0 04 00 00 00 04 00 00 00 04 00 00 00 04 00 00 00
       6e-45 6e-45 6e-45 6e-45
0003e0 04 00 00 00 00 00 00 00 04 00 00 00 04 00 00 00
       6e-45 0.0 6e-45 6e-45
0003f0 04 00 00 00 04 00 00 00 04 00 00 00 00 00 00 00
       6e-45 6e-45 6e-45 0.0
