src/model_data/Russian_Grand_Prix_model.pth (torch, 197961 bytes, 21 tensors)

net.0.weight f4 [128, 48]
0	0xbd26d9c5	-0.040735025
1	0xbe0d3084	-0.13788038
2	0x3d529fc6	0.051421903
3	0xbd816061	-0.06317211
4	0xbd61b506	-0.055104278
5	0x3e33bddc	0.17552894
6	0xbe227c70	-0.15867782
7	0x3c4b88e7	0.012422777
8	0xbe32e0fb	-0.17468636
9	0xbd9de960	-0.077105284
10	0x3cf307c7	0.029666794
11	0xbe1a6a8e	-0.1507971
12	0x3dd5d352	0.10440697
13	0xbe121cbd	-0.14268775
14	0xbca86c12	-0.020559344
15	0xbba324f1	-0.004978769
16	0xbe2e0948	-0.16995728
17	0xbe290d29	-0.16508926
18	0xbdd981f3	-0.10620489
19	0xbd3cf1db	-0.04612909
20	0x3d5e1cee	0.05422681
21	0x3e0e6864	0.1390701
22	0x3c69046a	0.014222244
23	0x3d5616bf	0.052267786
24	0x3d0a36a8	0.03374353
25	0x3dd5d3bc	0.10440776
26	0xbd4d2fee	-0.050094537
27	0x3d3907a5	0.045173306
28	0xbdbe3c20	-0.09288812
29	0xbcc76961	-0.02434224
30	0xbe2401f5	-0.16016372
31	0xbc583295	-0.013195653
32	0xbe2b317b	-0.16718094
33	0x3cf78629	0.03021534
34	0x3e280ab7	0.16410337
35	0x3c86e95d	0.016468698
36	0xbe1dc744	-0.15408045
37	0x3dc8d4ee	0.09806238
38	0xbdd1bba4	-0.10240868
39	0x3dc2d8a3	0.095139764
40	0xbdcf055f	-0.10108446
41	0x3d666732	0.05625076
42	0x3d759963	0.059960734
43	0xbdf0b672	-0.11753549
44	0xbdb80648	-0.08985573
45	0xbd01babf	-0.031672236
46	0x3c5a3fe0	0.013320893
47	0x3e1ac170	0.15112853
48	0xbe41b4f4	-0.18916684
49	0xbe450d9f	-0.19243477
50	0xbe401204	-0.18756872
51	0xbc53e0fc	-0.012932058
52	0xbe4329a7	-0.19058858
53	0x3dc52df7	0.09627908
54	0x3bb64a60	0.0055630654
55	0xbdebff29	-0.11523277
56	0x3dbdb2c1	0.0926261
57	0x3cc7bfa5	0.024383375
58	0x3dd2f7af	0.10301148
59	0xbc826593	-0.015917575
60	0xbd9d4d1c	-0.07680723
61	0xbe2272b7	-0.15864073
62	0xbd161eef	-0.036650594
63	0xbe9c2167	-0.30494234
64	0xbc912f94	-0.017722882
65	0xbdbbdf16	-0.0917341
66	0x3e6c81b0	0.23096347
67	0xbcadad84	-0.021200903
68	0xbdd7c921	-0.10536409
69	0x3d7f34e7	0.06230631
70	0xbe2609a1	-0.1621461
71	0xbcf789b3	-0.030217027
72	0xbeb5f1f5	-0.3553616
73	0x3d8004b8	0.062509
74	0x3c9040a5	0.01760895
75	0xbe0f0c03	-0.13969426
76	0x3dee12a9	0.11624653
77	0x3dd8ea2c	0.1059154
78	0xbe368c2a	-0.17826906
79	0xbe9644bb	-0.29349312
80	0xbd8b883a	-0.068130925
81	0x3dccce9c	0.10000345
82	0xbe9ff469	-0.31241158
83	0xbe197a97	-0.1498817
84	0xbdd197d3	-0.10234036
85	0xbde010f1	-0.10940731
86	0xbe5963ed	-0.21229525
87	0xbe7d6a01	-0.24747469
88	0xbe3bc6ec	-0.18337601
89	0xbeb58925	-0.35456195
90	0x3e418984	0.18900114
91	0xbe4bec97	-0.1991447
92	0x3e433796	0.19064173
93	0x3e4d4b4b	0.20048253
94	0xbdb64b20	-0.08901048
95	0x3e94e8ca	0.29083854
96	0xbec60ea3	-0.38683042
97	0xbe66c062	-0.22534326
98	0xbd698581	-0.057012085
99	0xbebf1079	-0.37317255
100	0xbe22bd37	-0.15892492
101	0xbe6f56a4	-0.23372895
102	0xbe229545	-0.15877254
103	0xbdf8fbb0	-0.121573806
104	0xbd0fa2e3	-0.03506745
105	0xbd351e8b	-0.04421858
106	0x3d493287	0.049120452
107	0xbc57e457	-0.013176999
108	0x3dbbad1e	0.09163879
109	0xbe17a7d7	-0.1481012
110	0xbe7c975b	-0.24667113
111	0xbe8a94a4	-0.2706653
112	0xbebc5e58	-0.3679073
113	0xbe332bc8	-0.1749717
114	0xbdd945e7	-0.10609036
115	0xbebf4e10	-0.37364244
116	0xbe9c0110	-0.3046956
117	0xbef082aa	-0.4697469
118	0xbee33e32	-0.4438339
119	0xbe86c93a	-0.263254
120	0xbec4f441	-0.384676
121	0xbe3e0cf0	-0.18559623
122	0xbe1ca2c1	-0.1529646
123	0x3e1c207e	0.1524677
124	0xbd0df2ef	-0.034655508
125	0x3e1c6566	0.15273055
126	0xbe61af12	-0.2203944
127	0xbeb647d9	-0.3560169
128	0xbe4086f4	-0.1880148
129	0x3da651cf	0.081210725
130	0xbd714f5a	-0.058913566
131	0xbda28586	-0.07935624
132	0x3e10a6e9	0.14126171
133	0xbd1336d2	-0.035940953
134	0xbf60c102	-0.87794507
135	0xbf59c9c7	-0.8507351
136	0xbf6f6dd7	-0.9352698
137	0xbcc20507	-0.023684038
138	0xbe137541	-0.14400198
139	0x3d9bdab1	0.076100715
140	0x3de6b3a8	0.112647355
141	0x3e942a1c	0.28938377
142	0x3f48e173	0.7846901
143	0x3e90e2ca	0.28298026
144	0xbe260727	-0.16213666
145	0xbce89809	-0.028392809
146	0xbe1569df	-0.14591168
147	0xbdcb97b3	-0.09941044
148	0x3de286e3	0.11060884
149	0xbe632b50	-0.22184491
150	0xbd8a3cc8	-0.06749874
151	0x3d9ff0b8	0.07809585
152	0xbe6fe0d8	-0.23425615
153	0xbd1d3b3a	-0.03838656
154	0xbe2eb8a4	-0.17062622
155	0xbe1b49d0	-0.15164876
156	0x3dc68079	0.09692473
157	0x3dc2e815	0.095169224
158	0xbe0fb4f9	-0.1403388
159	0xbe8f5d54	-0.2800089
160	0xbe28861d	-0.1645741
161	0xbd97c9f9	-0.0741157
162	0xbd7d1f91	-0.061797682
163	0x3d1580e0	0.036499858
164	0xbdad5aa8	-0.08464557
165	0xbe4217dd	-0.18954416
166	0xbe1fe1a2	-0.15613416
167	0xbce80a30	-0.02832517
168	0xbe4fbae6	-0.2028614
169	0xbe0f37ab	-0.1398608
170	0xbe310305	-0.17286308
171	0x3d8683d6	0.065681145
172	0x3d800f2d	0.062528946
173	0x3d7df6e4	0.06200303
174	0xbe308206	-0.172371
175	0xbd93905f	-0.07205271
176	0xbd4b241a	-0.049594976
177	0xbc356b1d	-0.011072901
178	0xbe29f35f	-0.16596745
179	0xbdb0f7bf	-0.08641004
180	0xbb3a0708	-0.0028385539
181	0xbdff822b	-0.124759994
182	0x3d8d64a9	0.06903965
183	0xbd5d4dcf	-0.054029282
184	0xbdf2e5be	-0.11860226
185	0xbd47f4a9	-0.04881731
186	0xbe6c9d75	-0.2310694
187	0x3dec792e	0.11546551
188	0xbe3294fe	-0.17439649
189	0xbe130401	-0.14356996
190	0x3e1bd54c	0.15218085
191	0xbe84e006	-0.25952166
192	0x3dd6de5d	0.10491631
193	0xbd4886ce	-0.048956685
194	0x3e30ddda	0.1727213
195	0xbda57fcb	-0.08081015
196	0x3e0e60cb	0.13904111
197	0xbc29d1c3	-0.0103649525
198	0x3ddc615f	0.107607596
199	0xbdba009b	-0.09082147
200	0xbdfab44e	-0.12241422
201	0xbdac368f	-0.08408844
202	0x3d4447d9	0.04792008
203	0x3cf06f0a	0.029349823
204	0xbbc7519b	-0.006082726
205	0xbe28bbea	-0.16477934
206	0xbddf5518	-0.10904902
207	0xbdfe352c	-0.124124855
208	0xba7699b0	-0.00094070565
209	0xbe35adb9	-0.17742051
210	0x3d644ba4	0.0557362
211	0x3d2a082f	0.04151171
212	0x3d2b9fdc	0.0419005
213	0xbddbdb2d	-0.10735164
214	0x3a94f054	0.0011363127
215	0x3c474439	0.012162262
216	0x3e15c86f	0.1462724
217	0x3d09032a	0.033450283
218	0x3d00a03a	0.031402804
219	0x3a8325b2	0.0010005741
220	0xbdb79c24	-0.08965328
221	0x3de19d72	0.110163584
222	0xbcbc8463	-0.023012346
223	0xbcb89906	-0.022533905
224	0xbdd17d13	-0.10228934
225	0x3d477330	0.048693836
226	0xbdc3b7ba	-0.095565274
227	0x3d663303	0.056200992
228	0x3e2901e5	0.16504629
229	0xbe353959	-0.17697658
230	0x3da03382	0.07822324
231	0x3d2a0466	0.0415081
232	0x3e062146	0.1309863
233	0x3dca315a	0.09872694
234	0x3daf6361	0.08563877
235	0xbe1de37c	-0.1541881
236	0x3db67a54	0.08910051
237	0x3e05e5c1	0.13075925
238	0x3dedffe6	0.116210744
239	0xbe265bd2	-0.16245964
240	0xbe187cf5	-0.14891417
241	0x3df3e48c	0.11908826
242	0xbe1a028a	-0.15040031
243	0xbe2d7639	-0.1693963
244	0x3e074dc0	0.13213253
245	0xbd4426c0	-0.047888517
246	0xbe2f53f2	-0.17121866
247	0x3dffa42f	0.124824874
248	0xbd9516d0	-0.07279742
249	0xbdb3c85d	-0.08778451
250	0x3e0f85d7	0.140159
251	0xbda5e9ea	-0.08101256
252	0x3e20b65d	0.15694566
253	0xbe0ff76d	-0.14059229
254	0xbe188411	-0.1489413
255	0x3ddad0f1	0.10684384

net.0.bias f4 [128]
0	0x00000000	0.0
1	0xbcee5213	-0.02909187
2	0xbdd2896f	-0.1028012
3	0xbdca6c94	-0.09883991
4	0x00000000	0.0
5	0x00000000	0.0
6	0x3cb28541	0.021792056
7	0xbb5884c4	-0.003303812
8	0x3c69267d	0.014230368
9	0xbe0ac744	-0.13552576
10	0x3ccb946b	0.024851045
11	0xbda228c9	-0.079179354
12	0x3e6b9715	0.23006852
13	0x3e090ee6	0.1338459
14	0xbdffb254	-0.12485185
15	0xbd83dcfb	-0.06438633
16	0xbe7aa635	-0.24477465
17	0xbe8974f3	-0.26847038
18	0x3d846792	0.06465067
19	0xbc8cf16b	-0.01720496
20	0x3b042081	0.0020160975
21	0xbd9200cc	-0.07129058
22	0xbd3b268f	-0.04569107
23	0x00000000	0.0
24	0xbe626c75	-0.22111686
25	0x3e5a43e1	0.21314956
26	0xbe04a2b8	-0.12952697
27	0xbd9e12ea	-0.07718451
28	0xbdb1061d	-0.08643744
29	0xbdd9b074	-0.10629359
30	0xbdb3db25	-0.08782033
31	0xbc757ded	-0.014983636
32	0xbdcd19a4	-0.10014656
33	0xbd2b2264	-0.041780844
34	0xbcab4b06	-0.020909797
35	0xbd881f18	-0.06646556
36	0xbcd943a9	-0.02652152
37	0xbe6ae543	-0.22939019
38	0xbd7d35b2	-0.061818786
39	0x00000000	0.0
40	0xbc96f15a	-0.018425632
41	0x00000000	0.0
42	0xbdf54322	-0.11975695
43	0xbdfdff4b	-0.12402209
44	0x00000000	0.0
45	0xbc736023	-0.014854464
46	0xbd8d17b8	-0.068892896
47	0x00000000	0.0
48	0x00000000	0.0
49	0xbc628446	-0.013825482
50	0xbe2117f9	-0.15731801
51	0xbe5571cd	-0.20844193
52	0xbbec2b0c	-0.00720728
53	0xbdac9381	-0.08426572
54	0xbd19f4ec	-0.03758709
55	0x3e4aa329	0.19788803
56	0xbd7a7e91	-0.06115586
57	0x3cfe0352	0.031007443
58	0xbc560b7a	-0.01306426
59	0xbd58bdac	-0.05291526
60	0x00000000	0.0
61	0xbdada55f	-0.08478808
62	0x00000000	0.0
63	0x00000000	0.0
64	0x00000000	0.0
65	0xbd182d88	-0.037152797
66	0xbde6bcaf	-0.11266457
67	0xbdb07602	-0.08616258
68	0xbd0e87f8	-0.03479764
69	0x00000000	0.0
70	0x3e01929f	0.12653588
71	0x3d4399b6	0.047754012
72	0x3c13c76c	0.009019714
73	0xbdfc1977	-0.123095445
74	0x00000000	0.0
75	0xbc1b6dc6	-0.009486621
76	0xbd710d8a	-0.058850802
77	0xbe214852	-0.15750244
78	0x3e3efe8f	0.18651794
79	0x3d682607	0.05667689
80	0xbca6e989	-0.02037503
81	0xbbbf1eee	-0.0058325445
82	0xbe0eba8d	-0.13938351
83	0xbdf6bdb5	-0.120479025
84	0xbda687a8	-0.08131343
85	0xbd84cff6	-0.06484978
86	0x3b7d7951	0.0038677047
87	0x3cd7fc9b	0.026365569
88	0xbc2c7290	-0.010525361
89	0xbe280279	-0.16407193
90	0xbd821a52	-0.063526765
91	0xbe3986e3	-0.18117861
92	0xbe0f095f	-0.13968419
93	0xbd287840	-0.041130304
94	0xbe8cbc5c	-0.27487457
95	0x3c304886	0.010759478
96	0xbd4c670d	-0.049902964
97	0xbc26ac84	-0.010172967
98	0xbd070a89	-0.03296903
99	0x3d23220f	0.039827403
100	0xbe03b1cd	-0.12860794
101	0xbde62661	-0.11237789
102	0x00000000	0.0
103	0x3c81ecbe	0.015859958
104	0x3e1b55ca	0.15169445
105	0xbd73e8b9	-0.059548113
106	0x3d0b83d4	0.034061268
107	0xbde2676d	-0.11054883
108	0xbd4d12ab	-0.05006663
109	0x3c94ace6	0.01814885
110	0x00000000	0.0
111	0x3d6f42b1	0.05841321
112	0xbd38b304	-0.045092598
113	0xbdc7f42d	-0.0976337
114	0x00000000	0.0
115	0xbcac14a1	-0.02100593
116	0xbc1ce505	-0.009576087
117	0xbdcf92a4	-0.10135391
118	0x3d02f40c	0.031971022
119	0xbde027bd	-0.109450795
120	0xbdc58dd4	-0.09646192
121	0x00000000	0.0
122	0x3a140731	0.00056468236
123	0x3d446f12	0.047957487
124	0x3c806cbf	0.015676854
125	0xbd510ff1	-0.051040594
126	0xbdf58c90	-0.11989701
127	0x3dd9c8ce	0.106340036

net.2.weight f4 [64, 128]
0	0x3d3d9ddd	0.04629313
1	0xbe33a21b	-0.17542307
2	0x3b91b560	0.0044466704
3	0x3d34ffbe	0.044189207
4	0x3dd3e8d0	0.1034714
5	0x3db8d38b	0.090247236
6	0xbe34e4b0	-0.17665362
7	0x3e06a947	0.13150512
8	0x3dc68ce9	0.09694845
9	0xbd4fd4ca	-0.05074004
10	0xbd9e4859	-0.07728643
11	0xbdea8aa7	-0.11452227
12	0xbd1d8e78	-0.038465947
13	0xbd8b3d73	-0.0679883
14	0xbb485bef	-0.0030572375
15	0x3d26a5c2	0.040685423
16	0x3d935a75	0.07194988
17	0x3d4a1811	0.049339358
18	0xbe63e252	-0.22254303
19	0xbe1b309d	-0.15155263
20	0xbdb91c05	-0.090385474
21	0x3d23fafe	0.040034287
22	0x3de8160e	0.113323316
23	0xbdce210c	-0.10064897
24	0xbe62decf	-0.22155307
25	0xbdb6f16c	-0.08932766
26	0xbe04a367	-0.12952958
27	0x3d7ef8fc	0.06224917
28	0x3e0b0090	0.13574433
29	0x3db9e558	0.09076947
30	0xbd62af35	-0.05534287
31	0xbd85fee0	-0.06542754
32	0x3e181055	0.1484998
33	0x3e0aff1a	0.13573876
34	0xbe150da2	-0.14555982
35	0xbdbfb79e	-0.09361194
36	0x3e2ec865	0.17068632
37	0xbe2c6aed	-0.16837664
38	0xbda98b82	-0.08278562
39	0xbdb339fb	-0.08751293
40	0x3e1dc0ba	0.1540555
41	0xbe34fb6e	-0.17674038
42	0x3dacf53f	0.084452145
43	0x3d2a805f	0.04162633
44	0xbd087a3c	-0.033319697
45	0x3e4025e9	0.18764462
46	0xbb94c13d	-0.0045396374
47	0x3dd648a6	0.10463075
48	0x3e143257	0.14472328
49	0x3e2bb454	0.16768008
50	0xbd203d8c	-0.039121196
51	0xbdb6fe73	-0.08935251
52	0x3e034013	0.12817411
53	0x3d9edaa9	0.0775655
54	0x3e1a17eb	0.15048186
55	0x3d5c28b7	0.053749766
56	0xbd9249d6	-0.07142989
57	0xbd78d8e1	-0.060753707
58	0x3bc24c46	0.0059295027
59	0xbe228aba	-0.15873232
60	0xbcc83ded	-0.024443591
61	0x3e12450f	0.14284156
62	0x3e1f204e	0.15539667
63	0xbdb01bfd	-0.08599088
64	0x3e249d26	0.16075572
65	0x3d4c5452	0.0498851
66	0xbe105fb5	-0.1409901
67	0xbd8a05ee	-0.06739412
68	0x3c9982aa	0.018739063
69	0x3e2be3b9	0.16786088
70	0x3d2e0eb6	0.0424945
71	0x3bfa8ae7	0.007645953
72	0x3d0bfd73	0.034177255
73	0xbd2eea8f	-0.04270416
74	0xbd9f8e3c	-0.07790801
75	0xba5ba4e6	-0.0008378759
76	0x3d63562c	0.0555021
77	0xbe0eced4	-0.13946086
78	0xbcce1dd0	-0.0251607
79	0xbcbd0c73	-0.023077225
80	0xbe5fb591	-0.21846606
81	0xbe02181f	-0.12704514
82	0x3c94e523	0.018175667
83	0x3c110b08	0.008852728
84	0x3c5a1719	0.013311171
85	0xbe25193d	-0.16122909
86	0xbdf2f1b5	-0.11862508
87	0xbe4e2b6c	-0.20133752
88	0xbdab4151	-0.083620675
89	0xbe1b307c	-0.15155214
90	0x3da7cf5e	0.08193849
91	0x3dc87554	0.097880036
92	0xbe117840	-0.14206028
93	0xbdddaae8	-0.108236134
94	0xbd34ea78	-0.04416892
95	0xbe0a61b9	-0.1351384
96	0xbc19e77a	-0.009393567
97	0xbc030d18	-0.007998727
98	0x3d7e93c7	0.06215265
99	0x3d19c56c	0.03754179
100	0x3e17ad46	0.14812192
101	0x3d042ff2	0.032272287
102	0x3e09d20f	0.13459037
103	0xbe0a5f5c	-0.13512939
104	0xbe16e1a1	-0.14734508
105	0x3dad5a45	0.08464483
106	0x3e02c548	0.1277057
107	0x3bb4515a	0.005502862
108	0x3e32f24b	0.1747524
109	0xbdd87c1c	-0.10570547
110	0x3db138e9	0.08653433
111	0xbd8583c8	-0.06519276
112	0x3db4bb9b	0.088248454
113	0x3cd18d34	0.025580026
114	0x3e1fd9a1	0.15610363
115	0xbe28afc8	-0.16473305
116	0xbcc19db1	-0.023634763
117	0xbe178a69	-0.14798893
118	0x3d3fc67e	0.046820156
119	0x3e0f664e	0.1400387
120	0x3e4e1815	0.20126374
121	0x3af195ae	0.0018431449
122	0x3dc6e998	0.09712523
123	0xbe6d4162	-0.23169473
124	0x3cdf39c9	0.027249234
125	0xbdb8d106	-0.09024243
126	0xbe2948b6	-0.16531643
127	0x3da0cff8	0.07852167
128	0xbd8b7504	-0.06809428
129	0x3db69ba9	0.089164086
130	0xbe009d02	-0.12559894
131	0x3d5e31b2	0.054246612
132	0x3d8fc2b0	0.070195556
133	0xbe1b3234	-0.1515587
134	0x3ddc1395	0.107459225
135	0x3dcd9452	0.100380555
136	0x3dd232ce	0.102635965
137	0xbe212ef6	-0.1574057
138	0x3d1ee9ea	0.038797297
139	0x3dd5f237	0.104465894
140	0x3bc47799	0.0059957025
141	0xbe6216ea	-0.22079054
142	0xbdd1eb65	-0.10249976
143	0x3c2f3ebe	0.010696111
144	0xbc7a7ff9	-0.0152893
145	0xbd71cb89	-0.059031997
146	0xbddc0698	-0.10743445
147	0x3cedae30	0.029013723
148	0x3e2475e6	0.160606
149	0xbe1acb73	-0.15116672
150	0xbce2022c	-0.027588926
151	0x3d8de931	0.06929243
152	0xbda91223	-0.082554124
153	0xbd9584dc	-0.073007315
154	0x3e0fb3c8	0.14033425
155	0x3d42bc07	0.047542598
156	0x3d8d4c7a	0.06899352
157	0x3e019235	0.1265343
158	0x3cbe9f33	0.023269271
159	0xbd3815bb	-0.0449426
160	0x3dba70c5	0.0910354
161	0x3dfa7647	0.12229591
162	0x3dabadf3	0.083827876
163	0xbc9b8f02	-0.01898909
164	0xbe03cc67	-0.12870942
165	0xbd69ca34	-0.0570776
166	0xbd686450	-0.05673629
167	0xbd846072	-0.06463708
168	0xbd12739e	-0.035754792
169	0xbe34a89a	-0.17642441
170	0xbe355b14	-0.17710525
171	0x3d09b42c	0.03361909
172	0xbd8bf4b1	-0.068337806
173	0x3d2ebb3e	0.042659037
174	0xbc651690	-0.01398243
175	0x3dc6d150	0.09707892
176	0x3d819201	0.06326676
177	0x3c1825bd	0.009286341
178	0x3ddb89e6	0.107196614
179	0x3dff169c	0.12455484
180	0x3e189276	0.1489962
181	0xbe210a9c	-0.15726703
182	0x3dfa2e95	0.12215916
183	0x3c4382b9	0.011933022
184	0xbc7b3828	-0.015333213
185	0xbe281159	-0.16412868
186	0xbe0f30cc	-0.13983458
187	0x3e1cd650	0.15316129
188	0x3cdff3a4	0.027337857
189	0x3d85fce5	0.065423764
190	0xbe0cfd7c	-0.13768572
191	0xbc97f0b5	-0.018547395
192	0x3e254394	0.1613906
193	0xbe2cdc37	-0.1688088
194	0xbdc4272a	-0.095777825
195	0x3de845c7	0.11341434
196	0xbdfffc70	-0.124993205
197	0x3da2ac9f	0.07943081
198	0x3b93a8de	0.0045062145
199	0xbcf7f64c	-0.03026881
200	0x3dc45b26	0.09587698
201	0x3d938c5e	0.07204507
202	0x3c7aa9c3	0.015299263
203	0xbda12ee5	-0.078702725
204	0xbdfe60de	-0.1242082
205	0x3c1d784b	0.0096112
206	0xbded4bbd	-0.115867116
207	0xbe2186c4	-0.15774065
208	0xbda3d29f	-0.07999157
209	0x3d22caa2	0.039744027
210	0xbc9b82b9	-0.018983232
211	0xbe12169f	-0.14266442
212	0xbdd311ff	-0.10306167
213	0x3de6ddaa	0.11272748
214	0x3dc9a3bf	0.09845685
215	0x3dd42d67	0.10360222
216	0x3cf9c2b9	0.030488359
217	0xbdc2361d	-0.094829775
218	0x3dd528ab	0.104081474
219	0xbe0ca726	-0.13735637
220	0x3c1946dd	0.009355274
221	0x3cdb2dba	0.026755203
222	0xbcde6297	-0.02714662
223	0x3d686c79	0.056744073
224	0x3d4e12c3	0.05031086
225	0x3c97019e	0.018433388
226	0xbdad3872	-0.08458032
227	0xbe568c06	-0.20951852
228	0x3d3550e5	0.0442666
229	0xbddff7f9	-0.10935969
230	0xbdda4e65	-0.10659484
231	0xbe0e7055	-0.13910039
232	0x3defccbd	0.117089726
233	0xbd0aaee1	-0.033858184
234	0xbdeac54f	-0.11463415
235	0x3cde1a59	0.027112173
236	0xbd8ce499	-0.06879539
237	0xbdb7b1a2	-0.08969428
238	0x3dafac5e	0.08577798
239	0xbe13c5c2	-0.14430907
240	0xbe2fa38d	-0.17152233
241	0xbcdd705d	-0.027031118
242	0x3cc0aa6c	0.023518763
243	0xbe117cbc	-0.14207739
244	0xbe14b623	-0.14522605
245	0xbe047cd7	-0.12938248
246	0x3e07e6c6	0.13271627
247	0x3db87125	0.090059556
248	0x3e0038d9	0.12521686
249	0x3de704f1	0.112802394
250	0x3c2cefb1	0.010555194
251	0x3e0ad4cb	0.13557737
252	0x3c4387bc	0.011934217
253	0x3da6c744	0.08143476
254	0xbe38d5cc	-0.18050307
255	0xbe5b0ef1	-0.21392418

net.2.bias f4 [64]
0	0xbc82994a	-0.015942235
1	0xbd42554b	-0.047444623
2	0xbd020211	-0.031740252
3	0xbd2ecc9b	-0.042675596
4	0xbd6ca9a3	-0.057778966
5	0x3bf78cc2	0.0075546214
6	0x00000000	0.0
7	0xbd23284d	-0.039833356
8	0xbcc92148	-0.024552003
9	0xbbd78710	-0.00657738
10	0xbbedc5fc	-0.0072562676
11	0xbc7ea37d	-0.015541908
12	0xbbc1eaf6	-0.005917902
13	0xbd8349c6	-0.064105555
14	0xbde07d2e	-0.10961376
15	0xbcc2561f	-0.023722706
16	0xbc4f69c7	-0.012659497
17	0xbb2a7e6c	-0.0026015295
18	0xbd40d925	-0.047082085
19	0xbd31d7b1	-0.04341859
20	0xbc4bfdfc	-0.012450691
21	0x3e97044d	0.2949547
22	0xbd3fa495	-0.046787817
23	0xbd990a98	-0.07472724
24	0xbd069095	-0.032852728
25	0xbd1f36d0	-0.038870633
26	0xbc07d9d4	-0.00829168
27	0xbd387f14	-0.045043066
28	0xbd0adac2	-0.03390003
29	0x3c72411a	0.014786029
30	0xbdc13fda	-0.09436007
31	0x3e8e95e8	0.27848744
32	0xbce23faf	-0.027618257
33	0xbda22011	-0.079162724
34	0xbd976068	-0.07391435
35	0xbd4f43e5	-0.05060186
36	0xbd4d71fe	-0.05015754
37	0xbda93c41	-0.08263446
38	0xbd77472a	-0.0603706
39	0xbd8c7e74	-0.068600565
40	0xbd7abb23	-0.061213624
41	0xbcfbc51c	-0.030733638
42	0xbad93510	-0.00165716
43	0xbd4d593c	-0.05013393
44	0xbdd2a863	-0.102860235
45	0xbd200c34	-0.039074138
46	0xbd1a8ef8	-0.037734002
47	0xbd021cdc	-0.031765804
48	0xbd20a4d6	-0.0392197
49	0x3ca41d44	0.020033486
50	0xbe574e05	-0.21025856
51	0xbd15a79f	-0.03653681
52	0xbbdd66a5	-0.006756621
53	0xbd8b1cee	-0.06792627
54	0xbd16ee15	-0.036848146
55	0x3d318c7a	0.04334686
56	0xbd10e72a	-0.035376705
57	0xbd021cb9	-0.031765673
58	0x3d028924	0.03186907
59	0x3cba1589	0.022715347
60	0xbd22a5c2	-0.03970886
61	0xbd0212ce	-0.031756215
62	0x3e08b94f	0.1335194
63	0xbc8ae91b	-0.016956856

net.4.weight f4 [16, 64]
0	0x3e1e3d84	0.15453154
1	0xbb0c6af6	-0.0021426058
2	0xbd021363	-0.03175677
3	0xbd45665b	-0.048193317
4	0xbe4db6eb	-0.20089309
5	0x3bdca84a	0.006733929
6	0xbe3249f8	-0.1741103
7	0xbe413dc7	-0.18871222
8	0x3daf4be7	0.08559399
9	0xbe4cc14b	-0.1999561
10	0xbe6e77ad	-0.2328784
11	0xbdb8d1bb	-0.09024378
12	0x3c176591	0.009240524
13	0x3d78414f	0.060609158
14	0x3def0e42	0.11672641
15	0x3e6c6a51	0.23087431
16	0xbdd8f6e6	-0.10593967
17	0x3de89fa0	0.11358571
18	0x39b2bb2b	0.00034090257
19	0xbea3c9cb	-0.31989893
20	0xbe66fbd7	-0.22557007
21	0xbe270a71	-0.16312577
22	0x3eaf6a3d	0.3426074
23	0xbd882b70	-0.0664891
24	0xbda42c9c	-0.08016321
25	0x3cbc0b79	0.02295469
26	0x3e828ab8	0.2549646
27	0xbdb2b5d7	-0.087260894
28	0x3d9da1e4	0.07696894
29	0x3d976058	0.07391423
30	0x3d69a02a	0.05703751
31	0x3e36ff9c	0.17870945
32	0xbd1a3bab	-0.03765456
33	0x3e337695	0.17525704
34	0x3dfcf669	0.123516865
35	0xbdd44080	-0.10363865
36	0xbe031cca	-0.12803951
37	0x3e256eed	0.16155596
38	0xbe556646	-0.20839795
39	0x3c56221e	0.013069658
40	0x3e4f3e7e	0.20238683
41	0xbdf302fa	-0.11865802
42	0xbe7eca46	-0.24881849
43	0xbd985756	-0.07438533
44	0xbc347ea6	-0.011016523
45	0xbcfc23c0	-0.030778766
46	0xbe7d725d	-0.24750657
47	0x3c776c08	0.01510144
48	0xbd210b58	-0.03931746
49	0x3dd95c4c	0.10613307
50	0xbe9c78d4	-0.30560935
51	0x3d1e929b	0.038714033
52	0xbdcc8db1	-0.09987963
53	0xbdbc1d1b	-0.09185239
54	0x3da95bc5	0.08269457
55	0x3e0cca24	0.13748986
56	0x3e4c90d4	0.19977123
57	0xbdd01e09	-0.10161979
58	0x3d43c267	0.04779282
59	0x3dd10ecf	0.10207903
60	0x3e6e8fa4	0.23296982
61	0xbe2489a7	-0.16068135
62	0xbdc7e89c	-0.097611636
63	0xbe79e4f3	-0.24403743
64	0x3d72f82c	0.059318706
65	0x3e10cf3f	0.14141558
66	0xbc5397dd	-0.012914625
67	0xbe3980db	-0.1811556
68	0x3d0e24a2	0.034702905
69	0xbe10a5f8	-0.14125812
70	0x3dc102e4	0.094243795
71	0xbd848789	-0.06471164
72	0xbe91ecbc	-0.28500926
73	0x3e1e8c1b	0.15483133
74	0x3de9800c	0.11401376
75	0x3e15d512	0.14632061
76	0xbe86ac96	-0.26303548
77	0xbe8a5260	-0.27015972
78	0xbcf28e46	-0.029608857
79	0xbe708ea0	-0.23491907
80	0x3c9d0d48	0.019171372
81	0xbe1a9265	-0.15094908
82	0xbde288de	-0.110612616
83	0xbe7fa182	-0.24963954
84	0x3c8a1ff1	0.016860934
85	0xbea2a7d7	-0.31768677
86	0xbe3ff30d	-0.1874506
87	0xbcba50d5	-0.022743622
88	0x3e402abc	0.18766302
89	0x3e6d6cbe	0.23186013
90	0x3e326c7b	0.17424195
91	0x3e01b9cc	0.12668532
92	0xbd13d7db	-0.036094528
93	0xbe059d8f	-0.13048385
94	0x3e235394	0.15949851
95	0xbde91097	-0.113801174
96	0xbdf07a08	-0.117420256
97	0xbe2d56b2	-0.16927603
98	0xbe371274	-0.17878133
99	0x3df3fd21	0.11913515
100	0xbe7646c6	-0.24050435
101	0x3daa65c3	0.08320191
102	0x3e9a2325	0.30104938
103	0x3ae9a7d9	0.0017826512
104	0x3cea0f88	0.028571859
105	0x3cfb16d9	0.030650543
106	0x3e561b7b	0.2090892
107	0x3e335c9c	0.17515796
108	0xbdd6fa68	-0.1049698
109	0xbce72056	-0.028213661
110	0x3e751a82	0.23935893
111	0x3de90e91	0.113797314
112	0x3e4c74d6	0.19966444
113	0x3db1fa33	0.086903
114	0x3d6a8d26	0.057263516
115	0xbe54b9ab	-0.20773952
116	0x3e077db8	0.13231552
117	0xbdba3449	-0.09092004
118	0xbdebd0f6	-0.115144655
119	0xbe543c9b	-0.20726244
120	0x3e25258d	0.16127606
121	0xbddb0e79	-0.1069612
122	0xbdc9d8bb	-0.09855791
123	0xbe66c3f1	-0.22535683
124	0x3e342e5e	0.17595813
125	0x3e6c06cc	0.23049468
126	0x3e2aea17	0.1669086
127	0x3e9160c3	0.28394136
128	0x3e3119fa	0.17295066
129	0x3dc3c8d8	0.09559792
130	0x3e258faa	0.16168085
131	0x3d3761d1	0.04477102
132	0xbdc93367	-0.09824257
133	0xbe1154fb	-0.14192574
134	0xbe2303fe	-0.15919492
135	0xbdfb6d4b	-0.12276705
136	0x3deadb19	0.11467571
137	0x3e395b8d	0.1810133
138	0xbe8b7c72	-0.27243382
139	0xbe168ba9	-0.14701714
140	0xbe58d2ce	-0.21174166
141	0xbdd0fb0f	-0.102041356
142	0xbe236688	-0.15957081
143	0x3e503b5b	0.20335142
144	0xbe612aa2	-0.2198892
145	0x3d669554	0.056294754
146	0x3e78fffb	0.24316399
147	0xbe293d95	-0.16527398
148	0xbd0b8ca0	-0.034069657
149	0xbe7417a4	-0.23837143
150	0xbd95504b	-0.07290705
151	0xbdf4e269	-0.11957247
152	0x3df567cc	0.11982688
153	0xba632f60	-0.0008666422
154	0xbe11836b	-0.14210288
155	0xbd193a51	-0.03740913
156	0xbe332e50	-0.17498136
157	0x3e40326a	0.18769231
158	0xbe23a678	-0.15981472
159	0xbd557af0	-0.052119195
160	0x3e3c803a	0.1840829
161	0xbdaee553	-0.08539834
162	0x3def5b48	0.116873324
163	0x3e6d02c8	0.23145592
164	0x3dbdaeed	0.0926188
165	0x3daa917d	0.08328531
166	0xbbd5911f	-0.006517544
167	0x3db95613	0.090496205
168	0x3d9863a5	0.07440881
169	0x3d8528da	0.065019324
170	0x3d9e212a	0.07721169
171	0x3e66bcf4	0.22533017
172	0xbe4fb696	-0.20284495
173	0x3da168a7	0.07881289
174	0x3c1961f5	0.009361734
175	0x3e1221df	0.14270733
176	0xbcad8834	-0.02118311
177	0xbc8d49f5	-0.01724718
178	0xbe4e7687	-0.20162402
179	0xbd0fd593	-0.03511579
180	0xbdab1c7d	-0.08355043
181	0x3e38df01	0.18053819
182	0x3d36a6f9	0.04459283
183	0xbc04ad3c	-0.008097943
184	0xbc8ca410	-0.017168075
185	0xbe2a77a7	-0.16647206
186	0xbe11eb41	-0.14249898
187	0x3da152e2	0.07877137
188	0xbe5d7385	-0.21626098
189	0xbcd0476c	-0.025424682
190	0xbe85beec	-0.26122224
191	0xbe5cea2e	-0.21573707
192	0x3e60e204	0.21961218
193	0xbe33e7b9	-0.17568864
194	0xbe70310a	-0.23456207
195	0x3e2b8490	0.16749787
196	0x3e71e766	0.23623428
197	0xbe7983c1	-0.24366666
198	0xbe03897d	-0.12845416
199	0x3dba5ab4	0.090993315
200	0x3b784815	0.003788476
201	0xbda8bf60	-0.08239627
202	0xbe455caf	-0.19273637
203	0xbe40cc60	-0.18827963
204	0x3e95e860	0.2927885
205	0x3e62ff20	0.22167635
206	0xbe170b3a	-0.14750376
207	0xbe2739a5	-0.16330583
208	0x3e01879a	0.12649384
209	0xbe46bd91	-0.19408251
210	0x3e4addca	0.19811168
211	0x3df8974e	0.12138234
212	0xbe3c641e	-0.18397567
213	0xbcf4b9f1	-0.02987382
214	0xbe592dc3	-0.21208863
215	0xbde911c0	-0.11380339
216	0xbe7c24d9	-0.24623431
217	0x3e1a221f	0.15052079
218	0x3baa53ec	0.0051979925
219	0xbc286aab	-0.010279338
220	0x3df6f20e	0.12057887
221	0x3e828589	0.25492504
222	0xbe70ffa2	-0.23535016
223	0xbdb7dd93	-0.08977809
224	0x3e24ddde	0.1610026
225	0xbe6d74b6	-0.23189053
226	0x3e14c180	0.1452694
227	0x3e3615b1	0.17781712
228	0x3e24991a	0.16074029
229	0x3d948b67	0.072531514
230	0xbd7e89cd	-0.062143136
231	0x3e8db62a	0.27678043
232	0xbe61858e	-0.22023603
233	0xbe7e1e0a	-0.24816146
234	0xbdd9b14a	-0.10629518
235	0xbdf1a6b5	-0.11799375
236	0xbcd6f7d6	-0.026241224
237	0x3c0c3674	0.0085579045
238	0xbdf63a28	-0.12022811
239	0x3dafd4eb	0.08585533
240	0x3e5b0b32	0.2139099
241	0xbdf5b877	-0.119980745
242	0xbdcf96b3	-0.101361655
243	0x3e733185	0.23749359
244	0x3e7085a1	0.23488475
245	0x3d175154	0.036942795
246	0x3e64a933	0.2233017
247	0xbe8f4ebc	-0.27989757
248	0xbe6a4db9	-0.22881211
249	0x3b866c0a	0.0041022347
250	0x3e5db696	0.21651682
251	0x3c9d2ebd	0.019187326
252	0x3dc6839a	0.0969307
253	0x3e12fdc2	0.14354613
254	0x3d412742	0.04715658
255	0x3d99759b	0.074931346

net.4.bias f4 [16]
0	0xbe0de6b2	-0.13857535
1	0xbdc80e90	-0.097684026
2	0x00000000	0.0
3	0xbdbfce11	-0.09365476
4	0xbe3006f3	-0.17190151
5	0x3c7414a5	0.0148975
6	0x3eb5424e	0.3540215
7	0xbdbaeedd	-0.09127591
8	0x3cbbce0a	0.022925396
9	0xbe01b0ba	-0.12665072
10	0xbda6d340	-0.081457615
11	0x3d64525e	0.055742614
12	0xbd5cce57	-0.05390772
13	0xbd8212e9	-0.06351263
14	0xbeb1106c	-0.3458284
15	0xbd48f146	-0.04905822

net.6.weight f4 [1, 16]
0	0xbdae17b4	-0.08500615
1	0xbe6b35f3	-0.22969799
2	0x3e94c1c1	0.29054072
3	0x3dfdd965	0.1239498
4	0x3eb1ea8f	0.34749267
5	0x3db7b9de	0.08970998
6	0x3e8da3da	0.2766407
7	0xbe1bd861	-0.15219261
8	0x3e9baee2	0.30406862
9	0xbd780122	-0.060547955
10	0xbcc27ac0	-0.023740172
11	0x3eb0996c	0.34492052
12	0x3e5c2676	0.21499047
13	0xbecbf098	-0.39831996
14	0xbe99cf54	-0.3004099
15	0xbe6e2ae4	-0.23258549

exp_avg f4 [128, 48]
0	0x00000000	0.0
1	0x00000000	0.0
2	0x00000000	0.0
3	0x00000000	0.0
4	0x00000000	0.0
5	0x00000000	0.0
6	0x00000000	0.0
7	0x00000000	0.0
8	0x00000000	0.0
9	0x00000000	0.0
10	0x00000000	0.0
11	0x00000000	0.0
12	0x00000000	0.0
13	0x00000000	0.0
14	0x00000000	0.0
15	0x00000000	0.0
16	0x00000000	0.0
17	0x00000000	0.0
18	0x00000000	0.0
19	0x00000000	0.0
20	0x00000000	0.0
21	0x00000000	0.0
22	0x00000000	0.0
23	0x00000000	0.0
24	0x00000000	0.0
25	0x00000000	0.0
26	0x00000000	0.0
27	0x00000000	0.0
28	0x00000000	0.0
29	0x00000000	0.0
30	0x00000000	0.0
31	0x00000000	0.0
32	0x00000000	0.0
33	0x00000000	0.0
34	0x00000000	0.0
35	0x00000000	0.0
36	0x00000000	0.0
37	0x00000000	0.0
38	0x00000000	0.0
39	0x00000000	0.0
40	0x00000000	0.0
41	0x00000000	0.0
42	0x00000000	0.0
43	0x00000000	0.0
44	0x00000000	0.0
45	0x00000000	0.0
46	0x00000000	0.0
47	0x00000000	0.0
48	0x00000004	6e-45
49	0x00000004	6e-45
50	0x00000004	6e-45
51	0x00000004	6e-45
52	0x00000004	6e-45
53	0x00000004	6e-45
54	0x00000004	6e-45
55	0x00000004	6e-45
56	0x00000004	6e-45
57	0x00000004	6e-45
58	0x00000004	6e-45
59	0x00000004	6e-45
60	0x00000004	6e-45
61	0x00000004	6e-45
62	0x00000004	6e-45
63	0x00000004	6e-45
64	0x00000004	6e-45
65	0x00000004	6e-45
66	0x00000004	6e-45
67	0x00000004	6e-45
68	0x00000004	6e-45
69	0x00000004	6e-45
70	0x00000004	6e-45
71	0x00000004	6e-45
72	0x00000004	6e-45
73	0x00000004	6e-45
74	0x00000004	6e-45
75	0x00000004	6e-45
76	0x00000004	6e-45
77	0x00000004	6e-45
78	0x00000004	6e-45
79	0x00000004	6e-45
80	0x00000004	6e-45
81	0x00000004	6e-45
82	0x00000004	6e-45
83	0x00000004	6e-45
84	0x00000004	6e-45
85	0x00000004	6e-45
86	0x00000004	6e-45
87	0x00000004	6e-45
88	0x00000004	6e-45
89	0x00000004	6e-45
90	0x00000004	6e-45
91	0x00000004	6e-45
92	0x00000004	6e-45
93	0x80000004	-6e-45
94	0x80000004	-6e-45
95	0x80000004	-6e-45
96	0x00000004	6e-45
97	0x00000004	6e-45
98	0x00000004	6e-45
99	0x00000004	6e-45
100	0x00000004	6e-45
101	0x00000004	6e-45
102	0x00000004	6e-45
103	0x00000004	6e-45
104	0x00000004	6e-45
105	0x00000004	6e-45
106	0x00000004	6e-45
107	0x00000004	6e-45
108	0x80000004	-6e-45
109	0x80000004	-6e-45
110	0x80000004	-6e-45
111	0x00000004	6e-45
112	0x00000004	6e-45
113	0x00000004	6e-45
114	0x80000004	-6e-45
115	0x00000004	6e-45
116	0x80000004	-6e-45
117	0x80000004	-6e-45
118	0x80000004	-6e-45
119	0x00000004	6e-45
120	0x00000004	6e-45
121	0x00000004	6e-45
122	0x00000004	6e-45
123	0x00000004	6e-45
124	0x00000004	6e-45
125	0x00000004	6e-45
126	0x00000004	6e-45
127	0x00000004	6e-45
128	0x00000004	6e-45
129	0x00000004	6e-45
130	0x00000004	6e-45
131	0x00000004	6e-45
132	0x00000004	6e-45
133	0x00000004	6e-45
134	0x00000004	6e-45
135	0x00000004	6e-45
136	0x00000004	6e-45
137	0x00000004	6e-45
138	0x00000004	6e-45
139	0x00000004	6e-45
140	0x00000004	6e-45
141	0x80000004	-6e-45
142	0x80000004	-6e-45
143	0x00000004	6e-45
144	0x00000004	6e-45
145	0x00000004	6e-45
146	0x80000004	-6e-45
147	0x00000004	6e-45
148	0x00000004	6e-45
149	0x00000004	6e-45
150	0x00000004	6e-45
151	0x00000004	6e-45
152	0x00000004	6e-45
153	0x00000004	6e-45
154	0x00000004	6e-45
155	0x00000004	6e-45
156	0x80000004	-6e-45
157	0x80000004	-6e-45
158	0x80000004	-6e-45
159	0x00000004	6e-45
160	0x00000004	6e-45
161	0x00000004	6e-45
162	0x80000004	-6e-45
163	0x00000004	6e-45
164	0x80000004	-6e-45
165	0x80000004	-6e-45
166	0x80000004	-6e-45
167	0x00000004	6e-45
168	0x00000004	6e-45
169	0x00000004	6e-45
170	0x00000004	6e-45
171	0x00000004	6e-45
172	0x00000004	6e-45
173	0x00000004	6e-45
174	0x00000004	6e-45
175	0x00000004	6e-45
176	0x00000004	6e-45
177	0x00000004	6e-45
178	0x00000004	6e-45
179	0x00000004	6e-45
180	0x00000004	6e-45
181	0x00000004	6e-45
182	0x00000004	6e-45
183	0x00000004	6e-45
184	0x00000004	6e-45
185	0x00000004	6e-45
186	0x00000004	6e-45
187	0x00000004	6e-45
188	0x00000000	0.0
189	0x80000004	-6e-45
190	0x80000004	-6e-45
191	0x00000004	6e-45
192	0x00000000	0.0
193	0x00000000	0.0
194	0x00000000	0.0
195	0x00000000	0.0
196	0x00000000	0.0
197	0x00000000	0.0
198	0x00000000	0.0
199	0x00000000	0.0
200	0x00000000	0.0
201	0x00000000	0.0
202	0x00000000	0.0
203	0x00000000	0.0
204	0x00000000	0.0
205	0x00000000	0.0
206	0x00000000	0.0
207	0x00000000	0.0
208	0x00000000	0.0
209	0x00000000	0.0
210	0x00000000	0.0
211	0x00000000	0.0
212	0x00000000	0.0
213	0x00000000	0.0
214	0x00000000	0.0
215	0x00000000	0.0
216	0x00000000	0.0
217	0x00000000	0.0
218	0x00000000	0.0
219	0x00000000	0.0
220	0x00000000	0.0
221	0x00000000	0.0
222	0x00000000	0.0
223	0x00000000	0.0
224	0x00000000	0.0
225	0x00000000	0.0
226	0x00000000	0.0
227	0x00000000	0.0
228	0x00000000	0.0
229	0x00000000	0.0
230	0x00000000	0.0
231	0x00000000	0.0
232	0x00000000	0.0
233	0x00000000	0.0
234	0x00000000	0.0
235	0x00000000	0.0
236	0x00000000	0.0
237	0x00000000	0.0
238	0x00000000	0.0
239	0x00000000	0.0
240	0x00000000	0.0
241	0x00000000	0.0
242	0x00000000	0.0
243	0x00000000	0.0
244	0x00000000	0.0
245	0x00000000	0.0
246	0x00000000	0.0
247	0x00000000	0.0
248	0x00000000	0.0
249	0x00000000	0.0
250	0x00000000	0.0
251	0x00000000	0.0
252	0x00000000	0.0
253	0x00000000	0.0
254	0x00000000	0.0
255	0x00000000	0.0

exp_avg_sq f4 [128, 48]
0	0x00000000	0.0
1	0x00000000	0.0
2	0x00000000	0.0
3	0x00000000	0.0
4	0x00000000	0.0
5	0x00000000	0.0
6	0x00000000	0.0
7	0x00000000	0.0
8	0x00000000	0.0
9	0x00000000	0.0
10	0x00000000	0.0
11	0x00000000	0.0
12	0x00000000	0.0
13	0x00000000	0.0
14	0x00000000	0.0
15	0x00000000	0.0
16	0x00000000	0.0
17	0x00000000	0.0
18	0x00000000	0.0
19	0x00000000	0.0
20	0x00000000	0.0
21	0x00000000	0.0
22	0x00000000	0.0
23	0x00000000	0.0
24	0x00000000	0.0
25	0x00000000	0.0
26	0x00000000	0.0
27	0x00000000	0.0
28	0x00000000	0.0
29	0x00000000	0.0
30	0x00000000	0.0
31	0x00000000	0.0
32	0x00000000	0.0
33	0x00000000	0.0
34	0x00000000	0.0
35	0x00000000	0.0
36	0x00000000	0.0
37	0x00000000	0.0
38	0x00000000	0.0
39	0x00000000	0.0
40	0x00000000	0.0
41	0x00000000	0.0
42	0x00000000	0.0
43	0x00000000	0.0
44	0x00000000	0.0
45	0x00000000	0.0
46	0x00000000	0.0
47	0x00000000	0.0
48	0x389c616a	7.4568045e-05
49	0x3ba54509	0.00504363
50	0x34726c10	2.2577319e-07
51	0x39b9ed84	0.00035462913
52	0x3629eeea	2.5322029e-06
53	0x35558f53	7.955725e-07
54	0x3877b660	5.905924e-05
55	0x33025b95	3.0351277e-08
56	0x3e92b619	0.28654554
57	0x40ed1bb1	7.4096303
58	0x3acdcf06	0.0015701957
59	0x3f4fb14c	0.8112991
60	0x3c187687	0.009305603
61	0x3b601343	0.0034191168
62	0x3f5f1e03	0.8715517
63	0x32e1d79a	2.6291492e-08
64	0x3371b739	5.6278825e-08
65	0x365a59b6	3.253675e-06
66	0x2f710232	2.1919602e-10
67	0x3478f397	2.3185417e-07
68	0x31027235	1.898241e-09
69	0x301d3755	5.71949e-10
70	0x33e0d13c	1.0468872e-07
71	0x2e4f2fb7	4.710873e-11
72	0x2e82daf9	5.950613e-11
73	0x3118d82d	2.2241793e-09
74	0x316395d4	3.3118015e-09
75	0x335f6389	5.201176e-08
76	0x3a70310b	0.00091625814
77	0x304514d5	7.1697787e-10
78	0x3428a6f0	1.5706951e-07
79	0x369f360b	4.7448607e-06
80	0x32f3e31e	2.8392204e-08
81	0x3676039b	3.6658955e-06
82	0x38f85617	0.00011841597
83	0x32a67a97	1.938069e-08
84	0x36680153	3.4571465e-06
85	0x38e18ba8	0.00010754849
86	0x29d8a580	9.6210366e-14
87	0x2af10f23	4.2820703e-13
88	0x2ee2b5ab	1.0309561e-10
89	0x335a64c0	5.0848712e-08
90	0x335a6c37	5.08555e-08
91	0x3c709547	0.014684028
92	0x2d245bc2	9.342695e-12
93	0x31c3b607	5.695941e-09
94	0x37a7adf3	1.9988953e-05
95	0x30acc061	1.2569324e-09
96	0x3617accc	2.2601334e-06
97	0x3b779eea	0.003778393
98	0x2db0ae9c	2.0086426e-11
99	0x38864046	6.40159e-05
100	0x3022b8d9	5.919794e-10
101	0x3005b8e5	4.864787e-10
102	0x30e25a06	1.646925e-09
103	0x3317444a	3.5219536e-08
104	0x3bd84cc9	0.0066009504
105	0x40af0b65	5.470141
106	0x3418cad2	1.4229889e-07
107	0x3e1085f8	0.14113605
108	0x351c9bd7	5.8341305e-07
109	0x34b73843	3.4127342e-07
110	0x37e9fda9	2.7893884e-05
111	0x33160247	3.4926668e-08
112	0x326943d8	1.3577811e-08
113	0x3625267d	2.460932e-06
114	0x30dd7034	1.6111756e-09
115	0x33555e1c	4.967852e-08
116	0x321faf68	9.294901e-09
117	0x31c5fa3d	5.7619034e-09
118	0x32ac375f	2.0048615e-08
119	0x2cfcd5d2	7.1860096e-12
120	0x2d11a961	8.279905e-12
121	0x2f86fc6a	2.455381e-10
122	0x302a6493	6.1988564e-10
123	0x3327d987	3.9080557e-08
124	0x3b70acc0	0.003672406
125	0x2caddfbc	4.9417952e-12
126	0x310db96a	2.0623596e-09
127	0x34f7403e	4.6054078e-07
128	0x330a4bf7	3.219972e-08
129	0x36b7eaa0	5.481139e-06
130	0x3c476339	0.012169653
131	0x33056ad2	3.1063628e-08
132	0x369a7363	4.6029904e-06
133	0x3c64fbee	0.01397608
134	0x2a1c1eae	1.3866228e-13
135	0x2bcad259	1.4411346e-12
136	0x2fc6cbf7	3.6160916e-10
137	0x3325351f	3.846537e-08
138	0x3325351f	3.846537e-08
139	0x4003f964	2.0620966
140	0x21b1eda4	1.2056889e-18
141	0x2cf2308e	6.8834443e-12
142	0x328e3867	1.6556625e-08
143	0x2c11cb49	2.0718585e-12
144	0x3519b43f	5.7259234e-07
145	0x3a819a2f	0.0009887869
146	0x2945185f	4.3763926e-14
147	0x378be639	1.6677297e-05
148	0x2f1a93e9	1.4058767e-10
149	0x2eb6b686	8.3088245e-11
150	0x2f85be56	2.43278e-10
151	0x32200fde	9.3168335e-09
152	0x3adb5d8c	0.0016736253
153	0x3fba6385	1.4561621
154	0x330e4834	3.312762e-08
155	0x3d18422f	0.037172493
156	0x34c2036b	3.6137803e-07
157	0x3484409a	2.463392e-07
158	0x37006665	7.653235e-06
159	0x321edd96	9.247193e-09
160	0x31b0c807	5.1450146e-09
161	0x352ddaea	6.4766084e-07
162	0x30b79496	1.3357233e-09
163	0x3264b102	1.3311594e-08
164	0x31814d42	3.7631773e-09
165	0x3129daa6	2.4717024e-09
166	0x320aec27	8.086352e-09
167	0x2c49db63	2.8685602e-12
168	0x2c684884	3.3009437e-12
169	0x2ea749a4	7.607362e-11
170	0x2fa6fa92	3.0373265e-10
171	0x3233adb6	1.0458669e-08
172	0x3a832681	0.0010005982
173	0x2bd6096d	1.5208231e-12
174	0x30166d8a	5.4725346e-10
175	0x34093c7c	1.2781123e-07
176	0x320fd534	8.372172e-09
177	0x35bf6fd1	1.4263152e-06
178	0x3b4f22f5	0.003160653
179	0x320ab5a3	8.073957e-09
180	0x35a0de15	1.1985563e-06
181	0x3b6ddfcf	0.003629673
182	0x2949fd33	4.485058e-14
183	0x2b1262b5	5.2006603e-13
184	0x2ef4a9e8	1.1126017e-10
185	0x322e3d4d	1.0142071e-08
186	0x322e3d4d	1.0142071e-08
187	0x3f091ae6	0.5355667
188	0x00000000	0.0
189	0x2c5c13a4	3.1274783e-12
190	0x3238360d	1.0722499e-08
191	0x2b4c4418	7.256986e-13
192	0x00000000	0.0
193	0x00000000	0.0
194	0x00000000	0.0
195	0x00000000	0.0
196	0x00000000	0.0
197	0x00000000	0.0
198	0x00000000	0.0
199	0x00000000	0.0
200	0x00000000	0.0
201	0x00000000	0.0
202	0x00000000	0.0
203	0x00000000	0.0
204	0x00000000	0.0
205	0x00000000	0.0
206	0x00000000	0.0
207	0x00000000	0.0
208	0x00000000	0.0
209	0x00000000	0.0
210	0x00000000	0.0
211	0x00000000	0.0
212	0x00000000	0.0
213	0x00000000	0.0
214	0x00000000	0.0
215	0x00000000	0.0
216	0x00000000	0.0
217	0x00000000	0.0
218	0x00000000	0.0
219	0x00000000	0.0
220	0x00000000	0.0
221	0x00000000	0.0
222	0x00000000	0.0
223	0x00000000	0.0
224	0x00000000	0.0
225	0x00000000	0.0
226	0x00000000	0.0
227	0x00000000	0.0
228	0x00000000	0.0
229	0x00000000	0.0
230	0x00000000	0.0
231	0x00000000	0.0
232	0x00000000	0.0
233	0x00000000	0.0
234	0x00000000	0.0
235	0x00000000	0.0
236	0x00000000	0.0
237	0x00000000	0.0
238	0x00000000	0.0
239	0x00000000	0.0
240	0x00000000	0.0
241	0x00000000	0.0
242	0x00000000	0.0
243	0x00000000	0.0
244	0x00000000	0.0
245	0x00000000	0.0
246	0x00000000	0.0
247	0x00000000	0.0
248	0x00000000	0.0
249	0x00000000	0.0
250	0x00000000	0.0
251	0x00000000	0.0
252	0x00000000	0.0
253	0x00000000	0.0
254	0x00000000	0.0
255	0x00000000	0.0

exp_avg f4 [128]
0	0x00000000	0.0
1	0x00000004	6e-45
2	0x00000004	6e-45
3	0x00000004	6e-45
4	0x00000000	0.0
5	0x00000000	0.0
6	0x00000004	6e-45
7	0x80000004	-6e-45
8	0x80000004	-6e-45
9	0x39fb5d22	0.0004794384
10	0x00000004	6e-45
11	0x00000004	6e-45
12	0x3ab48565	0.0013772665
13	0x3a13c96c	0.0005637619
14	0x80000004	-6e-45
15	0x00000004	6e-45
16	0x80000004	-6e-45
17	0xb9ede6fb	-0.00045376256
18	0x3a381e41	0.0007023551
19	0x80000004	-6e-45
20	0x80000004	-6e-45
21	0x00000004	6e-45
22	0x00000004	6e-45
23	0x00000000	0.0
24	0xba0121f1	-0.0004926017
25	0x3a58152a	0.00082429
26	0x00000004	6e-45
27	0x00000004	6e-45
28	0x00000004	6e-45
29	0x00000004	6e-45
30	0x39016217	0.0001233894
31	0x00000004	6e-45
32	0x00000004	6e-45
33	0x80000004	-6e-45
34	0x00000004	6e-45
35	0x00000004	6e-45
36	0x00000004	6e-45
37	0x00000004	6e-45
38	0x80000004	-6e-45
39	0x00000000	0.0
40	0x00000004	6e-45
41	0x00000000	0.0
42	0x00000004	6e-45
43	0x00000004	6e-45
44	0x00000000	0.0
45	0x00000004	6e-45
46	0x00000004	6e-45
47	0x00000000	0.0
48	0x00000000	0.0
49	0x00000004	6e-45
50	0x00000004	6e-45
51	0xb98a2c4d	-0.00026354418
52	0x80000004	-6e-45
53	0x38ef185b	0.00011400945
54	0x00000004	6e-45
55	0x00000004	6e-45
56	0x00000004	6e-45
57	0x3860e571	5.3619446e-05
58	0x00000004	6e-45
59	0x00000004	6e-45
60	0x00000000	0.0
61	0x00000004	6e-45
62	0x00000000	0.0
63	0x00000000	0.0
64	0x00000000	0.0
65	0x00000004	6e-45
66	0x00000004	6e-45
67	0x00000004	6e-45
68	0x80000004	-6e-45
69	0x00000000	0.0
70	0x00000004	6e-45
71	0x00000004	6e-45
72	0x00000004	6e-45
73	0x00000004	6e-45
74	0x00000000	0.0
75	0x80000004	-6e-45
76	0x80000004	-6e-45
77	0x00000004	6e-45
78	0x3a85c59c	0.0010205987
79	0x00000004	6e-45
80	0x00000004	6e-45
81	0x00000004	6e-45
82	0x00000004	6e-45
83	0x00000004	6e-45
84	0x00000004	6e-45
85	0x00000004	6e-45
86	0xb93ad68a	-0.00017818264
87	0x3a84e02d	0.001013761
88	0x00000004	6e-45
89	0x80000004	-6e-45
90	0x00000004	6e-45
91	0x80000004	-6e-45
92	0x00000004	6e-45
93	0x00000004	6e-45
94	0xb9c50dd2	-0.00037585065
95	0x00000004	6e-45
96	0x00000004	6e-45
97	0x80000004	-6e-45
98	0x00000004	6e-45
99	0x00000004	6e-45
100	0x00000004	6e-45
101	0x00000004	6e-45
102	0x00000000	0.0
103	0x00000004	6e-45
104	0x3a45c1ea	0.0007543849
105	0x00000004	6e-45
106	0x80000004	-6e-45
107	0x00000004	6e-45
108	0x00000004	6e-45
109	0x00000004	6e-45
110	0x00000000	0.0
111	0x00000004	6e-45
112	0x80000004	-6e-45
113	0x00000004	6e-45
114	0x00000000	0.0
115	0x00000004	6e-45
116	0x00000004	6e-45
117	0x80000004	-6e-45
118	0x00000004	6e-45
119	0x00000004	6e-45
120	0x00000004	6e-45
121	0x00000000	0.0
122	0x80000004	-6e-45
123	0x80000004	-6e-45
124	0x00000004	6e-45
125	0x38c5d33b	9.433037e-05
126	0x00000004	6e-45
127	0x3a521a1e	0.0008014756

exp_avg_sq f4 [128]
0	0x00000000	0.0
1	0x335a7258	5.0861075e-08
2	0x3325351f	3.846537e-08
3	0x322e3d4d	1.0142071e-08
4	0x00000000	0.0
5	0x00000000	0.0
6	0x34cd7f5a	3.8276886e-07
7	0x2e9f5d24	7.247028e-11
8	0x2f920d99	2.6566907e-10
9	0x3922614b	0.00015485768
10	0x35b771a6	1.3667639e-06
11	0x2e62758f	5.1490864e-11
12	0x3a907f17	0.0011024204
13	0x398abed8	0.000264636
14	0x2cc2551e	5.5232615e-12
15	0x2d92dd78	1.669663e-11
16	0x36245a86	2.4490596e-06
17	0x3a0dcfc9	0.00054096855
18	0x39b41545	0.00034348122
19	0x34d91091	4.0431453e-07
20	0x2fc0ee79	3.5094042e-10
21	0x266b5515	8.164731e-16
22	0x2e91b210	6.625467e-11
23	0x00000000	0.0
24	0x39605871	0.00021395252
25	0x39dddf96	0.0004231899
26	0x34e95d3f	4.3467477e-07
27	0x35dda6c0	1.6514314e-06
28	0x2d6d4f77	1.3489535e-11
29	0x3613016f	2.1905541e-06
30	0x3854e4d3	5.0757848e-05
31	0x29c3c6cf	8.6942274e-14
32	0x2e0e78ef	3.2394473e-11
33	0x353b15cd	6.9694653e-07
34	0x341c260c	1.4542474e-07
35	0x358fe9a7	1.0722332e-06
36	0x2e850a3b	6.049957e-11
37	0x329e6abd	1.844216e-08
38	0x356a1209	8.719804e-07
39	0x00000000	0.0
40	0x130d78ab	1.7856196e-27
41	0x00000000	0.0
42	0x33e0394f	1.0441237e-07
43	0x32d5480b	2.4829225e-08
44	0x00000000	0.0
45	0x2e32036c	4.0475553e-11
46	0x2d949f6c	1.689645e-11
47	0x00000000	0.0
48	0x00000000	0.0
49	0x1936341d	9.419704e-24
50	0x3303216d	3.0531215e-08
51	0x38c6780d	9.463737e-05
52	0x2e0df48f	3.22769e-11
53	0x388d6153	6.741532e-05
54	0x1a64317b	4.7189265e-23
55	0x39eee981	0.0004556887
56	0x265b9643	7.618453e-16
57	0x37617f62	1.3440704e-05
58	0x18a2ac22	4.204983e-24
59	0x2a039952	1.1688331e-13
60	0x00000000	0.0
61	0x358a2c57	1.0294706e-06
62	0x00000000	0.0
63	0x00000000	0.0
64	0x00000000	0.0
65	0x19a173f3	1.6693841e-23
66	0x2cdac7d2	6.218117e-12
67	0x3439cb4e	1.730343e-07
68	0x34b242f7	3.3203807e-07
69	0x00000000	0.0
70	0x38099c20	3.2808748e-05
71	0x380c325c	3.3425502e-05
72	0x22892782	3.7175755e-18
73	0x3472b0db	2.2602346e-07
74	0x00000000	0.0
75	0x2fa0c1b6	2.924147e-10
76	0x2e35a19d	4.1298177e-11
77	0x328a5e1d	1.6108112e-08
78	0x3a6b97e7	0.0008987174
79	0x2da209ec	1.8421674e-11
80	0x1b588fe5	1.7913596e-22
81	0x3691cd8c	4.3452656e-06
82	0x2f9a9e6f	2.812501e-10
83	0x33428bf6	4.529644e-08
84	0x2b474c96	7.0805287e-13
85	0x26028135	4.527792e-16
86	0x38103b48	3.4387485e-05
87	0x3a23b89d	0.0006245466
88	0x2b32c8f3	6.3517177e-13
89	0x32357ba2	1.05636975e-08
90	0x2ecd5a39	9.3383475e-11
91	0x33d006a3	9.686962e-08
92	0x335d28a3	5.149253e-08
93	0x1d9ef456	4.207489e-21
94	0x388546da	6.355131e-05
95	0x322916e0	9.842296e-09
96	0x2f81ea29	2.3631344e-10
97	0x305258d7	7.6523804e-10
98	0x32e84ad9	2.7042391e-08
99	0x38776a17	5.8988193e-05
100	0x2e83ca3e	5.993116e-11
101	0x2f334d43	1.6307404e-10
102	0x00000000	0.0
103	0x2e14518b	3.372373e-11
104	0x39c64166	0.0003781423
105	0x2d4f74ec	1.179255e-11
106	0x366f9d72	3.570542e-06
107	0x2dd31965	2.39992e-11
108	0x2dd911b9	2.4677914e-11
109	0x2fbb01c8	3.4016368e-10
110	0x00000000	0.0
111	0x373b8cbf	1.1178839e-05
112	0x3659f062	3.247544e-06
113	0x3517e71f	5.658821e-07
114	0x00000000	0.0
115	0x212e45ca	5.904586e-19
116	0x35c5459e	1.4697905e-06
117	0x2ebd40aa	8.6062116e-11
118	0x372eb9f3	1.0414503e-05
119	0x2e2bcf34	3.9064932e-11
120	0x356ac343	8.7455936e-07
121	0x00000000	0.0
122	0x2fed7e50	4.31998e-10
123	0x358734c0	1.0073636e-06
124	0x2efdca74	1.1541071e-10
125	0x389efb07	7.5807846e-05
126	0x2f9696f7	2.7392108e-10
127	0x3a1a7024	0.0005891344

exp_avg f4 [64, 128]
0	0x00000000	0.0
1	0x80000004	-6e-45
2	0x80000004	-6e-45
3	0x00000004	6e-45
4	0x00000000	0.0
5	0x00000000	0.0
6	0x00000004	6e-45
7	0x80000004	-6e-45
8	0x80000004	-6e-45
9	0x00000004	6e-45
10	0x00000004	6e-45
11	0x80000004	-6e-45
12	0x00000004	6e-45
13	0x00000004	6e-45
14	0x00000004	6e-45
15	0x80000004	-6e-45
16	0x00000004	6e-45
17	0x00000004	6e-45
18	0x00000004	6e-45
19	0x00000004	6e-45
20	0x80000004	-6e-45
21	0x00000004	6e-45
22	0x80000004	-6e-45
23	0x00000000	0.0
24	0x00000004	6e-45
25	0x00000004	6e-45
26	0x00000004	6e-45
27	0x00000004	6e-45
28	0x80000004	-6e-45
29	0x00000004	6e-45
30	0x00000004	6e-45
31	0x00000004	6e-45
32	0x80000004	-6e-45
33	0x00000004	6e-45
34	0x80000004	-6e-45
35	0x00000004	6e-45
36	0x80000004	-6e-45
37	0x00000004	6e-45
38	0x00000004	6e-45
39	0x00000000	0.0
40	0x00000004	6e-45
41	0x00000000	0.0
42	0x00000004	6e-45
43	0x00000004	6e-45
44	0x00000000	0.0
45	0x80000004	-6e-45
46	0x80000004	-6e-45
47	0x00000000	0.0
48	0x00000000	0.0
49	0x80000004	-6e-45
50	0x00000004	6e-45
51	0x00000004	6e-45
52	0x00000004	6e-45
53	0x00000004	6e-45
54	0x00000000	0.0
55	0x00000004	6e-45
56	0x00000004	6e-45
57	0x00000004	6e-45
58	0x80000004	-6e-45
59	0x80000004	-6e-45
60	0x00000000	0.0
61	0x00000004	6e-45
62	0x00000000	0.0
63	0x00000000	0.0
64	0x00000000	0.0
65	0x00000004	6e-45
66	0x80000004	-6e-45
67	0x00000004	6e-45
68	0x00000004	6e-45
69	0x00000000	0.0
70	0x00000004	6e-45
71	0x00000004	6e-45
72	0x80000004	-6e-45
73	0x00000004	6e-45
74	0x00000000	0.0
75	0x80000004	-6e-45
76	0x80000004	-6e-45
77	0x80000004	-6e-45
78	0x00000004	6e-45
79	0x80000004	-6e-45
80	0x80000004	-6e-45
81	0x00000004	6e-45
82	0x00000004	6e-45
83	0x00000004	6e-45
84	0x80000004	-6e-45
85	0x00000004	6e-45
86	0x00000004	6e-45
87	0x00000004	6e-45
88	0x00000004	6e-45
89	0x00000004	6e-45
90	0x80000004	-6e-45
91	0x00000004	6e-45
92	0x00000004	6e-45
93	0x00000004	6e-45
94	0x00000004	6e-45
95	0x80000004	-6e-45
96	0x80000004	-6e-45
97	0x80000004	-6e-45
98	0x00000004	6e-45
99	0x00000004	6e-45
100	0x80000004	-6e-45
101	0x00000004	6e-45
102	0x00000000	0.0
103	0x80000004	-6e-45
104	0x00000004	6e-45
105	0x80000004	-6e-45
106	0x00000004	6e-45
107	0x80000004	-6e-45
108	0x00000004	6e-45
109	0x80000004	-6e-45
110	0x00000000	0.0
111	0x00000004	6e-45
112	0x00000004	6e-45
113	0x00000004	6e-45
114	0x00000000	0.0
115	0x80000004	-6e-45
116	0x00000004	6e-45
117	0x80000004	-6e-45
118	0x00000004	6e-45
119	0x80000004	-6e-45
120	0x00000004	6e-45
121	0x00000000	0.0
122	0x80000004	-6e-45
123	0x00000004	6e-45
124	0x80000004	-6e-45
125	0x00000004	6e-45
126	0x00000004	6e-45
127	0x00000004	6e-45
128	0x00000000	0.0
129	0x00000004	6e-45
130	0x00000004	6e-45
131	0x00000004	6e-45
132	0x00000000	0.0
133	0x00000000	0.0
134	0x00000004	6e-45
135	0x00000004	6e-45
136	0x00000000	0.0
137	0x00000004	6e-45
138	0x00000004	6e-45
139	0x00000000	0.0
140	0x00000004	6e-45
141	0x00000004	6e-45
142	0x00000004	6e-45
143	0x00000000	0.0
144	0x00000004	6e-45
145	0x00000004	6e-45
146	0x00000004	6e-45
147	0x00000004	6e-45
148	0x00000000	0.0
149	0x00000000	0.0
150	0x00000000	0.0
151	0x00000000	0.0
152	0x00000004	6e-45
153	0x00000004	6e-45
154	0x00000004	6e-45
155	0x00000004	6e-45
156	0x00000000	0.0
157	0x00000004	6e-45
158	0x00000004	6e-45
159	0x00000004	6e-45
160	0x00000004	6e-45
161	0x00000004	6e-45
162	0x00000004	6e-45
163	0x00000004	6e-45
164	0x00000000	0.0
165	0x00000004	6e-45
166	0x00000004	6e-45
167	0x00000000	0.0
168	0x00000000	0.0
169	0x00000000	0.0
170	0x00000004	6e-45
171	0x00000004	6e-45
172	0x00000000	0.0
173	0x00000000	0.0
174	0x00000004	6e-45
175	0x00000000	0.0
176	0x00000000	0.0
177	0x00000000	0.0
178	0x00000004	6e-45
179	0x00000004	6e-45
180	0x00000000	0.0
181	0x00000004	6e-45
182	0x00000000	0.0
183	0x00000004	6e-45
184	0x00000000	0.0
185	0x00000004	6e-45
186	0x00000004	6e-45
187	0x00000000	0.0
188	0x00000000	0.0
189	0x00000004	6e-45
190	0x00000000	0.0
191	0x00000000	0.0
192	0x00000000	0.0
193	0x00000000	0.0
194	0x00000004	6e-45
195	0x00000004	6e-45
196	0x00000004	6e-45
197	0x00000000	0.0
198	0x00000004	6e-45
199	0x00000004	6e-45
200	0x00000000	0.0
201	0x00000004	6e-45
202	0x00000000	0.0
203	0x00000000	0.0
204	0x00000000	0.0
205	0x00000004	6e-45
206	0x00000004	6e-45
207	0x00000000	0.0
208	0x00000004	6e-45
209	0x00000004	6e-45
210	0x00000004	6e-45
211	0x00000004	6e-45
212	0x00000000	0.0
213	0x00000000	0.0
214	0x00000004	6e-45
215	0x00000004	6e-45
216	0x00000004	6e-45
217	0x00000004	6e-45
218	0x00000000	0.0
219	0x00000004	6e-45
220	0x00000004	6e-45
221	0x00000004	6e-45
222	0x00000004	6e-45
223	0x00000000	0.0
224	0x00000000	0.0
225	0x00000000	0.0
226	0x00000004	6e-45
227	0x00000004	6e-45
228	0x00000004	6e-45
229	0x00000004	6e-45
230	0x00000000	0.0
231	0x00000000	0.0
232	0x00000004	6e-45
233	0x00000000	0.0
234	0x00000004	6e-45
235	0x00000004	6e-45
236	0x00000000	0.0
237	0x00000004	6e-45
238	0x00000000	0.0
239	0x00000000	0.0
240	0x00000004	6e-45
241	0x00000004	6e-45
242	0x00000000	0.0
243	0x00000000	0.0
244	0x00000004	6e-45
245	0x00000004	6e-45
246	0x00000004	6e-45
247	0x00000000	0.0
248	0x00000004	6e-45
249	0x00000000	0.0
250	0x00000000	0.0
251	0x00000004	6e-45
252	0x00000000	0.0
253	0x00000004	6e-45
254	0x00000004	6e-45
255	0x00000004	6e-45
