src/model_data/Sakhir_Grand_Prix_model.pth (torch, 197923 bytes, 21 tensors)

net.0.weight f4 [128, 48]
-0.1117245 0.029963719 -0.09800198 -0.1184964 -0.0761744 0.009672786 -0.02226459 -0.07370404
-0.047107413 0.14814974 0.020976769 -0.16627678 0.028887134 -0.12509106 -0.086877465 -0.15439098
0.014922677 0.104113795 -0.123198725 -0.0482673 -0.18516447 0.06611662 0.043866005 -0.16511527
-0.18761618 -0.12861408 0.15575019 -0.026332475 0.031074323 -0.10766471 -0.038317673 0.15426785
0.02435077 -0.013761193 0.13250048 0.027025573 0.18264139 -0.036712196 -0.23482788 -0.5118827
-0.19889589 0.03656502 -0.015242193 0.07009352 0.129135 0.094088055 -0.026569782 0.036746524
0.053183943 -0.0764232 -0.055294573 -0.092720695 -0.03529413 0.11545313 0.026093632 0.5149779
0.10136869 -0.05761362 -0.10728888 0.13324927 -0.15403254 0.13765727 0.07996208 0.41577047
0.015301619 0.08392276 0.018438702 -0.18722937 -0.0286524 0.1089722 -0.08213122 -0.066152096
-0.19795494 -0.02050062 0.054458037 0.18970825 0.12973137 0.20335501 -0.116269015 0.07806413
0.05650336 -0.03035595 0.1266829 0.1439595 0.18660541 -0.08273589 -0.9153628 -0.99326515
-0.75372976 -0.22057566 -0.47397375 -0.088370696 0.34699318 0.31146288 0.25997132 0.23026538
0.06059191 -0.12087947 -0.117348835 -0.24242413 -0.15500322 -0.09454928 0.10088973 -0.08010742
-0.26689395 0.13126947 -0.10167675 0.049163003 -0.12078271 0.1660203 -0.18108423 -0.14671345
-0.27488282 -0.1705041 -0.16507585 0.010511054 -0.0033927094 -0.059409887 0.06401405 -0.014467609
-0.037673585 -0.00711864 0.028724587 0.03665532 -0.062452402 -0.29756507 0.038610246 -0.19597499
0.05118977 0.06448559 -0.08689116 -0.03838115 -0.09743912 -0.079505555 0.053025752 -0.19093908
-0.023503052 0.017506048 0.13402314 0.050467703 0.13135861 -0.11175951 0.0049655763 0.097643584
-0.033256542 -0.023556031 0.05146905 -0.16755202 -0.017013172 -0.03543957 -0.012260084 -0.14076553
-0.18415427 -0.0043010917 3.1937197e-05 0.033195715 -0.124379426 0.044502273 0.074055485 -0.037922177
0.06681437 0.15454651 -0.18442452 0.09322089 0.033044193 -0.0048134923 -0.01936438 -0.124411434
0.048244618 0.12621757 -0.048818182 -0.009488608 -0.073576175 0.15224941 0.103472285 0.008183233
-0.06712916 -0.15122654 0.084852114 0.0759361 0.09444601 0.040913105 -0.06425548 0.09119928
0.020554397 0.08802252 0.05418449 -0.14346364 0.028104162 -0.046538256 -0.15933725 -0.12712146
-0.08089663 -0.15703666 -0.17649373 0.04541795 -0.10651113 0.16206397 0.07644331 0.018660137
-0.010469647 0.10600747 0.0009162806 -0.19161902 -0.06029613 -0.13236585 0.009662304 0.024726836
-0.066631235 0.014044098 -0.07533691 0.07704818 0.1103591 0.1125668 -0.034021627 -0.10349752
0.0038277926 0.09115389 -0.14641319 0.25810695 -0.10462265 -0.21869653 -0.032084104 -0.185509
0.086899765 0.16710348 0.12912753 -0.09564472 -0.14315638 0.14472607 -0.061983798 -0.07581228
-0.2543748 0.11979714 -0.039602585 0.16598558 -0.20216177 0.05469382 -0.10689182 0.12345946
0.008525661 -0.092395715 -0.05246297 -0.1615535 0.06087351 -0.045569986 0.021041783 0.55446655
0.0012399218 0.008278924 -0.14355639 -0.108040854 -0.12529181 0.1510902 0.01957178 0.32793972
00000000: d1cf e4bd 7976 f53c 43b5 c8bd 3eae f2bd
00000010: 5301 9cbd 9b7a 1e3c 3b64 b6bc 25f2 96bd
00000020: b4f3 40bd 91b4 173e 79d7 ab3c 7644 2abe
00000030: b6a4 ec3c df17 00be d0ec b1bd ab18 1ebe
00000040: 3e7e 743c 9d39 d53d 9d4f fcbd efb3 45bd
00000050: c19b 3dbe 2768 873d d7ac 333d fa13 29be
00000060: 751e 40be 69b3 03be fa7c 1f3e 34b7 d7bc
00000070: 948f fe3c 517f dcbd fef2 1cbd 64f8 1d3e
00000080: 447b c73c a076 61bc 35ae 073e bc64 dd3c
00000090: 5806 3b3e 875f 16bd b876 70be bf0a 03bf
000000a0: 5dab 4bbe 34c5 153d 64ba 79bc 318d 8f3d
000000b0: f73b 043e 3db1 c03d dfa8 d9bc 8683 163d
000000c0: 68d7 593d c483 9cbd 907c 62bd 59e4 bdbd
000000d0: 9490 10bd b172 ec3d 50c2 d53c 97d5 033f
000000e0: 639a cf3d 42fc 6bbd 46ba dbbd 7f72 083e
000000f0: b5ba 1dbe 07f6 0c3e 29c3 a33d dedf d43e
00000100: a4b3 7a3c b2df ab3d c30c 973c 0eb9 3fbe
00000110: 70b8 eabc d12c df3d 6a34 a8bd c07a 87bd
00000120: b3b4 4abe ebf0 a7bc 640f 5f3d e142 423e
00000130: 4dd8 043e 4c3c 503e 731e eebd 16e0 9f3d
00000140: 1170 673d 0bad f8bc 2ab9 013e 1f6a 133e
00000150: 7d15 3f3e 6f71 a9bd 3755 6abf a046 7ebf
00000160: 6ff4 40bf 96de 61be b0ac f2be b2fb b4bd
00000170: 17a9 b13e 1078 9f3e f61a 853e b0ca 6b3e
00000180: 392f 783d a88f f7bd 9654 f0bd 083e 78be
00000190: 2ab9 1ebe 0ea3 c1bd 469f ce3d 5c0f a4bd
000001a0: 53a6 88be 816b 063e e63b d0bd 255f 493d
000001b0: ed5c f7bd 3a01 2a3e 256e 39be 0d3c 16be
000001c0: 71bd 8cbe a098 2ebe a509 29be 8e36 2c3c
000001d0: 3858 5ebb c857 73bd cc19 833d 8d09 6dbc
000001e0: 9e4f 1abd 7b43 e9bb d34f eb3c e423 163d
000001f0: 17ce 7fbd 735a 98be c725 1e3d abad 48be
00000200: 5dac 513d 0511 843d fef3 b1bd 8e35 1dbd
00000210: 298e c7bd cfd3 a2bd 8831 593d 8985 43be
00000220: 7989 c0bc d868 8f3c 5d3d 093e 39b7 4e3d
00000230: df82 063e 2ce2 e4bd 46b6 a23b 5cf9 c73d
00000240: 0338 08bd 94f8 c0bc 36d1 523d c292 2bbe
00000250: 355f 8bbc 1529 11bd 85de 48bc d724 10be
00000260: f092 3cbe 2cf0 8cbb 4ef4 0538 3bf8 073d
00000270: a4ba febd 0448 363d 67aa 973d 4954 1bbd
00000280: f9d5 883d 7141 1e3e c8d9 3cbe 98ea be3d
00000290: 5959 073d 80ba 9dbb 0ca2 9ebc 6ccb febd
000002a0: 269c 453d 2e3f 013e 93f5 47bd 1b76 1bbc
000002b0: 1baf 96bd 45e7 1b3e 47e9 d33d f812 063c
000002c0: 037b 89bd 21db 1abe f2c6 ad3d 6384 9b3d
000002d0: e96c c13d 8094 273d 6198 83bd b0c6 ba3d
000002e0: b261 a83c 2745 b43d 8ef0 5d3d 22e8 12be
000002f0: b33a e63c e69e 3ebd 4e29 23be 212c 02be
00000300: 22ad a5bd 38ce 20be c6ba 34be 2c08 3a3d
00000310: 8222 dabd 19f4 253e 4f8e 9c3d 25dd 983c
00000320: e288 2bbc 721a d93d 8d32 703a c737 44be
00000330: 13f9 76bd ea8a 07be a44e 1e3c ef8f ca3c
00000340: f575 88bd 3719 663c 3d4a 9abd 70cb 9d3d
00000350: f403 e23d 6c89 e63d 435a 0bbd 82f6 d3bd
00000360: b4db 7a3b e4ae ba3d 57ed 15be 9826 843e
00000370: 6644 d6bd fcf1 5fbe 9f6a 03bd 12f6 3dbe
00000380: 81f8 b13d 2d1d 2b3e 023a 043e 61e1 c3bd
00000390: 9697 12be 1233 143e b9e2 7dbd 7843 9bbd
000003a0: 6a3d 82be 3458 f53d 5236 22bd 20f8 293e
000003b0: 7f03 4fbe a106 603d 19ea dabd 50d8 fc3d
000003c0: 37af 0b3c f739 bdbd 69e3 56bd 486e 25be
000003d0: 8056 793d 98a7 3abd d15f ac3c 85f1 0d3f
000003e0: df84 a23a 53a4 073c 7200 13be 8644 ddbd
000003f0: 7f4c 00be 64b7 1a3e ff54 a03c b7e7 a73e

net.0.bias f4 [128]
-0.015921554 0.3626594 -0.062897444 -0.017533967 -0.015566943 0.39377457 0.3979952 0.39612404
0.0 0.26548874 0.25558454 0.33228353 0.38463446 0.0 -0.028489618 0.34304598
0.2936548 0.401638 0.0 0.3564815 -0.048516124 0.0 -0.042809177 0.3920269
0.31718767 0.34939906 0.21876658 0.3744757 -0.016062 -0.012398631 -0.055388838 0.028514262
0.3223917 -0.05892746 -0.020234875 -0.066881545 -0.015118333 0.3908872 0.0 0.27737808
0.33786377 0.0 -0.024953626 0.33996 -0.031659942 -0.01447058 0.010217935 -0.043287944
0.30587974 0.40263072 0.21679574 0.39514127 -0.03606326 -0.009648963 -0.070662685 -0.041190434
0.0 -0.022734841 0.40890512 -0.017626053 -0.03843534 0.40578008 0.0051525454 0.1748681
-0.091202036 0.0 0.0 0.39822996 0.400828 -0.0222234 0.0 -0.10289148
-0.017488452 0.015715484 0.0 -0.021393733 -0.0013475362 0.046153087 0.38720053 0.159805
0.3384718 0.26971933 -0.051092926 -0.07061815 -0.07549043 -0.07834755 0.0136045 0.358483
0.40345758 0.36541393 0.0025939231 -0.056877047 0.005513436 0.3885667 0.17136332 -0.035358604
-0.019776653 -0.07581841 0.38721925 0.0032818853 0.33234352 -0.010024068 0.35742578 0.34249696
0.0 -0.012577773 -0.07454001 -0.044058714 0.0 0.40305066 0.0 -0.023847323
0.1537156 -0.08429979 -0.017957602 0.16277157 0.37024283 -0.012682746 0.35847968 -0.0006775243
-0.0561674 -0.054846503 0.40518454 -0.042355824 0.33768517 -0.03151747 0.0 -0.009008465
00000000: eb6d 82bc 7eae b93e 60d0 80bd 65a3 8fbc
00000010: 7e0c 7fbc d29c c93e 07c6 cb3e c5d0 ca3e
00000020: 0000 0000 24ee 873e fadb 823e 1121 aa3e
00000030: cfee c43e 0000 0000 0f63 e9bc b9a3 af3e
00000040: ec59 963e 7fa3 cd3e 0000 0000 be84 b63e
00000050: d8b8 46bd 0000 0000 ad58 2fbd c0b7 c83e
00000060: 6c66 a23e 6fe4 b23e 5904 603e 47bb bf3e
00000070: 7594 83bc a123 4bbc 68df 62bd be96 e93c
00000080: 8610 a53e ec5d 71bd 9cc3 a5bc 31f9 88bd
00000090: e2b2 77bc 5e22 c83e 0000 0000 8004 8e3e
000000a0: 7bfc ac3e 0000 0000 8c6b ccbc 3d0f ae3e
000000b0: dbad 01bd 0316 6dbc 2069 273c b34e 31bd
000000c0: 459c 9c3e 9d25 ce3e b4ff 5d3e f54f ca3e
000000d0: 12b7 13bd af16 1ebc 99b7 90bd 4db7 28bd
000000e0: 0000 0000 6b3e babc 035c d13e 8364 90bc
000000f0: 606e 1dbd 68c2 cf3e afd6 a83b a010 333e
00000100: 22c8 babd 0000 0000 0000 0000 cce4 cb3e
00000110: 5439 cd3e d90d b6bc 0000 0000 c5b8 d2bd
00000120: f143 8fbc c2bd 803c 0000 0000 e941 afbc
00000130: d09f b0ba 050b 3d3d 263f c63e eca3 233e
00000140: 2d4c ad3e a718 8a3e d146 51bd 40a0 90bd
00000150: ba9a 9abd ae74 a0bd 69e5 5e3c 158b b73e
00000160: fe91 ce3e 8917 bb3e cffe 293b e8f7 68bd
00000170: 0eaa b43b 37f2 c63e de79 2f3e 2fd4 10bd
00000180: a602 a2bc af46 9bbd 9a41 c63e e614 573b
00000190: ee28 aa3e fd3b 24bc 8300 b73e c35b af3e
000001a0: 0000 0000 0113 4ebc 6fa8 98bd e976 34bd
000001b0: 0000 0000 a85c ce3e 0000 0000 765b c3bc
000001c0: 9f67 1d3e 5ea5 acbd d21b 93bc 97ad 263e
000001d0: 7890 bd3e 4bcb 4fbc a68a b73e e39b 31ba
000001e0: ca0f 66bd baa6 60bd 5974 cf3e 4d7d 2dbd
000001f0: 12e5 ac3e 7618 01bd 0000 0000 3e98 13bc

net.2.weight f4 [64, 128]
0.029495083 -0.11526312 0.12723161 -0.124677114 0.039250474 -0.16556162 0.13753596 -0.0020163683
-0.13765253 -0.10375544 -0.02667472 -0.05740126 -0.053569824 0.09275343 -0.12927733 0.013318952
0.068134464 0.06449111 -0.1684993 0.04376413 0.08850299 -0.08443063 -0.1788515 -0.071416795
0.015728697 -0.13195741 0.08543667 -0.099723406 -0.14638963 0.15660533 -0.11508888 -0.16909729
0.020435974 0.09597303 0.05465877 -0.054250013 0.030642165 0.1726761 0.0345519 -0.07469163
0.04807318 -0.0024676768 -0.07373545 -0.16160782 -0.040520653 0.06909297 0.02727422 -0.18195179
0.112464294 -0.060137764 0.09793719 -0.09431551 -0.108394556 0.090765916 -0.06620233 0.02572227
-0.14677413 -0.18649116 0.049531545 -0.041958317 -0.023169681 -0.13290425 -0.031318896 -0.0071149473
0.0874829 0.13344733 -0.17554505 0.1383111 0.034072228 -0.0723828 0.1385386 -0.044231445
-0.042310506 -0.14062254 0.14025168 0.13559297 -0.17098637 -0.04634503 -0.1185422 0.057399698
0.11985874 0.08826773 0.059816293 0.12585929 -0.010907111 -0.00088817475 0.1112962 -0.050131842
-0.036302343 0.044692032 -0.10406111 -0.06448594 -0.025539078 -0.18301608 -0.09761863 -0.059614558
0.02148963 0.15120645 0.013929933 -0.1339206 -0.0014340044 0.08445527 -0.08147681 0.11739806
-0.04032743 -0.0137036275 -0.09092018 -0.14403708 0.015021094 -0.09571536 0.0863128 -0.10003474
-0.01714624 -0.0034147599 0.05633312 0.09396056 0.13486056 0.08799941 0.037785135 -0.13873267
0.062247522 -0.052577328 -0.14037742 -0.11840647 -0.1317279 -0.12067418 0.1634945 -0.112059936
-0.1723007 0.4008091 -0.05620517 0.1390372 -0.25549123 0.45038524 0.5781552 0.56933886
0.093735345 0.19717345 0.38996622 0.52199805 0.22162613 -0.08187131 0.13418424 0.4710214
0.35448647 0.38891205 -0.008802137 0.41894254 -0.06153928 -0.094841115 0.002857462 0.28493884
0.25841424 0.50155544 0.2518683 0.42268658 -0.29646698 0.013083593 -0.17205705 0.05133874
0.37998092 -0.040366758 0.044193055 -0.18078439 -0.13143528 0.43373016 0.051401768 0.33806145
0.46527487 -0.10522974 0.006596635 0.34040514 0.19371 0.047420178 -0.08451907 -0.03388488
0.31659803 0.115622334 0.17698191 0.5090299 -0.20166893 0.06824469 0.101468496 -0.22254464
0.1764237 0.09485949 0.4654624 -0.10842518 0.1576469 0.38455006 -0.30362135 -0.0040635
-0.26178482 -0.13146995 -0.13893057 0.4880465 0.3292112 -0.026823835 -0.08899448 0.04211273
-0.12154916 -0.13337082 -0.1599741 -0.24715713 0.010887387 -0.2752734 0.45491943 0.40130147
0.4970195 0.32639617 -0.06948838 0.050348334 -0.21700715 -0.1013583 -0.16032155 0.551827
0.50442725 0.55551994 -0.19245993 0.046157937 -0.18017547 0.3766032 0.19618429 -0.14861163
-0.20435244 -0.011925768 0.5401374 -0.2408283 0.48252875 -0.013812843 0.3000945 0.45335707
-0.101970315 0.109242775 -0.12525412 -0.026145313 -0.17396411 0.39291757 0.122630656 0.11500443
0.060550958 -0.07402438 0.020466944 0.36207497 0.07546783 -0.04646995 0.29624525 -0.019249378
0.06636734 -0.19869553 0.41566017 -0.099277854 0.48832047 -0.04324735 -0.014950878 0.06301162
00000000: ac9f f13c 120f ecbd 0149 023e b756 ffbd
00000010: 1bc5 203d fc88 29be 3ad6 0c3e 0c25 04bb
00000020: c9f4 0cbe bb7d d4bd f184 dabc 951d 6bbd
00000030: 086c 5bbd 83f5 bd3d 4761 04be bc37 5a3c
00000040: 158a 8b3d ea13 843d 158b 2cbe 0442 333d
00000050: 0e41 b53d f7e9 acbd d924 37be f842 92bd
00000060: 78d9 803c d81f 07be 6cf9 ae3d c93b ccbd
00000070: 2ae7 15be 265d 203e b8b3 ebbd d727 2dbe
00000080: 5869 a73c 828d c43d e0e1 5f3d 4335 5ebd
00000090: 4705 fb3c 01d2 303e 4b86 0d3d edf7 98bd
000000a0: 62e8 443d bfb8 21bb 9d02 97bd 857c 25be
000000b0: fcf8 25bd 9d80 8d3d 2f6e df3c 9251 3abe
000000c0: ae53 e63d 0453 76bd 4b93 c83d 7d28 c1bd
000000d0: f7fd ddbd 7be3 b93d 1695 87bd 83b7 d23c
000000e0: f54b 16be 8af7 3ebe 97e1 4a3d 7cdc 2bbd
000000f0: 58ce bdbc 0d18 08be 3e48 00bd 8124 e9bb
00000100: 3c2a b33d 6ba6 083e 15c2 33be 6da1 0d3e
00000110: 528f 0b3d 6f3d 94bd 10dd 0d3e 082c 35bd
00000120: c84d 2dbd 5bff 0fbe 239e 0f3e e2d8 0a3e
00000130: 0d17 2fbe 49d4 3dbd 41c6 f2bd f21b 6b3d
00000140: 8078 f53d b6c5 b43d ee01 753d 42e1 003e
00000150: bdb3 32bc 66d4 68ba 43ef e33d 0c57 4dbd
00000160: c4b1 14bd fe0e 373d fe1d d5bd 3411 84bd
00000170: 5437 d1bc 9168 3bbe 47ec c7bd 652e 74bd
00000180: 050b b03c ddd5 1a3e 603a 643c 7b22 09be
00000190: 34f5 bbba e2f6 ac3d 50dd a6bd 656e f03d
000001a0: 602e 25bd 2e85 60bc 5c34 babd 757e 13be
000001b0: 091b 763c 6a06 c4bd c4c4 b03d 04df ccbd
000001c0: 4676 8cbc 2aca 5fbb 8fbd 663d 656e c03d
000001d0: e318 0a3e 0939 b43d 96c4 1a3d f00f 0ebe
000001e0: 42f7 7e3d 535b 57bd 19bf 0fbe 177f f2bd
000001f0: aee3 06be 0624 f7bd 1a6b 273e ae7f e5bd
00000200: 986f 30be da36 cd3e 6437 66bd c55f 0e3e
00000210: bfcf 82be e598 e63e fb01 143f 31c0 113f
00000220: 51f8 bf3d d6e7 493e a7a9 c73e aaa1 053f
00000230: f6f1 623e 25ac a7bd 9867 093e b829 f13e
00000240: 407f b53e 7b1f c73e d736 10bc a37f d63e
00000250: 9d10 7cbd 0f3c c2bd 4244 3b3b 81e3 913e
00000260: df4e 843e f065 003f e2f4 803e 606a d83e
00000270: 85ca 97be 915c 563c b92f 30be 9248 523d
00000280: dc8c c23e 9d57 25bd c703 353d 8b1f 39be
00000290: f896 06be e111 de3e a98a 523d 6416 ad3e
000002a0: 8238 ee3e b182 d7bd 9628 d83b 9549 ae3e
000002b0: ea5b 463e a93b 423d 5618 adbd dfca 0abd
000002c0: 2319 a23e 67cb ec3d bf3a 353e c94f 023f
000002d0: 4d82 4ebe dfc3 8b3d b7ce cf3d bee2 63be
000002e0: 6aa8 343e b145 c23d 1651 ee3e 050e debd
000002f0: 306e 213e bfe3 c43e 4274 9bbe 1c27 85bb
00000300: a908 86be 0fa0 06be d143 0ebe 3be1 f93e
00000310: 5f8e a83e a9bd dbbc bd42 b6bd 667e 2c3d
00000320: c4ee f8bd 5c92 08be 40d0 23be c216 7dbe
00000330: 0361 323c a3f0 8cbe 33eb e83e 6377 cd3e
00000340: 5779 fe3e 661d a73e ec4f 8ebd 0e3a 4e3d
00000350: 1f37 5ebe f194 cfbd 552b 24be 8944 0d3f
00000360: 2522 013f 8e36 0e3f 3714 45be 1b10 3d3d
00000370: eb7f 38be 22d2 c03e 89e4 483e a62d 18be
00000380: c441 51be 4c64 43bc 7246 0a3f b29b 76be
00000390: 020e f73e 434f 62bc fca5 993e 6b1e e83e
000003a0: d0d5 d0bd adba df3d 9e42 00be b22e d6bc
000003b0: a623 32be 7e2c c93e c825 fb3d 7187 eb3d
000003c0: 4804 783d 189a 97bd 4baa a73c e461 b93e
000003d0: e18e 9a3d 4657 3ebd 75ad 973e dfb0 9dbc
000003e0: 9aeb 873d d776 4bbe 69d1 d43e 3052 cbbd
000003f0: 2405 fa3e 2224 31bd 87f4 74bc 3c0c 813d

net.2.bias f4 [64]
-0.01868195 0.3530749 0.013700282 0.2335919 -0.017328095 -0.017176244 -0.011763584 -0.02267425
0.0 0.0009623656 0.08265583 0.20872453 0.0017488007 0.35252547 0.29951632 0.14231999
-0.03283072 0.0005438026 0.3109907 -0.04707442 0.2572909 -0.006784263 -0.01897324 0.0
0.33045143 -0.010857285 -0.038199563 -0.0121050505 0.0 -0.005693415 -0.03165994 -0.031661
-0.04282202 0.06929908 -0.027404014 -0.0454873 0.09502263 -0.011261055 -0.02853961 0.06498514
0.0 -0.024019556 -0.031660143 -0.01915835 0.09771153 0.31649637 0.0 -0.01293404
-0.031659935 0.28888905 -0.05101337 0.3140552 0.3629898 0.0 -0.031663496 0.0312722
-0.03025142 -0.01117769 -0.030005032 0.16307926 0.12045416 0.32761982 -0.048892207 -0.012958681
00000000: e40a 99bc 3cc6 b43e 2677 603c b732 6f3e
00000010: a6f3 8dbc 32b5 8cbc 0cbc 40bc 59bf b9bc
00000020: 0000 0000 4347 7c3a 7647 a93d e2bb 553e
00000030: 0438 e53a 387e b43e 345a 993e 55bc 113e
00000040: 8179 06bd fa8d 0e3a 2c3a 9f3e 1bd1 40bd
00000050: a2bb 833e 864e debb c56d 9bbc 0000 0000
00000060: ee30 a93e c1e2 31bc 2577 1cbd 4354 46bc
00000070: 0000 0000 d48f babb daad 01bd f7ae 01bd
00000080: 2466 2fbd adec 8d3d 627e e0bc e450 3abd
00000090: 3a9b c23d 4a80 38bc e6cb e9bc ee16 853d
000000a0: 0000 0000 a9c4 c4bc 11ae 01bd f9f1 9cbc
000000b0: fc1c c83d d00b a23e 0000 0000 4ce9 53bc
000000c0: d9ad 01bd 44e9 933e 65f3 50bd d8cb a03e
000000d0: cdd9 b93e 0000 0000 95b1 01bd 4717 003d
000000e0: d3d1 f7bc a122 37bc 1dcd f5bc 40fe 263e
000000f0: acb0 f63d c9bd a73e 3243 48bd a650 54bc

net.4.weight f4 [16, 64]
-0.013170617 0.20182206 0.081330076 0.2551801 0.20087764 -0.04863157 0.043718 -0.03709054
-0.055854317 -0.068996236 0.18338619 0.2700166 -0.10965026 -0.0061747245 -0.28029713 -0.19069351
-0.20902587 -0.18118162 -0.113474175 -0.16850223 -0.07985862 -0.25095937 0.047146674 -0.03990501
-0.28279936 -0.2310292 0.0832029 0.036658 -0.2567559 -0.026400393 -0.12859327 0.19092844
0.17949912 0.060295828 0.054105338 -0.040146865 0.34658116 -0.041835528 -0.21172039 -0.09771534
0.11606097 -0.04475313 -0.09686797 -0.24651194 -0.14217791 0.2954477 -0.06202714 0.22131103
-0.23654951 0.043164752 -0.013996401 0.124246486 -0.22624797 -0.2583412 0.20933475 -0.1560084
0.23641758 0.076379225 0.035652433 0.18942815 0.27624127 -0.07738343 0.17132272 0.19251905
0.104134776 -0.27394673 0.2515708 -0.14273718 0.09309088 -0.16176459 -0.1175103 0.1279593
-0.11166864 -0.23026949 0.2094008 0.11552894 0.12426905 0.10813755 -0.040654093 -0.048990082
0.22291644 -0.0657986 -0.050739966 -0.22715381 0.087925956 -0.12430297 0.04033306 -0.0687013
-0.24955459 0.13728149 -0.2189315 0.03994383 0.16165225 0.14571382 0.09852368 -0.13427077
0.18167536 -0.1339932 -0.1319898 0.16019137 -0.064557366 -0.15011902 0.20743577 0.0129526835
0.099568196 -0.17996672 -0.18914409 -0.029548204 -0.12816674 -0.22880846 -0.15274858 -0.15369551
-0.20781633 0.07086467 0.17781839 0.19352008 0.033207703 0.12904856 0.07896 0.25599816
-0.27383184 0.22449277 0.038264927 -0.050673276 0.034097522 0.23956527 -0.038624406 0.25944456
-0.022677433 -0.20099774 -0.029778374 -0.1773725 -0.103193775 0.2018133 0.22747293 -0.018459518
-0.20110245 -0.15964213 0.1267756 0.25518176 -0.1630803 -0.27255008 0.10706319 0.14195578
-0.13885224 0.16860576 -0.015804663 0.1299556 -0.21235885 0.23941799 0.24697772 0.15591094
-0.0431047 -0.17848882 -0.06491824 0.15492217 -0.15086515 0.081118524 0.21372437 0.23772405
-0.034256812 -0.2338885 -0.045987137 -0.046501152 -0.24208263 -0.038036205 0.10182595 -0.01924515
0.23041324 -0.014951928 0.20293342 0.23116627 0.18716112 -0.20575197 0.0027814102 0.09185048
-0.06415532 0.10413111 -0.03430294 0.18251558 0.13666631 0.22937064 -0.24588105 -0.24176082
-0.23527649 -0.13291158 -0.16196291 0.14669557 -0.022415059 -0.032673474 0.1522757 -0.23576058
0.24877124 0.48568204 -0.16453317 0.034194138 -0.15980934 -0.026020845 0.029758891 -0.25999257
-0.04976621 -0.1410659 -0.028348232 0.03578218 -0.18462342 0.5541355 0.4152692 0.108234875
-0.20922834 -0.28131524 0.4738575 0.08408419 -0.1422212 -0.06861376 0.25773054 0.17448215
0.39665228 0.2280779 -0.19143824 0.07236179 0.27134997 -0.12995681 0.17481673 -0.03271626
-0.09987312 -0.25293672 -0.26237753 -0.22075787 0.2697789 -0.22065865 -0.092386864 -0.20507702
-0.03838563 0.11449297 -0.21852033 -0.022682887 0.15238865 0.57638013 -0.015250598 -0.05293005
-0.21076821 0.4258262 -0.28964967 0.45568964 0.54295605 -0.022279195 -0.16435811 0.004615205
-0.13500449 -0.26657936 -0.09302637 -0.004607389 0.12950167 0.3950886 -0.14172153 -0.18038763
00000000: 92c9 57bc 71aa 4e3e 6290 a63d f7a6 823e
00000010: deb2 4d3e e631 47bd a511 333d 40ec 17bd
00000020: 7fc7 64bd e64d 8dbd 97c9 3b3e 9e3f 8a3e
00000030: 5190 e0bd 5855 cabb 1b83 8fbe 2945 43be
00000040: e10a 56be ad87 39be 2665 e8bd d98b 2cbe
00000050: eb8c a3bd bf7d 80be df1c 413d 7073 23bd
00000060: 14cb 90be eb92 6cbe 4866 aa3d b326 163d
00000070: 8275 83be a345 d8bc f4ad 03be bf82 433e
00000080: 9ece 373e c2f8 763d 8f9d 5d3d 0a71 24bd
00000090: 1673 b13e bb5b 2bbd 3bcd 58be fb1e c8bd
000000a0: 60b1 ed3d 0f4f 37bd b762 c6bd a06d 7cbe
000000b0: 1697 11be ec44 973e 2c10 7ebd 5c9f 623e
000000c0: 093a 72be 86cd 303d 2951 65bc f174 fe3d
000000d0: 8cad 67be 4c45 84be d95b 563e aac0 1fbe
000000e0: 7317 723e b66c 9c3d 4908 123d 74f9 413e
000000f0: 7f6f 8d3e 347b 9ebd 396f 2f3e b723 453e
00000100: 9d44 d53d bf42 8cbe e3cd 803e b229 12be
00000110: 6ea6 be3d 9ea5 25be 3da9 f0bd c307 033e
00000120: 87b2 e4bd c4cb 6bbe 2a6d 563e 709a ec3d
00000130: c680 fe3d 3877 dd3d e884 26bd d3a9 48bd
00000140: 3544 643e 6bc1 86bd b6d4 4fbd 029b 68be
00000150: 8612 b43d 8e92 febd 4734 253d 44b3 8cbd
00000160: 3d8b 7fbe 8593 0c3e 942f 60be 249c 233d
00000170: 2b88 253e 0136 153e c8c6 c93d 477e 09be
00000180: 1b09 3a3e 8335 09be 5628 07be 3509 243e
00000190: a736 84bd cdb8 19be 0b6a 543e 7e37 543c
000001a0: 69ea cb3d 3249 38be fdae 41be 130f f2bc
000001b0: 243e 03be c44c 6abe 206a 1cbe 5b62 1dbe
000001c0: cecd 54be 7f21 913d 0616 363e 212a 463e
000001d0: cd04 083d 4e25 043e c8b5 a13d 3112 833e
000001e0: b033 8cbe 6fe1 653e afbb 1c3d c88e 4fbd
000001f0: d8a9 0b3d 9950 753e a034 1ebd ebd5 843e
00000200: 06c6 b9bc 5ad2 4dbe c7f1 f3bc 23a1 35be
00000210: 4257 d3bd 25a8 4e3e aaee 683e 6a38 97bc
00000220: cded 4dbe 3a79 23be 76d1 013e 2fa7 823e
00000230: 86fe 26be af8b 8bbe f243 db3d db5c 113e
00000240: 482f 0ebe fda6 2c3e c878 81bc 1513 053e
00000250: 9974 59be fd29 753e bae7 7c3e 1ea7 1f3e
00000260: 8e8e 30bd c6c5 36be dbf3 84bd eba3 1e3e
00000270: 657c 1abe 7821 a63d 90da 5a3e ef6d 733e
00000280: df50 0cbd 7880 6fbe 025d 3cbd fe77 3ebd
00000290: 82e4 77be dacb 1bbd 208a d03d 01a8 9dbc
000002a0: 73f1 6b3e eef8 74bc c7cd 4f3e dab6 6c3e
000002b0: 2aa7 3f3e a5b0 52be 5248 363b 1b1c bc3d
000002c0: dd63 83bd b142 d53d 3d81 0cbd 5de5 3a3e
000002d0: 41f2 0b3e 23e0 6a3e 3ec8 7bbe 2690 77be
000002e0: 52ec 70be f919 08be 9bd9 25be 5d37 163e
000002f0: c99f b7bc 9fd4 05bd 29ee 1b3e 396b 71be
00000300: e3bd 7e3e 51ab f83e 627b 28be 270f 0c3d
00000310: 0fa5 23be ab29 d5bc ebc8 f33c bf1d 85be
00000320: a7d7 4bbd 9473 10be 8d3a e8bc 5690 123d
00000330: ec0d 3dbe d3db 0d3f 2a9e d43e 3faa dd3d
00000340: f43f 56be 8d08 90be 739d f23e 5534 ac3d
00000350: 6fa2 11be 5f85 8cbd 42f5 833e 73ab 323e
00000360: 0216 cb3e 418d 693e 6308 44be 6b32 943d
00000370: 62ee 8a3e 6613 05be 2803 333e 7c01 06bd
00000380: 478a ccbd ec80 81be 5956 86be 5a0e 62be
00000390: 7620 8a3e 57f4 61be 5335 bdbd b6ff 51be
000003a0: 403a 1dbd 4a7b ea3d cbc3 5fbe 76d1 b9bc
000003b0: c50b 1c3e a68d 133f a5dd 79bc 2ecd 58bd
000003c0: 9fd3 57be e405 da3e f64c 94be 2750 e93e
000003d0: 2bff 0a3f dc82 b6bc 7e4d 28be 253b 973b
000003e0: 9e3e 0abe 177d 88be 9c84 bebd 95f9 96bb
000003f0: 169c 043e 0e49 ca3e 731f 11be 89b7 38be

net.4.bias f4 [16]
-0.14954048 -0.028367905 -0.06044223 0.13652061 -0.033824556 -0.039511103 -0.04209278 0.30498067
-0.08159662 0.14884633 -0.06971513 0.13618386 -0.031662673 0.16446449 -0.020692041 -0.033120077
00000000: 2421 19be cf63 e8bc 4692 77bd 0fcc 0b3e
00000010: 9e8b 0abd 65d6 21bd 7b69 2cbd 6d26 9c3e
00000020: 211c a7bd 2c6b 183e cec6 8ebd c873 0b3e
00000030: b8b0 01bd 6169 283e 5b82 a9bc eba8 07bd

net.6.weight f4 [1, 16]
-0.09486638 -0.5825885 -0.35273188 0.5330354 -0.38480857 -0.13949537 -0.048095316 0.33488238
-0.01844039 0.07580629 -0.090288125 0.45843312 -0.48300806 0.05966053 -0.5046214 -0.27256218
00000000: 4e49 c2bd 8524 15bf 4699 b4be 0275 083f
00000010: a105 c5be e0d7 0ebe 98ff 44bd b475 ab3e
00000020: 4d10 97bc 5440 9b3d fbe8 b8bd bfb7 ea3e
00000030: d54c f7be 9a5e 743d de2e 01bf 458d 8bbe

exp_avg f4 [128, 48]
6e-45 6e-45 6e-45 6e-45 6e-45 6e-45 6e-45 -6e-45
6e-45 6e-45 6e-45 6e-45 -6e-45 -6e-45 6e-45 -6e-45
6e-45 6e-45 6e-45 6e-45 -6e-45 6e-45 -6e-45 6e-45
6e-45 6e-45 6e-45 6e-45 6e-45 6e-45 6e-45 6e-45
-6e-45 -6e-45 6e-45 -6e-45 -6e-45 -6e-45 6e-45 6e-45
6e-45 6e-45 6e-45 -6e-45 6e-45 6e-45 6e-45 -6e-45
-0.006910297 -0.009003818 0.0030355966 -0.003179208 -0.0072280117 -0.0047095115 -0.011282456 -2.0996185e-06
-0.43983755 -0.44558787 -0.21329446 -0.07917987 -0.42586863 -0.40470913 -0.5129798 6e-45
-0.00019222898 -0.00032142617 6.91317e-05 -8.925006e-05 -0.00014235091 -9.1425536e-05 -0.00031092681 -6.01795e-06
-5.4463544e-06 -1.3780452e-05 -5.0925257e-05 -5.0925257e-05 -0.024723023 -6.4157386e-05 -0.00033647488 -0.00074607634
-3.637109e-05 -0.0009537815 0.0017899536 -5.1193447e-06 -0.00046428354 -0.00043640382 2.4909104e-06 1.397197e-05
0.00011600451 4.3951797e-05 0.00029893796 0.011763718 -9.487706e-05 -2.865882e-05 -0.0004763761 3.763146e-06
-6e-45 -6e-45 6e-45 -6e-45 6e-45 6e-45 -6e-45 -6e-45
-6e-45 -6e-45 6e-45 -6e-45 6e-45 -6e-45 -6e-45 -6e-45
-6e-45 -6e-45 6e-45 -6e-45 6e-45 6e-45 -6e-45 -6e-45
-6e-45 -6e-45 -6e-45 -6e-45 -6e-45 -6e-45 -6e-45 -6e-45
-6e-45 -6e-45 -6e-45 -6e-45 -6e-45 -6e-45 -6e-45 -6e-45
-6e-45 -6e-45 -6e-45 -6e-45 -6e-45 -6e-45 -6e-45 6e-45
6e-45 6e-45 0.0 6e-45 0.0 0.0 6e-45 6e-45
6e-45 6e-45 0.0 6e-45 0.0 0.0 6e-45 6e-45
6e-45 6e-45 0.0 6e-45 0.0 0.0 6e-45 6e-45
6e-45 6e-45 6e-45 6e-45 6e-45 6e-45 6e-45 6e-45
6e-45 6e-45 6e-45 6e-45 6e-45 6e-45 6e-45 6e-45
6e-45 6e-45 6e-45 6e-45 0.0 6e-45 6e-45 -6e-45
6e-45 6e-45 6e-45 6e-45 6e-45 6e-45 6e-45 -6e-45
6e-45 6e-45 6e-45 6e-45 -6e-45 -6e-45 6e-45 -6e-45
6e-45 6e-45 6e-45 6e-45 -6e-45 6e-45 -6e-45 6e-45
6e-45 6e-45 6e-45 6e-45 6e-45 6e-45 6e-45 6e-45
-6e-45 -6e-45 6e-45 -6e-45 -6e-45 -6e-45 6e-45 6e-45
6e-45 6e-45 6e-45 -6e-45 -6e-45 6e-45 6e-45 -6e-45
6e-45 6e-45 -6e-45 6e-45 -6e-45 -6e-45 6e-45 -6e-45
6e-45 6e-45 -6e-45 6e-45 -6e-45 -6e-45 6e-45 -6e-45
00000000: 0400 0000 0400 0000 0400 0000 0400 0000
00000010: 0400 0000 0400 0000 0400 0000 0400 0080
00000020: 0400 0000 0400 0000 0400 0000 0400 0000
00000030: 0400 0080 0400 0080 0400 0000 0400 0080
00000040: 0400 0000 0400 0000 0400 0000 0400 0000
00000050: 0400 0080 0400 0000 0400 0080 0400 0000
00000060: 0400 0000 0400 0000 0400 0000 0400 0000
00000070: 0400 0000 0400 0000 0400 0000 0400 0000
00000080: 0400 0080 0400 0080 0400 0000 0400 0080
00000090: 0400 0080 0400 0080 0400 0000 0400 0000
000000a0: 0400 0000 0400 0000 0400 0000 0400 0080
000000b0: 0400 0000 0400 0000 0400 0000 0400 0080
000000c0: c66f e2bb c084 13bc dcf0 463b 425a 50bb
000000d0: f5d8 ecbb 3f52 9abb 0dda 38bc 2ce7 0cb6
000000e0: 6332 e1be 1824 e4be dd69 5abe 0e29 a2bd
000000f0: 740b dabe 0936 cfbe a552 03bf 0400 0000
00000100: 1391 49b9 1785 a8b9 ccfa 9038 c32b bbb8
00000110: 0844 15b9 b6bb bfb8 e403 a3b9 cced c9b6
00000120: d4bf b6b6 9732 67b7 9498 55b8 9498 55b8
00000130: f087 cabc 3c8c 86b8 e568 b0b9 5694 43ba
00000140: 298d 18b8 3107 7aba e09c ea3a d6c6 abb6
00000150: 156b f3b9 21cd e4b9 8429 2736 2769 6a37
00000160: 7247 f338 e258 3838 c6ba 9c39 9cbc 403c
00000170: bcf8 c6b8 5968 f0b7 1ec2 f9b9 5b8a 7c36
00000180: 0400 0080 0400 0080 0400 0000 0400 0080
00000190: 0400 0000 0400 0000 0400 0080 0400 0080
000001a0: 0400 0080 0400 0080 0400 0000 0400 0080
000001b0: 0400 0000 0400 0080 0400 0080 0400 0080
000001c0: 0400 0080 0400 0080 0400 0000 0400 0080
000001d0: 0400 0000 0400 0000 0400 0080 0400 0080
000001e0: 0400 0080 0400 0080 0400 0080 0400 0080
000001f0: 0400 0080 0400 0080 0400 0080 0400 0080
00000200: 0400 0080 0400 0080 0400 0080 0400 0080
00000210: 0400 0080 0400 0080 0400 0080 0400 0080
00000220: 0400 0080 0400 0080 0400 0080 0400 0080
00000230: 0400 0080 0400 0080 0400 0080 0400 0000
00000240: 0400 0000 0400 0000 0000 0000 0400 0000
00000250: 0000 0000 0000 0000 0400 0000 0400 0000
00000260: 0400 0000 0400 0000 0000 0000 0400 0000
00000270: 0000 0000 0000 0000 0400 0000 0400 0000
00000280: 0400 0000 0400 0000 0000 0000 0400 0000
00000290: 0000 0000 0000 0000 0400 0000 0400 0000
000002a0: 0400 0000 0400 0000 0400 0000 0400 0000
000002b0: 0400 0000 0400 0000 0400 0000 0400 0000
000002c0: 0400 0000 0400 0000 0400 0000 0400 0000
000002d0: 0400 0000 0400 0000 0400 0000 0400 0000
000002e0: 0400 0000 0400 0000 0400 0000 0400 0000
000002f0: 0000 0000 0400 0000 0400 0000 0400 0080
00000300: 0400 0000 0400 0000 0400 0000 0400 0000
00000310: 0400 0000 0400 0000 0400 0000 0400 0080
00000320: 0400 0000 0400 0000 0400 0000 0400 0000
00000330: 0400 0080 0400 0080 0400 0000 0400 0080
00000340: 0400 0000 0400 0000 0400 0000 0400 0000
00000350: 0400 0080 0400 0000 0400 0080 0400 0000
00000360: 0400 0000 0400 0000 0400 0000 0400 0000
00000370: 0400 0000 0400 0000 0400 0000 0400 0000
00000380: 0400 0080 0400 0080 0400 0000 0400 0080
00000390: 0400 0080 0400 0080 0400 0000 0400 0000
000003a0: 0400 0000 0400 0000 0400 0000 0400 0080
000003b0: 0400 0080 0400 0000 0400 0000 0400 0080
000003c0: 0400 0000 0400 0000 0400 0080 0400 0000
000003d0: 0400 0080 0400 0080 0400 0000 0400 0080
000003e0: 0400 0000 0400 0000 0400 0080 0400 0000
000003f0: 0400 0080 0400 0080 0400 0000 0400 0080

exp_avg_sq f4 [128, 48]
10.07094 30.091957 1.5300114 1.2880086 10.029426 5.2822485 16.084316 6.997356e-05
27588.197 52016.69 8989.184 1464.5316 30247.266 20963.898 35914.203 6.3790605e-05
0.0067178626 0.019662129 0.0020043103 0.00078455656 0.0063048466 0.004052092 0.009657512 2.454636e-06
2.8090276e-06 3.007219e-05 0.00028651743 0.00056852185 42.855038 4.7148176e-05 0.008462632 0.060076207
0.00019920077 0.05830851 2.3168232 3.5248824e-05 0.032323025 2.87796 2.2122164e-09 2.483942e-08
4.413911e-06 0.00034035507 0.00034038656 648.6497 3.7589685e-05 1.8578785e-05 0.006219221 1.0951899e-06
2.8601403 8.3594 0.40691087 0.37241212 2.8345284 1.4966727 4.5853667 0.005315673
7830.642 13857.246 2707.37 366.07758 8514.957 6273.207 9886.036 0.0053100353
0.0018560819 0.0054407413 0.00044528715 0.00024432113 0.001744172 0.0010871714 0.0027289358 8.310842e-07
9.784217e-07 9.417403e-06 7.812172e-05 0.00015521918 10.8879385 1.3946828e-05 0.0023763115 0.016077995
5.846104e-05 0.01267726 0.36125228 9.449253e-06 0.009146105 0.21905197 5.619543e-09 1.866748e-07
1.0059265e-05 4.6320187e-05 0.000109670334 85.09805 0.0053489157 5.391894e-06 0.0013851384 3.1860665e-07
0.0015807034 0.22340897 3.2957994e-09 0.0077855336 3.5765275e-08 1.899108e-08 0.0028318663 3.089209e-06
8.899423 413.47614 3.423477e-05 29.49628 0.16203944 0.07502144 25.287987 2.9004893e-06
9.2752225e-07 0.00014420663 3.750223e-12 4.5681873e-06 2.330954e-11 1.1830369e-11 1.6899751e-06 6.2390704e-10
6.50389e-10 3.903245e-08 1.0230788e-07 1.5287254e-05 0.22539161 2.8894004e-08 1.7844959e-06 7.778086e-05
1.6789799e-06 0.0007223898 0.15278882 1.3630689e-06 0.00071863283 0.1350142 7.1041064e-12 9.4117346e-11
6.169376e-08 2.7504216e-06 2.769837e-06 47.22756 1.2133564e-06 6.893552e-09 3.221958e-05 6.227868e-10
1.9883885e-06 0.00010225185 0.0 6.7328583e-06 0.0 0.0 4.2657657e-06 6.280224e-10
0.010880601 0.19375372 0.0 0.023772417 0.0 0.0 0.06046323 5.520062e-10
1.1893566e-09 6.953545e-08 0.0 3.9784624e-09 0.0 0.0 2.6552276e-09 9.812956e-13
1.0233212e-12 3.7360382e-11 1.274382e-10 5.3229368e-09 0.0001022125 2.7186071e-11 2.848307e-09 8.381327e-08
4.21278e-10 5.581023e-07 4.076853e-06 2.7971098e-10 5.12611e-07 2.8880322e-06 6.0607143e-15 6.3227e-14
2.1664018e-11 1.3307342e-09 1.3307342e-09 0.0042616786 0.0 1.1476089e-11 4.7294986e-08 3.4361896e-13
0.16622904 6.1389136 0.013530767 0.21668223 0.09876595 0.054119617 0.29305276 3.942307e-05
728.41797 11277.012 112.7616 831.86487 470.4729 270.6182 1516.5483 2.9595583e-05
0.000101761914 0.0037670396 1.1123579e-05 0.0001311034 5.884963e-05 3.157255e-05 0.00018132899 5.2000168e-08
5.7956058e-08 1.5842444e-06 8.3890145e-06 0.00032995493 7.467751 1.938638e-06 0.00013344741 0.0023817886
5.036639e-05 0.020193478 2.934808 3.2423e-05 0.011764046 4.049172 4.6259618e-10 6.5379533e-09
2.3712223e-06 7.292298e-05 7.292581e-05 797.94525 1.8401002e-09 4.4410058e-07 0.0013001987 3.98087e-08
0.04665109 7.563391 0.0008978114 0.20906666 0.010821142 0.0061248587 0.052395318 0.019930433
250.5374 14044.47 6.245816 853.93524 51.9413 39.40487 391.6657 0.019920358
00000000: 9222 2141 54bc f041 6ad7 c33f 77dd a43f
00000010: 8778 2041 2e08 a940 aeac 8041 c5be 9238
00000020: 6588 d746 b130 4b47 bc74 0c46 0311 b744
00000030: 884e ec46 ccc7 a346 344a 0c47 52c7 8538
00000040: 8421 dc3b 7912 a13c bf5a 033b b3aa 4d3a
00000050: e398 ce3b 69c7 843b 8b3a 1e3c 53ba 2436
00000060: ba82 3c36 8943 fc37 b837 9639 db08 153a
00000070: 8f6b 2b42 f8c0 4538 daa6 0a3c 7812 763d
00000080: 8de0 5039 e7d4 6e3d d546 1440 23d8 1338
00000090: 2665 043d 7f30 3840 b905 1831 765e d532
000000a0: 351b 9436 af71 b239 e975 b239 9529 2244
000000b0: 9ea9 1d38 a3d9 9b37 9bca cb3b 70fe 9235
000000c0: 8a0c 3740 1ac0 0541 9f56 d03e cdac be3e
000000d0: ea68 3540 f992 bf3f 53bb 9240 192f ae3b
000000e0: 23b5 f445 fc84 5846 ec35 2945 ee09 b743
000000f0: d40b 0546 a809 c445 2578 1a46 ceff ad3b
00000100: c647 f33a 3f48 b23b 6e75 e939 3a18 8039
00000110: b39c e43a 6b7f 8e3a f2d7 323b ac17 5f35
00000120: 5052 8335 70ff 1d37 47d5 a338 55c2 2239
00000130: ff34 2e41 2cfd 6937 e4bb 1b3b 00b6 833c
00000140: 1034 7538 48b4 4f3c 0ff6 b83e 3c88 1e37
00000150: 8bd9 153c 294f 603e 0616 c131 c770 4834
00000160: 37c4 2837 ec47 4238 d0fe e538 3432 aa42
00000170: f545 af3b 04ec b436 888d b53a f70c ab34
00000180: 9b2f cf3a 52c5 643e 517c 6231 ca1d ff3b
00000190: 569c 1933 d421 a332 d596 393b 3550 4f36
000001a0: 0964 0e41 f2bc ce43 4e97 0f38 62f8 eb41
000001b0: abed 253e d7a4 993d cc4d ca41 07a6 4236
000001c0: d8fa 7835 2c36 1739 01f3 832c 6e48 9936
000001d0: 6b08 cd2d 3f1f 502d 1ad3 e235 8e7f 2b30
000001e0: 0fc7 3230 a2a4 2733 5ab4 db33 213d 8037
000001f0: 0fcd 663e 9632 f832 d082 ef35 481e a338
00000200: 4f59 e135 c25e 3d3a ac74 1c3e b1f2 b635
00000210: a262 3c3a 2a41 0a3e 1af4 f92c 5bf7 ce2e
00000220: 817c 8433 e293 3836 70e1 3936 05e9 3c42
00000230: 9cda a235 53dc ec31 8323 0738 ba30 2b30
00000240: 4170 0536 0b70 d638 0000 0000 d0ea e136
00000250: 0000 0000 0000 0000 a622 8f36 26a1 2c30
00000260: 8c44 323c 6067 463e 0000 0000 5fbe c23c
00000270: 0000 0000 0000 0000 4ba8 773d fcbb 1730
00000280: c476 a330 8553 9533 0000 0000 edb2 8831
00000290: 0000 0000 0000 0000 4277 3631 e61a 8a2b
000002a0: 0805 902b 0d50 242e aa1e 0c2f 0ce5 b631
000002b0: eb5a d638 9721 ef2d f2bb 4331 d5fc b333
000002c0: 9c99 e72f 7fd0 1535 e7cb 8836 d2c5 992f
000002d0: 5c9a 0935 04d0 4136 395c da27 e25f 8e29
000002e0: 088f be2d 0ce5 b630 0ce5 b630 8da5 8b3b
000002f0: 0000 0000 b6e3 492d 6321 4b33 b670 c12a
00000300: f237 2a3e fb71 c440 26b0 5d3c f2e1 5d3e
00000310: cd45 ca3d 88ac 5d3d 030b 963e 335a 2538
00000320: c01a 3644 0c34 3046 f085 e142 5af7 4f44
00000330: 883c eb43 214f 8743 8c91 bd44 0844 f837
00000340: 0369 d538 70e0 763b 689f 3a37 cd78 0939
00000350: 4fd5 7638 c46c 0438 2123 3e39 ca56 5f33
00000360: 5ceb 7833 39a2 d435 8bbe 0c37 cdfd ac39
00000370: d1f7 ee40 8c19 0236 04ee 0b39 c817 1c3b
00000380: 8040 5338 cb6c a53c e5d3 3b40 eefd 0738
00000390: fcbd 403c d192 8140 a050 fe2f 72a4 e031
000003a0: 4a21 1f36 3aee 9838 bfef 9838 7f7c 4744
000003b0: c5e6 fc30 b86c ee34 6e6b aa3a 21fa 2a33
000003c0: 3715 3f3d 4d07 f240 1a5b 6b3a 9215 563e
000003d0: 294b 313c 0ab3 c83b 799c 563d 2645 a33c
000003e0: 9389 7a43 e171 5b46 badd c740 db7b 5544
000003f0: e4c3 4f42 969e 1d42 36d5 c343 0530 a33c

exp_avg f4 [128]
6e-45 -5.092527e-05 -6e-45 6e-45 6e-45 6e-45 6e-45 6e-45
0.0 6e-45 0.0005484037 6e-45 6e-45 0.0 6e-45 -8.393864e-07
7.749219e-05 6e-45 0.0 6e-45 -0.00011841598 0.0 -0.0001907407 -6e-45
6e-45 6e-45 0.00018528105 6e-45 0.0002743463 0.00010323488 -3.5476347e-05 6e-45
6e-45 6e-45 2e-44 0.0003201565 6e-45 6e-45 0.0 -4.9760052e-05
6e-45 0.0 6e-45 6e-45 6e-45 6e-45 -0.00016944887 -6e-45
6e-45 6e-45 6e-45 6e-45 0.00014818629 -0.00031136614 4.5477373e-05 6e-45
0.0 6e-45 6e-45 -2.147415e-05 6e-45 6e-45 1.526005e-05 -6.7121095e-05
2.9799183e-05 0.0 0.0 6e-45 6e-45 6e-45 0.0 -6e-45
-5.4786346e-05 -5.8854344e-05 0.0 6e-45 -3.6843645e-05 -6.1584185e-05 6e-45 -6e-45
6e-45 -6e-45 6e-45 -0.00016022206 0.00016853583 0.00018833025 0.00010234985 6e-45
6e-45 6e-45 -0.00027177137 -6e-45 -0.00019157486 6e-45 6e-45 -6e-45
-6e-45 0.00034620758 6e-45 -0.00040617623 6e-45 -0.00014193535 -6.420265e-05 6e-45
0.0 6e-45 6e-45 6e-45 0.0 6e-45 0.0 5.643053e-17
-6e-45 -6e-45 6e-45 6e-45 -6e-45 6e-45 6e-45 -2.2277434e-05
6e-45 0.0002545147 6e-45 0.00028389468 6e-45 0.0001876214 0.0 6e-45
00000000: 0400 0000 9898 55b8 0400 0080 0400 0000
00000010: 0400 0000 0400 0000 0400 0000 0400 0000
00000020: 0000 0000 0400 0000 c0c2 0f3a 0400 0000
00000030: 0400 0000 0000 0000 0400 0000 3252 61b5
00000040: 4d83 a238 0400 0000 0000 0000 0400 0000
00000050: 1856 f8b8 0000 0000 9101 48b9 0400 0080
00000060: 0400 0000 0400 0000 0148 4239 0400 0000
00000070: 23d6 8f39 ce7f d838 70cc 14b8 0400 0000
00000080: 0400 0000 0400 0000 0e00 0000 aeda a739
00000090: 0400 0000 0400 0000 0000 0000 73b5 50b8
000000a0: 0400 0000 0000 0000 0400 0000 0400 0000
000000b0: 0400 0000 0400 0000 16ae 31b9 0400 0080
000000c0: 0400 0000 0400 0000 0400 0000 0400 0000
000000d0: 7462 1b39 db3e a3b9 f5be 3e38 0400 0000
000000e0: 0000 0000 0400 0000 0400 0000 6323 b4b7
000000f0: 0400 0000 0400 0000 b502 8037 5dc3 8cb8
00000100: 42f9 f937 0000 0000 0000 0000 0400 0000
00000110: 0400 0000 0400 0000 0000 0000 0400 0080
00000120: 64ca 65b8 5fda 76b8 0000 0000 0400 0000
00000130: 9088 1ab8 c226 81b8 0400 0000 0400 0080
00000140: 0400 0000 0400 0080 0400 0000 4801 28b9
00000150: feb8 3039 847a 4539 a8a4 d638 0400 0000
00000160: 0400 0000 0400 0000 897c 8eb9 0400 0080
00000170: 7ce1 48b9 0400 0000 0400 0000 0400 0080
00000180: 0400 0080 3283 b539 0400 0000 0df4 d4b9
00000190: 0400 0000 7bd4 14b9 89a4 86b8 0400 0000
000001a0: 0000 0000 0400 0000 0400 0000 0400 0000
000001b0: 0000 0000 0400 0000 0000 0000 b51e 8224
000001c0: 0400 0080 0400 0080 0400 0000 0400 0000
000001d0: 0400 0080 0400 0000 0400 0000 6de0 bab7
000001e0: 0400 0000 6370 8539 0400 0000 b3d7 9439
000001f0: 0400 0000 3cbc 4439 0000 0000 0400 0000

exp_avg_sq f4 [128]
0.0003842391 0.0054015834 3.965897e-06 1.3307342e-09 7.292581e-05 0.01995623 0.026142156 0.02126151
0.0 0.0063488125 0.0057845186 0.008048489 0.007835478 0.0 1.2781658e-06 0.008195001
0.003215146 0.018373456 0.0 0.025979416 0.00018707808 0.0 0.0009098415 0.0030149322
0.00761839 0.015237088 0.0009981215 0.017481389 0.0012245884 0.0014452812 0.00011654092 5.0867116e-06
0.0047325445 2.0718886e-05 6.158786e-05 0.0017456347 1.751922e-08 0.016858624 0.0 0.0042637447
0.019269088 0.0 6.265706e-07 0.018702665 1.9652578e-05 1.26550785e-05 0.0012783271 6.870052e-06
0.017969228 0.0074882344 0.0007536777 0.013537465 0.0003895574 0.0016298792 0.00026677988 5.940954e-05
0.0 3.6542779e-06 0.016255094 0.00014331727 4.9765673e-05 0.01866928 0.00048264777 0.00058427703
0.00015771869 0.0 0.0 0.022568762 0.020135507 0.00024406421 0.0 3.1218922e-05
0.0005012202 0.00016459427 0.0 8.569549e-07 0.0010780237 0.00022102741 0.023512144 0.0019215762
0.0152320005 0.0031084423 1.1636932e-06 0.00048240778 0.00060673413 0.0007926325 0.00014466059 0.01643167
0.011349839 0.013642153 0.0013640367 5.403392e-05 0.0012860631 0.016657807 0.00031734526 8.482821e-05
0.00010215298 0.0019819054 0.019884605 0.002704552 0.011918585 0.0009037133 0.0050382353 0.012408494
0.0 1.5733e-05 3.4369152e-06 4.019576e-05 0.0 0.007291244 0.0 0.0003739112
0.000195474 6.1324296e-05 0.0005442022 0.0019865348 0.005623058 7.03535e-05 0.021134706 0.0005348643
1.9583766e-05 0.0016160697 0.020178445 0.0016854764 0.020549932 0.0012805357 0.0 2.1261062e-07
00000000: b373 c939 c4ff b03b cc12 8536 0ce5 b630
00000010: bfef 9838 3f7b a33c 1328 d63c 9e2c ae3c
00000020: 0000 0000 b309 d03b 0f8c bd3b cfdd 033c
00000030: 6060 003c 0000 0000 718d ab35 5344 063c
00000040: 33b5 523b ee83 963c 0000 0000 c9d2 d43c
00000050: 642a 4439 0000 0000 6e82 6e3a 2b96 453b
00000060: b0a3 f93b fba4 793c 66d3 823a 2135 8f3c
00000070: 5e82 a03a 976f bd3a 6e67 f438 85ae aa36
00000080: 7613 9b3b 78cd ad37 bb28 8138 c8cd e43a
00000090: 2c7d 9632 191b 8a3c 0000 0000 e2b6 8b3b
000000a0: 35da 9d3c 0000 0000 9b31 2835 5536 993c
000000b0: 97db a437 2651 5437 8a8d a73a 4c85 e636
000000c0: 3434 933c dd5f f53b 7492 453a 3ecc 5d3c
000000d0: 823d cc39 aca1 d53a 97de 8b39 822e 7938
000000e0: 0000 0000 043c 7536 6729 853c 7047 1639
000000f0: 7cbb 5038 51f0 983c e30b fd39 2b2a 193a
00000100: 4a61 2539 0000 0000 0000 0000 20e2 b83c
00000110: 38f3 a43c 7deb 7f39 0000 0000 10f1 0238
00000120: 5164 033a f096 2c39 0000 0000 7e09 6635
00000130: 794c 8d3a 98c3 6739 8a9c c03c 66dd fb3a
00000140: a48f 793c 02b7 4b3b 3230 9c35 adeb fc39
00000150: 3d0d 1f3a abc8 4f3a 08b0 1739 b69b 863c
00000160: adf4 393c 5683 5f3c 7ac9 b23a 7ba2 6238
00000170: 1e91 a83a f475 883c 5c61 a639 cce5 b138
00000180: f73a d638 dbe2 013b 0ae5 a23c da3e 313b
00000190: 2b46 433c 2ce7 6c3a c817 a53b ff4c 4b3c
000001a0: 0000 0000 5cfa 8337 c1a5 6636 de97 2838
000001b0: 0000 0000 63eb ee3b 0000 0000 8309 c439
000001c0: 27f8 4c39 3b9b 8038 cba8 0e3a 8630 023b
000001d0: a141 b83b bf8a 9338 b122 ad3c 2336 0c3a
000001e0: d147 a437 4dd2 d33a 444d a53c 34eb dc3a
000001f0: 5558 a83c a6d7 a73a 0000 0000 f649 6434

exp_avg f4 [64, 128]
6e-45 6e-45 6e-45 6e-45 6e-45 6e-45 0.0 0.0
0.0 6e-45 0.0 6e-45 6e-45 0.0 6e-45 0.0
6e-45 0.0 0.0 0.0 6e-45 0.0 6e-45 6e-45
0.0 0.0 6e-45 0.0 6e-45 6e-45 6e-45 6e-45
0.0 0.0 0.0 6e-45 6e-45 0.0 0.0 0.0
0.0 0.0 6e-45 0.0 0.0 6e-45 6e-45 6e-45
0.0 6e-45 6e-45 6e-45 6e-45 6e-45 0.0 6e-45
0.0 6e-45 0.0 6e-45 0.0 0.0 6e-45 6e-45
6e-45 0.0 0.0 0.0 0.0 -6e-45 0.0 6e-45
6e-45 6e-45 0.0 6e-45 6e-45 6e-45 0.0 6e-45
6e-45 6e-45 6e-45 6e-45 6e-45 6e-45 6e-45 0.0
6e-45 0.0 6e-45 6e-45 6e-45 6e-45 6e-45 6e-45
6e-45 0.0 0.0 6e-45 0.0 0.0 0.0 6e-45
0.0 6e-45 6e-45 0.0 0.0 6e-45 0.0 0.0
6e-45 6e-45 6e-45 0.0 6e-45 6e-45 0.0 0.0
0.0 6e-45 0.0 6e-45 0.0 6e-45 0.0 -6e-45
6e-45 6e-45 6e-45 0.0 6e-45 6e-45 6e-45 6e-45
0.0 6e-45 6e-45 6e-45 6e-45 0.0 6e-45 6e-45
6e-45 6e-45 0.0 6e-45 6e-45 0.0 6e-45 6e-45
6e-45 6e-45 6e-45 6e-45 6e-45 6e-45 6e-45 0.0
6e-45 6e-45 6e-45 6e-45 0.0 6e-45 0.0 6e-45
6e-45 0.0 0.0 6e-45 -6e-45 0.0 6e-45 6e-45
6e-45 6e-45 6e-45 6e-45 6e-45 6e-45 6e-45 6e-45
0.0 0.0 6e-45 6e-45 0.0 6e-45 6e-45 6e-45
6e-45 0.0 0.0 6e-45 6e-45 6e-45 0.0 6e-45
6e-45 6e-45 0.0 6e-45 6e-45 6e-45 6e-45 6e-45
6e-45 6e-45 6e-45 6e-45 6e-45 6e-45 0.0 6e-45
6e-45 6e-45 6e-45 6e-45 6e-45 6e-45 6e-45 6e-45
6e-45 6e-45 6e-45 6e-45 6e-45 6e-45 6e-45 6e-45
0.0 0.0 6e-45 -6e-45 0.0 6e-45 0.0 6e-45
6e-45 6e-45 6e-45 6e-45 6e-45 6e-45 6e-45 6e-45
6e-45 6e-45 6e-45 6e-45 6e-45 6e-45 0.0 6e-45
00000000: 0400 0000 0400 0000 0400 0000 0400 0000
00000010: 0400 0000 0400 0000 0000 0000 0000 0000
00000020: 0000 0000 0400 0000 0000 0000 0400 0000
00000030: 0400 0000 0000 0000 0400 0000 0000 0000
00000040: 0400 0000 0000 0000 0000 0000 0000 0000
00000050: 0400 0000 0000 0000 0400 0000 0400 0000
00000060: 0000 0000 0000 0000 0400 0000 0000 0000
00000070: 0400 0000 0400 0000 0400 0000 0400 0000
00000080: 0000 0000 0000 0000 0000 0000 0400 0000
00000090: 0400 0000 0000 0000 0000 0000 0000 0000
000000a0: 0000 0000 0000 0000 0400 0000 0000 0000
000000b0: 0000 0000 0400 0000 0400 0000 0400 0000
000000c0: 0000 0000 0400 0000 0400 0000 0400 0000
000000d0: 0400 0000 0400 0000 0000 0000 0400 0000
000000e0: 0000 0000 0400 0000 0000 0000 0400 0000
000000f0: 0000 0000 0000 0000 0400 0000 0400 0000
00000100: 0400 0000 0000 0000 0000 0000 0000 0000
00000110: 0000 0000 0400 0080 0000 0000 0400 0000
00000120: 0400 0000 0400 0000 0000 0000 0400 0000
00000130: 0400 0000 0400 0000 0000 0000 0400 0000
00000140: 0400 0000 0400 0000 0400 0000 0400 0000
00000150: 0400 0000 0400 0000 0400 0000 0000 0000
00000160: 0400 0000 0000 0000 0400 0000 0400 0000
00000170: 0400 0000 0400 0000 0400 0000 0400 0000
00000180: 0400 0000 0000 0000 0000 0000 0400 0000
00000190: 0000 0000 0000 0000 0000 0000 0400 0000
000001a0: 0000 0000 0400 0000 0400 0000 0000 0000
000001b0: 0000 0000 0400 0000 0000 0000 0000 0000
000001c0: 0400 0000 0400 0000 0400 0000 0000 0000
000001d0: 0400 0000 0400 0000 0000 0000 0000 0000
000001e0: 0000 0000 0400 0000 0000 0000 0400 0000
000001f0: 0000 0000 0400 0000 0000 0000 0400 0080
00000200: 0400 0000 0400 0000 0400 0000 0000 0000
00000210: 0400 0000 0400 0000 0400 0000 0400 0000
00000220: 0000 0000 0400 0000 0400 0000 0400 0000
00000230: 0400 0000 0000 0000 0400 0000 0400 0000
00000240: 0400 0000 0400 0000 0000 0000 0400 0000
00000250: 0400 0000 0000 0000 0400 0000 0400 0000
00000260: 0400 0000 0400 0000 0400 0000 0400 0000
00000270: 0400 0000 0400 0000 0400 0000 0000 0000
00000280: 0400 0000 0400 0000 0400 0000 0400 0000
00000290: 0000 0000 0400 0000 0000 0000 0400 0000
000002a0: 0400 0000 0000 0000 0000 0000 0400 0000
000002b0: 0400 0080 0000 0000 0400 0000 0400 0000
000002c0: 0400 0000 0400 0000 0400 0000 0400 0000
000002d0: 0400 0000 0400 0000 0400 0000 0400 0000
000002e0: 0000 0000 0000 0000 0400 0000 0400 0000
000002f0: 0000 0000 0400 0000 0400 0000 0400 0000
00000300: 0400 0000 0000 0000 0000 0000 0400 0000
00000310: 0400 0000 0400 0000 0000 0000 0400 0000
00000320: 0400 0000 0400 0000 0000 0000 0400 0000
00000330: 0400 0000 0400 0000 0400 0000 0400 0000
00000340: 0400 0000 0400 0000 0400 0000 0400 0000
00000350: 0400 0000 0400 0000 0000 0000 0400 0000
00000360: 0400 0000 0400 0000 0400 0000 0400 0000
00000370: 0400 0000 0400 0000 0400 0000 0400 0000
00000380: 0400 0000 0400 0000 0400 0000 0400 0000
00000390: 0400 0000 0400 0000 0400 0000 0400 0000
000003a0: 0000 0000 0000 0000 0400 0000 0400 0080
000003b0: 0000 0000 0400 0000 0000 0000 0400 0000
000003c0: 0400 0000 0400 0000 0400 0000 0400 0000
000003d0: 0400 0000 0400 0000 0400 0000 0400 0000
000003e0: 0400 0000 0400 0000 0400 0000 0400 0000
000003f0: 0400 0000 0400 0000 0000 0000 0400 0000
