src/model_data/Saudi_Arabian_Grand_Prix_model.pth (torch, 198189 bytes, 21 tensors)

net.0.weight f4 [128, 48]
0	0xbea60932	-0.3242889
1	0xbe0fc60c	-0.14040393
2	0x3e26a9dc	0.16275734
3	0xbe615a0f	-0.22007011
4	0xbd56a00c	-0.052398726
5	0xbc4a5c2e	-0.012351079
6	0xbb106eca	-0.0022038692
7	0xbe486651	-0.1957028
8	0xbe15096f	-0.1455438
9	0x3c9c213e	0.01905882
10	0xbdd7453d	-0.10511253
11	0xbca8bbe3	-0.020597404
12	0x3dcd354a	0.1001993
13	0xbd23de09	-0.04000667
14	0xbdb1c642	-0.08680393
15	0xbf15c67a	-0.58505976
16	0xbd444241	-0.047914747
17	0xbd645077	-0.0557408
18	0xbe08650d	-0.13319798
19	0x3c6eb36e	0.014569147
20	0xbdd4ce4d	-0.10390911
21	0x3d577254	0.052599266
22	0xbe3318ec	-0.17489976
23	0xbe80f9c0	-0.25190544
24	0xbe246b69	-0.16056599
25	0xbe196941	-0.14981557
26	0xbd872581	-0.0659895
27	0x3e8669e0	0.2625265
28	0xbd06a2b0	-0.032869995
29	0x3cf8cafe	0.030370232
30	0xbd27dc30	-0.04098147
31	0xbdaaf6a4	-0.08347824
32	0xbe714290	-0.23560548
33	0x3eada6d7	0.3391635
34	0xbda21181	-0.07913495
35	0xbdf7e8a2	-0.12104918
36	0xbe4a0cf3	-0.19731502
37	0xbd2344e7	-0.039860632
38	0xbeef55d2	-0.46745163
39	0xbf1d3288	-0.6140523
40	0xbeb017ba	-0.34393102
41	0xbe33d689	-0.17562307
42	0xbe6358a0	-0.22201777
43	0x3e7fde14	0.2498706
44	0x3e87d496	0.26529378
45	0xbf555554	-0.83333325
46	0xbe8ea5d5	-0.27860895
47	0xbf42b36e	-0.7605504
48	0xbe293f8f	-0.16528152
49	0xbdcca25b	-0.09991904
50	0xbe0b07af	-0.1357715
51	0x3cb5504e	0.022133019
52	0x3dba8e5e	0.09109186
53	0x3e01d855	0.1268018
54	0xbe483908	-0.19553006
55	0x3cc149f4	0.023594834
56	0xbd2369bb	-0.039895754
57	0xbe2fb934	-0.17160493
58	0xbc8f2664	-0.01747436
59	0xbd96a2cf	-0.07355272
60	0xbd004c19	-0.031322572
61	0x3e1d98e8	0.1539036
62	0xbd9e07db	-0.07716342
63	0xbe67c53b	-0.22633831
64	0x3e184105	0.14868553
65	0xbdf8a93e	-0.121416554
66	0xbd9443c4	-0.07239488
67	0xbdb569a0	-0.08858037
68	0xbd34b151	-0.044114415
69	0x3d4ace2b	0.049513023
70	0x3e1bbf60	0.15209723
71	0xbd94c078	-0.07263273
72	0x3d06776f	0.032828745
73	0xbe20f824	-0.15719658
74	0xbe09138e	-0.13386366
75	0x3de1dfba	0.110290006
76	0x3db01dba	0.0859942
77	0x3cc817de	0.024425443
78	0x3e14d04b	0.14532582
79	0x3d9d6d20	0.076868296
80	0xbe2c34b6	-0.16816983
81	0xbca262f8	-0.019822583
82	0x3df96eed	0.121793605
83	0xbe507153	-0.2035573
84	0x3c97bc71	0.018522473
85	0xbd916d91	-0.07100976
86	0xbe13f118	-0.14447439
87	0x3c48dcc7	0.012259669
88	0x3d55e669	0.05222169
89	0xbe0138e5	-0.1261936
90	0xbdff9037	-0.12478679
91	0x3d4f7c0b	0.050655406
92	0xbe18e7f4	-0.14932233
93	0x3d07e5dd	0.0331782
94	0x3e11b992	0.14230946
95	0x3cd653ed	0.026163066
96	0xbecf24dd	-0.40457812
97	0xbc1dd0e3	-0.009632322
98	0x3c26d248	0.010181971
99	0xbe71f9f9	-0.23630513
100	0xbe2b82b1	-0.16749074
101	0xbe33a162	-0.17542031
102	0xbebdc57e	-0.37064737
103	0x3ea17c04	0.3153993
104	0xbe081d05	-0.1329232
105	0xbdba5601	-0.09098435
106	0xbeb21884	-0.3478433
107	0x3df74865	0.12074355
108	0xbe0dc208	-0.13843548
109	0xbd8dfb8f	-0.069327466
110	0x3db0abbb	0.08626505
111	0xbe24694e	-0.16055796
112	0xbe80462f	-0.25053546
113	0x3d70f0ba	0.058823325
114	0xbe82af02	-0.25524145
115	0xbdd83541	-0.105570324
116	0x3d787767	0.060660746
117	0xbe47f4cd	-0.19526978
118	0xbe346a04	-0.17618567
119	0xbe9451ee	-0.28968757
120	0xbe92c62f	-0.28666827
121	0x3cb8408c	0.022491716
122	0xbeaa4db3	-0.33262405
123	0x3dee0fef	0.11624133
124	0x3e32371c	0.17403835
125	0x3e86a064	0.26294243
126	0xbeb873d1	-0.3602586
127	0xbeb1244e	-0.3459801
128	0xbb9f0b39	-0.0048536328
129	0x3e080215	0.13282044
130	0x3db9f042	0.09079029
131	0x3d196a50	0.037454903
132	0x3e9c3171	0.3050647
133	0x3e635817	0.22201572
134	0xbe9bad23	-0.3040553
135	0xbeacf16b	-0.33777937
136	0xbd038fd8	-0.032119602
137	0x3e73477b	0.23757736
138	0x3e65c81e	0.2243962
139	0x3ef74a7b	0.48299012
140	0x3e473e49	0.19457354
141	0xbf828a93	-1.019854
142	0xbf83d394	-1.0298944
143	0x3e290f76	0.16509804
144	0xbc0c3973	-0.008558619
145	0xbe39b645	-0.18135937
146	0x3d2c21c1	0.042024378
147	0x3d5ed33c	0.054400668
148	0x3db5c758	0.088759124
149	0xbdaec71b	-0.0853407
150	0xbdbf3839	-0.093368955
151	0x3d2a58a4	0.04158844
152	0x3d997d2e	0.07494579
153	0xbe257ed0	-0.16161656
154	0xbd558760	-0.052131057
155	0x3da301b3	0.079593085
156	0x3c8b0d23	0.016974038
157	0xbda65b31	-0.08122862
158	0xbe0ce962	-0.13760903
159	0xbe2eddc4	-0.17076784
160	0x3d9ff445	0.078102626
161	0x3e2cb127	0.16864453
162	0x3c504ce5	0.012713646
163	0x3e0e2049	0.13879503
164	0x3e220be8	0.15824854
165	0xbdb0a25d	-0.08624718
166	0xbe36092e	-0.1777694
167	0x3dbf80a0	0.09350705
168	0x3d6fae7c	0.05851601
169	0xbd21db8d	-0.03951602
170	0x3dd4a752	0.10383476
171	0xbc67be70	-0.014144525
172	0xbceee79b	-0.029163172
173	0xbd0b9295	-0.03407534
174	0x3e2ea02d	0.1705329
175	0xbb7629cc	-0.0037561534
176	0xbe05c724	-0.13064247
177	0xbdf2eec5	-0.11861948
178	0x3de03b11	0.10948766
179	0xbe0584ff	-0.13039015
180	0xbd0c0fe4	-0.034194842
181	0x3d51bdbe	0.051206343
182	0xbe1e6d88	-0.1547147
183	0xbda5c080	-0.08093357
184	0x3dad024c	0.08447704
185	0x3c96fb0c	0.018430255
186	0xbda33074	-0.07968226
187	0x3df95091	0.1217357
188	0xbb5974dd	-0.0033181228
189	0xbdc7d58e	-0.09757529
190	0x3e233d3a	0.15941325
191	0x3c985962	0.018597309
192	0x3e1a17d3	0.1504815
193	0x3df123aa	0.117743805
194	0xbe061f21	-0.13097812
195	0x3df6fddf	0.12060141
196	0x3e1e26b0	0.15444446
197	0x3e04779c	0.12936252
198	0xbd880524	-0.066416055
199	0x3e2b02a5	0.16700228
200	0xbe225f0c	-0.1585657
201	0xbe352f5f	-0.17693852
202	0xbe11ebc7	-0.14250098
203	0xbd8bf828	-0.068344414
204	0xbdff7e32	-0.12475242
205	0x3e2c91f1	0.16852547
206	0xbca92fbe	-0.020652648
207	0xbdab49f4	-0.08363715
208	0x3c19a311	0.009377257
209	0x3d85e213	0.06537261
210	0xbd4b30fe	-0.04960727
211	0xbc083eeb	-0.008315782
212	0x3e299c72	0.16563585
213	0xbdb0f007	-0.086395316
214	0xbe282ea4	-0.16424042
215	0xbe47571d	-0.19466825
216	0x3c7fbf84	0.015609626
217	0xbd7b9215	-0.06141861
218	0x3d99f018	0.075164974
219	0x3c9bedf8	0.01903437
220	0xbc6bc255	-0.014389594
221	0xbdde502a	-0.10855134
222	0xbe11f352	-0.14252976
223	0x3d887525	0.066629685
224	0x3e3089d7	0.17240082
225	0x3dfeeb28	0.12447196
226	0x3e34ae05	0.17644508
227	0x3d6929dd	0.05692469
228	0xbe21c079	-0.15796079
229	0x3df64232	0.120243445
230	0x3c881da0	0.016615689
231	0x3dccc79e	0.099990115
232	0x3da934f4	0.08262053
233	0xbdd285d5	-0.10279433
234	0x3e41342f	0.18867563
235	0x3dcae5e6	0.09907131
236	0xbc04045e	-0.008057682
237	0x3da5a109	0.08087356
238	0x3b3528d1	0.0027642737
239	0xbdcfb4b1	-0.10141886
240	0x3beb0a90	0.00717289
241	0x3d85c9c8	0.06532627
242	0x3d3cbaa2	0.046076424
243	0xbe8b90af	-0.27258822
244	0xbe76e360	-0.24110174
245	0xbd98aa61	-0.07454372
246	0xbdb977ff	-0.090560906
247	0x3e351777	0.17684732
248	0xbe5f365c	-0.2179808
249	0xbd56d012	-0.052444525
250	0x3d806687	0.062695555
251	0x3dca82a7	0.09888201
252	0x3d8a4cc4	0.06752923
253	0x3daae71b	0.08344861
254	0x3d1b9994	0.03798826
255	0x3da145e6	0.0787466

net.0.bias f4 [128]
0	0xbdf67c6b	-0.120354496
1	0xbd985c7c	-0.07439515
2	0x3d795de4	0.060880557
3	0xbcb36fa7	-0.021903826
4	0x3bcb1d2b	0.0061985455
5	0xbd4a0285	-0.04931881
6	0x00000000	0.0
7	0xbca0e115	-0.019638577
8	0xbdcdaaf0	-0.10042369
9	0xbc94ec31	-0.018179031
10	0xbeeb3cb3	-0.45944747
11	0xbd1557d7	-0.036460724
12	0xbcee008c	-0.029052995
13	0xbdcd5931	-0.100267775
14	0xbd7c14de	-0.061543338
15	0x3c4f6821	0.012659104
16	0xbe99afb5	-0.30016866
17	0xbd12198b	-0.03566889
18	0xbd3e7b89	-0.04650453
19	0xbdbe3820	-0.09288049
20	0xbd442e59	-0.047895763
21	0x3eac5aff	0.33663175
22	0xbc210588	-0.009827979
23	0xbe4d2ffc	-0.20037836
24	0xbd87e6f8	-0.06635851
25	0xbc8fae4c	-0.017539166
26	0x3d3f5fbd	0.046722163
27	0x3d9ab73e	0.07554482
28	0x3cd80989	0.026371734
29	0xbe09b86f	-0.13449262
30	0xbef8f536	-0.4862458
31	0x3ebffe78	0.37498832
32	0xbd98ac76	-0.07454769
33	0xbd38d9ae	-0.04512947
34	0x00000000	0.0
35	0xbd78d454	-0.060749367
36	0xbc75f2d1	-0.015011505
37	0x00000000	0.0
38	0xbd7d93bb	-0.061908465
39	0xbc53df19	-0.012931609
40	0x3ee54298	0.4477737
41	0xbdc3cb47	-0.095602565
42	0x3d57e876	0.052711926
43	0x3d5130d4	0.051071957
44	0xbd25f051	-0.040512387
45	0xbdc32bb8	-0.09529823
46	0xbcd328d4	-0.025776304
47	0x00000000	0.0
48	0x3ebc7068	0.3680451
49	0xbd72c9a2	-0.059274323
50	0xbdb2ef8e	-0.08737098
51	0x3ec1f3c3	0.37881288
52	0xbd023771	-0.031791154
53	0x3e8f26e0	0.27959347
54	0xbd0b0583	-0.033940803
55	0x00000000	0.0
56	0xbcef86a2	-0.029239003
57	0x00000000	0.0
58	0x00000000	0.0
59	0x3bbb5e6b	0.0057180426
60	0xbd688d81	-0.056775574
61	0xbe474eaf	-0.19463609
62	0x00000000	0.0
63	0xbd88cada	-0.06679316
64	0x3c02643b	0.007958467
65	0xbdbad1de	-0.0912206
66	0xbdd2b110	-0.10287678
67	0xbc2645ab	-0.010148446
68	0xbdada737	-0.08479159
69	0xbde20440	-0.11035967
70	0xbd264a5b	-0.040598255
71	0xbde5e377	-0.11225026
72	0xbdfc2562	-0.12311818
73	0xbce3addd	-0.027792865
74	0xbcadc0d8	-0.02121012
75	0xbd63e2ac	-0.055636093
76	0x3ebe2cdb	0.37143597
77	0xbdabd856	-0.08390872
78	0xbda50846	-0.08058219
79	0xbd40b502	-0.047047623
80	0x00000000	0.0
81	0xbcf8bd77	-0.030363781
82	0xbda82f58	-0.08212155
83	0x3c6c85cf	0.014436199
84	0xbdfec152	-0.12439217
85	0xbd3277af	-0.04357117
86	0xbedf037b	-0.43557343
87	0x3ea9ac61	0.33139327
88	0xbd3e21f0	-0.046419084
89	0xbcd89828	-0.026439741
90	0xbefad7a2	-0.4899264
91	0xbc5bef26	-0.013423717
92	0xbd021cab	-0.03176562
93	0x00000000	0.0
94	0xbdf3212d	-0.11871562
95	0xbd531636	-0.051534854
96	0xbbe16347	-0.00687829
97	0x00000000	0.0
98	0xbd7e102b	-0.062027138
99	0x3cfa1a74	0.030530192
100	0xbdf57186	-0.119845435
101	0x3d53ecd8	0.051739544
102	0xbde5cc75	-0.11220638
103	0xbd145d11	-0.036221568
104	0xbd021c64	-0.031765357
105	0xbe1a8082	-0.15088084
106	0xbd2182f4	-0.039431527
107	0xbdabd977	-0.083910875
108	0x3e065334	0.13117677
109	0xbd123338	-0.035693377
110	0x3e19bfcb	0.1501457
111	0xbdf52646	-0.11970191
112	0x3e863f69	0.26220253
113	0x00000000	0.0
114	0xbd81859d	-0.06324313
115	0x00000000	0.0
116	0x3e199ab9	0.15000428
117	0x3e8fb540	0.2806797
118	0xbdb1b90b	-0.08677872
119	0xbd8af599	-0.06785125
120	0xbbe4d77b	-0.006983695
121	0xbc865e59	-0.01640241
122	0xbe351056	-0.17682013
123	0xbce2ce8f	-0.027686385
124	0xbde0b83d	-0.10972641
125	0xbd021cdc	-0.031765804
126	0x3be60843	0.007020028
127	0xbd0f9728	-0.035056263

net.2.weight f4 [64, 128]
0	0xbdc85fdb	-0.09783908
1	0xbd970f92	-0.07376017
2	0x3c8186ef	0.015811412
3	0xbe2c88b9	-0.1684903
4	0x3e15e3b8	0.14637649
5	0xbb718187	-0.0036850886
6	0x3e145198	0.1448425
7	0xbe2aed9f	-0.16692208
8	0xbd1aeb09	-0.037821803
9	0xbb35c5fd	-0.0027736418
10	0xbe1a18d0	-0.15048528
11	0x3e2891ff	0.16461943
12	0xbe14d2a6	-0.14533481
13	0x3ca328cc	0.019916914
14	0xbd2016c2	-0.039084204
15	0x3e13e122	0.1444135
16	0xbe025633	-0.12728195
17	0x3cad9f46	0.021194112
18	0x3e1ec041	0.15503027
19	0xbe2c031d	-0.16798063
20	0xbd26f8c2	-0.040764578
21	0x3d40faf3	0.047114324
22	0x3e11ba10	0.14231133
23	0xbe042b5e	-0.12907168
24	0x3e0fb6e7	0.14034615
25	0xbdc18d0c	-0.09450731
26	0xbddc028f	-0.107426755
27	0x3e1771cf	0.14789508
28	0xbd0d0129	-0.034424935
29	0x3da91bd7	0.08257263
30	0x3db9f780	0.0908041
31	0x3dde99cb	0.108691774
32	0x3a8a0b13	0.0010531865
33	0x3e02463e	0.12722108
34	0xbbed4e32	-0.0072419876
35	0x3dc75fa7	0.09735041
36	0xbe05c956	-0.13065085
37	0x3dd6db40	0.10491037
38	0xbe34cd15	-0.17656358
39	0xbe0a88d6	-0.13528761
40	0xbc778f9e	-0.015109925
41	0xbd21f3d6	-0.03953918
42	0xbe0a776e	-0.13522121
43	0x3d144f91	0.036208693
44	0x3d966a27	0.07344466
45	0xbe132c6d	-0.14372416
46	0x3dc8cd19	0.09804744
47	0xbca85c5e	-0.020551857
48	0xbd544b1a	-0.051829435
49	0x3db40b73	0.08791246
50	0x3de7743c	0.11301467
51	0xbd866a94	-0.06563297
52	0xbc8487c2	-0.016178016
53	0x3dfebf5e	0.12438844
54	0xbe10e7d6	-0.14150938
55	0x3da10a3a	0.07863279
56	0xbc6d8ea1	-0.014499337
57	0xbb3fd272	-0.0029269722
58	0xbd56c883	-0.052437317
59	0x3cd24a3f	0.025670169
60	0x3d491351	0.049090687
61	0x3cdaa199	0.026688384
62	0xbe338769	-0.17532124
63	0xbac59c8a	-0.001507656
64	0xbd33efc9	-0.04392985
65	0x3dc6a5b4	0.09699574
66	0xbbbd2b9f	-0.0057730223
67	0x3dcd8dba	0.10036798
68	0xbd3cc692	-0.04608781
69	0x3d524b60	0.051341414
70	0x3caa0173	0.020752644
71	0x3b9afa59	0.004729551
72	0x3e0756d3	0.13216715
73	0xbd58e913	-0.052956652
74	0xbe2fec2a	-0.17179933
75	0x3ccda534	0.025103189
76	0xbde520fb	-0.11187931
77	0x3b84cab0	0.0040524825
78	0xbd7f2c0c	-0.062297866
79	0x3d6e2cc2	0.058148153
80	0x3dfa883b	0.12233015
81	0xbdb9cf23	-0.09072711
82	0xbe18e462	-0.14930871
83	0xbc794bd5	-0.015215834
84	0xbdb6c202	-0.08923723
85	0xbd2d0ad9	-0.042246673
86	0xbe3723f7	-0.17884813
87	0xbd26a5df	-0.04068553
88	0xbd428412	-0.047489233
89	0x3dbe06bc	0.09278628
90	0x3d7d6b24	0.061869755
91	0x3e329077	0.17437921
92	0xbe1bdf5a	-0.1522192
93	0x3e2f8c0d	0.17143269
94	0xbe457238	-0.19281852
95	0x3ce850e5	0.028358886
96	0xbb883d28	-0.004157681
97	0xbe028311	-0.1274531
98	0x3dd1434e	0.102179155
99	0xbda984ef	-0.08277308
100	0xbd8cda80	-0.06877613
101	0x3dd5fbfb	0.10448452
102	0xbdead74d	-0.114668466
103	0xbe27323c	-0.16327757
104	0x3e268c38	0.16264427
105	0xbdb0d4fa	-0.08634372
106	0xbdaa8b26	-0.08327322
107	0xbe09aeff	-0.13445662
108	0x3d127393	0.03575475
109	0x3df0d58c	0.11759481
110	0x3d34a398	0.044101328
111	0x3d84ecc6	0.064904734
112	0xbe44bc52	-0.19212463
113	0xbd578f6e	-0.05262702
114	0x3da31c17	0.07964342
115	0xbe1f5e60	-0.15563345
116	0xbe4f0b28	-0.202191
117	0xbe18bdb6	-0.14916119
118	0xbdbc2048	-0.09185845
119	0x3d5fbd4e	0.054623894
120	0xbd7db641	-0.06194139
121	0x3c38b342	0.011273207
122	0xbd628497	-0.05530223
123	0x3d873335	0.06601564
124	0xbe2eeada	-0.17081776
125	0x3d9ae3aa	0.07562955
126	0xbcb0cc45	-0.021581778
127	0x3e1bfac3	0.15232377
128	0xbdca0d54	-0.098658234
129	0xbd9acc6a	-0.0755852
130	0x3d8576ae	0.06516777
131	0xbd9068f2	-0.07051267
132	0xbd34b9dc	-0.04412256
133	0xbe076530	-0.13222194
134	0x3d363315	0.04448231
135	0x37b4a2ce	2.1533484e-05
136	0xbdfa2fa8	-0.12216121
137	0xbda1df0b	-0.0790387
138	0xbc1751fa	-0.009235853
139	0x3d8f3c18	0.06993884
140	0xbe2aa03d	-0.16662689
141	0xbc8ad460	-0.016946971
142	0xbdc78e7f	-0.09743976
143	0x3e2863c8	0.16444314
144	0x3dfcf129	0.12350685
145	0xbd3c3481	-0.04594851
146	0x3d946b1d	0.07246993
147	0x3cf6fb4e	0.030149128
148	0x3b5d449e	0.0033762823
149	0xbdff4fc2	-0.124663845
150	0x3e10fb1b	0.14158289
151	0x3defd289	0.11710078
152	0xbcc52fed	-0.024070704
153	0x3bc46845	0.005993875
154	0xbd974e98	-0.073880374
155	0x3de2825a	0.11060019
156	0x3e0db9d7	0.13840424
157	0xbd449b83	-0.04799987
158	0xbe287ab6	-0.1645306
159	0x3d6cd622	0.0578214
160	0x3cafd5b5	0.021464208
161	0xbe25b48c	-0.16182154
162	0xbdbadfb5	-0.091247
163	0xbd25cd2d	-0.040478874
164	0xbd9881b0	-0.07446611
165	0x3d1f7059	0.038925502
166	0xbd8e5311	-0.069494374
167	0xbcc6ca6e	-0.024266448
168	0xbe3fa89c	-0.18716663
169	0xbd8866a5	-0.06660203
170	0xbe27db33	-0.16392212
171	0xbd32b3b5	-0.043628413
172	0xbd8134d5	-0.06308905
173	0xbe0ad662	-0.13558343
174	0xbb5e1303	-0.0033885844
175	0x3d8175f3	0.06321325
176	0x3d01b817	0.031669702
177	0xbd5a95b2	-0.053365417
178	0xbe0c6032	-0.1370857
179	0x3de58b27	0.11208182
180	0xbdb44979	-0.08803076
181	0xbd88f46a	-0.06687243
182	0xbe3088ba	-0.17239657
183	0x3d777d6e	0.060422353
184	0xbd8d9341	-0.06912852
185	0xbddc6fc6	-0.107635066
186	0x3e343e09	0.1760179
187	0xbe086e95	-0.13323434
188	0xbe0846be	-0.13308236
189	0x3dc8feb4	0.09814206
190	0xbd87bba3	-0.06627586
191	0xbc8ad5fd	-0.01694774
192	0x3dd9342c	0.10605654
193	0xbd52b740	-0.051444292
194	0xbc8eb90a	-0.017422218
195	0x3da11133	0.078646086
196	0x3dd1c5ed	0.102428295
197	0x3e248f55	0.16070302
198	0x3dff7587	0.124735884
199	0xbe144964	-0.14481121
200	0x3dfdfd15	0.12401787
201	0xbd068759	-0.03284392
202	0xbcf6dc1f	-0.030134259
203	0x3e32d135	0.17462619
204	0xbe2fc0b9	-0.17163362
205	0xbe254f12	-0.16143444
206	0xbcb62c9e	-0.022238072
207	0x3e1f3a34	0.15549546
208	0xbe1123b8	-0.14173782
209	0x3db02e5a	0.08602591
210	0xbd5b95de	-0.05360972
211	0x3dc13777	0.09434407
212	0x3df382f6	0.11890213
213	0x3e261705	0.16219719
214	0x3e09b4fe	0.1344795
215	0x3d840f57	0.06448238
216	0xbddba87a	-0.10725494
217	0xbdda3e24	-0.10656384
218	0xbd3062df	-0.04306304
219	0x3d1edb9c	0.038783655
220	0xbc85f9da	-0.01635449
221	0x3d8e4bad	0.06948028
222	0x3d9e6cef	0.07735621
223	0xbd939c80	-0.072075844
224	0x3de7e5c5	0.11323122
225	0xbe075e3d	-0.13219543
226	0x3d51eb31	0.051249687
227	0xbc349bdb	-0.011023487
228	0x3c44acb9	0.012004071
229	0x3e0aafb4	0.13543588
230	0x3db0b863	0.08628919
231	0xbdb9af55	-0.09066645
232	0xbd492fcf	-0.04911786
233	0x3e20eae1	0.15714599
234	0xbc51c079	-0.012802237
235	0xbc1fcf68	-0.009754039
236	0xbd9df292	-0.07712282
237	0xbd298dd0	-0.04139501
238	0x3e048cf1	0.1294439
239	0xbe4a729a	-0.1977028
240	0xbe1b708d	-0.15179653
241	0xbd523e56	-0.05132898
242	0xbdcfbdd6	-0.1014363
243	0xbe045e5e	-0.12926623
244	0x3d9cac21	0.076500185
245	0x3dae5456	0.085121796
246	0xbd6ca50f	-0.0577746
247	0x3e178cc4	0.14799792
248	0xbe1d86c8	-0.15383446
249	0x3e292c91	0.16520907
250	0x3e145587	0.14485751
251	0x3e339872	0.17538622
252	0x3df4dcda	0.119561866
253	0x3e02954a	0.12752262
254	0xbca19e86	-0.01972891
255	0xbd313fe2	-0.043273814

net.2.bias f4 [64]
0	0xbd021b3d	-0.031764258
1	0xbd251d35	-0.040311057
2	0xbd4b6b91	-0.04966313
3	0x3e6f0540	0.23341846
4	0xbe8f3d13	-0.27976283
5	0xbce573da	-0.028009344
6	0xbd25e247	-0.040498998
7	0x00000000	0.0
8	0x3dc74a0f	0.097309224
9	0x3ecbadad	0.39780942
10	0xbd8f8a93	-0.07008853
11	0xbd0215d7	-0.03175911
12	0xbd36c271	-0.044619028
13	0xbd6965ec	-0.056981966
14	0x3ca267ef	0.01982495
15	0xbd021cdd	-0.031765807
16	0xbd021b7e	-0.0317645
17	0xbcf25c49	-0.02958502
18	0xbd4db8b0	-0.05022496
19	0xbdc2a707	-0.09504514
20	0x3ee88b55	0.45418802
21	0xbe427ee5	-0.18993719
22	0xbd217ac3	-0.039423715
23	0x3ed2c694	0.41167128
24	0x3e2c90a6	0.16852054
25	0xbd826c2a	-0.06368287
26	0x3eec95f4	0.46208155
27	0xbd11d372	-0.03560204
28	0xbe68d934	-0.22739106
29	0x3c46d94d	0.0121367695
30	0x3ceecbfd	0.029150004
31	0x00000000	0.0
32	0xbd9c1fee	-0.076232776
33	0xbd8b9bd5	-0.06816832
34	0xbd9c086f	-0.07618796
35	0xbd3cb325	-0.046069283
36	0xbd27d417	-0.04097375
37	0x3e3f56c1	0.18685438
38	0x3eb1fb3a	0.34761983
39	0xbc1a5dd9	-0.009421789
40	0xbc8d7018	-0.017265365
41	0xbd645a48	-0.05575016
42	0xbd021cd2	-0.031765766
43	0x3e3b6838	0.18301475
44	0x3d7d9613	0.0619107
45	0x3d022dd6	0.031781994
46	0xbd8c6cf8	-0.06856722
47	0xbc205246	-0.0097852405
48	0x00000000	0.0
49	0xbdf3cb46	-0.11904006
50	0xbd734067	-0.05938759
51	0xbd021cc5	-0.031765718
52	0xbdc0984a	-0.09404047
53	0xbcee0048	-0.029052868
54	0x3e5b8e46	0.21440992
55	0xbd5ea4a8	-0.054356247
56	0xbe0d9847	-0.1382762
57	0xbca7eae9	-0.020497756
58	0xbe03203a	-0.12805262
59	0x3e7a74ae	0.24458572
60	0xbdfefe0b	-0.124507986
61	0xbda175df	-0.0788381
62	0xbe485623	-0.19564109
63	0xbeaf1a58	-0.34199786

net.4.weight f4 [16, 64]
0	0x3b99fe9b	0.004699541
1	0xbe2dcf3f	-0.1697359
2	0x3d80844f	0.06275236
3	0x3c9a5e14	0.018843688
4	0x3e3ac0a3	0.18237548
5	0x3e79387f	0.24337958
6	0x3e811ffa	0.2521971
7	0x3de3b64d	0.111187555
8	0xbe520394	-0.20509177
9	0x3e3714f8	0.17879093
10	0xbe45e1da	-0.19324437
11	0x3e2027f8	0.15640247
12	0xbd098bc0	-0.03358054
13	0xbe824e9e	-0.25450605
14	0x3db60d56	0.088892624
15	0xbc1ded2f	-0.0096390685
16	0xbce7591b	-0.028240731
17	0x3dc0ada3	0.094081186
18	0xbd1a9e9c	-0.037748918
19	0x3d54c0bf	0.05194163
20	0xbe7dad80	-0.24773216
21	0xbe4f0a4d	-0.20218773
22	0xbe6e2d4f	-0.23259471
23	0x3d293999	0.041314695
24	0xbe3e4d15	-0.18584092
25	0xbdec5786	-0.11540131
26	0x3df57cde	0.11986707
27	0xbe7ec10c	-0.24878329
28	0xbe578856	-0.21048102
29	0xbe2ff73b	-0.17184155
30	0x3dbd9473	0.0925683
31	0x3e35f7ca	0.17770305
32	0x3e00ad9e	0.1256623
33	0x3cdecb73	0.027196622
34	0x3e194748	0.14968598
35	0x3e4089a0	0.188025
36	0x3dc1da52	0.094654694
37	0xbe9459cd	-0.28974763
38	0xbe64c2d8	-0.22339952
39	0x3e81436a	0.25246745
40	0x3e5d6286	0.21619615
41	0xbe093b1d	-0.13401456
42	0xbdbb7b4e	-0.09154378
43	0xbe28e152	-0.16492203
44	0xbe562772	-0.20913485
45	0xbe6685ad	-0.22511931
46	0x3e3ef9a8	0.18649924
47	0xbe36dfd3	-0.1785882
48	0xbdd6dbb0	-0.10491121
49	0xbe0777d1	-0.132293
50	0x3e2aaab1	0.16666676
51	0xbc073e81	-0.008254648
52	0xbe85d1cb	-0.26136622
53	0xbdc8b23e	-0.09799622
54	0xbe28f713	-0.16500501
55	0xbe4b9266	-0.19880065
56	0x3e8719d0	0.2638688
57	0xbe1ff242	-0.15619758
58	0xbe2400cd	-0.1601593
59	0xbc0b689d	-0.0085088285
60	0x39933350	0.00028076256
61	0x3d9d26ca	0.07673414
62	0xbe769e90	-0.24083924
63	0xbe1ea021	-0.15490772
64	0xbe8240e3	-0.2544013
65	0xbe395d37	-0.18101965
66	0xbdf53299	-0.11972541
67	0xbe77d567	-0.242025
68	0xbd02a322	-0.031893857
69	0xbc88fcb1	-0.016722055
70	0x3d83ea63	0.0644119
71	0xbbe01085	-0.006837907
72	0xbe228955	-0.158727
73	0xbdbcfeb3	-0.092282675
74	0x3e3aedc8	0.18254769
75	0x3deaa83a	0.11457868
76	0x3e8b4160	0.27198315
77	0x3e118f4f	0.14214824
78	0x3e37cc17	0.17948948
79	0xbcd4140b	-0.025888463
80	0x3e111a6f	0.1417024
81	0x3dc588f4	0.09645262
82	0x3e32521f	0.17414139
83	0x3e7755ec	0.2415387
84	0xbc863c3a	-0.01638614
85	0x3dc90b0a	0.09816559
86	0x3e281fd6	0.16418394
87	0x3d31c77f	0.043403145
88	0x3d252d58	0.040326446
89	0x3e6280b2	0.22119406
90	0xbde8764b	-0.113506876
91	0xbe32b28e	-0.17450926
92	0x3c92ef9f	0.017936526
93	0xbe490778	-0.19631755
94	0x3ded7174	0.11593905
95	0x3e830a60	0.25593853
96	0xbc3ed2b1	-0.011646912
97	0x3cbc291f	0.022968827
98	0x3daffb82	0.08592893
99	0x3d2b3bb6	0.04180499
100	0x3e41147c	0.1885547
101	0x3dae21d5	0.08502547
102	0xbe8ac2e3	-0.27101812
103	0xbe1303dc	-0.14356941
104	0x3b69d27d	0.003567844
105	0xbe6e2aa7	-0.23258458
106	0x3ce9b50a	0.028528709
107	0x3e48ade5	0.19597585
108	0xbd91e8d9	-0.0712449
109	0xbe10bd73	-0.14134769
110	0xbc1f373c	-0.009717759
111	0x3d5aab98	0.0533863
112	0x3df820a7	0.12115603
113	0x3e52b3f2	0.20576456
114	0x3daa4f67	0.08315926
115	0xbe6eef92	-0.23333576
116	0x3dce8a77	0.10085004
117	0xbe42cfcb	-0.19024579
118	0xbdd58407	-0.10425573
119	0x3dcebae4	0.1009424
120	0x3dbf2dfc	0.09334943
121	0x3de5d66b	0.112225376
122	0xbb3c6389	-0.002874585
123	0x3d0f106d	0.034927774
124	0x3e093c6d	0.13401957
125	0xbd3f8574	-0.04675813
126	0xbe4f2dc9	-0.2023231
127	0xbe7da089	-0.2476827
128	0xbdb96d5f	-0.09054064
129	0xbe6b76d0	-0.22994542
130	0x3c529b59	0.012854421
131	0x3e0f54b8	0.13997161
132	0x3dc219d5	0.09477583
133	0x3d8d30f3	0.06894102
134	0x3e259699	0.1617073
135	0x3d201fb2	0.039092727
136	0xbe4396aa	-0.19100443
137	0x3da4fc81	0.08055974
138	0x3d065928	0.03279987
139	0x3cc357d3	0.023845589
140	0x3dc80bab	0.097678505
141	0x3e4e02f9	0.20118321
142	0x3e343459	0.17598094
143	0xbdfb46d5	-0.122693695
144	0xbe5716a3	-0.21004729
145	0xbd3499be	-0.044091932
146	0xbdb72a21	-0.08943582
147	0xbd3b30d5	-0.045700867
148	0xbdf526d9	-0.119703
149	0x3e069d2b	0.13145892
150	0xbe79d624	-0.24398094
151	0xbe895752	-0.26824433
152	0x3ddc37ec	0.10752854
153	0x3ddbef66	0.10739021
154	0xbcd7a816	-0.026325267
155	0x3e0dc450	0.13844419
156	0x3c90d087	0.017677559
157	0x3dcf5616	0.101238415
158	0x3e824827	0.25445673
159	0x3deba47d	0.11505983
160	0x3e81080f	0.2520146
161	0x3e786c7f	0.24260138
162	0x3dfce7c1	0.12348891
163	0xbe6e828a	-0.23291984
164	0xbd6ee641	-0.058325056
165	0x3e1a3ae1	0.15061523
166	0xbdc743bf	-0.097297184
167	0x3e316c94	0.17326576
168	0xbe0679fd	-0.13132472
169	0x3e05802d	0.13037176
170	0x3d0021df	0.031282302
171	0xbe84a466	-0.25906676
172	0x3e1b2f05	0.15154655
173	0xbe232dc4	-0.15935427
174	0x3e620465	0.22071989
175	0xbcb1d88d	-0.021709705
176	0x3e86120d	0.26185647
177	0xbd94247a	-0.0723352
178	0x3c2c8dcf	0.010531857
179	0xbc2abb71	-0.010420666
180	0xbc7e02c2	-0.015503587
181	0x3e70c97f	0.23514365
182	0xbe25461b	-0.16140024
183	0x3e5e9ee3	0.21740298
184	0xbe8346b4	-0.2563988
185	0x3d6fc3a4	0.058536187
186	0xbd31ce0a	-0.043409385
187	0xbe2f5078	-0.1712054
188	0xbe80e30c	-0.25173223
189	0xbe3bda06	-0.18344888
190	0xbda21d17	-0.07915705
191	0xbc23f8f9	-0.01000809
192	0x3c87d14b	0.01657929
193	0x3d5b65f9	0.053564046
194	0x3dea96ae	0.11454521
195	0x3e4affa3	0.1982408
196	0x3b211524	0.0024579251
197	0xbe127cf9	-0.14305486
198	0x3c5433f0	0.012951836
199	0x3d2f6fa4	0.04283108
200	0x3da0d5f7	0.078533106
201	0xbca48495	-0.020082751
202	0xbe657102	-0.2240639
203	0xbd14ae6c	-0.036299154
204	0xbe179b09	-0.14805235
205	0x3d8a3116	0.06747644
206	0xbdb7ea31	-0.08980215
207	0x3d34044e	0.043949418
208	0x3dcf69ca	0.101275995
209	0x3de83909	0.113390036
210	0x3d1a89ea	0.03772918
211	0x3ddc045d	0.1074302
212	0x3e34d02b	0.17657535
213	0xbdc101f7	-0.09424203
214	0xbd85a651	-0.06525863
215	0xbe112930	-0.14175868
216	0xbd63191e	-0.055443875
217	0x3df91f28	0.12164146
218	0x3d716419	0.05893335
219	0xbeb9e97a	-0.3631094
220	0x3d4d22f5	0.050082166
221	0xbe2c4e8d	-0.1682684
222	0xbe39bee4	-0.18139225
223	0xbe8764d3	-0.2644411
224	0xbea7c83d	-0.32769957
225	0xbdfc6ddf	-0.12325644
226	0x3e00510f	0.12530921
227	0xbe4fdd8d	-0.20299359
228	0xbdfde42f	-0.12397038
229	0x3d85b324	0.06528309
230	0x3c2aad8a	0.0104173515
231	0xbdd15021	-0.102203615
232	0x3d0406f4	0.032233194
233	0x3de8ef9e	0.11373828
234	0x3e6dd817	0.23226963
235	0x3e1969c7	0.14981757
236	0xbe7adff7	-0.24499498
237	0xbbd4817f	-0.0064851637
238	0xbdbb35a3	-0.0914109
239	0x3e891889	0.2677653
240	0xbe4d7265	-0.2006317
241	0xbca846c4	-0.020541556
242	0x3ce0c52a	0.027437765
243	0xbdc47bc5	-0.0959392
244	0xbd0e8449	-0.034794126
245	0x3e4fd04c	0.20294303
246	0x3cd9653f	0.026537536
247	0xbb0e400c	-0.0021705655
248	0x3bceca40	0.006310731
249	0x3e302607	0.17202006
250	0xbe931613	-0.2872778
251	0xbcd522e6	-0.026017617
252	0xbd76ea90	-0.06028229
253	0xbd88319b	-0.066500865
254	0xbdeabd1e	-0.114618525
255	0xbb843107	-0.004034165

net.4.bias f4 [16]
0	0xbd021ccf	-0.031765755
1	0xbd1b98bf	-0.037987467
2	0xbcfbc1c8	-0.03073205
3	0xbeccc6de	-0.39995474
4	0xbd021cda	-0.031765796
5	0x3d47c37d	0.048770417
6	0x3ef40fed	0.476684
7	0xbd021c8e	-0.031765513
8	0xbbc89f23	-0.006122486
9	0x00000000	0.0
10	0x3ef88943	0.48542222
11	0xbc804f9b	-0.015662959
12	0xbd2fb74d	-0.04289942
13	0xbc20d801	-0.009817124
14	0xbc2516f5	-0.010076274
15	0xbe23bc16	-0.15989718

net.6.weight f4 [1, 16]
0	0xbf0df167	-0.55446476
1	0x3eea3f3f	0.45751378
2	0x3d393859	0.045219753
3	0xbdd4bcc8	-0.1038757
4	0xbed33bef	-0.41256663
5	0x3e1121b7	0.14173017
6	0x3e273383	0.16328244
7	0x3eb58b14	0.3545767
8	0x3da0cc11	0.078514226
9	0x3f0e99de	0.5570353
10	0x3ddd53a0	0.10806966
11	0xbea3c670	-0.31987333
12	0x3e106dae	0.1410434
13	0x3e1da30f	0.15394233
14	0x3eb605c8	0.35551286
15	0x3c43c260	0.011948198

exp_avg f4 [128, 48]
0	0x00000004	6e-45
1	0x00000004	6e-45
2	0x80000004	-6e-45
3	0x00000004	6e-45
4	0x80000004	-6e-45
5	0x80000004	-6e-45
6	0x00000004	6e-45
7	0x00000004	6e-45
8	0x00000004	6e-45
9	0x00000004	6e-45
10	0x00000004	6e-45
11	0x00000004	6e-45
12	0x00000004	6e-45
13	0x00000004	6e-45
14	0x00000004	6e-45
15	0x00000004	6e-45
16	0x00000004	6e-45
17	0x00000004	6e-45
18	0x00000004	6e-45
19	0x00000004	6e-45
20	0x00000004	6e-45
21	0x00000004	6e-45
22	0x00000004	6e-45
23	0x00000004	6e-45
24	0x00000004	6e-45
25	0x00000004	6e-45
26	0x00000004	6e-45
27	0x00000004	6e-45
28	0x00000004	6e-45
29	0x00000004	6e-45
30	0x00000004	6e-45
31	0x00000004	6e-45
32	0x00000004	6e-45
33	0x00000004	6e-45
34	0x00000004	6e-45
35	0x00000004	6e-45
36	0x00000004	6e-45
37	0x00000004	6e-45
38	0x00000004	6e-45
39	0x00000004	6e-45
40	0x00000004	6e-45
41	0x00000004	6e-45
42	0x00000004	6e-45
43	0x00000004	6e-45
44	0x00000004	6e-45
45	0x00000004	6e-45
46	0x00000004	6e-45
47	0x80000004	-6e-45
48	0x00000004	6e-45
49	0x00000004	6e-45
50	0x00000004	6e-45
51	0x00000004	6e-45
52	0x00000004	6e-45
53	0x00000004	6e-45
54	0x00000004	6e-45
55	0x00000004	6e-45
56	0x00000004	6e-45
57	0x00000004	6e-45
58	0x00000004	6e-45
59	0x00000004	6e-45
60	0x00000004	6e-45
61	0x00000004	6e-45
62	0x00000004	6e-45
63	0x00000004	6e-45
64	0x00000004	6e-45
65	0x00000004	6e-45
66	0x00000004	6e-45
67	0x00000004	6e-45
68	0x00000004	6e-45
69	0x00000004	6e-45
70	0x00000004	6e-45
71	0x00000004	6e-45
72	0x00000004	6e-45
73	0x00000004	6e-45
74	0x00000004	6e-45
75	0x00000004	6e-45
76	0x00000004	6e-45
77	0x00000004	6e-45
78	0x00000004	6e-45
79	0x00000004	6e-45
80	0x00000004	6e-45
81	0x00000004	6e-45
82	0x00000004	6e-45
83	0x00000004	6e-45
84	0x00000004	6e-45
85	0x00000004	6e-45
86	0x00000004	6e-45
87	0x00000004	6e-45
88	0x00000004	6e-45
89	0x00000004	6e-45
90	0x00000004	6e-45
91	0x00000004	6e-45
92	0x00000000	0.0
93	0x80000004	-6e-45
94	0x80000004	-6e-45
95	0x00000004	6e-45
96	0x80000004	-6e-45
97	0x00000004	6e-45
98	0x80000004	-6e-45
99	0x80000004	-6e-45
100	0x80000004	-6e-45
101	0x80000004	-6e-45
102	0x80000004	-6e-45
103	0x00000004	6e-45
104	0x80000004	-6e-45
105	0x00000004	6e-45
106	0x80000004	-6e-45
107	0x00000004	6e-45
108	0x80000004	-6e-45
109	0x00000004	6e-45
110	0x80000004	-6e-45
111	0x00000004	6e-45
112	0x80000004	-6e-45
113	0x00000004	6e-45
114	0x00000004	6e-45
115	0x80000004	-6e-45
116	0x00000004	6e-45
117	0x00000004	6e-45
118	0x00000004	6e-45
119	0x80000004	-6e-45
120	0x80000004	-6e-45
121	0x80000004	-6e-45
122	0x00000004	6e-45
123	0x00000004	6e-45
124	0x00000004	6e-45
125	0x80000004	-6e-45
126	0x80000004	-6e-45
127	0x80000004	-6e-45
128	0x80000004	-6e-45
129	0x00000004	6e-45
130	0x80000004	-6e-45
131	0x80000004	-6e-45
132	0x00000004	6e-45
133	0x00000004	6e-45
134	0x80000004	-6e-45
135	0x80000004	-6e-45
136	0x80000004	-6e-45
137	0x00000004	6e-45
138	0x00000004	6e-45
139	0x00000004	6e-45
140	0x00000004	6e-45
141	0x80000004	-6e-45
142	0x80000004	-6e-45
143	0x80000004	-6e-45
144	0x00000000	0.0
145	0x00000000	0.0
146	0x00000000	0.0
147	0x00000000	0.0
148	0x00000000	0.0
149	0x00000000	0.0
150	0x00000000	0.0
151	0x00000004	6e-45
152	0x00000000	0.0
153	0x00000000	0.0
154	0x00000000	0.0
155	0x00000000	0.0
156	0x00000000	0.0
157	0x00000000	0.0
158	0x00000000	0.0
159	0x00000004	6e-45
160	0x00000000	0.0
161	0x00000000	0.0
162	0x00000000	0.0
163	0x00000000	0.0
164	0x00000000	0.0
165	0x00000000	0.0
166	0x00000000	0.0
167	0x00000000	0.0
168	0x00000000	0.0
169	0x00000000	0.0
170	0x00000000	0.0
171	0x00000000	0.0
172	0x00000000	0.0
173	0x00000000	0.0
174	0x00000000	0.0
175	0x00000000	0.0
176	0x00000004	6e-45
177	0x00000004	6e-45
178	0x00000004	6e-45
179	0x00000004	6e-45
180	0x00000004	6e-45
181	0x00000004	6e-45
182	0x00000000	0.0
183	0x00000000	0.0
184	0x00000000	0.0
185	0x00000004	6e-45
186	0x00000004	6e-45
187	0x00000004	6e-45
188	0x00000000	0.0
189	0x00000000	0.0
190	0x00000000	0.0
191	0x80000004	-6e-45
192	0x00000004	6e-45
193	0x00000004	6e-45
194	0x00000000	0.0
195	0x00000004	6e-45
196	0x00000000	0.0
197	0x00000000	0.0
198	0x00000000	0.0
199	0x00000004	6e-45
200	0x00000004	6e-45
201	0x00000004	6e-45
202	0x00000000	0.0
203	0x00000004	6e-45
204	0x00000000	0.0
205	0x00000000	0.0
206	0x00000000	0.0
207	0x00000004	6e-45
208	0x00000004	6e-45
209	0x00000004	6e-45
210	0x00000000	0.0
211	0x00000004	6e-45
212	0x00000000	0.0
213	0x00000000	0.0
214	0x00000000	0.0
215	0x00000004	6e-45
216	0x00000004	6e-45
217	0x00000004	6e-45
218	0x00000004	6e-45
219	0x00000004	6e-45
220	0x00000004	6e-45
221	0x00000004	6e-45
222	0x00000004	6e-45
223	0x00000004	6e-45
224	0x00000004	6e-45
225	0x00000004	6e-45
226	0x00000004	6e-45
227	0x00000004	6e-45
228	0x00000004	6e-45
229	0x00000004	6e-45
230	0x00000004	6e-45
231	0x00000004	6e-45
232	0x00000004	6e-45
233	0x00000004	6e-45
234	0x00000004	6e-45
235	0x00000004	6e-45
236	0x00000000	0.0
237	0x80000004	-6e-45
238	0x80000004	-6e-45
239	0x00000004	6e-45
240	0x00000004	6e-45
241	0x00000004	6e-45
242	0x00000004	6e-45
243	0x00000004	6e-45
244	0x00000004	6e-45
245	0x00000004	6e-45
246	0x00000004	6e-45
247	0x80000004	-6e-45
248	0x00000004	6e-45
249	0x00000004	6e-45
250	0x00000004	6e-45
251	0x00000004	6e-45
252	0x00000004	6e-45
253	0x00000004	6e-45
254	0x00000004	6e-45
255	0x80000004	-6e-45

exp_avg_sq f4 [128, 48]
0	0x3a09a519	0.0005250737
1	0x3d3152bd	0.043291796
2	0x2a44c25c	1.7475729e-13
3	0x3b16acc3	0.0022991158
4	0x34787e4a	2.3142744e-07
5	0x345d7041	2.0623067e-07
6	0x39c17ef0	0.00036906404
7	0x343ef041	1.7782533e-07
8	0x402d84bb	2.7112262
9	0x427acc20	62.69934
10	0x31a97719	4.932087e-09
11	0x40b6b6df	5.709823
12	0x3f211b11	0.62931925
13	0x3cc37aaf	0.023862211
14	0x40b36396	5.6059065
15	0x34414bac	1.8002055e-07
16	0x34cb0534	3.7815482e-07
17	0x37e47a44	2.7236652e-05
18	0x26878cf4	9.405712e-16
19	0x35c69722	1.4796135e-06
20	0x32b5fef1	2.1187107e-08
21	0x26d3b887	1.4691082e-15
22	0x3496abc9	2.8064667e-07
23	0x2f100064	1.3096862e-10
24	0x2f24b371	1.4979464e-10
25	0x3217663f	8.812605e-09
26	0x331d0000	3.655441e-08
27	0x364ded28	3.0685424e-06
28	0x3d17726e	0.036974363
29	0x31b23b2b	5.1872084e-09
30	0x3497bbdf	2.8262636e-07
31	0x375bfa24	1.3111658e-05
32	0x347e5b49	2.3688803e-07
33	0x38d025d5	9.92526e-05
34	0x3c3efbf9	0.011656755
35	0x3432e711	1.6661603e-07
36	0x38ddf02c	0.00010582837
37	0x3c2a35ba	0.010388786
38	0x2ca3c10c	4.654171e-12
39	0x2e80b19c	5.852316e-11
40	0x3296b650	1.7545204e-08
41	0x34e51bae	4.2674714e-07
42	0x34e51bae	4.2674714e-07
43	0x4075862f	3.836315
44	0x203157d1	1.5021539e-19
45	0x3125ea2c	2.4143771e-09
46	0x36e7c86c	6.9076686e-06
47	0x2ec5ee92	9.0009014e-11
48	0x25b5d590	3.154321e-16
49	0x27005ad8	1.7812815e-15
50	0x25247fb0	1.4267995e-16
51	0x220ac039	1.880425e-18
52	0x25b39e38	3.1158763e-16
53	0x25b39e38	3.1158763e-16
54	0x25b39e38	3.1158763e-16
55	0x15b33f39	7.239727e-26
56	0x2adc33b0	3.9115716e-13
57	0x2c328605	2.5369717e-12
58	0x2ad70f8b	3.8202457e-13
59	0x27d662aa	5.9503904e-15
60	0x2ad70f8b	3.8202457e-13
61	0x2ad70f8b	3.8202457e-13
62	0x2ad70f8b	3.8202457e-13
63	0x15b33f39	7.239727e-26
64	0x213ae861	6.33268e-19
65	0x21a65e24	1.1273516e-18
66	0x203b29d8	1.5853361e-19
67	0x1c031d97	4.338251e-22
68	0x213b29d8	6.3413444e-19
69	0x213b29d8	6.3413444e-19
70	0x213b29d8	6.3413444e-19
71	0x14a74ad1	1.68922e-26
72	0x14e3b40b	2.2992157e-26
73	0x19fa0a4d	2.5853555e-23
74	0x1ea65e24	1.761487e-20
75	0x1ea65e24	1.761487e-20
76	0x2c3a28fa	2.6454936e-12
77	0x168014e6	2.0692704e-25
78	0x1b12f76a	1.2156781e-22
79	0x1fb89f2a	7.8190346e-20
80	0x1ea5b71b	1.7545785e-20
81	0x2101f985	4.4037136e-19
82	0x29ed59d9	1.05405004e-13
83	0x1ea3bed4	1.7337221e-20
84	0x2101f985	4.4037136e-19
85	0x29ea86bb	1.04150595e-13
86	0x1114b44e	1.1730702e-28
87	0x1314b44e	1.8769123e-27
88	0x19de705a	2.299964e-23
89	0x1ea65e5b	1.7614958e-20
90	0x1ea65e5b	1.7614958e-20
91	0x2c3a28fa	2.6454936e-12
92	0x00000000	0.0
93	0x135b5042	2.7681256e-27
94	0x1975209d	1.2672789e-23
95	0x120a0b83	4.355931e-28
96	0x3b4cdd15	0.0031259705
97	0x3e58fe3c	0.21190733
98	0x27fa4054	6.9458684e-15
99	0x3c425ffc	0.011863705
100	0x34fdefec	4.7299488e-07
101	0x34fdef46	4.7299017e-07
102	0x3b8d724e	0.0043166047
103	0x355e47d5	8.2805974e-07
104	0x41624e46	14.14411
105	0x439ed460	317.65918
106	0x2da398d5	1.8598826e-11
107	0x41f37acb	30.434958
108	0x3d1ff67e	0.039053433
109	0x3b91f9c2	0.0044548223
110	0x422395b5	40.8962
111	0x3571f047	9.0129146e-07
112	0x360e8bf5	2.1241115e-06
113	0x390ccda8	0.00013428053
114	0x251fc4bb	1.3857707e-16
115	0x36fd9015	7.556761e-06
116	0x27c1e90b	5.3820927e-15
117	0x26ae2b5b	1.2085427e-15
118	0x36576455	3.2095897e-06
119	0x30552f28	7.755596e-10
120	0x30773ada	8.994171e-10
121	0x334f15fd	4.821594e-08
122	0x3448c0d0	1.8696596e-07
123	0x3792c13d	1.749454e-05
124	0x3e40f87e	0.18844792
125	0x33010e17	3.0047968e-08
126	0x35ca38a3	1.5066656e-06
127	0x387cb0f7	6.0246293e-05
128	0x35826daa	9.717671e-07
129	0x3a0f77c5	0.0005472864
130	0x3d396c0e	0.045269065
131	0x352deff2	6.479669e-07
132	0x3a3075ea	0.0006731438
133	0x3d1eec97	0.03879985
134	0x2dc8a481	2.2810422e-11
135	0x2f9add1a	2.816954e-10
136	0x33be0f01	8.850294e-08
137	0x360e37f8	2.1192227e-06
138	0x360e37f8	2.1192227e-06
139	0x4192dcdb	18.35784
140	0x20fdf6d0	4.3023194e-19
141	0x3271cee9	1.4075092e-08
142	0x382e6596	4.1579442e-05
143	0x300a582d	5.0329413e-10
144	0x00000000	0.0
145	0x00000000	0.0
146	0x00000000	0.0
147	0x00000000	0.0
148	0x00000000	0.0
149	0x00000000	0.0
150	0x00000000	0.0
151	0x17b9e537	1.2013207e-24
152	0x00000000	0.0
153	0x00000000	0.0
154	0x00000000	0.0
155	0x00000000	0.0
156	0x00000000	0.0
157	0x00000000	0.0
158	0x00000000	0.0
159	0x17b9e537	1.2013207e-24
160	0x00000000	0.0
161	0x00000000	0.0
162	0x00000000	0.0
163	0x00000000	0.0
164	0x00000000	0.0
165	0x00000000	0.0
166	0x00000000	0.0
167	0x00000000	0.0
168	0x00000000	0.0
169	0x00000000	0.0
170	0x00000000	0.0
171	0x00000000	0.0
172	0x00000000	0.0
173	0x00000000	0.0
174	0x00000000	0.0
175	0x00000000	0.0
176	0x17b9e537	1.2013207e-24
177	0x17b9e537	1.2013207e-24
178	0x20851174	2.2542626e-19
179	0x17b9e537	1.2013207e-24
180	0x17b9e537	1.2013207e-24
181	0x20851174	2.2542626e-19
182	0x00000000	0.0
183	0x00000000	0.0
184	0x00000000	0.0
185	0x17b9e537	1.2013207e-24
186	0x17b9e537	1.2013207e-24
187	0x20851174	2.2542626e-19
188	0x00000000	0.0
189	0x00000000	0.0
190	0x00000000	0.0
191	0x000001f4	7e-43
192	0x1b7554e3	2.0293353e-22
193	0x21083a96	4.615613e-19
194	0x00000000	0.0
195	0x1dab0848	4.5271886e-21
196	0x00000000	0.0
197	0x00000000	0.0
198	0x00000000	0.0
199	0x18d82bd6	5.5878954e-24
200	0x21b11a59	1.2000961e-18
201	0x263ea26a	6.6139604e-16
202	0x00000000	0.0
203	0x239d87db	1.7079511e-17
204	0x00000000	0.0
205	0x00000000	0.0
206	0x00000000	0.0
207	0x18d35cca	5.4635915e-24
208	0x1648177e	1.6163284e-25
209	0x1bb2d0cf	2.958257e-22
210	0x00000000	0.0
211	0x18836614	3.396578e-24
212	0x00000000	0.0
213	0x00000000	0.0
214	0x00000000	0.0
215	0x1083acbe	5.193654e-29
216	0x1090351c	5.6879813e-29
217	0x14b5713b	1.8320991e-26
218	0x14ac4495	1.7394613e-26
219	0x1a492a46	4.1599974e-23
220	0x20bbc59d	3.1809802e-19
221	0x131ea633	2.0024346e-27
222	0x163843db	1.4884813e-25
223	0x1a279da1	3.4662122e-23
224	0x18ddf024	5.736964e-24
225	0x1d38dda0	2.4466775e-21
226	0x21ee7bd8	1.6160288e-18
227	0x18d4ea3c	5.503723e-24
228	0x1d6c347d	3.1261476e-21
229	0x21bbd52d	1.272804e-18
230	0x0ca413ef	2.5280198e-31
231	0x0da413ef	1.0112079e-30
232	0x1400746c	6.485309e-27
233	0x18ecf79c	6.125459e-24
234	0x18ecf79c	6.125459e-24
235	0x265b5af5	7.610416e-16
236	0x00000000	0.0
237	0x103dc52e	3.742558e-29
238	0x160814ea	1.0992592e-25
239	0x0f198bc9	7.570404e-30
240	0x260f2d3f	4.967441e-16
241	0x26a90174	1.1727125e-15
242	0x246ec6e3	5.1776487e-17
243	0x245b2f57	4.7528154e-17
244	0x2615b1e6	5.1935857e-16
245	0x25b42a4e	3.125369e-16
246	0x265a39f1	7.571247e-16
247	0x1bf3af8b	4.031442e-22
248	0x2bad0669	1.2294169e-12
249	0x2bff4778	1.8138676e-12
250	0x2ad5e677	3.7996318e-13
251	0x2902b08b	2.9018925e-14
252	0x2bb98ec1	1.3184663e-12
253	0x2b9643d1	1.0676964e-12
254	0x2bd20e40	1.4925353e-12
255	0x1be97015	3.8619048e-22

exp_avg f4 [128]
0	0x00000004	6e-45
1	0x00000004	6e-45
2	0x00000004	6e-45
3	0x00000004	6e-45
4	0x00000004	6e-45
5	0x00000004	6e-45
6	0x00000000	0.0
7	0x80000004	-6e-45
8	0x00000004	6e-45
9	0x00000004	6e-45
10	0xb881bef8	-6.18677e-05
11	0x00000004	6e-45
12	0x00000004	6e-45
13	0x00000004	6e-45
14	0x00000004	6e-45
15	0x00000004	6e-45
16	0x00000004	6e-45
17	0x00000004	6e-45
18	0x80000004	-6e-45
19	0x00000004	6e-45
20	0x00000004	6e-45
21	0x00000004	6e-45
22	0x00000004	6e-45
23	0x00000004	6e-45
24	0x00000004	6e-45
25	0x80000004	-6e-45
26	0x80000004	-6e-45
27	0x381d5448	3.751021e-05
28	0x00000004	6e-45
29	0x00000004	6e-45
30	0x387f7314	6.0903913e-05
31	0x00000004	6e-45
32	0x00000004	6e-45
33	0x00000004	6e-45
34	0x00000000	0.0
35	0x00000004	6e-45
36	0x00000004	6e-45
37	0x00000000	0.0
38	0x80000004	-6e-45
39	0x00000004	6e-45
40	0x38b4eaa9	8.626778e-05
41	0x00000004	6e-45
42	0x80000004	-6e-45
43	0x80000004	-6e-45
44	0x80000004	-6e-45
45	0x00000004	6e-45
46	0x00000004	6e-45
47	0x00000000	0.0
48	0xb8fc3faa	-0.00012028155
49	0x00000004	6e-45
50	0x00000004	6e-45
51	0x38ac4af1	8.215558e-05
52	0x00000004	6e-45
53	0x384de641	4.909025e-05
54	0x00000004	6e-45
55	0x00000000	0.0
56	0x80000004	-6e-45
57	0x00000000	0.0
58	0x00000000	0.0
59	0x80000004	-6e-45
60	0x00000004	6e-45
61	0x00000004	6e-45
62	0x00000000	0.0
63	0x80000004	-6e-45
64	0x00000004	6e-45
65	0x00000004	6e-45
66	0x80000004	-6e-45
67	0x00000004	6e-45
68	0x00000004	6e-45
69	0x00000004	6e-45
70	0x00000004	6e-45
71	0x00000004	6e-45
72	0x00000004	6e-45
73	0x00000004	6e-45
74	0x00000004	6e-45
75	0x00000004	6e-45
76	0x38f8eade	0.00011869309
77	0x00000004	6e-45
78	0x00000004	6e-45
79	0x00000004	6e-45
80	0x00000000	0.0
81	0x00000004	6e-45
82	0x00000004	6e-45
83	0x00000004	6e-45
84	0x80000004	-6e-45
85	0x00000004	6e-45
86	0xb8c275ba	-9.272569e-05
87	0x80000004	-6e-45
88	0x80000004	-6e-45
89	0x00000004	6e-45
90	0xb8160337	-3.576578e-05
91	0x00000004	6e-45
92	0x00000004	6e-45
93	0x00000000	0.0
94	0x00000004	6e-45
95	0x00000004	6e-45
96	0x80000004	-6e-45
97	0x00000000	0.0
98	0x00000004	6e-45
99	0x80000004	-6e-45
100	0x80000004	-6e-45
101	0x80000004	-6e-45
102	0x00000004	6e-45
103	0x00000004	6e-45
104	0x00000004	6e-45
105	0x00000004	6e-45
106	0x00000004	6e-45
107	0x00000004	6e-45
108	0x80000004	-6e-45
109	0x00000004	6e-45
110	0x00000004	6e-45
111	0x00000004	6e-45
112	0x80000004	-6e-45
113	0x00000000	0.0
114	0x00000004	6e-45
115	0x00000000	0.0
116	0x00000004	6e-45
117	0x38e2af93	0.00010809223
118	0x80000004	-6e-45
119	0x00000004	6e-45
120	0x00000004	6e-45
121	0x00000004	6e-45
122	0x00000004	6e-45
123	0x00000004	6e-45
124	0x80000004	-6e-45
125	0x00000004	6e-45
126	0x80000004	-6e-45
127	0x00000004	6e-45

exp_avg_sq f4 [128]
0	0x34e51bae	4.2674714e-07
1	0x1ea65e5b	1.7614958e-20
2	0x360e37f8	2.1192227e-06
3	0x17b9e537	1.2013207e-24
4	0x18ecf79c	6.125459e-24
5	0x1e663620	1.21872914e-20
6	0x00000000	0.0
7	0x18266478	2.150572e-24
8	0x1caf7ca6	1.1612749e-21
9	0x1a3154af	3.667115e-23
10	0x39ad2aca	0.00033029012
11	0x21242cde	5.562474e-19
12	0x109e6ca2	6.2487387e-29
13	0x1aea904a	9.7013243e-23
14	0x1d04c4d0	1.7571804e-21
15	0x18e60021	5.9453737e-24
16	0x33f44fcf	1.13766525e-07
17	0x153d9233	3.8283577e-26
18	0x34e58ddd	4.2757793e-07
19	0x226b777c	3.1911693e-18
20	0x1b94b6e4	2.4602736e-22
21	0x3907d294	0.0001295305
22	0x1ae34d71	9.401011e-23
23	0x24e2a0f1	9.828452e-17
24	0x198bfba2	1.4473897e-23
25	0x1f84623d	5.6066696e-20
26	0x17e040c6	1.4492012e-24
27	0x3ac6bc51	0.0015162324
28	0x1d3ffadf	2.5408337e-21
29	0x1d6b6cdf	3.1158276e-21
30	0x3bb5cd15	0.0055481293
31	0x38b0ad6f	8.4246385e-05
32	0x30f0eecd	1.753017e-09
33	0x15f8a134	1.00420736e-25
34	0x00000000	0.0
35	0x1dd978cc	5.7564323e-21
36	0x2f56f23f	1.954925e-10
37	0x00000000	0.0
38	0x1bc56b75	3.2660359e-22
39	0x10b382b6	7.0804443e-29
40	0x3b7f0111	0.0038910548
41	0x200fa328	1.2166555e-19
42	0x180ca2dd	1.81768e-24
43	0x1842976c	2.515036e-24
44	0x1f3ad502	3.9563228e-20
45	0x21bca600	1.2783315e-18
46	0x2d3872f5	1.0484715e-11
47	0x00000000	0.0
48	0x3c39fcc8	0.011351772
49	0x1dc7895f	5.28169e-21
50	0x217804d6	8.403207e-19
51	0x3b26de56	0.0025462112
52	0x25655bc4	1.9893675e-16
53	0x3b8b6e1e	0.0042550704
54	0x196525cc	1.18466555e-23
55	0x00000000	0.0
56	0x174fc69c	6.713599e-25
57	0x00000000	0.0
58	0x00000000	0.0
59	0x1db6c2d4	4.8376446e-21
60	0x1cc55fa9	1.3061094e-21
61	0x32584543	1.2588603e-08
62	0x00000000	0.0
63	0x252136cf	1.3983094e-16
64	0x38242d14	3.914263e-05
65	0x1f2e0ed8	3.6858212e-20
66	0x308ab4e0	1.0092229e-09
67	0x18622de5	2.9232986e-24
68	0x1b78e9df	2.0589647e-22
69	0x25a55c43	2.8685456e-16
70	0x1c73e29a	8.069483e-22
71	0x229655b3	4.074832e-18
72	0x1ebe261d	2.0132796e-20
73	0x1ef7e0f9	2.6245189e-20
74	0x1616313d	1.213244e-25
75	0x10888224	5.3843055e-29
76	0x3c5b77b1	0.013395236
77	0x212a635e	5.772975e-19
78	0x3b1f138d	0.0024273128
79	0x2139335a	6.27484e-19
80	0x00000000	0.0
81	0x31cc5e41	5.947897e-09
82	0x2301db8e	7.0395965e-18
83	0x37cebcdd	2.464506e-05
84	0x3366cfe0	5.374011e-08
85	0x2500fcbd	1.1187861e-16
86	0x3967db55	0.00022111584
87	0x39f53b76	0.00046774343
88	0x1e694f7f	1.2351357e-20
89	0x1eb65554	1.930529e-20
90	0x3c78d3b5	0.015187194
91	0x1f87f512	5.758016e-20
92	0x17ba3878	1.2034223e-24
93	0x00000000	0.0
94	0x2e2b35d2	3.89287e-11
95	0x1d216d2f	2.136462e-21
96	0x1d5dd5e0	2.9359677e-21
97	0x00000000	0.0
98	0x2cac06ce	4.8892895e-12
99	0x3a45a4f3	0.0007539533
100	0x1c5203c2	6.948803e-22
101	0x1932eede	9.250623e-24
102	0x31ab8dc9	4.992874e-09
103	0x1b3d46f5	1.5656641e-22
104	0x1686cf0f	2.177954e-25
105	0x2a53be1d	1.8806523e-13
106	0x1999d04c	1.590396e-23
107	0x1d74e18b	3.2409734e-21
108	0x3393da74	6.884957e-08
109	0x1c0582b7	4.4174954e-22
110	0x36daa3bc	6.5159675e-06
111	0x1c1c47cb	5.170886e-22
112	0x398ea191	0.00027204727
113	0x00000000	0.0
114	0x16e282e8	3.6594883e-25
115	0x00000000	0.0
116	0x33a4ad9a	7.668423e-08
117	0x3bcb3b65	0.0062021487
118	0x333eeae7	4.4451465e-08
119	0x1e09adf7	7.288695e-21
120	0x1c6dd547	7.8692377e-22
121	0x0d114dbc	4.4775144e-31
122	0x26102b2f	5.001856e-16
123	0x16aeeda1	2.826118e-25
124	0x1c0efcc7	4.7310566e-22
125	0x1ea25cbe	1.7190774e-20
126	0x1882a877	3.377432e-24
127	0x194f6333	1.0721682e-23

exp_avg f4 [64, 128]
0	0x00000000	0.0
1	0x00000000	0.0
2	0x00000000	0.0
3	0x00000000	0.0
4	0x00000000	0.0
5	0x00000000	0.0
6	0x00000000	0.0
7	0x00000000	0.0
8	0x00000000	0.0
9	0x00000000	0.0
10	0x00000004	6e-45
11	0x00000000	0.0
12	0x00000000	0.0
13	0x00000000	0.0
14	0x00000000	0.0
15	0x00000000	0.0
16	0x00000004	6e-45
17	0x00000000	0.0
18	0x00000000	0.0
19	0x00000000	0.0
20	0x00000000	0.0
21	0x00000004	6e-45
22	0x00000000	0.0
23	0x00000000	0.0
24	0x00000000	0.0
25	0x00000000	0.0
26	0x00000000	0.0
27	0x00000000	0.0
28	0x00000000	0.0
29	0x00000000	0.0
30	0x00000004	6e-45
31	0x00000004	6e-45
32	0x00000000	0.0
33	0x00000000	0.0
34	0x00000000	0.0
35	0x00000000	0.0
36	0x00000000	0.0
37	0x00000000	0.0
38	0x00000000	0.0
39	0x00000000	0.0
40	0x00000004	6e-45
41	0x00000000	0.0
42	0x00000000	0.0
43	0x00000000	0.0
44	0x00000000	0.0
45	0x00000000	0.0
46	0x00000004	6e-45
47	0x00000000	0.0
48	0x00000004	6e-45
49	0x00000000	0.0
50	0x00000000	0.0
51	0x00000004	6e-45
52	0x00000004	6e-45
53	0x00000004	6e-45
54	0x00000000	0.0
55	0x00000000	0.0
56	0x00000000	0.0
57	0x00000000	0.0
58	0x00000000	0.0
59	0x00000000	0.0
60	0x00000000	0.0
61	0x00000004	6e-45
62	0x00000000	0.0
63	0x00000000	0.0
64	0x00000000	0.0
65	0x00000000	0.0
66	0x00000000	0.0
67	0x00000000	0.0
68	0x00000000	0.0
69	0x00000000	0.0
70	0x00000000	0.0
71	0x00000000	0.0
72	0x00000000	0.0
73	0x00000000	0.0
74	0x00000000	0.0
75	0x00000000	0.0
76	0x00000004	6e-45
77	0x00000000	0.0
78	0x00000000	0.0
79	0x00000000	0.0
80	0x00000000	0.0
81	0x00000000	0.0
82	0x00000000	0.0
83	0x00000000	0.0
84	0x00000000	0.0
85	0x00000000	0.0
86	0x00000004	6e-45
87	0x00000004	6e-45
88	0x00000000	0.0
89	0x00000000	0.0
90	0x00000004	6e-45
91	0x00000000	0.0
92	0x00000000	0.0
93	0x00000000	0.0
94	0x00000004	6e-45
95	0x00000000	0.0
96	0x00000000	0.0
97	0x00000000	0.0
98	0x00000000	0.0
99	0x00000000	0.0
100	0x00000000	0.0
101	0x00000000	0.0
102	0x00000000	0.0
103	0x00000000	0.0
104	0x00000000	0.0
105	0x00000000	0.0
106	0x00000000	0.0
107	0x00000000	0.0
108	0x00000004	6e-45
109	0x00000000	0.0
110	0x00000004	6e-45
111	0x00000000	0.0
112	0x00000004	6e-45
113	0x00000000	0.0
114	0x00000000	0.0
115	0x00000000	0.0
116	0x00000004	6e-45
117	0x00000004	6e-45
118	0x00000000	0.0
119	0x00000000	0.0
120	0x00000000	0.0
121	0x00000000	0.0
122	0x00000000	0.0
123	0x00000000	0.0
124	0x00000000	0.0
125	0x00000000	0.0
126	0x00000000	0.0
127	0x00000000	0.0
128	0x00000004	6e-45
129	0x00000004	6e-45
130	0x00000004	6e-45
131	0x00000004	6e-45
132	0x00000004	6e-45
133	0x00000004	6e-45
134	0x00000000	0.0
135	0x80000004	-6e-45
136	0x00000004	6e-45
137	0x00000000	0.0
138	0x00000004	6e-45
139	0x00000004	6e-45
140	0x00000000	0.0
141	0x00000004	6e-45
142	0x80000004	-6e-45
143	0x00000004	6e-45
144	0x00000004	6e-45
145	0x80000004	-6e-45
146	0x00000004	6e-45
147	0x00000004	6e-45
148	0x80000004	-6e-45
149	0x00000004	6e-45
150	0x00000000	0.0
151	0x00000004	6e-45
152	0x80000004	-6e-45
153	0x80000004	-6e-45
154	0x00000004	6e-45
155	0x00000004	6e-45
156	0x80000004	-6e-45
157	0x00000004	6e-45
158	0x00000004	6e-45
159	0x00000004	6e-45
160	0x80000004	-6e-45
161	0x00000004	6e-45
162	0x00000000	0.0
163	0x80000004	-6e-45
164	0x00000004	6e-45
165	0x00000000	0.0
166	0x00000004	6e-45
167	0x00000000	0.0
168	0x00000004	6e-45
169	0x00000004	6e-45
170	0x00000004	6e-45
171	0x00000004	6e-45
172	0x80000004	-6e-45
173	0x00000004	6e-45
174	0x80000004	-6e-45
175	0x00000000	0.0
176	0x00000004	6e-45
177	0x80000004	-6e-45
178	0x00000004	6e-45
179	0x00000004	6e-45
180	0x00000004	6e-45
181	0x80000004	-6e-45
182	0x80000004	-6e-45
183	0x00000000	0.0
184	0x00000004	6e-45
185	0x00000000	0.0
186	0x00000000	0.0
187	0x80000004	-6e-45
188	0x00000004	6e-45
189	0x80000004	-6e-45
190	0x00000000	0.0
191	0x00000004	6e-45
192	0x00000004	6e-45
193	0x00000004	6e-45
194	0x00000004	6e-45
195	0x00000004	6e-45
196	0x80000004	-6e-45
197	0x00000004	6e-45
198	0x80000004	-6e-45
199	0x80000004	-6e-45
200	0x80000004	-6e-45
201	0x80000004	-6e-45
202	0x00000000	0.0
203	0x00000000	0.0
204	0x00000004	6e-45
205	0x00000004	6e-45
206	0x00000004	6e-45
207	0x80000004	-6e-45
208	0x00000000	0.0
209	0x00000004	6e-45
210	0x00000004	6e-45
211	0x00000004	6e-45
212	0x00000004	6e-45
213	0x80000004	-6e-45
214	0x00000004	6e-45
215	0x00000004	6e-45
216	0x80000004	-6e-45
217	0x00000004	6e-45
218	0x00000004	6e-45
219	0x00000004	6e-45
220	0x80000004	-6e-45
221	0x00000000	0.0
222	0x00000004	6e-45
223	0x00000004	6e-45
224	0x00000004	6e-45
225	0x00000000	0.0
226	0x80000004	-6e-45
227	0x00000004	6e-45
228	0x00000004	6e-45
229	0x00000004	6e-45
230	0x80000004	-6e-45
231	0x80000004	-6e-45
232	0x80000004	-6e-45
233	0x80000004	-6e-45
234	0x00000004	6e-45
235	0x00000004	6e-45
236	0x00000004	6e-45
237	0x00000004	6e-45
238	0x00000004	6e-45
239	0x00000004	6e-45
240	0x00000004	6e-45
241	0x00000000	0.0
242	0x80000004	-6e-45
243	0x00000000	0.0
244	0x80000004	-6e-45
245	0x00000004	6e-45
246	0x00000004	6e-45
247	0x00000004	6e-45
248	0x00000004	6e-45
249	0x00000000	0.0
250	0x00000004	6e-45
251	0x00000000	0.0
252	0x80000004	-6e-45
253	0x00000000	0.0
254	0x80000004	-6e-45
255	0x00000000	0.0
