src/model_data/Singapore_Grand_Prix_model.pth (torch, 198037 bytes, 21 tensors)

net.0.weight f4 [128, 48]
000000 f5 3c 53 be 16 41 41 be ee d8 08 be 05 db cb bd
       -0.20628722 -0.18872485 -0.13364002 -0.09953884
000010 f4 f4 86 bd 65 bb 9e 3d e9 ba 56 3c ab 8f 47 bf
       -0.0658969 0.077505864 0.013106086 -0.77953595
000020 3d 3e d6 3c 64 2e 9e bc f5 4e 47 be 48 0d 6b be
       0.026152724 -0.01930923 -0.19463713 -0.22954285
000030 98 a0 00 3d 33 0d b6 bb f9 c5 d3 bd 45 ed e0 3d
       0.031403154 -0.0055557727 -0.10340495 0.109827556
000040 4b d1 5f be d8 d4 41 be f4 57 cd 3d b3 4e 35 bd
       -0.21857183 -0.1892885 0.10026541 -0.044264507
000050 b8 29 81 bd 33 81 6b bd be e0 46 be 8b 08 f5 bd
       -0.06306785 -0.05749626 -0.1942167 -0.1196452
000060 d4 4c de 3c 33 f1 2c bd db c7 fc bd 40 37 35 bf
       0.027136244 -0.042222213 -0.12342807 -0.7078743
000070 b3 d1 1d 3e 8c de 99 bd 2d 0e 78 bd 13 bc 63 be
       0.15412025 -0.075131506 -0.060560394 -0.22239713
000080 4c c6 64 bd 40 ec a1 be 94 77 41 3e 07 a4 57 be
       -0.055853173 -0.31625557 0.18893272 -0.21058665
000090 08 c8 09 be 2e 06 47 3d 1d 3a 99 3e 18 45 12 3f
       -0.13455212 0.048589878 0.2992715 0.5713668
0000a0 d1 01 ec 3e 11 1a 61 be 9c 43 35 bd 06 67 c6 be
       0.46095136 -0.219826 -0.04425393 -0.38750476
0000b0 02 4c 02 be be ba c5 3d 20 02 3d be c8 a2 8d 3d
       -0.12724307 0.09654759 -0.18457842 0.06915814
0000c0 21 d9 32 be 5f 9b c2 bd 87 05 da 3d 2d b2 a3 3d
       -0.1746564 -0.09502291 0.106455855 0.07992969
0000d0 50 32 10 3e 41 2e 1a be 05 7c 6f be 26 af df 3c
       0.14081693 -0.15056707 -0.23387153 0.027305197
0000e0 6a 24 3e be 77 19 9a bd bf 91 99 bd fa cf 4f 3b
       -0.18568578 -0.07524388 -0.07498502 0.0031709657
0000f0 98 0d 21 be d7 5e 88 bc bf b3 26 3e 49 96 a7 3d
       -0.15727842 -0.016646786 0.16279505 0.081829615
000100 37 67 f4 bd 3f 15 e4 3c 9b 4f 0a bd 11 66 8e 3d
       -0.11933749 0.027842162 -0.033767324 0.06953061
000110 cd 14 38 3e 45 51 99 bd 9a af c1 bb 5b 9b 97 3d
       0.17976685 -0.07486204 -0.005910826 0.074026786
000120 73 d0 0f bd 57 b3 e1 bd bf 61 da 3d b7 be 6c bd
       -0.035110902 -0.110205345 0.10663175 -0.057799067
000130 1b ad f6 bd 64 b7 22 be 8f ae 58 3c 52 ed a6 3c
       -0.12044736 -0.1589027 0.013225212 0.020376835
000140 d9 a0 a4 3d 11 08 37 be db e2 94 bd b7 be 28 be
       0.08038492 -0.17874171 -0.07269832 -0.16479002
000150 ac 0a 2b be b1 c7 11 be 9e 4a 13 3e 30 4c 74 bc
       -0.1670329 -0.14236332 0.14383933 -0.014910743
000160 54 95 0d be 64 b1 0b 3e eb 43 b6 3d 64 6a fe 3d
       -0.13826495 0.13641888 0.08899673 0.12422636
000170 ad 9a b2 3d c1 d4 07 be 12 07 bd 3d 2e 8b f8 3d
       0.08720908 -0.13264753 0.09229864 0.121359214
000180 5a 30 97 be bb 73 89 bc 82 42 22 bf ee 9f 4d be
       -0.29529077 -0.016778817 -0.6338273 -0.2008054
000190 e6 5b 2d be 0a 57 ac be 0e d2 07 bf 3b db 9b 3e
       -0.16929588 -0.33660156 -0.53054893 0.30440697
0001a0 f4 4c 5b bd 99 4d ae bc 0d d0 8a bd 5b 70 19 be
       -0.053540185 -0.021277236 -0.06777964 -0.14984266
0001b0 ce 5b ed 3c 63 fe 7f bd 38 fb 27 3d 3f 70 22 be
       0.02897444 -0.06249846 0.041011065 -0.15863131
0001c0 1f eb 8b be cf 50 eb 3b d1 5c a8 bf 32 da 55 be
       -0.2732782 0.007181264 -1.3153325 -0.20884016
0001d0 cb 7e 3f be 02 31 0b bf 57 44 12 bf e1 c1 2a bf
       -0.18700711 -0.54371655 -0.5713553 -0.66702086
0001e0 26 75 34 bf 2f 48 9e be cc ae ab 3c 8a 43 33 3f
       -0.70491254 -0.30914447 0.020957373 0.7002493
0001f0 6f d8 d0 be 85 00 2a be fa 88 68 bf 4b 04 0b bf
       -0.40790126 -0.1660176 -0.9083401 -0.54303426
000200 81 33 61 be 31 3f e2 3d c6 3b 16 bd a8 46 5f bd
       -0.21992303 0.11047209 -0.0366781 -0.054510742
000210 f8 e5 56 3d 23 3a 90 bc b0 54 10 c0 5f 2b 21 c0
       0.05246541 -0.017605847 -2.255169 -2.5182722
000220 60 e8 f0 bf ea 1f 8a 3e 39 41 22 3e e6 d1 66 3e
       -1.8820915 0.26977473 0.15845193 0.22541007
000230 be 53 eb bd db 97 6e bf cb 67 af bf db 12 3d bf
       -0.11490582 -0.93200463 -1.370355 -0.73856896
000240 58 8e 8d bd a8 8a d0 3d 66 75 1c be af f3 23 3e
       -0.069119155 0.101826966 -0.15279159 0.16010927
000250 55 32 93 be 82 5f 17 be 28 01 d0 bd 97 46 ac be
       -0.28749338 -0.14782527 -0.101564705 -0.33647606
000260 d2 b2 13 3e 33 94 02 3e 02 ae ce 3d 77 97 67 3e
       0.14423683 0.12751846 0.10091783 0.22616373
000270 e0 dd 60 bd 08 7c 65 bd 40 47 8f bd 7c 7b 9b 3c
       -0.054899096 -0.05602649 -0.06996012 0.01897978
000280 15 50 d4 be 3c 25 60 3e 5c 84 bc 3d 56 d7 95 3e
       -0.41467348 0.21889204 0.09204933 0.2926585
000290 ac 02 e6 be ee 46 1b bf ab 02 67 be e9 b0 61 3d
       -0.44923913 -0.60655105 -0.22559611 0.055100355
0002a0 e6 6f 32 3e cd e2 bc 3d fc b7 ec bd 30 55 35 bf
       0.17425498 0.09222946 -0.1155853 -0.7083311
0002b0 0b 1a 9d 3d e6 f5 75 bc f5 b6 c0 3e de ab c7 3e
       0.07670983 -0.01501224 0.37639585 0.38998312
0002c0 f0 bf a1 3d 8d 09 5a be 35 ef ad be e7 a9 ff 3d
       0.07897937 -0.21292706 -0.33971563 0.12483578
0002d0 00 d4 88 bd 0b 81 60 be b4 1d f3 3f 80 d0 f2 3f
       -0.06681061 -0.21924226 1.899344 1.8969879
0002e0 35 f1 dc 3f be 2b 43 be 0f 40 30 3f 23 bc 04 bf
       1.726111 -0.19059655 0.68847746 -0.51849574
0002f0 98 9c c2 3e 96 77 20 3f f6 f8 ec 3e fc 64 5d 3f
       0.38010097 0.62682474 0.46283692 0.86482215
000300 01 b1 e8 3c 63 e6 9e bd f8 d7 13 3e dc 91 4e bd
       0.028404715 -0.077587865 0.14437854 -0.05043207
000310 65 b3 e6 bd 46 af 1b be e3 70 d4 bd 37 f7 9a bd
       -0.112646855 -0.1520358 -0.10373094 -0.07566684
000320 64 bd c6 bd f8 f5 e2 bd 5a 8f d1 bd 87 46 01 be
       -0.09704092 -0.11082071 -0.1023242 -0.1262456
000330 26 a7 33 be ac e9 a7 bd 67 5a 3b 3e 38 2b 56 3d
       -0.17544231 -0.08198866 0.18296205 0.05228731
000340 18 23 2a 3e 56 5e c7 3d f6 ef 41 3d d4 31 10 3d
       0.1661495 0.0973479 0.047347985 0.03520377
000350 98 d8 08 be 5f e4 f4 3d 47 b3 d1 3c 0b 0e 0a be
       -0.13363874 0.11957621 0.025598181 -0.1348192
000360 e4 f0 81 3c 1f c2 12 bd 15 c6 91 3d 36 ab 81 3d
       0.015861936 -0.03582966 0.07117859 0.06331484
000370 c5 bf 1d 3e 82 fd bd bd fa f6 01 be f4 c1 ba 3d
       0.15405186 -0.092768684 -0.1269187 0.09119025
000380 20 22 19 3e cc 0b 3c bd 25 f5 9e bd b2 f0 af bd
       0.14954424 -0.045909688 -0.07761601 -0.08590831
000390 38 e6 45 3d dd 6d 3d bc ad 02 98 3d 0a 1c 7c 3c
       0.048315257 -0.011561838 0.07422385 0.015387544
0003a0 04 24 04 3e ff ee 33 3d 30 a2 61 bc be d8 a6 3d
       0.12904364 0.043929096 -0.013771579 0.08146809
0003b0 05 13 f2 3d f7 f4 b0 3d ad 36 37 be 61 a1 cd bd
       0.11820034 0.08640473 -0.17891951 -0.10040546
0003c0 21 41 49 be f2 94 63 be 5e 85 82 be 6f 1e 59 be
       -0.19653751 -0.22224787 -0.25492376 -0.21203016
0003d0 aa 70 77 be 67 3f 57 be dd 0f f5 be 12 0d c1 bd
       -0.24164072 -0.2102028 -0.47863665 -0.09426321
0003e0 6f 9c 84 be c6 d7 fe 3c 57 c0 22 be 56 44 cb bd
       -0.259006 0.031108748 -0.15893684 -0.099251434
0003f0 0e d4 78 bd b9 54 ec 3d 9e 4d 7d bc 8b 8a c0 3d
       -0.060749106 0.11539597 -0.0154604 0.09401425

net.0.bias f4 [128]
000000 90 1b 1c be 8e ba fa bc e7 9f 62 3d 6e ea fa bd
       -0.1524489 -0.030606534 0.055328276 -0.12251745
000010 00 00 00 00 bb 37 74 bd 72 5d bd bd dd 11 82 bc
       0.0 -0.05962346 -0.09246339 -0.015877659
000020 a2 bb ad bd ce 5b 8c 3e 00 00 00 00 d1 28 be bc
       -0.08483054 0.2741379 0.0 -0.023212822
000030 5e 1c f2 bc 47 f6 37 be f5 f3 30 be 66 72 93 be
       -0.029554542 -0.17965041 -0.17280562 -0.28798217
000040 04 5a e6 bd 00 00 00 00 db df 20 bc d4 d7 be 3e
       -0.11247638 0.0 -0.009818996 0.3727404
000050 33 d7 29 bd 6a 1c c4 be 6e 7d fe bc 54 50 32 bd
       -0.041464996 -0.38302928 -0.031065669 -0.043533638
000060 00 00 00 00 00 00 00 00 43 ea f0 bd 07 21 3c bd
       0.0 0.0 -0.11763432 -0.045929935
000070 cd 07 8b bd 44 c5 30 3e c2 52 82 bc 3b 20 8f bc
       -0.06788597 0.17262751 -0.015908603 -0.017471423
000080 00 00 00 00 6e 36 1d be 00 00 00 00 00 00 00 00
       0.0 -0.15352795 0.0 0.0
000090 c1 61 51 bd 73 f8 77 bd 00 00 00 00 00 00 00 00
       -0.051118616 -0.060539674 0.0 0.0
0000a0 21 f5 ca bc 00 00 00 00 7f 49 e3 bc 00 00 00 00
       -0.02477509 0.0 -0.027745007 0.0
0000b0 fd c7 20 be 00 00 00 00 07 86 be bc 6a a3 7b 3c
       -0.1570129 0.0 -0.023257269 0.015358785
0000c0 1c a9 6a bc 1d 14 a9 bd 78 b9 0a be 00 00 00 00
       -0.014322545 -0.082557894 -0.13547313 0.0
0000d0 83 ae 50 3c 46 f7 56 3d 36 68 57 bc 39 bd 94 bd
       0.012736919 0.052481912 -0.013147404 -0.07262654
0000e0 0c dc 95 bd b4 1f 9c 3e 21 7d 07 bd 05 7f a5 bc
       -0.07317361 0.30492938 -0.033078317 -0.02020217
0000f0 dd 68 ba bd 8c eb 99 bc 00 00 00 00 11 a6 04 be
       -0.09102032 -0.018789075 0.0 -0.12953974
000100 ab 84 30 bd 00 00 00 00 bd f2 84 3d 00 00 00 00
       -0.043095272 0.0 0.06491611 0.0
000110 2e a5 55 bd a5 89 f9 bc 44 e5 4f bd e3 d6 05 bd
       -0.05215948 -0.030461142 -0.050755754 -0.032675635
000120 2f f4 5a bd ed 33 9e bd 53 f4 ab bd 4d 7a 78 bc
       -0.053455528 -0.07724748 -0.083962105 -0.0151658775
000130 50 cc c3 be 00 00 00 00 32 1d 9b be 9c f9 e9 3d
       -0.38241816 0.0 -0.30295712 0.11424562
000140 89 30 a1 3e a7 05 1f 3d 00 00 00 00 00 00 00 00
       0.31482342 0.03882375 0.0 0.0
000150 7c 9e d6 bd 7d 85 62 be 00 00 00 00 c1 2f a0 bd
       -0.10479447 -0.22121234 0.0 -0.07821608
000160 00 00 00 00 c2 aa e4 3b ed 6c ef bc a9 1e 06 bd
       0.0 0.0069783637 -0.029226745 -0.032744084
000170 00 00 00 00 8a 3d 1f 3e 0c e9 a5 bd de bd 54 bd
       0.0 0.15550819 -0.08101091 -0.051938884
000180 00 00 00 00 1c af 51 bd 60 39 ba bd e4 83 bb be
       0.0 -0.051192388 -0.09092975 -0.36624062
000190 5a da cf bd 64 3d e6 bc c7 b1 f5 3b f7 97 d3 bc
       -0.10149069 -0.028105445 0.0074979994 -0.025829298
0001a0 d6 5f ce bd 1a b5 fe bc c0 67 ab bd f7 03 2e 3e
       -0.10076873 -0.031092215 -0.08369398 0.169937
0001b0 65 12 34 bd c5 d1 54 bd 34 2d a7 be ab 5e 32 be
       -0.043962855 -0.051957864 -0.32651675 -0.17418925
0001c0 95 59 29 3b 34 a2 41 bd f5 91 a8 bd d8 00 08 bd
       0.0025840749 -0.04727383 -0.08230964 -0.03320393
0001d0 82 b5 9f b9 b7 28 ca bd a8 d3 3a bd 05 9c cb bd
       -0.00030462077 -0.09871047 -0.045612007 -0.09941868
0001e0 b2 c6 a8 bd 68 9a c4 bd 00 00 00 00 06 f1 bf 3e
       -0.08241023 -0.09599763 0.0 0.37488574
0001f0 b4 2a a7 bc 00 00 00 00 8b a3 3b be 94 eb 85 bb
       -0.020406105 0.0 -0.18324105 -0.004086921

net.2.weight f4 [64, 128]
000000 f9 78 0a bd 76 85 57 3d 17 49 df bc 18 1e 84 3d
       -0.033806775 0.052617513 -0.027256532 0.064510524
000010 ab d9 13 be af 96 f7 bd 62 d3 3a 3d 79 97 56 be
       -0.14438502 -0.120892875 0.045611747 -0.2095622
000020 6d 8f 0e 3e e3 5f ad 3d 13 26 78 3d 13 c2 69 be
       0.139219 0.084655546 0.060583185 -0.2282794
000030 b8 a2 f5 3d e8 da 81 3b f0 e2 34 bd 69 34 a5 3d
       0.11993927 0.0039628632 -0.044161737 0.08066637
000040 e6 d0 c6 bd 70 5a 14 bc 6e 1f 08 3e d5 95 4a be
       -0.09707813 -0.009054765 0.1329324 -0.19783719
000050 51 b4 97 3d c3 a8 0a 3a 7e 10 90 bd 22 7a fe bc
       0.074074395 0.00052894297 -0.07034396 -0.031064097
000060 48 e0 2d bd 68 a5 1e 3d 8f 0e b8 3c 7c 2c 07 bd
       -0.04245022 0.038731962 0.02246788 -0.033001408
000070 5e 63 e2 bd 94 c9 54 be 2b 23 2a 3d eb 62 34 be
       -0.11054109 -0.20780021 0.041537445 -0.17615859
000080 8c b1 1d 3e d0 25 2b bd 40 ec ec 3d 7b 53 81 3d
       0.1539976 -0.041784108 0.115684986 0.06314751
000090 83 4f 39 be 4f a6 9d bd 7a aa 7d bc b1 d4 92 3d
       -0.18096738 -0.076977365 -0.015482539 0.07169474
0000a0 01 aa e3 3d 2f 02 d7 3d bf 85 8c 3c 3a 64 1c 3e
       0.1111641 0.10498463 0.017153619 0.15272608
0000b0 b2 60 cf bd 91 ed 1e be 64 b7 bc bd a9 ed 34 be
       -0.10125865 -0.15520312 -0.092146665 -0.17668785
0000c0 6b d2 20 be 45 37 92 bc f5 11 40 3d be 95 26 bd
       -0.15705268 -0.01784862 0.046892125 -0.04067015
0000d0 ad f0 9d 3d 24 e6 78 be f1 4d 49 b9 07 ec 23 3d
       0.07711921 -0.24306542 -0.00019197889 0.040020015
0000e0 f5 ba 23 3e d0 2f 25 be 76 c6 1a 3d 04 a5 9d bc
       0.15989287 -0.1613152 0.037786923 -0.019243725
0000f0 d7 76 d9 3d f6 5c 2c 3d 0a ff ed 3d ec 3f 70 bd
       0.1061837 0.042080842 0.116209105 -0.05865471
000100 61 f0 5d 3b 6b 5d 2d be 89 3b 7f be 18 98 0c be
       0.00338652 -0.16930167 -0.24925055 -0.13729894
000110 e1 af 44 be 44 3a 0c 3e 77 63 ac bc d5 59 27 bd
       -0.19207717 0.13694102 -0.021043522 -0.040857155
000120 e8 2e 02 be 71 26 75 3c d5 3c 52 bd 5a 19 22 3e
       -0.12713206 0.014962778 -0.051327545 0.15829983
000130 90 4f b3 bd 90 6a 0b 3e 58 42 6a bd 64 93 9a 3d
       -0.0875541 0.13614869 -0.057192177 0.07547644
000140 67 a8 bc bd 51 45 60 be 76 21 cb 3d 03 76 2e 3d
       -0.09211808 -0.21901442 0.099184915 0.042593013
000150 0f f7 02 be 28 33 df 3d 83 1d fa 3d b3 a7 f5 3d
       -0.12789558 0.10898429 0.1221266 0.11994877
000160 8e 6c 06 be 2f 2f 20 3e cb 3e 07 be 80 47 5c 3d
       -0.13127348 0.15642999 -0.13207547 0.053779125
000170 d2 83 11 bd 6e ae a7 3d 42 e2 8d 3d b1 df 44 bd
       -0.035526104 0.08187567 0.06927921 -0.04806489
000180 7f 0b de 3d 89 97 0c 3e ed 6a ef bd 5f 80 1f be
       0.108420365 0.13729681 -0.11690316 -0.15576313
000190 26 3d 1c bd f7 52 08 3e 05 9a 15 3e 60 5d 1d bc
       -0.038144253 0.13312899 0.14609535 -0.009604782
0001a0 9a e7 06 be e6 e2 a7 bd de dc 23 3e 6d d8 6c bd
       -0.13174286 -0.08197574 0.16002223 -0.057823587
0001b0 39 66 b7 3d b1 79 02 be a2 dd 3a be 0f 71 48 be
       0.08955044 -0.12741734 -0.18248609 -0.19574378
0001c0 75 3a c4 bd fb 81 cd bb 38 09 28 bd c0 df f1 3c
       -0.09581462 -0.0062715984 -0.041024417 0.029525638
0001d0 99 9d d1 bd 1f 81 d9 3c 71 25 f3 bd c3 c7 ab bd
       -0.102351375 0.026550828 -0.11872376 -0.08387711
0001e0 99 fa 2a 3e 19 a2 23 be a5 24 14 3e 1f ab dd ba
       0.16697158 -0.15979804 0.14467104 -0.001691196
0001f0 6a f1 1b 3e 4b 62 f7 3c f1 89 ae 3c 84 e5 bd 3c
       0.15228811 0.030198237 0.02130601 0.02318073
000200 58 81 f7 bd 7c 28 8b bd 32 ca cc 3d 65 59 5f 3d
       -0.12085217 -0.06794831 0.09999503 0.054528613
000210 9e 55 e5 3c 9e 30 e8 bd 4c b8 dc bc e4 66 d1 3d
       0.027994927 -0.11337398 -0.026943348 0.10224703
000220 32 a6 0e be b4 9d ad 3d e2 1c 84 3d e2 68 fe 3d
       -0.13930586 0.08477345 0.064508215 0.124223486
000230 70 2a d5 bd 9f 4e c5 3d 08 89 f4 bd 4a d1 f3 3d
       -0.10408485 0.096341364 -0.11940199 0.11905153
000240 a5 1e 8c bd c3 8f 9a bd 16 ba aa 3b 04 8d 06 bd
       -0.068417825 -0.075469516 0.0052101715 -0.032849327
000250 50 90 f2 bc ff 8a 09 be a0 74 74 3e 53 35 ba bb
       -0.02960983 -0.13431929 0.23872614 -0.0056826263
000260 1e 00 f3 bd 9f 0e 2f be 82 60 9a bd 75 5b 8a 3d
       -0.11865257 -0.17095421 -0.07537939 0.06755725
000270 48 dd 0d 3e 78 d1 10 be 6c 50 fc bc 46 cf f5 3d
       0.13853943 -0.14142406 -0.030800067 0.12002425
000280 6f d8 b2 3d e1 89 ea bd df 47 72 3c 34 da cb bd
       0.08732688 -0.114520796 0.014787643 -0.09953728
000290 40 c4 5d 3e 56 67 f7 3c 75 77 13 be d0 3c 05 be
       0.21656895 0.030200642 -0.14401038 -0.1301148
0002a0 3c 31 48 3c 18 08 1f be 52 ba da bc cb c3 fc 3d
       0.01221877 -0.15530431 -0.026700173 0.12342032
0002b0 69 11 54 bd 4b 91 c9 bc c5 36 9e 3b 2e de 28 bd
       -0.051774416 -0.024605414 0.0048283064 -0.041227512
0002c0 31 ba a4 3d 6d f6 2b 3e 1c f5 a5 3d 4f a9 11 be
       0.08043326 0.16793223 0.081033915 -0.14224742
0002d0 6a b5 b4 3d cf 5d 07 3e 51 ac 14 3e 79 79 b9 bd
       0.088236645 0.13219379 0.14518858 -0.09056372
0002e0 b1 15 19 bd 4c 61 f6 3d 07 25 29 3b 6b fb dd bd
       -0.037374202 0.12030277 0.0025809424 -0.1083897
0002f0 5b 89 4b bd 27 35 b8 3d 12 0b c6 bc 23 18 4f 3e
       -0.04969154 0.08994513 -0.0241752 0.20224051
000300 62 86 b6 3c ac 75 90 3d 3e 7d b1 3d 0b d3 cb bc
       0.022280876 0.07053694 0.08666466 -0.024880907
000310 3b c7 f4 3d d8 1a 34 3e 41 7a 3f bd 25 63 f9 bd
       0.11952063 0.17588365 -0.04674745 -0.121771134
000320 38 2b 7e bb c7 b3 d3 bd fb d2 92 bd f9 a8 99 bd
       -0.0038783085 -0.10337024 -0.071691476 -0.07502932
000330 1a 2c 6f bd c9 c8 ee bd d8 44 c7 be e6 53 2c 3e
       -0.058391668 -0.116593905 -0.3891971 0.1682888
000340 d3 a9 32 3e 45 39 83 bd 7f bb 2b be ee 72 aa 3d
       0.17447595 -0.06407408 -0.16770743 0.08322702
000350 b4 38 5b bd b6 40 82 3d 46 64 d5 bd bd f6 17 be
       -0.053520873 0.06359999 -0.10419516 -0.14840217
000360 cf 45 82 bb 8b b4 bd 3d d7 88 d3 bc 7d 1d 24 be
       -0.003975607 0.092629515 -0.025822086 -0.16026874
000370 79 8e 14 3e 26 27 b6 bd 0f bb 75 bc 4b 9b fc bd
       0.14507474 -0.08894186 -0.0149982115 -0.12334307
000380 90 a1 1d be cc 99 8b 3d c9 03 0e 3d 41 22 80 bd
       -0.15393662 0.06816444 0.03467158 -0.062565334
000390 1d 93 0e be 2c 64 4b bc 73 80 d5 bd d2 3d fb bd
       -0.13923307 -0.01241402 -0.1042489 -0.12267651
0003a0 6c d2 f9 bd 15 9a 8e bd fd ca 87 3d 9a 4b 35 3e
       -0.12198338 -0.069629826 0.06630514 0.17704621
0003b0 fb 8c f6 bd 3f 96 c1 bc 34 88 cf bb 5f 84 a1 bc
       -0.12038609 -0.023631213 -0.0063333753 -0.01971644
0003c0 de 7b 35 3e 7f 2b 12 bd 05 b3 1f 3e cb d0 14 be
       0.17723033 -0.035686012 0.15595634 -0.14532773
0003d0 53 0e c6 3d 86 a5 0e be 33 39 b5 3d 54 ff 37 bd
       0.09670701 -0.1393033 0.088488005 -0.044921234
0003e0 49 a9 28 be 26 2e 69 3d 92 a1 f7 bd 8d da 3f 3e
       -0.16470827 0.056928776 -0.12091364 0.18735714
0003f0 82 00 ec bd b6 f8 2c be 20 c2 9d 3d 2b f7 fc bd
       -0.11523534 -0.1689175 0.07703042 -0.12351831

net.2.bias f4 [64]
000000 5d ff ad bd dc 2e b6 3d 21 cb ef bc 87 d9 40 3e
       -0.08495972 0.088956565 -0.029271664 0.1883298
000010 14 0a 91 bc a5 ee 81 bd a2 1c 02 bd 9f dc 2d be
       -0.017705001 -0.06344346 -0.031765588 -0.16978692
000020 56 a6 c8 3d 3b 84 03 3c bf bf aa 3d a1 71 09 be
       0.09797351 0.008027132 0.08337354 -0.13422252
000030 fa a8 cf 3e 29 e8 9b 3e 7b 20 cf bd 3c 36 38 bd
       0.40558606 0.30450562 -0.10113617 -0.044973597
000040 6e 71 8c 3c c5 80 4b bd 0e b6 1a bd 9b 32 ce bd
       0.017143931 -0.04968335 -0.037771277 -0.10068246
000050 2d 45 7a bd 49 2c da bc a6 c5 35 bb dc 3e ac bd
       -0.061101127 -0.026632445 -0.0027736216 -0.08410427
000060 3c ad 1b be e5 0c 79 bd bb 8a eb bc a4 d1 19 be
       -0.15202802 -0.060803313 -0.028752675 -0.15021378
000070 29 be fa 3c e0 07 b1 bd fd ea 47 be 3d 9d ca bd
       0.030608254 -0.0864408 -0.19523235 -0.09893272
000080 53 3c 4a bd 8e b9 f0 bc 75 25 27 3d d4 10 e4 3c
       -0.049373936 -0.029385354 0.040807206 0.027840056
000090 90 f4 47 3e 2f b5 c2 bc 95 ea 1f bc 3a a2 4d bd
       0.19526887 -0.023768036 -0.009760519 -0.05020354
0000a0 b4 4a 2f bd ef 9e ae bc 4f a3 81 be 12 cb 01 bd
       -0.04279585 -0.02131602 -0.25319907 -0.031687804
0000b0 77 82 45 bd dd ef a7 bc a1 17 02 bd 10 ff 07 bc
       -0.048220124 -0.020500118 -0.031760816 -0.008300558
0000c0 47 1c 82 bd b8 b6 b9 bd e3 66 f7 bc 89 c6 83 bd
       -0.0635305 -0.09068054 -0.030200427 -0.06434352
0000d0 4a 8d df bd 34 8d 4b 3e 74 1c 02 bd 2b 97 03 bd
       -0.109156206 0.19878083 -0.031765416 -0.032126587
0000e0 a0 43 94 bd 18 49 17 3d a4 b8 e0 3d 0f c0 af bd
       -0.07239461 0.036934942 0.109727174 -0.08581554
0000f0 00 fc 58 bd 34 d2 62 bd 5d 40 66 bd 8d 81 dc bc
       -0.0529747 -0.055376247 -0.056213725 -0.026917243

net.4.weight f4 [16, 64]
000000 d0 e6 3a 3e 69 e0 2b bd 86 45 e1 bd 57 92 e0 bd
       0.1825211 -0.04196206 -0.10999589 -0.10965412
000010 a7 50 28 bc 52 07 6f 3d 0d 8d 46 3e 8c da 7e 3d
       -0.010273135 0.05835659 0.19389744 0.06222014
000020 d6 a2 1b be 18 5e 8f be 0e ac 21 be 96 2d 4e 3e
       -0.15198836 -0.28001475 -0.1578829 0.20134577
000030 7b 1f f9 3d 9e 58 83 be c2 52 7b 3e cf 47 a5 3d
       0.121642075 -0.25653547 0.24543288 0.08070337
000040 73 fb f1 3d 4c a3 40 3c dc f8 27 be 83 65 5e 3e
       0.11815538 0.011757683 -0.16403526 0.21718411
000050 6d ce a4 bd ef d5 a0 3d 43 b7 dd bd e1 a6 80 be
       -0.08047185 0.078533046 -0.1082597 -0.25127319
000060 ab e8 20 3e ff df 0b be 36 86 1d be 6c 22 71 3e
       0.15713756 -0.13659666 -0.15383229 0.23548287
000070 c6 c6 01 bd 58 db 68 3e c4 50 db bd d6 c2 7e 3e
       -0.031683706 0.22739923 -0.10708764 0.24879012
000080 31 69 58 be a7 99 0b 3e 36 81 40 3e aa 90 1c be
       -0.21133877 0.13632832 0.1879929 -0.1528956
000090 da a6 df 3d 1e ba 99 be a0 55 be 3d 61 10 bb 3d
       0.10920496 -0.3002481 0.092936754 0.091339834
0000a0 53 b9 ca bd d6 f9 ea bc 20 32 6a 3e 0b 67 1d 3e
       -0.09898629 -0.028683584 0.22870684 0.15371339
0000b0 71 e6 d8 3c a8 55 b0 3d fa 28 90 bd 9f 3d 02 be
       0.02647707 0.08610088 -0.07039066 -0.12718819
0000c0 7e 79 5d bd 7d 58 4d be 64 42 05 3e 22 f2 52 be
       -0.054070942 -0.20053287 0.13013607 -0.20600179
0000d0 4c 3e 3f 3e 5c 4e 21 be 85 b5 3f be ca c1 a0 3c
       0.18676108 -0.15752548 -0.18721588 0.019623656
0000e0 ec 14 ea 3c 03 5f fa bd 86 be 81 be 07 09 34 3e
       0.02857443 -0.12225153 -0.2534067 0.17581569
0000f0 03 1c 2b 3d 06 44 6b 3e 93 f6 0a be 88 1c 42 be
       0.04177476 0.22975168 -0.13570623 -0.18956196
000100 99 ff 12 3e d7 2b de bd dc 08 85 3e a6 ec 30 3e
       0.14355315 -0.108482055 0.25983322 0.17277774
000110 b3 85 07 be 69 f8 2b 3e 08 63 84 be 49 56 60 bd
       -0.13234596 0.1679398 -0.25856805 -0.054769788
000120 21 a4 23 be ab 35 50 bd d6 19 7c be 82 db 55 3e
       -0.15980579 -0.05083243 -0.2461923 0.20884517
000130 3d 58 b3 bd 41 8c a0 3b 08 3e 2a be 6c 2b a9 be
       -0.087570645 0.004899532 -0.16625226 -0.3304094
000140 a3 fe 89 3e ac 52 43 be 12 52 3f be 29 a2 ac bd
       0.26952085 -0.19074506 -0.18683651 -0.08429367
000150 c0 ed a9 bd a8 44 15 be 54 17 b9 bd 98 49 35 be
       -0.082973 -0.14576972 -0.090376526 -0.17703855
000160 bb 45 9b 3e 54 b8 35 be 0a a5 cd 3c f2 dd 82 3e
       0.30326638 -0.17746097 0.02510311 0.25559956
000170 d2 39 c4 3d 74 9a 4f 3e ea 6a d1 3d 27 ad e4 bd
       0.09581341 0.20273763 0.1022547 -0.11165839
000180 90 30 00 be 5e c6 51 3e 61 b9 38 be 31 49 76 be
       -0.12518525 0.20485827 -0.18039466 -0.24051358
000190 82 75 6d bd b0 43 fa bd 1c 14 bd 3d 0f 82 ee bc
       -0.057973392 -0.122199416 0.09232351 -0.029114751
0001a0 80 ae e0 bd dc b6 4f 3d 38 21 3f 3e 36 df 78 3e
       -0.10970783 0.050711498 0.18665016 0.24303898
0001b0 89 78 5f be 32 64 9e 3d a1 ab 8e 3e 10 22 d2 bd
       -0.21823324 0.077339545 0.27865317 -0.10260403
0001c0 bb 0e 04 3e 28 16 9d be 41 44 12 3d a4 f4 6f bb
       0.12896244 -0.30680966 0.035709623 -0.0036614323
0001d0 4e 33 8e 3e 88 a1 60 be 86 97 87 bd b4 21 06 3e
       0.27773517 -0.2193662 -0.06620698 0.13098794
0001e0 f9 44 5f bc 0b 0e ad bd 53 8e 25 be f2 53 89 3e
       -0.013627284 -0.08449944 -0.16167574 0.26821858
0001f0 05 19 57 bd 6c 43 18 3d ee f5 2c be b8 dc d4 bb
       -0.052514095 0.037173674 -0.1689069 -0.0064960383
000200 af d5 e3 bd da 83 f8 3d 70 6d ce 3c 5e 21 d3 bd
       -0.11124741 0.12134524 0.025198668 -0.10309099
000210 32 6a 62 3d fd 02 c4 bd 05 1f a3 bd cc b2 cd 3d
       0.055277057 -0.095708825 -0.07964901 0.100438684
000220 d0 77 00 be 94 2d 2f 3e 93 0d 5d 3e 71 8d 3f be
       -0.12545705 0.1710723 0.2158721 -0.187063
000230 bc cf 43 3d 8a d5 94 be 6f 42 c0 3d 27 35 a2 3b
       0.047805533 -0.29069167 0.09387671 0.004950184
000240 02 32 9e be 73 03 14 ba cb ec d3 bd f1 20 a3 be
       -0.30897528 -0.0005646266 -0.10347899 -0.3186107
000250 a0 79 fa 3d 2c b9 e8 bd 0c 8a 64 be b9 dc e0 ba
       0.122302294 -0.11363444 -0.22318286 -0.0017155624
000260 85 7e 5f be bd f4 95 3d 4d 59 46 3d 91 c5 33 3c
       -0.21825607 0.07322071 0.048425008 0.0109723965
000270 40 2b 25 be b5 46 8e be f5 19 14 3e 96 e6 ef 3a
       -0.1612978 -0.2778832 0.14463027 0.0018302973
000280 e5 51 2f 3e 5a eb c9 bd 11 3f 40 bb 0e 71 35 3e
       0.17121084 -0.09859343 -0.0029334466 0.17718908
000290 c2 6e 44 be d8 2f 88 3d 4d 3c c7 bd 4d 04 22 3e
       -0.19182876 0.066497505 -0.09728298 0.15821953
0002a0 ac 71 04 bc c2 f7 4f bb b2 b4 85 3e bd ee 6f 3e
       -0.008083742 -0.0031733369 0.26114422 0.23430915
0002b0 0d 38 b1 3d 4a ae 4a be 57 dd 87 be c3 09 62 3d
       0.08653269 -0.19793049 -0.26536056 0.05518509
0002c0 31 c3 3e 3e d8 69 38 3e 5e 6a 35 be 66 89 88 be
       0.18629147 0.18009126 -0.17716357 -0.26667327
0002d0 a0 0f 49 be a3 cc eb bd b2 ee d7 bd 60 39 95 3c
       -0.19634867 -0.11513641 -0.105435744 0.018215835
0002e0 ad c8 d1 3c c0 3a 0d be 44 96 6c bd 0b c1 34 3d
       0.025608385 -0.13791943 -0.057760492 0.044129413
0002f0 3a a2 bc bc 1a e1 9a 3d 52 83 c4 3d e4 fe 7e be
       -0.023026574 0.07562466 0.0959536 -0.2490192
000300 ad 25 42 3d e0 63 e1 3d 15 7b 65 3e f8 ea 9e 3d
       0.04739921 0.11005378 0.22410233 0.077596605
000310 0f 88 1d bd 4c c8 49 bd be 6d 2e 3e aa 9d 12 3e
       -0.038459834 -0.049263284 0.17034051 0.14317957
000320 58 c1 ea 3c 7b 76 4e 3e 85 8d 25 be f8 da 91 be
       0.028656647 0.20162384 -0.16167267 -0.28487372
000330 fb 0a a2 be 43 75 85 be 15 fd be bd 0b ee 77 be
       -0.31649002 -0.26066026 -0.09325615 -0.242119
000340 64 67 c7 bd 13 54 57 be 96 6f e6 3c 9e 6d 92 be
       -0.09736517 -0.21028166 0.02812938 -0.28599256
000350 46 39 12 3e fb 39 07 be 79 4f 4c be 83 74 2f 3c
       0.1427966 -0.13205712 -0.19952191 0.010708931
000360 ee 9c ed 3d a9 ec 40 3e 73 cc 47 be 99 0d 27 3e
       0.116021976 0.18840279 -0.19511585 0.16313781
000370 1e 57 32 3e d3 08 ab 3d 97 f3 29 3d 1a 58 71 be
       0.17416045 0.083512925 0.04149207 -0.23568764
000380 6f db 86 bd 04 c9 45 3d 05 8e a5 bd ac bf 5d 3d
       -0.065848224 0.048287407 -0.08083729 0.05413787
000390 54 0e 1e be 3a d5 30 be ef be b3 3d 5d a3 12 3d
       -0.15435153 -0.1726884 0.08776652 0.035800327
0003a0 4a 80 2f 3e 73 d0 7b bd f0 36 be bd 8a 2f 85 be
       0.17138782 -0.06147809 -0.09287822 -0.26012832
0003b0 99 3d 8f 3d 95 a7 6a 3e 4b c0 03 be c9 fd 75 3e
       0.06994171 0.2291549 -0.12866323 0.24022593
0003c0 b8 c1 37 3e 30 63 fe bd fa 0b e0 bd d6 b6 2c be
       0.17944992 -0.12421262 -0.10939784 -0.16866621
0003d0 60 33 1c be cd 4e 7e be 92 34 ba bd a3 0e 55 be
       -0.15253973 -0.24834748 -0.09092058 -0.20806365
0003e0 23 f1 88 3d 19 94 b6 bd 9f 5f ae 3c b3 01 d6 bd
       0.06686618 -0.08914966 0.02128583 -0.10449543
0003f0 b0 ca 81 be bd c1 68 3e b0 c4 1d 3d 79 48 94 bd
       -0.2534995 0.22730155 0.038517654 -0.072403856

net.4.bias f4 [16]
000000 0e 38 13 be 09 bc 91 3d 87 71 13 bd a6 ae d4 bd
       -0.14376852 0.07115943 -0.03599694 -0.10384874
000010 ac 02 08 3f db eb 93 3e de d9 09 bf d2 75 5d be
       0.53129077 0.2889088 -0.53848064 -0.21626976
000020 d3 1c 82 be 1d 2c ff 3e 5c 84 b5 3e bc 3f ee 3e
       -0.25412616 0.49838343 0.35452545 0.46533
000030 d0 dd 9d 3e 1a 7d 03 be 54 c1 39 3d ea 88 ab bd
       0.30833292 -0.12840691 0.045350388 -0.08375724

net.6.weight f4 [1, 16]
000000 4c c4 96 be b8 14 68 3d e8 ae ae 3d e8 3a f3 be
       -0.29446638 0.056660384 0.085294545 -0.4750588
000010 80 5f cf 3d 54 09 72 3e 99 d9 2b bd 2e d0 89 bc
       0.10125637 0.23636371 -0.041955564 -0.0168229
000020 ef 68 4d bd 7e d9 23 3e 61 b4 01 3e b5 31 f6 3c
       -0.0501489 0.16000935 0.12666465 0.030052999
000030 27 88 09 3e 8d ff d3 be c3 d9 4e 3e d5 6c a0 be
       0.13430844 -0.41405907 0.20200257 -0.31333032

exp_avg f4 [128, 48]
000000 04 00 00 00 04 00 00 00 04 00 00 00 04 00 00 00
       6e-45 6e-45 6e-45 6e-45
000010 04 00 00 00 04 00 00 00 04 00 00 00 04 00 00 00
       6e-45 6e-45 6e-45 6e-45
000020 04 00 00 00 04 00 00 00 04 00 00 00 04 00 00 00
       6e-45 6e-45 6e-45 6e-45
000030 04 00 00 00 04 00 00 00 04 00 00 00 04 00 00 80
       6e-45 6e-45 6e-45 -6e-45
000040 04 00 00 00 04 00 00 00 04 00 00 00 04 00 00 00
       6e-45 6e-45 6e-45 6e-45
000050 04 00 00 00 04 00 00 00 04 00 00 00 04 00 00 00
       6e-45 6e-45 6e-45 6e-45
000060 04 00 00 00 04 00 00 00 04 00 00 00 04 00 00 00
       6e-45 6e-45 6e-45 6e-45
000070 04 00 00 00 04 00 00 00 04 00 00 00 04 00 00 00
       6e-45 6e-45 6e-45 6e-45
000080 04 00 00 00 04 00 00 00 04 00 00 00 04 00 00 00
       6e-45 6e-45 6e-45 6e-45
000090 04 00 00 00 04 00 00 00 04 00 00 00 04 00 00 00
       6e-45 6e-45 6e-45 6e-45
0000a0 04 00 00 00 04 00 00 00 04 00 00 00 04 00 00 00
       6e-45 6e-45 6e-45 6e-45
0000b0 04 00 00 00 04 00 00 80 04 00 00 80 04 00 00 80
       6e-45 -6e-45 -6e-45 -6e-45
0000c0 04 00 00 80 04 00 00 80 00 00 00 00 04 00 00 80
       -6e-45 -6e-45 0.0 -6e-45
0000d0 00 00 00 00 00 00 00 00 04 00 00 00 04 00 00 80
       0.0 0.0 6e-45 -6e-45
0000e0 04 00 00 80 04 00 00 80 00 00 00 00 04 00 00 80
       -6e-45 -6e-45 0.0 -6e-45
0000f0 00 00 00 00 00 00 00 00 04 00 00 00 04 00 00 80
       0.0 0.0 6e-45 -6e-45
000100 04 00 00 80 04 00 00 80 00 00 00 00 04 00 00 80
       -6e-45 -6e-45 0.0 -6e-45
000110 00 00 00 00 00 00 00 00 04 00 00 00 04 00 00 80
       0.0 0.0 6e-45 -6e-45
000120 04 00 00 80 04 00 00 80 04 00 00 80 04 00 00 80
       -6e-45 -6e-45 -6e-45 -6e-45
000130 04 00 00 80 04 00 00 80 04 00 00 80 04 00 00 80
       -6e-45 -6e-45 -6e-45 -6e-45
000140 04 00 00 80 04 00 00 80 04 00 00 80 04 00 00 80
       -6e-45 -6e-45 -6e-45 -6e-45
000150 04 00 00 80 04 00 00 80 04 00 00 80 04 00 00 80
       -6e-45 -6e-45 -6e-45 -6e-45
000160 04 00 00 80 04 00 00 80 04 00 00 80 04 00 00 80
       -6e-45 -6e-45 -6e-45 -6e-45
000170 00 00 00 00 04 00 00 80 04 00 00 80 04 00 00 00
       0.0 -6e-45 -6e-45 6e-45
000180 04 00 00 80 04 00 00 80 04 00 00 80 04 00 00 80
       -6e-45 -6e-45 -6e-45 -6e-45
000190 04 00 00 00 04 00 00 00 04 00 00 00 04 00 00 80
       6e-45 6e-45 6e-45 -6e-45
0001a0 04 00 00 80 04 00 00 80 04 00 00 00 04 00 00 80
       -6e-45 -6e-45 6e-45 -6e-45
0001b0 04 00 00 00 04 00 00 00 04 00 00 00 04 00 00 80
       6e-45 6e-45 6e-45 -6e-45
0001c0 04 00 00 80 04 00 00 80 04 00 00 00 04 00 00 80
       -6e-45 -6e-45 6e-45 -6e-45
0001d0 04 00 00 00 04 00 00 00 04 00 00 00 04 00 00 80
       6e-45 6e-45 6e-45 -6e-45
0001e0 04 00 00 80 04 00 00 80 04 00 00 80 04 00 00 80
       -6e-45 -6e-45 -6e-45 -6e-45
0001f0 04 00 00 80 04 00 00 80 04 00 00 80 04 00 00 80
       -6e-45 -6e-45 -6e-45 -6e-45
000200 04 00 00 80 04 00 00 80 04 00 00 80 04 00 00 80
       -6e-45 -6e-45 -6e-45 -6e-45
000210 04 00 00 80 04 00 00 80 04 00 00 80 04 00 00 80
       -6e-45 -6e-45 -6e-45 -6e-45
000220 04 00 00 80 04 00 00 80 04 00 00 80 04 00 00 80
       -6e-45 -6e-45 -6e-45 -6e-45
000230 04 00 00 00 04 00 00 00 04 00 00 00 04 00 00 00
       6e-45 6e-45 6e-45 6e-45
000240 86 b6 03 3e bc 94 28 3e 76 f6 50 3d a8 e7 13 3d
       0.12862596 0.16462988 0.051016293 0.036109596
000250 c7 4b 05 3e 0a 81 c9 3d 5e de 2f 3e e5 f2 ef b5
       0.13017188 0.098390654 0.1717467 -1.7877579e-06
000260 5f 7a ca 40 dc 22 f7 40 14 1a 84 40 8c 0e 8f 3f
       6.327438 7.7230053 4.1281834 1.1176314
000270 60 f1 d2 40 4f a2 a2 40 3c 5a f2 40 04 00 00 80
       6.5919647 5.082313 7.573515 -6e-45
000280 8f 0b 68 3b 8b a6 0c 3b 63 2d be 3a 71 b9 db 39
       0.003540728 0.0021461572 0.0014509376 0.000419091
000290 b3 5c 24 3b 14 02 ad 3b ec a3 7b 3b 4e 62 71 b6
       0.0025079667 0.0052797887 0.0038397266 -3.596902e-06
0002a0 85 b8 f1 37 76 df 85 39 b3 5c 24 3a b3 5c 24 3a
       2.8815362e-05 0.00025534228 0.0006269917 0.0006269917
0002b0 d6 49 67 3e 51 cb 4f 39 53 d2 71 3b b8 5b 34 3c
       0.2258676 0.000198168 0.0036899045 0.011008196
0002c0 6e 37 03 3a 18 ea 04 3c ae 12 66 3c cd a5 26 38
       0.0005005513 0.008112453 0.0140425395 3.9731898e-05
0002d0 b4 39 fc 3b f6 f5 76 3a d5 17 70 b8 c5 1f a8 b9
       0.0076973084 0.00094208063 -5.7242654e-05 -0.00032067127
0002e0 71 80 fa ba 39 a9 00 ba 2e 9c ac bb 52 c0 4d bd
       -0.0019111765 -0.00049080286 -0.0052676415 -0.05023224
0002f0 f4 82 92 3a 01 af 1d 37 47 23 55 ba a0 9a ac 35
       0.0011177943 9.3986755e-06 -0.0008130562 1.286e-06
000300 00 00 00 00 00 00 00 00 00 00 00 00 00 00 00 00
       0.0 0.0 0.0 0.0
000310 00 00 00 00 00 00 00 00 00 00 00 00 00 00 00 00
       0.0 0.0 0.0 0.0
000320 00 00 00 00 00 00 00 00 00 00 00 00 00 00 00 00
       0.0 0.0 0.0 0.0
000330 00 00 00 00 00 00 00 00 00 00 00 00 00 00 00 00
       0.0 0.0 0.0 0.0
000340 00 00 00 00 00 00 00 00 00 00 00 00 00 00 00 00
       0.0 0.0 0.0 0.0
000350 00 00 00 00 00 00 00 00 00 00 00 00 00 00 00 00
       0.0 0.0 0.0 0.0
000360 00 00 00 00 00 00 00 00 00 00 00 00 00 00 00 00
       0.0 0.0 0.0 0.0
000370 00 00 00 00 00 00 00 00 00 00 00 00 00 00 00 00
       0.0 0.0 0.0 0.0
000380 00 00 00 00 00 00 00 00 00 00 00 00 00 00 00 00
       0.0 0.0 0.0 0.0
000390 00 00 00 00 00 00 00 00 00 00 00 00 00 00 00 00
       0.0 0.0 0.0 0.0
0003a0 00 00 00 00 00 00 00 00 00 00 00 00 00 00 00 00
       0.0 0.0 0.0 0.0
0003b0 00 00 00 00 00 00 00 00 00 00 00 00 00 00 00 00
       0.0 0.0 0.0 0.0
0003c0 04 00 00 80 04 00 00 80 04 00 00 00 04 00 00 80
       -6e-45 -6e-45 6e-45 -6e-45
0003d0 04 00 00 80 04 00 00 80 04 00 00 00 04 00 00 80
       -6e-45 -6e-45 6e-45 -6e-45
0003e0 04 00 00 80 04 00 00 80 04 00 00 00 04 00 00 80
       -6e-45 -6e-45 6e-45 -6e-45
0003f0 04 00 00 00 04 00 00 00 04 00 00 00 04 00 00 80
       6e-45 6e-45 6e-45 -6e-45

exp_avg_sq f4 [128, 48]
000000 85 f8 8a 30 2f c9 70 31 6a ac 03 2f f1 fe 22 2f
       1.0111455e-09 3.5038956e-09 1.1975634e-10 1.4824388e-10
000010 a7 86 6b 30 1d 6a 08 30 d8 9e e3 30 98 95 cb 22
       8.5683854e-10 4.962731e-10 1.656157e-09 5.518165e-18
000020 4f 2d 86 36 01 4b d3 36 eb e8 9a 35 ab a1 ba 33
       3.998786e-06 6.2970216e-06 1.1541682e-06 8.690707e-08
000030 32 74 8f 36 06 4b 5d 36 d0 f5 a5 36 b8 c0 08 23
       4.275259e-06 3.2975236e-06 4.9459995e-06 7.4133846e-18
000040 bc 67 27 2b 17 d7 32 2c b5 e9 04 2a 52 c8 0e 2a
       5.947428e-13 2.541472e-12 1.1805039e-13 1.2681634e-13
000050 34 bb 03 2b b7 d2 9d 2a 9c 6b 97 2b 0d 28 4f 26
       4.6800346e-13 2.8035015e-13 1.0759063e-12 7.187183e-16
000060 2a f0 7e 26 82 cb e9 27 97 8f 3d 29 7b cc 4d 29
       8.8449436e-16 6.4891135e-15 4.2090975e-14 4.5696503e-14
000070 2e f3 25 32 81 b1 28 28 73 0a 14 2c ad a5 45 2d
       9.659557e-09 9.3643634e-15 2.1037865e-12 1.1234941e-11
000080 6b 86 b5 28 3a 9b b7 2d ea 77 4a 2d 87 d3 34 27
       2.0153331e-14 2.0873626e-11 1.1508997e-11 2.5094687e-15
000090 7d a9 7d 2d 56 19 02 2c 8e a1 e1 20 9f 08 2a 23
       1.4419019e-11 1.8488175e-12 3.822339e-19 9.217544e-18
0000a0 0d a0 80 26 5f 53 30 28 89 51 f5 28 de 82 3d 31
       8.925166e-16 9.788041e-15 2.7235824e-14 2.757751e-09
0000b0 89 ac 5a 28 52 8a 9a 25 04 b5 6e 29 51 f8 f0 22
       1.21388436e-14 2.680847e-16 5.3003622e-14 6.5315046e-18
0000c0 8d bd 11 1f d2 c2 11 24 00 00 00 00 c6 e3 f6 20
       3.0861737e-20 3.1606882e-17 0.0 4.182475e-19
0000d0 00 00 00 00 00 00 00 00 7d f3 52 1a 30 e8 d6 1b
       0.0 0.0 4.362367e-23 3.5553378e-22
0000e0 94 86 5c 25 3d a5 81 29 00 00 00 00 a1 3b 05 27
       1.9127555e-16 5.757415e-14 0.0 1.8489783e-15
0000f0 00 00 00 00 00 00 00 00 40 11 8c 25 7c ed d2 1b
       0.0 0.0 2.4297818e-16 3.4895056e-22
000100 73 ea de 19 74 ca f7 1e 00 00 00 00 52 73 b9 1b
       2.3048955e-23 2.6235875e-20 0.0 3.0680207e-22
000110 00 00 00 00 00 00 00 00 a1 5b cd 15 07 55 e0 14
       0.0 0.0 8.2943406e-26 2.2651757e-26
000120 93 ce eb 14 5f 29 45 18 0f e0 2d 18 82 93 37 1d
       2.3810415e-26 2.548254e-24 2.2472847e-24 2.4296108e-21
000130 6d 01 2c 24 df 7c 1e 17 54 ee 84 1a de 9a d3 1d
       3.7297762e-17 5.1210163e-25 5.497896e-23 5.6011364e-21
000140 e3 71 db 1b 8b c5 98 20 21 44 aa 24 72 71 cf 1b
       3.6304108e-22 2.5880525e-19 7.384116e-17 3.431859e-22
000150 b1 a8 a8 20 e0 97 95 24 4a 4e 06 11 3e 93 06 13
       2.8571938e-19 6.4875736e-17 1.0594861e-28 1.6985774e-27
000160 b6 e8 66 18 e7 cb f7 1b e7 cb f7 1b ea 51 74 29
       2.9844292e-24 4.099449e-22 4.099449e-22 5.4249933e-14
000170 00 00 00 00 f5 a6 2d 15 6d aa 53 1b 73 4b 12 13
       0.0 3.5068778e-26 1.7508578e-22 1.846499e-27
000180 97 e2 8f 39 f8 f1 70 3d e7 86 14 37 6f dc ba 3a
       0.00027443908 0.05882451 8.852897e-06 0.0014256368
000190 e8 c0 dc 38 e8 ed 64 38 9c 05 89 39 6c 6a 0c 35
       0.00010526349 5.4581003e-05 0.00026134856 5.230893e-07
0001a0 cb a4 ba 3f c5 87 d2 42 b0 55 d7 3d 47 79 ad 40
       1.4581541 105.265175 0.105143905 5.4210544
0001b0 3d 67 11 3f 77 36 aa 3e 21 57 64 3f 70 04 01 35
       0.56798154 0.33244678 0.8919545 4.80627e-07
0001c0 92 77 89 34 c6 98 1d 38 11 b9 bf 33 04 2d 84 35
       2.5605237e-07 3.7574e-05 8.927794e-08 9.847868e-07
0001d0 0d 3f 18 34 bc 1b ef 33 ba a7 71 34 22 d5 2e 2f
       1.4179041e-07 1.11343496e-07 2.2505893e-07 1.5900928e-10
0001e0 15 95 4b 2f 51 94 2d 32 b4 4e bc 32 ab 5d eb 36
       1.8515707e-10 1.0103649e-08 2.192187e-08 7.01445e-06
0001f0 f3 3b 33 3d 1a b5 79 31 29 45 28 35 65 fb 82 37
       0.043758344 3.6337213e-09 6.268552e-07 1.5614272e-05
000200 d0 05 e6 34 c5 f7 94 39 9a 97 ea 3c 86 79 ca 34
       4.2845068e-07 0.00028413362 0.028636742 3.7713852e-07
000210 dd ec a5 39 8e ee c2 3c 47 12 7c 2c a6 c0 81 2e
       0.0003164773 0.023795392 3.58215e-12 5.900462e-11
000220 7c 70 a5 32 33 41 3f 35 a2 83 41 35 bc 63 86 41
       1.925968e-08 7.124792e-07 7.2089654e-07 16.798698
000230 07 bc 5d 31 b2 ff 77 32 96 00 46 38 e2 b9 66 2f
       3.2266614e-09 1.4435431e-08 4.7207424e-05 2.0984417e-10
000240 bb 9a c8 40 70 6d 92 41 6b 8e 36 3f 8f 09 60 3f
       6.268888 18.303436 0.7131106 0.87514585
000250 bb 9c b7 40 a3 bc 44 40 e0 a9 2d 41 6d e1 4c 36
       5.737882 3.0740135 10.853973 3.0529584e-06
000260 c0 ce 96 46 a1 ae f6 46 f3 2e aa 45 86 11 31 44
       19303.375 31575.314 5445.8687 708.2738
000270 03 93 a6 46 17 56 6b 46 b5 45 c4 46 f8 5c 0e 36
       21321.506 15061.522 25122.854 2.1213764e-06
000280 4c 17 86 3b c6 1a 41 3c 5b 3f 66 3a a5 5c 11 3a
       0.0040921327 0.011786168 0.00087832444 0.0005545116
000290 b7 03 4f 3b 3d 4c 0c 3b bd 48 e5 3b bb 57 54 36
       0.0031587908 0.0021407746 0.0069971965 3.1641528e-06
0002a0 9e a8 86 36 23 19 07 38 d7 de 55 39 44 b2 95 39
       4.013141e-06 3.220992e-05 0.00020396277 0.00028552313
0002b0 1c d3 ed 41 c2 bc de 37 07 39 04 3c 66 f0 5f 3d
       29.72808 2.655236e-05 0.008070237 0.05467262
0002c0 53 e7 d7 38 0b 6f 20 3d ff 88 01 3e ec 9f 6c 37
       0.000102950864 0.0391684 0.12649916 1.4103931e-05
0002d0 1a 9d 14 3d 0d 78 1a 3d 6e df eb 32 2d 57 82 35
       0.036282636 0.037712146 2.7459205e-08 9.711126e-07
0002e0 e1 c6 20 38 9d 6b b7 37 80 5e 94 39 11 56 ee 41
       3.8332193e-05 2.1865411e-05 0.00028299168 29.792025
0002f0 5e ee 2f 39 0a fd 8b 34 de 16 52 3a 20 74 8d 34
       0.00016778099 2.6074878e-07 0.0008014272 2.634779e-07
000300 00 00 00 00 00 00 00 00 00 00 00 00 00 00 00 00
       0.0 0.0 0.0 0.0
000310 00 00 00 00 00 00 00 00 00 00 00 00 00 00 00 00
       0.0 0.0 0.0 0.0
000320 00 00 00 00 00 00 00 00 00 00 00 00 00 00 00 00
       0.0 0.0 0.0 0.0
000330 00 00 00 00 00 00 00 00 00 00 00 00 00 00 00 00
       0.0 0.0 0.0 0.0
000340 00 00 00 00 00 00 00 00 00 00 00 00 00 00 00 00
       0.0 0.0 0.0 0.0
000350 00 00 00 00 00 00 00 00 00 00 00 00 00 00 00 00
       0.0 0.0 0.0 0.0
000360 00 00 00 00 00 00 00 00 00 00 00 00 00 00 00 00
       0.0 0.0 0.0 0.0
000370 00 00 00 00 00 00 00 00 00 00 00 00 00 00 00 00
       0.0 0.0 0.0 0.0
000380 00 00 00 00 00 00 00 00 00 00 00 00 00 00 00 00
       0.0 0.0 0.0 0.0
000390 00 00 00 00 00 00 00 00 00 00 00 00 00 00 00 00
       0.0 0.0 0.0 0.0
0003a0 00 00 00 00 00 00 00 00 00 00 00 00 00 00 00 00
       0.0 0.0 0.0 0.0
0003b0 00 00 00 00 00 00 00 00 00 00 00 00 00 00 00 00
       0.0 0.0 0.0 0.0
0003c0 ac a8 2c 39 e4 35 24 3d 48 a0 71 2f f7 64 96 3a
       0.00016466033 0.040090457 2.1975766e-10 0.0011474182
0003d0 76 17 22 33 24 ee 1d 33 c1 93 20 38 5a a1 bc 34
       3.7739902e-08 3.6771e-08 3.828458e-05 3.5135128e-07
0003e0 85 6d 84 3f 96 42 92 42 7c 39 1d 36 b7 e4 8b 40
       1.0345923 73.13005 2.3428283e-06 4.3716693
0003f0 44 ad 80 3c 04 17 9f 3b 0d 22 93 3f 6f f3 aa 34
       0.01570762 0.0048550386 1.1494766 3.184209e-07

exp_avg f4 [128]
000000 04 00 00 00 04 00 00 80 04 00 00 80 b5 5c 24 3a
       6e-45 -6e-45 -6e-45 0.0006269918
000010 00 00 00 00 04 00 00 80 04 00 00 00 04 00 00 80
       0.0 -6e-45 6e-45 -6e-45
000020 04 00 00 00 04 00 00 00 00 00 00 00 04 00 00 80
       6e-45 6e-45 0.0 -6e-45
000030 04 00 00 00 04 00 00 00 04 00 00 00 04 00 00 80
       6e-45 6e-45 6e-45 -6e-45
000040 04 00 00 00 00 00 00 00 04 00 00 00 cd 58 88 3a
       6e-45 0.0 6e-45 0.0010402441
000050 04 00 00 00 d2 19 2c b9 04 00 00 00 04 00 00 00
       6e-45 -0.00016412817 6e-45 6e-45
000060 00 00 00 00 00 00 00 00 04 00 00 00 04 00 00 00
       0.0 0.0 6e-45 6e-45
000070 04 00 00 00 88 c8 01 0f 04 00 00 00 04 00 00 80
       6e-45 6.398812e-30 6e-45 -6e-45
000080 00 00 00 00 04 00 00 00 00 00 00 00 00 00 00 00
       0.0 6e-45 0.0 0.0
000090 04 00 00 00 04 00 00 00 00 00 00 00 00 00 00 00
       6e-45 6e-45 0.0 0.0
0000a0 04 00 00 00 00 00 00 00 04 00 00 00 00 00 00 00
       6e-45 0.0 6e-45 0.0
0000b0 13 ad 1c 3a 00 00 00 00 04 00 00 00 04 00 00 00
       0.0005976718 0.0 6e-45 6e-45
0000c0 04 00 00 00 04 00 00 00 04 00 00 00 00 00 00 00
       6e-45 6e-45 6e-45 0.0
0000d0 04 00 00 00 7a 3d b3 ba 04 00 00 00 04 00 00 00
       6e-45 -0.0013674938 6e-45 6e-45
0000e0 04 00 00 00 04 00 00 00 04 00 00 00 04 00 00 00
       6e-45 6e-45 6e-45 6e-45
0000f0 04 00 00 00 04 00 00 00 00 00 00 00 04 00 00 00
       6e-45 6e-45 0.0 6e-45
000100 04 00 00 00 00 00 00 00 04 00 00 00 00 00 00 00
       6e-45 0.0 6e-45 0.0
000110 04 00 00 80 04 00 00 00 04 00 00 00 04 00 00 00
       -6e-45 6e-45 6e-45 6e-45
000120 04 00 00 80 04 00 00 00 04 00 00 00 04 00 00 00
       -6e-45 6e-45 6e-45 6e-45
000130 d8 c2 09 3a 00 00 00 00 32 24 24 3a 49 f6 cf b9
       0.0005255169 0.0 0.0006261497 -0.00039665613
000140 40 2a a5 3a 39 a6 9e 3a 00 00 00 00 00 00 00 00
       0.0012601092 0.0012103982 0.0 0.0
000150 04 00 00 00 04 00 00 00 00 00 00 00 04 00 00 00
       6e-45 6e-45 0.0 6e-45
000160 00 00 00 00 04 00 00 00 04 00 00 00 04 00 00 00
       0.0 6e-45 6e-45 6e-45
000170 00 00 00 00 04 00 00 00 04 00 00 00 04 00 00 00
       0.0 6e-45 6e-45 6e-45
000180 00 00 00 00 04 00 00 00 04 00 00 00 df 22 38 39
       0.0 6e-45 6e-45 0.00017560598
000190 04 00 00 00 04 00 00 00 04 00 00 00 04 00 00 00
       6e-45 6e-45 6e-45 6e-45
0001a0 04 00 00 00 04 00 00 80 04 00 00 00 af bf 41 3a
       6e-45 -6e-45 6e-45 0.0007390929
0001b0 04 00 00 00 04 00 00 00 04 00 00 00 04 00 00 00
       6e-45 6e-45 6e-45 6e-45
0001c0 04 00 00 00 04 00 00 00 04 00 00 00 04 00 00 00
       6e-45 6e-45 6e-45 6e-45
0001d0 04 00 00 80 04 00 00 00 04 00 00 00 04 00 00 80
       -6e-45 6e-45 6e-45 -6e-45
0001e0 04 00 00 00 04 00 00 00 00 00 00 00 38 13 ea 3a
       6e-45 6e-45 0.0 0.0017858511
0001f0 04 00 00 00 00 00 00 00 04 00 00 00 04 00 00 00
       6e-45 0.0 6e-45 6e-45

exp_avg_sq f4 [128]
000000 31 46 3e 29 e7 cb f7 1b 39 3a 40 35 94 1d 5f 39
       4.2249356e-14 4.099449e-22 7.16103e-07 0.00021277956
000010 00 00 00 00 ff e9 05 35 6e 62 e6 2f 19 b8 57 36
       0.0 4.988687e-07 4.1906695e-10 3.2144656e-06
000020 f6 61 42 23 b7 9e 77 38 00 00 00 00 ad 02 04 37
       1.0537505e-17 5.9037204e-05 0.0 7.868436e-06
000030 af be 0c 18 d9 b6 60 2f 49 a5 46 28 59 bf 92 33
       1.8190847e-24 2.0437642e-10 1.10270484e-14 6.833461e-08
000040 14 af 24 2b 00 00 00 00 b9 f2 e8 1c ff ff 61 3a
       5.8507474e-13 0.0 1.5415215e-21 0.0008621215
000050 82 ba eb 1d 7a 1f a1 38 ed 1a 00 1b 0b 04 0c 33
       6.2396827e-21 7.682941e-05 1.0596612e-22 3.2599967e-08
000060 00 00 00 00 00 00 00 00 ef e1 46 30 11 24 be 28
       0.0 0.0 7.235305e-10 2.1109879e-14
000070 13 84 1d 1a 70 e4 1a 38 22 9c 07 2d cc f5 65 36
       3.2573528e-23 3.692921e-05 7.70853e-12 3.4266732e-06
000080 00 00 00 00 1f f8 2d 30 00 00 00 00 00 00 00 00
       0.0 6.3289635e-10 0.0 0.0
000090 14 65 5a 2f e0 83 85 1f 00 00 00 00 00 00 00 00
       1.9862895e-10 5.654586e-20 0.0 0.0
0000a0 88 06 40 1e 00 00 00 00 cf c5 ab 1d 00 00 00 00
       1.0165746e-20 0.0 4.5467852e-21 0.0
0000b0 c6 39 8e 39 00 00 00 00 fc e2 52 1b f5 35 0c 30
       0.00027127395 0.0 1.7444135e-22 5.100838e-10
0000c0 f9 15 8a 21 f5 28 69 26 07 d0 16 2e 00 00 00 00
       9.35706e-19 8.089362e-16 3.4290817e-11 0.0
0000d0 67 82 3e 37 43 7a 9f 3a 76 21 c7 19 38 21 35 31
       1.1355244e-05 0.0012167174 2.0589633e-23 2.635785e-09
0000e0 5e 92 48 1f e9 4b 20 38 0b 3d 5f 22 6e 7a 3b 2c
       4.247272e-20 3.821767e-05 3.0254451e-18 2.664226e-12
0000f0 7e 91 cc 25 87 c4 33 2f 00 00 00 00 c9 1f 11 27
       3.5486948e-16 1.6349776e-10 0.0 2.0140023e-15
000100 16 3a 58 23 00 00 00 00 8e 94 a9 37 00 00 00 00
       1.1721684e-17 0.0 2.0215546e-05 0.0
000110 bc 38 46 35 c8 48 1d 29 71 42 b0 2c 04 c2 87 15
       7.384331e-07 3.492413e-14 5.0095973e-12 5.483217e-26
000120 60 85 23 34 09 65 8f 26 5b 71 92 23 d8 12 75 2d
       1.522908e-07 9.950004e-16 1.587736e-17 1.3930822e-11
000130 e1 82 9a 39 00 00 00 00 0d e0 5a 39 05 e7 0f 39
       0.0002947068 0.0 0.00020873566 0.00013723604
000140 93 21 13 3b a5 04 93 3a 00 00 00 00 00 00 00 00
       0.0022450432 0.0011216594 0.0 0.0
000150 3f fd a1 2a 50 58 b0 31 00 00 00 00 ff 2f 60 2a
       2.877507e-13 5.132314e-09 0.0 1.9911849e-13
000160 00 00 00 00 f0 0d c9 2c 60 23 1d 24 05 5b 07 20
       0.0 5.714311e-12 3.4073912e-17 1.146506e-19
000170 00 00 00 00 9e 45 d9 31 2d a1 bb 21 52 36 67 1f
       0.0 6.3234458e-09 1.2714276e-18 4.8961085e-20
000180 00 00 00 00 19 f9 e9 24 3c 85 45 30 03 0a 2c 38
       0.0 1.0146963e-16 7.185752e-10 4.101732e-05
000190 d2 08 32 26 7b 93 3e 2d 54 c5 1c 1d b7 98 9d 28
       6.176811e-16 1.0832997e-11 2.0748444e-21 1.7496731e-14
0001a0 23 8c b6 26 c7 7e c3 33 b9 29 fc 30 9e ec a5 39
       1.2666771e-15 9.103456e-08 1.8347271e-09 0.00031647546
0001b0 48 29 0c 18 3a 62 2a 2e 6e 48 b6 33 0d 4a b5 30
       1.8115418e-24 3.8740768e-11 8.48821e-08 1.319053e-09
0001c0 de dd 16 36 8c a3 28 20 e0 10 b1 21 44 a5 dd 1e
       2.2480885e-06 1.4284267e-19 1.1998453e-18 2.3467637e-20
0001d0 7c 46 48 35 ce 8b 74 27 2b bf ff 26 d8 0f 99 32
       7.4608374e-07 3.393759e-15 1.7745996e-15 1.781875e-08
0001e0 5e 67 0a 23 ae 49 75 26 00 00 00 00 ff 27 49 3b
       7.502884e-18 8.5101305e-16 0.0 0.0030694006
0001f0 50 c0 1e 17 00 00 00 00 88 45 e9 30 c1 7c 2b 30
       5.1295286e-25 0.0 1.6972743e-09 6.2386724e-10
