src/model_data/Singapore_model.pth (torch, 197555 bytes, 21 tensors)

net.0.weight f4 [128, 48]
0	0x3ce328fa	0.0277295
1	0xbe26b0dd	-0.16278405
2	0xbdc8e6fc	-0.09809682
3	0x3d801793	0.062544964
4	0x3e093c79	0.13401975
5	0x3d36fd8f	0.044675406
6	0xbdd4eee2	-0.10397126
7	0x3d011cef	0.031521734
8	0x3e021f88	0.1270734
9	0xbd49784c	-0.04918699
10	0xbe376cea	-0.17912641
11	0x3c548b7e	0.012972711
12	0x3d99c515	0.075082935
13	0x3decc4bd	0.11560962
14	0xbe1cb6f6	-0.15304169
15	0xbd810170	-0.06299102
16	0xbde05dec	-0.10955414
17	0xbdbca88f	-0.092118375
18	0x3deec5c8	0.116588175
19	0xbd3ef561	-0.04662073
20	0xbdb0c955	-0.08632151
21	0x3ddd627c	0.108098
22	0x3e377929	0.17917313
23	0xbdcafe48	-0.099117815
24	0x3d5616d0	0.05226785
25	0x3cccfb7a	0.025022257
26	0xbdc6f214	-0.097141415
27	0x3d6d62b1	0.057955448
28	0xbda4e9c6	-0.08052401
29	0x3ce15e4c	0.027510785
30	0xbd28ee75	-0.041243035
31	0x3e2ba82c	0.16763371
32	0x3d87b103	0.06625559
33	0xbd9ca486	-0.07648568
34	0x3c61294a	0.013742754
35	0xbde4452f	-0.11146008
36	0x3e0fbc14	0.1403659
37	0xbe4bc1f8	-0.19898212
38	0xbe02ab51	-0.12760665
39	0x3dd6fb4a	0.10497148
40	0x3e0676be	0.13131234
41	0xbdb3f58d	-0.087870695
42	0x3d8cfa0f	0.068836324
43	0xbbbec6e2	-0.0058220485
44	0xbdbbde02	-0.09173204
45	0xbe094064	-0.1340347
46	0xbdca5d24	-0.098810464
47	0x3e1489d9	0.1450571
48	0x3e050407	0.12989818
49	0x3daab883	0.08335974
50	0xbe3c7ef3	-0.18407802
51	0x3dd42cc1	0.10360099
52	0x3dd8b845	0.105820216
53	0xbccb7e64	-0.024840541
54	0x3d25eb37	0.04050752
55	0x3c99968c	0.018748544
56	0x3bfe1c0d	0.0077548088
57	0xbda8a29b	-0.082341395
58	0x3da46965	0.08027915
59	0x3d694f04	0.05696012
60	0xbcf2c748	-0.02963604
61	0x3d8e8b30	0.06960142
62	0xbbbbebb6	-0.005734886
63	0xbdd0a746	-0.10188155
64	0xbda566e1	-0.08076263
65	0x3e0c5a75	0.13706382
66	0xbe1cf284	-0.15326887
67	0x3dc326cc	0.09528884
68	0x3e32511e	0.17413756
69	0xbd598249	-0.053102765
70	0x3d4cb07e	0.049973004
71	0x3e0be674	0.1366213
72	0xbc483217	-0.012218974
73	0x3daf636f	0.08563887
74	0x3df39dd2	0.11895336
75	0xbe1a346b	-0.15059058
76	0x3c66fbca	0.014098117
77	0xbd82bbcb	-0.06383475
78	0xbdee03f2	-0.11621846
79	0x3e1bce9d	0.15215535
80	0xbdf68f6b	-0.120390736
81	0x3ce8e7ac	0.028430782
82	0x3e2048ea	0.15652815
83	0x3e039be2	0.12852433
84	0x3db9d936	0.09074633
85	0x3db7bd01	0.089715965
86	0x3c1cd216	0.009571573
87	0xbd47cb5b	-0.04877792
88	0xbd6b4a6c	-0.05744402
89	0x3e36e39f	0.17860268
90	0xbd888e2b	-0.066677414
91	0x3cad8fd0	0.02118674
92	0xbdfd0bd0	-0.12355769
93	0xbe15d053	-0.1463025
94	0x3e165881	0.14682199
95	0x3bfb8eed	0.00767695
96	0xbce73ece	-0.02822819
97	0x3d84fe58	0.06493825
98	0xbe0da337	-0.13831793
99	0xbe16e6f2	-0.14736536
100	0xbdb809f7	-0.08986276
101	0xbd873237	-0.066013746
102	0x3d420053	0.04736359
103	0xbc16f41d	-0.009213475
104	0x3ca84870	0.020542353
105	0xbe045e2f	-0.12926553
106	0x3e3c36bc	0.18380255
107	0xbe20784a	-0.15670887
108	0xbe346bf6	-0.17619309
109	0xbe3cc0b8	-0.18432891
110	0x3e0b55ee	0.13606998
111	0xbe14e339	-0.14539804
112	0x3d0be276	0.034151517
113	0x3d967e4d	0.07348309
114	0x3d59ee43	0.05320574
115	0xbda83af5	-0.0821437
116	0xbe2ae991	-0.16690661
117	0xbdeb4431	-0.11487616
118	0x3d37565f	0.044760104
119	0x3d096c98	0.03355083
120	0xbd375fed	-0.044769216
121	0xbca82237	-0.020524127
122	0x3dda080b	0.10646065
123	0x3d723996	0.05913695
124	0x3df74477	0.120736055
125	0xbbe098f5	-0.0068541714
126	0x3e005db0	0.12535739
127	0x3d76a263	0.060213458
128	0xbe15ad21	-0.14616825
129	0x3b26bbb2	0.0025441465
130	0x3e159983	0.14609341
131	0xbdc35239	-0.09537167
132	0x3db1459b	0.08655854
133	0x3e0ab40b	0.13545243
134	0xbe11a04d	-0.14221306
135	0xbd8a5644	-0.06754735
136	0xbe12425c	-0.14283127
137	0xbd097204	-0.033556
138	0x3d0fa511	0.03506953
139	0x3e24f4cf	0.16109012
140	0x3e02e78c	0.1278364
141	0x3dfca5a6	0.123362824
142	0x3cfeab16	0.03108744
143	0xbde6878e	-0.11256324
144	0xbe4da73b	-0.20083325
145	0x3d5432d4	0.051806286
146	0xbe2008cb	-0.15628354
147	0xbdd8aed1	-0.105802186
148	0xbdaba98e	-0.08381949
149	0xbca24c4a	-0.019811768
150	0xbe0e30ff	-0.13885878
151	0xbd54db7e	-0.051967137
152	0xbe47bee3	-0.19506411
153	0x3dd6733e	0.104711995
154	0x3e11e594	0.14247733
155	0xbdaddabd	-0.08488987
156	0xbd5fe8b7	-0.054665294
157	0x3e20bb6f	0.156965
158	0xbe058969	-0.13040699
159	0xbab847d7	-0.0014059496
160	0x3e093d0f	0.13402198
161	0x3e574f15	0.21026261
162	0x3d793611	0.060842577
163	0x3dc755e2	0.09733178
164	0xbc97544c	-0.018472813
165	0xbe6a2a01	-0.22867586
166	0xbd61a977	-0.055093255
167	0xbe1e5557	-0.15462242
168	0xbe194992	-0.14969471
169	0xbe390ac7	-0.18070517
170	0x3de52273	0.11188211
171	0x3dda9b07	0.106741
172	0x3d2da40e	0.042392783
173	0xbd9ca502	-0.0764866
174	0x3ddb6b38	0.1071381
175	0xbe011070	-0.12603927
176	0x3d0d9c80	0.03457308
177	0x3dfac096	0.12243764
178	0xbd58ba32	-0.052911945
179	0xbe1d16ab	-0.15340678
180	0xbe1b82b8	-0.15186584
181	0xbe38e80d	-0.1805727
182	0x3d8333eb	0.06406387
183	0x3c13606a	0.008995155
184	0xbe35cb0f	-0.17753242
185	0xbe35de66	-0.1776062
186	0xbde73658	-0.11289662
187	0x3e212212	0.15735653
188	0x3bc8a6c2	0.0061233947
189	0xbdb5efa6	-0.088836
190	0x3d8e2f62	0.06942631
191	0x3dc10011	0.09423841
192	0xbd88efa1	-0.066863306
193	0x3d67cfa5	0.05659451
194	0x3dee672a	0.11640771
195	0x3e7eaa1c	0.24869579
196	0x3d2e3b10	0.042536795
197	0x3dfa8bb6	0.12233679
198	0x3d99b23b	0.07504698
199	0xbe822ce6	-0.2542488
200	0x3c8ad781	0.016948463
201	0xbd64ab95	-0.055827696
202	0xbe17cb23	-0.14823584
203	0x3e1506e8	0.14553416
204	0x3e2b0c3b	0.16703884
205	0x3ca1c764	0.019748397
206	0xb95aa18c	-0.00020850281
207	0x3dd90882	0.10597326
208	0xbdc29776	-0.09501545
209	0x3db7bdf1	0.08971775
210	0x3d2060ef	0.039154943
211	0xbe25f01c	-0.16204876
212	0xbe0524a9	-0.13002266
213	0x3d42b984	0.047540203
214	0x3cb9a38f	0.022660999
215	0xbd409b7f	-0.047023293
216	0xbdbad0a4	-0.09121826
217	0x3e42669e	0.18984458
218	0xbcda3e30	-0.026640981
219	0xbea5de43	-0.32396135
220	0xbe8af7f0	-0.27142286
221	0xbcd10f5b	-0.025520017
222	0x3e5984b5	0.2124203
223	0x3df04d70	0.1173352
224	0x3d1703b3	0.036868762
225	0x3d7718dc	0.060326442
226	0x3d421c93	0.04739053
227	0x3d3792c8	0.044817716
228	0xbd06e699	-0.03293476
229	0x3dc75a3e	0.09734009
230	0x3d67c6c9	0.05658606
231	0xbe92bfd5	-0.2866198
232	0xbe47d4db	-0.19514792
233	0xbbb640dd	-0.0055619315
234	0xbc1d4b27	-0.009600437
235	0xbddda439	-0.108223386
236	0xbeaa66cd	-0.33281556
237	0xbe957c26	-0.2919628
238	0xbed87142	-0.4227391
239	0xbf2735c2	-0.653164
240	0xbe1ddf72	-0.15417269
241	0x3dc705b9	0.097178884
242	0x3dbc7314	0.09201637
243	0xbb44e1e7	-0.0030041875
244	0xbe2e1fc7	-0.1700431
245	0xbde5ca3e	-0.11220215
246	0x3d28f1d7	0.04124626
247	0xbdfab743	-0.12241986
248	0xbe1b590e	-0.1517069
249	0xbe01dc7a	-0.12681761
250	0x3cad58ba	0.021160472
251	0x3e065d61	0.13121559
252	0xbcd4be13	-0.02596954
253	0xbe2867f4	-0.16445905
254	0xbe210f0d	-0.15728398
255	0x3e2357d4	0.15951473

net.0.bias f4 [128]
0	0xbc5a4400	-0.0133218765
1	0xbb567ddc	-0.0032728827
2	0x00000000	0.0
3	0xbccd6db2	-0.02507672
4	0xbd11af9f	-0.035567876
5	0x00000000	0.0
6	0x39f1d856	0.00046128285
7	0x00000000	0.0
8	0x3d06c540	0.032902956
9	0x00000000	0.0
10	0x3bde6a8f	0.006787605
11	0x00000000	0.0
12	0x00000000	0.0
13	0x3bba8f03	0.005693318
14	0xbd020f39	-0.0317528
15	0x00000000	0.0
16	0x3bcbac0a	0.006215577
17	0x3c7f2a6c	0.015574079
18	0xbcd55640	-0.026042104
19	0xbd35ec8f	-0.044415053
20	0x00000000	0.0
21	0xbd1f6deb	-0.038923185
22	0x3c4dc5ad	0.012559337
23	0xbc97bf84	-0.018523939
24	0xbd74debb	-0.059782725
25	0x00000000	0.0
26	0x3c9e1c4e	0.019300606
27	0x00000000	0.0
28	0xbccefe29	-0.025267677
29	0x00000000	0.0
30	0xbd6cd687	-0.057821777
31	0x39e0f779	0.0004290899
32	0x00000000	0.0
33	0x3c265ad0	0.010153487
34	0x00000000	0.0
35	0x00000000	0.0
36	0xbc4b6fc7	-0.0124167865
37	0x00000000	0.0
38	0xbcd7fa80	-0.026364565
39	0x3d042a90	0.032267153
40	0x3cef76b2	0.029231403
41	0xbc55a491	-0.013039724
42	0xbc8e83ea	-0.017396886
43	0xbd8444de	-0.06458448
44	0x00000000	0.0
45	0x00000000	0.0
46	0xbd69eb73	-0.057109307
47	0xbcbb07d6	-0.022830885
48	0xbc97c400	-0.018526077
49	0x00000000	0.0
50	0x00000000	0.0
51	0x00000000	0.0
52	0xbd29b4fc	-0.041432366
53	0x00000000	0.0
54	0x00000000	0.0
55	0xbd3f287f	-0.04666948
56	0x3d0905e0	0.03345287
57	0x00000000	0.0
58	0xbd1ab9c9	-0.037774835
59	0x3c268edc	0.010165896
60	0xbd025f16	-0.031828962
61	0x00000000	0.0
62	0x00000000	0.0
63	0x3c297353	0.010342437
64	0xbcdd8d8f	-0.02704504
65	0x00000000	0.0
66	0xbd8b1dda	-0.06792803
67	0x00000000	0.0
68	0x00000000	0.0
69	0xbc6fb9b7	-0.01463168
70	0x3cd5c712	0.0260959
71	0xbc628422	-0.013825448
72	0x00000000	0.0
73	0x3d16eff3	0.036849927
74	0x3bdaedf0	0.0066811964
75	0x00000000	0.0
76	0xbd2644d1	-0.040592972
77	0x3b61da2d	0.0034462318
78	0xbce4916f	-0.02790138
79	0xbb481724	-0.003053137
80	0xbceb4b11	-0.028722318
81	0xbc4ceec4	-0.012508098
82	0xbd47a050	-0.04873687
83	0x3abdf68e	0.0014493035
84	0xbd8ece07	-0.0697289
85	0xbd157ccb	-0.036495965
86	0x3c80bf10	0.015716106
87	0x3d0919bc	0.033471808
88	0x3cf2bbea	0.02963062
89	0xbd1620e5	-0.036652464
90	0x3cc591ae	0.024117317
91	0x39a9462c	0.00032286474
92	0x00000000	0.0
93	0x00000000	0.0
94	0xbd350ea8	-0.04420343
95	0x3d171690	0.03688675
96	0xbc89aeea	-0.016807038
97	0x00000000	0.0
98	0xbca81198	-0.020516202
99	0x00000000	0.0
100	0x00000000	0.0
101	0x3d1377f8	0.036003083
102	0x00000000	0.0
103	0xbcbef113	-0.023308313
104	0x3d101ced	0.035183836
105	0xbc83f3ad	-0.016107405
106	0xbca02137	-0.019547088
107	0xbd1d7466	-0.038441084
108	0x00000000	0.0
109	0xbc89425b	-0.016755274
110	0x3d0aa448	0.033848077
111	0x3ce70943	0.028202659
112	0xbddf1acc	-0.10893783
113	0x3ca10de6	0.019659948
114	0x00000000	0.0
115	0x3d02dce7	0.03194895
116	0xbc8e0f51	-0.017341288
117	0x3cc8fc88	0.024534479
118	0xbd3881b5	-0.045045573
119	0xbd5baa7f	-0.053629395
120	0x00000000	0.0
121	0xbd00d649	-0.03145436
122	0xbbd1a903	-0.0063983216
123	0xbcf9bf0e	-0.03048661
124	0xbd4501e5	-0.04809751
125	0xbc468e9f	-0.012118964
126	0xbd212eeb	-0.039351385
127	0xbd2268f7	-0.039650884

net.2.weight f4 [64, 128]
0	0xbda06c30	-0.07833135
1	0x3e270837	0.16311727
2	0x3df8cbd9	0.12148256
3	0xbc13e6b5	-0.009027173
4	0x3d348bf5	0.044078786
5	0xbdd7b36d	-0.105322696
6	0x3d1a8119	0.037720773
7	0x3e09298d	0.13394757
8	0x3d16a39f	0.036777135
9	0x3dcb0faf	0.09915101
10	0x3df8e960	0.12153888
11	0x3c40860d	0.01175071
12	0xbe0b3e94	-0.1359809
13	0x3e333ea8	0.1750437
14	0x3da691ec	0.08133301
15	0x3dc00e87	0.09377771
16	0x3cc0c41c	0.023531012
17	0x3d0f431e	0.034976117
18	0xbdfd45d1	-0.12366832
19	0xbc95f3cd	-0.01830473
20	0x3e298faf	0.16558717
21	0x3e024ead	0.12725325
22	0x3e07b38f	0.1325209
23	0x3c8d71fd	0.017266268
24	0x3de495ff	0.11161422
25	0xbd1264d0	-0.035740674
26	0x3d49e744	0.049292818
27	0x3c356359	0.01107105
28	0xbc0d4540	-0.0086224675
29	0xbde5c308	-0.1121884
30	0xbdc8c2b2	-0.0980276
31	0xbe2da9f8	-0.16959369
32	0xbd16fed5	-0.03686412
33	0x3b2893b2	0.00257228
34	0xbe2816dc	-0.1641497
35	0x3d000425	0.031253953
36	0x3d5abbd8	0.053401798
37	0x3c6d266b	0.014474492
38	0x3c88ed5c	0.016714744
39	0x3d24b684	0.040213123
40	0xbcd4e132	-0.025986288
41	0xbcf38f6a	-0.029731471
42	0x3c89ff63	0.01684541
43	0xbdb7d298	-0.089757144
44	0x3d1d353f	0.038380858
45	0xbd18f41b	-0.037342172
46	0xbe0a6c82	-0.13517955
47	0x3c0b3125	0.008495604
48	0x3d804121	0.06262422
49	0x3c68342b	0.014172594
50	0xbd2b7848	-0.041862756
51	0xbda6b521	-0.08140016
52	0xbd433a48	-0.047663003
53	0xbd9074fa	-0.070535615
54	0x3da14e79	0.078762956
55	0xbcc81181	-0.024422409
56	0xbcf4ef1e	-0.029899176
57	0x3cdf1c10	0.02723506
58	0x3dbcc176	0.09216587
59	0xbdd7fecd	-0.10546646
60	0xbd04cb55	-0.032420475
61	0xbdc69e61	-0.09698177
62	0xbc317550	-0.010831192
63	0x3cde255a	0.02711742
64	0xbd107e69	-0.035276804
65	0xbdddde76	-0.10833447
66	0x3d022ffa	0.031784035
67	0x3e2cd4b6	0.16878018
68	0xbdaf4ac3	-0.085591815
69	0xbe100029	-0.14062561
70	0x3e112457	0.14174019
71	0x3de919f5	0.11381904
72	0x3e0cd104	0.13751608
73	0x3d8060f1	0.0626849
74	0xbd17cb1e	-0.037058942
75	0x3d7b3bb1	0.061336223
76	0x3c2c89a5	0.010530864
77	0xbdccaf92	-0.09994425
78	0x3b909dfc	0.0044133645
79	0x3e4db0d7	0.2008699
80	0xbd33f334	-0.04393311
81	0x3ca79e45	0.020461211
82	0x3e2248b4	0.15848047
83	0xbe2372ac	-0.15961713
84	0xbd4ed469	-0.05049554
85	0x3e1bc3e3	0.15211444
86	0xbd3c2aaf	-0.045939144
87	0xbd8d59de	-0.069019064
88	0xbddfe39a	-0.109320834
89	0x3b6a45c4	0.003574715
90	0x3de70deb	0.112819515
91	0x3e13990c	0.14413851
92	0x3e064108	0.13110745
93	0x3e0a1532	0.13484648
94	0x3e34f770	0.17672515
95	0xbcce3a77	-0.025174363
96	0x3e2a44ff	0.16627882
97	0xbd5c8e0e	-0.05384641
98	0x3e345444	0.1761027
99	0x3e0c0a89	0.13675894
100	0xbd119344	-0.035540834
101	0x3db44944	0.08803037
102	0x3ddb5a90	0.10710633
103	0x3e29cd6d	0.1658227
104	0x3de1e7c6	0.110305354
105	0x3be323fc	0.00693178
106	0x3ccbcd5e	0.0248782
107	0xbe050013	-0.1298831
108	0x3e2219e9	0.15830196
109	0xbd764b8c	-0.06013064
110	0x3dba8ef6	0.09109299
111	0xbe2c394d	-0.16818734
112	0xbdc391dc	-0.09549305
113	0x3d97a47b	0.07404419
114	0xbe006540	-0.12538624
115	0x3e1f67b1	0.15566899
116	0xbc20f2e6	-0.0098235365
117	0x3bb36190	0.005474277
118	0x3e09f3ea	0.13471952
119	0x3da004f4	0.07813445
120	0x3d204c6f	0.039135393
121	0xbd7275d9	-0.05919442
122	0x3dba9cd6	0.09111945
123	0x3c502451	0.012703971
124	0x3dc3117e	0.09524821
125	0x3e29b01d	0.16571088
126	0xbe341795	-0.17587121
127	0x3ab818bd	0.0014045459
128	0xbdc8b222	-0.09799601
129	0xbd826338	-0.06366581
130	0xbdf308e9	-0.11866934
131	0x3e087aca	0.1332809
132	0xbb028ca9	-0.0019920266
133	0xbd25db4f	-0.040492352
134	0x3e02a6fc	0.12759012
135	0xbb800f10	-0.0039080456
136	0xbe0a1b75	-0.13487037
137	0x3db1b346	0.08676772
138	0x3df955aa	0.12174542
139	0x3e1697fe	0.14706418
140	0x3c3e59d2	0.0116180945
141	0x3e2daaf6	0.16959748
142	0x3d94de7a	0.072689965
143	0x3dcc3d99	0.09972686
144	0x3da4f6de	0.08054899
145	0x3e1f4263	0.15552668
146	0xbd4acde6	-0.049512766
147	0x3d351ef7	0.044218984
148	0x3dfe8186	0.124270484
149	0x3def438f	0.11682808
150	0xbded4d8a	-0.11587055
151	0xbdd2a87b	-0.10286041
152	0x3de324d9	0.110910125
153	0xbcb49def	-0.022047965
154	0x3c0fdb63	0.008780333
155	0xbd899cca	-0.06719358
156	0xbdedfd8a	-0.11620624
157	0xbccf3c96	-0.025297444
158	0x3d8d2dc0	0.06893492
159	0x3d3b299a	0.04569397
160	0xbe29ac4f	-0.16569637
161	0x3db398d3	0.08769383
162	0x3df6b8b6	0.120469496
163	0x3a8fca90	0.0010970403
164	0x3cb58a40	0.02216065
165	0xbda8b878	-0.082383096
166	0x3dd066d2	0.101758614
167	0xbcd22937	-0.025654418
168	0xbe03a41c	-0.12855572
169	0xbd1c0e2b	-0.03809945
170	0x3e299d86	0.16563997
171	0x3de2a554	0.1106669
172	0xbd85e74c	-0.06538257
173	0xbdfa1c98	-0.12212485
174	0x3d9b9a4d	0.0759779
175	0xbd59d522	-0.053181775
176	0x3d940224	0.07226971
177	0x3d669f7b	0.056304436
178	0xbcc0e1d7	-0.023545189
179	0x3d583e1b	0.052793603
180	0xbd31dec7	-0.043425348
181	0xbdaaf175	-0.083468355
182	0x3dbd4284	0.092412025
183	0xbe01c50c	-0.12672824
184	0xbe0d8621	-0.13820697
185	0x3d51cd6c	0.051221296
186	0xbe069803	-0.13143925
187	0xbde68793	-0.112563275
188	0x3cdfa237	0.02729903
189	0x3dbc454e	0.09192906
190	0xbd9c8d38	-0.07644123
191	0x3de22471	0.11042107
192	0x3d92bf4f	0.071653955
193	0x3d06c56b	0.032903116
194	0xbda11958	-0.07866162
195	0xbc25c8ba	-0.010118658
196	0x3e203649	0.15645708
197	0xbd3fcaaf	-0.046824154
198	0xbdd0c874	-0.101944834
199	0x3d90e602	0.070751205
200	0x3e13c19b	0.14429323
201	0x3c6a914b	0.014316867
202	0x3de43c9e	0.11144374
203	0xbe100812	-0.14065579
204	0x3e10e892	0.14151219
205	0x3e009ec2	0.12560561
206	0xbdbe5767	-0.092940144
207	0x3d14b693	0.03630693
208	0x3d7a4580	0.061101437
209	0xbd287d34	-0.041135028
210	0xbdea3b4f	-0.114370935
211	0x3ba4c1f8	0.0050280057
212	0x3ce30981	0.027714493
213	0x3e04c325	0.12965067
214	0x3dc9b543	0.09849026
215	0xbcee3215	-0.029076615
216	0xbd82262b	-0.06354936
217	0x3e0bd681	0.13656045
218	0xbd295929	-0.041344795
219	0x3da9a76e	0.08283888
220	0x3dbac065	0.091187276
221	0xbd97df56	-0.07415645
222	0xbc689e81	-0.0141979465
223	0xbe34a493	-0.17640905
224	0x3b930905	0.004487159
225	0xbde4bff4	-0.11169425
226	0xbd9958bc	-0.07487628
227	0xbe1e0268	-0.15430605
228	0x3e21f641	0.15816595
229	0x3d950dab	0.072779976
230	0xbe3069b7	-0.17227827
231	0xbe0d5cf1	-0.13804986
232	0x3dcbb8f4	0.099473864
233	0x3c8f83d8	0.017518923
234	0xbd192e7f	-0.037397858
235	0x3c38d369	0.011280873
236	0xbdfeb834	-0.12437478
237	0xbdb9d3f3	-0.09073629
238	0xbd4df9c5	-0.050287027
239	0xbe3696ba	-0.17830935
240	0xbe1161f3	-0.14197521
241	0x3d41ef51	0.04734737
242	0x3dd437aa	0.103621796
243	0x3e109174	0.14117986
244	0x3dfc725e	0.12326501
245	0x3d9de153	0.07708993
246	0xbd8a7b62	-0.06761815
247	0xbc450120	-0.012024194
248	0x3e199e88	0.15001881
249	0x3c8283d1	0.015931996
250	0xbdde4131	-0.10852278
251	0x3df8f54f	0.12156164
252	0xbdcc881f	-0.099869005
253	0x3d6dd0bc	0.058060393
254	0x3daf8a54	0.08571306
255	0x3e0f96f1	0.14022423

net.2.bias f4 [64]
0	0xbd139c4f	-0.03603774
1	0x3c3e8b47	0.011629886
2	0xbcfabccb	-0.030607602
3	0xbc839c67	-0.01606579
4	0xbce68006	-0.028137218
5	0x00000000	0.0
6	0xbbae7e98	-0.0053251497
7	0x3c11bd6c	0.008895259
8	0xbb98aa49	-0.0046589714
9	0xbc57e2e1	-0.013176651
10	0xbc1c965a	-0.009557331
11	0x00000000	0.0
12	0x3c484544	0.012223545
13	0xbcd782ec	-0.026307546
14	0xbbca2ea7	-0.006170112
15	0x00000000	0.0
16	0x00000000	0.0
17	0x00000000	0.0
18	0xbd3611bd	-0.04445051
19	0x00000000	0.0
20	0xbca481e0	-0.02008146
21	0xbd1bd914	-0.03804882
22	0xbcd27642	-0.025691155
23	0xbc5e66e7	-0.0135743385
24	0x00000000	0.0
25	0xbbcf3039	-0.0063228873
26	0xbcb3fef3	-0.021972155
27	0xbcd1d434	-0.025613882
28	0x00000000	0.0
29	0x00000000	0.0
30	0xbc2e0917	-0.010622284
31	0xbccd4c30	-0.025060743
32	0xbd3765a3	-0.044774663
33	0xbaa29947	-0.0012405299
34	0x3c0393fe	0.00803089
35	0x3af2a9ad	0.0018513702
36	0xbd173be6	-0.036922358
37	0x3bdbfa03	0.0067131533
38	0x00000000	0.0
39	0x3d28acdf	0.041180488
40	0x00000000	0.0
41	0xbd5bcc4b	-0.053661626
42	0xbc6462d9	-0.013939583
43	0xbd2676b6	-0.040640555
44	0xbc66dac5	-0.014090245
45	0x3b124376	0.0022318042
46	0xbc4ceaae	-0.012507124
47	0x00000000	0.0
48	0xbd193524	-0.037404194
49	0x3cf84f9d	0.0303114
50	0x00000000	0.0
51	0x00000000	0.0
52	0xbd425f94	-0.04745443
53	0xbcd19da4	-0.025587864
54	0xbd3f68ab	-0.04673068
55	0xbd4d419d	-0.0501114
56	0x3cc7c5cc	0.02438631
57	0xbcc5a74d	-0.024127627
58	0xbd64d885	-0.05587055
59	0xbd114ed5	-0.03547557
60	0x3d07f351	0.03319103
61	0xbc9d6e04	-0.019217499
62	0x3d099c50	0.033596337
63	0xbc29aa05	-0.010355477

net.4.weight f4 [16, 64]
0	0xbe8124e1	-0.2522345
1	0x3e886d12	0.26645714
2	0x3e3d5e00	0.1849289
3	0x3d8a5b2f	0.06755673
4	0xbe334b8a	-0.17509285
5	0xbe3d9716	-0.18514666
6	0x3e0427fe	0.12905881
7	0xbdba923f	-0.091099255
8	0x3e61e8cf	0.22061466
9	0x3e0195b2	0.1265476
10	0x3d8da3c8	0.069160044
11	0x3e8336a2	0.2562762
12	0x3e75e9a9	0.24014916
13	0xbcc4a8e1	-0.024006309
14	0x3e0c38b6	0.13693509
15	0xbba7343f	-0.0051026638
16	0x3de34fa8	0.110991776
17	0xbd832746	-0.06403975
18	0xbd565be4	-0.052333727
19	0xbe7053c7	-0.23469459
20	0x3e12b269	0.1432587
21	0x3e40bbc8	0.18821633
22	0xbd383efa	-0.044981934
23	0x3de0c91e	0.1097586
24	0xbd833a65	-0.06407622
25	0xbe8fd77e	-0.28094095
26	0xbe01063b	-0.12600033
27	0xbe87dca0	-0.2653551
28	0xbe57b057	-0.21063362
29	0xbe61bc5a	-0.22044507
30	0xbd9f0237	-0.07764094
31	0xbe6bb49b	-0.23018114
32	0xbdf1258b	-0.11774739
33	0xbe910081	-0.28320697
34	0x3d988699	0.074475475
35	0x3dcf878f	0.101332776
36	0x3d4fffb5	0.05078097
37	0xbe328104	-0.17432028
38	0x3e8c2281	0.27370074
39	0x3e5017ae	0.20321533
40	0xbe73caa7	-0.23807774
41	0x3e7b0831	0.24514844
42	0xbe6f3431	-0.23359753
43	0xbe6febc5	-0.23429783
44	0x3e120214	0.14258605
45	0x3d5a7e71	0.05334324
46	0x3e43e059	0.1912855
47	0x3e32acd6	0.17448744
48	0x3d2a9629	0.04164711
49	0xbe1b30fe	-0.15155408
50	0x3e81d5ae	0.25358337
51	0xbcfce57e	-0.03087115
52	0x3b830f79	0.003999647
53	0x3d9db86e	0.07701193
54	0x3e0570c5	0.130313
55	0x3e417b63	0.18894725
56	0xbe13daa2	-0.1443887
57	0x3dccdb2c	0.10002741
58	0x3c6cbb24	0.014448915
59	0xbe13e6ce	-0.14443514
60	0xbd49837f	-0.04919767
61	0x3ceb44bd	0.0287193
62	0xbe2d58a9	-0.16928352
63	0x3d1e8ce1	0.03870857
64	0xbe61ccdf	-0.22050808
65	0xbe1dfd8c	-0.15428752
66	0x3e8c6bdd	0.27426043
67	0xbddaa33f	-0.10675668
68	0x3d30762d	0.04308145
69	0xbe552dee	-0.20818302
70	0x3e13c0d6	0.1442903
71	0xbe7af0ea	-0.24505964
72	0xbdd2aedb	-0.10287257
73	0x3da0b4d8	0.07846993
74	0xbe216c89	-0.15764059
75	0x3de25482	0.11051275
76	0x3d979058	0.07400578
77	0x3e8ab2b0	0.27089453
78	0xbdee9348	-0.116491854
79	0x3d4b271d	0.04959785
80	0xbdb8818f	-0.09009086
81	0xbdfb8f71	-0.12283219
82	0xbe342f87	-0.17596255
83	0xbe2415b8	-0.1602391
84	0xbe354c6a	-0.17704931
85	0xbea5d936	-0.3239228
86	0xbdb75ce4	-0.08953264
87	0x3e11d5eb	0.1424176
88	0xbe86a2ff	-0.2629623
89	0xbe60b135	-0.21942599
90	0x3ccbe39c	0.024888806
91	0x3dc7c377	0.09754079
92	0xbe65d360	-0.22443914
93	0xbe49c6e3	-0.19704776
94	0xbce59a91	-0.028027805
95	0x3c4c628f	0.01247467
96	0x3e35b553	0.17744951
97	0x3e294ef8	0.1653403
98	0xbe327536	-0.17427525
99	0x3e90d0be	0.28284258
100	0x3d98f93d	0.074694134
101	0xbe44e364	-0.19227368
102	0xbd97ba0a	-0.07408531
103	0xbe489985	-0.19589813
104	0x3cdcdfcc	0.026962183
105	0x3e08a593	0.13344412
106	0x3e7e7b29	0.2485167
107	0x3e3f803f	0.18701266
108	0xbe554186	-0.20825776
109	0xbe4e3a51	-0.20139433
110	0xbe3b6c91	-0.18303134
111	0xbcbb1973	-0.022839284
112	0x3dcca296	0.09991948
113	0x3e6f5dae	0.2337558
114	0x3e3fdb05	0.18735893
115	0x3d39eed7	0.04539379
116	0xbde11707	-0.1099072
117	0x3d8acd0a	0.06777389
118	0xbdf09811	-0.11747754
119	0x3d60ee5c	0.054914817
120	0x3e2096bd	0.15682502
121	0x3e02721e	0.12738845
122	0xbd965772	-0.073408976
123	0xbe4cb03f	-0.19989108
124	0x3e0df131	0.13861538
125	0xbe54d5a1	-0.20784618
126	0x3e237246	0.1596156
127	0xbe7a3ca4	-0.24437195
128	0xbdc33de3	-0.09533288
129	0xbcb84094	-0.02249173
130	0xbe0a2bce	-0.13493273
131	0xbe956cd6	-0.29184598
132	0xbdbba39e	-0.09162067
133	0x3d4ee4d7	0.050511207
134	0x3ddc439f	0.10755085
135	0xbcd23d02	-0.025663856
136	0x3e6025bb	0.21889393
137	0xbd403685	-0.046926994
138	0xbe8a88ad	-0.270574
139	0x3e31ca00	0.17362213
140	0x3e22eef3	0.15911464
141	0x3daa19b8	0.08305687
142	0x3d18d906	0.037316345
143	0x3dbad0ac	0.09121832
144	0x3e7e07c1	0.24807645
145	0xbd7f8c77	-0.062389817
146	0xbe4fe4ea	-0.20302168
147	0xbd6ca068	-0.057770163
148	0xbe88103a	-0.2657488
149	0x3da73102	0.081636444
150	0xbd73705d	-0.05943333
151	0x3dfc00ad	0.123048164
152	0xbe5173e0	-0.20454359
153	0xbe48bbc8	-0.19602883
154	0xbe4ad9f3	-0.19809704
155	0xbe3f60d9	-0.18689288
156	0x3e0f9e83	0.14025311
157	0x3e3acf63	0.18243174
158	0x3de5e499	0.11225242
159	0xbe97e085	-0.29663482
160	0x3e9a3cb8	0.3012445
161	0x3e81eab3	0.25374374
162	0xbb5b0613	-0.0033420369
163	0x3cdf738d	0.027276779
164	0x3d054276	0.032534085
165	0xbd1b511c	-0.03791915
166	0x3e8246f8	0.2544477
167	0x3e023e23	0.12719016
168	0x3c743857	0.014906011
169	0xbd2709fe	-0.040781014
170	0x3dd3afed	0.103362896
171	0xbd62aa63	-0.055338275
172	0xbda6b596	-0.081401035
173	0x3e675dbb	0.22594349
174	0xbe56ec1d	-0.20988508
175	0xbe516204	-0.20447546
176	0xbdf717ff	-0.12065124
177	0x3dbf8f5e	0.09353517
178	0xbe00041e	-0.1250157
179	0xbd8a8167	-0.06762963
180	0xbe219d12	-0.15782574
181	0x3e338799	0.17532195
182	0xbd9a7d14	-0.07543388
183	0x3dde94a0	0.10868192
184	0x3e431ac3	0.19053178
185	0xbe349da3	-0.17638259
186	0x3e154cee	0.14580128
187	0xbb67099d	-0.0035253533
188	0x3d85c75e	0.06532167
189	0xbe58fcba	-0.21190158
190	0xbb237411	-0.0024941007
191	0x3e7062e4	0.23475224
192	0xbe6d6286	-0.23182115
193	0xbb30d30a	-0.0026981258
194	0x3d18f323	0.03734125
195	0x3de4673f	0.11152505
196	0xbd79c8c3	-0.060982477
197	0x3e12ae68	0.14324343
198	0xbe4dd664	-0.20101315
199	0x3c11cb5d	0.008898583
200	0xbe017698	-0.12642896
201	0x3cc4e39b	0.024034312
202	0x3def6470	0.11689079
203	0xbd1c467b	-0.038153153
204	0x3e6c2e2e	0.23064491
205	0x3e6e833d	0.23292251
206	0x3d95276a	0.07282908
207	0xbddc3ad9	-0.10753412
208	0x3c0b1492	0.008488791
209	0x3e713d90	0.2355864
210	0xbe2189a4	-0.15775162
211	0xbe3a2eb7	-0.18181883
212	0xbe06ab1e	-0.13151214
213	0xbda75beb	-0.08171829
214	0xbe10cd2a	-0.14140764
215	0x3e385bca	0.18003765
216	0x3db4584a	0.08805902
217	0x3de235d9	0.11045427
218	0x3dcdd966	0.10051231
219	0x3dec715d	0.1154506
220	0x3b0cbfee	0.0021476704
221	0x3e02e75f	0.12783574
222	0xbce2cd69	-0.027685838
223	0x3dc04ed6	0.09390037
224	0xbe35b8e5	-0.17746313
225	0xbe17ba15	-0.14817078
226	0xbe47ae7f	-0.19500159
227	0x3d4cbf99	0.04998741
228	0xbe30da63	-0.17270808
229	0xbdb3dbe1	-0.08782173
230	0xbd750906	-0.05982306
231	0x3e35ee65	0.17766722
232	0x3c90f7f8	0.017696366
233	0xba7e16e4	-0.0009692742
234	0x3e4a0d22	0.19731572
235	0x3dc004ed	0.093759395
236	0x3d92a3ea	0.071601704
237	0x3e10d681	0.14144327
238	0x3e2edcfd	0.17076488
239	0x3e2ae254	0.166879
240	0xbe155569	-0.14583363
241	0x3b2d5fce	0.002645481
242	0xbe6c32f2	-0.23066309
243	0xbc38af01	-0.011272193
244	0xbe748a18	-0.23880804
245	0x3dd7909d	0.1052563
246	0xbdd82475	-0.105538286
247	0xbbc86531	-0.0061155786
248	0x3cf1ca31	0.029515358
249	0x3d81f61d	0.063457705
250	0xbc767e89	-0.015044817
251	0x3d0352af	0.032061275
252	0x3e74fb51	0.23923995
253	0xbdcf9872	-0.101364985
254	0x3e6cbc73	0.23118763
255	0x3d224790	0.03961903

net.4.bias f4 [16]
0	0xbd034455	-0.03204759
1	0xbd3b3472	-0.045704313
2	0x3d3676f9	0.044547055
3	0x3d331551	0.0437215
4	0xbd3b2e87	-0.04569867
5	0x3d2e08b3	0.042488765
6	0x3d4d3403	0.05009843
7	0x3d39b30d	0.04533677
8	0xbd3a47c0	-0.045478582
9	0x3d04fed5	0.03246959
10	0xbd51db49	-0.051234517
11	0xbd46e09b	-0.048554044
12	0xbd332927	-0.043740418
13	0x3d4ee8c5	0.050514955
14	0xbda73f76	-0.08166401
15	0x00000000	0.0

net.6.weight f4 [1, 16]
0	0xbd96a4e6	-0.07355671
1	0xbdfb733c	-0.122778386
2	0x3eac04e5	0.33597484
3	0x3ee4be41	0.44676402
4	0xbe390bac	-0.18070859
5	0x3df4636c	0.11933026
6	0x3e852f4c	0.26012647
7	0x3ed2d13d	0.4117526
8	0xbe65909e	-0.22418448
9	0x3ca4fbcf	0.020139603
10	0xbe171751	-0.14754988
11	0xbda97f1d	-0.08276198
12	0xbe884c63	-0.26620778
13	0x3dc0f558	0.094217956
14	0xbd1eb533	-0.038747024
15	0x3c31cf5d	0.010852662

exp_avg f4 [128, 48]
0	0x80000004	-6e-45
1	0x80000004	-6e-45
2	0x00000004	6e-45
3	0x80000004	-6e-45
4	0x80000004	-6e-45
5	0x80000004	-6e-45
6	0x80000004	-6e-45
7	0x80000004	-6e-45
8	0x80000004	-6e-45
9	0x80000004	-6e-45
10	0x00000004	6e-45
11	0x80000004	-6e-45
12	0x80000004	-6e-45
13	0x80000004	-6e-45
14	0x80000004	-6e-45
15	0x80000004	-6e-45
16	0x80000004	-6e-45
17	0x80000004	-6e-45
18	0x80000004	-6e-45
19	0x80000004	-6e-45
20	0x80000004	-6e-45
21	0x80000004	-6e-45
22	0x80000004	-6e-45
23	0x80000004	-6e-45
24	0x80000004	-6e-45
25	0x80000004	-6e-45
26	0x80000004	-6e-45
27	0x80000004	-6e-45
28	0x80000004	-6e-45
29	0x80000004	-6e-45
30	0x80000004	-6e-45
31	0x80000004	-6e-45
32	0x80000004	-6e-45
33	0x80000004	-6e-45
34	0x80000004	-6e-45
35	0x80000004	-6e-45
36	0x80000004	-6e-45
37	0x80000004	-6e-45
38	0x00000004	6e-45
39	0x00000004	6e-45
40	0x00000004	6e-45
41	0x80000004	-6e-45
42	0x80000004	-6e-45
43	0x80000004	-6e-45
44	0x00000000	0.0
45	0x00000004	6e-45
46	0x00000004	6e-45
47	0x00000004	6e-45
48	0x00000004	6e-45
49	0x00000004	6e-45
50	0x00000004	6e-45
51	0x00000004	6e-45
52	0x00000004	6e-45
53	0x00000004	6e-45
54	0x00000004	6e-45
55	0x00000000	0.0
56	0x00000004	6e-45
57	0x00000004	6e-45
58	0x00000004	6e-45
59	0x00000004	6e-45
60	0x00000004	6e-45
61	0x00000004	6e-45
62	0x00000004	6e-45
63	0x00000000	0.0
64	0x00000004	6e-45
65	0x00000004	6e-45
66	0x00000004	6e-45
67	0x00000004	6e-45
68	0x00000004	6e-45
69	0x00000004	6e-45
70	0x00000004	6e-45
71	0x00000004	6e-45
72	0x00000004	6e-45
73	0x00000004	6e-45
74	0x00000004	6e-45
75	0x00000004	6e-45
76	0x00000004	6e-45
77	0x00000004	6e-45
78	0x00000004	6e-45
79	0x00000004	6e-45
80	0x00000004	6e-45
81	0x00000004	6e-45
82	0x00000004	6e-45
83	0x00000004	6e-45
84	0x00000004	6e-45
85	0x00000004	6e-45
86	0x00000004	6e-45
87	0x00000004	6e-45
88	0x00000004	6e-45
89	0x00000004	6e-45
90	0x00000004	6e-45
91	0x00000004	6e-45
92	0x00000000	0.0
93	0x80000004	-6e-45
94	0x80000004	-6e-45
95	0x80000004	-6e-45
96	0x00000000	0.0
97	0x00000000	0.0
98	0x00000000	0.0
99	0x00000000	0.0
100	0x00000000	0.0
101	0x00000000	0.0
102	0x00000000	0.0
103	0x00000000	0.0
104	0x00000000	0.0
105	0x00000000	0.0
106	0x00000000	0.0
107	0x00000000	0.0
108	0x00000000	0.0
109	0x00000000	0.0
110	0x00000000	0.0
111	0x00000000	0.0
112	0x00000000	0.0
113	0x00000000	0.0
114	0x00000000	0.0
115	0x00000000	0.0
116	0x00000000	0.0
117	0x00000000	0.0
118	0x00000000	0.0
119	0x00000000	0.0
120	0x00000000	0.0
121	0x00000000	0.0
122	0x00000000	0.0
123	0x00000000	0.0
124	0x00000000	0.0
125	0x00000000	0.0
126	0x00000000	0.0
127	0x00000000	0.0
128	0x00000000	0.0
129	0x00000000	0.0
130	0x00000000	0.0
131	0x00000000	0.0
132	0x00000000	0.0
133	0x00000000	0.0
134	0x00000000	0.0
135	0x00000000	0.0
136	0x00000000	0.0
137	0x00000000	0.0
138	0x00000000	0.0
139	0x00000000	0.0
140	0x00000000	0.0
141	0x00000000	0.0
142	0x00000000	0.0
143	0x00000000	0.0
144	0x00000004	6e-45
145	0x00000004	6e-45
146	0x00000004	6e-45
147	0x00000004	6e-45
148	0x00000004	6e-45
149	0x00000004	6e-45
150	0x00000004	6e-45
151	0x00000004	6e-45
152	0x00000004	6e-45
153	0x00000004	6e-45
154	0x00000004	6e-45
155	0x00000004	6e-45
156	0x00000004	6e-45
157	0x00000004	6e-45
158	0x00000004	6e-45
159	0x00000004	6e-45
160	0x00000004	6e-45
161	0x00000004	6e-45
162	0x00000004	6e-45
163	0x00000004	6e-45
164	0x00000004	6e-45
165	0x00000004	6e-45
166	0x00000004	6e-45
167	0x00000004	6e-45
168	0x00000004	6e-45
169	0x00000004	6e-45
170	0x00000004	6e-45
171	0x00000004	6e-45
172	0x00000004	6e-45
173	0x00000004	6e-45
174	0x00000004	6e-45
175	0x00000004	6e-45
176	0x00000004	6e-45
177	0x00000004	6e-45
178	0x00000004	6e-45
179	0x00000004	6e-45
180	0x00000004	6e-45
181	0x00000004	6e-45
182	0x00000004	6e-45
183	0x00000004	6e-45
184	0x00000004	6e-45
185	0x00000004	6e-45
186	0x00000004	6e-45
187	0x00000004	6e-45
188	0x00000004	6e-45
189	0x80000004	-6e-45
190	0x80000004	-6e-45
191	0x80000004	-6e-45
192	0x3e8f9d0a	0.280495
193	0x3e41e39e	0.18934485
194	0x3fcb0f9a	1.5864136
195	0x3ccb91dc	0.024849825
196	0x3ddf21c5	0.10895113
197	0x3e4d1745	0.20028408
198	0x3eaab61a	0.33342057
199	0xb9463f0c	-0.00018906238
200	0xc123b32a	-10.231241
201	0xc1bf275d	-23.89422
202	0xc11e470e	-9.892347
203	0xbfc23081	-1.5171052
204	0xc0fa0879	-7.8135343
205	0xc13d2d74	-11.823597
206	0xbf8eb0c5	-1.1147696
207	0x80000004	-6e-45
208	0x3c433611	0.011914746
209	0xbc18b821	-0.0093212435
210	0x3cb51888	0.022106424
211	0xbb840018	-0.0040283315
212	0xbb82e414	-0.003994474
213	0x3ce0f304	0.027459629
214	0xbd4df1ca	-0.050279416
215	0xba265cdc	-0.00063462346
216	0xba265d41	-0.00063462934
217	0xba80a887	-0.000981585
218	0xba779dc7	-0.0009445813
219	0xbaae8168	-0.0013313713
220	0xbf38c2e2	-0.7217237
221	0xbb011726	-0.0019697635
222	0xbbf27ffb	-0.0074005104
223	0xbcf72097	-0.030166907
224	0xb76b70fe	-1.40334e-05
225	0xbd33dad6	-0.04390987
226	0x3cc6c499	0.024263667
227	0xba8c122e	-0.001068657
228	0xbdef8f94	-0.11697307
229	0x3bbde6c4	0.0057953317
230	0xb894c94b	-7.094684e-05
231	0xb914c7d8	-0.00014188827
232	0xba8b2a53	-0.0010617472
233	0xbaae8eec	-0.001331774
234	0xbaae8bf3	-0.0013316855
235	0xbf441784	-0.7659838
236	0x34d84e36	4.029004e-07
237	0x3b6b89e4	0.0035940344
238	0x3e4e446e	0.20143291
239	0x3b0c071e	0.0021366547
240	0x00000000	0.0
241	0x00000000	0.0
242	0x00000000	0.0
243	0x00000000	0.0
244	0x00000000	0.0
245	0x00000000	0.0
246	0x00000000	0.0
247	0x00000000	0.0
248	0x00000000	0.0
249	0x00000000	0.0
250	0x00000000	0.0
251	0x00000000	0.0
252	0x00000000	0.0
253	0x00000000	0.0
254	0x00000000	0.0
255	0x00000000	0.0

exp_avg_sq f4 [128, 48]
0	0x3cc13e01	0.023589136
1	0x3db5a64d	0.0886961
2	0x3b75415f	0.0037422997
3	0x3b6d10c1	0.0036173316
4	0x3c9bbdce	0.019011404
5	0x3c3aea98	0.011408471
6	0x3d188b24	0.03724207
7	0x30133db6	5.3565985e-10
8	0x42aa5c46	85.18022
9	0x4319afdd	153.68697
10	0x41e23e36	28.280376
11	0x40345b16	2.8180594
12	0x42ad0cc1	86.52491
13	0x427e673b	63.60081
14	0x42e46d74	114.213776
15	0x2e9e9414	7.211312e-11
16	0x37850473	1.5856907e-05
17	0x3883ce7e	6.285029e-05
18	0x365da7ab	3.3029162e-06
19	0x3639dd62	2.769601e-06
20	0x375b2a66	1.3063289e-05
21	0x36e8c8f4	6.937533e-06
22	0x37d00b27	2.4800725e-05
23	0x32626f81	1.3180284e-08
24	0x32858cd7	1.5547284e-08
25	0x340e2c87	1.324098e-07
26	0x3587c9e4	1.0117042e-06
27	0x35a26520	1.2099372e-06
28	0x3e4f8ea1	0.20269252
29	0x343ab713	1.7389202e-07
30	0x383a7c3b	4.4461554e-05
31	0x398941f0	0.00026179804
32	0x34ed4e24	4.4201545e-07
33	0x39978dcc	0.0002890661
34	0x399c382f	0.000297965
35	0x33b59721	8.4559595e-08
36	0x39969abb	0.00028725513
37	0x387405b0	5.817943e-05
38	0x2f13ed50	1.3453882e-10
39	0x3108f64e	1.9930613e-09
40	0x34060cdf	1.2484405e-07
41	0x3587b9d6	1.0112369e-06
42	0x3587b9d6	1.0112369e-06
43	0x3e48d56d	0.19612665
44	0x00000000	0.0
45	0x32ba63eb	2.1698687e-08
46	0x371d0747	9.359624e-06
47	0x30f90978	1.8119826e-09
48	0x3d26f1ab	0.040757816
49	0x3e164429	0.14674439
50	0x3bcbd8a6	0.006220895
51	0x3bc25fce	0.005931831
52	0x3d076a00	0.033060074
53	0x3ca34b2c	0.019933306
54	0x3d83d41c	0.06436941
55	0x00000000	0.0
56	0x430eb4fe	142.707
57	0x437f5c1c	255.3598
58	0x42427a59	48.61948
59	0x40901e4f	4.5037
60	0x43126635	146.39925
61	0x42d58f20	106.77954
62	0x433eb050	190.68872
63	0x00000000	0.0
64	0x37e80ae4	2.7661627e-05
65	0x38d94dc5	0.00010361852
66	0x36b9cf7c	5.537584e-06
67	0x3699eed4	4.5875586e-06
68	0x37c090d3	2.2955623e-05
69	0x374e775f	1.230635e-05
70	0x383d3cf4	4.511788e-05
71	0x32bc844d	2.1946244e-08
72	0x32dbb353	2.5576503e-08
73	0x346a3d92	2.1815347e-07
74	0x35df8f81	1.665656e-06
75	0x35df8f81	1.665656e-06
76	0x3e999443	0.29995927
77	0x34948476	2.7663526e-07
78	0x38a2ea02	7.768349e-05
79	0x39f0a29e	0.00045897526
80	0x3540dfc2	7.1851184e-07
81	0x39ee61f1	0.0004546787
82	0x39f7f56d	0.00047294368
83	0x3418596e	1.4188637e-07
84	0x39f429b9	0.00046570392
85	0x38c151c8	9.21819e-05
86	0x2f2cd278	1.5718082e-10
87	0x3127d229	2.442116e-09
88	0x3427f8cc	1.5643599e-07
89	0x35df8f81	1.665656e-06
90	0x35df8f81	1.665656e-06
91	0x3e999443	0.29995927
92	0x00000000	0.0
93	0x32ecf96b	2.7587438e-08
94	0x36925225	4.360702e-06
95	0x3106a07a	1.9590787e-09
96	0x00000000	0.0
97	0x00000000	0.0
98	0x00000000	0.0
99	0x00000000	0.0
100	0x00000000	0.0
101	0x00000000	0.0
102	0x00000000	0.0
103	0x00000000	0.0
104	0x00000000	0.0
105	0x00000000	0.0
106	0x00000000	0.0
107	0x00000000	0.0
108	0x00000000	0.0
109	0x00000000	0.0
110	0x00000000	0.0
111	0x00000000	0.0
112	0x00000000	0.0
113	0x00000000	0.0
114	0x00000000	0.0
115	0x00000000	0.0
116	0x00000000	0.0
117	0x00000000	0.0
118	0x00000000	0.0
119	0x00000000	0.0
120	0x00000000	0.0
121	0x00000000	0.0
122	0x00000000	0.0
123	0x00000000	0.0
124	0x00000000	0.0
125	0x00000000	0.0
126	0x00000000	0.0
127	0x00000000	0.0
128	0x00000000	0.0
129	0x00000000	0.0
130	0x00000000	0.0
131	0x00000000	0.0
132	0x00000000	0.0
133	0x00000000	0.0
134	0x00000000	0.0
135	0x00000000	0.0
136	0x00000000	0.0
137	0x00000000	0.0
138	0x00000000	0.0
139	0x00000000	0.0
140	0x00000000	0.0
141	0x00000000	0.0
142	0x00000000	0.0
143	0x00000000	0.0
144	0x40e5f813	7.1865325
145	0x41fa2b05	31.271006
146	0x3f4ee7a8	0.8082223
147	0x3fac153f	1.3443984
148	0x40b3a230	5.6135483
149	0x4053a102	3.3067021
150	0x4139c16d	11.609723
151	0x378482d0	1.579654e-05
152	0x46f99f39	31951.611
153	0x476b882c	60296.17
154	0x4601925f	8292.593
155	0x44a99c63	1356.8871
156	0x4700f885	33016.52
157	0x46b82f37	23575.607
158	0x4727da17	42970.09
159	0x3770cc87	1.4352735e-05
160	0x3b8670d0	0.0041028038
161	0x3ca24cb5	0.019811967
162	0x3a49b4b2	0.0007694467
163	0x3a7692e4	0.00094060437
164	0x3b435ad9	0.0029808788
165	0x3ae5188a	0.0017478627
166	0x3be1b9cc	0.006888604
167	0x369ebe2f	4.730907e-06
168	0x36b3632c	5.346161e-06
169	0x383e32a1	4.5346682e-05
170	0x39c2a87c	0.00037128094
171	0x3a0c0456	0.0005341222
172	0x42b0739a	88.225784
173	0x38b1eb22	8.4838146e-05
174	0x3c63afea	0.013896922
175	0x3daab00b	0.08334359
176	0x39400ecb	0.00018316058
177	0x3e21ba7f	0.15793799
178	0x3f6adc87	0.9174275
179	0x38129031	3.49434e-05
180	0x3e099bf2	0.13438395
181	0x3f1b7c7d	0.6073683
182	0x31d9c8be	6.338353e-09
183	0x33cff22f	9.6832416e-08
184	0x36f5af9c	7.3220126e-06
185	0x39c47d9c	0.0003747762
186	0x39c8b056	0.00038278353
187	0x440a4889	553.13336
188	0x377f6224	1.5222035e-05
189	0x35f8364e	1.8493245e-06
190	0x3a1c9d3b	0.0005974357
191	0x35832fae	9.774137e-07
192	0x467f7304	16348.754
193	0x477ba451	64420.316
194	0x44c55055	1578.5104
195	0x4531a530	2842.3242
196	0x464ab287	12972.632
197	0x45eedebe	7643.843
198	0x46d238c6	26908.387
199	0x381b9b15	3.709931e-05
200	0x4c811019	6.766612e+07
201	0x4cea55a2	1.2285877e+08
202	0x4b7a07fa	1.6386042e+07
203	0x4a297d1b	2.7769028e+06
204	0x4c881ed7	7.136633e+07
205	0x4c381af4	4.8262096e+07
206	0x4cb1faa4	9.331229e+07
207	0x37946da8	1.7694038e-05
208	0x4119b972	9.607775
209	0x421e9e44	39.654556
210	0x40087ad3	2.1324966
211	0x3fe32f6c	1.7748847
212	0x40e62584	7.1920795
213	0x409032a8	4.5061836
214	0x4167e463	14.493258
215	0x3c282185	0.010261898
216	0x3c43f2c1	0.0119597325
217	0x3dccce7d	0.10000322
218	0x3f4ab5d5	0.79183704
219	0x3f4f50f7	0.8098292
220	0x4822d64b	166745.17
221	0x3e1ded05	0.15422447
222	0x4209e0bb	34.469463
223	0x434a3502	202.20706
224	0x3eb1d74c	0.3473457
225	0x4381dafe	259.71088
226	0x43651fc1	229.12404
227	0x3d7eec3e	0.062237017
228	0x43596eb2	217.4324
229	0x42435a8b	48.83842
230	0x3705ea0e	7.981913e-06
231	0x398c4bdc	0.000267594
232	0x3c94a3f4	0.018144585
233	0x3f1c30b4	0.61011815
234	0x3f4ca4da	0.79939044
235	0x4801e128	132996.62
236	0x3dc0ad05	0.09408001
237	0x3c8b5eef	0.017013041
238	0x414b6df2	12.714342
239	0x3ab07535	0.0013462665
240	0x00000000	0.0
241	0x00000000	0.0
242	0x00000000	0.0
243	0x00000000	0.0
244	0x00000000	0.0
245	0x00000000	0.0
246	0x00000000	0.0
247	0x00000000	0.0
248	0x00000000	0.0
249	0x00000000	0.0
250	0x00000000	0.0
251	0x00000000	0.0
252	0x00000000	0.0
253	0x00000000	0.0
254	0x00000000	0.0
255	0x00000000	0.0

exp_avg f4 [128]
0	0x80000004	-6e-45
1	0x00000004	6e-45
2	0x00000000	0.0
3	0x00000004	6e-45
4	0xbaae8177	-0.001331373
5	0x00000000	0.0
6	0x3835a293	4.3305172e-05
7	0x00000000	0.0
8	0x3a43c6b2	0.00074682676
9	0x00000000	0.0
10	0x00000004	6e-45
11	0x00000000	0.0
12	0x00000000	0.0
13	0x390ce09b	0.00013435112
14	0x00000004	6e-45
15	0x00000000	0.0
16	0x00000004	6e-45
17	0x37cf4294	2.4707326e-05
18	0x00000004	6e-45
19	0xb93cf0af	-0.00018018739
20	0x00000000	0.0
21	0xb987d7f0	-0.00025910093
22	0x09e79907	5.5755133e-33
23	0x00000004	6e-45
24	0x00000004	6e-45
25	0x00000000	0.0
26	0x3a464e4d	0.00075647683
27	0x00000000	0.0
28	0x00000004	6e-45
29	0x00000000	0.0
30	0xba40a594	-0.0007348892
31	0xb8feac9a	-0.000121438134
32	0x00000000	0.0
33	0xb75de723	-1.3226442e-05
34	0x00000000	0.0
35	0x00000000	0.0
36	0x099fc85a	3.8466267e-33
37	0x00000000	0.0
38	0x181511a5	1.9266707e-24
39	0x3a665233	0.00087860523
40	0x399a4a4b	0.00029428522
41	0x00000004	6e-45
42	0x00000004	6e-45
43	0xba1ab596	-0.0005901692
44	0x00000000	0.0
45	0x00000000	0.0
46	0xba5adf4b	-0.0008349313
47	0x00000004	6e-45
48	0x00000004	6e-45
49	0x00000000	0.0
50	0x00000000	0.0
51	0x00000000	0.0
52	0xb9853259	-0.0002540525
53	0x00000000	0.0
54	0x00000000	0.0
55	0xb96123ce	-0.0002147101
56	0x3a0608db	0.0005113014
57	0x00000000	0.0
58	0xb9aefe86	-0.000333775
59	0x80000004	-6e-45
60	0x80000004	-6e-45
61	0x00000000	0.0
62	0x00000000	0.0
63	0xb9981e51	-0.00029014287
64	0xb9bf3cc6	-0.0003647564
65	0x00000000	0.0
66	0x00000004	6e-45
67	0x00000000	0.0
68	0x00000000	0.0
69	0xb914e6c4	-0.00014200347
70	0x00000004	6e-45
71	0x00000004	6e-45
72	0x00000000	0.0
73	0x396ac6b1	0.00022389997
74	0x00000004	6e-45
75	0x00000000	0.0
76	0x00000004	6e-45
77	0x80000004	-6e-45
78	0x00000004	6e-45
79	0x08ae9b1b	1.0508709e-33
80	0x00000004	6e-45
81	0x00000004	6e-45
82	0xba11ecfc	-0.00055666245
83	0xb99320d4	-0.00028062484
84	0xb97898a2	-0.00023707983
85	0x38bddc98	9.053311e-05
86	0x00000004	6e-45
87	0x3a1a8577	0.00058945216
88	0x391a4d0f	0.00014715291
89	0xb9b6177c	-0.00034731242
90	0x39e86b08	0.00044330233
91	0x00000004	6e-45
92	0x00000000	0.0
93	0x00000000	0.0
94	0x00000004	6e-45
95	0x399640ed	0.00028658603
96	0x00000004	6e-45
97	0x00000000	0.0
98	0x00000004	6e-45
99	0x00000000	0.0
100	0x00000000	0.0
101	0x3a2b5cb1	0.00065369444
102	0x00000000	0.0
103	0x80000004	-6e-45
104	0x00000004	6e-45
105	0x00000004	6e-45
106	0x37cf1b8e	2.4689154e-05
107	0xb9a11eff	-0.00030731407
108	0x00000000	0.0
109	0x39ca1392	0.00038543023
110	0x80000004	-6e-45
111	0x3978377f	0.00023671797
112	0x00000004	6e-45
113	0x00000004	6e-45
114	0x00000000	0.0
115	0x00000004	6e-45
116	0x00000004	6e-45
117	0x3a01dd00	0.0004953891
118	0xb99f8b77	-0.00030430753
119	0x3909d40a	0.00013144329
120	0x00000000	0.0
121	0x80000004	-6e-45
122	0x00000004	6e-45
123	0x00000004	6e-45
124	0xba73ae72	-0.0009295709
125	0x360c1625	2.0874515e-06
126	0x00000004	6e-45
127	0x00000004	6e-45

exp_avg_sq f4 [128]
0	0x3587b9d6	1.0112369e-06
1	0x35df8f82	1.6656561e-06
2	0x00000000	0.0
3	0x39d221a1	0.00040079377
4	0x3f4b468a	0.7940451
5	0x00000000	0.0
6	0x3d84a03d	0.064758755
7	0x00000000	0.0
8	0x3edd4edd	0.4322423
9	0x00000000	0.0
10	0x37e2702c	2.6993534e-05
11	0x00000000	0.0
12	0x00000000	0.0
13	0x3b5efa10	0.003402356
14	0x342011a3	1.4907577e-07
15	0x00000000	0.0
16	0x3b284dcb	0.0025681134
17	0x3cf3f39b	0.029779246
18	0x395cd03a	0.00021058405
19	0x3da0dac5	0.07854227
20	0x00000000	0.0
21	0x3db62edb	0.08895656
22	0x3d18fa99	0.037348364
23	0x3b806efc	0.0039194804
24	0x389e9de3	7.563436e-05
25	0x00000000	0.0
26	0x3c079764	0.00827584
27	0x00000000	0.0
28	0x395dda8d	0.00021157619
29	0x00000000	0.0
30	0x3bd39879	0.006457385
31	0x3b26aa75	0.002543119
32	0x00000000	0.0
33	0x3cd9aa5b	0.02657049
34	0x00000000	0.0
35	0x00000000	0.0
36	0x3c530099	0.01287856
37	0x00000000	0.0
38	0x3b3b08fd	0.0028539293
39	0x3ec022c3	0.3752652
40	0x3de6a8fe	0.112627015
41	0x3ae50797	0.0017473575
42	0x39c22895	0.000370328
43	0x3e7102bf	0.23536204
44	0x00000000	0.0
45	0x00000000	0.0
46	0x3e94a867	0.2903473
47	0x38efa0df	0.00011426373
48	0x392fd6e7	0.00016769358
49	0x00000000	0.0
50	0x00000000	0.0
51	0x00000000	0.0
52	0x3e3a49f9	0.18192281
53	0x00000000	0.0
54	0x00000000	0.0
55	0x3d979a4b	0.07402476
56	0x3ebdd5ca	0.3707717
57	0x00000000	0.0
58	0x3bfe1a4e	0.0077546006
59	0x36efd313	7.1473273e-06
60	0x359c7898	1.1658003e-06
61	0x00000000	0.0
62	0x00000000	0.0
63	0x3d126a08	0.03574565
64	0x3c985e0d	0.018599534
65	0x00000000	0.0
66	0x382518b1	3.936206e-05
67	0x00000000	0.0
68	0x00000000	0.0
69	0x3a132022	0.0005612393
70	0x3685ee39	3.9914416e-06
71	0x2e1bcd30	3.5425163e-11
72	0x00000000	0.0
73	0x3df1990d	0.1179677
74	0x3824cef8	3.92934e-05
75	0x00000000	0.0
76	0x377f4f29	1.5217615e-05
77	0x371fcff2	9.525555e-06
78	0x393aa27f	0.00017798877
79	0x3b0389c0	0.002007112
80	0x398c8aca	0.00026806287
81	0x36f9d16f	7.4451596e-06
82	0x3f040959	0.51576763
83	0x3b9f27c8	0.004857037
84	0x3cfb1474	0.030649401
85	0x3cc80360	0.024415672
86	0x35abb8a2	1.2794228e-06
87	0x3e6cfe1a	0.23143807
88	0x3d9bcc77	0.07607358
89	0x3d123fd9	0.03570542
90	0x3e022f71	0.1271341
91	0x38571796	5.128196e-05
92	0x00000000	0.0
93	0x00000000	0.0
94	0x37587e7a	1.2904051e-05
95	0x3d26f366	0.040759467
96	0x3886fd15	6.436758e-05
97	0x00000000	0.0
98	0x31b8a2a3	5.3735945e-09
99	0x00000000	0.0
100	0x00000000	0.0
101	0x3e8a1ead	0.2697653
102	0x00000000	0.0
103	0x39325cb3	0.00017009936
104	0x36d6eae7	6.405043e-06
105	0x383d75d2	4.517084e-05
106	0x3af46e28	0.0018648552
107	0x3c48623c	0.012230452
108	0x00000000	0.0
109	0x3b60348d	0.003421101
110	0x389110da	6.917278e-05
111	0x3e397102	0.18109515
112	0x374504c4	1.1743225e-05
113	0x380cbc87	3.355418e-05
114	0x00000000	0.0
115	0x36b76a9f	5.4662373e-06
116	0x3911d3db	0.000139072
117	0x3d2d5b8d	0.042323638
118	0x3e904fd3	0.281859
119	0x3d86bc67	0.06578904
120	0x00000000	0.0
121	0x36434237	2.9095806e-06
122	0x36df1c73	6.64923e-06
123	0x36dbb9ea	6.548352e-06
124	0x3f240588	0.6407094
125	0x3bf0766f	0.007338337
126	0x343b0f2c	1.7421252e-07
127	0x3414e7b5	1.3867869e-07

exp_avg f4 [64, 128]
0	0x80000004	-6e-45
1	0x00000004	6e-45
2	0x00000000	0.0
3	0x00000004	6e-45
4	0x3fce6b28	1.6126451
5	0x00000000	0.0
6	0x3fb47c9d	1.4100529
7	0x00000000	0.0
8	0xc017e748	-2.3734913
9	0x00000000	0.0
10	0x00000004	6e-45
11	0x00000000	0.0
12	0x00000000	0.0
13	0x3f46f372	0.7771522
14	0x80000004	-6e-45
15	0x00000000	0.0
16	0x80000004	-6e-45
17	0x3f7519cb	0.9574248
18	0x00000004	6e-45
19	0x40120a22	2.2818685
20	0x00000000	0.0
21	0x40083ca2	2.1287007
22	0x8e0fdabd	-1.773143e-30
23	0x80000004	-6e-45
24	0x80000004	-6e-45
25	0x00000000	0.0
26	0x3f8bd822	1.0925333
27	0x00000000	0.0
28	0x80000004	-6e-45
29	0x00000000	0.0
30	0x3fbaf592	1.4606192
31	0x3cfd8735	0.03094826
32	0x00000000	0.0
33	0x3f70ad9c	0.94014907
34	0x00000000	0.0
35	0x00000000	0.0
36	0x8e4395c5	-2.4107717e-30
37	0x00000000	0.0
38	0x1ba35675	2.702196e-22
39	0x4012958a	2.2903771
40	0x3fb95e84	1.4481969
41	0x80000004	-6e-45
42	0x00000004	6e-45
43	0x3f907eda	1.1288712
44	0x00000000	0.0
45	0x00000000	0.0
46	0x3fa3e17b	1.2803186
47	0x80000004	-6e-45
48	0x80000004	-6e-45
49	0x00000000	0.0
50	0x00000000	0.0
51	0x00000000	0.0
52	0x3fddbc20	1.7323036
53	0x00000000	0.0
54	0x00000000	0.0
55	0x3f96f764	1.1794248
56	0x3da49dd9	0.080379196
57	0x00000000	0.0
58	0x40164b6c	2.3483534
59	0x00000000	0.0
60	0x00000004	6e-45
61	0x00000000	0.0
62	0x00000000	0.0
63	0x3ef6dc92	0.48215157
64	0xbf5a42ce	-0.85258186
65	0x00000000	0.0
66	0x00000004	6e-45
67	0x00000000	0.0
68	0x00000000	0.0
69	0x3fd4ba97	1.6619443
70	0x00000004	6e-45
71	0x00000004	6e-45
72	0x00000000	0.0
73	0x3f855338	1.0416021
74	0x00000004	6e-45
75	0x00000000	0.0
76	0x80000004	-6e-45
77	0x80000004	-6e-45
78	0x80000004	-6e-45
79	0x0cf2bd0b	3.739978e-31
80	0x80000004	-6e-45
81	0x00000004	6e-45
82	0xbe0dc28a	-0.13843742
83	0xc00dfcbe	-2.2185512
84	0xbfd0f635	-1.6325136
85	0x3edd4a8a	0.4322093
86	0x80000004	-6e-45
87	0xbfa992e3	-1.3247951
88	0x3e1bc0fb	0.15210335
89	0xbffd05f2	-1.9767439
90	0x3fa63610	1.2985249
91	0x00000004	6e-45
92	0x00000000	0.0
93	0x00000000	0.0
94	0x00000004	6e-45
95	0x3f8f7efd	1.1210629
96	0x80000004	-6e-45
97	0x00000000	0.0
98	0x80000004	-6e-45
99	0x00000000	0.0
100	0x00000000	0.0
101	0x4032ca2b	2.7935894
102	0x00000000	0.0
103	0x00000004	6e-45
104	0x00000004	6e-45
105	0x00000004	6e-45
106	0x3de131a4	0.10995796
107	0x3f048666	0.51767576
108	0x00000000	0.0
109	0xbf959116	-1.1684902
110	0x80000004	-6e-45
111	0x40286e4f	2.6317327
112	0x80000004	-6e-45
113	0x80000004	-6e-45
114	0x00000000	0.0
115	0x80000004	-6e-45
116	0x80000004	-6e-45
117	0x3efa37ee	0.48870796
118	0x3f7b3916	0.9813398
119	0x3f883edf	1.0644187
120	0x00000000	0.0
121	0x00000004	6e-45
122	0x00000004	6e-45
123	0x00000004	6e-45
124	0xbf208355	-0.62700397
125	0xb9c834da	-0.0003818635
126	0x00000004	6e-45
127	0x00000004	6e-45
128	0x80000004	-6e-45
129	0x80000004	-6e-45
130	0x00000000	0.0
131	0x00000004	6e-45
132	0x80000004	-6e-45
133	0x00000000	0.0
134	0x80000004	-6e-45
135	0x00000000	0.0
136	0x80000004	-6e-45
137	0x00000000	0.0
138	0x80000004	-6e-45
139	0x00000000	0.0
140	0x00000000	0.0
141	0x00000004	6e-45
142	0x80000004	-6e-45
143	0x00000000	0.0
144	0x00000004	6e-45
145	0x00000004	6e-45
146	0x80000004	-6e-45
147	0x00000004	6e-45
148	0x00000000	0.0
149	0x00000004	6e-45
150	0x00000004	6e-45
151	0x80000004	-6e-45
152	0x00000004	6e-45
153	0x00000000	0.0
154	0x80000004	-6e-45
155	0x00000000	0.0
156	0x00000004	6e-45
157	0x00000000	0.0
158	0x00000004	6e-45
159	0x00000004	6e-45
160	0x00000000	0.0
161	0x00000004	6e-45
162	0x00000000	0.0
163	0x00000000	0.0
164	0x00000004	6e-45
165	0x00000000	0.0
166	0x00000004	6e-45
167	0x00000004	6e-45
168	0x00000004	6e-45
169	0x00000004	6e-45
170	0x80000004	-6e-45
171	0x00000004	6e-45
172	0x00000000	0.0
173	0x00000000	0.0
174	0x00000004	6e-45
175	0x00000004	6e-45
176	0x00000004	6e-45
177	0x00000000	0.0
178	0x00000000	0.0
179	0x00000000	0.0
180	0x00000004	6e-45
181	0x00000000	0.0
182	0x00000000	0.0
183	0x80000004	-6e-45
184	0x00000004	6e-45
185	0x00000000	0.0
186	0x00000004	6e-45
187	0x80000004	-6e-45
188	0x80000004	-6e-45
189	0x00000000	0.0
190	0x00000000	0.0
191	0x00000004	6e-45
192	0x00000004	6e-45
193	0x00000000	0.0
194	0x80000004	-6e-45
195	0x00000000	0.0
196	0x00000000	0.0
197	0x80000004	-6e-45
198	0x80000004	-6e-45
199	0x80000004	-6e-45
200	0x00000000	0.0
201	0x00000004	6e-45
202	0x80000004	-6e-45
203	0x00000000	0.0
204	0x00000004	6e-45
205	0x00000004	6e-45
206	0x00000004	6e-45
207	0x00000004	6e-45
208	0x80000004	-6e-45
209	0x80000004	-6e-45
210	0x00000004	6e-45
211	0x00000004	6e-45
212	0x00000004	6e-45
213	0x00000004	6e-45
214	0x80000004	-6e-45
215	0x00000004	6e-45
216	0x00000004	6e-45
217	0x00000004	6e-45
218	0x00000004	6e-45
219	0x00000004	6e-45
220	0x00000000	0.0
221	0x00000000	0.0
222	0x80000004	-6e-45
223	0x00000004	6e-45
224	0x00000004	6e-45
225	0x00000000	0.0
226	0x00000004	6e-45
227	0x00000000	0.0
228	0x00000000	0.0
229	0x00000004	6e-45
230	0x00000000	0.0
231	0x80000004	-6e-45
232	0x80000004	-6e-45
233	0x80000004	-6e-45
234	0x00000004	6e-45
235	0x80000004	-6e-45
236	0x00000000	0.0
237	0x00000004	6e-45
238	0x00000004	6e-45
239	0x00000004	6e-45
240	0x00000004	6e-45
241	0x00000004	6e-45
242	0x00000000	0.0
243	0x00000004	6e-45
244	0x00000004	6e-45
245	0x80000004	-6e-45
246	0x00000004	6e-45
247	0x80000004	-6e-45
248	0x00000000	0.0
249	0x80000004	-6e-45
250	0x80000004	-6e-45
251	0x80000004	-6e-45
252	0x00000004	6e-45
253	0x00000004	6e-45
254	0x80000004	-6e-45
255	0x00000004	6e-45
