src/model_data/Turkish_Grand_Prix_model.pth (torch, 197961 bytes, 21 tensors)

net.0.weight f4 [128, 48]
0	0xbe48fef4	-0.19628507
1	0x3baa8c04	0.0052046794
2	0xbd5310d5	-0.051529724
3	0xbcaa41e3	-0.02078337
4	0xbd8eecf1	-0.06978787
5	0xbdb4b878	-0.08824247
6	0xbe22e024	-0.15905815
7	0xbe285f1a	-0.16442528
8	0xbe4ce012	-0.20007351
9	0x3b89803f	0.0041961963
10	0x3dcdd7a1	0.100508936
11	0xbd885d33	-0.06658401
12	0x3d711796	0.058860384
13	0x3c5eaa75	0.013590445
14	0x3c21027f	0.009827255
15	0x3d79e23c	0.06100677
16	0xbe3715f5	-0.1787947
17	0x3be51ba9	0.0069918227
18	0xbc137d8d	-0.009002102
19	0x3ccd030c	0.025025867
20	0xbdafd43d	-0.08585403
21	0xbe598954	-0.21243793
22	0xbd2b1c84	-0.04177524
23	0x3c2d3c75	0.010573496
24	0xbddbec99	-0.10738487
25	0xbdfb27f9	-0.122634836
26	0xbe4ef038	-0.20208824
27	0xbdefad5a	-0.11702986
28	0x3db3e508	0.087839186
29	0xba8ddbee	-0.001082299
30	0xbe53f967	-0.20700608
31	0x3d69f7ae	0.05712097
32	0xbc79c587	-0.015244848
33	0xbe029af2	-0.1275442
34	0xbe61160a	-0.21981063
35	0xbe3250ce	-0.17413637
36	0xbe31f193	-0.1737731
37	0xbdbc1d30	-0.091852546
38	0xbe760f6a	-0.24029317
39	0xbe4d9ad7	-0.20078598
40	0xbe10bb22	-0.14133886
41	0xbe4cbe07	-0.19994365
42	0xbe2b9cc0	-0.16759014
43	0xbe52ee22	-0.20598653
44	0x3e09e977	0.13467966
45	0xbe02420b	-0.12720506
46	0x3e935a07	0.28779623
47	0xbeb6a586	-0.3567316
48	0xbdc3f7ef	-0.09568774
49	0xbe2df202	-0.1698685
50	0x3e37eeab	0.17962138
51	0x3dfd3584	0.12363723
52	0xbdc7b223	-0.09750774
53	0x3bf1b782	0.007376612
54	0x3dd8b39b	0.10581132
55	0xbd036046	-0.032074235
56	0xbdac4679	-0.08411879
57	0xbe299477	-0.16560541
58	0x3d046a26	0.032327794
59	0x3a374dec	0.0006992507
60	0xb8922fc0	-6.970717e-05
61	0xbe019fd3	-0.12658624
62	0xbcf8d708	-0.030375972
63	0x3cdf8367	0.027284337
64	0x3dff4a0c	0.12465295
65	0xbe1b0810	-0.15139794
66	0xbdfb0bf6	-0.12258141
67	0x3dae8ac7	0.085225634
68	0x3d418a39	0.04725096
69	0xbaa4086a	-0.0012514715
70	0x3e321674	0.17391378
71	0xbe256bc3	-0.16154389
72	0x3ca84125	0.020538876
73	0xbda8fcb0	-0.08251321
74	0xbdc0d4a8	-0.09415561
75	0x3d9f99c0	0.07792997
76	0xbde53e93	-0.11193576
77	0x3e3af47a	0.18257323
78	0xbe2d37b9	-0.16915788
79	0x3e21b6d1	0.15792395
80	0x3d86001c	0.065429896
81	0x3d8113ac	0.0630258
82	0x3e044bfe	0.12919614
83	0x3d7d138b	0.061786216
84	0xbd06a253	-0.03286965
85	0xbd0fcb44	-0.03510596
86	0xbb84e62e	-0.00405576
87	0xbc5c75e1	-0.013455839
88	0x3e232ff6	0.15936264
89	0xbe075d88	-0.13219273
90	0x3e30fd30	0.17284083
91	0xbd8aff2c	-0.067869514
92	0xbe3c9d5c	-0.18419403
93	0xbd7183b1	-0.05896348
94	0xbdfe4a47	-0.12416511
95	0x3e2b52b6	0.1673077
96	0x3e214c09	0.15751661
97	0xbd5c5f54	-0.05380185
98	0x3de86d20	0.11348939
99	0x3d557a1b	0.052118402
100	0xbe397628	-0.1811148
101	0x3e054243	0.13013558
102	0xbe09bac1	-0.13450147
103	0x3ddd20d7	0.10797279
104	0x3e35213b	0.17688458
105	0xbe37f319	-0.17963828
106	0x3e054e1e	0.1301808
107	0xbe1feb7a	-0.15617171
108	0xbe1c51a4	-0.15265518
109	0xbc834851	-0.016025694
110	0xbdabfd9f	-0.08397984
111	0xbe206111	-0.15662028
112	0x3e21799c	0.15769047
113	0xbd039f1e	-0.032134168
114	0xbd90612d	-0.07049785
115	0xbe1b1dfd	-0.15148158
116	0x3b9fe9c4	0.004880162
117	0xbdbe2235	-0.09283868
118	0xbde86c7e	-0.11348818
119	0x3d66a5cf	0.05631047
120	0xbe0cbf6b	-0.13744895
121	0x3ce2e2e7	0.027696086
122	0xbe27df21	-0.1639371
123	0x3ccd3808	0.025051132
124	0x3e148954	0.14505512
125	0xbe1cf7b5	-0.15328868
126	0xbd6f44cd	-0.058415223
127	0x3d6fb926	0.05852618
128	0x3dac14e6	0.084024236
129	0x3d8698fa	0.06572147
130	0x3e201064	0.15631253
131	0x3e33b3fa	0.17549124
132	0xbc680f95	-0.014163871
133	0xbda4c0a3	-0.08044555
134	0xbcb0fc8c	-0.021604799
135	0xbe32d353	-0.17463426
136	0x3e1518c8	0.14560235
137	0xbd161172	-0.03663773
138	0x3df5e45f	0.12006449
139	0x3df02db3	0.117274664
140	0xbe2d8f6a	-0.1694924
141	0xbc8fe8ce	-0.017567065
142	0x3e1bedab	0.15227382
143	0xbc2b8db8	-0.0104708
144	0xbaa671bd	-0.0012698692
145	0xbd6e5d90	-0.058194697
146	0xbe079b61	-0.13242866
147	0xbd409e99	-0.04702625
148	0x3c2f1e43	0.010688367
149	0xbdd4b0c1	-0.10385276
150	0x3d13791c	0.03600417
151	0x3c5c5bb2	0.013449596
152	0x3d418288	0.047243625
153	0xbdf4239c	-0.119208544
154	0x3d301c13	0.042995524
155	0x3d9043c7	0.070441775
156	0xbca4384f	-0.020046381
157	0xbd1c1315	-0.038104136
158	0x3e28e3d8	0.16493165
159	0x3dac8a33	0.08424797
160	0x3dedd205	0.11612324
161	0x3e37cb82	0.17948726
162	0xbd6a54aa	-0.05720965
163	0x3d4a21fe	0.049348824
164	0x3d22d05c	0.03974949
165	0xbd6fc74a	-0.058539666
166	0x3e472f5b	0.19451658
167	0xbe3c7727	-0.18404828
168	0xbe8178ad	-0.2528738
169	0xbcbf4880	-0.02335
170	0x3e29f7fe	0.16598508
171	0x3deb1f8d	0.11480627
172	0x3e3ed67d	0.18636508
173	0x3e2fe3e2	0.17176774
174	0xbdf87480	-0.121315956
175	0xbdaf9bb5	-0.08574621
176	0xbdf7045c	-0.12061378
177	0x3e8ecddb	0.2789143
178	0xbb3ca7a1	-0.0028786438
179	0x3e13318d	0.14374371
180	0x3e2c8526	0.16847667
181	0x3e86ec18	0.26352
182	0xbf29e616	-0.6636671
183	0xbec842c8	-0.3911345
184	0xbeb1759b	-0.34660038
185	0xbd672ec9	-0.056441102
186	0x3d9626e0	0.073316336
187	0x3ebc36f0	0.36760664
188	0x3deb623f	0.11493348
189	0x3d91c5fa	0.07117839
190	0x3d501ee9	0.05081073
191	0xbf2bb012	-0.67065537
192	0xbd904bcb	-0.07045706
193	0xbde6cc3d	-0.11269424
194	0xbe2261dd	-0.15857644
195	0x3deb2b44	0.11482862
196	0x3d6a92fa	0.057269074
197	0x3e150494	0.14552528
198	0x3cff88e1	0.031193199
199	0xbe3afdea	-0.18260923
200	0xbe09d25d	-0.13459153
201	0xbd591586	-0.052999042
202	0xbd8b8a34	-0.068134695
203	0xbe379bc7	-0.17930518
204	0xbdf1f057	-0.11813419
205	0xbe21b8b4	-0.15793115
206	0xbd09323a	-0.033495165
207	0x3d857520	0.065164804
208	0xbc4881b4	-0.012237955
209	0xbe24d9a3	-0.16098647
210	0xbd898dec	-0.067165226
211	0x3e17c876	0.14822564
212	0xbd7cb2e3	-0.061694037
213	0xbdaf8664	-0.08570555
214	0x3d3b008f	0.04565483
215	0x3e0bedbe	0.1366491
216	0xbe2c31e7	-0.16815911
217	0xbde32724	-0.1109145
218	0x3dc8ad18	0.0979864
219	0x3dc39be1	0.09551216
220	0xbc98bf42	-0.018645886
221	0xbe0a6bc6	-0.13517675
222	0xbe214fef	-0.15753148
223	0xbbfae476	-0.007656629
224	0xbc99da7e	-0.018780943
225	0xbd5ad799	-0.053428266
226	0xbd5873b0	-0.052844703
227	0x3e23113a	0.1592454
228	0x3d7012e1	0.058611754
229	0xbe25a390	-0.16175675
230	0x3d289256	0.04115518
231	0x3d027466	0.031849287
232	0x3e032718	0.12807882
233	0xbe3cc77c	-0.18435472
234	0x3d76a2d9	0.060213897
235	0x3dbc16d7	0.09184044
236	0x3ce49237	0.027901752
237	0xbe153d45	-0.14574154
238	0x3c33e8d6	0.010980805
239	0x3d7e75d7	0.0621241
240	0x3ded6743	0.11591961
241	0xbcf71b41	-0.030164363
242	0x3e37e2a6	0.17957553
243	0xbdde32fb	-0.108495675
244	0xbc7baf32	-0.015361594
245	0xbdb92b15	-0.0904142
246	0x3e0a2181	0.13489343
247	0x3da07c79	0.07836241
248	0x3db17ce4	0.08666399
249	0xbe150a59	-0.14554729
250	0x3da87602	0.08225633
251	0x3d7a5d2b	0.06112401
252	0xbdad7b41	-0.084707744
253	0xbe0f153f	-0.13972948
254	0xbdd5bbb6	-0.10436194
255	0xbdd56b2c	-0.10420832

net.0.bias f4 [128]
0	0xbd7d2f0d	-0.06181245
1	0x00000000	0.0
2	0x00000000	0.0
3	0x3d9a3ba7	0.07530909
4	0xbd42f806	-0.047599815
5	0x00000000	0.0
6	0x3e32150a	0.17390838
7	0xbd7c9438	-0.06166479
8	0xbcbd8fd8	-0.02313988
9	0x3ea0c39b	0.31399235
10	0xbce2afef	-0.027671782
11	0xbd59c93c	-0.053170428
12	0x3e8da534	0.27665102
13	0xbd6736c0	-0.056448698
14	0xbd021a47	-0.03176334
15	0xbce8cad1	-0.028417023
16	0xbd20b30f	-0.039233264
17	0xbd951839	-0.07280011
18	0x3ebc201b	0.36743245
19	0x3d8026d8	0.06257409
20	0xbd79fccb	-0.061032098
21	0x3c9835f8	0.018580422
22	0xbdb25ba5	-0.08708886
23	0x00000000	0.0
24	0x3eba98ca	0.36444694
25	0xbd88124a	-0.06644113
26	0xbd2eb541	-0.042653326
27	0xbde620b8	-0.11236709
28	0xbd7a0646	-0.06104114
29	0xbd243032	-0.040085025
30	0xbd8654ca	-0.06559141
31	0xbdecad95	-0.11556546
32	0xbd3bae6e	-0.045820646
33	0x3e93397b	0.28754792
34	0x3ebbb659	0.36662558
35	0x3ea71745	0.3263494
36	0x3e797f53	0.24364977
37	0xbda3c152	-0.07995857
38	0xbdb03d6f	-0.086054675
39	0x00000000	0.0
40	0x3e875130	0.2642913
41	0x3ebd6ecd	0.36998597
42	0xbd577772	-0.052604146
43	0xbd84b404	-0.06479648
44	0xbd9b9753	-0.07597222
45	0xbe077f64	-0.1323219
46	0xbd86d3c5	-0.065833606
47	0x3e476116	0.19470629
48	0x3ebabc9d	0.36472026
49	0xbdf7469c	-0.120740145
50	0xbdbfc092	-0.09362902
51	0xbd6a5597	-0.05721053
52	0xbbc4c9db	-0.0060055084
53	0xbdd2848c	-0.102791876
54	0x3eb202b4	0.34767687
55	0x00000000	0.0
56	0x00000000	0.0
57	0xbd862678	-0.06550306
58	0xbdbfeec5	-0.093717135
59	0x3d55b27b	0.052172165
60	0x3eb0030a	0.3437732
61	0xbd1e0378	-0.038577527
62	0xbcf2f8a3	-0.029659575
63	0x00000000	0.0
64	0xbcfff3b2	-0.031244133
65	0xbd9a7a9c	-0.07542917
66	0x3eafd96b	0.34345564
67	0x00000000	0.0
68	0xbd631392	-0.055438586
69	0x3ea8c127	0.32959864
70	0xbda089f3	-0.07838812
71	0x3e993652	0.29924256
72	0x3ea1a233	0.3156906
73	0xbcedfcdf	-0.029051242
74	0xba6408b3	-0.0008698806
75	0xbce42d5b	-0.027853658
76	0x3ebae311	0.36501363
77	0xbd9d14ce	-0.07669984
78	0xbce8cad0	-0.028417021
79	0xbdf998ed	-0.121873714
80	0x3e8d5307	0.27602407
81	0x3e98a016	0.29809636
82	0xbe3eab2e	-0.18619987
83	0xbd323c9f	-0.043514844
84	0xbd8cb0e9	-0.068696804
85	0x00000000	0.0
86	0x3e84682c	0.25860727
87	0x3d54aeda	0.051924564
88	0x3eba6608	0.3640597
89	0xbd5785e4	-0.052617922
90	0xbd8fdcad	-0.070245124
91	0xbd29674d	-0.04135828
92	0xbd90ffee	-0.07080065
93	0xbd0d5e92	-0.034514017
94	0xbe1a3b51	-0.1506169
95	0xbd733fa5	-0.059386868
96	0x3e8e7049	0.27820042
97	0xbd8fbba9	-0.07018215
98	0x3eaefcfa	0.3417738
99	0xbe409f88	-0.18810856
100	0xbba24582	-0.0049521336
101	0xbd62053a	-0.055180766
102	0xbdcaa5a6	-0.09894876
103	0x3e78f66a	0.2431275
104	0x3ebbecbb	0.3670405
105	0xbdd5d62e	-0.10441242
106	0xbdf70b8b	-0.120627485
107	0xbdc90a00	-0.098163605
108	0x3e8818d6	0.26581448
109	0xbdb3d979	-0.08781714
110	0xbdc14063	-0.09436109
111	0x3e9a370a	0.30120116
112	0x3ec7bd51	0.39011624
113	0xbdf102bd	-0.117681004
114	0xbcb828a5	-0.022480318
115	0xbc7621ee	-0.015022738
116	0xbddb8e67	-0.107205205
117	0xbd3e539c	-0.046466455
118	0x3ebba4b2	0.3664909
119	0xbdc647ad	-0.0968164
120	0xbd736c98	-0.059429735
121	0xbc964445	-0.0183431
122	0xbd8b4b8b	-0.06801518
123	0xbd7d8811	-0.06189734
124	0xbc330a5f	-0.010927766
125	0x3e9df8fc	0.30854023
126	0x3e965992	0.29365212
127	0x3ea5d209	0.32386807

net.2.weight f4 [64, 128]
0	0xbdd56cda	-0.104211524
1	0x3d21e743	0.03952719
2	0xbd9524f6	-0.0728244
3	0xbe1cd36c	-0.15315026
4	0x3e2bb0b5	0.16766627
5	0xbd11f698	-0.03563556
6	0xbc19b7d1	-0.009382204
7	0x3deba917	0.11506861
8	0x3d88e4ee	0.0668429
9	0x3dc7ed0a	0.097620085
10	0xbde5d5b6	-0.11222403
11	0xbd544e57	-0.051832523
12	0xbe3a96d2	-0.18221596
13	0xbe1b2399	-0.15150298
14	0x3d79e8ca	0.06101302
15	0x3e0f7fe0	0.14013624
16	0xbe0b7f6f	-0.13622831
17	0x3cbb3a0e	0.022854831
18	0xbe0e0a89	-0.13871206
19	0xbc68b104	-0.01420236
20	0x3e0ef265	0.13959654
21	0x3d142f84	0.036178127
22	0x3e0b7e30	0.13622355
23	0xbe26da31	-0.16294171
24	0xbe251820	-0.16122484
25	0x3e2ec823	0.17068534
26	0x3e34c662	0.17653802
27	0x3dc184da	0.094491675
28	0x3ccd4b0c	0.0250602
29	0x3d44d843	0.048057806
30	0xbe013c7d	-0.1262073
31	0x3ddfd9de	0.10930227
32	0xbcf9e63f	-0.030505298
33	0xbe0ece7c	-0.13945955
34	0xbdd27241	-0.102756985
35	0xbbc94d12	-0.0061432207
36	0xbdd09188	-0.10184008
37	0xbd9f700d	-0.07785044
38	0xbd3d918b	-0.04628138
39	0x3a00586c	0.00048959884
40	0xbdcec0d5	-0.100953735
41	0xbd979d66	-0.07403068
42	0x3e18e85f	0.14932393
43	0x3c4e3259	0.012585246
44	0xbd9c3f5d	-0.07629273
45	0x3e1c08f8	0.15237796
46	0x3dc25334	0.09488526
47	0x3e3c30a6	0.18377933
48	0x3deb066f	0.114758365
49	0xbd0d847b	-0.03455017
50	0xbdf53011	-0.119720586
51	0xbe2af5a4	-0.16695267
52	0x3d73f6ad	0.05956142
53	0xbe130562	-0.14357522
54	0x3d59f23d	0.053209532
55	0x3deb9b4d	0.11504231
56	0x3e281c85	0.1641713
57	0xbbc8ef52	-0.006132045
58	0x3dabad27	0.083826356
59	0x3e0958b3	0.13412742
60	0x3d85864b	0.06519755
61	0xbd0f944b	-0.035053533
62	0xbd88c21b	-0.06677648
63	0x3d76bb43	0.06023718
64	0xbd9ef0f4	-0.07760802
65	0xbdd55caf	-0.104180686
66	0xbdb95d70	-0.09051025
67	0x3e20e7ad	0.15713377
68	0x3dfaf742	0.12254192
69	0x3ccef460	0.025263011
70	0xbd9b5bdc	-0.0758588
71	0x3dbea283	0.093083404
72	0xbd871f44	-0.0659776
73	0x3c305193	0.010761636
74	0xbddd9fe5	-0.10821513
75	0xbceb9948	-0.028759614
76	0x3db6d229	0.089268036
77	0xbd6dc17a	-0.05804584
78	0xbc82f367	-0.015985204
79	0xbe141d1e	-0.14464232
80	0x3d94e84b	0.07270869
81	0x3ccca031	0.024978729
82	0x3cc6cc98	0.02426748
83	0xbe194faf	-0.14971803
84	0x3e03041f	0.12794541
85	0x3de4c6bd	0.11170719
86	0xbdf08669	-0.11744387
87	0x3e0e3369	0.13886799
88	0xbe0fffa8	-0.14062369
89	0x3cfe9fe1	0.031082096
90	0x3e3101ed	0.17285891
91	0x3daf9d4c	0.08574924
92	0x3d50fc5c	0.05102192
93	0x3d9edcb8	0.077569425
94	0xbe1504f4	-0.1455267
95	0x3dc1d4ba	0.094644025
96	0x3da6c3df	0.08142828
97	0xbd8e814c	-0.06958255
98	0xbd26ea43	-0.040750753
99	0x3c998f8e	0.01874521
100	0xbd5ab07e	-0.053390972
101	0x3d90da2a	0.070728615
102	0x3d610350	0.0549348
103	0x3dba5ea6	0.09100084
104	0x3d883794	0.06651226
105	0x3d9b8f41	0.07595683
106	0xbd44b7dd	-0.04802691
107	0x3cc5cf46	0.024146687
108	0xbe24886f	-0.1606767
109	0xbe1c3176	-0.15253243
110	0xbc7da77e	-0.015481828
111	0x3d809af4	0.06279555
112	0x3e09e2b5	0.13465388
113	0x3e139073	0.14410572
114	0x3cc1bda9	0.023650007
115	0x3dc5c91d	0.096575
116	0x3dc6a494	0.096993595
117	0xbda77396	-0.08176343
118	0xbe089474	-0.1333788
119	0x3e5eba43	0.2175074
120	0x3d90ff7b	0.07079979
121	0xbdccef40	-0.10006571
122	0x3e0e144e	0.13874933
123	0xbc91c750	-0.017795235
124	0x3c128bfd	0.008944509
125	0xbe2a702e	-0.16644356
126	0x3d812418	0.063057125
127	0xbcac85e2	-0.021059934
128	0x3e24a30a	0.1607782
129	0xbccd2220	-0.025040686
130	0xbd9cffc0	-0.07665968
131	0x3c115af2	0.008871781
132	0x3be772f3	0.0070632636
133	0xbd518dbd	-0.051160563
134	0xbe0a6635	-0.13515551
135	0x3e137408	0.14399731
136	0x3dfd9daf	0.123835914
137	0x3e05ae32	0.13054731
138	0xbe119729	-0.1421782
139	0xbcbd40c4	-0.023102172
140	0xbdca99aa	-0.0989259
141	0x3e207220	0.15668535
142	0xbd8b9ffb	-0.06817623
143	0xbd539a00	-0.051660538
144	0xbc9d2474	-0.019182421
145	0xbde15415	-0.110023655
146	0xbc9da74b	-0.01924481
147	0xbd1a1c75	-0.037624795
148	0x3e06ecd0	0.13176274
149	0xbdd2a748	-0.102858126
150	0x3d832ebd	0.06405399
151	0xbdb363fd	-0.087593056
152	0x3dbef3a0	0.093238115
153	0x3e15b3b2	0.1461933
154	0xbdc91399	-0.09818191
155	0x3c0091cd	0.007847262
156	0xbdeee61b	-0.11664983
157	0x3d8c491e	0.068498835
158	0xbdb1ea6b	-0.0868729
159	0xbe03d969	-0.12875904
160	0x3d4a8157	0.049439754
161	0xbda5ad6d	-0.08089719
162	0x3d289657	0.041159
163	0xbe1baf10	-0.152035
164	0x3c7a4b43	0.015276733
165	0xbd84d59d	-0.06486056
166	0xbca40e85	-0.020026455
167	0xbe24e898	-0.16104352
168	0x3e4b2dde	0.19841716
169	0xbcc67538	-0.024225816
170	0xbda53e14	-0.08068481
171	0x3dd2e6dd	0.1029794
172	0xbdfbae36	-0.122890875
173	0x3d8c1f51	0.06841911
174	0x3d481f96	0.048858248
175	0x3b5ce04a	0.0033703023
176	0x3d057c84	0.03258945
177	0x3e373ffa	0.17895499
178	0x3d356dbb	0.0442941
179	0xbce917e8	-0.028453782
180	0x3d4f1ba1	0.05056346
181	0xbd70f71f	-0.058829423
182	0x3e1cfc51	0.15330626
183	0x3ddbdf06	0.10735898
184	0x3d227953	0.039666485
185	0x3ddc5588	0.10758501
186	0x3d750608	0.059820205
187	0x3e06dc28	0.1316992
188	0x3e425317	0.18977009
189	0x3de84a2d	0.11342273
190	0x3ddbb905	0.10728649
191	0xbe049e58	-0.12951028
192	0x3d2c8546	0.042119287
193	0xbc9c64c9	-0.019091027
194	0x3d9dc177	0.07702916
195	0xbcda259d	-0.026629264
196	0xbe0f4227	-0.13990079
197	0x3b8b3274	0.004247958
198	0x3e1e7486	0.15474138
199	0x3da12bd5	0.078696884
200	0xbc7ddea1	-0.015494973
201	0xbdcfb970	-0.10142791
202	0x3c9aae32	0.01888189
203	0xbc70afd2	-0.014690356
204	0x3cf880a3	0.030334776
205	0xbe070fc0	-0.13189602
206	0x3e12cff2	0.14337137
207	0x3dd91fd3	0.10601773
208	0xbe0c2941	-0.13687612
209	0x3e0d2e33	0.13787155
210	0x3d0b793a	0.034051158
211	0xbdedc59b	-0.11609956
212	0xbdc49ceb	-0.09600242
213	0xbdaf2e67	-0.085537724
214	0xbe377ce2	-0.17918733
215	0xbddaed28	-0.10689765
216	0x3c599554	0.0132802315
217	0x3e02fe64	0.12792355
218	0x3d7128dc	0.058876857
219	0xbcc79117	-0.024361176
220	0x3d565435	0.0523264
221	0x3ded8b85	0.11598877
222	0x3d545ec2	0.05184818
223	0x3e0b7562	0.13618997
224	0xbcda539e	-0.0266512
225	0xbd9e6238	-0.077335775
226	0x3dfc2358	0.12311429
227	0x3e11dc71	0.14244248
228	0x3e023fe2	0.12719682
229	0x3cd39704	0.025828846
230	0x3e0be663	0.13662104
231	0x3e08376d	0.13302393
232	0x3e3e36f2	0.18575647
233	0x3e157dcd	0.1459877
234	0x3e0e2663	0.13881831
235	0xbe04d2ca	-0.12971035
236	0x3e0ec169	0.13940968
237	0x3df6fbb8	0.1205973
238	0x3de71595	0.11283413
239	0x3cf407bf	0.02978885
240	0xbe52b830	-0.20578074
241	0xbd03bf93	-0.03216512
242	0x3e0daed8	0.13836229
243	0xbddac5d1	-0.10682262
244	0x3cefc05e	0.029266533
245	0xbe3113c5	-0.17292698
246	0x3e2069d3	0.15665369
247	0xbccf4274	-0.025300242
248	0x3d5452f4	0.051836923
249	0xbdd88237	-0.105717115
250	0xbd2b8a8d	-0.04188018
251	0xbd28f948	-0.041253358
252	0xbd89b80a	-0.06724556
253	0x3dcb44a4	0.099252015
254	0xbb86e2da	-0.0041163983
255	0x3e087edd	0.13329645

net.2.bias f4 [64]
0	0x3c8e4b1a	0.017369796
1	0xbca5c6ca	-0.020236392
2	0x3d14ef1f	0.036360856
3	0x3d5f9477	0.054584946
4	0xbaf95753	-0.0019023217
5	0xbdc43cbe	-0.09581898
6	0xbd605143	-0.054764997
7	0x3e758812	0.23977688
8	0xbd96755f	-0.073466055
9	0xbd9397dd	-0.072067
10	0x3ea68869	0.32525948
11	0xbd021a56	-0.031763397
12	0x00000000	0.0
13	0x3e826178	0.25464988
14	0xbda0f12a	-0.078584984
15	0xbd78fa83	-0.06078578
16	0xbd24bb2a	-0.040217556
17	0xbd0aa49c	-0.03384839
18	0x3dc63cf3	0.09679594
19	0xbcbfe97b	-0.023426762
20	0x3e7f86a9	0.24953713
21	0x3bb1065c	0.0054023694
22	0x3e9d916b	0.30775008
23	0xbda91c88	-0.08257395
24	0x3e153153	0.14569597
25	0x00000000	0.0
26	0x3e562bed	0.20915194
27	0xbc99feee	-0.018798318
28	0xbb812091	-0.00394065
29	0x00000000	0.0
30	0x3ea504fb	0.32230362
31	0xbd021cdc	-0.031765804
32	0xbd532f5e	-0.051558845
33	0xbcb1421e	-0.021637972
34	0x3e99a531	0.30008844
35	0x3e998697	0.29985496
36	0xbd4be98f	-0.049783286
37	0xbd840f11	-0.06448186
38	0x3e99aaf8	0.3001325
39	0x3d399260	0.04530561
40	0xbd022c25	-0.03178038
41	0xbce55181	-0.027992966
42	0xbd08ee61	-0.03343046
43	0xbcd73d26	-0.026274275
44	0x3e54cf96	0.20782313
45	0x3ea25b16	0.31710118
46	0xbc9a5a9c	-0.018842034
47	0xbd51b5dc	-0.051198825
48	0x3e124836	0.14285359
49	0x00000000	0.0
50	0xbc68bd6f	-0.014205321
51	0xbd483bb9	-0.04888508
52	0x3e90a1b6	0.28248376
53	0xbdac3863	-0.084091924
54	0xbd7d81a8	-0.061891228
55	0x3c118ef5	0.008884181
56	0xbd3422d1	-0.043978516
57	0x3e0066a6	0.12539157
58	0xbd5ce668	-0.05393067
59	0x00000000	0.0
60	0xbdabbcff	-0.083856575
61	0x3d1af860	0.037834525
62	0xbd9fb1b8	-0.07797569
63	0xbd8a1d7e	-0.067439064

net.4.weight f4 [16, 64]
0	0x3d64c319	0.055850122
1	0xbe3171f3	-0.17328624
2	0xbe3e72e7	-0.1859852
3	0x3d70ac5a	0.058758117
4	0xbe7df9c5	-0.24802311
5	0xbd057cd3	-0.032589745
6	0x3de5851c	0.11207029
7	0xbe9c187d	-0.30487433
8	0xbe5fdbbc	-0.21861166
9	0xbe8360e1	-0.2565985
10	0x3dbc8810	0.09205639
11	0xbe494709	-0.19656004
12	0x3e739dd1	0.23790671
13	0x3dfffa8b	0.12498959
14	0x3d3f7e4d	0.04675131
15	0xbe6c9e2e	-0.23107216
16	0xbe55e922	-0.20889714
17	0x3d30e638	0.043188304
18	0x3d27a2c8	0.040926725
19	0xbe109505	-0.14119346
20	0x3dc87b79	0.097891755
21	0x3de80935	0.11329881
22	0xbe4c979d	-0.19979711
23	0x3dec8656	0.1154906
24	0x3e233f9e	0.15942237
25	0xbcd39b33	-0.02583084
26	0x3e075568	0.13216174
27	0xbe57fabd	-0.21091743
28	0x3e840307	0.2578356
29	0x3dfb3cdb	0.12267467
30	0x3e80142b	0.25015387
31	0x3e0198fc	0.12656015
32	0xbd8756b8	-0.06608337
33	0xbe53db8f	-0.20689224
34	0x3e866a0e	0.26252788
35	0xbe6e8b52	-0.23295334
36	0xbe173f11	-0.14770152
37	0x3df29c3f	0.11846208
38	0x3d7c8457	0.061649647
39	0xbe5201ab	-0.20508449
40	0x3dee0a57	0.11623066
41	0xbe457850	-0.19284177
42	0x3e78c788	0.24294865
43	0xbe03aef5	-0.1285971
44	0xbe8ca16c	-0.27466905
45	0x3e45464c	0.19265097
46	0xbe06d695	-0.13167794
47	0x3d8cf3b2	0.06882419
48	0xbe3bf181	-0.18353845
49	0x3e809fac	0.2512182
50	0xbe12ae98	-0.14324415
51	0x3e0dab38	0.13834846
52	0xbe627b0e	-0.22117254
53	0xbe848d5d	-0.25889102
54	0xbeaa480d	-0.33258095
55	0xbe32a2c9	-0.1744491
56	0xbe868723	-0.26274976
57	0xbe6bdf72	-0.23034456
58	0xbe5003d5	-0.20313962
59	0x3e645ab7	0.2230023
60	0xbd357643	-0.044302236
61	0xbe6626cf	-0.22475742
62	0x3bdbc353	0.006706634
63	0x3d74d6f1	0.059775297
64	0x3d0cdfcb	0.034393113
65	0xbe5bdae9	-0.21470226
66	0xbe9a1c6d	-0.30099812
67	0x3e5a760d	0.21334095
68	0xbd862cd2	-0.065515175
69	0x3e630b1b	0.22172205
70	0x3e3aa4de	0.18226954
71	0x3e24ff74	0.16113073
72	0x3d30e895	0.043190558
73	0x3e6b5a63	0.22983699
74	0x3e669088	0.22516072
75	0xbd9a10ec	-0.07522759
76	0xbe0f6aa8	-0.1400553
77	0x3d2ca39f	0.04214823
78	0xbe1d9bae	-0.15391418
79	0x3e681140	0.2266283
80	0xbdcf3f44	-0.10119489
81	0xbe364a5b	-0.17801802
82	0xbe2fdfb0	-0.17175174
83	0xbe865cf0	-0.2624278
84	0x3e3ba7de	0.18325755
85	0x3e5f5ee3	0.2181354
86	0x3f11ac8f	0.5690393
87	0x3d8be62e	0.06831013
88	0xbd12df65	-0.035857577
89	0xbe79f9e7	-0.24411736
90	0x3d9213a9	0.07132656
91	0xbe870964	-0.26374352
92	0x3e16fbfd	0.14744563
93	0xbe5f35a8	-0.21797812
94	0x3e35a65c	0.17739242
95	0xbe696c7e	-0.22795293
96	0xbe2a3ead	-0.16625471
97	0x3d9eb534	0.077494055
98	0x3f22076f	0.6329259
99	0x3e55326b	0.20820014
100	0xbdb0580f	-0.08610546
101	0xbea4f3fd	-0.32217398
102	0x3ebd7de4	0.3701011
103	0xbeadbfa3	-0.3393527
104	0xbe67eec7	-0.2264968
105	0xbdcea235	-0.10089532
106	0xbb48ad17	-0.0030620748
107	0xbe293296	-0.16523203
108	0x3de86aae	0.113484725
109	0x3edc85da	0.4307087
110	0xbe7b818a	-0.24561134
111	0x3e73cb93	0.23808126
112	0xbe25325f	-0.16132496
113	0xbdc82b13	-0.09773841
114	0xbe8092a5	-0.2511188
115	0x3db39fa8	0.087706864
116	0xbe7b7a5b	-0.24558394
117	0xbea63244	-0.32460225
118	0xbe134bb0	-0.14384341
119	0xbba97a33	-0.005172038
120	0xbd9942a3	-0.07483413
121	0x3e01eea9	0.12688698
122	0x3d9b73ca	0.075904444
123	0x3db3c501	0.0877781
124	0x3e82abdd	0.25521746
125	0xbe87fc05	-0.26559463
126	0x3d28663f	0.041113134
127	0xbdece337	-0.11566775
128	0xbe1b216a	-0.15149465
129	0xbd42c1a5	-0.047547955
130	0xbe89b334	-0.26894534
131	0x3e55cd45	0.20879085
132	0x3e42c30a	0.19019714
133	0xbe16d6a1	-0.14730312
134	0x3ba8d787	0.005152646
135	0xbd84fd08	-0.064935744
136	0x3e013692	0.12618473
137	0x3d38d19d	0.045121778
138	0xbe713be7	-0.23558007
139	0xbe4e62fd	-0.20154949
140	0x3e5a0b0d	0.21293278
141	0xbd5c6703	-0.053809177
142	0x3e2ffbe0	0.17185926
143	0x3e5092c2	0.20368484
144	0xbe586246	-0.21131238
145	0x3e3097da	0.17245427
146	0xbdd088ae	-0.101823196
147	0x3e069e6f	0.13146375
148	0x3ddc2d61	0.10750843
149	0xbe687c9b	-0.22703783
150	0xbd6ef662	-0.058340438
151	0xbd9f9259	-0.077915855
152	0xbc4f4ad3	-0.012652117
153	0xbdc1c616	-0.0946161
154	0xbe231e95	-0.15929635
155	0x3e739077	0.23785578
156	0xbe06ceb1	-0.13164784
157	0xbe862cea	-0.26206142
158	0x3e692c11	0.22770716
159	0xbe23a74b	-0.15981786
160	0xbe8bf8bd	-0.2733821
161	0xbc4e360b	-0.012586127
162	0x3de52b86	0.11189942
163	0x3e6fae7e	0.23406407
164	0xbca03c9c	-0.01956015
165	0xbd8c8d03	-0.06862833
166	0x3b284cf4	0.0025680633
167	0xbdb1143c	-0.086464375
168	0xbe812fab	-0.2523168
169	0xbe19e289	-0.15027823
170	0x3b9c8cd6	0.004777531
171	0xbceeb3c4	-0.029138453
172	0xbd2f37e1	-0.0427779
173	0x3d7c55b7	0.06160518
174	0x3da5026e	0.08057104
175	0x3e88bcb7	0.26706478
176	0xbe6d8e25	-0.23198755
177	0x3e07d2b9	0.13263978
178	0x3e4625af	0.19350313
179	0xbe8106b9	-0.2520044
180	0x3e189dd9	0.14903964
181	0xbe462166	-0.19348678
182	0xbd853033	-0.06503334
183	0xbdf8ff22	-0.12158038
184	0x3e075a8e	0.13218138
185	0xbe147f87	-0.14501773
186	0xbe1d0f26	-0.1533781
187	0xbacb0d10	-0.0015491564
188	0xbe659c77	-0.22422968
189	0xbe091f53	-0.13390855
190	0xbe6310e4	-0.22174412
191	0xbdd2a4dd	-0.102853514
192	0x3e7383ae	0.237807
193	0xbd2f5817	-0.04280862
194	0xbe23aed0	-0.15984654
195	0xbd8c1f8d	-0.06841955
196	0x3d9d60ea	0.076845005
197	0xbe74db5b	-0.23911802
198	0x3e5a34df	0.21309231
199	0xbdec2249	-0.11529977
200	0xbe1dcc33	-0.15409927
201	0x3d75aa17	0.059976663
202	0xbd815ede	-0.063169226
203	0x3da1bac7	0.07896953
204	0x3e5ab371	0.21357514
205	0xbe0df650	-0.13863492
206	0x3e25ff36	0.16210636
207	0xbe59678e	-0.21230909
208	0xbd2fc123	-0.0429088
209	0xbddec7d4	-0.10877958
210	0x3da12f2e	0.07870327
211	0xbe82cee8	-0.25548482
212	0xbd912dbc	-0.07088801
213	0xbe4393db	-0.19099371
214	0x3c337138	0.010952286
215	0x3ddf4a58	0.10902852
216	0xbe5228b2	-0.20523337
217	0xbe594942	-0.21219352
218	0x3db79768	0.08964425
219	0x3de7225a	0.11285849
220	0xbe31ecda	-0.17375508
221	0xbc87c96b	-0.016575536
222	0x3e6c389a	0.23068467
223	0x3e00bf14	0.1257289
224	0xbe102358	-0.14075983
225	0xbdcaa7f1	-0.098953135
226	0x3e443138	0.191594
227	0x3de0ca74	0.10976115
228	0x3ad0838f	0.0015908348
229	0x3e1bc987	0.15213595
230	0x3d5dd51f	0.054158326
231	0x3e06b68b	0.13155572
232	0x3e11dd29	0.14244522
233	0x3e66a7b4	0.22524911
234	0x3e68142e	0.22663948
235	0xbdf5699c	-0.11983034
236	0x3c1f7f13	0.009734887
237	0x3d96c9a1	0.073626764
238	0xbe24e2a0	-0.16102076
239	0x3e49408a	0.19653526
240	0xbdffa841	-0.12483264
241	0xbd2678f5	-0.040642697
242	0x3e6bcef8	0.23028171
243	0xbc5c43e7	-0.013443924
244	0xbe87702a	-0.26452762
245	0x3e3aa389	0.18226446
246	0x3e86b2ec	0.26308382
247	0xbe102278	-0.14075649
248	0x3d8b5c10	0.06804669
249	0x3dc29943	0.095018886
250	0xbda07a0c	-0.078357786
251	0x3dc90adf	0.098165266
252	0xbe3e37e1	-0.18576004
253	0x3e63d207	0.22248088
254	0xbc9959a3	-0.0187195
255	0xbe590881	-0.2119465

net.4.bias f4 [16]
0	0xbd8219e7	-0.06352597
1	0x3e663dae	0.22484466
2	0xbce6c4ea	-0.028170068
3	0x3d8c75c0	0.068583965
4	0xbd8e1b9b	-0.06938859
5	0xbd7bc87c	-0.061470494
6	0x3e77ffd7	0.24218689
7	0xbd021c59	-0.031765316
8	0xbe08f6f9	-0.13375463
9	0xbd021cd6	-0.03176578
10	0x3dcf1a61	0.10112453
11	0x3e30b332	0.17255858
12	0xbdb93f88	-0.09045321
13	0x00000000	0.0
14	0xbda9f3fd	-0.0829849
15	0x3e72420d	0.23658009

net.6.weight f4 [1, 16]
0	0xbe0d9b65	-0.1382881
1	0x3e1de9e6	0.15421256
2	0x3ebff3ea	0.3749078
3	0x3e806cda	0.25083047
4	0xbedff816	-0.43743962
5	0xbe483881	-0.19552805
6	0x3f1e78e5	0.6190322
7	0xbeab81f4	-0.33497584
8	0xbdb71388	-0.08939272
9	0x3eadefba	0.3397196
10	0x3b2492c2	0.0025111889
11	0x3ef01901	0.46894076
12	0xbd7b69db	-0.06138025
13	0x3dc1194b	0.094286524
14	0xbe65d18b	-0.22443216
15	0x3e867d3d	0.26267424

exp_avg f4 [128, 48]
0	0x00000004	6e-45
1	0x00000004	6e-45
2	0x00000004	6e-45
3	0x00000004	6e-45
4	0x00000004	6e-45
5	0x00000004	6e-45
6	0x00000004	6e-45
7	0x00000004	6e-45
8	0x00000004	6e-45
9	0x00000004	6e-45
10	0x00000004	6e-45
11	0x00000004	6e-45
12	0x00000004	6e-45
13	0x00000004	6e-45
14	0x00000004	6e-45
15	0x00000004	6e-45
16	0x00000004	6e-45
17	0x00000004	6e-45
18	0x00000004	6e-45
19	0x00000004	6e-45
20	0x00000004	6e-45
21	0x00000004	6e-45
22	0x00000004	6e-45
23	0x00000004	6e-45
24	0x00000004	6e-45
25	0x00000004	6e-45
26	0x00000004	6e-45
27	0x00000004	6e-45
28	0x00000004	6e-45
29	0x00000004	6e-45
30	0x00000004	6e-45
31	0x00000004	6e-45
32	0x00000004	6e-45
33	0x00000004	6e-45
34	0x00000004	6e-45
35	0x00000004	6e-45
36	0x00000004	6e-45
37	0x00000004	6e-45
38	0x00000004	6e-45
39	0x00000004	6e-45
40	0x00000004	6e-45
41	0x00000004	6e-45
42	0x00000004	6e-45
43	0x00000004	6e-45
44	0x00000000	0.0
45	0x80000004	-6e-45
46	0x80000004	-6e-45
47	0x80000004	-6e-45
48	0x00000000	0.0
49	0x00000000	0.0
50	0x00000000	0.0
51	0x00000000	0.0
52	0x00000000	0.0
53	0x00000000	0.0
54	0x00000000	0.0
55	0x00000000	0.0
56	0x00000000	0.0
57	0x00000000	0.0
58	0x00000000	0.0
59	0x00000000	0.0
60	0x00000000	0.0
61	0x00000000	0.0
62	0x00000000	0.0
63	0x00000000	0.0
64	0x00000000	0.0
65	0x00000000	0.0
66	0x00000000	0.0
67	0x00000000	0.0
68	0x00000000	0.0
69	0x00000000	0.0
70	0x00000000	0.0
71	0x00000000	0.0
72	0x00000000	0.0
73	0x00000000	0.0
74	0x00000000	0.0
75	0x00000000	0.0
76	0x00000000	0.0
77	0x00000000	0.0
78	0x00000000	0.0
79	0x00000000	0.0
80	0x00000000	0.0
81	0x00000000	0.0
82	0x00000000	0.0
83	0x00000000	0.0
84	0x00000000	0.0
85	0x00000000	0.0
86	0x00000000	0.0
87	0x00000000	0.0
88	0x00000000	0.0
89	0x00000000	0.0
90	0x00000000	0.0
91	0x00000000	0.0
92	0x00000000	0.0
93	0x00000000	0.0
94	0x00000000	0.0
95	0x00000000	0.0
96	0x00000000	0.0
97	0x00000000	0.0
98	0x00000000	0.0
99	0x00000000	0.0
100	0x00000000	0.0
101	0x00000000	0.0
102	0x00000000	0.0
103	0x00000000	0.0
104	0x00000000	0.0
105	0x00000000	0.0
106	0x00000000	0.0
107	0x00000000	0.0
108	0x00000000	0.0
109	0x00000000	0.0
110	0x00000000	0.0
111	0x00000000	0.0
112	0x00000000	0.0
113	0x00000000	0.0
114	0x00000000	0.0
115	0x00000000	0.0
116	0x00000000	0.0
117	0x00000000	0.0
118	0x00000000	0.0
119	0x00000000	0.0
120	0x00000000	0.0
121	0x00000000	0.0
122	0x00000000	0.0
123	0x00000000	0.0
124	0x00000000	0.0
125	0x00000000	0.0
126	0x00000000	0.0
127	0x00000000	0.0
128	0x00000000	0.0
129	0x00000000	0.0
130	0x00000000	0.0
131	0x00000000	0.0
132	0x00000000	0.0
133	0x00000000	0.0
134	0x00000000	0.0
135	0x00000000	0.0
136	0x00000000	0.0
137	0x00000000	0.0
138	0x00000000	0.0
139	0x00000000	0.0
140	0x00000000	0.0
141	0x00000000	0.0
142	0x00000000	0.0
143	0x00000000	0.0
144	0xbe20024d	-0.15625878
145	0xbe4cac30	-0.1998756
146	0xbd5709d3	-0.052499603
147	0xbd72ca61	-0.059275035
148	0xbe1c2b41	-0.15250875
149	0xbdf3a21b	-0.118961535
150	0xbe5b702e	-0.21429512
151	0xb5467711	-7.393401e-07
152	0xc0c48b43	-6.1419997
153	0xc0e7a2dd	-7.238631
154	0xc08b7620	-4.3581696
155	0xbe50a768	-0.2037636
156	0xc0b50220	-5.6565094
157	0xc0dd126a	-6.908498
158	0xc0b5e196	-5.6837873
159	0x00000004	6e-45
160	0xbb968e0e	-0.004594571
161	0xbbb6ecae	-0.0055824136
162	0x3987aa4c	0.00025876088
163	0xbb08341f	-0.002078302
164	0xbbc13e76	-0.0058973385
165	0xbad3abac	-0.0016149185
166	0xbba10ed3	-0.0049150973
167	0xb8aec339	-8.3333296e-05
168	0xb8d3796b	-0.0001008388
169	0xb9a15fd7	-0.0003077972
170	0xba36ecae	-0.0006978017
171	0xba36ecae	-0.0006978017
172	0xbe63acdd	-0.22233911
173	0xba34c72c	-0.0006896134
174	0xbb544554	-0.0032389956
175	0xbb0e4ba1	-0.0021712559
176	0xba72a0ca	-0.0009255527
177	0x3d0b217d	0.033967484
178	0x3e00bf56	0.12572989
179	0xb8e7f8db	-0.00011061291
180	0xbadd9c4d	-0.0016907543
181	0xbbf55914	-0.0074874256
182	0x0a0a3230	6.6538975e-33
183	0x0a8a3230	1.3307795e-32
184	0x0c726ec0	1.867633e-31
185	0xba36ecae	-0.0006978017
186	0xba36ecae	-0.0006978017
187	0xbe63acdd	-0.22233911
188	0x80000004	-6e-45
189	0x39313a18	0.00016901677
190	0x3c034a1f	0.008013277
191	0x38a8b65d	8.044832e-05
192	0x00000000	0.0
193	0x00000000	0.0
194	0x00000000	0.0
195	0x00000000	0.0
196	0x00000000	0.0
197	0x00000000	0.0
198	0x00000000	0.0
199	0x00000004	6e-45
200	0x00000000	0.0
201	0x00000000	0.0
202	0x00000000	0.0
203	0x00000000	0.0
204	0x00000000	0.0
205	0x00000000	0.0
206	0x00000000	0.0
207	0x00000004	6e-45
208	0x00000000	0.0
209	0x00000000	0.0
210	0x00000000	0.0
211	0x00000000	0.0
212	0x00000000	0.0
213	0x00000000	0.0
214	0x00000000	0.0
215	0x00000000	0.0
216	0x00000000	0.0
217	0x00000000	0.0
218	0x00000000	0.0
219	0x00000000	0.0
220	0x00000000	0.0
221	0x00000000	0.0
222	0x00000000	0.0
223	0x00000000	0.0
224	0x00000000	0.0
225	0x00000000	0.0
226	0x00000000	0.0
227	0x00000000	0.0
228	0x00000000	0.0
229	0x00000000	0.0
230	0x00000000	0.0
231	0x00000000	0.0
232	0x00000000	0.0
233	0x00000000	0.0
234	0x00000000	0.0
235	0x00000000	0.0
236	0x00000004	6e-45
237	0x00000000	0.0
238	0x00000000	0.0
239	0x00000000	0.0
240	0x00000000	0.0
241	0x00000000	0.0
242	0x00000000	0.0
243	0x00000000	0.0
244	0x00000000	0.0
245	0x00000000	0.0
246	0x00000000	0.0
247	0x00000000	0.0
248	0x00000000	0.0
249	0x00000000	0.0
250	0x00000000	0.0
251	0x00000000	0.0
252	0x00000000	0.0
253	0x00000000	0.0
254	0x00000000	0.0
255	0x00000000	0.0

exp_avg_sq f4 [128, 48]
0	0x373fa622	1.1423168e-05
1	0x382251a8	3.8699858e-05
2	0x35abd0c3	1.280125e-06
3	0x360ba0d1	2.0806222e-06
4	0x37411afd	1.150998e-05
5	0x369bc60a	4.6424148e-06
6	0x37ad4e3c	2.0659638e-05
7	0x2e563eaa	4.8713623e-11
8	0x3d150f7c	0.03639172
9	0x3d8d9393	0.06912913
10	0x3c38a421	0.0112696
11	0x3acbbc96	0.0015543874
12	0x3d224cc0	0.039623976
13	0x3ce6103a	0.02808391
14	0x3d434801	0.04767609
15	0x2e33f1e4	4.091473e-11
16	0x31f96e8e	7.2594224e-09
17	0x3366ce1a	5.3738496e-08
18	0x309d6fa0	1.1454979e-09
19	0x30eacc43	1.7083795e-09
20	0x31f2a0df	7.061416e-09
21	0x314e7adf	3.004679e-09
22	0x3262cdba	1.3201708e-08
23	0x2c553fe9	3.0304598e-12
24	0x2c851d8b	3.7833673e-12
25	0x2e4f2070	4.709516e-11
26	0x2fd54ce5	3.879911e-10
27	0x306a610d	8.526662e-10
28	0x38a00330	7.629988e-05
29	0x2ea8f39c	7.683029e-11
30	0x32069ef1	7.835966e-09
31	0x337f7579	5.9478655e-08
32	0x2f7c7b87	2.2963152e-10
33	0x338f65b7	6.677458e-08
34	0x351b3850	5.7823945e-07
35	0x2e0366e1	2.9877326e-11
36	0x337f32a5	5.9417875e-08
37	0x3486dbcf	2.5119377e-07
38	0x291a4e6c	3.426289e-14
39	0x2ad75fe3	3.8258207e-13
40	0x2e1a367d	3.506394e-11
41	0x2ff2bc00	4.4153126e-10
42	0x2ff2bc00	4.4153126e-10
43	0x38fcdb1a	0.00012057107
44	0x00000000	0.0
45	0x2c8c93f6	3.9954663e-12
46	0x318080ca	3.739932e-09
47	0x2bef280e	1.6993089e-12
48	0x00000000	0.0
49	0x00000000	0.0
50	0x00000000	0.0
51	0x00000000	0.0
52	0x00000000	0.0
53	0x00000000	0.0
54	0x00000000	0.0
55	0x00000000	0.0
56	0x00000000	0.0
57	0x00000000	0.0
58	0x00000000	0.0
59	0x00000000	0.0
60	0x00000000	0.0
61	0x00000000	0.0
62	0x00000000	0.0
63	0x00000000	0.0
64	0x00000000	0.0
65	0x00000000	0.0
66	0x00000000	0.0
67	0x00000000	0.0
68	0x00000000	0.0
69	0x00000000	0.0
70	0x00000000	0.0
71	0x00000000	0.0
72	0x00000000	0.0
73	0x00000000	0.0
74	0x00000000	0.0
75	0x00000000	0.0
76	0x00000000	0.0
77	0x00000000	0.0
78	0x00000000	0.0
79	0x00000000	0.0
80	0x00000000	0.0
81	0x00000000	0.0
82	0x00000000	0.0
83	0x00000000	0.0
84	0x00000000	0.0
85	0x00000000	0.0
86	0x00000000	0.0
87	0x00000000	0.0
88	0x00000000	0.0
89	0x00000000	0.0
90	0x00000000	0.0
91	0x00000000	0.0
92	0x00000000	0.0
93	0x00000000	0.0
94	0x00000000	0.0
95	0x00000000	0.0
96	0x00000000	0.0
97	0x00000000	0.0
98	0x00000000	0.0
99	0x00000000	0.0
100	0x00000000	0.0
101	0x00000000	0.0
102	0x00000000	0.0
103	0x00000000	0.0
104	0x00000000	0.0
105	0x00000000	0.0
106	0x00000000	0.0
107	0x00000000	0.0
108	0x00000000	0.0
109	0x00000000	0.0
110	0x00000000	0.0
111	0x00000000	0.0
112	0x00000000	0.0
113	0x00000000	0.0
114	0x00000000	0.0
115	0x00000000	0.0
116	0x00000000	0.0
117	0x00000000	0.0
118	0x00000000	0.0
119	0x00000000	0.0
120	0x00000000	0.0
121	0x00000000	0.0
122	0x00000000	0.0
123	0x00000000	0.0
124	0x00000000	0.0
125	0x00000000	0.0
126	0x00000000	0.0
127	0x00000000	0.0
128	0x00000000	0.0
129	0x00000000	0.0
130	0x00000000	0.0
131	0x00000000	0.0
132	0x00000000	0.0
133	0x00000000	0.0
134	0x00000000	0.0
135	0x00000000	0.0
136	0x00000000	0.0
137	0x00000000	0.0
138	0x00000000	0.0
139	0x00000000	0.0
140	0x00000000	0.0
141	0x00000000	0.0
142	0x00000000	0.0
143	0x00000000	0.0
144	0x43a8ca68	337.5813
145	0x444cb893	818.884
146	0x421fd596	39.95858
147	0x42383ff2	46.062447
148	0x43be6a17	380.82883
149	0x430fcaf3	143.79277
150	0x44148b40	594.1758
151	0x377657c2	1.4683175e-05
152	0x4954aae5	871086.3
153	0x49a27248	1.330761e+06
154	0x48950832	305217.56
155	0x46a68276	21313.23
156	0x496d5224	972066.25
157	0x49297811	694145.06
158	0x4983f361	1.0809401e+06
159	0x375cfd97	1.3172065e-05
160	0x3e5ec66b	0.21755378
161	0x3f0d1f26	0.55125654
162	0x3d20e505	0.03928091
163	0x3d08d5d5	0.03340705
164	0x3e681a4e	0.22666284
165	0x3dc970ac	0.098359436
166	0x3ed15996	0.4088866
167	0x389ef930	7.580442e-05
168	0x38d0ba8a	9.9529585e-05
169	0x3a90a8b4	0.0011036606
170	0x3c0e7b63	0.00869641
171	0x3c153296	0.009106299
172	0x44ada2fe	1389.0935
173	0x3ac87875	0.0015294688
174	0x3e34e277	0.17664514
175	0x3faf67de	1.3703573
176	0x3bc3d71c	0.005976571
177	0x3f6000a7	0.87500995
178	0x424202fd	48.50292
179	0x39ad0ae3	0.00033005243
180	0x3f64202c	0.8911159
181	0x3f661c93	0.8988735
182	0x32e0bdfb	2.6163425e-08
183	0x34aabf60	3.180421e-07
184	0x37e8f319	2.7769756e-05
185	0x3c0f5da8	0.008750357
186	0x3c0f5db2	0.008750366
187	0x44c6a71f	1589.2225
188	0x33542bfd	4.9400104e-08
189	0x381ddf4b	3.7639675e-05
190	0x3d494198	0.04913482
191	0x35a54c45	1.2315655e-06
192	0x00000000	0.0
193	0x00000000	0.0
194	0x00000000	0.0
195	0x00000000	0.0
196	0x00000000	0.0
197	0x00000000	0.0
198	0x00000000	0.0
199	0x30cdc4eb	1.4971681e-09
200	0x00000000	0.0
201	0x00000000	0.0
202	0x00000000	0.0
203	0x00000000	0.0
204	0x00000000	0.0
205	0x00000000	0.0
206	0x00000000	0.0
207	0x30cdc4eb	1.4971681e-09
208	0x00000000	0.0
209	0x00000000	0.0
210	0x00000000	0.0
211	0x00000000	0.0
212	0x00000000	0.0
213	0x00000000	0.0
214	0x00000000	0.0
215	0x00000000	0.0
216	0x00000000	0.0
217	0x00000000	0.0
218	0x00000000	0.0
219	0x00000000	0.0
220	0x00000000	0.0
221	0x00000000	0.0
222	0x00000000	0.0
223	0x00000000	0.0
224	0x00000000	0.0
225	0x00000000	0.0
226	0x00000000	0.0
227	0x00000000	0.0
228	0x00000000	0.0
229	0x00000000	0.0
230	0x00000000	0.0
231	0x00000000	0.0
232	0x00000000	0.0
233	0x00000000	0.0
234	0x00000000	0.0
235	0x00000000	0.0
236	0x30cdc4eb	1.4971681e-09
237	0x00000000	0.0
238	0x00000000	0.0
239	0x00000000	0.0
240	0x00000000	0.0
241	0x00000000	0.0
242	0x00000000	0.0
243	0x00000000	0.0
244	0x00000000	0.0
245	0x00000000	0.0
246	0x00000000	0.0
247	0x00000000	0.0
248	0x00000000	0.0
249	0x00000000	0.0
250	0x00000000	0.0
251	0x00000000	0.0
252	0x00000000	0.0
253	0x00000000	0.0
254	0x00000000	0.0
255	0x00000000	0.0

exp_avg f4 [128]
0	0x00000004	6e-45
1	0x00000000	0.0
2	0x00000000	0.0
3	0xba36eca8	-0.00069780136
4	0x00000004	6e-45
5	0x00000000	0.0
6	0x00000004	6e-45
7	0x00000004	6e-45
8	0x00000004	6e-45
9	0x80000004	-6e-45
10	0xb88c5637	-6.691779e-05
11	0x00000004	6e-45
12	0xb91f50d8	-0.00015193538
13	0x00000004	6e-45
14	0x00000004	6e-45
15	0x00000004	6e-45
16	0x00000004	6e-45
17	0x39a17847	0.00030797927
18	0x80000004	-6e-45
19	0x00000004	6e-45
20	0x00000004	6e-45
21	0x00000004	6e-45
22	0x2c51801a	2.9771797e-12
23	0x00000000	0.0
24	0x80000004	-6e-45
25	0x38709525	5.735936e-05
26	0x38e233f1	0.000107861946
27	0x80000004	-6e-45
28	0x00000004	6e-45
29	0x00000004	6e-45
30	0x37ebda0b	2.8115717e-05
31	0x00000004	6e-45
32	0x00000004	6e-45
33	0x80000004	-6e-45
34	0x80000004	-6e-45
35	0xb99d787c	-0.0003003514
36	0x00000004	6e-45
37	0x00000004	6e-45
38	0x00000004	6e-45
39	0x00000000	0.0
40	0x80000004	-6e-45
41	0x80000004	-6e-45
42	0x00000004	6e-45
43	0x00000004	6e-45
44	0x3a138e0b	0.0005628771
45	0x00000004	6e-45
46	0x00000004	6e-45
47	0x37a35025	1.9468434e-05
48	0x80000004	-6e-45
49	0x00000004	6e-45
50	0x00000004	6e-45
51	0x00000004	6e-45
52	0x00000004	6e-45
53	0x3952bf83	0.00020098504
54	0x80000004	-6e-45
55	0x00000000	0.0
56	0x00000000	0.0
57	0x00000004	6e-45
58	0x00000004	6e-45
59	0xb983fade	-0.00025173178
60	0x80000004	-6e-45
61	0x00000004	6e-45
62	0x00000004	6e-45
63	0x00000000	0.0
64	0xb96e2c4e	-0.00022713954
65	0x390c6a66	0.00013391077
66	0x00000004	6e-45
67	0x00000000	0.0
68	0x00000004	6e-45
69	0x80000004	-6e-45
70	0x00000004	6e-45
71	0x80000004	-6e-45
72	0x80000004	-6e-45
73	0xb8982156	-7.254134e-05
74	0xb93c1fa8	-0.0001794087
75	0xb98e9180	-0.00027192757
76	0x80000004	-6e-45
77	0x00000004	6e-45
78	0x00000004	6e-45
79	0x00000004	6e-45
80	0x00000004	6e-45
81	0x80000004	-6e-45
82	0x80000004	-6e-45
83	0x00000004	6e-45
84	0x00000004	6e-45
85	0x00000000	0.0
86	0xb95239e3	-0.00020048725
87	0xb9684060	-0.00022149226
88	0x80000004	-6e-45
89	0x00000004	6e-45
90	0x80000004	-6e-45
91	0x00000004	6e-45
92	0x80000004	-6e-45
93	0x00000004	6e-45
94	0x00000004	6e-45
95	0x00000004	6e-45
96	0x00000004	6e-45
97	0x38d58d35	0.00010182933
98	0x80000004	-6e-45
99	0x00000004	6e-45
100	0xb90918eb	-0.00013074621
101	0x00000004	6e-45
102	0x00000004	6e-45
103	0x80000004	-6e-45
104	0x80000004	-6e-45
105	0x39fdd6de	0.0004841601
106	0x00000004	6e-45
107	0x00000004	6e-45
108	0x80000004	-6e-45
109	0x39693cba	0.00022243234
110	0x00000004	6e-45
111	0x00000004	6e-45
112	0x2d1effe3	9.0380784e-12
113	0x39ff6f5f	0.00048720368
114	0x00000004	6e-45
115	0x00000004	6e-45
116	0x39ca86ae	0.00038628787
117	0xb955d10c	-0.00020391139
118	0x80000004	-6e-45
119	0x00000004	6e-45
120	0x00000004	6e-45
121	0x375eb276	1.3273782e-05
122	0x00000004	6e-45
123	0x80000004	-6e-45
124	0x80000004	-6e-45
125	0x80000004	-6e-45
126	0x80000004	-6e-45
127	0x00000004	6e-45

exp_avg_sq f4 [128]
0	0x2ff2bc00	4.4153126e-10
1	0x00000000	0.0
2	0x00000000	0.0
3	0x3c0f5dec	0.00875042
4	0x30cdc4eb	1.4971681e-09
5	0x00000000	0.0
6	0x38111f48	3.4599827e-05
7	0x2be02094	1.59252e-12
8	0x2eeac8de	1.0676769e-10
9	0x3829fe2a	4.052945e-05
10	0x3916f6c1	0.00014397038
11	0x3206379a	7.812469e-09
12	0x3a377048	0.0006997627
13	0x33909c24	6.733924e-08
14	0x2ae23ec4	4.0189217e-13
15	0x27967fbe	4.177186e-15
16	0x29d1d8b8	9.319059e-14
17	0x3b10e2c6	0.0022107824
18	0x385682a0	5.114323e-05
19	0x38a447af	7.8334815e-05
20	0x340327a6	1.221475e-07
21	0x38e005d5	0.00010682239
22	0x38154250	3.5586127e-05
23	0x00000000	0.0
24	0x38c9bdf2	9.619807e-05
25	0x39bbef00	0.00035845488
26	0x3a0339de	0.00050058763
27	0x3659d5b6	3.2459916e-06
28	0x33942f43	6.900384e-08
29	0x2f9ec5bd	2.8880534e-10
30	0x3843b0cb	4.6656274e-05
31	0x31a576db	4.8156443e-09
32	0x3537f445	6.852827e-07
33	0x3821d910	3.8587546e-05
34	0x3887dcfe	6.478465e-05
35	0x3ae9402d	0.0017795615
36	0x3803b243	3.1398853e-05
37	0x30ebfa43	1.7169629e-09
38	0x372c6314	1.0275067e-05
39	0x00000000	0.0
40	0x38259983	3.9482034e-05
41	0x38827fdd	6.2226994e-05
42	0x30b7ef8b	1.3383085e-09
43	0x354dbdec	7.6644824e-07
44	0x3bd27cb1	0.006423556
45	0x3354e8c5	4.95718e-08
46	0x397ae45d	0.0002392693
47	0x38a52d70	7.8762765e-05
48	0x389e2721	7.5413154e-05
49	0x3027c53a	6.103452e-10
50	0x2ec1f2d3	8.819758e-11
51	0x39051c61	0.0001269444
52	0x2a2c7704	1.531796e-13
53	0x3a686f93	0.00088667235
54	0x389ecd00	7.572211e-05
55	0x00000000	0.0
56	0x00000000	0.0
57	0x38e9a046	0.00011140159
58	0x37cccbba	2.4413563e-05
59	0x3aaccf59	0.0013184353
60	0x388a8468	6.6050154e-05
61	0x345b260f	2.040981e-07
62	0x2c2d0b98	2.4591214e-12
63	0x00000000	0.0
64	0x3a8ba7dd	0.0010654886
65	0x3a1f96af	0.0006087822
66	0x37e78668	2.7599934e-05
67	0x00000000	0.0
68	0x2cd23d8e	5.975393e-12
69	0x3821d7c0	3.8586324e-05
70	0x34dd345e	4.120256e-07
71	0x37ba8b23	2.2237718e-05
72	0x377b5873	1.49813595e-05
73	0x38f22327	0.00011546007
74	0x3a1a011c	0.0005874799
75	0x3aa0b335	0.0012260439
76	0x38893780	6.543007e-05
77	0x2ec40973	8.9147266e-11
78	0x275d0529	3.0672708e-15
79	0x38127511	3.491814e-05
80	0x37d5e976	2.5500292e-05
81	0x38280b18	4.0064653e-05
82	0x37a66980	1.983787e-05
83	0x3043df58	7.125798e-10
84	0x3180d0e8	3.74904e-09
85	0x00000000	0.0
86	0x3a9bfb33	0.0011900425
87	0x3a86711b	0.0010257097
88	0x388e7b02	6.794e-05
89	0x2f0213f8	1.1830525e-10
90	0x36a2350e	4.8341526e-06
91	0x2a8bd0fd	2.4836375e-13
92	0x36cbc7ca	6.07313e-06
93	0x294941e6	4.4688123e-14
94	0x3455f180	1.9925028e-07
95	0x30af7b7a	1.276802e-09
96	0x36ee0801	7.0938845e-06
97	0x39cddc50	0.00039264793
98	0x387af861	5.9835966e-05
99	0x3406eb5f	1.256535e-07
100	0x3a20c659	0.0006133072
101	0x2f91c0eb	2.6512423e-10
102	0x328c88f3	1.6360422e-08
103	0x382be976	4.0987004e-05
104	0x387bea8b	6.00615e-05
105	0x3b942b7c	0.0045217853
106	0x36e830b5	6.919809e-06
107	0x3694a920	4.4304325e-06
108	0x386a91c6	5.592571e-05
109	0x3aa64ec5	0.001268827
110	0x355899b4	8.068994e-07
111	0x3a096c69	0.00052422896
112	0x39dbdc6e	0.00041935168
113	0x3b99b5fe	0.0046908846
114	0x3077f6e8	9.020895e-10
115	0x329b79f9	1.8099842e-08
116	0x3b69008c	0.0035553304
117	0x3a61df6d	0.0008616362
118	0x38accd96	8.2398925e-05
119	0x31b9ed84	5.411211e-09
120	0x37b15d2d	2.1143433e-05
121	0x39467a23	0.00018928251
122	0x36f85e62	7.4019636e-06
123	0x37236fa3	9.74155e-06
124	0x389ef923	7.5804324e-05
125	0x3777e65e	1.4775984e-05
126	0x3832f343	4.2665062e-05
127	0x378ea91a	1.7006463e-05

exp_avg f4 [64, 128]
0	0x80000004	-6e-45
1	0x00000000	0.0
2	0x00000000	0.0
3	0x80000004	-6e-45
4	0x00000000	0.0
5	0x00000000	0.0
6	0x00000000	0.0
7	0x00000004	6e-45
8	0x00000000	0.0
9	0x00000000	0.0
10	0x80000004	-6e-45
11	0x00000004	6e-45
12	0x00000004	6e-45
13	0x00000000	0.0
14	0x00000000	0.0
15	0x00000000	0.0
16	0x00000000	0.0
17	0x00000004	6e-45
18	0x00000000	0.0
19	0x80000004	-6e-45
20	0x00000000	0.0
21	0x80000004	-6e-45
22	0x00000004	6e-45
23	0x00000000	0.0
24	0x00000000	0.0
25	0x00000000	0.0
26	0x00000004	6e-45
27	0x80000004	-6e-45
28	0x00000000	0.0
29	0x00000004	6e-45
30	0x00000000	0.0
31	0x80000004	-6e-45
32	0x00000004	6e-45
33	0x00000000	0.0
34	0x00000000	0.0
35	0x80000004	-6e-45
36	0x00000000	0.0
37	0x80000004	-6e-45
38	0x00000004	6e-45
39	0x00000000	0.0
40	0x00000000	0.0
41	0x00000000	0.0
42	0x00000004	6e-45
43	0x80000004	-6e-45
44	0x00000000	0.0
45	0x80000004	-6e-45
46	0x80000004	-6e-45
47	0x00000004	6e-45
48	0x00000000	0.0
49	0x00000004	6e-45
50	0x00000000	0.0
51	0x80000004	-6e-45
52	0x00000000	0.0
53	0x00000004	6e-45
54	0x00000000	0.0
55	0x00000000	0.0
56	0x00000000	0.0
57	0x80000004	-6e-45
58	0x80000004	-6e-45
59	0x80000004	-6e-45
60	0x00000000	0.0
61	0x00000000	0.0
62	0x00000000	0.0
63	0x00000000	0.0
64	0x80000004	-6e-45
65	0x80000004	-6e-45
66	0x00000000	0.0
67	0x00000000	0.0
68	0x00000000	0.0
69	0x00000004	6e-45
70	0x00000000	0.0
71	0x00000004	6e-45
72	0x00000000	0.0
73	0x80000004	-6e-45
74	0x80000004	-6e-45
75	0x80000004	-6e-45
76	0x00000000	0.0
77	0x00000000	0.0
78	0x00000000	0.0
79	0x80000004	-6e-45
80	0x00000000	0.0
81	0x00000000	0.0
82	0x80000004	-6e-45
83	0x00000000	0.0
84	0x80000004	-6e-45
85	0x00000000	0.0
86	0x80000004	-6e-45
87	0x80000004	-6e-45
88	0x00000000	0.0
89	0x80000004	-6e-45
90	0x80000004	-6e-45
91	0x00000000	0.0
92	0x00000004	6e-45
93	0x00000004	6e-45
94	0x00000004	6e-45
95	0x00000004	6e-45
96	0x00000004	6e-45
97	0x00000000	0.0
98	0x00000000	0.0
99	0x00000000	0.0
100	0x80000004	-6e-45
101	0x80000004	-6e-45
102	0x00000004	6e-45
103	0x00000000	0.0
104	0x00000000	0.0
105	0x80000004	-6e-45
106	0x80000004	-6e-45
107	0x00000004	6e-45
108	0x00000000	0.0
109	0x00000004	6e-45
110	0x80000004	-6e-45
111	0x80000004	-6e-45
112	0x80000004	-6e-45
113	0x00000004	6e-45
114	0x00000000	0.0
115	0x80000004	-6e-45
116	0x00000000	0.0
117	0x80000004	-6e-45
118	0x00000000	0.0
119	0x00000004	6e-45
120	0x80000004	-6e-45
121	0x00000004	6e-45
122	0x80000004	-6e-45
123	0x80000004	-6e-45
124	0x80000004	-6e-45
125	0x00000000	0.0
126	0x00000000	0.0
127	0x00000004	6e-45
128	0x80000004	-6e-45
129	0x00000000	0.0
130	0x00000000	0.0
131	0x80000004	-6e-45
132	0x00000000	0.0
133	0x00000000	0.0
134	0x80000004	-6e-45
135	0x00000004	6e-45
136	0x00000004	6e-45
137	0x80000004	-6e-45
138	0x00000004	6e-45
139	0x00000004	6e-45
140	0x80000004	-6e-45
141	0x00000000	0.0
142	0x00000000	0.0
143	0x80000004	-6e-45
144	0x00000004	6e-45
145	0x00000004	6e-45
146	0x80000004	-6e-45
147	0x80000004	-6e-45
148	0x00000000	0.0
149	0x00000004	6e-45
150	0x00000004	6e-45
151	0x00000000	0.0
152	0x80000004	-6e-45
153	0x00000004	6e-45
154	0x00000004	6e-45
155	0x00000004	6e-45
156	0x00000000	0.0
157	0x00000004	6e-45
158	0x00000004	6e-45
159	0x00000004	6e-45
160	0x00000004	6e-45
161	0x80000004	-6e-45
162	0x80000004	-6e-45
163	0x80000004	-6e-45
164	0x80000004	-6e-45
165	0x80000004	-6e-45
166	0x00000004	6e-45
167	0x00000000	0.0
168	0x80000004	-6e-45
169	0x80000004	-6e-45
170	0x00000004	6e-45
171	0x00000004	6e-45
172	0x00000004	6e-45
173	0x00000004	6e-45
174	0x00000004	6e-45
175	0x80000004	-6e-45
176	0x80000004	-6e-45
177	0x00000004	6e-45
178	0x00000004	6e-45
179	0x00000004	6e-45
180	0x80000004	-6e-45
181	0x00000004	6e-45
182	0x80000004	-6e-45
183	0x00000000	0.0
184	0x00000000	0.0
185	0x00000004	6e-45
186	0x00000004	6e-45
187	0x00000004	6e-45
188	0x80000004	-6e-45
189	0x00000000	0.0
190	0x00000004	6e-45
191	0x00000000	0.0
192	0x00000004	6e-45
193	0x00000004	6e-45
194	0x80000004	-6e-45
195	0x00000000	0.0
196	0x00000004	6e-45
197	0x80000004	-6e-45
198	0x00000000	0.0
199	0x80000004	-6e-45
200	0x80000004	-6e-45
201	0x00000004	6e-45
202	0x00000004	6e-45
203	0x80000004	-6e-45
204	0x80000004	-6e-45
205	0x80000004	-6e-45
206	0x80000004	-6e-45
207	0x00000004	6e-45
208	0x80000004	-6e-45
209	0x80000004	-6e-45
210	0x00000004	6e-45
211	0x00000004	6e-45
212	0x80000004	-6e-45
213	0x00000000	0.0
214	0x80000004	-6e-45
215	0x00000004	6e-45
216	0x80000004	-6e-45
217	0x80000004	-6e-45
218	0x00000004	6e-45
219	0x80000004	-6e-45
220	0x00000004	6e-45
221	0x00000004	6e-45
222	0x00000004	6e-45
223	0x00000004	6e-45
224	0x80000004	-6e-45
225	0x00000004	6e-45
226	0x80000004	-6e-45
227	0x00000004	6e-45
228	0x00000004	6e-45
229	0x80000004	-6e-45
230	0x80000004	-6e-45
231	0x80000004	-6e-45
232	0x80000004	-6e-45
233	0x00000004	6e-45
234	0x80000004	-6e-45
235	0x00000004	6e-45
236	0x80000004	-6e-45
237	0x00000004	6e-45
238	0x00000004	6e-45
239	0x80000004	-6e-45
240	0x80000004	-6e-45
241	0x00000004	6e-45
242	0x80000004	-6e-45
243	0x80000004	-6e-45
244	0x00000004	6e-45
245	0x00000004	6e-45
246	0x80000004	-6e-45
247	0x00000004	6e-45
248	0x00000004	6e-45
249	0x00000004	6e-45
250	0x00000004	6e-45
251	0x00000004	6e-45
252	0x80000004	-6e-45
253	0x80000004	-6e-45
254	0x80000004	-6e-45
255	0x80000004	-6e-45
