src/model_data/United_States_Grand_Prix_model.pth (torch, 198189 bytes, 21 tensors)

net.0.weight f4 [128, 48]
-0.06750748 0.0046096975 -0.071056195 -0.11383117 -0.10649059 -0.08792762 0.1676041 0.13428357
-0.1642391 -0.16682352 0.043657687 0.114280246 -0.013750933 0.1176955 0.14912313 0.0990959
-0.17973386 -0.084485 -0.060997736 0.11472882 -0.11530239 0.039801516 0.03494374 -0.1365908
-0.08121242 -0.1664347 -0.0818089 -0.086336896 0.09981739 -0.11570316 -0.16001828 0.18153685
-0.13207348 -0.15926561 0.0073060906 -0.07870373 -0.04998332 -0.1549415 0.15617047 0.065033816
0.026723048 -0.16914052 0.029730361 -0.016308418 0.02089408 -0.15338802 -0.059272863 -0.104539864
0.13455029 -0.09026885 0.084760286 -0.13313697 -0.16261965 -0.06269221 0.17581101 0.13076244
-0.11273221 -0.0976214 -0.08193993 -0.17508158 0.17994411 -0.043685 -0.16072007 0.07845618
0.12704493 0.1750439 -0.11198348 0.08894329 0.021723282 0.10015126 0.11156266 -0.085373566
-0.15315534 -0.11356101 -0.08407842 0.0065195244 0.10370391 -0.026584426 0.13353579 0.16044977
-0.10598683 -0.12772365 0.01962337 0.14965056 0.08198783 -0.14512704 0.073696725 -0.13414012
0.043791555 0.017337121 0.07988107 0.065950796 0.12946005 -0.008633168 -0.17003244 0.0774812
-0.10225095 0.03574263 0.013275834 -0.05567577 -0.09624643 -0.12424995 0.12533103 -0.09819471
-0.14708668 0.03195285 -0.17699262 -0.23108424 0.07455509 0.023244735 -0.17180441 -0.0381537
-0.06045258 0.024424443 -0.22816634 -0.037273914 -0.020368574 -0.006305638 -0.21784163 0.06595572
-0.2614825 -0.25620443 -0.03451954 0.11968278 -0.2244247 -0.043463185 -0.16482101 -0.14405678
-0.14161946 -0.14977102 -0.20946045 0.0043383534 -0.13672535 -0.13558899 -0.37226126 -0.26655406
-0.22002771 0.0037623162 0.015185053 0.08147454 -0.23002711 -0.12728013 -0.2941214 0.18423007
0.1841563 0.15621828 0.0486188 0.10893939 0.026033634 -0.19515133 0.030251026 -0.5847599
-0.0043840585 -0.05015758 -0.04046528 -0.047982212 -0.12579818 0.008395868 0.12329294 0.053254087
-0.04187353 -0.05677541 0.26206407 0.19580331 -0.12755106 -0.2204291 -0.21671659 0.41666597
0.2231398 0.16241023 -0.18041658 -1.2360575 -0.2054714 0.14863087 0.6247166 0.23569584
-0.04521033 -0.3715781 -0.47694135 0.1423782 -0.20898503 -0.47269127 1.0783762 1.3165145
1.0528622 -0.16559146 0.039375972 -0.6219523 0.048010353 0.20648299 0.12585044 0.84358186
-0.035900332 0.011472104 0.13634622 0.17030846 0.034499396 -0.17835435 -0.06842195 -0.14121851
0.092038356 -0.038304117 0.13577124 -0.0072242385 -0.19079386 0.16970032 -0.092066854 -0.041862797
-0.082541905 -0.10017823 0.11305678 0.15638323 0.003634407 0.021830896 -0.13560677 -0.18028778
-0.12218609 -0.03662201 0.06156033 -0.105184354 -0.12718129 0.07919861 0.08155541 -0.15350118
-0.039184865 -0.07789161 -0.007290475 0.17589003 0.16396514 0.16267623 -0.12304705 -0.12020982
0.109980814 0.05518028 -0.17568016 -0.16481218 -0.061241668 -0.16905338 -0.05262799 0.1774012
-0.14464284 -0.030508673 -0.08158721 -0.09884393 0.019244175 0.16270776 -0.17274164 0.034772653
0.052032273 -0.03370283 -0.05777987 -0.07720048 -0.14313686 -0.06704621 -0.085401826 0.020596366
00000000: 5d41 8abd f20c 973b e985 91bd 5120 e9bd
00000010: bd17 dabd 6513 b4bd 69a0 2b3e a281 093e
00000020: 4b2e 28be c9d3 2abe 67d2 323d c30b ea3d
00000030: 984b 61bc 570a f13d bcb3 183e cbf2 ca3d
00000040: 270c 38be 7906 adbd c3d8 79bd f2f6 ea3d
00000050: a923 ecbd ea06 233d 2b21 0f3d 75de 0bbe
00000060: b252 a6bd dc6d 2abe 6d8b a7bd 66d1 b0bd
00000070: 0f6d cc3d c7f5 ecbd d5db 23be cce4 393e
00000080: 453e 07be 8616 23be ee67 ef3b 6c2f a1bd
00000090: 4fbb 4cbd fca8 1ebe 27eb 1f3e 7330 853d
000000a0: 4bea da3c 2c33 2dbe 168d f33c 3b99 85bc
000000b0: 102a ab3c c011 1dbe 1ac8 72bd ff18 d6bd
000000c0: 8dc7 093e e0de b8bd cd96 ad3d 0f55 08be
000000d0: c485 26be c664 80bd cd07 343e 97e6 053e
000000e0: 25e0 e6bd bbed c7bd 1fd0 a7bd 9648 33be
000000f0: 4543 383e 0bef 32bd cd93 24be a2ad a03d
00000100: 1118 023e b53e 333e 9857 e5bd e627 b63d
00000110: 06f5 b13c 1b1c cd3d f77a e43d 56d8 aebd
00000120: c1d4 1cbe ad92 e8bd 4f31 acbd bca1 d53b
00000130: b762 d43d 95c7 d9bc 9bbd 083e f24c 243e
00000140: a00f d9bd fdc9 02be 31c1 a03c ff3d 193e
00000150: 3ce9 a73d 2f9c 14be 4fee 963d 075c 09be
00000160: c65e 333d 9406 8e3c b098 a33d 3611 873d
00000170: 2d91 043e 2272 0dbc fc1c 2ebe 77ae 9e3d
00000180: f268 d1bd dd66 123d e282 593c 470c 64bd
00000190: d91c c5bd c276 febd c756 003e 4f1a c9bd
000001a0: e49d 16be fee0 023d 8e3d 35be 59a1 6cbe
000001b0: 57b0 983d be6b be3c 7fed 2fbe 0e47 1cbd
000001c0: 209d 77bd c515 c83c 70a4 69be 88ac 18bd
000001d0: ffdb a6bc 869f cebb e011 5fbe cb13 873d
000001e0: 09e1 85be 3a2d 83be 5c64 0dbd 3f1c f53d
000001f0: 97cf 65be 7406 32bd d7c6 28be 9f83 13be
00000200: b104 11be 935d 19be cd7c 56be bf28 8e3b
00000210: bb01 0cbe d7d7 0abe 0799 bebe c679 88be
00000220: f24e 61be 3191 763b bbca 783c 20dc a63d
00000230: 3a8c 6bbe b955 02be 1597 96be cfa6 3c3e
00000240: 7893 3c3e aff7 1f3e 8224 473d 9d1b df3d
00000250: 7d44 d53c c0d5 47be 00d1 f73c d3b2 15bf
00000260: 26a8 8fbb 0972 4dbd ecbe 25bd ff88 44bd
00000270: 3dd1 00be d38e 093c 0281 fc3d f520 5a3d
00000280: 9483 2bbd 558d 68bd 432d 863e aa80 483e
00000290: bf9c 02be 2ab8 61be f4ea 5dbe 3e55 d53e
000002a0: c27e 643e de4e 263e 20bf 38be 2237 9ebf
000002b0: 1867 52be b132 183e 6ded 1f3f 405a 713e
000002c0: 782e 39bd 7c3f bebe a831 f4be 97cb 113e
000002d0: 2c00 56be 9704 f2be 3b08 8a3f 8c83 a83f
000002e0: 30c4 863f cf90 29be b348 213d 4438 1fbf
000002f0: 81a6 443d 4770 533e f0de 003e fbf4 573f
00000300: 3a0c 13bd 7ef5 3b3c 589e 0b3e 5765 2e3e
00000310: 3d4f 0d3d 86a2 36be cf20 8cbd 969b 10be
00000320: 9b7e bc3d c7e4 1cbd 9e07 0b3e 4eb9 ecbb
00000330: 775f 43be ecc5 2d3e 8c8d bcbd 5378 2bbd
00000340: bb0b a9bd 3e2a cdbd 508a e73d ed22 203e
00000350: 3b2f 6e3b b5d6 b23c 80dc 0abe 5c9d 38be
00000360: b33c fabd f600 16bd af26 7c3d e56a d7bd
00000370: d03b 02be e132 a23d 8606 a73d 6a2f 1dbe
00000380: 4f80 20bd a385 9fbd f0e4 eebb 841c 343e
00000390: 7ae6 273e 9994 263e 1700 fcbd 9130 f6bd
000003a0: 9f3d e13d b804 623d 80e5 33be 86c4 28be
000003b0: 8bd8 7abd 541c 2dbe 7290 57bd a9a8 353e
000003c0: 411d 14be 53ed f9bc 3217 a7bd b06e cabd
000003d0: f6a5 9d3c dd9c 263e 2fe3 30be c56d 0e3d
000003e0: cb1f 553d fb0b 0abd 96aa 6cbd 491b 9ebd
000003f0: 7892 12be 864f 89bd 27e7 aebd b6b9 a83c

net.0.bias f4 [128]
0.0 0.0 -0.08582869 -0.23337294 -0.010142719 0.0 -0.06288086 -0.07559472
-0.09981295 0.15336375 0.0 -0.23377444 0.0 -0.05210291 0.026693055 0.11652127
-0.051008005 -0.07038105 0.22245064 -0.03495357 -0.08871774 0.018950293 0.0 -0.07038919
-0.06549639 -0.05831106 -0.17193758 0.0034824212 -0.06586333 0.03533376 -0.091530554 0.0
0.0 -0.056079604 -0.072416686 0.2114004 0.19062325 -0.10517954 -0.03527676 -0.02029063
-0.12686336 0.002976288 -0.06669171 -0.018433604 0.030888377 0.0 0.0 0.0
-0.12526943 0.0 -0.3373481 -0.07436307 0.0 -0.027620323 0.20379925 -0.007872184
-0.034618128 -0.031807534 -0.16618647 0.0 -0.0825071 0.22410937 0.0 -0.053628
0.0 -0.0048508495 -0.22994691 -0.031588312 -0.051780853 -0.04625908 -0.05833358 0.0
-0.060452364 -0.004315674 0.18018882 -0.06895283 0.17363785 0.0 -0.31888148 -0.09846902
-0.26398522 0.17095932 0.0 -0.09880559 -0.004722336 0.0 -0.06820808 0.04257325
0.0 -0.016988682 -0.04682033 -0.03644644 -0.044993475 -0.037963573 -0.05679131 0.00037208723
-0.0042096125 0.0 0.0 0.0 -0.11082047 -0.024787167 -0.07173221 0.0
-0.09345573 -0.13547905 -0.09952515 -0.11140072 0.0 -0.05954996 -0.095479846 -0.098626174
-0.08172493 -0.05713496 -0.14883131 0.0 0.0 -0.112145506 -0.05423225 -0.06097065
-0.00073365215 0.0 -0.05536217 0.2616097 -0.30494034 -0.014591551 -0.04089744 0.028627781
00000000: 0000 0000 0000 0000 f4c6 afbd 51f9 6ebe
00000010: a62d 26bc 0000 0000 aec7 80bd 68d1 9abd
00000020: bb6a ccbd 630b 1d3e 0000 0000 9162 6fbe
00000030: 0000 0000 dc69 55bd 65ab da3c b4a2 ee3d
00000040: c5ed 50bd f123 90bd 1aca 633e 7a2b 0fbd
00000050: a5b1 b5bd a53d 9b3c 0000 0000 3528 90bd
00000060: f922 86bd 94d7 6ebd 6810 30be 5539 643b
00000070: 5be3 86bd 22ba 103d 5f74 bbbd 0000 0000
00000080: 0000 0000 bab3 65bd 334f 94bd 5979 583e
00000090: be32 433e 5f68 d7bd 5d7e 10bd 8938 a6bc
000000a0: 78e8 01be d40d 433b aa95 88bd 1202 97bc
000000b0: 9f09 fd3c 0000 0000 0000 0000 0000 0000
000000c0: a146 00be 0000 0000 e4b8 acbe aa4b 98bd
000000d0: 0000 0000 0444 e2bc c0b0 503e 55fa 00bc
000000e0: bdcb 0dbd 9e48 02bd c92c 2abe 0000 0000
000000f0: 7cf9 a8bd ed7c 653e 0000 0000 09a9 5bbd
00000100: 0000 0000 e0f3 9ebb 3477 6bbe bf62 01bd
00000110: 2918 54bd 297a 3dbd 31ef 6ebd 0000 0000
00000120: e69c 77bd 7f6a 8dbb 6b83 383e 2437 8dbd
00000130: 1fce 313e 0000 0000 6f44 a3be 20aa c9bd
00000140: 1229 87be f60f 2f3e 0000 0000 965a cabd
00000150: d3bd 9abb 0000 0000 aeb0 8bbd 4a61 2e3d
00000160: 0000 0000 d92b 8bbc adc6 3fbd dd48 15bd
00000170: 144b 38bd b17f 1bbd 019e 68bd b414 c339
00000180: caf0 89bb 0000 0000 0000 0000 0000 0000
00000190: d8f5 e2bd 750e cbbc 56e8 92bd 0000 0000
000001a0: b865 bfbd 05bb 0abe d8d3 cbbd 1026 e4bd
000001b0: 0000 0000 a9ea 73bd f08a c3bd 85fc c9bd
000001c0: 665f a7bd 5906 6abd 3c67 18be 0000 0000
000001d0: 0000 0000 8bac e5bd a322 5ebd 5cbc 79bd
000001e0: 9052 40ba 0000 0000 71c3 62bd b5f1 853e
000001f0: 2421 9cbe 6711 6fbc 1384 27bd cf84 ea3c

net.2.weight f4 [64, 128]
-0.039037276 -0.03143923 0.054531414 -0.22350524 -0.095215835 -0.13915966 0.07460874 0.0939521
0.026042713 -0.044316567 -0.1606037 -0.2689402 0.07233033 -0.10683612 -0.18110204 -0.6819004
-0.1289224 -0.058873013 -0.04794888 -0.071729206 0.0012599143 -0.113771655 0.006600681 0.03080307
0.072649635 0.089837745 -0.14483045 0.14574604 0.027713764 -0.19773373 -0.22042584 0.01872987
-0.076341726 0.15208882 -0.34007236 -0.08840665 0.13845658 -0.092621475 -0.17098041 -0.22701034
0.055087782 -0.017807823 -0.07148151 0.019830419 -0.011199389 -0.040047407 0.0025705362 -0.13329318
-0.3180147 0.076007165 -0.040950947 0.18092792 -0.05046811 -0.09816168 0.06894761 -0.10706679
-0.10388508 0.0075225234 -0.44410124 -0.097125806 0.056309577 -0.06062737 -0.11174459 0.0032573391
-0.15616277 -0.083945476 -0.06291813 -0.11962772 -0.03961026 0.06831965 0.12389312 0.11972895
-0.0053166524 0.0034408085 -0.10816444 0.09078681 -0.12444463 -0.06368954 -0.19187196 -0.079872996
0.069989 -0.06739589 0.037596926 0.08274321 -0.100341275 0.06928153 0.11756802 0.08658055
0.1581968 -0.2856905 0.023252347 -0.060435113 -0.08207364 -0.0739972 0.10590581 -0.03286
-0.14902544 -0.12870744 0.15116306 -0.1748823 0.18822236 -0.039378516 -0.20491016 -0.040200822
0.05474912 -0.014844149 0.081560135 0.013344181 0.0079769865 -0.09453386 0.14020905 0.13999201
-0.018974105 -0.11160344 0.019316204 0.15190719 -0.06988548 -0.04194121 -0.15180303 -0.056988284
-0.22379503 0.06083457 -0.1310907 0.088338636 -0.14214623 -0.05135494 -0.084306784 -0.18475522
0.113248706 -0.13234185 -0.09070238 0.10090065 -0.0545777 0.11708879 -0.037952837 -0.00834162
0.12726359 -0.18948048 -0.05865408 -0.16732632 -0.12744105 0.024501838 -0.15050364 -0.034135815
0.11172586 0.0056178374 0.033038612 0.057550192 -0.12794812 0.06585287 -0.0021943545 -0.018247267
-0.09983109 -0.061067283 0.0030381617 0.028119175 0.16672704 -0.11493669 -0.171205 -0.1479442
-0.020605888 -0.156479 -0.11342342 0.02530938 -0.024258703 -0.16587734 -0.050450597 -0.11479391
0.05932934 -0.010460005 0.09165283 -0.13959523 -0.12951028 -0.002823333 -0.060309105 -0.061740916
0.02646889 -0.121919096 -0.057780728 0.02624423 -0.09449732 0.15004566 -0.15207294 -0.12020009
0.09199544 -0.034838226 0.039658792 -0.055756632 -0.06314329 0.06665349 0.025756149 -0.060497563
0.030052178 0.1353091 0.0851265 -0.18312307 0.14919277 -0.07458422 0.044557206 0.04688232
0.021519948 0.11145114 -0.11114548 -0.06051729 -0.18262954 0.10750415 -0.18371442 -0.1152773
-0.00700573 0.098760135 0.10239808 0.08166209 -0.07603932 0.09555205 -0.05476334 -0.1178036
-0.13118127 0.0464606 -0.019606967 0.049424324 -0.10946923 0.020196643 0.034388434 -0.13610399
0.06256887 0.15237455 -0.15635277 0.11697405 -0.15382345 0.026004205 0.1483991 0.02824705
0.16219093 -0.10492569 0.090243354 0.08541987 -0.019305363 -0.078457326 0.11177898 0.08825503
-0.12969293 0.064670675 -0.053714134 -0.0927657 -0.083361804 -0.16493419 -0.04802751 0.10591735
-0.1612193 -0.16718002 0.01327552 -0.029986858 0.106157966 -0.11412644 -0.087263465 -0.09906646
00000000: 8de5 1fbd 6cc6 00bd 555c 5f3d 8fde 64be
00000010: 8500 c3bd df7f 0ebe 78cc 983d f569 c03d
00000020: 8757 d53c 4a85 35bd 4c75 24be 88b2 89be
00000030: ed21 943d e5cc dabd d072 39be 0691 2ebf
00000040: 3c04 04be d424 71bd 0b66 44bd c3e6 92bd
00000050: b523 a53a 1d01 e9bd 874a d83b b856 fc3c
00000060: 55c9 943d dafc b73d 6f4e 14be 733e 153e
00000070: fa07 e33c b67a 4abe 50b7 61be 626f 993c
00000080: 0d59 9cbd 2cbd 1b3e f71d aebe 8c0e b5bd
00000090: 90c7 0d3e 54b0 bdbd 7d15 2fbe 6675 68be
000000a0: baa3 613d b6e1 91bc e664 92bd 6773 a23c
000000b0: a47d 37bc c008 24bd 7176 283b 027e 08be
000000c0: d3d2 a2be a5a9 9b3d 2ebc 27bd 2b45 393e
000000d0: a6b7 4ebd fe08 c9bd 6834 8d3d d545 dbbd
000000e0: b3c1 d4bd 807f f63b 3d61 e3be e5e9 c6bd
000000f0: dfa4 663d 6854 78bd 59da e4bd 1579 553b
00000100: 22e9 1fbe 9beb abbd 38db 80bd 61ff f4bd
00000110: 5e3e 22bd 2ceb 8b3d adbb fd3d 7434 f53d
00000120: 5037 aebb 307f 613b 5185 ddbd 6fee b93d
00000130: d4dc febd a96f 82bd 157a 44be 7494 a3bd
00000140: 6556 8f3d db06 8abd 3cff 193d 4675 a93d
00000150: ba7f cdbd 7ae3 8d3d 81c7 f03d 2551 b13d
00000160: 58fe 213e 0646 92be b57b be3c cf8a 77bd
00000170: 3916 a8bd d88b 97bd 25e5 d83d 3598 06bd
00000180: 209a 18be e2cb 03be 7dca 1a3e 5814 33be
00000190: 5dbd 403e 5e4b 21bd f8d3 51be 9ea9 24bd
000001a0: 9d40 603d e034 73bc 0009 a73d 8da1 5a3c
000001b0: e8b1 023c f89a c1bd f692 0f3e 115a 0f3e
000001c0: 956f 9bbc 5890 e4bd 043d 9e3c 8f8d 1b3e
000001d0: 1e20 8fbd 8cca 2bbd 4172 1bbe 8c6c 69bd
000001e0: 862a 65be ac2d 793d a43c 06be e3ea b43d
000001f0: c88e 11be 8f59 52bd 09a9 acbd 7930 3dbe
00000200: f0ee e73d 9f84 07be 2bc2 b9bd 00a5 ce3d
00000210: de8c 5fbd 3fcc ef3d 6f74 1bbd 4aab 08bc
00000220: 6351 023e 2c07 42be 433f 70bd 9757 2bbe
00000230: e87f 02be 14b8 c83c a01d 1abe ffd1 0bbd
00000240: 87d0 e43d d615 b83b 7f53 073d c0b9 6b3d
00000250: d504 03be dfdd 863d 29cf 0fbb 4b7b 95bc
00000260: 3e74 ccbd b021 7abd e51b 473b 2f5a e63c
00000270: 7eba 2a3e ed63 ebbd 5d50 2fbe af7e 17be
00000280: aecd a8bc 083c 20be 8a4a e8bd 9e55 cf3c
00000290: 30ba c6bc c0db 29be 49a5 4ebd 1219 ebbd
000002a0: 5203 733d 7160 2bbc 7bb4 bb3d 0df2 0ebe
000002b0: 589e 04be ab07 39bb ae06 77bd 0be4 7cbd
000002c0: 49d5 d83c b8b0 f9bd 7cab 6cbd 24fe d63c
000002d0: d087 c1bd 92a5 193e 02b9 1bbe 772b f6bd
000002e0: 1b68 bc3d 87b2 0ebd 4271 223d 1161 64bd
000002f0: 4551 81bd a081 883d 8ffe d23c 4bcc 77bd
00000300: fc2f f63c 788e 0a3e cd56 ae3d 9d84 3bbe
00000310: fdc5 183e 9dbf 98bd 9e81 363d ad07 403d
00000320: 9a4a b03c 7f40 e43d 3ea0 e3bd fae0 77bd
00000330: 3d03 3bbe 232b dc3d a21f 3cbe 8116 ecbd
00000340: 5390 e5bb c142 ca3d 16b6 d13d 743e a73d
00000350: 81ba 9bbd cbb0 c33d 864f 60bd 0443 f1bd
00000360: 6254 06be 784d 3e3d ca9e a0bc 2971 4a3d
00000370: 6731 e0bd 6e73 a53c e3da 0c3d d85e 0bbe
00000380: 1c24 803d 1308 1c3e f11a 20be 1790 ef3d
00000390: e583 1dbe c506 d53c eff5 173e 5b66 e73c
000003a0: 6115 263e 48e3 d6bd 82d1 b83d 9df0 ae3d
000003b0: 4826 9ebc 3cae a0bd 61ec e43d 0ebf b43d
000003c0: 39ce 04be 0f72 843d 5a03 5cbd f1fb bdbd
000003d0: 98b9 aabd 82e4 28be 7fb8 44bd 32eb d83d
000003e0: ac16 25be 3d31 2bbe 9181 593c 00a7 f5bc
000003f0: 5969 d93d 1fbb e9bd 30b7 b2bd 5be3 cabd

net.2.bias f4 [64]
-0.062291946 -0.027746925 -0.031765703 -0.04216273 -0.03522552 -0.043208107 -0.03902557 -0.008768309
0.07974787 -0.02716699 0.3344742 -0.069346294 -0.032087628 -0.04421033 -0.038547948 -0.05323448
-0.03175773 -0.031765588 -0.0490766 -0.075323045 -0.08005377 -0.03176499 -0.031765014 -0.06780917
-0.031762276 -0.0221665 -0.034487166 -0.026361916 -0.031765018 -0.037173886 -0.09565925 -0.01992205
-0.03087475 -0.0070618642 -0.02932191 0.046392214 0.009191206 -0.05685851 0.1502164 -0.03175857
-0.058718707 -0.011493288 -0.018100109 0.0 -0.26530012 -0.073957615 -0.045763053 -0.07171351
-0.06339243 0.18623313 -0.036756642 -0.014514158 -0.15219456 -0.05494809 -0.03314764 -0.009554735
-0.05463627 0.028448766 -0.21721268 -0.031783253 -0.05116788 -0.02716674 -0.20809709 -0.011109971
00000000: d725 7fbd 854d e3bc c11c 02bd d4b2 2cbd
00000010: a348 10bd fcfa 30bd 47d9 1fbd f4a8 0fbc
00000020: da52 a33d 4f8d debc 3440 ab3e 6e05 8ebd
00000030: 516e 03bd e415 35bd 74e4 1dbd 660c 5abd
00000040: 6514 02bd a21c 02bd 8b04 49bd f842 9abd
00000050: 3bf3 a3bd 021c 02bd 081c 02bd 89df 8abd
00000060: 2919 02bd 8596 b5bc 6a42 0dbd f2f4 d7bc
00000070: 091c 02bd a543 18bd ffe8 c3bd 9133 a3bc
00000080: 0bed fcbc 3667 e7bb 8134 f0bc c305 3e3d
00000090: b696 163c 78e4 68bd 54d2 193e 4615 02bd
000000a0: 0783 70bd 584e 3cbc ae46 94bc 0000 0000
000000b0: 6bd5 87be 1777 97bd 0a72 3bbd 88de 92bd
000000c0: e4d3 81bd e6b3 3e3e 228e 16bd cacc 6dbc
000000d0: e4d8 1bbe 4011 61bd d2c5 07bd 778b 1cbc
000000e0: 48ca 5fbd 630d e93c 006d 5ebe 282f 02bd
000000f0: 6995 51bd c88c debc 6717 55be 9906 36bc

net.4.weight f4 [16, 64]
0.033553835 0.25685868 -0.22777387 0.036374122 0.25474784 0.0790004 0.20017514 0.21415256
-0.085784234 0.10383524 -0.034782495 0.010507164 0.0763181 0.21858487 0.12457962 0.038678568
-0.094073966 0.102995954 -0.054152593 -0.23261082 0.1500198 0.25305024 -0.216186 0.1063725
0.12966044 -0.049678814 0.0019705028 -0.16720702 0.23925826 0.17434771 0.18724619 0.09260177
-0.031891294 0.12284166 -0.016164707 -0.14266507 0.045795485 0.03614933 -0.073677026 0.20460628
-0.10594413 0.23545618 -0.052185573 -0.083171405 -0.098064974 -0.12929969 -0.055446215 -0.20497507
-0.0657587 -0.1842127 -0.011062085 0.2695199 0.053901765 0.13916048 0.06639014 -0.14274044
-0.14175877 0.1605962 0.15082553 0.13490611 0.19675554 0.09062289 0.02349386 0.09850347
0.023256049 -0.07207292 0.042618353 -0.013575073 -0.15233006 0.016477935 0.04310297 0.24419099
0.092431806 -0.030400157 0.11999553 -0.055789426 -0.053818926 0.16268806 0.06907321 -0.17845656
-0.001492111 0.15822826 0.021743987 -0.11664292 0.17467396 0.09850836 -0.18431047 -0.086394675
0.1174754 -0.24613155 -0.08318926 0.033874575 0.18382134 0.0582643 0.20692539 0.23356222
0.035646617 0.24723957 -0.21732363 0.19500199 -0.14314996 0.093674734 0.122278884 0.10613585
-0.19332238 -0.04547039 -0.08895102 -0.06888434 -0.13200067 -0.20003578 -0.2141733 -0.22634715
-0.13145678 0.22808695 0.018155413 0.175668 -0.09904197 0.08650953 -0.16552007 0.20857544
-0.04293122 0.20508932 -0.0017384087 0.1279236 0.25801936 -0.18689068 -0.081389405 -0.07280545
0.041547213 -0.081824824 -0.24748577 -0.13263638 -0.12817986 0.016597083 0.21592657 0.12449474
-0.014155045 0.21473661 -0.29218942 0.15953983 0.2573115 -0.19489788 0.12507139 0.020272696
-0.043303937 -0.15070832 -0.038173627 -0.1617996 -0.05444839 0.14682291 0.1904035 0.1105637
0.15197459 -0.082394585 0.23655239 -0.16338468 0.095175475 -0.10538207 -0.22513072 -0.12028034
-0.21804191 -0.13841249 0.17878124 0.11982929 -0.13776548 0.087294996 -0.057193518 0.10367749
-0.13721713 0.18476807 0.021513138 0.05311084 0.06470489 -0.08331793 0.07709231 -0.27033356
-0.29947647 -0.17458108 0.090598956 0.021302942 -0.07962101 -0.1464938 -0.114566706 -0.1061429
0.021543926 0.06338772 0.102583736 -0.13199134 -0.18403882 -0.23437637 0.10121573 0.26212385
0.20482972 0.17978108 0.16282587 -0.22050846 0.29172257 0.2875186 0.12789012 -0.059357867
-0.32532352 -0.23176377 0.11177885 -0.12923792 -0.3057848 0.15452082 0.20842662 0.1099641
0.04558825 -0.23980126 0.022321057 -0.088879324 -0.22927636 -0.23633918 0.005001251 -0.024055328
0.0124386195 0.011583963 -0.036209352 -0.1680118 0.07385658 0.1309937 0.2663384 0.017306414
0.09282387 -0.11592046 0.2903987 -0.3701396 0.010662154 -0.0112856645 0.034154624 0.24486692
-0.004643246 0.12702706 0.15646356 0.12793939 0.29324102 -0.20510605 0.14614692 -0.228375
0.15244983 0.01766348 -0.09677018 0.27292126 0.066594355 -0.2797342 0.21427688 0.22958423
0.07286224 -0.2218182 -0.07297069 0.24207564 0.27007797 0.13689809 -0.11433903 -0.07495585
00000000: bf6f 093d fb82 833e 8e3d 69be 08fd 143d
00000010: 4f6e 823e f6ca a13d b6fa 4c3e cf4a 5b3e
00000020: a5af afbd 92a7 d43d 1778 0ebd 3d26 2c3c
00000030: aa4c 9c3d b6d4 5f3e 9a23 ff3d 6b6d 1e3d
00000040: daa9 c0bd 8bef d23d 1ccf 5dbd 8831 6ebe
00000050: ca9e 193e cd8f 813e dd5f 5dbe d3d9 d93d
00000060: b5c5 043e 037c 4bbd 8d23 013b 5138 2bbe
00000070: 1e00 753e 3588 323e 77bd 3f3e ffa5 bd3d
00000080: 72a0 02bd 6994 fb3d d96b 84bc cb16 12be
00000090: 0c94 3b3d 5211 143d fbe3 96bd 4f84 513e
000000a0: 3cf9 d8bd 6d1b 713e 8ac0 55bd c555 aabd
000000b0: 4ad6 c8bd 2367 04be 921b 63bd fce4 51be
000000c0: 7fac 86bd 41a2 3cbe bf3d 35bc 83fe 893e
000000d0: 19c8 5c3d 1680 0e3e 8ef7 873d 8d2a 12be
000000e0: 3629 11be 5573 243e 0272 1a3e d424 0a3e
000000f0: 497a 493e 7e98 b93d 3276 c03c 30bc c93d
00000100: 7883 be3c f89a 93bd 9590 2e3d fc69 5ebc
00000110: 69fc 1bbe bcfc 863c bd8c 303d 340d 7a3e
00000120: e34c bd3d c009 f9bc 37c0 f53d 7483 64bd
00000130: 3c71 5cbd b397 263e 4176 8d3d 51bd 36be
00000140: f092 c3ba 9706 223e 7220 b23c 7ce2 eebd
00000150: bbdd 323e c0be c93d e2bb 3cbe b1ef b0bd
00000160: f196 f03d e909 7cbe 215f aabd 11c0 0a3d
00000170: a93b 3c3e 8ca6 6e3d 40e4 533e ef2a 6f3e
00000180: 3002 123d 5f2c 7d3e 168a 5ebe 9aae 473e
00000190: e795 12be 8ad8 bf3d 5a6d fa3d c15d d93d
000001a0: 4df6 45be 293f 3abd f42b b6bd 3c13 8dbd
000001b0: 2f2b 07be 2ed6 4cbe 3f50 5bbe 8cc7 67be
000001c0: 9b9c 06be a08f 693e a9ba 943c 50e2 333e
000001d0: 84d6 cabd e92b b13d 187e 29be cd94 553e
000001e0: a6d8 2fbd ef02 523e 51db e3ba 67fe 023e
000001f0: 1d1b 843e 4560 3fbe 7daf a6bd 061b 95bd
00000200: 692d 2a3d c693 a7bd e96c 7dbe d5d1 07be
00000210: 9541 03be 9bf6 873c db1b 5d3e 19f7 fe3d
00000220: 90ea 67bc eae3 5b3e da99 95be 695e 233e
00000230: 55be 833e 4f93 47be b712 003e ed12 a63c
00000240: 785f 31bd 4853 1abe f35b 1cbd cbae 25be
00000250: 4605 5fbd bf58 163e 23f9 423e 396f e23d
00000260: 3a9f 1b3e 7ebe a8bd ca3a 723e 504e 27be
00000270: 5ceb c23d 8ed2 d7bd ab88 66be 8a55 f6bd
00000280: 6146 5fbe 01bc 0dbe 6e12 373e 0f69 f53d
00000290: 6512 0dbe b8c7 b23d c043 6abd dd54 d43d
000002a0: a682 0cbe d733 3d3e 523c b03c c18a 593d
000002b0: ff83 843d 97a2 aabd 93e2 9d3d 2969 8abe
000002c0: fb54 99be 62c5 32be f28b b93d 8283 ae3c
000002d0: 5710 a3bd 7902 16be f3a1 eabd 7361 d9bd
000002e0: e37c b03c 6cd1 813d 6c17 d23d bd28 07be
000002f0: ac74 3cbe 5c00 70be 314a cf3d 1935 863e
00000300: e2be 513e 8818 383e d3bb 263e f8cc 61be
00000310: a95c 953e a335 933e a1f5 023e 3c21 73bd
00000320: ce90 a6be 7b53 6dbe 4fec e43d f256 04be
00000330: d38f 9cbe b53a 1e3e ca6d 553e dc34 e13d
00000340: bfba 3a3d 768e 75be a6da b63c 5d06 b6bd
00000350: 6cc7 6abe e602 72be 89e1 a33b ae0f c5bc
00000360: 5acb 4b3c aaca 3d3c 4250 14bd 490b 2cbe
00000370: 1e42 973d 3623 063e 825d 883e 2ec6 8d3c
00000380: 711a be3d b567 edbd 23af 943e f082 bdbe
00000390: 51b0 2e3c 82e7 38bc b8e5 0b3d 65be 7a3e
000003a0: 5f26 98bb 6213 023e fc37 203e 8b02 033e
000003b0: b023 963e 5207 52be 8aa7 153e 23db 69be
000003c0: cf1b 1c3e 01b3 903c 722f c6bd 56bc 8b3e
000003d0: 9f62 883d 5239 8fbe 666b 5b3e 2118 6b3e
000003e0: cc38 953d 4f24 63be a871 95bd ade2 773e
000003f0: a947 8a3e 032f 0c3e 952a eabd 7482 99bd

net.4.bias f4 [16]
-0.25992042 0.33310977 -0.033553988 0.30657294 -0.010505707 -0.0373538 -0.06352752 -0.10809709
0.04799461 -0.03953886 -0.31187668 -0.03233729 0.33752698 -0.008059422 0.029599335 0.018413614
00000000: 4a14 85be 5d8d aa3e e86f 09bd 21f7 9c3e
00000010: 2120 2cbc 4c00 19bd b71a 82bd 0262 ddbd
00000020: ff95 443d 80f3 21bd 4dae 9fbe 1b74 04bd
00000030: 56d0 ac3e aa0b 04bc 4e7a f23c 26d8 963c

net.6.weight f4 [1, 16]
-0.05889302 0.29808223 -0.46292302 0.13011491 0.110273436 0.3104734 0.33914182 0.3685651
0.3258206 0.4803258 -0.29212055 0.17411251 0.22741887 0.3815658 0.022245778 0.16667196
00000000: cf39 71bd 3c9e 983e 3f04 edbe d83c 053e
00000010: 0ad7 e13d 5ff6 9e3e ffa3 ad3e 91b4 bc3e
00000020: f5d1 a63e 43ed f53e d390 95be 8d4a 323e
00000030: 7ee0 683e 985c c33e c73c b63c 0eac 2a3e

exp_avg f4 [128, 48]
0.0 0.0 0.0 0.0 0.0 0.0 0.0 0.0
0.0 0.0 0.0 0.0 0.0 0.0 0.0 0.0
0.0 0.0 0.0 0.0 0.0 0.0 0.0 0.0
0.0 0.0 0.0 0.0 0.0 0.0 0.0 0.0
0.0 0.0 0.0 0.0 0.0 0.0 0.0 0.0
0.0 0.0 0.0 0.0 0.0 0.0 0.0 0.0
0.0 0.0 0.0 0.0 0.0 0.0 0.0 0.0
0.0 0.0 0.0 0.0 0.0 0.0 0.0 0.0
0.0 0.0 0.0 0.0 0.0 0.0 0.0 0.0
0.0 0.0 0.0 0.0 0.0 0.0 0.0 0.0
0.0 0.0 0.0 0.0 0.0 0.0 0.0 0.0
0.0 0.0 0.0 0.0 0.0 0.0 0.0 0.0
6e-45 6e-45 6e-45 6e-45 6e-45 6e-45 6e-45 6e-45
6e-45 6e-45 6e-45 6e-45 6e-45 6e-45 6e-45 6e-45
6e-45 6e-45 6e-45 6e-45 6e-45 6e-45 6e-45 6e-45
6e-45 6e-45 6e-45 6e-45 6e-45 6e-45 6e-45 6e-45
6e-45 6e-45 6e-45 6e-45 6e-45 6e-45 6e-45 6e-45
6e-45 6e-45 6e-45 6e-45 -6e-45 6e-45 6e-45 -6e-45
6e-45 6e-45 6e-45 6e-45 6e-45 6e-45 6e-45 6e-45
6e-45 6e-45 6e-45 6e-45 6e-45 6e-45 6e-45 -6e-45
6e-45 6e-45 6e-45 6e-45 6e-45 6e-45 6e-45 6e-45
6e-45 6e-45 6e-45 6e-45 6e-45 6e-45 6e-45 6e-45
6e-45 6e-45 6e-45 6e-45 6e-45 6e-45 6e-45 6e-45
6e-45 6e-45 6e-45 6e-45 6e-45 6e-45 6e-45 6e-45
6e-45 6e-45 6e-45 6e-45 6e-45 6e-45 6e-45 0.0
6e-45 6e-45 6e-45 6e-45 6e-45 6e-45 6e-45 0.0
6e-45 6e-45 6e-45 6e-45 6e-45 6e-45 6e-45 6e-45
6e-45 6e-45 6e-45 6e-45 6e-45 6e-45 6e-45 6e-45
6e-45 6e-45 6e-45 6e-45 6e-45 6e-45 6e-45 6e-45
6e-45 6e-45 6e-45 6e-45 6e-45 -6e-45 -6e-45 -6e-45
0.0 0.0 0.0 0.0 0.0 0.0 0.0 0.0
0.0 0.0 0.0 0.0 0.0 0.0 0.0 0.0
00000000: 0000 0000 0000 0000 0000 0000 0000 0000
00000010: 0000 0000 0000 0000 0000 0000 0000 0000
00000020: 0000 0000 0000 0000 0000 0000 0000 0000
00000030: 0000 0000 0000 0000 0000 0000 0000 0000
00000040: 0000 0000 0000 0000 0000 0000 0000 0000
00000050: 0000 0000 0000 0000 0000 0000 0000 0000
00000060: 0000 0000 0000 0000 0000 0000 0000 0000
00000070: 0000 0000 0000 0000 0000 0000 0000 0000
00000080: 0000 0000 0000 0000 0000 0000 0000 0000
00000090: 0000 0000 0000 0000 0000 0000 0000 0000
000000a0: 0000 0000 0000 0000 0000 0000 0000 0000
000000b0: 0000 0000 0000 0000 0000 0000 0000 0000
000000c0: 0000 0000 0000 0000 0000 0000 0000 0000
000000d0: 0000 0000 0000 0000 0000 0000 0000 0000
000000e0: 0000 0000 0000 0000 0000 0000 0000 0000
000000f0: 0000 0000 0000 0000 0000 0000 0000 0000
00000100: 0000 0000 0000 0000 0000 0000 0000 0000
00000110: 0000 0000 0000 0000 0000 0000 0000 0000
00000120: 0000 0000 0000 0000 0000 0000 0000 0000
00000130: 0000 0000 0000 0000 0000 0000 0000 0000
00000140: 0000 0000 0000 0000 0000 0000 0000 0000
00000150: 0000 0000 0000 0000 0000 0000 0000 0000
00000160: 0000 0000 0000 0000 0000 0000 0000 0000
00000170: 0000 0000 0000 0000 0000 0000 0000 0000
00000180: 0400 0000 0400 0000 0400 0000 0400 0000
00000190: 0400 0000 0400 0000 0400 0000 0400 0000
000001a0: 0400 0000 0400 0000 0400 0000 0400 0000
000001b0: 0400 0000 0400 0000 0400 0000 0400 0000
000001c0: 0400 0000 0400 0000 0400 0000 0400 0000
000001d0: 0400 0000 0400 0000 0400 0000 0400 0000
000001e0: 0400 0000 0400 0000 0400 0000 0400 0000
000001f0: 0400 0000 0400 0000 0400 0000 0400 0000
00000200: 0400 0000 0400 0000 0400 0000 0400 0000
00000210: 0400 0000 0400 0000 0400 0000 0400 0000
00000220: 0400 0000 0400 0000 0400 0000 0400 0000
00000230: 0400 0080 0400 0000 0400 0000 0400 0080
00000240: 0400 0000 0400 0000 0400 0000 0400 0000
00000250: 0400 0000 0400 0000 0400 0000 0400 0000
00000260: 0400 0000 0400 0000 0400 0000 0400 0000
00000270: 0400 0000 0400 0000 0400 0000 0400 0080
00000280: 0400 0000 0400 0000 0400 0000 0400 0000
00000290: 0400 0000 0400 0000 0400 0000 0400 0000
000002a0: 0400 0000 0400 0000 0400 0000 0400 0000
000002b0: 0400 0000 0400 0000 0400 0000 0400 0000
000002c0: 0400 0000 0400 0000 0400 0000 0400 0000
000002d0: 0400 0000 0400 0000 0400 0000 0400 0000
000002e0: 0400 0000 0400 0000 0400 0000 0400 0000
000002f0: 0400 0000 0400 0000 0400 0000 0400 0000
00000300: 0400 0000 0400 0000 0400 0000 0400 0000
00000310: 0400 0000 0400 0000 0400 0000 0000 0000
00000320: 0400 0000 0400 0000 0400 0000 0400 0000
00000330: 0400 0000 0400 0000 0400 0000 0000 0000
00000340: 0400 0000 0400 0000 0400 0000 0400 0000
00000350: 0400 0000 0400 0000 0400 0000 0400 0000
00000360: 0400 0000 0400 0000 0400 0000 0400 0000
00000370: 0400 0000 0400 0000 0400 0000 0400 0000
00000380: 0400 0000 0400 0000 0400 0000 0400 0000
00000390: 0400 0000 0400 0000 0400 0000 0400 0000
000003a0: 0400 0000 0400 0000 0400 0000 0400 0000
000003b0: 0400 0000 0400 0080 0400 0080 0400 0080
000003c0: 0000 0000 0000 0000 0000 0000 0000 0000
000003d0: 0000 0000 0000 0000 0000 0000 0000 0000
000003e0: 0000 0000 0000 0000 0000 0000 0000 0000
000003f0: 0000 0000 0000 0000 0000 0000 0000 0000

exp_avg_sq f4 [128, 48]
0.0 0.0 0.0 0.0 0.0 0.0 0.0 0.0
0.0 0.0 0.0 0.0 0.0 0.0 0.0 0.0
0.0 0.0 0.0 0.0 0.0 0.0 0.0 0.0
0.0 0.0 0.0 0.0 0.0 0.0 0.0 0.0
0.0 0.0 0.0 0.0 0.0 0.0 0.0 0.0
0.0 0.0 0.0 0.0 0.0 0.0 0.0 0.0
0.0 0.0 0.0 0.0 0.0 0.0 0.0 0.0
0.0 0.0 0.0 0.0 0.0 0.0 0.0 0.0
0.0 0.0 0.0 0.0 0.0 0.0 0.0 0.0
0.0 0.0 0.0 0.0 0.0 0.0 0.0 0.0
0.0 0.0 0.0 0.0 0.0 0.0 0.0 0.0
0.0 0.0 0.0 0.0 0.0 0.0 0.0 0.0
0.0062961006 0.7356631 1.1957102e-10 0.034570854 1.0624788e-09 4.6476337e-10 2.3348667e-08 6.297642e-06
32.414764 1574.6929 8.981094e-07 123.56209 2.3042408e-05 2.1976079e-05 0.00038343063 6.0695834e-06
4.4947815e-06 0.0004085865 1.0307652e-13 2.2573759e-05 6.3069645e-13 2.2110116e-13 9.690533e-13 1.5041928e-09
1.6624705e-09 1.4229336e-07 4.967667e-07 4.172466e-05 1.1261787 1.0838151e-07 6.614039e-06 0.00027895227
7.732878e-06 0.0042201965 0.17759685 6.056197e-06 0.0030146174 0.19635083 6.220903e-12 9.9530904e-11
1.5483268e-07 1.0430133e-05 1.0430133e-05 98.02376 3.6671377e-15 1.4500462e-08 6.243526e-05 2.2461002e-09
5.8332562 27.604881 0.58172005 1.5825965 5.6443467 2.4133465 10.876384 1.8705836e-05
20488.354 44918.96 4620.3037 1594.8307 21250.994 14189.806 29859.98 4.043491e-07
0.0039986083 0.017510833 0.0008337857 0.0010739363 0.0034968161 0.0013894122 0.00776073 2.1537828e-06
2.5069132e-06 2.717624e-05 0.00021762369 0.00067867007 49.140305 4.3675722e-05 0.004909803 0.037374746
0.000117315416 0.09151671 0.16753599 1.1715323e-05 0.08311667 0.021878893 1.2494133e-08 2.1857453e-07
2.9450488e-05 0.0002214912 0.0002806218 165.58301 6.982703e-05 5.9846866e-06 0.00656675 4.3633077e-07
3.8723682e-15 1.119644e-14 4.1233445e-16 6.096585e-16 3.8465757e-15 1.6586064e-15 6.726401e-15 0.0
1.2932576e-11 2.0244553e-11 4.1803973e-12 2.854611e-13 1.3583703e-11 1.0871294e-11 1.6109284e-11 0.0
2.633536e-18 8.367034e-18 3.857516e-19 4.834051e-19 2.6773762e-18 9.303333e-19 4.629436e-18 2.1529583e-21
2.3274013e-21 1.7213469e-20 1.4217013e-19 1.4217013e-19 3.3153588e-14 3.3505135e-20 5.238333e-18 3.0366998e-17
8.079171e-20 3.147607e-17 9.128885e-17 7.482684e-21 2.5833214e-17 9.732351e-18 2.517519e-25 2.0283827e-24
1.9403012e-22 1.4199164e-19 1.4199164e-19 3.3123593e-14 1.7975996e-22 1.1659848e-21 1.6218535e-19 4.920243e-23
0.0 0.0 0.0 0.0 0.0 0.0 0.0 0.0
0.0 0.0 0.0 0.0 0.0 0.0 0.0 0.0
00000000: 0000 0000 0000 0000 0000 0000 0000 0000
00000010: 0000 0000 0000 0000 0000 0000 0000 0000
00000020: 0000 0000 0000 0000 0000 0000 0000 0000
00000030: 0000 0000 0000 0000 0000 0000 0000 0000
00000040: 0000 0000 0000 0000 0000 0000 0000 0000
00000050: 0000 0000 0000 0000 0000 0000 0000 0000
00000060: 0000 0000 0000 0000 0000 0000 0000 0000
00000070: 0000 0000 0000 0000 0000 0000 0000 0000
00000080: 0000 0000 0000 0000 0000 0000 0000 0000
00000090: 0000 0000 0000 0000 0000 0000 0000 0000
000000a0: 0000 0000 0000 0000 0000 0000 0000 0000
000000b0: 0000 0000 0000 0000 0000 0000 0000 0000
000000c0: 0000 0000 0000 0000 0000 0000 0000 0000
000000d0: 0000 0000 0000 0000 0000 0000 0000 0000
000000e0: 0000 0000 0000 0000 0000 0000 0000 0000
000000f0: 0000 0000 0000 0000 0000 0000 0000 0000
00000100: 0000 0000 0000 0000 0000 0000 0000 0000
00000110: 0000 0000 0000 0000 0000 0000 0000 0000
00000120: 0000 0000 0000 0000 0000 0000 0000 0000
00000130: 0000 0000 0000 0000 0000 0000 0000 0000
00000140: 0000 0000 0000 0000 0000 0000 0000 0000
00000150: 0000 0000 0000 0000 0000 0000 0000 0000
00000160: 0000 0000 0000 0000 0000 0000 0000 0000
00000170: 0000 0000 0000 0000 0000 0000 0000 0000
00000180: 854f ce3b 6b54 3c3f 4078 032f 2b9a 0d3d
00000190: a606 9230 a181 ff2f 4390 c832 5550 d336
000001a0: b8a8 0142 2cd6 c444 9c15 7135 ca1f f742
000001b0: 324b c137 4559 b837 3007 c939 53a9 cb36
000001c0: e1d1 9636 8d37 d639 911b e829 c75c bd37
000001d0: 7886 312b 12f0 782a d361 882b 14bc ce30
000001e0: fb7c e430 4dc9 1834 8c59 0535 8301 2f38
000001f0: a026 903f 5ebf e833 2aee dd36 5740 9239
00000200: 75bc 0137 9349 8a3b f3db 353e 5636 cb36
00000210: e390 453b 3110 493e eae0 da2c ebde da2e
00000220: 1540 2634 15fd 2e37 15fd 2e37 2a0c c442
00000230: 601f 8427 b51d 7932 adef 8238 d059 1a31
00000240: 09aa ba40 ccd6 dc41 9beb 143f 8692 ca3f
00000250: 7d9e b440 4574 1a40 ab05 2e41 7aea 9c37
00000260: b510 a046 f676 2f47 6e62 9045 955a c744
00000270: fd05 a646 39b7 5d46 f647 e946 5115 d934
00000280: c206 833b e172 8f3c 6992 5a3a 53c3 8c3a
00000290: d72a 653b f01c b63a b94d fe3b b589 1036
000002a0: 713c 2836 88f8 e337 ea31 6439 c7e8 313a
000002b0: ac8f 4442 7330 3738 6ae2 a03b 4316 193d
000002c0: 3c07 f638 1d6d bb3d 8e8e 2b3e ee8c 4437
000002d0: 1339 aa3d 5d3b b33c c7a5 5632 4fb1 6a34
000002e0: 710c f737 1740 6839 6c20 9339 4095 2543
000002f0: 1a70 9238 11d0 c836 e42d d73b d840 ea34
00000300: 4b84 8b27 77b2 4928 d3b1 ed25 dbb8 2f26
00000310: 6696 8a27 c707 ef26 1958 f227 0000 0000
00000320: 2583 632d ae12 b22d ac15 932c 48b3 a02a
00000330: 8ff7 6e2d f53f 3f2d e2b2 8d2d 0000 0000
00000340: 1752 4222 3358 1a23 22b5 e320 0fad 0e21
00000350: 358e 4522 004b 8921 c9cb aa22 45ac 221d
00000360: 7dda 2f1d 9d93 a21e 49d8 2720 49d8 2720
00000370: 7c4f 1529 3939 1e1f a842 c122 060b 0c24
00000380: 98c3 be1f 6228 1124 6d7f d224 0a58 0d1e
00000390: f444 ee23 ba87 3323 aed3 9b16 42f0 1c18
000003a0: 6a91 6a1b 57a2 2720 57a2 2720 e72c 1529
000003b0: 0351 591b da32 b01c 8479 3f20 a8ed 6d1a
000003c0: 0000 0000 0000 0000 0000 0000 0000 0000
000003d0: 0000 0000 0000 0000 0000 0000 0000 0000
000003e0: 0000 0000 0000 0000 0000 0000 0000 0000
000003f0: 0000 0000 0000 0000 0000 0000 0000 0000

exp_avg f4 [128]
0.0 0.0 6e-45 6e-45 6e-45 0.0 6e-45 6e-45
6e-45 -0.0013123399 0.0 6e-45 0.0 6e-45 6e-45 -2.8251218e-08
2.9489993e-07 6e-45 -0.0017639396 -0.00057317264 6e-45 6e-45 0.0 6e-45
6e-45 6e-45 6e-45 6e-45 6e-45 6e-45 6e-45 0.0
0.0 6e-45 -0.00032000375 -0.00085045875 -0.001611691 6e-45 6e-45 6e-45
6e-45 -6e-45 6e-45 6e-45 -0.0005302494 0.0 0.0 0.0
8.391498e-16 0.0 0.0014577569 6e-45 0.0 6e-45 -0.00221179 -6e-45
9.686661e-08 6e-45 6e-45 0.0 6e-45 -0.0015727156 0.0 6e-45
0.0 6e-45 0.0019840142 6e-45 6e-45 6e-45 6e-45 0.0
6e-45 6e-45 -0.0017348196 6e-45 2.184943e-06 0.0 0.00017190914 6e-45
6e-45 -0.0007944072 0.0 -6e-45 6e-45 0.0 6e-45 1.4955252e-07
0.0 6e-45 2.5652145e-07 6e-45 6e-45 6e-45 6e-45 6e-45
6e-45 0.0 0.0 0.0 6e-45 6e-45 6e-45 0.0
6e-45 6e-45 -6e-45 4.5901058e-14 0.0 6e-45 6e-45 6e-45
1.2005323e-07 6e-45 6e-45 0.0 0.0 7.816248e-12 6e-45 6e-45
6e-45 0.0 -7.919758e-08 -0.0022499752 0.0006668926 1.462104e-07 6e-45 6e-45
00000000: 0000 0000 0000 0000 0400 0000 0400 0000
00000010: 0400 0000 0000 0000 0400 0000 0400 0000
00000020: 0400 0000 d202 acba 0000 0000 0400 0000
00000030: 0000 0000 0400 0000 0400 0000 16ad f2b2
00000040: bd52 9e34 0400 0000 fe33 e7ba f740 16ba
00000050: 0400 0000 0400 0000 0000 0000 0400 0000
00000060: 0400 0000 0400 0000 0400 0000 0400 0000
00000070: 0400 0000 0400 0000 0400 0000 0000 0000
00000080: 0000 0000 0400 0000 2dc6 a7b9 52f1 5eba
00000090: 603f d3ba 0400 0000 0400 0000 0400 0000
000000a0: 0400 0000 0400 0080 0400 0000 0400 0000
000000b0: 6f00 0bba 0000 0000 0000 0000 0000 0000
000000c0: 54de 7126 0000 0000 3412 bf3a 0400 0000
000000d0: 0000 0000 0400 0000 aef3 10bb 0400 0080
000000e0: fb04 d033 0400 0000 0400 0000 0000 0000
000000f0: 0400 0000 9423 ceba 0000 0000 0400 0000
00000100: 0000 0000 0400 0000 3c06 023b 0400 0000
00000110: 0400 0000 0400 0000 0400 0000 0000 0000
00000120: 0400 0000 0400 0000 e362 e3ba 0400 0000
00000130: 09a1 1236 0000 0000 8242 3439 0400 0000
00000140: 0400 0000 c43f 50ba 0000 0000 0400 0080
00000150: 0400 0000 0000 0000 0400 0000 af94 2034
00000160: 0000 0000 0400 0000 0ab8 8934 0400 0000
00000170: 0400 0000 0400 0000 0400 0000 0400 0000
00000180: 0400 0000 0000 0000 0000 0000 0000 0000
00000190: 0400 0000 0400 0000 0400 0000 0000 0000
000001a0: 0400 0000 0400 0000 0400 0080 51b8 4e29
000001b0: 0000 0000 0400 0000 0400 0000 0400 0000
000001c0: fbe7 0034 0400 0000 0400 0000 0000 0000
000001d0: 0000 0000 4081 092d 0400 0000 0400 0000
000001e0: 0400 0000 0000 0000 5413 aab3 5274 13bb
000001f0: 68d2 2e3a 02fe 1c34 0400 0000 0400 0000

exp_avg_sq f4 [128]
0.0 0.0 1.0430133e-05 0.0003058701 1.4217013e-19 0.0 2.3858625e-13 1.9941727e-19
7.7106865e-13 0.012638034 0.0 0.0016952283 0.0 1.6592296e-19 1.2637195e-12 0.00021193833
0.026681796 3.8558363e-13 0.00896823 0.00943383 6.921872e-14 1.0443049e-09 0.0 1.1574606e-18
1.6389374e-06 1.1363262e-17 0.0007893917 3.7281307e-12 4.8225673e-15 3.7200223e-13 8.6424635e-15 0.0
0.0 3.5004563e-17 0.003885777 0.0022637222 0.008513022 2.7791416e-06 0.00061391015 6.9913164e-14
4.9145786e-20 6.575646e-18 1.3018111e-09 9.2467806e-20 0.008738017 0.0 0.0 0.0
0.00050150836 0.0 0.008615247 1.2460164e-06 0.0 5.0039707e-24 0.011977012 1.2910392e-17
0.0070150117 3.8844186e-18 2.8580065e-05 0.0 8.1218886e-11 0.005918153 0.0 1.6410089e-17
0.0 7.003633e-14 0.011174992 1.034968e-09 5.728973e-13 6.648853e-06 5.8806813e-18 0.0
7.609278e-11 6.215494e-17 0.009156122 6.6057804e-10 0.04123966 0.0 0.012454787 1.671801e-14
0.00025610498 0.0021244725 0.0 8.697543e-14 1.2367583e-10 0.0 1.4540957e-09 0.01001332
0.0 7.919328e-15 0.01830122 2.237663e-22 1.2320941e-10 6.0140815e-17 9.185198e-13 4.810203e-10
1.7231098e-12 0.0 0.0 0.0 2.4372243e-16 5.034356e-21 1.0066364e-16 0.0
3.6831261e-06 9.474246e-10 9.679328e-13 0.00022420875 0.0 3.1274921e-15 3.4024977e-16 3.173274e-16
0.0042177225 3.7762832e-13 1.2162485e-12 0.0 0.0 3.6074234e-05 6.947303e-11 1.56544e-13
1.4978272e-09 0.0 0.00074803195 0.01615554 0.0047468147 0.008459758 1.7662695e-17 7.238405e-18
00000000: 0000 0000 0000 0000 15fd 2e37 315d a039
00000010: 49d8 2720 0000 0000 e74f 862a 2c6e 6b20
00000020: 5a09 592b c20f 4f3c 0000 0000 6c32 de3a
00000030: 0000 0000 23e3 4320 4bda b12b c33b 5e39
00000040: c893 da3c 7510 d92a 7cef 123c 5a90 1a3c
00000050: e0dd 9b29 3687 8f30 0000 0000 a0cf aa21
00000060: 76f9 db35 7d9d 5123 2eef 4e3a 042c 832c
00000070: 55c0 ad27 2c6b d12a 54b0 1b28 0000 0000
00000080: 0000 0000 186e 2124 85a8 7e3b f55a 143b
00000090: 347a 0b3c 4a81 3a36 d0ee 203a 326e 9d29
000000a0: 9c15 681f 3899 f222 68eb b230 5c55 da1f
000000b0: e629 0f3c 0000 0000 0000 0000 0000 0000
000000c0: a877 033a 0000 0000 f726 0d3c cc3c a735
000000d0: 0000 0000 ed94 c118 3b3b 443c 9a27 6e23
000000e0: 2fde e53b 4c4f 8f22 39bf ef37 0000 0000
000000f0: 2b9a b22e 11ed c13b 0000 0000 3a5b 9723
00000100: 0000 0000 32b5 9d29 5017 373c b33e 8e30
00000110: 9a41 212b 3619 df36 77f5 d822 0000 0000
00000120: 6d54 a72e cd51 8f24 8f03 163c 0c94 3530
00000130: ebea 283d 0000 0000 2a0f 4c3c 1b95 9628
00000140: d445 8639 bc3a 0b3b 0000 0000 ecd9 c329
00000150: a7fb 072f 0000 0000 72d9 c730 e80e 243c
00000160: 0000 0000 74a9 0e28 71ec 953c 2842 871b
00000170: 5e78 072f dfac 8a24 2a45 812b cb38 0430
00000180: 9381 f22b 0000 0000 0000 0000 0000 0000
00000190: 157f 8c25 4e31 be1d 531d e824 0000 0000
000001a0: a02b 7736 8a36 8230 7439 882b 9419 6b39
000001b0: 0000 0000 0c5c 6127 0124 c425 42ed b625
000001c0: d234 8a3b fa95 d42a f82b ab2b 0000 0000
000001d0: 0000 0000 6a4e 1738 d7c5 982e bc40 302a
000001e0: 1cdc cd30 0000 0000 9317 443a 9f58 843c
000001f0: 2b8b 9b3b cc9a 0a3c dce8 a223 6786 0523

exp_avg f4 [64, 128]
0.0 0.0 6e-45 -6e-45 -6e-45 0.0 6e-45 -6e-45
6e-45 6e-45 0.0 6e-45 0.0 -6e-45 6e-45 6e-45
6e-45 6e-45 6e-45 6e-45 -6e-45 -6e-45 0.0 6e-45
6e-45 -6e-45 6e-45 -6e-45 -6e-45 6e-45 6e-45 0.0
0.0 -6e-45 -6e-45 6e-45 6e-45 6e-45 6e-45 -6e-45
6e-45 0.0 6e-45 6e-45 6e-45 0.0 0.0 0.0
6e-45 0.0 6e-45 6e-45 0.0 -6e-45 6e-45 6e-45
6e-45 6e-45 6e-45 0.0 -6e-45 6e-45 0.0 6e-45
0.0 6e-45 6e-45 -6e-45 -6e-45 6e-45 -6e-45 0.0
6e-45 -6e-45 6e-45 6e-45 6e-45 0.0 6e-45 6e-45
6e-45 6e-45 0.0 6e-45 0.0 0.0 6e-45 6e-45
0.0 -6e-45 6e-45 6e-45 6e-45 0.0 6e-45 6e-45
6e-45 0.0 0.0 0.0 -6e-45 6e-45 -6e-45 0.0
6e-45 6e-45 6e-45 6e-45 0.0 6e-45 -6e-45 -6e-45
6e-45 6e-45 6e-45 0.0 0.0 6e-45 6e-45 -6e-45
6e-45 0.0 6e-45 6e-45 -6e-45 6e-45 -6e-45 6e-45
0.0 0.0 0.0 6e-45 0.0 0.0 0.0 0.0
0.0 6e-45 0.0 6e-45 0.0 0.0 0.0 6e-45
0.0 0.0 6e-45 0.0 0.0 6e-45 0.0 0.0
0.0 0.0 6e-45 0.0 0.0 0.0 0.0 0.0
0.0 0.0 6e-45 6e-45 6e-45 0.0 0.0 0.0
0.0 0.0 0.0 0.0 0.0 0.0 0.0 0.0
6e-45 0.0 6e-45 0.0 0.0 0.0 6e-45 0.0
0.0 0.0 0.0 0.0 0.0 6e-45 0.0 0.0
0.0 0.0 6e-45 6e-45 0.0 0.0 0.0 0.0
0.0 0.0 6e-45 6e-45 6e-45 0.0 6e-45 0.0
6e-45 6e-45 0.0 0.0 0.0 0.0 0.0 6e-45
0.0 0.0 0.0 0.0 0.0 0.0 0.0 0.0
0.0 0.0 0.0 0.0 0.0 0.0 0.0 0.0
0.0 0.0 0.0 6e-45 0.0 0.0 0.0 0.0
0.0 0.0 0.0 0.0 0.0 0.0 0.0 0.0
0.0 0.0 0.0 6e-45 6e-45 0.0 0.0 0.0
00000000: 0000 0000 0000 0000 0400 0000 0400 0080
00000010: 0400 0080 0000 0000 0400 0000 0400 0080
00000020: 0400 0000 0400 0000 0000 0000 0400 0000
00000030: 0000 0000 0400 0080 0400 0000 0400 0000
00000040: 0400 0000 0400 0000 0400 0000 0400 0000
00000050: 0400 0080 0400 0080 0000 0000 0400 0000
00000060: 0400 0000 0400 0080 0400 0000 0400 0080
00000070: 0400 0080 0400 0000 0400 0000 0000 0000
00000080: 0000 0000 0400 0080 0400 0080 0400 0000
00000090: 0400 0000 0400 0000 0400 0000 0400 0080
000000a0: 0400 0000 0000 0000 0400 0000 0400 0000
000000b0: 0400 0000 0000 0000 0000 0000 0000 0000
000000c0: 0400 0000 0000 0000 0400 0000 0400 0000
000000d0: 0000 0000 0400 0080 0400 0000 0400 0000
000000e0: 0400 0000 0400 0000 0400 0000 0000 0000
000000f0: 0400 0080 0400 0000 0000 0000 0400 0000
00000100: 0000 0000 0400 0000 0400 0000 0400 0080
00000110: 0400 0080 0400 0000 0400 0080 0000 0000
00000120: 0400 0000 0400 0080 0400 0000 0400 0000
00000130: 0400 0000 0000 0000 0400 0000 0400 0000
00000140: 0400 0000 0400 0000 0000 0000 0400 0000
00000150: 0000 0000 0000 0000 0400 0000 0400 0000
00000160: 0000 0000 0400 0080 0400 0000 0400 0000
00000170: 0400 0000 0000 0000 0400 0000 0400 0000
00000180: 0400 0000 0000 0000 0000 0000 0000 0000
00000190: 0400 0080 0400 0000 0400 0080 0000 0000
000001a0: 0400 0000 0400 0000 0400 0000 0400 0000
000001b0: 0000 0000 0400 0000 0400 0080 0400 0080
000001c0: 0400 0000 0400 0000 0400 0000 0000 0000
000001d0: 0000 0000 0400 0000 0400 0000 0400 0080
000001e0: 0400 0000 0000 0000 0400 0000 0400 0000
000001f0: 0400 0080 0400 0000 0400 0080 0400 0000
00000200: 0000 0000 0000 0000 0000 0000 0400 0000
00000210: 0000 0000 0000 0000 0000 0000 0000 0000
00000220: 0000 0000 0400 0000 0000 0000 0400 0000
00000230: 0000 0000 0000 0000 0000 0000 0400 0000
00000240: 0000 0000 0000 0000 0400 0000 0000 0000
00000250: 0000 0000 0400 0000 0000 0000 0000 0000
00000260: 0000 0000 0000 0000 0400 0000 0000 0000
00000270: 0000 0000 0000 0000 0000 0000 0000 0000
00000280: 0000 0000 0000 0000 0400 0000 0400 0000
00000290: 0400 0000 0000 0000 0000 0000 0000 0000
000002a0: 0000 0000 0000 0000 0000 0000 0000 0000
000002b0: 0000 0000 0000 0000 0000 0000 0000 0000
000002c0: 0400 0000 0000 0000 0400 0000 0000 0000
000002d0: 0000 0000 0000 0000 0400 0000 0000 0000
000002e0: 0000 0000 0000 0000 0000 0000 0000 0000
000002f0: 0000 0000 0400 0000 0000 0000 0000 0000
00000300: 0000 0000 0000 0000 0400 0000 0400 0000
00000310: 0000 0000 0000 0000 0000 0000 0000 0000
00000320: 0000 0000 0000 0000 0400 0000 0400 0000
00000330: 0400 0000 0000 0000 0400 0000 0000 0000
00000340: 0400 0000 0400 0000 0000 0000 0000 0000
00000350: 0000 0000 0000 0000 0000 0000 0400 0000
00000360: 0000 0000 0000 0000 0000 0000 0000 0000
00000370: 0000 0000 0000 0000 0000 0000 0000 0000
00000380: 0000 0000 0000 0000 0000 0000 0000 0000
00000390: 0000 0000 0000 0000 0000 0000 0000 0000
000003a0: 0000 0000 0000 0000 0000 0000 0400 0000
000003b0: 0000 0000 0000 0000 0000 0000 0000 0000
000003c0: 0000 0000 0000 0000 0000 0000 0000 0000
000003d0: 0000 0000 0000 0000 0000 0000 0000 0000
000003e0: 0000 0000 0000 0000 0000 0000 0400 0000
000003f0: 0400 0000 0000 0000 0000 0000 0000 0000

exp_avg_sq f4 [64, 128]
0.0 0.0 5.593416e-06 1.6453903e-08 6.6330525e-16 0.0 3.1798427e-14 4.3540777e-14
6.5059345e-07 0.5307691 0.0 2.1111334e-06 0.0 2.2803298e-13 3.7159846e-12 0.02577371
0.29494977 3.3215758e-07 1.5960066 0.5645189 9.034803e-08 5.651044e-13 0.0 8.6572046e-14
9.84578e-06 2.193647e-13 6.483821e-07 1.0448939e-08 4.7532605e-13 9.742883e-18 1.8859592e-09 0.0
0.0 1.9426759e-13 6.153372e-09 0.522726 0.22716136 5.714598e-06 1.2162249e-06 1.957799e-11
2.3646592e-14 0.0 3.691436e-06 8.255851e-15 0.9248766 0.0 0.0 0.0
3.8290543e-07 0.0 1.9683484e-12 1.8520452e-06 0.0 1.8473146e-22 0.797956 3.1453435e-18
0.015438523 1.917501e-16 3.4019897e-07 0.0 5.192054e-13 0.87322855 0.0 2.802875e-15
0.0 6.7646186e-14 8.7550696e-08 7.1092093e-10 7.777842e-09 4.3845803e-06 3.3803378e-16 0.0
1.4843454e-09 3.0192667e-15 0.44279498 1.563145e-12 0.20006327 0.0 0.032596275 6.9373647e-12
1.8998333e-05 0.19834472 0.0 8.98348e-09 0.0 0.0 1.5173824e-05 1.1940455
0.0 3.5107708e-13 0.16133006 2.3956515e-17 1.8690807e-09 0.0 1.0713458e-07 2.2511392e-08
1.1576738e-06 0.0 0.0 0.0 1.8663374e-12 1.4981046e-16 5.297394e-14 0.0
8.66557e-06 2.8607512e-06 2.8477754e-07 3.758372e-07 0.0 6.843996e-13 3.104086e-13 5.1465593e-10
0.19025928 6.999544e-08 2.5457662e-06 0.0 0.0 5.541846e-06 4.4812682e-09 4.52041e-14
1.2985134e-08 0.0 0.003863982 0.66224915 6.537269e-09 0.12594052 8.717272e-19 9.867438e-20
0.0 0.0 0.0 6.549703e-05 0.0 0.0 0.0 0.0
0.0 0.0004436582 0.0 0.0003845365 0.0 0.0 0.0 2.7208384e-06
0.0 0.0 0.00012861176 0.0 0.0 7.342116e-05 0.0 0.0
0.0 0.0 1.5537653e-05 0.0 0.0 0.0 0.0 0.0
0.0 0.0 6.952884e-05 0.00016114577 9.10079e-05 0.0 0.0 0.0
0.0 0.0 0.0 0.0 0.0 0.0 0.0 0.0
0.00026793676 0.0 0.0003741424 0.0 0.0 0.0 0.00047220764 0.0
0.0 0.0 0.0 0.0 0.0 0.00045489505 0.0 0.0
0.0 0.0 3.624481e-05 1.3774098e-05 0.0 0.0 0.0 0.0
0.0 0.0 9.9854615e-06 0.00044312523 8.601842e-06 0.0 9.42691e-06 0.0
0.00041492243 0.00044915968 0.0 0.0 0.0 0.0 0.0 5.066741e-05
0.0 0.0 0.0 0.0 0.0 0.0 0.0 0.0
0.0 0.0 0.0 0.0 0.0 0.0 0.0 0.0
0.0 0.0 0.0 9.807273e-05 0.0 0.0 0.0 0.0
0.0 0.0 0.0 0.0 0.0 0.0 0.0 0.0
0.0 0.0 0.0 0.00010011779 0.00018917656 0.0 0.0 0.0
00000000: 0000 0000 0000 0000 14af bb36 8456 8d32
00000010: 4a2f 3f26 0000 0000 1735 0f29 1917 4429
00000020: 71a4 2e35 7ce0 073f 0000 0000 ffac 0d36
00000030: 0000 0000 045f 802a 9dbe 822c 6323 d33c
00000040: a803 973e 6453 b234 f249 cc3f 5084 103f
00000050: 5b05 c233 1010 1f2b 0000 0000 63f1 c229
00000060: 4e2f 2537 92fb 762a 7b0c 2e35 eb82 3332
00000070: daca 052b 77b9 3323 259a 0131 0000 0000
00000080: 0000 0000 d2b9 5a2a a26d d331 5fd1 053f
00000090: fd9c 683e 06c0 bf36 2b3d a335 b735 ac2d
000000a0: 54fd d428 0000 0000 63ba 7736 65b9 1428
000000b0: b6c4 6c3f 0000 0000 0000 0000 0000 0000
000000c0: 1f92 cd34 0000 0000 9d82 0a2c ca93 f835
000000d0: 0000 0000 9e53 5f1b d846 4c3f dc15 6822
000000e0: dcf1 7c3c a412 5d25 97a4 b634 0000 0000
000000f0: b124 122b e88b 5f3f 0000 0000 ebf7 4927
00000100: 0000 0000 5f53 9829 8103 bc33 9d6a 4330
00000110: 509f 0532 421f 9336 fbdc c225 0000 0000
00000120: c301 cc30 a48f 5927 06b6 e23e 3cfe db2b
00000130: 63dd 4c3e 0000 0000 ac83 053d 3a16 f42c
00000140: 9c5e 9f37 e11a 4b3e 0000 0000 c355 1a32
00000150: 0000 0000 0000 0000 1493 7e37 7cd6 983f
00000160: 0000 0000 8aa3 c52a b533 253e b9f5 dc23
00000170: 3771 0031 0000 0000 dc11 e633 135f c132
00000180: 5e61 9b35 0000 0000 0000 0000 0000 0000
00000190: f254 032c 3eb8 2c25 cb92 6e29 0000 0000
000001a0: 5762 1137 55fb 3f36 87e3 9834 acc6 c934
000001b0: 0000 0000 30a4 402b 98be ae2a b177 0d30
000001c0: 54d3 423e 6650 9633 eed7 2a36 0000 0000
000001d0: 0000 0000 18f4 b936 a7f9 9931 c794 4b29
000001e0: 3915 5f32 0000 0000 dc3a 7d3b 2989 293f
000001f0: 6d9e e031 8df6 003e eca4 8021 01fd e81f
00000200: 0000 0000 0000 0000 0000 0000 735b 8938
00000210: 0000 0000 0000 0000 0000 0000 0000 0000
00000220: 0000 0000 cc9a e839 0000 0000 9e9b c939
00000230: 0000 0000 0000 0000 0000 0000 a697 3636
00000240: 0000 0000 0000 0000 f5db 0639 0000 0000
00000250: 0000 0000 aff9 9938 0000 0000 0000 0000
00000260: 0000 0000 0000 0000 db56 8237 0000 0000
00000270: 0000 0000 0000 0000 0000 0000 0000 0000
00000280: 0000 0000 0000 0000 03d0 9138 3df9 2839
00000290: 7fdb be38 0000 0000 0000 0000 0000 0000
000002a0: 0000 0000 0000 0000 0000 0000 0000 0000
000002b0: 0000 0000 0000 0000 0000 0000 0000 0000
000002c0: dd79 8c39 0000 0000 8b28 c439 0000 0000
000002d0: 0000 0000 0000 0000 a392 f739 0000 0000
000002e0: 0000 0000 0000 0000 0000 0000 0000 0000
000002f0: 0000 0000 fb7e ee39 0000 0000 0000 0000
00000300: 0000 0000 0000 0000 9205 1838 4d17 6737
00000310: 0000 0000 0000 0000 0000 0000 0000 0000
00000320: 0000 0000 0000 0000 3b87 2737 4353 e839
00000330: a150 1037 0000 0000 4528 1e37 0000 0000
00000340: f289 d939 317d eb39 0000 0000 0000 0000
00000350: 0000 0000 0000 0000 0000 0000 b883 5438
00000360: 0000 0000 0000 0000 0000 0000 0000 0000
00000370: 0000 0000 0000 0000 0000 0000 0000 0000
00000380: 0000 0000 0000 0000 0000 0000 0000 0000
00000390: 0000 0000 0000 0000 0000 0000 0000 0000
000003a0: 0000 0000 0000 0000 0000 0000 65ac cd38
000003b0: 0000 0000 0000 0000 0000 0000 0000 0000
000003c0: 0000 0000 0000 0000 0000 0000 0000 0000
000003d0: 0000 0000 0000 0000 0000 0000 0000 0000
000003e0: 0000 0000 0000 0000 0000 0000 54f6 d138
000003f0: b25d 4639 0000 0000 0000 0000 0000 0000
