src/model_data/United_States_model.pth (torch, 197707 bytes, 21 tensors)

net.0.weight f4 [128, 48]
00000000: 889d dd3d d5d8 6abd 450f f0bc 5342 6d3d
00000010: 65bd 4dbd 0c35 eabb 349e 343e b313 ecbc
00000020: 6fa4 f1bd 9747 2b3d 1936 1a3d f4d8 aabd
00000030: 803b f33d 12b2 e2bc 47dc a13d 87e5 623e
00000040: 6125 3e3c 5498 4f3c dff8 2f3e 74ea 39bd
00000050: 98c4 ca3d d9e4 443e f8dc 81bd d23a f2bc
00000060: 4da0 03bd 01a6 aabd ecb1 dcbd d7bb 28bd
00000070: 3253 98bd 4065 0b3e 1148 0b3d afa4 cdbd
00000080: 99ea 743d ccc7 eebd 1c39 b03c e913 fbbd
00000090: 9738 833c 8d25 10be 2999 f3bb cd9a 5e3e
000000a0: 66e7 983d d2e7 00bd 81fd 3b3e e7b4 23be
000000b0: e750 c3be 6eb7 26be 70b7 8abe aa2f 15bd
000000c0: 82e5 d4bd 4c94 01bd caaa 323e 54f6 30be
000000d0: 54c0 043e 588d 17be 807e fb3d a2b7 b03b
000000e0: b147 053e 35cd 993d db2e 57bd 3156 0ebe
000000f0: 0731 94bd 7b39 09bd 4c4f 69bc 280b adbd
00000100: 0b11 83bc a02d 973d 2bc3 9dbc 5f86 c53d
00000110: 36b9 21be 2d96 493e a7b9 113e af85 d33d
00000120: 2f2e 2b3d 930b a73d 25c1 21bd 4b96 54be
00000130: 2a1f 29be 1408 4bbe c43a 33be 5168 97bd
00000140: 7f3c c3bd 09f5 19be 8fb5 113b 4d43 07be
00000150: 4919 5dbe 9e26 48bd 4700 5cbd 3d2d eabc
00000160: 499a fb3d e7e8 2b3e c8fb 473e 6b49 3e3e
00000170: e445 55be 542d 5cbe 25b5 a8be 82fe 91be
00000180: df2e c73d 858d fb3d 3807 e23d 7c00 963b
00000190: e83a b63c 456f 3bbe 49cf 07be 0158 0e3a
000001a0: 5290 3abe a058 c7bc 2c52 223e a888 8f3c
000001b0: 0640 f4bd d923 34bd cdec b8bd 320a 1fbe
000001c0: 7b59 323e 4130 05be d87d d4bd 4fa5 bdbd
000001d0: 55ea cfbd 51bb f2bd 697f f73d a8dd 1ebe
000001e0: 3180 283e 9913 3bbd 1fa4 6e3d 619b 87bd
000001f0: 005b 21be 88ad 033e 3547 e2bd f557 94bd
00000200: 67a8 1bbe 32e1 2abe 7e5a 79bd 8c20 e83d
00000210: 973e 013e 6156 223e 00cc 2d3e 30b3 39be
00000220: 7191 a3bd 22e6 3a3e d159 d83d d76a 0dbd
00000230: 1ef5 283e c8b9 c03d 3ceb 9cbd e2e2 013e
00000240: 790e 923d bebf 173e 3784 8c3d 67e6 14be
00000250: 17b9 27bd 48f1 1fbe 4ae5 ce3d 4206 13be
00000260: c7ff 3cbe 54d8 d1bd 64d4 c43d 4705 563d
00000270: e71f 9fbd e805 c7bc e1bc e2bd 257c c03d
00000280: 9997 2bbc 23af fc3d d5cd b03c d88b 0dbd
00000290: fbb7 553c 88d3 863c 3291 12bd 33d7 2d3e
000002a0: 0dd0 2b3d 9e0b 0abe fec3 8f3d c069 af3d
000002b0: 57ac ecbc 84c6 e03d 391f 993c b375 873d
000002c0: 0ffa babd 777f b6bd 77ca 2f3c 334a 49bd
000002d0: 406b ab3d 8c22 153a ad5c de3c 0790 2b3c
000002e0: 38e2 213e 3a19 91bd 5e1f 3f3d 588f f7bc
000002f0: 23ad fdbd d798 9f3d 0754 a1bd b547 f2bd
00000300: 28c3 08be 77f5 f3bd 3aba 323e 4067 81bd
00000310: 28d8 54bd f3fb cdbd 526f f43d 79af adbe
00000320: 1a92 8c3b 5ffb 2fbe 48dc dc3c dbfb 0e3e
00000330: e0a9 12ba 1036 f73d 56b6 263e c633 2cbe
00000340: da50 4c3d 5292 fe3d 42bd 633e c0cf 303e
00000350: 0553 19be a031 f53c 25ad 483e 0d0b 0dbe
00000360: 6f16 a2bd 637c c63d e0ac d73d ec3f 78be
00000370: 7616 c4bd e3df 88bc 115d a63c d1b4 debc
00000380: f80b c2bd 5fd5 dfbd 3633 abbc 22d4 1dbe
00000390: 47cb fcbd 46fe d03c 48dc ba3d 6570 05ba
000003a0: 4552 ca3c a269 683e b5ee 8b3e 8486 0ebe
000003b0: 39e4 6abe 6176 0dbe dc3a 00bf 41ad 08be
000003c0: 9453 00be 115e 933d ec0b a0bd 8ce2 2c3e
000003d0: f776 483e 9ac3 88bc d805 0e3e 2012 86bf
000003e0: d1f3 0bbd 9108 10be fd0e 383d 7a70 17be
000003f0: 9481 433d 9859 773d 86c8 123e 3e4e a73d
0.10821062 -0.057335693 -0.029304156 0.05792458 -0.05022945 -0.007147437 0.17638475 -0.028817987
-0.11798941 0.04181632 0.037649248 -0.08342162 0.11876583 -0.027672801 0.07903343 0.2215787
0.0116055915 0.012670595 0.1718478 -0.045389608 0.099007785 0.19227923 -0.063409746 -0.029569063
-0.032135297 -0.08332444 -0.107761234 -0.041194763 -0.07437743 0.13612843 0.034004275 -0.100411765
0.059794042 -0.11659202 0.021511607 -0.12259657 0.016018195 -0.14076824 -0.0074340296 0.2173874
0.07466011 -0.03147108 0.18358423 -0.15986978 -0.3814766 -0.1628091 -0.27093077 -0.03642241
-0.10395338 -0.031635568 0.17447963 -0.17281467 0.12963992 -0.14800012 0.12279987 0.0053929845
0.1301563 0.07509843 -0.05253492 -0.13900067 -0.07235914 -0.033502083 -0.014240097 -0.084493935
-0.015999338 0.07381749 -0.019258102 0.0964477 -0.15793309 0.19686194 0.14230977 0.103282325
0.04179209 0.081565045 -0.039490838 -0.20760457 -0.16515794 -0.198273 -0.17502886 -0.07392944
-0.09533023 -0.1503488 0.0022233461 -0.13209267 -0.21591677 -0.048864953 -0.053711202 -0.028586024
0.12285287 0.16788064 0.1952964 0.18582694 -0.20827442 -0.21501666 -0.32950702 -0.28514487
0.09725737 0.12282852 0.11036533 0.0045776945 0.022244886 -0.18304165 -0.13262667 0.0005429984
-0.18219116 -0.024334252 0.15851659 0.017521217 -0.11926274 -0.0439795 -0.09029541 -0.15531233
0.17416947 -0.13006689 -0.10375565 -0.09260046 -0.10152117 -0.11852134 0.120848484 -0.15514243
0.16455151 -0.045672987 0.058261987 -0.06621433 -0.1575737 0.12859166 -0.11048738 -0.07243339
-0.15200959 -0.16687468 -0.060877316 0.11334333 0.12621532 0.15853263 0.16972351 -0.18134761
-0.07986725 0.18251851 0.10564006 -0.03452572 0.16499755 0.09410435 -0.07662055 0.12684205
0.07131667 0.14819238 0.068611555 -0.14541017 -0.040948 -0.15619385 0.10102327 -0.14357856
-0.18456946 -0.102463394 0.09610823 0.052251127 -0.07769757 -0.024294809 -0.11071182 0.09398679
-0.010473155 0.12338092 0.021582523 -0.034557194 0.013044353 0.016458288 -0.035783 0.16976623
0.04194646 -0.13480994 0.070198044 0.08565092 -0.028890772 0.10975364 0.018691646 0.06614246
-0.09129726 -0.08911031 0.010729424 -0.049143028 0.08370066 0.0005689047 0.0271438 0.0104713505
0.15808952 -0.0708489 0.046660773 -0.030219719 -0.12386539 0.07792824 -0.07877355 -0.11830083
-0.13355696 -0.11912053 0.17453852 -0.063185215 -0.051963955 -0.10057821 0.11935295 -0.33922938
0.0042898776 -0.17185734 0.026960507 0.13963263 -0.00055947714 0.120708585 0.16280493 -0.16816625
0.049881794 0.12430252 0.22240165 0.1726675 -0.14973076 0.02993089 0.195973 -0.13773747
-0.07914435 0.09691694 0.1053102 -0.24243134 -0.095745966 -0.01670832 0.02030805 -0.02718583
-0.09474939 -0.10929369 -0.020898443 -0.15412953 -0.123434596 0.025511872 0.091240466 -0.00050902955
0.024697432 0.22696546 0.27330557 -0.13918501 -0.22938623 -0.13814689 -0.5008981 -0.13347341
-0.12531883 0.07195676 -0.07814774 0.16883296 0.19576631 -0.016694833 0.13869417 -1.0474281
-0.03416807 -0.14065768 0.04493617 -0.14789 0.047730997 0.060388178 0.14334306 0.081692204

net.0.bias f4 [128]
00000000: b5db b9bc afad 44bd 0000 0000 0000 0000
00000010: e7bb 11bd fc56 7ebc b451 a5bc 12f6 12bd
00000020: e5be cebc a696 a4bc 9b97 3ebd 1186 ac3c
00000030: 0452 d13b f253 823c 133c 073c 83ab c4bb
00000040: 0000 0000 fa95 163c 0000 0000 5676 a63c
00000050: 3af5 00bd 094e 0fbd 2078 98bc bed7 bebc
00000060: fe89 163d 0000 0000 0b9f 14bc 0000 0000
00000070: ab7e de3b 957b 583b 0000 0000 e3a7 42bd
00000080: 35f0 01bd 9f61 f5bb bb32 3dbd 2792 67bd
00000090: 0000 0000 af86 ffbc cce0 19bd d482 62bc
000000a0: 0000 0000 001c eabc 5a37 053b 0000 0000
000000b0: 0000 0000 b44e 87bc e2f8 5abd 0000 0000
000000c0: 8b8f 8abc 617f 99bd e6f4 edbc 0000 0000
000000d0: 0000 0000 4c64 1c3b 46e3 fcbc 2ce7 c83c
000000e0: 0000 0000 241b 28bd abf8 b5bc 6693 2cbd
000000f0: 362d 0f3c 0000 0000 0a6a 913b 69f6 94bc
00000100: 16a4 97bc 0000 0000 d708 98bc a071 01bd
00000110: 0000 0000 6b63 f6bc 8c4c 8fbc 0000 0000
00000120: 78bf afbc 6263 20bd 4f53 32bd 6948 c73c
00000130: e54e 9e3c 1dbd fa3b 2c54 1b3c 3d64 2ebd
00000140: bb84 e3bc 0000 0000 74a9 e1bc 0000 0000
00000150: 2c1a d5bc 0000 0000 5dd6 3abc c867 583c
00000160: fce1 adbc 70f3 74bc e21e aa3b 6600 2cbd
00000170: bc49 373c f7a6 55bc 6c74 f7bb 2d5d 05ba
00000180: 05b2 463c 1fdc 17bd 9784 3bbc d928 5bbd
00000190: 6204 993c 1748 1fbd 0000 0000 91ca 3fbd
000001a0: 246c 0dbc c08a ebbc 39d1 54bd 0000 0000
000001b0: 0000 0000 5a7e 5bbc 3bfa 0d3c 688a cdbc
000001c0: 8391 b9bc d926 02bd 38a1 ae3b 2e7e 06bd
000001d0: 900e f9bc 0000 0000 0000 0000 8bb8 e83c
000001e0: cec7 0d3d 0000 0000 94b9 c8bb df1a 02bd
000001f0: 0bc9 08bd 4802 a9bb 7cdf a3bd caa8 503c
-0.022687772 -0.0480172 0.0 0.0 -0.03557959 -0.015523668 -0.02018056 -0.035879202
-0.02523751 -0.020091366 -0.0465313 0.021060022 0.006387951 0.015909169 0.008254069 -0.006001891
0.0 0.009191031 0.0 0.020320099 -0.031483866 -0.03498653 -0.018611968 -0.023296233
0.036752693 0.0 -0.009071122 0.0 0.0067900023 0.0033032645 0.0 -0.04752339
-0.03172322 -0.007488444 -0.04619096 -0.056535866 0.0 -0.031192152 -0.0375679 -0.013825137
0.0 -0.028577805 0.0020327182 0.0 0.0 -0.01651702 -0.05346001 0.0
-0.01691415 -0.07494999 -0.02904744 0.0 0.0 0.0023863493 -0.030870091 0.024524294
0.0 -0.04104151 -0.0222133 -0.042132758 0.0087388065 0.0 0.0044376897 -0.018183904
-0.01851086 0.0 -0.018558903 -0.031602502 0.0 -0.030076703 -0.017492555 0.0
-0.021453604 -0.03915728 -0.04353648 0.02432652 0.01932473 0.0076519386 0.009480517 -0.042576063
-0.027773252 0.0 -0.027546622 0.0 -0.026013456 0.0 -0.011403647 0.013208337
-0.021225922 -0.014950618 0.00519167 -0.041992567 0.011187013 -0.013040296 -0.0075517204 -0.00050874316
0.012127404 -0.03707516 -0.011445186 -0.053505752 0.018678848 -0.03888711 0.0 -0.04682404
-0.00863174 -0.028752685 -0.051957343 0.0 0.0 -0.013396824 0.008665617 -0.025090411
-0.022652393 -0.03177533 0.0053292774 -0.032835178 -0.030402452 0.0 0.0 0.02840831
0.034614377 0.0 -0.0061256383 -0.031763908 -0.033394855 -0.0051577426 -0.08001611 0.012735555

net.2.weight f4 [64, 128]
00000000: b8ed fe3d 48c1 183e 154b 85bd d71d f23d
00000010: c76e a33d 959d 3d3d ffa0 b03d 3814 ff3d
00000020: bf7c 383d e539 f73c 22bc 80bd ec3d ef3d
00000030: e7c5 863d 278b 003e b6c9 d6bc 1a53 dfbd
00000040: 6ec6 0b3d 4f9f ef3c 29fd 6d3d baaa 5b3d
00000050: cc1d c33d cca7 323e 282c f33d e771 0cbe
00000060: e736 ffbd 75f7 33be fd17 f83d dd02 27be
00000070: a959 26be bded be3d f32d 31be 3367 8dbc
00000080: b25d 03be edcf 093e f251 1bbb 9f7b 5e3d
00000090: 400a 253c 2f2c d9bd 32bf 13be e388 b6bd
000000a0: 8303 ccbd 53e4 f43d f6c9 e63d 3c9a 263e
000000b0: e40d e93d 5364 2a3d 1913 253e 2fc7 20bc
000000c0: 0dd7 9fbd 0cab 063e 59cf b0bd defa 87bb
000000d0: 90da a4bd 937e a33d e090 04bc a786 7a3c
000000e0: fdd7 82bd 625c cbbd bc15 2d3d 0939 f23c
000000f0: ce85 703d 0d28 ce3d 51cd 1d3d 50b3 c23d
00000100: d29e 83bd 206b 1ebe 0215 b4bd d6d1 223e
00000110: 2455 783a 48ce 873d 55bb dc3d 5b63 f3bd
00000120: fdb4 3a3e 5700 423d 536d 243e a006 093e
00000130: c0a5 94bd 30c5 15be 0a9a 6b3d 4d03 89bb
00000140: 403d 743d ab51 04be bfdb 74bd d054 0b3e
00000150: d6a2 383d d0d0 94bd f144 14be 1ce4 973d
00000160: 1ff8 afbb 3138 893d b8ea 1c3e 7e60 603d
00000170: 4889 4abe 7071 37bd 16b4 14bd 8a8f bebc
00000180: fc2e 14bd 50c4 e43b 752d 883d 99bc b7bd
00000190: c839 1f3e c2cd ec3d 177a 413c 3316 a03d
000001a0: 8beb 2b3e c6c9 863d 8a27 b4bd 1fc7 1f3e
000001b0: a0dd b9bd 54fe 133d ab2b 06bc 02a8 30be
000001c0: 246a 703c 6cf8 1fbe 7976 26bd c723 b8bd
000001d0: d3af a33d 97ad 363d ec75 2b3e ba81 0b3e
000001e0: 8a47 53bd 70db 1a3e 4e5e 00be 2cae 263e
000001f0: 39ed 1dbe 8e24 64bd 19bb f23d a214 0abb
00000200: f5e0 20be 1709 ad3c fff6 c73d 18ad 6abd
00000210: c70f 6d3d 91cd fdbc 7164 17be fd0e f2bd
00000220: 9351 c23d 8ab4 eabd 7f4c 093d b072 063e
00000230: e000 b33b 372a fa3d a8fa 1a3e 9f67 ae3c
00000240: 2f48 8cbb afe5 263c 9841 403d ef56 2bbe
00000250: 850c 063e 8f5b 0abe 6e71 13be c1d2 473d
00000260: 6bdd 9abb eec4 cc3d 2515 d4bb fdb5 afbd
00000270: d0cf f7bd ea3d 02be 2d6b 27be 0220 953c
00000280: c82a 983d 5921 383d 66a5 1abe 5eb3 00be
00000290: acb8 a7bd f906 203e dc0a 1abc 898f 81bc
000002a0: 2c77 093e 39b3 17be 2ea3 143e 6906 c33d
000002b0: b91a 983d 0ee2 04be b814 a8bd eaa2 d63d
000002c0: 0a7d 26be 47d0 0dbe 9340 823d 8c69 223d
000002d0: 696f 873d 76b0 37be 44ee e3bd 97a6 d93d
000002e0: 199b 15be ba5c d53d ddd0 9dbd d22a d0bd
000002f0: 78a2 62bd 3ed8 013e ad41 72bc 9510 05be
00000300: 4c95 cf3d 2973 fcbd 85c7 fbbd 018b 283e
00000310: bc13 2a3e fc3e babc 304a eebc ba11 86bb
00000320: e964 99bc 01b5 0bbe 467c c0bd b146 f53d
00000330: ef35 8fbd b2f7 11be 6f29 bb3d a25a 29bd
00000340: 8acb 36be 2faa fcbd 41f5 213d c894 913d
00000350: a218 133e 2b83 2839 7e6c b2bd a771 ee3a
00000360: 1c77 c1bd 1688 103d 4de3 1a3c 47b3 b83d
00000370: d292 43bd cb00 dcbd 8dd4 10ba 13ef 923d
00000380: 5a1f bd3c ca68 073e 9e90 59be 6a5a 393d
00000390: 9d9a f03d a17d 343d fca2 13be b1f1 083d
000003a0: 661e 293e 0954 52bd 378a 86bc f5d7 1cbe
000003b0: dc26 19be 0a11 bbbd f0ce 11be f82d 34be
000003c0: 6f01 85bd ac32 83bc f391 143e cec0 01be
000003d0: 3457 923d 23e3 02be 6c05 d9bc dc81 043e
000003e0: da8c b9bd 3150 cabd ac08 103e 038e cfbd
000003f0: e9a5 813d 9e23 89bd dfc2 d43d 51e0 f33d
0.12447685 0.14917481 -0.065084614 0.11822098 0.079801135 0.04629286 0.086244576 0.12455028
0.045040842 0.030178973 -0.062858835 0.116817325 0.065807156 0.12553082 -0.02621923 -0.10904522
0.034124784 0.029250769 0.05810276 0.053629614 0.09527168 0.17446822 0.118736565 -0.13715325
-0.12461644 -0.17574866 0.121139504 -0.16309686 -0.1624514 0.09322689 -0.17302684 -0.017261123
-0.1282871 0.13458224 -0.0023699966 0.054317113 0.010073245 -0.106041305 -0.14428404 -0.08912828
-0.09961607 0.11957612 0.1126899 0.16269773 0.113796026 0.041599583 0.16120566 -0.009813114
-0.078046896 0.13151187 -0.086332984 -0.0041497787 -0.080495 0.079831265 -0.0080911815 0.015290893
-0.06388853 -0.0992973 0.042257056 0.029568212 0.058721356 0.10066233 0.038525883 0.095068574
-0.06426777 -0.15470552 -0.087930694 0.15900359 0.0009473136 0.06631142 0.10777918 -0.11884185
0.18233104 0.047363605 0.16057329 0.13381433 -0.07258177 -0.14626002 0.05751995 -0.0041813017
0.059628725 -0.12921779 -0.05977988 0.13606572 0.045077167 -0.0726639 -0.14479424 0.07416555
-0.0053701545 0.06700171 0.15323913 0.054779522 -0.19778931 -0.044785917 -0.036304556 -0.023261804
-0.03617762 0.00698141 0.06649295 -0.08971519 0.15549386 0.11562683 0.011808894 0.07816734
0.16789071 0.06581454 -0.08796604 0.15603302 -0.09075475 0.036131218 -0.008189122 -0.1725159
0.014673743 -0.15622109 -0.040640328 -0.08991199 0.0799252 0.044599142 0.16744202 0.13623706
-0.051581897 0.15122771 -0.12535974 0.16277379 -0.15422525 -0.055698924 0.11852092 -0.0021069427
-0.15710814 0.021122498 0.09763908 -0.05729398 0.057876375 -0.03098181 -0.14784409 -0.11819265
0.09488215 -0.11460216 0.033520218 0.13129687 0.005462751 0.12215083 0.1513468 0.021289645
-0.004281066 0.010186597 0.046937555 -0.16732381 0.13090713 -0.1351149 -0.14398739 0.048784975
-0.004726102 0.09998499 -0.006472247 -0.085796334 -0.12100184 -0.12718931 -0.16349478 0.01820374
0.07430035 0.044953678 -0.15102157 -0.12568423 -0.0818952 0.1562766 -0.009402003 -0.015815513
0.13424367 -0.14814462 0.14515373 0.09522707 0.07426972 -0.12976858 -0.08207077 0.10480292
-0.16258636 -0.13848983 0.06359973 0.03965144 0.06613047 -0.17938408 -0.1112943 0.106274776
-0.14609946 0.10418077 -0.07705853 -0.10164417 -0.055330724 0.12680146 -0.014786166 -0.12994607
0.10135898 -0.123266526 -0.12293915 0.16459276 0.1660909 -0.022735111 -0.02908811 -0.0040914686
-0.018724876 -0.13643266 -0.09398703 0.11976374 -0.06992709 -0.14254645 0.09138762 -0.0413462
-0.17851081 -0.123371474 0.039540533 0.07108456 0.14364865 0.00016070592 -0.087120995 0.001819183
-0.094465464 0.03528603 0.009453607 0.090185694 -0.04774744 -0.10742339 -0.00055248366 0.07174506
0.023086239 0.13223568 -0.21246573 0.04525224 0.1174824 0.04406512 -0.14417642 0.03343362
0.16515502 -0.051349673 -0.016423328 -0.15316756 -0.1495623 -0.09134109 -0.14239097 -0.1759566
-0.06494414 -0.016015373 0.145088 -0.12671205 0.07145539 -0.12781958 -0.026491843 0.12940162
-0.090600684 -0.098785765 0.14065808 -0.101345085 0.06330473 -0.066962466 0.10388731 0.11908019

net.2.bias f4 [64]
00000000: 8ec9 c93c 3223 1ebc 0000 0000 be38 42bc
00000010: 5045 c1bc 0000 0000 0000 0000 0000 0000
00000020: 0d98 ecbb a595 a53c 581a a4bc 8333 d8bc
00000030: 0000 0000 426e 27bd 7973 6a3c 0000 0000
00000040: 947a a2bc 5c02 4bbc 0000 0000 ce12 dcbc
00000050: 3d75 50bc c3b0 80bc 424a fcbc 0000 0000
00000060: 3820 a2bc bd68 59bc 3e20 f3bb 50ad d5bc
00000070: 246a 0dbc fff8 01bd a749 9cba 0000 0000
00000080: 25c3 53bb b066 09bd b2ef 01bd 1e5e d4bb
00000090: 853a 34bc 1708 9ebc dac9 c4bb 7f82 e7bc
000000a0: 3c9b 433c 71b1 b33c 4ad1 f7bb f832 0abc
000000b0: 01dc a3bc 052d d4bb 80a7 17bc 8bfa 1bbd
000000c0: 0000 0000 6480 1ebd 0000 0000 65ac 72bb
000000d0: f710 843c 6271 ffbc 741a 30bc ea64 a3bc
000000e0: bd48 ab3a c8e3 debc c785 0ebd 0000 0000
000000f0: ac21 023d ac3e 42bc b73e 09bd 0ec5 05bd
0.024632242 -0.009651946 0.0 -0.011854349 -0.023592621 0.0 0.0 0.0
-0.0072202743 0.020212958 -0.020032093 -0.02639175 0.0 -0.040876634 0.014309757 0.0
-0.01983384 -0.012390699 0.0 -0.026864436 -0.012723264 -0.015709287 -0.030797128 0.0
-0.019790754 -0.0132696 -0.007419615 -0.026083618 -0.008631263 -0.0317316 -0.0011923806 0.0
-0.003231236 -0.033545196 -0.031722732 -0.006480946 -0.01100028 -0.019290967 -0.006005508 -0.028260468
0.011938866 0.021935197 -0.007562791 -0.008435003 -0.020002367 -0.0064750933 -0.009256244 -0.038080733
0.0 -0.03869666 0.0 -0.0037029025 0.01612137 -0.031181995 -0.010748494 -0.01994558
0.0013067942 -0.027208224 -0.03479555 0.0 0.031770393 -0.011855762 -0.033507075 -0.03265863

net.4.weight f4 [16, 64]
00000000: 968b 5e3e 2fd4 72bd d87e 853e 51de 31be
00000010: 212c 70be 9510 34be a18c 46be 3b01 243e
00000020: d354 013e 4ca2 b5bd e9ba 963e 31d0 fcbd
00000030: 1f1b 85be 005a d4bd f779 4dbe 9a21 4bbe
00000040: 13a5 16be 1d4d 6c3e 1b3c cabc f75b 253e
00000050: c063 e6bd fbbf 703e 688e 16bd b385 4dbe
00000060: e9f8 453d 5e34 10be 084b 04be 0594 2cbd
00000070: 1978 f4bd e7cf 43bd 83c0 6e3c 6cfb 19bd
00000080: df62 803b b995 cd3d 9a54 b6bb 8bbf 0dbe
00000090: 8e1d e5bd 34f5 5bbe 841d 883e 18ae e9bd
000000a0: c900 1fbd 2073 803e 291c ea3d b256 ec3d
000000b0: 7b7b 40bd ce4d 873e fddd 853d 27b5 5b3e
000000c0: ea35 67bc d1af 82be c9df 553d d793 a33c
000000d0: 40d5 0f3e dcb2 5d3d 29a6 983d 0800 a13d
000000e0: 7564 443e 8cda 3bbe 859b 36be 099f 8b3e
000000f0: eb66 39be f941 e5bc 970a e43d 90a1 4d3e
00000100: 39ec 013e 98f9 9e3d 156e ab3d 8354 173e
00000110: c5b5 0c3d d9b7 6f3e 7879 d93d 9e42 6a3e
00000120: f0d4 4a3e 2cfe 853d 89a2 13be 10fd f9bd
00000130: 1575 8a3e 1692 b7bc e1b1 2e3c 2590 d7b9
00000140: f058 3a3e e6a0 8e3d b4cd 85be 58fd d2bd
00000150: ad98 28bc 5827 01be 634b 43be 51ff c0bc
00000160: 070a 1d3e 5e61 763d 6b12 123e 6ad9 863d
00000170: dc07 593e c516 72be fcad 5dbe 45ee c83b
00000180: 57da 813e 9dbd fc3d 8ff2 38be df9d 9b3c
00000190: 1114 153e 7cd3 0dbe f3cb bb3c aeef d63d
000001a0: f2da acbd 49f6 cdbc 9e15 4fbe 472f 873e
000001b0: 32ba 57be d56f 8c3e 370a 74be 6d3a fe3d
000001c0: 5549 7bbc 22ad 21be 0b92 ffbd 7b60 203e
000001d0: 40e7 583e f2cc 3f3e 1fc9 35be 8ecf 003e
000001e0: 7340 6a3e b68c df3c 2fa4 493d cb68 3c3d
000001f0: d65f 56be d127 503d b72d 59be 0d91 393e
00000200: fabf 833c 8e65 9cbe 9067 833e c639 2abe
00000210: 49bb 133d f424 563e db2c 8bbd cb7a c53d
00000220: b3e4 e83d 5fad 49be d645 5c3e ca8c 97be
00000230: 0bd0 8bbd 263f 623d 6f91 99be e7c5 473e
00000240: a195 3dbe c780 463d 59c8 6bbe be59 84be
00000250: 0ad1 d0bc f9f2 0dbe d557 42bc 4973 3ebe
00000260: 120e 3dbe 33b5 01be 1aac 523e b82e 4e3e
00000270: 81a0 3a3e 7404 9d3c 0f5f 74bd a6d8 11be
00000280: 8cdc ebbd 6aca 4fbe 72de 083e e713 d13d
00000290: 1427 88bc 00a0 373e 8832 dc3d fad8 723c
000002a0: 8f65 0bbe 55fc 773d 6456 233d 377d 6a3e
000002b0: 10b5 a4bd 91ef b63d 4db9 9bbe f0dc 80be
000002c0: fe49 693d 935b e4bd 846e 8dbc b750 70bd
000002d0: e3d7 f63d d744 3dbd 88aa 6e3e 375c 6dbe
000002e0: 118a 35bd 1160 82be 7205 77bc a0e8 fabd
000002f0: be3e 9ebe c193 e4bd 9cb2 163e 5d54 0d3d
00000300: c0c1 093e ac63 a03d 2d6a 233e 1e1c 53bd
00000310: b2cb ae3d 780a df3d 97cb 2bbe 0814 62bd
00000320: 0d87 bebd f14f fbbd 9c6e 05be 1962 353e
00000330: f986 ad3d b600 8fbe 9ba1 633e db28 533e
00000340: 1843 9fbd 3670 eb3d efb8 82be 0736 9ebd
00000350: cc53 483e c832 303e 7b5a 0f3d 0b39 46be
00000360: 6424 70be e787 f53d 132d 2ebd 6d34 44be
00000370: ff33 11be 6ffe 583e 0405 0a3e ede5 76be
00000380: 9fd7 8e3d f3fd 843d e646 b7bb b1e6 043e
00000390: 0d5a 81bd 9c26 263d 9c06 a53d 8ec7 6fbe
000003a0: 37b6 b43d e7c0 d73d 466f 6e3e fa28 33be
000003b0: 5086 573e 1b13 8f3c ef12 3e3e 1be0 20bd
000003c0: c40a 59be c824 06be 30e8 783e 28e0 ef3a
000003d0: 3bf7 1cbe 817e 093e fc62 0bbe 9f16 2b3e
000003e0: fee3 b93d 85d2 3bbd 167f 51bd 2279 063e
000003f0: 21de 003e 6acd 693e a0e6 383e c72d 80bd
0.21732935 -0.059284385 0.26073337 -0.17369963 -0.23454334 -0.1758445 -0.19389583 0.16016094
0.12630014 -0.08868846 0.29439476 -0.12344397 -0.25997254 -0.10368729 -0.20066057 -0.19837037
-0.14711408 0.23076291 -0.024686864 0.16148363 -0.112494946 0.23510735 -0.036756903 -0.20070533
0.048333082 -0.14082476 -0.12919247 -0.04213335 -0.11936969 -0.047805693 0.014572266 -0.03759329
0.0039180364 0.10038323 -0.0055642845 -0.13842599 -0.11187278 -0.21480256 0.2658502 -0.11410159
-0.03881911 0.25087833 0.114311524 0.11539973 -0.04699276 0.26426548 0.065364815 0.21455823
-0.014111975 -0.25524762 0.05221537 0.019967956 0.14046192 0.05412565 0.074535675 0.07861334
0.19178946 -0.18345088 -0.17832763 0.27269772 -0.18105666 -0.02798556 0.11134832 0.20081162
0.12687768 0.0776245 0.08370606 0.14778332 0.034353036 0.23409976 0.106188715 0.22876975
0.19807792 0.0654262 -0.14417471 -0.12206471 0.27042452 -0.022408526 0.010662527 -0.00041115392
0.1819799 0.06964283 -0.26133502 -0.10302228 -0.010290307 -0.12612665 -0.19071727 -0.023559244
0.15335856 0.06015145 0.14264838 0.06584437 0.21194404 -0.23641498 -0.21648401 0.0061319196
0.25361893 0.12340853 -0.18061279 0.018996177 0.14558436 -0.13850206 0.022924399 0.10494934
-0.08440198 -0.025141852 -0.2022309 0.26403257 -0.21067122 0.2742907 -0.23832022 0.124134876
-0.015337308 -0.15788701 -0.12479027 0.15661804 0.21181965 0.18730524 -0.17752503 0.12579176
0.22876148 0.027288776 0.049228843 0.045998376 -0.20934996 0.050819222 -0.21208845 0.18121739
0.016082752 -0.3054623 0.2566495 -0.16623601 0.03606728 0.20912534 -0.06795665 0.096425615
0.11371746 -0.19695042 0.21511015 -0.295996 -0.068267904 0.055236004 -0.2999377 0.19509088
-0.1851411 0.048462655 -0.23025645 -0.25849718 -0.025490303 -0.13862218 -0.011861761 -0.18598665
-0.18462399 -0.12666778 0.20573464 0.2013501 0.1822529 0.019167162 -0.059660967 -0.14242801
-0.11516675 -0.20292059 0.13366106 0.10208874 -0.016620196 0.17932129 0.107518256 0.014822239
-0.1361296 0.060543377 0.03987731 0.22899328 -0.080423474 0.089324124 -0.3041481 -0.25168562
0.05695533 -0.11150279 -0.017264612 -0.058670726 0.12052896 -0.04620823 0.2330724 -0.23179708
-0.044321124 -0.25463918 -0.015076982 -0.12251401 -0.30907243 -0.11160994 0.14716572 0.034504283
0.13452816 0.07831511 0.15958472 -0.051540487 0.085349455 0.10890669 -0.16776882 -0.055194885
-0.09303103 -0.12271107 -0.13030475 0.17713203 0.084730096 -0.2793023 0.22229616 0.20621054
-0.07776469 0.11496012 -0.25531718 -0.07725149 0.19563216 0.17206872 0.0349984 -0.19357698
-0.23451382 0.11988812 -0.042523455 -0.19160624 -0.14179991 0.21190809 0.13478476 -0.24111147
0.0697472 0.064937495 -0.0055931685 0.12978627 -0.06316004 0.040564165 0.08057901 -0.23415968
0.08823817 0.1053484 0.23284635 -0.174961 0.2104733 0.017465165 0.1856191 -0.039276224
-0.21195513 -0.13099968 0.24307323 0.0018301057 -0.15328686 0.13427164 -0.13611978 0.16707848
0.09076689 -0.045855064 -0.05114659 0.13132146 0.12584735 0.22832265 0.18056726 -0.06258731

net.4.bias f4 [16]
00000000: b7c6 f33c c489 6d3a 60b2 2bbd 58ed ff3c
00000010: 0000 0000 64c6 3abc 9c00 05bd 5f63 40bb
00000020: 8429 00bd f755 e83c 0000 0000 1a6f 4bbc
00000030: 0a15 c0bc 0000 0000 3234 20bc 5074 f5bc
0.02975784 0.0009061361 -0.04191816 0.031241104 0.0 -0.011399839 -0.032471284 -0.0029356105
-0.031289592 0.028361304 0.0 -0.012416625 -0.023447532 0.0 -0.009778069 -0.029962689

net.6.weight f4 [1, 16]
00000000: b5da 203e 3f49 f53e b7a5 cebe 865f b13e
00000010: f32a 08bf 731d e6bd db68 29be 3951 32bd
00000020: d838 e5be 1c48 e13d 09ae 0dbe 373c 14be
00000030: 0655 dabd 500c ad3e dacf 3fbe b599 62be
0.1570843 0.47907445 -0.40360805 0.3464319 -0.53190535 -0.11236086 -0.16543905 -0.04353449
-0.4476993 0.11000082 -0.1383592 -0.14476095 -0.10660748 0.33798456 -0.18731633 -0.22128947

exp_avg f4 [128, 48]
00000000: caa0 1abf 1174 5ebf 626e 013e 1b6a 7dbe
00000010: aa4b 0ebf 4c04 b9be 34db 4fbf 3d43 4238
00000020: 4646 ffc0 6cd6 fac0 26a0 cbbf 84ff 2640
00000030: 51d3 c4c0 8afb 16c1 a53d 34c1 0400 0080
00000040: 709a 8bbc 2b2a b6bc 06b3 86bc 9fde 94bb
00000050: b96f c5bb cb20 aebb 3947 bebc 3fb2 16ba
00000060: 3008 09ba ab58 9ab9 5f75 133a 5cb3 823c
00000070: fa06 d6bf 224c 8139 24c0 80bc 7e11 7ebc
00000080: 3b7a 9eba 5932 773e a07a 80bd 07f0 643a
00000090: 7683 043e 8c6f d13c 57c8 88b9 6232 fdba
000000a0: e1be 86bc 3b7b 87bb 049d 23bd 3f62 ff3f
000000b0: ddb9 aa3b 038e 61b7 041b 76bc d7a8 feb8
000000c0: c8f0 91be 8469 d9be f7d7 6b3d 0a20 f6bd
000000d0: 47b1 84be 394e 2cbe fcf8 c4be abab b337
000000e0: ad85 80c0 6eaf 8dc0 4c04 64bf c3f1 8b3f
000000f0: 290c 46c0 d7c0 91c0 51f2 b6c0 0400 0000
00000100: af27 03bc 653d 2ebc 7925 fcbb 19e1 12bb
00000110: 1f26 37bb 21ca 1bbb c827 34bc 6fe8 8cb9
00000120: 227b 7db9 04c2 0cb9 1756 6e39 9a5e f03b
00000130: aff9 4abf 50ec b638 032c f6bb 5b8d f4bb
00000140: da87 19ba 7f85 e13d 82d1 efbc c121 d039
00000150: 1088 6f3d bda9 3f3c 9493 05b9 8343 77ba
00000160: cc96 03bc 8beb 02bb 169b 9fbc d84c 683f
00000170: 2058 213b 8fa3 6737 94d7 e5bb a242 49b8
00000180: 0000 0000 0000 0000 0000 0000 0000 0000
00000190: 0000 0000 0000 0000 0000 0000 0000 0000
000001a0: 0000 0000 0000 0000 0000 0000 0000 0000
000001b0: 0000 0000 0000 0000 0000 0000 0000 0000
000001c0: 0000 0000 0000 0000 0000 0000 0000 0000
000001d0: 0000 0000 0000 0000 0000 0000 0000 0000
000001e0: 0000 0000 0000 0000 0000 0000 0000 0000
000001f0: 0000 0000 0000 0000 0000 0000 0000 0000
00000200: 0000 0000 0000 0000 0000 0000 0000 0000
00000210: 0000 0000 0000 0000 0000 0000 0000 0000
00000220: 0000 0000 0000 0000 0000 0000 0000 0000
00000230: 0000 0000 0000 0000 0000 0000 0000 0000
00000240: 0000 0000 0000 0000 0000 0000 0000 0000
00000250: 0000 0000 0000 0000 0000 0000 0000 0000
00000260: 0000 0000 0000 0000 0000 0000 0000 0000
00000270: 0000 0000 0000 0000 0000 0000 0000 0000
00000280: 0000 0000 0000 0000 0000 0000 0000 0000
00000290: 0000 0000 0000 0000 0000 0000 0000 0000
000002a0: 0000 0000 0000 0000 0000 0000 0000 0000
000002b0: 0000 0000 0000 0000 0000 0000 0000 0000
000002c0: 0000 0000 0000 0000 0000 0000 0000 0000
000002d0: 0000 0000 0000 0000 0000 0000 0000 0000
000002e0: 0000 0000 0000 0000 0000 0000 0000 0000
000002f0: 0000 0000 0000 0000 0000 0000 0000 0000
00000300: 46b9 cfbe c831 0fbf 5713 b63d 2cf3 24be
00000310: 33a8 c1be 4c9a 7bbe e303 0bbf a4a9 0938
00000320: c022 97c0 c7db 72c0 8e08 3ebf 4dfe 0140
00000330: 03ca 64c0 2964 bfc0 b518 d6c0 0400 0080
00000340: 24ac 3cbc 1902 70bc 38ad 37bc f503 3dbb
00000350: fcaf 85bb 1059 76bb cdd3 7ebc 1e93 ccb9
00000360: bbde bbb9 30a2 4cb9 b7d3 f939 82a9 363c
00000370: 4412 8dbf 274f 7039 f1fc 28bc 3bcc 1fbc
00000380: 17f6 4aba f3aa 2e3e fc17 2ebd 7c20 243a
00000390: 418f bd3d 1f24 953c bb06 33b9 72b2 a5ba
000003a0: 5a5c 30bc 6ff8 30bb 8519 d6bc 0e03 b73f
000003b0: 4b83 673b dcc0 1bb8 23ee 27bc 322b ccb8
000003c0: 7f1b 93be 159b ccbe 2a7a 7e3d 0751 ebbd
000003d0: 5bca 88be da95 31be fc13 c5be ec9e c237
000003e0: e357 59c0 c89e 36c0 d0cc 10bf b9f1 b33f
000003f0: 9970 24c0 c008 88c0 6864 9ac0 0000 0000
-0.60401595 -0.86895853 0.12639764 -0.24747507 -0.55584204 -0.3613609 -0.8119385 4.6315825e-05
-7.9773283 -7.8386745 -1.5908248 2.6093454 -6.1507955 -9.436411 -11.26505 -6e-45
-0.017041415 -0.022236904 -0.016442787 -0.00454314 -0.0060252813 -0.005313968 -0.023227321 -0.00057486066
-0.0005227355 -0.00029439232 0.00056250946 0.015954666 -1.6720879 0.0002466152 -0.01571662 -0.0155071
-0.0012090871 0.241403 -0.06273389 0.00087332766 0.12940773 0.025565885 -0.00026089206 -0.0019317383
-0.01644844 -0.0041345633 -0.039944664 1.9951857 0.005210145 -1.344411e-05 -0.015021089 -0.00012143113
-0.28504014 -0.42463315 0.057579007 -0.1201783 -0.25916502 -0.16826715 -0.3847121 2.1418402e-05
-4.016318 -4.4276648 -0.89069057 1.0933155 -3.0944922 -4.55479 -5.7170796 6e-45
-0.008005067 -0.010634755 -0.007694897 -0.0022412 -0.0027946306 -0.0023771601 -0.010995813 -0.00026876057
-0.00024173831 -0.00013423717 0.0002272952 0.007335496 -0.79287237 8.722453e-05 -0.007512571 -0.00746314
-0.000585673 0.110117905 -0.029274706 0.00039698 0.05847937 0.011698184 -0.00012738846 -0.0009432362
-0.008031558 -0.001997682 -0.01948313 0.90742254 0.0024619177 1.3806754e-05 -0.0070142243 -4.798419e-05
0.0 0.0 0.0 0.0 0.0 0.0 0.0 0.0
0.0 0.0 0.0 0.0 0.0 0.0 0.0 0.0
0.0 0.0 0.0 0.0 0.0 0.0 0.0 0.0
0.0 0.0 0.0 0.0 0.0 0.0 0.0 0.0
0.0 0.0 0.0 0.0 0.0 0.0 0.0 0.0
0.0 0.0 0.0 0.0 0.0 0.0 0.0 0.0
0.0 0.0 0.0 0.0 0.0 0.0 0.0 0.0
0.0 0.0 0.0 0.0 0.0 0.0 0.0 0.0
0.0 0.0 0.0 0.0 0.0 0.0 0.0 0.0
0.0 0.0 0.0 0.0 0.0 0.0 0.0 0.0
0.0 0.0 0.0 0.0 0.0 0.0 0.0 0.0
0.0 0.0 0.0 0.0 0.0 0.0 0.0 0.0
-0.4057104 -0.55935335 0.088904075 -0.16108388 -0.37823638 -0.24570578 -0.54302806 3.2821335e-05
-4.722992 -3.7946641 -0.74231803 2.0311463 -3.5748298 -5.9809766 -6.690516 -6e-45
-0.011515651 -0.014648938 -0.011210732 -0.002884147 -0.004079817 -0.0037589706 -0.015553427 -0.00039019523
-0.00035833367 -0.00019515376 0.0004765072 0.011148812 -1.1021199 0.0002291767 -0.010314212 -0.009753282
-0.0007742359 0.170574 -0.042503342 0.0006260944 0.09255839 0.0182057 -0.00017073278 -0.0012641682
-0.010764206 -0.0027003547 -0.026135216 1.4297807 0.003532606 -3.7134494e-05 -0.010249647 -9.735524e-05
-0.28731915 -0.39962068 0.062128223 -0.11490064 -0.26716885 -0.1734232 -0.3849181 2.3200606e-05
-3.3959892 -2.8534412 -0.5656252 1.4058143 -2.5693724 -4.251068 -4.8247566 0.0

exp_avg_sq f4 [128, 48]
00000000: 22d9 b244 885c 7e45 2231 1f43 1100 4843
00000010: 0ce6 b444 d872 2344 00c7 1845 a7fd 6c38
00000020: d167 804a b520 cd4a b82c 9849 72f4 ec47
00000030: 0637 8c4a fa32 504a 2e31 a34a 3cf5 3738
00000040: b9d7 6f3f c474 2c40 9912 293e 2c99 113e
00000050: 568b 733f 1973 b53e 4f13 d13f 7eb0 193a
00000060: e0f9 393a 56f0 c73b 6451 373d 240b 433d
00000070: d947 f145 4313 fa3b cd19 ce3f 760c 2341
00000080: 6397 cd3c 9670 1441 7b9a c841 9cb0 063b
00000090: 70d2 dd40 670f 3340 e3a2 3336 73b9 9a38
000000a0: 346a b63b 40f1 7e3c 93b4 5d3d 47f3 5245
000000b0: 8024 9f3c f469 053a 42bb dc3d 5a0e 9937
000000c0: 312f 8443 b4fb 4844 117c e341 e77e 2142
000000d0: b33f 8643 36dd f042 405f e443 778d f939
000000e0: 7367 3b49 b363 a249 fba8 5f48 9dfa 0747
000000f0: 0f16 4d49 50af 1749 f641 7149 88f1 ca39
00000100: 1c11 333e fabe 0a3f fda5 f63c 3f22 ed3c
00000110: 30e3 373e 5d3f 883d d4a7 9a3e 02a6 f138
00000120: 71f9 1039 cf59 973a 1ce7 053c 4c6b 4e3c
00000130: 3830 b344 6b45 b73a 1bcc a03e 3af3 fd3f
00000140: 366a a43b cde8 0440 acb5 ca41 7d5a 383a
00000150: ae1b ce3f fa0c eb41 5258 de34 94f8 7d37
00000160: 0077 8f3a 31d9 163b 1127 3b3c da79 1c46
00000170: 8073 903b f3a3 e238 c368 943d 76b2 8536
00000180: 0000 0000 0000 0000 0000 0000 0000 0000
00000190: 0000 0000 0000 0000 0000 0000 0000 0000
000001a0: 0000 0000 0000 0000 0000 0000 0000 0000
000001b0: 0000 0000 0000 0000 0000 0000 0000 0000
000001c0: 0000 0000 0000 0000 0000 0000 0000 0000
000001d0: 0000 0000 0000 0000 0000 0000 0000 0000
000001e0: 0000 0000 0000 0000 0000 0000 0000 0000
000001f0: 0000 0000 0000 0000 0000 0000 0000 0000
00000200: 0000 0000 0000 0000 0000 0000 0000 0000
00000210: 0000 0000 0000 0000 0000 0000 0000 0000
00000220: 0000 0000 0000 0000 0000 0000 0000 0000
00000230: 0000 0000 0000 0000 0000 0000 0000 0000
00000240: 0000 0000 0000 0000 0000 0000 0000 0000
00000250: 0000 0000 0000 0000 0000 0000 0000 0000
00000260: 0000 0000 0000 0000 0000 0000 0000 0000
00000270: 0000 0000 0000 0000 0000 0000 0000 0000
00000280: 0000 0000 0000 0000 0000 0000 0000 0000
00000290: 0000 0000 0000 0000 0000 0000 0000 0000
000002a0: 0000 0000 0000 0000 0000 0000 0000 0000
000002b0: 0000 0000 0000 0000 0000 0000 0000 0000
000002c0: 0000 0000 0000 0000 0000 0000 0000 0000
000002d0: 0000 0000 0000 0000 0000 0000 0000 0000
000002e0: 0000 0000 0000 0000 0000 0000 0000 0000
000002f0: 0000 0000 0000 0000 0000 0000 0000 0000
00000300: 2e0d 3844 f33e 0145 9c39 a342 031f cb42
00000310: 069b 3a44 f9a7 a843 f64f 9d44 ed8d db35
00000320: 29d3 034a 97f2 504a fe12 1c49 f712 6947
00000330: 0b6b 104a 0cc7 d649 90cc 264a 08b1 3135
00000340: f9ee f63e f443 b03f 8ccd b03d 6499 943d
00000350: f021 fc3e 6ce0 3b3e ae6a 563f 6f12 9e39
00000360: 2b75 bf39 7d4f 4d3b 535b bc3c 0b81 c23c
00000370: 908f 7745 b2aa 7e3b d8f8 543f c2e5 a840
00000380: a38e 523c 9784 9840 4a5c 4541 a827 893a
00000390: 9c53 6540 e88d 9e3f c1f8 a635 6f98 1238
000003a0: 9031 2d3b 0f5a ee3b 46ae d83c c5f2 ac44
000003b0: d1c0 293c 4546 8839 b75c 493d cc7c 1f37
000003c0: 2f1b 9d43 9dcf 5d44 d9b8 0f42 b870 2c42
000003d0: db38 9f43 3256 1043 e077 0544 f02f 2234
000003e0: 52c2 6349 7ab9 b449 e4ac 8748 9277 c946
000003f0: 0311 7949 d31a 3949 5439 9049 0000 0000
1430.7854 4069.7832 159.19193 200.00026 1447.189 653.79443 2444.4375 5.6503017e-05
4.2075925e+06 6.7216265e+06 1.246615e+06 121320.89 4.594563e+06 3.4111345e+06 5.347479e+06 4.3858992e-05
0.9368854 2.6946268 0.16511 0.14218587 0.95134485 0.35439375 1.6334018 0.0005862786
0.0007094424 0.0061016483 0.044755355 0.047618046 7720.981 0.0076316907 1.6101624 10.190542
0.0250966 9.277487 25.07543 0.0020552045 6.931938 2.797815 2.676789e-06 7.377835e-05
0.0055668596 0.015560448 0.054127287 3375.2048 0.019426584 0.00050893356 0.10777904 1.8245704e-05
264.36868 803.93286 28.43558 40.373928 268.49765 120.43205 456.74414 0.0004759838
767607.2 1.3302944e+06 229027.92 34810.613 840032.94 621301.0 988191.4 0.00038708397
0.17486995 0.5419766 0.030108446 0.028946994 0.17957759 0.066527106 0.30206168 0.00011522697
0.00013825834 0.0011547151 0.008172777 0.012598824 1433.5068 0.001398248 0.3140572 1.9839852
0.005017544 2.076709 25.338707 0.0007032527 1.6102197 29.381336 4.1414984e-07 1.5137852e-05
0.0010945499 0.002301764 0.011422888 10014.463 0.0044083 0.00010807058 0.07246544 3.9844845e-06
0.0 0.0 0.0 0.0 0.0 0.0 0.0 0.0
0.0 0.0 0.0 0.0 0.0 0.0 0.0 0.0
0.0 0.0 0.0 0.0 0.0 0.0 0.0 0.0
0.0 0.0 0.0 0.0 0.0 0.0 0.0 0.0
0.0 0.0 0.0 0.0 0.0 0.0 0.0 0.0
0.0 0.0 0.0 0.0 0.0 0.0 0.0 0.0
0.0 0.0 0.0 0.0 0.0 0.0 0.0 0.0
0.0 0.0 0.0 0.0 0.0 0.0 0.0 0.0
0.0 0.0 0.0 0.0 0.0 0.0 0.0 0.0
0.0 0.0 0.0 0.0 0.0 0.0 0.0 0.0
0.0 0.0 0.0 0.0 0.0 0.0 0.0 0.0
0.0 0.0 0.0 0.0 0.0 0.0 0.0 0.0
736.20593 2067.9343 81.61252 101.56057 746.42224 337.3123 1258.4988 1.6358077e-06
2.1598182e+06 3.4233978e+06 639279.9 59666.965 2.3661468e+06 1.7594575e+06 2.732836e+06 6.619525e-07
0.48229197 1.3770738 0.08632955 0.072558194 0.49244642 0.18347329 0.8375653 0.00030149842
0.00036517656 0.0031327896 0.022992766 0.023743173 3960.9727 0.0038859067 0.83192205 5.2780466
0.01285139 4.7661853 12.3350315 0.0010464089 3.583228 1.2387056 1.2440361e-06 3.4951077e-05
0.0026427247 0.0072739194 0.026450288 1383.5865 0.010360912 0.00025992296 0.049160685 9.506195e-06
314.21237 887.24396 35.930515 43.110077 318.44418 144.3367 533.87305 1.5104865e-07
932901.1 1.4804952e+06 277863.12 25787.785 1.0201762e+06 758189.2 1.1814825e+06 0.0

exp_avg f4 [128]
00000000: 8cfa 8c3a a464 f339 0000 0000 0000 0000
00000010: 6a2b 5a3a 9717 183a c4e5 9038 d881 f639
00000020: 0400 0000 d070 0839 c0a8 9b38 675c f9ba
00000030: aaf1 8eb9 815e cfba 3d90 16ba 95db 89b9
00000040: 0000 0000 0400 0000 0000 0000 943a 613a
00000050: 0400 0080 7c9a 5a39 0400 0000 0400 0000
00000060: 14f2 39ba 0000 0000 0400 0000 0000 0000
00000070: 0400 0000 47c3 16b9 0000 0000 0400 0000
00000080: f801 4e3a 0400 0000 0400 0000 0400 0000
00000090: 0000 0000 4e56 ed39 0400 0000 0400 0000
000000a0: 0000 0000 1775 e039 943f 37ba 0000 0000
000000b0: 0000 0000 4295 9039 0400 0080 0000 0000
000000c0: 0400 0000 2859 0639 c73b 8c3a 0000 0000
000000d0: 0000 0000 6c1e b9b8 1d17 9f39 913b b7ba
000000e0: 0000 0000 2409 f2b8 0400 0000 de1f 7c3a
000000f0: f819 f1b9 0000 0000 ca23 15b9 0400 0000
00000100: 0400 0000 0000 0000 6d9d 05b7 0400 0000
00000110: 0000 0000 3eb5 c138 611c b2b9 0000 0000
00000120: 0400 0000 0400 0000 0400 0000 76e5 68ba
00000130: 4ec9 b6ba 6373 79b9 c843 d1b9 0400 0000
00000140: 0400 0000 0000 0000 b31c 063a 0000 0000
00000150: 0400 0000 0000 0000 0400 0000 b71f 53bb
00000160: 0400 0000 ce5e d7b8 0400 0000 7e82 103a
00000170: 0400 0080 b210 12bb f2f9 8739 7b2d 973a
00000180: 20c6 13ba 4c9f 7436 0400 0000 0400 0000
00000190: 8b78 11ba 4774 873a 0000 0000 6345 6b39
000001a0: 0400 0000 0400 0000 3616 d439 0000 0000
000001b0: 0000 0000 f3ad 0eb9 0400 0080 6e48 5f3a
000001c0: 0400 0000 0400 0000 76c7 3cba d1a6 0d3a
000001d0: 0400 0000 0000 0000 0000 0000 8a41 07bb
000001e0: f843 63ba 0000 0000 27b7 8db8 a306 0200
000001f0: 69dd 6cb8 c576 b238 0400 0000 1a71 7ab8
0.0010755821 0.00046423555 0.0 0.0 0.0008322509 0.0005801855 6.909252e-05 0.00047017517
6e-45 0.00013011997 7.422408e-05 -0.001902473 -0.00027264404 -0.0015821011 -0.0005743539 -0.00026294278
0.0 6e-45 0.0 0.00085917977 -6e-45 0.0002084765 6e-45 6e-45
-0.00070932624 0.0 6e-45 0.0 6e-45 -0.00014377861 0.0 6e-45
0.000785857 6e-45 6e-45 6e-45 0.0 0.00045268465 6e-45 6e-45
0.0 0.00042811848 -0.000699037 0.0 0.0 0.00027577026 -6e-45 0.0
6e-45 0.00012812449 0.0010698967 0.0 0.0 -8.827154e-05 0.00030344064 -0.0013979544
0.0 -0.00011541162 6e-45 0.00096177857 -0.0004598645 0.0 -0.0001422308 6e-45
6e-45 0.0 -7.964071e-06 6e-45 0.0 9.236716e-05 -0.0003397195 0.0
6e-45 6e-45 6e-45 -0.000888429 -0.0013945492 -0.00023789475 -0.00039914087 6e-45
6e-45 0.0 0.0005115971 0.0 6e-45 0.0 6e-45 -0.0032214948
6e-45 -0.00010269658 6e-45 0.0005512609 -6e-45 -0.0022287783 0.0002593543 0.001153394
-0.0005637128 3.6451556e-06 6e-45 6e-45 -0.00055492733 0.0010334336 0.0 0.00022437195
6e-45 6e-45 0.0004045234 0.0 0.0 -0.00013606976 -6e-45 0.0008517568
6e-45 6e-45 -0.0007201353 0.0005403581 6e-45 0.0 0.0 -0.002063843
-0.0008669491 0.0 -6.757519e-05 1.86052e-40 -5.647299e-05 8.509824e-05 6e-45 -5.970998e-05

exp_avg_sq f4 [128]
00000000: c728 393d d523 133c 0000 0000 0000 0000
00000010: a19e bc3c 76ff 223c 6017 0b3b 6ce0 503b
00000020: bcbf 5e39 f33d 373a 859c 153a 6493 2d3e
00000030: 5b1e 1f3c 2c26 b33d cc9b a93c fd0c 103b
00000040: 0000 0000 cbea 863b 0000 0000 fc40 d53d
00000050: c7b1 b838 dcad 763a a0c4 8738 4d85 fa3a
00000060: b2c9 ce3c 0000 0000 5045 b539 0000 0000
00000070: c4fd 453b 850f 953b 0000 0000 99ed ae38
00000080: 0479 273d 3b10 a739 512a b337 f274 9737
00000090: 0000 0000 fbe4 2f3c 9930 bc38 b6d1 8c2a
000000a0: 0000 0000 0a5f 463c b877 c03c 0000 0000
000000b0: 0000 0000 fc49 853b d644 ac37 0000 0000
000000c0: 358e a335 3524 163b ca4a 7a3d 0000 0000
000000d0: 0000 0000 f39d 923a 674d a13b a84c bc3d
000000e0: 0000 0000 0407 923a 89e6 0439 5a2c 673d
000000f0: 0c50 553c 0000 0000 7247 c13b e5e6 c73a
00000100: 1c44 033a 0000 0000 960c 5a3a 0fb4 e239
00000110: 0000 0000 257d 113b 0a1b c53b 0000 0000
00000120: 4d02 5f32 910d 353a 7b48 6937 a739 7f3c
00000130: fd59 a73d 33e4 bf3b 11a2 b53b 2852 d837
00000140: a1b8 8b39 0000 0000 9665 703c 0000 0000
00000150: a2b0 4431 0000 0000 6dfc 3632 54fc 083e
00000160: 9f2e ce37 d5dc 103b 2bfa 0139 7046 0b3c
00000170: 464c 823b 1541 873b 323d 733b 340b 343d
00000180: 075c 903c 3d8f 8c3b 3f3e 2739 b1bb da38
00000190: f064 903c 50a4 7a3d 0000 0000 32f3 4c3b
000001a0: f06d 6734 a817 8c34 e006 a73b 0000 0000
000001b0: 0000 0000 8190 583b 8b82 5738 a454 113d
000001c0: 0da8 ec32 ca2d 2a3b ef9a d93c 4e40 623c
000001d0: 6b08 1f34 0000 0000 0000 0000 4d37 403e
000001e0: 79ec 043d 0000 0000 5b50 b53a 290c 8f32
000001f0: f586 a13a 9f49 363b b981 7439 c2f0 be3b
0.045204904 0.008980711 0.0 0.0 0.023024859 0.009948602 0.002122365 0.0031872047
0.00021242996 0.0006990127 0.0005707222 0.16950756 0.009711827 0.08747515 0.020704173 0.0021980398
0.0 0.004117345 0.0 0.104127854 8.806917e-05 0.00094100623 6.473926e-05 0.0019113213
0.02524266 0.0 0.00034574652 0.0 0.003021107 0.004548969 0.0 8.3412226e-05
0.040886894 0.00031864815 2.1358168e-05 1.805506e-05 0.0 0.010735746 8.9735906e-05 2.5014512e-13
0.0 0.01210762 0.023494586 0.0 0.0 0.0040676575 2.0536052e-05 0.0
1.2185834e-06 0.0022909765 0.06110648 0.0 0.0 0.0011185989 0.004922557 0.091943085
0.0 0.0011141007 0.00012674382 0.05643878 0.013019573 0.0 0.0058984095 0.0015251307
0.00050074025 0.0 0.00083179155 0.00043240233 0.0 0.0022199836 0.006015186 0.0
1.29808315e-08 0.00069066236 1.3904758e-05 0.01557771 0.08171461 0.005856061 0.0055430015 2.5787464e-05
0.00026649705 0.0 0.0146726575 0.0 2.8622158e-09 0.0 1.0651189e-08 0.13377506
2.4578823e-05 0.0022104282 0.00012395594 0.00850068 0.0039763777 0.0041276314 0.0037115333 0.043955997
0.017622007 0.0042895363 0.0001594955 0.0001043001 0.017626256 0.061191857 0.0 0.0031272885
2.1553547e-07 2.6094244e-07 0.005097255 0.0 0.0 0.0033045115 5.1381572e-05 0.03548111
2.7550437e-08 0.0025967234 0.026563136 0.013809277 1.4811091e-07 0.0 0.0 0.18771096
0.03245208 0.0 0.0013833152 1.665292e-08 0.0012323546 0.0027814878 0.00023317979 0.0058270404

exp_avg f4 [64, 128]
00000000: d7e1 8b40 9408 9c3f 0000 0000 0000 0000
00000010: 221a 8040 5631 dd40 7060 0541 92e2 4b40
00000020: 0400 0000 97fc 08c0 6c6c de40 b39c ca40
00000030: ea8e 0b41 6234 c740 95aa 9740 3885 8940
00000040: 0000 0000 0400 0000 0000 0000 b260 73c0
00000050: 0400 0000 8234 0140 0400 0000 0400 0080
00000060: e131 d840 0000 0000 0400 0000 0000 0000
00000070: 0400 0000 2759 b540 0000 0000 0400 0000
00000080: 5d76 a73f 0400 0000 0400 0000 0400 0000
00000090: 0000 0000 734d db40 0400 0000 0400 0000
000000a0: 0000 0000 b6e2 3340 c04c 0041 0000 0000
000000b0: 0000 0000 7595 3740 0400 0000 0000 0000
000000c0: 0400 0080 1cac 0d41 25dd 0e41 0000 0000
000000d0: 0000 0000 8e7a 7740 d76c fa40 eb65 3abf
000000e0: 0000 0000 d06b 35c0 0400 0000 ced0 7340
000000f0: 49fc 8340 0000 0000 8f32 613f 0400 0000
00000100: 0400 0000 0000 0000 0a9b a540 0400 0000
00000110: 0000 0000 c6d4 693f afb2 22bf 0000 0000
00000120: 0400 0080 0400 0000 0400 0000 2ba5 bbbf
00000130: b85e a740 b4d3 06bf e116 33c0 0400 0000
00000140: 0400 0080 0000 0000 ae57 2740 0000 0000
00000150: 0400 0000 0000 0000 0400 0080 28ab 57c0
00000160: 0400 0080 2e64 9a3f 0400 0000 6ea6 b740
00000170: 0400 0080 69b0 34c1 934e ad40 fce9 9a40
00000180: 0d3b 2240 9891 9cbf 0400 0000 0400 0000
00000190: e35b b240 3d73 2041 0000 0000 117b db3f
000001a0: 0400 0000 0400 0080 7517 2a40 0000 0000
000001b0: 0000 0000 c56e a440 0400 0000 4fda e940
000001c0: 0400 0000 0400 0080 87c9 953f 6b3d a540
000001d0: 0400 0080 0000 0000 0000 0000 35a6 d540
000001e0: 2700 efbf 0000 0000 b7c4 79bf 5bd8 1182
000001f0: afe9 1641 9ca3 4a40 0400 0080 b5ea 4e40
00000200: 0400 0080 0400 0080 0000 0000 0000 0000
00000210: 0400 0000 0400 0000 0400 0080 0400 0000
00000220: 0400 0000 0400 0000 0400 0080 0400 0080
00000230: 0400 0080 0400 0080 0400 0080 0400 0080
00000240: 0000 0000 0400 0000 0000 0000 0400 0000
00000250: 0400 0000 0400 0000 0400 0000 0400 0080
00000260: 0400 0080 0000 0000 0400 0000 0000 0000
00000270: 0400 0080 0400 0080 0000 0000 0400 0000
00000280: 0400 0080 0400 0000 0400 0000 0400 0000
00000290: 0000 0000 0400 0080 0400 0000 0400 0080
000002a0: 0000 0000 0400 0080 0400 0000 0000 0000
000002b0: 0000 0000 0400 0080 0400 0000 0000 0000
000002c0: 0000 0000 0400 0080 0400 0080 0000 0000
000002d0: 0000 0000 0400 0080 0400 0000 0400 0000
000002e0: 0000 0000 0400 0080 0400 0000 0400 0080
000002f0: 0400 0080 0000 0000 0400 0080 0400 0080
00000300: 0400 0000 0000 0000 0400 0080 0400 0080
00000310: 0000 0000 0400 0080 0400 0080 0000 0000
00000320: 0000 0000 0400 0000 0400 0000 0400 0080
00000330: 0400 0080 0400 0080 0400 0080 0400 0000
00000340: 0400 0080 0000 0000 0400 0000 0000 0000
00000350: 0400 0000 0000 0000 0400 0080 0400 0000
00000360: 0400 0080 0400 0080 0400 0000 0400 0000
00000370: 0400 0080 0400 0080 0400 0000 0400 0080
00000380: 0400 0080 0400 0080 0400 0000 0400 0000
00000390: 0400 0080 0400 0080 0000 0000 0400 0080
000003a0: 0400 0000 0000 0000 0400 0080 0000 0000
000003b0: 0000 0000 0400 0080 0400 0000 0400 0080
000003c0: 0000 0000 0400 0000 0400 0080 0400 0080
000003d0: 0000 0000 0000 0000 0000 0000 0400 0080
000003e0: 0400 0080 0000 0000 0400 0000 0000 0000
000003f0: 0400 0080 0400 0080 0400 0080 0400 0080
4.3713183 1.2190118 0.0 0.0 4.00319 6.9122725 8.336044 3.1857038
6e-45 -2.1404169 6.950735 6.3316283 8.722391 6.2251444 4.739573 4.297512
0.0 6e-45 0.0 -3.8027768 6e-45 2.0188298 6e-45 -6e-45
6.7560887 0.0 6e-45 0.0 6e-45 5.667133 0.0 6e-45
1.3082997 6e-45 6e-45 6e-45 0.0 6.8532043 6e-45 6e-45
0.0 2.8107123 8.018738 0.0 0.0 2.8684971 6e-45 0.0
-6e-45 8.854519 8.92899 0.0 0.0 3.8668551 7.825786 -0.72811764
0.0 -2.8347054 6e-45 3.8096194 4.1245465 0.0 0.8796777 6e-45
6e-45 0.0 5.1751757 6e-45 0.0 0.9134029 -0.635539 0.0
-6e-45 6e-45 6e-45 -1.465978 5.2303123 -0.52666783 -2.7982714 6e-45
-6e-45 0.0 2.6147265 0.0 6e-45 0.0 -6e-45 -3.3698215
-6e-45 1.2061822 6e-45 5.739066 -6e-45 -11.293069 5.4158416 4.8410625
2.5348542 -1.2231932 6e-45 6e-45 5.5737166 10.028134 0.0 1.7146932
6e-45 -6e-45 2.6576817 0.0 0.0 5.1385217 6e-45 7.307899
6e-45 -6e-45 1.1702126 5.1637473 -6e-45 0.0 0.0 6.676539
-1.8671921 0.0 -0.9756579 -1.0715009e-37 9.432052 3.166236 -6e-45 3.2330754
-6e-45 -6e-45 0.0 0.0 6e-45 6e-45 -6e-45 6e-45
6e-45 6e-45 -6e-45 -6e-45 -6e-45 -6e-45 -6e-45 -6e-45
0.0 6e-45 0.0 6e-45 6e-45 6e-45 6e-45 -6e-45
-6e-45 0.0 6e-45 0.0 -6e-45 -6e-45 0.0 6e-45
-6e-45 6e-45 6e-45 6e-45 0.0 -6e-45 6e-45 -6e-45
0.0 -6e-45 6e-45 0.0 0.0 -6e-45 6e-45 0.0
0.0 -6e-45 -6e-45 0.0 0.0 -6e-45 6e-45 6e-45
0.0 -6e-45 6e-45 -6e-45 -6e-45 0.0 -6e-45 -6e-45
6e-45 0.0 -6e-45 -6e-45 0.0 -6e-45 -6e-45 0.0
0.0 6e-45 6e-45 -6e-45 -6e-45 -6e-45 -6e-45 6e-45
-6e-45 0.0 6e-45 0.0 6e-45 0.0 -6e-45 6e-45
-6e-45 -6e-45 6e-45 6e-45 -6e-45 -6e-45 6e-45 -6e-45
-6e-45 -6e-45 6e-45 6e-45 -6e-45 -6e-45 0.0 -6e-45
6e-45 0.0 -6e-45 0.0 0.0 -6e-45 6e-45 -6e-45
0.0 6e-45 -6e-45 -6e-45 0.0 0.0 0.0 -6e-45
-6e-45 0.0 6e-45 0.0 -6e-45 -6e-45 -6e-45 -6e-45
